…
I0619 11:23:57.094619  4268 net.cpp:313] The NetState phase (0) differed from the phase (1) specified by a rule in layer accuracy
I0619 11:23:57.095312  4268 net.cpp:49] Initializing net from parameters: 
name: "ResNet"
state {
  phase: TRAIN
}
layer {
  name: "resnet"
  type: "Data"
  top: "data"
  top: "label"
  include {
    phase: TRAIN
  }
  transform_param {
    mean_file: "/home/takeki/caffe/examples/cifar10/mean.binaryproto"
  }
  data_param {
    source: "/home/takeki/caffe/examples/cifar10/cifar10_train_lmdb"
    batch_size: 128
    backend: LMDB
  }
}
layer {
  name: "conv0"
  type: "Convolution"
  bottom: "data"
  top: "conv0"
  param {
    lr_mult: 1
  }
  param {
    lr_mult: 2
  }
  convolution_param {
    num_output: 16
    pad: 1
    kernel_size: 3
    stride: 1
    weight_filler {
      type: "msra"
    }
    bias_filler {
      type: "constant"
    }
  }
}
layer {
  name: "bn_a_1_1"
  type: "BatchNorm"
  bottom: "conv0"
  top: "bn_a_1_1"
  param {
    lr_mult: 0
  }
  param {
    lr_mult: 0
  }
  param {
    lr_mult: 0
  }
  batch_norm_param {
    use_global_stats: false
  }
}
layer {
  name: "sc_a_1_1"
  type: "Scale"
  bottom: "bn_a_1_1"
  top: "sc_a_1_1"
  scale_param {
    bias_term: true
  }
}
layer {
  name: "relu_a_1_1"
  type: "ReLU"
  bottom: "sc_a_1_1"
  top: "relu_a_1_1"
}
layer {
  name: "conv_a_1_1"
  type: "Convolution"
  bottom: "relu_a_1_1"
  top: "conv_a_1_1"
  param {
    lr_mult: 1
    decay_mult: 1
  }
  param {
    lr_mult: 2
    decay_mult: 1
  }
  convolution_param {
    num_output: 64
    pad: 1
    kernel_size: 3
    stride: 1
    weight_filler {
      type: "msra"
    }
    bias_filler {
      type: "constant"
    }
  }
}
layer {
  name: "bn_a_1_2"
  type: "BatchNorm"
  bottom: "conv_a_1_1"
  top: "bn_a_1_2"
  param {
    lr_mult: 0
  }
  param {
    lr_mult: 0
  }
  param {
    lr_mult: 0
  }
  batch_norm_param {
    use_global_stats: false
  }
}
layer {
  name: "sc_a_1_2"
  type: "Scale"
  bottom: "bn_a_1_2"
  top: "sc_a_1_2"
  scale_param {
    bias_term: true
  }
}
layer {
  name: "relu_a_1_2"
  type: "ReLU"
  bottom: "sc_a_1_2"
  top: "relu_a_1_2"
}
layer {
  name: "conv_a_1_2"
  type: "Convolution"
  bottom: "relu_a_1_2"
  top: "conv_a_1_2"
  param {
    lr_mult: 1
    decay_mult: 1
  }
  param {
    lr_mult: 2
    decay_mult: 1
  }
  convolution_param {
    num_output: 64
    pad: 1
    kernel_size: 3
    stride: 1
    weight_filler {
      type: "msra"
    }
    bias_filler {
      type: "constant"
    }
  }
}
layer {
  name: "res_a"
  type: "Convolution"
  bottom: "conv0"
  top: "res_a"
  param {
    lr_mult: 1
    decay_mult: 1
  }
  param {
    lr_mult: 2
    decay_mult: 1
  }
  convolution_param {
    num_output: 64
    pad: 0
    kernel_size: 1
    stride: 1
    weight_filler {
      type: "msra"
    }
    bias_filler {
      type: "constant"
    }
  }
}
layer {
  name: "elt_a_1"
  type: "Eltwise"
  bottom: "res_a"
  bottom: "conv_a_1_2"
  top: "elt_a_1"
  eltwise_param {
    operation: SUM
  }
}
layer {
  name: "bn_b_1_1"
  type: "BatchNorm"
  bottom: "conv0"
  top: "bn_b_1_1"
  param {
    lr_mult: 0
  }
  param {
    lr_mult: 0
  }
  param {
    lr_mult: 0
  }
  batch_norm_param {
    use_global_stats: false
  }
}
layer {
  name: "sc_b_1_1"
  type: "Scale"
  bottom: "bn_b_1_1"
  top: "sc_b_1_1"
  scale_param {
    bias_term: true
  }
}
layer {
  name: "relu_b_1_1"
  type: "ReLU"
  bottom: "sc_b_1_1"
  top: "relu_b_1_1"
}
layer {
  name: "conv_b_1_1"
  type: "Convolution"
  bottom: "relu_b_1_1"
  top: "conv_b_1_1"
  param {
    lr_mult: 1
    decay_mult: 1
  }
  param {
    lr_mult: 2
    decay_mult: 1
  }
  convolution_param {
    num_output: 64
    pad: 1
    kernel_size: 3
    stride: 1
    weight_filler {
      type: "msra"
    }
    bias_filler {
      type: "constant"
    }
  }
}
layer {
  name: "bn_b_1_2"
  type: "BatchNorm"
  bottom: "conv_b_1_1"
  top: "bn_b_1_2"
  param {
    lr_mult: 0
  }
  param {
    lr_mult: 0
  }
  param {
    lr_mult: 0
  }
  batch_norm_param {
    use_global_stats: false
  }
}
layer {
  name: "sc_b_1_2"
  type: "Scale"
  bottom: "bn_b_1_2"
  top: "sc_b_1_2"
  scale_param {
    bias_term: true
  }
}
layer {
  name: "relu_b_1_2"
  type: "ReLU"
  bottom: "sc_b_1_2"
  top: "relu_b_1_2"
}
layer {
  name: "conv_b_1_2"
  type: "Convolution"
  bottom: "relu_b_1_2"
  top: "conv_b_1_2"
  param {
    lr_mult: 1
    decay_mult: 1
  }
  param {
    lr_mult: 2
    decay_mult: 1
  }
  convolution_param {
    num_output: 64
    pad: 1
    kernel_size: 3
    stride: 1
    weight_filler {
      type: "msra"
    }
    bias_filler {
      type: "constant"
    }
  }
}
layer {
  name: "res_b"
  type: "Convolution"
  bottom: "conv0"
  top: "res_b"
  param {
    lr_mult: 1
    decay_mult: 1
  }
  param {
    lr_mult: 2
    decay_mult: 1
  }
  convolution_param {
    num_output: 64
    pad: 0
    kernel_size: 1
    stride: 1
    weight_filler {
      type: "msra"
    }
    bias_filler {
      type: "constant"
    }
  }
}
layer {
  name: "elt_b_1"
  type: "Eltwise"
  bottom: "res_b"
  bottom: "conv_b_1_2"
  top: "elt_b_1"
  eltwise_param {
    operation: SUM
  }
}
layer {
  name: "bn_c_1_1"
  type: "BatchNorm"
  bottom: "conv0"
  top: "bn_c_1_1"
  param {
    lr_mult: 0
  }
  param {
    lr_mult: 0
  }
  param {
    lr_mult: 0
  }
  batch_norm_param {
    use_global_stats: false
  }
}
layer {
  name: "sc_c_1_1"
  type: "Scale"
  bottom: "bn_c_1_1"
  top: "sc_c_1_1"
  scale_param {
    bias_term: true
  }
}
layer {
  name: "relu_c_1_1"
  type: "ReLU"
  bottom: "sc_c_1_1"
  top: "relu_c_1_1"
}
layer {
  name: "conv_c_1_1"
  type: "Convolution"
  bottom: "relu_c_1_1"
  top: "conv_c_1_1"
  param {
    lr_mult: 1
    decay_mult: 1
  }
  param {
    lr_mult: 2
    decay_mult: 1
  }
  convolution_param {
    num_output: 64
    pad: 1
    kernel_size: 3
    stride: 1
    weight_filler {
      type: "msra"
    }
    bias_filler {
      type: "constant"
    }
  }
}
layer {
  name: "bn_c_1_2"
  type: "BatchNorm"
  bottom: "conv_c_1_1"
  top: "bn_c_1_2"
  param {
    lr_mult: 0
  }
  param {
    lr_mult: 0
  }
  param {
    lr_mult: 0
  }
  batch_norm_param {
    use_global_stats: false
  }
}
layer {
  name: "sc_c_1_2"
  type: "Scale"
  bottom: "bn_c_1_2"
  top: "sc_c_1_2"
  scale_param {
    bias_term: true
  }
}
layer {
  name: "relu_c_1_2"
  type: "ReLU"
  bottom: "sc_c_1_2"
  top: "relu_c_1_2"
}
layer {
  name: "conv_c_1_2"
  type: "Convolution"
  bottom: "relu_c_1_2"
  top: "conv_c_1_2"
  param {
    lr_mult: 1
    decay_mult: 1
  }
  param {
    lr_mult: 2
    decay_mult: 1
  }
  convolution_param {
    num_output: 64
    pad: 1
    kernel_size: 3
    stride: 1
    weight_filler {
      type: "msra"
    }
    bias_filler {
      type: "constant"
    }
  }
}
layer {
  name: "res_c"
  type: "Convolution"
  bottom: "conv0"
  top: "res_c"
  param {
    lr_mult: 1
    decay_mult: 1
  }
  param {
    lr_mult: 2
    decay_mult: 1
  }
  convolution_param {
    num_output: 64
    pad: 0
    kernel_size: 1
    stride: 1
    weight_filler {
      type: "msra"
    }
    bias_filler {
      type: "constant"
    }
  }
}
layer {
  name: "elt_c_1"
  type: "Eltwise"
  bottom: "res_c"
  bottom: "conv_c_1_2"
  top: "elt_c_1"
  eltwise_param {
    operation: SUM
  }
}
layer {
  name: "bn_d_1_1"
  type: "BatchNorm"
  bottom: "elt_a_1"
  top: "bn_d_1_1"
  param {
    lr_mult: 0
  }
  param {
    lr_mult: 0
  }
  param {
    lr_mult: 0
  }
  batch_norm_param {
    use_global_stats: false
  }
}
layer {
  name: "sc_d_1_1"
  type: "Scale"
  bottom: "bn_d_1_1"
  top: "sc_d_1_1"
  scale_param {
    bias_term: true
  }
}
layer {
  name: "relu_d_1_1"
  type: "ReLU"
  bottom: "sc_d_1_1"
  top: "relu_d_1_1"
}
layer {
  name: "conv_d_1_1"
  type: "Convolution"
  bottom: "relu_d_1_1"
  top: "conv_d_1_1"
  param {
    lr_mult: 1
    decay_mult: 1
  }
  param {
    lr_mult: 2
    decay_mult: 1
  }
  convolution_param {
    num_output: 128
    pad: 1
    kernel_size: 3
    stride: 2
    weight_filler {
      type: "msra"
    }
    bias_filler {
      type: "constant"
    }
  }
}
layer {
  name: "bn_d_1_2"
  type: "BatchNorm"
  bottom: "conv_d_1_1"
  top: "bn_d_1_2"
  param {
    lr_mult: 0
  }
  param {
    lr_mult: 0
  }
  param {
    lr_mult: 0
  }
  batch_norm_param {
    use_global_stats: false
  }
}
layer {
  name: "sc_d_1_2"
  type: "Scale"
  bottom: "bn_d_1_2"
  top: "sc_d_1_2"
  scale_param {
    bias_term: true
  }
}
layer {
  name: "relu_d_1_2"
  type: "ReLU"
  bottom: "sc_d_1_2"
  top: "relu_d_1_2"
}
layer {
  name: "conv_d_1_2"
  type: "Convolution"
  bottom: "relu_d_1_2"
  top: "conv_d_1_2"
  param {
    lr_mult: 1
    decay_mult: 1
  }
  param {
    lr_mult: 2
    decay_mult: 1
  }
  convolution_param {
    num_output: 128
    pad: 1
    kernel_size: 3
    stride: 1
    weight_filler {
      type: "msra"
    }
    bias_filler {
      type: "constant"
    }
  }
}
layer {
  name: "res_d"
  type: "Convolution"
  bottom: "elt_a_1"
  top: "res_d"
  param {
    lr_mult: 1
    decay_mult: 1
  }
  param {
    lr_mult: 2
    decay_mult: 1
  }
  convolution_param {
    num_output: 128
    pad: 0
    kernel_size: 1
    stride: 2
    weight_filler {
      type: "msra"
    }
    bias_filler {
      type: "constant"
    }
  }
}
layer {
  name: "elt_d_1"
  type: "Eltwise"
  bottom: "res_d"
  bottom: "conv_d_1_2"
  top: "elt_d_1"
  eltwise_param {
    operation: SUM
  }
}
layer {
  name: "bn_f_1_1"
  type: "BatchNorm"
  bottom: "elt_b_1"
  top: "bn_f_1_1"
  param {
    lr_mult: 0
  }
  param {
    lr_mult: 0
  }
  param {
    lr_mult: 0
  }
  batch_norm_param {
    use_global_stats: false
  }
}
layer {
  name: "sc_f_1_1"
  type: "Scale"
  bottom: "bn_f_1_1"
  top: "sc_f_1_1"
  scale_param {
    bias_term: true
  }
}
layer {
  name: "relu_f_1_1"
  type: "ReLU"
  bottom: "sc_f_1_1"
  top: "relu_f_1_1"
}
layer {
  name: "conv_f_1_1"
  type: "Convolution"
  bottom: "relu_f_1_1"
  top: "conv_f_1_1"
  param {
    lr_mult: 1
    decay_mult: 1
  }
  param {
    lr_mult: 2
    decay_mult: 1
  }
  convolution_param {
    num_output: 128
    pad: 1
    kernel_size: 3
    stride: 2
    weight_filler {
      type: "msra"
    }
    bias_filler {
      type: "constant"
    }
  }
}
layer {
  name: "bn_f_1_2"
  type: "BatchNorm"
  bottom: "conv_f_1_1"
  top: "bn_f_1_2"
  param {
    lr_mult: 0
  }
  param {
    lr_mult: 0
  }
  param {
    lr_mult: 0
  }
  batch_norm_param {
    use_global_stats: false
  }
}
layer {
  name: "sc_f_1_2"
  type: "Scale"
  bottom: "bn_f_1_2"
  top: "sc_f_1_2"
  scale_param {
    bias_term: true
  }
}
layer {
  name: "relu_f_1_2"
  type: "ReLU"
  bottom: "sc_f_1_2"
  top: "relu_f_1_2"
}
layer {
  name: "conv_f_1_2"
  type: "Convolution"
  bottom: "relu_f_1_2"
  top: "conv_f_1_2"
  param {
    lr_mult: 1
    decay_mult: 1
  }
  param {
    lr_mult: 2
    decay_mult: 1
  }
  convolution_param {
    num_output: 128
    pad: 1
    kernel_size: 3
    stride: 1
    weight_filler {
      type: "msra"
    }
    bias_filler {
      type: "constant"
    }
  }
}
layer {
  name: "res_f"
  type: "Convolution"
  bottom: "elt_b_1"
  top: "res_f"
  param {
    lr_mult: 1
    decay_mult: 1
  }
  param {
    lr_mult: 2
    decay_mult: 1
  }
  convolution_param {
    num_output: 128
    pad: 0
    kernel_size: 1
    stride: 2
    weight_filler {
      type: "msra"
    }
    bias_filler {
      type: "constant"
    }
  }
}
layer {
  name: "elt_f_1"
  type: "Eltwise"
  bottom: "res_f"
  bottom: "conv_f_1_2"
  top: "elt_f_1"
  eltwise_param {
    operation: SUM
  }
}
layer {
  name: "bn_g_1_1"
  type: "BatchNorm"
  bottom: "elt_b_1"
  top: "bn_g_1_1"
  param {
    lr_mult: 0
  }
  param {
    lr_mult: 0
  }
  param {
    lr_mult: 0
  }
  batch_norm_param {
    use_global_stats: false
  }
}
layer {
  name: "sc_g_1_1"
  type: "Scale"
  bottom: "bn_g_1_1"
  top: "sc_g_1_1"
  scale_param {
    bias_term: true
  }
}
layer {
  name: "relu_g_1_1"
  type: "ReLU"
  bottom: "sc_g_1_1"
  top: "relu_g_1_1"
}
layer {
  name: "conv_g_1_1"
  type: "Convolution"
  bottom: "relu_g_1_1"
  top: "conv_g_1_1"
  param {
    lr_mult: 1
    decay_mult: 1
  }
  param {
    lr_mult: 2
    decay_mult: 1
  }
  convolution_param {
    num_output: 128
    pad: 1
    kernel_size: 3
    stride: 2
    weight_filler {
      type: "msra"
    }
    bias_filler {
      type: "constant"
    }
  }
}
layer {
  name: "bn_g_1_2"
  type: "BatchNorm"
  bottom: "conv_g_1_1"
  top: "bn_g_1_2"
  param {
    lr_mult: 0
  }
  param {
    lr_mult: 0
  }
  param {
    lr_mult: 0
  }
  batch_norm_param {
    use_global_stats: false
  }
}
layer {
  name: "sc_g_1_2"
  type: "Scale"
  bottom: "bn_g_1_2"
  top: "sc_g_1_2"
  scale_param {
    bias_term: true
  }
}
layer {
  name: "relu_g_1_2"
  type: "ReLU"
  bottom: "sc_g_1_2"
  top: "relu_g_1_2"
}
layer {
  name: "conv_g_1_2"
  type: "Convolution"
  bottom: "relu_g_1_2"
  top: "conv_g_1_2"
  param {
    lr_mult: 1
    decay_mult: 1
  }
  param {
    lr_mult: 2
    decay_mult: 1
  }
  convolution_param {
    num_output: 128
    pad: 1
    kernel_size: 3
    stride: 1
    weight_filler {
      type: "msra"
    }
    bias_filler {
      type: "constant"
    }
  }
}
layer {
  name: "res_g"
  type: "Convolution"
  bottom: "elt_b_1"
  top: "res_g"
  param {
    lr_mult: 1
    decay_mult: 1
  }
  param {
    lr_mult: 2
    decay_mult: 1
  }
  convolution_param {
    num_output: 128
    pad: 0
    kernel_size: 1
    stride: 2
    weight_filler {
      type: "msra"
    }
    bias_filler {
      type: "constant"
    }
  }
}
layer {
  name: "elt_g_1"
  type: "Eltwise"
  bottom: "res_g"
  bottom: "conv_g_1_2"
  top: "elt_g_1"
  eltwise_param {
    operation: SUM
  }
}
layer {
  name: "bn_h_1_1"
  type: "BatchNorm"
  bottom: "elt_c_1"
  top: "bn_h_1_1"
  param {
    lr_mult: 0
  }
  param {
    lr_mult: 0
  }
  param {
    lr_mult: 0
  }
  batch_norm_param {
    use_global_stats: false
  }
}
layer {
  name: "sc_h_1_1"
  type: "Scale"
  bottom: "bn_h_1_1"
  top: "sc_h_1_1"
  scale_param {
    bias_term: true
  }
}
layer {
  name: "relu_h_1_1"
  type: "ReLU"
  bottom: "sc_h_1_1"
  top: "relu_h_1_1"
}
layer {
  name: "conv_h_1_1"
  type: "Convolution"
  bottom: "relu_h_1_1"
  top: "conv_h_1_1"
  param {
    lr_mult: 1
    decay_mult: 1
  }
  param {
    lr_mult: 2
    decay_mult: 1
  }
  convolution_param {
    num_output: 128
    pad: 1
    kernel_size: 3
    stride: 2
    weight_filler {
      type: "msra"
    }
    bias_filler {
      type: "constant"
    }
  }
}
layer {
  name: "bn_h_1_2"
  type: "BatchNorm"
  bottom: "conv_h_1_1"
  top: "bn_h_1_2"
  param {
    lr_mult: 0
  }
  param {
    lr_mult: 0
  }
  param {
    lr_mult: 0
  }
  batch_norm_param {
    use_global_stats: false
  }
}
layer {
  name: "sc_h_1_2"
  type: "Scale"
  bottom: "bn_h_1_2"
  top: "sc_h_1_2"
  scale_param {
    bias_term: true
  }
}
layer {
  name: "relu_h_1_2"
  type: "ReLU"
  bottom: "sc_h_1_2"
  top: "relu_h_1_2"
}
layer {
  name: "conv_h_1_2"
  type: "Convolution"
  bottom: "relu_h_1_2"
  top: "conv_h_1_2"
  param {
    lr_mult: 1
    decay_mult: 1
  }
  param {
    lr_mult: 2
    decay_mult: 1
  }
  convolution_param {
    num_output: 128
    pad: 1
    kernel_size: 3
    stride: 1
    weight_filler {
      type: "msra"
    }
    bias_filler {
      type: "constant"
    }
  }
}
layer {
  name: "res_h"
  type: "Convolution"
  bottom: "elt_c_1"
  top: "res_h"
  param {
    lr_mult: 1
    decay_mult: 1
  }
  param {
    lr_mult: 2
    decay_mult: 1
  }
  convolution_param {
    num_output: 128
    pad: 0
    kernel_size: 1
    stride: 2
    weight_filler {
      type: "msra"
    }
    bias_filler {
      type: "constant"
    }
  }
}
layer {
  name: "elt_h_1"
  type: "Eltwise"
  bottom: "res_h"
  bottom: "conv_h_1_2"
  top: "elt_h_1"
  eltwise_param {
    operation: SUM
  }
}
layer {
  name: "bn_i_1_1"
  type: "BatchNorm"
  bottom: "elt_c_1"
  top: "bn_i_1_1"
  param {
    lr_mult: 0
  }
  param {
    lr_mult: 0
  }
  param {
    lr_mult: 0
  }
  batch_norm_param {
    use_global_stats: false
  }
}
layer {
  name: "sc_i_1_1"
  type: "Scale"
  bottom: "bn_i_1_1"
  top: "sc_i_1_1"
  scale_param {
    bias_term: true
  }
}
layer {
  name: "relu_i_1_1"
  type: "ReLU"
  bottom: "sc_i_1_1"
  top: "relu_i_1_1"
}
layer {
  name: "conv_i_1_1"
  type: "Convolution"
  bottom: "relu_i_1_1"
  top: "conv_i_1_1"
  param {
    lr_mult: 1
    decay_mult: 1
  }
  param {
    lr_mult: 2
    decay_mult: 1
  }
  convolution_param {
    num_output: 128
    pad: 1
    kernel_size: 3
    stride: 2
    weight_filler {
      type: "msra"
    }
    bias_filler {
      type: "constant"
    }
  }
}
layer {
  name: "bn_i_1_2"
  type: "BatchNorm"
  bottom: "conv_i_1_1"
  top: "bn_i_1_2"
  param {
    lr_mult: 0
  }
  param {
    lr_mult: 0
  }
  param {
    lr_mult: 0
  }
  batch_norm_param {
    use_global_stats: false
  }
}
layer {
  name: "sc_i_1_2"
  type: "Scale"
  bottom: "bn_i_1_2"
  top: "sc_i_1_2"
  scale_param {
    bias_term: true
  }
}
layer {
  name: "relu_i_1_2"
  type: "ReLU"
  bottom: "sc_i_1_2"
  top: "relu_i_1_2"
}
layer {
  name: "conv_i_1_2"
  type: "Convolution"
  bottom: "relu_i_1_2"
  top: "conv_i_1_2"
  param {
    lr_mult: 1
    decay_mult: 1
  }
  param {
    lr_mult: 2
    decay_mult: 1
  }
  convolution_param {
    num_output: 128
    pad: 1
    kernel_size: 3
    stride: 1
    weight_filler {
      type: "msra"
    }
    bias_filler {
      type: "constant"
    }
  }
}
layer {
  name: "res_i"
  type: "Convolution"
  bottom: "elt_c_1"
  top: "res_i"
  param {
    lr_mult: 1
    decay_mult: 1
  }
  param {
    lr_mult: 2
    decay_mult: 1
  }
  convolution_param {
    num_output: 128
    pad: 0
    kernel_size: 1
    stride: 2
    weight_filler {
      type: "msra"
    }
    bias_filler {
      type: "constant"
    }
  }
}
layer {
  name: "elt_i_1"
  type: "Eltwise"
  bottom: "res_i"
  bottom: "conv_i_1_2"
  top: "elt_i_1"
  eltwise_param {
    operation: SUM
  }
}
layer {
  name: "elt_d_f"
  type: "Eltwise"
  bottom: "elt_d_1"
  bottom: "elt_f_1"
  top: "elt_d_f"
  eltwise_param {
    operation: SUM
  }
}
layer {
  name: "elt_g_i"
  type: "Eltwise"
  bottom: "elt_g_1"
  bottom: "elt_i_1"
  top: "elt_g_i"
  eltwise_param {
    operation: SUM
  }
}
layer {
  name: "bn_j_1_1"
  type: "BatchNorm"
  bottom: "elt_d_f"
  top: "bn_j_1_1"
  param {
    lr_mult: 0
  }
  param {
    lr_mult: 0
  }
  param {
    lr_mult: 0
  }
  batch_norm_param {
    use_global_stats: false
  }
}
layer {
  name: "sc_j_1_1"
  type: "Scale"
  bottom: "bn_j_1_1"
  top: "sc_j_1_1"
  scale_param {
    bias_term: true
  }
}
layer {
  name: "relu_j_1_1"
  type: "ReLU"
  bottom: "sc_j_1_1"
  top: "relu_j_1_1"
}
layer {
  name: "conv_j_1_1"
  type: "Convolution"
  bottom: "relu_j_1_1"
  top: "conv_j_1_1"
  param {
    lr_mult: 1
    decay_mult: 1
  }
  param {
    lr_mult: 2
    decay_mult: 1
  }
  convolution_param {
    num_output: 256
    pad: 1
    kernel_size: 3
    stride: 2
    weight_filler {
      type: "msra"
    }
    bias_filler {
      type: "constant"
    }
  }
}
layer {
  name: "bn_j_1_2"
  type: "BatchNorm"
  bottom: "conv_j_1_1"
  top: "bn_j_1_2"
  param {
    lr_mult: 0
  }
  param {
    lr_mult: 0
  }
  param {
    lr_mult: 0
  }
  batch_norm_param {
    use_global_stats: false
  }
}
layer {
  name: "sc_j_1_2"
  type: "Scale"
  bottom: "bn_j_1_2"
  top: "sc_j_1_2"
  scale_param {
    bias_term: true
  }
}
layer {
  name: "relu_j_1_2"
  type: "ReLU"
  bottom: "sc_j_1_2"
  top: "relu_j_1_2"
}
layer {
  name: "conv_j_1_2"
  type: "Convolution"
  bottom: "relu_j_1_2"
  top: "conv_j_1_2"
  param {
    lr_mult: 1
    decay_mult: 1
  }
  param {
    lr_mult: 2
    decay_mult: 1
  }
  convolution_param {
    num_output: 256
    pad: 1
    kernel_size: 3
    stride: 1
    weight_filler {
      type: "msra"
    }
    bias_filler {
      type: "constant"
    }
  }
}
layer {
  name: "res_j"
  type: "Convolution"
  bottom: "elt_d_f"
  top: "res_j"
  param {
    lr_mult: 1
    decay_mult: 1
  }
  param {
    lr_mult: 2
    decay_mult: 1
  }
  convolution_param {
    num_output: 256
    pad: 0
    kernel_size: 1
    stride: 2
    weight_filler {
      type: "msra"
    }
    bias_filler {
      type: "constant"
    }
  }
}
layer {
  name: "elt_j_1"
  type: "Eltwise"
  bottom: "res_j"
  bottom: "conv_j_1_2"
  top: "elt_j_1"
  eltwise_param {
    operation: SUM
  }
}
layer {
  name: "bn_e_1_1"
  type: "BatchNorm"
  bottom: "elt_a_1"
  top: "bn_e_1_1"
  param {
    lr_mult: 0
  }
  param {
    lr_mult: 0
  }
  param {
    lr_mult: 0
  }
  batch_norm_param {
    use_global_stats: false
  }
}
layer {
  name: "sc_e_1_1"
  type: "Scale"
  bottom: "bn_e_1_1"
  top: "sc_e_1_1"
  scale_param {
    bias_term: true
  }
}
layer {
  name: "relu_e_1_1"
  type: "ReLU"
  bottom: "sc_e_1_1"
  top: "relu_e_1_1"
}
layer {
  name: "conv_e_1_1"
  type: "Convolution"
  bottom: "relu_e_1_1"
  top: "conv_e_1_1"
  param {
    lr_mult: 1
    decay_mult: 1
  }
  param {
    lr_mult: 2
    decay_mult: 1
  }
  convolution_param {
    num_output: 128
    pad: 1
    kernel_size: 3
    stride: 2
    weight_filler {
      type: "msra"
    }
    bias_filler {
      type: "constant"
    }
  }
}
layer {
  name: "bn_e_1_2"
  type: "BatchNorm"
  bottom: "conv_e_1_1"
  top: "bn_e_1_2"
  param {
    lr_mult: 0
  }
  param {
    lr_mult: 0
  }
  param {
    lr_mult: 0
  }
  batch_norm_param {
    use_global_stats: false
  }
}
layer {
  name: "sc_e_1_2"
  type: "Scale"
  bottom: "bn_e_1_2"
  top: "sc_e_1_2"
  scale_param {
    bias_term: true
  }
}
layer {
  name: "relu_e_1_2"
  type: "ReLU"
  bottom: "sc_e_1_2"
  top: "relu_e_1_2"
}
layer {
  name: "conv_e_1_2"
  type: "Convolution"
  bottom: "relu_e_1_2"
  top: "conv_e_1_2"
  param {
    lr_mult: 1
    decay_mult: 1
  }
  param {
    lr_mult: 2
    decay_mult: 1
  }
  convolution_param {
    num_output: 128
    pad: 1
    kernel_size: 3
    stride: 1
    weight_filler {
      type: "msra"
    }
    bias_filler {
      type: "constant"
    }
  }
}
layer {
  name: "res_e"
  type: "Convolution"
  bottom: "elt_a_1"
  top: "res_e"
  param {
    lr_mult: 1
    decay_mult: 1
  }
  param {
    lr_mult: 2
    decay_mult: 1
  }
  convolution_param {
    num_output: 128
    pad: 0
    kernel_size: 1
    stride: 2
    weight_filler {
      type: "msra"
    }
    bias_filler {
      type: "constant"
    }
  }
}
layer {
  name: "elt_e_1"
  type: "Eltwise"
  bottom: "res_e"
  bottom: "conv_e_1_2"
  top: "elt_e_1"
  eltwise_param {
    operation: SUM
  }
}
layer {
  name: "elt_e_h"
  type: "Eltwise"
  bottom: "elt_e_1"
  bottom: "elt_h_1"
  top: "elt_e_h"
  eltwise_param {
    operation: SUM
  }
}
layer {
  name: "bn_k_1_1"
  type: "BatchNorm"
  bottom: "elt_e_h"
  top: "bn_k_1_1"
  param {
    lr_mult: 0
  }
  param {
    lr_mult: 0
  }
  param {
    lr_mult: 0
  }
  batch_norm_param {
    use_global_stats: false
  }
}
layer {
  name: "sc_k_1_1"
  type: "Scale"
  bottom: "bn_k_1_1"
  top: "sc_k_1_1"
  scale_param {
    bias_term: true
  }
}
layer {
  name: "relu_k_1_1"
  type: "ReLU"
  bottom: "sc_k_1_1"
  top: "relu_k_1_1"
}
layer {
  name: "conv_k_1_1"
  type: "Convolution"
  bottom: "relu_k_1_1"
  top: "conv_k_1_1"
  param {
    lr_mult: 1
    decay_mult: 1
  }
  param {
    lr_mult: 2
    decay_mult: 1
  }
  convolution_param {
    num_output: 256
    pad: 1
    kernel_size: 3
    stride: 2
    weight_filler {
      type: "msra"
    }
    bias_filler {
      type: "constant"
    }
  }
}
layer {
  name: "bn_k_1_2"
  type: "BatchNorm"
  bottom: "conv_k_1_1"
  top: "bn_k_1_2"
  param {
    lr_mult: 0
  }
  param {
    lr_mult: 0
  }
  param {
    lr_mult: 0
  }
  batch_norm_param {
    use_global_stats: false
  }
}
layer {
  name: "sc_k_1_2"
  type: "Scale"
  bottom: "bn_k_1_2"
  top: "sc_k_1_2"
  scale_param {
    bias_term: true
  }
}
layer {
  name: "relu_k_1_2"
  type: "ReLU"
  bottom: "sc_k_1_2"
  top: "relu_k_1_2"
}
layer {
  name: "conv_k_1_2"
  type: "Convolution"
  bottom: "relu_k_1_2"
  top: "conv_k_1_2"
  param {
    lr_mult: 1
    decay_mult: 1
  }
  param {
    lr_mult: 2
    decay_mult: 1
  }
  convolution_param {
    num_output: 256
    pad: 1
    kernel_size: 3
    stride: 1
    weight_filler {
      type: "msra"
    }
    bias_filler {
      type: "constant"
    }
  }
}
layer {
  name: "res_k"
  type: "Convolution"
  bottom: "elt_e_h"
  top: "res_k"
  param {
    lr_mult: 1
    decay_mult: 1
  }
  param {
    lr_mult: 2
    decay_mult: 1
  }
  convolution_param {
    num_output: 256
    pad: 0
    kernel_size: 1
    stride: 2
    weight_filler {
      type: "msra"
    }
    bias_filler {
      type: "constant"
    }
  }
}
layer {
  name: "elt_k_1"
  type: "Eltwise"
  bottom: "res_k"
  bottom: "conv_k_1_2"
  top: "elt_k_1"
  eltwise_param {
    operation: SUM
  }
}
layer {
  name: "bn_l_1_1"
  type: "BatchNorm"
  bottom: "elt_g_i"
  top: "bn_l_1_1"
  param {
    lr_mult: 0
  }
  param {
    lr_mult: 0
  }
  param {
    lr_mult: 0
  }
  batch_norm_param {
    use_global_stats: false
  }
}
layer {
  name: "sc_l_1_1"
  type: "Scale"
  bottom: "bn_l_1_1"
  top: "sc_l_1_1"
  scale_param {
    bias_term: true
  }
}
layer {
  name: "relu_l_1_1"
  type: "ReLU"
  bottom: "sc_l_1_1"
  top: "relu_l_1_1"
}
layer {
  name: "conv_l_1_1"
  type: "Convolution"
  bottom: "relu_l_1_1"
  top: "conv_l_1_1"
  param {
    lr_mult: 1
    decay_mult: 1
  }
  param {
    lr_mult: 2
    decay_mult: 1
  }
  convolution_param {
    num_output: 256
    pad: 1
    kernel_size: 3
    stride: 2
    weight_filler {
      type: "msra"
    }
    bias_filler {
      type: "constant"
    }
  }
}
layer {
  name: "bn_l_1_2"
  type: "BatchNorm"
  bottom: "conv_l_1_1"
  top: "bn_l_1_2"
  param {
    lr_mult: 0
  }
  param {
    lr_mult: 0
  }
  param {
    lr_mult: 0
  }
  batch_norm_param {
    use_global_stats: false
  }
}
layer {
  name: "sc_l_1_2"
  type: "Scale"
  bottom: "bn_l_1_2"
  top: "sc_l_1_2"
  scale_param {
    bias_term: true
  }
}
layer {
  name: "relu_l_1_2"
  type: "ReLU"
  bottom: "sc_l_1_2"
  top: "relu_l_1_2"
}
layer {
  name: "conv_l_1_2"
  type: "Convolution"
  bottom: "relu_l_1_2"
  top: "conv_l_1_2"
  param {
    lr_mult: 1
    decay_mult: 1
  }
  param {
    lr_mult: 2
    decay_mult: 1
  }
  convolution_param {
    num_output: 256
    pad: 1
    kernel_size: 3
    stride: 1
    weight_filler {
      type: "msra"
    }
    bias_filler {
      type: "constant"
    }
  }
}
layer {
  name: "res_l"
  type: "Convolution"
  bottom: "elt_g_i"
  top: "res_l"
  param {
    lr_mult: 1
    decay_mult: 1
  }
  param {
    lr_mult: 2
    decay_mult: 1
  }
  convolution_param {
    num_output: 256
    pad: 0
    kernel_size: 1
    stride: 2
    weight_filler {
      type: "msra"
    }
    bias_filler {
      type: "constant"
    }
  }
}
layer {
  name: "elt_l_1"
  type: "Eltwise"
  bottom: "res_l"
  bottom: "conv_l_1_2"
  top: "elt_l_1"
  eltwise_param {
    operation: SUM
  }
}
layer {
  name: "elt_j_k_l"
  type: "Eltwise"
  bottom: "elt_j_1"
  bottom: "elt_k_1"
  bottom: "elt_l_1"
  top: "elt_j_k_l"
  eltwise_param {
    operation: SUM
  }
}
layer {
  name: "bn_m_1_1"
  type: "BatchNorm"
  bottom: "elt_j_k_l"
  top: "bn_m_1_1"
  param {
    lr_mult: 0
  }
  param {
    lr_mult: 0
  }
  param {
    lr_mult: 0
  }
  batch_norm_param {
    use_global_stats: false
  }
}
layer {
  name: "sc_m_1_1"
  type: "Scale"
  bottom: "bn_m_1_1"
  top: "sc_m_1_1"
  scale_param {
    bias_term: true
  }
}
layer {
  name: "relu_m_1_1"
  type: "ReLU"
  bottom: "sc_m_1_1"
  top: "relu_m_1_1"
}
layer {
  name: "gap"
  type: "Pooling"
  bottom: "relu_m_1_1"
  top: "gap"
  pooling_param {
    pool: AVE
    kernel_size: 8
    stride: 1
  }
}
layer {
  name: "ip1"
  type: "InnerProduct"
  bottom: "gap"
  top: "ip1"
  param {
    lr_mult: 1
    decay_mult: 1
  }
  param {
    lr_mult: 2
    decay_mult: 0
  }
  inner_product_param {
    num_output: 10
    weight_filler {
      type: "msra"
    }
    bias_filler {
      type: "constant"
      value: 0
    }
  }
}
layer {
  name: "loss"
  type: "SoftmaxWithLoss"
  bottom: "ip1"
  bottom: "label"
  top: "loss"
}
I0619 11:23:57.095880  4268 layer_factory.hpp:77] Creating layer resnet
I0619 11:23:57.096737  4268 net.cpp:91] Creating Layer resnet
I0619 11:23:57.096752  4268 net.cpp:399] resnet -> data
I0619 11:23:57.096789  4268 net.cpp:399] resnet -> label
I0619 11:23:57.096804  4268 data_transformer.cpp:25] Loading mean file from: /home/takeki/caffe/examples/cifar10/mean.binaryproto
I0619 11:23:57.097656  4304 db_lmdb.cpp:35] Opened lmdb /home/takeki/caffe/examples/cifar10/cifar10_train_lmdb
I0619 11:23:57.110960  4268 data_layer.cpp:41] output data size: 128,3,32,32
I0619 11:23:57.114032  4268 net.cpp:141] Setting up resnet
I0619 11:23:57.114065  4268 net.cpp:148] Top shape: 128 3 32 32 (393216)
I0619 11:23:57.114080  4268 net.cpp:148] Top shape: 128 (128)
I0619 11:23:57.114085  4268 net.cpp:156] Memory required for data: 1573376
I0619 11:23:57.114097  4268 layer_factory.hpp:77] Creating layer conv0
I0619 11:23:57.114123  4268 net.cpp:91] Creating Layer conv0
I0619 11:23:57.114133  4268 net.cpp:425] conv0 <- data
I0619 11:23:57.114148  4268 net.cpp:399] conv0 -> conv0
I0619 11:23:57.235239  4268 net.cpp:141] Setting up conv0
I0619 11:23:57.235287  4268 net.cpp:148] Top shape: 128 16 32 32 (2097152)
I0619 11:23:57.235293  4268 net.cpp:156] Memory required for data: 9961984
I0619 11:23:57.235318  4268 layer_factory.hpp:77] Creating layer conv0_conv0_0_split
I0619 11:23:57.235337  4268 net.cpp:91] Creating Layer conv0_conv0_0_split
I0619 11:23:57.235344  4268 net.cpp:425] conv0_conv0_0_split <- conv0
I0619 11:23:57.235354  4268 net.cpp:399] conv0_conv0_0_split -> conv0_conv0_0_split_0
I0619 11:23:57.235376  4268 net.cpp:399] conv0_conv0_0_split -> conv0_conv0_0_split_1
I0619 11:23:57.235388  4268 net.cpp:399] conv0_conv0_0_split -> conv0_conv0_0_split_2
I0619 11:23:57.235396  4268 net.cpp:399] conv0_conv0_0_split -> conv0_conv0_0_split_3
I0619 11:23:57.235404  4268 net.cpp:399] conv0_conv0_0_split -> conv0_conv0_0_split_4
I0619 11:23:57.235414  4268 net.cpp:399] conv0_conv0_0_split -> conv0_conv0_0_split_5
I0619 11:23:57.235482  4268 net.cpp:141] Setting up conv0_conv0_0_split
I0619 11:23:57.235492  4268 net.cpp:148] Top shape: 128 16 32 32 (2097152)
I0619 11:23:57.235499  4268 net.cpp:148] Top shape: 128 16 32 32 (2097152)
I0619 11:23:57.235505  4268 net.cpp:148] Top shape: 128 16 32 32 (2097152)
I0619 11:23:57.235512  4268 net.cpp:148] Top shape: 128 16 32 32 (2097152)
I0619 11:23:57.235518  4268 net.cpp:148] Top shape: 128 16 32 32 (2097152)
I0619 11:23:57.235525  4268 net.cpp:148] Top shape: 128 16 32 32 (2097152)
I0619 11:23:57.235529  4268 net.cpp:156] Memory required for data: 60293632
I0619 11:23:57.235535  4268 layer_factory.hpp:77] Creating layer bn_a_1_1
I0619 11:23:57.235548  4268 net.cpp:91] Creating Layer bn_a_1_1
I0619 11:23:57.235553  4268 net.cpp:425] bn_a_1_1 <- conv0_conv0_0_split_0
I0619 11:23:57.235560  4268 net.cpp:399] bn_a_1_1 -> bn_a_1_1
I0619 11:23:57.235708  4268 net.cpp:141] Setting up bn_a_1_1
I0619 11:23:57.235718  4268 net.cpp:148] Top shape: 128 16 32 32 (2097152)
I0619 11:23:57.235724  4268 net.cpp:156] Memory required for data: 68682240
I0619 11:23:57.235738  4268 layer_factory.hpp:77] Creating layer sc_a_1_1
I0619 11:23:57.235749  4268 net.cpp:91] Creating Layer sc_a_1_1
I0619 11:23:57.235755  4268 net.cpp:425] sc_a_1_1 <- bn_a_1_1
I0619 11:23:57.235762  4268 net.cpp:399] sc_a_1_1 -> sc_a_1_1
I0619 11:23:57.235810  4268 layer_factory.hpp:77] Creating layer sc_a_1_1
I0619 11:23:57.235905  4268 net.cpp:141] Setting up sc_a_1_1
I0619 11:23:57.235915  4268 net.cpp:148] Top shape: 128 16 32 32 (2097152)
I0619 11:23:57.235920  4268 net.cpp:156] Memory required for data: 77070848
I0619 11:23:57.235929  4268 layer_factory.hpp:77] Creating layer relu_a_1_1
I0619 11:23:57.235939  4268 net.cpp:91] Creating Layer relu_a_1_1
I0619 11:23:57.235944  4268 net.cpp:425] relu_a_1_1 <- sc_a_1_1
I0619 11:23:57.235951  4268 net.cpp:399] relu_a_1_1 -> relu_a_1_1
I0619 11:23:57.236209  4268 net.cpp:141] Setting up relu_a_1_1
I0619 11:23:57.236223  4268 net.cpp:148] Top shape: 128 16 32 32 (2097152)
I0619 11:23:57.236254  4268 net.cpp:156] Memory required for data: 85459456
I0619 11:23:57.236260  4268 layer_factory.hpp:77] Creating layer conv_a_1_1
I0619 11:23:57.236276  4268 net.cpp:91] Creating Layer conv_a_1_1
I0619 11:23:57.236282  4268 net.cpp:425] conv_a_1_1 <- relu_a_1_1
I0619 11:23:57.236290  4268 net.cpp:399] conv_a_1_1 -> conv_a_1_1
I0619 11:23:57.237751  4268 net.cpp:141] Setting up conv_a_1_1
I0619 11:23:57.237771  4268 net.cpp:148] Top shape: 128 64 32 32 (8388608)
I0619 11:23:57.237777  4268 net.cpp:156] Memory required for data: 119013888
I0619 11:23:57.237787  4268 layer_factory.hpp:77] Creating layer bn_a_1_2
I0619 11:23:57.237797  4268 net.cpp:91] Creating Layer bn_a_1_2
I0619 11:23:57.237804  4268 net.cpp:425] bn_a_1_2 <- conv_a_1_1
I0619 11:23:57.237812  4268 net.cpp:399] bn_a_1_2 -> bn_a_1_2
I0619 11:23:57.237973  4268 net.cpp:141] Setting up bn_a_1_2
I0619 11:23:57.237984  4268 net.cpp:148] Top shape: 128 64 32 32 (8388608)
I0619 11:23:57.237989  4268 net.cpp:156] Memory required for data: 152568320
I0619 11:23:57.238003  4268 layer_factory.hpp:77] Creating layer sc_a_1_2
I0619 11:23:57.238016  4268 net.cpp:91] Creating Layer sc_a_1_2
I0619 11:23:57.238023  4268 net.cpp:425] sc_a_1_2 <- bn_a_1_2
I0619 11:23:57.238029  4268 net.cpp:399] sc_a_1_2 -> sc_a_1_2
I0619 11:23:57.238066  4268 layer_factory.hpp:77] Creating layer sc_a_1_2
I0619 11:23:57.238165  4268 net.cpp:141] Setting up sc_a_1_2
I0619 11:23:57.238175  4268 net.cpp:148] Top shape: 128 64 32 32 (8388608)
I0619 11:23:57.238179  4268 net.cpp:156] Memory required for data: 186122752
I0619 11:23:57.238188  4268 layer_factory.hpp:77] Creating layer relu_a_1_2
I0619 11:23:57.238198  4268 net.cpp:91] Creating Layer relu_a_1_2
I0619 11:23:57.238204  4268 net.cpp:425] relu_a_1_2 <- sc_a_1_2
I0619 11:23:57.238214  4268 net.cpp:399] relu_a_1_2 -> relu_a_1_2
I0619 11:23:57.238376  4268 net.cpp:141] Setting up relu_a_1_2
I0619 11:23:57.238389  4268 net.cpp:148] Top shape: 128 64 32 32 (8388608)
I0619 11:23:57.238394  4268 net.cpp:156] Memory required for data: 219677184
I0619 11:23:57.238399  4268 layer_factory.hpp:77] Creating layer conv_a_1_2
I0619 11:23:57.238412  4268 net.cpp:91] Creating Layer conv_a_1_2
I0619 11:23:57.238418  4268 net.cpp:425] conv_a_1_2 <- relu_a_1_2
I0619 11:23:57.238428  4268 net.cpp:399] conv_a_1_2 -> conv_a_1_2
I0619 11:23:57.240561  4268 net.cpp:141] Setting up conv_a_1_2
I0619 11:23:57.240579  4268 net.cpp:148] Top shape: 128 64 32 32 (8388608)
I0619 11:23:57.240586  4268 net.cpp:156] Memory required for data: 253231616
I0619 11:23:57.240593  4268 layer_factory.hpp:77] Creating layer res_a
I0619 11:23:57.240607  4268 net.cpp:91] Creating Layer res_a
I0619 11:23:57.240614  4268 net.cpp:425] res_a <- conv0_conv0_0_split_1
I0619 11:23:57.240622  4268 net.cpp:399] res_a -> res_a
I0619 11:23:57.241492  4268 net.cpp:141] Setting up res_a
I0619 11:23:57.241506  4268 net.cpp:148] Top shape: 128 64 32 32 (8388608)
I0619 11:23:57.241513  4268 net.cpp:156] Memory required for data: 286786048
I0619 11:23:57.241524  4268 layer_factory.hpp:77] Creating layer elt_a_1
I0619 11:23:57.241536  4268 net.cpp:91] Creating Layer elt_a_1
I0619 11:23:57.241542  4268 net.cpp:425] elt_a_1 <- res_a
I0619 11:23:57.241549  4268 net.cpp:425] elt_a_1 <- conv_a_1_2
I0619 11:23:57.241557  4268 net.cpp:399] elt_a_1 -> elt_a_1
I0619 11:23:57.241590  4268 net.cpp:141] Setting up elt_a_1
I0619 11:23:57.241600  4268 net.cpp:148] Top shape: 128 64 32 32 (8388608)
I0619 11:23:57.241605  4268 net.cpp:156] Memory required for data: 320340480
I0619 11:23:57.241610  4268 layer_factory.hpp:77] Creating layer elt_a_1_elt_a_1_0_split
I0619 11:23:57.241618  4268 net.cpp:91] Creating Layer elt_a_1_elt_a_1_0_split
I0619 11:23:57.241626  4268 net.cpp:425] elt_a_1_elt_a_1_0_split <- elt_a_1
I0619 11:23:57.241631  4268 net.cpp:399] elt_a_1_elt_a_1_0_split -> elt_a_1_elt_a_1_0_split_0
I0619 11:23:57.241643  4268 net.cpp:399] elt_a_1_elt_a_1_0_split -> elt_a_1_elt_a_1_0_split_1
I0619 11:23:57.241652  4268 net.cpp:399] elt_a_1_elt_a_1_0_split -> elt_a_1_elt_a_1_0_split_2
I0619 11:23:57.241660  4268 net.cpp:399] elt_a_1_elt_a_1_0_split -> elt_a_1_elt_a_1_0_split_3
I0619 11:23:57.241727  4268 net.cpp:141] Setting up elt_a_1_elt_a_1_0_split
I0619 11:23:57.241739  4268 net.cpp:148] Top shape: 128 64 32 32 (8388608)
I0619 11:23:57.241744  4268 net.cpp:148] Top shape: 128 64 32 32 (8388608)
I0619 11:23:57.241750  4268 net.cpp:148] Top shape: 128 64 32 32 (8388608)
I0619 11:23:57.241762  4268 net.cpp:148] Top shape: 128 64 32 32 (8388608)
I0619 11:23:57.241767  4268 net.cpp:156] Memory required for data: 454558208
I0619 11:23:57.241771  4268 layer_factory.hpp:77] Creating layer bn_b_1_1
I0619 11:23:57.241781  4268 net.cpp:91] Creating Layer bn_b_1_1
I0619 11:23:57.241787  4268 net.cpp:425] bn_b_1_1 <- conv0_conv0_0_split_2
I0619 11:23:57.241794  4268 net.cpp:399] bn_b_1_1 -> bn_b_1_1
I0619 11:23:57.241955  4268 net.cpp:141] Setting up bn_b_1_1
I0619 11:23:57.241966  4268 net.cpp:148] Top shape: 128 16 32 32 (2097152)
I0619 11:23:57.241971  4268 net.cpp:156] Memory required for data: 462946816
I0619 11:23:57.241979  4268 layer_factory.hpp:77] Creating layer sc_b_1_1
I0619 11:23:57.241988  4268 net.cpp:91] Creating Layer sc_b_1_1
I0619 11:23:57.241993  4268 net.cpp:425] sc_b_1_1 <- bn_b_1_1
I0619 11:23:57.242002  4268 net.cpp:399] sc_b_1_1 -> sc_b_1_1
I0619 11:23:57.242039  4268 layer_factory.hpp:77] Creating layer sc_b_1_1
I0619 11:23:57.242138  4268 net.cpp:141] Setting up sc_b_1_1
I0619 11:23:57.242151  4268 net.cpp:148] Top shape: 128 16 32 32 (2097152)
I0619 11:23:57.242156  4268 net.cpp:156] Memory required for data: 471335424
I0619 11:23:57.242163  4268 layer_factory.hpp:77] Creating layer relu_b_1_1
I0619 11:23:57.242172  4268 net.cpp:91] Creating Layer relu_b_1_1
I0619 11:23:57.242178  4268 net.cpp:425] relu_b_1_1 <- sc_b_1_1
I0619 11:23:57.242184  4268 net.cpp:399] relu_b_1_1 -> relu_b_1_1
I0619 11:23:57.242348  4268 net.cpp:141] Setting up relu_b_1_1
I0619 11:23:57.242360  4268 net.cpp:148] Top shape: 128 16 32 32 (2097152)
I0619 11:23:57.242365  4268 net.cpp:156] Memory required for data: 479724032
I0619 11:23:57.242370  4268 layer_factory.hpp:77] Creating layer conv_b_1_1
I0619 11:23:57.242383  4268 net.cpp:91] Creating Layer conv_b_1_1
I0619 11:23:57.242389  4268 net.cpp:425] conv_b_1_1 <- relu_b_1_1
I0619 11:23:57.242398  4268 net.cpp:399] conv_b_1_1 -> conv_b_1_1
I0619 11:23:57.243440  4268 net.cpp:141] Setting up conv_b_1_1
I0619 11:23:57.243454  4268 net.cpp:148] Top shape: 128 64 32 32 (8388608)
I0619 11:23:57.243460  4268 net.cpp:156] Memory required for data: 513278464
I0619 11:23:57.243468  4268 layer_factory.hpp:77] Creating layer bn_b_1_2
I0619 11:23:57.243479  4268 net.cpp:91] Creating Layer bn_b_1_2
I0619 11:23:57.243486  4268 net.cpp:425] bn_b_1_2 <- conv_b_1_1
I0619 11:23:57.243494  4268 net.cpp:399] bn_b_1_2 -> bn_b_1_2
I0619 11:23:57.243656  4268 net.cpp:141] Setting up bn_b_1_2
I0619 11:23:57.243667  4268 net.cpp:148] Top shape: 128 64 32 32 (8388608)
I0619 11:23:57.243674  4268 net.cpp:156] Memory required for data: 546832896
I0619 11:23:57.243681  4268 layer_factory.hpp:77] Creating layer sc_b_1_2
I0619 11:23:57.243690  4268 net.cpp:91] Creating Layer sc_b_1_2
I0619 11:23:57.243695  4268 net.cpp:425] sc_b_1_2 <- bn_b_1_2
I0619 11:23:57.243705  4268 net.cpp:399] sc_b_1_2 -> sc_b_1_2
I0619 11:23:57.243742  4268 layer_factory.hpp:77] Creating layer sc_b_1_2
I0619 11:23:57.243839  4268 net.cpp:141] Setting up sc_b_1_2
I0619 11:23:57.243851  4268 net.cpp:148] Top shape: 128 64 32 32 (8388608)
I0619 11:23:57.243856  4268 net.cpp:156] Memory required for data: 580387328
I0619 11:23:57.243863  4268 layer_factory.hpp:77] Creating layer relu_b_1_2
I0619 11:23:57.243871  4268 net.cpp:91] Creating Layer relu_b_1_2
I0619 11:23:57.243877  4268 net.cpp:425] relu_b_1_2 <- sc_b_1_2
I0619 11:23:57.243883  4268 net.cpp:399] relu_b_1_2 -> relu_b_1_2
I0619 11:23:57.244149  4268 net.cpp:141] Setting up relu_b_1_2
I0619 11:23:57.244163  4268 net.cpp:148] Top shape: 128 64 32 32 (8388608)
I0619 11:23:57.244168  4268 net.cpp:156] Memory required for data: 613941760
I0619 11:23:57.244174  4268 layer_factory.hpp:77] Creating layer conv_b_1_2
I0619 11:23:57.244199  4268 net.cpp:91] Creating Layer conv_b_1_2
I0619 11:23:57.244206  4268 net.cpp:425] conv_b_1_2 <- relu_b_1_2
I0619 11:23:57.244215  4268 net.cpp:399] conv_b_1_2 -> conv_b_1_2
I0619 11:23:57.245920  4268 net.cpp:141] Setting up conv_b_1_2
I0619 11:23:57.245935  4268 net.cpp:148] Top shape: 128 64 32 32 (8388608)
I0619 11:23:57.245941  4268 net.cpp:156] Memory required for data: 647496192
I0619 11:23:57.245949  4268 layer_factory.hpp:77] Creating layer res_b
I0619 11:23:57.245964  4268 net.cpp:91] Creating Layer res_b
I0619 11:23:57.245970  4268 net.cpp:425] res_b <- conv0_conv0_0_split_3
I0619 11:23:57.245980  4268 net.cpp:399] res_b -> res_b
I0619 11:23:57.246737  4268 net.cpp:141] Setting up res_b
I0619 11:23:57.246752  4268 net.cpp:148] Top shape: 128 64 32 32 (8388608)
I0619 11:23:57.246757  4268 net.cpp:156] Memory required for data: 681050624
I0619 11:23:57.246770  4268 layer_factory.hpp:77] Creating layer elt_b_1
I0619 11:23:57.246780  4268 net.cpp:91] Creating Layer elt_b_1
I0619 11:23:57.246786  4268 net.cpp:425] elt_b_1 <- res_b
I0619 11:23:57.246793  4268 net.cpp:425] elt_b_1 <- conv_b_1_2
I0619 11:23:57.246801  4268 net.cpp:399] elt_b_1 -> elt_b_1
I0619 11:23:57.246832  4268 net.cpp:141] Setting up elt_b_1
I0619 11:23:57.246842  4268 net.cpp:148] Top shape: 128 64 32 32 (8388608)
I0619 11:23:57.246847  4268 net.cpp:156] Memory required for data: 714605056
I0619 11:23:57.246852  4268 layer_factory.hpp:77] Creating layer elt_b_1_elt_b_1_0_split
I0619 11:23:57.246860  4268 net.cpp:91] Creating Layer elt_b_1_elt_b_1_0_split
I0619 11:23:57.246865  4268 net.cpp:425] elt_b_1_elt_b_1_0_split <- elt_b_1
I0619 11:23:57.246873  4268 net.cpp:399] elt_b_1_elt_b_1_0_split -> elt_b_1_elt_b_1_0_split_0
I0619 11:23:57.246882  4268 net.cpp:399] elt_b_1_elt_b_1_0_split -> elt_b_1_elt_b_1_0_split_1
I0619 11:23:57.246891  4268 net.cpp:399] elt_b_1_elt_b_1_0_split -> elt_b_1_elt_b_1_0_split_2
I0619 11:23:57.246899  4268 net.cpp:399] elt_b_1_elt_b_1_0_split -> elt_b_1_elt_b_1_0_split_3
I0619 11:23:57.246951  4268 net.cpp:141] Setting up elt_b_1_elt_b_1_0_split
I0619 11:23:57.246963  4268 net.cpp:148] Top shape: 128 64 32 32 (8388608)
I0619 11:23:57.246969  4268 net.cpp:148] Top shape: 128 64 32 32 (8388608)
I0619 11:23:57.246976  4268 net.cpp:148] Top shape: 128 64 32 32 (8388608)
I0619 11:23:57.246983  4268 net.cpp:148] Top shape: 128 64 32 32 (8388608)
I0619 11:23:57.246987  4268 net.cpp:156] Memory required for data: 848822784
I0619 11:23:57.246992  4268 layer_factory.hpp:77] Creating layer bn_c_1_1
I0619 11:23:57.246999  4268 net.cpp:91] Creating Layer bn_c_1_1
I0619 11:23:57.247005  4268 net.cpp:425] bn_c_1_1 <- conv0_conv0_0_split_4
I0619 11:23:57.247014  4268 net.cpp:399] bn_c_1_1 -> bn_c_1_1
I0619 11:23:57.247172  4268 net.cpp:141] Setting up bn_c_1_1
I0619 11:23:57.247184  4268 net.cpp:148] Top shape: 128 16 32 32 (2097152)
I0619 11:23:57.247189  4268 net.cpp:156] Memory required for data: 857211392
I0619 11:23:57.247197  4268 layer_factory.hpp:77] Creating layer sc_c_1_1
I0619 11:23:57.247210  4268 net.cpp:91] Creating Layer sc_c_1_1
I0619 11:23:57.247216  4268 net.cpp:425] sc_c_1_1 <- bn_c_1_1
I0619 11:23:57.247223  4268 net.cpp:399] sc_c_1_1 -> sc_c_1_1
I0619 11:23:57.247259  4268 layer_factory.hpp:77] Creating layer sc_c_1_1
I0619 11:23:57.247360  4268 net.cpp:141] Setting up sc_c_1_1
I0619 11:23:57.247370  4268 net.cpp:148] Top shape: 128 16 32 32 (2097152)
I0619 11:23:57.247376  4268 net.cpp:156] Memory required for data: 865600000
I0619 11:23:57.247383  4268 layer_factory.hpp:77] Creating layer relu_c_1_1
I0619 11:23:57.247391  4268 net.cpp:91] Creating Layer relu_c_1_1
I0619 11:23:57.247397  4268 net.cpp:425] relu_c_1_1 <- sc_c_1_1
I0619 11:23:57.247403  4268 net.cpp:399] relu_c_1_1 -> relu_c_1_1
I0619 11:23:57.247663  4268 net.cpp:141] Setting up relu_c_1_1
I0619 11:23:57.247678  4268 net.cpp:148] Top shape: 128 16 32 32 (2097152)
I0619 11:23:57.247684  4268 net.cpp:156] Memory required for data: 873988608
I0619 11:23:57.247689  4268 layer_factory.hpp:77] Creating layer conv_c_1_1
I0619 11:23:57.247711  4268 net.cpp:91] Creating Layer conv_c_1_1
I0619 11:23:57.247720  4268 net.cpp:425] conv_c_1_1 <- relu_c_1_1
I0619 11:23:57.247726  4268 net.cpp:399] conv_c_1_1 -> conv_c_1_1
I0619 11:23:57.248781  4268 net.cpp:141] Setting up conv_c_1_1
I0619 11:23:57.248795  4268 net.cpp:148] Top shape: 128 64 32 32 (8388608)
I0619 11:23:57.248801  4268 net.cpp:156] Memory required for data: 907543040
I0619 11:23:57.248809  4268 layer_factory.hpp:77] Creating layer bn_c_1_2
I0619 11:23:57.248817  4268 net.cpp:91] Creating Layer bn_c_1_2
I0619 11:23:57.248823  4268 net.cpp:425] bn_c_1_2 <- conv_c_1_1
I0619 11:23:57.248833  4268 net.cpp:399] bn_c_1_2 -> bn_c_1_2
I0619 11:23:57.249008  4268 net.cpp:141] Setting up bn_c_1_2
I0619 11:23:57.249019  4268 net.cpp:148] Top shape: 128 64 32 32 (8388608)
I0619 11:23:57.249024  4268 net.cpp:156] Memory required for data: 941097472
I0619 11:23:57.249033  4268 layer_factory.hpp:77] Creating layer sc_c_1_2
I0619 11:23:57.249044  4268 net.cpp:91] Creating Layer sc_c_1_2
I0619 11:23:57.249054  4268 net.cpp:425] sc_c_1_2 <- bn_c_1_2
I0619 11:23:57.249063  4268 net.cpp:399] sc_c_1_2 -> sc_c_1_2
I0619 11:23:57.249102  4268 layer_factory.hpp:77] Creating layer sc_c_1_2
I0619 11:23:57.249213  4268 net.cpp:141] Setting up sc_c_1_2
I0619 11:23:57.249224  4268 net.cpp:148] Top shape: 128 64 32 32 (8388608)
I0619 11:23:57.249229  4268 net.cpp:156] Memory required for data: 974651904
I0619 11:23:57.249241  4268 layer_factory.hpp:77] Creating layer relu_c_1_2
I0619 11:23:57.249250  4268 net.cpp:91] Creating Layer relu_c_1_2
I0619 11:23:57.249256  4268 net.cpp:425] relu_c_1_2 <- sc_c_1_2
I0619 11:23:57.249264  4268 net.cpp:399] relu_c_1_2 -> relu_c_1_2
I0619 11:23:57.249567  4268 net.cpp:141] Setting up relu_c_1_2
I0619 11:23:57.249580  4268 net.cpp:148] Top shape: 128 64 32 32 (8388608)
I0619 11:23:57.249586  4268 net.cpp:156] Memory required for data: 1008206336
I0619 11:23:57.249590  4268 layer_factory.hpp:77] Creating layer conv_c_1_2
I0619 11:23:57.249608  4268 net.cpp:91] Creating Layer conv_c_1_2
I0619 11:23:57.249615  4268 net.cpp:425] conv_c_1_2 <- relu_c_1_2
I0619 11:23:57.249622  4268 net.cpp:399] conv_c_1_2 -> conv_c_1_2
I0619 11:23:57.251329  4268 net.cpp:141] Setting up conv_c_1_2
I0619 11:23:57.251344  4268 net.cpp:148] Top shape: 128 64 32 32 (8388608)
I0619 11:23:57.251350  4268 net.cpp:156] Memory required for data: 1041760768
I0619 11:23:57.251358  4268 layer_factory.hpp:77] Creating layer res_c
I0619 11:23:57.251374  4268 net.cpp:91] Creating Layer res_c
I0619 11:23:57.251380  4268 net.cpp:425] res_c <- conv0_conv0_0_split_5
I0619 11:23:57.251389  4268 net.cpp:399] res_c -> res_c
I0619 11:23:57.252256  4268 net.cpp:141] Setting up res_c
I0619 11:23:57.252274  4268 net.cpp:148] Top shape: 128 64 32 32 (8388608)
I0619 11:23:57.252279  4268 net.cpp:156] Memory required for data: 1075315200
I0619 11:23:57.252287  4268 layer_factory.hpp:77] Creating layer elt_c_1
I0619 11:23:57.252296  4268 net.cpp:91] Creating Layer elt_c_1
I0619 11:23:57.252302  4268 net.cpp:425] elt_c_1 <- res_c
I0619 11:23:57.252308  4268 net.cpp:425] elt_c_1 <- conv_c_1_2
I0619 11:23:57.252315  4268 net.cpp:399] elt_c_1 -> elt_c_1
I0619 11:23:57.252346  4268 net.cpp:141] Setting up elt_c_1
I0619 11:23:57.252354  4268 net.cpp:148] Top shape: 128 64 32 32 (8388608)
I0619 11:23:57.252360  4268 net.cpp:156] Memory required for data: 1108869632
I0619 11:23:57.252364  4268 layer_factory.hpp:77] Creating layer elt_c_1_elt_c_1_0_split
I0619 11:23:57.252373  4268 net.cpp:91] Creating Layer elt_c_1_elt_c_1_0_split
I0619 11:23:57.252379  4268 net.cpp:425] elt_c_1_elt_c_1_0_split <- elt_c_1
I0619 11:23:57.252385  4268 net.cpp:399] elt_c_1_elt_c_1_0_split -> elt_c_1_elt_c_1_0_split_0
I0619 11:23:57.252394  4268 net.cpp:399] elt_c_1_elt_c_1_0_split -> elt_c_1_elt_c_1_0_split_1
I0619 11:23:57.252403  4268 net.cpp:399] elt_c_1_elt_c_1_0_split -> elt_c_1_elt_c_1_0_split_2
I0619 11:23:57.252411  4268 net.cpp:399] elt_c_1_elt_c_1_0_split -> elt_c_1_elt_c_1_0_split_3
I0619 11:23:57.252475  4268 net.cpp:141] Setting up elt_c_1_elt_c_1_0_split
I0619 11:23:57.252495  4268 net.cpp:148] Top shape: 128 64 32 32 (8388608)
I0619 11:23:57.252501  4268 net.cpp:148] Top shape: 128 64 32 32 (8388608)
I0619 11:23:57.252507  4268 net.cpp:148] Top shape: 128 64 32 32 (8388608)
I0619 11:23:57.252513  4268 net.cpp:148] Top shape: 128 64 32 32 (8388608)
I0619 11:23:57.252517  4268 net.cpp:156] Memory required for data: 1243087360
I0619 11:23:57.252523  4268 layer_factory.hpp:77] Creating layer bn_d_1_1
I0619 11:23:57.252534  4268 net.cpp:91] Creating Layer bn_d_1_1
I0619 11:23:57.252540  4268 net.cpp:425] bn_d_1_1 <- elt_a_1_elt_a_1_0_split_0
I0619 11:23:57.252547  4268 net.cpp:399] bn_d_1_1 -> bn_d_1_1
I0619 11:23:57.252727  4268 net.cpp:141] Setting up bn_d_1_1
I0619 11:23:57.252739  4268 net.cpp:148] Top shape: 128 64 32 32 (8388608)
I0619 11:23:57.252744  4268 net.cpp:156] Memory required for data: 1276641792
I0619 11:23:57.252755  4268 layer_factory.hpp:77] Creating layer sc_d_1_1
I0619 11:23:57.252764  4268 net.cpp:91] Creating Layer sc_d_1_1
I0619 11:23:57.252770  4268 net.cpp:425] sc_d_1_1 <- bn_d_1_1
I0619 11:23:57.252776  4268 net.cpp:399] sc_d_1_1 -> sc_d_1_1
I0619 11:23:57.252818  4268 layer_factory.hpp:77] Creating layer sc_d_1_1
I0619 11:23:57.252923  4268 net.cpp:141] Setting up sc_d_1_1
I0619 11:23:57.252934  4268 net.cpp:148] Top shape: 128 64 32 32 (8388608)
I0619 11:23:57.252943  4268 net.cpp:156] Memory required for data: 1310196224
I0619 11:23:57.252953  4268 layer_factory.hpp:77] Creating layer relu_d_1_1
I0619 11:23:57.252962  4268 net.cpp:91] Creating Layer relu_d_1_1
I0619 11:23:57.252969  4268 net.cpp:425] relu_d_1_1 <- sc_d_1_1
I0619 11:23:57.252975  4268 net.cpp:399] relu_d_1_1 -> relu_d_1_1
I0619 11:23:57.253137  4268 net.cpp:141] Setting up relu_d_1_1
I0619 11:23:57.253151  4268 net.cpp:148] Top shape: 128 64 32 32 (8388608)
I0619 11:23:57.253157  4268 net.cpp:156] Memory required for data: 1343750656
I0619 11:23:57.253161  4268 layer_factory.hpp:77] Creating layer conv_d_1_1
I0619 11:23:57.253175  4268 net.cpp:91] Creating Layer conv_d_1_1
I0619 11:23:57.253182  4268 net.cpp:425] conv_d_1_1 <- relu_d_1_1
I0619 11:23:57.253190  4268 net.cpp:399] conv_d_1_1 -> conv_d_1_1
I0619 11:23:57.256347  4268 net.cpp:141] Setting up conv_d_1_1
I0619 11:23:57.256362  4268 net.cpp:148] Top shape: 128 128 16 16 (4194304)
I0619 11:23:57.256367  4268 net.cpp:156] Memory required for data: 1360527872
I0619 11:23:57.256376  4268 layer_factory.hpp:77] Creating layer bn_d_1_2
I0619 11:23:57.256387  4268 net.cpp:91] Creating Layer bn_d_1_2
I0619 11:23:57.256394  4268 net.cpp:425] bn_d_1_2 <- conv_d_1_1
I0619 11:23:57.256402  4268 net.cpp:399] bn_d_1_2 -> bn_d_1_2
I0619 11:23:57.256575  4268 net.cpp:141] Setting up bn_d_1_2
I0619 11:23:57.256587  4268 net.cpp:148] Top shape: 128 128 16 16 (4194304)
I0619 11:23:57.256592  4268 net.cpp:156] Memory required for data: 1377305088
I0619 11:23:57.256602  4268 layer_factory.hpp:77] Creating layer sc_d_1_2
I0619 11:23:57.256609  4268 net.cpp:91] Creating Layer sc_d_1_2
I0619 11:23:57.256615  4268 net.cpp:425] sc_d_1_2 <- bn_d_1_2
I0619 11:23:57.256624  4268 net.cpp:399] sc_d_1_2 -> sc_d_1_2
I0619 11:23:57.256660  4268 layer_factory.hpp:77] Creating layer sc_d_1_2
I0619 11:23:57.256762  4268 net.cpp:141] Setting up sc_d_1_2
I0619 11:23:57.256773  4268 net.cpp:148] Top shape: 128 128 16 16 (4194304)
I0619 11:23:57.256779  4268 net.cpp:156] Memory required for data: 1394082304
I0619 11:23:57.256786  4268 layer_factory.hpp:77] Creating layer relu_d_1_2
I0619 11:23:57.256796  4268 net.cpp:91] Creating Layer relu_d_1_2
I0619 11:23:57.256803  4268 net.cpp:425] relu_d_1_2 <- sc_d_1_2
I0619 11:23:57.256809  4268 net.cpp:399] relu_d_1_2 -> relu_d_1_2
I0619 11:23:57.257079  4268 net.cpp:141] Setting up relu_d_1_2
I0619 11:23:57.257093  4268 net.cpp:148] Top shape: 128 128 16 16 (4194304)
I0619 11:23:57.257098  4268 net.cpp:156] Memory required for data: 1410859520
I0619 11:23:57.257103  4268 layer_factory.hpp:77] Creating layer conv_d_1_2
I0619 11:23:57.257117  4268 net.cpp:91] Creating Layer conv_d_1_2
I0619 11:23:57.257133  4268 net.cpp:425] conv_d_1_2 <- relu_d_1_2
I0619 11:23:57.257145  4268 net.cpp:399] conv_d_1_2 -> conv_d_1_2
I0619 11:23:57.261440  4268 net.cpp:141] Setting up conv_d_1_2
I0619 11:23:57.261454  4268 net.cpp:148] Top shape: 128 128 16 16 (4194304)
I0619 11:23:57.261459  4268 net.cpp:156] Memory required for data: 1427636736
I0619 11:23:57.261467  4268 layer_factory.hpp:77] Creating layer res_d
I0619 11:23:57.261481  4268 net.cpp:91] Creating Layer res_d
I0619 11:23:57.261485  4268 net.cpp:425] res_d <- elt_a_1_elt_a_1_0_split_1
I0619 11:23:57.261495  4268 net.cpp:399] res_d -> res_d
I0619 11:23:57.262460  4268 net.cpp:141] Setting up res_d
I0619 11:23:57.262475  4268 net.cpp:148] Top shape: 128 128 16 16 (4194304)
I0619 11:23:57.262480  4268 net.cpp:156] Memory required for data: 1444413952
I0619 11:23:57.262497  4268 layer_factory.hpp:77] Creating layer elt_d_1
I0619 11:23:57.262506  4268 net.cpp:91] Creating Layer elt_d_1
I0619 11:23:57.262511  4268 net.cpp:425] elt_d_1 <- res_d
I0619 11:23:57.262517  4268 net.cpp:425] elt_d_1 <- conv_d_1_2
I0619 11:23:57.262526  4268 net.cpp:399] elt_d_1 -> elt_d_1
I0619 11:23:57.262555  4268 net.cpp:141] Setting up elt_d_1
I0619 11:23:57.262565  4268 net.cpp:148] Top shape: 128 128 16 16 (4194304)
I0619 11:23:57.262570  4268 net.cpp:156] Memory required for data: 1461191168
I0619 11:23:57.262575  4268 layer_factory.hpp:77] Creating layer bn_f_1_1
I0619 11:23:57.262584  4268 net.cpp:91] Creating Layer bn_f_1_1
I0619 11:23:57.262591  4268 net.cpp:425] bn_f_1_1 <- elt_b_1_elt_b_1_0_split_0
I0619 11:23:57.262598  4268 net.cpp:399] bn_f_1_1 -> bn_f_1_1
I0619 11:23:57.262778  4268 net.cpp:141] Setting up bn_f_1_1
I0619 11:23:57.262789  4268 net.cpp:148] Top shape: 128 64 32 32 (8388608)
I0619 11:23:57.262794  4268 net.cpp:156] Memory required for data: 1494745600
I0619 11:23:57.262804  4268 layer_factory.hpp:77] Creating layer sc_f_1_1
I0619 11:23:57.262812  4268 net.cpp:91] Creating Layer sc_f_1_1
I0619 11:23:57.262817  4268 net.cpp:425] sc_f_1_1 <- bn_f_1_1
I0619 11:23:57.262826  4268 net.cpp:399] sc_f_1_1 -> sc_f_1_1
I0619 11:23:57.262868  4268 layer_factory.hpp:77] Creating layer sc_f_1_1
I0619 11:23:57.262979  4268 net.cpp:141] Setting up sc_f_1_1
I0619 11:23:57.262990  4268 net.cpp:148] Top shape: 128 64 32 32 (8388608)
I0619 11:23:57.262996  4268 net.cpp:156] Memory required for data: 1528300032
I0619 11:23:57.263003  4268 layer_factory.hpp:77] Creating layer relu_f_1_1
I0619 11:23:57.263012  4268 net.cpp:91] Creating Layer relu_f_1_1
I0619 11:23:57.263017  4268 net.cpp:425] relu_f_1_1 <- sc_f_1_1
I0619 11:23:57.263025  4268 net.cpp:399] relu_f_1_1 -> relu_f_1_1
I0619 11:23:57.263305  4268 net.cpp:141] Setting up relu_f_1_1
I0619 11:23:57.263319  4268 net.cpp:148] Top shape: 128 64 32 32 (8388608)
I0619 11:23:57.263324  4268 net.cpp:156] Memory required for data: 1561854464
I0619 11:23:57.263329  4268 layer_factory.hpp:77] Creating layer conv_f_1_1
I0619 11:23:57.263344  4268 net.cpp:91] Creating Layer conv_f_1_1
I0619 11:23:57.263350  4268 net.cpp:425] conv_f_1_1 <- relu_f_1_1
I0619 11:23:57.263358  4268 net.cpp:399] conv_f_1_1 -> conv_f_1_1
I0619 11:23:57.266397  4268 net.cpp:141] Setting up conv_f_1_1
I0619 11:23:57.266414  4268 net.cpp:148] Top shape: 128 128 16 16 (4194304)
I0619 11:23:57.266420  4268 net.cpp:156] Memory required for data: 1578631680
I0619 11:23:57.266428  4268 layer_factory.hpp:77] Creating layer bn_f_1_2
I0619 11:23:57.266438  4268 net.cpp:91] Creating Layer bn_f_1_2
I0619 11:23:57.266443  4268 net.cpp:425] bn_f_1_2 <- conv_f_1_1
I0619 11:23:57.266453  4268 net.cpp:399] bn_f_1_2 -> bn_f_1_2
I0619 11:23:57.266633  4268 net.cpp:141] Setting up bn_f_1_2
I0619 11:23:57.266645  4268 net.cpp:148] Top shape: 128 128 16 16 (4194304)
I0619 11:23:57.266654  4268 net.cpp:156] Memory required for data: 1595408896
I0619 11:23:57.266664  4268 layer_factory.hpp:77] Creating layer sc_f_1_2
I0619 11:23:57.266671  4268 net.cpp:91] Creating Layer sc_f_1_2
I0619 11:23:57.266677  4268 net.cpp:425] sc_f_1_2 <- bn_f_1_2
I0619 11:23:57.266685  4268 net.cpp:399] sc_f_1_2 -> sc_f_1_2
I0619 11:23:57.266738  4268 layer_factory.hpp:77] Creating layer sc_f_1_2
I0619 11:23:57.266844  4268 net.cpp:141] Setting up sc_f_1_2
I0619 11:23:57.266855  4268 net.cpp:148] Top shape: 128 128 16 16 (4194304)
I0619 11:23:57.266860  4268 net.cpp:156] Memory required for data: 1612186112
I0619 11:23:57.266866  4268 layer_factory.hpp:77] Creating layer relu_f_1_2
I0619 11:23:57.266877  4268 net.cpp:91] Creating Layer relu_f_1_2
I0619 11:23:57.266885  4268 net.cpp:425] relu_f_1_2 <- sc_f_1_2
I0619 11:23:57.266892  4268 net.cpp:399] relu_f_1_2 -> relu_f_1_2
I0619 11:23:57.267066  4268 net.cpp:141] Setting up relu_f_1_2
I0619 11:23:57.267079  4268 net.cpp:148] Top shape: 128 128 16 16 (4194304)
I0619 11:23:57.267086  4268 net.cpp:156] Memory required for data: 1628963328
I0619 11:23:57.267091  4268 layer_factory.hpp:77] Creating layer conv_f_1_2
I0619 11:23:57.267104  4268 net.cpp:91] Creating Layer conv_f_1_2
I0619 11:23:57.267112  4268 net.cpp:425] conv_f_1_2 <- relu_f_1_2
I0619 11:23:57.267122  4268 net.cpp:399] conv_f_1_2 -> conv_f_1_2
I0619 11:23:57.271399  4268 net.cpp:141] Setting up conv_f_1_2
I0619 11:23:57.271414  4268 net.cpp:148] Top shape: 128 128 16 16 (4194304)
I0619 11:23:57.271426  4268 net.cpp:156] Memory required for data: 1645740544
I0619 11:23:57.271433  4268 layer_factory.hpp:77] Creating layer res_f
I0619 11:23:57.271450  4268 net.cpp:91] Creating Layer res_f
I0619 11:23:57.271456  4268 net.cpp:425] res_f <- elt_b_1_elt_b_1_0_split_1
I0619 11:23:57.271464  4268 net.cpp:399] res_f -> res_f
I0619 11:23:57.272545  4268 net.cpp:141] Setting up res_f
I0619 11:23:57.272559  4268 net.cpp:148] Top shape: 128 128 16 16 (4194304)
I0619 11:23:57.272565  4268 net.cpp:156] Memory required for data: 1662517760
I0619 11:23:57.272573  4268 layer_factory.hpp:77] Creating layer elt_f_1
I0619 11:23:57.272581  4268 net.cpp:91] Creating Layer elt_f_1
I0619 11:23:57.272588  4268 net.cpp:425] elt_f_1 <- res_f
I0619 11:23:57.272594  4268 net.cpp:425] elt_f_1 <- conv_f_1_2
I0619 11:23:57.272603  4268 net.cpp:399] elt_f_1 -> elt_f_1
I0619 11:23:57.272629  4268 net.cpp:141] Setting up elt_f_1
I0619 11:23:57.272640  4268 net.cpp:148] Top shape: 128 128 16 16 (4194304)
I0619 11:23:57.272645  4268 net.cpp:156] Memory required for data: 1679294976
I0619 11:23:57.272650  4268 layer_factory.hpp:77] Creating layer bn_g_1_1
I0619 11:23:57.272657  4268 net.cpp:91] Creating Layer bn_g_1_1
I0619 11:23:57.272663  4268 net.cpp:425] bn_g_1_1 <- elt_b_1_elt_b_1_0_split_2
I0619 11:23:57.272672  4268 net.cpp:399] bn_g_1_1 -> bn_g_1_1
I0619 11:23:57.272860  4268 net.cpp:141] Setting up bn_g_1_1
I0619 11:23:57.272871  4268 net.cpp:148] Top shape: 128 64 32 32 (8388608)
I0619 11:23:57.272876  4268 net.cpp:156] Memory required for data: 1712849408
I0619 11:23:57.272884  4268 layer_factory.hpp:77] Creating layer sc_g_1_1
I0619 11:23:57.272896  4268 net.cpp:91] Creating Layer sc_g_1_1
I0619 11:23:57.272902  4268 net.cpp:425] sc_g_1_1 <- bn_g_1_1
I0619 11:23:57.272908  4268 net.cpp:399] sc_g_1_1 -> sc_g_1_1
I0619 11:23:57.272953  4268 layer_factory.hpp:77] Creating layer sc_g_1_1
I0619 11:23:57.273071  4268 net.cpp:141] Setting up sc_g_1_1
I0619 11:23:57.273082  4268 net.cpp:148] Top shape: 128 64 32 32 (8388608)
I0619 11:23:57.273087  4268 net.cpp:156] Memory required for data: 1746403840
I0619 11:23:57.273095  4268 layer_factory.hpp:77] Creating layer relu_g_1_1
I0619 11:23:57.273103  4268 net.cpp:91] Creating Layer relu_g_1_1
I0619 11:23:57.273109  4268 net.cpp:425] relu_g_1_1 <- sc_g_1_1
I0619 11:23:57.273115  4268 net.cpp:399] relu_g_1_1 -> relu_g_1_1
I0619 11:23:57.273296  4268 net.cpp:141] Setting up relu_g_1_1
I0619 11:23:57.273308  4268 net.cpp:148] Top shape: 128 64 32 32 (8388608)
I0619 11:23:57.273314  4268 net.cpp:156] Memory required for data: 1779958272
I0619 11:23:57.273319  4268 layer_factory.hpp:77] Creating layer conv_g_1_1
I0619 11:23:57.273331  4268 net.cpp:91] Creating Layer conv_g_1_1
I0619 11:23:57.273339  4268 net.cpp:425] conv_g_1_1 <- relu_g_1_1
I0619 11:23:57.273346  4268 net.cpp:399] conv_g_1_1 -> conv_g_1_1
I0619 11:23:57.276535  4268 net.cpp:141] Setting up conv_g_1_1
I0619 11:23:57.276551  4268 net.cpp:148] Top shape: 128 128 16 16 (4194304)
I0619 11:23:57.276556  4268 net.cpp:156] Memory required for data: 1796735488
I0619 11:23:57.276564  4268 layer_factory.hpp:77] Creating layer bn_g_1_2
I0619 11:23:57.276576  4268 net.cpp:91] Creating Layer bn_g_1_2
I0619 11:23:57.276582  4268 net.cpp:425] bn_g_1_2 <- conv_g_1_1
I0619 11:23:57.276589  4268 net.cpp:399] bn_g_1_2 -> bn_g_1_2
I0619 11:23:57.276767  4268 net.cpp:141] Setting up bn_g_1_2
I0619 11:23:57.276778  4268 net.cpp:148] Top shape: 128 128 16 16 (4194304)
I0619 11:23:57.276783  4268 net.cpp:156] Memory required for data: 1813512704
I0619 11:23:57.276793  4268 layer_factory.hpp:77] Creating layer sc_g_1_2
I0619 11:23:57.276801  4268 net.cpp:91] Creating Layer sc_g_1_2
I0619 11:23:57.276808  4268 net.cpp:425] sc_g_1_2 <- bn_g_1_2
I0619 11:23:57.276814  4268 net.cpp:399] sc_g_1_2 -> sc_g_1_2
I0619 11:23:57.276854  4268 layer_factory.hpp:77] Creating layer sc_g_1_2
I0619 11:23:57.276965  4268 net.cpp:141] Setting up sc_g_1_2
I0619 11:23:57.276976  4268 net.cpp:148] Top shape: 128 128 16 16 (4194304)
I0619 11:23:57.276983  4268 net.cpp:156] Memory required for data: 1830289920
I0619 11:23:57.276989  4268 layer_factory.hpp:77] Creating layer relu_g_1_2
I0619 11:23:57.276998  4268 net.cpp:91] Creating Layer relu_g_1_2
I0619 11:23:57.277004  4268 net.cpp:425] relu_g_1_2 <- sc_g_1_2
I0619 11:23:57.277012  4268 net.cpp:399] relu_g_1_2 -> relu_g_1_2
I0619 11:23:57.277302  4268 net.cpp:141] Setting up relu_g_1_2
I0619 11:23:57.277315  4268 net.cpp:148] Top shape: 128 128 16 16 (4194304)
I0619 11:23:57.277321  4268 net.cpp:156] Memory required for data: 1847067136
I0619 11:23:57.277326  4268 layer_factory.hpp:77] Creating layer conv_g_1_2
I0619 11:23:57.277338  4268 net.cpp:91] Creating Layer conv_g_1_2
I0619 11:23:57.277344  4268 net.cpp:425] conv_g_1_2 <- relu_g_1_2
I0619 11:23:57.277354  4268 net.cpp:399] conv_g_1_2 -> conv_g_1_2
I0619 11:23:57.281544  4268 net.cpp:141] Setting up conv_g_1_2
I0619 11:23:57.281559  4268 net.cpp:148] Top shape: 128 128 16 16 (4194304)
I0619 11:23:57.281569  4268 net.cpp:156] Memory required for data: 1863844352
I0619 11:23:57.281576  4268 layer_factory.hpp:77] Creating layer res_g
I0619 11:23:57.281594  4268 net.cpp:91] Creating Layer res_g
I0619 11:23:57.281602  4268 net.cpp:425] res_g <- elt_b_1_elt_b_1_0_split_3
I0619 11:23:57.281616  4268 net.cpp:399] res_g -> res_g
I0619 11:23:57.282690  4268 net.cpp:141] Setting up res_g
I0619 11:23:57.282703  4268 net.cpp:148] Top shape: 128 128 16 16 (4194304)
I0619 11:23:57.282708  4268 net.cpp:156] Memory required for data: 1880621568
I0619 11:23:57.282716  4268 layer_factory.hpp:77] Creating layer elt_g_1
I0619 11:23:57.282727  4268 net.cpp:91] Creating Layer elt_g_1
I0619 11:23:57.282733  4268 net.cpp:425] elt_g_1 <- res_g
I0619 11:23:57.282740  4268 net.cpp:425] elt_g_1 <- conv_g_1_2
I0619 11:23:57.282747  4268 net.cpp:399] elt_g_1 -> elt_g_1
I0619 11:23:57.282773  4268 net.cpp:141] Setting up elt_g_1
I0619 11:23:57.282784  4268 net.cpp:148] Top shape: 128 128 16 16 (4194304)
I0619 11:23:57.282790  4268 net.cpp:156] Memory required for data: 1897398784
I0619 11:23:57.282794  4268 layer_factory.hpp:77] Creating layer bn_h_1_1
I0619 11:23:57.282801  4268 net.cpp:91] Creating Layer bn_h_1_1
I0619 11:23:57.282807  4268 net.cpp:425] bn_h_1_1 <- elt_c_1_elt_c_1_0_split_0
I0619 11:23:57.282816  4268 net.cpp:399] bn_h_1_1 -> bn_h_1_1
I0619 11:23:57.283010  4268 net.cpp:141] Setting up bn_h_1_1
I0619 11:23:57.283020  4268 net.cpp:148] Top shape: 128 64 32 32 (8388608)
I0619 11:23:57.283026  4268 net.cpp:156] Memory required for data: 1930953216
I0619 11:23:57.283035  4268 layer_factory.hpp:77] Creating layer sc_h_1_1
I0619 11:23:57.283047  4268 net.cpp:91] Creating Layer sc_h_1_1
I0619 11:23:57.283054  4268 net.cpp:425] sc_h_1_1 <- bn_h_1_1
I0619 11:23:57.283061  4268 net.cpp:399] sc_h_1_1 -> sc_h_1_1
I0619 11:23:57.283102  4268 layer_factory.hpp:77] Creating layer sc_h_1_1
I0619 11:23:57.283220  4268 net.cpp:141] Setting up sc_h_1_1
I0619 11:23:57.283241  4268 net.cpp:148] Top shape: 128 64 32 32 (8388608)
I0619 11:23:57.283246  4268 net.cpp:156] Memory required for data: 1964507648
I0619 11:23:57.283254  4268 layer_factory.hpp:77] Creating layer relu_h_1_1
I0619 11:23:57.283262  4268 net.cpp:91] Creating Layer relu_h_1_1
I0619 11:23:57.283268  4268 net.cpp:425] relu_h_1_1 <- sc_h_1_1
I0619 11:23:57.283277  4268 net.cpp:399] relu_h_1_1 -> relu_h_1_1
I0619 11:23:57.283565  4268 net.cpp:141] Setting up relu_h_1_1
I0619 11:23:57.283578  4268 net.cpp:148] Top shape: 128 64 32 32 (8388608)
I0619 11:23:57.283584  4268 net.cpp:156] Memory required for data: 1998062080
I0619 11:23:57.283589  4268 layer_factory.hpp:77] Creating layer conv_h_1_1
I0619 11:23:57.283601  4268 net.cpp:91] Creating Layer conv_h_1_1
I0619 11:23:57.283608  4268 net.cpp:425] conv_h_1_1 <- relu_h_1_1
I0619 11:23:57.283618  4268 net.cpp:399] conv_h_1_1 -> conv_h_1_1
I0619 11:23:57.286680  4268 net.cpp:141] Setting up conv_h_1_1
I0619 11:23:57.286695  4268 net.cpp:148] Top shape: 128 128 16 16 (4194304)
I0619 11:23:57.286700  4268 net.cpp:156] Memory required for data: 2014839296
I0619 11:23:57.286707  4268 layer_factory.hpp:77] Creating layer bn_h_1_2
I0619 11:23:57.286718  4268 net.cpp:91] Creating Layer bn_h_1_2
I0619 11:23:57.286725  4268 net.cpp:425] bn_h_1_2 <- conv_h_1_1
I0619 11:23:57.286732  4268 net.cpp:399] bn_h_1_2 -> bn_h_1_2
I0619 11:23:57.286914  4268 net.cpp:141] Setting up bn_h_1_2
I0619 11:23:57.286928  4268 net.cpp:148] Top shape: 128 128 16 16 (4194304)
I0619 11:23:57.286937  4268 net.cpp:156] Memory required for data: 2031616512
I0619 11:23:57.286947  4268 layer_factory.hpp:77] Creating layer sc_h_1_2
I0619 11:23:57.286955  4268 net.cpp:91] Creating Layer sc_h_1_2
I0619 11:23:57.286962  4268 net.cpp:425] sc_h_1_2 <- bn_h_1_2
I0619 11:23:57.286968  4268 net.cpp:399] sc_h_1_2 -> sc_h_1_2
I0619 11:23:57.287014  4268 layer_factory.hpp:77] Creating layer sc_h_1_2
I0619 11:23:57.287127  4268 net.cpp:141] Setting up sc_h_1_2
I0619 11:23:57.287137  4268 net.cpp:148] Top shape: 128 128 16 16 (4194304)
I0619 11:23:57.287143  4268 net.cpp:156] Memory required for data: 2048393728
I0619 11:23:57.287150  4268 layer_factory.hpp:77] Creating layer relu_h_1_2
I0619 11:23:57.287163  4268 net.cpp:91] Creating Layer relu_h_1_2
I0619 11:23:57.287170  4268 net.cpp:425] relu_h_1_2 <- sc_h_1_2
I0619 11:23:57.287178  4268 net.cpp:399] relu_h_1_2 -> relu_h_1_2
I0619 11:23:57.287353  4268 net.cpp:141] Setting up relu_h_1_2
I0619 11:23:57.287364  4268 net.cpp:148] Top shape: 128 128 16 16 (4194304)
I0619 11:23:57.287370  4268 net.cpp:156] Memory required for data: 2065170944
I0619 11:23:57.287375  4268 layer_factory.hpp:77] Creating layer conv_h_1_2
I0619 11:23:57.287389  4268 net.cpp:91] Creating Layer conv_h_1_2
I0619 11:23:57.287395  4268 net.cpp:425] conv_h_1_2 <- relu_h_1_2
I0619 11:23:57.287405  4268 net.cpp:399] conv_h_1_2 -> conv_h_1_2
I0619 11:23:57.291746  4268 net.cpp:141] Setting up conv_h_1_2
I0619 11:23:57.291761  4268 net.cpp:148] Top shape: 128 128 16 16 (4194304)
I0619 11:23:57.291770  4268 net.cpp:156] Memory required for data: 2081948160
I0619 11:23:57.291779  4268 layer_factory.hpp:77] Creating layer res_h
I0619 11:23:57.291795  4268 net.cpp:91] Creating Layer res_h
I0619 11:23:57.291801  4268 net.cpp:425] res_h <- elt_c_1_elt_c_1_0_split_1
I0619 11:23:57.291810  4268 net.cpp:399] res_h -> res_h
I0619 11:23:57.292896  4268 net.cpp:141] Setting up res_h
I0619 11:23:57.292911  4268 net.cpp:148] Top shape: 128 128 16 16 (4194304)
I0619 11:23:57.292917  4268 net.cpp:156] Memory required for data: 2098725376
I0619 11:23:57.292923  4268 layer_factory.hpp:77] Creating layer elt_h_1
I0619 11:23:57.292934  4268 net.cpp:91] Creating Layer elt_h_1
I0619 11:23:57.292942  4268 net.cpp:425] elt_h_1 <- res_h
I0619 11:23:57.292948  4268 net.cpp:425] elt_h_1 <- conv_h_1_2
I0619 11:23:57.292955  4268 net.cpp:399] elt_h_1 -> elt_h_1
I0619 11:23:57.292980  4268 net.cpp:141] Setting up elt_h_1
I0619 11:23:57.292989  4268 net.cpp:148] Top shape: 128 128 16 16 (4194304)
I0619 11:23:57.293006  4268 net.cpp:156] Memory required for data: 2115502592
I0619 11:23:57.293011  4268 layer_factory.hpp:77] Creating layer bn_i_1_1
I0619 11:23:57.293025  4268 net.cpp:91] Creating Layer bn_i_1_1
I0619 11:23:57.293031  4268 net.cpp:425] bn_i_1_1 <- elt_c_1_elt_c_1_0_split_2
I0619 11:23:57.293042  4268 net.cpp:399] bn_i_1_1 -> bn_i_1_1
I0619 11:23:57.293247  4268 net.cpp:141] Setting up bn_i_1_1
I0619 11:23:57.293259  4268 net.cpp:148] Top shape: 128 64 32 32 (8388608)
I0619 11:23:57.293264  4268 net.cpp:156] Memory required for data: 2149057024
I0619 11:23:57.293273  4268 layer_factory.hpp:77] Creating layer sc_i_1_1
I0619 11:23:57.293282  4268 net.cpp:91] Creating Layer sc_i_1_1
I0619 11:23:57.293290  4268 net.cpp:425] sc_i_1_1 <- bn_i_1_1
I0619 11:23:57.293300  4268 net.cpp:399] sc_i_1_1 -> sc_i_1_1
I0619 11:23:57.293349  4268 layer_factory.hpp:77] Creating layer sc_i_1_1
I0619 11:23:57.293472  4268 net.cpp:141] Setting up sc_i_1_1
I0619 11:23:57.293483  4268 net.cpp:148] Top shape: 128 64 32 32 (8388608)
I0619 11:23:57.293488  4268 net.cpp:156] Memory required for data: 2182611456
I0619 11:23:57.293495  4268 layer_factory.hpp:77] Creating layer relu_i_1_1
I0619 11:23:57.293503  4268 net.cpp:91] Creating Layer relu_i_1_1
I0619 11:23:57.293509  4268 net.cpp:425] relu_i_1_1 <- sc_i_1_1
I0619 11:23:57.293519  4268 net.cpp:399] relu_i_1_1 -> relu_i_1_1
I0619 11:23:57.293696  4268 net.cpp:141] Setting up relu_i_1_1
I0619 11:23:57.293709  4268 net.cpp:148] Top shape: 128 64 32 32 (8388608)
I0619 11:23:57.293715  4268 net.cpp:156] Memory required for data: 2216165888
I0619 11:23:57.293720  4268 layer_factory.hpp:77] Creating layer conv_i_1_1
I0619 11:23:57.293731  4268 net.cpp:91] Creating Layer conv_i_1_1
I0619 11:23:57.293737  4268 net.cpp:425] conv_i_1_1 <- relu_i_1_1
I0619 11:23:57.293747  4268 net.cpp:399] conv_i_1_1 -> conv_i_1_1
I0619 11:23:57.296821  4268 net.cpp:141] Setting up conv_i_1_1
I0619 11:23:57.296836  4268 net.cpp:148] Top shape: 128 128 16 16 (4194304)
I0619 11:23:57.296843  4268 net.cpp:156] Memory required for data: 2232943104
I0619 11:23:57.296850  4268 layer_factory.hpp:77] Creating layer bn_i_1_2
I0619 11:23:57.296861  4268 net.cpp:91] Creating Layer bn_i_1_2
I0619 11:23:57.296869  4268 net.cpp:425] bn_i_1_2 <- conv_i_1_1
I0619 11:23:57.296875  4268 net.cpp:399] bn_i_1_2 -> bn_i_1_2
I0619 11:23:57.297056  4268 net.cpp:141] Setting up bn_i_1_2
I0619 11:23:57.297070  4268 net.cpp:148] Top shape: 128 128 16 16 (4194304)
I0619 11:23:57.297078  4268 net.cpp:156] Memory required for data: 2249720320
I0619 11:23:57.297087  4268 layer_factory.hpp:77] Creating layer sc_i_1_2
I0619 11:23:57.297096  4268 net.cpp:91] Creating Layer sc_i_1_2
I0619 11:23:57.297102  4268 net.cpp:425] sc_i_1_2 <- bn_i_1_2
I0619 11:23:57.297111  4268 net.cpp:399] sc_i_1_2 -> sc_i_1_2
I0619 11:23:57.297152  4268 layer_factory.hpp:77] Creating layer sc_i_1_2
I0619 11:23:57.297266  4268 net.cpp:141] Setting up sc_i_1_2
I0619 11:23:57.297278  4268 net.cpp:148] Top shape: 128 128 16 16 (4194304)
I0619 11:23:57.297282  4268 net.cpp:156] Memory required for data: 2266497536
I0619 11:23:57.297291  4268 layer_factory.hpp:77] Creating layer relu_i_1_2
I0619 11:23:57.297300  4268 net.cpp:91] Creating Layer relu_i_1_2
I0619 11:23:57.297307  4268 net.cpp:425] relu_i_1_2 <- sc_i_1_2
I0619 11:23:57.297313  4268 net.cpp:399] relu_i_1_2 -> relu_i_1_2
I0619 11:23:57.297596  4268 net.cpp:141] Setting up relu_i_1_2
I0619 11:23:57.297610  4268 net.cpp:148] Top shape: 128 128 16 16 (4194304)
I0619 11:23:57.297616  4268 net.cpp:156] Memory required for data: 2283274752
I0619 11:23:57.297621  4268 layer_factory.hpp:77] Creating layer conv_i_1_2
I0619 11:23:57.297632  4268 net.cpp:91] Creating Layer conv_i_1_2
I0619 11:23:57.297639  4268 net.cpp:425] conv_i_1_2 <- relu_i_1_2
I0619 11:23:57.297651  4268 net.cpp:399] conv_i_1_2 -> conv_i_1_2
I0619 11:23:57.301887  4268 net.cpp:141] Setting up conv_i_1_2
I0619 11:23:57.301903  4268 net.cpp:148] Top shape: 128 128 16 16 (4194304)
I0619 11:23:57.301908  4268 net.cpp:156] Memory required for data: 2300051968
I0619 11:23:57.301930  4268 layer_factory.hpp:77] Creating layer res_i
I0619 11:23:57.301947  4268 net.cpp:91] Creating Layer res_i
I0619 11:23:57.301954  4268 net.cpp:425] res_i <- elt_c_1_elt_c_1_0_split_3
I0619 11:23:57.301964  4268 net.cpp:399] res_i -> res_i
I0619 11:23:57.303092  4268 net.cpp:141] Setting up res_i
I0619 11:23:57.303107  4268 net.cpp:148] Top shape: 128 128 16 16 (4194304)
I0619 11:23:57.303112  4268 net.cpp:156] Memory required for data: 2316829184
I0619 11:23:57.303135  4268 layer_factory.hpp:77] Creating layer elt_i_1
I0619 11:23:57.303148  4268 net.cpp:91] Creating Layer elt_i_1
I0619 11:23:57.303154  4268 net.cpp:425] elt_i_1 <- res_i
I0619 11:23:57.303160  4268 net.cpp:425] elt_i_1 <- conv_i_1_2
I0619 11:23:57.303169  4268 net.cpp:399] elt_i_1 -> elt_i_1
I0619 11:23:57.303195  4268 net.cpp:141] Setting up elt_i_1
I0619 11:23:57.303205  4268 net.cpp:148] Top shape: 128 128 16 16 (4194304)
I0619 11:23:57.303210  4268 net.cpp:156] Memory required for data: 2333606400
I0619 11:23:57.303215  4268 layer_factory.hpp:77] Creating layer elt_d_f
I0619 11:23:57.303221  4268 net.cpp:91] Creating Layer elt_d_f
I0619 11:23:57.303226  4268 net.cpp:425] elt_d_f <- elt_d_1
I0619 11:23:57.303232  4268 net.cpp:425] elt_d_f <- elt_f_1
I0619 11:23:57.303242  4268 net.cpp:399] elt_d_f -> elt_d_f
I0619 11:23:57.303275  4268 net.cpp:141] Setting up elt_d_f
I0619 11:23:57.303285  4268 net.cpp:148] Top shape: 128 128 16 16 (4194304)
I0619 11:23:57.303292  4268 net.cpp:156] Memory required for data: 2350383616
I0619 11:23:57.303295  4268 layer_factory.hpp:77] Creating layer elt_d_f_elt_d_f_0_split
I0619 11:23:57.303304  4268 net.cpp:91] Creating Layer elt_d_f_elt_d_f_0_split
I0619 11:23:57.303310  4268 net.cpp:425] elt_d_f_elt_d_f_0_split <- elt_d_f
I0619 11:23:57.303318  4268 net.cpp:399] elt_d_f_elt_d_f_0_split -> elt_d_f_elt_d_f_0_split_0
I0619 11:23:57.303328  4268 net.cpp:399] elt_d_f_elt_d_f_0_split -> elt_d_f_elt_d_f_0_split_1
I0619 11:23:57.303366  4268 net.cpp:141] Setting up elt_d_f_elt_d_f_0_split
I0619 11:23:57.303376  4268 net.cpp:148] Top shape: 128 128 16 16 (4194304)
I0619 11:23:57.303382  4268 net.cpp:148] Top shape: 128 128 16 16 (4194304)
I0619 11:23:57.303388  4268 net.cpp:156] Memory required for data: 2383938048
I0619 11:23:57.303392  4268 layer_factory.hpp:77] Creating layer elt_g_i
I0619 11:23:57.303401  4268 net.cpp:91] Creating Layer elt_g_i
I0619 11:23:57.303407  4268 net.cpp:425] elt_g_i <- elt_g_1
I0619 11:23:57.303412  4268 net.cpp:425] elt_g_i <- elt_i_1
I0619 11:23:57.303419  4268 net.cpp:399] elt_g_i -> elt_g_i
I0619 11:23:57.303452  4268 net.cpp:141] Setting up elt_g_i
I0619 11:23:57.303462  4268 net.cpp:148] Top shape: 128 128 16 16 (4194304)
I0619 11:23:57.303468  4268 net.cpp:156] Memory required for data: 2400715264
I0619 11:23:57.303472  4268 layer_factory.hpp:77] Creating layer elt_g_i_elt_g_i_0_split
I0619 11:23:57.303479  4268 net.cpp:91] Creating Layer elt_g_i_elt_g_i_0_split
I0619 11:23:57.303484  4268 net.cpp:425] elt_g_i_elt_g_i_0_split <- elt_g_i
I0619 11:23:57.303493  4268 net.cpp:399] elt_g_i_elt_g_i_0_split -> elt_g_i_elt_g_i_0_split_0
I0619 11:23:57.303503  4268 net.cpp:399] elt_g_i_elt_g_i_0_split -> elt_g_i_elt_g_i_0_split_1
I0619 11:23:57.303541  4268 net.cpp:141] Setting up elt_g_i_elt_g_i_0_split
I0619 11:23:57.303551  4268 net.cpp:148] Top shape: 128 128 16 16 (4194304)
I0619 11:23:57.303557  4268 net.cpp:148] Top shape: 128 128 16 16 (4194304)
I0619 11:23:57.303561  4268 net.cpp:156] Memory required for data: 2434269696
I0619 11:23:57.303567  4268 layer_factory.hpp:77] Creating layer bn_j_1_1
I0619 11:23:57.303575  4268 net.cpp:91] Creating Layer bn_j_1_1
I0619 11:23:57.303580  4268 net.cpp:425] bn_j_1_1 <- elt_d_f_elt_d_f_0_split_0
I0619 11:23:57.303588  4268 net.cpp:399] bn_j_1_1 -> bn_j_1_1
I0619 11:23:57.303761  4268 net.cpp:141] Setting up bn_j_1_1
I0619 11:23:57.303772  4268 net.cpp:148] Top shape: 128 128 16 16 (4194304)
I0619 11:23:57.303777  4268 net.cpp:156] Memory required for data: 2451046912
I0619 11:23:57.303786  4268 layer_factory.hpp:77] Creating layer sc_j_1_1
I0619 11:23:57.303805  4268 net.cpp:91] Creating Layer sc_j_1_1
I0619 11:23:57.303812  4268 net.cpp:425] sc_j_1_1 <- bn_j_1_1
I0619 11:23:57.303822  4268 net.cpp:399] sc_j_1_1 -> sc_j_1_1
I0619 11:23:57.303866  4268 layer_factory.hpp:77] Creating layer sc_j_1_1
I0619 11:23:57.303972  4268 net.cpp:141] Setting up sc_j_1_1
I0619 11:23:57.303982  4268 net.cpp:148] Top shape: 128 128 16 16 (4194304)
I0619 11:23:57.303988  4268 net.cpp:156] Memory required for data: 2467824128
I0619 11:23:57.303995  4268 layer_factory.hpp:77] Creating layer relu_j_1_1
I0619 11:23:57.304003  4268 net.cpp:91] Creating Layer relu_j_1_1
I0619 11:23:57.304009  4268 net.cpp:425] relu_j_1_1 <- sc_j_1_1
I0619 11:23:57.304018  4268 net.cpp:399] relu_j_1_1 -> relu_j_1_1
I0619 11:23:57.304308  4268 net.cpp:141] Setting up relu_j_1_1
I0619 11:23:57.304322  4268 net.cpp:148] Top shape: 128 128 16 16 (4194304)
I0619 11:23:57.304327  4268 net.cpp:156] Memory required for data: 2484601344
I0619 11:23:57.304332  4268 layer_factory.hpp:77] Creating layer conv_j_1_1
I0619 11:23:57.304354  4268 net.cpp:91] Creating Layer conv_j_1_1
I0619 11:23:57.304361  4268 net.cpp:425] conv_j_1_1 <- relu_j_1_1
I0619 11:23:57.304375  4268 net.cpp:399] conv_j_1_1 -> conv_j_1_1
I0619 11:23:57.312759  4268 net.cpp:141] Setting up conv_j_1_1
I0619 11:23:57.312775  4268 net.cpp:148] Top shape: 128 256 8 8 (2097152)
I0619 11:23:57.312780  4268 net.cpp:156] Memory required for data: 2492989952
I0619 11:23:57.312788  4268 layer_factory.hpp:77] Creating layer bn_j_1_2
I0619 11:23:57.312800  4268 net.cpp:91] Creating Layer bn_j_1_2
I0619 11:23:57.312808  4268 net.cpp:425] bn_j_1_2 <- conv_j_1_1
I0619 11:23:57.312815  4268 net.cpp:399] bn_j_1_2 -> bn_j_1_2
I0619 11:23:57.313016  4268 net.cpp:141] Setting up bn_j_1_2
I0619 11:23:57.313030  4268 net.cpp:148] Top shape: 128 256 8 8 (2097152)
I0619 11:23:57.313037  4268 net.cpp:156] Memory required for data: 2501378560
I0619 11:23:57.313046  4268 layer_factory.hpp:77] Creating layer sc_j_1_2
I0619 11:23:57.313055  4268 net.cpp:91] Creating Layer sc_j_1_2
I0619 11:23:57.313060  4268 net.cpp:425] sc_j_1_2 <- bn_j_1_2
I0619 11:23:57.313067  4268 net.cpp:399] sc_j_1_2 -> sc_j_1_2
I0619 11:23:57.313117  4268 layer_factory.hpp:77] Creating layer sc_j_1_2
I0619 11:23:57.313241  4268 net.cpp:141] Setting up sc_j_1_2
I0619 11:23:57.313252  4268 net.cpp:148] Top shape: 128 256 8 8 (2097152)
I0619 11:23:57.313258  4268 net.cpp:156] Memory required for data: 2509767168
I0619 11:23:57.313271  4268 layer_factory.hpp:77] Creating layer relu_j_1_2
I0619 11:23:57.313278  4268 net.cpp:91] Creating Layer relu_j_1_2
I0619 11:23:57.313284  4268 net.cpp:425] relu_j_1_2 <- sc_j_1_2
I0619 11:23:57.313293  4268 net.cpp:399] relu_j_1_2 -> relu_j_1_2
I0619 11:23:57.313478  4268 net.cpp:141] Setting up relu_j_1_2
I0619 11:23:57.313491  4268 net.cpp:148] Top shape: 128 256 8 8 (2097152)
I0619 11:23:57.313498  4268 net.cpp:156] Memory required for data: 2518155776
I0619 11:23:57.313501  4268 layer_factory.hpp:77] Creating layer conv_j_1_2
I0619 11:23:57.313514  4268 net.cpp:91] Creating Layer conv_j_1_2
I0619 11:23:57.313520  4268 net.cpp:425] conv_j_1_2 <- relu_j_1_2
I0619 11:23:57.313530  4268 net.cpp:399] conv_j_1_2 -> conv_j_1_2
I0619 11:23:57.328949  4268 net.cpp:141] Setting up conv_j_1_2
I0619 11:23:57.328965  4268 net.cpp:148] Top shape: 128 256 8 8 (2097152)
I0619 11:23:57.328970  4268 net.cpp:156] Memory required for data: 2526544384
I0619 11:23:57.328977  4268 layer_factory.hpp:77] Creating layer res_j
I0619 11:23:57.328991  4268 net.cpp:91] Creating Layer res_j
I0619 11:23:57.328996  4268 net.cpp:425] res_j <- elt_d_f_elt_d_f_0_split_1
I0619 11:23:57.329006  4268 net.cpp:399] res_j -> res_j
I0619 11:23:57.330835  4268 net.cpp:141] Setting up res_j
I0619 11:23:57.330850  4268 net.cpp:148] Top shape: 128 256 8 8 (2097152)
I0619 11:23:57.330855  4268 net.cpp:156] Memory required for data: 2534932992
I0619 11:23:57.330863  4268 layer_factory.hpp:77] Creating layer elt_j_1
I0619 11:23:57.330873  4268 net.cpp:91] Creating Layer elt_j_1
I0619 11:23:57.330889  4268 net.cpp:425] elt_j_1 <- res_j
I0619 11:23:57.330896  4268 net.cpp:425] elt_j_1 <- conv_j_1_2
I0619 11:23:57.330904  4268 net.cpp:399] elt_j_1 -> elt_j_1
I0619 11:23:57.330936  4268 net.cpp:141] Setting up elt_j_1
I0619 11:23:57.330947  4268 net.cpp:148] Top shape: 128 256 8 8 (2097152)
I0619 11:23:57.330955  4268 net.cpp:156] Memory required for data: 2543321600
I0619 11:23:57.330960  4268 layer_factory.hpp:77] Creating layer bn_e_1_1
I0619 11:23:57.330972  4268 net.cpp:91] Creating Layer bn_e_1_1
I0619 11:23:57.330978  4268 net.cpp:425] bn_e_1_1 <- elt_a_1_elt_a_1_0_split_2
I0619 11:23:57.330986  4268 net.cpp:399] bn_e_1_1 -> bn_e_1_1
I0619 11:23:57.331202  4268 net.cpp:141] Setting up bn_e_1_1
I0619 11:23:57.331214  4268 net.cpp:148] Top shape: 128 64 32 32 (8388608)
I0619 11:23:57.331219  4268 net.cpp:156] Memory required for data: 2576876032
I0619 11:23:57.331228  4268 layer_factory.hpp:77] Creating layer sc_e_1_1
I0619 11:23:57.331238  4268 net.cpp:91] Creating Layer sc_e_1_1
I0619 11:23:57.331243  4268 net.cpp:425] sc_e_1_1 <- bn_e_1_1
I0619 11:23:57.331253  4268 net.cpp:399] sc_e_1_1 -> sc_e_1_1
I0619 11:23:57.331300  4268 layer_factory.hpp:77] Creating layer sc_e_1_1
I0619 11:23:57.331421  4268 net.cpp:141] Setting up sc_e_1_1
I0619 11:23:57.331432  4268 net.cpp:148] Top shape: 128 64 32 32 (8388608)
I0619 11:23:57.331446  4268 net.cpp:156] Memory required for data: 2610430464
I0619 11:23:57.331459  4268 layer_factory.hpp:77] Creating layer relu_e_1_1
I0619 11:23:57.331468  4268 net.cpp:91] Creating Layer relu_e_1_1
I0619 11:23:57.331475  4268 net.cpp:425] relu_e_1_1 <- sc_e_1_1
I0619 11:23:57.331481  4268 net.cpp:399] relu_e_1_1 -> relu_e_1_1
I0619 11:23:57.331683  4268 net.cpp:141] Setting up relu_e_1_1
I0619 11:23:57.331701  4268 net.cpp:148] Top shape: 128 64 32 32 (8388608)
I0619 11:23:57.331707  4268 net.cpp:156] Memory required for data: 2643984896
I0619 11:23:57.331712  4268 layer_factory.hpp:77] Creating layer conv_e_1_1
I0619 11:23:57.331724  4268 net.cpp:91] Creating Layer conv_e_1_1
I0619 11:23:57.331732  4268 net.cpp:425] conv_e_1_1 <- relu_e_1_1
I0619 11:23:57.331739  4268 net.cpp:399] conv_e_1_1 -> conv_e_1_1
I0619 11:23:57.334866  4268 net.cpp:141] Setting up conv_e_1_1
I0619 11:23:57.334882  4268 net.cpp:148] Top shape: 128 128 16 16 (4194304)
I0619 11:23:57.334889  4268 net.cpp:156] Memory required for data: 2660762112
I0619 11:23:57.334897  4268 layer_factory.hpp:77] Creating layer bn_e_1_2
I0619 11:23:57.334906  4268 net.cpp:91] Creating Layer bn_e_1_2
I0619 11:23:57.334913  4268 net.cpp:425] bn_e_1_2 <- conv_e_1_1
I0619 11:23:57.334921  4268 net.cpp:399] bn_e_1_2 -> bn_e_1_2
I0619 11:23:57.335113  4268 net.cpp:141] Setting up bn_e_1_2
I0619 11:23:57.335126  4268 net.cpp:148] Top shape: 128 128 16 16 (4194304)
I0619 11:23:57.335132  4268 net.cpp:156] Memory required for data: 2677539328
I0619 11:23:57.335141  4268 layer_factory.hpp:77] Creating layer sc_e_1_2
I0619 11:23:57.335150  4268 net.cpp:91] Creating Layer sc_e_1_2
I0619 11:23:57.335157  4268 net.cpp:425] sc_e_1_2 <- bn_e_1_2
I0619 11:23:57.335167  4268 net.cpp:399] sc_e_1_2 -> sc_e_1_2
I0619 11:23:57.335212  4268 layer_factory.hpp:77] Creating layer sc_e_1_2
I0619 11:23:57.335332  4268 net.cpp:141] Setting up sc_e_1_2
I0619 11:23:57.335345  4268 net.cpp:148] Top shape: 128 128 16 16 (4194304)
I0619 11:23:57.335351  4268 net.cpp:156] Memory required for data: 2694316544
I0619 11:23:57.335358  4268 layer_factory.hpp:77] Creating layer relu_e_1_2
I0619 11:23:57.335366  4268 net.cpp:91] Creating Layer relu_e_1_2
I0619 11:23:57.335372  4268 net.cpp:425] relu_e_1_2 <- sc_e_1_2
I0619 11:23:57.335382  4268 net.cpp:399] relu_e_1_2 -> relu_e_1_2
I0619 11:23:57.335670  4268 net.cpp:141] Setting up relu_e_1_2
I0619 11:23:57.335685  4268 net.cpp:148] Top shape: 128 128 16 16 (4194304)
I0619 11:23:57.335691  4268 net.cpp:156] Memory required for data: 2711093760
I0619 11:23:57.335696  4268 layer_factory.hpp:77] Creating layer conv_e_1_2
I0619 11:23:57.335711  4268 net.cpp:91] Creating Layer conv_e_1_2
I0619 11:23:57.335728  4268 net.cpp:425] conv_e_1_2 <- relu_e_1_2
I0619 11:23:57.335738  4268 net.cpp:399] conv_e_1_2 -> conv_e_1_2
I0619 11:23:57.339995  4268 net.cpp:141] Setting up conv_e_1_2
I0619 11:23:57.340009  4268 net.cpp:148] Top shape: 128 128 16 16 (4194304)
I0619 11:23:57.340014  4268 net.cpp:156] Memory required for data: 2727870976
I0619 11:23:57.340023  4268 layer_factory.hpp:77] Creating layer res_e
I0619 11:23:57.340037  4268 net.cpp:91] Creating Layer res_e
I0619 11:23:57.340044  4268 net.cpp:425] res_e <- elt_a_1_elt_a_1_0_split_3
I0619 11:23:57.340054  4268 net.cpp:399] res_e -> res_e
I0619 11:23:57.341176  4268 net.cpp:141] Setting up res_e
I0619 11:23:57.341192  4268 net.cpp:148] Top shape: 128 128 16 16 (4194304)
I0619 11:23:57.341197  4268 net.cpp:156] Memory required for data: 2744648192
I0619 11:23:57.341205  4268 layer_factory.hpp:77] Creating layer elt_e_1
I0619 11:23:57.341215  4268 net.cpp:91] Creating Layer elt_e_1
I0619 11:23:57.341222  4268 net.cpp:425] elt_e_1 <- res_e
I0619 11:23:57.341228  4268 net.cpp:425] elt_e_1 <- conv_e_1_2
I0619 11:23:57.341235  4268 net.cpp:399] elt_e_1 -> elt_e_1
I0619 11:23:57.341264  4268 net.cpp:141] Setting up elt_e_1
I0619 11:23:57.341274  4268 net.cpp:148] Top shape: 128 128 16 16 (4194304)
I0619 11:23:57.341279  4268 net.cpp:156] Memory required for data: 2761425408
I0619 11:23:57.341284  4268 layer_factory.hpp:77] Creating layer elt_e_h
I0619 11:23:57.341290  4268 net.cpp:91] Creating Layer elt_e_h
I0619 11:23:57.341296  4268 net.cpp:425] elt_e_h <- elt_e_1
I0619 11:23:57.341302  4268 net.cpp:425] elt_e_h <- elt_h_1
I0619 11:23:57.341311  4268 net.cpp:399] elt_e_h -> elt_e_h
I0619 11:23:57.341341  4268 net.cpp:141] Setting up elt_e_h
I0619 11:23:57.341349  4268 net.cpp:148] Top shape: 128 128 16 16 (4194304)
I0619 11:23:57.341357  4268 net.cpp:156] Memory required for data: 2778202624
I0619 11:23:57.341364  4268 layer_factory.hpp:77] Creating layer elt_e_h_elt_e_h_0_split
I0619 11:23:57.341373  4268 net.cpp:91] Creating Layer elt_e_h_elt_e_h_0_split
I0619 11:23:57.341379  4268 net.cpp:425] elt_e_h_elt_e_h_0_split <- elt_e_h
I0619 11:23:57.341387  4268 net.cpp:399] elt_e_h_elt_e_h_0_split -> elt_e_h_elt_e_h_0_split_0
I0619 11:23:57.341408  4268 net.cpp:399] elt_e_h_elt_e_h_0_split -> elt_e_h_elt_e_h_0_split_1
I0619 11:23:57.341449  4268 net.cpp:141] Setting up elt_e_h_elt_e_h_0_split
I0619 11:23:57.341462  4268 net.cpp:148] Top shape: 128 128 16 16 (4194304)
I0619 11:23:57.341470  4268 net.cpp:148] Top shape: 128 128 16 16 (4194304)
I0619 11:23:57.341475  4268 net.cpp:156] Memory required for data: 2811757056
I0619 11:23:57.341480  4268 layer_factory.hpp:77] Creating layer bn_k_1_1
I0619 11:23:57.341488  4268 net.cpp:91] Creating Layer bn_k_1_1
I0619 11:23:57.341495  4268 net.cpp:425] bn_k_1_1 <- elt_e_h_elt_e_h_0_split_0
I0619 11:23:57.341501  4268 net.cpp:399] bn_k_1_1 -> bn_k_1_1
I0619 11:23:57.341696  4268 net.cpp:141] Setting up bn_k_1_1
I0619 11:23:57.341706  4268 net.cpp:148] Top shape: 128 128 16 16 (4194304)
I0619 11:23:57.341711  4268 net.cpp:156] Memory required for data: 2828534272
I0619 11:23:57.341720  4268 layer_factory.hpp:77] Creating layer sc_k_1_1
I0619 11:23:57.341729  4268 net.cpp:91] Creating Layer sc_k_1_1
I0619 11:23:57.341735  4268 net.cpp:425] sc_k_1_1 <- bn_k_1_1
I0619 11:23:57.341742  4268 net.cpp:399] sc_k_1_1 -> sc_k_1_1
I0619 11:23:57.341792  4268 layer_factory.hpp:77] Creating layer sc_k_1_1
I0619 11:23:57.341907  4268 net.cpp:141] Setting up sc_k_1_1
I0619 11:23:57.341917  4268 net.cpp:148] Top shape: 128 128 16 16 (4194304)
I0619 11:23:57.341922  4268 net.cpp:156] Memory required for data: 2845311488
I0619 11:23:57.341929  4268 layer_factory.hpp:77] Creating layer relu_k_1_1
I0619 11:23:57.341939  4268 net.cpp:91] Creating Layer relu_k_1_1
I0619 11:23:57.341945  4268 net.cpp:425] relu_k_1_1 <- sc_k_1_1
I0619 11:23:57.341953  4268 net.cpp:399] relu_k_1_1 -> relu_k_1_1
I0619 11:23:57.342247  4268 net.cpp:141] Setting up relu_k_1_1
I0619 11:23:57.342259  4268 net.cpp:148] Top shape: 128 128 16 16 (4194304)
I0619 11:23:57.342268  4268 net.cpp:156] Memory required for data: 2862088704
I0619 11:23:57.342284  4268 layer_factory.hpp:77] Creating layer conv_k_1_1
I0619 11:23:57.342298  4268 net.cpp:91] Creating Layer conv_k_1_1
I0619 11:23:57.342306  4268 net.cpp:425] conv_k_1_1 <- relu_k_1_1
I0619 11:23:57.342319  4268 net.cpp:399] conv_k_1_1 -> conv_k_1_1
I0619 11:23:57.350494  4268 net.cpp:141] Setting up conv_k_1_1
I0619 11:23:57.350509  4268 net.cpp:148] Top shape: 128 256 8 8 (2097152)
I0619 11:23:57.350518  4268 net.cpp:156] Memory required for data: 2870477312
I0619 11:23:57.350527  4268 layer_factory.hpp:77] Creating layer bn_k_1_2
I0619 11:23:57.350538  4268 net.cpp:91] Creating Layer bn_k_1_2
I0619 11:23:57.350543  4268 net.cpp:425] bn_k_1_2 <- conv_k_1_1
I0619 11:23:57.350551  4268 net.cpp:399] bn_k_1_2 -> bn_k_1_2
I0619 11:23:57.350760  4268 net.cpp:141] Setting up bn_k_1_2
I0619 11:23:57.350771  4268 net.cpp:148] Top shape: 128 256 8 8 (2097152)
I0619 11:23:57.350778  4268 net.cpp:156] Memory required for data: 2878865920
I0619 11:23:57.350787  4268 layer_factory.hpp:77] Creating layer sc_k_1_2
I0619 11:23:57.350796  4268 net.cpp:91] Creating Layer sc_k_1_2
I0619 11:23:57.350802  4268 net.cpp:425] sc_k_1_2 <- bn_k_1_2
I0619 11:23:57.350811  4268 net.cpp:399] sc_k_1_2 -> sc_k_1_2
I0619 11:23:57.350857  4268 layer_factory.hpp:77] Creating layer sc_k_1_2
I0619 11:23:57.350977  4268 net.cpp:141] Setting up sc_k_1_2
I0619 11:23:57.350988  4268 net.cpp:148] Top shape: 128 256 8 8 (2097152)
I0619 11:23:57.350993  4268 net.cpp:156] Memory required for data: 2887254528
I0619 11:23:57.351001  4268 layer_factory.hpp:77] Creating layer relu_k_1_2
I0619 11:23:57.351011  4268 net.cpp:91] Creating Layer relu_k_1_2
I0619 11:23:57.351016  4268 net.cpp:425] relu_k_1_2 <- sc_k_1_2
I0619 11:23:57.351023  4268 net.cpp:399] relu_k_1_2 -> relu_k_1_2
I0619 11:23:57.351325  4268 net.cpp:141] Setting up relu_k_1_2
I0619 11:23:57.351338  4268 net.cpp:148] Top shape: 128 256 8 8 (2097152)
I0619 11:23:57.351343  4268 net.cpp:156] Memory required for data: 2895643136
I0619 11:23:57.351348  4268 layer_factory.hpp:77] Creating layer conv_k_1_2
I0619 11:23:57.351361  4268 net.cpp:91] Creating Layer conv_k_1_2
I0619 11:23:57.351367  4268 net.cpp:425] conv_k_1_2 <- relu_k_1_2
I0619 11:23:57.351378  4268 net.cpp:399] conv_k_1_2 -> conv_k_1_2
I0619 11:23:57.366778  4268 net.cpp:141] Setting up conv_k_1_2
I0619 11:23:57.366793  4268 net.cpp:148] Top shape: 128 256 8 8 (2097152)
I0619 11:23:57.366798  4268 net.cpp:156] Memory required for data: 2904031744
I0619 11:23:57.366806  4268 layer_factory.hpp:77] Creating layer res_k
I0619 11:23:57.366818  4268 net.cpp:91] Creating Layer res_k
I0619 11:23:57.366824  4268 net.cpp:425] res_k <- elt_e_h_elt_e_h_0_split_1
I0619 11:23:57.366834  4268 net.cpp:399] res_k -> res_k
I0619 11:23:57.368791  4268 net.cpp:141] Setting up res_k
I0619 11:23:57.368806  4268 net.cpp:148] Top shape: 128 256 8 8 (2097152)
I0619 11:23:57.368811  4268 net.cpp:156] Memory required for data: 2912420352
I0619 11:23:57.368818  4268 layer_factory.hpp:77] Creating layer elt_k_1
I0619 11:23:57.368829  4268 net.cpp:91] Creating Layer elt_k_1
I0619 11:23:57.368835  4268 net.cpp:425] elt_k_1 <- res_k
I0619 11:23:57.368841  4268 net.cpp:425] elt_k_1 <- conv_k_1_2
I0619 11:23:57.368847  4268 net.cpp:399] elt_k_1 -> elt_k_1
I0619 11:23:57.368881  4268 net.cpp:141] Setting up elt_k_1
I0619 11:23:57.368891  4268 net.cpp:148] Top shape: 128 256 8 8 (2097152)
I0619 11:23:57.368899  4268 net.cpp:156] Memory required for data: 2920808960
I0619 11:23:57.368904  4268 layer_factory.hpp:77] Creating layer bn_l_1_1
I0619 11:23:57.368913  4268 net.cpp:91] Creating Layer bn_l_1_1
I0619 11:23:57.368919  4268 net.cpp:425] bn_l_1_1 <- elt_g_i_elt_g_i_0_split_0
I0619 11:23:57.368927  4268 net.cpp:399] bn_l_1_1 -> bn_l_1_1
I0619 11:23:57.369137  4268 net.cpp:141] Setting up bn_l_1_1
I0619 11:23:57.369148  4268 net.cpp:148] Top shape: 128 128 16 16 (4194304)
I0619 11:23:57.369154  4268 net.cpp:156] Memory required for data: 2937586176
I0619 11:23:57.369163  4268 layer_factory.hpp:77] Creating layer sc_l_1_1
I0619 11:23:57.369185  4268 net.cpp:91] Creating Layer sc_l_1_1
I0619 11:23:57.369192  4268 net.cpp:425] sc_l_1_1 <- bn_l_1_1
I0619 11:23:57.369199  4268 net.cpp:399] sc_l_1_1 -> sc_l_1_1
I0619 11:23:57.369251  4268 layer_factory.hpp:77] Creating layer sc_l_1_1
I0619 11:23:57.369371  4268 net.cpp:141] Setting up sc_l_1_1
I0619 11:23:57.369382  4268 net.cpp:148] Top shape: 128 128 16 16 (4194304)
I0619 11:23:57.369388  4268 net.cpp:156] Memory required for data: 2954363392
I0619 11:23:57.369395  4268 layer_factory.hpp:77] Creating layer relu_l_1_1
I0619 11:23:57.369403  4268 net.cpp:91] Creating Layer relu_l_1_1
I0619 11:23:57.369410  4268 net.cpp:425] relu_l_1_1 <- sc_l_1_1
I0619 11:23:57.369421  4268 net.cpp:399] relu_l_1_1 -> relu_l_1_1
I0619 11:23:57.369613  4268 net.cpp:141] Setting up relu_l_1_1
I0619 11:23:57.369628  4268 net.cpp:148] Top shape: 128 128 16 16 (4194304)
I0619 11:23:57.369634  4268 net.cpp:156] Memory required for data: 2971140608
I0619 11:23:57.369638  4268 layer_factory.hpp:77] Creating layer conv_l_1_1
I0619 11:23:57.369652  4268 net.cpp:91] Creating Layer conv_l_1_1
I0619 11:23:57.369658  4268 net.cpp:425] conv_l_1_1 <- relu_l_1_1
I0619 11:23:57.369666  4268 net.cpp:399] conv_l_1_1 -> conv_l_1_1
I0619 11:23:57.377950  4268 net.cpp:141] Setting up conv_l_1_1
I0619 11:23:57.377965  4268 net.cpp:148] Top shape: 128 256 8 8 (2097152)
I0619 11:23:57.377970  4268 net.cpp:156] Memory required for data: 2979529216
I0619 11:23:57.377979  4268 layer_factory.hpp:77] Creating layer bn_l_1_2
I0619 11:23:57.377991  4268 net.cpp:91] Creating Layer bn_l_1_2
I0619 11:23:57.377997  4268 net.cpp:425] bn_l_1_2 <- conv_l_1_1
I0619 11:23:57.378006  4268 net.cpp:399] bn_l_1_2 -> bn_l_1_2
I0619 11:23:57.378252  4268 net.cpp:141] Setting up bn_l_1_2
I0619 11:23:57.378264  4268 net.cpp:148] Top shape: 128 256 8 8 (2097152)
I0619 11:23:57.378269  4268 net.cpp:156] Memory required for data: 2987917824
I0619 11:23:57.378278  4268 layer_factory.hpp:77] Creating layer sc_l_1_2
I0619 11:23:57.378286  4268 net.cpp:91] Creating Layer sc_l_1_2
I0619 11:23:57.378293  4268 net.cpp:425] sc_l_1_2 <- bn_l_1_2
I0619 11:23:57.378300  4268 net.cpp:399] sc_l_1_2 -> sc_l_1_2
I0619 11:23:57.378350  4268 layer_factory.hpp:77] Creating layer sc_l_1_2
I0619 11:23:57.378481  4268 net.cpp:141] Setting up sc_l_1_2
I0619 11:23:57.378492  4268 net.cpp:148] Top shape: 128 256 8 8 (2097152)
I0619 11:23:57.378500  4268 net.cpp:156] Memory required for data: 2996306432
I0619 11:23:57.378510  4268 layer_factory.hpp:77] Creating layer relu_l_1_2
I0619 11:23:57.378531  4268 net.cpp:91] Creating Layer relu_l_1_2
I0619 11:23:57.378538  4268 net.cpp:425] relu_l_1_2 <- sc_l_1_2
I0619 11:23:57.378553  4268 net.cpp:399] relu_l_1_2 -> relu_l_1_2
I0619 11:23:57.378741  4268 net.cpp:141] Setting up relu_l_1_2
I0619 11:23:57.378754  4268 net.cpp:148] Top shape: 128 256 8 8 (2097152)
I0619 11:23:57.378759  4268 net.cpp:156] Memory required for data: 3004695040
I0619 11:23:57.378765  4268 layer_factory.hpp:77] Creating layer conv_l_1_2
I0619 11:23:57.378778  4268 net.cpp:91] Creating Layer conv_l_1_2
I0619 11:23:57.378785  4268 net.cpp:425] conv_l_1_2 <- relu_l_1_2
I0619 11:23:57.378794  4268 net.cpp:399] conv_l_1_2 -> conv_l_1_2
I0619 11:23:57.394203  4268 net.cpp:141] Setting up conv_l_1_2
I0619 11:23:57.394220  4268 net.cpp:148] Top shape: 128 256 8 8 (2097152)
I0619 11:23:57.394225  4268 net.cpp:156] Memory required for data: 3013083648
I0619 11:23:57.394234  4268 layer_factory.hpp:77] Creating layer res_l
I0619 11:23:57.394248  4268 net.cpp:91] Creating Layer res_l
I0619 11:23:57.394253  4268 net.cpp:425] res_l <- elt_g_i_elt_g_i_0_split_1
I0619 11:23:57.394260  4268 net.cpp:399] res_l -> res_l
I0619 11:23:57.396121  4268 net.cpp:141] Setting up res_l
I0619 11:23:57.396136  4268 net.cpp:148] Top shape: 128 256 8 8 (2097152)
I0619 11:23:57.396141  4268 net.cpp:156] Memory required for data: 3021472256
I0619 11:23:57.396148  4268 layer_factory.hpp:77] Creating layer elt_l_1
I0619 11:23:57.396157  4268 net.cpp:91] Creating Layer elt_l_1
I0619 11:23:57.396174  4268 net.cpp:425] elt_l_1 <- res_l
I0619 11:23:57.396181  4268 net.cpp:425] elt_l_1 <- conv_l_1_2
I0619 11:23:57.396190  4268 net.cpp:399] elt_l_1 -> elt_l_1
I0619 11:23:57.396232  4268 net.cpp:141] Setting up elt_l_1
I0619 11:23:57.396242  4268 net.cpp:148] Top shape: 128 256 8 8 (2097152)
I0619 11:23:57.396250  4268 net.cpp:156] Memory required for data: 3029860864
I0619 11:23:57.396255  4268 layer_factory.hpp:77] Creating layer elt_j_k_l
I0619 11:23:57.396261  4268 net.cpp:91] Creating Layer elt_j_k_l
I0619 11:23:57.396267  4268 net.cpp:425] elt_j_k_l <- elt_j_1
I0619 11:23:57.396273  4268 net.cpp:425] elt_j_k_l <- elt_k_1
I0619 11:23:57.396281  4268 net.cpp:425] elt_j_k_l <- elt_l_1
I0619 11:23:57.396288  4268 net.cpp:399] elt_j_k_l -> elt_j_k_l
I0619 11:23:57.396319  4268 net.cpp:141] Setting up elt_j_k_l
I0619 11:23:57.396332  4268 net.cpp:148] Top shape: 128 256 8 8 (2097152)
I0619 11:23:57.396337  4268 net.cpp:156] Memory required for data: 3038249472
I0619 11:23:57.396342  4268 layer_factory.hpp:77] Creating layer bn_m_1_1
I0619 11:23:57.396349  4268 net.cpp:91] Creating Layer bn_m_1_1
I0619 11:23:57.396354  4268 net.cpp:425] bn_m_1_1 <- elt_j_k_l
I0619 11:23:57.396363  4268 net.cpp:399] bn_m_1_1 -> bn_m_1_1
I0619 11:23:57.396582  4268 net.cpp:141] Setting up bn_m_1_1
I0619 11:23:57.396595  4268 net.cpp:148] Top shape: 128 256 8 8 (2097152)
I0619 11:23:57.396600  4268 net.cpp:156] Memory required for data: 3046638080
I0619 11:23:57.396608  4268 layer_factory.hpp:77] Creating layer sc_m_1_1
I0619 11:23:57.396617  4268 net.cpp:91] Creating Layer sc_m_1_1
I0619 11:23:57.396623  4268 net.cpp:425] sc_m_1_1 <- bn_m_1_1
I0619 11:23:57.396632  4268 net.cpp:399] sc_m_1_1 -> sc_m_1_1
I0619 11:23:57.396677  4268 layer_factory.hpp:77] Creating layer sc_m_1_1
I0619 11:23:57.396816  4268 net.cpp:141] Setting up sc_m_1_1
I0619 11:23:57.396829  4268 net.cpp:148] Top shape: 128 256 8 8 (2097152)
I0619 11:23:57.396836  4268 net.cpp:156] Memory required for data: 3055026688
I0619 11:23:57.396842  4268 layer_factory.hpp:77] Creating layer relu_m_1_1
I0619 11:23:57.396850  4268 net.cpp:91] Creating Layer relu_m_1_1
I0619 11:23:57.396857  4268 net.cpp:425] relu_m_1_1 <- sc_m_1_1
I0619 11:23:57.396863  4268 net.cpp:399] relu_m_1_1 -> relu_m_1_1
I0619 11:23:57.397159  4268 net.cpp:141] Setting up relu_m_1_1
I0619 11:23:57.397173  4268 net.cpp:148] Top shape: 128 256 8 8 (2097152)
I0619 11:23:57.397179  4268 net.cpp:156] Memory required for data: 3063415296
I0619 11:23:57.397184  4268 layer_factory.hpp:77] Creating layer gap
I0619 11:23:57.397192  4268 net.cpp:91] Creating Layer gap
I0619 11:23:57.397198  4268 net.cpp:425] gap <- relu_m_1_1
I0619 11:23:57.397207  4268 net.cpp:399] gap -> gap
I0619 11:23:57.397429  4268 net.cpp:141] Setting up gap
I0619 11:23:57.397441  4268 net.cpp:148] Top shape: 128 256 1 1 (32768)
I0619 11:23:57.397447  4268 net.cpp:156] Memory required for data: 3063546368
I0619 11:23:57.397452  4268 layer_factory.hpp:77] Creating layer ip1
I0619 11:23:57.397467  4268 net.cpp:91] Creating Layer ip1
I0619 11:23:57.397475  4268 net.cpp:425] ip1 <- gap
I0619 11:23:57.397485  4268 net.cpp:399] ip1 -> ip1
I0619 11:23:57.397675  4268 net.cpp:141] Setting up ip1
I0619 11:23:57.397686  4268 net.cpp:148] Top shape: 128 10 (1280)
I0619 11:23:57.397692  4268 net.cpp:156] Memory required for data: 3063551488
I0619 11:23:57.397709  4268 layer_factory.hpp:77] Creating layer loss
I0619 11:23:57.397721  4268 net.cpp:91] Creating Layer loss
I0619 11:23:57.397727  4268 net.cpp:425] loss <- ip1
I0619 11:23:57.397732  4268 net.cpp:425] loss <- label
I0619 11:23:57.397742  4268 net.cpp:399] loss -> loss
I0619 11:23:57.397753  4268 layer_factory.hpp:77] Creating layer loss
…
I0619 11:23:57.402068  4268 net.cpp:313] The NetState phase (1) differed from the phase (0) specified by a rule in layer resnet
I0619 11:23:57.402809  4268 net.cpp:49] Initializing net from parameters: 
name: "ResNet"
state {
  phase: TEST
}
layer {
  name: "resnet"
  type: "Data"
  top: "data"
  top: "label"
  include {
    phase: TEST
  }
  transform_param {
    mean_file: "/home/takeki/caffe/examples/cifar10/mean.binaryproto"
  }
  data_param {
    source: "/home/takeki/caffe/examples/cifar10/cifar10_test_lmdb"
    batch_size: 100
    backend: LMDB
  }
}
layer {
  name: "conv0"
  type: "Convolution"
  bottom: "data"
  top: "conv0"
  param {
    lr_mult: 1
  }
  param {
    lr_mult: 2
  }
  convolution_param {
    num_output: 16
    pad: 1
    kernel_size: 3
    stride: 1
    weight_filler {
      type: "msra"
    }
    bias_filler {
      type: "constant"
    }
  }
}
layer {
  name: "bn_a_1_1"
  type: "BatchNorm"
  bottom: "conv0"
  top: "bn_a_1_1"
  param {
    lr_mult: 0
  }
  param {
    lr_mult: 0
  }
  param {
    lr_mult: 0
  }
  batch_norm_param {
    use_global_stats: false
  }
}
layer {
  name: "sc_a_1_1"
  type: "Scale"
  bottom: "bn_a_1_1"
  top: "sc_a_1_1"
  scale_param {
    bias_term: true
  }
}
layer {
  name: "relu_a_1_1"
  type: "ReLU"
  bottom: "sc_a_1_1"
  top: "relu_a_1_1"
}
layer {
  name: "conv_a_1_1"
  type: "Convolution"
  bottom: "relu_a_1_1"
  top: "conv_a_1_1"
  param {
    lr_mult: 1
    decay_mult: 1
  }
  param {
    lr_mult: 2
    decay_mult: 1
  }
  convolution_param {
    num_output: 64
    pad: 1
    kernel_size: 3
    stride: 1
    weight_filler {
      type: "msra"
    }
    bias_filler {
      type: "constant"
    }
  }
}
layer {
  name: "bn_a_1_2"
  type: "BatchNorm"
  bottom: "conv_a_1_1"
  top: "bn_a_1_2"
  param {
    lr_mult: 0
  }
  param {
    lr_mult: 0
  }
  param {
    lr_mult: 0
  }
  batch_norm_param {
    use_global_stats: false
  }
}
layer {
  name: "sc_a_1_2"
  type: "Scale"
  bottom: "bn_a_1_2"
  top: "sc_a_1_2"
  scale_param {
    bias_term: true
  }
}
layer {
  name: "relu_a_1_2"
  type: "ReLU"
  bottom: "sc_a_1_2"
  top: "relu_a_1_2"
}
layer {
  name: "conv_a_1_2"
  type: "Convolution"
  bottom: "relu_a_1_2"
  top: "conv_a_1_2"
  param {
    lr_mult: 1
    decay_mult: 1
  }
  param {
    lr_mult: 2
    decay_mult: 1
  }
  convolution_param {
    num_output: 64
    pad: 1
    kernel_size: 3
    stride: 1
    weight_filler {
      type: "msra"
    }
    bias_filler {
      type: "constant"
    }
  }
}
layer {
  name: "res_a"
  type: "Convolution"
  bottom: "conv0"
  top: "res_a"
  param {
    lr_mult: 1
    decay_mult: 1
  }
  param {
    lr_mult: 2
    decay_mult: 1
  }
  convolution_param {
    num_output: 64
    pad: 0
    kernel_size: 1
    stride: 1
    weight_filler {
      type: "msra"
    }
    bias_filler {
      type: "constant"
    }
  }
}
layer {
  name: "elt_a_1"
  type: "Eltwise"
  bottom: "res_a"
  bottom: "conv_a_1_2"
  top: "elt_a_1"
  eltwise_param {
    operation: SUM
  }
}
layer {
  name: "bn_b_1_1"
  type: "BatchNorm"
  bottom: "conv0"
  top: "bn_b_1_1"
  param {
    lr_mult: 0
  }
  param {
    lr_mult: 0
  }
  param {
    lr_mult: 0
  }
  batch_norm_param {
    use_global_stats: false
  }
}
layer {
  name: "sc_b_1_1"
  type: "Scale"
  bottom: "bn_b_1_1"
  top: "sc_b_1_1"
  scale_param {
    bias_term: true
  }
}
layer {
  name: "relu_b_1_1"
  type: "ReLU"
  bottom: "sc_b_1_1"
  top: "relu_b_1_1"
}
layer {
  name: "conv_b_1_1"
  type: "Convolution"
  bottom: "relu_b_1_1"
  top: "conv_b_1_1"
  param {
    lr_mult: 1
    decay_mult: 1
  }
  param {
    lr_mult: 2
    decay_mult: 1
  }
  convolution_param {
    num_output: 64
    pad: 1
    kernel_size: 3
    stride: 1
    weight_filler {
      type: "msra"
    }
    bias_filler {
      type: "constant"
    }
  }
}
layer {
  name: "bn_b_1_2"
  type: "BatchNorm"
  bottom: "conv_b_1_1"
  top: "bn_b_1_2"
  param {
    lr_mult: 0
  }
  param {
    lr_mult: 0
  }
  param {
    lr_mult: 0
  }
  batch_norm_param {
    use_global_stats: false
  }
}
layer {
  name: "sc_b_1_2"
  type: "Scale"
  bottom: "bn_b_1_2"
  top: "sc_b_1_2"
  scale_param {
    bias_term: true
  }
}
layer {
  name: "relu_b_1_2"
  type: "ReLU"
  bottom: "sc_b_1_2"
  top: "relu_b_1_2"
}
layer {
  name: "conv_b_1_2"
  type: "Convolution"
  bottom: "relu_b_1_2"
  top: "conv_b_1_2"
  param {
    lr_mult: 1
    decay_mult: 1
  }
  param {
    lr_mult: 2
    decay_mult: 1
  }
  convolution_param {
    num_output: 64
    pad: 1
    kernel_size: 3
    stride: 1
    weight_filler {
      type: "msra"
    }
    bias_filler {
      type: "constant"
    }
  }
}
layer {
  name: "res_b"
  type: "Convolution"
  bottom: "conv0"
  top: "res_b"
  param {
    lr_mult: 1
    decay_mult: 1
  }
  param {
    lr_mult: 2
    decay_mult: 1
  }
  convolution_param {
    num_output: 64
    pad: 0
    kernel_size: 1
    stride: 1
    weight_filler {
      type: "msra"
    }
    bias_filler {
      type: "constant"
    }
  }
}
layer {
  name: "elt_b_1"
  type: "Eltwise"
  bottom: "res_b"
  bottom: "conv_b_1_2"
  top: "elt_b_1"
  eltwise_param {
    operation: SUM
  }
}
layer {
  name: "bn_c_1_1"
  type: "BatchNorm"
  bottom: "conv0"
  top: "bn_c_1_1"
  param {
    lr_mult: 0
  }
  param {
    lr_mult: 0
  }
  param {
    lr_mult: 0
  }
  batch_norm_param {
    use_global_stats: false
  }
}
layer {
  name: "sc_c_1_1"
  type: "Scale"
  bottom: "bn_c_1_1"
  top: "sc_c_1_1"
  scale_param {
    bias_term: true
  }
}
layer {
  name: "relu_c_1_1"
  type: "ReLU"
  bottom: "sc_c_1_1"
  top: "relu_c_1_1"
}
layer {
  name: "conv_c_1_1"
  type: "Convolution"
  bottom: "relu_c_1_1"
  top: "conv_c_1_1"
  param {
    lr_mult: 1
    decay_mult: 1
  }
  param {
    lr_mult: 2
    decay_mult: 1
  }
  convolution_param {
    num_output: 64
    pad: 1
    kernel_size: 3
    stride: 1
    weight_filler {
      type: "msra"
    }
    bias_filler {
      type: "constant"
    }
  }
}
layer {
  name: "bn_c_1_2"
  type: "BatchNorm"
  bottom: "conv_c_1_1"
  top: "bn_c_1_2"
  param {
    lr_mult: 0
  }
  param {
    lr_mult: 0
  }
  param {
    lr_mult: 0
  }
  batch_norm_param {
    use_global_stats: false
  }
}
layer {
  name: "sc_c_1_2"
  type: "Scale"
  bottom: "bn_c_1_2"
  top: "sc_c_1_2"
  scale_param {
    bias_term: true
  }
}
layer {
  name: "relu_c_1_2"
  type: "ReLU"
  bottom: "sc_c_1_2"
  top: "relu_c_1_2"
}
layer {
  name: "conv_c_1_2"
  type: "Convolution"
  bottom: "relu_c_1_2"
  top: "conv_c_1_2"
  param {
    lr_mult: 1
    decay_mult: 1
  }
  param {
    lr_mult: 2
    decay_mult: 1
  }
  convolution_param {
    num_output: 64
    pad: 1
    kernel_size: 3
    stride: 1
    weight_filler {
      type: "msra"
    }
    bias_filler {
      type: "constant"
    }
  }
}
layer {
  name: "res_c"
  type: "Convolution"
  bottom: "conv0"
  top: "res_c"
  param {
    lr_mult: 1
    decay_mult: 1
  }
  param {
    lr_mult: 2
    decay_mult: 1
  }
  convolution_param {
    num_output: 64
    pad: 0
    kernel_size: 1
    stride: 1
    weight_filler {
      type: "msra"
    }
    bias_filler {
      type: "constant"
    }
  }
}
layer {
  name: "elt_c_1"
  type: "Eltwise"
  bottom: "res_c"
  bottom: "conv_c_1_2"
  top: "elt_c_1"
  eltwise_param {
    operation: SUM
  }
}
layer {
  name: "bn_d_1_1"
  type: "BatchNorm"
  bottom: "elt_a_1"
  top: "bn_d_1_1"
  param {
    lr_mult: 0
  }
  param {
    lr_mult: 0
  }
  param {
    lr_mult: 0
  }
  batch_norm_param {
    use_global_stats: false
  }
}
layer {
  name: "sc_d_1_1"
  type: "Scale"
  bottom: "bn_d_1_1"
  top: "sc_d_1_1"
  scale_param {
    bias_term: true
  }
}
layer {
  name: "relu_d_1_1"
  type: "ReLU"
  bottom: "sc_d_1_1"
  top: "relu_d_1_1"
}
layer {
  name: "conv_d_1_1"
  type: "Convolution"
  bottom: "relu_d_1_1"
  top: "conv_d_1_1"
  param {
    lr_mult: 1
    decay_mult: 1
  }
  param {
    lr_mult: 2
    decay_mult: 1
  }
  convolution_param {
    num_output: 128
    pad: 1
    kernel_size: 3
    stride: 2
    weight_filler {
      type: "msra"
    }
    bias_filler {
      type: "constant"
    }
  }
}
layer {
  name: "bn_d_1_2"
  type: "BatchNorm"
  bottom: "conv_d_1_1"
  top: "bn_d_1_2"
  param {
    lr_mult: 0
  }
  param {
    lr_mult: 0
  }
  param {
    lr_mult: 0
  }
  batch_norm_param {
    use_global_stats: false
  }
}
layer {
  name: "sc_d_1_2"
  type: "Scale"
  bottom: "bn_d_1_2"
  top: "sc_d_1_2"
  scale_param {
    bias_term: true
  }
}
layer {
  name: "relu_d_1_2"
  type: "ReLU"
  bottom: "sc_d_1_2"
  top: "relu_d_1_2"
}
layer {
  name: "conv_d_1_2"
  type: "Convolution"
  bottom: "relu_d_1_2"
  top: "conv_d_1_2"
  param {
    lr_mult: 1
    decay_mult: 1
  }
  param {
    lr_mult: 2
    decay_mult: 1
  }
  convolution_param {
    num_output: 128
    pad: 1
    kernel_size: 3
    stride: 1
    weight_filler {
      type: "msra"
    }
    bias_filler {
      type: "constant"
    }
  }
}
layer {
  name: "res_d"
  type: "Convolution"
  bottom: "elt_a_1"
  top: "res_d"
  param {
    lr_mult: 1
    decay_mult: 1
  }
  param {
    lr_mult: 2
    decay_mult: 1
  }
  convolution_param {
    num_output: 128
    pad: 0
    kernel_size: 1
    stride: 2
    weight_filler {
      type: "msra"
    }
    bias_filler {
      type: "constant"
    }
  }
}
layer {
  name: "elt_d_1"
  type: "Eltwise"
  bottom: "res_d"
  bottom: "conv_d_1_2"
  top: "elt_d_1"
  eltwise_param {
    operation: SUM
  }
}
layer {
  name: "bn_f_1_1"
  type: "BatchNorm"
  bottom: "elt_b_1"
  top: "bn_f_1_1"
  param {
    lr_mult: 0
  }
  param {
    lr_mult: 0
  }
  param {
    lr_mult: 0
  }
  batch_norm_param {
    use_global_stats: false
  }
}
layer {
  name: "sc_f_1_1"
  type: "Scale"
  bottom: "bn_f_1_1"
  top: "sc_f_1_1"
  scale_param {
    bias_term: true
  }
}
layer {
  name: "relu_f_1_1"
  type: "ReLU"
  bottom: "sc_f_1_1"
  top: "relu_f_1_1"
}
layer {
  name: "conv_f_1_1"
  type: "Convolution"
  bottom: "relu_f_1_1"
  top: "conv_f_1_1"
  param {
    lr_mult: 1
    decay_mult: 1
  }
  param {
    lr_mult: 2
    decay_mult: 1
  }
  convolution_param {
    num_output: 128
    pad: 1
    kernel_size: 3
    stride: 2
    weight_filler {
      type: "msra"
    }
    bias_filler {
      type: "constant"
    }
  }
}
layer {
  name: "bn_f_1_2"
  type: "BatchNorm"
  bottom: "conv_f_1_1"
  top: "bn_f_1_2"
  param {
    lr_mult: 0
  }
  param {
    lr_mult: 0
  }
  param {
    lr_mult: 0
  }
  batch_norm_param {
    use_global_stats: false
  }
}
layer {
  name: "sc_f_1_2"
  type: "Scale"
  bottom: "bn_f_1_2"
  top: "sc_f_1_2"
  scale_param {
    bias_term: true
  }
}
layer {
  name: "relu_f_1_2"
  type: "ReLU"
  bottom: "sc_f_1_2"
  top: "relu_f_1_2"
}
layer {
  name: "conv_f_1_2"
  type: "Convolution"
  bottom: "relu_f_1_2"
  top: "conv_f_1_2"
  param {
    lr_mult: 1
    decay_mult: 1
  }
  param {
    lr_mult: 2
    decay_mult: 1
  }
  convolution_param {
    num_output: 128
    pad: 1
    kernel_size: 3
    stride: 1
    weight_filler {
      type: "msra"
    }
    bias_filler {
      type: "constant"
    }
  }
}
layer {
  name: "res_f"
  type: "Convolution"
  bottom: "elt_b_1"
  top: "res_f"
  param {
    lr_mult: 1
    decay_mult: 1
  }
  param {
    lr_mult: 2
    decay_mult: 1
  }
  convolution_param {
    num_output: 128
    pad: 0
    kernel_size: 1
    stride: 2
    weight_filler {
      type: "msra"
    }
    bias_filler {
      type: "constant"
    }
  }
}
layer {
  name: "elt_f_1"
  type: "Eltwise"
  bottom: "res_f"
  bottom: "conv_f_1_2"
  top: "elt_f_1"
  eltwise_param {
    operation: SUM
  }
}
layer {
  name: "bn_g_1_1"
  type: "BatchNorm"
  bottom: "elt_b_1"
  top: "bn_g_1_1"
  param {
    lr_mult: 0
  }
  param {
    lr_mult: 0
  }
  param {
    lr_mult: 0
  }
  batch_norm_param {
    use_global_stats: false
  }
}
layer {
  name: "sc_g_1_1"
  type: "Scale"
  bottom: "bn_g_1_1"
  top: "sc_g_1_1"
  scale_param {
    bias_term: true
  }
}
layer {
  name: "relu_g_1_1"
  type: "ReLU"
  bottom: "sc_g_1_1"
  top: "relu_g_1_1"
}
layer {
  name: "conv_g_1_1"
  type: "Convolution"
  bottom: "relu_g_1_1"
  top: "conv_g_1_1"
  param {
    lr_mult: 1
    decay_mult: 1
  }
  param {
    lr_mult: 2
    decay_mult: 1
  }
  convolution_param {
    num_output: 128
    pad: 1
    kernel_size: 3
    stride: 2
    weight_filler {
      type: "msra"
    }
    bias_filler {
      type: "constant"
    }
  }
}
layer {
  name: "bn_g_1_2"
  type: "BatchNorm"
  bottom: "conv_g_1_1"
  top: "bn_g_1_2"
  param {
    lr_mult: 0
  }
  param {
    lr_mult: 0
  }
  param {
    lr_mult: 0
  }
  batch_norm_param {
    use_global_stats: false
  }
}
layer {
  name: "sc_g_1_2"
  type: "Scale"
  bottom: "bn_g_1_2"
  top: "sc_g_1_2"
  scale_param {
    bias_term: true
  }
}
layer {
  name: "relu_g_1_2"
  type: "ReLU"
  bottom: "sc_g_1_2"
  top: "relu_g_1_2"
}
layer {
  name: "conv_g_1_2"
  type: "Convolution"
  bottom: "relu_g_1_2"
  top: "conv_g_1_2"
  param {
    lr_mult: 1
    decay_mult: 1
  }
  param {
    lr_mult: 2
    decay_mult: 1
  }
  convolution_param {
    num_output: 128
    pad: 1
    kernel_size: 3
    stride: 1
    weight_filler {
      type: "msra"
    }
    bias_filler {
      type: "constant"
    }
  }
}
layer {
  name: "res_g"
  type: "Convolution"
  bottom: "elt_b_1"
  top: "res_g"
  param {
    lr_mult: 1
    decay_mult: 1
  }
  param {
    lr_mult: 2
    decay_mult: 1
  }
  convolution_param {
    num_output: 128
    pad: 0
    kernel_size: 1
    stride: 2
    weight_filler {
      type: "msra"
    }
    bias_filler {
      type: "constant"
    }
  }
}
layer {
  name: "elt_g_1"
  type: "Eltwise"
  bottom: "res_g"
  bottom: "conv_g_1_2"
  top: "elt_g_1"
  eltwise_param {
    operation: SUM
  }
}
layer {
  name: "bn_h_1_1"
  type: "BatchNorm"
  bottom: "elt_c_1"
  top: "bn_h_1_1"
  param {
    lr_mult: 0
  }
  param {
    lr_mult: 0
  }
  param {
    lr_mult: 0
  }
  batch_norm_param {
    use_global_stats: false
  }
}
layer {
  name: "sc_h_1_1"
  type: "Scale"
  bottom: "bn_h_1_1"
  top: "sc_h_1_1"
  scale_param {
    bias_term: true
  }
}
layer {
  name: "relu_h_1_1"
  type: "ReLU"
  bottom: "sc_h_1_1"
  top: "relu_h_1_1"
}
layer {
  name: "conv_h_1_1"
  type: "Convolution"
  bottom: "relu_h_1_1"
  top: "conv_h_1_1"
  param {
    lr_mult: 1
    decay_mult: 1
  }
  param {
    lr_mult: 2
    decay_mult: 1
  }
  convolution_param {
    num_output: 128
    pad: 1
    kernel_size: 3
    stride: 2
    weight_filler {
      type: "msra"
    }
    bias_filler {
      type: "constant"
    }
  }
}
layer {
  name: "bn_h_1_2"
  type: "BatchNorm"
  bottom: "conv_h_1_1"
  top: "bn_h_1_2"
  param {
    lr_mult: 0
  }
  param {
    lr_mult: 0
  }
  param {
    lr_mult: 0
  }
  batch_norm_param {
    use_global_stats: false
  }
}
layer {
  name: "sc_h_1_2"
  type: "Scale"
  bottom: "bn_h_1_2"
  top: "sc_h_1_2"
  scale_param {
    bias_term: true
  }
}
layer {
  name: "relu_h_1_2"
  type: "ReLU"
  bottom: "sc_h_1_2"
  top: "relu_h_1_2"
}
layer {
  name: "conv_h_1_2"
  type: "Convolution"
  bottom: "relu_h_1_2"
  top: "conv_h_1_2"
  param {
    lr_mult: 1
    decay_mult: 1
  }
  param {
    lr_mult: 2
    decay_mult: 1
  }
  convolution_param {
    num_output: 128
    pad: 1
    kernel_size: 3
    stride: 1
    weight_filler {
      type: "msra"
    }
    bias_filler {
      type: "constant"
    }
  }
}
layer {
  name: "res_h"
  type: "Convolution"
  bottom: "elt_c_1"
  top: "res_h"
  param {
    lr_mult: 1
    decay_mult: 1
  }
  param {
    lr_mult: 2
    decay_mult: 1
  }
  convolution_param {
    num_output: 128
    pad: 0
    kernel_size: 1
    stride: 2
    weight_filler {
      type: "msra"
    }
    bias_filler {
      type: "constant"
    }
  }
}
layer {
  name: "elt_h_1"
  type: "Eltwise"
  bottom: "res_h"
  bottom: "conv_h_1_2"
  top: "elt_h_1"
  eltwise_param {
    operation: SUM
  }
}
layer {
  name: "bn_i_1_1"
  type: "BatchNorm"
  bottom: "elt_c_1"
  top: "bn_i_1_1"
  param {
    lr_mult: 0
  }
  param {
    lr_mult: 0
  }
  param {
    lr_mult: 0
  }
  batch_norm_param {
    use_global_stats: false
  }
}
layer {
  name: "sc_i_1_1"
  type: "Scale"
  bottom: "bn_i_1_1"
  top: "sc_i_1_1"
  scale_param {
    bias_term: true
  }
}
layer {
  name: "relu_i_1_1"
  type: "ReLU"
  bottom: "sc_i_1_1"
  top: "relu_i_1_1"
}
layer {
  name: "conv_i_1_1"
  type: "Convolution"
  bottom: "relu_i_1_1"
  top: "conv_i_1_1"
  param {
    lr_mult: 1
    decay_mult: 1
  }
  param {
    lr_mult: 2
    decay_mult: 1
  }
  convolution_param {
    num_output: 128
    pad: 1
    kernel_size: 3
    stride: 2
    weight_filler {
      type: "msra"
    }
    bias_filler {
      type: "constant"
    }
  }
}
layer {
  name: "bn_i_1_2"
  type: "BatchNorm"
  bottom: "conv_i_1_1"
  top: "bn_i_1_2"
  param {
    lr_mult: 0
  }
  param {
    lr_mult: 0
  }
  param {
    lr_mult: 0
  }
  batch_norm_param {
    use_global_stats: false
  }
}
layer {
  name: "sc_i_1_2"
  type: "Scale"
  bottom: "bn_i_1_2"
  top: "sc_i_1_2"
  scale_param {
    bias_term: true
  }
}
layer {
  name: "relu_i_1_2"
  type: "ReLU"
  bottom: "sc_i_1_2"
  top: "relu_i_1_2"
}
layer {
  name: "conv_i_1_2"
  type: "Convolution"
  bottom: "relu_i_1_2"
  top: "conv_i_1_2"
  param {
    lr_mult: 1
    decay_mult: 1
  }
  param {
    lr_mult: 2
    decay_mult: 1
  }
  convolution_param {
    num_output: 128
    pad: 1
    kernel_size: 3
    stride: 1
    weight_filler {
      type: "msra"
    }
    bias_filler {
      type: "constant"
    }
  }
}
layer {
  name: "res_i"
  type: "Convolution"
  bottom: "elt_c_1"
  top: "res_i"
  param {
    lr_mult: 1
    decay_mult: 1
  }
  param {
    lr_mult: 2
    decay_mult: 1
  }
  convolution_param {
    num_output: 128
    pad: 0
    kernel_size: 1
    stride: 2
    weight_filler {
      type: "msra"
    }
    bias_filler {
      type: "constant"
    }
  }
}
layer {
  name: "elt_i_1"
  type: "Eltwise"
  bottom: "res_i"
  bottom: "conv_i_1_2"
  top: "elt_i_1"
  eltwise_param {
    operation: SUM
  }
}
layer {
  name: "elt_d_f"
  type: "Eltwise"
  bottom: "elt_d_1"
  bottom: "elt_f_1"
  top: "elt_d_f"
  eltwise_param {
    operation: SUM
  }
}
layer {
  name: "elt_g_i"
  type: "Eltwise"
  bottom: "elt_g_1"
  bottom: "elt_i_1"
  top: "elt_g_i"
  eltwise_param {
    operation: SUM
  }
}
layer {
  name: "bn_j_1_1"
  type: "BatchNorm"
  bottom: "elt_d_f"
  top: "bn_j_1_1"
  param {
    lr_mult: 0
  }
  param {
    lr_mult: 0
  }
  param {
    lr_mult: 0
  }
  batch_norm_param {
    use_global_stats: false
  }
}
layer {
  name: "sc_j_1_1"
  type: "Scale"
  bottom: "bn_j_1_1"
  top: "sc_j_1_1"
  scale_param {
    bias_term: true
  }
}
layer {
  name: "relu_j_1_1"
  type: "ReLU"
  bottom: "sc_j_1_1"
  top: "relu_j_1_1"
}
layer {
  name: "conv_j_1_1"
  type: "Convolution"
  bottom: "relu_j_1_1"
  top: "conv_j_1_1"
  param {
    lr_mult: 1
    decay_mult: 1
  }
  param {
    lr_mult: 2
    decay_mult: 1
  }
  convolution_param {
    num_output: 256
    pad: 1
    kernel_size: 3
    stride: 2
    weight_filler {
      type: "msra"
    }
    bias_filler {
      type: "constant"
    }
  }
}
layer {
  name: "bn_j_1_2"
  type: "BatchNorm"
  bottom: "conv_j_1_1"
  top: "bn_j_1_2"
  param {
    lr_mult: 0
  }
  param {
    lr_mult: 0
  }
  param {
    lr_mult: 0
  }
  batch_norm_param {
    use_global_stats: false
  }
}
layer {
  name: "sc_j_1_2"
  type: "Scale"
  bottom: "bn_j_1_2"
  top: "sc_j_1_2"
  scale_param {
    bias_term: true
  }
}
layer {
  name: "relu_j_1_2"
  type: "ReLU"
  bottom: "sc_j_1_2"
  top: "relu_j_1_2"
}
layer {
  name: "conv_j_1_2"
  type: "Convolution"
  bottom: "relu_j_1_2"
  top: "conv_j_1_2"
  param {
    lr_mult: 1
    decay_mult: 1
  }
  param {
    lr_mult: 2
    decay_mult: 1
  }
  convolution_param {
    num_output: 256
    pad: 1
    kernel_size: 3
    stride: 1
    weight_filler {
      type: "msra"
    }
    bias_filler {
      type: "constant"
    }
  }
}
layer {
  name: "res_j"
  type: "Convolution"
  bottom: "elt_d_f"
  top: "res_j"
  param {
    lr_mult: 1
    decay_mult: 1
  }
  param {
    lr_mult: 2
    decay_mult: 1
  }
  convolution_param {
    num_output: 256
    pad: 0
    kernel_size: 1
    stride: 2
    weight_filler {
      type: "msra"
    }
    bias_filler {
      type: "constant"
    }
  }
}
layer {
  name: "elt_j_1"
  type: "Eltwise"
  bottom: "res_j"
  bottom: "conv_j_1_2"
  top: "elt_j_1"
  eltwise_param {
    operation: SUM
  }
}
layer {
  name: "bn_e_1_1"
  type: "BatchNorm"
  bottom: "elt_a_1"
  top: "bn_e_1_1"
  param {
    lr_mult: 0
  }
  param {
    lr_mult: 0
  }
  param {
    lr_mult: 0
  }
  batch_norm_param {
    use_global_stats: false
  }
}
layer {
  name: "sc_e_1_1"
  type: "Scale"
  bottom: "bn_e_1_1"
  top: "sc_e_1_1"
  scale_param {
    bias_term: true
  }
}
layer {
  name: "relu_e_1_1"
  type: "ReLU"
  bottom: "sc_e_1_1"
  top: "relu_e_1_1"
}
layer {
  name: "conv_e_1_1"
  type: "Convolution"
  bottom: "relu_e_1_1"
  top: "conv_e_1_1"
  param {
    lr_mult: 1
    decay_mult: 1
  }
  param {
    lr_mult: 2
    decay_mult: 1
  }
  convolution_param {
    num_output: 128
    pad: 1
    kernel_size: 3
    stride: 2
    weight_filler {
      type: "msra"
    }
    bias_filler {
      type: "constant"
    }
  }
}
layer {
  name: "bn_e_1_2"
  type: "BatchNorm"
  bottom: "conv_e_1_1"
  top: "bn_e_1_2"
  param {
    lr_mult: 0
  }
  param {
    lr_mult: 0
  }
  param {
    lr_mult: 0
  }
  batch_norm_param {
    use_global_stats: false
  }
}
layer {
  name: "sc_e_1_2"
  type: "Scale"
  bottom: "bn_e_1_2"
  top: "sc_e_1_2"
  scale_param {
    bias_term: true
  }
}
layer {
  name: "relu_e_1_2"
  type: "ReLU"
  bottom: "sc_e_1_2"
  top: "relu_e_1_2"
}
layer {
  name: "conv_e_1_2"
  type: "Convolution"
  bottom: "relu_e_1_2"
  top: "conv_e_1_2"
  param {
    lr_mult: 1
    decay_mult: 1
  }
  param {
    lr_mult: 2
    decay_mult: 1
  }
  convolution_param {
    num_output: 128
    pad: 1
    kernel_size: 3
    stride: 1
    weight_filler {
      type: "msra"
    }
    bias_filler {
      type: "constant"
    }
  }
}
layer {
  name: "res_e"
  type: "Convolution"
  bottom: "elt_a_1"
  top: "res_e"
  param {
    lr_mult: 1
    decay_mult: 1
  }
  param {
    lr_mult: 2
    decay_mult: 1
  }
  convolution_param {
    num_output: 128
    pad: 0
    kernel_size: 1
    stride: 2
    weight_filler {
      type: "msra"
    }
    bias_filler {
      type: "constant"
    }
  }
}
layer {
  name: "elt_e_1"
  type: "Eltwise"
  bottom: "res_e"
  bottom: "conv_e_1_2"
  top: "elt_e_1"
  eltwise_param {
    operation: SUM
  }
}
layer {
  name: "elt_e_h"
  type: "Eltwise"
  bottom: "elt_e_1"
  bottom: "elt_h_1"
  top: "elt_e_h"
  eltwise_param {
    operation: SUM
  }
}
layer {
  name: "bn_k_1_1"
  type: "BatchNorm"
  bottom: "elt_e_h"
  top: "bn_k_1_1"
  param {
    lr_mult: 0
  }
  param {
    lr_mult: 0
  }
  param {
    lr_mult: 0
  }
  batch_norm_param {
    use_global_stats: false
  }
}
layer {
  name: "sc_k_1_1"
  type: "Scale"
  bottom: "bn_k_1_1"
  top: "sc_k_1_1"
  scale_param {
    bias_term: true
  }
}
layer {
  name: "relu_k_1_1"
  type: "ReLU"
  bottom: "sc_k_1_1"
  top: "relu_k_1_1"
}
layer {
  name: "conv_k_1_1"
  type: "Convolution"
  bottom: "relu_k_1_1"
  top: "conv_k_1_1"
  param {
    lr_mult: 1
    decay_mult: 1
  }
  param {
    lr_mult: 2
    decay_mult: 1
  }
  convolution_param {
    num_output: 256
    pad: 1
    kernel_size: 3
    stride: 2
    weight_filler {
      type: "msra"
    }
    bias_filler {
      type: "constant"
    }
  }
}
layer {
  name: "bn_k_1_2"
  type: "BatchNorm"
  bottom: "conv_k_1_1"
  top: "bn_k_1_2"
  param {
    lr_mult: 0
  }
  param {
    lr_mult: 0
  }
  param {
    lr_mult: 0
  }
  batch_norm_param {
    use_global_stats: false
  }
}
layer {
  name: "sc_k_1_2"
  type: "Scale"
  bottom: "bn_k_1_2"
  top: "sc_k_1_2"
  scale_param {
    bias_term: true
  }
}
layer {
  name: "relu_k_1_2"
  type: "ReLU"
  bottom: "sc_k_1_2"
  top: "relu_k_1_2"
}
layer {
  name: "conv_k_1_2"
  type: "Convolution"
  bottom: "relu_k_1_2"
  top: "conv_k_1_2"
  param {
    lr_mult: 1
    decay_mult: 1
  }
  param {
    lr_mult: 2
    decay_mult: 1
  }
  convolution_param {
    num_output: 256
    pad: 1
    kernel_size: 3
    stride: 1
    weight_filler {
      type: "msra"
    }
    bias_filler {
      type: "constant"
    }
  }
}
layer {
  name: "res_k"
  type: "Convolution"
  bottom: "elt_e_h"
  top: "res_k"
  param {
    lr_mult: 1
    decay_mult: 1
  }
  param {
    lr_mult: 2
    decay_mult: 1
  }
  convolution_param {
    num_output: 256
    pad: 0
    kernel_size: 1
    stride: 2
    weight_filler {
      type: "msra"
    }
    bias_filler {
      type: "constant"
    }
  }
}
layer {
  name: "elt_k_1"
  type: "Eltwise"
  bottom: "res_k"
  bottom: "conv_k_1_2"
  top: "elt_k_1"
  eltwise_param {
    operation: SUM
  }
}
layer {
  name: "bn_l_1_1"
  type: "BatchNorm"
  bottom: "elt_g_i"
  top: "bn_l_1_1"
  param {
    lr_mult: 0
  }
  param {
    lr_mult: 0
  }
  param {
    lr_mult: 0
  }
  batch_norm_param {
    use_global_stats: false
  }
}
layer {
  name: "sc_l_1_1"
  type: "Scale"
  bottom: "bn_l_1_1"
  top: "sc_l_1_1"
  scale_param {
    bias_term: true
  }
}
layer {
  name: "relu_l_1_1"
  type: "ReLU"
  bottom: "sc_l_1_1"
  top: "relu_l_1_1"
}
layer {
  name: "conv_l_1_1"
  type: "Convolution"
  bottom: "relu_l_1_1"
  top: "conv_l_1_1"
  param {
    lr_mult: 1
    decay_mult: 1
  }
  param {
    lr_mult: 2
    decay_mult: 1
  }
  convolution_param {
    num_output: 256
    pad: 1
    kernel_size: 3
    stride: 2
    weight_filler {
      type: "msra"
    }
    bias_filler {
      type: "constant"
    }
  }
}
layer {
  name: "bn_l_1_2"
  type: "BatchNorm"
  bottom: "conv_l_1_1"
  top: "bn_l_1_2"
  param {
    lr_mult: 0
  }
  param {
    lr_mult: 0
  }
  param {
    lr_mult: 0
  }
  batch_norm_param {
    use_global_stats: false
  }
}
layer {
  name: "sc_l_1_2"
  type: "Scale"
  bottom: "bn_l_1_2"
  top: "sc_l_1_2"
  scale_param {
    bias_term: true
  }
}
layer {
  name: "relu_l_1_2"
  type: "ReLU"
  bottom: "sc_l_1_2"
  top: "relu_l_1_2"
}
layer {
  name: "conv_l_1_2"
  type: "Convolution"
  bottom: "relu_l_1_2"
  top: "conv_l_1_2"
  param {
    lr_mult: 1
    decay_mult: 1
  }
  param {
    lr_mult: 2
    decay_mult: 1
  }
  convolution_param {
    num_output: 256
    pad: 1
    kernel_size: 3
    stride: 1
    weight_filler {
      type: "msra"
    }
    bias_filler {
      type: "constant"
    }
  }
}
layer {
  name: "res_l"
  type: "Convolution"
  bottom: "elt_g_i"
  top: "res_l"
  param {
    lr_mult: 1
    decay_mult: 1
  }
  param {
    lr_mult: 2
    decay_mult: 1
  }
  convolution_param {
    num_output: 256
    pad: 0
    kernel_size: 1
    stride: 2
    weight_filler {
      type: "msra"
    }
    bias_filler {
      type: "constant"
    }
  }
}
layer {
  name: "elt_l_1"
  type: "Eltwise"
  bottom: "res_l"
  bottom: "conv_l_1_2"
  top: "elt_l_1"
  eltwise_param {
    operation: SUM
  }
}
layer {
  name: "elt_j_k_l"
  type: "Eltwise"
  bottom: "elt_j_1"
  bottom: "elt_k_1"
  bottom: "elt_l_1"
  top: "elt_j_k_l"
  eltwise_param {
    operation: SUM
  }
}
layer {
  name: "bn_m_1_1"
  type: "BatchNorm"
  bottom: "elt_j_k_l"
  top: "bn_m_1_1"
  param {
    lr_mult: 0
  }
  param {
    lr_mult: 0
  }
  param {
    lr_mult: 0
  }
  batch_norm_param {
    use_global_stats: false
  }
}
layer {
  name: "sc_m_1_1"
  type: "Scale"
  bottom: "bn_m_1_1"
  top: "sc_m_1_1"
  scale_param {
    bias_term: true
  }
}
layer {
  name: "relu_m_1_1"
  type: "ReLU"
  bottom: "sc_m_1_1"
  top: "relu_m_1_1"
}
layer {
  name: "gap"
  type: "Pooling"
  bottom: "relu_m_1_1"
  top: "gap"
  pooling_param {
    pool: AVE
    kernel_size: 8
    stride: 1
  }
}
layer {
  name: "ip1"
  type: "InnerProduct"
  bottom: "gap"
  top: "ip1"
  param {
    lr_mult: 1
    decay_mult: 1
  }
  param {
    lr_mult: 2
    decay_mult: 0
  }
  inner_product_param {
    num_output: 10
    weight_filler {
      type: "msra"
    }
    bias_filler {
      type: "constant"
      value: 0
    }
  }
}
layer {
  name: "accuracy"
  type: "Accuracy"
  bottom: "ip1"
  bottom: "label"
  top: "accuracy"
  include {
    phase: TEST
  }
}
layer {
  name: "loss"
  type: "SoftmaxWithLoss"
  bottom: "ip1"
  bottom: "label"
  top: "loss"
}
I0619 11:23:57.403343  4268 layer_factory.hpp:77] Creating layer resnet
I0619 11:23:57.403486  4268 net.cpp:91] Creating Layer resnet
I0619 11:23:57.403497  4268 net.cpp:399] resnet -> data
I0619 11:23:57.403529  4268 net.cpp:399] resnet -> label
I0619 11:23:57.403548  4268 data_transformer.cpp:25] Loading mean file from: /home/takeki/caffe/examples/cifar10/mean.binaryproto
I0619 11:23:57.404769  4306 db_lmdb.cpp:35] Opened lmdb /home/takeki/caffe/examples/cifar10/cifar10_test_lmdb
I0619 11:23:57.404934  4268 data_layer.cpp:41] output data size: 100,3,32,32
I0619 11:23:57.408385  4268 net.cpp:141] Setting up resnet
I0619 11:23:57.408412  4268 net.cpp:148] Top shape: 100 3 32 32 (307200)
I0619 11:23:57.408419  4268 net.cpp:148] Top shape: 100 (100)
I0619 11:23:57.408423  4268 net.cpp:156] Memory required for data: 1229200
I0619 11:23:57.408432  4268 layer_factory.hpp:77] Creating layer label_resnet_1_split
I0619 11:23:57.408448  4268 net.cpp:91] Creating Layer label_resnet_1_split
I0619 11:23:57.408455  4268 net.cpp:425] label_resnet_1_split <- label
I0619 11:23:57.408464  4268 net.cpp:399] label_resnet_1_split -> label_resnet_1_split_0
I0619 11:23:57.408481  4268 net.cpp:399] label_resnet_1_split -> label_resnet_1_split_1
I0619 11:23:57.408560  4268 net.cpp:141] Setting up label_resnet_1_split
I0619 11:23:57.408571  4268 net.cpp:148] Top shape: 100 (100)
I0619 11:23:57.408578  4268 net.cpp:148] Top shape: 100 (100)
I0619 11:23:57.408582  4268 net.cpp:156] Memory required for data: 1230000
I0619 11:23:57.408588  4268 layer_factory.hpp:77] Creating layer conv0
I0619 11:23:57.408607  4268 net.cpp:91] Creating Layer conv0
I0619 11:23:57.408613  4268 net.cpp:425] conv0 <- data
I0619 11:23:57.408648  4268 net.cpp:399] conv0 -> conv0
I0619 11:23:57.410089  4268 net.cpp:141] Setting up conv0
I0619 11:23:57.410109  4268 net.cpp:148] Top shape: 100 16 32 32 (1638400)
I0619 11:23:57.410123  4268 net.cpp:156] Memory required for data: 7783600
I0619 11:23:57.410138  4268 layer_factory.hpp:77] Creating layer conv0_conv0_0_split
I0619 11:23:57.410147  4268 net.cpp:91] Creating Layer conv0_conv0_0_split
I0619 11:23:57.410161  4268 net.cpp:425] conv0_conv0_0_split <- conv0
I0619 11:23:57.410171  4268 net.cpp:399] conv0_conv0_0_split -> conv0_conv0_0_split_0
I0619 11:23:57.410183  4268 net.cpp:399] conv0_conv0_0_split -> conv0_conv0_0_split_1
I0619 11:23:57.410193  4268 net.cpp:399] conv0_conv0_0_split -> conv0_conv0_0_split_2
I0619 11:23:57.410202  4268 net.cpp:399] conv0_conv0_0_split -> conv0_conv0_0_split_3
I0619 11:23:57.410214  4268 net.cpp:399] conv0_conv0_0_split -> conv0_conv0_0_split_4
I0619 11:23:57.410223  4268 net.cpp:399] conv0_conv0_0_split -> conv0_conv0_0_split_5
I0619 11:23:57.410333  4268 net.cpp:141] Setting up conv0_conv0_0_split
I0619 11:23:57.410346  4268 net.cpp:148] Top shape: 100 16 32 32 (1638400)
I0619 11:23:57.410353  4268 net.cpp:148] Top shape: 100 16 32 32 (1638400)
I0619 11:23:57.410368  4268 net.cpp:148] Top shape: 100 16 32 32 (1638400)
I0619 11:23:57.410375  4268 net.cpp:148] Top shape: 100 16 32 32 (1638400)
I0619 11:23:57.410394  4268 net.cpp:148] Top shape: 100 16 32 32 (1638400)
I0619 11:23:57.410400  4268 net.cpp:148] Top shape: 100 16 32 32 (1638400)
I0619 11:23:57.410408  4268 net.cpp:156] Memory required for data: 47105200
I0619 11:23:57.410413  4268 layer_factory.hpp:77] Creating layer bn_a_1_1
I0619 11:23:57.410428  4268 net.cpp:91] Creating Layer bn_a_1_1
I0619 11:23:57.410434  4268 net.cpp:425] bn_a_1_1 <- conv0_conv0_0_split_0
I0619 11:23:57.410444  4268 net.cpp:399] bn_a_1_1 -> bn_a_1_1
I0619 11:23:57.410682  4268 net.cpp:141] Setting up bn_a_1_1
I0619 11:23:57.410696  4268 net.cpp:148] Top shape: 100 16 32 32 (1638400)
I0619 11:23:57.410701  4268 net.cpp:156] Memory required for data: 53658800
I0619 11:23:57.410714  4268 layer_factory.hpp:77] Creating layer sc_a_1_1
I0619 11:23:57.410727  4268 net.cpp:91] Creating Layer sc_a_1_1
I0619 11:23:57.410733  4268 net.cpp:425] sc_a_1_1 <- bn_a_1_1
I0619 11:23:57.410742  4268 net.cpp:399] sc_a_1_1 -> sc_a_1_1
I0619 11:23:57.410804  4268 layer_factory.hpp:77] Creating layer sc_a_1_1
I0619 11:23:57.410962  4268 net.cpp:141] Setting up sc_a_1_1
I0619 11:23:57.410976  4268 net.cpp:148] Top shape: 100 16 32 32 (1638400)
I0619 11:23:57.410984  4268 net.cpp:156] Memory required for data: 60212400
I0619 11:23:57.410995  4268 layer_factory.hpp:77] Creating layer relu_a_1_1
I0619 11:23:57.411005  4268 net.cpp:91] Creating Layer relu_a_1_1
I0619 11:23:57.411010  4268 net.cpp:425] relu_a_1_1 <- sc_a_1_1
I0619 11:23:57.411020  4268 net.cpp:399] relu_a_1_1 -> relu_a_1_1
I0619 11:23:57.411243  4268 net.cpp:141] Setting up relu_a_1_1
I0619 11:23:57.411257  4268 net.cpp:148] Top shape: 100 16 32 32 (1638400)
I0619 11:23:57.411262  4268 net.cpp:156] Memory required for data: 66766000
I0619 11:23:57.411267  4268 layer_factory.hpp:77] Creating layer conv_a_1_1
I0619 11:23:57.411279  4268 net.cpp:91] Creating Layer conv_a_1_1
I0619 11:23:57.411286  4268 net.cpp:425] conv_a_1_1 <- relu_a_1_1
I0619 11:23:57.411296  4268 net.cpp:399] conv_a_1_1 -> conv_a_1_1
I0619 11:23:57.412668  4268 net.cpp:141] Setting up conv_a_1_1
I0619 11:23:57.412684  4268 net.cpp:148] Top shape: 100 64 32 32 (6553600)
I0619 11:23:57.412690  4268 net.cpp:156] Memory required for data: 92980400
I0619 11:23:57.412700  4268 layer_factory.hpp:77] Creating layer bn_a_1_2
I0619 11:23:57.412714  4268 net.cpp:91] Creating Layer bn_a_1_2
I0619 11:23:57.412722  4268 net.cpp:425] bn_a_1_2 <- conv_a_1_1
I0619 11:23:57.412731  4268 net.cpp:399] bn_a_1_2 -> bn_a_1_2
I0619 11:23:57.413050  4268 net.cpp:141] Setting up bn_a_1_2
I0619 11:23:57.413064  4268 net.cpp:148] Top shape: 100 64 32 32 (6553600)
I0619 11:23:57.413069  4268 net.cpp:156] Memory required for data: 119194800
I0619 11:23:57.413094  4268 layer_factory.hpp:77] Creating layer sc_a_1_2
I0619 11:23:57.413107  4268 net.cpp:91] Creating Layer sc_a_1_2
I0619 11:23:57.413113  4268 net.cpp:425] sc_a_1_2 <- bn_a_1_2
I0619 11:23:57.413120  4268 net.cpp:399] sc_a_1_2 -> sc_a_1_2
I0619 11:23:57.413185  4268 layer_factory.hpp:77] Creating layer sc_a_1_2
I0619 11:23:57.413331  4268 net.cpp:141] Setting up sc_a_1_2
I0619 11:23:57.413344  4268 net.cpp:148] Top shape: 100 64 32 32 (6553600)
I0619 11:23:57.413353  4268 net.cpp:156] Memory required for data: 145409200
I0619 11:23:57.413372  4268 layer_factory.hpp:77] Creating layer relu_a_1_2
I0619 11:23:57.413379  4268 net.cpp:91] Creating Layer relu_a_1_2
I0619 11:23:57.413385  4268 net.cpp:425] relu_a_1_2 <- sc_a_1_2
I0619 11:23:57.413401  4268 net.cpp:399] relu_a_1_2 -> relu_a_1_2
I0619 11:23:57.413609  4268 net.cpp:141] Setting up relu_a_1_2
I0619 11:23:57.413621  4268 net.cpp:148] Top shape: 100 64 32 32 (6553600)
I0619 11:23:57.413630  4268 net.cpp:156] Memory required for data: 171623600
I0619 11:23:57.413643  4268 layer_factory.hpp:77] Creating layer conv_a_1_2
I0619 11:23:57.413655  4268 net.cpp:91] Creating Layer conv_a_1_2
I0619 11:23:57.413662  4268 net.cpp:425] conv_a_1_2 <- relu_a_1_2
I0619 11:23:57.413672  4268 net.cpp:399] conv_a_1_2 -> conv_a_1_2
I0619 11:23:57.415551  4268 net.cpp:141] Setting up conv_a_1_2
I0619 11:23:57.415567  4268 net.cpp:148] Top shape: 100 64 32 32 (6553600)
I0619 11:23:57.415572  4268 net.cpp:156] Memory required for data: 197838000
I0619 11:23:57.415580  4268 layer_factory.hpp:77] Creating layer res_a
I0619 11:23:57.415594  4268 net.cpp:91] Creating Layer res_a
I0619 11:23:57.415601  4268 net.cpp:425] res_a <- conv0_conv0_0_split_1
I0619 11:23:57.415611  4268 net.cpp:399] res_a -> res_a
I0619 11:23:57.416625  4268 net.cpp:141] Setting up res_a
I0619 11:23:57.416640  4268 net.cpp:148] Top shape: 100 64 32 32 (6553600)
I0619 11:23:57.416646  4268 net.cpp:156] Memory required for data: 224052400
I0619 11:23:57.416656  4268 layer_factory.hpp:77] Creating layer elt_a_1
I0619 11:23:57.416671  4268 net.cpp:91] Creating Layer elt_a_1
I0619 11:23:57.416676  4268 net.cpp:425] elt_a_1 <- res_a
I0619 11:23:57.416682  4268 net.cpp:425] elt_a_1 <- conv_a_1_2
I0619 11:23:57.416690  4268 net.cpp:399] elt_a_1 -> elt_a_1
I0619 11:23:57.416728  4268 net.cpp:141] Setting up elt_a_1
I0619 11:23:57.416738  4268 net.cpp:148] Top shape: 100 64 32 32 (6553600)
I0619 11:23:57.416744  4268 net.cpp:156] Memory required for data: 250266800
I0619 11:23:57.416749  4268 layer_factory.hpp:77] Creating layer elt_a_1_elt_a_1_0_split
I0619 11:23:57.416755  4268 net.cpp:91] Creating Layer elt_a_1_elt_a_1_0_split
I0619 11:23:57.416761  4268 net.cpp:425] elt_a_1_elt_a_1_0_split <- elt_a_1
I0619 11:23:57.416770  4268 net.cpp:399] elt_a_1_elt_a_1_0_split -> elt_a_1_elt_a_1_0_split_0
I0619 11:23:57.416779  4268 net.cpp:399] elt_a_1_elt_a_1_0_split -> elt_a_1_elt_a_1_0_split_1
I0619 11:23:57.416788  4268 net.cpp:399] elt_a_1_elt_a_1_0_split -> elt_a_1_elt_a_1_0_split_2
I0619 11:23:57.416796  4268 net.cpp:399] elt_a_1_elt_a_1_0_split -> elt_a_1_elt_a_1_0_split_3
I0619 11:23:57.416873  4268 net.cpp:141] Setting up elt_a_1_elt_a_1_0_split
I0619 11:23:57.416884  4268 net.cpp:148] Top shape: 100 64 32 32 (6553600)
I0619 11:23:57.416892  4268 net.cpp:148] Top shape: 100 64 32 32 (6553600)
I0619 11:23:57.416898  4268 net.cpp:148] Top shape: 100 64 32 32 (6553600)
I0619 11:23:57.416903  4268 net.cpp:148] Top shape: 100 64 32 32 (6553600)
I0619 11:23:57.416908  4268 net.cpp:156] Memory required for data: 355124400
I0619 11:23:57.416913  4268 layer_factory.hpp:77] Creating layer bn_b_1_1
I0619 11:23:57.416923  4268 net.cpp:91] Creating Layer bn_b_1_1
I0619 11:23:57.416929  4268 net.cpp:425] bn_b_1_1 <- conv0_conv0_0_split_2
I0619 11:23:57.416939  4268 net.cpp:399] bn_b_1_1 -> bn_b_1_1
I0619 11:23:57.417171  4268 net.cpp:141] Setting up bn_b_1_1
I0619 11:23:57.417181  4268 net.cpp:148] Top shape: 100 16 32 32 (1638400)
I0619 11:23:57.417187  4268 net.cpp:156] Memory required for data: 361678000
I0619 11:23:57.417210  4268 layer_factory.hpp:77] Creating layer sc_b_1_1
I0619 11:23:57.417222  4268 net.cpp:91] Creating Layer sc_b_1_1
I0619 11:23:57.417228  4268 net.cpp:425] sc_b_1_1 <- bn_b_1_1
I0619 11:23:57.417237  4268 net.cpp:399] sc_b_1_1 -> sc_b_1_1
I0619 11:23:57.417291  4268 layer_factory.hpp:77] Creating layer sc_b_1_1
I0619 11:23:57.417431  4268 net.cpp:141] Setting up sc_b_1_1
I0619 11:23:57.417444  4268 net.cpp:148] Top shape: 100 16 32 32 (1638400)
I0619 11:23:57.417449  4268 net.cpp:156] Memory required for data: 368231600
I0619 11:23:57.417456  4268 layer_factory.hpp:77] Creating layer relu_b_1_1
I0619 11:23:57.417464  4268 net.cpp:91] Creating Layer relu_b_1_1
I0619 11:23:57.417470  4268 net.cpp:425] relu_b_1_1 <- sc_b_1_1
I0619 11:23:57.417476  4268 net.cpp:399] relu_b_1_1 -> relu_b_1_1
I0619 11:23:57.417917  4268 net.cpp:141] Setting up relu_b_1_1
I0619 11:23:57.417930  4268 net.cpp:148] Top shape: 100 16 32 32 (1638400)
I0619 11:23:57.417935  4268 net.cpp:156] Memory required for data: 374785200
I0619 11:23:57.417939  4268 layer_factory.hpp:77] Creating layer conv_b_1_1
I0619 11:23:57.417953  4268 net.cpp:91] Creating Layer conv_b_1_1
I0619 11:23:57.417959  4268 net.cpp:425] conv_b_1_1 <- relu_b_1_1
I0619 11:23:57.417973  4268 net.cpp:399] conv_b_1_1 -> conv_b_1_1
I0619 11:23:57.419077  4268 net.cpp:141] Setting up conv_b_1_1
I0619 11:23:57.419091  4268 net.cpp:148] Top shape: 100 64 32 32 (6553600)
I0619 11:23:57.419097  4268 net.cpp:156] Memory required for data: 400999600
I0619 11:23:57.419106  4268 layer_factory.hpp:77] Creating layer bn_b_1_2
I0619 11:23:57.419114  4268 net.cpp:91] Creating Layer bn_b_1_2
I0619 11:23:57.419121  4268 net.cpp:425] bn_b_1_2 <- conv_b_1_1
I0619 11:23:57.419129  4268 net.cpp:399] bn_b_1_2 -> bn_b_1_2
I0619 11:23:57.419369  4268 net.cpp:141] Setting up bn_b_1_2
I0619 11:23:57.419381  4268 net.cpp:148] Top shape: 100 64 32 32 (6553600)
I0619 11:23:57.419386  4268 net.cpp:156] Memory required for data: 427214000
I0619 11:23:57.419395  4268 layer_factory.hpp:77] Creating layer sc_b_1_2
I0619 11:23:57.419406  4268 net.cpp:91] Creating Layer sc_b_1_2
I0619 11:23:57.419415  4268 net.cpp:425] sc_b_1_2 <- bn_b_1_2
I0619 11:23:57.419425  4268 net.cpp:399] sc_b_1_2 -> sc_b_1_2
I0619 11:23:57.419478  4268 layer_factory.hpp:77] Creating layer sc_b_1_2
I0619 11:23:57.419620  4268 net.cpp:141] Setting up sc_b_1_2
I0619 11:23:57.419631  4268 net.cpp:148] Top shape: 100 64 32 32 (6553600)
I0619 11:23:57.419636  4268 net.cpp:156] Memory required for data: 453428400
I0619 11:23:57.419642  4268 layer_factory.hpp:77] Creating layer relu_b_1_2
I0619 11:23:57.419653  4268 net.cpp:91] Creating Layer relu_b_1_2
I0619 11:23:57.419659  4268 net.cpp:425] relu_b_1_2 <- sc_b_1_2
I0619 11:23:57.419666  4268 net.cpp:399] relu_b_1_2 -> relu_b_1_2
I0619 11:23:57.419962  4268 net.cpp:141] Setting up relu_b_1_2
I0619 11:23:57.419976  4268 net.cpp:148] Top shape: 100 64 32 32 (6553600)
I0619 11:23:57.419984  4268 net.cpp:156] Memory required for data: 479642800
I0619 11:23:57.419989  4268 layer_factory.hpp:77] Creating layer conv_b_1_2
I0619 11:23:57.420001  4268 net.cpp:91] Creating Layer conv_b_1_2
I0619 11:23:57.420006  4268 net.cpp:425] conv_b_1_2 <- relu_b_1_2
I0619 11:23:57.420017  4268 net.cpp:399] conv_b_1_2 -> conv_b_1_2
I0619 11:23:57.422369  4268 net.cpp:141] Setting up conv_b_1_2
I0619 11:23:57.422389  4268 net.cpp:148] Top shape: 100 64 32 32 (6553600)
I0619 11:23:57.422394  4268 net.cpp:156] Memory required for data: 505857200
I0619 11:23:57.422402  4268 layer_factory.hpp:77] Creating layer res_b
I0619 11:23:57.422416  4268 net.cpp:91] Creating Layer res_b
I0619 11:23:57.422423  4268 net.cpp:425] res_b <- conv0_conv0_0_split_3
I0619 11:23:57.422432  4268 net.cpp:399] res_b -> res_b
I0619 11:23:57.423341  4268 net.cpp:141] Setting up res_b
I0619 11:23:57.423355  4268 net.cpp:148] Top shape: 100 64 32 32 (6553600)
I0619 11:23:57.423362  4268 net.cpp:156] Memory required for data: 532071600
I0619 11:23:57.423377  4268 layer_factory.hpp:77] Creating layer elt_b_1
I0619 11:23:57.423405  4268 net.cpp:91] Creating Layer elt_b_1
I0619 11:23:57.423413  4268 net.cpp:425] elt_b_1 <- res_b
I0619 11:23:57.423419  4268 net.cpp:425] elt_b_1 <- conv_b_1_2
I0619 11:23:57.423427  4268 net.cpp:399] elt_b_1 -> elt_b_1
I0619 11:23:57.423461  4268 net.cpp:141] Setting up elt_b_1
I0619 11:23:57.423471  4268 net.cpp:148] Top shape: 100 64 32 32 (6553600)
I0619 11:23:57.423477  4268 net.cpp:156] Memory required for data: 558286000
I0619 11:23:57.423481  4268 layer_factory.hpp:77] Creating layer elt_b_1_elt_b_1_0_split
I0619 11:23:57.423491  4268 net.cpp:91] Creating Layer elt_b_1_elt_b_1_0_split
I0619 11:23:57.423497  4268 net.cpp:425] elt_b_1_elt_b_1_0_split <- elt_b_1
I0619 11:23:57.423511  4268 net.cpp:399] elt_b_1_elt_b_1_0_split -> elt_b_1_elt_b_1_0_split_0
I0619 11:23:57.423521  4268 net.cpp:399] elt_b_1_elt_b_1_0_split -> elt_b_1_elt_b_1_0_split_1
I0619 11:23:57.423529  4268 net.cpp:399] elt_b_1_elt_b_1_0_split -> elt_b_1_elt_b_1_0_split_2
I0619 11:23:57.423537  4268 net.cpp:399] elt_b_1_elt_b_1_0_split -> elt_b_1_elt_b_1_0_split_3
I0619 11:23:57.423614  4268 net.cpp:141] Setting up elt_b_1_elt_b_1_0_split
I0619 11:23:57.423627  4268 net.cpp:148] Top shape: 100 64 32 32 (6553600)
I0619 11:23:57.423635  4268 net.cpp:148] Top shape: 100 64 32 32 (6553600)
I0619 11:23:57.423640  4268 net.cpp:148] Top shape: 100 64 32 32 (6553600)
I0619 11:23:57.423646  4268 net.cpp:148] Top shape: 100 64 32 32 (6553600)
I0619 11:23:57.423651  4268 net.cpp:156] Memory required for data: 663143600
I0619 11:23:57.423656  4268 layer_factory.hpp:77] Creating layer bn_c_1_1
I0619 11:23:57.423667  4268 net.cpp:91] Creating Layer bn_c_1_1
I0619 11:23:57.423673  4268 net.cpp:425] bn_c_1_1 <- conv0_conv0_0_split_4
I0619 11:23:57.423682  4268 net.cpp:399] bn_c_1_1 -> bn_c_1_1
I0619 11:23:57.423921  4268 net.cpp:141] Setting up bn_c_1_1
I0619 11:23:57.423933  4268 net.cpp:148] Top shape: 100 16 32 32 (1638400)
I0619 11:23:57.423938  4268 net.cpp:156] Memory required for data: 669697200
I0619 11:23:57.423948  4268 layer_factory.hpp:77] Creating layer sc_c_1_1
I0619 11:23:57.423960  4268 net.cpp:91] Creating Layer sc_c_1_1
I0619 11:23:57.423967  4268 net.cpp:425] sc_c_1_1 <- bn_c_1_1
I0619 11:23:57.423975  4268 net.cpp:399] sc_c_1_1 -> sc_c_1_1
I0619 11:23:57.424031  4268 layer_factory.hpp:77] Creating layer sc_c_1_1
I0619 11:23:57.424175  4268 net.cpp:141] Setting up sc_c_1_1
I0619 11:23:57.424186  4268 net.cpp:148] Top shape: 100 16 32 32 (1638400)
I0619 11:23:57.424191  4268 net.cpp:156] Memory required for data: 676250800
I0619 11:23:57.424199  4268 layer_factory.hpp:77] Creating layer relu_c_1_1
I0619 11:23:57.424206  4268 net.cpp:91] Creating Layer relu_c_1_1
I0619 11:23:57.424212  4268 net.cpp:425] relu_c_1_1 <- sc_c_1_1
I0619 11:23:57.424222  4268 net.cpp:399] relu_c_1_1 -> relu_c_1_1
I0619 11:23:57.424540  4268 net.cpp:141] Setting up relu_c_1_1
I0619 11:23:57.424554  4268 net.cpp:148] Top shape: 100 16 32 32 (1638400)
I0619 11:23:57.424559  4268 net.cpp:156] Memory required for data: 682804400
I0619 11:23:57.424564  4268 layer_factory.hpp:77] Creating layer conv_c_1_1
I0619 11:23:57.424576  4268 net.cpp:91] Creating Layer conv_c_1_1
I0619 11:23:57.424583  4268 net.cpp:425] conv_c_1_1 <- relu_c_1_1
I0619 11:23:57.424592  4268 net.cpp:399] conv_c_1_1 -> conv_c_1_1
I0619 11:23:57.425815  4268 net.cpp:141] Setting up conv_c_1_1
I0619 11:23:57.425830  4268 net.cpp:148] Top shape: 100 64 32 32 (6553600)
I0619 11:23:57.425835  4268 net.cpp:156] Memory required for data: 709018800
I0619 11:23:57.425843  4268 layer_factory.hpp:77] Creating layer bn_c_1_2
I0619 11:23:57.425855  4268 net.cpp:91] Creating Layer bn_c_1_2
I0619 11:23:57.425861  4268 net.cpp:425] bn_c_1_2 <- conv_c_1_1
I0619 11:23:57.425870  4268 net.cpp:399] bn_c_1_2 -> bn_c_1_2
I0619 11:23:57.426120  4268 net.cpp:141] Setting up bn_c_1_2
I0619 11:23:57.426132  4268 net.cpp:148] Top shape: 100 64 32 32 (6553600)
I0619 11:23:57.426137  4268 net.cpp:156] Memory required for data: 735233200
I0619 11:23:57.426146  4268 layer_factory.hpp:77] Creating layer sc_c_1_2
I0619 11:23:57.426167  4268 net.cpp:91] Creating Layer sc_c_1_2
I0619 11:23:57.426173  4268 net.cpp:425] sc_c_1_2 <- bn_c_1_2
I0619 11:23:57.426180  4268 net.cpp:399] sc_c_1_2 -> sc_c_1_2
I0619 11:23:57.426241  4268 layer_factory.hpp:77] Creating layer sc_c_1_2
I0619 11:23:57.426395  4268 net.cpp:141] Setting up sc_c_1_2
I0619 11:23:57.426408  4268 net.cpp:148] Top shape: 100 64 32 32 (6553600)
I0619 11:23:57.426412  4268 net.cpp:156] Memory required for data: 761447600
I0619 11:23:57.426419  4268 layer_factory.hpp:77] Creating layer relu_c_1_2
I0619 11:23:57.426437  4268 net.cpp:91] Creating Layer relu_c_1_2
I0619 11:23:57.426443  4268 net.cpp:425] relu_c_1_2 <- sc_c_1_2
I0619 11:23:57.426450  4268 net.cpp:399] relu_c_1_2 -> relu_c_1_2
I0619 11:23:57.426651  4268 net.cpp:141] Setting up relu_c_1_2
I0619 11:23:57.426666  4268 net.cpp:148] Top shape: 100 64 32 32 (6553600)
I0619 11:23:57.426671  4268 net.cpp:156] Memory required for data: 787662000
I0619 11:23:57.426676  4268 layer_factory.hpp:77] Creating layer conv_c_1_2
I0619 11:23:57.426689  4268 net.cpp:91] Creating Layer conv_c_1_2
I0619 11:23:57.426697  4268 net.cpp:425] conv_c_1_2 <- relu_c_1_2
I0619 11:23:57.426704  4268 net.cpp:399] conv_c_1_2 -> conv_c_1_2
I0619 11:23:57.428580  4268 net.cpp:141] Setting up conv_c_1_2
I0619 11:23:57.428594  4268 net.cpp:148] Top shape: 100 64 32 32 (6553600)
I0619 11:23:57.428607  4268 net.cpp:156] Memory required for data: 813876400
I0619 11:23:57.428616  4268 layer_factory.hpp:77] Creating layer res_c
I0619 11:23:57.428628  4268 net.cpp:91] Creating Layer res_c
I0619 11:23:57.428635  4268 net.cpp:425] res_c <- conv0_conv0_0_split_5
I0619 11:23:57.428645  4268 net.cpp:399] res_c -> res_c
I0619 11:23:57.429680  4268 net.cpp:141] Setting up res_c
I0619 11:23:57.429694  4268 net.cpp:148] Top shape: 100 64 32 32 (6553600)
I0619 11:23:57.429702  4268 net.cpp:156] Memory required for data: 840090800
I0619 11:23:57.429710  4268 layer_factory.hpp:77] Creating layer elt_c_1
I0619 11:23:57.429720  4268 net.cpp:91] Creating Layer elt_c_1
I0619 11:23:57.429728  4268 net.cpp:425] elt_c_1 <- res_c
I0619 11:23:57.429733  4268 net.cpp:425] elt_c_1 <- conv_c_1_2
I0619 11:23:57.429741  4268 net.cpp:399] elt_c_1 -> elt_c_1
I0619 11:23:57.429785  4268 net.cpp:141] Setting up elt_c_1
I0619 11:23:57.429796  4268 net.cpp:148] Top shape: 100 64 32 32 (6553600)
I0619 11:23:57.429800  4268 net.cpp:156] Memory required for data: 866305200
…
I0619 11:23:57.434636  4268 layer_factory.hpp:77] Creating layer relu_d_1_2
I0619 11:23:57.434644  4268 net.cpp:91] Creating Layer relu_d_1_2
I0619 11:23:57.434650  4268 net.cpp:425] relu_d_1_2 <- sc_d_1_2
I0619 11:23:57.434659  4268 net.cpp:399] relu_d_1_2 -> relu_d_1_2
I0619 11:23:57.434960  4268 net.cpp:141] Setting up relu_d_1_2
I0619 11:23:57.434976  4268 net.cpp:148] Top shape: 100 128 16 16 (3276800)
I0619 11:23:57.434983  4268 net.cpp:156] Memory required for data: 1102234800
I0619 11:23:57.434988  4268 layer_factory.hpp:77] Creating layer conv_d_1_2
I0619 11:23:57.435003  4268 net.cpp:91] Creating Layer conv_d_1_2
I0619 11:23:57.435009  4268 net.cpp:425] conv_d_1_2 <- relu_d_1_2
I0619 11:23:57.435019  4268 net.cpp:399] conv_d_1_2 -> conv_d_1_2
I0619 11:23:57.439563  4268 net.cpp:141] Setting up conv_d_1_2
I0619 11:23:57.439589  4268 net.cpp:148] Top shape: 100 128 16 16 (3276800)
I0619 11:23:57.439594  4268 net.cpp:156] Memory required for data: 1115342000
I0619 11:23:57.439604  4268 layer_factory.hpp:77] Creating layer res_d
I0619 11:23:57.439618  4268 net.cpp:91] Creating Layer res_d
I0619 11:23:57.439625  4268 net.cpp:425] res_d <- elt_a_1_elt_a_1_0_split_1
I0619 11:23:57.439643  4268 net.cpp:399] res_d -> res_d
I0619 11:23:57.440913  4268 net.cpp:141] Setting up res_d
I0619 11:23:57.440928  4268 net.cpp:148] Top shape: 100 128 16 16 (3276800)
I0619 11:23:57.440932  4268 net.cpp:156] Memory required for data: 1128449200
I0619 11:23:57.440958  4268 layer_factory.hpp:77] Creating layer elt_d_1
I0619 11:23:57.440968  4268 net.cpp:91] Creating Layer elt_d_1
I0619 11:23:57.440973  4268 net.cpp:425] elt_d_1 <- res_d
I0619 11:23:57.441004  4268 net.cpp:425] elt_d_1 <- conv_d_1_2
I0619 11:23:57.441015  4268 net.cpp:399] elt_d_1 -> elt_d_1
I0619 11:23:57.441050  4268 net.cpp:141] Setting up elt_d_1
I0619 11:23:57.441061  4268 net.cpp:148] Top shape: 100 128 16 16 (3276800)
I0619 11:23:57.441066  4268 net.cpp:156] Memory required for data: 1141556400
I0619 11:23:57.441071  4268 layer_factory.hpp:77] Creating layer bn_f_1_1
I0619 11:23:57.441084  4268 net.cpp:91] Creating Layer bn_f_1_1
I0619 11:23:57.441090  4268 net.cpp:425] bn_f_1_1 <- elt_b_1_elt_b_1_0_split_0
I0619 11:23:57.441098  4268 net.cpp:399] bn_f_1_1 -> bn_f_1_1
I0619 11:23:57.441351  4268 net.cpp:141] Setting up bn_f_1_1
I0619 11:23:57.441365  4268 net.cpp:148] Top shape: 100 64 32 32 (6553600)
I0619 11:23:57.441371  4268 net.cpp:156] Memory required for data: 1167770800
I0619 11:23:57.441380  4268 layer_factory.hpp:77] Creating layer sc_f_1_1
I0619 11:23:57.441393  4268 net.cpp:91] Creating Layer sc_f_1_1
I0619 11:23:57.441400  4268 net.cpp:425] sc_f_1_1 <- bn_f_1_1
I0619 11:23:57.441406  4268 net.cpp:399] sc_f_1_1 -> sc_f_1_1
I0619 11:23:57.441479  4268 layer_factory.hpp:77] Creating layer sc_f_1_1
I0619 11:23:57.441639  4268 net.cpp:141] Setting up sc_f_1_1
I0619 11:23:57.441655  4268 net.cpp:148] Top shape: 100 64 32 32 (6553600)
I0619 11:23:57.441663  4268 net.cpp:156] Memory required for data: 1193985200
I0619 11:23:57.441671  4268 layer_factory.hpp:77] Creating layer relu_f_1_1
I0619 11:23:57.441680  4268 net.cpp:91] Creating Layer relu_f_1_1
I0619 11:23:57.441686  4268 net.cpp:425] relu_f_1_1 <- sc_f_1_1
I0619 11:23:57.441695  4268 net.cpp:399] relu_f_1_1 -> relu_f_1_1
I0619 11:23:57.442021  4268 net.cpp:141] Setting up relu_f_1_1
I0619 11:23:57.442035  4268 net.cpp:148] Top shape: 100 64 32 32 (6553600)
I0619 11:23:57.442040  4268 net.cpp:156] Memory required for data: 1220199600
I0619 11:23:57.442045  4268 layer_factory.hpp:77] Creating layer conv_f_1_1
I0619 11:23:57.442059  4268 net.cpp:91] Creating Layer conv_f_1_1
I0619 11:23:57.442065  4268 net.cpp:425] conv_f_1_1 <- relu_f_1_1
I0619 11:23:57.442075  4268 net.cpp:399] conv_f_1_1 -> conv_f_1_1
I0619 11:23:57.445340  4268 net.cpp:141] Setting up conv_f_1_1
I0619 11:23:57.445360  4268 net.cpp:148] Top shape: 100 128 16 16 (3276800)
I0619 11:23:57.445365  4268 net.cpp:156] Memory required for data: 1233306800
I0619 11:23:57.445374  4268 layer_factory.hpp:77] Creating layer bn_f_1_2
I0619 11:23:57.445386  4268 net.cpp:91] Creating Layer bn_f_1_2
I0619 11:23:57.445394  4268 net.cpp:425] bn_f_1_2 <- conv_f_1_1
I0619 11:23:57.445402  4268 net.cpp:399] bn_f_1_2 -> bn_f_1_2
I0619 11:23:57.445649  4268 net.cpp:141] Setting up bn_f_1_2
I0619 11:23:57.445662  4268 net.cpp:148] Top shape: 100 128 16 16 (3276800)
I0619 11:23:57.445665  4268 net.cpp:156] Memory required for data: 1246414000
I0619 11:23:57.445674  4268 layer_factory.hpp:77] Creating layer sc_f_1_2
I0619 11:23:57.445683  4268 net.cpp:91] Creating Layer sc_f_1_2
I0619 11:23:57.445689  4268 net.cpp:425] sc_f_1_2 <- bn_f_1_2
I0619 11:23:57.445698  4268 net.cpp:399] sc_f_1_2 -> sc_f_1_2
I0619 11:23:57.445762  4268 layer_factory.hpp:77] Creating layer sc_f_1_2
I0619 11:23:57.445904  4268 net.cpp:141] Setting up sc_f_1_2
I0619 11:23:57.445917  4268 net.cpp:148] Top shape: 100 128 16 16 (3276800)
I0619 11:23:57.445924  4268 net.cpp:156] Memory required for data: 1259521200
I0619 11:23:57.445935  4268 layer_factory.hpp:77] Creating layer relu_f_1_2
I0619 11:23:57.445943  4268 net.cpp:91] Creating Layer relu_f_1_2
I0619 11:23:57.445950  4268 net.cpp:425] relu_f_1_2 <- sc_f_1_2
I0619 11:23:57.445956  4268 net.cpp:399] relu_f_1_2 -> relu_f_1_2
I0619 11:23:57.446157  4268 net.cpp:141] Setting up relu_f_1_2
I0619 11:23:57.446171  4268 net.cpp:148] Top shape: 100 128 16 16 (3276800)
I0619 11:23:57.446177  4268 net.cpp:156] Memory required for data: 1272628400
I0619 11:23:57.446182  4268 layer_factory.hpp:77] Creating layer conv_f_1_2
I0619 11:23:57.446197  4268 net.cpp:91] Creating Layer conv_f_1_2
I0619 11:23:57.446203  4268 net.cpp:425] conv_f_1_2 <- relu_f_1_2
I0619 11:23:57.446233  4268 net.cpp:399] conv_f_1_2 -> conv_f_1_2
I0619 11:23:57.450817  4268 net.cpp:141] Setting up conv_f_1_2
I0619 11:23:57.450840  4268 net.cpp:148] Top shape: 100 128 16 16 (3276800)
I0619 11:23:57.450845  4268 net.cpp:156] Memory required for data: 1285735600
I0619 11:23:57.450853  4268 layer_factory.hpp:77] Creating layer res_f
I0619 11:23:57.450871  4268 net.cpp:91] Creating Layer res_f
I0619 11:23:57.450880  4268 net.cpp:425] res_f <- elt_b_1_elt_b_1_0_split_1
I0619 11:23:57.450894  4268 net.cpp:399] res_f -> res_f
I0619 11:23:57.452117  4268 net.cpp:141] Setting up res_f
I0619 11:23:57.452131  4268 net.cpp:148] Top shape: 100 128 16 16 (3276800)
I0619 11:23:57.452136  4268 net.cpp:156] Memory required for data: 1298842800
I0619 11:23:57.452143  4268 layer_factory.hpp:77] Creating layer elt_f_1
I0619 11:23:57.452157  4268 net.cpp:91] Creating Layer elt_f_1
I0619 11:23:57.452162  4268 net.cpp:425] elt_f_1 <- res_f
I0619 11:23:57.452168  4268 net.cpp:425] elt_f_1 <- conv_f_1_2
I0619 11:23:57.452177  4268 net.cpp:399] elt_f_1 -> elt_f_1
I0619 11:23:57.452208  4268 net.cpp:141] Setting up elt_f_1
I0619 11:23:57.452219  4268 net.cpp:148] Top shape: 100 128 16 16 (3276800)
I0619 11:23:57.452224  4268 net.cpp:156] Memory required for data: 1311950000
I0619 11:23:57.452229  4268 layer_factory.hpp:77] Creating layer bn_g_1_1
I0619 11:23:57.452244  4268 net.cpp:91] Creating Layer bn_g_1_1
I0619 11:23:57.452250  4268 net.cpp:425] bn_g_1_1 <- elt_b_1_elt_b_1_0_split_2
I0619 11:23:57.452260  4268 net.cpp:399] bn_g_1_1 -> bn_g_1_1
I0619 11:23:57.452518  4268 net.cpp:141] Setting up bn_g_1_1
I0619 11:23:57.452530  4268 net.cpp:148] Top shape: 100 64 32 32 (6553600)
I0619 11:23:57.452536  4268 net.cpp:156] Memory required for data: 1338164400
I0619 11:23:57.452545  4268 layer_factory.hpp:77] Creating layer sc_g_1_1
I0619 11:23:57.452555  4268 net.cpp:91] Creating Layer sc_g_1_1
I0619 11:23:57.452561  4268 net.cpp:425] sc_g_1_1 <- bn_g_1_1
I0619 11:23:57.452569  4268 net.cpp:399] sc_g_1_1 -> sc_g_1_1
I0619 11:23:57.452637  4268 layer_factory.hpp:77] Creating layer sc_g_1_1
I0619 11:23:57.452790  4268 net.cpp:141] Setting up sc_g_1_1
I0619 11:23:57.452801  4268 net.cpp:148] Top shape: 100 64 32 32 (6553600)
I0619 11:23:57.452807  4268 net.cpp:156] Memory required for data: 1364378800
I0619 11:23:57.452816  4268 layer_factory.hpp:77] Creating layer relu_g_1_1
I0619 11:23:57.452823  4268 net.cpp:91] Creating Layer relu_g_1_1
I0619 11:23:57.452829  4268 net.cpp:425] relu_g_1_1 <- sc_g_1_1
I0619 11:23:57.452838  4268 net.cpp:399] relu_g_1_1 -> relu_g_1_1
I0619 11:23:57.453042  4268 net.cpp:141] Setting up relu_g_1_1
I0619 11:23:57.453053  4268 net.cpp:148] Top shape: 100 64 32 32 (6553600)
I0619 11:23:57.453059  4268 net.cpp:156] Memory required for data: 1390593200
I0619 11:23:57.453063  4268 layer_factory.hpp:77] Creating layer conv_g_1_1
I0619 11:23:57.453075  4268 net.cpp:91] Creating Layer conv_g_1_1
I0619 11:23:57.453083  4268 net.cpp:425] conv_g_1_1 <- relu_g_1_1
I0619 11:23:57.453093  4268 net.cpp:399] conv_g_1_1 -> conv_g_1_1
I0619 11:23:57.456393  4268 net.cpp:141] Setting up conv_g_1_1
I0619 11:23:57.456411  4268 net.cpp:148] Top shape: 100 128 16 16 (3276800)
I0619 11:23:57.456416  4268 net.cpp:156] Memory required for data: 1403700400
I0619 11:23:57.456425  4268 layer_factory.hpp:77] Creating layer bn_g_1_2
I0619 11:23:57.456436  4268 net.cpp:91] Creating Layer bn_g_1_2
I0619 11:23:57.456444  4268 net.cpp:425] bn_g_1_2 <- conv_g_1_1
I0619 11:23:57.456457  4268 net.cpp:399] bn_g_1_2 -> bn_g_1_2
I0619 11:23:57.456706  4268 net.cpp:141] Setting up bn_g_1_2
I0619 11:23:57.456717  4268 net.cpp:148] Top shape: 100 128 16 16 (3276800)
I0619 11:23:57.456723  4268 net.cpp:156] Memory required for data: 1416807600
I0619 11:23:57.456732  4268 layer_factory.hpp:77] Creating layer sc_g_1_2
I0619 11:23:57.456743  4268 net.cpp:91] Creating Layer sc_g_1_2
I0619 11:23:57.456748  4268 net.cpp:425] sc_g_1_2 <- bn_g_1_2
I0619 11:23:57.456755  4268 net.cpp:399] sc_g_1_2 -> sc_g_1_2
I0619 11:23:57.456815  4268 layer_factory.hpp:77] Creating layer sc_g_1_2
I0619 11:23:57.456984  4268 net.cpp:141] Setting up sc_g_1_2
I0619 11:23:57.456998  4268 net.cpp:148] Top shape: 100 128 16 16 (3276800)
I0619 11:23:57.457005  4268 net.cpp:156] Memory required for data: 1429914800
I0619 11:23:57.457012  4268 layer_factory.hpp:77] Creating layer relu_g_1_2
I0619 11:23:57.457020  4268 net.cpp:91] Creating Layer relu_g_1_2
I0619 11:23:57.457026  4268 net.cpp:425] relu_g_1_2 <- sc_g_1_2
I0619 11:23:57.457036  4268 net.cpp:399] relu_g_1_2 -> relu_g_1_2
I0619 11:23:57.457355  4268 net.cpp:141] Setting up relu_g_1_2
I0619 11:23:57.457370  4268 net.cpp:148] Top shape: 100 128 16 16 (3276800)
I0619 11:23:57.457376  4268 net.cpp:156] Memory required for data: 1443022000
I0619 11:23:57.457381  4268 layer_factory.hpp:77] Creating layer conv_g_1_2
I0619 11:23:57.457403  4268 net.cpp:91] Creating Layer conv_g_1_2
I0619 11:23:57.457411  4268 net.cpp:425] conv_g_1_2 <- relu_g_1_2
I0619 11:23:57.457419  4268 net.cpp:399] conv_g_1_2 -> conv_g_1_2
I0619 11:23:57.461966  4268 net.cpp:141] Setting up conv_g_1_2
I0619 11:23:57.461989  4268 net.cpp:148] Top shape: 100 128 16 16 (3276800)
I0619 11:23:57.461994  4268 net.cpp:156] Memory required for data: 1456129200
I0619 11:23:57.462004  4268 layer_factory.hpp:77] Creating layer res_g
I0619 11:23:57.462020  4268 net.cpp:91] Creating Layer res_g
I0619 11:23:57.462026  4268 net.cpp:425] res_g <- elt_b_1_elt_b_1_0_split_3
I0619 11:23:57.462038  4268 net.cpp:399] res_g -> res_g
I0619 11:23:57.463634  4268 net.cpp:141] Setting up res_g
I0619 11:23:57.463650  4268 net.cpp:148] Top shape: 100 128 16 16 (3276800)
I0619 11:23:57.463655  4268 net.cpp:156] Memory required for data: 1469236400
I0619 11:23:57.463663  4268 layer_factory.hpp:77] Creating layer elt_g_1
I0619 11:23:57.463673  4268 net.cpp:91] Creating Layer elt_g_1
I0619 11:23:57.463678  4268 net.cpp:425] elt_g_1 <- res_g
I0619 11:23:57.463685  4268 net.cpp:425] elt_g_1 <- conv_g_1_2
I0619 11:23:57.463692  4268 net.cpp:399] elt_g_1 -> elt_g_1
I0619 11:23:57.463718  4268 net.cpp:141] Setting up elt_g_1
I0619 11:23:57.463727  4268 net.cpp:148] Top shape: 100 128 16 16 (3276800)
I0619 11:23:57.463737  4268 net.cpp:156] Memory required for data: 1482343600
I0619 11:23:57.463740  4268 layer_factory.hpp:77] Creating layer bn_h_1_1
I0619 11:23:57.463752  4268 net.cpp:91] Creating Layer bn_h_1_1
I0619 11:23:57.463757  4268 net.cpp:425] bn_h_1_1 <- elt_c_1_elt_c_1_0_split_0
I0619 11:23:57.463765  4268 net.cpp:399] bn_h_1_1 -> bn_h_1_1
I0619 11:23:57.463958  4268 net.cpp:141] Setting up bn_h_1_1
I0619 11:23:57.463970  4268 net.cpp:148] Top shape: 100 64 32 32 (6553600)
I0619 11:23:57.463975  4268 net.cpp:156] Memory required for data: 1508558000
I0619 11:23:57.463985  4268 layer_factory.hpp:77] Creating layer sc_h_1_1
I0619 11:23:57.463994  4268 net.cpp:91] Creating Layer sc_h_1_1
I0619 11:23:57.464000  4268 net.cpp:425] sc_h_1_1 <- bn_h_1_1
I0619 11:23:57.464010  4268 net.cpp:399] sc_h_1_1 -> sc_h_1_1
I0619 11:23:57.464057  4268 layer_factory.hpp:77] Creating layer sc_h_1_1
I0619 11:23:57.464192  4268 net.cpp:141] Setting up sc_h_1_1
I0619 11:23:57.464206  4268 net.cpp:148] Top shape: 100 64 32 32 (6553600)
I0619 11:23:57.464211  4268 net.cpp:156] Memory required for data: 1534772400
I0619 11:23:57.464220  4268 layer_factory.hpp:77] Creating layer relu_h_1_1
I0619 11:23:57.464228  4268 net.cpp:91] Creating Layer relu_h_1_1
I0619 11:23:57.464234  4268 net.cpp:425] relu_h_1_1 <- sc_h_1_1
I0619 11:23:57.464241  4268 net.cpp:399] relu_h_1_1 -> relu_h_1_1
I0619 11:23:57.464551  4268 net.cpp:141] Setting up relu_h_1_1
I0619 11:23:57.464565  4268 net.cpp:148] Top shape: 100 64 32 32 (6553600)
I0619 11:23:57.464570  4268 net.cpp:156] Memory required for data: 1560986800
I0619 11:23:57.464576  4268 layer_factory.hpp:77] Creating layer conv_h_1_1
I0619 11:23:57.464593  4268 net.cpp:91] Creating Layer conv_h_1_1
I0619 11:23:57.464601  4268 net.cpp:425] conv_h_1_1 <- relu_h_1_1
I0619 11:23:57.464610  4268 net.cpp:399] conv_h_1_1 -> conv_h_1_1
I0619 11:23:57.467767  4268 net.cpp:141] Setting up conv_h_1_1
I0619 11:23:57.467806  4268 net.cpp:148] Top shape: 100 128 16 16 (3276800)
I0619 11:23:57.467813  4268 net.cpp:156] Memory required for data: 1574094000
I0619 11:23:57.467820  4268 layer_factory.hpp:77] Creating layer bn_h_1_2
I0619 11:23:57.467833  4268 net.cpp:91] Creating Layer bn_h_1_2
I0619 11:23:57.467840  4268 net.cpp:425] bn_h_1_2 <- conv_h_1_1
I0619 11:23:57.467849  4268 net.cpp:399] bn_h_1_2 -> bn_h_1_2
I0619 11:23:57.468019  4268 net.cpp:141] Setting up bn_h_1_2
I0619 11:23:57.468029  4268 net.cpp:148] Top shape: 100 128 16 16 (3276800)
I0619 11:23:57.468034  4268 net.cpp:156] Memory required for data: 1587201200
I0619 11:23:57.468046  4268 layer_factory.hpp:77] Creating layer sc_h_1_2
I0619 11:23:57.468058  4268 net.cpp:91] Creating Layer sc_h_1_2
I0619 11:23:57.468065  4268 net.cpp:425] sc_h_1_2 <- bn_h_1_2
I0619 11:23:57.468072  4268 net.cpp:399] sc_h_1_2 -> sc_h_1_2
I0619 11:23:57.468121  4268 layer_factory.hpp:77] Creating layer sc_h_1_2
I0619 11:23:57.468226  4268 net.cpp:141] Setting up sc_h_1_2
I0619 11:23:57.468237  4268 net.cpp:148] Top shape: 100 128 16 16 (3276800)
I0619 11:23:57.468242  4268 net.cpp:156] Memory required for data: 1600308400
I0619 11:23:57.468253  4268 layer_factory.hpp:77] Creating layer relu_h_1_2
I0619 11:23:57.468262  4268 net.cpp:91] Creating Layer relu_h_1_2
I0619 11:23:57.468268  4268 net.cpp:425] relu_h_1_2 <- sc_h_1_2
I0619 11:23:57.468277  4268 net.cpp:399] relu_h_1_2 -> relu_h_1_2
I0619 11:23:57.468475  4268 net.cpp:141] Setting up relu_h_1_2
I0619 11:23:57.468487  4268 net.cpp:148] Top shape: 100 128 16 16 (3276800)
I0619 11:23:57.468493  4268 net.cpp:156] Memory required for data: 1613415600
I0619 11:23:57.468498  4268 layer_factory.hpp:77] Creating layer conv_h_1_2
I0619 11:23:57.468513  4268 net.cpp:91] Creating Layer conv_h_1_2
I0619 11:23:57.468521  4268 net.cpp:425] conv_h_1_2 <- relu_h_1_2
I0619 11:23:57.468531  4268 net.cpp:399] conv_h_1_2 -> conv_h_1_2
I0619 11:23:57.473014  4268 net.cpp:141] Setting up conv_h_1_2
I0619 11:23:57.473037  4268 net.cpp:148] Top shape: 100 128 16 16 (3276800)
I0619 11:23:57.473042  4268 net.cpp:156] Memory required for data: 1626522800
I0619 11:23:57.473052  4268 layer_factory.hpp:77] Creating layer res_h
I0619 11:23:57.473065  4268 net.cpp:91] Creating Layer res_h
I0619 11:23:57.473074  4268 net.cpp:425] res_h <- elt_c_1_elt_c_1_0_split_1
I0619 11:23:57.473088  4268 net.cpp:399] res_h -> res_h
I0619 11:23:57.474396  4268 net.cpp:141] Setting up res_h
I0619 11:23:57.474413  4268 net.cpp:148] Top shape: 100 128 16 16 (3276800)
I0619 11:23:57.474421  4268 net.cpp:156] Memory required for data: 1639630000
I0619 11:23:57.474429  4268 layer_factory.hpp:77] Creating layer elt_h_1
I0619 11:23:57.474441  4268 net.cpp:91] Creating Layer elt_h_1
I0619 11:23:57.474447  4268 net.cpp:425] elt_h_1 <- res_h
I0619 11:23:57.474452  4268 net.cpp:425] elt_h_1 <- conv_h_1_2
I0619 11:23:57.474460  4268 net.cpp:399] elt_h_1 -> elt_h_1
I0619 11:23:57.474488  4268 net.cpp:141] Setting up elt_h_1
I0619 11:23:57.474498  4268 net.cpp:148] Top shape: 100 128 16 16 (3276800)
I0619 11:23:57.474503  4268 net.cpp:156] Memory required for data: 1652737200
I0619 11:23:57.474508  4268 layer_factory.hpp:77] Creating layer bn_i_1_1
I0619 11:23:57.474519  4268 net.cpp:91] Creating Layer bn_i_1_1
I0619 11:23:57.474524  4268 net.cpp:425] bn_i_1_1 <- elt_c_1_elt_c_1_0_split_2
I0619 11:23:57.474532  4268 net.cpp:399] bn_i_1_1 -> bn_i_1_1
I0619 11:23:57.474740  4268 net.cpp:141] Setting up bn_i_1_1
I0619 11:23:57.474750  4268 net.cpp:148] Top shape: 100 64 32 32 (6553600)
I0619 11:23:57.474756  4268 net.cpp:156] Memory required for data: 1678951600
I0619 11:23:57.474766  4268 layer_factory.hpp:77] Creating layer sc_i_1_1
I0619 11:23:57.474774  4268 net.cpp:91] Creating Layer sc_i_1_1
I0619 11:23:57.474781  4268 net.cpp:425] sc_i_1_1 <- bn_i_1_1
I0619 11:23:57.474789  4268 net.cpp:399] sc_i_1_1 -> sc_i_1_1
I0619 11:23:57.474843  4268 layer_factory.hpp:77] Creating layer sc_i_1_1
I0619 11:23:57.474980  4268 net.cpp:141] Setting up sc_i_1_1
I0619 11:23:57.474993  4268 net.cpp:148] Top shape: 100 64 32 32 (6553600)
I0619 11:23:57.475018  4268 net.cpp:156] Memory required for data: 1705166000
I0619 11:23:57.475028  4268 layer_factory.hpp:77] Creating layer relu_i_1_1
I0619 11:23:57.475036  4268 net.cpp:91] Creating Layer relu_i_1_1
I0619 11:23:57.475042  4268 net.cpp:425] relu_i_1_1 <- sc_i_1_1
I0619 11:23:57.475049  4268 net.cpp:399] relu_i_1_1 -> relu_i_1_1
I0619 11:23:57.475242  4268 net.cpp:141] Setting up relu_i_1_1
I0619 11:23:57.475255  4268 net.cpp:148] Top shape: 100 64 32 32 (6553600)
I0619 11:23:57.475260  4268 net.cpp:156] Memory required for data: 1731380400
I0619 11:23:57.475265  4268 layer_factory.hpp:77] Creating layer conv_i_1_1
I0619 11:23:57.475278  4268 net.cpp:91] Creating Layer conv_i_1_1
I0619 11:23:57.475284  4268 net.cpp:425] conv_i_1_1 <- relu_i_1_1
I0619 11:23:57.475294  4268 net.cpp:399] conv_i_1_1 -> conv_i_1_1
I0619 11:23:57.478495  4268 net.cpp:141] Setting up conv_i_1_1
I0619 11:23:57.478514  4268 net.cpp:148] Top shape: 100 128 16 16 (3276800)
I0619 11:23:57.478519  4268 net.cpp:156] Memory required for data: 1744487600
I0619 11:23:57.478528  4268 layer_factory.hpp:77] Creating layer bn_i_1_2
I0619 11:23:57.478539  4268 net.cpp:91] Creating Layer bn_i_1_2
I0619 11:23:57.478546  4268 net.cpp:425] bn_i_1_2 <- conv_i_1_1
I0619 11:23:57.478556  4268 net.cpp:399] bn_i_1_2 -> bn_i_1_2
I0619 11:23:57.478724  4268 net.cpp:141] Setting up bn_i_1_2
I0619 11:23:57.478736  4268 net.cpp:148] Top shape: 100 128 16 16 (3276800)
I0619 11:23:57.478741  4268 net.cpp:156] Memory required for data: 1757594800
I0619 11:23:57.478750  4268 layer_factory.hpp:77] Creating layer sc_i_1_2
I0619 11:23:57.478763  4268 net.cpp:91] Creating Layer sc_i_1_2
I0619 11:23:57.478770  4268 net.cpp:425] sc_i_1_2 <- bn_i_1_2
I0619 11:23:57.478780  4268 net.cpp:399] sc_i_1_2 -> sc_i_1_2
I0619 11:23:57.478822  4268 layer_factory.hpp:77] Creating layer sc_i_1_2
I0619 11:23:57.478929  4268 net.cpp:141] Setting up sc_i_1_2
I0619 11:23:57.478941  4268 net.cpp:148] Top shape: 100 128 16 16 (3276800)
I0619 11:23:57.478946  4268 net.cpp:156] Memory required for data: 1770702000
I0619 11:23:57.478955  4268 layer_factory.hpp:77] Creating layer relu_i_1_2
I0619 11:23:57.478962  4268 net.cpp:91] Creating Layer relu_i_1_2
I0619 11:23:57.478968  4268 net.cpp:425] relu_i_1_2 <- sc_i_1_2
I0619 11:23:57.478976  4268 net.cpp:399] relu_i_1_2 -> relu_i_1_2
I0619 11:23:57.479290  4268 net.cpp:141] Setting up relu_i_1_2
I0619 11:23:57.479305  4268 net.cpp:148] Top shape: 100 128 16 16 (3276800)
I0619 11:23:57.479311  4268 net.cpp:156] Memory required for data: 1783809200
I0619 11:23:57.479316  4268 layer_factory.hpp:77] Creating layer conv_i_1_2
I0619 11:23:57.479331  4268 net.cpp:91] Creating Layer conv_i_1_2
I0619 11:23:57.479337  4268 net.cpp:425] conv_i_1_2 <- relu_i_1_2
I0619 11:23:57.479347  4268 net.cpp:399] conv_i_1_2 -> conv_i_1_2
I0619 11:23:57.483706  4268 net.cpp:141] Setting up conv_i_1_2
I0619 11:23:57.483731  4268 net.cpp:148] Top shape: 100 128 16 16 (3276800)
I0619 11:23:57.483736  4268 net.cpp:156] Memory required for data: 1796916400
I0619 11:23:57.483744  4268 layer_factory.hpp:77] Creating layer res_i
I0619 11:23:57.483759  4268 net.cpp:91] Creating Layer res_i
I0619 11:23:57.483768  4268 net.cpp:425] res_i <- elt_c_1_elt_c_1_0_split_3
I0619 11:23:57.483784  4268 net.cpp:399] res_i -> res_i
I0619 11:23:57.484969  4268 net.cpp:141] Setting up res_i
I0619 11:23:57.484983  4268 net.cpp:148] Top shape: 100 128 16 16 (3276800)
I0619 11:23:57.484992  4268 net.cpp:156] Memory required for data: 1810023600
I0619 11:23:57.485025  4268 layer_factory.hpp:77] Creating layer elt_i_1
I0619 11:23:57.485038  4268 net.cpp:91] Creating Layer elt_i_1
I0619 11:23:57.485045  4268 net.cpp:425] elt_i_1 <- res_i
I0619 11:23:57.485052  4268 net.cpp:425] elt_i_1 <- conv_i_1_2
I0619 11:23:57.485060  4268 net.cpp:399] elt_i_1 -> elt_i_1
I0619 11:23:57.485086  4268 net.cpp:141] Setting up elt_i_1
I0619 11:23:57.485096  4268 net.cpp:148] Top shape: 100 128 16 16 (3276800)
I0619 11:23:57.485101  4268 net.cpp:156] Memory required for data: 1823130800
I0619 11:23:57.485129  4268 layer_factory.hpp:77] Creating layer elt_d_f
I0619 11:23:57.485141  4268 net.cpp:91] Creating Layer elt_d_f
I0619 11:23:57.485148  4268 net.cpp:425] elt_d_f <- elt_d_1
I0619 11:23:57.485155  4268 net.cpp:425] elt_d_f <- elt_f_1
I0619 11:23:57.485165  4268 net.cpp:399] elt_d_f -> elt_d_f
I0619 11:23:57.485193  4268 net.cpp:141] Setting up elt_d_f
I0619 11:23:57.485205  4268 net.cpp:148] Top shape: 100 128 16 16 (3276800)
I0619 11:23:57.485210  4268 net.cpp:156] Memory required for data: 1836238000
I0619 11:23:57.485215  4268 layer_factory.hpp:77] Creating layer elt_d_f_elt_d_f_0_split
I0619 11:23:57.485222  4268 net.cpp:91] Creating Layer elt_d_f_elt_d_f_0_split
I0619 11:23:57.485229  4268 net.cpp:425] elt_d_f_elt_d_f_0_split <- elt_d_f
I0619 11:23:57.485234  4268 net.cpp:399] elt_d_f_elt_d_f_0_split -> elt_d_f_elt_d_f_0_split_0
I0619 11:23:57.485244  4268 net.cpp:399] elt_d_f_elt_d_f_0_split -> elt_d_f_elt_d_f_0_split_1
I0619 11:23:57.485280  4268 net.cpp:141] Setting up elt_d_f_elt_d_f_0_split
I0619 11:23:57.485290  4268 net.cpp:148] Top shape: 100 128 16 16 (3276800)
I0619 11:23:57.485296  4268 net.cpp:148] Top shape: 100 128 16 16 (3276800)
I0619 11:23:57.485304  4268 net.cpp:156] Memory required for data: 1862452400
I0619 11:23:57.485311  4268 layer_factory.hpp:77] Creating layer elt_g_i
I0619 11:23:57.485317  4268 net.cpp:91] Creating Layer elt_g_i
I0619 11:23:57.485322  4268 net.cpp:425] elt_g_i <- elt_g_1
I0619 11:23:57.485328  4268 net.cpp:425] elt_g_i <- elt_i_1
I0619 11:23:57.485338  4268 net.cpp:399] elt_g_i -> elt_g_i
I0619 11:23:57.485366  4268 net.cpp:141] Setting up elt_g_i
I0619 11:23:57.485375  4268 net.cpp:148] Top shape: 100 128 16 16 (3276800)
I0619 11:23:57.485380  4268 net.cpp:156] Memory required for data: 1875559600
I0619 11:23:57.485385  4268 layer_factory.hpp:77] Creating layer elt_g_i_elt_g_i_0_split
I0619 11:23:57.485391  4268 net.cpp:91] Creating Layer elt_g_i_elt_g_i_0_split
I0619 11:23:57.485396  4268 net.cpp:425] elt_g_i_elt_g_i_0_split <- elt_g_i
I0619 11:23:57.485404  4268 net.cpp:399] elt_g_i_elt_g_i_0_split -> elt_g_i_elt_g_i_0_split_0
I0619 11:23:57.485414  4268 net.cpp:399] elt_g_i_elt_g_i_0_split -> elt_g_i_elt_g_i_0_split_1
I0619 11:23:57.485446  4268 net.cpp:141] Setting up elt_g_i_elt_g_i_0_split
I0619 11:23:57.485455  4268 net.cpp:148] Top shape: 100 128 16 16 (3276800)
I0619 11:23:57.485461  4268 net.cpp:148] Top shape: 100 128 16 16 (3276800)
I0619 11:23:57.485466  4268 net.cpp:156] Memory required for data: 1901774000
I0619 11:23:57.485471  4268 layer_factory.hpp:77] Creating layer bn_j_1_1
I0619 11:23:57.485481  4268 net.cpp:91] Creating Layer bn_j_1_1
I0619 11:23:57.485488  4268 net.cpp:425] bn_j_1_1 <- elt_d_f_elt_d_f_0_split_0
I0619 11:23:57.485496  4268 net.cpp:399] bn_j_1_1 -> bn_j_1_1
I0619 11:23:57.485657  4268 net.cpp:141] Setting up bn_j_1_1
I0619 11:23:57.485668  4268 net.cpp:148] Top shape: 100 128 16 16 (3276800)
I0619 11:23:57.485674  4268 net.cpp:156] Memory required for data: 1914881200
I0619 11:23:57.485683  4268 layer_factory.hpp:77] Creating layer sc_j_1_1
I0619 11:23:57.485695  4268 net.cpp:91] Creating Layer sc_j_1_1
I0619 11:23:57.485702  4268 net.cpp:425] sc_j_1_1 <- bn_j_1_1
I0619 11:23:57.485709  4268 net.cpp:399] sc_j_1_1 -> sc_j_1_1
I0619 11:23:57.485762  4268 layer_factory.hpp:77] Creating layer sc_j_1_1
I0619 11:23:57.485862  4268 net.cpp:141] Setting up sc_j_1_1
I0619 11:23:57.485872  4268 net.cpp:148] Top shape: 100 128 16 16 (3276800)
I0619 11:23:57.485878  4268 net.cpp:156] Memory required for data: 1927988400
I0619 11:23:57.485885  4268 layer_factory.hpp:77] Creating layer relu_j_1_1
I0619 11:23:57.485894  4268 net.cpp:91] Creating Layer relu_j_1_1
I0619 11:23:57.485900  4268 net.cpp:425] relu_j_1_1 <- sc_j_1_1
I0619 11:23:57.485909  4268 net.cpp:399] relu_j_1_1 -> relu_j_1_1
I0619 11:23:57.486213  4268 net.cpp:141] Setting up relu_j_1_1
I0619 11:23:57.486227  4268 net.cpp:148] Top shape: 100 128 16 16 (3276800)
I0619 11:23:57.486232  4268 net.cpp:156] Memory required for data: 1941095600
I0619 11:23:57.486248  4268 layer_factory.hpp:77] Creating layer conv_j_1_1
I0619 11:23:57.486263  4268 net.cpp:91] Creating Layer conv_j_1_1
I0619 11:23:57.486273  4268 net.cpp:425] conv_j_1_1 <- relu_j_1_1
I0619 11:23:57.486284  4268 net.cpp:399] conv_j_1_1 -> conv_j_1_1
I0619 11:23:57.494971  4268 net.cpp:141] Setting up conv_j_1_1
I0619 11:23:57.495017  4268 net.cpp:148] Top shape: 100 256 8 8 (1638400)
I0619 11:23:57.495021  4268 net.cpp:156] Memory required for data: 1947649200
I0619 11:23:57.495033  4268 layer_factory.hpp:77] Creating layer bn_j_1_2
I0619 11:23:57.495049  4268 net.cpp:91] Creating Layer bn_j_1_2
I0619 11:23:57.495056  4268 net.cpp:425] bn_j_1_2 <- conv_j_1_1
I0619 11:23:57.495071  4268 net.cpp:399] bn_j_1_2 -> bn_j_1_2
I0619 11:23:57.495252  4268 net.cpp:141] Setting up bn_j_1_2
I0619 11:23:57.495265  4268 net.cpp:148] Top shape: 100 256 8 8 (1638400)
I0619 11:23:57.495271  4268 net.cpp:156] Memory required for data: 1954202800
I0619 11:23:57.495280  4268 layer_factory.hpp:77] Creating layer sc_j_1_2
I0619 11:23:57.495293  4268 net.cpp:91] Creating Layer sc_j_1_2
I0619 11:23:57.495301  4268 net.cpp:425] sc_j_1_2 <- bn_j_1_2
I0619 11:23:57.495308  4268 net.cpp:399] sc_j_1_2 -> sc_j_1_2
I0619 11:23:57.495358  4268 layer_factory.hpp:77] Creating layer sc_j_1_2
I0619 11:23:57.495471  4268 net.cpp:141] Setting up sc_j_1_2
I0619 11:23:57.495482  4268 net.cpp:148] Top shape: 100 256 8 8 (1638400)
I0619 11:23:57.495487  4268 net.cpp:156] Memory required for data: 1960756400
I0619 11:23:57.495496  4268 layer_factory.hpp:77] Creating layer relu_j_1_2
I0619 11:23:57.495504  4268 net.cpp:91] Creating Layer relu_j_1_2
I0619 11:23:57.495510  4268 net.cpp:425] relu_j_1_2 <- sc_j_1_2
I0619 11:23:57.495520  4268 net.cpp:399] relu_j_1_2 -> relu_j_1_2
I0619 11:23:57.495721  4268 net.cpp:141] Setting up relu_j_1_2
I0619 11:23:57.495734  4268 net.cpp:148] Top shape: 100 256 8 8 (1638400)
I0619 11:23:57.495739  4268 net.cpp:156] Memory required for data: 1967310000
I0619 11:23:57.495745  4268 layer_factory.hpp:77] Creating layer conv_j_1_2
I0619 11:23:57.495761  4268 net.cpp:91] Creating Layer conv_j_1_2
I0619 11:23:57.495769  4268 net.cpp:425] conv_j_1_2 <- relu_j_1_2
I0619 11:23:57.495779  4268 net.cpp:399] conv_j_1_2 -> conv_j_1_2
I0619 11:23:57.511711  4268 net.cpp:141] Setting up conv_j_1_2
I0619 11:23:57.511755  4268 net.cpp:148] Top shape: 100 256 8 8 (1638400)
I0619 11:23:57.511760  4268 net.cpp:156] Memory required for data: 1973863600
I0619 11:23:57.511773  4268 layer_factory.hpp:77] Creating layer res_j
I0619 11:23:57.511801  4268 net.cpp:91] Creating Layer res_j
I0619 11:23:57.511811  4268 net.cpp:425] res_j <- elt_d_f_elt_d_f_0_split_1
I0619 11:23:57.511826  4268 net.cpp:399] res_j -> res_j
I0619 11:23:57.513763  4268 net.cpp:141] Setting up res_j
I0619 11:23:57.513778  4268 net.cpp:148] Top shape: 100 256 8 8 (1638400)
I0619 11:23:57.513783  4268 net.cpp:156] Memory required for data: 1980417200
I0619 11:23:57.513792  4268 layer_factory.hpp:77] Creating layer elt_j_1
I0619 11:23:57.513803  4268 net.cpp:91] Creating Layer elt_j_1
I0619 11:23:57.513809  4268 net.cpp:425] elt_j_1 <- res_j
I0619 11:23:57.513816  4268 net.cpp:425] elt_j_1 <- conv_j_1_2
I0619 11:23:57.513823  4268 net.cpp:399] elt_j_1 -> elt_j_1
I0619 11:23:57.513856  4268 net.cpp:141] Setting up elt_j_1
I0619 11:23:57.513866  4268 net.cpp:148] Top shape: 100 256 8 8 (1638400)
I0619 11:23:57.513875  4268 net.cpp:156] Memory required for data: 1986970800
I0619 11:23:57.513880  4268 layer_factory.hpp:77] Creating layer bn_e_1_1
I0619 11:23:57.513895  4268 net.cpp:91] Creating Layer bn_e_1_1
I0619 11:23:57.513901  4268 net.cpp:425] bn_e_1_1 <- elt_a_1_elt_a_1_0_split_2
I0619 11:23:57.513909  4268 net.cpp:399] bn_e_1_1 -> bn_e_1_1
I0619 11:23:57.514114  4268 net.cpp:141] Setting up bn_e_1_1
I0619 11:23:57.514127  4268 net.cpp:148] Top shape: 100 64 32 32 (6553600)
I0619 11:23:57.514132  4268 net.cpp:156] Memory required for data: 2013185200
I0619 11:23:57.514142  4268 layer_factory.hpp:77] Creating layer sc_e_1_1
I0619 11:23:57.514153  4268 net.cpp:91] Creating Layer sc_e_1_1
I0619 11:23:57.514181  4268 net.cpp:425] sc_e_1_1 <- bn_e_1_1
I0619 11:23:57.514190  4268 net.cpp:399] sc_e_1_1 -> sc_e_1_1
I0619 11:23:57.514245  4268 layer_factory.hpp:77] Creating layer sc_e_1_1
I0619 11:23:57.514375  4268 net.cpp:141] Setting up sc_e_1_1
I0619 11:23:57.514386  4268 net.cpp:148] Top shape: 100 64 32 32 (6553600)
I0619 11:23:57.514392  4268 net.cpp:156] Memory required for data: 2039399600
I0619 11:23:57.514400  4268 layer_factory.hpp:77] Creating layer relu_e_1_1
I0619 11:23:57.514415  4268 net.cpp:91] Creating Layer relu_e_1_1
I0619 11:23:57.514421  4268 net.cpp:425] relu_e_1_1 <- sc_e_1_1
I0619 11:23:57.514430  4268 net.cpp:399] relu_e_1_1 -> relu_e_1_1
I0619 11:23:57.514642  4268 net.cpp:141] Setting up relu_e_1_1
I0619 11:23:57.514654  4268 net.cpp:148] Top shape: 100 64 32 32 (6553600)
I0619 11:23:57.514659  4268 net.cpp:156] Memory required for data: 2065614000
I0619 11:23:57.514663  4268 layer_factory.hpp:77] Creating layer conv_e_1_1
I0619 11:23:57.514678  4268 net.cpp:91] Creating Layer conv_e_1_1
I0619 11:23:57.514683  4268 net.cpp:425] conv_e_1_1 <- relu_e_1_1
I0619 11:23:57.514694  4268 net.cpp:399] conv_e_1_1 -> conv_e_1_1
I0619 11:23:57.517959  4268 net.cpp:141] Setting up conv_e_1_1
I0619 11:23:57.517981  4268 net.cpp:148] Top shape: 100 128 16 16 (3276800)
I0619 11:23:57.517985  4268 net.cpp:156] Memory required for data: 2078721200
I0619 11:23:57.517994  4268 layer_factory.hpp:77] Creating layer bn_e_1_2
I0619 11:23:57.518007  4268 net.cpp:91] Creating Layer bn_e_1_2
I0619 11:23:57.518013  4268 net.cpp:425] bn_e_1_2 <- conv_e_1_1
I0619 11:23:57.518023  4268 net.cpp:399] bn_e_1_2 -> bn_e_1_2
I0619 11:23:57.518214  4268 net.cpp:141] Setting up bn_e_1_2
I0619 11:23:57.518226  4268 net.cpp:148] Top shape: 100 128 16 16 (3276800)
I0619 11:23:57.518231  4268 net.cpp:156] Memory required for data: 2091828400
I0619 11:23:57.518241  4268 layer_factory.hpp:77] Creating layer sc_e_1_2
I0619 11:23:57.518250  4268 net.cpp:91] Creating Layer sc_e_1_2
I0619 11:23:57.518257  4268 net.cpp:425] sc_e_1_2 <- bn_e_1_2
I0619 11:23:57.518268  4268 net.cpp:399] sc_e_1_2 -> sc_e_1_2
I0619 11:23:57.518317  4268 layer_factory.hpp:77] Creating layer sc_e_1_2
I0619 11:23:57.518437  4268 net.cpp:141] Setting up sc_e_1_2
I0619 11:23:57.518448  4268 net.cpp:148] Top shape: 100 128 16 16 (3276800)
I0619 11:23:57.518457  4268 net.cpp:156] Memory required for data: 2104935600
I0619 11:23:57.518466  4268 layer_factory.hpp:77] Creating layer relu_e_1_2
I0619 11:23:57.518477  4268 net.cpp:91] Creating Layer relu_e_1_2
I0619 11:23:57.518484  4268 net.cpp:425] relu_e_1_2 <- sc_e_1_2
I0619 11:23:57.518491  4268 net.cpp:399] relu_e_1_2 -> relu_e_1_2
I0619 11:23:57.518795  4268 net.cpp:141] Setting up relu_e_1_2
I0619 11:23:57.518808  4268 net.cpp:148] Top shape: 100 128 16 16 (3276800)
I0619 11:23:57.518815  4268 net.cpp:156] Memory required for data: 2118042800
I0619 11:23:57.518820  4268 layer_factory.hpp:77] Creating layer conv_e_1_2
I0619 11:23:57.518834  4268 net.cpp:91] Creating Layer conv_e_1_2
I0619 11:23:57.518841  4268 net.cpp:425] conv_e_1_2 <- relu_e_1_2
I0619 11:23:57.518852  4268 net.cpp:399] conv_e_1_2 -> conv_e_1_2
I0619 11:23:57.523411  4268 net.cpp:141] Setting up conv_e_1_2
I0619 11:23:57.523439  4268 net.cpp:148] Top shape: 100 128 16 16 (3276800)
I0619 11:23:57.523445  4268 net.cpp:156] Memory required for data: 2131150000
I0619 11:23:57.523454  4268 layer_factory.hpp:77] Creating layer res_e
I0619 11:23:57.523470  4268 net.cpp:91] Creating Layer res_e
I0619 11:23:57.523478  4268 net.cpp:425] res_e <- elt_a_1_elt_a_1_0_split_3
I0619 11:23:57.523491  4268 net.cpp:399] res_e -> res_e
I0619 11:23:57.524682  4268 net.cpp:141] Setting up res_e
I0619 11:23:57.524695  4268 net.cpp:148] Top shape: 100 128 16 16 (3276800)
I0619 11:23:57.524700  4268 net.cpp:156] Memory required for data: 2144257200
I0619 11:23:57.524708  4268 layer_factory.hpp:77] Creating layer elt_e_1
I0619 11:23:57.524724  4268 net.cpp:91] Creating Layer elt_e_1
I0619 11:23:57.524730  4268 net.cpp:425] elt_e_1 <- res_e
I0619 11:23:57.524760  4268 net.cpp:425] elt_e_1 <- conv_e_1_2
I0619 11:23:57.524770  4268 net.cpp:399] elt_e_1 -> elt_e_1
I0619 11:23:57.524816  4268 net.cpp:141] Setting up elt_e_1
I0619 11:23:57.524830  4268 net.cpp:148] Top shape: 100 128 16 16 (3276800)
I0619 11:23:57.524835  4268 net.cpp:156] Memory required for data: 2157364400
I0619 11:23:57.524840  4268 layer_factory.hpp:77] Creating layer elt_e_h
I0619 11:23:57.524847  4268 net.cpp:91] Creating Layer elt_e_h
I0619 11:23:57.524852  4268 net.cpp:425] elt_e_h <- elt_e_1
I0619 11:23:57.524858  4268 net.cpp:425] elt_e_h <- elt_h_1
I0619 11:23:57.524866  4268 net.cpp:399] elt_e_h -> elt_e_h
I0619 11:23:57.524898  4268 net.cpp:141] Setting up elt_e_h
I0619 11:23:57.524909  4268 net.cpp:148] Top shape: 100 128 16 16 (3276800)
I0619 11:23:57.524914  4268 net.cpp:156] Memory required for data: 2170471600
I0619 11:23:57.524919  4268 layer_factory.hpp:77] Creating layer elt_e_h_elt_e_h_0_split
I0619 11:23:57.524925  4268 net.cpp:91] Creating Layer elt_e_h_elt_e_h_0_split
I0619 11:23:57.524931  4268 net.cpp:425] elt_e_h_elt_e_h_0_split <- elt_e_h
I0619 11:23:57.524940  4268 net.cpp:399] elt_e_h_elt_e_h_0_split -> elt_e_h_elt_e_h_0_split_0
I0619 11:23:57.524950  4268 net.cpp:399] elt_e_h_elt_e_h_0_split -> elt_e_h_elt_e_h_0_split_1
I0619 11:23:57.524989  4268 net.cpp:141] Setting up elt_e_h_elt_e_h_0_split
I0619 11:23:57.524998  4268 net.cpp:148] Top shape: 100 128 16 16 (3276800)
I0619 11:23:57.525005  4268 net.cpp:148] Top shape: 100 128 16 16 (3276800)
I0619 11:23:57.525009  4268 net.cpp:156] Memory required for data: 2196686000
I0619 11:23:57.525015  4268 layer_factory.hpp:77] Creating layer bn_k_1_1
I0619 11:23:57.525024  4268 net.cpp:91] Creating Layer bn_k_1_1
I0619 11:23:57.525029  4268 net.cpp:425] bn_k_1_1 <- elt_e_h_elt_e_h_0_split_0
I0619 11:23:57.525039  4268 net.cpp:399] bn_k_1_1 -> bn_k_1_1
I0619 11:23:57.525213  4268 net.cpp:141] Setting up bn_k_1_1
I0619 11:23:57.525224  4268 net.cpp:148] Top shape: 100 128 16 16 (3276800)
I0619 11:23:57.525230  4268 net.cpp:156] Memory required for data: 2209793200
I0619 11:23:57.525239  4268 layer_factory.hpp:77] Creating layer sc_k_1_1
I0619 11:23:57.525249  4268 net.cpp:91] Creating Layer sc_k_1_1
I0619 11:23:57.525254  4268 net.cpp:425] sc_k_1_1 <- bn_k_1_1
I0619 11:23:57.525264  4268 net.cpp:399] sc_k_1_1 -> sc_k_1_1
I0619 11:23:57.525315  4268 layer_factory.hpp:77] Creating layer sc_k_1_1
I0619 11:23:57.525416  4268 net.cpp:141] Setting up sc_k_1_1
I0619 11:23:57.525429  4268 net.cpp:148] Top shape: 100 128 16 16 (3276800)
I0619 11:23:57.525434  4268 net.cpp:156] Memory required for data: 2222900400
I0619 11:23:57.525442  4268 layer_factory.hpp:77] Creating layer relu_k_1_1
I0619 11:23:57.525450  4268 net.cpp:91] Creating Layer relu_k_1_1
I0619 11:23:57.525456  4268 net.cpp:425] relu_k_1_1 <- sc_k_1_1
I0619 11:23:57.525462  4268 net.cpp:399] relu_k_1_1 -> relu_k_1_1
I0619 11:23:57.525774  4268 net.cpp:141] Setting up relu_k_1_1
I0619 11:23:57.525789  4268 net.cpp:148] Top shape: 100 128 16 16 (3276800)
I0619 11:23:57.525792  4268 net.cpp:156] Memory required for data: 2236007600
I0619 11:23:57.525797  4268 layer_factory.hpp:77] Creating layer conv_k_1_1
I0619 11:23:57.525812  4268 net.cpp:91] Creating Layer conv_k_1_1
I0619 11:23:57.525820  4268 net.cpp:425] conv_k_1_1 <- relu_k_1_1
I0619 11:23:57.525830  4268 net.cpp:399] conv_k_1_1 -> conv_k_1_1
I0619 11:23:57.534528  4268 net.cpp:141] Setting up conv_k_1_1
I0619 11:23:57.534569  4268 net.cpp:148] Top shape: 100 256 8 8 (1638400)
I0619 11:23:57.534574  4268 net.cpp:156] Memory required for data: 2242561200
I0619 11:23:57.534587  4268 layer_factory.hpp:77] Creating layer bn_k_1_2
I0619 11:23:57.534605  4268 net.cpp:91] Creating Layer bn_k_1_2
I0619 11:23:57.534615  4268 net.cpp:425] bn_k_1_2 <- conv_k_1_1
I0619 11:23:57.534628  4268 net.cpp:399] bn_k_1_2 -> bn_k_1_2
I0619 11:23:57.534821  4268 net.cpp:141] Setting up bn_k_1_2
I0619 11:23:57.534833  4268 net.cpp:148] Top shape: 100 256 8 8 (1638400)
I0619 11:23:57.534839  4268 net.cpp:156] Memory required for data: 2249114800
I0619 11:23:57.534873  4268 layer_factory.hpp:77] Creating layer sc_k_1_2
I0619 11:23:57.534884  4268 net.cpp:91] Creating Layer sc_k_1_2
I0619 11:23:57.534890  4268 net.cpp:425] sc_k_1_2 <- bn_k_1_2
I0619 11:23:57.534898  4268 net.cpp:399] sc_k_1_2 -> sc_k_1_2
I0619 11:23:57.534956  4268 layer_factory.hpp:77] Creating layer sc_k_1_2
I0619 11:23:57.535080  4268 net.cpp:141] Setting up sc_k_1_2
I0619 11:23:57.535094  4268 net.cpp:148] Top shape: 100 256 8 8 (1638400)
I0619 11:23:57.535099  4268 net.cpp:156] Memory required for data: 2255668400
I0619 11:23:57.535107  4268 layer_factory.hpp:77] Creating layer relu_k_1_2
I0619 11:23:57.535118  4268 net.cpp:91] Creating Layer relu_k_1_2
I0619 11:23:57.535125  4268 net.cpp:425] relu_k_1_2 <- sc_k_1_2
I0619 11:23:57.535132  4268 net.cpp:399] relu_k_1_2 -> relu_k_1_2
I0619 11:23:57.535353  4268 net.cpp:141] Setting up relu_k_1_2
I0619 11:23:57.535370  4268 net.cpp:148] Top shape: 100 256 8 8 (1638400)
I0619 11:23:57.535377  4268 net.cpp:156] Memory required for data: 2262222000
I0619 11:23:57.535382  4268 layer_factory.hpp:77] Creating layer conv_k_1_2
I0619 11:23:57.535399  4268 net.cpp:91] Creating Layer conv_k_1_2
I0619 11:23:57.535405  4268 net.cpp:425] conv_k_1_2 <- relu_k_1_2
I0619 11:23:57.535415  4268 net.cpp:399] conv_k_1_2 -> conv_k_1_2
I0619 11:23:57.551363  4268 net.cpp:141] Setting up conv_k_1_2
I0619 11:23:57.551408  4268 net.cpp:148] Top shape: 100 256 8 8 (1638400)
I0619 11:23:57.551414  4268 net.cpp:156] Memory required for data: 2268775600
I0619 11:23:57.551425  4268 layer_factory.hpp:77] Creating layer res_k
I0619 11:23:57.551450  4268 net.cpp:91] Creating Layer res_k
I0619 11:23:57.551460  4268 net.cpp:425] res_k <- elt_e_h_elt_e_h_0_split_1
I0619 11:23:57.551476  4268 net.cpp:399] res_k -> res_k
I0619 11:23:57.553408  4268 net.cpp:141] Setting up res_k
I0619 11:23:57.553432  4268 net.cpp:148] Top shape: 100 256 8 8 (1638400)
I0619 11:23:57.553437  4268 net.cpp:156] Memory required for data: 2275329200
I0619 11:23:57.553445  4268 layer_factory.hpp:77] Creating layer elt_k_1
I0619 11:23:57.553455  4268 net.cpp:91] Creating Layer elt_k_1
I0619 11:23:57.553460  4268 net.cpp:425] elt_k_1 <- res_k
I0619 11:23:57.553467  4268 net.cpp:425] elt_k_1 <- conv_k_1_2
I0619 11:23:57.553474  4268 net.cpp:399] elt_k_1 -> elt_k_1
I0619 11:23:57.553511  4268 net.cpp:141] Setting up elt_k_1
I0619 11:23:57.553522  4268 net.cpp:148] Top shape: 100 256 8 8 (1638400)
I0619 11:23:57.553529  4268 net.cpp:156] Memory required for data: 2281882800
I0619 11:23:57.553534  4268 layer_factory.hpp:77] Creating layer bn_l_1_1
I0619 11:23:57.553545  4268 net.cpp:91] Creating Layer bn_l_1_1
I0619 11:23:57.553552  4268 net.cpp:425] bn_l_1_1 <- elt_g_i_elt_g_i_0_split_0
I0619 11:23:57.553562  4268 net.cpp:399] bn_l_1_1 -> bn_l_1_1
I0619 11:23:57.553768  4268 net.cpp:141] Setting up bn_l_1_1
I0619 11:23:57.553781  4268 net.cpp:148] Top shape: 100 128 16 16 (3276800)
I0619 11:23:57.553786  4268 net.cpp:156] Memory required for data: 2294990000
I0619 11:23:57.553794  4268 layer_factory.hpp:77] Creating layer sc_l_1_1
I0619 11:23:57.553805  4268 net.cpp:91] Creating Layer sc_l_1_1
I0619 11:23:57.553812  4268 net.cpp:425] sc_l_1_1 <- bn_l_1_1
I0619 11:23:57.553818  4268 net.cpp:399] sc_l_1_1 -> sc_l_1_1
I0619 11:23:57.553870  4268 layer_factory.hpp:77] Creating layer sc_l_1_1
I0619 11:23:57.553983  4268 net.cpp:141] Setting up sc_l_1_1
I0619 11:23:57.553994  4268 net.cpp:148] Top shape: 100 128 16 16 (3276800)
I0619 11:23:57.553999  4268 net.cpp:156] Memory required for data: 2308097200
I0619 11:23:57.554008  4268 layer_factory.hpp:77] Creating layer relu_l_1_1
I0619 11:23:57.554016  4268 net.cpp:91] Creating Layer relu_l_1_1
I0619 11:23:57.554025  4268 net.cpp:425] relu_l_1_1 <- sc_l_1_1
I0619 11:23:57.554033  4268 net.cpp:399] relu_l_1_1 -> relu_l_1_1
I0619 11:23:57.554250  4268 net.cpp:141] Setting up relu_l_1_1
I0619 11:23:57.554262  4268 net.cpp:148] Top shape: 100 128 16 16 (3276800)
I0619 11:23:57.554268  4268 net.cpp:156] Memory required for data: 2321204400
I0619 11:23:57.554273  4268 layer_factory.hpp:77] Creating layer conv_l_1_1
I0619 11:23:57.554309  4268 net.cpp:91] Creating Layer conv_l_1_1
I0619 11:23:57.554317  4268 net.cpp:425] conv_l_1_1 <- relu_l_1_1
I0619 11:23:57.554327  4268 net.cpp:399] conv_l_1_1 -> conv_l_1_1
I0619 11:23:57.563005  4268 net.cpp:141] Setting up conv_l_1_1
I0619 11:23:57.563048  4268 net.cpp:148] Top shape: 100 256 8 8 (1638400)
I0619 11:23:57.563053  4268 net.cpp:156] Memory required for data: 2327758000
I0619 11:23:57.563066  4268 layer_factory.hpp:77] Creating layer bn_l_1_2
I0619 11:23:57.563082  4268 net.cpp:91] Creating Layer bn_l_1_2
I0619 11:23:57.563091  4268 net.cpp:425] bn_l_1_2 <- conv_l_1_1
I0619 11:23:57.563102  4268 net.cpp:399] bn_l_1_2 -> bn_l_1_2
I0619 11:23:57.563299  4268 net.cpp:141] Setting up bn_l_1_2
I0619 11:23:57.563311  4268 net.cpp:148] Top shape: 100 256 8 8 (1638400)
I0619 11:23:57.563319  4268 net.cpp:156] Memory required for data: 2334311600
I0619 11:23:57.563328  4268 layer_factory.hpp:77] Creating layer sc_l_1_2
I0619 11:23:57.563361  4268 net.cpp:91] Creating Layer sc_l_1_2
I0619 11:23:57.563369  4268 net.cpp:425] sc_l_1_2 <- bn_l_1_2
I0619 11:23:57.563377  4268 net.cpp:399] sc_l_1_2 -> sc_l_1_2
I0619 11:23:57.563432  4268 layer_factory.hpp:77] Creating layer sc_l_1_2
I0619 11:23:57.563555  4268 net.cpp:141] Setting up sc_l_1_2
I0619 11:23:57.563567  4268 net.cpp:148] Top shape: 100 256 8 8 (1638400)
I0619 11:23:57.563573  4268 net.cpp:156] Memory required for data: 2340865200
I0619 11:23:57.563581  4268 layer_factory.hpp:77] Creating layer relu_l_1_2
I0619 11:23:57.563591  4268 net.cpp:91] Creating Layer relu_l_1_2
I0619 11:23:57.563597  4268 net.cpp:425] relu_l_1_2 <- sc_l_1_2
I0619 11:23:57.563606  4268 net.cpp:399] relu_l_1_2 -> relu_l_1_2
I0619 11:23:57.563920  4268 net.cpp:141] Setting up relu_l_1_2
I0619 11:23:57.563935  4268 net.cpp:148] Top shape: 100 256 8 8 (1638400)
I0619 11:23:57.563940  4268 net.cpp:156] Memory required for data: 2347418800
I0619 11:23:57.563944  4268 layer_factory.hpp:77] Creating layer conv_l_1_2
I0619 11:23:57.563961  4268 net.cpp:91] Creating Layer conv_l_1_2
I0619 11:23:57.563967  4268 net.cpp:425] conv_l_1_2 <- relu_l_1_2
I0619 11:23:57.563978  4268 net.cpp:399] conv_l_1_2 -> conv_l_1_2
I0619 11:23:57.579838  4268 net.cpp:141] Setting up conv_l_1_2
I0619 11:23:57.579882  4268 net.cpp:148] Top shape: 100 256 8 8 (1638400)
I0619 11:23:57.579888  4268 net.cpp:156] Memory required for data: 2353972400
I0619 11:23:57.579900  4268 layer_factory.hpp:77] Creating layer res_l
I0619 11:23:57.579923  4268 net.cpp:91] Creating Layer res_l
I0619 11:23:57.579933  4268 net.cpp:425] res_l <- elt_g_i_elt_g_i_0_split_1
I0619 11:23:57.579951  4268 net.cpp:399] res_l -> res_l
I0619 11:23:57.581903  4268 net.cpp:141] Setting up res_l
I0619 11:23:57.581918  4268 net.cpp:148] Top shape: 100 256 8 8 (1638400)
I0619 11:23:57.581925  4268 net.cpp:156] Memory required for data: 2360526000
I0619 11:23:57.581933  4268 layer_factory.hpp:77] Creating layer elt_l_1
I0619 11:23:57.581943  4268 net.cpp:91] Creating Layer elt_l_1
I0619 11:23:57.581948  4268 net.cpp:425] elt_l_1 <- res_l
I0619 11:23:57.581954  4268 net.cpp:425] elt_l_1 <- conv_l_1_2
I0619 11:23:57.581961  4268 net.cpp:399] elt_l_1 -> elt_l_1
I0619 11:23:57.581996  4268 net.cpp:141] Setting up elt_l_1
I0619 11:23:57.582006  4268 net.cpp:148] Top shape: 100 256 8 8 (1638400)
I0619 11:23:57.582015  4268 net.cpp:156] Memory required for data: 2367079600
I0619 11:23:57.582020  4268 layer_factory.hpp:77] Creating layer elt_j_k_l
I0619 11:23:57.582028  4268 net.cpp:91] Creating Layer elt_j_k_l
I0619 11:23:57.582036  4268 net.cpp:425] elt_j_k_l <- elt_j_1
I0619 11:23:57.582041  4268 net.cpp:425] elt_j_k_l <- elt_k_1
I0619 11:23:57.582048  4268 net.cpp:425] elt_j_k_l <- elt_l_1
I0619 11:23:57.582056  4268 net.cpp:399] elt_j_k_l -> elt_j_k_l
I0619 11:23:57.582085  4268 net.cpp:141] Setting up elt_j_k_l
I0619 11:23:57.582095  4268 net.cpp:148] Top shape: 100 256 8 8 (1638400)
I0619 11:23:57.582101  4268 net.cpp:156] Memory required for data: 2373633200
I0619 11:23:57.582132  4268 layer_factory.hpp:77] Creating layer bn_m_1_1
I0619 11:23:57.582145  4268 net.cpp:91] Creating Layer bn_m_1_1
I0619 11:23:57.582150  4268 net.cpp:425] bn_m_1_1 <- elt_j_k_l
I0619 11:23:57.582159  4268 net.cpp:399] bn_m_1_1 -> bn_m_1_1
I0619 11:23:57.582353  4268 net.cpp:141] Setting up bn_m_1_1
I0619 11:23:57.582365  4268 net.cpp:148] Top shape: 100 256 8 8 (1638400)
I0619 11:23:57.582370  4268 net.cpp:156] Memory required for data: 2380186800
I0619 11:23:57.582379  4268 layer_factory.hpp:77] Creating layer sc_m_1_1
I0619 11:23:57.582391  4268 net.cpp:91] Creating Layer sc_m_1_1
I0619 11:23:57.582396  4268 net.cpp:425] sc_m_1_1 <- bn_m_1_1
I0619 11:23:57.582403  4268 net.cpp:399] sc_m_1_1 -> sc_m_1_1
I0619 11:23:57.582458  4268 layer_factory.hpp:77] Creating layer sc_m_1_1
I0619 11:23:57.582579  4268 net.cpp:141] Setting up sc_m_1_1
I0619 11:23:57.582590  4268 net.cpp:148] Top shape: 100 256 8 8 (1638400)
I0619 11:23:57.582597  4268 net.cpp:156] Memory required for data: 2386740400
I0619 11:23:57.582604  4268 layer_factory.hpp:77] Creating layer relu_m_1_1
I0619 11:23:57.582614  4268 net.cpp:91] Creating Layer relu_m_1_1
I0619 11:23:57.582622  4268 net.cpp:425] relu_m_1_1 <- sc_m_1_1
I0619 11:23:57.582628  4268 net.cpp:399] relu_m_1_1 -> relu_m_1_1
I0619 11:23:57.582944  4268 net.cpp:141] Setting up relu_m_1_1
I0619 11:23:57.582958  4268 net.cpp:148] Top shape: 100 256 8 8 (1638400)
I0619 11:23:57.582963  4268 net.cpp:156] Memory required for data: 2393294000
I0619 11:23:57.582968  4268 layer_factory.hpp:77] Creating layer gap
I0619 11:23:57.582978  4268 net.cpp:91] Creating Layer gap
I0619 11:23:57.582983  4268 net.cpp:425] gap <- relu_m_1_1
I0619 11:23:57.582999  4268 net.cpp:399] gap -> gap
I0619 11:23:57.583210  4268 net.cpp:141] Setting up gap
I0619 11:23:57.583222  4268 net.cpp:148] Top shape: 100 256 1 1 (25600)
I0619 11:23:57.583228  4268 net.cpp:156] Memory required for data: 2393396400
I0619 11:23:57.583233  4268 layer_factory.hpp:77] Creating layer ip1
I0619 11:23:57.583245  4268 net.cpp:91] Creating Layer ip1
I0619 11:23:57.583251  4268 net.cpp:425] ip1 <- gap
I0619 11:23:57.583262  4268 net.cpp:399] ip1 -> ip1
I0619 11:23:57.583454  4268 net.cpp:141] Setting up ip1
I0619 11:23:57.583467  4268 net.cpp:148] Top shape: 100 10 (1000)
I0619 11:23:57.583472  4268 net.cpp:156] Memory required for data: 2393400400
I0619 11:23:57.583479  4268 layer_factory.hpp:77] Creating layer ip1_ip1_0_split
I0619 11:23:57.583489  4268 net.cpp:91] Creating Layer ip1_ip1_0_split
I0619 11:23:57.583497  4268 net.cpp:425] ip1_ip1_0_split <- ip1
I0619 11:23:57.583503  4268 net.cpp:399] ip1_ip1_0_split -> ip1_ip1_0_split_0
I0619 11:23:57.583511  4268 net.cpp:399] ip1_ip1_0_split -> ip1_ip1_0_split_1
I0619 11:23:57.583554  4268 net.cpp:141] Setting up ip1_ip1_0_split
I0619 11:23:57.583564  4268 net.cpp:148] Top shape: 100 10 (1000)
I0619 11:23:57.583570  4268 net.cpp:148] Top shape: 100 10 (1000)
I0619 11:23:57.583575  4268 net.cpp:156] Memory required for data: 2393408400
I0619 11:23:57.583578  4268 layer_factory.hpp:77] Creating layer accuracy
I0619 11:23:57.583588  4268 net.cpp:91] Creating Layer accuracy
I0619 11:23:57.583595  4268 net.cpp:425] accuracy <- ip1_ip1_0_split_0
I0619 11:23:57.583600  4268 net.cpp:425] accuracy <- label_resnet_1_split_0
I0619 11:23:57.583611  4268 net.cpp:399] accuracy -> accuracy
…
