…
I0620 16:15:55.018949 17722 net.cpp:313] The NetState phase (0) differed from the phase (1) specified by a rule in layer accuracy
I0620 16:15:55.019752 17722 net.cpp:49] Initializing net from parameters: 
name: "ResNet"
state {
  phase: TRAIN
}
layer {
  name: "resnet"
  type: "Data"
  top: "data"
  top: "label"
  include {
    phase: TRAIN
  }
  transform_param {
    mean_file: "/home/takeki/caffe/examples/cifar10/mean.binaryproto"
  }
  data_param {
    source: "/home/takeki/caffe/examples/cifar10/cifar10_train_lmdb"
    batch_size: 128
    backend: LMDB
  }
}
layer {
  name: "conv0"
  type: "Convolution"
  bottom: "data"
  top: "conv0"
  param {
    lr_mult: 1
  }
  param {
    lr_mult: 2
  }
  convolution_param {
    num_output: 16
    pad: 1
    kernel_size: 3
    stride: 1
    weight_filler {
      type: "msra"
    }
    bias_filler {
      type: "constant"
    }
  }
}
layer {
  name: "bn_a_1_1"
  type: "BatchNorm"
  bottom: "conv0"
  top: "bn_a_1_1"
  param {
    lr_mult: 0
  }
  param {
    lr_mult: 0
  }
  param {
    lr_mult: 0
  }
  batch_norm_param {
    use_global_stats: false
  }
}
layer {
  name: "sc_a_1_1"
  type: "Scale"
  bottom: "bn_a_1_1"
  top: "sc_a_1_1"
  scale_param {
    bias_term: true
  }
}
layer {
  name: "relu_a_1_1"
  type: "ReLU"
  bottom: "sc_a_1_1"
  top: "relu_a_1_1"
}
layer {
  name: "conv_a_1_1"
  type: "Convolution"
  bottom: "relu_a_1_1"
  top: "conv_a_1_1"
  param {
    lr_mult: 1
    decay_mult: 1
  }
  param {
    lr_mult: 2
    decay_mult: 1
  }
  convolution_param {
    num_output: 64
    pad: 1
    kernel_size: 3
    stride: 1
    weight_filler {
      type: "msra"
    }
    bias_filler {
      type: "constant"
    }
  }
}
layer {
  name: "bn_a_1_2"
  type: "BatchNorm"
  bottom: "conv_a_1_1"
  top: "bn_a_1_2"
  param {
    lr_mult: 0
  }
  param {
    lr_mult: 0
  }
  param {
    lr_mult: 0
  }
  batch_norm_param {
    use_global_stats: false
  }
}
layer {
  name: "sc_a_1_2"
  type: "Scale"
  bottom: "bn_a_1_2"
  top: "sc_a_1_2"
  scale_param {
    bias_term: true
  }
}
layer {
  name: "relu_a_1_2"
  type: "ReLU"
  bottom: "sc_a_1_2"
  top: "relu_a_1_2"
}
layer {
  name: "conv_a_1_2"
  type: "Convolution"
  bottom: "relu_a_1_2"
  top: "conv_a_1_2"
  param {
    lr_mult: 1
    decay_mult: 1
  }
  param {
    lr_mult: 2
    decay_mult: 1
  }
  convolution_param {
    num_output: 64
    pad: 1
    kernel_size: 3
    stride: 1
    weight_filler {
      type: "msra"
    }
    bias_filler {
      type: "constant"
    }
  }
}
layer {
  name: "res_a"
  type: "Convolution"
  bottom: "conv0"
  top: "res_a"
  param {
    lr_mult: 1
    decay_mult: 1
  }
  param {
    lr_mult: 2
    decay_mult: 1
  }
  convolution_param {
    num_output: 64
    pad: 0
    kernel_size: 1
    stride: 1
    weight_filler {
      type: "msra"
    }
    bias_filler {
      type: "constant"
    }
  }
}
layer {
  name: "elt_a_1"
  type: "Eltwise"
  bottom: "res_a"
  bottom: "conv_a_1_2"
  top: "elt_a_1"
  eltwise_param {
    operation: SUM
  }
}
layer {
  name: "bn_b_1_1"
  type: "BatchNorm"
  bottom: "conv0"
  top: "bn_b_1_1"
  param {
    lr_mult: 0
  }
  param {
    lr_mult: 0
  }
  param {
    lr_mult: 0
  }
  batch_norm_param {
    use_global_stats: false
  }
}
layer {
  name: "sc_b_1_1"
  type: "Scale"
  bottom: "bn_b_1_1"
  top: "sc_b_1_1"
  scale_param {
    bias_term: true
  }
}
layer {
  name: "relu_b_1_1"
  type: "ReLU"
  bottom: "sc_b_1_1"
  top: "relu_b_1_1"
}
layer {
  name: "conv_b_1_1"
  type: "Convolution"
  bottom: "relu_b_1_1"
  top: "conv_b_1_1"
  param {
    lr_mult: 1
    decay_mult: 1
  }
  param {
    lr_mult: 2
    decay_mult: 1
  }
  convolution_param {
    num_output: 64
    pad: 1
    kernel_size: 3
    stride: 1
    weight_filler {
      type: "msra"
    }
    bias_filler {
      type: "constant"
    }
  }
}
layer {
  name: "bn_b_1_2"
  type: "BatchNorm"
  bottom: "conv_b_1_1"
  top: "bn_b_1_2"
  param {
    lr_mult: 0
  }
  param {
    lr_mult: 0
  }
  param {
    lr_mult: 0
  }
  batch_norm_param {
    use_global_stats: false
  }
}
layer {
  name: "sc_b_1_2"
  type: "Scale"
  bottom: "bn_b_1_2"
  top: "sc_b_1_2"
  scale_param {
    bias_term: true
  }
}
layer {
  name: "relu_b_1_2"
  type: "ReLU"
  bottom: "sc_b_1_2"
  top: "relu_b_1_2"
}
layer {
  name: "conv_b_1_2"
  type: "Convolution"
  bottom: "relu_b_1_2"
  top: "conv_b_1_2"
  param {
    lr_mult: 1
    decay_mult: 1
  }
  param {
    lr_mult: 2
    decay_mult: 1
  }
  convolution_param {
    num_output: 64
    pad: 1
    kernel_size: 3
    stride: 1
    weight_filler {
      type: "msra"
    }
    bias_filler {
      type: "constant"
    }
  }
}
layer {
  name: "res_b"
  type: "Convolution"
  bottom: "conv0"
  top: "res_b"
  param {
    lr_mult: 1
    decay_mult: 1
  }
  param {
    lr_mult: 2
    decay_mult: 1
  }
  convolution_param {
    num_output: 64
    pad: 0
    kernel_size: 1
    stride: 1
    weight_filler {
      type: "msra"
    }
    bias_filler {
      type: "constant"
    }
  }
}
layer {
  name: "elt_b_1"
  type: "Eltwise"
  bottom: "res_b"
  bottom: "conv_b_1_2"
  top: "elt_b_1"
  eltwise_param {
    operation: SUM
  }
}
layer {
  name: "bn_c_1_1"
  type: "BatchNorm"
  bottom: "conv0"
  top: "bn_c_1_1"
  param {
    lr_mult: 0
  }
  param {
    lr_mult: 0
  }
  param {
    lr_mult: 0
  }
  batch_norm_param {
    use_global_stats: false
  }
}
layer {
  name: "sc_c_1_1"
  type: "Scale"
  bottom: "bn_c_1_1"
  top: "sc_c_1_1"
  scale_param {
    bias_term: true
  }
}
layer {
  name: "relu_c_1_1"
  type: "ReLU"
  bottom: "sc_c_1_1"
  top: "relu_c_1_1"
}
layer {
  name: "conv_c_1_1"
  type: "Convolution"
  bottom: "relu_c_1_1"
  top: "conv_c_1_1"
  param {
    lr_mult: 1
    decay_mult: 1
  }
  param {
    lr_mult: 2
    decay_mult: 1
  }
  convolution_param {
    num_output: 64
    pad: 1
    kernel_size: 3
    stride: 1
    weight_filler {
      type: "msra"
    }
    bias_filler {
      type: "constant"
    }
  }
}
layer {
  name: "bn_c_1_2"
  type: "BatchNorm"
  bottom: "conv_c_1_1"
  top: "bn_c_1_2"
  param {
    lr_mult: 0
  }
  param {
    lr_mult: 0
  }
  param {
    lr_mult: 0
  }
  batch_norm_param {
    use_global_stats: false
  }
}
layer {
  name: "sc_c_1_2"
  type: "Scale"
  bottom: "bn_c_1_2"
  top: "sc_c_1_2"
  scale_param {
    bias_term: true
  }
}
layer {
  name: "relu_c_1_2"
  type: "ReLU"
  bottom: "sc_c_1_2"
  top: "relu_c_1_2"
}
layer {
  name: "conv_c_1_2"
  type: "Convolution"
  bottom: "relu_c_1_2"
  top: "conv_c_1_2"
  param {
    lr_mult: 1
    decay_mult: 1
  }
  param {
    lr_mult: 2
    decay_mult: 1
  }
  convolution_param {
    num_output: 64
    pad: 1
    kernel_size: 3
    stride: 1
    weight_filler {
      type: "msra"
    }
    bias_filler {
      type: "constant"
    }
  }
}
layer {
  name: "res_c"
  type: "Convolution"
  bottom: "conv0"
  top: "res_c"
  param {
    lr_mult: 1
    decay_mult: 1
  }
  param {
    lr_mult: 2
    decay_mult: 1
  }
  convolution_param {
    num_output: 64
    pad: 0
    kernel_size: 1
    stride: 1
    weight_filler {
      type: "msra"
    }
    bias_filler {
      type: "constant"
    }
  }
}
layer {
  name: "elt_c_1"
  type: "Eltwise"
  bottom: "res_c"
  bottom: "conv_c_1_2"
  top: "elt_c_1"
  eltwise_param {
    operation: SUM
  }
}
layer {
  name: "bn_d_1_1"
  type: "BatchNorm"
  bottom: "elt_a_1"
  top: "bn_d_1_1"
  param {
    lr_mult: 0
  }
  param {
    lr_mult: 0
  }
  param {
    lr_mult: 0
  }
  batch_norm_param {
    use_global_stats: false
  }
}
layer {
  name: "sc_d_1_1"
  type: "Scale"
  bottom: "bn_d_1_1"
  top: "sc_d_1_1"
  scale_param {
    bias_term: true
  }
}
layer {
  name: "relu_d_1_1"
  type: "ReLU"
  bottom: "sc_d_1_1"
  top: "relu_d_1_1"
}
layer {
  name: "conv_d_1_1"
  type: "Convolution"
  bottom: "relu_d_1_1"
  top: "conv_d_1_1"
  param {
    lr_mult: 1
    decay_mult: 1
  }
  param {
    lr_mult: 2
    decay_mult: 1
  }
  convolution_param {
    num_output: 128
    pad: 1
    kernel_size: 3
    stride: 2
    weight_filler {
      type: "msra"
    }
    bias_filler {
      type: "constant"
    }
  }
}
layer {
  name: "bn_d_1_2"
  type: "BatchNorm"
  bottom: "conv_d_1_1"
  top: "bn_d_1_2"
  param {
    lr_mult: 0
  }
  param {
    lr_mult: 0
  }
  param {
    lr_mult: 0
  }
  batch_norm_param {
    use_global_stats: false
  }
}
layer {
  name: "sc_d_1_2"
  type: "Scale"
  bottom: "bn_d_1_2"
  top: "sc_d_1_2"
  scale_param {
    bias_term: true
  }
}
layer {
  name: "relu_d_1_2"
  type: "ReLU"
  bottom: "sc_d_1_2"
  top: "relu_d_1_2"
}
layer {
  name: "conv_d_1_2"
  type: "Convolution"
  bottom: "relu_d_1_2"
  top: "conv_d_1_2"
  param {
    lr_mult: 1
    decay_mult: 1
  }
  param {
    lr_mult: 2
    decay_mult: 1
  }
  convolution_param {
    num_output: 128
    pad: 1
    kernel_size: 3
    stride: 1
    weight_filler {
      type: "msra"
    }
    bias_filler {
      type: "constant"
    }
  }
}
layer {
  name: "res_d"
  type: "Convolution"
  bottom: "elt_a_1"
  top: "res_d"
  param {
    lr_mult: 1
    decay_mult: 1
  }
  param {
    lr_mult: 2
    decay_mult: 1
  }
  convolution_param {
    num_output: 128
    pad: 0
    kernel_size: 1
    stride: 2
    weight_filler {
      type: "msra"
    }
    bias_filler {
      type: "constant"
    }
  }
}
layer {
  name: "elt_d_1"
  type: "Eltwise"
  bottom: "res_d"
  bottom: "conv_d_1_2"
  top: "elt_d_1"
  eltwise_param {
    operation: SUM
  }
}
layer {
  name: "bn_f_1_1"
  type: "BatchNorm"
  bottom: "elt_b_1"
  top: "bn_f_1_1"
  param {
    lr_mult: 0
  }
  param {
    lr_mult: 0
  }
  param {
    lr_mult: 0
  }
  batch_norm_param {
    use_global_stats: false
  }
}
layer {
  name: "sc_f_1_1"
  type: "Scale"
  bottom: "bn_f_1_1"
  top: "sc_f_1_1"
  scale_param {
    bias_term: true
  }
}
layer {
  name: "relu_f_1_1"
  type: "ReLU"
  bottom: "sc_f_1_1"
  top: "relu_f_1_1"
}
layer {
  name: "conv_f_1_1"
  type: "Convolution"
  bottom: "relu_f_1_1"
  top: "conv_f_1_1"
  param {
    lr_mult: 1
    decay_mult: 1
  }
  param {
    lr_mult: 2
    decay_mult: 1
  }
  convolution_param {
    num_output: 128
    pad: 1
    kernel_size: 3
    stride: 2
    weight_filler {
      type: "msra"
    }
    bias_filler {
      type: "constant"
    }
  }
}
layer {
  name: "bn_f_1_2"
  type: "BatchNorm"
  bottom: "conv_f_1_1"
  top: "bn_f_1_2"
  param {
    lr_mult: 0
  }
  param {
    lr_mult: 0
  }
  param {
    lr_mult: 0
  }
  batch_norm_param {
    use_global_stats: false
  }
}
layer {
  name: "sc_f_1_2"
  type: "Scale"
  bottom: "bn_f_1_2"
  top: "sc_f_1_2"
  scale_param {
    bias_term: true
  }
}
layer {
  name: "relu_f_1_2"
  type: "ReLU"
  bottom: "sc_f_1_2"
  top: "relu_f_1_2"
}
layer {
  name: "conv_f_1_2"
  type: "Convolution"
  bottom: "relu_f_1_2"
  top: "conv_f_1_2"
  param {
    lr_mult: 1
    decay_mult: 1
  }
  param {
    lr_mult: 2
    decay_mult: 1
  }
  convolution_param {
    num_output: 128
    pad: 1
    kernel_size: 3
    stride: 1
    weight_filler {
      type: "msra"
    }
    bias_filler {
      type: "constant"
    }
  }
}
layer {
  name: "res_f"
  type: "Convolution"
  bottom: "elt_b_1"
  top: "res_f"
  param {
    lr_mult: 1
    decay_mult: 1
  }
  param {
    lr_mult: 2
    decay_mult: 1
  }
  convolution_param {
    num_output: 128
    pad: 0
    kernel_size: 1
    stride: 2
    weight_filler {
      type: "msra"
    }
    bias_filler {
      type: "constant"
    }
  }
}
layer {
  name: "elt_f_1"
  type: "Eltwise"
  bottom: "res_f"
  bottom: "conv_f_1_2"
  top: "elt_f_1"
  eltwise_param {
    operation: SUM
  }
}
layer {
  name: "bn_g_1_1"
  type: "BatchNorm"
  bottom: "elt_b_1"
  top: "bn_g_1_1"
  param {
    lr_mult: 0
  }
  param {
    lr_mult: 0
  }
  param {
    lr_mult: 0
  }
  batch_norm_param {
    use_global_stats: false
  }
}
layer {
  name: "sc_g_1_1"
  type: "Scale"
  bottom: "bn_g_1_1"
  top: "sc_g_1_1"
  scale_param {
    bias_term: true
  }
}
layer {
  name: "relu_g_1_1"
  type: "ReLU"
  bottom: "sc_g_1_1"
  top: "relu_g_1_1"
}
layer {
  name: "conv_g_1_1"
  type: "Convolution"
  bottom: "relu_g_1_1"
  top: "conv_g_1_1"
  param {
    lr_mult: 1
    decay_mult: 1
  }
  param {
    lr_mult: 2
    decay_mult: 1
  }
  convolution_param {
    num_output: 128
    pad: 1
    kernel_size: 3
    stride: 2
    weight_filler {
      type: "msra"
    }
    bias_filler {
      type: "constant"
    }
  }
}
layer {
  name: "bn_g_1_2"
  type: "BatchNorm"
  bottom: "conv_g_1_1"
  top: "bn_g_1_2"
  param {
    lr_mult: 0
  }
  param {
    lr_mult: 0
  }
  param {
    lr_mult: 0
  }
  batch_norm_param {
    use_global_stats: false
  }
}
layer {
  name: "sc_g_1_2"
  type: "Scale"
  bottom: "bn_g_1_2"
  top: "sc_g_1_2"
  scale_param {
    bias_term: true
  }
}
layer {
  name: "relu_g_1_2"
  type: "ReLU"
  bottom: "sc_g_1_2"
  top: "relu_g_1_2"
}
layer {
  name: "conv_g_1_2"
  type: "Convolution"
  bottom: "relu_g_1_2"
  top: "conv_g_1_2"
  param {
    lr_mult: 1
    decay_mult: 1
  }
  param {
    lr_mult: 2
    decay_mult: 1
  }
  convolution_param {
    num_output: 128
    pad: 1
    kernel_size: 3
    stride: 1
    weight_filler {
      type: "msra"
    }
    bias_filler {
      type: "constant"
    }
  }
}
layer {
  name: "res_g"
  type: "Convolution"
  bottom: "elt_b_1"
  top: "res_g"
  param {
    lr_mult: 1
    decay_mult: 1
  }
  param {
    lr_mult: 2
    decay_mult: 1
  }
  convolution_param {
    num_output: 128
    pad: 0
    kernel_size: 1
    stride: 2
    weight_filler {
      type: "msra"
    }
    bias_filler {
      type: "constant"
    }
  }
}
layer {
  name: "elt_g_1"
  type: "Eltwise"
  bottom: "res_g"
  bottom: "conv_g_1_2"
  top: "elt_g_1"
  eltwise_param {
    operation: SUM
  }
}
layer {
  name: "bn_h_1_1"
  type: "BatchNorm"
  bottom: "elt_c_1"
  top: "bn_h_1_1"
  param {
    lr_mult: 0
  }
  param {
    lr_mult: 0
  }
  param {
    lr_mult: 0
  }
  batch_norm_param {
    use_global_stats: false
  }
}
layer {
  name: "sc_h_1_1"
  type: "Scale"
  bottom: "bn_h_1_1"
  top: "sc_h_1_1"
  scale_param {
    bias_term: true
  }
}
layer {
  name: "relu_h_1_1"
  type: "ReLU"
  bottom: "sc_h_1_1"
  top: "relu_h_1_1"
}
layer {
  name: "conv_h_1_1"
  type: "Convolution"
  bottom: "relu_h_1_1"
  top: "conv_h_1_1"
  param {
    lr_mult: 1
    decay_mult: 1
  }
  param {
    lr_mult: 2
    decay_mult: 1
  }
  convolution_param {
    num_output: 128
    pad: 1
    kernel_size: 3
    stride: 2
    weight_filler {
      type: "msra"
    }
    bias_filler {
      type: "constant"
    }
  }
}
layer {
  name: "bn_h_1_2"
  type: "BatchNorm"
  bottom: "conv_h_1_1"
  top: "bn_h_1_2"
  param {
    lr_mult: 0
  }
  param {
    lr_mult: 0
  }
  param {
    lr_mult: 0
  }
  batch_norm_param {
    use_global_stats: false
  }
}
layer {
  name: "sc_h_1_2"
  type: "Scale"
  bottom: "bn_h_1_2"
  top: "sc_h_1_2"
  scale_param {
    bias_term: true
  }
}
layer {
  name: "relu_h_1_2"
  type: "ReLU"
  bottom: "sc_h_1_2"
  top: "relu_h_1_2"
}
layer {
  name: "conv_h_1_2"
  type: "Convolution"
  bottom: "relu_h_1_2"
  top: "conv_h_1_2"
  param {
    lr_mult: 1
    decay_mult: 1
  }
  param {
    lr_mult: 2
    decay_mult: 1
  }
  convolution_param {
    num_output: 128
    pad: 1
    kernel_size: 3
    stride: 1
    weight_filler {
      type: "msra"
    }
    bias_filler {
      type: "constant"
    }
  }
}
layer {
  name: "res_h"
  type: "Convolution"
  bottom: "elt_c_1"
  top: "res_h"
  param {
    lr_mult: 1
    decay_mult: 1
  }
  param {
    lr_mult: 2
    decay_mult: 1
  }
  convolution_param {
    num_output: 128
    pad: 0
    kernel_size: 1
    stride: 2
    weight_filler {
      type: "msra"
    }
    bias_filler {
      type: "constant"
    }
  }
}
layer {
  name: "elt_h_1"
  type: "Eltwise"
  bottom: "res_h"
  bottom: "conv_h_1_2"
  top: "elt_h_1"
  eltwise_param {
    operation: SUM
  }
}
layer {
  name: "bn_i_1_1"
  type: "BatchNorm"
  bottom: "elt_c_1"
  top: "bn_i_1_1"
  param {
    lr_mult: 0
  }
  param {
    lr_mult: 0
  }
  param {
    lr_mult: 0
  }
  batch_norm_param {
    use_global_stats: false
  }
}
layer {
  name: "sc_i_1_1"
  type: "Scale"
  bottom: "bn_i_1_1"
  top: "sc_i_1_1"
  scale_param {
    bias_term: true
  }
}
layer {
  name: "relu_i_1_1"
  type: "ReLU"
  bottom: "sc_i_1_1"
  top: "relu_i_1_1"
}
layer {
  name: "conv_i_1_1"
  type: "Convolution"
  bottom: "relu_i_1_1"
  top: "conv_i_1_1"
  param {
    lr_mult: 1
    decay_mult: 1
  }
  param {
    lr_mult: 2
    decay_mult: 1
  }
  convolution_param {
    num_output: 128
    pad: 1
    kernel_size: 3
    stride: 2
    weight_filler {
      type: "msra"
    }
    bias_filler {
      type: "constant"
    }
  }
}
layer {
  name: "bn_i_1_2"
  type: "BatchNorm"
  bottom: "conv_i_1_1"
  top: "bn_i_1_2"
  param {
    lr_mult: 0
  }
  param {
    lr_mult: 0
  }
  param {
    lr_mult: 0
  }
  batch_norm_param {
    use_global_stats: false
  }
}
layer {
  name: "sc_i_1_2"
  type: "Scale"
  bottom: "bn_i_1_2"
  top: "sc_i_1_2"
  scale_param {
    bias_term: true
  }
}
layer {
  name: "relu_i_1_2"
  type: "ReLU"
  bottom: "sc_i_1_2"
  top: "relu_i_1_2"
}
layer {
  name: "conv_i_1_2"
  type: "Convolution"
  bottom: "relu_i_1_2"
  top: "conv_i_1_2"
  param {
    lr_mult: 1
    decay_mult: 1
  }
  param {
    lr_mult: 2
    decay_mult: 1
  }
  convolution_param {
    num_output: 128
    pad: 1
    kernel_size: 3
    stride: 1
    weight_filler {
      type: "msra"
    }
    bias_filler {
      type: "constant"
    }
  }
}
layer {
  name: "res_i"
  type: "Convolution"
  bottom: "elt_c_1"
  top: "res_i"
  param {
    lr_mult: 1
    decay_mult: 1
  }
  param {
    lr_mult: 2
    decay_mult: 1
  }
  convolution_param {
    num_output: 128
    pad: 0
    kernel_size: 1
    stride: 2
    weight_filler {
      type: "msra"
    }
    bias_filler {
      type: "constant"
    }
  }
}
layer {
  name: "elt_i_1"
  type: "Eltwise"
  bottom: "res_i"
  bottom: "conv_i_1_2"
  top: "elt_i_1"
  eltwise_param {
    operation: SUM
  }
}
layer {
  name: "elt_d_f"
  type: "Eltwise"
  bottom: "elt_d_1"
  bottom: "elt_f_1"
  top: "elt_d_f"
  eltwise_param {
    operation: SUM
  }
}
layer {
  name: "elt_g_i"
  type: "Eltwise"
  bottom: "elt_g_1"
  bottom: "elt_i_1"
  top: "elt_g_i"
  eltwise_param {
    operation: SUM
  }
}
layer {
  name: "bn_j_1_1"
  type: "BatchNorm"
  bottom: "elt_d_f"
  top: "bn_j_1_1"
  param {
    lr_mult: 0
  }
  param {
    lr_mult: 0
  }
  param {
    lr_mult: 0
  }
  batch_norm_param {
    use_global_stats: false
  }
}
layer {
  name: "sc_j_1_1"
  type: "Scale"
  bottom: "bn_j_1_1"
  top: "sc_j_1_1"
  scale_param {
    bias_term: true
  }
}
layer {
  name: "relu_j_1_1"
  type: "ReLU"
  bottom: "sc_j_1_1"
  top: "relu_j_1_1"
}
layer {
  name: "conv_j_1_1"
  type: "Convolution"
  bottom: "relu_j_1_1"
  top: "conv_j_1_1"
  param {
    lr_mult: 1
    decay_mult: 1
  }
  param {
    lr_mult: 2
    decay_mult: 1
  }
  convolution_param {
    num_output: 256
    pad: 1
    kernel_size: 3
    stride: 2
    weight_filler {
      type: "msra"
    }
    bias_filler {
      type: "constant"
    }
  }
}
layer {
  name: "bn_j_1_2"
  type: "BatchNorm"
  bottom: "conv_j_1_1"
  top: "bn_j_1_2"
  param {
    lr_mult: 0
  }
  param {
    lr_mult: 0
  }
  param {
    lr_mult: 0
  }
  batch_norm_param {
    use_global_stats: false
  }
}
layer {
  name: "sc_j_1_2"
  type: "Scale"
  bottom: "bn_j_1_2"
  top: "sc_j_1_2"
  scale_param {
    bias_term: true
  }
}
layer {
  name: "relu_j_1_2"
  type: "ReLU"
  bottom: "sc_j_1_2"
  top: "relu_j_1_2"
}
layer {
  name: "conv_j_1_2"
  type: "Convolution"
  bottom: "relu_j_1_2"
  top: "conv_j_1_2"
  param {
    lr_mult: 1
    decay_mult: 1
  }
  param {
    lr_mult: 2
    decay_mult: 1
  }
  convolution_param {
    num_output: 256
    pad: 1
    kernel_size: 3
    stride: 1
    weight_filler {
      type: "msra"
    }
    bias_filler {
      type: "constant"
    }
  }
}
layer {
  name: "res_j"
  type: "Convolution"
  bottom: "elt_d_f"
  top: "res_j"
  param {
    lr_mult: 1
    decay_mult: 1
  }
  param {
    lr_mult: 2
    decay_mult: 1
  }
  convolution_param {
    num_output: 256
    pad: 0
    kernel_size: 1
    stride: 2
    weight_filler {
      type: "msra"
    }
    bias_filler {
      type: "constant"
    }
  }
}
layer {
  name: "elt_j_1"
  type: "Eltwise"
  bottom: "res_j"
  bottom: "conv_j_1_2"
  top: "elt_j_1"
  eltwise_param {
    operation: SUM
  }
}
layer {
  name: "bn_e_1_1"
  type: "BatchNorm"
  bottom: "elt_a_1"
  top: "bn_e_1_1"
  param {
    lr_mult: 0
  }
  param {
    lr_mult: 0
  }
  param {
    lr_mult: 0
  }
  batch_norm_param {
    use_global_stats: false
  }
}
layer {
  name: "sc_e_1_1"
  type: "Scale"
  bottom: "bn_e_1_1"
  top: "sc_e_1_1"
  scale_param {
    bias_term: true
  }
}
layer {
  name: "relu_e_1_1"
  type: "ReLU"
  bottom: "sc_e_1_1"
  top: "relu_e_1_1"
}
layer {
  name: "conv_e_1_1"
  type: "Convolution"
  bottom: "relu_e_1_1"
  top: "conv_e_1_1"
  param {
    lr_mult: 1
    decay_mult: 1
  }
  param {
    lr_mult: 2
    decay_mult: 1
  }
  convolution_param {
    num_output: 128
    pad: 1
    kernel_size: 3
    stride: 2
    weight_filler {
      type: "msra"
    }
    bias_filler {
      type: "constant"
    }
  }
}
layer {
  name: "bn_e_1_2"
  type: "BatchNorm"
  bottom: "conv_e_1_1"
  top: "bn_e_1_2"
  param {
    lr_mult: 0
  }
  param {
    lr_mult: 0
  }
  param {
    lr_mult: 0
  }
  batch_norm_param {
    use_global_stats: false
  }
}
layer {
  name: "sc_e_1_2"
  type: "Scale"
  bottom: "bn_e_1_2"
  top: "sc_e_1_2"
  scale_param {
    bias_term: true
  }
}
layer {
  name: "relu_e_1_2"
  type: "ReLU"
  bottom: "sc_e_1_2"
  top: "relu_e_1_2"
}
layer {
  name: "conv_e_1_2"
  type: "Convolution"
  bottom: "relu_e_1_2"
  top: "conv_e_1_2"
  param {
    lr_mult: 1
    decay_mult: 1
  }
  param {
    lr_mult: 2
    decay_mult: 1
  }
  convolution_param {
    num_output: 128
    pad: 1
    kernel_size: 3
    stride: 1
    weight_filler {
      type: "msra"
    }
    bias_filler {
      type: "constant"
    }
  }
}
layer {
  name: "res_e"
  type: "Convolution"
  bottom: "elt_a_1"
  top: "res_e"
  param {
    lr_mult: 1
    decay_mult: 1
  }
  param {
    lr_mult: 2
    decay_mult: 1
  }
  convolution_param {
    num_output: 128
    pad: 0
    kernel_size: 1
    stride: 2
    weight_filler {
      type: "msra"
    }
    bias_filler {
      type: "constant"
    }
  }
}
layer {
  name: "elt_e_1"
  type: "Eltwise"
  bottom: "res_e"
  bottom: "conv_e_1_2"
  top: "elt_e_1"
  eltwise_param {
    operation: SUM
  }
}
layer {
  name: "elt_e_h"
  type: "Eltwise"
  bottom: "elt_e_1"
  bottom: "elt_h_1"
  top: "elt_e_h"
  eltwise_param {
    operation: SUM
  }
}
layer {
  name: "bn_k_1_1"
  type: "BatchNorm"
  bottom: "elt_e_h"
  top: "bn_k_1_1"
  param {
    lr_mult: 0
  }
  param {
    lr_mult: 0
  }
  param {
    lr_mult: 0
  }
  batch_norm_param {
    use_global_stats: false
  }
}
layer {
  name: "sc_k_1_1"
  type: "Scale"
  bottom: "bn_k_1_1"
  top: "sc_k_1_1"
  scale_param {
    bias_term: true
  }
}
layer {
  name: "relu_k_1_1"
  type: "ReLU"
  bottom: "sc_k_1_1"
  top: "relu_k_1_1"
}
layer {
  name: "conv_k_1_1"
  type: "Convolution"
  bottom: "relu_k_1_1"
  top: "conv_k_1_1"
  param {
    lr_mult: 1
    decay_mult: 1
  }
  param {
    lr_mult: 2
    decay_mult: 1
  }
  convolution_param {
    num_output: 256
    pad: 1
    kernel_size: 3
    stride: 2
    weight_filler {
      type: "msra"
    }
    bias_filler {
      type: "constant"
    }
  }
}
layer {
  name: "bn_k_1_2"
  type: "BatchNorm"
  bottom: "conv_k_1_1"
  top: "bn_k_1_2"
  param {
    lr_mult: 0
  }
  param {
    lr_mult: 0
  }
  param {
    lr_mult: 0
  }
  batch_norm_param {
    use_global_stats: false
  }
}
layer {
  name: "sc_k_1_2"
  type: "Scale"
  bottom: "bn_k_1_2"
  top: "sc_k_1_2"
  scale_param {
    bias_term: true
  }
}
layer {
  name: "relu_k_1_2"
  type: "ReLU"
  bottom: "sc_k_1_2"
  top: "relu_k_1_2"
}
layer {
  name: "conv_k_1_2"
  type: "Convolution"
  bottom: "relu_k_1_2"
  top: "conv_k_1_2"
  param {
    lr_mult: 1
    decay_mult: 1
  }
  param {
    lr_mult: 2
    decay_mult: 1
  }
  convolution_param {
    num_output: 256
    pad: 1
    kernel_size: 3
    stride: 1
    weight_filler {
      type: "msra"
    }
    bias_filler {
      type: "constant"
    }
  }
}
layer {
  name: "res_k"
  type: "Convolution"
  bottom: "elt_e_h"
  top: "res_k"
  param {
    lr_mult: 1
    decay_mult: 1
  }
  param {
    lr_mult: 2
    decay_mult: 1
  }
  convolution_param {
    num_output: 256
    pad: 0
    kernel_size: 1
    stride: 2
    weight_filler {
      type: "msra"
    }
    bias_filler {
      type: "constant"
    }
  }
}
layer {
  name: "elt_k_1"
  type: "Eltwise"
  bottom: "res_k"
  bottom: "conv_k_1_2"
  top: "elt_k_1"
  eltwise_param {
    operation: SUM
  }
}
layer {
  name: "bn_l_1_1"
  type: "BatchNorm"
  bottom: "elt_g_i"
  top: "bn_l_1_1"
  param {
    lr_mult: 0
  }
  param {
    lr_mult: 0
  }
  param {
    lr_mult: 0
  }
  batch_norm_param {
    use_global_stats: false
  }
}
layer {
  name: "sc_l_1_1"
  type: "Scale"
  bottom: "bn_l_1_1"
  top: "sc_l_1_1"
  scale_param {
    bias_term: true
  }
}
layer {
  name: "relu_l_1_1"
  type: "ReLU"
  bottom: "sc_l_1_1"
  top: "relu_l_1_1"
}
layer {
  name: "conv_l_1_1"
  type: "Convolution"
  bottom: "relu_l_1_1"
  top: "conv_l_1_1"
  param {
    lr_mult: 1
    decay_mult: 1
  }
  param {
    lr_mult: 2
    decay_mult: 1
  }
  convolution_param {
    num_output: 256
    pad: 1
    kernel_size: 3
    stride: 2
    weight_filler {
      type: "msra"
    }
    bias_filler {
      type: "constant"
    }
  }
}
layer {
  name: "bn_l_1_2"
  type: "BatchNorm"
  bottom: "conv_l_1_1"
  top: "bn_l_1_2"
  param {
    lr_mult: 0
  }
  param {
    lr_mult: 0
  }
  param {
    lr_mult: 0
  }
  batch_norm_param {
    use_global_stats: false
  }
}
layer {
  name: "sc_l_1_2"
  type: "Scale"
  bottom: "bn_l_1_2"
  top: "sc_l_1_2"
  scale_param {
    bias_term: true
  }
}
layer {
  name: "relu_l_1_2"
  type: "ReLU"
  bottom: "sc_l_1_2"
  top: "relu_l_1_2"
}
layer {
  name: "conv_l_1_2"
  type: "Convolution"
  bottom: "relu_l_1_2"
  top: "conv_l_1_2"
  param {
    lr_mult: 1
    decay_mult: 1
  }
  param {
    lr_mult: 2
    decay_mult: 1
  }
  convolution_param {
    num_output: 256
    pad: 1
    kernel_size: 3
    stride: 1
    weight_filler {
      type: "msra"
    }
    bias_filler {
      type: "constant"
    }
  }
}
layer {
  name: "res_l"
  type: "Convolution"
  bottom: "elt_g_i"
  top: "res_l"
  param {
    lr_mult: 1
    decay_mult: 1
  }
  param {
    lr_mult: 2
    decay_mult: 1
  }
  convolution_param {
    num_output: 256
    pad: 0
    kernel_size: 1
    stride: 2
    weight_filler {
      type: "msra"
    }
    bias_filler {
      type: "constant"
    }
  }
}
layer {
  name: "elt_l_1"
  type: "Eltwise"
  bottom: "res_l"
  bottom: "conv_l_1_2"
  top: "elt_l_1"
  eltwise_param {
    operation: SUM
  }
}
layer {
  name: "elt_j_k_l"
  type: "Eltwise"
  bottom: "elt_j_1"
  bottom: "elt_k_1"
  bottom: "elt_l_1"
  top: "elt_j_k_l"
  eltwise_param {
    operation: SUM
  }
}
layer {
  name: "bn_m_1_1"
  type: "BatchNorm"
  bottom: "elt_j_k_l"
  top: "bn_m_1_1"
  param {
    lr_mult: 0
  }
  param {
    lr_mult: 0
  }
  param {
    lr_mult: 0
  }
  batch_norm_param {
    use_global_stats: false
  }
}
layer {
  name: "sc_m_1_1"
  type: "Scale"
  bottom: "bn_m_1_1"
  top: "sc_m_1_1"
  scale_param {
    bias_term: true
  }
}
layer {
  name: "relu_m_1_1"
  type: "ReLU"
  bottom: "sc_m_1_1"
  top: "relu_m_1_1"
}
layer {
  name: "gap"
  type: "Pooling"
  bottom: "relu_m_1_1"
  top: "gap"
  pooling_param {
    pool: AVE
    kernel_size: 8
    stride: 1
  }
}
layer {
  name: "ip1"
  type: "InnerProduct"
  bottom: "gap"
  top: "ip1"
  param {
    lr_mult: 1
    decay_mult: 1
  }
  param {
    lr_mult: 2
    decay_mult: 0
  }
  inner_product_param {
    num_output: 10
    weight_filler {
      type: "msra"
    }
    bias_filler {
      type: "constant"
      value: 0
    }
  }
}
layer {
  name: "loss"
  type: "SoftmaxWithLoss"
  bottom: "ip1"
  bottom: "label"
  top: "loss"
}
I0620 16:15:55.020503 17722 layer_factory.hpp:77] Creating layer resnet
I0620 16:15:55.021553 17722 net.cpp:91] Creating Layer resnet
I0620 16:15:55.021569 17722 net.cpp:399] resnet -> data
I0620 16:15:55.021639 17722 net.cpp:399] resnet -> label
I0620 16:15:55.021672 17722 data_transformer.cpp:25] Loading mean file from: /home/takeki/caffe/examples/cifar10/mean.binaryproto
I0620 16:15:55.022557 17767 db_lmdb.cpp:35] Opened lmdb /home/takeki/caffe/examples/cifar10/cifar10_train_lmdb
I0620 16:15:55.037531 17722 data_layer.cpp:41] output data size: 128,3,32,32
I0620 16:15:55.041314 17722 net.cpp:141] Setting up resnet
I0620 16:15:55.041344 17722 net.cpp:148] Top shape: 128 3 32 32 (393216)
I0620 16:15:55.041354 17722 net.cpp:148] Top shape: 128 (128)
I0620 16:15:55.041360 17722 net.cpp:156] Memory required for data: 1573376
I0620 16:15:55.041374 17722 layer_factory.hpp:77] Creating layer conv0
I0620 16:15:55.041436 17722 net.cpp:91] Creating Layer conv0
I0620 16:15:55.041450 17722 net.cpp:425] conv0 <- data
I0620 16:15:55.041472 17722 net.cpp:399] conv0 -> conv0
I0620 16:15:55.270038 17722 net.cpp:141] Setting up conv0
I0620 16:15:55.270097 17722 net.cpp:148] Top shape: 128 16 32 32 (2097152)
I0620 16:15:55.270105 17722 net.cpp:156] Memory required for data: 9961984
I0620 16:15:55.270146 17722 layer_factory.hpp:77] Creating layer conv0_conv0_0_split
I0620 16:15:55.270182 17722 net.cpp:91] Creating Layer conv0_conv0_0_split
I0620 16:15:55.270192 17722 net.cpp:425] conv0_conv0_0_split <- conv0
I0620 16:15:55.270205 17722 net.cpp:399] conv0_conv0_0_split -> conv0_conv0_0_split_0
I0620 16:15:55.270223 17722 net.cpp:399] conv0_conv0_0_split -> conv0_conv0_0_split_1
I0620 16:15:55.270234 17722 net.cpp:399] conv0_conv0_0_split -> conv0_conv0_0_split_2
I0620 16:15:55.270246 17722 net.cpp:399] conv0_conv0_0_split -> conv0_conv0_0_split_3
I0620 16:15:55.270254 17722 net.cpp:399] conv0_conv0_0_split -> conv0_conv0_0_split_4
I0620 16:15:55.270265 17722 net.cpp:399] conv0_conv0_0_split -> conv0_conv0_0_split_5
I0620 16:15:55.270366 17722 net.cpp:141] Setting up conv0_conv0_0_split
I0620 16:15:55.270380 17722 net.cpp:148] Top shape: 128 16 32 32 (2097152)
I0620 16:15:55.270390 17722 net.cpp:148] Top shape: 128 16 32 32 (2097152)
I0620 16:15:55.270396 17722 net.cpp:148] Top shape: 128 16 32 32 (2097152)
I0620 16:15:55.270403 17722 net.cpp:148] Top shape: 128 16 32 32 (2097152)
I0620 16:15:55.270411 17722 net.cpp:148] Top shape: 128 16 32 32 (2097152)
I0620 16:15:55.270418 17722 net.cpp:148] Top shape: 128 16 32 32 (2097152)
I0620 16:15:55.270423 17722 net.cpp:156] Memory required for data: 60293632
I0620 16:15:55.270431 17722 layer_factory.hpp:77] Creating layer bn_a_1_1
I0620 16:15:55.270443 17722 net.cpp:91] Creating Layer bn_a_1_1
I0620 16:15:55.270450 17722 net.cpp:425] bn_a_1_1 <- conv0_conv0_0_split_0
I0620 16:15:55.270459 17722 net.cpp:399] bn_a_1_1 -> bn_a_1_1
I0620 16:15:55.270664 17722 net.cpp:141] Setting up bn_a_1_1
I0620 16:15:55.270678 17722 net.cpp:148] Top shape: 128 16 32 32 (2097152)
I0620 16:15:55.270692 17722 net.cpp:156] Memory required for data: 68682240
I0620 16:15:55.270711 17722 layer_factory.hpp:77] Creating layer sc_a_1_1
I0620 16:15:55.270735 17722 net.cpp:91] Creating Layer sc_a_1_1
I0620 16:15:55.270743 17722 net.cpp:425] sc_a_1_1 <- bn_a_1_1
I0620 16:15:55.270751 17722 net.cpp:399] sc_a_1_1 -> sc_a_1_1
I0620 16:15:55.270807 17722 layer_factory.hpp:77] Creating layer sc_a_1_1
I0620 16:15:55.270931 17722 net.cpp:141] Setting up sc_a_1_1
I0620 16:15:55.270944 17722 net.cpp:148] Top shape: 128 16 32 32 (2097152)
I0620 16:15:55.270956 17722 net.cpp:156] Memory required for data: 77070848
I0620 16:15:55.270967 17722 layer_factory.hpp:77] Creating layer relu_a_1_1
I0620 16:15:55.270978 17722 net.cpp:91] Creating Layer relu_a_1_1
I0620 16:15:55.270987 17722 net.cpp:425] relu_a_1_1 <- sc_a_1_1
I0620 16:15:55.270995 17722 net.cpp:399] relu_a_1_1 -> relu_a_1_1
I0620 16:15:55.271361 17722 net.cpp:141] Setting up relu_a_1_1
I0620 16:15:55.271379 17722 net.cpp:148] Top shape: 128 16 32 32 (2097152)
I0620 16:15:55.271436 17722 net.cpp:156] Memory required for data: 85459456
I0620 16:15:55.271445 17722 layer_factory.hpp:77] Creating layer conv_a_1_1
I0620 16:15:55.271464 17722 net.cpp:91] Creating Layer conv_a_1_1
I0620 16:15:55.271471 17722 net.cpp:425] conv_a_1_1 <- relu_a_1_1
I0620 16:15:55.271481 17722 net.cpp:399] conv_a_1_1 -> conv_a_1_1
I0620 16:15:55.273278 17722 net.cpp:141] Setting up conv_a_1_1
I0620 16:15:55.273298 17722 net.cpp:148] Top shape: 128 64 32 32 (8388608)
I0620 16:15:55.273304 17722 net.cpp:156] Memory required for data: 119013888
I0620 16:15:55.273319 17722 layer_factory.hpp:77] Creating layer bn_a_1_2
I0620 16:15:55.273329 17722 net.cpp:91] Creating Layer bn_a_1_2
I0620 16:15:55.273336 17722 net.cpp:425] bn_a_1_2 <- conv_a_1_1
I0620 16:15:55.273346 17722 net.cpp:399] bn_a_1_2 -> bn_a_1_2
I0620 16:15:55.273545 17722 net.cpp:141] Setting up bn_a_1_2
I0620 16:15:55.273560 17722 net.cpp:148] Top shape: 128 64 32 32 (8388608)
I0620 16:15:55.273566 17722 net.cpp:156] Memory required for data: 152568320
I0620 16:15:55.273578 17722 layer_factory.hpp:77] Creating layer sc_a_1_2
I0620 16:15:55.273589 17722 net.cpp:91] Creating Layer sc_a_1_2
I0620 16:15:55.273597 17722 net.cpp:425] sc_a_1_2 <- bn_a_1_2
I0620 16:15:55.273605 17722 net.cpp:399] sc_a_1_2 -> sc_a_1_2
I0620 16:15:55.273648 17722 layer_factory.hpp:77] Creating layer sc_a_1_2
I0620 16:15:55.273764 17722 net.cpp:141] Setting up sc_a_1_2
I0620 16:15:55.273778 17722 net.cpp:148] Top shape: 128 64 32 32 (8388608)
I0620 16:15:55.273784 17722 net.cpp:156] Memory required for data: 186122752
I0620 16:15:55.273794 17722 layer_factory.hpp:77] Creating layer relu_a_1_2
I0620 16:15:55.273804 17722 net.cpp:91] Creating Layer relu_a_1_2
I0620 16:15:55.273811 17722 net.cpp:425] relu_a_1_2 <- sc_a_1_2
I0620 16:15:55.273819 17722 net.cpp:399] relu_a_1_2 -> relu_a_1_2
I0620 16:15:55.274138 17722 net.cpp:141] Setting up relu_a_1_2
I0620 16:15:55.274155 17722 net.cpp:148] Top shape: 128 64 32 32 (8388608)
I0620 16:15:55.274163 17722 net.cpp:156] Memory required for data: 219677184
I0620 16:15:55.274168 17722 layer_factory.hpp:77] Creating layer conv_a_1_2
I0620 16:15:55.274183 17722 net.cpp:91] Creating Layer conv_a_1_2
I0620 16:15:55.274190 17722 net.cpp:425] conv_a_1_2 <- relu_a_1_2
I0620 16:15:55.274200 17722 net.cpp:399] conv_a_1_2 -> conv_a_1_2
I0620 16:15:55.276968 17722 net.cpp:141] Setting up conv_a_1_2
I0620 16:15:55.276988 17722 net.cpp:148] Top shape: 128 64 32 32 (8388608)
I0620 16:15:55.276995 17722 net.cpp:156] Memory required for data: 253231616
I0620 16:15:55.277005 17722 layer_factory.hpp:77] Creating layer res_a
I0620 16:15:55.277019 17722 net.cpp:91] Creating Layer res_a
I0620 16:15:55.277026 17722 net.cpp:425] res_a <- conv0_conv0_0_split_1
I0620 16:15:55.277036 17722 net.cpp:399] res_a -> res_a
I0620 16:15:55.278077 17722 net.cpp:141] Setting up res_a
I0620 16:15:55.278095 17722 net.cpp:148] Top shape: 128 64 32 32 (8388608)
I0620 16:15:55.278102 17722 net.cpp:156] Memory required for data: 286786048
I0620 16:15:55.278117 17722 layer_factory.hpp:77] Creating layer elt_a_1
I0620 16:15:55.278131 17722 net.cpp:91] Creating Layer elt_a_1
I0620 16:15:55.278138 17722 net.cpp:425] elt_a_1 <- res_a
I0620 16:15:55.278146 17722 net.cpp:425] elt_a_1 <- conv_a_1_2
I0620 16:15:55.278154 17722 net.cpp:399] elt_a_1 -> elt_a_1
I0620 16:15:55.278192 17722 net.cpp:141] Setting up elt_a_1
I0620 16:15:55.278203 17722 net.cpp:148] Top shape: 128 64 32 32 (8388608)
I0620 16:15:55.278209 17722 net.cpp:156] Memory required for data: 320340480
I0620 16:15:55.278216 17722 layer_factory.hpp:77] Creating layer elt_a_1_elt_a_1_0_split
I0620 16:15:55.278225 17722 net.cpp:91] Creating Layer elt_a_1_elt_a_1_0_split
I0620 16:15:55.278231 17722 net.cpp:425] elt_a_1_elt_a_1_0_split <- elt_a_1
I0620 16:15:55.278240 17722 net.cpp:399] elt_a_1_elt_a_1_0_split -> elt_a_1_elt_a_1_0_split_0
I0620 16:15:55.278250 17722 net.cpp:399] elt_a_1_elt_a_1_0_split -> elt_a_1_elt_a_1_0_split_1
I0620 16:15:55.278260 17722 net.cpp:399] elt_a_1_elt_a_1_0_split -> elt_a_1_elt_a_1_0_split_2
I0620 16:15:55.278287 17722 net.cpp:399] elt_a_1_elt_a_1_0_split -> elt_a_1_elt_a_1_0_split_3
I0620 16:15:55.278352 17722 net.cpp:141] Setting up elt_a_1_elt_a_1_0_split
I0620 16:15:55.278367 17722 net.cpp:148] Top shape: 128 64 32 32 (8388608)
I0620 16:15:55.278375 17722 net.cpp:148] Top shape: 128 64 32 32 (8388608)
I0620 16:15:55.278383 17722 net.cpp:148] Top shape: 128 64 32 32 (8388608)
I0620 16:15:55.278388 17722 net.cpp:148] Top shape: 128 64 32 32 (8388608)
I0620 16:15:55.278394 17722 net.cpp:156] Memory required for data: 454558208
I0620 16:15:55.278401 17722 layer_factory.hpp:77] Creating layer bn_b_1_1
I0620 16:15:55.278410 17722 net.cpp:91] Creating Layer bn_b_1_1
I0620 16:15:55.278417 17722 net.cpp:425] bn_b_1_1 <- conv0_conv0_0_split_2
I0620 16:15:55.278426 17722 net.cpp:399] bn_b_1_1 -> bn_b_1_1
I0620 16:15:55.278626 17722 net.cpp:141] Setting up bn_b_1_1
I0620 16:15:55.278640 17722 net.cpp:148] Top shape: 128 16 32 32 (2097152)
I0620 16:15:55.278646 17722 net.cpp:156] Memory required for data: 462946816
I0620 16:15:55.278658 17722 layer_factory.hpp:77] Creating layer sc_b_1_1
I0620 16:15:55.278668 17722 net.cpp:91] Creating Layer sc_b_1_1
I0620 16:15:55.278676 17722 net.cpp:425] sc_b_1_1 <- bn_b_1_1
I0620 16:15:55.278692 17722 net.cpp:399] sc_b_1_1 -> sc_b_1_1
I0620 16:15:55.278740 17722 layer_factory.hpp:77] Creating layer sc_b_1_1
I0620 16:15:55.278872 17722 net.cpp:141] Setting up sc_b_1_1
I0620 16:15:55.278884 17722 net.cpp:148] Top shape: 128 16 32 32 (2097152)
I0620 16:15:55.278890 17722 net.cpp:156] Memory required for data: 471335424
I0620 16:15:55.278901 17722 layer_factory.hpp:77] Creating layer relu_b_1_1
I0620 16:15:55.278913 17722 net.cpp:91] Creating Layer relu_b_1_1
I0620 16:15:55.278921 17722 net.cpp:425] relu_b_1_1 <- sc_b_1_1
I0620 16:15:55.278930 17722 net.cpp:399] relu_b_1_1 -> relu_b_1_1
I0620 16:15:55.279130 17722 net.cpp:141] Setting up relu_b_1_1
I0620 16:15:55.279146 17722 net.cpp:148] Top shape: 128 16 32 32 (2097152)
I0620 16:15:55.279153 17722 net.cpp:156] Memory required for data: 479724032
I0620 16:15:55.279160 17722 layer_factory.hpp:77] Creating layer conv_b_1_1
I0620 16:15:55.279173 17722 net.cpp:91] Creating Layer conv_b_1_1
I0620 16:15:55.279181 17722 net.cpp:425] conv_b_1_1 <- relu_b_1_1
I0620 16:15:55.279191 17722 net.cpp:399] conv_b_1_1 -> conv_b_1_1
I0620 16:15:55.280483 17722 net.cpp:141] Setting up conv_b_1_1
I0620 16:15:55.280503 17722 net.cpp:148] Top shape: 128 64 32 32 (8388608)
I0620 16:15:55.280508 17722 net.cpp:156] Memory required for data: 513278464
I0620 16:15:55.280519 17722 layer_factory.hpp:77] Creating layer bn_b_1_2
I0620 16:15:55.280529 17722 net.cpp:91] Creating Layer bn_b_1_2
I0620 16:15:55.280536 17722 net.cpp:425] bn_b_1_2 <- conv_b_1_1
I0620 16:15:55.280546 17722 net.cpp:399] bn_b_1_2 -> bn_b_1_2
I0620 16:15:55.280751 17722 net.cpp:141] Setting up bn_b_1_2
I0620 16:15:55.280766 17722 net.cpp:148] Top shape: 128 64 32 32 (8388608)
I0620 16:15:55.280771 17722 net.cpp:156] Memory required for data: 546832896
I0620 16:15:55.280782 17722 layer_factory.hpp:77] Creating layer sc_b_1_2
I0620 16:15:55.280792 17722 net.cpp:91] Creating Layer sc_b_1_2
I0620 16:15:55.280799 17722 net.cpp:425] sc_b_1_2 <- bn_b_1_2
I0620 16:15:55.280807 17722 net.cpp:399] sc_b_1_2 -> sc_b_1_2
I0620 16:15:55.280853 17722 layer_factory.hpp:77] Creating layer sc_b_1_2
I0620 16:15:55.280972 17722 net.cpp:141] Setting up sc_b_1_2
I0620 16:15:55.280985 17722 net.cpp:148] Top shape: 128 64 32 32 (8388608)
I0620 16:15:55.280992 17722 net.cpp:156] Memory required for data: 580387328
I0620 16:15:55.281002 17722 layer_factory.hpp:77] Creating layer relu_b_1_2
I0620 16:15:55.281010 17722 net.cpp:91] Creating Layer relu_b_1_2
I0620 16:15:55.281018 17722 net.cpp:425] relu_b_1_2 <- sc_b_1_2
I0620 16:15:55.281025 17722 net.cpp:399] relu_b_1_2 -> relu_b_1_2
I0620 16:15:55.281225 17722 net.cpp:141] Setting up relu_b_1_2
I0620 16:15:55.281241 17722 net.cpp:148] Top shape: 128 64 32 32 (8388608)
I0620 16:15:55.281249 17722 net.cpp:156] Memory required for data: 613941760
I0620 16:15:55.281255 17722 layer_factory.hpp:77] Creating layer conv_b_1_2
I0620 16:15:55.281283 17722 net.cpp:91] Creating Layer conv_b_1_2
I0620 16:15:55.281291 17722 net.cpp:425] conv_b_1_2 <- relu_b_1_2
I0620 16:15:55.281301 17722 net.cpp:399] conv_b_1_2 -> conv_b_1_2
I0620 16:15:55.283524 17722 net.cpp:141] Setting up conv_b_1_2
I0620 16:15:55.283542 17722 net.cpp:148] Top shape: 128 64 32 32 (8388608)
I0620 16:15:55.283548 17722 net.cpp:156] Memory required for data: 647496192
I0620 16:15:55.283560 17722 layer_factory.hpp:77] Creating layer res_b
I0620 16:15:55.283573 17722 net.cpp:91] Creating Layer res_b
I0620 16:15:55.283581 17722 net.cpp:425] res_b <- conv0_conv0_0_split_3
I0620 16:15:55.283591 17722 net.cpp:399] res_b -> res_b
I0620 16:15:55.284749 17722 net.cpp:141] Setting up res_b
I0620 16:15:55.284766 17722 net.cpp:148] Top shape: 128 64 32 32 (8388608)
I0620 16:15:55.284772 17722 net.cpp:156] Memory required for data: 681050624
I0620 16:15:55.284788 17722 layer_factory.hpp:77] Creating layer elt_b_1
I0620 16:15:55.284798 17722 net.cpp:91] Creating Layer elt_b_1
I0620 16:15:55.284806 17722 net.cpp:425] elt_b_1 <- res_b
I0620 16:15:55.284813 17722 net.cpp:425] elt_b_1 <- conv_b_1_2
I0620 16:15:55.284821 17722 net.cpp:399] elt_b_1 -> elt_b_1
I0620 16:15:55.284857 17722 net.cpp:141] Setting up elt_b_1
I0620 16:15:55.284869 17722 net.cpp:148] Top shape: 128 64 32 32 (8388608)
I0620 16:15:55.284875 17722 net.cpp:156] Memory required for data: 714605056
I0620 16:15:55.284881 17722 layer_factory.hpp:77] Creating layer elt_b_1_elt_b_1_0_split
I0620 16:15:55.284900 17722 net.cpp:91] Creating Layer elt_b_1_elt_b_1_0_split
I0620 16:15:55.284906 17722 net.cpp:425] elt_b_1_elt_b_1_0_split <- elt_b_1
I0620 16:15:55.284914 17722 net.cpp:399] elt_b_1_elt_b_1_0_split -> elt_b_1_elt_b_1_0_split_0
I0620 16:15:55.284925 17722 net.cpp:399] elt_b_1_elt_b_1_0_split -> elt_b_1_elt_b_1_0_split_1
I0620 16:15:55.284935 17722 net.cpp:399] elt_b_1_elt_b_1_0_split -> elt_b_1_elt_b_1_0_split_2
I0620 16:15:55.284945 17722 net.cpp:399] elt_b_1_elt_b_1_0_split -> elt_b_1_elt_b_1_0_split_3
I0620 16:15:55.285007 17722 net.cpp:141] Setting up elt_b_1_elt_b_1_0_split
I0620 16:15:55.285020 17722 net.cpp:148] Top shape: 128 64 32 32 (8388608)
I0620 16:15:55.285028 17722 net.cpp:148] Top shape: 128 64 32 32 (8388608)
I0620 16:15:55.285035 17722 net.cpp:148] Top shape: 128 64 32 32 (8388608)
I0620 16:15:55.285043 17722 net.cpp:148] Top shape: 128 64 32 32 (8388608)
I0620 16:15:55.285048 17722 net.cpp:156] Memory required for data: 848822784
I0620 16:15:55.285055 17722 layer_factory.hpp:77] Creating layer bn_c_1_1
I0620 16:15:55.285064 17722 net.cpp:91] Creating Layer bn_c_1_1
I0620 16:15:55.285071 17722 net.cpp:425] bn_c_1_1 <- conv0_conv0_0_split_4
I0620 16:15:55.285080 17722 net.cpp:399] bn_c_1_1 -> bn_c_1_1
I0620 16:15:55.285284 17722 net.cpp:141] Setting up bn_c_1_1
I0620 16:15:55.285297 17722 net.cpp:148] Top shape: 128 16 32 32 (2097152)
I0620 16:15:55.285303 17722 net.cpp:156] Memory required for data: 857211392
I0620 16:15:55.285315 17722 layer_factory.hpp:77] Creating layer sc_c_1_1
I0620 16:15:55.285326 17722 net.cpp:91] Creating Layer sc_c_1_1
I0620 16:15:55.285332 17722 net.cpp:425] sc_c_1_1 <- bn_c_1_1
I0620 16:15:55.285341 17722 net.cpp:399] sc_c_1_1 -> sc_c_1_1
I0620 16:15:55.285385 17722 layer_factory.hpp:77] Creating layer sc_c_1_1
I0620 16:15:55.285507 17722 net.cpp:141] Setting up sc_c_1_1
I0620 16:15:55.285521 17722 net.cpp:148] Top shape: 128 16 32 32 (2097152)
I0620 16:15:55.285527 17722 net.cpp:156] Memory required for data: 865600000
I0620 16:15:55.285537 17722 layer_factory.hpp:77] Creating layer relu_c_1_1
I0620 16:15:55.285547 17722 net.cpp:91] Creating Layer relu_c_1_1
I0620 16:15:55.285553 17722 net.cpp:425] relu_c_1_1 <- sc_c_1_1
I0620 16:15:55.285562 17722 net.cpp:399] relu_c_1_1 -> relu_c_1_1
I0620 16:15:55.285893 17722 net.cpp:141] Setting up relu_c_1_1
I0620 16:15:55.285910 17722 net.cpp:148] Top shape: 128 16 32 32 (2097152)
I0620 16:15:55.285917 17722 net.cpp:156] Memory required for data: 873988608
I0620 16:15:55.285923 17722 layer_factory.hpp:77] Creating layer conv_c_1_1
I0620 16:15:55.285955 17722 net.cpp:91] Creating Layer conv_c_1_1
I0620 16:15:55.285964 17722 net.cpp:425] conv_c_1_1 <- relu_c_1_1
I0620 16:15:55.285974 17722 net.cpp:399] conv_c_1_1 -> conv_c_1_1
I0620 16:15:55.287173 17722 net.cpp:141] Setting up conv_c_1_1
I0620 16:15:55.287191 17722 net.cpp:148] Top shape: 128 64 32 32 (8388608)
I0620 16:15:55.287199 17722 net.cpp:156] Memory required for data: 907543040
I0620 16:15:55.287209 17722 layer_factory.hpp:77] Creating layer bn_c_1_2
I0620 16:15:55.287220 17722 net.cpp:91] Creating Layer bn_c_1_2
I0620 16:15:55.287226 17722 net.cpp:425] bn_c_1_2 <- conv_c_1_1
I0620 16:15:55.287236 17722 net.cpp:399] bn_c_1_2 -> bn_c_1_2
I0620 16:15:55.287447 17722 net.cpp:141] Setting up bn_c_1_2
I0620 16:15:55.287461 17722 net.cpp:148] Top shape: 128 64 32 32 (8388608)
I0620 16:15:55.287467 17722 net.cpp:156] Memory required for data: 941097472
I0620 16:15:55.287479 17722 layer_factory.hpp:77] Creating layer sc_c_1_2
I0620 16:15:55.287489 17722 net.cpp:91] Creating Layer sc_c_1_2
I0620 16:15:55.287497 17722 net.cpp:425] sc_c_1_2 <- bn_c_1_2
I0620 16:15:55.287504 17722 net.cpp:399] sc_c_1_2 -> sc_c_1_2
I0620 16:15:55.287550 17722 layer_factory.hpp:77] Creating layer sc_c_1_2
I0620 16:15:55.287672 17722 net.cpp:141] Setting up sc_c_1_2
I0620 16:15:55.287686 17722 net.cpp:148] Top shape: 128 64 32 32 (8388608)
I0620 16:15:55.287693 17722 net.cpp:156] Memory required for data: 974651904
I0620 16:15:55.287703 17722 layer_factory.hpp:77] Creating layer relu_c_1_2
I0620 16:15:55.287713 17722 net.cpp:91] Creating Layer relu_c_1_2
I0620 16:15:55.287719 17722 net.cpp:425] relu_c_1_2 <- sc_c_1_2
I0620 16:15:55.287727 17722 net.cpp:399] relu_c_1_2 -> relu_c_1_2
I0620 16:15:55.288050 17722 net.cpp:141] Setting up relu_c_1_2
I0620 16:15:55.288067 17722 net.cpp:148] Top shape: 128 64 32 32 (8388608)
I0620 16:15:55.288074 17722 net.cpp:156] Memory required for data: 1008206336
I0620 16:15:55.288079 17722 layer_factory.hpp:77] Creating layer conv_c_1_2
I0620 16:15:55.288095 17722 net.cpp:91] Creating Layer conv_c_1_2
I0620 16:15:55.288103 17722 net.cpp:425] conv_c_1_2 <- relu_c_1_2
I0620 16:15:55.288113 17722 net.cpp:399] conv_c_1_2 -> conv_c_1_2
I0620 16:15:55.290302 17722 net.cpp:141] Setting up conv_c_1_2
I0620 16:15:55.290320 17722 net.cpp:148] Top shape: 128 64 32 32 (8388608)
I0620 16:15:55.290328 17722 net.cpp:156] Memory required for data: 1041760768
I0620 16:15:55.290338 17722 layer_factory.hpp:77] Creating layer res_c
I0620 16:15:55.290351 17722 net.cpp:91] Creating Layer res_c
I0620 16:15:55.290359 17722 net.cpp:425] res_c <- conv0_conv0_0_split_5
I0620 16:15:55.290369 17722 net.cpp:399] res_c -> res_c
I0620 16:15:55.291436 17722 net.cpp:141] Setting up res_c
I0620 16:15:55.291455 17722 net.cpp:148] Top shape: 128 64 32 32 (8388608)
I0620 16:15:55.291461 17722 net.cpp:156] Memory required for data: 1075315200
I0620 16:15:55.291471 17722 layer_factory.hpp:77] Creating layer elt_c_1
I0620 16:15:55.291481 17722 net.cpp:91] Creating Layer elt_c_1
I0620 16:15:55.291488 17722 net.cpp:425] elt_c_1 <- res_c
I0620 16:15:55.291496 17722 net.cpp:425] elt_c_1 <- conv_c_1_2
I0620 16:15:55.291504 17722 net.cpp:399] elt_c_1 -> elt_c_1
I0620 16:15:55.291539 17722 net.cpp:141] Setting up elt_c_1
I0620 16:15:55.291550 17722 net.cpp:148] Top shape: 128 64 32 32 (8388608)
I0620 16:15:55.291556 17722 net.cpp:156] Memory required for data: 1108869632
I0620 16:15:55.291563 17722 layer_factory.hpp:77] Creating layer elt_c_1_elt_c_1_0_split
I0620 16:15:55.291571 17722 net.cpp:91] Creating Layer elt_c_1_elt_c_1_0_split
I0620 16:15:55.291577 17722 net.cpp:425] elt_c_1_elt_c_1_0_split <- elt_c_1
I0620 16:15:55.291586 17722 net.cpp:399] elt_c_1_elt_c_1_0_split -> elt_c_1_elt_c_1_0_split_0
I0620 16:15:55.291600 17722 net.cpp:399] elt_c_1_elt_c_1_0_split -> elt_c_1_elt_c_1_0_split_1
I0620 16:15:55.291610 17722 net.cpp:399] elt_c_1_elt_c_1_0_split -> elt_c_1_elt_c_1_0_split_2
I0620 16:15:55.291620 17722 net.cpp:399] elt_c_1_elt_c_1_0_split -> elt_c_1_elt_c_1_0_split_3
I0620 16:15:55.291687 17722 net.cpp:141] Setting up elt_c_1_elt_c_1_0_split
I0620 16:15:55.291715 17722 net.cpp:148] Top shape: 128 64 32 32 (8388608)
I0620 16:15:55.291724 17722 net.cpp:148] Top shape: 128 64 32 32 (8388608)
I0620 16:15:55.291731 17722 net.cpp:148] Top shape: 128 64 32 32 (8388608)
I0620 16:15:55.291738 17722 net.cpp:148] Top shape: 128 64 32 32 (8388608)
I0620 16:15:55.291743 17722 net.cpp:156] Memory required for data: 1243087360
I0620 16:15:55.291749 17722 layer_factory.hpp:77] Creating layer bn_d_1_1
I0620 16:15:55.291759 17722 net.cpp:91] Creating Layer bn_d_1_1
I0620 16:15:55.291766 17722 net.cpp:425] bn_d_1_1 <- elt_a_1_elt_a_1_0_split_0
I0620 16:15:55.291775 17722 net.cpp:399] bn_d_1_1 -> bn_d_1_1
I0620 16:15:55.291996 17722 net.cpp:141] Setting up bn_d_1_1
I0620 16:15:55.292011 17722 net.cpp:148] Top shape: 128 64 32 32 (8388608)
I0620 16:15:55.292016 17722 net.cpp:156] Memory required for data: 1276641792
I0620 16:15:55.292027 17722 layer_factory.hpp:77] Creating layer sc_d_1_1
I0620 16:15:55.292038 17722 net.cpp:91] Creating Layer sc_d_1_1
I0620 16:15:55.292044 17722 net.cpp:425] sc_d_1_1 <- bn_d_1_1
I0620 16:15:55.292053 17722 net.cpp:399] sc_d_1_1 -> sc_d_1_1
I0620 16:15:55.292100 17722 layer_factory.hpp:77] Creating layer sc_d_1_1
I0620 16:15:55.292232 17722 net.cpp:141] Setting up sc_d_1_1
I0620 16:15:55.292246 17722 net.cpp:148] Top shape: 128 64 32 32 (8388608)
I0620 16:15:55.292253 17722 net.cpp:156] Memory required for data: 1310196224
I0620 16:15:55.292263 17722 layer_factory.hpp:77] Creating layer relu_d_1_1
I0620 16:15:55.292271 17722 net.cpp:91] Creating Layer relu_d_1_1
I0620 16:15:55.292278 17722 net.cpp:425] relu_d_1_1 <- sc_d_1_1
I0620 16:15:55.292289 17722 net.cpp:399] relu_d_1_1 -> relu_d_1_1
I0620 16:15:55.292522 17722 net.cpp:141] Setting up relu_d_1_1
I0620 16:15:55.292537 17722 net.cpp:148] Top shape: 128 64 32 32 (8388608)
I0620 16:15:55.292543 17722 net.cpp:156] Memory required for data: 1343750656
I0620 16:15:55.292551 17722 layer_factory.hpp:77] Creating layer conv_d_1_1
I0620 16:15:55.292567 17722 net.cpp:91] Creating Layer conv_d_1_1
I0620 16:15:55.292575 17722 net.cpp:425] conv_d_1_1 <- relu_d_1_1
I0620 16:15:55.292585 17722 net.cpp:399] conv_d_1_1 -> conv_d_1_1
I0620 16:15:55.296658 17722 net.cpp:141] Setting up conv_d_1_1
I0620 16:15:55.296676 17722 net.cpp:148] Top shape: 128 128 16 16 (4194304)
I0620 16:15:55.296682 17722 net.cpp:156] Memory required for data: 1360527872
I0620 16:15:55.296694 17722 layer_factory.hpp:77] Creating layer bn_d_1_2
I0620 16:15:55.296706 17722 net.cpp:91] Creating Layer bn_d_1_2
I0620 16:15:55.296713 17722 net.cpp:425] bn_d_1_2 <- conv_d_1_1
I0620 16:15:55.296723 17722 net.cpp:399] bn_d_1_2 -> bn_d_1_2
I0620 16:15:55.296950 17722 net.cpp:141] Setting up bn_d_1_2
I0620 16:15:55.296964 17722 net.cpp:148] Top shape: 128 128 16 16 (4194304)
I0620 16:15:55.296970 17722 net.cpp:156] Memory required for data: 1377305088
I0620 16:15:55.296983 17722 layer_factory.hpp:77] Creating layer sc_d_1_2
I0620 16:15:55.296994 17722 net.cpp:91] Creating Layer sc_d_1_2
I0620 16:15:55.297001 17722 net.cpp:425] sc_d_1_2 <- bn_d_1_2
I0620 16:15:55.297010 17722 net.cpp:399] sc_d_1_2 -> sc_d_1_2
I0620 16:15:55.297055 17722 layer_factory.hpp:77] Creating layer sc_d_1_2
I0620 16:15:55.297183 17722 net.cpp:141] Setting up sc_d_1_2
I0620 16:15:55.297199 17722 net.cpp:148] Top shape: 128 128 16 16 (4194304)
I0620 16:15:55.297205 17722 net.cpp:156] Memory required for data: 1394082304
I0620 16:15:55.297215 17722 layer_factory.hpp:77] Creating layer relu_d_1_2
I0620 16:15:55.297224 17722 net.cpp:91] Creating Layer relu_d_1_2
I0620 16:15:55.297231 17722 net.cpp:425] relu_d_1_2 <- sc_d_1_2
I0620 16:15:55.297240 17722 net.cpp:399] relu_d_1_2 -> relu_d_1_2
I0620 16:15:55.297456 17722 net.cpp:141] Setting up relu_d_1_2
I0620 16:15:55.297472 17722 net.cpp:148] Top shape: 128 128 16 16 (4194304)
I0620 16:15:55.297477 17722 net.cpp:156] Memory required for data: 1410859520
I0620 16:15:55.297484 17722 layer_factory.hpp:77] Creating layer conv_d_1_2
I0620 16:15:55.297500 17722 net.cpp:91] Creating Layer conv_d_1_2
I0620 16:15:55.297526 17722 net.cpp:425] conv_d_1_2 <- relu_d_1_2
I0620 16:15:55.297541 17722 net.cpp:399] conv_d_1_2 -> conv_d_1_2
I0620 16:15:55.303500 17722 net.cpp:141] Setting up conv_d_1_2
I0620 16:15:55.303519 17722 net.cpp:148] Top shape: 128 128 16 16 (4194304)
I0620 16:15:55.303526 17722 net.cpp:156] Memory required for data: 1427636736
I0620 16:15:55.303539 17722 layer_factory.hpp:77] Creating layer res_d
I0620 16:15:55.303555 17722 net.cpp:91] Creating Layer res_d
I0620 16:15:55.303563 17722 net.cpp:425] res_d <- elt_a_1_elt_a_1_0_split_1
I0620 16:15:55.303573 17722 net.cpp:399] res_d -> res_d
I0620 16:15:55.304994 17722 net.cpp:141] Setting up res_d
I0620 16:15:55.305013 17722 net.cpp:148] Top shape: 128 128 16 16 (4194304)
I0620 16:15:55.305019 17722 net.cpp:156] Memory required for data: 1444413952
I0620 16:15:55.305042 17722 layer_factory.hpp:77] Creating layer elt_d_1
I0620 16:15:55.305054 17722 net.cpp:91] Creating Layer elt_d_1
I0620 16:15:55.305068 17722 net.cpp:425] elt_d_1 <- res_d
I0620 16:15:55.305075 17722 net.cpp:425] elt_d_1 <- conv_d_1_2
I0620 16:15:55.305083 17722 net.cpp:399] elt_d_1 -> elt_d_1
I0620 16:15:55.305114 17722 net.cpp:141] Setting up elt_d_1
I0620 16:15:55.305125 17722 net.cpp:148] Top shape: 128 128 16 16 (4194304)
I0620 16:15:55.305131 17722 net.cpp:156] Memory required for data: 1461191168
I0620 16:15:55.305145 17722 layer_factory.hpp:77] Creating layer bn_f_1_1
I0620 16:15:55.305158 17722 net.cpp:91] Creating Layer bn_f_1_1
I0620 16:15:55.305166 17722 net.cpp:425] bn_f_1_1 <- elt_b_1_elt_b_1_0_split_0
I0620 16:15:55.305186 17722 net.cpp:399] bn_f_1_1 -> bn_f_1_1
I0620 16:15:55.305431 17722 net.cpp:141] Setting up bn_f_1_1
I0620 16:15:55.305455 17722 net.cpp:148] Top shape: 128 64 32 32 (8388608)
I0620 16:15:55.305461 17722 net.cpp:156] Memory required for data: 1494745600
I0620 16:15:55.305472 17722 layer_factory.hpp:77] Creating layer sc_f_1_1
I0620 16:15:55.305483 17722 net.cpp:91] Creating Layer sc_f_1_1
I0620 16:15:55.305490 17722 net.cpp:425] sc_f_1_1 <- bn_f_1_1
I0620 16:15:55.305503 17722 net.cpp:399] sc_f_1_1 -> sc_f_1_1
I0620 16:15:55.305562 17722 layer_factory.hpp:77] Creating layer sc_f_1_1
I0620 16:15:55.305703 17722 net.cpp:141] Setting up sc_f_1_1
I0620 16:15:55.305717 17722 net.cpp:148] Top shape: 128 64 32 32 (8388608)
I0620 16:15:55.305723 17722 net.cpp:156] Memory required for data: 1528300032
I0620 16:15:55.305733 17722 layer_factory.hpp:77] Creating layer relu_f_1_1
I0620 16:15:55.305742 17722 net.cpp:91] Creating Layer relu_f_1_1
I0620 16:15:55.305749 17722 net.cpp:425] relu_f_1_1 <- sc_f_1_1
I0620 16:15:55.305760 17722 net.cpp:399] relu_f_1_1 -> relu_f_1_1
I0620 16:15:55.306102 17722 net.cpp:141] Setting up relu_f_1_1
I0620 16:15:55.306118 17722 net.cpp:148] Top shape: 128 64 32 32 (8388608)
I0620 16:15:55.306124 17722 net.cpp:156] Memory required for data: 1561854464
I0620 16:15:55.306131 17722 layer_factory.hpp:77] Creating layer conv_f_1_1
I0620 16:15:55.306146 17722 net.cpp:91] Creating Layer conv_f_1_1
I0620 16:15:55.306154 17722 net.cpp:425] conv_f_1_1 <- relu_f_1_1
I0620 16:15:55.306166 17722 net.cpp:399] conv_f_1_1 -> conv_f_1_1
I0620 16:15:55.310139 17722 net.cpp:141] Setting up conv_f_1_1
I0620 16:15:55.310159 17722 net.cpp:148] Top shape: 128 128 16 16 (4194304)
I0620 16:15:55.310165 17722 net.cpp:156] Memory required for data: 1578631680
I0620 16:15:55.310175 17722 layer_factory.hpp:77] Creating layer bn_f_1_2
I0620 16:15:55.310189 17722 net.cpp:91] Creating Layer bn_f_1_2
I0620 16:15:55.310195 17722 net.cpp:425] bn_f_1_2 <- conv_f_1_1
I0620 16:15:55.310204 17722 net.cpp:399] bn_f_1_2 -> bn_f_1_2
I0620 16:15:55.310442 17722 net.cpp:141] Setting up bn_f_1_2
I0620 16:15:55.310456 17722 net.cpp:148] Top shape: 128 128 16 16 (4194304)
I0620 16:15:55.310462 17722 net.cpp:156] Memory required for data: 1595408896
I0620 16:15:55.310474 17722 layer_factory.hpp:77] Creating layer sc_f_1_2
I0620 16:15:55.310484 17722 net.cpp:91] Creating Layer sc_f_1_2
I0620 16:15:55.310490 17722 net.cpp:425] sc_f_1_2 <- bn_f_1_2
I0620 16:15:55.310499 17722 net.cpp:399] sc_f_1_2 -> sc_f_1_2
I0620 16:15:55.310572 17722 layer_factory.hpp:77] Creating layer sc_f_1_2
I0620 16:15:55.310724 17722 net.cpp:141] Setting up sc_f_1_2
I0620 16:15:55.310739 17722 net.cpp:148] Top shape: 128 128 16 16 (4194304)
I0620 16:15:55.310745 17722 net.cpp:156] Memory required for data: 1612186112
I0620 16:15:55.310760 17722 layer_factory.hpp:77] Creating layer relu_f_1_2
I0620 16:15:55.310772 17722 net.cpp:91] Creating Layer relu_f_1_2
I0620 16:15:55.310781 17722 net.cpp:425] relu_f_1_2 <- sc_f_1_2
I0620 16:15:55.310789 17722 net.cpp:399] relu_f_1_2 -> relu_f_1_2
I0620 16:15:55.311255 17722 net.cpp:141] Setting up relu_f_1_2
I0620 16:15:55.311272 17722 net.cpp:148] Top shape: 128 128 16 16 (4194304)
I0620 16:15:55.311280 17722 net.cpp:156] Memory required for data: 1628963328
I0620 16:15:55.311285 17722 layer_factory.hpp:77] Creating layer conv_f_1_2
I0620 16:15:55.311303 17722 net.cpp:91] Creating Layer conv_f_1_2
I0620 16:15:55.311311 17722 net.cpp:425] conv_f_1_2 <- relu_f_1_2
I0620 16:15:55.311321 17722 net.cpp:399] conv_f_1_2 -> conv_f_1_2
I0620 16:15:55.317198 17722 net.cpp:141] Setting up conv_f_1_2
I0620 16:15:55.317217 17722 net.cpp:148] Top shape: 128 128 16 16 (4194304)
I0620 16:15:55.317224 17722 net.cpp:156] Memory required for data: 1645740544
I0620 16:15:55.317234 17722 layer_factory.hpp:77] Creating layer res_f
I0620 16:15:55.317250 17722 net.cpp:91] Creating Layer res_f
I0620 16:15:55.317258 17722 net.cpp:425] res_f <- elt_b_1_elt_b_1_0_split_1
I0620 16:15:55.317271 17722 net.cpp:399] res_f -> res_f
I0620 16:15:55.318598 17722 net.cpp:141] Setting up res_f
I0620 16:15:55.318616 17722 net.cpp:148] Top shape: 128 128 16 16 (4194304)
I0620 16:15:55.318624 17722 net.cpp:156] Memory required for data: 1662517760
I0620 16:15:55.318634 17722 layer_factory.hpp:77] Creating layer elt_f_1
I0620 16:15:55.318644 17722 net.cpp:91] Creating Layer elt_f_1
I0620 16:15:55.318650 17722 net.cpp:425] elt_f_1 <- res_f
I0620 16:15:55.318657 17722 net.cpp:425] elt_f_1 <- conv_f_1_2
I0620 16:15:55.318670 17722 net.cpp:399] elt_f_1 -> elt_f_1
I0620 16:15:55.318709 17722 net.cpp:141] Setting up elt_f_1
I0620 16:15:55.318722 17722 net.cpp:148] Top shape: 128 128 16 16 (4194304)
I0620 16:15:55.318727 17722 net.cpp:156] Memory required for data: 1679294976
I0620 16:15:55.318733 17722 layer_factory.hpp:77] Creating layer bn_g_1_1
I0620 16:15:55.318747 17722 net.cpp:91] Creating Layer bn_g_1_1
I0620 16:15:55.318753 17722 net.cpp:425] bn_g_1_1 <- elt_b_1_elt_b_1_0_split_2
I0620 16:15:55.318771 17722 net.cpp:399] bn_g_1_1 -> bn_g_1_1
I0620 16:15:55.319011 17722 net.cpp:141] Setting up bn_g_1_1
I0620 16:15:55.319025 17722 net.cpp:148] Top shape: 128 64 32 32 (8388608)
I0620 16:15:55.319031 17722 net.cpp:156] Memory required for data: 1712849408
I0620 16:15:55.319042 17722 layer_factory.hpp:77] Creating layer sc_g_1_1
I0620 16:15:55.319052 17722 net.cpp:91] Creating Layer sc_g_1_1
I0620 16:15:55.319059 17722 net.cpp:425] sc_g_1_1 <- bn_g_1_1
I0620 16:15:55.319067 17722 net.cpp:399] sc_g_1_1 -> sc_g_1_1
I0620 16:15:55.319123 17722 layer_factory.hpp:77] Creating layer sc_g_1_1
I0620 16:15:55.319267 17722 net.cpp:141] Setting up sc_g_1_1
I0620 16:15:55.319281 17722 net.cpp:148] Top shape: 128 64 32 32 (8388608)
I0620 16:15:55.319288 17722 net.cpp:156] Memory required for data: 1746403840
I0620 16:15:55.319298 17722 layer_factory.hpp:77] Creating layer relu_g_1_1
I0620 16:15:55.319305 17722 net.cpp:91] Creating Layer relu_g_1_1
I0620 16:15:55.319313 17722 net.cpp:425] relu_g_1_1 <- sc_g_1_1
I0620 16:15:55.319324 17722 net.cpp:399] relu_g_1_1 -> relu_g_1_1
I0620 16:15:55.319666 17722 net.cpp:141] Setting up relu_g_1_1
I0620 16:15:55.319684 17722 net.cpp:148] Top shape: 128 64 32 32 (8388608)
I0620 16:15:55.319689 17722 net.cpp:156] Memory required for data: 1779958272
I0620 16:15:55.319695 17722 layer_factory.hpp:77] Creating layer conv_g_1_1
I0620 16:15:55.319711 17722 net.cpp:91] Creating Layer conv_g_1_1
I0620 16:15:55.319720 17722 net.cpp:425] conv_g_1_1 <- relu_g_1_1
I0620 16:15:55.319732 17722 net.cpp:399] conv_g_1_1 -> conv_g_1_1
I0620 16:15:55.323846 17722 net.cpp:141] Setting up conv_g_1_1
I0620 16:15:55.323864 17722 net.cpp:148] Top shape: 128 128 16 16 (4194304)
I0620 16:15:55.323871 17722 net.cpp:156] Memory required for data: 1796735488
I0620 16:15:55.323881 17722 layer_factory.hpp:77] Creating layer bn_g_1_2
I0620 16:15:55.323894 17722 net.cpp:91] Creating Layer bn_g_1_2
I0620 16:15:55.323902 17722 net.cpp:425] bn_g_1_2 <- conv_g_1_1
I0620 16:15:55.323912 17722 net.cpp:399] bn_g_1_2 -> bn_g_1_2
I0620 16:15:55.324143 17722 net.cpp:141] Setting up bn_g_1_2
I0620 16:15:55.324157 17722 net.cpp:148] Top shape: 128 128 16 16 (4194304)
I0620 16:15:55.324163 17722 net.cpp:156] Memory required for data: 1813512704
I0620 16:15:55.324175 17722 layer_factory.hpp:77] Creating layer sc_g_1_2
I0620 16:15:55.324185 17722 net.cpp:91] Creating Layer sc_g_1_2
I0620 16:15:55.324193 17722 net.cpp:425] sc_g_1_2 <- bn_g_1_2
I0620 16:15:55.324203 17722 net.cpp:399] sc_g_1_2 -> sc_g_1_2
I0620 16:15:55.324254 17722 layer_factory.hpp:77] Creating layer sc_g_1_2
I0620 16:15:55.324388 17722 net.cpp:141] Setting up sc_g_1_2
I0620 16:15:55.324400 17722 net.cpp:148] Top shape: 128 128 16 16 (4194304)
I0620 16:15:55.324406 17722 net.cpp:156] Memory required for data: 1830289920
I0620 16:15:55.324416 17722 layer_factory.hpp:77] Creating layer relu_g_1_2
I0620 16:15:55.324429 17722 net.cpp:91] Creating Layer relu_g_1_2
I0620 16:15:55.324435 17722 net.cpp:425] relu_g_1_2 <- sc_g_1_2
I0620 16:15:55.324443 17722 net.cpp:399] relu_g_1_2 -> relu_g_1_2
I0620 16:15:55.324668 17722 net.cpp:141] Setting up relu_g_1_2
I0620 16:15:55.324687 17722 net.cpp:148] Top shape: 128 128 16 16 (4194304)
I0620 16:15:55.324694 17722 net.cpp:156] Memory required for data: 1847067136
I0620 16:15:55.324700 17722 layer_factory.hpp:77] Creating layer conv_g_1_2
I0620 16:15:55.324715 17722 net.cpp:91] Creating Layer conv_g_1_2
I0620 16:15:55.324723 17722 net.cpp:425] conv_g_1_2 <- relu_g_1_2
I0620 16:15:55.324733 17722 net.cpp:399] conv_g_1_2 -> conv_g_1_2
I0620 16:15:55.330602 17722 net.cpp:141] Setting up conv_g_1_2
I0620 16:15:55.330624 17722 net.cpp:148] Top shape: 128 128 16 16 (4194304)
I0620 16:15:55.330631 17722 net.cpp:156] Memory required for data: 1863844352
I0620 16:15:55.330641 17722 layer_factory.hpp:77] Creating layer res_g
I0620 16:15:55.330664 17722 net.cpp:91] Creating Layer res_g
I0620 16:15:55.330672 17722 net.cpp:425] res_g <- elt_b_1_elt_b_1_0_split_3
I0620 16:15:55.330690 17722 net.cpp:399] res_g -> res_g
I0620 16:15:55.332126 17722 net.cpp:141] Setting up res_g
I0620 16:15:55.332144 17722 net.cpp:148] Top shape: 128 128 16 16 (4194304)
I0620 16:15:55.332151 17722 net.cpp:156] Memory required for data: 1880621568
I0620 16:15:55.332161 17722 layer_factory.hpp:77] Creating layer elt_g_1
I0620 16:15:55.332175 17722 net.cpp:91] Creating Layer elt_g_1
I0620 16:15:55.332181 17722 net.cpp:425] elt_g_1 <- res_g
I0620 16:15:55.332190 17722 net.cpp:425] elt_g_1 <- conv_g_1_2
I0620 16:15:55.332211 17722 net.cpp:399] elt_g_1 -> elt_g_1
I0620 16:15:55.332243 17722 net.cpp:141] Setting up elt_g_1
I0620 16:15:55.332254 17722 net.cpp:148] Top shape: 128 128 16 16 (4194304)
I0620 16:15:55.332260 17722 net.cpp:156] Memory required for data: 1897398784
I0620 16:15:55.332267 17722 layer_factory.hpp:77] Creating layer bn_h_1_1
I0620 16:15:55.332278 17722 net.cpp:91] Creating Layer bn_h_1_1
I0620 16:15:55.332285 17722 net.cpp:425] bn_h_1_1 <- elt_c_1_elt_c_1_0_split_0
I0620 16:15:55.332294 17722 net.cpp:399] bn_h_1_1 -> bn_h_1_1
I0620 16:15:55.332545 17722 net.cpp:141] Setting up bn_h_1_1
I0620 16:15:55.332559 17722 net.cpp:148] Top shape: 128 64 32 32 (8388608)
I0620 16:15:55.332564 17722 net.cpp:156] Memory required for data: 1930953216
I0620 16:15:55.332576 17722 layer_factory.hpp:77] Creating layer sc_h_1_1
I0620 16:15:55.332587 17722 net.cpp:91] Creating Layer sc_h_1_1
I0620 16:15:55.332593 17722 net.cpp:425] sc_h_1_1 <- bn_h_1_1
I0620 16:15:55.332602 17722 net.cpp:399] sc_h_1_1 -> sc_h_1_1
I0620 16:15:55.332656 17722 layer_factory.hpp:77] Creating layer sc_h_1_1
I0620 16:15:55.332828 17722 net.cpp:141] Setting up sc_h_1_1
I0620 16:15:55.332841 17722 net.cpp:148] Top shape: 128 64 32 32 (8388608)
I0620 16:15:55.332847 17722 net.cpp:156] Memory required for data: 1964507648
I0620 16:15:55.332857 17722 layer_factory.hpp:77] Creating layer relu_h_1_1
I0620 16:15:55.332868 17722 net.cpp:91] Creating Layer relu_h_1_1
I0620 16:15:55.332875 17722 net.cpp:425] relu_h_1_1 <- sc_h_1_1
I0620 16:15:55.332885 17722 net.cpp:399] relu_h_1_1 -> relu_h_1_1
I0620 16:15:55.333108 17722 net.cpp:141] Setting up relu_h_1_1
I0620 16:15:55.333124 17722 net.cpp:148] Top shape: 128 64 32 32 (8388608)
I0620 16:15:55.333130 17722 net.cpp:156] Memory required for data: 1998062080
I0620 16:15:55.333137 17722 layer_factory.hpp:77] Creating layer conv_h_1_1
I0620 16:15:55.333153 17722 net.cpp:91] Creating Layer conv_h_1_1
I0620 16:15:55.333165 17722 net.cpp:425] conv_h_1_1 <- relu_h_1_1
I0620 16:15:55.333179 17722 net.cpp:399] conv_h_1_1 -> conv_h_1_1
I0620 16:15:55.337287 17722 net.cpp:141] Setting up conv_h_1_1
I0620 16:15:55.337306 17722 net.cpp:148] Top shape: 128 128 16 16 (4194304)
I0620 16:15:55.337312 17722 net.cpp:156] Memory required for data: 2014839296
I0620 16:15:55.337322 17722 layer_factory.hpp:77] Creating layer bn_h_1_2
I0620 16:15:55.337339 17722 net.cpp:91] Creating Layer bn_h_1_2
I0620 16:15:55.337347 17722 net.cpp:425] bn_h_1_2 <- conv_h_1_1
I0620 16:15:55.337357 17722 net.cpp:399] bn_h_1_2 -> bn_h_1_2
I0620 16:15:55.337599 17722 net.cpp:141] Setting up bn_h_1_2
I0620 16:15:55.337613 17722 net.cpp:148] Top shape: 128 128 16 16 (4194304)
I0620 16:15:55.337620 17722 net.cpp:156] Memory required for data: 2031616512
I0620 16:15:55.337630 17722 layer_factory.hpp:77] Creating layer sc_h_1_2
I0620 16:15:55.337643 17722 net.cpp:91] Creating Layer sc_h_1_2
I0620 16:15:55.337657 17722 net.cpp:425] sc_h_1_2 <- bn_h_1_2
I0620 16:15:55.337666 17722 net.cpp:399] sc_h_1_2 -> sc_h_1_2
I0620 16:15:55.337715 17722 layer_factory.hpp:77] Creating layer sc_h_1_2
I0620 16:15:55.337854 17722 net.cpp:141] Setting up sc_h_1_2
I0620 16:15:55.337870 17722 net.cpp:148] Top shape: 128 128 16 16 (4194304)
I0620 16:15:55.337877 17722 net.cpp:156] Memory required for data: 2048393728
I0620 16:15:55.337888 17722 layer_factory.hpp:77] Creating layer relu_h_1_2
I0620 16:15:55.337896 17722 net.cpp:91] Creating Layer relu_h_1_2
I0620 16:15:55.337903 17722 net.cpp:425] relu_h_1_2 <- sc_h_1_2
I0620 16:15:55.337911 17722 net.cpp:399] relu_h_1_2 -> relu_h_1_2
I0620 16:15:55.338268 17722 net.cpp:141] Setting up relu_h_1_2
I0620 16:15:55.338285 17722 net.cpp:148] Top shape: 128 128 16 16 (4194304)
I0620 16:15:55.338291 17722 net.cpp:156] Memory required for data: 2065170944
I0620 16:15:55.338297 17722 layer_factory.hpp:77] Creating layer conv_h_1_2
I0620 16:15:55.338315 17722 net.cpp:91] Creating Layer conv_h_1_2
I0620 16:15:55.338323 17722 net.cpp:425] conv_h_1_2 <- relu_h_1_2
I0620 16:15:55.338333 17722 net.cpp:399] conv_h_1_2 -> conv_h_1_2
I0620 16:15:55.344243 17722 net.cpp:141] Setting up conv_h_1_2
I0620 16:15:55.344261 17722 net.cpp:148] Top shape: 128 128 16 16 (4194304)
I0620 16:15:55.344267 17722 net.cpp:156] Memory required for data: 2081948160
I0620 16:15:55.344279 17722 layer_factory.hpp:77] Creating layer res_h
I0620 16:15:55.344295 17722 net.cpp:91] Creating Layer res_h
I0620 16:15:55.344302 17722 net.cpp:425] res_h <- elt_c_1_elt_c_1_0_split_1
I0620 16:15:55.344315 17722 net.cpp:399] res_h -> res_h
I0620 16:15:55.345643 17722 net.cpp:141] Setting up res_h
I0620 16:15:55.345660 17722 net.cpp:148] Top shape: 128 128 16 16 (4194304)
I0620 16:15:55.345666 17722 net.cpp:156] Memory required for data: 2098725376
I0620 16:15:55.345676 17722 layer_factory.hpp:77] Creating layer elt_h_1
I0620 16:15:55.345690 17722 net.cpp:91] Creating Layer elt_h_1
I0620 16:15:55.345697 17722 net.cpp:425] elt_h_1 <- res_h
I0620 16:15:55.345705 17722 net.cpp:425] elt_h_1 <- conv_h_1_2
I0620 16:15:55.345716 17722 net.cpp:399] elt_h_1 -> elt_h_1
I0620 16:15:55.345760 17722 net.cpp:141] Setting up elt_h_1
I0620 16:15:55.345772 17722 net.cpp:148] Top shape: 128 128 16 16 (4194304)
I0620 16:15:55.345795 17722 net.cpp:156] Memory required for data: 2115502592
I0620 16:15:55.345803 17722 layer_factory.hpp:77] Creating layer bn_i_1_1
I0620 16:15:55.345815 17722 net.cpp:91] Creating Layer bn_i_1_1
I0620 16:15:55.345823 17722 net.cpp:425] bn_i_1_1 <- elt_c_1_elt_c_1_0_split_2
I0620 16:15:55.345832 17722 net.cpp:399] bn_i_1_1 -> bn_i_1_1
I0620 16:15:55.346104 17722 net.cpp:141] Setting up bn_i_1_1
I0620 16:15:55.346119 17722 net.cpp:148] Top shape: 128 64 32 32 (8388608)
I0620 16:15:55.346125 17722 net.cpp:156] Memory required for data: 2149057024
I0620 16:15:55.346138 17722 layer_factory.hpp:77] Creating layer sc_i_1_1
I0620 16:15:55.346148 17722 net.cpp:91] Creating Layer sc_i_1_1
I0620 16:15:55.346154 17722 net.cpp:425] sc_i_1_1 <- bn_i_1_1
I0620 16:15:55.346163 17722 net.cpp:399] sc_i_1_1 -> sc_i_1_1
I0620 16:15:55.346218 17722 layer_factory.hpp:77] Creating layer sc_i_1_1
I0620 16:15:55.346372 17722 net.cpp:141] Setting up sc_i_1_1
I0620 16:15:55.346386 17722 net.cpp:148] Top shape: 128 64 32 32 (8388608)
I0620 16:15:55.346392 17722 net.cpp:156] Memory required for data: 2182611456
I0620 16:15:55.346402 17722 layer_factory.hpp:77] Creating layer relu_i_1_1
I0620 16:15:55.346413 17722 net.cpp:91] Creating Layer relu_i_1_1
I0620 16:15:55.346421 17722 net.cpp:425] relu_i_1_1 <- sc_i_1_1
I0620 16:15:55.346429 17722 net.cpp:399] relu_i_1_1 -> relu_i_1_1
I0620 16:15:55.346796 17722 net.cpp:141] Setting up relu_i_1_1
I0620 16:15:55.346812 17722 net.cpp:148] Top shape: 128 64 32 32 (8388608)
I0620 16:15:55.346818 17722 net.cpp:156] Memory required for data: 2216165888
I0620 16:15:55.346824 17722 layer_factory.hpp:77] Creating layer conv_i_1_1
I0620 16:15:55.346840 17722 net.cpp:91] Creating Layer conv_i_1_1
I0620 16:15:55.346848 17722 net.cpp:425] conv_i_1_1 <- relu_i_1_1
I0620 16:15:55.346860 17722 net.cpp:399] conv_i_1_1 -> conv_i_1_1
I0620 16:15:55.351101 17722 net.cpp:141] Setting up conv_i_1_1
I0620 16:15:55.351120 17722 net.cpp:148] Top shape: 128 128 16 16 (4194304)
I0620 16:15:55.351126 17722 net.cpp:156] Memory required for data: 2232943104
I0620 16:15:55.351137 17722 layer_factory.hpp:77] Creating layer bn_i_1_2
I0620 16:15:55.351152 17722 net.cpp:91] Creating Layer bn_i_1_2
I0620 16:15:55.351161 17722 net.cpp:425] bn_i_1_2 <- conv_i_1_1
I0620 16:15:55.351169 17722 net.cpp:399] bn_i_1_2 -> bn_i_1_2
I0620 16:15:55.351423 17722 net.cpp:141] Setting up bn_i_1_2
I0620 16:15:55.351436 17722 net.cpp:148] Top shape: 128 128 16 16 (4194304)
I0620 16:15:55.351443 17722 net.cpp:156] Memory required for data: 2249720320
I0620 16:15:55.351454 17722 layer_factory.hpp:77] Creating layer sc_i_1_2
I0620 16:15:55.351467 17722 net.cpp:91] Creating Layer sc_i_1_2
I0620 16:15:55.351480 17722 net.cpp:425] sc_i_1_2 <- bn_i_1_2
I0620 16:15:55.351490 17722 net.cpp:399] sc_i_1_2 -> sc_i_1_2
I0620 16:15:55.351539 17722 layer_factory.hpp:77] Creating layer sc_i_1_2
I0620 16:15:55.351688 17722 net.cpp:141] Setting up sc_i_1_2
I0620 16:15:55.351701 17722 net.cpp:148] Top shape: 128 128 16 16 (4194304)
I0620 16:15:55.351707 17722 net.cpp:156] Memory required for data: 2266497536
I0620 16:15:55.351717 17722 layer_factory.hpp:77] Creating layer relu_i_1_2
I0620 16:15:55.351728 17722 net.cpp:91] Creating Layer relu_i_1_2
I0620 16:15:55.351735 17722 net.cpp:425] relu_i_1_2 <- sc_i_1_2
I0620 16:15:55.351744 17722 net.cpp:399] relu_i_1_2 -> relu_i_1_2
I0620 16:15:55.351974 17722 net.cpp:141] Setting up relu_i_1_2
I0620 16:15:55.351989 17722 net.cpp:148] Top shape: 128 128 16 16 (4194304)
I0620 16:15:55.351996 17722 net.cpp:156] Memory required for data: 2283274752
I0620 16:15:55.352002 17722 layer_factory.hpp:77] Creating layer conv_i_1_2
I0620 16:15:55.352018 17722 net.cpp:91] Creating Layer conv_i_1_2
I0620 16:15:55.352030 17722 net.cpp:425] conv_i_1_2 <- relu_i_1_2
I0620 16:15:55.352043 17722 net.cpp:399] conv_i_1_2 -> conv_i_1_2
I0620 16:15:55.357941 17722 net.cpp:141] Setting up conv_i_1_2
I0620 16:15:55.357959 17722 net.cpp:148] Top shape: 128 128 16 16 (4194304)
I0620 16:15:55.357966 17722 net.cpp:156] Memory required for data: 2300051968
I0620 16:15:55.357996 17722 layer_factory.hpp:77] Creating layer res_i
I0620 16:15:55.358018 17722 net.cpp:91] Creating Layer res_i
I0620 16:15:55.358028 17722 net.cpp:425] res_i <- elt_c_1_elt_c_1_0_split_3
I0620 16:15:55.358038 17722 net.cpp:399] res_i -> res_i
I0620 16:15:55.359514 17722 net.cpp:141] Setting up res_i
I0620 16:15:55.359532 17722 net.cpp:148] Top shape: 128 128 16 16 (4194304)
I0620 16:15:55.359539 17722 net.cpp:156] Memory required for data: 2316829184
I0620 16:15:55.359567 17722 layer_factory.hpp:77] Creating layer elt_i_1
I0620 16:15:55.359580 17722 net.cpp:91] Creating Layer elt_i_1
I0620 16:15:55.359597 17722 net.cpp:425] elt_i_1 <- res_i
I0620 16:15:55.359606 17722 net.cpp:425] elt_i_1 <- conv_i_1_2
I0620 16:15:55.359616 17722 net.cpp:399] elt_i_1 -> elt_i_1
I0620 16:15:55.359650 17722 net.cpp:141] Setting up elt_i_1
I0620 16:15:55.359663 17722 net.cpp:148] Top shape: 128 128 16 16 (4194304)
I0620 16:15:55.359668 17722 net.cpp:156] Memory required for data: 2333606400
I0620 16:15:55.359674 17722 layer_factory.hpp:77] Creating layer elt_d_f
I0620 16:15:55.359683 17722 net.cpp:91] Creating Layer elt_d_f
I0620 16:15:55.359690 17722 net.cpp:425] elt_d_f <- elt_d_1
I0620 16:15:55.359699 17722 net.cpp:425] elt_d_f <- elt_f_1
I0620 16:15:55.359706 17722 net.cpp:399] elt_d_f -> elt_d_f
I0620 16:15:55.359745 17722 net.cpp:141] Setting up elt_d_f
I0620 16:15:55.359757 17722 net.cpp:148] Top shape: 128 128 16 16 (4194304)
I0620 16:15:55.359763 17722 net.cpp:156] Memory required for data: 2350383616
I0620 16:15:55.359769 17722 layer_factory.hpp:77] Creating layer elt_d_f_elt_d_f_0_split
I0620 16:15:55.359778 17722 net.cpp:91] Creating Layer elt_d_f_elt_d_f_0_split
I0620 16:15:55.359786 17722 net.cpp:425] elt_d_f_elt_d_f_0_split <- elt_d_f
I0620 16:15:55.359794 17722 net.cpp:399] elt_d_f_elt_d_f_0_split -> elt_d_f_elt_d_f_0_split_0
I0620 16:15:55.359805 17722 net.cpp:399] elt_d_f_elt_d_f_0_split -> elt_d_f_elt_d_f_0_split_1
I0620 16:15:55.359858 17722 net.cpp:141] Setting up elt_d_f_elt_d_f_0_split
I0620 16:15:55.359870 17722 net.cpp:148] Top shape: 128 128 16 16 (4194304)
I0620 16:15:55.359877 17722 net.cpp:148] Top shape: 128 128 16 16 (4194304)
I0620 16:15:55.359884 17722 net.cpp:156] Memory required for data: 2383938048
I0620 16:15:55.359890 17722 layer_factory.hpp:77] Creating layer elt_g_i
I0620 16:15:55.359899 17722 net.cpp:91] Creating Layer elt_g_i
I0620 16:15:55.359905 17722 net.cpp:425] elt_g_i <- elt_g_1
I0620 16:15:55.359912 17722 net.cpp:425] elt_g_i <- elt_i_1
I0620 16:15:55.359920 17722 net.cpp:399] elt_g_i -> elt_g_i
I0620 16:15:55.359958 17722 net.cpp:141] Setting up elt_g_i
I0620 16:15:55.359972 17722 net.cpp:148] Top shape: 128 128 16 16 (4194304)
I0620 16:15:55.359977 17722 net.cpp:156] Memory required for data: 2400715264
I0620 16:15:55.359982 17722 layer_factory.hpp:77] Creating layer elt_g_i_elt_g_i_0_split
I0620 16:15:55.359993 17722 net.cpp:91] Creating Layer elt_g_i_elt_g_i_0_split
I0620 16:15:55.360008 17722 net.cpp:425] elt_g_i_elt_g_i_0_split <- elt_g_i
I0620 16:15:55.360014 17722 net.cpp:399] elt_g_i_elt_g_i_0_split -> elt_g_i_elt_g_i_0_split_0
I0620 16:15:55.360024 17722 net.cpp:399] elt_g_i_elt_g_i_0_split -> elt_g_i_elt_g_i_0_split_1
I0620 16:15:55.360075 17722 net.cpp:141] Setting up elt_g_i_elt_g_i_0_split
I0620 16:15:55.360088 17722 net.cpp:148] Top shape: 128 128 16 16 (4194304)
I0620 16:15:55.360101 17722 net.cpp:148] Top shape: 128 128 16 16 (4194304)
I0620 16:15:55.360106 17722 net.cpp:156] Memory required for data: 2434269696
I0620 16:15:55.360112 17722 layer_factory.hpp:77] Creating layer bn_j_1_1
I0620 16:15:55.360124 17722 net.cpp:91] Creating Layer bn_j_1_1
I0620 16:15:55.360131 17722 net.cpp:425] bn_j_1_1 <- elt_d_f_elt_d_f_0_split_0
I0620 16:15:55.360141 17722 net.cpp:399] bn_j_1_1 -> bn_j_1_1
I0620 16:15:55.360386 17722 net.cpp:141] Setting up bn_j_1_1
I0620 16:15:55.360399 17722 net.cpp:148] Top shape: 128 128 16 16 (4194304)
I0620 16:15:55.360405 17722 net.cpp:156] Memory required for data: 2451046912
I0620 16:15:55.360417 17722 layer_factory.hpp:77] Creating layer sc_j_1_1
I0620 16:15:55.360447 17722 net.cpp:91] Creating Layer sc_j_1_1
I0620 16:15:55.360456 17722 net.cpp:425] sc_j_1_1 <- bn_j_1_1
I0620 16:15:55.360466 17722 net.cpp:399] sc_j_1_1 -> sc_j_1_1
I0620 16:15:55.360520 17722 layer_factory.hpp:77] Creating layer sc_j_1_1
I0620 16:15:55.360666 17722 net.cpp:141] Setting up sc_j_1_1
I0620 16:15:55.360679 17722 net.cpp:148] Top shape: 128 128 16 16 (4194304)
I0620 16:15:55.360685 17722 net.cpp:156] Memory required for data: 2467824128
I0620 16:15:55.360695 17722 layer_factory.hpp:77] Creating layer relu_j_1_1
I0620 16:15:55.360703 17722 net.cpp:91] Creating Layer relu_j_1_1
I0620 16:15:55.360710 17722 net.cpp:425] relu_j_1_1 <- sc_j_1_1
I0620 16:15:55.360718 17722 net.cpp:399] relu_j_1_1 -> relu_j_1_1
I0620 16:15:55.360950 17722 net.cpp:141] Setting up relu_j_1_1
I0620 16:15:55.360966 17722 net.cpp:148] Top shape: 128 128 16 16 (4194304)
I0620 16:15:55.360972 17722 net.cpp:156] Memory required for data: 2484601344
I0620 16:15:55.360980 17722 layer_factory.hpp:77] Creating layer conv_j_1_1
I0620 16:15:55.360996 17722 net.cpp:91] Creating Layer conv_j_1_1
I0620 16:15:55.361004 17722 net.cpp:425] conv_j_1_1 <- relu_j_1_1
I0620 16:15:55.361016 17722 net.cpp:399] conv_j_1_1 -> conv_j_1_1
I0620 16:15:55.372321 17722 net.cpp:141] Setting up conv_j_1_1
I0620 16:15:55.372342 17722 net.cpp:148] Top shape: 128 256 8 8 (2097152)
I0620 16:15:55.372349 17722 net.cpp:156] Memory required for data: 2492989952
I0620 16:15:55.372360 17722 layer_factory.hpp:77] Creating layer bn_j_1_2
I0620 16:15:55.372370 17722 net.cpp:91] Creating Layer bn_j_1_2
I0620 16:15:55.372378 17722 net.cpp:425] bn_j_1_2 <- conv_j_1_1
I0620 16:15:55.372390 17722 net.cpp:399] bn_j_1_2 -> bn_j_1_2
I0620 16:15:55.372663 17722 net.cpp:141] Setting up bn_j_1_2
I0620 16:15:55.372678 17722 net.cpp:148] Top shape: 128 256 8 8 (2097152)
I0620 16:15:55.372684 17722 net.cpp:156] Memory required for data: 2501378560
I0620 16:15:55.372695 17722 layer_factory.hpp:77] Creating layer sc_j_1_2
I0620 16:15:55.372707 17722 net.cpp:91] Creating Layer sc_j_1_2
I0620 16:15:55.372716 17722 net.cpp:425] sc_j_1_2 <- bn_j_1_2
I0620 16:15:55.372725 17722 net.cpp:399] sc_j_1_2 -> sc_j_1_2
I0620 16:15:55.372779 17722 layer_factory.hpp:77] Creating layer sc_j_1_2
I0620 16:15:55.372931 17722 net.cpp:141] Setting up sc_j_1_2
I0620 16:15:55.372944 17722 net.cpp:148] Top shape: 128 256 8 8 (2097152)
I0620 16:15:55.372951 17722 net.cpp:156] Memory required for data: 2509767168
I0620 16:15:55.372961 17722 layer_factory.hpp:77] Creating layer relu_j_1_2
I0620 16:15:55.372968 17722 net.cpp:91] Creating Layer relu_j_1_2
I0620 16:15:55.372975 17722 net.cpp:425] relu_j_1_2 <- sc_j_1_2
I0620 16:15:55.372983 17722 net.cpp:399] relu_j_1_2 -> relu_j_1_2
I0620 16:15:55.373340 17722 net.cpp:141] Setting up relu_j_1_2
I0620 16:15:55.373358 17722 net.cpp:148] Top shape: 128 256 8 8 (2097152)
I0620 16:15:55.373363 17722 net.cpp:156] Memory required for data: 2518155776
I0620 16:15:55.373369 17722 layer_factory.hpp:77] Creating layer conv_j_1_2
I0620 16:15:55.373388 17722 net.cpp:91] Creating Layer conv_j_1_2
I0620 16:15:55.373395 17722 net.cpp:425] conv_j_1_2 <- relu_j_1_2
I0620 16:15:55.373405 17722 net.cpp:399] conv_j_1_2 -> conv_j_1_2
I0620 16:15:55.394470 17722 net.cpp:141] Setting up conv_j_1_2
I0620 16:15:55.394490 17722 net.cpp:148] Top shape: 128 256 8 8 (2097152)
I0620 16:15:55.394496 17722 net.cpp:156] Memory required for data: 2526544384
I0620 16:15:55.394506 17722 layer_factory.hpp:77] Creating layer res_j
I0620 16:15:55.394522 17722 net.cpp:91] Creating Layer res_j
I0620 16:15:55.394531 17722 net.cpp:425] res_j <- elt_d_f_elt_d_f_0_split_1
I0620 16:15:55.394546 17722 net.cpp:399] res_j -> res_j
I0620 16:15:55.396703 17722 net.cpp:141] Setting up res_j
I0620 16:15:55.396725 17722 net.cpp:148] Top shape: 128 256 8 8 (2097152)
I0620 16:15:55.396733 17722 net.cpp:156] Memory required for data: 2534932992
I0620 16:15:55.396742 17722 layer_factory.hpp:77] Creating layer elt_j_1
I0620 16:15:55.396752 17722 net.cpp:91] Creating Layer elt_j_1
I0620 16:15:55.396777 17722 net.cpp:425] elt_j_1 <- res_j
I0620 16:15:55.396787 17722 net.cpp:425] elt_j_1 <- conv_j_1_2
I0620 16:15:55.396796 17722 net.cpp:399] elt_j_1 -> elt_j_1
I0620 16:15:55.396839 17722 net.cpp:141] Setting up elt_j_1
I0620 16:15:55.396850 17722 net.cpp:148] Top shape: 128 256 8 8 (2097152)
I0620 16:15:55.396857 17722 net.cpp:156] Memory required for data: 2543321600
I0620 16:15:55.396862 17722 layer_factory.hpp:77] Creating layer bn_e_1_1
I0620 16:15:55.396874 17722 net.cpp:91] Creating Layer bn_e_1_1
I0620 16:15:55.396880 17722 net.cpp:425] bn_e_1_1 <- elt_a_1_elt_a_1_0_split_2
I0620 16:15:55.396889 17722 net.cpp:399] bn_e_1_1 -> bn_e_1_1
I0620 16:15:55.397156 17722 net.cpp:141] Setting up bn_e_1_1
I0620 16:15:55.397171 17722 net.cpp:148] Top shape: 128 64 32 32 (8388608)
I0620 16:15:55.397177 17722 net.cpp:156] Memory required for data: 2576876032
I0620 16:15:55.397189 17722 layer_factory.hpp:77] Creating layer sc_e_1_1
I0620 16:15:55.397202 17722 net.cpp:91] Creating Layer sc_e_1_1
I0620 16:15:55.397209 17722 net.cpp:425] sc_e_1_1 <- bn_e_1_1
I0620 16:15:55.397217 17722 net.cpp:399] sc_e_1_1 -> sc_e_1_1
I0620 16:15:55.397276 17722 layer_factory.hpp:77] Creating layer sc_e_1_1
I0620 16:15:55.397438 17722 net.cpp:141] Setting up sc_e_1_1
I0620 16:15:55.397451 17722 net.cpp:148] Top shape: 128 64 32 32 (8388608)
I0620 16:15:55.397457 17722 net.cpp:156] Memory required for data: 2610430464
I0620 16:15:55.397467 17722 layer_factory.hpp:77] Creating layer relu_e_1_1
I0620 16:15:55.397476 17722 net.cpp:91] Creating Layer relu_e_1_1
I0620 16:15:55.397482 17722 net.cpp:425] relu_e_1_1 <- sc_e_1_1
I0620 16:15:55.397490 17722 net.cpp:399] relu_e_1_1 -> relu_e_1_1
I0620 16:15:55.397861 17722 net.cpp:141] Setting up relu_e_1_1
I0620 16:15:55.397877 17722 net.cpp:148] Top shape: 128 64 32 32 (8388608)
I0620 16:15:55.397883 17722 net.cpp:156] Memory required for data: 2643984896
I0620 16:15:55.397891 17722 layer_factory.hpp:77] Creating layer conv_e_1_1
I0620 16:15:55.397905 17722 net.cpp:91] Creating Layer conv_e_1_1
I0620 16:15:55.397913 17722 net.cpp:425] conv_e_1_1 <- relu_e_1_1
I0620 16:15:55.397928 17722 net.cpp:399] conv_e_1_1 -> conv_e_1_1
I0620 16:15:55.402057 17722 net.cpp:141] Setting up conv_e_1_1
I0620 16:15:55.402076 17722 net.cpp:148] Top shape: 128 128 16 16 (4194304)
I0620 16:15:55.402083 17722 net.cpp:156] Memory required for data: 2660762112
I0620 16:15:55.402093 17722 layer_factory.hpp:77] Creating layer bn_e_1_2
I0620 16:15:55.402107 17722 net.cpp:91] Creating Layer bn_e_1_2
I0620 16:15:55.402114 17722 net.cpp:425] bn_e_1_2 <- conv_e_1_1
I0620 16:15:55.402124 17722 net.cpp:399] bn_e_1_2 -> bn_e_1_2
I0620 16:15:55.402389 17722 net.cpp:141] Setting up bn_e_1_2
I0620 16:15:55.402403 17722 net.cpp:148] Top shape: 128 128 16 16 (4194304)
I0620 16:15:55.402410 17722 net.cpp:156] Memory required for data: 2677539328
I0620 16:15:55.402420 17722 layer_factory.hpp:77] Creating layer sc_e_1_2
I0620 16:15:55.402434 17722 net.cpp:91] Creating Layer sc_e_1_2
I0620 16:15:55.402441 17722 net.cpp:425] sc_e_1_2 <- bn_e_1_2
I0620 16:15:55.402451 17722 net.cpp:399] sc_e_1_2 -> sc_e_1_2
I0620 16:15:55.402503 17722 layer_factory.hpp:77] Creating layer sc_e_1_2
I0620 16:15:55.402649 17722 net.cpp:141] Setting up sc_e_1_2
I0620 16:15:55.402667 17722 net.cpp:148] Top shape: 128 128 16 16 (4194304)
I0620 16:15:55.402673 17722 net.cpp:156] Memory required for data: 2694316544
I0620 16:15:55.402689 17722 layer_factory.hpp:77] Creating layer relu_e_1_2
I0620 16:15:55.402700 17722 net.cpp:91] Creating Layer relu_e_1_2
I0620 16:15:55.402707 17722 net.cpp:425] relu_e_1_2 <- sc_e_1_2
I0620 16:15:55.402715 17722 net.cpp:399] relu_e_1_2 -> relu_e_1_2
I0620 16:15:55.402957 17722 net.cpp:141] Setting up relu_e_1_2
I0620 16:15:55.402973 17722 net.cpp:148] Top shape: 128 128 16 16 (4194304)
I0620 16:15:55.402984 17722 net.cpp:156] Memory required for data: 2711093760
I0620 16:15:55.402990 17722 layer_factory.hpp:77] Creating layer conv_e_1_2
I0620 16:15:55.403007 17722 net.cpp:91] Creating Layer conv_e_1_2
I0620 16:15:55.403031 17722 net.cpp:425] conv_e_1_2 <- relu_e_1_2
I0620 16:15:55.403045 17722 net.cpp:399] conv_e_1_2 -> conv_e_1_2
I0620 16:15:55.408982 17722 net.cpp:141] Setting up conv_e_1_2
I0620 16:15:55.409000 17722 net.cpp:148] Top shape: 128 128 16 16 (4194304)
I0620 16:15:55.409006 17722 net.cpp:156] Memory required for data: 2727870976
I0620 16:15:55.409018 17722 layer_factory.hpp:77] Creating layer res_e
I0620 16:15:55.409034 17722 net.cpp:91] Creating Layer res_e
I0620 16:15:55.409041 17722 net.cpp:425] res_e <- elt_a_1_elt_a_1_0_split_3
I0620 16:15:55.409054 17722 net.cpp:399] res_e -> res_e
I0620 16:15:55.410663 17722 net.cpp:141] Setting up res_e
I0620 16:15:55.410689 17722 net.cpp:148] Top shape: 128 128 16 16 (4194304)
I0620 16:15:55.410699 17722 net.cpp:156] Memory required for data: 2744648192
I0620 16:15:55.410709 17722 layer_factory.hpp:77] Creating layer elt_e_1
I0620 16:15:55.410720 17722 net.cpp:91] Creating Layer elt_e_1
I0620 16:15:55.410727 17722 net.cpp:425] elt_e_1 <- res_e
I0620 16:15:55.410734 17722 net.cpp:425] elt_e_1 <- conv_e_1_2
I0620 16:15:55.410743 17722 net.cpp:399] elt_e_1 -> elt_e_1
I0620 16:15:55.410783 17722 net.cpp:141] Setting up elt_e_1
I0620 16:15:55.410795 17722 net.cpp:148] Top shape: 128 128 16 16 (4194304)
I0620 16:15:55.410801 17722 net.cpp:156] Memory required for data: 2761425408
I0620 16:15:55.410809 17722 layer_factory.hpp:77] Creating layer elt_e_h
I0620 16:15:55.410816 17722 net.cpp:91] Creating Layer elt_e_h
I0620 16:15:55.410823 17722 net.cpp:425] elt_e_h <- elt_e_1
I0620 16:15:55.410830 17722 net.cpp:425] elt_e_h <- elt_h_1
I0620 16:15:55.410841 17722 net.cpp:399] elt_e_h -> elt_e_h
I0620 16:15:55.410877 17722 net.cpp:141] Setting up elt_e_h
I0620 16:15:55.410890 17722 net.cpp:148] Top shape: 128 128 16 16 (4194304)
I0620 16:15:55.410897 17722 net.cpp:156] Memory required for data: 2778202624
I0620 16:15:55.410902 17722 layer_factory.hpp:77] Creating layer elt_e_h_elt_e_h_0_split
I0620 16:15:55.410913 17722 net.cpp:91] Creating Layer elt_e_h_elt_e_h_0_split
I0620 16:15:55.410920 17722 net.cpp:425] elt_e_h_elt_e_h_0_split <- elt_e_h
I0620 16:15:55.410928 17722 net.cpp:399] elt_e_h_elt_e_h_0_split -> elt_e_h_elt_e_h_0_split_0
I0620 16:15:55.410953 17722 net.cpp:399] elt_e_h_elt_e_h_0_split -> elt_e_h_elt_e_h_0_split_1
I0620 16:15:55.411011 17722 net.cpp:141] Setting up elt_e_h_elt_e_h_0_split
I0620 16:15:55.411027 17722 net.cpp:148] Top shape: 128 128 16 16 (4194304)
I0620 16:15:55.411036 17722 net.cpp:148] Top shape: 128 128 16 16 (4194304)
I0620 16:15:55.411041 17722 net.cpp:156] Memory required for data: 2811757056
I0620 16:15:55.411048 17722 layer_factory.hpp:77] Creating layer bn_k_1_1
I0620 16:15:55.411059 17722 net.cpp:91] Creating Layer bn_k_1_1
I0620 16:15:55.411067 17722 net.cpp:425] bn_k_1_1 <- elt_e_h_elt_e_h_0_split_0
I0620 16:15:55.411077 17722 net.cpp:399] bn_k_1_1 -> bn_k_1_1
I0620 16:15:55.411332 17722 net.cpp:141] Setting up bn_k_1_1
I0620 16:15:55.411346 17722 net.cpp:148] Top shape: 128 128 16 16 (4194304)
I0620 16:15:55.411352 17722 net.cpp:156] Memory required for data: 2828534272
I0620 16:15:55.411365 17722 layer_factory.hpp:77] Creating layer sc_k_1_1
I0620 16:15:55.411375 17722 net.cpp:91] Creating Layer sc_k_1_1
I0620 16:15:55.411387 17722 net.cpp:425] sc_k_1_1 <- bn_k_1_1
I0620 16:15:55.411396 17722 net.cpp:399] sc_k_1_1 -> sc_k_1_1
I0620 16:15:55.411454 17722 layer_factory.hpp:77] Creating layer sc_k_1_1
I0620 16:15:55.411603 17722 net.cpp:141] Setting up sc_k_1_1
I0620 16:15:55.411617 17722 net.cpp:148] Top shape: 128 128 16 16 (4194304)
I0620 16:15:55.411623 17722 net.cpp:156] Memory required for data: 2845311488
I0620 16:15:55.411633 17722 layer_factory.hpp:77] Creating layer relu_k_1_1
I0620 16:15:55.411651 17722 net.cpp:91] Creating Layer relu_k_1_1
I0620 16:15:55.411659 17722 net.cpp:425] relu_k_1_1 <- sc_k_1_1
I0620 16:15:55.411666 17722 net.cpp:399] relu_k_1_1 -> relu_k_1_1
I0620 16:15:55.411895 17722 net.cpp:141] Setting up relu_k_1_1
I0620 16:15:55.411911 17722 net.cpp:148] Top shape: 128 128 16 16 (4194304)
I0620 16:15:55.411937 17722 net.cpp:156] Memory required for data: 2862088704
I0620 16:15:55.411945 17722 layer_factory.hpp:77] Creating layer conv_k_1_1
I0620 16:15:55.411962 17722 net.cpp:91] Creating Layer conv_k_1_1
I0620 16:15:55.411970 17722 net.cpp:425] conv_k_1_1 <- relu_k_1_1
I0620 16:15:55.411983 17722 net.cpp:399] conv_k_1_1 -> conv_k_1_1
I0620 16:15:55.423305 17722 net.cpp:141] Setting up conv_k_1_1
I0620 16:15:55.423324 17722 net.cpp:148] Top shape: 128 256 8 8 (2097152)
I0620 16:15:55.423331 17722 net.cpp:156] Memory required for data: 2870477312
I0620 16:15:55.423341 17722 layer_factory.hpp:77] Creating layer bn_k_1_2
I0620 16:15:55.423354 17722 net.cpp:91] Creating Layer bn_k_1_2
I0620 16:15:55.423362 17722 net.cpp:425] bn_k_1_2 <- conv_k_1_1
I0620 16:15:55.423374 17722 net.cpp:399] bn_k_1_2 -> bn_k_1_2
I0620 16:15:55.423645 17722 net.cpp:141] Setting up bn_k_1_2
I0620 16:15:55.423660 17722 net.cpp:148] Top shape: 128 256 8 8 (2097152)
I0620 16:15:55.423666 17722 net.cpp:156] Memory required for data: 2878865920
I0620 16:15:55.423677 17722 layer_factory.hpp:77] Creating layer sc_k_1_2
I0620 16:15:55.423686 17722 net.cpp:91] Creating Layer sc_k_1_2
I0620 16:15:55.423693 17722 net.cpp:425] sc_k_1_2 <- bn_k_1_2
I0620 16:15:55.423702 17722 net.cpp:399] sc_k_1_2 -> sc_k_1_2
I0620 16:15:55.423760 17722 layer_factory.hpp:77] Creating layer sc_k_1_2
I0620 16:15:55.423929 17722 net.cpp:141] Setting up sc_k_1_2
I0620 16:15:55.423943 17722 net.cpp:148] Top shape: 128 256 8 8 (2097152)
I0620 16:15:55.423949 17722 net.cpp:156] Memory required for data: 2887254528
I0620 16:15:55.423959 17722 layer_factory.hpp:77] Creating layer relu_k_1_2
I0620 16:15:55.423970 17722 net.cpp:91] Creating Layer relu_k_1_2
I0620 16:15:55.423977 17722 net.cpp:425] relu_k_1_2 <- sc_k_1_2
I0620 16:15:55.423985 17722 net.cpp:399] relu_k_1_2 -> relu_k_1_2
I0620 16:15:55.424347 17722 net.cpp:141] Setting up relu_k_1_2
I0620 16:15:55.424366 17722 net.cpp:148] Top shape: 128 256 8 8 (2097152)
I0620 16:15:55.424373 17722 net.cpp:156] Memory required for data: 2895643136
I0620 16:15:55.424379 17722 layer_factory.hpp:77] Creating layer conv_k_1_2
I0620 16:15:55.424396 17722 net.cpp:91] Creating Layer conv_k_1_2
I0620 16:15:55.424403 17722 net.cpp:425] conv_k_1_2 <- relu_k_1_2
I0620 16:15:55.424413 17722 net.cpp:399] conv_k_1_2 -> conv_k_1_2
I0620 16:15:55.445361 17722 net.cpp:141] Setting up conv_k_1_2
I0620 16:15:55.445380 17722 net.cpp:148] Top shape: 128 256 8 8 (2097152)
I0620 16:15:55.445386 17722 net.cpp:156] Memory required for data: 2904031744
I0620 16:15:55.445397 17722 layer_factory.hpp:77] Creating layer res_k
I0620 16:15:55.445413 17722 net.cpp:91] Creating Layer res_k
I0620 16:15:55.445422 17722 net.cpp:425] res_k <- elt_e_h_elt_e_h_0_split_1
I0620 16:15:55.445435 17722 net.cpp:399] res_k -> res_k
I0620 16:15:55.447721 17722 net.cpp:141] Setting up res_k
I0620 16:15:55.447739 17722 net.cpp:148] Top shape: 128 256 8 8 (2097152)
I0620 16:15:55.447746 17722 net.cpp:156] Memory required for data: 2912420352
I0620 16:15:55.447757 17722 layer_factory.hpp:77] Creating layer elt_k_1
I0620 16:15:55.447769 17722 net.cpp:91] Creating Layer elt_k_1
I0620 16:15:55.447777 17722 net.cpp:425] elt_k_1 <- res_k
I0620 16:15:55.447785 17722 net.cpp:425] elt_k_1 <- conv_k_1_2
I0620 16:15:55.447793 17722 net.cpp:399] elt_k_1 -> elt_k_1
I0620 16:15:55.447836 17722 net.cpp:141] Setting up elt_k_1
I0620 16:15:55.447849 17722 net.cpp:148] Top shape: 128 256 8 8 (2097152)
I0620 16:15:55.447854 17722 net.cpp:156] Memory required for data: 2920808960
I0620 16:15:55.447860 17722 layer_factory.hpp:77] Creating layer bn_l_1_1
I0620 16:15:55.447872 17722 net.cpp:91] Creating Layer bn_l_1_1
I0620 16:15:55.447880 17722 net.cpp:425] bn_l_1_1 <- elt_g_i_elt_g_i_0_split_0
I0620 16:15:55.447888 17722 net.cpp:399] bn_l_1_1 -> bn_l_1_1
I0620 16:15:55.448156 17722 net.cpp:141] Setting up bn_l_1_1
I0620 16:15:55.448170 17722 net.cpp:148] Top shape: 128 128 16 16 (4194304)
I0620 16:15:55.448176 17722 net.cpp:156] Memory required for data: 2937586176
I0620 16:15:55.448189 17722 layer_factory.hpp:77] Creating layer sc_l_1_1
I0620 16:15:55.448220 17722 net.cpp:91] Creating Layer sc_l_1_1
I0620 16:15:55.448235 17722 net.cpp:425] sc_l_1_1 <- bn_l_1_1
I0620 16:15:55.448245 17722 net.cpp:399] sc_l_1_1 -> sc_l_1_1
I0620 16:15:55.448308 17722 layer_factory.hpp:77] Creating layer sc_l_1_1
I0620 16:15:55.448463 17722 net.cpp:141] Setting up sc_l_1_1
I0620 16:15:55.448477 17722 net.cpp:148] Top shape: 128 128 16 16 (4194304)
I0620 16:15:55.448483 17722 net.cpp:156] Memory required for data: 2954363392
I0620 16:15:55.448493 17722 layer_factory.hpp:77] Creating layer relu_l_1_1
I0620 16:15:55.448503 17722 net.cpp:91] Creating Layer relu_l_1_1
I0620 16:15:55.448509 17722 net.cpp:425] relu_l_1_1 <- sc_l_1_1
I0620 16:15:55.448518 17722 net.cpp:399] relu_l_1_1 -> relu_l_1_1
I0620 16:15:55.448884 17722 net.cpp:141] Setting up relu_l_1_1
I0620 16:15:55.448901 17722 net.cpp:148] Top shape: 128 128 16 16 (4194304)
I0620 16:15:55.448907 17722 net.cpp:156] Memory required for data: 2971140608
I0620 16:15:55.448915 17722 layer_factory.hpp:77] Creating layer conv_l_1_1
I0620 16:15:55.448932 17722 net.cpp:91] Creating Layer conv_l_1_1
I0620 16:15:55.448940 17722 net.cpp:425] conv_l_1_1 <- relu_l_1_1
I0620 16:15:55.448951 17722 net.cpp:399] conv_l_1_1 -> conv_l_1_1
I0620 16:15:55.460221 17722 net.cpp:141] Setting up conv_l_1_1
I0620 16:15:55.460239 17722 net.cpp:148] Top shape: 128 256 8 8 (2097152)
I0620 16:15:55.460247 17722 net.cpp:156] Memory required for data: 2979529216
I0620 16:15:55.460256 17722 layer_factory.hpp:77] Creating layer bn_l_1_2
I0620 16:15:55.460273 17722 net.cpp:91] Creating Layer bn_l_1_2
I0620 16:15:55.460280 17722 net.cpp:425] bn_l_1_2 <- conv_l_1_1
I0620 16:15:55.460290 17722 net.cpp:399] bn_l_1_2 -> bn_l_1_2
I0620 16:15:55.460589 17722 net.cpp:141] Setting up bn_l_1_2
I0620 16:15:55.460602 17722 net.cpp:148] Top shape: 128 256 8 8 (2097152)
I0620 16:15:55.460608 17722 net.cpp:156] Memory required for data: 2987917824
I0620 16:15:55.460620 17722 layer_factory.hpp:77] Creating layer sc_l_1_2
I0620 16:15:55.460634 17722 net.cpp:91] Creating Layer sc_l_1_2
I0620 16:15:55.460644 17722 net.cpp:425] sc_l_1_2 <- bn_l_1_2
I0620 16:15:55.460652 17722 net.cpp:399] sc_l_1_2 -> sc_l_1_2
I0620 16:15:55.460711 17722 layer_factory.hpp:77] Creating layer sc_l_1_2
I0620 16:15:55.460875 17722 net.cpp:141] Setting up sc_l_1_2
I0620 16:15:55.460888 17722 net.cpp:148] Top shape: 128 256 8 8 (2097152)
I0620 16:15:55.460894 17722 net.cpp:156] Memory required for data: 2996306432
I0620 16:15:55.460904 17722 layer_factory.hpp:77] Creating layer relu_l_1_2
I0620 16:15:55.460929 17722 net.cpp:91] Creating Layer relu_l_1_2
I0620 16:15:55.460938 17722 net.cpp:425] relu_l_1_2 <- sc_l_1_2
I0620 16:15:55.460947 17722 net.cpp:399] relu_l_1_2 -> relu_l_1_2
I0620 16:15:55.461174 17722 net.cpp:141] Setting up relu_l_1_2
I0620 16:15:55.461189 17722 net.cpp:148] Top shape: 128 256 8 8 (2097152)
I0620 16:15:55.461195 17722 net.cpp:156] Memory required for data: 3004695040
I0620 16:15:55.461202 17722 layer_factory.hpp:77] Creating layer conv_l_1_2
I0620 16:15:55.461217 17722 net.cpp:91] Creating Layer conv_l_1_2
I0620 16:15:55.461226 17722 net.cpp:425] conv_l_1_2 <- relu_l_1_2
I0620 16:15:55.461239 17722 net.cpp:399] conv_l_1_2 -> conv_l_1_2
I0620 16:15:55.482427 17722 net.cpp:141] Setting up conv_l_1_2
I0620 16:15:55.482450 17722 net.cpp:148] Top shape: 128 256 8 8 (2097152)
I0620 16:15:55.482458 17722 net.cpp:156] Memory required for data: 3013083648
I0620 16:15:55.482468 17722 layer_factory.hpp:77] Creating layer res_l
I0620 16:15:55.482484 17722 net.cpp:91] Creating Layer res_l
I0620 16:15:55.482492 17722 net.cpp:425] res_l <- elt_g_i_elt_g_i_0_split_1
I0620 16:15:55.482502 17722 net.cpp:399] res_l -> res_l
I0620 16:15:55.488018 17722 net.cpp:141] Setting up res_l
I0620 16:15:55.488049 17722 net.cpp:148] Top shape: 128 256 8 8 (2097152)
I0620 16:15:55.488056 17722 net.cpp:156] Memory required for data: 3021472256
I0620 16:15:55.488072 17722 layer_factory.hpp:77] Creating layer elt_l_1
I0620 16:15:55.488097 17722 net.cpp:91] Creating Layer elt_l_1
I0620 16:15:55.488134 17722 net.cpp:425] elt_l_1 <- res_l
I0620 16:15:55.488152 17722 net.cpp:425] elt_l_1 <- conv_l_1_2
I0620 16:15:55.488165 17722 net.cpp:399] elt_l_1 -> elt_l_1
I0620 16:15:55.488211 17722 net.cpp:141] Setting up elt_l_1
I0620 16:15:55.488225 17722 net.cpp:148] Top shape: 128 256 8 8 (2097152)
I0620 16:15:55.488231 17722 net.cpp:156] Memory required for data: 3029860864
I0620 16:15:55.488239 17722 layer_factory.hpp:77] Creating layer elt_j_k_l
I0620 16:15:55.488255 17722 net.cpp:91] Creating Layer elt_j_k_l
I0620 16:15:55.488262 17722 net.cpp:425] elt_j_k_l <- elt_j_1
I0620 16:15:55.488270 17722 net.cpp:425] elt_j_k_l <- elt_k_1
I0620 16:15:55.488276 17722 net.cpp:425] elt_j_k_l <- elt_l_1
I0620 16:15:55.488284 17722 net.cpp:399] elt_j_k_l -> elt_j_k_l
I0620 16:15:55.488327 17722 net.cpp:141] Setting up elt_j_k_l
I0620 16:15:55.488340 17722 net.cpp:148] Top shape: 128 256 8 8 (2097152)
I0620 16:15:55.488345 17722 net.cpp:156] Memory required for data: 3038249472
I0620 16:15:55.488353 17722 layer_factory.hpp:77] Creating layer bn_m_1_1
I0620 16:15:55.488374 17722 net.cpp:91] Creating Layer bn_m_1_1
I0620 16:15:55.488384 17722 net.cpp:425] bn_m_1_1 <- elt_j_k_l
I0620 16:15:55.488397 17722 net.cpp:399] bn_m_1_1 -> bn_m_1_1
I0620 16:15:55.488678 17722 net.cpp:141] Setting up bn_m_1_1
I0620 16:15:55.488692 17722 net.cpp:148] Top shape: 128 256 8 8 (2097152)
I0620 16:15:55.488698 17722 net.cpp:156] Memory required for data: 3046638080
I0620 16:15:55.488709 17722 layer_factory.hpp:77] Creating layer sc_m_1_1
I0620 16:15:55.488730 17722 net.cpp:91] Creating Layer sc_m_1_1
I0620 16:15:55.488740 17722 net.cpp:425] sc_m_1_1 <- bn_m_1_1
I0620 16:15:55.488754 17722 net.cpp:399] sc_m_1_1 -> sc_m_1_1
I0620 16:15:55.488828 17722 layer_factory.hpp:77] Creating layer sc_m_1_1
I0620 16:15:55.489004 17722 net.cpp:141] Setting up sc_m_1_1
I0620 16:15:55.489018 17722 net.cpp:148] Top shape: 128 256 8 8 (2097152)
I0620 16:15:55.489025 17722 net.cpp:156] Memory required for data: 3055026688
I0620 16:15:55.489035 17722 layer_factory.hpp:77] Creating layer relu_m_1_1
I0620 16:15:55.489056 17722 net.cpp:91] Creating Layer relu_m_1_1
I0620 16:15:55.489065 17722 net.cpp:425] relu_m_1_1 <- sc_m_1_1
I0620 16:15:55.489078 17722 net.cpp:399] relu_m_1_1 -> relu_m_1_1
I0620 16:15:55.489320 17722 net.cpp:141] Setting up relu_m_1_1
I0620 16:15:55.489336 17722 net.cpp:148] Top shape: 128 256 8 8 (2097152)
I0620 16:15:55.489342 17722 net.cpp:156] Memory required for data: 3063415296
I0620 16:15:55.489349 17722 layer_factory.hpp:77] Creating layer gap
I0620 16:15:55.489368 17722 net.cpp:91] Creating Layer gap
I0620 16:15:55.489383 17722 net.cpp:425] gap <- relu_m_1_1
I0620 16:15:55.489392 17722 net.cpp:399] gap -> gap
I0620 16:15:55.489812 17722 net.cpp:141] Setting up gap
I0620 16:15:55.489830 17722 net.cpp:148] Top shape: 128 256 1 1 (32768)
I0620 16:15:55.489836 17722 net.cpp:156] Memory required for data: 3063546368
I0620 16:15:55.489843 17722 layer_factory.hpp:77] Creating layer ip1
I0620 16:15:55.489859 17722 net.cpp:91] Creating Layer ip1
I0620 16:15:55.489866 17722 net.cpp:425] ip1 <- gap
I0620 16:15:55.489877 17722 net.cpp:399] ip1 -> ip1
I0620 16:15:55.490161 17722 net.cpp:141] Setting up ip1
I0620 16:15:55.490175 17722 net.cpp:148] Top shape: 128 10 (1280)
I0620 16:15:55.490181 17722 net.cpp:156] Memory required for data: 3063551488
I0620 16:15:55.490191 17722 layer_factory.hpp:77] Creating layer loss
I0620 16:15:55.490211 17722 net.cpp:91] Creating Layer loss
I0620 16:15:55.490217 17722 net.cpp:425] loss <- ip1
I0620 16:15:55.490224 17722 net.cpp:425] loss <- label
I0620 16:15:55.490233 17722 net.cpp:399] loss -> loss
I0620 16:15:55.490255 17722 layer_factory.hpp:77] Creating layer loss
…
I0620 16:15:55.496021 17722 net.cpp:313] The NetState phase (1) differed from the phase (0) specified by a rule in layer resnet
I0620 16:15:55.496886 17722 net.cpp:49] Initializing net from parameters: 
name: "ResNet"
state {
  phase: TEST
}
layer {
  name: "resnet"
  type: "Data"
  top: "data"
  top: "label"
  include {
    phase: TEST
  }
  transform_param {
    mean_file: "/home/takeki/caffe/examples/cifar10/mean.binaryproto"
  }
  data_param {
    source: "/home/takeki/caffe/examples/cifar10/cifar10_test_lmdb"
    batch_size: 100
    backend: LMDB
  }
}
layer {
  name: "conv0"
  type: "Convolution"
  bottom: "data"
  top: "conv0"
  param {
    lr_mult: 1
  }
  param {
    lr_mult: 2
  }
  convolution_param {
    num_output: 16
    pad: 1
    kernel_size: 3
    stride: 1
    weight_filler {
      type: "msra"
    }
    bias_filler {
      type: "constant"
    }
  }
}
layer {
  name: "bn_a_1_1"
  type: "BatchNorm"
  bottom: "conv0"
  top: "bn_a_1_1"
  param {
    lr_mult: 0
  }
  param {
    lr_mult: 0
  }
  param {
    lr_mult: 0
  }
  batch_norm_param {
    use_global_stats: false
  }
}
layer {
  name: "sc_a_1_1"
  type: "Scale"
  bottom: "bn_a_1_1"
  top: "sc_a_1_1"
  scale_param {
    bias_term: true
  }
}
layer {
  name: "relu_a_1_1"
  type: "ReLU"
  bottom: "sc_a_1_1"
  top: "relu_a_1_1"
}
layer {
  name: "conv_a_1_1"
  type: "Convolution"
  bottom: "relu_a_1_1"
  top: "conv_a_1_1"
  param {
    lr_mult: 1
    decay_mult: 1
  }
  param {
    lr_mult: 2
    decay_mult: 1
  }
  convolution_param {
    num_output: 64
    pad: 1
    kernel_size: 3
    stride: 1
    weight_filler {
      type: "msra"
    }
    bias_filler {
      type: "constant"
    }
  }
}
layer {
  name: "bn_a_1_2"
  type: "BatchNorm"
  bottom: "conv_a_1_1"
  top: "bn_a_1_2"
  param {
    lr_mult: 0
  }
  param {
    lr_mult: 0
  }
  param {
    lr_mult: 0
  }
  batch_norm_param {
    use_global_stats: false
  }
}
layer {
  name: "sc_a_1_2"
  type: "Scale"
  bottom: "bn_a_1_2"
  top: "sc_a_1_2"
  scale_param {
    bias_term: true
  }
}
layer {
  name: "relu_a_1_2"
  type: "ReLU"
  bottom: "sc_a_1_2"
  top: "relu_a_1_2"
}
layer {
  name: "conv_a_1_2"
  type: "Convolution"
  bottom: "relu_a_1_2"
  top: "conv_a_1_2"
  param {
    lr_mult: 1
    decay_mult: 1
  }
  param {
    lr_mult: 2
    decay_mult: 1
  }
  convolution_param {
    num_output: 64
    pad: 1
    kernel_size: 3
    stride: 1
    weight_filler {
      type: "msra"
    }
    bias_filler {
      type: "constant"
    }
  }
}
layer {
  name: "res_a"
  type: "Convolution"
  bottom: "conv0"
  top: "res_a"
  param {
    lr_mult: 1
    decay_mult: 1
  }
  param {
    lr_mult: 2
    decay_mult: 1
  }
  convolution_param {
    num_output: 64
    pad: 0
    kernel_size: 1
    stride: 1
    weight_filler {
      type: "msra"
    }
    bias_filler {
      type: "constant"
    }
  }
}
layer {
  name: "elt_a_1"
  type: "Eltwise"
  bottom: "res_a"
  bottom: "conv_a_1_2"
  top: "elt_a_1"
  eltwise_param {
    operation: SUM
  }
}
layer {
  name: "bn_b_1_1"
  type: "BatchNorm"
  bottom: "conv0"
  top: "bn_b_1_1"
  param {
    lr_mult: 0
  }
  param {
    lr_mult: 0
  }
  param {
    lr_mult: 0
  }
  batch_norm_param {
    use_global_stats: false
  }
}
layer {
  name: "sc_b_1_1"
  type: "Scale"
  bottom: "bn_b_1_1"
  top: "sc_b_1_1"
  scale_param {
    bias_term: true
  }
}
layer {
  name: "relu_b_1_1"
  type: "ReLU"
  bottom: "sc_b_1_1"
  top: "relu_b_1_1"
}
layer {
  name: "conv_b_1_1"
  type: "Convolution"
  bottom: "relu_b_1_1"
  top: "conv_b_1_1"
  param {
    lr_mult: 1
    decay_mult: 1
  }
  param {
    lr_mult: 2
    decay_mult: 1
  }
  convolution_param {
    num_output: 64
    pad: 1
    kernel_size: 3
    stride: 1
    weight_filler {
      type: "msra"
    }
    bias_filler {
      type: "constant"
    }
  }
}
layer {
  name: "bn_b_1_2"
  type: "BatchNorm"
  bottom: "conv_b_1_1"
  top: "bn_b_1_2"
  param {
    lr_mult: 0
  }
  param {
    lr_mult: 0
  }
  param {
    lr_mult: 0
  }
  batch_norm_param {
    use_global_stats: false
  }
}
layer {
  name: "sc_b_1_2"
  type: "Scale"
  bottom: "bn_b_1_2"
  top: "sc_b_1_2"
  scale_param {
    bias_term: true
  }
}
layer {
  name: "relu_b_1_2"
  type: "ReLU"
  bottom: "sc_b_1_2"
  top: "relu_b_1_2"
}
layer {
  name: "conv_b_1_2"
  type: "Convolution"
  bottom: "relu_b_1_2"
  top: "conv_b_1_2"
  param {
    lr_mult: 1
    decay_mult: 1
  }
  param {
    lr_mult: 2
    decay_mult: 1
  }
  convolution_param {
    num_output: 64
    pad: 1
    kernel_size: 3
    stride: 1
    weight_filler {
      type: "msra"
    }
    bias_filler {
      type: "constant"
    }
  }
}
layer {
  name: "res_b"
  type: "Convolution"
  bottom: "conv0"
  top: "res_b"
  param {
    lr_mult: 1
    decay_mult: 1
  }
  param {
    lr_mult: 2
    decay_mult: 1
  }
  convolution_param {
    num_output: 64
    pad: 0
    kernel_size: 1
    stride: 1
    weight_filler {
      type: "msra"
    }
    bias_filler {
      type: "constant"
    }
  }
}
layer {
  name: "elt_b_1"
  type: "Eltwise"
  bottom: "res_b"
  bottom: "conv_b_1_2"
  top: "elt_b_1"
  eltwise_param {
    operation: SUM
  }
}
layer {
  name: "bn_c_1_1"
  type: "BatchNorm"
  bottom: "conv0"
  top: "bn_c_1_1"
  param {
    lr_mult: 0
  }
  param {
    lr_mult: 0
  }
  param {
    lr_mult: 0
  }
  batch_norm_param {
    use_global_stats: false
  }
}
layer {
  name: "sc_c_1_1"
  type: "Scale"
  bottom: "bn_c_1_1"
  top: "sc_c_1_1"
  scale_param {
    bias_term: true
  }
}
layer {
  name: "relu_c_1_1"
  type: "ReLU"
  bottom: "sc_c_1_1"
  top: "relu_c_1_1"
}
layer {
  name: "conv_c_1_1"
  type: "Convolution"
  bottom: "relu_c_1_1"
  top: "conv_c_1_1"
  param {
    lr_mult: 1
    decay_mult: 1
  }
  param {
    lr_mult: 2
    decay_mult: 1
  }
  convolution_param {
    num_output: 64
    pad: 1
    kernel_size: 3
    stride: 1
    weight_filler {
      type: "msra"
    }
    bias_filler {
      type: "constant"
    }
  }
}
layer {
  name: "bn_c_1_2"
  type: "BatchNorm"
  bottom: "conv_c_1_1"
  top: "bn_c_1_2"
  param {
    lr_mult: 0
  }
  param {
    lr_mult: 0
  }
  param {
    lr_mult: 0
  }
  batch_norm_param {
    use_global_stats: false
  }
}
layer {
  name: "sc_c_1_2"
  type: "Scale"
  bottom: "bn_c_1_2"
  top: "sc_c_1_2"
  scale_param {
    bias_term: true
  }
}
layer {
  name: "relu_c_1_2"
  type: "ReLU"
  bottom: "sc_c_1_2"
  top: "relu_c_1_2"
}
layer {
  name: "conv_c_1_2"
  type: "Convolution"
  bottom: "relu_c_1_2"
  top: "conv_c_1_2"
  param {
    lr_mult: 1
    decay_mult: 1
  }
  param {
    lr_mult: 2
    decay_mult: 1
  }
  convolution_param {
    num_output: 64
    pad: 1
    kernel_size: 3
    stride: 1
    weight_filler {
      type: "msra"
    }
    bias_filler {
      type: "constant"
    }
  }
}
layer {
  name: "res_c"
  type: "Convolution"
  bottom: "conv0"
  top: "res_c"
  param {
    lr_mult: 1
    decay_mult: 1
  }
  param {
    lr_mult: 2
    decay_mult: 1
  }
  convolution_param {
    num_output: 64
    pad: 0
    kernel_size: 1
    stride: 1
    weight_filler {
      type: "msra"
    }
    bias_filler {
      type: "constant"
    }
  }
}
layer {
  name: "elt_c_1"
  type: "Eltwise"
  bottom: "res_c"
  bottom: "conv_c_1_2"
  top: "elt_c_1"
  eltwise_param {
    operation: SUM
  }
}
layer {
  name: "bn_d_1_1"
  type: "BatchNorm"
  bottom: "elt_a_1"
  top: "bn_d_1_1"
  param {
    lr_mult: 0
  }
  param {
    lr_mult: 0
  }
  param {
    lr_mult: 0
  }
  batch_norm_param {
    use_global_stats: false
  }
}
layer {
  name: "sc_d_1_1"
  type: "Scale"
  bottom: "bn_d_1_1"
  top: "sc_d_1_1"
  scale_param {
    bias_term: true
  }
}
layer {
  name: "relu_d_1_1"
  type: "ReLU"
  bottom: "sc_d_1_1"
  top: "relu_d_1_1"
}
layer {
  name: "conv_d_1_1"
  type: "Convolution"
  bottom: "relu_d_1_1"
  top: "conv_d_1_1"
  param {
    lr_mult: 1
    decay_mult: 1
  }
  param {
    lr_mult: 2
    decay_mult: 1
  }
  convolution_param {
    num_output: 128
    pad: 1
    kernel_size: 3
    stride: 2
    weight_filler {
      type: "msra"
    }
    bias_filler {
      type: "constant"
    }
  }
}
layer {
  name: "bn_d_1_2"
  type: "BatchNorm"
  bottom: "conv_d_1_1"
  top: "bn_d_1_2"
  param {
    lr_mult: 0
  }
  param {
    lr_mult: 0
  }
  param {
    lr_mult: 0
  }
  batch_norm_param {
    use_global_stats: false
  }
}
layer {
  name: "sc_d_1_2"
  type: "Scale"
  bottom: "bn_d_1_2"
  top: "sc_d_1_2"
  scale_param {
    bias_term: true
  }
}
layer {
  name: "relu_d_1_2"
  type: "ReLU"
  bottom: "sc_d_1_2"
  top: "relu_d_1_2"
}
layer {
  name: "conv_d_1_2"
  type: "Convolution"
  bottom: "relu_d_1_2"
  top: "conv_d_1_2"
  param {
    lr_mult: 1
    decay_mult: 1
  }
  param {
    lr_mult: 2
    decay_mult: 1
  }
  convolution_param {
    num_output: 128
    pad: 1
    kernel_size: 3
    stride: 1
    weight_filler {
      type: "msra"
    }
    bias_filler {
      type: "constant"
    }
  }
}
layer {
  name: "res_d"
  type: "Convolution"
  bottom: "elt_a_1"
  top: "res_d"
  param {
    lr_mult: 1
    decay_mult: 1
  }
  param {
    lr_mult: 2
    decay_mult: 1
  }
  convolution_param {
    num_output: 128
    pad: 0
    kernel_size: 1
    stride: 2
    weight_filler {
      type: "msra"
    }
    bias_filler {
      type: "constant"
    }
  }
}
layer {
  name: "elt_d_1"
  type: "Eltwise"
  bottom: "res_d"
  bottom: "conv_d_1_2"
  top: "elt_d_1"
  eltwise_param {
    operation: SUM
  }
}
layer {
  name: "bn_f_1_1"
  type: "BatchNorm"
  bottom: "elt_b_1"
  top: "bn_f_1_1"
  param {
    lr_mult: 0
  }
  param {
    lr_mult: 0
  }
  param {
    lr_mult: 0
  }
  batch_norm_param {
    use_global_stats: false
  }
}
layer {
  name: "sc_f_1_1"
  type: "Scale"
  bottom: "bn_f_1_1"
  top: "sc_f_1_1"
  scale_param {
    bias_term: true
  }
}
layer {
  name: "relu_f_1_1"
  type: "ReLU"
  bottom: "sc_f_1_1"
  top: "relu_f_1_1"
}
layer {
  name: "conv_f_1_1"
  type: "Convolution"
  bottom: "relu_f_1_1"
  top: "conv_f_1_1"
  param {
    lr_mult: 1
    decay_mult: 1
  }
  param {
    lr_mult: 2
    decay_mult: 1
  }
  convolution_param {
    num_output: 128
    pad: 1
    kernel_size: 3
    stride: 2
    weight_filler {
      type: "msra"
    }
    bias_filler {
      type: "constant"
    }
  }
}
layer {
  name: "bn_f_1_2"
  type: "BatchNorm"
  bottom: "conv_f_1_1"
  top: "bn_f_1_2"
  param {
    lr_mult: 0
  }
  param {
    lr_mult: 0
  }
  param {
    lr_mult: 0
  }
  batch_norm_param {
    use_global_stats: false
  }
}
layer {
  name: "sc_f_1_2"
  type: "Scale"
  bottom: "bn_f_1_2"
  top: "sc_f_1_2"
  scale_param {
    bias_term: true
  }
}
layer {
  name: "relu_f_1_2"
  type: "ReLU"
  bottom: "sc_f_1_2"
  top: "relu_f_1_2"
}
layer {
  name: "conv_f_1_2"
  type: "Convolution"
  bottom: "relu_f_1_2"
  top: "conv_f_1_2"
  param {
    lr_mult: 1
    decay_mult: 1
  }
  param {
    lr_mult: 2
    decay_mult: 1
  }
  convolution_param {
    num_output: 128
    pad: 1
    kernel_size: 3
    stride: 1
    weight_filler {
      type: "msra"
    }
    bias_filler {
      type: "constant"
    }
  }
}
layer {
  name: "res_f"
  type: "Convolution"
  bottom: "elt_b_1"
  top: "res_f"
  param {
    lr_mult: 1
    decay_mult: 1
  }
  param {
    lr_mult: 2
    decay_mult: 1
  }
  convolution_param {
    num_output: 128
    pad: 0
    kernel_size: 1
    stride: 2
    weight_filler {
      type: "msra"
    }
    bias_filler {
      type: "constant"
    }
  }
}
layer {
  name: "elt_f_1"
  type: "Eltwise"
  bottom: "res_f"
  bottom: "conv_f_1_2"
  top: "elt_f_1"
  eltwise_param {
    operation: SUM
  }
}
layer {
  name: "bn_g_1_1"
  type: "BatchNorm"
  bottom: "elt_b_1"
  top: "bn_g_1_1"
  param {
    lr_mult: 0
  }
  param {
    lr_mult: 0
  }
  param {
    lr_mult: 0
  }
  batch_norm_param {
    use_global_stats: false
  }
}
layer {
  name: "sc_g_1_1"
  type: "Scale"
  bottom: "bn_g_1_1"
  top: "sc_g_1_1"
  scale_param {
    bias_term: true
  }
}
layer {
  name: "relu_g_1_1"
  type: "ReLU"
  bottom: "sc_g_1_1"
  top: "relu_g_1_1"
}
layer {
  name: "conv_g_1_1"
  type: "Convolution"
  bottom: "relu_g_1_1"
  top: "conv_g_1_1"
  param {
    lr_mult: 1
    decay_mult: 1
  }
  param {
    lr_mult: 2
    decay_mult: 1
  }
  convolution_param {
    num_output: 128
    pad: 1
    kernel_size: 3
    stride: 2
    weight_filler {
      type: "msra"
    }
    bias_filler {
      type: "constant"
    }
  }
}
layer {
  name: "bn_g_1_2"
  type: "BatchNorm"
  bottom: "conv_g_1_1"
  top: "bn_g_1_2"
  param {
    lr_mult: 0
  }
  param {
    lr_mult: 0
  }
  param {
    lr_mult: 0
  }
  batch_norm_param {
    use_global_stats: false
  }
}
layer {
  name: "sc_g_1_2"
  type: "Scale"
  bottom: "bn_g_1_2"
  top: "sc_g_1_2"
  scale_param {
    bias_term: true
  }
}
layer {
  name: "relu_g_1_2"
  type: "ReLU"
  bottom: "sc_g_1_2"
  top: "relu_g_1_2"
}
layer {
  name: "conv_g_1_2"
  type: "Convolution"
  bottom: "relu_g_1_2"
  top: "conv_g_1_2"
  param {
    lr_mult: 1
    decay_mult: 1
  }
  param {
    lr_mult: 2
    decay_mult: 1
  }
  convolution_param {
    num_output: 128
    pad: 1
    kernel_size: 3
    stride: 1
    weight_filler {
      type: "msra"
    }
    bias_filler {
      type: "constant"
    }
  }
}
layer {
  name: "res_g"
  type: "Convolution"
  bottom: "elt_b_1"
  top: "res_g"
  param {
    lr_mult: 1
    decay_mult: 1
  }
  param {
    lr_mult: 2
    decay_mult: 1
  }
  convolution_param {
    num_output: 128
    pad: 0
    kernel_size: 1
    stride: 2
    weight_filler {
      type: "msra"
    }
    bias_filler {
      type: "constant"
    }
  }
}
layer {
  name: "elt_g_1"
  type: "Eltwise"
  bottom: "res_g"
  bottom: "conv_g_1_2"
  top: "elt_g_1"
  eltwise_param {
    operation: SUM
  }
}
layer {
  name: "bn_h_1_1"
  type: "BatchNorm"
  bottom: "elt_c_1"
  top: "bn_h_1_1"
  param {
    lr_mult: 0
  }
  param {
    lr_mult: 0
  }
  param {
    lr_mult: 0
  }
  batch_norm_param {
    use_global_stats: false
  }
}
layer {
  name: "sc_h_1_1"
  type: "Scale"
  bottom: "bn_h_1_1"
  top: "sc_h_1_1"
  scale_param {
    bias_term: true
  }
}
layer {
  name: "relu_h_1_1"
  type: "ReLU"
  bottom: "sc_h_1_1"
  top: "relu_h_1_1"
}
layer {
  name: "conv_h_1_1"
  type: "Convolution"
  bottom: "relu_h_1_1"
  top: "conv_h_1_1"
  param {
    lr_mult: 1
    decay_mult: 1
  }
  param {
    lr_mult: 2
    decay_mult: 1
  }
  convolution_param {
    num_output: 128
    pad: 1
    kernel_size: 3
    stride: 2
    weight_filler {
      type: "msra"
    }
    bias_filler {
      type: "constant"
    }
  }
}
layer {
  name: "bn_h_1_2"
  type: "BatchNorm"
  bottom: "conv_h_1_1"
  top: "bn_h_1_2"
  param {
    lr_mult: 0
  }
  param {
    lr_mult: 0
  }
  param {
    lr_mult: 0
  }
  batch_norm_param {
    use_global_stats: false
  }
}
layer {
  name: "sc_h_1_2"
  type: "Scale"
  bottom: "bn_h_1_2"
  top: "sc_h_1_2"
  scale_param {
    bias_term: true
  }
}
layer {
  name: "relu_h_1_2"
  type: "ReLU"
  bottom: "sc_h_1_2"
  top: "relu_h_1_2"
}
layer {
  name: "conv_h_1_2"
  type: "Convolution"
  bottom: "relu_h_1_2"
  top: "conv_h_1_2"
  param {
    lr_mult: 1
    decay_mult: 1
  }
  param {
    lr_mult: 2
    decay_mult: 1
  }
  convolution_param {
    num_output: 128
    pad: 1
    kernel_size: 3
    stride: 1
    weight_filler {
      type: "msra"
    }
    bias_filler {
      type: "constant"
    }
  }
}
layer {
  name: "res_h"
  type: "Convolution"
  bottom: "elt_c_1"
  top: "res_h"
  param {
    lr_mult: 1
    decay_mult: 1
  }
  param {
    lr_mult: 2
    decay_mult: 1
  }
  convolution_param {
    num_output: 128
    pad: 0
    kernel_size: 1
    stride: 2
    weight_filler {
      type: "msra"
    }
    bias_filler {
      type: "constant"
    }
  }
}
layer {
  name: "elt_h_1"
  type: "Eltwise"
  bottom: "res_h"
  bottom: "conv_h_1_2"
  top: "elt_h_1"
  eltwise_param {
    operation: SUM
  }
}
layer {
  name: "bn_i_1_1"
  type: "BatchNorm"
  bottom: "elt_c_1"
  top: "bn_i_1_1"
  param {
    lr_mult: 0
  }
  param {
    lr_mult: 0
  }
  param {
    lr_mult: 0
  }
  batch_norm_param {
    use_global_stats: false
  }
}
layer {
  name: "sc_i_1_1"
  type: "Scale"
  bottom: "bn_i_1_1"
  top: "sc_i_1_1"
  scale_param {
    bias_term: true
  }
}
layer {
  name: "relu_i_1_1"
  type: "ReLU"
  bottom: "sc_i_1_1"
  top: "relu_i_1_1"
}
layer {
  name: "conv_i_1_1"
  type: "Convolution"
  bottom: "relu_i_1_1"
  top: "conv_i_1_1"
  param {
    lr_mult: 1
    decay_mult: 1
  }
  param {
    lr_mult: 2
    decay_mult: 1
  }
  convolution_param {
    num_output: 128
    pad: 1
    kernel_size: 3
    stride: 2
    weight_filler {
      type: "msra"
    }
    bias_filler {
      type: "constant"
    }
  }
}
layer {
  name: "bn_i_1_2"
  type: "BatchNorm"
  bottom: "conv_i_1_1"
  top: "bn_i_1_2"
  param {
    lr_mult: 0
  }
  param {
    lr_mult: 0
  }
  param {
    lr_mult: 0
  }
  batch_norm_param {
    use_global_stats: false
  }
}
layer {
  name: "sc_i_1_2"
  type: "Scale"
  bottom: "bn_i_1_2"
  top: "sc_i_1_2"
  scale_param {
    bias_term: true
  }
}
layer {
  name: "relu_i_1_2"
  type: "ReLU"
  bottom: "sc_i_1_2"
  top: "relu_i_1_2"
}
layer {
  name: "conv_i_1_2"
  type: "Convolution"
  bottom: "relu_i_1_2"
  top: "conv_i_1_2"
  param {
    lr_mult: 1
    decay_mult: 1
  }
  param {
    lr_mult: 2
    decay_mult: 1
  }
  convolution_param {
    num_output: 128
    pad: 1
    kernel_size: 3
    stride: 1
    weight_filler {
      type: "msra"
    }
    bias_filler {
      type: "constant"
    }
  }
}
layer {
  name: "res_i"
  type: "Convolution"
  bottom: "elt_c_1"
  top: "res_i"
  param {
    lr_mult: 1
    decay_mult: 1
  }
  param {
    lr_mult: 2
    decay_mult: 1
  }
  convolution_param {
    num_output: 128
    pad: 0
    kernel_size: 1
    stride: 2
    weight_filler {
      type: "msra"
    }
    bias_filler {
      type: "constant"
    }
  }
}
layer {
  name: "elt_i_1"
  type: "Eltwise"
  bottom: "res_i"
  bottom: "conv_i_1_2"
  top: "elt_i_1"
  eltwise_param {
    operation: SUM
  }
}
layer {
  name: "elt_d_f"
  type: "Eltwise"
  bottom: "elt_d_1"
  bottom: "elt_f_1"
  top: "elt_d_f"
  eltwise_param {
    operation: SUM
  }
}
layer {
  name: "elt_g_i"
  type: "Eltwise"
  bottom: "elt_g_1"
  bottom: "elt_i_1"
  top: "elt_g_i"
  eltwise_param {
    operation: SUM
  }
}
layer {
  name: "bn_j_1_1"
  type: "BatchNorm"
  bottom: "elt_d_f"
  top: "bn_j_1_1"
  param {
    lr_mult: 0
  }
  param {
    lr_mult: 0
  }
  param {
    lr_mult: 0
  }
  batch_norm_param {
    use_global_stats: false
  }
}
layer {
  name: "sc_j_1_1"
  type: "Scale"
  bottom: "bn_j_1_1"
  top: "sc_j_1_1"
  scale_param {
    bias_term: true
  }
}
layer {
  name: "relu_j_1_1"
  type: "ReLU"
  bottom: "sc_j_1_1"
  top: "relu_j_1_1"
}
layer {
  name: "conv_j_1_1"
  type: "Convolution"
  bottom: "relu_j_1_1"
  top: "conv_j_1_1"
  param {
    lr_mult: 1
    decay_mult: 1
  }
  param {
    lr_mult: 2
    decay_mult: 1
  }
  convolution_param {
    num_output: 256
    pad: 1
    kernel_size: 3
    stride: 2
    weight_filler {
      type: "msra"
    }
    bias_filler {
      type: "constant"
    }
  }
}
layer {
  name: "bn_j_1_2"
  type: "BatchNorm"
  bottom: "conv_j_1_1"
  top: "bn_j_1_2"
  param {
    lr_mult: 0
  }
  param {
    lr_mult: 0
  }
  param {
    lr_mult: 0
  }
  batch_norm_param {
    use_global_stats: false
  }
}
layer {
  name: "sc_j_1_2"
  type: "Scale"
  bottom: "bn_j_1_2"
  top: "sc_j_1_2"
  scale_param {
    bias_term: true
  }
}
layer {
  name: "relu_j_1_2"
  type: "ReLU"
  bottom: "sc_j_1_2"
  top: "relu_j_1_2"
}
layer {
  name: "conv_j_1_2"
  type: "Convolution"
  bottom: "relu_j_1_2"
  top: "conv_j_1_2"
  param {
    lr_mult: 1
    decay_mult: 1
  }
  param {
    lr_mult: 2
    decay_mult: 1
  }
  convolution_param {
    num_output: 256
    pad: 1
    kernel_size: 3
    stride: 1
    weight_filler {
      type: "msra"
    }
    bias_filler {
      type: "constant"
    }
  }
}
layer {
  name: "res_j"
  type: "Convolution"
  bottom: "elt_d_f"
  top: "res_j"
  param {
    lr_mult: 1
    decay_mult: 1
  }
  param {
    lr_mult: 2
    decay_mult: 1
  }
  convolution_param {
    num_output: 256
    pad: 0
    kernel_size: 1
    stride: 2
    weight_filler {
      type: "msra"
    }
    bias_filler {
      type: "constant"
    }
  }
}
layer {
  name: "elt_j_1"
  type: "Eltwise"
  bottom: "res_j"
  bottom: "conv_j_1_2"
  top: "elt_j_1"
  eltwise_param {
    operation: SUM
  }
}
layer {
  name: "bn_e_1_1"
  type: "BatchNorm"
  bottom: "elt_a_1"
  top: "bn_e_1_1"
  param {
    lr_mult: 0
  }
  param {
    lr_mult: 0
  }
  param {
    lr_mult: 0
  }
  batch_norm_param {
    use_global_stats: false
  }
}
layer {
  name: "sc_e_1_1"
  type: "Scale"
  bottom: "bn_e_1_1"
  top: "sc_e_1_1"
  scale_param {
    bias_term: true
  }
}
layer {
  name: "relu_e_1_1"
  type: "ReLU"
  bottom: "sc_e_1_1"
  top: "relu_e_1_1"
}
layer {
  name: "conv_e_1_1"
  type: "Convolution"
  bottom: "relu_e_1_1"
  top: "conv_e_1_1"
  param {
    lr_mult: 1
    decay_mult: 1
  }
  param {
    lr_mult: 2
    decay_mult: 1
  }
  convolution_param {
    num_output: 128
    pad: 1
    kernel_size: 3
    stride: 2
    weight_filler {
      type: "msra"
    }
    bias_filler {
      type: "constant"
    }
  }
}
layer {
  name: "bn_e_1_2"
  type: "BatchNorm"
  bottom: "conv_e_1_1"
  top: "bn_e_1_2"
  param {
    lr_mult: 0
  }
  param {
    lr_mult: 0
  }
  param {
    lr_mult: 0
  }
  batch_norm_param {
    use_global_stats: false
  }
}
layer {
  name: "sc_e_1_2"
  type: "Scale"
  bottom: "bn_e_1_2"
  top: "sc_e_1_2"
  scale_param {
    bias_term: true
  }
}
layer {
  name: "relu_e_1_2"
  type: "ReLU"
  bottom: "sc_e_1_2"
  top: "relu_e_1_2"
}
layer {
  name: "conv_e_1_2"
  type: "Convolution"
  bottom: "relu_e_1_2"
  top: "conv_e_1_2"
  param {
    lr_mult: 1
    decay_mult: 1
  }
  param {
    lr_mult: 2
    decay_mult: 1
  }
  convolution_param {
    num_output: 128
    pad: 1
    kernel_size: 3
    stride: 1
    weight_filler {
      type: "msra"
    }
    bias_filler {
      type: "constant"
    }
  }
}
layer {
  name: "res_e"
  type: "Convolution"
  bottom: "elt_a_1"
  top: "res_e"
  param {
    lr_mult: 1
    decay_mult: 1
  }
  param {
    lr_mult: 2
    decay_mult: 1
  }
  convolution_param {
    num_output: 128
    pad: 0
    kernel_size: 1
    stride: 2
    weight_filler {
      type: "msra"
    }
    bias_filler {
      type: "constant"
    }
  }
}
layer {
  name: "elt_e_1"
  type: "Eltwise"
  bottom: "res_e"
  bottom: "conv_e_1_2"
  top: "elt_e_1"
  eltwise_param {
    operation: SUM
  }
}
layer {
  name: "elt_e_h"
  type: "Eltwise"
  bottom: "elt_e_1"
  bottom: "elt_h_1"
  top: "elt_e_h"
  eltwise_param {
    operation: SUM
  }
}
layer {
  name: "bn_k_1_1"
  type: "BatchNorm"
  bottom: "elt_e_h"
  top: "bn_k_1_1"
  param {
    lr_mult: 0
  }
  param {
    lr_mult: 0
  }
  param {
    lr_mult: 0
  }
  batch_norm_param {
    use_global_stats: false
  }
}
layer {
  name: "sc_k_1_1"
  type: "Scale"
  bottom: "bn_k_1_1"
  top: "sc_k_1_1"
  scale_param {
    bias_term: true
  }
}
layer {
  name: "relu_k_1_1"
  type: "ReLU"
  bottom: "sc_k_1_1"
  top: "relu_k_1_1"
}
layer {
  name: "conv_k_1_1"
  type: "Convolution"
  bottom: "relu_k_1_1"
  top: "conv_k_1_1"
  param {
    lr_mult: 1
    decay_mult: 1
  }
  param {
    lr_mult: 2
    decay_mult: 1
  }
  convolution_param {
    num_output: 256
    pad: 1
    kernel_size: 3
    stride: 2
    weight_filler {
      type: "msra"
    }
    bias_filler {
      type: "constant"
    }
  }
}
layer {
  name: "bn_k_1_2"
  type: "BatchNorm"
  bottom: "conv_k_1_1"
  top: "bn_k_1_2"
  param {
    lr_mult: 0
  }
  param {
    lr_mult: 0
  }
  param {
    lr_mult: 0
  }
  batch_norm_param {
    use_global_stats: false
  }
}
layer {
  name: "sc_k_1_2"
  type: "Scale"
  bottom: "bn_k_1_2"
  top: "sc_k_1_2"
  scale_param {
    bias_term: true
  }
}
layer {
  name: "relu_k_1_2"
  type: "ReLU"
  bottom: "sc_k_1_2"
  top: "relu_k_1_2"
}
layer {
  name: "conv_k_1_2"
  type: "Convolution"
  bottom: "relu_k_1_2"
  top: "conv_k_1_2"
  param {
    lr_mult: 1
    decay_mult: 1
  }
  param {
    lr_mult: 2
    decay_mult: 1
  }
  convolution_param {
    num_output: 256
    pad: 1
    kernel_size: 3
    stride: 1
    weight_filler {
      type: "msra"
    }
    bias_filler {
      type: "constant"
    }
  }
}
layer {
  name: "res_k"
  type: "Convolution"
  bottom: "elt_e_h"
  top: "res_k"
  param {
    lr_mult: 1
    decay_mult: 1
  }
  param {
    lr_mult: 2
    decay_mult: 1
  }
  convolution_param {
    num_output: 256
    pad: 0
    kernel_size: 1
    stride: 2
    weight_filler {
      type: "msra"
    }
    bias_filler {
      type: "constant"
    }
  }
}
layer {
  name: "elt_k_1"
  type: "Eltwise"
  bottom: "res_k"
  bottom: "conv_k_1_2"
  top: "elt_k_1"
  eltwise_param {
    operation: SUM
  }
}
layer {
  name: "bn_l_1_1"
  type: "BatchNorm"
  bottom: "elt_g_i"
  top: "bn_l_1_1"
  param {
    lr_mult: 0
  }
  param {
    lr_mult: 0
  }
  param {
    lr_mult: 0
  }
  batch_norm_param {
    use_global_stats: false
  }
}
layer {
  name: "sc_l_1_1"
  type: "Scale"
  bottom: "bn_l_1_1"
  top: "sc_l_1_1"
  scale_param {
    bias_term: true
  }
}
layer {
  name: "relu_l_1_1"
  type: "ReLU"
  bottom: "sc_l_1_1"
  top: "relu_l_1_1"
}
layer {
  name: "conv_l_1_1"
  type: "Convolution"
  bottom: "relu_l_1_1"
  top: "conv_l_1_1"
  param {
    lr_mult: 1
    decay_mult: 1
  }
  param {
    lr_mult: 2
    decay_mult: 1
  }
  convolution_param {
    num_output: 256
    pad: 1
    kernel_size: 3
    stride: 2
    weight_filler {
      type: "msra"
    }
    bias_filler {
      type: "constant"
    }
  }
}
layer {
  name: "bn_l_1_2"
  type: "BatchNorm"
  bottom: "conv_l_1_1"
  top: "bn_l_1_2"
  param {
    lr_mult: 0
  }
  param {
    lr_mult: 0
  }
  param {
    lr_mult: 0
  }
  batch_norm_param {
    use_global_stats: false
  }
}
layer {
  name: "sc_l_1_2"
  type: "Scale"
  bottom: "bn_l_1_2"
  top: "sc_l_1_2"
  scale_param {
    bias_term: true
  }
}
layer {
  name: "relu_l_1_2"
  type: "ReLU"
  bottom: "sc_l_1_2"
  top: "relu_l_1_2"
}
layer {
  name: "conv_l_1_2"
  type: "Convolution"
  bottom: "relu_l_1_2"
  top: "conv_l_1_2"
  param {
    lr_mult: 1
    decay_mult: 1
  }
  param {
    lr_mult: 2
    decay_mult: 1
  }
  convolution_param {
    num_output: 256
    pad: 1
    kernel_size: 3
    stride: 1
    weight_filler {
      type: "msra"
    }
    bias_filler {
      type: "constant"
    }
  }
}
layer {
  name: "res_l"
  type: "Convolution"
  bottom: "elt_g_i"
  top: "res_l"
  param {
    lr_mult: 1
    decay_mult: 1
  }
  param {
    lr_mult: 2
    decay_mult: 1
  }
  convolution_param {
    num_output: 256
    pad: 0
    kernel_size: 1
    stride: 2
    weight_filler {
      type: "msra"
    }
    bias_filler {
      type: "constant"
    }
  }
}
layer {
  name: "elt_l_1"
  type: "Eltwise"
  bottom: "res_l"
  bottom: "conv_l_1_2"
  top: "elt_l_1"
  eltwise_param {
    operation: SUM
  }
}
layer {
  name: "elt_j_k_l"
  type: "Eltwise"
  bottom: "elt_j_1"
  bottom: "elt_k_1"
  bottom: "elt_l_1"
  top: "elt_j_k_l"
  eltwise_param {
    operation: SUM
  }
}
layer {
  name: "bn_m_1_1"
  type: "BatchNorm"
  bottom: "elt_j_k_l"
  top: "bn_m_1_1"
  param {
    lr_mult: 0
  }
  param {
    lr_mult: 0
  }
  param {
    lr_mult: 0
  }
  batch_norm_param {
    use_global_stats: false
  }
}
layer {
  name: "sc_m_1_1"
  type: "Scale"
  bottom: "bn_m_1_1"
  top: "sc_m_1_1"
  scale_param {
    bias_term: true
  }
}
layer {
  name: "relu_m_1_1"
  type: "ReLU"
  bottom: "sc_m_1_1"
  top: "relu_m_1_1"
}
layer {
  name: "gap"
  type: "Pooling"
  bottom: "relu_m_1_1"
  top: "gap"
  pooling_param {
    pool: AVE
    kernel_size: 8
    stride: 1
  }
}
layer {
  name: "ip1"
  type: "InnerProduct"
  bottom: "gap"
  top: "ip1"
  param {
    lr_mult: 1
    decay_mult: 1
  }
  param {
    lr_mult: 2
    decay_mult: 0
  }
  inner_product_param {
    num_output: 10
    weight_filler {
      type: "msra"
    }
    bias_filler {
      type: "constant"
      value: 0
    }
  }
}
layer {
  name: "accuracy"
  type: "Accuracy"
  bottom: "ip1"
  bottom: "label"
  top: "accuracy"
  include {
    phase: TEST
  }
}
layer {
  name: "loss"
  type: "SoftmaxWithLoss"
  bottom: "ip1"
  bottom: "label"
  top: "loss"
}
I0620 16:15:55.497560 17722 layer_factory.hpp:77] Creating layer resnet
I0620 16:15:55.497704 17722 net.cpp:91] Creating Layer resnet
I0620 16:15:55.497716 17722 net.cpp:399] resnet -> data
I0620 16:15:55.497733 17722 net.cpp:399] resnet -> label
I0620 16:15:55.497747 17722 data_transformer.cpp:25] Loading mean file from: /home/takeki/caffe/examples/cifar10/mean.binaryproto
I0620 16:15:55.498946 17770 db_lmdb.cpp:35] Opened lmdb /home/takeki/caffe/examples/cifar10/cifar10_test_lmdb
I0620 16:15:55.499142 17722 data_layer.cpp:41] output data size: 100,3,32,32
I0620 16:15:55.502485 17722 net.cpp:141] Setting up resnet
I0620 16:15:55.502503 17722 net.cpp:148] Top shape: 100 3 32 32 (307200)
I0620 16:15:55.502512 17722 net.cpp:148] Top shape: 100 (100)
I0620 16:15:55.502518 17722 net.cpp:156] Memory required for data: 1229200
I0620 16:15:55.502524 17722 layer_factory.hpp:77] Creating layer label_resnet_1_split
I0620 16:15:55.502534 17722 net.cpp:91] Creating Layer label_resnet_1_split
I0620 16:15:55.502544 17722 net.cpp:425] label_resnet_1_split <- label
I0620 16:15:55.502552 17722 net.cpp:399] label_resnet_1_split -> label_resnet_1_split_0
I0620 16:15:55.502563 17722 net.cpp:399] label_resnet_1_split -> label_resnet_1_split_1
I0620 16:15:55.502679 17722 net.cpp:141] Setting up label_resnet_1_split
I0620 16:15:55.502709 17722 net.cpp:148] Top shape: 100 (100)
I0620 16:15:55.502717 17722 net.cpp:148] Top shape: 100 (100)
I0620 16:15:55.502722 17722 net.cpp:156] Memory required for data: 1230000
I0620 16:15:55.502728 17722 layer_factory.hpp:77] Creating layer conv0
I0620 16:15:55.502750 17722 net.cpp:91] Creating Layer conv0
I0620 16:15:55.502761 17722 net.cpp:425] conv0 <- data
I0620 16:15:55.502794 17722 net.cpp:399] conv0 -> conv0
I0620 16:15:55.504482 17722 net.cpp:141] Setting up conv0
I0620 16:15:55.504503 17722 net.cpp:148] Top shape: 100 16 32 32 (1638400)
I0620 16:15:55.504508 17722 net.cpp:156] Memory required for data: 7783600
I0620 16:15:55.504529 17722 layer_factory.hpp:77] Creating layer conv0_conv0_0_split
I0620 16:15:55.504541 17722 net.cpp:91] Creating Layer conv0_conv0_0_split
I0620 16:15:55.504549 17722 net.cpp:425] conv0_conv0_0_split <- conv0
I0620 16:15:55.504559 17722 net.cpp:399] conv0_conv0_0_split -> conv0_conv0_0_split_0
I0620 16:15:55.504570 17722 net.cpp:399] conv0_conv0_0_split -> conv0_conv0_0_split_1
I0620 16:15:55.504585 17722 net.cpp:399] conv0_conv0_0_split -> conv0_conv0_0_split_2
I0620 16:15:55.504600 17722 net.cpp:399] conv0_conv0_0_split -> conv0_conv0_0_split_3
I0620 16:15:55.504616 17722 net.cpp:399] conv0_conv0_0_split -> conv0_conv0_0_split_4
I0620 16:15:55.504626 17722 net.cpp:399] conv0_conv0_0_split -> conv0_conv0_0_split_5
I0620 16:15:55.504760 17722 net.cpp:141] Setting up conv0_conv0_0_split
I0620 16:15:55.504773 17722 net.cpp:148] Top shape: 100 16 32 32 (1638400)
I0620 16:15:55.504783 17722 net.cpp:148] Top shape: 100 16 32 32 (1638400)
I0620 16:15:55.504791 17722 net.cpp:148] Top shape: 100 16 32 32 (1638400)
I0620 16:15:55.504798 17722 net.cpp:148] Top shape: 100 16 32 32 (1638400)
I0620 16:15:55.504813 17722 net.cpp:148] Top shape: 100 16 32 32 (1638400)
I0620 16:15:55.504819 17722 net.cpp:148] Top shape: 100 16 32 32 (1638400)
I0620 16:15:55.504832 17722 net.cpp:156] Memory required for data: 47105200
I0620 16:15:55.504837 17722 layer_factory.hpp:77] Creating layer bn_a_1_1
I0620 16:15:55.504849 17722 net.cpp:91] Creating Layer bn_a_1_1
I0620 16:15:55.504856 17722 net.cpp:425] bn_a_1_1 <- conv0_conv0_0_split_0
I0620 16:15:55.504868 17722 net.cpp:399] bn_a_1_1 -> bn_a_1_1
I0620 16:15:55.505163 17722 net.cpp:141] Setting up bn_a_1_1
I0620 16:15:55.505178 17722 net.cpp:148] Top shape: 100 16 32 32 (1638400)
I0620 16:15:55.505185 17722 net.cpp:156] Memory required for data: 53658800
I0620 16:15:55.505204 17722 layer_factory.hpp:77] Creating layer sc_a_1_1
I0620 16:15:55.505215 17722 net.cpp:91] Creating Layer sc_a_1_1
I0620 16:15:55.505223 17722 net.cpp:425] sc_a_1_1 <- bn_a_1_1
I0620 16:15:55.505231 17722 net.cpp:399] sc_a_1_1 -> sc_a_1_1
I0620 16:15:55.505298 17722 layer_factory.hpp:77] Creating layer sc_a_1_1
I0620 16:15:55.505477 17722 net.cpp:141] Setting up sc_a_1_1
I0620 16:15:55.505494 17722 net.cpp:148] Top shape: 100 16 32 32 (1638400)
I0620 16:15:55.505501 17722 net.cpp:156] Memory required for data: 60212400
I0620 16:15:55.505511 17722 layer_factory.hpp:77] Creating layer relu_a_1_1
I0620 16:15:55.505522 17722 net.cpp:91] Creating Layer relu_a_1_1
I0620 16:15:55.505532 17722 net.cpp:425] relu_a_1_1 <- sc_a_1_1
I0620 16:15:55.505540 17722 net.cpp:399] relu_a_1_1 -> relu_a_1_1
I0620 16:15:55.506062 17722 net.cpp:141] Setting up relu_a_1_1
I0620 16:15:55.506080 17722 net.cpp:148] Top shape: 100 16 32 32 (1638400)
I0620 16:15:55.506086 17722 net.cpp:156] Memory required for data: 66766000
I0620 16:15:55.506093 17722 layer_factory.hpp:77] Creating layer conv_a_1_1
I0620 16:15:55.506109 17722 net.cpp:91] Creating Layer conv_a_1_1
I0620 16:15:55.506119 17722 net.cpp:425] conv_a_1_1 <- relu_a_1_1
I0620 16:15:55.506129 17722 net.cpp:399] conv_a_1_1 -> conv_a_1_1
I0620 16:15:55.507951 17722 net.cpp:141] Setting up conv_a_1_1
I0620 16:15:55.507971 17722 net.cpp:148] Top shape: 100 64 32 32 (6553600)
I0620 16:15:55.507977 17722 net.cpp:156] Memory required for data: 92980400
I0620 16:15:55.507990 17722 layer_factory.hpp:77] Creating layer bn_a_1_2
I0620 16:15:55.508004 17722 net.cpp:91] Creating Layer bn_a_1_2
I0620 16:15:55.508011 17722 net.cpp:425] bn_a_1_2 <- conv_a_1_1
I0620 16:15:55.508021 17722 net.cpp:399] bn_a_1_2 -> bn_a_1_2
I0620 16:15:55.508348 17722 net.cpp:141] Setting up bn_a_1_2
I0620 16:15:55.508363 17722 net.cpp:148] Top shape: 100 64 32 32 (6553600)
I0620 16:15:55.508368 17722 net.cpp:156] Memory required for data: 119194800
I0620 16:15:55.508394 17722 layer_factory.hpp:77] Creating layer sc_a_1_2
I0620 16:15:55.508407 17722 net.cpp:91] Creating Layer sc_a_1_2
I0620 16:15:55.508414 17722 net.cpp:425] sc_a_1_2 <- bn_a_1_2
I0620 16:15:55.508424 17722 net.cpp:399] sc_a_1_2 -> sc_a_1_2
I0620 16:15:55.508498 17722 layer_factory.hpp:77] Creating layer sc_a_1_2
I0620 16:15:55.508816 17722 net.cpp:141] Setting up sc_a_1_2
I0620 16:15:55.508834 17722 net.cpp:148] Top shape: 100 64 32 32 (6553600)
I0620 16:15:55.508841 17722 net.cpp:156] Memory required for data: 145409200
I0620 16:15:55.508851 17722 layer_factory.hpp:77] Creating layer relu_a_1_2
I0620 16:15:55.508858 17722 net.cpp:91] Creating Layer relu_a_1_2
I0620 16:15:55.508865 17722 net.cpp:425] relu_a_1_2 <- sc_a_1_2
I0620 16:15:55.508878 17722 net.cpp:399] relu_a_1_2 -> relu_a_1_2
I0620 16:15:55.509124 17722 net.cpp:141] Setting up relu_a_1_2
I0620 16:15:55.509140 17722 net.cpp:148] Top shape: 100 64 32 32 (6553600)
I0620 16:15:55.509146 17722 net.cpp:156] Memory required for data: 171623600
I0620 16:15:55.509152 17722 layer_factory.hpp:77] Creating layer conv_a_1_2
I0620 16:15:55.509181 17722 net.cpp:91] Creating Layer conv_a_1_2
I0620 16:15:55.509191 17722 net.cpp:425] conv_a_1_2 <- relu_a_1_2
I0620 16:15:55.509204 17722 net.cpp:399] conv_a_1_2 -> conv_a_1_2
I0620 16:15:55.511698 17722 net.cpp:141] Setting up conv_a_1_2
I0620 16:15:55.511718 17722 net.cpp:148] Top shape: 100 64 32 32 (6553600)
I0620 16:15:55.511728 17722 net.cpp:156] Memory required for data: 197838000
I0620 16:15:55.511737 17722 layer_factory.hpp:77] Creating layer res_a
I0620 16:15:55.511752 17722 net.cpp:91] Creating Layer res_a
I0620 16:15:55.511759 17722 net.cpp:425] res_a <- conv0_conv0_0_split_1
I0620 16:15:55.511770 17722 net.cpp:399] res_a -> res_a
I0620 16:15:55.513100 17722 net.cpp:141] Setting up res_a
I0620 16:15:55.513119 17722 net.cpp:148] Top shape: 100 64 32 32 (6553600)
I0620 16:15:55.513125 17722 net.cpp:156] Memory required for data: 224052400
I0620 16:15:55.513139 17722 layer_factory.hpp:77] Creating layer elt_a_1
I0620 16:15:55.513149 17722 net.cpp:91] Creating Layer elt_a_1
I0620 16:15:55.513155 17722 net.cpp:425] elt_a_1 <- res_a
I0620 16:15:55.513167 17722 net.cpp:425] elt_a_1 <- conv_a_1_2
I0620 16:15:55.513176 17722 net.cpp:399] elt_a_1 -> elt_a_1
I0620 16:15:55.513223 17722 net.cpp:141] Setting up elt_a_1
I0620 16:15:55.513236 17722 net.cpp:148] Top shape: 100 64 32 32 (6553600)
I0620 16:15:55.513242 17722 net.cpp:156] Memory required for data: 250266800
I0620 16:15:55.513248 17722 layer_factory.hpp:77] Creating layer elt_a_1_elt_a_1_0_split
I0620 16:15:55.513257 17722 net.cpp:91] Creating Layer elt_a_1_elt_a_1_0_split
I0620 16:15:55.513262 17722 net.cpp:425] elt_a_1_elt_a_1_0_split <- elt_a_1
I0620 16:15:55.513273 17722 net.cpp:399] elt_a_1_elt_a_1_0_split -> elt_a_1_elt_a_1_0_split_0
I0620 16:15:55.513285 17722 net.cpp:399] elt_a_1_elt_a_1_0_split -> elt_a_1_elt_a_1_0_split_1
I0620 16:15:55.513296 17722 net.cpp:399] elt_a_1_elt_a_1_0_split -> elt_a_1_elt_a_1_0_split_2
I0620 16:15:55.513308 17722 net.cpp:399] elt_a_1_elt_a_1_0_split -> elt_a_1_elt_a_1_0_split_3
I0620 16:15:55.513406 17722 net.cpp:141] Setting up elt_a_1_elt_a_1_0_split
I0620 16:15:55.513418 17722 net.cpp:148] Top shape: 100 64 32 32 (6553600)
I0620 16:15:55.513427 17722 net.cpp:148] Top shape: 100 64 32 32 (6553600)
I0620 16:15:55.513434 17722 net.cpp:148] Top shape: 100 64 32 32 (6553600)
I0620 16:15:55.513440 17722 net.cpp:148] Top shape: 100 64 32 32 (6553600)
I0620 16:15:55.513447 17722 net.cpp:156] Memory required for data: 355124400
I0620 16:15:55.513453 17722 layer_factory.hpp:77] Creating layer bn_b_1_1
I0620 16:15:55.513463 17722 net.cpp:91] Creating Layer bn_b_1_1
I0620 16:15:55.513470 17722 net.cpp:425] bn_b_1_1 <- conv0_conv0_0_split_2
I0620 16:15:55.513481 17722 net.cpp:399] bn_b_1_1 -> bn_b_1_1
I0620 16:15:55.513774 17722 net.cpp:141] Setting up bn_b_1_1
I0620 16:15:55.513788 17722 net.cpp:148] Top shape: 100 16 32 32 (1638400)
I0620 16:15:55.513794 17722 net.cpp:156] Memory required for data: 361678000
I0620 16:15:55.513826 17722 layer_factory.hpp:77] Creating layer sc_b_1_1
I0620 16:15:55.513840 17722 net.cpp:91] Creating Layer sc_b_1_1
I0620 16:15:55.513847 17722 net.cpp:425] sc_b_1_1 <- bn_b_1_1
I0620 16:15:55.513859 17722 net.cpp:399] sc_b_1_1 -> sc_b_1_1
I0620 16:15:55.513929 17722 layer_factory.hpp:77] Creating layer sc_b_1_1
I0620 16:15:55.514106 17722 net.cpp:141] Setting up sc_b_1_1
I0620 16:15:55.514122 17722 net.cpp:148] Top shape: 100 16 32 32 (1638400)
I0620 16:15:55.514129 17722 net.cpp:156] Memory required for data: 368231600
I0620 16:15:55.514139 17722 layer_factory.hpp:77] Creating layer relu_b_1_1
I0620 16:15:55.514148 17722 net.cpp:91] Creating Layer relu_b_1_1
I0620 16:15:55.514156 17722 net.cpp:425] relu_b_1_1 <- sc_b_1_1
I0620 16:15:55.514164 17722 net.cpp:399] relu_b_1_1 -> relu_b_1_1
I0620 16:15:55.514408 17722 net.cpp:141] Setting up relu_b_1_1
I0620 16:15:55.514423 17722 net.cpp:148] Top shape: 100 16 32 32 (1638400)
I0620 16:15:55.514430 17722 net.cpp:156] Memory required for data: 374785200
I0620 16:15:55.514436 17722 layer_factory.hpp:77] Creating layer conv_b_1_1
I0620 16:15:55.514451 17722 net.cpp:91] Creating Layer conv_b_1_1
I0620 16:15:55.514459 17722 net.cpp:425] conv_b_1_1 <- relu_b_1_1
I0620 16:15:55.514468 17722 net.cpp:399] conv_b_1_1 -> conv_b_1_1
I0620 16:15:55.516090 17722 net.cpp:141] Setting up conv_b_1_1
I0620 16:15:55.516110 17722 net.cpp:148] Top shape: 100 64 32 32 (6553600)
I0620 16:15:55.516116 17722 net.cpp:156] Memory required for data: 400999600
I0620 16:15:55.516126 17722 layer_factory.hpp:77] Creating layer bn_b_1_2
I0620 16:15:55.516140 17722 net.cpp:91] Creating Layer bn_b_1_2
I0620 16:15:55.516147 17722 net.cpp:425] bn_b_1_2 <- conv_b_1_1
I0620 16:15:55.516157 17722 net.cpp:399] bn_b_1_2 -> bn_b_1_2
I0620 16:15:55.516464 17722 net.cpp:141] Setting up bn_b_1_2
I0620 16:15:55.516479 17722 net.cpp:148] Top shape: 100 64 32 32 (6553600)
I0620 16:15:55.516485 17722 net.cpp:156] Memory required for data: 427214000
I0620 16:15:55.516496 17722 layer_factory.hpp:77] Creating layer sc_b_1_2
I0620 16:15:55.516505 17722 net.cpp:91] Creating Layer sc_b_1_2
I0620 16:15:55.516511 17722 net.cpp:425] sc_b_1_2 <- bn_b_1_2
I0620 16:15:55.516523 17722 net.cpp:399] sc_b_1_2 -> sc_b_1_2
I0620 16:15:55.516592 17722 layer_factory.hpp:77] Creating layer sc_b_1_2
I0620 16:15:55.516772 17722 net.cpp:141] Setting up sc_b_1_2
I0620 16:15:55.516788 17722 net.cpp:148] Top shape: 100 64 32 32 (6553600)
I0620 16:15:55.516793 17722 net.cpp:156] Memory required for data: 453428400
I0620 16:15:55.516803 17722 layer_factory.hpp:77] Creating layer relu_b_1_2
I0620 16:15:55.516810 17722 net.cpp:91] Creating Layer relu_b_1_2
I0620 16:15:55.516819 17722 net.cpp:425] relu_b_1_2 <- sc_b_1_2
I0620 16:15:55.516825 17722 net.cpp:399] relu_b_1_2 -> relu_b_1_2
I0620 16:15:55.517204 17722 net.cpp:141] Setting up relu_b_1_2
I0620 16:15:55.517220 17722 net.cpp:148] Top shape: 100 64 32 32 (6553600)
I0620 16:15:55.517226 17722 net.cpp:156] Memory required for data: 479642800
I0620 16:15:55.517232 17722 layer_factory.hpp:77] Creating layer conv_b_1_2
I0620 16:15:55.517246 17722 net.cpp:91] Creating Layer conv_b_1_2
I0620 16:15:55.517254 17722 net.cpp:425] conv_b_1_2 <- relu_b_1_2
I0620 16:15:55.517266 17722 net.cpp:399] conv_b_1_2 -> conv_b_1_2
I0620 16:15:55.520215 17722 net.cpp:141] Setting up conv_b_1_2
I0620 16:15:55.520238 17722 net.cpp:148] Top shape: 100 64 32 32 (6553600)
I0620 16:15:55.520244 17722 net.cpp:156] Memory required for data: 505857200
I0620 16:15:55.520256 17722 layer_factory.hpp:77] Creating layer res_b
I0620 16:15:55.520270 17722 net.cpp:91] Creating Layer res_b
I0620 16:15:55.520277 17722 net.cpp:425] res_b <- conv0_conv0_0_split_3
I0620 16:15:55.520290 17722 net.cpp:399] res_b -> res_b
I0620 16:15:55.521611 17722 net.cpp:141] Setting up res_b
I0620 16:15:55.521631 17722 net.cpp:148] Top shape: 100 64 32 32 (6553600)
I0620 16:15:55.521636 17722 net.cpp:156] Memory required for data: 532071600
I0620 16:15:55.521656 17722 layer_factory.hpp:77] Creating layer elt_b_1
I0620 16:15:55.521682 17722 net.cpp:91] Creating Layer elt_b_1
I0620 16:15:55.521689 17722 net.cpp:425] elt_b_1 <- res_b
I0620 16:15:55.521697 17722 net.cpp:425] elt_b_1 <- conv_b_1_2
I0620 16:15:55.521705 17722 net.cpp:399] elt_b_1 -> elt_b_1
I0620 16:15:55.521752 17722 net.cpp:141] Setting up elt_b_1
I0620 16:15:55.521766 17722 net.cpp:148] Top shape: 100 64 32 32 (6553600)
I0620 16:15:55.521772 17722 net.cpp:156] Memory required for data: 558286000
I0620 16:15:55.521778 17722 layer_factory.hpp:77] Creating layer elt_b_1_elt_b_1_0_split
I0620 16:15:55.521786 17722 net.cpp:91] Creating Layer elt_b_1_elt_b_1_0_split
I0620 16:15:55.521792 17722 net.cpp:425] elt_b_1_elt_b_1_0_split <- elt_b_1
I0620 16:15:55.521802 17722 net.cpp:399] elt_b_1_elt_b_1_0_split -> elt_b_1_elt_b_1_0_split_0
I0620 16:15:55.521816 17722 net.cpp:399] elt_b_1_elt_b_1_0_split -> elt_b_1_elt_b_1_0_split_1
I0620 16:15:55.521826 17722 net.cpp:399] elt_b_1_elt_b_1_0_split -> elt_b_1_elt_b_1_0_split_2
I0620 16:15:55.521836 17722 net.cpp:399] elt_b_1_elt_b_1_0_split -> elt_b_1_elt_b_1_0_split_3
I0620 16:15:55.521934 17722 net.cpp:141] Setting up elt_b_1_elt_b_1_0_split
I0620 16:15:55.521949 17722 net.cpp:148] Top shape: 100 64 32 32 (6553600)
I0620 16:15:55.521955 17722 net.cpp:148] Top shape: 100 64 32 32 (6553600)
I0620 16:15:55.521963 17722 net.cpp:148] Top shape: 100 64 32 32 (6553600)
I0620 16:15:55.521970 17722 net.cpp:148] Top shape: 100 64 32 32 (6553600)
I0620 16:15:55.521975 17722 net.cpp:156] Memory required for data: 663143600
I0620 16:15:55.521981 17722 layer_factory.hpp:77] Creating layer bn_c_1_1
I0620 16:15:55.521991 17722 net.cpp:91] Creating Layer bn_c_1_1
I0620 16:15:55.521996 17722 net.cpp:425] bn_c_1_1 <- conv0_conv0_0_split_4
I0620 16:15:55.522007 17722 net.cpp:399] bn_c_1_1 -> bn_c_1_1
I0620 16:15:55.522311 17722 net.cpp:141] Setting up bn_c_1_1
I0620 16:15:55.522325 17722 net.cpp:148] Top shape: 100 16 32 32 (1638400)
I0620 16:15:55.522332 17722 net.cpp:156] Memory required for data: 669697200
I0620 16:15:55.522344 17722 layer_factory.hpp:77] Creating layer sc_c_1_1
I0620 16:15:55.522356 17722 net.cpp:91] Creating Layer sc_c_1_1
I0620 16:15:55.522366 17722 net.cpp:425] sc_c_1_1 <- bn_c_1_1
I0620 16:15:55.522373 17722 net.cpp:399] sc_c_1_1 -> sc_c_1_1
I0620 16:15:55.522441 17722 layer_factory.hpp:77] Creating layer sc_c_1_1
I0620 16:15:55.522624 17722 net.cpp:141] Setting up sc_c_1_1
I0620 16:15:55.522639 17722 net.cpp:148] Top shape: 100 16 32 32 (1638400)
I0620 16:15:55.522644 17722 net.cpp:156] Memory required for data: 676250800
I0620 16:15:55.522655 17722 layer_factory.hpp:77] Creating layer relu_c_1_1
I0620 16:15:55.522666 17722 net.cpp:91] Creating Layer relu_c_1_1
I0620 16:15:55.522675 17722 net.cpp:425] relu_c_1_1 <- sc_c_1_1
I0620 16:15:55.522689 17722 net.cpp:399] relu_c_1_1 -> relu_c_1_1
I0620 16:15:55.523088 17722 net.cpp:141] Setting up relu_c_1_1
I0620 16:15:55.523105 17722 net.cpp:148] Top shape: 100 16 32 32 (1638400)
I0620 16:15:55.523111 17722 net.cpp:156] Memory required for data: 682804400
I0620 16:15:55.523118 17722 layer_factory.hpp:77] Creating layer conv_c_1_1
I0620 16:15:55.523133 17722 net.cpp:91] Creating Layer conv_c_1_1
I0620 16:15:55.523140 17722 net.cpp:425] conv_c_1_1 <- relu_c_1_1
I0620 16:15:55.523152 17722 net.cpp:399] conv_c_1_1 -> conv_c_1_1
I0620 16:15:55.524621 17722 net.cpp:141] Setting up conv_c_1_1
I0620 16:15:55.524639 17722 net.cpp:148] Top shape: 100 64 32 32 (6553600)
I0620 16:15:55.524646 17722 net.cpp:156] Memory required for data: 709018800
I0620 16:15:55.524657 17722 layer_factory.hpp:77] Creating layer bn_c_1_2
I0620 16:15:55.524667 17722 net.cpp:91] Creating Layer bn_c_1_2
I0620 16:15:55.524672 17722 net.cpp:425] bn_c_1_2 <- conv_c_1_1
I0620 16:15:55.524684 17722 net.cpp:399] bn_c_1_2 -> bn_c_1_2
I0620 16:15:55.525012 17722 net.cpp:141] Setting up bn_c_1_2
I0620 16:15:55.525027 17722 net.cpp:148] Top shape: 100 64 32 32 (6553600)
I0620 16:15:55.525032 17722 net.cpp:156] Memory required for data: 735233200
I0620 16:15:55.525043 17722 layer_factory.hpp:77] Creating layer sc_c_1_2
I0620 16:15:55.525071 17722 net.cpp:91] Creating Layer sc_c_1_2
I0620 16:15:55.525079 17722 net.cpp:425] sc_c_1_2 <- bn_c_1_2
I0620 16:15:55.525089 17722 net.cpp:399] sc_c_1_2 -> sc_c_1_2
I0620 16:15:55.525157 17722 layer_factory.hpp:77] Creating layer sc_c_1_2
I0620 16:15:55.525341 17722 net.cpp:141] Setting up sc_c_1_2
I0620 16:15:55.525354 17722 net.cpp:148] Top shape: 100 64 32 32 (6553600)
I0620 16:15:55.525359 17722 net.cpp:156] Memory required for data: 761447600
I0620 16:15:55.525369 17722 layer_factory.hpp:77] Creating layer relu_c_1_2
I0620 16:15:55.525382 17722 net.cpp:91] Creating Layer relu_c_1_2
I0620 16:15:55.525391 17722 net.cpp:425] relu_c_1_2 <- sc_c_1_2
I0620 16:15:55.525401 17722 net.cpp:399] relu_c_1_2 -> relu_c_1_2
I0620 16:15:55.525779 17722 net.cpp:141] Setting up relu_c_1_2
I0620 16:15:55.525796 17722 net.cpp:148] Top shape: 100 64 32 32 (6553600)
I0620 16:15:55.525802 17722 net.cpp:156] Memory required for data: 787662000
I0620 16:15:55.525809 17722 layer_factory.hpp:77] Creating layer conv_c_1_2
I0620 16:15:55.525825 17722 net.cpp:91] Creating Layer conv_c_1_2
I0620 16:15:55.525832 17722 net.cpp:425] conv_c_1_2 <- relu_c_1_2
I0620 16:15:55.525842 17722 net.cpp:399] conv_c_1_2 -> conv_c_1_2
I0620 16:15:55.528488 17722 net.cpp:141] Setting up conv_c_1_2
I0620 16:15:55.528506 17722 net.cpp:148] Top shape: 100 64 32 32 (6553600)
I0620 16:15:55.528513 17722 net.cpp:156] Memory required for data: 813876400
I0620 16:15:55.528523 17722 layer_factory.hpp:77] Creating layer res_c
I0620 16:15:55.528539 17722 net.cpp:91] Creating Layer res_c
I0620 16:15:55.528548 17722 net.cpp:425] res_c <- conv0_conv0_0_split_5
I0620 16:15:55.528559 17722 net.cpp:399] res_c -> res_c
I0620 16:15:55.529916 17722 net.cpp:141] Setting up res_c
I0620 16:15:55.529934 17722 net.cpp:148] Top shape: 100 64 32 32 (6553600)
I0620 16:15:55.529940 17722 net.cpp:156] Memory required for data: 840090800
I0620 16:15:55.529950 17722 layer_factory.hpp:77] Creating layer elt_c_1
I0620 16:15:55.529959 17722 net.cpp:91] Creating Layer elt_c_1
I0620 16:15:55.529966 17722 net.cpp:425] elt_c_1 <- res_c
I0620 16:15:55.529973 17722 net.cpp:425] elt_c_1 <- conv_c_1_2
I0620 16:15:55.529984 17722 net.cpp:399] elt_c_1 -> elt_c_1
I0620 16:15:55.530030 17722 net.cpp:141] Setting up elt_c_1
I0620 16:15:55.530047 17722 net.cpp:148] Top shape: 100 64 32 32 (6553600)
I0620 16:15:55.530057 17722 net.cpp:156] Memory required for data: 866305200
…
I0620 16:15:55.536291 17722 layer_factory.hpp:77] Creating layer relu_d_1_2
I0620 16:15:55.536300 17722 net.cpp:91] Creating Layer relu_d_1_2
I0620 16:15:55.536308 17722 net.cpp:425] relu_d_1_2 <- sc_d_1_2
I0620 16:15:55.536319 17722 net.cpp:399] relu_d_1_2 -> relu_d_1_2
I0620 16:15:55.536561 17722 net.cpp:141] Setting up relu_d_1_2
I0620 16:15:55.536576 17722 net.cpp:148] Top shape: 100 128 16 16 (3276800)
I0620 16:15:55.536581 17722 net.cpp:156] Memory required for data: 1102234800
I0620 16:15:55.536587 17722 layer_factory.hpp:77] Creating layer conv_d_1_2
I0620 16:15:55.536602 17722 net.cpp:91] Creating Layer conv_d_1_2
I0620 16:15:55.536609 17722 net.cpp:425] conv_d_1_2 <- relu_d_1_2
I0620 16:15:55.536623 17722 net.cpp:399] conv_d_1_2 -> conv_d_1_2
I0620 16:15:55.542629 17722 net.cpp:141] Setting up conv_d_1_2
I0620 16:15:55.542649 17722 net.cpp:148] Top shape: 100 128 16 16 (3276800)
I0620 16:15:55.542656 17722 net.cpp:156] Memory required for data: 1115342000
I0620 16:15:55.542666 17722 layer_factory.hpp:77] Creating layer res_d
I0620 16:15:55.542690 17722 net.cpp:91] Creating Layer res_d
I0620 16:15:55.542698 17722 net.cpp:425] res_d <- elt_a_1_elt_a_1_0_split_1
I0620 16:15:55.542708 17722 net.cpp:399] res_d -> res_d
I0620 16:15:55.544302 17722 net.cpp:141] Setting up res_d
I0620 16:15:55.544322 17722 net.cpp:148] Top shape: 100 128 16 16 (3276800)
I0620 16:15:55.544327 17722 net.cpp:156] Memory required for data: 1128449200
I0620 16:15:55.544350 17722 layer_factory.hpp:77] Creating layer elt_d_1
I0620 16:15:55.544360 17722 net.cpp:91] Creating Layer elt_d_1
I0620 16:15:55.544368 17722 net.cpp:425] elt_d_1 <- res_d
I0620 16:15:55.544404 17722 net.cpp:425] elt_d_1 <- conv_d_1_2
I0620 16:15:55.544416 17722 net.cpp:399] elt_d_1 -> elt_d_1
I0620 16:15:55.544457 17722 net.cpp:141] Setting up elt_d_1
I0620 16:15:55.544471 17722 net.cpp:148] Top shape: 100 128 16 16 (3276800)
I0620 16:15:55.544477 17722 net.cpp:156] Memory required for data: 1141556400
I0620 16:15:55.544483 17722 layer_factory.hpp:77] Creating layer bn_f_1_1
I0620 16:15:55.544494 17722 net.cpp:91] Creating Layer bn_f_1_1
I0620 16:15:55.544502 17722 net.cpp:425] bn_f_1_1 <- elt_b_1_elt_b_1_0_split_0
I0620 16:15:55.544512 17722 net.cpp:399] bn_f_1_1 -> bn_f_1_1
I0620 16:15:55.544836 17722 net.cpp:141] Setting up bn_f_1_1
I0620 16:15:55.544849 17722 net.cpp:148] Top shape: 100 64 32 32 (6553600)
I0620 16:15:55.544855 17722 net.cpp:156] Memory required for data: 1167770800
I0620 16:15:55.544867 17722 layer_factory.hpp:77] Creating layer sc_f_1_1
I0620 16:15:55.544878 17722 net.cpp:91] Creating Layer sc_f_1_1
I0620 16:15:55.544885 17722 net.cpp:425] sc_f_1_1 <- bn_f_1_1
I0620 16:15:55.544893 17722 net.cpp:399] sc_f_1_1 -> sc_f_1_1
I0620 16:15:55.544975 17722 layer_factory.hpp:77] Creating layer sc_f_1_1
I0620 16:15:55.545163 17722 net.cpp:141] Setting up sc_f_1_1
I0620 16:15:55.545181 17722 net.cpp:148] Top shape: 100 64 32 32 (6553600)
I0620 16:15:55.545188 17722 net.cpp:156] Memory required for data: 1193985200
I0620 16:15:55.545198 17722 layer_factory.hpp:77] Creating layer relu_f_1_1
I0620 16:15:55.545207 17722 net.cpp:91] Creating Layer relu_f_1_1
I0620 16:15:55.545212 17722 net.cpp:425] relu_f_1_1 <- sc_f_1_1
I0620 16:15:55.545223 17722 net.cpp:399] relu_f_1_1 -> relu_f_1_1
I0620 16:15:55.545601 17722 net.cpp:141] Setting up relu_f_1_1
I0620 16:15:55.545619 17722 net.cpp:148] Top shape: 100 64 32 32 (6553600)
I0620 16:15:55.545624 17722 net.cpp:156] Memory required for data: 1220199600
I0620 16:15:55.545631 17722 layer_factory.hpp:77] Creating layer conv_f_1_1
I0620 16:15:55.545645 17722 net.cpp:91] Creating Layer conv_f_1_1
I0620 16:15:55.545653 17722 net.cpp:425] conv_f_1_1 <- relu_f_1_1
I0620 16:15:55.545665 17722 net.cpp:399] conv_f_1_1 -> conv_f_1_1
I0620 16:15:55.549811 17722 net.cpp:141] Setting up conv_f_1_1
I0620 16:15:55.549830 17722 net.cpp:148] Top shape: 100 128 16 16 (3276800)
I0620 16:15:55.549836 17722 net.cpp:156] Memory required for data: 1233306800
I0620 16:15:55.549847 17722 layer_factory.hpp:77] Creating layer bn_f_1_2
I0620 16:15:55.549860 17722 net.cpp:91] Creating Layer bn_f_1_2
I0620 16:15:55.549866 17722 net.cpp:425] bn_f_1_2 <- conv_f_1_1
I0620 16:15:55.549878 17722 net.cpp:399] bn_f_1_2 -> bn_f_1_2
I0620 16:15:55.550199 17722 net.cpp:141] Setting up bn_f_1_2
I0620 16:15:55.550214 17722 net.cpp:148] Top shape: 100 128 16 16 (3276800)
I0620 16:15:55.550220 17722 net.cpp:156] Memory required for data: 1246414000
I0620 16:15:55.550230 17722 layer_factory.hpp:77] Creating layer sc_f_1_2
I0620 16:15:55.550242 17722 net.cpp:91] Creating Layer sc_f_1_2
I0620 16:15:55.550249 17722 net.cpp:425] sc_f_1_2 <- bn_f_1_2
I0620 16:15:55.550258 17722 net.cpp:399] sc_f_1_2 -> sc_f_1_2
I0620 16:15:55.550328 17722 layer_factory.hpp:77] Creating layer sc_f_1_2
I0620 16:15:55.550506 17722 net.cpp:141] Setting up sc_f_1_2
I0620 16:15:55.550520 17722 net.cpp:148] Top shape: 100 128 16 16 (3276800)
I0620 16:15:55.550526 17722 net.cpp:156] Memory required for data: 1259521200
I0620 16:15:55.550535 17722 layer_factory.hpp:77] Creating layer relu_f_1_2
I0620 16:15:55.550544 17722 net.cpp:91] Creating Layer relu_f_1_2
I0620 16:15:55.550550 17722 net.cpp:425] relu_f_1_2 <- sc_f_1_2
I0620 16:15:55.550567 17722 net.cpp:399] relu_f_1_2 -> relu_f_1_2
I0620 16:15:55.550957 17722 net.cpp:141] Setting up relu_f_1_2
I0620 16:15:55.550974 17722 net.cpp:148] Top shape: 100 128 16 16 (3276800)
I0620 16:15:55.550981 17722 net.cpp:156] Memory required for data: 1272628400
I0620 16:15:55.550987 17722 layer_factory.hpp:77] Creating layer conv_f_1_2
I0620 16:15:55.551002 17722 net.cpp:91] Creating Layer conv_f_1_2
I0620 16:15:55.551009 17722 net.cpp:425] conv_f_1_2 <- relu_f_1_2
I0620 16:15:55.551038 17722 net.cpp:399] conv_f_1_2 -> conv_f_1_2
I0620 16:15:55.557075 17722 net.cpp:141] Setting up conv_f_1_2
I0620 16:15:55.557093 17722 net.cpp:148] Top shape: 100 128 16 16 (3276800)
I0620 16:15:55.557101 17722 net.cpp:156] Memory required for data: 1285735600
I0620 16:15:55.557111 17722 layer_factory.hpp:77] Creating layer res_f
I0620 16:15:55.557126 17722 net.cpp:91] Creating Layer res_f
I0620 16:15:55.557133 17722 net.cpp:425] res_f <- elt_b_1_elt_b_1_0_split_1
I0620 16:15:55.557147 17722 net.cpp:399] res_f -> res_f
I0620 16:15:55.558750 17722 net.cpp:141] Setting up res_f
I0620 16:15:55.558769 17722 net.cpp:148] Top shape: 100 128 16 16 (3276800)
I0620 16:15:55.558775 17722 net.cpp:156] Memory required for data: 1298842800
I0620 16:15:55.558785 17722 layer_factory.hpp:77] Creating layer elt_f_1
I0620 16:15:55.558797 17722 net.cpp:91] Creating Layer elt_f_1
I0620 16:15:55.558805 17722 net.cpp:425] elt_f_1 <- res_f
I0620 16:15:55.558814 17722 net.cpp:425] elt_f_1 <- conv_f_1_2
I0620 16:15:55.558821 17722 net.cpp:399] elt_f_1 -> elt_f_1
I0620 16:15:55.558867 17722 net.cpp:141] Setting up elt_f_1
I0620 16:15:55.558881 17722 net.cpp:148] Top shape: 100 128 16 16 (3276800)
I0620 16:15:55.558887 17722 net.cpp:156] Memory required for data: 1311950000
I0620 16:15:55.558893 17722 layer_factory.hpp:77] Creating layer bn_g_1_1
I0620 16:15:55.558902 17722 net.cpp:91] Creating Layer bn_g_1_1
I0620 16:15:55.558908 17722 net.cpp:425] bn_g_1_1 <- elt_b_1_elt_b_1_0_split_2
I0620 16:15:55.558920 17722 net.cpp:399] bn_g_1_1 -> bn_g_1_1
I0620 16:15:55.559250 17722 net.cpp:141] Setting up bn_g_1_1
I0620 16:15:55.559264 17722 net.cpp:148] Top shape: 100 64 32 32 (6553600)
I0620 16:15:55.559270 17722 net.cpp:156] Memory required for data: 1338164400
I0620 16:15:55.559281 17722 layer_factory.hpp:77] Creating layer sc_g_1_1
I0620 16:15:55.559293 17722 net.cpp:91] Creating Layer sc_g_1_1
I0620 16:15:55.559300 17722 net.cpp:425] sc_g_1_1 <- bn_g_1_1
I0620 16:15:55.559309 17722 net.cpp:399] sc_g_1_1 -> sc_g_1_1
I0620 16:15:55.559378 17722 layer_factory.hpp:77] Creating layer sc_g_1_1
I0620 16:15:55.559571 17722 net.cpp:141] Setting up sc_g_1_1
I0620 16:15:55.559586 17722 net.cpp:148] Top shape: 100 64 32 32 (6553600)
I0620 16:15:55.559590 17722 net.cpp:156] Memory required for data: 1364378800
I0620 16:15:55.559600 17722 layer_factory.hpp:77] Creating layer relu_g_1_1
I0620 16:15:55.559612 17722 net.cpp:91] Creating Layer relu_g_1_1
I0620 16:15:55.559619 17722 net.cpp:425] relu_g_1_1 <- sc_g_1_1
I0620 16:15:55.559628 17722 net.cpp:399] relu_g_1_1 -> relu_g_1_1
I0620 16:15:55.560010 17722 net.cpp:141] Setting up relu_g_1_1
I0620 16:15:55.560027 17722 net.cpp:148] Top shape: 100 64 32 32 (6553600)
I0620 16:15:55.560034 17722 net.cpp:156] Memory required for data: 1390593200
I0620 16:15:55.560040 17722 layer_factory.hpp:77] Creating layer conv_g_1_1
I0620 16:15:55.560055 17722 net.cpp:91] Creating Layer conv_g_1_1
I0620 16:15:55.560062 17722 net.cpp:425] conv_g_1_1 <- relu_g_1_1
I0620 16:15:55.560075 17722 net.cpp:399] conv_g_1_1 -> conv_g_1_1
I0620 16:15:55.564368 17722 net.cpp:141] Setting up conv_g_1_1
I0620 16:15:55.564390 17722 net.cpp:148] Top shape: 100 128 16 16 (3276800)
I0620 16:15:55.564398 17722 net.cpp:156] Memory required for data: 1403700400
I0620 16:15:55.564407 17722 layer_factory.hpp:77] Creating layer bn_g_1_2
I0620 16:15:55.564419 17722 net.cpp:91] Creating Layer bn_g_1_2
I0620 16:15:55.564426 17722 net.cpp:425] bn_g_1_2 <- conv_g_1_1
I0620 16:15:55.564436 17722 net.cpp:399] bn_g_1_2 -> bn_g_1_2
I0620 16:15:55.564757 17722 net.cpp:141] Setting up bn_g_1_2
I0620 16:15:55.564771 17722 net.cpp:148] Top shape: 100 128 16 16 (3276800)
I0620 16:15:55.564777 17722 net.cpp:156] Memory required for data: 1416807600
I0620 16:15:55.564788 17722 layer_factory.hpp:77] Creating layer sc_g_1_2
I0620 16:15:55.564797 17722 net.cpp:91] Creating Layer sc_g_1_2
I0620 16:15:55.564805 17722 net.cpp:425] sc_g_1_2 <- bn_g_1_2
I0620 16:15:55.564812 17722 net.cpp:399] sc_g_1_2 -> sc_g_1_2
I0620 16:15:55.564883 17722 layer_factory.hpp:77] Creating layer sc_g_1_2
I0620 16:15:55.565081 17722 net.cpp:141] Setting up sc_g_1_2
I0620 16:15:55.565096 17722 net.cpp:148] Top shape: 100 128 16 16 (3276800)
I0620 16:15:55.565101 17722 net.cpp:156] Memory required for data: 1429914800
I0620 16:15:55.565111 17722 layer_factory.hpp:77] Creating layer relu_g_1_2
I0620 16:15:55.565121 17722 net.cpp:91] Creating Layer relu_g_1_2
I0620 16:15:55.565129 17722 net.cpp:425] relu_g_1_2 <- sc_g_1_2
I0620 16:15:55.565137 17722 net.cpp:399] relu_g_1_2 -> relu_g_1_2
I0620 16:15:55.565387 17722 net.cpp:141] Setting up relu_g_1_2
I0620 16:15:55.565402 17722 net.cpp:148] Top shape: 100 128 16 16 (3276800)
I0620 16:15:55.565408 17722 net.cpp:156] Memory required for data: 1443022000
I0620 16:15:55.565414 17722 layer_factory.hpp:77] Creating layer conv_g_1_2
I0620 16:15:55.565434 17722 net.cpp:91] Creating Layer conv_g_1_2
I0620 16:15:55.565443 17722 net.cpp:425] conv_g_1_2 <- relu_g_1_2
I0620 16:15:55.565457 17722 net.cpp:399] conv_g_1_2 -> conv_g_1_2
I0620 16:15:55.571518 17722 net.cpp:141] Setting up conv_g_1_2
I0620 16:15:55.571537 17722 net.cpp:148] Top shape: 100 128 16 16 (3276800)
I0620 16:15:55.571543 17722 net.cpp:156] Memory required for data: 1456129200
I0620 16:15:55.571554 17722 layer_factory.hpp:77] Creating layer res_g
I0620 16:15:55.571571 17722 net.cpp:91] Creating Layer res_g
I0620 16:15:55.571579 17722 net.cpp:425] res_g <- elt_b_1_elt_b_1_0_split_3
I0620 16:15:55.571589 17722 net.cpp:399] res_g -> res_g
I0620 16:15:55.573691 17722 net.cpp:141] Setting up res_g
I0620 16:15:55.573710 17722 net.cpp:148] Top shape: 100 128 16 16 (3276800)
I0620 16:15:55.573717 17722 net.cpp:156] Memory required for data: 1469236400
I0620 16:15:55.573727 17722 layer_factory.hpp:77] Creating layer elt_g_1
I0620 16:15:55.573739 17722 net.cpp:91] Creating Layer elt_g_1
I0620 16:15:55.573745 17722 net.cpp:425] elt_g_1 <- res_g
I0620 16:15:55.573753 17722 net.cpp:425] elt_g_1 <- conv_g_1_2
I0620 16:15:55.573762 17722 net.cpp:399] elt_g_1 -> elt_g_1
I0620 16:15:55.573792 17722 net.cpp:141] Setting up elt_g_1
I0620 16:15:55.573804 17722 net.cpp:148] Top shape: 100 128 16 16 (3276800)
I0620 16:15:55.573810 17722 net.cpp:156] Memory required for data: 1482343600
I0620 16:15:55.573817 17722 layer_factory.hpp:77] Creating layer bn_h_1_1
I0620 16:15:55.573827 17722 net.cpp:91] Creating Layer bn_h_1_1
I0620 16:15:55.573833 17722 net.cpp:425] bn_h_1_1 <- elt_c_1_elt_c_1_0_split_0
I0620 16:15:55.573843 17722 net.cpp:399] bn_h_1_1 -> bn_h_1_1
I0620 16:15:55.574069 17722 net.cpp:141] Setting up bn_h_1_1
I0620 16:15:55.574084 17722 net.cpp:148] Top shape: 100 64 32 32 (6553600)
I0620 16:15:55.574090 17722 net.cpp:156] Memory required for data: 1508558000
I0620 16:15:55.574100 17722 layer_factory.hpp:77] Creating layer sc_h_1_1
I0620 16:15:55.574110 17722 net.cpp:91] Creating Layer sc_h_1_1
I0620 16:15:55.574116 17722 net.cpp:425] sc_h_1_1 <- bn_h_1_1
I0620 16:15:55.574126 17722 net.cpp:399] sc_h_1_1 -> sc_h_1_1
I0620 16:15:55.574177 17722 layer_factory.hpp:77] Creating layer sc_h_1_1
I0620 16:15:55.574327 17722 net.cpp:141] Setting up sc_h_1_1
I0620 16:15:55.574342 17722 net.cpp:148] Top shape: 100 64 32 32 (6553600)
I0620 16:15:55.574348 17722 net.cpp:156] Memory required for data: 1534772400
I0620 16:15:55.574358 17722 layer_factory.hpp:77] Creating layer relu_h_1_1
I0620 16:15:55.574369 17722 net.cpp:91] Creating Layer relu_h_1_1
I0620 16:15:55.574378 17722 net.cpp:425] relu_h_1_1 <- sc_h_1_1
I0620 16:15:55.574385 17722 net.cpp:399] relu_h_1_1 -> relu_h_1_1
I0620 16:15:55.574767 17722 net.cpp:141] Setting up relu_h_1_1
I0620 16:15:55.574785 17722 net.cpp:148] Top shape: 100 64 32 32 (6553600)
I0620 16:15:55.574791 17722 net.cpp:156] Memory required for data: 1560986800
I0620 16:15:55.574797 17722 layer_factory.hpp:77] Creating layer conv_h_1_1
I0620 16:15:55.574815 17722 net.cpp:91] Creating Layer conv_h_1_1
I0620 16:15:55.574822 17722 net.cpp:425] conv_h_1_1 <- relu_h_1_1
I0620 16:15:55.574832 17722 net.cpp:399] conv_h_1_1 -> conv_h_1_1
I0620 16:15:55.578845 17722 net.cpp:141] Setting up conv_h_1_1
I0620 16:15:55.578879 17722 net.cpp:148] Top shape: 100 128 16 16 (3276800)
I0620 16:15:55.578887 17722 net.cpp:156] Memory required for data: 1574094000
I0620 16:15:55.578897 17722 layer_factory.hpp:77] Creating layer bn_h_1_2
I0620 16:15:55.578910 17722 net.cpp:91] Creating Layer bn_h_1_2
I0620 16:15:55.578917 17722 net.cpp:425] bn_h_1_2 <- conv_h_1_1
I0620 16:15:55.578927 17722 net.cpp:399] bn_h_1_2 -> bn_h_1_2
I0620 16:15:55.579144 17722 net.cpp:141] Setting up bn_h_1_2
I0620 16:15:55.579159 17722 net.cpp:148] Top shape: 100 128 16 16 (3276800)
I0620 16:15:55.579165 17722 net.cpp:156] Memory required for data: 1587201200
I0620 16:15:55.579176 17722 layer_factory.hpp:77] Creating layer sc_h_1_2
I0620 16:15:55.579188 17722 net.cpp:91] Creating Layer sc_h_1_2
I0620 16:15:55.579200 17722 net.cpp:425] sc_h_1_2 <- bn_h_1_2
I0620 16:15:55.579207 17722 net.cpp:399] sc_h_1_2 -> sc_h_1_2
I0620 16:15:55.579264 17722 layer_factory.hpp:77] Creating layer sc_h_1_2
I0620 16:15:55.579383 17722 net.cpp:141] Setting up sc_h_1_2
I0620 16:15:55.579397 17722 net.cpp:148] Top shape: 100 128 16 16 (3276800)
I0620 16:15:55.579402 17722 net.cpp:156] Memory required for data: 1600308400
I0620 16:15:55.579412 17722 layer_factory.hpp:77] Creating layer relu_h_1_2
I0620 16:15:55.579421 17722 net.cpp:91] Creating Layer relu_h_1_2
I0620 16:15:55.579428 17722 net.cpp:425] relu_h_1_2 <- sc_h_1_2
I0620 16:15:55.579438 17722 net.cpp:399] relu_h_1_2 -> relu_h_1_2
I0620 16:15:55.579815 17722 net.cpp:141] Setting up relu_h_1_2
I0620 16:15:55.579833 17722 net.cpp:148] Top shape: 100 128 16 16 (3276800)
I0620 16:15:55.579839 17722 net.cpp:156] Memory required for data: 1613415600
I0620 16:15:55.579845 17722 layer_factory.hpp:77] Creating layer conv_h_1_2
I0620 16:15:55.579860 17722 net.cpp:91] Creating Layer conv_h_1_2
I0620 16:15:55.579869 17722 net.cpp:425] conv_h_1_2 <- relu_h_1_2
I0620 16:15:55.579880 17722 net.cpp:399] conv_h_1_2 -> conv_h_1_2
I0620 16:15:55.585789 17722 net.cpp:141] Setting up conv_h_1_2
I0620 16:15:55.585808 17722 net.cpp:148] Top shape: 100 128 16 16 (3276800)
I0620 16:15:55.585815 17722 net.cpp:156] Memory required for data: 1626522800
I0620 16:15:55.585825 17722 layer_factory.hpp:77] Creating layer res_h
I0620 16:15:55.585842 17722 net.cpp:91] Creating Layer res_h
I0620 16:15:55.585850 17722 net.cpp:425] res_h <- elt_c_1_elt_c_1_0_split_1
I0620 16:15:55.585860 17722 net.cpp:399] res_h -> res_h
I0620 16:15:55.587218 17722 net.cpp:141] Setting up res_h
I0620 16:15:55.587236 17722 net.cpp:148] Top shape: 100 128 16 16 (3276800)
I0620 16:15:55.587244 17722 net.cpp:156] Memory required for data: 1639630000
I0620 16:15:55.587254 17722 layer_factory.hpp:77] Creating layer elt_h_1
I0620 16:15:55.587262 17722 net.cpp:91] Creating Layer elt_h_1
I0620 16:15:55.587270 17722 net.cpp:425] elt_h_1 <- res_h
I0620 16:15:55.587277 17722 net.cpp:425] elt_h_1 <- conv_h_1_2
I0620 16:15:55.587290 17722 net.cpp:399] elt_h_1 -> elt_h_1
I0620 16:15:55.587317 17722 net.cpp:141] Setting up elt_h_1
I0620 16:15:55.587329 17722 net.cpp:148] Top shape: 100 128 16 16 (3276800)
I0620 16:15:55.587335 17722 net.cpp:156] Memory required for data: 1652737200
I0620 16:15:55.587342 17722 layer_factory.hpp:77] Creating layer bn_i_1_1
I0620 16:15:55.587352 17722 net.cpp:91] Creating Layer bn_i_1_1
I0620 16:15:55.587362 17722 net.cpp:425] bn_i_1_1 <- elt_c_1_elt_c_1_0_split_2
I0620 16:15:55.587370 17722 net.cpp:399] bn_i_1_1 -> bn_i_1_1
I0620 16:15:55.587612 17722 net.cpp:141] Setting up bn_i_1_1
I0620 16:15:55.587627 17722 net.cpp:148] Top shape: 100 64 32 32 (6553600)
I0620 16:15:55.587632 17722 net.cpp:156] Memory required for data: 1678951600
I0620 16:15:55.587644 17722 layer_factory.hpp:77] Creating layer sc_i_1_1
I0620 16:15:55.587656 17722 net.cpp:91] Creating Layer sc_i_1_1
I0620 16:15:55.587663 17722 net.cpp:425] sc_i_1_1 <- bn_i_1_1
I0620 16:15:55.587672 17722 net.cpp:399] sc_i_1_1 -> sc_i_1_1
I0620 16:15:55.587728 17722 layer_factory.hpp:77] Creating layer sc_i_1_1
I0620 16:15:55.587884 17722 net.cpp:141] Setting up sc_i_1_1
I0620 16:15:55.587899 17722 net.cpp:148] Top shape: 100 64 32 32 (6553600)
I0620 16:15:55.587921 17722 net.cpp:156] Memory required for data: 1705166000
I0620 16:15:55.587932 17722 layer_factory.hpp:77] Creating layer relu_i_1_1
I0620 16:15:55.587940 17722 net.cpp:91] Creating Layer relu_i_1_1
I0620 16:15:55.587947 17722 net.cpp:425] relu_i_1_1 <- sc_i_1_1
I0620 16:15:55.587959 17722 net.cpp:399] relu_i_1_1 -> relu_i_1_1
I0620 16:15:55.588363 17722 net.cpp:141] Setting up relu_i_1_1
I0620 16:15:55.588381 17722 net.cpp:148] Top shape: 100 64 32 32 (6553600)
I0620 16:15:55.588387 17722 net.cpp:156] Memory required for data: 1731380400
I0620 16:15:55.588393 17722 layer_factory.hpp:77] Creating layer conv_i_1_1
I0620 16:15:55.588407 17722 net.cpp:91] Creating Layer conv_i_1_1
I0620 16:15:55.588415 17722 net.cpp:425] conv_i_1_1 <- relu_i_1_1
I0620 16:15:55.588428 17722 net.cpp:399] conv_i_1_1 -> conv_i_1_1
I0620 16:15:55.592546 17722 net.cpp:141] Setting up conv_i_1_1
I0620 16:15:55.592566 17722 net.cpp:148] Top shape: 100 128 16 16 (3276800)
I0620 16:15:55.592572 17722 net.cpp:156] Memory required for data: 1744487600
I0620 16:15:55.592582 17722 layer_factory.hpp:77] Creating layer bn_i_1_2
I0620 16:15:55.592594 17722 net.cpp:91] Creating Layer bn_i_1_2
I0620 16:15:55.592603 17722 net.cpp:425] bn_i_1_2 <- conv_i_1_1
I0620 16:15:55.592613 17722 net.cpp:399] bn_i_1_2 -> bn_i_1_2
I0620 16:15:55.592823 17722 net.cpp:141] Setting up bn_i_1_2
I0620 16:15:55.592836 17722 net.cpp:148] Top shape: 100 128 16 16 (3276800)
I0620 16:15:55.592842 17722 net.cpp:156] Memory required for data: 1757594800
I0620 16:15:55.592856 17722 layer_factory.hpp:77] Creating layer sc_i_1_2
I0620 16:15:55.592869 17722 net.cpp:91] Creating Layer sc_i_1_2
I0620 16:15:55.592880 17722 net.cpp:425] sc_i_1_2 <- bn_i_1_2
I0620 16:15:55.592890 17722 net.cpp:399] sc_i_1_2 -> sc_i_1_2
I0620 16:15:55.592946 17722 layer_factory.hpp:77] Creating layer sc_i_1_2
I0620 16:15:55.593065 17722 net.cpp:141] Setting up sc_i_1_2
I0620 16:15:55.593078 17722 net.cpp:148] Top shape: 100 128 16 16 (3276800)
I0620 16:15:55.593083 17722 net.cpp:156] Memory required for data: 1770702000
I0620 16:15:55.593093 17722 layer_factory.hpp:77] Creating layer relu_i_1_2
I0620 16:15:55.593104 17722 net.cpp:91] Creating Layer relu_i_1_2
I0620 16:15:55.593112 17722 net.cpp:425] relu_i_1_2 <- sc_i_1_2
I0620 16:15:55.593121 17722 net.cpp:399] relu_i_1_2 -> relu_i_1_2
I0620 16:15:55.593367 17722 net.cpp:141] Setting up relu_i_1_2
I0620 16:15:55.593385 17722 net.cpp:148] Top shape: 100 128 16 16 (3276800)
I0620 16:15:55.593391 17722 net.cpp:156] Memory required for data: 1783809200
I0620 16:15:55.593399 17722 layer_factory.hpp:77] Creating layer conv_i_1_2
I0620 16:15:55.593412 17722 net.cpp:91] Creating Layer conv_i_1_2
I0620 16:15:55.593420 17722 net.cpp:425] conv_i_1_2 <- relu_i_1_2
I0620 16:15:55.593430 17722 net.cpp:399] conv_i_1_2 -> conv_i_1_2
I0620 16:15:55.599484 17722 net.cpp:141] Setting up conv_i_1_2
I0620 16:15:55.599503 17722 net.cpp:148] Top shape: 100 128 16 16 (3276800)
I0620 16:15:55.599510 17722 net.cpp:156] Memory required for data: 1796916400
I0620 16:15:55.599520 17722 layer_factory.hpp:77] Creating layer res_i
I0620 16:15:55.599539 17722 net.cpp:91] Creating Layer res_i
I0620 16:15:55.599547 17722 net.cpp:425] res_i <- elt_c_1_elt_c_1_0_split_3
I0620 16:15:55.599557 17722 net.cpp:399] res_i -> res_i
I0620 16:15:55.601055 17722 net.cpp:141] Setting up res_i
I0620 16:15:55.601074 17722 net.cpp:148] Top shape: 100 128 16 16 (3276800)
I0620 16:15:55.601080 17722 net.cpp:156] Memory required for data: 1810023600
I0620 16:15:55.601109 17722 layer_factory.hpp:77] Creating layer elt_i_1
I0620 16:15:55.601119 17722 net.cpp:91] Creating Layer elt_i_1
I0620 16:15:55.601126 17722 net.cpp:425] elt_i_1 <- res_i
I0620 16:15:55.601135 17722 net.cpp:425] elt_i_1 <- conv_i_1_2
I0620 16:15:55.601145 17722 net.cpp:399] elt_i_1 -> elt_i_1
I0620 16:15:55.601176 17722 net.cpp:141] Setting up elt_i_1
I0620 16:15:55.601188 17722 net.cpp:148] Top shape: 100 128 16 16 (3276800)
I0620 16:15:55.601193 17722 net.cpp:156] Memory required for data: 1823130800
I0620 16:15:55.601217 17722 layer_factory.hpp:77] Creating layer elt_d_f
I0620 16:15:55.601228 17722 net.cpp:91] Creating Layer elt_d_f
I0620 16:15:55.601238 17722 net.cpp:425] elt_d_f <- elt_d_1
I0620 16:15:55.601246 17722 net.cpp:425] elt_d_f <- elt_f_1
I0620 16:15:55.601254 17722 net.cpp:399] elt_d_f -> elt_d_f
I0620 16:15:55.601292 17722 net.cpp:141] Setting up elt_d_f
I0620 16:15:55.601305 17722 net.cpp:148] Top shape: 100 128 16 16 (3276800)
I0620 16:15:55.601311 17722 net.cpp:156] Memory required for data: 1836238000
I0620 16:15:55.601317 17722 layer_factory.hpp:77] Creating layer elt_d_f_elt_d_f_0_split
I0620 16:15:55.601325 17722 net.cpp:91] Creating Layer elt_d_f_elt_d_f_0_split
I0620 16:15:55.601331 17722 net.cpp:425] elt_d_f_elt_d_f_0_split <- elt_d_f
I0620 16:15:55.601341 17722 net.cpp:399] elt_d_f_elt_d_f_0_split -> elt_d_f_elt_d_f_0_split_0
I0620 16:15:55.601353 17722 net.cpp:399] elt_d_f_elt_d_f_0_split -> elt_d_f_elt_d_f_0_split_1
I0620 16:15:55.601399 17722 net.cpp:141] Setting up elt_d_f_elt_d_f_0_split
I0620 16:15:55.601413 17722 net.cpp:148] Top shape: 100 128 16 16 (3276800)
I0620 16:15:55.601423 17722 net.cpp:148] Top shape: 100 128 16 16 (3276800)
I0620 16:15:55.601428 17722 net.cpp:156] Memory required for data: 1862452400
I0620 16:15:55.601433 17722 layer_factory.hpp:77] Creating layer elt_g_i
I0620 16:15:55.601441 17722 net.cpp:91] Creating Layer elt_g_i
I0620 16:15:55.601450 17722 net.cpp:425] elt_g_i <- elt_g_1
I0620 16:15:55.601457 17722 net.cpp:425] elt_g_i <- elt_i_1
I0620 16:15:55.601464 17722 net.cpp:399] elt_g_i -> elt_g_i
I0620 16:15:55.601500 17722 net.cpp:141] Setting up elt_g_i
I0620 16:15:55.601512 17722 net.cpp:148] Top shape: 100 128 16 16 (3276800)
I0620 16:15:55.601518 17722 net.cpp:156] Memory required for data: 1875559600
I0620 16:15:55.601523 17722 layer_factory.hpp:77] Creating layer elt_g_i_elt_g_i_0_split
I0620 16:15:55.601533 17722 net.cpp:91] Creating Layer elt_g_i_elt_g_i_0_split
I0620 16:15:55.601541 17722 net.cpp:425] elt_g_i_elt_g_i_0_split <- elt_g_i
I0620 16:15:55.601547 17722 net.cpp:399] elt_g_i_elt_g_i_0_split -> elt_g_i_elt_g_i_0_split_0
I0620 16:15:55.601557 17722 net.cpp:399] elt_g_i_elt_g_i_0_split -> elt_g_i_elt_g_i_0_split_1
I0620 16:15:55.601603 17722 net.cpp:141] Setting up elt_g_i_elt_g_i_0_split
I0620 16:15:55.601614 17722 net.cpp:148] Top shape: 100 128 16 16 (3276800)
I0620 16:15:55.601621 17722 net.cpp:148] Top shape: 100 128 16 16 (3276800)
I0620 16:15:55.601629 17722 net.cpp:156] Memory required for data: 1901774000
I0620 16:15:55.601635 17722 layer_factory.hpp:77] Creating layer bn_j_1_1
I0620 16:15:55.601645 17722 net.cpp:91] Creating Layer bn_j_1_1
I0620 16:15:55.601655 17722 net.cpp:425] bn_j_1_1 <- elt_d_f_elt_d_f_0_split_0
I0620 16:15:55.601662 17722 net.cpp:399] bn_j_1_1 -> bn_j_1_1
I0620 16:15:55.601866 17722 net.cpp:141] Setting up bn_j_1_1
I0620 16:15:55.601878 17722 net.cpp:148] Top shape: 100 128 16 16 (3276800)
I0620 16:15:55.601886 17722 net.cpp:156] Memory required for data: 1914881200
I0620 16:15:55.601897 17722 layer_factory.hpp:77] Creating layer sc_j_1_1
I0620 16:15:55.601910 17722 net.cpp:91] Creating Layer sc_j_1_1
I0620 16:15:55.601918 17722 net.cpp:425] sc_j_1_1 <- bn_j_1_1
I0620 16:15:55.601927 17722 net.cpp:399] sc_j_1_1 -> sc_j_1_1
I0620 16:15:55.601980 17722 layer_factory.hpp:77] Creating layer sc_j_1_1
I0620 16:15:55.602104 17722 net.cpp:141] Setting up sc_j_1_1
I0620 16:15:55.602118 17722 net.cpp:148] Top shape: 100 128 16 16 (3276800)
I0620 16:15:55.602123 17722 net.cpp:156] Memory required for data: 1927988400
I0620 16:15:55.602133 17722 layer_factory.hpp:77] Creating layer relu_j_1_1
I0620 16:15:55.602144 17722 net.cpp:91] Creating Layer relu_j_1_1
I0620 16:15:55.602151 17722 net.cpp:425] relu_j_1_1 <- sc_j_1_1
I0620 16:15:55.602162 17722 net.cpp:399] relu_j_1_1 -> relu_j_1_1
I0620 16:15:55.602401 17722 net.cpp:141] Setting up relu_j_1_1
I0620 16:15:55.602416 17722 net.cpp:148] Top shape: 100 128 16 16 (3276800)
I0620 16:15:55.602422 17722 net.cpp:156] Memory required for data: 1941095600
I0620 16:15:55.602443 17722 layer_factory.hpp:77] Creating layer conv_j_1_1
I0620 16:15:55.602460 17722 net.cpp:91] Creating Layer conv_j_1_1
I0620 16:15:55.602469 17722 net.cpp:425] conv_j_1_1 <- relu_j_1_1
I0620 16:15:55.602481 17722 net.cpp:399] conv_j_1_1 -> conv_j_1_1
I0620 16:15:55.613755 17722 net.cpp:141] Setting up conv_j_1_1
I0620 16:15:55.613775 17722 net.cpp:148] Top shape: 100 256 8 8 (1638400)
I0620 16:15:55.613781 17722 net.cpp:156] Memory required for data: 1947649200
I0620 16:15:55.613792 17722 layer_factory.hpp:77] Creating layer bn_j_1_2
I0620 16:15:55.613804 17722 net.cpp:91] Creating Layer bn_j_1_2
I0620 16:15:55.613816 17722 net.cpp:425] bn_j_1_2 <- conv_j_1_1
I0620 16:15:55.613828 17722 net.cpp:399] bn_j_1_2 -> bn_j_1_2
I0620 16:15:55.614056 17722 net.cpp:141] Setting up bn_j_1_2
I0620 16:15:55.614071 17722 net.cpp:148] Top shape: 100 256 8 8 (1638400)
I0620 16:15:55.614076 17722 net.cpp:156] Memory required for data: 1954202800
I0620 16:15:55.614089 17722 layer_factory.hpp:77] Creating layer sc_j_1_2
I0620 16:15:55.614104 17722 net.cpp:91] Creating Layer sc_j_1_2
I0620 16:15:55.614111 17722 net.cpp:425] sc_j_1_2 <- bn_j_1_2
I0620 16:15:55.614120 17722 net.cpp:399] sc_j_1_2 -> sc_j_1_2
I0620 16:15:55.614176 17722 layer_factory.hpp:77] Creating layer sc_j_1_2
I0620 16:15:55.614306 17722 net.cpp:141] Setting up sc_j_1_2
I0620 16:15:55.614320 17722 net.cpp:148] Top shape: 100 256 8 8 (1638400)
I0620 16:15:55.614326 17722 net.cpp:156] Memory required for data: 1960756400
I0620 16:15:55.614336 17722 layer_factory.hpp:77] Creating layer relu_j_1_2
I0620 16:15:55.614344 17722 net.cpp:91] Creating Layer relu_j_1_2
I0620 16:15:55.614352 17722 net.cpp:425] relu_j_1_2 <- sc_j_1_2
I0620 16:15:55.614362 17722 net.cpp:399] relu_j_1_2 -> relu_j_1_2
I0620 16:15:55.614750 17722 net.cpp:141] Setting up relu_j_1_2
I0620 16:15:55.614768 17722 net.cpp:148] Top shape: 100 256 8 8 (1638400)
I0620 16:15:55.614774 17722 net.cpp:156] Memory required for data: 1967310000
I0620 16:15:55.614780 17722 layer_factory.hpp:77] Creating layer conv_j_1_2
I0620 16:15:55.614794 17722 net.cpp:91] Creating Layer conv_j_1_2
I0620 16:15:55.614802 17722 net.cpp:425] conv_j_1_2 <- relu_j_1_2
I0620 16:15:55.614815 17722 net.cpp:399] conv_j_1_2 -> conv_j_1_2
I0620 16:15:55.635866 17722 net.cpp:141] Setting up conv_j_1_2
I0620 16:15:55.635885 17722 net.cpp:148] Top shape: 100 256 8 8 (1638400)
I0620 16:15:55.635892 17722 net.cpp:156] Memory required for data: 1973863600
I0620 16:15:55.635902 17722 layer_factory.hpp:77] Creating layer res_j
I0620 16:15:55.635920 17722 net.cpp:91] Creating Layer res_j
I0620 16:15:55.635927 17722 net.cpp:425] res_j <- elt_d_f_elt_d_f_0_split_1
I0620 16:15:55.635937 17722 net.cpp:399] res_j -> res_j
I0620 16:15:55.638095 17722 net.cpp:141] Setting up res_j
I0620 16:15:55.638113 17722 net.cpp:148] Top shape: 100 256 8 8 (1638400)
I0620 16:15:55.638120 17722 net.cpp:156] Memory required for data: 1980417200
I0620 16:15:55.638130 17722 layer_factory.hpp:77] Creating layer elt_j_1
I0620 16:15:55.638142 17722 net.cpp:91] Creating Layer elt_j_1
I0620 16:15:55.638150 17722 net.cpp:425] elt_j_1 <- res_j
I0620 16:15:55.638159 17722 net.cpp:425] elt_j_1 <- conv_j_1_2
I0620 16:15:55.638167 17722 net.cpp:399] elt_j_1 -> elt_j_1
I0620 16:15:55.638205 17722 net.cpp:141] Setting up elt_j_1
I0620 16:15:55.638217 17722 net.cpp:148] Top shape: 100 256 8 8 (1638400)
I0620 16:15:55.638223 17722 net.cpp:156] Memory required for data: 1986970800
I0620 16:15:55.638229 17722 layer_factory.hpp:77] Creating layer bn_e_1_1
I0620 16:15:55.638241 17722 net.cpp:91] Creating Layer bn_e_1_1
I0620 16:15:55.638249 17722 net.cpp:425] bn_e_1_1 <- elt_a_1_elt_a_1_0_split_2
I0620 16:15:55.638258 17722 net.cpp:399] bn_e_1_1 -> bn_e_1_1
I0620 16:15:55.638507 17722 net.cpp:141] Setting up bn_e_1_1
I0620 16:15:55.638521 17722 net.cpp:148] Top shape: 100 64 32 32 (6553600)
I0620 16:15:55.638527 17722 net.cpp:156] Memory required for data: 2013185200
I0620 16:15:55.638538 17722 layer_factory.hpp:77] Creating layer sc_e_1_1
I0620 16:15:55.638548 17722 net.cpp:91] Creating Layer sc_e_1_1
I0620 16:15:55.638574 17722 net.cpp:425] sc_e_1_1 <- bn_e_1_1
I0620 16:15:55.638586 17722 net.cpp:399] sc_e_1_1 -> sc_e_1_1
I0620 16:15:55.638643 17722 layer_factory.hpp:77] Creating layer sc_e_1_1
I0620 16:15:55.638815 17722 net.cpp:141] Setting up sc_e_1_1
I0620 16:15:55.638830 17722 net.cpp:148] Top shape: 100 64 32 32 (6553600)
I0620 16:15:55.638836 17722 net.cpp:156] Memory required for data: 2039399600
I0620 16:15:55.638846 17722 layer_factory.hpp:77] Creating layer relu_e_1_1
I0620 16:15:55.638854 17722 net.cpp:91] Creating Layer relu_e_1_1
I0620 16:15:55.638861 17722 net.cpp:425] relu_e_1_1 <- sc_e_1_1
I0620 16:15:55.638871 17722 net.cpp:399] relu_e_1_1 -> relu_e_1_1
I0620 16:15:55.639252 17722 net.cpp:141] Setting up relu_e_1_1
I0620 16:15:55.639269 17722 net.cpp:148] Top shape: 100 64 32 32 (6553600)
I0620 16:15:55.639276 17722 net.cpp:156] Memory required for data: 2065614000
I0620 16:15:55.639281 17722 layer_factory.hpp:77] Creating layer conv_e_1_1
I0620 16:15:55.639297 17722 net.cpp:91] Creating Layer conv_e_1_1
I0620 16:15:55.639304 17722 net.cpp:425] conv_e_1_1 <- relu_e_1_1
I0620 16:15:55.639317 17722 net.cpp:399] conv_e_1_1 -> conv_e_1_1
I0620 16:15:55.643458 17722 net.cpp:141] Setting up conv_e_1_1
I0620 16:15:55.643477 17722 net.cpp:148] Top shape: 100 128 16 16 (3276800)
I0620 16:15:55.643483 17722 net.cpp:156] Memory required for data: 2078721200
I0620 16:15:55.643493 17722 layer_factory.hpp:77] Creating layer bn_e_1_2
I0620 16:15:55.643507 17722 net.cpp:91] Creating Layer bn_e_1_2
I0620 16:15:55.643513 17722 net.cpp:425] bn_e_1_2 <- conv_e_1_1
I0620 16:15:55.643522 17722 net.cpp:399] bn_e_1_2 -> bn_e_1_2
I0620 16:15:55.643738 17722 net.cpp:141] Setting up bn_e_1_2
I0620 16:15:55.643753 17722 net.cpp:148] Top shape: 100 128 16 16 (3276800)
I0620 16:15:55.643757 17722 net.cpp:156] Memory required for data: 2091828400
I0620 16:15:55.643769 17722 layer_factory.hpp:77] Creating layer sc_e_1_2
I0620 16:15:55.643779 17722 net.cpp:91] Creating Layer sc_e_1_2
I0620 16:15:55.643790 17722 net.cpp:425] sc_e_1_2 <- bn_e_1_2
I0620 16:15:55.643800 17722 net.cpp:399] sc_e_1_2 -> sc_e_1_2
I0620 16:15:55.643856 17722 layer_factory.hpp:77] Creating layer sc_e_1_2
I0620 16:15:55.643978 17722 net.cpp:141] Setting up sc_e_1_2
I0620 16:15:55.643991 17722 net.cpp:148] Top shape: 100 128 16 16 (3276800)
I0620 16:15:55.643997 17722 net.cpp:156] Memory required for data: 2104935600
I0620 16:15:55.644006 17722 layer_factory.hpp:77] Creating layer relu_e_1_2
I0620 16:15:55.644016 17722 net.cpp:91] Creating Layer relu_e_1_2
I0620 16:15:55.644021 17722 net.cpp:425] relu_e_1_2 <- sc_e_1_2
I0620 16:15:55.644032 17722 net.cpp:399] relu_e_1_2 -> relu_e_1_2
I0620 16:15:55.644271 17722 net.cpp:141] Setting up relu_e_1_2
I0620 16:15:55.644287 17722 net.cpp:148] Top shape: 100 128 16 16 (3276800)
I0620 16:15:55.644294 17722 net.cpp:156] Memory required for data: 2118042800
I0620 16:15:55.644299 17722 layer_factory.hpp:77] Creating layer conv_e_1_2
I0620 16:15:55.644315 17722 net.cpp:91] Creating Layer conv_e_1_2
I0620 16:15:55.644321 17722 net.cpp:425] conv_e_1_2 <- relu_e_1_2
I0620 16:15:55.644335 17722 net.cpp:399] conv_e_1_2 -> conv_e_1_2
I0620 16:15:55.650264 17722 net.cpp:141] Setting up conv_e_1_2
I0620 16:15:55.650284 17722 net.cpp:148] Top shape: 100 128 16 16 (3276800)
I0620 16:15:55.650292 17722 net.cpp:156] Memory required for data: 2131150000
I0620 16:15:55.650302 17722 layer_factory.hpp:77] Creating layer res_e
I0620 16:15:55.650318 17722 net.cpp:91] Creating Layer res_e
I0620 16:15:55.650326 17722 net.cpp:425] res_e <- elt_a_1_elt_a_1_0_split_3
I0620 16:15:55.650336 17722 net.cpp:399] res_e -> res_e
I0620 16:15:55.651862 17722 net.cpp:141] Setting up res_e
I0620 16:15:55.651881 17722 net.cpp:148] Top shape: 100 128 16 16 (3276800)
I0620 16:15:55.651887 17722 net.cpp:156] Memory required for data: 2144257200
I0620 16:15:55.651897 17722 layer_factory.hpp:77] Creating layer elt_e_1
I0620 16:15:55.651907 17722 net.cpp:91] Creating Layer elt_e_1
I0620 16:15:55.651914 17722 net.cpp:425] elt_e_1 <- res_e
I0620 16:15:55.651939 17722 net.cpp:425] elt_e_1 <- conv_e_1_2
I0620 16:15:55.651952 17722 net.cpp:399] elt_e_1 -> elt_e_1
I0620 16:15:55.652005 17722 net.cpp:141] Setting up elt_e_1
I0620 16:15:55.652022 17722 net.cpp:148] Top shape: 100 128 16 16 (3276800)
I0620 16:15:55.652030 17722 net.cpp:156] Memory required for data: 2157364400
I0620 16:15:55.652037 17722 layer_factory.hpp:77] Creating layer elt_e_h
I0620 16:15:55.652045 17722 net.cpp:91] Creating Layer elt_e_h
I0620 16:15:55.652056 17722 net.cpp:425] elt_e_h <- elt_e_1
I0620 16:15:55.652063 17722 net.cpp:425] elt_e_h <- elt_h_1
I0620 16:15:55.652072 17722 net.cpp:399] elt_e_h -> elt_e_h
I0620 16:15:55.652110 17722 net.cpp:141] Setting up elt_e_h
I0620 16:15:55.652122 17722 net.cpp:148] Top shape: 100 128 16 16 (3276800)
I0620 16:15:55.652128 17722 net.cpp:156] Memory required for data: 2170471600
I0620 16:15:55.652134 17722 layer_factory.hpp:77] Creating layer elt_e_h_elt_e_h_0_split
I0620 16:15:55.652145 17722 net.cpp:91] Creating Layer elt_e_h_elt_e_h_0_split
I0620 16:15:55.652153 17722 net.cpp:425] elt_e_h_elt_e_h_0_split <- elt_e_h
I0620 16:15:55.652163 17722 net.cpp:399] elt_e_h_elt_e_h_0_split -> elt_e_h_elt_e_h_0_split_0
I0620 16:15:55.652175 17722 net.cpp:399] elt_e_h_elt_e_h_0_split -> elt_e_h_elt_e_h_0_split_1
I0620 16:15:55.652221 17722 net.cpp:141] Setting up elt_e_h_elt_e_h_0_split
I0620 16:15:55.652235 17722 net.cpp:148] Top shape: 100 128 16 16 (3276800)
I0620 16:15:55.652241 17722 net.cpp:148] Top shape: 100 128 16 16 (3276800)
I0620 16:15:55.652248 17722 net.cpp:156] Memory required for data: 2196686000
I0620 16:15:55.652254 17722 layer_factory.hpp:77] Creating layer bn_k_1_1
I0620 16:15:55.652266 17722 net.cpp:91] Creating Layer bn_k_1_1
I0620 16:15:55.652273 17722 net.cpp:425] bn_k_1_1 <- elt_e_h_elt_e_h_0_split_0
I0620 16:15:55.652286 17722 net.cpp:399] bn_k_1_1 -> bn_k_1_1
I0620 16:15:55.652493 17722 net.cpp:141] Setting up bn_k_1_1
I0620 16:15:55.652506 17722 net.cpp:148] Top shape: 100 128 16 16 (3276800)
I0620 16:15:55.652513 17722 net.cpp:156] Memory required for data: 2209793200
I0620 16:15:55.652524 17722 layer_factory.hpp:77] Creating layer sc_k_1_1
I0620 16:15:55.652534 17722 net.cpp:91] Creating Layer sc_k_1_1
I0620 16:15:55.652542 17722 net.cpp:425] sc_k_1_1 <- bn_k_1_1
I0620 16:15:55.652556 17722 net.cpp:399] sc_k_1_1 -> sc_k_1_1
I0620 16:15:55.652608 17722 layer_factory.hpp:77] Creating layer sc_k_1_1
I0620 16:15:55.652732 17722 net.cpp:141] Setting up sc_k_1_1
I0620 16:15:55.652746 17722 net.cpp:148] Top shape: 100 128 16 16 (3276800)
I0620 16:15:55.652752 17722 net.cpp:156] Memory required for data: 2222900400
I0620 16:15:55.652761 17722 layer_factory.hpp:77] Creating layer relu_k_1_1
I0620 16:15:55.652773 17722 net.cpp:91] Creating Layer relu_k_1_1
I0620 16:15:55.652781 17722 net.cpp:425] relu_k_1_1 <- sc_k_1_1
I0620 16:15:55.652789 17722 net.cpp:399] relu_k_1_1 -> relu_k_1_1
I0620 16:15:55.653030 17722 net.cpp:141] Setting up relu_k_1_1
I0620 16:15:55.653048 17722 net.cpp:148] Top shape: 100 128 16 16 (3276800)
I0620 16:15:55.653056 17722 net.cpp:156] Memory required for data: 2236007600
I0620 16:15:55.653062 17722 layer_factory.hpp:77] Creating layer conv_k_1_1
I0620 16:15:55.653077 17722 net.cpp:91] Creating Layer conv_k_1_1
I0620 16:15:55.653086 17722 net.cpp:425] conv_k_1_1 <- relu_k_1_1
I0620 16:15:55.653096 17722 net.cpp:399] conv_k_1_1 -> conv_k_1_1
I0620 16:15:55.664340 17722 net.cpp:141] Setting up conv_k_1_1
I0620 16:15:55.664361 17722 net.cpp:148] Top shape: 100 256 8 8 (1638400)
I0620 16:15:55.664367 17722 net.cpp:156] Memory required for data: 2242561200
I0620 16:15:55.664377 17722 layer_factory.hpp:77] Creating layer bn_k_1_2
I0620 16:15:55.664391 17722 net.cpp:91] Creating Layer bn_k_1_2
I0620 16:15:55.664400 17722 net.cpp:425] bn_k_1_2 <- conv_k_1_1
I0620 16:15:55.664410 17722 net.cpp:399] bn_k_1_2 -> bn_k_1_2
I0620 16:15:55.664644 17722 net.cpp:141] Setting up bn_k_1_2
I0620 16:15:55.664657 17722 net.cpp:148] Top shape: 100 256 8 8 (1638400)
I0620 16:15:55.664662 17722 net.cpp:156] Memory required for data: 2249114800
I0620 16:15:55.664692 17722 layer_factory.hpp:77] Creating layer sc_k_1_2
I0620 16:15:55.664705 17722 net.cpp:91] Creating Layer sc_k_1_2
I0620 16:15:55.664711 17722 net.cpp:425] sc_k_1_2 <- bn_k_1_2
I0620 16:15:55.664724 17722 net.cpp:399] sc_k_1_2 -> sc_k_1_2
I0620 16:15:55.664782 17722 layer_factory.hpp:77] Creating layer sc_k_1_2
I0620 16:15:55.664913 17722 net.cpp:141] Setting up sc_k_1_2
I0620 16:15:55.664927 17722 net.cpp:148] Top shape: 100 256 8 8 (1638400)
I0620 16:15:55.664932 17722 net.cpp:156] Memory required for data: 2255668400
I0620 16:15:55.664942 17722 layer_factory.hpp:77] Creating layer relu_k_1_2
I0620 16:15:55.664952 17722 net.cpp:91] Creating Layer relu_k_1_2
I0620 16:15:55.664958 17722 net.cpp:425] relu_k_1_2 <- sc_k_1_2
I0620 16:15:55.664965 17722 net.cpp:399] relu_k_1_2 -> relu_k_1_2
I0620 16:15:55.665359 17722 net.cpp:141] Setting up relu_k_1_2
I0620 16:15:55.665379 17722 net.cpp:148] Top shape: 100 256 8 8 (1638400)
I0620 16:15:55.665385 17722 net.cpp:156] Memory required for data: 2262222000
I0620 16:15:55.665392 17722 layer_factory.hpp:77] Creating layer conv_k_1_2
I0620 16:15:55.665407 17722 net.cpp:91] Creating Layer conv_k_1_2
I0620 16:15:55.665416 17722 net.cpp:425] conv_k_1_2 <- relu_k_1_2
I0620 16:15:55.665426 17722 net.cpp:399] conv_k_1_2 -> conv_k_1_2
I0620 16:15:55.686625 17722 net.cpp:141] Setting up conv_k_1_2
I0620 16:15:55.686645 17722 net.cpp:148] Top shape: 100 256 8 8 (1638400)
I0620 16:15:55.686650 17722 net.cpp:156] Memory required for data: 2268775600
I0620 16:15:55.686661 17722 layer_factory.hpp:77] Creating layer res_k
I0620 16:15:55.686688 17722 net.cpp:91] Creating Layer res_k
I0620 16:15:55.686698 17722 net.cpp:425] res_k <- elt_e_h_elt_e_h_0_split_1
I0620 16:15:55.686708 17722 net.cpp:399] res_k -> res_k
I0620 16:15:55.688897 17722 net.cpp:141] Setting up res_k
I0620 16:15:55.688915 17722 net.cpp:148] Top shape: 100 256 8 8 (1638400)
I0620 16:15:55.688922 17722 net.cpp:156] Memory required for data: 2275329200
I0620 16:15:55.688932 17722 layer_factory.hpp:77] Creating layer elt_k_1
I0620 16:15:55.688944 17722 net.cpp:91] Creating Layer elt_k_1
I0620 16:15:55.688951 17722 net.cpp:425] elt_k_1 <- res_k
I0620 16:15:55.688959 17722 net.cpp:425] elt_k_1 <- conv_k_1_2
I0620 16:15:55.688968 17722 net.cpp:399] elt_k_1 -> elt_k_1
I0620 16:15:55.689005 17722 net.cpp:141] Setting up elt_k_1
I0620 16:15:55.689018 17722 net.cpp:148] Top shape: 100 256 8 8 (1638400)
I0620 16:15:55.689024 17722 net.cpp:156] Memory required for data: 2281882800
I0620 16:15:55.689030 17722 layer_factory.hpp:77] Creating layer bn_l_1_1
I0620 16:15:55.689043 17722 net.cpp:91] Creating Layer bn_l_1_1
I0620 16:15:55.689050 17722 net.cpp:425] bn_l_1_1 <- elt_g_i_elt_g_i_0_split_0
I0620 16:15:55.689062 17722 net.cpp:399] bn_l_1_1 -> bn_l_1_1
I0620 16:15:55.689285 17722 net.cpp:141] Setting up bn_l_1_1
I0620 16:15:55.689299 17722 net.cpp:148] Top shape: 100 128 16 16 (3276800)
I0620 16:15:55.689306 17722 net.cpp:156] Memory required for data: 2294990000
I0620 16:15:55.689316 17722 layer_factory.hpp:77] Creating layer sc_l_1_1
I0620 16:15:55.689328 17722 net.cpp:91] Creating Layer sc_l_1_1
I0620 16:15:55.689335 17722 net.cpp:425] sc_l_1_1 <- bn_l_1_1
I0620 16:15:55.689344 17722 net.cpp:399] sc_l_1_1 -> sc_l_1_1
I0620 16:15:55.689398 17722 layer_factory.hpp:77] Creating layer sc_l_1_1
I0620 16:15:55.689528 17722 net.cpp:141] Setting up sc_l_1_1
I0620 16:15:55.689543 17722 net.cpp:148] Top shape: 100 128 16 16 (3276800)
I0620 16:15:55.689548 17722 net.cpp:156] Memory required for data: 2308097200
I0620 16:15:55.689558 17722 layer_factory.hpp:77] Creating layer relu_l_1_1
I0620 16:15:55.689566 17722 net.cpp:91] Creating Layer relu_l_1_1
I0620 16:15:55.689574 17722 net.cpp:425] relu_l_1_1 <- sc_l_1_1
I0620 16:15:55.689585 17722 net.cpp:399] relu_l_1_1 -> relu_l_1_1
I0620 16:15:55.689965 17722 net.cpp:141] Setting up relu_l_1_1
I0620 16:15:55.689982 17722 net.cpp:148] Top shape: 100 128 16 16 (3276800)
I0620 16:15:55.689988 17722 net.cpp:156] Memory required for data: 2321204400
I0620 16:15:55.690011 17722 layer_factory.hpp:77] Creating layer conv_l_1_1
I0620 16:15:55.690027 17722 net.cpp:91] Creating Layer conv_l_1_1
I0620 16:15:55.690035 17722 net.cpp:425] conv_l_1_1 <- relu_l_1_1
I0620 16:15:55.690048 17722 net.cpp:399] conv_l_1_1 -> conv_l_1_1
I0620 16:15:55.701308 17722 net.cpp:141] Setting up conv_l_1_1
I0620 16:15:55.701326 17722 net.cpp:148] Top shape: 100 256 8 8 (1638400)
I0620 16:15:55.701333 17722 net.cpp:156] Memory required for data: 2327758000
I0620 16:15:55.701344 17722 layer_factory.hpp:77] Creating layer bn_l_1_2
I0620 16:15:55.701356 17722 net.cpp:91] Creating Layer bn_l_1_2
I0620 16:15:55.701364 17722 net.cpp:425] bn_l_1_2 <- conv_l_1_1
I0620 16:15:55.701375 17722 net.cpp:399] bn_l_1_2 -> bn_l_1_2
I0620 16:15:55.701612 17722 net.cpp:141] Setting up bn_l_1_2
I0620 16:15:55.701627 17722 net.cpp:148] Top shape: 100 256 8 8 (1638400)
I0620 16:15:55.701633 17722 net.cpp:156] Memory required for data: 2334311600
I0620 16:15:55.701644 17722 layer_factory.hpp:77] Creating layer sc_l_1_2
I0620 16:15:55.701671 17722 net.cpp:91] Creating Layer sc_l_1_2
I0620 16:15:55.701679 17722 net.cpp:425] sc_l_1_2 <- bn_l_1_2
I0620 16:15:55.701689 17722 net.cpp:399] sc_l_1_2 -> sc_l_1_2
I0620 16:15:55.701745 17722 layer_factory.hpp:77] Creating layer sc_l_1_2
I0620 16:15:55.701884 17722 net.cpp:141] Setting up sc_l_1_2
I0620 16:15:55.701899 17722 net.cpp:148] Top shape: 100 256 8 8 (1638400)
I0620 16:15:55.701905 17722 net.cpp:156] Memory required for data: 2340865200
I0620 16:15:55.701915 17722 layer_factory.hpp:77] Creating layer relu_l_1_2
I0620 16:15:55.701930 17722 net.cpp:91] Creating Layer relu_l_1_2
I0620 16:15:55.701939 17722 net.cpp:425] relu_l_1_2 <- sc_l_1_2
I0620 16:15:55.701947 17722 net.cpp:399] relu_l_1_2 -> relu_l_1_2
I0620 16:15:55.702200 17722 net.cpp:141] Setting up relu_l_1_2
I0620 16:15:55.702216 17722 net.cpp:148] Top shape: 100 256 8 8 (1638400)
I0620 16:15:55.702222 17722 net.cpp:156] Memory required for data: 2347418800
I0620 16:15:55.702229 17722 layer_factory.hpp:77] Creating layer conv_l_1_2
I0620 16:15:55.702244 17722 net.cpp:91] Creating Layer conv_l_1_2
I0620 16:15:55.702251 17722 net.cpp:425] conv_l_1_2 <- relu_l_1_2
I0620 16:15:55.702263 17722 net.cpp:399] conv_l_1_2 -> conv_l_1_2
I0620 16:15:55.723353 17722 net.cpp:141] Setting up conv_l_1_2
I0620 16:15:55.723372 17722 net.cpp:148] Top shape: 100 256 8 8 (1638400)
I0620 16:15:55.723379 17722 net.cpp:156] Memory required for data: 2353972400
I0620 16:15:55.723389 17722 layer_factory.hpp:77] Creating layer res_l
I0620 16:15:55.723405 17722 net.cpp:91] Creating Layer res_l
I0620 16:15:55.723413 17722 net.cpp:425] res_l <- elt_g_i_elt_g_i_0_split_1
I0620 16:15:55.723426 17722 net.cpp:399] res_l -> res_l
I0620 16:15:55.725759 17722 net.cpp:141] Setting up res_l
I0620 16:15:55.725778 17722 net.cpp:148] Top shape: 100 256 8 8 (1638400)
I0620 16:15:55.725785 17722 net.cpp:156] Memory required for data: 2360526000
I0620 16:15:55.725795 17722 layer_factory.hpp:77] Creating layer elt_l_1
I0620 16:15:55.725806 17722 net.cpp:91] Creating Layer elt_l_1
I0620 16:15:55.725814 17722 net.cpp:425] elt_l_1 <- res_l
I0620 16:15:55.725821 17722 net.cpp:425] elt_l_1 <- conv_l_1_2
I0620 16:15:55.725831 17722 net.cpp:399] elt_l_1 -> elt_l_1
I0620 16:15:55.725869 17722 net.cpp:141] Setting up elt_l_1
I0620 16:15:55.725883 17722 net.cpp:148] Top shape: 100 256 8 8 (1638400)
I0620 16:15:55.725888 17722 net.cpp:156] Memory required for data: 2367079600
I0620 16:15:55.725895 17722 layer_factory.hpp:77] Creating layer elt_j_k_l
I0620 16:15:55.725903 17722 net.cpp:91] Creating Layer elt_j_k_l
I0620 16:15:55.725914 17722 net.cpp:425] elt_j_k_l <- elt_j_1
I0620 16:15:55.725921 17722 net.cpp:425] elt_j_k_l <- elt_k_1
I0620 16:15:55.725927 17722 net.cpp:425] elt_j_k_l <- elt_l_1
I0620 16:15:55.725939 17722 net.cpp:399] elt_j_k_l -> elt_j_k_l
I0620 16:15:55.725975 17722 net.cpp:141] Setting up elt_j_k_l
I0620 16:15:55.725988 17722 net.cpp:148] Top shape: 100 256 8 8 (1638400)
I0620 16:15:55.725993 17722 net.cpp:156] Memory required for data: 2373633200
I0620 16:15:55.726018 17722 layer_factory.hpp:77] Creating layer bn_m_1_1
I0620 16:15:55.726029 17722 net.cpp:91] Creating Layer bn_m_1_1
I0620 16:15:55.726035 17722 net.cpp:425] bn_m_1_1 <- elt_j_k_l
I0620 16:15:55.726047 17722 net.cpp:399] bn_m_1_1 -> bn_m_1_1
I0620 16:15:55.726281 17722 net.cpp:141] Setting up bn_m_1_1
I0620 16:15:55.726295 17722 net.cpp:148] Top shape: 100 256 8 8 (1638400)
I0620 16:15:55.726301 17722 net.cpp:156] Memory required for data: 2380186800
I0620 16:15:55.726312 17722 layer_factory.hpp:77] Creating layer sc_m_1_1
I0620 16:15:55.726325 17722 net.cpp:91] Creating Layer sc_m_1_1
I0620 16:15:55.726331 17722 net.cpp:425] sc_m_1_1 <- bn_m_1_1
I0620 16:15:55.726339 17722 net.cpp:399] sc_m_1_1 -> sc_m_1_1
I0620 16:15:55.726397 17722 layer_factory.hpp:77] Creating layer sc_m_1_1
I0620 16:15:55.726536 17722 net.cpp:141] Setting up sc_m_1_1
I0620 16:15:55.726550 17722 net.cpp:148] Top shape: 100 256 8 8 (1638400)
I0620 16:15:55.726557 17722 net.cpp:156] Memory required for data: 2386740400
I0620 16:15:55.726565 17722 layer_factory.hpp:77] Creating layer relu_m_1_1
I0620 16:15:55.726577 17722 net.cpp:91] Creating Layer relu_m_1_1
I0620 16:15:55.726585 17722 net.cpp:425] relu_m_1_1 <- sc_m_1_1
I0620 16:15:55.726593 17722 net.cpp:399] relu_m_1_1 -> relu_m_1_1
I0620 16:15:55.726848 17722 net.cpp:141] Setting up relu_m_1_1
I0620 16:15:55.726866 17722 net.cpp:148] Top shape: 100 256 8 8 (1638400)
I0620 16:15:55.726871 17722 net.cpp:156] Memory required for data: 2393294000
I0620 16:15:55.726877 17722 layer_factory.hpp:77] Creating layer gap
I0620 16:15:55.726888 17722 net.cpp:91] Creating Layer gap
I0620 16:15:55.726896 17722 net.cpp:425] gap <- relu_m_1_1
I0620 16:15:55.726907 17722 net.cpp:399] gap -> gap
I0620 16:15:55.727308 17722 net.cpp:141] Setting up gap
I0620 16:15:55.727325 17722 net.cpp:148] Top shape: 100 256 1 1 (25600)
I0620 16:15:55.727331 17722 net.cpp:156] Memory required for data: 2393396400
I0620 16:15:55.727337 17722 layer_factory.hpp:77] Creating layer ip1
I0620 16:15:55.727351 17722 net.cpp:91] Creating Layer ip1
I0620 16:15:55.727360 17722 net.cpp:425] ip1 <- gap
I0620 16:15:55.727370 17722 net.cpp:399] ip1 -> ip1
I0620 16:15:55.727615 17722 net.cpp:141] Setting up ip1
I0620 16:15:55.727630 17722 net.cpp:148] Top shape: 100 10 (1000)
I0620 16:15:55.727635 17722 net.cpp:156] Memory required for data: 2393400400
I0620 16:15:55.727645 17722 layer_factory.hpp:77] Creating layer ip1_ip1_0_split
I0620 16:15:55.727654 17722 net.cpp:91] Creating Layer ip1_ip1_0_split
I0620 16:15:55.727660 17722 net.cpp:425] ip1_ip1_0_split <- ip1
I0620 16:15:55.727670 17722 net.cpp:399] ip1_ip1_0_split -> ip1_ip1_0_split_0
I0620 16:15:55.727682 17722 net.cpp:399] ip1_ip1_0_split -> ip1_ip1_0_split_1
I0620 16:15:55.727735 17722 net.cpp:141] Setting up ip1_ip1_0_split
I0620 16:15:55.727747 17722 net.cpp:148] Top shape: 100 10 (1000)
I0620 16:15:55.727754 17722 net.cpp:148] Top shape: 100 10 (1000)
I0620 16:15:55.727761 17722 net.cpp:156] Memory required for data: 2393408400
I0620 16:15:55.727766 17722 layer_factory.hpp:77] Creating layer accuracy
I0620 16:15:55.727776 17722 net.cpp:91] Creating Layer accuracy
I0620 16:15:55.727782 17722 net.cpp:425] accuracy <- ip1_ip1_0_split_0
I0620 16:15:55.727789 17722 net.cpp:425] accuracy <- label_resnet_1_split_0
I0620 16:15:55.727802 17722 net.cpp:399] accuracy -> accuracy
…
