…
I0621 01:51:53.755878 20669 net.cpp:313] The NetState phase (0) differed from the phase (1) specified by a rule in layer accuracy
I0621 01:51:53.756654 20669 net.cpp:49] Initializing net from parameters: 
name: "ResNet"
state {
  phase: TRAIN
}
layer {
  name: "resnet"
  type: "Data"
  top: "data"
  top: "label"
  include {
    phase: TRAIN
  }
  transform_param {
    mean_file: "/home/takeki/caffe/examples/cifar10/mean.binaryproto"
  }
  data_param {
    source: "/home/takeki/caffe/examples/cifar10/cifar10_train_lmdb"
    batch_size: 128
    backend: LMDB
  }
}
layer {
  name: "conv0"
  type: "Convolution"
  bottom: "data"
  top: "conv0"
  param {
    lr_mult: 1
  }
  param {
    lr_mult: 2
  }
  convolution_param {
    num_output: 16
    pad: 1
    kernel_size: 3
    stride: 1
    weight_filler {
      type: "msra"
    }
    bias_filler {
      type: "constant"
    }
  }
}
layer {
  name: "bn_a_1_1"
  type: "BatchNorm"
  bottom: "conv0"
  top: "bn_a_1_1"
  param {
    lr_mult: 0
  }
  param {
    lr_mult: 0
  }
  param {
    lr_mult: 0
  }
  batch_norm_param {
    use_global_stats: false
  }
}
layer {
  name: "sc_a_1_1"
  type: "Scale"
  bottom: "bn_a_1_1"
  top: "sc_a_1_1"
  scale_param {
    bias_term: true
  }
}
layer {
  name: "relu_a_1_1"
  type: "ReLU"
  bottom: "sc_a_1_1"
  top: "relu_a_1_1"
}
layer {
  name: "conv_a_1_1"
  type: "Convolution"
  bottom: "relu_a_1_1"
  top: "conv_a_1_1"
  param {
    lr_mult: 1
    decay_mult: 1
  }
  param {
    lr_mult: 2
    decay_mult: 1
  }
  convolution_param {
    num_output: 64
    pad: 1
    kernel_size: 3
    stride: 1
    weight_filler {
      type: "msra"
    }
    bias_filler {
      type: "constant"
    }
  }
}
layer {
  name: "bn_a_1_2"
  type: "BatchNorm"
  bottom: "conv_a_1_1"
  top: "bn_a_1_2"
  param {
    lr_mult: 0
  }
  param {
    lr_mult: 0
  }
  param {
    lr_mult: 0
  }
  batch_norm_param {
    use_global_stats: false
  }
}
layer {
  name: "sc_a_1_2"
  type: "Scale"
  bottom: "bn_a_1_2"
  top: "sc_a_1_2"
  scale_param {
    bias_term: true
  }
}
layer {
  name: "relu_a_1_2"
  type: "ReLU"
  bottom: "sc_a_1_2"
  top: "relu_a_1_2"
}
layer {
  name: "conv_a_1_2"
  type: "Convolution"
  bottom: "relu_a_1_2"
  top: "conv_a_1_2"
  param {
    lr_mult: 1
    decay_mult: 1
  }
  param {
    lr_mult: 2
    decay_mult: 1
  }
  convolution_param {
    num_output: 64
    pad: 1
    kernel_size: 3
    stride: 1
    weight_filler {
      type: "msra"
    }
    bias_filler {
      type: "constant"
    }
  }
}
layer {
  name: "res_a"
  type: "Convolution"
  bottom: "conv0"
  top: "res_a"
  param {
    lr_mult: 1
    decay_mult: 1
  }
  param {
    lr_mult: 2
    decay_mult: 1
  }
  convolution_param {
    num_output: 64
    pad: 0
    kernel_size: 1
    stride: 1
    weight_filler {
      type: "msra"
    }
    bias_filler {
      type: "constant"
    }
  }
}
layer {
  name: "elt_a_1"
  type: "Eltwise"
  bottom: "res_a"
  bottom: "conv_a_1_2"
  top: "elt_a_1"
  eltwise_param {
    operation: SUM
  }
}
layer {
  name: "bn_b_1_1"
  type: "BatchNorm"
  bottom: "conv0"
  top: "bn_b_1_1"
  param {
    lr_mult: 0
  }
  param {
    lr_mult: 0
  }
  param {
    lr_mult: 0
  }
  batch_norm_param {
    use_global_stats: false
  }
}
layer {
  name: "sc_b_1_1"
  type: "Scale"
  bottom: "bn_b_1_1"
  top: "sc_b_1_1"
  scale_param {
    bias_term: true
  }
}
layer {
  name: "relu_b_1_1"
  type: "ReLU"
  bottom: "sc_b_1_1"
  top: "relu_b_1_1"
}
layer {
  name: "conv_b_1_1"
  type: "Convolution"
  bottom: "relu_b_1_1"
  top: "conv_b_1_1"
  param {
    lr_mult: 1
    decay_mult: 1
  }
  param {
    lr_mult: 2
    decay_mult: 1
  }
  convolution_param {
    num_output: 64
    pad: 1
    kernel_size: 3
    stride: 1
    weight_filler {
      type: "msra"
    }
    bias_filler {
      type: "constant"
    }
  }
}
layer {
  name: "bn_b_1_2"
  type: "BatchNorm"
  bottom: "conv_b_1_1"
  top: "bn_b_1_2"
  param {
    lr_mult: 0
  }
  param {
    lr_mult: 0
  }
  param {
    lr_mult: 0
  }
  batch_norm_param {
    use_global_stats: false
  }
}
layer {
  name: "sc_b_1_2"
  type: "Scale"
  bottom: "bn_b_1_2"
  top: "sc_b_1_2"
  scale_param {
    bias_term: true
  }
}
layer {
  name: "relu_b_1_2"
  type: "ReLU"
  bottom: "sc_b_1_2"
  top: "relu_b_1_2"
}
layer {
  name: "conv_b_1_2"
  type: "Convolution"
  bottom: "relu_b_1_2"
  top: "conv_b_1_2"
  param {
    lr_mult: 1
    decay_mult: 1
  }
  param {
    lr_mult: 2
    decay_mult: 1
  }
  convolution_param {
    num_output: 64
    pad: 1
    kernel_size: 3
    stride: 1
    weight_filler {
      type: "msra"
    }
    bias_filler {
      type: "constant"
    }
  }
}
layer {
  name: "res_b"
  type: "Convolution"
  bottom: "conv0"
  top: "res_b"
  param {
    lr_mult: 1
    decay_mult: 1
  }
  param {
    lr_mult: 2
    decay_mult: 1
  }
  convolution_param {
    num_output: 64
    pad: 0
    kernel_size: 1
    stride: 1
    weight_filler {
      type: "msra"
    }
    bias_filler {
      type: "constant"
    }
  }
}
layer {
  name: "elt_b_1"
  type: "Eltwise"
  bottom: "res_b"
  bottom: "conv_b_1_2"
  top: "elt_b_1"
  eltwise_param {
    operation: SUM
  }
}
layer {
  name: "bn_c_1_1"
  type: "BatchNorm"
  bottom: "conv0"
  top: "bn_c_1_1"
  param {
    lr_mult: 0
  }
  param {
    lr_mult: 0
  }
  param {
    lr_mult: 0
  }
  batch_norm_param {
    use_global_stats: false
  }
}
layer {
  name: "sc_c_1_1"
  type: "Scale"
  bottom: "bn_c_1_1"
  top: "sc_c_1_1"
  scale_param {
    bias_term: true
  }
}
layer {
  name: "relu_c_1_1"
  type: "ReLU"
  bottom: "sc_c_1_1"
  top: "relu_c_1_1"
}
layer {
  name: "conv_c_1_1"
  type: "Convolution"
  bottom: "relu_c_1_1"
  top: "conv_c_1_1"
  param {
    lr_mult: 1
    decay_mult: 1
  }
  param {
    lr_mult: 2
    decay_mult: 1
  }
  convolution_param {
    num_output: 64
    pad: 1
    kernel_size: 3
    stride: 1
    weight_filler {
      type: "msra"
    }
    bias_filler {
      type: "constant"
    }
  }
}
layer {
  name: "bn_c_1_2"
  type: "BatchNorm"
  bottom: "conv_c_1_1"
  top: "bn_c_1_2"
  param {
    lr_mult: 0
  }
  param {
    lr_mult: 0
  }
  param {
    lr_mult: 0
  }
  batch_norm_param {
    use_global_stats: false
  }
}
layer {
  name: "sc_c_1_2"
  type: "Scale"
  bottom: "bn_c_1_2"
  top: "sc_c_1_2"
  scale_param {
    bias_term: true
  }
}
layer {
  name: "relu_c_1_2"
  type: "ReLU"
  bottom: "sc_c_1_2"
  top: "relu_c_1_2"
}
layer {
  name: "conv_c_1_2"
  type: "Convolution"
  bottom: "relu_c_1_2"
  top: "conv_c_1_2"
  param {
    lr_mult: 1
    decay_mult: 1
  }
  param {
    lr_mult: 2
    decay_mult: 1
  }
  convolution_param {
    num_output: 64
    pad: 1
    kernel_size: 3
    stride: 1
    weight_filler {
      type: "msra"
    }
    bias_filler {
      type: "constant"
    }
  }
}
layer {
  name: "res_c"
  type: "Convolution"
  bottom: "conv0"
  top: "res_c"
  param {
    lr_mult: 1
    decay_mult: 1
  }
  param {
    lr_mult: 2
    decay_mult: 1
  }
  convolution_param {
    num_output: 64
    pad: 0
    kernel_size: 1
    stride: 1
    weight_filler {
      type: "msra"
    }
    bias_filler {
      type: "constant"
    }
  }
}
layer {
  name: "elt_c_1"
  type: "Eltwise"
  bottom: "res_c"
  bottom: "conv_c_1_2"
  top: "elt_c_1"
  eltwise_param {
    operation: SUM
  }
}
layer {
  name: "bn_d_1_1"
  type: "BatchNorm"
  bottom: "elt_a_1"
  top: "bn_d_1_1"
  param {
    lr_mult: 0
  }
  param {
    lr_mult: 0
  }
  param {
    lr_mult: 0
  }
  batch_norm_param {
    use_global_stats: false
  }
}
layer {
  name: "sc_d_1_1"
  type: "Scale"
  bottom: "bn_d_1_1"
  top: "sc_d_1_1"
  scale_param {
    bias_term: true
  }
}
layer {
  name: "relu_d_1_1"
  type: "ReLU"
  bottom: "sc_d_1_1"
  top: "relu_d_1_1"
}
layer {
  name: "conv_d_1_1"
  type: "Convolution"
  bottom: "relu_d_1_1"
  top: "conv_d_1_1"
  param {
    lr_mult: 1
    decay_mult: 1
  }
  param {
    lr_mult: 2
    decay_mult: 1
  }
  convolution_param {
    num_output: 128
    pad: 1
    kernel_size: 3
    stride: 2
    weight_filler {
      type: "msra"
    }
    bias_filler {
      type: "constant"
    }
  }
}
layer {
  name: "bn_d_1_2"
  type: "BatchNorm"
  bottom: "conv_d_1_1"
  top: "bn_d_1_2"
  param {
    lr_mult: 0
  }
  param {
    lr_mult: 0
  }
  param {
    lr_mult: 0
  }
  batch_norm_param {
    use_global_stats: false
  }
}
layer {
  name: "sc_d_1_2"
  type: "Scale"
  bottom: "bn_d_1_2"
  top: "sc_d_1_2"
  scale_param {
    bias_term: true
  }
}
layer {
  name: "relu_d_1_2"
  type: "ReLU"
  bottom: "sc_d_1_2"
  top: "relu_d_1_2"
}
layer {
  name: "conv_d_1_2"
  type: "Convolution"
  bottom: "relu_d_1_2"
  top: "conv_d_1_2"
  param {
    lr_mult: 1
    decay_mult: 1
  }
  param {
    lr_mult: 2
    decay_mult: 1
  }
  convolution_param {
    num_output: 128
    pad: 1
    kernel_size: 3
    stride: 1
    weight_filler {
      type: "msra"
    }
    bias_filler {
      type: "constant"
    }
  }
}
layer {
  name: "res_d"
  type: "Convolution"
  bottom: "elt_a_1"
  top: "res_d"
  param {
    lr_mult: 1
    decay_mult: 1
  }
  param {
    lr_mult: 2
    decay_mult: 1
  }
  convolution_param {
    num_output: 128
    pad: 0
    kernel_size: 1
    stride: 2
    weight_filler {
      type: "msra"
    }
    bias_filler {
      type: "constant"
    }
  }
}
layer {
  name: "elt_d_1"
  type: "Eltwise"
  bottom: "res_d"
  bottom: "conv_d_1_2"
  top: "elt_d_1"
  eltwise_param {
    operation: SUM
  }
}
layer {
  name: "bn_f_1_1"
  type: "BatchNorm"
  bottom: "elt_b_1"
  top: "bn_f_1_1"
  param {
    lr_mult: 0
  }
  param {
    lr_mult: 0
  }
  param {
    lr_mult: 0
  }
  batch_norm_param {
    use_global_stats: false
  }
}
layer {
  name: "sc_f_1_1"
  type: "Scale"
  bottom: "bn_f_1_1"
  top: "sc_f_1_1"
  scale_param {
    bias_term: true
  }
}
layer {
  name: "relu_f_1_1"
  type: "ReLU"
  bottom: "sc_f_1_1"
  top: "relu_f_1_1"
}
layer {
  name: "conv_f_1_1"
  type: "Convolution"
  bottom: "relu_f_1_1"
  top: "conv_f_1_1"
  param {
    lr_mult: 1
    decay_mult: 1
  }
  param {
    lr_mult: 2
    decay_mult: 1
  }
  convolution_param {
    num_output: 128
    pad: 1
    kernel_size: 3
    stride: 2
    weight_filler {
      type: "msra"
    }
    bias_filler {
      type: "constant"
    }
  }
}
layer {
  name: "bn_f_1_2"
  type: "BatchNorm"
  bottom: "conv_f_1_1"
  top: "bn_f_1_2"
  param {
    lr_mult: 0
  }
  param {
    lr_mult: 0
  }
  param {
    lr_mult: 0
  }
  batch_norm_param {
    use_global_stats: false
  }
}
layer {
  name: "sc_f_1_2"
  type: "Scale"
  bottom: "bn_f_1_2"
  top: "sc_f_1_2"
  scale_param {
    bias_term: true
  }
}
layer {
  name: "relu_f_1_2"
  type: "ReLU"
  bottom: "sc_f_1_2"
  top: "relu_f_1_2"
}
layer {
  name: "conv_f_1_2"
  type: "Convolution"
  bottom: "relu_f_1_2"
  top: "conv_f_1_2"
  param {
    lr_mult: 1
    decay_mult: 1
  }
  param {
    lr_mult: 2
    decay_mult: 1
  }
  convolution_param {
    num_output: 128
    pad: 1
    kernel_size: 3
    stride: 1
    weight_filler {
      type: "msra"
    }
    bias_filler {
      type: "constant"
    }
  }
}
layer {
  name: "res_f"
  type: "Convolution"
  bottom: "elt_b_1"
  top: "res_f"
  param {
    lr_mult: 1
    decay_mult: 1
  }
  param {
    lr_mult: 2
    decay_mult: 1
  }
  convolution_param {
    num_output: 128
    pad: 0
    kernel_size: 1
    stride: 2
    weight_filler {
      type: "msra"
    }
    bias_filler {
      type: "constant"
    }
  }
}
layer {
  name: "elt_f_1"
  type: "Eltwise"
  bottom: "res_f"
  bottom: "conv_f_1_2"
  top: "elt_f_1"
  eltwise_param {
    operation: SUM
  }
}
layer {
  name: "bn_g_1_1"
  type: "BatchNorm"
  bottom: "elt_b_1"
  top: "bn_g_1_1"
  param {
    lr_mult: 0
  }
  param {
    lr_mult: 0
  }
  param {
    lr_mult: 0
  }
  batch_norm_param {
    use_global_stats: false
  }
}
layer {
  name: "sc_g_1_1"
  type: "Scale"
  bottom: "bn_g_1_1"
  top: "sc_g_1_1"
  scale_param {
    bias_term: true
  }
}
layer {
  name: "relu_g_1_1"
  type: "ReLU"
  bottom: "sc_g_1_1"
  top: "relu_g_1_1"
}
layer {
  name: "conv_g_1_1"
  type: "Convolution"
  bottom: "relu_g_1_1"
  top: "conv_g_1_1"
  param {
    lr_mult: 1
    decay_mult: 1
  }
  param {
    lr_mult: 2
    decay_mult: 1
  }
  convolution_param {
    num_output: 128
    pad: 1
    kernel_size: 3
    stride: 2
    weight_filler {
      type: "msra"
    }
    bias_filler {
      type: "constant"
    }
  }
}
layer {
  name: "bn_g_1_2"
  type: "BatchNorm"
  bottom: "conv_g_1_1"
  top: "bn_g_1_2"
  param {
    lr_mult: 0
  }
  param {
    lr_mult: 0
  }
  param {
    lr_mult: 0
  }
  batch_norm_param {
    use_global_stats: false
  }
}
layer {
  name: "sc_g_1_2"
  type: "Scale"
  bottom: "bn_g_1_2"
  top: "sc_g_1_2"
  scale_param {
    bias_term: true
  }
}
layer {
  name: "relu_g_1_2"
  type: "ReLU"
  bottom: "sc_g_1_2"
  top: "relu_g_1_2"
}
layer {
  name: "conv_g_1_2"
  type: "Convolution"
  bottom: "relu_g_1_2"
  top: "conv_g_1_2"
  param {
    lr_mult: 1
    decay_mult: 1
  }
  param {
    lr_mult: 2
    decay_mult: 1
  }
  convolution_param {
    num_output: 128
    pad: 1
    kernel_size: 3
    stride: 1
    weight_filler {
      type: "msra"
    }
    bias_filler {
      type: "constant"
    }
  }
}
layer {
  name: "res_g"
  type: "Convolution"
  bottom: "elt_b_1"
  top: "res_g"
  param {
    lr_mult: 1
    decay_mult: 1
  }
  param {
    lr_mult: 2
    decay_mult: 1
  }
  convolution_param {
    num_output: 128
    pad: 0
    kernel_size: 1
    stride: 2
    weight_filler {
      type: "msra"
    }
    bias_filler {
      type: "constant"
    }
  }
}
layer {
  name: "elt_g_1"
  type: "Eltwise"
  bottom: "res_g"
  bottom: "conv_g_1_2"
  top: "elt_g_1"
  eltwise_param {
    operation: SUM
  }
}
layer {
  name: "bn_h_1_1"
  type: "BatchNorm"
  bottom: "elt_c_1"
  top: "bn_h_1_1"
  param {
    lr_mult: 0
  }
  param {
    lr_mult: 0
  }
  param {
    lr_mult: 0
  }
  batch_norm_param {
    use_global_stats: false
  }
}
layer {
  name: "sc_h_1_1"
  type: "Scale"
  bottom: "bn_h_1_1"
  top: "sc_h_1_1"
  scale_param {
    bias_term: true
  }
}
layer {
  name: "relu_h_1_1"
  type: "ReLU"
  bottom: "sc_h_1_1"
  top: "relu_h_1_1"
}
layer {
  name: "conv_h_1_1"
  type: "Convolution"
  bottom: "relu_h_1_1"
  top: "conv_h_1_1"
  param {
    lr_mult: 1
    decay_mult: 1
  }
  param {
    lr_mult: 2
    decay_mult: 1
  }
  convolution_param {
    num_output: 128
    pad: 1
    kernel_size: 3
    stride: 2
    weight_filler {
      type: "msra"
    }
    bias_filler {
      type: "constant"
    }
  }
}
layer {
  name: "bn_h_1_2"
  type: "BatchNorm"
  bottom: "conv_h_1_1"
  top: "bn_h_1_2"
  param {
    lr_mult: 0
  }
  param {
    lr_mult: 0
  }
  param {
    lr_mult: 0
  }
  batch_norm_param {
    use_global_stats: false
  }
}
layer {
  name: "sc_h_1_2"
  type: "Scale"
  bottom: "bn_h_1_2"
  top: "sc_h_1_2"
  scale_param {
    bias_term: true
  }
}
layer {
  name: "relu_h_1_2"
  type: "ReLU"
  bottom: "sc_h_1_2"
  top: "relu_h_1_2"
}
layer {
  name: "conv_h_1_2"
  type: "Convolution"
  bottom: "relu_h_1_2"
  top: "conv_h_1_2"
  param {
    lr_mult: 1
    decay_mult: 1
  }
  param {
    lr_mult: 2
    decay_mult: 1
  }
  convolution_param {
    num_output: 128
    pad: 1
    kernel_size: 3
    stride: 1
    weight_filler {
      type: "msra"
    }
    bias_filler {
      type: "constant"
    }
  }
}
layer {
  name: "res_h"
  type: "Convolution"
  bottom: "elt_c_1"
  top: "res_h"
  param {
    lr_mult: 1
    decay_mult: 1
  }
  param {
    lr_mult: 2
    decay_mult: 1
  }
  convolution_param {
    num_output: 128
    pad: 0
    kernel_size: 1
    stride: 2
    weight_filler {
      type: "msra"
    }
    bias_filler {
      type: "constant"
    }
  }
}
layer {
  name: "elt_h_1"
  type: "Eltwise"
  bottom: "res_h"
  bottom: "conv_h_1_2"
  top: "elt_h_1"
  eltwise_param {
    operation: SUM
  }
}
layer {
  name: "bn_i_1_1"
  type: "BatchNorm"
  bottom: "elt_c_1"
  top: "bn_i_1_1"
  param {
    lr_mult: 0
  }
  param {
    lr_mult: 0
  }
  param {
    lr_mult: 0
  }
  batch_norm_param {
    use_global_stats: false
  }
}
layer {
  name: "sc_i_1_1"
  type: "Scale"
  bottom: "bn_i_1_1"
  top: "sc_i_1_1"
  scale_param {
    bias_term: true
  }
}
layer {
  name: "relu_i_1_1"
  type: "ReLU"
  bottom: "sc_i_1_1"
  top: "relu_i_1_1"
}
layer {
  name: "conv_i_1_1"
  type: "Convolution"
  bottom: "relu_i_1_1"
  top: "conv_i_1_1"
  param {
    lr_mult: 1
    decay_mult: 1
  }
  param {
    lr_mult: 2
    decay_mult: 1
  }
  convolution_param {
    num_output: 128
    pad: 1
    kernel_size: 3
    stride: 2
    weight_filler {
      type: "msra"
    }
    bias_filler {
      type: "constant"
    }
  }
}
layer {
  name: "bn_i_1_2"
  type: "BatchNorm"
  bottom: "conv_i_1_1"
  top: "bn_i_1_2"
  param {
    lr_mult: 0
  }
  param {
    lr_mult: 0
  }
  param {
    lr_mult: 0
  }
  batch_norm_param {
    use_global_stats: false
  }
}
layer {
  name: "sc_i_1_2"
  type: "Scale"
  bottom: "bn_i_1_2"
  top: "sc_i_1_2"
  scale_param {
    bias_term: true
  }
}
layer {
  name: "relu_i_1_2"
  type: "ReLU"
  bottom: "sc_i_1_2"
  top: "relu_i_1_2"
}
layer {
  name: "conv_i_1_2"
  type: "Convolution"
  bottom: "relu_i_1_2"
  top: "conv_i_1_2"
  param {
    lr_mult: 1
    decay_mult: 1
  }
  param {
    lr_mult: 2
    decay_mult: 1
  }
  convolution_param {
    num_output: 128
    pad: 1
    kernel_size: 3
    stride: 1
    weight_filler {
      type: "msra"
    }
    bias_filler {
      type: "constant"
    }
  }
}
layer {
  name: "res_i"
  type: "Convolution"
  bottom: "elt_c_1"
  top: "res_i"
  param {
    lr_mult: 1
    decay_mult: 1
  }
  param {
    lr_mult: 2
    decay_mult: 1
  }
  convolution_param {
    num_output: 128
    pad: 0
    kernel_size: 1
    stride: 2
    weight_filler {
      type: "msra"
    }
    bias_filler {
      type: "constant"
    }
  }
}
layer {
  name: "elt_i_1"
  type: "Eltwise"
  bottom: "res_i"
  bottom: "conv_i_1_2"
  top: "elt_i_1"
  eltwise_param {
    operation: SUM
  }
}
layer {
  name: "elt_d_f"
  type: "Eltwise"
  bottom: "elt_d_1"
  bottom: "elt_f_1"
  top: "elt_d_f"
  eltwise_param {
    operation: SUM
  }
}
layer {
  name: "elt_g_i"
  type: "Eltwise"
  bottom: "elt_g_1"
  bottom: "elt_i_1"
  top: "elt_g_i"
  eltwise_param {
    operation: SUM
  }
}
layer {
  name: "bn_j_1_1"
  type: "BatchNorm"
  bottom: "elt_d_f"
  top: "bn_j_1_1"
  param {
    lr_mult: 0
  }
  param {
    lr_mult: 0
  }
  param {
    lr_mult: 0
  }
  batch_norm_param {
    use_global_stats: false
  }
}
layer {
  name: "sc_j_1_1"
  type: "Scale"
  bottom: "bn_j_1_1"
  top: "sc_j_1_1"
  scale_param {
    bias_term: true
  }
}
layer {
  name: "relu_j_1_1"
  type: "ReLU"
  bottom: "sc_j_1_1"
  top: "relu_j_1_1"
}
layer {
  name: "conv_j_1_1"
  type: "Convolution"
  bottom: "relu_j_1_1"
  top: "conv_j_1_1"
  param {
    lr_mult: 1
    decay_mult: 1
  }
  param {
    lr_mult: 2
    decay_mult: 1
  }
  convolution_param {
    num_output: 256
    pad: 1
    kernel_size: 3
    stride: 2
    weight_filler {
      type: "msra"
    }
    bias_filler {
      type: "constant"
    }
  }
}
layer {
  name: "bn_j_1_2"
  type: "BatchNorm"
  bottom: "conv_j_1_1"
  top: "bn_j_1_2"
  param {
    lr_mult: 0
  }
  param {
    lr_mult: 0
  }
  param {
    lr_mult: 0
  }
  batch_norm_param {
    use_global_stats: false
  }
}
layer {
  name: "sc_j_1_2"
  type: "Scale"
  bottom: "bn_j_1_2"
  top: "sc_j_1_2"
  scale_param {
    bias_term: true
  }
}
layer {
  name: "relu_j_1_2"
  type: "ReLU"
  bottom: "sc_j_1_2"
  top: "relu_j_1_2"
}
layer {
  name: "conv_j_1_2"
  type: "Convolution"
  bottom: "relu_j_1_2"
  top: "conv_j_1_2"
  param {
    lr_mult: 1
    decay_mult: 1
  }
  param {
    lr_mult: 2
    decay_mult: 1
  }
  convolution_param {
    num_output: 256
    pad: 1
    kernel_size: 3
    stride: 1
    weight_filler {
      type: "msra"
    }
    bias_filler {
      type: "constant"
    }
  }
}
layer {
  name: "res_j"
  type: "Convolution"
  bottom: "elt_d_f"
  top: "res_j"
  param {
    lr_mult: 1
    decay_mult: 1
  }
  param {
    lr_mult: 2
    decay_mult: 1
  }
  convolution_param {
    num_output: 256
    pad: 0
    kernel_size: 1
    stride: 2
    weight_filler {
      type: "msra"
    }
    bias_filler {
      type: "constant"
    }
  }
}
layer {
  name: "elt_j_1"
  type: "Eltwise"
  bottom: "res_j"
  bottom: "conv_j_1_2"
  top: "elt_j_1"
  eltwise_param {
    operation: SUM
  }
}
layer {
  name: "bn_e_1_1"
  type: "BatchNorm"
  bottom: "elt_a_1"
  top: "bn_e_1_1"
  param {
    lr_mult: 0
  }
  param {
    lr_mult: 0
  }
  param {
    lr_mult: 0
  }
  batch_norm_param {
    use_global_stats: false
  }
}
layer {
  name: "sc_e_1_1"
  type: "Scale"
  bottom: "bn_e_1_1"
  top: "sc_e_1_1"
  scale_param {
    bias_term: true
  }
}
layer {
  name: "relu_e_1_1"
  type: "ReLU"
  bottom: "sc_e_1_1"
  top: "relu_e_1_1"
}
layer {
  name: "conv_e_1_1"
  type: "Convolution"
  bottom: "relu_e_1_1"
  top: "conv_e_1_1"
  param {
    lr_mult: 1
    decay_mult: 1
  }
  param {
    lr_mult: 2
    decay_mult: 1
  }
  convolution_param {
    num_output: 128
    pad: 1
    kernel_size: 3
    stride: 2
    weight_filler {
      type: "msra"
    }
    bias_filler {
      type: "constant"
    }
  }
}
layer {
  name: "bn_e_1_2"
  type: "BatchNorm"
  bottom: "conv_e_1_1"
  top: "bn_e_1_2"
  param {
    lr_mult: 0
  }
  param {
    lr_mult: 0
  }
  param {
    lr_mult: 0
  }
  batch_norm_param {
    use_global_stats: false
  }
}
layer {
  name: "sc_e_1_2"
  type: "Scale"
  bottom: "bn_e_1_2"
  top: "sc_e_1_2"
  scale_param {
    bias_term: true
  }
}
layer {
  name: "relu_e_1_2"
  type: "ReLU"
  bottom: "sc_e_1_2"
  top: "relu_e_1_2"
}
layer {
  name: "conv_e_1_2"
  type: "Convolution"
  bottom: "relu_e_1_2"
  top: "conv_e_1_2"
  param {
    lr_mult: 1
    decay_mult: 1
  }
  param {
    lr_mult: 2
    decay_mult: 1
  }
  convolution_param {
    num_output: 128
    pad: 1
    kernel_size: 3
    stride: 1
    weight_filler {
      type: "msra"
    }
    bias_filler {
      type: "constant"
    }
  }
}
layer {
  name: "res_e"
  type: "Convolution"
  bottom: "elt_a_1"
  top: "res_e"
  param {
    lr_mult: 1
    decay_mult: 1
  }
  param {
    lr_mult: 2
    decay_mult: 1
  }
  convolution_param {
    num_output: 128
    pad: 0
    kernel_size: 1
    stride: 2
    weight_filler {
      type: "msra"
    }
    bias_filler {
      type: "constant"
    }
  }
}
layer {
  name: "elt_e_1"
  type: "Eltwise"
  bottom: "res_e"
  bottom: "conv_e_1_2"
  top: "elt_e_1"
  eltwise_param {
    operation: SUM
  }
}
layer {
  name: "elt_e_h"
  type: "Eltwise"
  bottom: "elt_e_1"
  bottom: "elt_h_1"
  top: "elt_e_h"
  eltwise_param {
    operation: SUM
  }
}
layer {
  name: "bn_k_1_1"
  type: "BatchNorm"
  bottom: "elt_e_h"
  top: "bn_k_1_1"
  param {
    lr_mult: 0
  }
  param {
    lr_mult: 0
  }
  param {
    lr_mult: 0
  }
  batch_norm_param {
    use_global_stats: false
  }
}
layer {
  name: "sc_k_1_1"
  type: "Scale"
  bottom: "bn_k_1_1"
  top: "sc_k_1_1"
  scale_param {
    bias_term: true
  }
}
layer {
  name: "relu_k_1_1"
  type: "ReLU"
  bottom: "sc_k_1_1"
  top: "relu_k_1_1"
}
layer {
  name: "conv_k_1_1"
  type: "Convolution"
  bottom: "relu_k_1_1"
  top: "conv_k_1_1"
  param {
    lr_mult: 1
    decay_mult: 1
  }
  param {
    lr_mult: 2
    decay_mult: 1
  }
  convolution_param {
    num_output: 256
    pad: 1
    kernel_size: 3
    stride: 2
    weight_filler {
      type: "msra"
    }
    bias_filler {
      type: "constant"
    }
  }
}
layer {
  name: "bn_k_1_2"
  type: "BatchNorm"
  bottom: "conv_k_1_1"
  top: "bn_k_1_2"
  param {
    lr_mult: 0
  }
  param {
    lr_mult: 0
  }
  param {
    lr_mult: 0
  }
  batch_norm_param {
    use_global_stats: false
  }
}
layer {
  name: "sc_k_1_2"
  type: "Scale"
  bottom: "bn_k_1_2"
  top: "sc_k_1_2"
  scale_param {
    bias_term: true
  }
}
layer {
  name: "relu_k_1_2"
  type: "ReLU"
  bottom: "sc_k_1_2"
  top: "relu_k_1_2"
}
layer {
  name: "conv_k_1_2"
  type: "Convolution"
  bottom: "relu_k_1_2"
  top: "conv_k_1_2"
  param {
    lr_mult: 1
    decay_mult: 1
  }
  param {
    lr_mult: 2
    decay_mult: 1
  }
  convolution_param {
    num_output: 256
    pad: 1
    kernel_size: 3
    stride: 1
    weight_filler {
      type: "msra"
    }
    bias_filler {
      type: "constant"
    }
  }
}
layer {
  name: "res_k"
  type: "Convolution"
  bottom: "elt_e_h"
  top: "res_k"
  param {
    lr_mult: 1
    decay_mult: 1
  }
  param {
    lr_mult: 2
    decay_mult: 1
  }
  convolution_param {
    num_output: 256
    pad: 0
    kernel_size: 1
    stride: 2
    weight_filler {
      type: "msra"
    }
    bias_filler {
      type: "constant"
    }
  }
}
layer {
  name: "elt_k_1"
  type: "Eltwise"
  bottom: "res_k"
  bottom: "conv_k_1_2"
  top: "elt_k_1"
  eltwise_param {
    operation: SUM
  }
}
layer {
  name: "bn_l_1_1"
  type: "BatchNorm"
  bottom: "elt_g_i"
  top: "bn_l_1_1"
  param {
    lr_mult: 0
  }
  param {
    lr_mult: 0
  }
  param {
    lr_mult: 0
  }
  batch_norm_param {
    use_global_stats: false
  }
}
layer {
  name: "sc_l_1_1"
  type: "Scale"
  bottom: "bn_l_1_1"
  top: "sc_l_1_1"
  scale_param {
    bias_term: true
  }
}
layer {
  name: "relu_l_1_1"
  type: "ReLU"
  bottom: "sc_l_1_1"
  top: "relu_l_1_1"
}
layer {
  name: "conv_l_1_1"
  type: "Convolution"
  bottom: "relu_l_1_1"
  top: "conv_l_1_1"
  param {
    lr_mult: 1
    decay_mult: 1
  }
  param {
    lr_mult: 2
    decay_mult: 1
  }
  convolution_param {
    num_output: 256
    pad: 1
    kernel_size: 3
    stride: 2
    weight_filler {
      type: "msra"
    }
    bias_filler {
      type: "constant"
    }
  }
}
layer {
  name: "bn_l_1_2"
  type: "BatchNorm"
  bottom: "conv_l_1_1"
  top: "bn_l_1_2"
  param {
    lr_mult: 0
  }
  param {
    lr_mult: 0
  }
  param {
    lr_mult: 0
  }
  batch_norm_param {
    use_global_stats: false
  }
}
layer {
  name: "sc_l_1_2"
  type: "Scale"
  bottom: "bn_l_1_2"
  top: "sc_l_1_2"
  scale_param {
    bias_term: true
  }
}
layer {
  name: "relu_l_1_2"
  type: "ReLU"
  bottom: "sc_l_1_2"
  top: "relu_l_1_2"
}
layer {
  name: "conv_l_1_2"
  type: "Convolution"
  bottom: "relu_l_1_2"
  top: "conv_l_1_2"
  param {
    lr_mult: 1
    decay_mult: 1
  }
  param {
    lr_mult: 2
    decay_mult: 1
  }
  convolution_param {
    num_output: 256
    pad: 1
    kernel_size: 3
    stride: 1
    weight_filler {
      type: "msra"
    }
    bias_filler {
      type: "constant"
    }
  }
}
layer {
  name: "res_l"
  type: "Convolution"
  bottom: "elt_g_i"
  top: "res_l"
  param {
    lr_mult: 1
    decay_mult: 1
  }
  param {
    lr_mult: 2
    decay_mult: 1
  }
  convolution_param {
    num_output: 256
    pad: 0
    kernel_size: 1
    stride: 2
    weight_filler {
      type: "msra"
    }
    bias_filler {
      type: "constant"
    }
  }
}
layer {
  name: "elt_l_1"
  type: "Eltwise"
  bottom: "res_l"
  bottom: "conv_l_1_2"
  top: "elt_l_1"
  eltwise_param {
    operation: SUM
  }
}
layer {
  name: "elt_j_k_l"
  type: "Eltwise"
  bottom: "elt_j_1"
  bottom: "elt_k_1"
  bottom: "elt_l_1"
  top: "elt_j_k_l"
  eltwise_param {
    operation: SUM
  }
}
layer {
  name: "bn_m_1_1"
  type: "BatchNorm"
  bottom: "elt_j_k_l"
  top: "bn_m_1_1"
  param {
    lr_mult: 0
  }
  param {
    lr_mult: 0
  }
  param {
    lr_mult: 0
  }
  batch_norm_param {
    use_global_stats: false
  }
}
layer {
  name: "sc_m_1_1"
  type: "Scale"
  bottom: "bn_m_1_1"
  top: "sc_m_1_1"
  scale_param {
    bias_term: true
  }
}
layer {
  name: "relu_m_1_1"
  type: "ReLU"
  bottom: "sc_m_1_1"
  top: "relu_m_1_1"
}
layer {
  name: "gap"
  type: "Pooling"
  bottom: "relu_m_1_1"
  top: "gap"
  pooling_param {
    pool: AVE
    kernel_size: 8
    stride: 1
  }
}
layer {
  name: "ip1"
  type: "InnerProduct"
  bottom: "gap"
  top: "ip1"
  param {
    lr_mult: 1
    decay_mult: 1
  }
  param {
    lr_mult: 2
    decay_mult: 0
  }
  inner_product_param {
    num_output: 10
    weight_filler {
      type: "msra"
    }
    bias_filler {
      type: "constant"
      value: 0
    }
  }
}
layer {
  name: "loss"
  type: "SoftmaxWithLoss"
  bottom: "ip1"
  bottom: "label"
  top: "loss"
}
I0621 01:51:53.757279 20669 layer_factory.hpp:77] Creating layer resnet
I0621 01:51:53.757793 20669 net.cpp:91] Creating Layer resnet
I0621 01:51:53.757807 20669 net.cpp:399] resnet -> data
I0621 01:51:53.757841 20669 net.cpp:399] resnet -> label
I0621 01:51:53.757860 20669 data_transformer.cpp:25] Loading mean file from: /home/takeki/caffe/examples/cifar10/mean.binaryproto
I0621 01:51:53.760967 20712 db_lmdb.cpp:35] Opened lmdb /home/takeki/caffe/examples/cifar10/cifar10_train_lmdb
I0621 01:51:53.770319 20669 data_layer.cpp:41] output data size: 128,3,32,32
I0621 01:51:53.773993 20669 net.cpp:141] Setting up resnet
I0621 01:51:53.774019 20669 net.cpp:148] Top shape: 128 3 32 32 (393216)
I0621 01:51:53.774026 20669 net.cpp:148] Top shape: 128 (128)
I0621 01:51:53.774031 20669 net.cpp:156] Memory required for data: 1573376
I0621 01:51:53.774055 20669 layer_factory.hpp:77] Creating layer conv0
I0621 01:51:53.774083 20669 net.cpp:91] Creating Layer conv0
I0621 01:51:53.774094 20669 net.cpp:425] conv0 <- data
I0621 01:51:53.774109 20669 net.cpp:399] conv0 -> conv0
I0621 01:51:53.942195 20669 net.cpp:141] Setting up conv0
I0621 01:51:53.942255 20669 net.cpp:148] Top shape: 128 16 32 32 (2097152)
I0621 01:51:53.942261 20669 net.cpp:156] Memory required for data: 9961984
I0621 01:51:53.942286 20669 layer_factory.hpp:77] Creating layer conv0_conv0_0_split
I0621 01:51:53.942317 20669 net.cpp:91] Creating Layer conv0_conv0_0_split
I0621 01:51:53.942323 20669 net.cpp:425] conv0_conv0_0_split <- conv0
I0621 01:51:53.942332 20669 net.cpp:399] conv0_conv0_0_split -> conv0_conv0_0_split_0
I0621 01:51:53.942354 20669 net.cpp:399] conv0_conv0_0_split -> conv0_conv0_0_split_1
I0621 01:51:53.942365 20669 net.cpp:399] conv0_conv0_0_split -> conv0_conv0_0_split_2
I0621 01:51:53.942376 20669 net.cpp:399] conv0_conv0_0_split -> conv0_conv0_0_split_3
I0621 01:51:53.942387 20669 net.cpp:399] conv0_conv0_0_split -> conv0_conv0_0_split_4
I0621 01:51:53.942399 20669 net.cpp:399] conv0_conv0_0_split -> conv0_conv0_0_split_5
I0621 01:51:53.942478 20669 net.cpp:141] Setting up conv0_conv0_0_split
I0621 01:51:53.942489 20669 net.cpp:148] Top shape: 128 16 32 32 (2097152)
I0621 01:51:53.942497 20669 net.cpp:148] Top shape: 128 16 32 32 (2097152)
I0621 01:51:53.942504 20669 net.cpp:148] Top shape: 128 16 32 32 (2097152)
I0621 01:51:53.942509 20669 net.cpp:148] Top shape: 128 16 32 32 (2097152)
I0621 01:51:53.942515 20669 net.cpp:148] Top shape: 128 16 32 32 (2097152)
I0621 01:51:53.942523 20669 net.cpp:148] Top shape: 128 16 32 32 (2097152)
I0621 01:51:53.942528 20669 net.cpp:156] Memory required for data: 60293632
I0621 01:51:53.942533 20669 layer_factory.hpp:77] Creating layer bn_a_1_1
I0621 01:51:53.942543 20669 net.cpp:91] Creating Layer bn_a_1_1
I0621 01:51:53.942549 20669 net.cpp:425] bn_a_1_1 <- conv0_conv0_0_split_0
I0621 01:51:53.942556 20669 net.cpp:399] bn_a_1_1 -> bn_a_1_1
I0621 01:51:53.942778 20669 net.cpp:141] Setting up bn_a_1_1
I0621 01:51:53.942792 20669 net.cpp:148] Top shape: 128 16 32 32 (2097152)
I0621 01:51:53.942798 20669 net.cpp:156] Memory required for data: 68682240
I0621 01:51:53.942814 20669 layer_factory.hpp:77] Creating layer sc_a_1_1
I0621 01:51:53.942827 20669 net.cpp:91] Creating Layer sc_a_1_1
I0621 01:51:53.942834 20669 net.cpp:425] sc_a_1_1 <- bn_a_1_1
I0621 01:51:53.942842 20669 net.cpp:399] sc_a_1_1 -> sc_a_1_1
I0621 01:51:53.942888 20669 layer_factory.hpp:77] Creating layer sc_a_1_1
I0621 01:51:53.943011 20669 net.cpp:141] Setting up sc_a_1_1
I0621 01:51:53.943023 20669 net.cpp:148] Top shape: 128 16 32 32 (2097152)
I0621 01:51:53.943030 20669 net.cpp:156] Memory required for data: 77070848
I0621 01:51:53.943053 20669 layer_factory.hpp:77] Creating layer relu_a_1_1
I0621 01:51:53.943063 20669 net.cpp:91] Creating Layer relu_a_1_1
I0621 01:51:53.943069 20669 net.cpp:425] relu_a_1_1 <- sc_a_1_1
I0621 01:51:53.943076 20669 net.cpp:399] relu_a_1_1 -> relu_a_1_1
I0621 01:51:53.943399 20669 net.cpp:141] Setting up relu_a_1_1
I0621 01:51:53.943415 20669 net.cpp:148] Top shape: 128 16 32 32 (2097152)
I0621 01:51:53.943450 20669 net.cpp:156] Memory required for data: 85459456
I0621 01:51:53.943466 20669 layer_factory.hpp:77] Creating layer conv_a_1_1
I0621 01:51:53.943481 20669 net.cpp:91] Creating Layer conv_a_1_1
I0621 01:51:53.943488 20669 net.cpp:425] conv_a_1_1 <- relu_a_1_1
I0621 01:51:53.943496 20669 net.cpp:399] conv_a_1_1 -> conv_a_1_1
I0621 01:51:53.945005 20669 net.cpp:141] Setting up conv_a_1_1
I0621 01:51:53.945021 20669 net.cpp:148] Top shape: 128 64 32 32 (8388608)
I0621 01:51:53.945041 20669 net.cpp:156] Memory required for data: 119013888
I0621 01:51:53.945053 20669 layer_factory.hpp:77] Creating layer bn_a_1_2
I0621 01:51:53.945065 20669 net.cpp:91] Creating Layer bn_a_1_2
I0621 01:51:53.945072 20669 net.cpp:425] bn_a_1_2 <- conv_a_1_1
I0621 01:51:53.945080 20669 net.cpp:399] bn_a_1_2 -> bn_a_1_2
I0621 01:51:53.945286 20669 net.cpp:141] Setting up bn_a_1_2
I0621 01:51:53.945298 20669 net.cpp:148] Top shape: 128 64 32 32 (8388608)
I0621 01:51:53.945303 20669 net.cpp:156] Memory required for data: 152568320
I0621 01:51:53.945313 20669 layer_factory.hpp:77] Creating layer sc_a_1_2
I0621 01:51:53.945327 20669 net.cpp:91] Creating Layer sc_a_1_2
I0621 01:51:53.945333 20669 net.cpp:425] sc_a_1_2 <- bn_a_1_2
I0621 01:51:53.945340 20669 net.cpp:399] sc_a_1_2 -> sc_a_1_2
I0621 01:51:53.945384 20669 layer_factory.hpp:77] Creating layer sc_a_1_2
I0621 01:51:53.945497 20669 net.cpp:141] Setting up sc_a_1_2
I0621 01:51:53.945508 20669 net.cpp:148] Top shape: 128 64 32 32 (8388608)
I0621 01:51:53.945514 20669 net.cpp:156] Memory required for data: 186122752
I0621 01:51:53.945523 20669 layer_factory.hpp:77] Creating layer relu_a_1_2
I0621 01:51:53.945531 20669 net.cpp:91] Creating Layer relu_a_1_2
I0621 01:51:53.945538 20669 net.cpp:425] relu_a_1_2 <- sc_a_1_2
I0621 01:51:53.945546 20669 net.cpp:399] relu_a_1_2 -> relu_a_1_2
I0621 01:51:53.945840 20669 net.cpp:141] Setting up relu_a_1_2
I0621 01:51:53.945855 20669 net.cpp:148] Top shape: 128 64 32 32 (8388608)
I0621 01:51:53.945861 20669 net.cpp:156] Memory required for data: 219677184
I0621 01:51:53.945868 20669 layer_factory.hpp:77] Creating layer conv_a_1_2
I0621 01:51:53.945881 20669 net.cpp:91] Creating Layer conv_a_1_2
I0621 01:51:53.945888 20669 net.cpp:425] conv_a_1_2 <- relu_a_1_2
I0621 01:51:53.945899 20669 net.cpp:399] conv_a_1_2 -> conv_a_1_2
I0621 01:51:53.948424 20669 net.cpp:141] Setting up conv_a_1_2
I0621 01:51:53.948454 20669 net.cpp:148] Top shape: 128 64 32 32 (8388608)
I0621 01:51:53.948460 20669 net.cpp:156] Memory required for data: 253231616
I0621 01:51:53.948469 20669 layer_factory.hpp:77] Creating layer res_a
I0621 01:51:53.948483 20669 net.cpp:91] Creating Layer res_a
I0621 01:51:53.948489 20669 net.cpp:425] res_a <- conv0_conv0_0_split_1
I0621 01:51:53.948499 20669 net.cpp:399] res_a -> res_a
I0621 01:51:53.949508 20669 net.cpp:141] Setting up res_a
I0621 01:51:53.949523 20669 net.cpp:148] Top shape: 128 64 32 32 (8388608)
I0621 01:51:53.949542 20669 net.cpp:156] Memory required for data: 286786048
I0621 01:51:53.949555 20669 layer_factory.hpp:77] Creating layer elt_a_1
I0621 01:51:53.949565 20669 net.cpp:91] Creating Layer elt_a_1
I0621 01:51:53.949570 20669 net.cpp:425] elt_a_1 <- res_a
I0621 01:51:53.949576 20669 net.cpp:425] elt_a_1 <- conv_a_1_2
I0621 01:51:53.949584 20669 net.cpp:399] elt_a_1 -> elt_a_1
I0621 01:51:53.949630 20669 net.cpp:141] Setting up elt_a_1
I0621 01:51:53.949642 20669 net.cpp:148] Top shape: 128 64 32 32 (8388608)
I0621 01:51:53.949647 20669 net.cpp:156] Memory required for data: 320340480
I0621 01:51:53.949652 20669 layer_factory.hpp:77] Creating layer elt_a_1_elt_a_1_0_split
I0621 01:51:53.949661 20669 net.cpp:91] Creating Layer elt_a_1_elt_a_1_0_split
I0621 01:51:53.949667 20669 net.cpp:425] elt_a_1_elt_a_1_0_split <- elt_a_1
I0621 01:51:53.949674 20669 net.cpp:399] elt_a_1_elt_a_1_0_split -> elt_a_1_elt_a_1_0_split_0
I0621 01:51:53.949683 20669 net.cpp:399] elt_a_1_elt_a_1_0_split -> elt_a_1_elt_a_1_0_split_1
I0621 01:51:53.949692 20669 net.cpp:399] elt_a_1_elt_a_1_0_split -> elt_a_1_elt_a_1_0_split_2
I0621 01:51:53.949715 20669 net.cpp:399] elt_a_1_elt_a_1_0_split -> elt_a_1_elt_a_1_0_split_3
I0621 01:51:53.949777 20669 net.cpp:141] Setting up elt_a_1_elt_a_1_0_split
I0621 01:51:53.949789 20669 net.cpp:148] Top shape: 128 64 32 32 (8388608)
I0621 01:51:53.949795 20669 net.cpp:148] Top shape: 128 64 32 32 (8388608)
I0621 01:51:53.949801 20669 net.cpp:148] Top shape: 128 64 32 32 (8388608)
I0621 01:51:53.949807 20669 net.cpp:148] Top shape: 128 64 32 32 (8388608)
I0621 01:51:53.949811 20669 net.cpp:156] Memory required for data: 454558208
I0621 01:51:53.949829 20669 layer_factory.hpp:77] Creating layer bn_b_1_1
I0621 01:51:53.949841 20669 net.cpp:91] Creating Layer bn_b_1_1
I0621 01:51:53.949848 20669 net.cpp:425] bn_b_1_1 <- conv0_conv0_0_split_2
I0621 01:51:53.949856 20669 net.cpp:399] bn_b_1_1 -> bn_b_1_1
I0621 01:51:53.950038 20669 net.cpp:141] Setting up bn_b_1_1
I0621 01:51:53.950050 20669 net.cpp:148] Top shape: 128 16 32 32 (2097152)
I0621 01:51:53.950057 20669 net.cpp:156] Memory required for data: 462946816
I0621 01:51:53.950067 20669 layer_factory.hpp:77] Creating layer sc_b_1_1
I0621 01:51:53.950076 20669 net.cpp:91] Creating Layer sc_b_1_1
I0621 01:51:53.950083 20669 net.cpp:425] sc_b_1_1 <- bn_b_1_1
I0621 01:51:53.950089 20669 net.cpp:399] sc_b_1_1 -> sc_b_1_1
I0621 01:51:53.950132 20669 layer_factory.hpp:77] Creating layer sc_b_1_1
I0621 01:51:53.950269 20669 net.cpp:141] Setting up sc_b_1_1
I0621 01:51:53.950281 20669 net.cpp:148] Top shape: 128 16 32 32 (2097152)
I0621 01:51:53.950287 20669 net.cpp:156] Memory required for data: 471335424
I0621 01:51:53.950296 20669 layer_factory.hpp:77] Creating layer relu_b_1_1
I0621 01:51:53.950309 20669 net.cpp:91] Creating Layer relu_b_1_1
I0621 01:51:53.950315 20669 net.cpp:425] relu_b_1_1 <- sc_b_1_1
I0621 01:51:53.950325 20669 net.cpp:399] relu_b_1_1 -> relu_b_1_1
I0621 01:51:53.950510 20669 net.cpp:141] Setting up relu_b_1_1
I0621 01:51:53.950525 20669 net.cpp:148] Top shape: 128 16 32 32 (2097152)
I0621 01:51:53.950531 20669 net.cpp:156] Memory required for data: 479724032
I0621 01:51:53.950546 20669 layer_factory.hpp:77] Creating layer conv_b_1_1
I0621 01:51:53.950559 20669 net.cpp:91] Creating Layer conv_b_1_1
I0621 01:51:53.950567 20669 net.cpp:425] conv_b_1_1 <- relu_b_1_1
I0621 01:51:53.950574 20669 net.cpp:399] conv_b_1_1 -> conv_b_1_1
I0621 01:51:53.951761 20669 net.cpp:141] Setting up conv_b_1_1
I0621 01:51:53.951776 20669 net.cpp:148] Top shape: 128 64 32 32 (8388608)
I0621 01:51:53.951781 20669 net.cpp:156] Memory required for data: 513278464
I0621 01:51:53.951789 20669 layer_factory.hpp:77] Creating layer bn_b_1_2
I0621 01:51:53.951802 20669 net.cpp:91] Creating Layer bn_b_1_2
I0621 01:51:53.951808 20669 net.cpp:425] bn_b_1_2 <- conv_b_1_1
I0621 01:51:53.951817 20669 net.cpp:399] bn_b_1_2 -> bn_b_1_2
I0621 01:51:53.952003 20669 net.cpp:141] Setting up bn_b_1_2
I0621 01:51:53.952015 20669 net.cpp:148] Top shape: 128 64 32 32 (8388608)
I0621 01:51:53.952020 20669 net.cpp:156] Memory required for data: 546832896
I0621 01:51:53.952029 20669 layer_factory.hpp:77] Creating layer sc_b_1_2
I0621 01:51:53.952039 20669 net.cpp:91] Creating Layer sc_b_1_2
I0621 01:51:53.952044 20669 net.cpp:425] sc_b_1_2 <- bn_b_1_2
I0621 01:51:53.952051 20669 net.cpp:399] sc_b_1_2 -> sc_b_1_2
I0621 01:51:53.952092 20669 layer_factory.hpp:77] Creating layer sc_b_1_2
I0621 01:51:53.952199 20669 net.cpp:141] Setting up sc_b_1_2
I0621 01:51:53.952210 20669 net.cpp:148] Top shape: 128 64 32 32 (8388608)
I0621 01:51:53.952215 20669 net.cpp:156] Memory required for data: 580387328
I0621 01:51:53.952224 20669 layer_factory.hpp:77] Creating layer relu_b_1_2
I0621 01:51:53.952234 20669 net.cpp:91] Creating Layer relu_b_1_2
I0621 01:51:53.952239 20669 net.cpp:425] relu_b_1_2 <- sc_b_1_2
I0621 01:51:53.952246 20669 net.cpp:399] relu_b_1_2 -> relu_b_1_2
I0621 01:51:53.952419 20669 net.cpp:141] Setting up relu_b_1_2
I0621 01:51:53.952432 20669 net.cpp:148] Top shape: 128 64 32 32 (8388608)
I0621 01:51:53.952437 20669 net.cpp:156] Memory required for data: 613941760
I0621 01:51:53.952442 20669 layer_factory.hpp:77] Creating layer conv_b_1_2
I0621 01:51:53.952468 20669 net.cpp:91] Creating Layer conv_b_1_2
I0621 01:51:53.952476 20669 net.cpp:425] conv_b_1_2 <- relu_b_1_2
I0621 01:51:53.952486 20669 net.cpp:399] conv_b_1_2 -> conv_b_1_2
I0621 01:51:53.954530 20669 net.cpp:141] Setting up conv_b_1_2
I0621 01:51:53.954546 20669 net.cpp:148] Top shape: 128 64 32 32 (8388608)
I0621 01:51:53.954566 20669 net.cpp:156] Memory required for data: 647496192
I0621 01:51:53.954574 20669 layer_factory.hpp:77] Creating layer res_b
I0621 01:51:53.954589 20669 net.cpp:91] Creating Layer res_b
I0621 01:51:53.954596 20669 net.cpp:425] res_b <- conv0_conv0_0_split_3
I0621 01:51:53.954607 20669 net.cpp:399] res_b -> res_b
I0621 01:51:53.955780 20669 net.cpp:141] Setting up res_b
I0621 01:51:53.955797 20669 net.cpp:148] Top shape: 128 64 32 32 (8388608)
I0621 01:51:53.955817 20669 net.cpp:156] Memory required for data: 681050624
I0621 01:51:53.955832 20669 layer_factory.hpp:77] Creating layer elt_b_1
I0621 01:51:53.955842 20669 net.cpp:91] Creating Layer elt_b_1
I0621 01:51:53.955848 20669 net.cpp:425] elt_b_1 <- res_b
I0621 01:51:53.955854 20669 net.cpp:425] elt_b_1 <- conv_b_1_2
I0621 01:51:53.955862 20669 net.cpp:399] elt_b_1 -> elt_b_1
I0621 01:51:53.955896 20669 net.cpp:141] Setting up elt_b_1
I0621 01:51:53.955907 20669 net.cpp:148] Top shape: 128 64 32 32 (8388608)
I0621 01:51:53.955914 20669 net.cpp:156] Memory required for data: 714605056
I0621 01:51:53.955919 20669 layer_factory.hpp:77] Creating layer elt_b_1_elt_b_1_0_split
I0621 01:51:53.955926 20669 net.cpp:91] Creating Layer elt_b_1_elt_b_1_0_split
I0621 01:51:53.955930 20669 net.cpp:425] elt_b_1_elt_b_1_0_split <- elt_b_1
I0621 01:51:53.955940 20669 net.cpp:399] elt_b_1_elt_b_1_0_split -> elt_b_1_elt_b_1_0_split_0
I0621 01:51:53.955950 20669 net.cpp:399] elt_b_1_elt_b_1_0_split -> elt_b_1_elt_b_1_0_split_1
I0621 01:51:53.955960 20669 net.cpp:399] elt_b_1_elt_b_1_0_split -> elt_b_1_elt_b_1_0_split_2
I0621 01:51:53.955968 20669 net.cpp:399] elt_b_1_elt_b_1_0_split -> elt_b_1_elt_b_1_0_split_3
I0621 01:51:53.956027 20669 net.cpp:141] Setting up elt_b_1_elt_b_1_0_split
I0621 01:51:53.956037 20669 net.cpp:148] Top shape: 128 64 32 32 (8388608)
I0621 01:51:53.956043 20669 net.cpp:148] Top shape: 128 64 32 32 (8388608)
I0621 01:51:53.956049 20669 net.cpp:148] Top shape: 128 64 32 32 (8388608)
I0621 01:51:53.956054 20669 net.cpp:148] Top shape: 128 64 32 32 (8388608)
I0621 01:51:53.956058 20669 net.cpp:156] Memory required for data: 848822784
I0621 01:51:53.956063 20669 layer_factory.hpp:77] Creating layer bn_c_1_1
I0621 01:51:53.956086 20669 net.cpp:91] Creating Layer bn_c_1_1
I0621 01:51:53.956094 20669 net.cpp:425] bn_c_1_1 <- conv0_conv0_0_split_4
I0621 01:51:53.956104 20669 net.cpp:399] bn_c_1_1 -> bn_c_1_1
I0621 01:51:53.956297 20669 net.cpp:141] Setting up bn_c_1_1
I0621 01:51:53.956310 20669 net.cpp:148] Top shape: 128 16 32 32 (2097152)
I0621 01:51:53.956315 20669 net.cpp:156] Memory required for data: 857211392
I0621 01:51:53.956326 20669 layer_factory.hpp:77] Creating layer sc_c_1_1
I0621 01:51:53.956334 20669 net.cpp:91] Creating Layer sc_c_1_1
I0621 01:51:53.956341 20669 net.cpp:425] sc_c_1_1 <- bn_c_1_1
I0621 01:51:53.956348 20669 net.cpp:399] sc_c_1_1 -> sc_c_1_1
I0621 01:51:53.956393 20669 layer_factory.hpp:77] Creating layer sc_c_1_1
I0621 01:51:53.956532 20669 net.cpp:141] Setting up sc_c_1_1
I0621 01:51:53.956543 20669 net.cpp:148] Top shape: 128 16 32 32 (2097152)
I0621 01:51:53.956548 20669 net.cpp:156] Memory required for data: 865600000
I0621 01:51:53.956557 20669 layer_factory.hpp:77] Creating layer relu_c_1_1
I0621 01:51:53.956564 20669 net.cpp:91] Creating Layer relu_c_1_1
I0621 01:51:53.956569 20669 net.cpp:425] relu_c_1_1 <- sc_c_1_1
I0621 01:51:53.956578 20669 net.cpp:399] relu_c_1_1 -> relu_c_1_1
I0621 01:51:53.956894 20669 net.cpp:141] Setting up relu_c_1_1
I0621 01:51:53.956909 20669 net.cpp:148] Top shape: 128 16 32 32 (2097152)
I0621 01:51:53.956917 20669 net.cpp:156] Memory required for data: 873988608
I0621 01:51:53.956921 20669 layer_factory.hpp:77] Creating layer conv_c_1_1
I0621 01:51:53.956961 20669 net.cpp:91] Creating Layer conv_c_1_1
I0621 01:51:53.956970 20669 net.cpp:425] conv_c_1_1 <- relu_c_1_1
I0621 01:51:53.956979 20669 net.cpp:399] conv_c_1_1 -> conv_c_1_1
I0621 01:51:53.958086 20669 net.cpp:141] Setting up conv_c_1_1
I0621 01:51:53.958101 20669 net.cpp:148] Top shape: 128 64 32 32 (8388608)
I0621 01:51:53.958120 20669 net.cpp:156] Memory required for data: 907543040
I0621 01:51:53.958129 20669 layer_factory.hpp:77] Creating layer bn_c_1_2
I0621 01:51:53.958142 20669 net.cpp:91] Creating Layer bn_c_1_2
I0621 01:51:53.958148 20669 net.cpp:425] bn_c_1_2 <- conv_c_1_1
I0621 01:51:53.958158 20669 net.cpp:399] bn_c_1_2 -> bn_c_1_2
I0621 01:51:53.958372 20669 net.cpp:141] Setting up bn_c_1_2
I0621 01:51:53.958384 20669 net.cpp:148] Top shape: 128 64 32 32 (8388608)
I0621 01:51:53.958389 20669 net.cpp:156] Memory required for data: 941097472
I0621 01:51:53.958400 20669 layer_factory.hpp:77] Creating layer sc_c_1_2
I0621 01:51:53.958410 20669 net.cpp:91] Creating Layer sc_c_1_2
I0621 01:51:53.958415 20669 net.cpp:425] sc_c_1_2 <- bn_c_1_2
I0621 01:51:53.958423 20669 net.cpp:399] sc_c_1_2 -> sc_c_1_2
I0621 01:51:53.958469 20669 layer_factory.hpp:77] Creating layer sc_c_1_2
I0621 01:51:53.958586 20669 net.cpp:141] Setting up sc_c_1_2
I0621 01:51:53.958598 20669 net.cpp:148] Top shape: 128 64 32 32 (8388608)
I0621 01:51:53.958606 20669 net.cpp:156] Memory required for data: 974651904
I0621 01:51:53.958613 20669 layer_factory.hpp:77] Creating layer relu_c_1_2
I0621 01:51:53.958622 20669 net.cpp:91] Creating Layer relu_c_1_2
I0621 01:51:53.958629 20669 net.cpp:425] relu_c_1_2 <- sc_c_1_2
I0621 01:51:53.958638 20669 net.cpp:399] relu_c_1_2 -> relu_c_1_2
I0621 01:51:53.958941 20669 net.cpp:141] Setting up relu_c_1_2
I0621 01:51:53.958956 20669 net.cpp:148] Top shape: 128 64 32 32 (8388608)
I0621 01:51:53.958962 20669 net.cpp:156] Memory required for data: 1008206336
I0621 01:51:53.958967 20669 layer_factory.hpp:77] Creating layer conv_c_1_2
I0621 01:51:53.958986 20669 net.cpp:91] Creating Layer conv_c_1_2
I0621 01:51:53.958994 20669 net.cpp:425] conv_c_1_2 <- relu_c_1_2
I0621 01:51:53.959003 20669 net.cpp:399] conv_c_1_2 -> conv_c_1_2
I0621 01:51:53.960945 20669 net.cpp:141] Setting up conv_c_1_2
I0621 01:51:53.960961 20669 net.cpp:148] Top shape: 128 64 32 32 (8388608)
I0621 01:51:53.960981 20669 net.cpp:156] Memory required for data: 1041760768
I0621 01:51:53.960990 20669 layer_factory.hpp:77] Creating layer res_c
I0621 01:51:53.961009 20669 net.cpp:91] Creating Layer res_c
I0621 01:51:53.961016 20669 net.cpp:425] res_c <- conv0_conv0_0_split_5
I0621 01:51:53.961024 20669 net.cpp:399] res_c -> res_c
I0621 01:51:53.962003 20669 net.cpp:141] Setting up res_c
I0621 01:51:53.962018 20669 net.cpp:148] Top shape: 128 64 32 32 (8388608)
I0621 01:51:53.962036 20669 net.cpp:156] Memory required for data: 1075315200
I0621 01:51:53.962045 20669 layer_factory.hpp:77] Creating layer elt_c_1
I0621 01:51:53.962056 20669 net.cpp:91] Creating Layer elt_c_1
I0621 01:51:53.962064 20669 net.cpp:425] elt_c_1 <- res_c
I0621 01:51:53.962069 20669 net.cpp:425] elt_c_1 <- conv_c_1_2
I0621 01:51:53.962076 20669 net.cpp:399] elt_c_1 -> elt_c_1
I0621 01:51:53.962108 20669 net.cpp:141] Setting up elt_c_1
I0621 01:51:53.962118 20669 net.cpp:148] Top shape: 128 64 32 32 (8388608)
I0621 01:51:53.962124 20669 net.cpp:156] Memory required for data: 1108869632
I0621 01:51:53.962129 20669 layer_factory.hpp:77] Creating layer elt_c_1_elt_c_1_0_split
I0621 01:51:53.962136 20669 net.cpp:91] Creating Layer elt_c_1_elt_c_1_0_split
I0621 01:51:53.962141 20669 net.cpp:425] elt_c_1_elt_c_1_0_split <- elt_c_1
I0621 01:51:53.962151 20669 net.cpp:399] elt_c_1_elt_c_1_0_split -> elt_c_1_elt_c_1_0_split_0
I0621 01:51:53.962173 20669 net.cpp:399] elt_c_1_elt_c_1_0_split -> elt_c_1_elt_c_1_0_split_1
I0621 01:51:53.962183 20669 net.cpp:399] elt_c_1_elt_c_1_0_split -> elt_c_1_elt_c_1_0_split_2
I0621 01:51:53.962193 20669 net.cpp:399] elt_c_1_elt_c_1_0_split -> elt_c_1_elt_c_1_0_split_3
I0621 01:51:53.962270 20669 net.cpp:141] Setting up elt_c_1_elt_c_1_0_split
I0621 01:51:53.962293 20669 net.cpp:148] Top shape: 128 64 32 32 (8388608)
I0621 01:51:53.962302 20669 net.cpp:148] Top shape: 128 64 32 32 (8388608)
I0621 01:51:53.962308 20669 net.cpp:148] Top shape: 128 64 32 32 (8388608)
I0621 01:51:53.962314 20669 net.cpp:148] Top shape: 128 64 32 32 (8388608)
I0621 01:51:53.962318 20669 net.cpp:156] Memory required for data: 1243087360
I0621 01:51:53.962323 20669 layer_factory.hpp:77] Creating layer bn_d_1_1
I0621 01:51:53.962332 20669 net.cpp:91] Creating Layer bn_d_1_1
I0621 01:51:53.962338 20669 net.cpp:425] bn_d_1_1 <- elt_a_1_elt_a_1_0_split_0
I0621 01:51:53.962348 20669 net.cpp:399] bn_d_1_1 -> bn_d_1_1
I0621 01:51:53.962568 20669 net.cpp:141] Setting up bn_d_1_1
I0621 01:51:53.962579 20669 net.cpp:148] Top shape: 128 64 32 32 (8388608)
I0621 01:51:53.962586 20669 net.cpp:156] Memory required for data: 1276641792
I0621 01:51:53.962596 20669 layer_factory.hpp:77] Creating layer sc_d_1_1
I0621 01:51:53.962609 20669 net.cpp:91] Creating Layer sc_d_1_1
I0621 01:51:53.962616 20669 net.cpp:425] sc_d_1_1 <- bn_d_1_1
I0621 01:51:53.962623 20669 net.cpp:399] sc_d_1_1 -> sc_d_1_1
I0621 01:51:53.962669 20669 layer_factory.hpp:77] Creating layer sc_d_1_1
I0621 01:51:53.962807 20669 net.cpp:141] Setting up sc_d_1_1
I0621 01:51:53.962833 20669 net.cpp:148] Top shape: 128 64 32 32 (8388608)
I0621 01:51:53.962841 20669 net.cpp:156] Memory required for data: 1310196224
I0621 01:51:53.962848 20669 layer_factory.hpp:77] Creating layer relu_d_1_1
I0621 01:51:53.962857 20669 net.cpp:91] Creating Layer relu_d_1_1
I0621 01:51:53.962864 20669 net.cpp:425] relu_d_1_1 <- sc_d_1_1
I0621 01:51:53.962873 20669 net.cpp:399] relu_d_1_1 -> relu_d_1_1
I0621 01:51:53.963071 20669 net.cpp:141] Setting up relu_d_1_1
I0621 01:51:53.963085 20669 net.cpp:148] Top shape: 128 64 32 32 (8388608)
I0621 01:51:53.963091 20669 net.cpp:156] Memory required for data: 1343750656
I0621 01:51:53.963096 20669 layer_factory.hpp:77] Creating layer conv_d_1_1
I0621 01:51:53.963110 20669 net.cpp:91] Creating Layer conv_d_1_1
I0621 01:51:53.963117 20669 net.cpp:425] conv_d_1_1 <- relu_d_1_1
I0621 01:51:53.963127 20669 net.cpp:399] conv_d_1_1 -> conv_d_1_1
I0621 01:51:53.966575 20669 net.cpp:141] Setting up conv_d_1_1
I0621 01:51:53.966591 20669 net.cpp:148] Top shape: 128 128 16 16 (4194304)
I0621 01:51:53.966611 20669 net.cpp:156] Memory required for data: 1360527872
I0621 01:51:53.966620 20669 layer_factory.hpp:77] Creating layer bn_d_1_2
I0621 01:51:53.966632 20669 net.cpp:91] Creating Layer bn_d_1_2
I0621 01:51:53.966640 20669 net.cpp:425] bn_d_1_2 <- conv_d_1_1
I0621 01:51:53.966650 20669 net.cpp:399] bn_d_1_2 -> bn_d_1_2
I0621 01:51:53.966871 20669 net.cpp:141] Setting up bn_d_1_2
I0621 01:51:53.966886 20669 net.cpp:148] Top shape: 128 128 16 16 (4194304)
I0621 01:51:53.966891 20669 net.cpp:156] Memory required for data: 1377305088
I0621 01:51:53.966900 20669 layer_factory.hpp:77] Creating layer sc_d_1_2
I0621 01:51:53.966913 20669 net.cpp:91] Creating Layer sc_d_1_2
I0621 01:51:53.966922 20669 net.cpp:425] sc_d_1_2 <- bn_d_1_2
I0621 01:51:53.966929 20669 net.cpp:399] sc_d_1_2 -> sc_d_1_2
I0621 01:51:53.966974 20669 layer_factory.hpp:77] Creating layer sc_d_1_2
I0621 01:51:53.967108 20669 net.cpp:141] Setting up sc_d_1_2
I0621 01:51:53.967121 20669 net.cpp:148] Top shape: 128 128 16 16 (4194304)
I0621 01:51:53.967128 20669 net.cpp:156] Memory required for data: 1394082304
I0621 01:51:53.967135 20669 layer_factory.hpp:77] Creating layer relu_d_1_2
I0621 01:51:53.967144 20669 net.cpp:91] Creating Layer relu_d_1_2
I0621 01:51:53.967149 20669 net.cpp:425] relu_d_1_2 <- sc_d_1_2
I0621 01:51:53.967156 20669 net.cpp:399] relu_d_1_2 -> relu_d_1_2
I0621 01:51:53.967411 20669 net.cpp:141] Setting up relu_d_1_2
I0621 01:51:53.967427 20669 net.cpp:148] Top shape: 128 128 16 16 (4194304)
I0621 01:51:53.967432 20669 net.cpp:156] Memory required for data: 1410859520
I0621 01:51:53.967438 20669 layer_factory.hpp:77] Creating layer conv_d_1_2
I0621 01:51:53.967454 20669 net.cpp:91] Creating Layer conv_d_1_2
I0621 01:51:53.967478 20669 net.cpp:425] conv_d_1_2 <- relu_d_1_2
I0621 01:51:53.967499 20669 net.cpp:399] conv_d_1_2 -> conv_d_1_2
I0621 01:51:53.972486 20669 net.cpp:141] Setting up conv_d_1_2
I0621 01:51:53.972501 20669 net.cpp:148] Top shape: 128 128 16 16 (4194304)
I0621 01:51:53.972520 20669 net.cpp:156] Memory required for data: 1427636736
I0621 01:51:53.972529 20669 layer_factory.hpp:77] Creating layer res_d
I0621 01:51:53.972543 20669 net.cpp:91] Creating Layer res_d
I0621 01:51:53.972549 20669 net.cpp:425] res_d <- elt_a_1_elt_a_1_0_split_1
I0621 01:51:53.972559 20669 net.cpp:399] res_d -> res_d
I0621 01:51:53.973796 20669 net.cpp:141] Setting up res_d
I0621 01:51:53.973826 20669 net.cpp:148] Top shape: 128 128 16 16 (4194304)
I0621 01:51:53.973834 20669 net.cpp:156] Memory required for data: 1444413952
I0621 01:51:53.973851 20669 layer_factory.hpp:77] Creating layer elt_d_1
I0621 01:51:53.973860 20669 net.cpp:91] Creating Layer elt_d_1
I0621 01:51:53.973866 20669 net.cpp:425] elt_d_1 <- res_d
I0621 01:51:53.973872 20669 net.cpp:425] elt_d_1 <- conv_d_1_2
I0621 01:51:53.973901 20669 net.cpp:399] elt_d_1 -> elt_d_1
I0621 01:51:53.973932 20669 net.cpp:141] Setting up elt_d_1
I0621 01:51:53.973942 20669 net.cpp:148] Top shape: 128 128 16 16 (4194304)
I0621 01:51:53.973948 20669 net.cpp:156] Memory required for data: 1461191168
I0621 01:51:53.973953 20669 layer_factory.hpp:77] Creating layer bn_f_1_1
I0621 01:51:53.973963 20669 net.cpp:91] Creating Layer bn_f_1_1
I0621 01:51:53.973969 20669 net.cpp:425] bn_f_1_1 <- elt_b_1_elt_b_1_0_split_0
I0621 01:51:53.973978 20669 net.cpp:399] bn_f_1_1 -> bn_f_1_1
I0621 01:51:53.974172 20669 net.cpp:141] Setting up bn_f_1_1
I0621 01:51:53.974184 20669 net.cpp:148] Top shape: 128 64 32 32 (8388608)
I0621 01:51:53.974189 20669 net.cpp:156] Memory required for data: 1494745600
I0621 01:51:53.974200 20669 layer_factory.hpp:77] Creating layer sc_f_1_1
I0621 01:51:53.974207 20669 net.cpp:91] Creating Layer sc_f_1_1
I0621 01:51:53.974215 20669 net.cpp:425] sc_f_1_1 <- bn_f_1_1
I0621 01:51:53.974225 20669 net.cpp:399] sc_f_1_1 -> sc_f_1_1
I0621 01:51:53.974272 20669 layer_factory.hpp:77] Creating layer sc_f_1_1
I0621 01:51:53.974406 20669 net.cpp:141] Setting up sc_f_1_1
I0621 01:51:53.974417 20669 net.cpp:148] Top shape: 128 64 32 32 (8388608)
I0621 01:51:53.974423 20669 net.cpp:156] Memory required for data: 1528300032
I0621 01:51:53.974432 20669 layer_factory.hpp:77] Creating layer relu_f_1_1
I0621 01:51:53.974442 20669 net.cpp:91] Creating Layer relu_f_1_1
I0621 01:51:53.974449 20669 net.cpp:425] relu_f_1_1 <- sc_f_1_1
I0621 01:51:53.974457 20669 net.cpp:399] relu_f_1_1 -> relu_f_1_1
I0621 01:51:53.974782 20669 net.cpp:141] Setting up relu_f_1_1
I0621 01:51:53.974798 20669 net.cpp:148] Top shape: 128 64 32 32 (8388608)
I0621 01:51:53.974803 20669 net.cpp:156] Memory required for data: 1561854464
I0621 01:51:53.974809 20669 layer_factory.hpp:77] Creating layer conv_f_1_1
I0621 01:51:53.974825 20669 net.cpp:91] Creating Layer conv_f_1_1
I0621 01:51:53.974833 20669 net.cpp:425] conv_f_1_1 <- relu_f_1_1
I0621 01:51:53.974841 20669 net.cpp:399] conv_f_1_1 -> conv_f_1_1
I0621 01:51:53.978087 20669 net.cpp:141] Setting up conv_f_1_1
I0621 01:51:53.978106 20669 net.cpp:148] Top shape: 128 128 16 16 (4194304)
I0621 01:51:53.978111 20669 net.cpp:156] Memory required for data: 1578631680
I0621 01:51:53.978119 20669 layer_factory.hpp:77] Creating layer bn_f_1_2
I0621 01:51:53.978140 20669 net.cpp:91] Creating Layer bn_f_1_2
I0621 01:51:53.978147 20669 net.cpp:425] bn_f_1_2 <- conv_f_1_1
I0621 01:51:53.978155 20669 net.cpp:399] bn_f_1_2 -> bn_f_1_2
I0621 01:51:53.978375 20669 net.cpp:141] Setting up bn_f_1_2
I0621 01:51:53.978389 20669 net.cpp:148] Top shape: 128 128 16 16 (4194304)
I0621 01:51:53.978394 20669 net.cpp:156] Memory required for data: 1595408896
I0621 01:51:53.978404 20669 layer_factory.hpp:77] Creating layer sc_f_1_2
I0621 01:51:53.978412 20669 net.cpp:91] Creating Layer sc_f_1_2
I0621 01:51:53.978420 20669 net.cpp:425] sc_f_1_2 <- bn_f_1_2
I0621 01:51:53.978430 20669 net.cpp:399] sc_f_1_2 -> sc_f_1_2
I0621 01:51:53.978497 20669 layer_factory.hpp:77] Creating layer sc_f_1_2
I0621 01:51:53.978610 20669 net.cpp:141] Setting up sc_f_1_2
I0621 01:51:53.978622 20669 net.cpp:148] Top shape: 128 128 16 16 (4194304)
I0621 01:51:53.978628 20669 net.cpp:156] Memory required for data: 1612186112
I0621 01:51:53.978636 20669 layer_factory.hpp:77] Creating layer relu_f_1_2
I0621 01:51:53.978646 20669 net.cpp:91] Creating Layer relu_f_1_2
I0621 01:51:53.978652 20669 net.cpp:425] relu_f_1_2 <- sc_f_1_2
I0621 01:51:53.978662 20669 net.cpp:399] relu_f_1_2 -> relu_f_1_2
I0621 01:51:53.979081 20669 net.cpp:141] Setting up relu_f_1_2
I0621 01:51:53.979113 20669 net.cpp:148] Top shape: 128 128 16 16 (4194304)
I0621 01:51:53.979120 20669 net.cpp:156] Memory required for data: 1628963328
I0621 01:51:53.979125 20669 layer_factory.hpp:77] Creating layer conv_f_1_2
I0621 01:51:53.979140 20669 net.cpp:91] Creating Layer conv_f_1_2
I0621 01:51:53.979146 20669 net.cpp:425] conv_f_1_2 <- relu_f_1_2
I0621 01:51:53.979154 20669 net.cpp:399] conv_f_1_2 -> conv_f_1_2
I0621 01:51:53.983929 20669 net.cpp:141] Setting up conv_f_1_2
I0621 01:51:53.983947 20669 net.cpp:148] Top shape: 128 128 16 16 (4194304)
I0621 01:51:53.983965 20669 net.cpp:156] Memory required for data: 1645740544
I0621 01:51:53.983974 20669 layer_factory.hpp:77] Creating layer res_f
I0621 01:51:53.983989 20669 net.cpp:91] Creating Layer res_f
I0621 01:51:53.983995 20669 net.cpp:425] res_f <- elt_b_1_elt_b_1_0_split_1
I0621 01:51:53.984004 20669 net.cpp:399] res_f -> res_f
I0621 01:51:53.985136 20669 net.cpp:141] Setting up res_f
I0621 01:51:53.985149 20669 net.cpp:148] Top shape: 128 128 16 16 (4194304)
I0621 01:51:53.985154 20669 net.cpp:156] Memory required for data: 1662517760
I0621 01:51:53.985162 20669 layer_factory.hpp:77] Creating layer elt_f_1
I0621 01:51:53.985172 20669 net.cpp:91] Creating Layer elt_f_1
I0621 01:51:53.985177 20669 net.cpp:425] elt_f_1 <- res_f
I0621 01:51:53.985198 20669 net.cpp:425] elt_f_1 <- conv_f_1_2
I0621 01:51:53.985204 20669 net.cpp:399] elt_f_1 -> elt_f_1
I0621 01:51:53.985229 20669 net.cpp:141] Setting up elt_f_1
I0621 01:51:53.985240 20669 net.cpp:148] Top shape: 128 128 16 16 (4194304)
I0621 01:51:53.985245 20669 net.cpp:156] Memory required for data: 1679294976
I0621 01:51:53.985249 20669 layer_factory.hpp:77] Creating layer bn_g_1_1
I0621 01:51:53.985260 20669 net.cpp:91] Creating Layer bn_g_1_1
I0621 01:51:53.985266 20669 net.cpp:425] bn_g_1_1 <- elt_b_1_elt_b_1_0_split_2
I0621 01:51:53.985275 20669 net.cpp:399] bn_g_1_1 -> bn_g_1_1
I0621 01:51:53.985504 20669 net.cpp:141] Setting up bn_g_1_1
I0621 01:51:53.985517 20669 net.cpp:148] Top shape: 128 64 32 32 (8388608)
I0621 01:51:53.985522 20669 net.cpp:156] Memory required for data: 1712849408
I0621 01:51:53.985532 20669 layer_factory.hpp:77] Creating layer sc_g_1_1
I0621 01:51:53.985543 20669 net.cpp:91] Creating Layer sc_g_1_1
I0621 01:51:53.985548 20669 net.cpp:425] sc_g_1_1 <- bn_g_1_1
I0621 01:51:53.985556 20669 net.cpp:399] sc_g_1_1 -> sc_g_1_1
I0621 01:51:53.985605 20669 layer_factory.hpp:77] Creating layer sc_g_1_1
I0621 01:51:53.985736 20669 net.cpp:141] Setting up sc_g_1_1
I0621 01:51:53.985749 20669 net.cpp:148] Top shape: 128 64 32 32 (8388608)
I0621 01:51:53.985754 20669 net.cpp:156] Memory required for data: 1746403840
I0621 01:51:53.985762 20669 layer_factory.hpp:77] Creating layer relu_g_1_1
I0621 01:51:53.985772 20669 net.cpp:91] Creating Layer relu_g_1_1
I0621 01:51:53.985780 20669 net.cpp:425] relu_g_1_1 <- sc_g_1_1
I0621 01:51:53.985787 20669 net.cpp:399] relu_g_1_1 -> relu_g_1_1
I0621 01:51:53.986110 20669 net.cpp:141] Setting up relu_g_1_1
I0621 01:51:53.986137 20669 net.cpp:148] Top shape: 128 64 32 32 (8388608)
I0621 01:51:53.986143 20669 net.cpp:156] Memory required for data: 1779958272
I0621 01:51:53.986148 20669 layer_factory.hpp:77] Creating layer conv_g_1_1
I0621 01:51:53.986162 20669 net.cpp:91] Creating Layer conv_g_1_1
I0621 01:51:53.986171 20669 net.cpp:425] conv_g_1_1 <- relu_g_1_1
I0621 01:51:53.986178 20669 net.cpp:399] conv_g_1_1 -> conv_g_1_1
I0621 01:51:53.989697 20669 net.cpp:141] Setting up conv_g_1_1
I0621 01:51:53.989712 20669 net.cpp:148] Top shape: 128 128 16 16 (4194304)
I0621 01:51:53.989737 20669 net.cpp:156] Memory required for data: 1796735488
I0621 01:51:53.989745 20669 layer_factory.hpp:77] Creating layer bn_g_1_2
I0621 01:51:53.989756 20669 net.cpp:91] Creating Layer bn_g_1_2
I0621 01:51:53.989763 20669 net.cpp:425] bn_g_1_2 <- conv_g_1_1
I0621 01:51:53.989771 20669 net.cpp:399] bn_g_1_2 -> bn_g_1_2
I0621 01:51:53.989997 20669 net.cpp:141] Setting up bn_g_1_2
I0621 01:51:53.990010 20669 net.cpp:148] Top shape: 128 128 16 16 (4194304)
I0621 01:51:53.990015 20669 net.cpp:156] Memory required for data: 1813512704
I0621 01:51:53.990025 20669 layer_factory.hpp:77] Creating layer sc_g_1_2
I0621 01:51:53.990034 20669 net.cpp:91] Creating Layer sc_g_1_2
I0621 01:51:53.990041 20669 net.cpp:425] sc_g_1_2 <- bn_g_1_2
I0621 01:51:53.990048 20669 net.cpp:399] sc_g_1_2 -> sc_g_1_2
I0621 01:51:53.990095 20669 layer_factory.hpp:77] Creating layer sc_g_1_2
I0621 01:51:53.990216 20669 net.cpp:141] Setting up sc_g_1_2
I0621 01:51:53.990227 20669 net.cpp:148] Top shape: 128 128 16 16 (4194304)
I0621 01:51:53.990233 20669 net.cpp:156] Memory required for data: 1830289920
I0621 01:51:53.990242 20669 layer_factory.hpp:77] Creating layer relu_g_1_2
I0621 01:51:53.990253 20669 net.cpp:91] Creating Layer relu_g_1_2
I0621 01:51:53.990260 20669 net.cpp:425] relu_g_1_2 <- sc_g_1_2
I0621 01:51:53.990269 20669 net.cpp:399] relu_g_1_2 -> relu_g_1_2
I0621 01:51:53.990458 20669 net.cpp:141] Setting up relu_g_1_2
I0621 01:51:53.990473 20669 net.cpp:148] Top shape: 128 128 16 16 (4194304)
I0621 01:51:53.990478 20669 net.cpp:156] Memory required for data: 1847067136
I0621 01:51:53.990483 20669 layer_factory.hpp:77] Creating layer conv_g_1_2
I0621 01:51:53.990499 20669 net.cpp:91] Creating Layer conv_g_1_2
I0621 01:51:53.990506 20669 net.cpp:425] conv_g_1_2 <- relu_g_1_2
I0621 01:51:53.990517 20669 net.cpp:399] conv_g_1_2 -> conv_g_1_2
I0621 01:51:53.995388 20669 net.cpp:141] Setting up conv_g_1_2
I0621 01:51:53.995417 20669 net.cpp:148] Top shape: 128 128 16 16 (4194304)
I0621 01:51:53.995424 20669 net.cpp:156] Memory required for data: 1863844352
I0621 01:51:53.995432 20669 layer_factory.hpp:77] Creating layer res_g
I0621 01:51:53.995452 20669 net.cpp:91] Creating Layer res_g
I0621 01:51:53.995460 20669 net.cpp:425] res_g <- elt_b_1_elt_b_1_0_split_3
I0621 01:51:53.995482 20669 net.cpp:399] res_g -> res_g
I0621 01:51:53.996721 20669 net.cpp:141] Setting up res_g
I0621 01:51:53.996749 20669 net.cpp:148] Top shape: 128 128 16 16 (4194304)
I0621 01:51:53.996755 20669 net.cpp:156] Memory required for data: 1880621568
I0621 01:51:53.996764 20669 layer_factory.hpp:77] Creating layer elt_g_1
I0621 01:51:53.996773 20669 net.cpp:91] Creating Layer elt_g_1
I0621 01:51:53.996778 20669 net.cpp:425] elt_g_1 <- res_g
I0621 01:51:53.996786 20669 net.cpp:425] elt_g_1 <- conv_g_1_2
I0621 01:51:53.996794 20669 net.cpp:399] elt_g_1 -> elt_g_1
I0621 01:51:53.996835 20669 net.cpp:141] Setting up elt_g_1
I0621 01:51:53.996847 20669 net.cpp:148] Top shape: 128 128 16 16 (4194304)
I0621 01:51:53.996852 20669 net.cpp:156] Memory required for data: 1897398784
I0621 01:51:53.996857 20669 layer_factory.hpp:77] Creating layer bn_h_1_1
I0621 01:51:53.996867 20669 net.cpp:91] Creating Layer bn_h_1_1
I0621 01:51:53.996876 20669 net.cpp:425] bn_h_1_1 <- elt_c_1_elt_c_1_0_split_0
I0621 01:51:53.996886 20669 net.cpp:399] bn_h_1_1 -> bn_h_1_1
I0621 01:51:53.997094 20669 net.cpp:141] Setting up bn_h_1_1
I0621 01:51:53.997107 20669 net.cpp:148] Top shape: 128 64 32 32 (8388608)
I0621 01:51:53.997112 20669 net.cpp:156] Memory required for data: 1930953216
I0621 01:51:53.997122 20669 layer_factory.hpp:77] Creating layer sc_h_1_1
I0621 01:51:53.997130 20669 net.cpp:91] Creating Layer sc_h_1_1
I0621 01:51:53.997138 20669 net.cpp:425] sc_h_1_1 <- bn_h_1_1
I0621 01:51:53.997144 20669 net.cpp:399] sc_h_1_1 -> sc_h_1_1
I0621 01:51:53.997195 20669 layer_factory.hpp:77] Creating layer sc_h_1_1
I0621 01:51:53.997339 20669 net.cpp:141] Setting up sc_h_1_1
I0621 01:51:53.997352 20669 net.cpp:148] Top shape: 128 64 32 32 (8388608)
I0621 01:51:53.997357 20669 net.cpp:156] Memory required for data: 1964507648
I0621 01:51:53.997365 20669 layer_factory.hpp:77] Creating layer relu_h_1_1
I0621 01:51:53.997375 20669 net.cpp:91] Creating Layer relu_h_1_1
I0621 01:51:53.997380 20669 net.cpp:425] relu_h_1_1 <- sc_h_1_1
I0621 01:51:53.997388 20669 net.cpp:399] relu_h_1_1 -> relu_h_1_1
I0621 01:51:53.997582 20669 net.cpp:141] Setting up relu_h_1_1
I0621 01:51:53.997596 20669 net.cpp:148] Top shape: 128 64 32 32 (8388608)
I0621 01:51:53.997603 20669 net.cpp:156] Memory required for data: 1998062080
I0621 01:51:53.997608 20669 layer_factory.hpp:77] Creating layer conv_h_1_1
I0621 01:51:53.997622 20669 net.cpp:91] Creating Layer conv_h_1_1
I0621 01:51:53.997630 20669 net.cpp:425] conv_h_1_1 <- relu_h_1_1
I0621 01:51:53.997639 20669 net.cpp:399] conv_h_1_1 -> conv_h_1_1
I0621 01:51:54.001103 20669 net.cpp:141] Setting up conv_h_1_1
I0621 01:51:54.001119 20669 net.cpp:148] Top shape: 128 128 16 16 (4194304)
I0621 01:51:54.001143 20669 net.cpp:156] Memory required for data: 2014839296
I0621 01:51:54.001153 20669 layer_factory.hpp:77] Creating layer bn_h_1_2
I0621 01:51:54.001166 20669 net.cpp:91] Creating Layer bn_h_1_2
I0621 01:51:54.001173 20669 net.cpp:425] bn_h_1_2 <- conv_h_1_1
I0621 01:51:54.001183 20669 net.cpp:399] bn_h_1_2 -> bn_h_1_2
I0621 01:51:54.001389 20669 net.cpp:141] Setting up bn_h_1_2
I0621 01:51:54.001401 20669 net.cpp:148] Top shape: 128 128 16 16 (4194304)
I0621 01:51:54.001406 20669 net.cpp:156] Memory required for data: 2031616512
I0621 01:51:54.001416 20669 layer_factory.hpp:77] Creating layer sc_h_1_2
I0621 01:51:54.001428 20669 net.cpp:91] Creating Layer sc_h_1_2
I0621 01:51:54.001435 20669 net.cpp:425] sc_h_1_2 <- bn_h_1_2
I0621 01:51:54.001443 20669 net.cpp:399] sc_h_1_2 -> sc_h_1_2
I0621 01:51:54.001492 20669 layer_factory.hpp:77] Creating layer sc_h_1_2
I0621 01:51:54.001615 20669 net.cpp:141] Setting up sc_h_1_2
I0621 01:51:54.001626 20669 net.cpp:148] Top shape: 128 128 16 16 (4194304)
I0621 01:51:54.001632 20669 net.cpp:156] Memory required for data: 2048393728
I0621 01:51:54.001641 20669 layer_factory.hpp:77] Creating layer relu_h_1_2
I0621 01:51:54.001649 20669 net.cpp:91] Creating Layer relu_h_1_2
I0621 01:51:54.001657 20669 net.cpp:425] relu_h_1_2 <- sc_h_1_2
I0621 01:51:54.001663 20669 net.cpp:399] relu_h_1_2 -> relu_h_1_2
I0621 01:51:54.001965 20669 net.cpp:141] Setting up relu_h_1_2
I0621 01:51:54.001981 20669 net.cpp:148] Top shape: 128 128 16 16 (4194304)
I0621 01:51:54.001986 20669 net.cpp:156] Memory required for data: 2065170944
I0621 01:51:54.001992 20669 layer_factory.hpp:77] Creating layer conv_h_1_2
I0621 01:51:54.002007 20669 net.cpp:91] Creating Layer conv_h_1_2
I0621 01:51:54.002013 20669 net.cpp:425] conv_h_1_2 <- relu_h_1_2
I0621 01:51:54.002024 20669 net.cpp:399] conv_h_1_2 -> conv_h_1_2
I0621 01:51:54.007042 20669 net.cpp:141] Setting up conv_h_1_2
I0621 01:51:54.007061 20669 net.cpp:148] Top shape: 128 128 16 16 (4194304)
I0621 01:51:54.007083 20669 net.cpp:156] Memory required for data: 2081948160
I0621 01:51:54.007092 20669 layer_factory.hpp:77] Creating layer res_h
I0621 01:51:54.007108 20669 net.cpp:91] Creating Layer res_h
I0621 01:51:54.007117 20669 net.cpp:425] res_h <- elt_c_1_elt_c_1_0_split_1
I0621 01:51:54.007125 20669 net.cpp:399] res_h -> res_h
I0621 01:51:54.008250 20669 net.cpp:141] Setting up res_h
I0621 01:51:54.008265 20669 net.cpp:148] Top shape: 128 128 16 16 (4194304)
I0621 01:51:54.008270 20669 net.cpp:156] Memory required for data: 2098725376
I0621 01:51:54.008278 20669 layer_factory.hpp:77] Creating layer elt_h_1
I0621 01:51:54.008286 20669 net.cpp:91] Creating Layer elt_h_1
I0621 01:51:54.008292 20669 net.cpp:425] elt_h_1 <- res_h
I0621 01:51:54.008311 20669 net.cpp:425] elt_h_1 <- conv_h_1_2
I0621 01:51:54.008322 20669 net.cpp:399] elt_h_1 -> elt_h_1
I0621 01:51:54.008349 20669 net.cpp:141] Setting up elt_h_1
I0621 01:51:54.008360 20669 net.cpp:148] Top shape: 128 128 16 16 (4194304)
I0621 01:51:54.008380 20669 net.cpp:156] Memory required for data: 2115502592
I0621 01:51:54.008386 20669 layer_factory.hpp:77] Creating layer bn_i_1_1
I0621 01:51:54.008397 20669 net.cpp:91] Creating Layer bn_i_1_1
I0621 01:51:54.008404 20669 net.cpp:425] bn_i_1_1 <- elt_c_1_elt_c_1_0_split_2
I0621 01:51:54.008414 20669 net.cpp:399] bn_i_1_1 -> bn_i_1_1
I0621 01:51:54.008648 20669 net.cpp:141] Setting up bn_i_1_1
I0621 01:51:54.008661 20669 net.cpp:148] Top shape: 128 64 32 32 (8388608)
I0621 01:51:54.008666 20669 net.cpp:156] Memory required for data: 2149057024
I0621 01:51:54.008677 20669 layer_factory.hpp:77] Creating layer sc_i_1_1
I0621 01:51:54.008687 20669 net.cpp:91] Creating Layer sc_i_1_1
I0621 01:51:54.008692 20669 net.cpp:425] sc_i_1_1 <- bn_i_1_1
I0621 01:51:54.008700 20669 net.cpp:399] sc_i_1_1 -> sc_i_1_1
I0621 01:51:54.008752 20669 layer_factory.hpp:77] Creating layer sc_i_1_1
I0621 01:51:54.008888 20669 net.cpp:141] Setting up sc_i_1_1
I0621 01:51:54.008901 20669 net.cpp:148] Top shape: 128 64 32 32 (8388608)
I0621 01:51:54.008905 20669 net.cpp:156] Memory required for data: 2182611456
I0621 01:51:54.008914 20669 layer_factory.hpp:77] Creating layer relu_i_1_1
I0621 01:51:54.008922 20669 net.cpp:91] Creating Layer relu_i_1_1
I0621 01:51:54.008929 20669 net.cpp:425] relu_i_1_1 <- sc_i_1_1
I0621 01:51:54.008939 20669 net.cpp:399] relu_i_1_1 -> relu_i_1_1
I0621 01:51:54.009243 20669 net.cpp:141] Setting up relu_i_1_1
I0621 01:51:54.009256 20669 net.cpp:148] Top shape: 128 64 32 32 (8388608)
I0621 01:51:54.009263 20669 net.cpp:156] Memory required for data: 2216165888
I0621 01:51:54.009269 20669 layer_factory.hpp:77] Creating layer conv_i_1_1
I0621 01:51:54.009282 20669 net.cpp:91] Creating Layer conv_i_1_1
I0621 01:51:54.009290 20669 net.cpp:425] conv_i_1_1 <- relu_i_1_1
I0621 01:51:54.009300 20669 net.cpp:399] conv_i_1_1 -> conv_i_1_1
I0621 01:51:54.013042 20669 net.cpp:141] Setting up conv_i_1_1
I0621 01:51:54.013059 20669 net.cpp:148] Top shape: 128 128 16 16 (4194304)
I0621 01:51:54.013072 20669 net.cpp:156] Memory required for data: 2232943104
I0621 01:51:54.013080 20669 layer_factory.hpp:77] Creating layer bn_i_1_2
I0621 01:51:54.013093 20669 net.cpp:91] Creating Layer bn_i_1_2
I0621 01:51:54.013101 20669 net.cpp:425] bn_i_1_2 <- conv_i_1_1
I0621 01:51:54.013111 20669 net.cpp:399] bn_i_1_2 -> bn_i_1_2
I0621 01:51:54.013346 20669 net.cpp:141] Setting up bn_i_1_2
I0621 01:51:54.013358 20669 net.cpp:148] Top shape: 128 128 16 16 (4194304)
I0621 01:51:54.013363 20669 net.cpp:156] Memory required for data: 2249720320
I0621 01:51:54.013373 20669 layer_factory.hpp:77] Creating layer sc_i_1_2
I0621 01:51:54.013386 20669 net.cpp:91] Creating Layer sc_i_1_2
I0621 01:51:54.013392 20669 net.cpp:425] sc_i_1_2 <- bn_i_1_2
I0621 01:51:54.013399 20669 net.cpp:399] sc_i_1_2 -> sc_i_1_2
I0621 01:51:54.013447 20669 layer_factory.hpp:77] Creating layer sc_i_1_2
I0621 01:51:54.013571 20669 net.cpp:141] Setting up sc_i_1_2
I0621 01:51:54.013583 20669 net.cpp:148] Top shape: 128 128 16 16 (4194304)
I0621 01:51:54.013588 20669 net.cpp:156] Memory required for data: 2266497536
I0621 01:51:54.013597 20669 layer_factory.hpp:77] Creating layer relu_i_1_2
I0621 01:51:54.013605 20669 net.cpp:91] Creating Layer relu_i_1_2
I0621 01:51:54.013612 20669 net.cpp:425] relu_i_1_2 <- sc_i_1_2
I0621 01:51:54.013619 20669 net.cpp:399] relu_i_1_2 -> relu_i_1_2
I0621 01:51:54.013818 20669 net.cpp:141] Setting up relu_i_1_2
I0621 01:51:54.013830 20669 net.cpp:148] Top shape: 128 128 16 16 (4194304)
I0621 01:51:54.013838 20669 net.cpp:156] Memory required for data: 2283274752
I0621 01:51:54.013842 20669 layer_factory.hpp:77] Creating layer conv_i_1_2
I0621 01:51:54.013856 20669 net.cpp:91] Creating Layer conv_i_1_2
I0621 01:51:54.013864 20669 net.cpp:425] conv_i_1_2 <- relu_i_1_2
I0621 01:51:54.013875 20669 net.cpp:399] conv_i_1_2 -> conv_i_1_2
I0621 01:51:54.018975 20669 net.cpp:141] Setting up conv_i_1_2
I0621 01:51:54.018993 20669 net.cpp:148] Top shape: 128 128 16 16 (4194304)
I0621 01:51:54.018999 20669 net.cpp:156] Memory required for data: 2300051968
I0621 01:51:54.019029 20669 layer_factory.hpp:77] Creating layer res_i
I0621 01:51:54.019049 20669 net.cpp:91] Creating Layer res_i
I0621 01:51:54.019057 20669 net.cpp:425] res_i <- elt_c_1_elt_c_1_0_split_3
I0621 01:51:54.019067 20669 net.cpp:399] res_i -> res_i
I0621 01:51:54.020321 20669 net.cpp:141] Setting up res_i
I0621 01:51:54.020336 20669 net.cpp:148] Top shape: 128 128 16 16 (4194304)
I0621 01:51:54.020341 20669 net.cpp:156] Memory required for data: 2316829184
I0621 01:51:54.020366 20669 layer_factory.hpp:77] Creating layer elt_i_1
I0621 01:51:54.020378 20669 net.cpp:91] Creating Layer elt_i_1
I0621 01:51:54.020390 20669 net.cpp:425] elt_i_1 <- res_i
I0621 01:51:54.020396 20669 net.cpp:425] elt_i_1 <- conv_i_1_2
I0621 01:51:54.020404 20669 net.cpp:399] elt_i_1 -> elt_i_1
I0621 01:51:54.020433 20669 net.cpp:141] Setting up elt_i_1
I0621 01:51:54.020444 20669 net.cpp:148] Top shape: 128 128 16 16 (4194304)
I0621 01:51:54.020449 20669 net.cpp:156] Memory required for data: 2333606400
I0621 01:51:54.020454 20669 layer_factory.hpp:77] Creating layer elt_d_f
I0621 01:51:54.020460 20669 net.cpp:91] Creating Layer elt_d_f
I0621 01:51:54.020467 20669 net.cpp:425] elt_d_f <- elt_d_1
I0621 01:51:54.020473 20669 net.cpp:425] elt_d_f <- elt_f_1
I0621 01:51:54.020479 20669 net.cpp:399] elt_d_f -> elt_d_f
I0621 01:51:54.020524 20669 net.cpp:141] Setting up elt_d_f
I0621 01:51:54.020536 20669 net.cpp:148] Top shape: 128 128 16 16 (4194304)
I0621 01:51:54.020542 20669 net.cpp:156] Memory required for data: 2350383616
I0621 01:51:54.020547 20669 layer_factory.hpp:77] Creating layer elt_d_f_elt_d_f_0_split
I0621 01:51:54.020555 20669 net.cpp:91] Creating Layer elt_d_f_elt_d_f_0_split
I0621 01:51:54.020562 20669 net.cpp:425] elt_d_f_elt_d_f_0_split <- elt_d_f
I0621 01:51:54.020570 20669 net.cpp:399] elt_d_f_elt_d_f_0_split -> elt_d_f_elt_d_f_0_split_0
I0621 01:51:54.020591 20669 net.cpp:399] elt_d_f_elt_d_f_0_split -> elt_d_f_elt_d_f_0_split_1
I0621 01:51:54.020638 20669 net.cpp:141] Setting up elt_d_f_elt_d_f_0_split
I0621 01:51:54.020649 20669 net.cpp:148] Top shape: 128 128 16 16 (4194304)
I0621 01:51:54.020658 20669 net.cpp:148] Top shape: 128 128 16 16 (4194304)
I0621 01:51:54.020661 20669 net.cpp:156] Memory required for data: 2383938048
I0621 01:51:54.020668 20669 layer_factory.hpp:77] Creating layer elt_g_i
I0621 01:51:54.020674 20669 net.cpp:91] Creating Layer elt_g_i
I0621 01:51:54.020681 20669 net.cpp:425] elt_g_i <- elt_g_1
I0621 01:51:54.020687 20669 net.cpp:425] elt_g_i <- elt_i_1
I0621 01:51:54.020696 20669 net.cpp:399] elt_g_i -> elt_g_i
I0621 01:51:54.020730 20669 net.cpp:141] Setting up elt_g_i
I0621 01:51:54.020741 20669 net.cpp:148] Top shape: 128 128 16 16 (4194304)
I0621 01:51:54.020747 20669 net.cpp:156] Memory required for data: 2400715264
I0621 01:51:54.020752 20669 layer_factory.hpp:77] Creating layer elt_g_i_elt_g_i_0_split
I0621 01:51:54.020759 20669 net.cpp:91] Creating Layer elt_g_i_elt_g_i_0_split
I0621 01:51:54.020764 20669 net.cpp:425] elt_g_i_elt_g_i_0_split <- elt_g_i
I0621 01:51:54.020771 20669 net.cpp:399] elt_g_i_elt_g_i_0_split -> elt_g_i_elt_g_i_0_split_0
I0621 01:51:54.020784 20669 net.cpp:399] elt_g_i_elt_g_i_0_split -> elt_g_i_elt_g_i_0_split_1
I0621 01:51:54.020826 20669 net.cpp:141] Setting up elt_g_i_elt_g_i_0_split
I0621 01:51:54.020838 20669 net.cpp:148] Top shape: 128 128 16 16 (4194304)
I0621 01:51:54.020844 20669 net.cpp:148] Top shape: 128 128 16 16 (4194304)
I0621 01:51:54.020849 20669 net.cpp:156] Memory required for data: 2434269696
I0621 01:51:54.020854 20669 layer_factory.hpp:77] Creating layer bn_j_1_1
I0621 01:51:54.020879 20669 net.cpp:91] Creating Layer bn_j_1_1
I0621 01:51:54.020886 20669 net.cpp:425] bn_j_1_1 <- elt_d_f_elt_d_f_0_split_0
I0621 01:51:54.020895 20669 net.cpp:399] bn_j_1_1 -> bn_j_1_1
I0621 01:51:54.021100 20669 net.cpp:141] Setting up bn_j_1_1
I0621 01:51:54.021111 20669 net.cpp:148] Top shape: 128 128 16 16 (4194304)
I0621 01:51:54.021117 20669 net.cpp:156] Memory required for data: 2451046912
I0621 01:51:54.021128 20669 layer_factory.hpp:77] Creating layer sc_j_1_1
I0621 01:51:54.021149 20669 net.cpp:91] Creating Layer sc_j_1_1
I0621 01:51:54.021157 20669 net.cpp:425] sc_j_1_1 <- bn_j_1_1
I0621 01:51:54.021164 20669 net.cpp:399] sc_j_1_1 -> sc_j_1_1
I0621 01:51:54.021210 20669 layer_factory.hpp:77] Creating layer sc_j_1_1
I0621 01:51:54.021330 20669 net.cpp:141] Setting up sc_j_1_1
I0621 01:51:54.021342 20669 net.cpp:148] Top shape: 128 128 16 16 (4194304)
I0621 01:51:54.021347 20669 net.cpp:156] Memory required for data: 2467824128
I0621 01:51:54.021355 20669 layer_factory.hpp:77] Creating layer relu_j_1_1
I0621 01:51:54.021363 20669 net.cpp:91] Creating Layer relu_j_1_1
I0621 01:51:54.021370 20669 net.cpp:425] relu_j_1_1 <- sc_j_1_1
I0621 01:51:54.021392 20669 net.cpp:399] relu_j_1_1 -> relu_j_1_1
I0621 01:51:54.021596 20669 net.cpp:141] Setting up relu_j_1_1
I0621 01:51:54.021610 20669 net.cpp:148] Top shape: 128 128 16 16 (4194304)
I0621 01:51:54.021616 20669 net.cpp:156] Memory required for data: 2484601344
I0621 01:51:54.021621 20669 layer_factory.hpp:77] Creating layer conv_j_1_1
I0621 01:51:54.021638 20669 net.cpp:91] Creating Layer conv_j_1_1
I0621 01:51:54.021646 20669 net.cpp:425] conv_j_1_1 <- relu_j_1_1
I0621 01:51:54.021654 20669 net.cpp:399] conv_j_1_1 -> conv_j_1_1
I0621 01:51:54.031024 20669 net.cpp:141] Setting up conv_j_1_1
I0621 01:51:54.031040 20669 net.cpp:148] Top shape: 128 256 8 8 (2097152)
I0621 01:51:54.031046 20669 net.cpp:156] Memory required for data: 2492989952
I0621 01:51:54.031055 20669 layer_factory.hpp:77] Creating layer bn_j_1_2
I0621 01:51:54.031066 20669 net.cpp:91] Creating Layer bn_j_1_2
I0621 01:51:54.031075 20669 net.cpp:425] bn_j_1_2 <- conv_j_1_1
I0621 01:51:54.031087 20669 net.cpp:399] bn_j_1_2 -> bn_j_1_2
I0621 01:51:54.031316 20669 net.cpp:141] Setting up bn_j_1_2
I0621 01:51:54.031342 20669 net.cpp:148] Top shape: 128 256 8 8 (2097152)
I0621 01:51:54.031347 20669 net.cpp:156] Memory required for data: 2501378560
I0621 01:51:54.031357 20669 layer_factory.hpp:77] Creating layer sc_j_1_2
I0621 01:51:54.031368 20669 net.cpp:91] Creating Layer sc_j_1_2
I0621 01:51:54.031376 20669 net.cpp:425] sc_j_1_2 <- bn_j_1_2
I0621 01:51:54.031384 20669 net.cpp:399] sc_j_1_2 -> sc_j_1_2
I0621 01:51:54.031432 20669 layer_factory.hpp:77] Creating layer sc_j_1_2
I0621 01:51:54.031563 20669 net.cpp:141] Setting up sc_j_1_2
I0621 01:51:54.031574 20669 net.cpp:148] Top shape: 128 256 8 8 (2097152)
I0621 01:51:54.031579 20669 net.cpp:156] Memory required for data: 2509767168
I0621 01:51:54.031589 20669 layer_factory.hpp:77] Creating layer relu_j_1_2
I0621 01:51:54.031596 20669 net.cpp:91] Creating Layer relu_j_1_2
I0621 01:51:54.031602 20669 net.cpp:425] relu_j_1_2 <- sc_j_1_2
I0621 01:51:54.031611 20669 net.cpp:399] relu_j_1_2 -> relu_j_1_2
I0621 01:51:54.031922 20669 net.cpp:141] Setting up relu_j_1_2
I0621 01:51:54.031937 20669 net.cpp:148] Top shape: 128 256 8 8 (2097152)
I0621 01:51:54.031944 20669 net.cpp:156] Memory required for data: 2518155776
I0621 01:51:54.031950 20669 layer_factory.hpp:77] Creating layer conv_j_1_2
I0621 01:51:54.031965 20669 net.cpp:91] Creating Layer conv_j_1_2
I0621 01:51:54.031971 20669 net.cpp:425] conv_j_1_2 <- relu_j_1_2
I0621 01:51:54.031982 20669 net.cpp:399] conv_j_1_2 -> conv_j_1_2
I0621 01:51:54.049469 20669 net.cpp:141] Setting up conv_j_1_2
I0621 01:51:54.049485 20669 net.cpp:148] Top shape: 128 256 8 8 (2097152)
I0621 01:51:54.049494 20669 net.cpp:156] Memory required for data: 2526544384
I0621 01:51:54.049504 20669 layer_factory.hpp:77] Creating layer res_j
I0621 01:51:54.049521 20669 net.cpp:91] Creating Layer res_j
I0621 01:51:54.049528 20669 net.cpp:425] res_j <- elt_d_f_elt_d_f_0_split_1
I0621 01:51:54.049537 20669 net.cpp:399] res_j -> res_j
I0621 01:51:54.051411 20669 net.cpp:141] Setting up res_j
I0621 01:51:54.051427 20669 net.cpp:148] Top shape: 128 256 8 8 (2097152)
I0621 01:51:54.051436 20669 net.cpp:156] Memory required for data: 2534932992
I0621 01:51:54.051445 20669 layer_factory.hpp:77] Creating layer elt_j_1
I0621 01:51:54.051455 20669 net.cpp:91] Creating Layer elt_j_1
I0621 01:51:54.051477 20669 net.cpp:425] elt_j_1 <- res_j
I0621 01:51:54.051493 20669 net.cpp:425] elt_j_1 <- conv_j_1_2
I0621 01:51:54.051506 20669 net.cpp:399] elt_j_1 -> elt_j_1
I0621 01:51:54.051539 20669 net.cpp:141] Setting up elt_j_1
I0621 01:51:54.051553 20669 net.cpp:148] Top shape: 128 256 8 8 (2097152)
I0621 01:51:54.051558 20669 net.cpp:156] Memory required for data: 2543321600
I0621 01:51:54.051563 20669 layer_factory.hpp:77] Creating layer bn_e_1_1
I0621 01:51:54.051571 20669 net.cpp:91] Creating Layer bn_e_1_1
I0621 01:51:54.051578 20669 net.cpp:425] bn_e_1_1 <- elt_a_1_elt_a_1_0_split_2
I0621 01:51:54.051600 20669 net.cpp:399] bn_e_1_1 -> bn_e_1_1
I0621 01:51:54.051851 20669 net.cpp:141] Setting up bn_e_1_1
I0621 01:51:54.051863 20669 net.cpp:148] Top shape: 128 64 32 32 (8388608)
I0621 01:51:54.051869 20669 net.cpp:156] Memory required for data: 2576876032
I0621 01:51:54.051879 20669 layer_factory.hpp:77] Creating layer sc_e_1_1
I0621 01:51:54.051890 20669 net.cpp:91] Creating Layer sc_e_1_1
I0621 01:51:54.051898 20669 net.cpp:425] sc_e_1_1 <- bn_e_1_1
I0621 01:51:54.051919 20669 net.cpp:399] sc_e_1_1 -> sc_e_1_1
I0621 01:51:54.051982 20669 layer_factory.hpp:77] Creating layer sc_e_1_1
I0621 01:51:54.052120 20669 net.cpp:141] Setting up sc_e_1_1
I0621 01:51:54.052132 20669 net.cpp:148] Top shape: 128 64 32 32 (8388608)
I0621 01:51:54.052139 20669 net.cpp:156] Memory required for data: 2610430464
I0621 01:51:54.052147 20669 layer_factory.hpp:77] Creating layer relu_e_1_1
I0621 01:51:54.052156 20669 net.cpp:91] Creating Layer relu_e_1_1
I0621 01:51:54.052161 20669 net.cpp:425] relu_e_1_1 <- sc_e_1_1
I0621 01:51:54.052171 20669 net.cpp:399] relu_e_1_1 -> relu_e_1_1
I0621 01:51:54.052479 20669 net.cpp:141] Setting up relu_e_1_1
I0621 01:51:54.052495 20669 net.cpp:148] Top shape: 128 64 32 32 (8388608)
I0621 01:51:54.052501 20669 net.cpp:156] Memory required for data: 2643984896
I0621 01:51:54.052507 20669 layer_factory.hpp:77] Creating layer conv_e_1_1
I0621 01:51:54.052520 20669 net.cpp:91] Creating Layer conv_e_1_1
I0621 01:51:54.052528 20669 net.cpp:425] conv_e_1_1 <- relu_e_1_1
I0621 01:51:54.052538 20669 net.cpp:399] conv_e_1_1 -> conv_e_1_1
I0621 01:51:54.055968 20669 net.cpp:141] Setting up conv_e_1_1
I0621 01:51:54.055984 20669 net.cpp:148] Top shape: 128 128 16 16 (4194304)
I0621 01:51:54.056004 20669 net.cpp:156] Memory required for data: 2660762112
I0621 01:51:54.056013 20669 layer_factory.hpp:77] Creating layer bn_e_1_2
I0621 01:51:54.056025 20669 net.cpp:91] Creating Layer bn_e_1_2
I0621 01:51:54.056032 20669 net.cpp:425] bn_e_1_2 <- conv_e_1_1
I0621 01:51:54.056042 20669 net.cpp:399] bn_e_1_2 -> bn_e_1_2
I0621 01:51:54.056272 20669 net.cpp:141] Setting up bn_e_1_2
I0621 01:51:54.056285 20669 net.cpp:148] Top shape: 128 128 16 16 (4194304)
I0621 01:51:54.056290 20669 net.cpp:156] Memory required for data: 2677539328
I0621 01:51:54.056300 20669 layer_factory.hpp:77] Creating layer sc_e_1_2
I0621 01:51:54.056311 20669 net.cpp:91] Creating Layer sc_e_1_2
I0621 01:51:54.056318 20669 net.cpp:425] sc_e_1_2 <- bn_e_1_2
I0621 01:51:54.056326 20669 net.cpp:399] sc_e_1_2 -> sc_e_1_2
I0621 01:51:54.056375 20669 layer_factory.hpp:77] Creating layer sc_e_1_2
I0621 01:51:54.056501 20669 net.cpp:141] Setting up sc_e_1_2
I0621 01:51:54.056514 20669 net.cpp:148] Top shape: 128 128 16 16 (4194304)
I0621 01:51:54.056519 20669 net.cpp:156] Memory required for data: 2694316544
I0621 01:51:54.056526 20669 layer_factory.hpp:77] Creating layer relu_e_1_2
I0621 01:51:54.056535 20669 net.cpp:91] Creating Layer relu_e_1_2
I0621 01:51:54.056542 20669 net.cpp:425] relu_e_1_2 <- sc_e_1_2
I0621 01:51:54.056550 20669 net.cpp:399] relu_e_1_2 -> relu_e_1_2
I0621 01:51:54.056751 20669 net.cpp:141] Setting up relu_e_1_2
I0621 01:51:54.056764 20669 net.cpp:148] Top shape: 128 128 16 16 (4194304)
I0621 01:51:54.056771 20669 net.cpp:156] Memory required for data: 2711093760
I0621 01:51:54.056777 20669 layer_factory.hpp:77] Creating layer conv_e_1_2
I0621 01:51:54.056792 20669 net.cpp:91] Creating Layer conv_e_1_2
I0621 01:51:54.056815 20669 net.cpp:425] conv_e_1_2 <- relu_e_1_2
I0621 01:51:54.056825 20669 net.cpp:399] conv_e_1_2 -> conv_e_1_2
I0621 01:51:54.061807 20669 net.cpp:141] Setting up conv_e_1_2
I0621 01:51:54.061837 20669 net.cpp:148] Top shape: 128 128 16 16 (4194304)
I0621 01:51:54.061843 20669 net.cpp:156] Memory required for data: 2727870976
I0621 01:51:54.061852 20669 layer_factory.hpp:77] Creating layer res_e
I0621 01:51:54.061877 20669 net.cpp:91] Creating Layer res_e
I0621 01:51:54.061883 20669 net.cpp:425] res_e <- elt_a_1_elt_a_1_0_split_3
I0621 01:51:54.061905 20669 net.cpp:399] res_e -> res_e
I0621 01:51:54.063297 20669 net.cpp:141] Setting up res_e
I0621 01:51:54.063313 20669 net.cpp:148] Top shape: 128 128 16 16 (4194304)
I0621 01:51:54.063318 20669 net.cpp:156] Memory required for data: 2744648192
I0621 01:51:54.063326 20669 layer_factory.hpp:77] Creating layer elt_e_1
I0621 01:51:54.063334 20669 net.cpp:91] Creating Layer elt_e_1
I0621 01:51:54.063340 20669 net.cpp:425] elt_e_1 <- res_e
I0621 01:51:54.063346 20669 net.cpp:425] elt_e_1 <- conv_e_1_2
I0621 01:51:54.063354 20669 net.cpp:399] elt_e_1 -> elt_e_1
I0621 01:51:54.063385 20669 net.cpp:141] Setting up elt_e_1
I0621 01:51:54.063395 20669 net.cpp:148] Top shape: 128 128 16 16 (4194304)
I0621 01:51:54.063400 20669 net.cpp:156] Memory required for data: 2761425408
I0621 01:51:54.063405 20669 layer_factory.hpp:77] Creating layer elt_e_h
I0621 01:51:54.063413 20669 net.cpp:91] Creating Layer elt_e_h
I0621 01:51:54.063421 20669 net.cpp:425] elt_e_h <- elt_e_1
I0621 01:51:54.063427 20669 net.cpp:425] elt_e_h <- elt_h_1
I0621 01:51:54.063434 20669 net.cpp:399] elt_e_h -> elt_e_h
I0621 01:51:54.063469 20669 net.cpp:141] Setting up elt_e_h
I0621 01:51:54.063480 20669 net.cpp:148] Top shape: 128 128 16 16 (4194304)
I0621 01:51:54.063484 20669 net.cpp:156] Memory required for data: 2778202624
I0621 01:51:54.063489 20669 layer_factory.hpp:77] Creating layer elt_e_h_elt_e_h_0_split
I0621 01:51:54.063496 20669 net.cpp:91] Creating Layer elt_e_h_elt_e_h_0_split
I0621 01:51:54.063503 20669 net.cpp:425] elt_e_h_elt_e_h_0_split <- elt_e_h
I0621 01:51:54.063510 20669 net.cpp:399] elt_e_h_elt_e_h_0_split -> elt_e_h_elt_e_h_0_split_0
I0621 01:51:54.063531 20669 net.cpp:399] elt_e_h_elt_e_h_0_split -> elt_e_h_elt_e_h_0_split_1
I0621 01:51:54.063578 20669 net.cpp:141] Setting up elt_e_h_elt_e_h_0_split
I0621 01:51:54.063592 20669 net.cpp:148] Top shape: 128 128 16 16 (4194304)
I0621 01:51:54.063599 20669 net.cpp:148] Top shape: 128 128 16 16 (4194304)
I0621 01:51:54.063603 20669 net.cpp:156] Memory required for data: 2811757056
I0621 01:51:54.063608 20669 layer_factory.hpp:77] Creating layer bn_k_1_1
I0621 01:51:54.063616 20669 net.cpp:91] Creating Layer bn_k_1_1
I0621 01:51:54.063623 20669 net.cpp:425] bn_k_1_1 <- elt_e_h_elt_e_h_0_split_0
I0621 01:51:54.063630 20669 net.cpp:399] bn_k_1_1 -> bn_k_1_1
I0621 01:51:54.063833 20669 net.cpp:141] Setting up bn_k_1_1
I0621 01:51:54.063845 20669 net.cpp:148] Top shape: 128 128 16 16 (4194304)
I0621 01:51:54.063850 20669 net.cpp:156] Memory required for data: 2828534272
I0621 01:51:54.063860 20669 layer_factory.hpp:77] Creating layer sc_k_1_1
I0621 01:51:54.063869 20669 net.cpp:91] Creating Layer sc_k_1_1
I0621 01:51:54.063875 20669 net.cpp:425] sc_k_1_1 <- bn_k_1_1
I0621 01:51:54.063884 20669 net.cpp:399] sc_k_1_1 -> sc_k_1_1
I0621 01:51:54.063947 20669 layer_factory.hpp:77] Creating layer sc_k_1_1
I0621 01:51:54.064090 20669 net.cpp:141] Setting up sc_k_1_1
I0621 01:51:54.064101 20669 net.cpp:148] Top shape: 128 128 16 16 (4194304)
I0621 01:51:54.064107 20669 net.cpp:156] Memory required for data: 2845311488
I0621 01:51:54.064116 20669 layer_factory.hpp:77] Creating layer relu_k_1_1
I0621 01:51:54.064124 20669 net.cpp:91] Creating Layer relu_k_1_1
I0621 01:51:54.064131 20669 net.cpp:425] relu_k_1_1 <- sc_k_1_1
I0621 01:51:54.064142 20669 net.cpp:399] relu_k_1_1 -> relu_k_1_1
I0621 01:51:54.064353 20669 net.cpp:141] Setting up relu_k_1_1
I0621 01:51:54.064379 20669 net.cpp:148] Top shape: 128 128 16 16 (4194304)
I0621 01:51:54.064399 20669 net.cpp:156] Memory required for data: 2862088704
I0621 01:51:54.064411 20669 layer_factory.hpp:77] Creating layer conv_k_1_1
I0621 01:51:54.064424 20669 net.cpp:91] Creating Layer conv_k_1_1
I0621 01:51:54.064431 20669 net.cpp:425] conv_k_1_1 <- relu_k_1_1
I0621 01:51:54.064441 20669 net.cpp:399] conv_k_1_1 -> conv_k_1_1
I0621 01:51:54.073881 20669 net.cpp:141] Setting up conv_k_1_1
I0621 01:51:54.073897 20669 net.cpp:148] Top shape: 128 256 8 8 (2097152)
I0621 01:51:54.073909 20669 net.cpp:156] Memory required for data: 2870477312
I0621 01:51:54.073917 20669 layer_factory.hpp:77] Creating layer bn_k_1_2
I0621 01:51:54.073933 20669 net.cpp:91] Creating Layer bn_k_1_2
I0621 01:51:54.073941 20669 net.cpp:425] bn_k_1_2 <- conv_k_1_1
I0621 01:51:54.073948 20669 net.cpp:399] bn_k_1_2 -> bn_k_1_2
I0621 01:51:54.074195 20669 net.cpp:141] Setting up bn_k_1_2
I0621 01:51:54.074208 20669 net.cpp:148] Top shape: 128 256 8 8 (2097152)
I0621 01:51:54.074213 20669 net.cpp:156] Memory required for data: 2878865920
I0621 01:51:54.074223 20669 layer_factory.hpp:77] Creating layer sc_k_1_2
I0621 01:51:54.074232 20669 net.cpp:91] Creating Layer sc_k_1_2
I0621 01:51:54.074240 20669 net.cpp:425] sc_k_1_2 <- bn_k_1_2
I0621 01:51:54.074247 20669 net.cpp:399] sc_k_1_2 -> sc_k_1_2
I0621 01:51:54.074301 20669 layer_factory.hpp:77] Creating layer sc_k_1_2
I0621 01:51:54.074437 20669 net.cpp:141] Setting up sc_k_1_2
I0621 01:51:54.074450 20669 net.cpp:148] Top shape: 128 256 8 8 (2097152)
I0621 01:51:54.074455 20669 net.cpp:156] Memory required for data: 2887254528
I0621 01:51:54.074462 20669 layer_factory.hpp:77] Creating layer relu_k_1_2
I0621 01:51:54.074470 20669 net.cpp:91] Creating Layer relu_k_1_2
I0621 01:51:54.074486 20669 net.cpp:425] relu_k_1_2 <- sc_k_1_2
I0621 01:51:54.074494 20669 net.cpp:399] relu_k_1_2 -> relu_k_1_2
I0621 01:51:54.074822 20669 net.cpp:141] Setting up relu_k_1_2
I0621 01:51:54.074837 20669 net.cpp:148] Top shape: 128 256 8 8 (2097152)
I0621 01:51:54.074842 20669 net.cpp:156] Memory required for data: 2895643136
I0621 01:51:54.074848 20669 layer_factory.hpp:77] Creating layer conv_k_1_2
I0621 01:51:54.074862 20669 net.cpp:91] Creating Layer conv_k_1_2
I0621 01:51:54.074872 20669 net.cpp:425] conv_k_1_2 <- relu_k_1_2
I0621 01:51:54.074882 20669 net.cpp:399] conv_k_1_2 -> conv_k_1_2
I0621 01:51:54.092325 20669 net.cpp:141] Setting up conv_k_1_2
I0621 01:51:54.092342 20669 net.cpp:148] Top shape: 128 256 8 8 (2097152)
I0621 01:51:54.092365 20669 net.cpp:156] Memory required for data: 2904031744
I0621 01:51:54.092375 20669 layer_factory.hpp:77] Creating layer res_k
I0621 01:51:54.092391 20669 net.cpp:91] Creating Layer res_k
I0621 01:51:54.092398 20669 net.cpp:425] res_k <- elt_e_h_elt_e_h_0_split_1
I0621 01:51:54.092408 20669 net.cpp:399] res_k -> res_k
I0621 01:51:54.094331 20669 net.cpp:141] Setting up res_k
I0621 01:51:54.094347 20669 net.cpp:148] Top shape: 128 256 8 8 (2097152)
I0621 01:51:54.094355 20669 net.cpp:156] Memory required for data: 2912420352
I0621 01:51:54.094363 20669 layer_factory.hpp:77] Creating layer elt_k_1
I0621 01:51:54.094377 20669 net.cpp:91] Creating Layer elt_k_1
I0621 01:51:54.094383 20669 net.cpp:425] elt_k_1 <- res_k
I0621 01:51:54.094390 20669 net.cpp:425] elt_k_1 <- conv_k_1_2
I0621 01:51:54.094400 20669 net.cpp:399] elt_k_1 -> elt_k_1
I0621 01:51:54.094434 20669 net.cpp:141] Setting up elt_k_1
I0621 01:51:54.094445 20669 net.cpp:148] Top shape: 128 256 8 8 (2097152)
I0621 01:51:54.094450 20669 net.cpp:156] Memory required for data: 2920808960
I0621 01:51:54.094455 20669 layer_factory.hpp:77] Creating layer bn_l_1_1
I0621 01:51:54.094465 20669 net.cpp:91] Creating Layer bn_l_1_1
I0621 01:51:54.094485 20669 net.cpp:425] bn_l_1_1 <- elt_g_i_elt_g_i_0_split_0
I0621 01:51:54.094496 20669 net.cpp:399] bn_l_1_1 -> bn_l_1_1
I0621 01:51:54.094745 20669 net.cpp:141] Setting up bn_l_1_1
I0621 01:51:54.094758 20669 net.cpp:148] Top shape: 128 128 16 16 (4194304)
I0621 01:51:54.094763 20669 net.cpp:156] Memory required for data: 2937586176
I0621 01:51:54.094774 20669 layer_factory.hpp:77] Creating layer sc_l_1_1
I0621 01:51:54.094799 20669 net.cpp:91] Creating Layer sc_l_1_1
I0621 01:51:54.094808 20669 net.cpp:425] sc_l_1_1 <- bn_l_1_1
I0621 01:51:54.094815 20669 net.cpp:399] sc_l_1_1 -> sc_l_1_1
I0621 01:51:54.094867 20669 layer_factory.hpp:77] Creating layer sc_l_1_1
I0621 01:51:54.095000 20669 net.cpp:141] Setting up sc_l_1_1
I0621 01:51:54.095012 20669 net.cpp:148] Top shape: 128 128 16 16 (4194304)
I0621 01:51:54.095018 20669 net.cpp:156] Memory required for data: 2954363392
I0621 01:51:54.095027 20669 layer_factory.hpp:77] Creating layer relu_l_1_1
I0621 01:51:54.095036 20669 net.cpp:91] Creating Layer relu_l_1_1
I0621 01:51:54.095042 20669 net.cpp:425] relu_l_1_1 <- sc_l_1_1
I0621 01:51:54.095052 20669 net.cpp:399] relu_l_1_1 -> relu_l_1_1
I0621 01:51:54.095360 20669 net.cpp:141] Setting up relu_l_1_1
I0621 01:51:54.095376 20669 net.cpp:148] Top shape: 128 128 16 16 (4194304)
I0621 01:51:54.095381 20669 net.cpp:156] Memory required for data: 2971140608
I0621 01:51:54.095387 20669 layer_factory.hpp:77] Creating layer conv_l_1_1
I0621 01:51:54.095402 20669 net.cpp:91] Creating Layer conv_l_1_1
I0621 01:51:54.095408 20669 net.cpp:425] conv_l_1_1 <- relu_l_1_1
I0621 01:51:54.095419 20669 net.cpp:399] conv_l_1_1 -> conv_l_1_1
I0621 01:51:54.104969 20669 net.cpp:141] Setting up conv_l_1_1
I0621 01:51:54.104985 20669 net.cpp:148] Top shape: 128 256 8 8 (2097152)
I0621 01:51:54.105010 20669 net.cpp:156] Memory required for data: 2979529216
I0621 01:51:54.105020 20669 layer_factory.hpp:77] Creating layer bn_l_1_2
I0621 01:51:54.105033 20669 net.cpp:91] Creating Layer bn_l_1_2
I0621 01:51:54.105041 20669 net.cpp:425] bn_l_1_2 <- conv_l_1_1
I0621 01:51:54.105051 20669 net.cpp:399] bn_l_1_2 -> bn_l_1_2
I0621 01:51:54.105291 20669 net.cpp:141] Setting up bn_l_1_2
I0621 01:51:54.105304 20669 net.cpp:148] Top shape: 128 256 8 8 (2097152)
I0621 01:51:54.105309 20669 net.cpp:156] Memory required for data: 2987917824
I0621 01:51:54.105319 20669 layer_factory.hpp:77] Creating layer sc_l_1_2
I0621 01:51:54.105329 20669 net.cpp:91] Creating Layer sc_l_1_2
I0621 01:51:54.105335 20669 net.cpp:425] sc_l_1_2 <- bn_l_1_2
I0621 01:51:54.105343 20669 net.cpp:399] sc_l_1_2 -> sc_l_1_2
I0621 01:51:54.105394 20669 layer_factory.hpp:77] Creating layer sc_l_1_2
I0621 01:51:54.105546 20669 net.cpp:141] Setting up sc_l_1_2
I0621 01:51:54.105558 20669 net.cpp:148] Top shape: 128 256 8 8 (2097152)
I0621 01:51:54.105563 20669 net.cpp:156] Memory required for data: 2996306432
I0621 01:51:54.105571 20669 layer_factory.hpp:77] Creating layer relu_l_1_2
I0621 01:51:54.105609 20669 net.cpp:91] Creating Layer relu_l_1_2
I0621 01:51:54.105618 20669 net.cpp:425] relu_l_1_2 <- sc_l_1_2
I0621 01:51:54.105628 20669 net.cpp:399] relu_l_1_2 -> relu_l_1_2
I0621 01:51:54.105824 20669 net.cpp:141] Setting up relu_l_1_2
I0621 01:51:54.105839 20669 net.cpp:148] Top shape: 128 256 8 8 (2097152)
I0621 01:51:54.105844 20669 net.cpp:156] Memory required for data: 3004695040
I0621 01:51:54.105849 20669 layer_factory.hpp:77] Creating layer conv_l_1_2
I0621 01:51:54.105865 20669 net.cpp:91] Creating Layer conv_l_1_2
I0621 01:51:54.105872 20669 net.cpp:425] conv_l_1_2 <- relu_l_1_2
I0621 01:51:54.105881 20669 net.cpp:399] conv_l_1_2 -> conv_l_1_2
I0621 01:51:54.123769 20669 net.cpp:141] Setting up conv_l_1_2
I0621 01:51:54.123785 20669 net.cpp:148] Top shape: 128 256 8 8 (2097152)
I0621 01:51:54.123790 20669 net.cpp:156] Memory required for data: 3013083648
I0621 01:51:54.123812 20669 layer_factory.hpp:77] Creating layer res_l
I0621 01:51:54.123829 20669 net.cpp:91] Creating Layer res_l
I0621 01:51:54.123837 20669 net.cpp:425] res_l <- elt_g_i_elt_g_i_0_split_1
I0621 01:51:54.123847 20669 net.cpp:399] res_l -> res_l
I0621 01:51:54.125802 20669 net.cpp:141] Setting up res_l
I0621 01:51:54.125816 20669 net.cpp:148] Top shape: 128 256 8 8 (2097152)
I0621 01:51:54.125821 20669 net.cpp:156] Memory required for data: 3021472256
I0621 01:51:54.125829 20669 layer_factory.hpp:77] Creating layer elt_l_1
I0621 01:51:54.125838 20669 net.cpp:91] Creating Layer elt_l_1
I0621 01:51:54.125859 20669 net.cpp:425] elt_l_1 <- res_l
I0621 01:51:54.125866 20669 net.cpp:425] elt_l_1 <- conv_l_1_2
I0621 01:51:54.125876 20669 net.cpp:399] elt_l_1 -> elt_l_1
I0621 01:51:54.125910 20669 net.cpp:141] Setting up elt_l_1
I0621 01:51:54.125924 20669 net.cpp:148] Top shape: 128 256 8 8 (2097152)
I0621 01:51:54.125932 20669 net.cpp:156] Memory required for data: 3029860864
I0621 01:51:54.125937 20669 layer_factory.hpp:77] Creating layer elt_j_k_l
I0621 01:51:54.125946 20669 net.cpp:91] Creating Layer elt_j_k_l
I0621 01:51:54.125954 20669 net.cpp:425] elt_j_k_l <- elt_j_1
I0621 01:51:54.125960 20669 net.cpp:425] elt_j_k_l <- elt_k_1
I0621 01:51:54.125965 20669 net.cpp:425] elt_j_k_l <- elt_l_1
I0621 01:51:54.125972 20669 net.cpp:399] elt_j_k_l -> elt_j_k_l
I0621 01:51:54.126022 20669 net.cpp:141] Setting up elt_j_k_l
I0621 01:51:54.126034 20669 net.cpp:148] Top shape: 128 256 8 8 (2097152)
I0621 01:51:54.126039 20669 net.cpp:156] Memory required for data: 3038249472
I0621 01:51:54.126044 20669 layer_factory.hpp:77] Creating layer bn_m_1_1
I0621 01:51:54.126067 20669 net.cpp:91] Creating Layer bn_m_1_1
I0621 01:51:54.126075 20669 net.cpp:425] bn_m_1_1 <- elt_j_k_l
I0621 01:51:54.126081 20669 net.cpp:399] bn_m_1_1 -> bn_m_1_1
I0621 01:51:54.126349 20669 net.cpp:141] Setting up bn_m_1_1
I0621 01:51:54.126374 20669 net.cpp:148] Top shape: 128 256 8 8 (2097152)
I0621 01:51:54.126379 20669 net.cpp:156] Memory required for data: 3046638080
I0621 01:51:54.126389 20669 layer_factory.hpp:77] Creating layer sc_m_1_1
I0621 01:51:54.126397 20669 net.cpp:91] Creating Layer sc_m_1_1
I0621 01:51:54.126402 20669 net.cpp:425] sc_m_1_1 <- bn_m_1_1
I0621 01:51:54.126412 20669 net.cpp:399] sc_m_1_1 -> sc_m_1_1
I0621 01:51:54.126477 20669 layer_factory.hpp:77] Creating layer sc_m_1_1
I0621 01:51:54.126618 20669 net.cpp:141] Setting up sc_m_1_1
I0621 01:51:54.126633 20669 net.cpp:148] Top shape: 128 256 8 8 (2097152)
I0621 01:51:54.126639 20669 net.cpp:156] Memory required for data: 3055026688
I0621 01:51:54.126647 20669 layer_factory.hpp:77] Creating layer relu_m_1_1
I0621 01:51:54.126657 20669 net.cpp:91] Creating Layer relu_m_1_1
I0621 01:51:54.126662 20669 net.cpp:425] relu_m_1_1 <- sc_m_1_1
I0621 01:51:54.126669 20669 net.cpp:399] relu_m_1_1 -> relu_m_1_1
I0621 01:51:54.126881 20669 net.cpp:141] Setting up relu_m_1_1
I0621 01:51:54.126895 20669 net.cpp:148] Top shape: 128 256 8 8 (2097152)
I0621 01:51:54.126900 20669 net.cpp:156] Memory required for data: 3063415296
I0621 01:51:54.126905 20669 layer_factory.hpp:77] Creating layer gap
I0621 01:51:54.126929 20669 net.cpp:91] Creating Layer gap
I0621 01:51:54.126935 20669 net.cpp:425] gap <- relu_m_1_1
I0621 01:51:54.126942 20669 net.cpp:399] gap -> gap
I0621 01:51:54.127286 20669 net.cpp:141] Setting up gap
I0621 01:51:54.127300 20669 net.cpp:148] Top shape: 128 256 1 1 (32768)
I0621 01:51:54.127306 20669 net.cpp:156] Memory required for data: 3063546368
I0621 01:51:54.127312 20669 layer_factory.hpp:77] Creating layer ip1
I0621 01:51:54.127323 20669 net.cpp:91] Creating Layer ip1
I0621 01:51:54.127329 20669 net.cpp:425] ip1 <- gap
I0621 01:51:54.127337 20669 net.cpp:399] ip1 -> ip1
I0621 01:51:54.127540 20669 net.cpp:141] Setting up ip1
I0621 01:51:54.127552 20669 net.cpp:148] Top shape: 128 10 (1280)
I0621 01:51:54.127557 20669 net.cpp:156] Memory required for data: 3063551488
I0621 01:51:54.127565 20669 layer_factory.hpp:77] Creating layer loss
I0621 01:51:54.127578 20669 net.cpp:91] Creating Layer loss
I0621 01:51:54.127585 20669 net.cpp:425] loss <- ip1
I0621 01:51:54.127591 20669 net.cpp:425] loss <- label
I0621 01:51:54.127601 20669 net.cpp:399] loss -> loss
I0621 01:51:54.127617 20669 layer_factory.hpp:77] Creating layer loss
…
I0621 01:51:54.132282 20669 net.cpp:313] The NetState phase (1) differed from the phase (0) specified by a rule in layer resnet
I0621 01:51:54.133038 20669 net.cpp:49] Initializing net from parameters: 
name: "ResNet"
state {
  phase: TEST
}
layer {
  name: "resnet"
  type: "Data"
  top: "data"
  top: "label"
  include {
    phase: TEST
  }
  transform_param {
    mean_file: "/home/takeki/caffe/examples/cifar10/mean.binaryproto"
  }
  data_param {
    source: "/home/takeki/caffe/examples/cifar10/cifar10_test_lmdb"
    batch_size: 100
    backend: LMDB
  }
}
layer {
  name: "conv0"
  type: "Convolution"
  bottom: "data"
  top: "conv0"
  param {
    lr_mult: 1
  }
  param {
    lr_mult: 2
  }
  convolution_param {
    num_output: 16
    pad: 1
    kernel_size: 3
    stride: 1
    weight_filler {
      type: "msra"
    }
    bias_filler {
      type: "constant"
    }
  }
}
layer {
  name: "bn_a_1_1"
  type: "BatchNorm"
  bottom: "conv0"
  top: "bn_a_1_1"
  param {
    lr_mult: 0
  }
  param {
    lr_mult: 0
  }
  param {
    lr_mult: 0
  }
  batch_norm_param {
    use_global_stats: false
  }
}
layer {
  name: "sc_a_1_1"
  type: "Scale"
  bottom: "bn_a_1_1"
  top: "sc_a_1_1"
  scale_param {
    bias_term: true
  }
}
layer {
  name: "relu_a_1_1"
  type: "ReLU"
  bottom: "sc_a_1_1"
  top: "relu_a_1_1"
}
layer {
  name: "conv_a_1_1"
  type: "Convolution"
  bottom: "relu_a_1_1"
  top: "conv_a_1_1"
  param {
    lr_mult: 1
    decay_mult: 1
  }
  param {
    lr_mult: 2
    decay_mult: 1
  }
  convolution_param {
    num_output: 64
    pad: 1
    kernel_size: 3
    stride: 1
    weight_filler {
      type: "msra"
    }
    bias_filler {
      type: "constant"
    }
  }
}
layer {
  name: "bn_a_1_2"
  type: "BatchNorm"
  bottom: "conv_a_1_1"
  top: "bn_a_1_2"
  param {
    lr_mult: 0
  }
  param {
    lr_mult: 0
  }
  param {
    lr_mult: 0
  }
  batch_norm_param {
    use_global_stats: false
  }
}
layer {
  name: "sc_a_1_2"
  type: "Scale"
  bottom: "bn_a_1_2"
  top: "sc_a_1_2"
  scale_param {
    bias_term: true
  }
}
layer {
  name: "relu_a_1_2"
  type: "ReLU"
  bottom: "sc_a_1_2"
  top: "relu_a_1_2"
}
layer {
  name: "conv_a_1_2"
  type: "Convolution"
  bottom: "relu_a_1_2"
  top: "conv_a_1_2"
  param {
    lr_mult: 1
    decay_mult: 1
  }
  param {
    lr_mult: 2
    decay_mult: 1
  }
  convolution_param {
    num_output: 64
    pad: 1
    kernel_size: 3
    stride: 1
    weight_filler {
      type: "msra"
    }
    bias_filler {
      type: "constant"
    }
  }
}
layer {
  name: "res_a"
  type: "Convolution"
  bottom: "conv0"
  top: "res_a"
  param {
    lr_mult: 1
    decay_mult: 1
  }
  param {
    lr_mult: 2
    decay_mult: 1
  }
  convolution_param {
    num_output: 64
    pad: 0
    kernel_size: 1
    stride: 1
    weight_filler {
      type: "msra"
    }
    bias_filler {
      type: "constant"
    }
  }
}
layer {
  name: "elt_a_1"
  type: "Eltwise"
  bottom: "res_a"
  bottom: "conv_a_1_2"
  top: "elt_a_1"
  eltwise_param {
    operation: SUM
  }
}
layer {
  name: "bn_b_1_1"
  type: "BatchNorm"
  bottom: "conv0"
  top: "bn_b_1_1"
  param {
    lr_mult: 0
  }
  param {
    lr_mult: 0
  }
  param {
    lr_mult: 0
  }
  batch_norm_param {
    use_global_stats: false
  }
}
layer {
  name: "sc_b_1_1"
  type: "Scale"
  bottom: "bn_b_1_1"
  top: "sc_b_1_1"
  scale_param {
    bias_term: true
  }
}
layer {
  name: "relu_b_1_1"
  type: "ReLU"
  bottom: "sc_b_1_1"
  top: "relu_b_1_1"
}
layer {
  name: "conv_b_1_1"
  type: "Convolution"
  bottom: "relu_b_1_1"
  top: "conv_b_1_1"
  param {
    lr_mult: 1
    decay_mult: 1
  }
  param {
    lr_mult: 2
    decay_mult: 1
  }
  convolution_param {
    num_output: 64
    pad: 1
    kernel_size: 3
    stride: 1
    weight_filler {
      type: "msra"
    }
    bias_filler {
      type: "constant"
    }
  }
}
layer {
  name: "bn_b_1_2"
  type: "BatchNorm"
  bottom: "conv_b_1_1"
  top: "bn_b_1_2"
  param {
    lr_mult: 0
  }
  param {
    lr_mult: 0
  }
  param {
    lr_mult: 0
  }
  batch_norm_param {
    use_global_stats: false
  }
}
layer {
  name: "sc_b_1_2"
  type: "Scale"
  bottom: "bn_b_1_2"
  top: "sc_b_1_2"
  scale_param {
    bias_term: true
  }
}
layer {
  name: "relu_b_1_2"
  type: "ReLU"
  bottom: "sc_b_1_2"
  top: "relu_b_1_2"
}
layer {
  name: "conv_b_1_2"
  type: "Convolution"
  bottom: "relu_b_1_2"
  top: "conv_b_1_2"
  param {
    lr_mult: 1
    decay_mult: 1
  }
  param {
    lr_mult: 2
    decay_mult: 1
  }
  convolution_param {
    num_output: 64
    pad: 1
    kernel_size: 3
    stride: 1
    weight_filler {
      type: "msra"
    }
    bias_filler {
      type: "constant"
    }
  }
}
layer {
  name: "res_b"
  type: "Convolution"
  bottom: "conv0"
  top: "res_b"
  param {
    lr_mult: 1
    decay_mult: 1
  }
  param {
    lr_mult: 2
    decay_mult: 1
  }
  convolution_param {
    num_output: 64
    pad: 0
    kernel_size: 1
    stride: 1
    weight_filler {
      type: "msra"
    }
    bias_filler {
      type: "constant"
    }
  }
}
layer {
  name: "elt_b_1"
  type: "Eltwise"
  bottom: "res_b"
  bottom: "conv_b_1_2"
  top: "elt_b_1"
  eltwise_param {
    operation: SUM
  }
}
layer {
  name: "bn_c_1_1"
  type: "BatchNorm"
  bottom: "conv0"
  top: "bn_c_1_1"
  param {
    lr_mult: 0
  }
  param {
    lr_mult: 0
  }
  param {
    lr_mult: 0
  }
  batch_norm_param {
    use_global_stats: false
  }
}
layer {
  name: "sc_c_1_1"
  type: "Scale"
  bottom: "bn_c_1_1"
  top: "sc_c_1_1"
  scale_param {
    bias_term: true
  }
}
layer {
  name: "relu_c_1_1"
  type: "ReLU"
  bottom: "sc_c_1_1"
  top: "relu_c_1_1"
}
layer {
  name: "conv_c_1_1"
  type: "Convolution"
  bottom: "relu_c_1_1"
  top: "conv_c_1_1"
  param {
    lr_mult: 1
    decay_mult: 1
  }
  param {
    lr_mult: 2
    decay_mult: 1
  }
  convolution_param {
    num_output: 64
    pad: 1
    kernel_size: 3
    stride: 1
    weight_filler {
      type: "msra"
    }
    bias_filler {
      type: "constant"
    }
  }
}
layer {
  name: "bn_c_1_2"
  type: "BatchNorm"
  bottom: "conv_c_1_1"
  top: "bn_c_1_2"
  param {
    lr_mult: 0
  }
  param {
    lr_mult: 0
  }
  param {
    lr_mult: 0
  }
  batch_norm_param {
    use_global_stats: false
  }
}
layer {
  name: "sc_c_1_2"
  type: "Scale"
  bottom: "bn_c_1_2"
  top: "sc_c_1_2"
  scale_param {
    bias_term: true
  }
}
layer {
  name: "relu_c_1_2"
  type: "ReLU"
  bottom: "sc_c_1_2"
  top: "relu_c_1_2"
}
layer {
  name: "conv_c_1_2"
  type: "Convolution"
  bottom: "relu_c_1_2"
  top: "conv_c_1_2"
  param {
    lr_mult: 1
    decay_mult: 1
  }
  param {
    lr_mult: 2
    decay_mult: 1
  }
  convolution_param {
    num_output: 64
    pad: 1
    kernel_size: 3
    stride: 1
    weight_filler {
      type: "msra"
    }
    bias_filler {
      type: "constant"
    }
  }
}
layer {
  name: "res_c"
  type: "Convolution"
  bottom: "conv0"
  top: "res_c"
  param {
    lr_mult: 1
    decay_mult: 1
  }
  param {
    lr_mult: 2
    decay_mult: 1
  }
  convolution_param {
    num_output: 64
    pad: 0
    kernel_size: 1
    stride: 1
    weight_filler {
      type: "msra"
    }
    bias_filler {
      type: "constant"
    }
  }
}
layer {
  name: "elt_c_1"
  type: "Eltwise"
  bottom: "res_c"
  bottom: "conv_c_1_2"
  top: "elt_c_1"
  eltwise_param {
    operation: SUM
  }
}
layer {
  name: "bn_d_1_1"
  type: "BatchNorm"
  bottom: "elt_a_1"
  top: "bn_d_1_1"
  param {
    lr_mult: 0
  }
  param {
    lr_mult: 0
  }
  param {
    lr_mult: 0
  }
  batch_norm_param {
    use_global_stats: false
  }
}
layer {
  name: "sc_d_1_1"
  type: "Scale"
  bottom: "bn_d_1_1"
  top: "sc_d_1_1"
  scale_param {
    bias_term: true
  }
}
layer {
  name: "relu_d_1_1"
  type: "ReLU"
  bottom: "sc_d_1_1"
  top: "relu_d_1_1"
}
layer {
  name: "conv_d_1_1"
  type: "Convolution"
  bottom: "relu_d_1_1"
  top: "conv_d_1_1"
  param {
    lr_mult: 1
    decay_mult: 1
  }
  param {
    lr_mult: 2
    decay_mult: 1
  }
  convolution_param {
    num_output: 128
    pad: 1
    kernel_size: 3
    stride: 2
    weight_filler {
      type: "msra"
    }
    bias_filler {
      type: "constant"
    }
  }
}
layer {
  name: "bn_d_1_2"
  type: "BatchNorm"
  bottom: "conv_d_1_1"
  top: "bn_d_1_2"
  param {
    lr_mult: 0
  }
  param {
    lr_mult: 0
  }
  param {
    lr_mult: 0
  }
  batch_norm_param {
    use_global_stats: false
  }
}
layer {
  name: "sc_d_1_2"
  type: "Scale"
  bottom: "bn_d_1_2"
  top: "sc_d_1_2"
  scale_param {
    bias_term: true
  }
}
layer {
  name: "relu_d_1_2"
  type: "ReLU"
  bottom: "sc_d_1_2"
  top: "relu_d_1_2"
}
layer {
  name: "conv_d_1_2"
  type: "Convolution"
  bottom: "relu_d_1_2"
  top: "conv_d_1_2"
  param {
    lr_mult: 1
    decay_mult: 1
  }
  param {
    lr_mult: 2
    decay_mult: 1
  }
  convolution_param {
    num_output: 128
    pad: 1
    kernel_size: 3
    stride: 1
    weight_filler {
      type: "msra"
    }
    bias_filler {
      type: "constant"
    }
  }
}
layer {
  name: "res_d"
  type: "Convolution"
  bottom: "elt_a_1"
  top: "res_d"
  param {
    lr_mult: 1
    decay_mult: 1
  }
  param {
    lr_mult: 2
    decay_mult: 1
  }
  convolution_param {
    num_output: 128
    pad: 0
    kernel_size: 1
    stride: 2
    weight_filler {
      type: "msra"
    }
    bias_filler {
      type: "constant"
    }
  }
}
layer {
  name: "elt_d_1"
  type: "Eltwise"
  bottom: "res_d"
  bottom: "conv_d_1_2"
  top: "elt_d_1"
  eltwise_param {
    operation: SUM
  }
}
layer {
  name: "bn_f_1_1"
  type: "BatchNorm"
  bottom: "elt_b_1"
  top: "bn_f_1_1"
  param {
    lr_mult: 0
  }
  param {
    lr_mult: 0
  }
  param {
    lr_mult: 0
  }
  batch_norm_param {
    use_global_stats: false
  }
}
layer {
  name: "sc_f_1_1"
  type: "Scale"
  bottom: "bn_f_1_1"
  top: "sc_f_1_1"
  scale_param {
    bias_term: true
  }
}
layer {
  name: "relu_f_1_1"
  type: "ReLU"
  bottom: "sc_f_1_1"
  top: "relu_f_1_1"
}
layer {
  name: "conv_f_1_1"
  type: "Convolution"
  bottom: "relu_f_1_1"
  top: "conv_f_1_1"
  param {
    lr_mult: 1
    decay_mult: 1
  }
  param {
    lr_mult: 2
    decay_mult: 1
  }
  convolution_param {
    num_output: 128
    pad: 1
    kernel_size: 3
    stride: 2
    weight_filler {
      type: "msra"
    }
    bias_filler {
      type: "constant"
    }
  }
}
layer {
  name: "bn_f_1_2"
  type: "BatchNorm"
  bottom: "conv_f_1_1"
  top: "bn_f_1_2"
  param {
    lr_mult: 0
  }
  param {
    lr_mult: 0
  }
  param {
    lr_mult: 0
  }
  batch_norm_param {
    use_global_stats: false
  }
}
layer {
  name: "sc_f_1_2"
  type: "Scale"
  bottom: "bn_f_1_2"
  top: "sc_f_1_2"
  scale_param {
    bias_term: true
  }
}
layer {
  name: "relu_f_1_2"
  type: "ReLU"
  bottom: "sc_f_1_2"
  top: "relu_f_1_2"
}
layer {
  name: "conv_f_1_2"
  type: "Convolution"
  bottom: "relu_f_1_2"
  top: "conv_f_1_2"
  param {
    lr_mult: 1
    decay_mult: 1
  }
  param {
    lr_mult: 2
    decay_mult: 1
  }
  convolution_param {
    num_output: 128
    pad: 1
    kernel_size: 3
    stride: 1
    weight_filler {
      type: "msra"
    }
    bias_filler {
      type: "constant"
    }
  }
}
layer {
  name: "res_f"
  type: "Convolution"
  bottom: "elt_b_1"
  top: "res_f"
  param {
    lr_mult: 1
    decay_mult: 1
  }
  param {
    lr_mult: 2
    decay_mult: 1
  }
  convolution_param {
    num_output: 128
    pad: 0
    kernel_size: 1
    stride: 2
    weight_filler {
      type: "msra"
    }
    bias_filler {
      type: "constant"
    }
  }
}
layer {
  name: "elt_f_1"
  type: "Eltwise"
  bottom: "res_f"
  bottom: "conv_f_1_2"
  top: "elt_f_1"
  eltwise_param {
    operation: SUM
  }
}
layer {
  name: "bn_g_1_1"
  type: "BatchNorm"
  bottom: "elt_b_1"
  top: "bn_g_1_1"
  param {
    lr_mult: 0
  }
  param {
    lr_mult: 0
  }
  param {
    lr_mult: 0
  }
  batch_norm_param {
    use_global_stats: false
  }
}
layer {
  name: "sc_g_1_1"
  type: "Scale"
  bottom: "bn_g_1_1"
  top: "sc_g_1_1"
  scale_param {
    bias_term: true
  }
}
layer {
  name: "relu_g_1_1"
  type: "ReLU"
  bottom: "sc_g_1_1"
  top: "relu_g_1_1"
}
layer {
  name: "conv_g_1_1"
  type: "Convolution"
  bottom: "relu_g_1_1"
  top: "conv_g_1_1"
  param {
    lr_mult: 1
    decay_mult: 1
  }
  param {
    lr_mult: 2
    decay_mult: 1
  }
  convolution_param {
    num_output: 128
    pad: 1
    kernel_size: 3
    stride: 2
    weight_filler {
      type: "msra"
    }
    bias_filler {
      type: "constant"
    }
  }
}
layer {
  name: "bn_g_1_2"
  type: "BatchNorm"
  bottom: "conv_g_1_1"
  top: "bn_g_1_2"
  param {
    lr_mult: 0
  }
  param {
    lr_mult: 0
  }
  param {
    lr_mult: 0
  }
  batch_norm_param {
    use_global_stats: false
  }
}
layer {
  name: "sc_g_1_2"
  type: "Scale"
  bottom: "bn_g_1_2"
  top: "sc_g_1_2"
  scale_param {
    bias_term: true
  }
}
layer {
  name: "relu_g_1_2"
  type: "ReLU"
  bottom: "sc_g_1_2"
  top: "relu_g_1_2"
}
layer {
  name: "conv_g_1_2"
  type: "Convolution"
  bottom: "relu_g_1_2"
  top: "conv_g_1_2"
  param {
    lr_mult: 1
    decay_mult: 1
  }
  param {
    lr_mult: 2
    decay_mult: 1
  }
  convolution_param {
    num_output: 128
    pad: 1
    kernel_size: 3
    stride: 1
    weight_filler {
      type: "msra"
    }
    bias_filler {
      type: "constant"
    }
  }
}
layer {
  name: "res_g"
  type: "Convolution"
  bottom: "elt_b_1"
  top: "res_g"
  param {
    lr_mult: 1
    decay_mult: 1
  }
  param {
    lr_mult: 2
    decay_mult: 1
  }
  convolution_param {
    num_output: 128
    pad: 0
    kernel_size: 1
    stride: 2
    weight_filler {
      type: "msra"
    }
    bias_filler {
      type: "constant"
    }
  }
}
layer {
  name: "elt_g_1"
  type: "Eltwise"
  bottom: "res_g"
  bottom: "conv_g_1_2"
  top: "elt_g_1"
  eltwise_param {
    operation: SUM
  }
}
layer {
  name: "bn_h_1_1"
  type: "BatchNorm"
  bottom: "elt_c_1"
  top: "bn_h_1_1"
  param {
    lr_mult: 0
  }
  param {
    lr_mult: 0
  }
  param {
    lr_mult: 0
  }
  batch_norm_param {
    use_global_stats: false
  }
}
layer {
  name: "sc_h_1_1"
  type: "Scale"
  bottom: "bn_h_1_1"
  top: "sc_h_1_1"
  scale_param {
    bias_term: true
  }
}
layer {
  name: "relu_h_1_1"
  type: "ReLU"
  bottom: "sc_h_1_1"
  top: "relu_h_1_1"
}
layer {
  name: "conv_h_1_1"
  type: "Convolution"
  bottom: "relu_h_1_1"
  top: "conv_h_1_1"
  param {
    lr_mult: 1
    decay_mult: 1
  }
  param {
    lr_mult: 2
    decay_mult: 1
  }
  convolution_param {
    num_output: 128
    pad: 1
    kernel_size: 3
    stride: 2
    weight_filler {
      type: "msra"
    }
    bias_filler {
      type: "constant"
    }
  }
}
layer {
  name: "bn_h_1_2"
  type: "BatchNorm"
  bottom: "conv_h_1_1"
  top: "bn_h_1_2"
  param {
    lr_mult: 0
  }
  param {
    lr_mult: 0
  }
  param {
    lr_mult: 0
  }
  batch_norm_param {
    use_global_stats: false
  }
}
layer {
  name: "sc_h_1_2"
  type: "Scale"
  bottom: "bn_h_1_2"
  top: "sc_h_1_2"
  scale_param {
    bias_term: true
  }
}
layer {
  name: "relu_h_1_2"
  type: "ReLU"
  bottom: "sc_h_1_2"
  top: "relu_h_1_2"
}
layer {
  name: "conv_h_1_2"
  type: "Convolution"
  bottom: "relu_h_1_2"
  top: "conv_h_1_2"
  param {
    lr_mult: 1
    decay_mult: 1
  }
  param {
    lr_mult: 2
    decay_mult: 1
  }
  convolution_param {
    num_output: 128
    pad: 1
    kernel_size: 3
    stride: 1
    weight_filler {
      type: "msra"
    }
    bias_filler {
      type: "constant"
    }
  }
}
layer {
  name: "res_h"
  type: "Convolution"
  bottom: "elt_c_1"
  top: "res_h"
  param {
    lr_mult: 1
    decay_mult: 1
  }
  param {
    lr_mult: 2
    decay_mult: 1
  }
  convolution_param {
    num_output: 128
    pad: 0
    kernel_size: 1
    stride: 2
    weight_filler {
      type: "msra"
    }
    bias_filler {
      type: "constant"
    }
  }
}
layer {
  name: "elt_h_1"
  type: "Eltwise"
  bottom: "res_h"
  bottom: "conv_h_1_2"
  top: "elt_h_1"
  eltwise_param {
    operation: SUM
  }
}
layer {
  name: "bn_i_1_1"
  type: "BatchNorm"
  bottom: "elt_c_1"
  top: "bn_i_1_1"
  param {
    lr_mult: 0
  }
  param {
    lr_mult: 0
  }
  param {
    lr_mult: 0
  }
  batch_norm_param {
    use_global_stats: false
  }
}
layer {
  name: "sc_i_1_1"
  type: "Scale"
  bottom: "bn_i_1_1"
  top: "sc_i_1_1"
  scale_param {
    bias_term: true
  }
}
layer {
  name: "relu_i_1_1"
  type: "ReLU"
  bottom: "sc_i_1_1"
  top: "relu_i_1_1"
}
layer {
  name: "conv_i_1_1"
  type: "Convolution"
  bottom: "relu_i_1_1"
  top: "conv_i_1_1"
  param {
    lr_mult: 1
    decay_mult: 1
  }
  param {
    lr_mult: 2
    decay_mult: 1
  }
  convolution_param {
    num_output: 128
    pad: 1
    kernel_size: 3
    stride: 2
    weight_filler {
      type: "msra"
    }
    bias_filler {
      type: "constant"
    }
  }
}
layer {
  name: "bn_i_1_2"
  type: "BatchNorm"
  bottom: "conv_i_1_1"
  top: "bn_i_1_2"
  param {
    lr_mult: 0
  }
  param {
    lr_mult: 0
  }
  param {
    lr_mult: 0
  }
  batch_norm_param {
    use_global_stats: false
  }
}
layer {
  name: "sc_i_1_2"
  type: "Scale"
  bottom: "bn_i_1_2"
  top: "sc_i_1_2"
  scale_param {
    bias_term: true
  }
}
layer {
  name: "relu_i_1_2"
  type: "ReLU"
  bottom: "sc_i_1_2"
  top: "relu_i_1_2"
}
layer {
  name: "conv_i_1_2"
  type: "Convolution"
  bottom: "relu_i_1_2"
  top: "conv_i_1_2"
  param {
    lr_mult: 1
    decay_mult: 1
  }
  param {
    lr_mult: 2
    decay_mult: 1
  }
  convolution_param {
    num_output: 128
    pad: 1
    kernel_size: 3
    stride: 1
    weight_filler {
      type: "msra"
    }
    bias_filler {
      type: "constant"
    }
  }
}
layer {
  name: "res_i"
  type: "Convolution"
  bottom: "elt_c_1"
  top: "res_i"
  param {
    lr_mult: 1
    decay_mult: 1
  }
  param {
    lr_mult: 2
    decay_mult: 1
  }
  convolution_param {
    num_output: 128
    pad: 0
    kernel_size: 1
    stride: 2
    weight_filler {
      type: "msra"
    }
    bias_filler {
      type: "constant"
    }
  }
}
layer {
  name: "elt_i_1"
  type: "Eltwise"
  bottom: "res_i"
  bottom: "conv_i_1_2"
  top: "elt_i_1"
  eltwise_param {
    operation: SUM
  }
}
layer {
  name: "elt_d_f"
  type: "Eltwise"
  bottom: "elt_d_1"
  bottom: "elt_f_1"
  top: "elt_d_f"
  eltwise_param {
    operation: SUM
  }
}
layer {
  name: "elt_g_i"
  type: "Eltwise"
  bottom: "elt_g_1"
  bottom: "elt_i_1"
  top: "elt_g_i"
  eltwise_param {
    operation: SUM
  }
}
layer {
  name: "bn_j_1_1"
  type: "BatchNorm"
  bottom: "elt_d_f"
  top: "bn_j_1_1"
  param {
    lr_mult: 0
  }
  param {
    lr_mult: 0
  }
  param {
    lr_mult: 0
  }
  batch_norm_param {
    use_global_stats: false
  }
}
layer {
  name: "sc_j_1_1"
  type: "Scale"
  bottom: "bn_j_1_1"
  top: "sc_j_1_1"
  scale_param {
    bias_term: true
  }
}
layer {
  name: "relu_j_1_1"
  type: "ReLU"
  bottom: "sc_j_1_1"
  top: "relu_j_1_1"
}
layer {
  name: "conv_j_1_1"
  type: "Convolution"
  bottom: "relu_j_1_1"
  top: "conv_j_1_1"
  param {
    lr_mult: 1
    decay_mult: 1
  }
  param {
    lr_mult: 2
    decay_mult: 1
  }
  convolution_param {
    num_output: 256
    pad: 1
    kernel_size: 3
    stride: 2
    weight_filler {
      type: "msra"
    }
    bias_filler {
      type: "constant"
    }
  }
}
layer {
  name: "bn_j_1_2"
  type: "BatchNorm"
  bottom: "conv_j_1_1"
  top: "bn_j_1_2"
  param {
    lr_mult: 0
  }
  param {
    lr_mult: 0
  }
  param {
    lr_mult: 0
  }
  batch_norm_param {
    use_global_stats: false
  }
}
layer {
  name: "sc_j_1_2"
  type: "Scale"
  bottom: "bn_j_1_2"
  top: "sc_j_1_2"
  scale_param {
    bias_term: true
  }
}
layer {
  name: "relu_j_1_2"
  type: "ReLU"
  bottom: "sc_j_1_2"
  top: "relu_j_1_2"
}
layer {
  name: "conv_j_1_2"
  type: "Convolution"
  bottom: "relu_j_1_2"
  top: "conv_j_1_2"
  param {
    lr_mult: 1
    decay_mult: 1
  }
  param {
    lr_mult: 2
    decay_mult: 1
  }
  convolution_param {
    num_output: 256
    pad: 1
    kernel_size: 3
    stride: 1
    weight_filler {
      type: "msra"
    }
    bias_filler {
      type: "constant"
    }
  }
}
layer {
  name: "res_j"
  type: "Convolution"
  bottom: "elt_d_f"
  top: "res_j"
  param {
    lr_mult: 1
    decay_mult: 1
  }
  param {
    lr_mult: 2
    decay_mult: 1
  }
  convolution_param {
    num_output: 256
    pad: 0
    kernel_size: 1
    stride: 2
    weight_filler {
      type: "msra"
    }
    bias_filler {
      type: "constant"
    }
  }
}
layer {
  name: "elt_j_1"
  type: "Eltwise"
  bottom: "res_j"
  bottom: "conv_j_1_2"
  top: "elt_j_1"
  eltwise_param {
    operation: SUM
  }
}
layer {
  name: "bn_e_1_1"
  type: "BatchNorm"
  bottom: "elt_a_1"
  top: "bn_e_1_1"
  param {
    lr_mult: 0
  }
  param {
    lr_mult: 0
  }
  param {
    lr_mult: 0
  }
  batch_norm_param {
    use_global_stats: false
  }
}
layer {
  name: "sc_e_1_1"
  type: "Scale"
  bottom: "bn_e_1_1"
  top: "sc_e_1_1"
  scale_param {
    bias_term: true
  }
}
layer {
  name: "relu_e_1_1"
  type: "ReLU"
  bottom: "sc_e_1_1"
  top: "relu_e_1_1"
}
layer {
  name: "conv_e_1_1"
  type: "Convolution"
  bottom: "relu_e_1_1"
  top: "conv_e_1_1"
  param {
    lr_mult: 1
    decay_mult: 1
  }
  param {
    lr_mult: 2
    decay_mult: 1
  }
  convolution_param {
    num_output: 128
    pad: 1
    kernel_size: 3
    stride: 2
    weight_filler {
      type: "msra"
    }
    bias_filler {
      type: "constant"
    }
  }
}
layer {
  name: "bn_e_1_2"
  type: "BatchNorm"
  bottom: "conv_e_1_1"
  top: "bn_e_1_2"
  param {
    lr_mult: 0
  }
  param {
    lr_mult: 0
  }
  param {
    lr_mult: 0
  }
  batch_norm_param {
    use_global_stats: false
  }
}
layer {
  name: "sc_e_1_2"
  type: "Scale"
  bottom: "bn_e_1_2"
  top: "sc_e_1_2"
  scale_param {
    bias_term: true
  }
}
layer {
  name: "relu_e_1_2"
  type: "ReLU"
  bottom: "sc_e_1_2"
  top: "relu_e_1_2"
}
layer {
  name: "conv_e_1_2"
  type: "Convolution"
  bottom: "relu_e_1_2"
  top: "conv_e_1_2"
  param {
    lr_mult: 1
    decay_mult: 1
  }
  param {
    lr_mult: 2
    decay_mult: 1
  }
  convolution_param {
    num_output: 128
    pad: 1
    kernel_size: 3
    stride: 1
    weight_filler {
      type: "msra"
    }
    bias_filler {
      type: "constant"
    }
  }
}
layer {
  name: "res_e"
  type: "Convolution"
  bottom: "elt_a_1"
  top: "res_e"
  param {
    lr_mult: 1
    decay_mult: 1
  }
  param {
    lr_mult: 2
    decay_mult: 1
  }
  convolution_param {
    num_output: 128
    pad: 0
    kernel_size: 1
    stride: 2
    weight_filler {
      type: "msra"
    }
    bias_filler {
      type: "constant"
    }
  }
}
layer {
  name: "elt_e_1"
  type: "Eltwise"
  bottom: "res_e"
  bottom: "conv_e_1_2"
  top: "elt_e_1"
  eltwise_param {
    operation: SUM
  }
}
layer {
  name: "elt_e_h"
  type: "Eltwise"
  bottom: "elt_e_1"
  bottom: "elt_h_1"
  top: "elt_e_h"
  eltwise_param {
    operation: SUM
  }
}
layer {
  name: "bn_k_1_1"
  type: "BatchNorm"
  bottom: "elt_e_h"
  top: "bn_k_1_1"
  param {
    lr_mult: 0
  }
  param {
    lr_mult: 0
  }
  param {
    lr_mult: 0
  }
  batch_norm_param {
    use_global_stats: false
  }
}
layer {
  name: "sc_k_1_1"
  type: "Scale"
  bottom: "bn_k_1_1"
  top: "sc_k_1_1"
  scale_param {
    bias_term: true
  }
}
layer {
  name: "relu_k_1_1"
  type: "ReLU"
  bottom: "sc_k_1_1"
  top: "relu_k_1_1"
}
layer {
  name: "conv_k_1_1"
  type: "Convolution"
  bottom: "relu_k_1_1"
  top: "conv_k_1_1"
  param {
    lr_mult: 1
    decay_mult: 1
  }
  param {
    lr_mult: 2
    decay_mult: 1
  }
  convolution_param {
    num_output: 256
    pad: 1
    kernel_size: 3
    stride: 2
    weight_filler {
      type: "msra"
    }
    bias_filler {
      type: "constant"
    }
  }
}
layer {
  name: "bn_k_1_2"
  type: "BatchNorm"
  bottom: "conv_k_1_1"
  top: "bn_k_1_2"
  param {
    lr_mult: 0
  }
  param {
    lr_mult: 0
  }
  param {
    lr_mult: 0
  }
  batch_norm_param {
    use_global_stats: false
  }
}
layer {
  name: "sc_k_1_2"
  type: "Scale"
  bottom: "bn_k_1_2"
  top: "sc_k_1_2"
  scale_param {
    bias_term: true
  }
}
layer {
  name: "relu_k_1_2"
  type: "ReLU"
  bottom: "sc_k_1_2"
  top: "relu_k_1_2"
}
layer {
  name: "conv_k_1_2"
  type: "Convolution"
  bottom: "relu_k_1_2"
  top: "conv_k_1_2"
  param {
    lr_mult: 1
    decay_mult: 1
  }
  param {
    lr_mult: 2
    decay_mult: 1
  }
  convolution_param {
    num_output: 256
    pad: 1
    kernel_size: 3
    stride: 1
    weight_filler {
      type: "msra"
    }
    bias_filler {
      type: "constant"
    }
  }
}
layer {
  name: "res_k"
  type: "Convolution"
  bottom: "elt_e_h"
  top: "res_k"
  param {
    lr_mult: 1
    decay_mult: 1
  }
  param {
    lr_mult: 2
    decay_mult: 1
  }
  convolution_param {
    num_output: 256
    pad: 0
    kernel_size: 1
    stride: 2
    weight_filler {
      type: "msra"
    }
    bias_filler {
      type: "constant"
    }
  }
}
layer {
  name: "elt_k_1"
  type: "Eltwise"
  bottom: "res_k"
  bottom: "conv_k_1_2"
  top: "elt_k_1"
  eltwise_param {
    operation: SUM
  }
}
layer {
  name: "bn_l_1_1"
  type: "BatchNorm"
  bottom: "elt_g_i"
  top: "bn_l_1_1"
  param {
    lr_mult: 0
  }
  param {
    lr_mult: 0
  }
  param {
    lr_mult: 0
  }
  batch_norm_param {
    use_global_stats: false
  }
}
layer {
  name: "sc_l_1_1"
  type: "Scale"
  bottom: "bn_l_1_1"
  top: "sc_l_1_1"
  scale_param {
    bias_term: true
  }
}
layer {
  name: "relu_l_1_1"
  type: "ReLU"
  bottom: "sc_l_1_1"
  top: "relu_l_1_1"
}
layer {
  name: "conv_l_1_1"
  type: "Convolution"
  bottom: "relu_l_1_1"
  top: "conv_l_1_1"
  param {
    lr_mult: 1
    decay_mult: 1
  }
  param {
    lr_mult: 2
    decay_mult: 1
  }
  convolution_param {
    num_output: 256
    pad: 1
    kernel_size: 3
    stride: 2
    weight_filler {
      type: "msra"
    }
    bias_filler {
      type: "constant"
    }
  }
}
layer {
  name: "bn_l_1_2"
  type: "BatchNorm"
  bottom: "conv_l_1_1"
  top: "bn_l_1_2"
  param {
    lr_mult: 0
  }
  param {
    lr_mult: 0
  }
  param {
    lr_mult: 0
  }
  batch_norm_param {
    use_global_stats: false
  }
}
layer {
  name: "sc_l_1_2"
  type: "Scale"
  bottom: "bn_l_1_2"
  top: "sc_l_1_2"
  scale_param {
    bias_term: true
  }
}
layer {
  name: "relu_l_1_2"
  type: "ReLU"
  bottom: "sc_l_1_2"
  top: "relu_l_1_2"
}
layer {
  name: "conv_l_1_2"
  type: "Convolution"
  bottom: "relu_l_1_2"
  top: "conv_l_1_2"
  param {
    lr_mult: 1
    decay_mult: 1
  }
  param {
    lr_mult: 2
    decay_mult: 1
  }
  convolution_param {
    num_output: 256
    pad: 1
    kernel_size: 3
    stride: 1
    weight_filler {
      type: "msra"
    }
    bias_filler {
      type: "constant"
    }
  }
}
layer {
  name: "res_l"
  type: "Convolution"
  bottom: "elt_g_i"
  top: "res_l"
  param {
    lr_mult: 1
    decay_mult: 1
  }
  param {
    lr_mult: 2
    decay_mult: 1
  }
  convolution_param {
    num_output: 256
    pad: 0
    kernel_size: 1
    stride: 2
    weight_filler {
      type: "msra"
    }
    bias_filler {
      type: "constant"
    }
  }
}
layer {
  name: "elt_l_1"
  type: "Eltwise"
  bottom: "res_l"
  bottom: "conv_l_1_2"
  top: "elt_l_1"
  eltwise_param {
    operation: SUM
  }
}
layer {
  name: "elt_j_k_l"
  type: "Eltwise"
  bottom: "elt_j_1"
  bottom: "elt_k_1"
  bottom: "elt_l_1"
  top: "elt_j_k_l"
  eltwise_param {
    operation: SUM
  }
}
layer {
  name: "bn_m_1_1"
  type: "BatchNorm"
  bottom: "elt_j_k_l"
  top: "bn_m_1_1"
  param {
    lr_mult: 0
  }
  param {
    lr_mult: 0
  }
  param {
    lr_mult: 0
  }
  batch_norm_param {
    use_global_stats: false
  }
}
layer {
  name: "sc_m_1_1"
  type: "Scale"
  bottom: "bn_m_1_1"
  top: "sc_m_1_1"
  scale_param {
    bias_term: true
  }
}
layer {
  name: "relu_m_1_1"
  type: "ReLU"
  bottom: "sc_m_1_1"
  top: "relu_m_1_1"
}
layer {
  name: "gap"
  type: "Pooling"
  bottom: "relu_m_1_1"
  top: "gap"
  pooling_param {
    pool: AVE
    kernel_size: 8
    stride: 1
  }
}
layer {
  name: "ip1"
  type: "InnerProduct"
  bottom: "gap"
  top: "ip1"
  param {
    lr_mult: 1
    decay_mult: 1
  }
  param {
    lr_mult: 2
    decay_mult: 0
  }
  inner_product_param {
    num_output: 10
    weight_filler {
      type: "msra"
    }
    bias_filler {
      type: "constant"
      value: 0
    }
  }
}
layer {
  name: "accuracy"
  type: "Accuracy"
  bottom: "ip1"
  bottom: "label"
  top: "accuracy"
  include {
    phase: TEST
  }
}
layer {
  name: "loss"
  type: "SoftmaxWithLoss"
  bottom: "ip1"
  bottom: "label"
  top: "loss"
}
I0621 01:51:54.133621 20669 layer_factory.hpp:77] Creating layer resnet
I0621 01:51:54.133749 20669 net.cpp:91] Creating Layer resnet
I0621 01:51:54.133764 20669 net.cpp:399] resnet -> data
I0621 01:51:54.133776 20669 net.cpp:399] resnet -> label
I0621 01:51:54.133787 20669 data_transformer.cpp:25] Loading mean file from: /home/takeki/caffe/examples/cifar10/mean.binaryproto
I0621 01:51:54.134899 20714 db_lmdb.cpp:35] Opened lmdb /home/takeki/caffe/examples/cifar10/cifar10_test_lmdb
I0621 01:51:54.135071 20669 data_layer.cpp:41] output data size: 100,3,32,32
I0621 01:51:54.137888 20669 net.cpp:141] Setting up resnet
I0621 01:51:54.137904 20669 net.cpp:148] Top shape: 100 3 32 32 (307200)
I0621 01:51:54.137912 20669 net.cpp:148] Top shape: 100 (100)
I0621 01:51:54.137917 20669 net.cpp:156] Memory required for data: 1229200
I0621 01:51:54.137923 20669 layer_factory.hpp:77] Creating layer label_resnet_1_split
I0621 01:51:54.137931 20669 net.cpp:91] Creating Layer label_resnet_1_split
I0621 01:51:54.137938 20669 net.cpp:425] label_resnet_1_split <- label
I0621 01:51:54.137946 20669 net.cpp:399] label_resnet_1_split -> label_resnet_1_split_0
I0621 01:51:54.137956 20669 net.cpp:399] label_resnet_1_split -> label_resnet_1_split_1
I0621 01:51:54.138049 20669 net.cpp:141] Setting up label_resnet_1_split
I0621 01:51:54.138062 20669 net.cpp:148] Top shape: 100 (100)
I0621 01:51:54.138068 20669 net.cpp:148] Top shape: 100 (100)
I0621 01:51:54.138072 20669 net.cpp:156] Memory required for data: 1230000
I0621 01:51:54.138077 20669 layer_factory.hpp:77] Creating layer conv0
I0621 01:51:54.138095 20669 net.cpp:91] Creating Layer conv0
I0621 01:51:54.138103 20669 net.cpp:425] conv0 <- data
I0621 01:51:54.138125 20669 net.cpp:399] conv0 -> conv0
I0621 01:51:54.139482 20669 net.cpp:141] Setting up conv0
I0621 01:51:54.139513 20669 net.cpp:148] Top shape: 100 16 32 32 (1638400)
I0621 01:51:54.139521 20669 net.cpp:156] Memory required for data: 7783600
I0621 01:51:54.139534 20669 layer_factory.hpp:77] Creating layer conv0_conv0_0_split
I0621 01:51:54.139544 20669 net.cpp:91] Creating Layer conv0_conv0_0_split
I0621 01:51:54.139570 20669 net.cpp:425] conv0_conv0_0_split <- conv0
I0621 01:51:54.139578 20669 net.cpp:399] conv0_conv0_0_split -> conv0_conv0_0_split_0
I0621 01:51:54.139587 20669 net.cpp:399] conv0_conv0_0_split -> conv0_conv0_0_split_1
I0621 01:51:54.139598 20669 net.cpp:399] conv0_conv0_0_split -> conv0_conv0_0_split_2
I0621 01:51:54.139606 20669 net.cpp:399] conv0_conv0_0_split -> conv0_conv0_0_split_3
I0621 01:51:54.139614 20669 net.cpp:399] conv0_conv0_0_split -> conv0_conv0_0_split_4
I0621 01:51:54.139631 20669 net.cpp:399] conv0_conv0_0_split -> conv0_conv0_0_split_5
I0621 01:51:54.139735 20669 net.cpp:141] Setting up conv0_conv0_0_split
I0621 01:51:54.139749 20669 net.cpp:148] Top shape: 100 16 32 32 (1638400)
I0621 01:51:54.139755 20669 net.cpp:148] Top shape: 100 16 32 32 (1638400)
I0621 01:51:54.139760 20669 net.cpp:148] Top shape: 100 16 32 32 (1638400)
I0621 01:51:54.139773 20669 net.cpp:148] Top shape: 100 16 32 32 (1638400)
I0621 01:51:54.139791 20669 net.cpp:148] Top shape: 100 16 32 32 (1638400)
I0621 01:51:54.139796 20669 net.cpp:148] Top shape: 100 16 32 32 (1638400)
I0621 01:51:54.139801 20669 net.cpp:156] Memory required for data: 47105200
I0621 01:51:54.139806 20669 layer_factory.hpp:77] Creating layer bn_a_1_1
I0621 01:51:54.139817 20669 net.cpp:91] Creating Layer bn_a_1_1
I0621 01:51:54.139822 20669 net.cpp:425] bn_a_1_1 <- conv0_conv0_0_split_0
I0621 01:51:54.139832 20669 net.cpp:399] bn_a_1_1 -> bn_a_1_1
I0621 01:51:54.140106 20669 net.cpp:141] Setting up bn_a_1_1
I0621 01:51:54.140120 20669 net.cpp:148] Top shape: 100 16 32 32 (1638400)
I0621 01:51:54.140125 20669 net.cpp:156] Memory required for data: 53658800
I0621 01:51:54.140139 20669 layer_factory.hpp:77] Creating layer sc_a_1_1
I0621 01:51:54.140147 20669 net.cpp:91] Creating Layer sc_a_1_1
I0621 01:51:54.140152 20669 net.cpp:425] sc_a_1_1 <- bn_a_1_1
I0621 01:51:54.140159 20669 net.cpp:399] sc_a_1_1 -> sc_a_1_1
I0621 01:51:54.140254 20669 layer_factory.hpp:77] Creating layer sc_a_1_1
I0621 01:51:54.140393 20669 net.cpp:141] Setting up sc_a_1_1
I0621 01:51:54.140408 20669 net.cpp:148] Top shape: 100 16 32 32 (1638400)
I0621 01:51:54.140413 20669 net.cpp:156] Memory required for data: 60212400
I0621 01:51:54.140420 20669 layer_factory.hpp:77] Creating layer relu_a_1_1
I0621 01:51:54.140429 20669 net.cpp:91] Creating Layer relu_a_1_1
I0621 01:51:54.140440 20669 net.cpp:425] relu_a_1_1 <- sc_a_1_1
I0621 01:51:54.140450 20669 net.cpp:399] relu_a_1_1 -> relu_a_1_1
I0621 01:51:54.140924 20669 net.cpp:141] Setting up relu_a_1_1
I0621 01:51:54.140941 20669 net.cpp:148] Top shape: 100 16 32 32 (1638400)
I0621 01:51:54.140946 20669 net.cpp:156] Memory required for data: 66766000
I0621 01:51:54.140951 20669 layer_factory.hpp:77] Creating layer conv_a_1_1
I0621 01:51:54.140966 20669 net.cpp:91] Creating Layer conv_a_1_1
I0621 01:51:54.140986 20669 net.cpp:425] conv_a_1_1 <- relu_a_1_1
I0621 01:51:54.141003 20669 net.cpp:399] conv_a_1_1 -> conv_a_1_1
I0621 01:51:54.142387 20669 net.cpp:141] Setting up conv_a_1_1
I0621 01:51:54.142405 20669 net.cpp:148] Top shape: 100 64 32 32 (6553600)
I0621 01:51:54.142411 20669 net.cpp:156] Memory required for data: 92980400
I0621 01:51:54.142436 20669 layer_factory.hpp:77] Creating layer bn_a_1_2
I0621 01:51:54.142444 20669 net.cpp:91] Creating Layer bn_a_1_2
I0621 01:51:54.142451 20669 net.cpp:425] bn_a_1_2 <- conv_a_1_1
I0621 01:51:54.142474 20669 net.cpp:399] bn_a_1_2 -> bn_a_1_2
I0621 01:51:54.142778 20669 net.cpp:141] Setting up bn_a_1_2
I0621 01:51:54.142792 20669 net.cpp:148] Top shape: 100 64 32 32 (6553600)
I0621 01:51:54.142801 20669 net.cpp:156] Memory required for data: 119194800
I0621 01:51:54.142823 20669 layer_factory.hpp:77] Creating layer sc_a_1_2
I0621 01:51:54.142835 20669 net.cpp:91] Creating Layer sc_a_1_2
I0621 01:51:54.142841 20669 net.cpp:425] sc_a_1_2 <- bn_a_1_2
I0621 01:51:54.142849 20669 net.cpp:399] sc_a_1_2 -> sc_a_1_2
I0621 01:51:54.142912 20669 layer_factory.hpp:77] Creating layer sc_a_1_2
I0621 01:51:54.143064 20669 net.cpp:141] Setting up sc_a_1_2
I0621 01:51:54.143076 20669 net.cpp:148] Top shape: 100 64 32 32 (6553600)
I0621 01:51:54.143082 20669 net.cpp:156] Memory required for data: 145409200
I0621 01:51:54.143098 20669 layer_factory.hpp:77] Creating layer relu_a_1_2
I0621 01:51:54.143105 20669 net.cpp:91] Creating Layer relu_a_1_2
I0621 01:51:54.143110 20669 net.cpp:425] relu_a_1_2 <- sc_a_1_2
I0621 01:51:54.143122 20669 net.cpp:399] relu_a_1_2 -> relu_a_1_2
I0621 01:51:54.143354 20669 net.cpp:141] Setting up relu_a_1_2
I0621 01:51:54.143370 20669 net.cpp:148] Top shape: 100 64 32 32 (6553600)
I0621 01:51:54.143375 20669 net.cpp:156] Memory required for data: 171623600
I0621 01:51:54.143381 20669 layer_factory.hpp:77] Creating layer conv_a_1_2
I0621 01:51:54.143395 20669 net.cpp:91] Creating Layer conv_a_1_2
I0621 01:51:54.143401 20669 net.cpp:425] conv_a_1_2 <- relu_a_1_2
I0621 01:51:54.143410 20669 net.cpp:399] conv_a_1_2 -> conv_a_1_2
I0621 01:51:54.145648 20669 net.cpp:141] Setting up conv_a_1_2
I0621 01:51:54.145664 20669 net.cpp:148] Top shape: 100 64 32 32 (6553600)
I0621 01:51:54.145669 20669 net.cpp:156] Memory required for data: 197838000
I0621 01:51:54.145691 20669 layer_factory.hpp:77] Creating layer res_a
I0621 01:51:54.145705 20669 net.cpp:91] Creating Layer res_a
I0621 01:51:54.145714 20669 net.cpp:425] res_a <- conv0_conv0_0_split_1
I0621 01:51:54.145723 20669 net.cpp:399] res_a -> res_a
I0621 01:51:54.146893 20669 net.cpp:141] Setting up res_a
I0621 01:51:54.146910 20669 net.cpp:148] Top shape: 100 64 32 32 (6553600)
I0621 01:51:54.146929 20669 net.cpp:156] Memory required for data: 224052400
I0621 01:51:54.146944 20669 layer_factory.hpp:77] Creating layer elt_a_1
I0621 01:51:54.146955 20669 net.cpp:91] Creating Layer elt_a_1
I0621 01:51:54.146962 20669 net.cpp:425] elt_a_1 <- res_a
I0621 01:51:54.146968 20669 net.cpp:425] elt_a_1 <- conv_a_1_2
I0621 01:51:54.146977 20669 net.cpp:399] elt_a_1 -> elt_a_1
I0621 01:51:54.147016 20669 net.cpp:141] Setting up elt_a_1
I0621 01:51:54.147027 20669 net.cpp:148] Top shape: 100 64 32 32 (6553600)
I0621 01:51:54.147032 20669 net.cpp:156] Memory required for data: 250266800
I0621 01:51:54.147038 20669 layer_factory.hpp:77] Creating layer elt_a_1_elt_a_1_0_split
I0621 01:51:54.147048 20669 net.cpp:91] Creating Layer elt_a_1_elt_a_1_0_split
I0621 01:51:54.147055 20669 net.cpp:425] elt_a_1_elt_a_1_0_split <- elt_a_1
I0621 01:51:54.147063 20669 net.cpp:399] elt_a_1_elt_a_1_0_split -> elt_a_1_elt_a_1_0_split_0
I0621 01:51:54.147071 20669 net.cpp:399] elt_a_1_elt_a_1_0_split -> elt_a_1_elt_a_1_0_split_1
I0621 01:51:54.147083 20669 net.cpp:399] elt_a_1_elt_a_1_0_split -> elt_a_1_elt_a_1_0_split_2
I0621 01:51:54.147092 20669 net.cpp:399] elt_a_1_elt_a_1_0_split -> elt_a_1_elt_a_1_0_split_3
I0621 01:51:54.147171 20669 net.cpp:141] Setting up elt_a_1_elt_a_1_0_split
I0621 01:51:54.147183 20669 net.cpp:148] Top shape: 100 64 32 32 (6553600)
I0621 01:51:54.147191 20669 net.cpp:148] Top shape: 100 64 32 32 (6553600)
I0621 01:51:54.147197 20669 net.cpp:148] Top shape: 100 64 32 32 (6553600)
I0621 01:51:54.147202 20669 net.cpp:148] Top shape: 100 64 32 32 (6553600)
I0621 01:51:54.147208 20669 net.cpp:156] Memory required for data: 355124400
I0621 01:51:54.147213 20669 layer_factory.hpp:77] Creating layer bn_b_1_1
I0621 01:51:54.147222 20669 net.cpp:91] Creating Layer bn_b_1_1
I0621 01:51:54.147229 20669 net.cpp:425] bn_b_1_1 <- conv0_conv0_0_split_2
I0621 01:51:54.147236 20669 net.cpp:399] bn_b_1_1 -> bn_b_1_1
I0621 01:51:54.147487 20669 net.cpp:141] Setting up bn_b_1_1
I0621 01:51:54.147513 20669 net.cpp:148] Top shape: 100 16 32 32 (1638400)
I0621 01:51:54.147519 20669 net.cpp:156] Memory required for data: 361678000
I0621 01:51:54.147543 20669 layer_factory.hpp:77] Creating layer sc_b_1_1
I0621 01:51:54.147569 20669 net.cpp:91] Creating Layer sc_b_1_1
I0621 01:51:54.147578 20669 net.cpp:425] sc_b_1_1 <- bn_b_1_1
I0621 01:51:54.147584 20669 net.cpp:399] sc_b_1_1 -> sc_b_1_1
I0621 01:51:54.147657 20669 layer_factory.hpp:77] Creating layer sc_b_1_1
I0621 01:51:54.147826 20669 net.cpp:141] Setting up sc_b_1_1
I0621 01:51:54.147840 20669 net.cpp:148] Top shape: 100 16 32 32 (1638400)
I0621 01:51:54.147845 20669 net.cpp:156] Memory required for data: 368231600
I0621 01:51:54.147853 20669 layer_factory.hpp:77] Creating layer relu_b_1_1
I0621 01:51:54.147861 20669 net.cpp:91] Creating Layer relu_b_1_1
I0621 01:51:54.147866 20669 net.cpp:425] relu_b_1_1 <- sc_b_1_1
I0621 01:51:54.147876 20669 net.cpp:399] relu_b_1_1 -> relu_b_1_1
I0621 01:51:54.148087 20669 net.cpp:141] Setting up relu_b_1_1
I0621 01:51:54.148100 20669 net.cpp:148] Top shape: 100 16 32 32 (1638400)
I0621 01:51:54.148107 20669 net.cpp:156] Memory required for data: 374785200
I0621 01:51:54.148111 20669 layer_factory.hpp:77] Creating layer conv_b_1_1
I0621 01:51:54.148123 20669 net.cpp:91] Creating Layer conv_b_1_1
I0621 01:51:54.148130 20669 net.cpp:425] conv_b_1_1 <- relu_b_1_1
I0621 01:51:54.148141 20669 net.cpp:399] conv_b_1_1 -> conv_b_1_1
I0621 01:51:54.149466 20669 net.cpp:141] Setting up conv_b_1_1
I0621 01:51:54.149480 20669 net.cpp:148] Top shape: 100 64 32 32 (6553600)
I0621 01:51:54.149499 20669 net.cpp:156] Memory required for data: 400999600
I0621 01:51:54.149507 20669 layer_factory.hpp:77] Creating layer bn_b_1_2
I0621 01:51:54.149518 20669 net.cpp:91] Creating Layer bn_b_1_2
I0621 01:51:54.149525 20669 net.cpp:425] bn_b_1_2 <- conv_b_1_1
I0621 01:51:54.149534 20669 net.cpp:399] bn_b_1_2 -> bn_b_1_2
I0621 01:51:54.149816 20669 net.cpp:141] Setting up bn_b_1_2
I0621 01:51:54.149828 20669 net.cpp:148] Top shape: 100 64 32 32 (6553600)
I0621 01:51:54.149833 20669 net.cpp:156] Memory required for data: 427214000
I0621 01:51:54.149843 20669 layer_factory.hpp:77] Creating layer sc_b_1_2
I0621 01:51:54.149854 20669 net.cpp:91] Creating Layer sc_b_1_2
I0621 01:51:54.149862 20669 net.cpp:425] sc_b_1_2 <- bn_b_1_2
I0621 01:51:54.149868 20669 net.cpp:399] sc_b_1_2 -> sc_b_1_2
I0621 01:51:54.149929 20669 layer_factory.hpp:77] Creating layer sc_b_1_2
I0621 01:51:54.150079 20669 net.cpp:141] Setting up sc_b_1_2
I0621 01:51:54.150090 20669 net.cpp:148] Top shape: 100 64 32 32 (6553600)
I0621 01:51:54.150096 20669 net.cpp:156] Memory required for data: 453428400
I0621 01:51:54.150104 20669 layer_factory.hpp:77] Creating layer relu_b_1_2
I0621 01:51:54.150112 20669 net.cpp:91] Creating Layer relu_b_1_2
I0621 01:51:54.150117 20669 net.cpp:425] relu_b_1_2 <- sc_b_1_2
I0621 01:51:54.150126 20669 net.cpp:399] relu_b_1_2 -> relu_b_1_2
I0621 01:51:54.150451 20669 net.cpp:141] Setting up relu_b_1_2
I0621 01:51:54.150468 20669 net.cpp:148] Top shape: 100 64 32 32 (6553600)
I0621 01:51:54.150475 20669 net.cpp:156] Memory required for data: 479642800
I0621 01:51:54.150480 20669 layer_factory.hpp:77] Creating layer conv_b_1_2
I0621 01:51:54.150492 20669 net.cpp:91] Creating Layer conv_b_1_2
I0621 01:51:54.150501 20669 net.cpp:425] conv_b_1_2 <- relu_b_1_2
I0621 01:51:54.150508 20669 net.cpp:399] conv_b_1_2 -> conv_b_1_2
I0621 01:51:54.152963 20669 net.cpp:141] Setting up conv_b_1_2
I0621 01:51:54.152992 20669 net.cpp:148] Top shape: 100 64 32 32 (6553600)
I0621 01:51:54.152999 20669 net.cpp:156] Memory required for data: 505857200
I0621 01:51:54.153008 20669 layer_factory.hpp:77] Creating layer res_b
I0621 01:51:54.153024 20669 net.cpp:91] Creating Layer res_b
I0621 01:51:54.153033 20669 net.cpp:425] res_b <- conv0_conv0_0_split_3
I0621 01:51:54.153040 20669 net.cpp:399] res_b -> res_b
I0621 01:51:54.154171 20669 net.cpp:141] Setting up res_b
I0621 01:51:54.154187 20669 net.cpp:148] Top shape: 100 64 32 32 (6553600)
I0621 01:51:54.154206 20669 net.cpp:156] Memory required for data: 532071600
I0621 01:51:54.154222 20669 layer_factory.hpp:77] Creating layer elt_b_1
I0621 01:51:54.154244 20669 net.cpp:91] Creating Layer elt_b_1
I0621 01:51:54.154252 20669 net.cpp:425] elt_b_1 <- res_b
I0621 01:51:54.154258 20669 net.cpp:425] elt_b_1 <- conv_b_1_2
I0621 01:51:54.154268 20669 net.cpp:399] elt_b_1 -> elt_b_1
I0621 01:51:54.154307 20669 net.cpp:141] Setting up elt_b_1
I0621 01:51:54.154322 20669 net.cpp:148] Top shape: 100 64 32 32 (6553600)
I0621 01:51:54.154327 20669 net.cpp:156] Memory required for data: 558286000
I0621 01:51:54.154332 20669 layer_factory.hpp:77] Creating layer elt_b_1_elt_b_1_0_split
I0621 01:51:54.154352 20669 net.cpp:91] Creating Layer elt_b_1_elt_b_1_0_split
I0621 01:51:54.154358 20669 net.cpp:425] elt_b_1_elt_b_1_0_split <- elt_b_1
I0621 01:51:54.154366 20669 net.cpp:399] elt_b_1_elt_b_1_0_split -> elt_b_1_elt_b_1_0_split_0
I0621 01:51:54.154376 20669 net.cpp:399] elt_b_1_elt_b_1_0_split -> elt_b_1_elt_b_1_0_split_1
I0621 01:51:54.154386 20669 net.cpp:399] elt_b_1_elt_b_1_0_split -> elt_b_1_elt_b_1_0_split_2
I0621 01:51:54.154397 20669 net.cpp:399] elt_b_1_elt_b_1_0_split -> elt_b_1_elt_b_1_0_split_3
I0621 01:51:54.154481 20669 net.cpp:141] Setting up elt_b_1_elt_b_1_0_split
I0621 01:51:54.154494 20669 net.cpp:148] Top shape: 100 64 32 32 (6553600)
I0621 01:51:54.154500 20669 net.cpp:148] Top shape: 100 64 32 32 (6553600)
I0621 01:51:54.154506 20669 net.cpp:148] Top shape: 100 64 32 32 (6553600)
I0621 01:51:54.154512 20669 net.cpp:148] Top shape: 100 64 32 32 (6553600)
I0621 01:51:54.154517 20669 net.cpp:156] Memory required for data: 663143600
I0621 01:51:54.154522 20669 layer_factory.hpp:77] Creating layer bn_c_1_1
I0621 01:51:54.154532 20669 net.cpp:91] Creating Layer bn_c_1_1
I0621 01:51:54.154538 20669 net.cpp:425] bn_c_1_1 <- conv0_conv0_0_split_4
I0621 01:51:54.154548 20669 net.cpp:399] bn_c_1_1 -> bn_c_1_1
I0621 01:51:54.154866 20669 net.cpp:141] Setting up bn_c_1_1
I0621 01:51:54.154881 20669 net.cpp:148] Top shape: 100 16 32 32 (1638400)
I0621 01:51:54.154886 20669 net.cpp:156] Memory required for data: 669697200
I0621 01:51:54.154896 20669 layer_factory.hpp:77] Creating layer sc_c_1_1
I0621 01:51:54.154904 20669 net.cpp:91] Creating Layer sc_c_1_1
I0621 01:51:54.154911 20669 net.cpp:425] sc_c_1_1 <- bn_c_1_1
I0621 01:51:54.154919 20669 net.cpp:399] sc_c_1_1 -> sc_c_1_1
I0621 01:51:54.154983 20669 layer_factory.hpp:77] Creating layer sc_c_1_1
I0621 01:51:54.155154 20669 net.cpp:141] Setting up sc_c_1_1
I0621 01:51:54.155166 20669 net.cpp:148] Top shape: 100 16 32 32 (1638400)
I0621 01:51:54.155172 20669 net.cpp:156] Memory required for data: 676250800
I0621 01:51:54.155181 20669 layer_factory.hpp:77] Creating layer relu_c_1_1
I0621 01:51:54.155189 20669 net.cpp:91] Creating Layer relu_c_1_1
I0621 01:51:54.155199 20669 net.cpp:425] relu_c_1_1 <- sc_c_1_1
I0621 01:51:54.155205 20669 net.cpp:399] relu_c_1_1 -> relu_c_1_1
I0621 01:51:54.155573 20669 net.cpp:141] Setting up relu_c_1_1
I0621 01:51:54.155588 20669 net.cpp:148] Top shape: 100 16 32 32 (1638400)
I0621 01:51:54.155594 20669 net.cpp:156] Memory required for data: 682804400
I0621 01:51:54.155599 20669 layer_factory.hpp:77] Creating layer conv_c_1_1
I0621 01:51:54.155613 20669 net.cpp:91] Creating Layer conv_c_1_1
I0621 01:51:54.155622 20669 net.cpp:425] conv_c_1_1 <- relu_c_1_1
I0621 01:51:54.155630 20669 net.cpp:399] conv_c_1_1 -> conv_c_1_1
I0621 01:51:54.156874 20669 net.cpp:141] Setting up conv_c_1_1
I0621 01:51:54.156889 20669 net.cpp:148] Top shape: 100 64 32 32 (6553600)
I0621 01:51:54.156909 20669 net.cpp:156] Memory required for data: 709018800
I0621 01:51:54.156919 20669 layer_factory.hpp:77] Creating layer bn_c_1_2
I0621 01:51:54.156929 20669 net.cpp:91] Creating Layer bn_c_1_2
I0621 01:51:54.156936 20669 net.cpp:425] bn_c_1_2 <- conv_c_1_1
I0621 01:51:54.156946 20669 net.cpp:399] bn_c_1_2 -> bn_c_1_2
I0621 01:51:54.157225 20669 net.cpp:141] Setting up bn_c_1_2
I0621 01:51:54.157238 20669 net.cpp:148] Top shape: 100 64 32 32 (6553600)
I0621 01:51:54.157243 20669 net.cpp:156] Memory required for data: 735233200
I0621 01:51:54.157253 20669 layer_factory.hpp:77] Creating layer sc_c_1_2
I0621 01:51:54.157275 20669 net.cpp:91] Creating Layer sc_c_1_2
I0621 01:51:54.157282 20669 net.cpp:425] sc_c_1_2 <- bn_c_1_2
I0621 01:51:54.157289 20669 net.cpp:399] sc_c_1_2 -> sc_c_1_2
I0621 01:51:54.157353 20669 layer_factory.hpp:77] Creating layer sc_c_1_2
I0621 01:51:54.157508 20669 net.cpp:141] Setting up sc_c_1_2
I0621 01:51:54.157521 20669 net.cpp:148] Top shape: 100 64 32 32 (6553600)
I0621 01:51:54.157526 20669 net.cpp:156] Memory required for data: 761447600
I0621 01:51:54.157534 20669 layer_factory.hpp:77] Creating layer relu_c_1_2
I0621 01:51:54.157546 20669 net.cpp:91] Creating Layer relu_c_1_2
I0621 01:51:54.157553 20669 net.cpp:425] relu_c_1_2 <- sc_c_1_2
I0621 01:51:54.157562 20669 net.cpp:399] relu_c_1_2 -> relu_c_1_2
I0621 01:51:54.157907 20669 net.cpp:141] Setting up relu_c_1_2
I0621 01:51:54.157923 20669 net.cpp:148] Top shape: 100 64 32 32 (6553600)
I0621 01:51:54.157929 20669 net.cpp:156] Memory required for data: 787662000
I0621 01:51:54.157935 20669 layer_factory.hpp:77] Creating layer conv_c_1_2
I0621 01:51:54.157948 20669 net.cpp:91] Creating Layer conv_c_1_2
I0621 01:51:54.157955 20669 net.cpp:425] conv_c_1_2 <- relu_c_1_2
I0621 01:51:54.157966 20669 net.cpp:399] conv_c_1_2 -> conv_c_1_2
I0621 01:51:54.160193 20669 net.cpp:141] Setting up conv_c_1_2
I0621 01:51:54.160209 20669 net.cpp:148] Top shape: 100 64 32 32 (6553600)
I0621 01:51:54.160229 20669 net.cpp:156] Memory required for data: 813876400
I0621 01:51:54.160238 20669 layer_factory.hpp:77] Creating layer res_c
I0621 01:51:54.160253 20669 net.cpp:91] Creating Layer res_c
I0621 01:51:54.160260 20669 net.cpp:425] res_c <- conv0_conv0_0_split_5
I0621 01:51:54.160271 20669 net.cpp:399] res_c -> res_c
I0621 01:51:54.161415 20669 net.cpp:141] Setting up res_c
I0621 01:51:54.161432 20669 net.cpp:148] Top shape: 100 64 32 32 (6553600)
I0621 01:51:54.161450 20669 net.cpp:156] Memory required for data: 840090800
I0621 01:51:54.161460 20669 layer_factory.hpp:77] Creating layer elt_c_1
I0621 01:51:54.161471 20669 net.cpp:91] Creating Layer elt_c_1
I0621 01:51:54.161478 20669 net.cpp:425] elt_c_1 <- res_c
I0621 01:51:54.161484 20669 net.cpp:425] elt_c_1 <- conv_c_1_2
I0621 01:51:54.161494 20669 net.cpp:399] elt_c_1 -> elt_c_1
I0621 01:51:54.161535 20669 net.cpp:141] Setting up elt_c_1
I0621 01:51:54.161547 20669 net.cpp:148] Top shape: 100 64 32 32 (6553600)
I0621 01:51:54.161553 20669 net.cpp:156] Memory required for data: 866305200
…
I0621 01:51:54.167032 20669 layer_factory.hpp:77] Creating layer relu_d_1_2
I0621 01:51:54.167038 20669 net.cpp:91] Creating Layer relu_d_1_2
I0621 01:51:54.167045 20669 net.cpp:425] relu_d_1_2 <- sc_d_1_2
I0621 01:51:54.167052 20669 net.cpp:399] relu_d_1_2 -> relu_d_1_2
I0621 01:51:54.167269 20669 net.cpp:141] Setting up relu_d_1_2
I0621 01:51:54.167297 20669 net.cpp:148] Top shape: 100 128 16 16 (3276800)
I0621 01:51:54.167304 20669 net.cpp:156] Memory required for data: 1102234800
I0621 01:51:54.167309 20669 layer_factory.hpp:77] Creating layer conv_d_1_2
I0621 01:51:54.167321 20669 net.cpp:91] Creating Layer conv_d_1_2
I0621 01:51:54.167328 20669 net.cpp:425] conv_d_1_2 <- relu_d_1_2
I0621 01:51:54.167341 20669 net.cpp:399] conv_d_1_2 -> conv_d_1_2
I0621 01:51:54.172479 20669 net.cpp:141] Setting up conv_d_1_2
I0621 01:51:54.172495 20669 net.cpp:148] Top shape: 100 128 16 16 (3276800)
I0621 01:51:54.172502 20669 net.cpp:156] Memory required for data: 1115342000
I0621 01:51:54.172523 20669 layer_factory.hpp:77] Creating layer res_d
I0621 01:51:54.172536 20669 net.cpp:91] Creating Layer res_d
I0621 01:51:54.172544 20669 net.cpp:425] res_d <- elt_a_1_elt_a_1_0_split_1
I0621 01:51:54.172554 20669 net.cpp:399] res_d -> res_d
I0621 01:51:54.173902 20669 net.cpp:141] Setting up res_d
I0621 01:51:54.173918 20669 net.cpp:148] Top shape: 100 128 16 16 (3276800)
I0621 01:51:54.173940 20669 net.cpp:156] Memory required for data: 1128449200
I0621 01:51:54.173960 20669 layer_factory.hpp:77] Creating layer elt_d_1
I0621 01:51:54.173974 20669 net.cpp:91] Creating Layer elt_d_1
I0621 01:51:54.173980 20669 net.cpp:425] elt_d_1 <- res_d
I0621 01:51:54.174002 20669 net.cpp:425] elt_d_1 <- conv_d_1_2
I0621 01:51:54.174015 20669 net.cpp:399] elt_d_1 -> elt_d_1
I0621 01:51:54.174054 20669 net.cpp:141] Setting up elt_d_1
I0621 01:51:54.174067 20669 net.cpp:148] Top shape: 100 128 16 16 (3276800)
I0621 01:51:54.174072 20669 net.cpp:156] Memory required for data: 1141556400
I0621 01:51:54.174077 20669 layer_factory.hpp:77] Creating layer bn_f_1_1
I0621 01:51:54.174084 20669 net.cpp:91] Creating Layer bn_f_1_1
I0621 01:51:54.174090 20669 net.cpp:425] bn_f_1_1 <- elt_b_1_elt_b_1_0_split_0
I0621 01:51:54.174100 20669 net.cpp:399] bn_f_1_1 -> bn_f_1_1
I0621 01:51:54.174396 20669 net.cpp:141] Setting up bn_f_1_1
I0621 01:51:54.174409 20669 net.cpp:148] Top shape: 100 64 32 32 (6553600)
I0621 01:51:54.174414 20669 net.cpp:156] Memory required for data: 1167770800
I0621 01:51:54.174425 20669 layer_factory.hpp:77] Creating layer sc_f_1_1
I0621 01:51:54.174437 20669 net.cpp:91] Creating Layer sc_f_1_1
I0621 01:51:54.174443 20669 net.cpp:425] sc_f_1_1 <- bn_f_1_1
I0621 01:51:54.174451 20669 net.cpp:399] sc_f_1_1 -> sc_f_1_1
I0621 01:51:54.174522 20669 layer_factory.hpp:77] Creating layer sc_f_1_1
I0621 01:51:54.174711 20669 net.cpp:141] Setting up sc_f_1_1
I0621 01:51:54.174727 20669 net.cpp:148] Top shape: 100 64 32 32 (6553600)
I0621 01:51:54.174733 20669 net.cpp:156] Memory required for data: 1193985200
I0621 01:51:54.174742 20669 layer_factory.hpp:77] Creating layer relu_f_1_1
I0621 01:51:54.174751 20669 net.cpp:91] Creating Layer relu_f_1_1
I0621 01:51:54.174757 20669 net.cpp:425] relu_f_1_1 <- sc_f_1_1
I0621 01:51:54.174764 20669 net.cpp:399] relu_f_1_1 -> relu_f_1_1
I0621 01:51:54.175092 20669 net.cpp:141] Setting up relu_f_1_1
I0621 01:51:54.175107 20669 net.cpp:148] Top shape: 100 64 32 32 (6553600)
I0621 01:51:54.175114 20669 net.cpp:156] Memory required for data: 1220199600
I0621 01:51:54.175119 20669 layer_factory.hpp:77] Creating layer conv_f_1_1
I0621 01:51:54.175133 20669 net.cpp:91] Creating Layer conv_f_1_1
I0621 01:51:54.175142 20669 net.cpp:425] conv_f_1_1 <- relu_f_1_1
I0621 01:51:54.175150 20669 net.cpp:399] conv_f_1_1 -> conv_f_1_1
I0621 01:51:54.178598 20669 net.cpp:141] Setting up conv_f_1_1
I0621 01:51:54.178614 20669 net.cpp:148] Top shape: 100 128 16 16 (3276800)
I0621 01:51:54.178633 20669 net.cpp:156] Memory required for data: 1233306800
I0621 01:51:54.178642 20669 layer_factory.hpp:77] Creating layer bn_f_1_2
I0621 01:51:54.178654 20669 net.cpp:91] Creating Layer bn_f_1_2
I0621 01:51:54.178661 20669 net.cpp:425] bn_f_1_2 <- conv_f_1_1
I0621 01:51:54.178669 20669 net.cpp:399] bn_f_1_2 -> bn_f_1_2
I0621 01:51:54.178974 20669 net.cpp:141] Setting up bn_f_1_2
I0621 01:51:54.178987 20669 net.cpp:148] Top shape: 100 128 16 16 (3276800)
I0621 01:51:54.178992 20669 net.cpp:156] Memory required for data: 1246414000
I0621 01:51:54.179003 20669 layer_factory.hpp:77] Creating layer sc_f_1_2
I0621 01:51:54.179011 20669 net.cpp:91] Creating Layer sc_f_1_2
I0621 01:51:54.179018 20669 net.cpp:425] sc_f_1_2 <- bn_f_1_2
I0621 01:51:54.179025 20669 net.cpp:399] sc_f_1_2 -> sc_f_1_2
I0621 01:51:54.179087 20669 layer_factory.hpp:77] Creating layer sc_f_1_2
I0621 01:51:54.179239 20669 net.cpp:141] Setting up sc_f_1_2
I0621 01:51:54.179251 20669 net.cpp:148] Top shape: 100 128 16 16 (3276800)
I0621 01:51:54.179256 20669 net.cpp:156] Memory required for data: 1259521200
I0621 01:51:54.179265 20669 layer_factory.hpp:77] Creating layer relu_f_1_2
I0621 01:51:54.179275 20669 net.cpp:91] Creating Layer relu_f_1_2
I0621 01:51:54.179282 20669 net.cpp:425] relu_f_1_2 <- sc_f_1_2
I0621 01:51:54.179289 20669 net.cpp:399] relu_f_1_2 -> relu_f_1_2
I0621 01:51:54.179615 20669 net.cpp:141] Setting up relu_f_1_2
I0621 01:51:54.179630 20669 net.cpp:148] Top shape: 100 128 16 16 (3276800)
I0621 01:51:54.179636 20669 net.cpp:156] Memory required for data: 1272628400
I0621 01:51:54.179641 20669 layer_factory.hpp:77] Creating layer conv_f_1_2
I0621 01:51:54.179653 20669 net.cpp:91] Creating Layer conv_f_1_2
I0621 01:51:54.179661 20669 net.cpp:425] conv_f_1_2 <- relu_f_1_2
I0621 01:51:54.179687 20669 net.cpp:399] conv_f_1_2 -> conv_f_1_2
I0621 01:51:54.184670 20669 net.cpp:141] Setting up conv_f_1_2
I0621 01:51:54.184685 20669 net.cpp:148] Top shape: 100 128 16 16 (3276800)
I0621 01:51:54.184691 20669 net.cpp:156] Memory required for data: 1285735600
I0621 01:51:54.184713 20669 layer_factory.hpp:77] Creating layer res_f
I0621 01:51:54.184732 20669 net.cpp:91] Creating Layer res_f
I0621 01:51:54.184741 20669 net.cpp:425] res_f <- elt_b_1_elt_b_1_0_split_1
I0621 01:51:54.184748 20669 net.cpp:399] res_f -> res_f
I0621 01:51:54.186092 20669 net.cpp:141] Setting up res_f
I0621 01:51:54.186107 20669 net.cpp:148] Top shape: 100 128 16 16 (3276800)
I0621 01:51:54.186117 20669 net.cpp:156] Memory required for data: 1298842800
I0621 01:51:54.186125 20669 layer_factory.hpp:77] Creating layer elt_f_1
I0621 01:51:54.186136 20669 net.cpp:91] Creating Layer elt_f_1
I0621 01:51:54.186141 20669 net.cpp:425] elt_f_1 <- res_f
I0621 01:51:54.186148 20669 net.cpp:425] elt_f_1 <- conv_f_1_2
I0621 01:51:54.186156 20669 net.cpp:399] elt_f_1 -> elt_f_1
I0621 01:51:54.186189 20669 net.cpp:141] Setting up elt_f_1
I0621 01:51:54.186200 20669 net.cpp:148] Top shape: 100 128 16 16 (3276800)
I0621 01:51:54.186205 20669 net.cpp:156] Memory required for data: 1311950000
I0621 01:51:54.186209 20669 layer_factory.hpp:77] Creating layer bn_g_1_1
I0621 01:51:54.186219 20669 net.cpp:91] Creating Layer bn_g_1_1
I0621 01:51:54.186225 20669 net.cpp:425] bn_g_1_1 <- elt_b_1_elt_b_1_0_split_2
I0621 01:51:54.186234 20669 net.cpp:399] bn_g_1_1 -> bn_g_1_1
I0621 01:51:54.186537 20669 net.cpp:141] Setting up bn_g_1_1
I0621 01:51:54.186548 20669 net.cpp:148] Top shape: 100 64 32 32 (6553600)
I0621 01:51:54.186553 20669 net.cpp:156] Memory required for data: 1338164400
I0621 01:51:54.186563 20669 layer_factory.hpp:77] Creating layer sc_g_1_1
I0621 01:51:54.186573 20669 net.cpp:91] Creating Layer sc_g_1_1
I0621 01:51:54.186579 20669 net.cpp:425] sc_g_1_1 <- bn_g_1_1
I0621 01:51:54.186586 20669 net.cpp:399] sc_g_1_1 -> sc_g_1_1
I0621 01:51:54.186653 20669 layer_factory.hpp:77] Creating layer sc_g_1_1
I0621 01:51:54.186831 20669 net.cpp:141] Setting up sc_g_1_1
I0621 01:51:54.186844 20669 net.cpp:148] Top shape: 100 64 32 32 (6553600)
I0621 01:51:54.186849 20669 net.cpp:156] Memory required for data: 1364378800
I0621 01:51:54.186857 20669 layer_factory.hpp:77] Creating layer relu_g_1_1
I0621 01:51:54.186864 20669 net.cpp:91] Creating Layer relu_g_1_1
I0621 01:51:54.186872 20669 net.cpp:425] relu_g_1_1 <- sc_g_1_1
I0621 01:51:54.186882 20669 net.cpp:399] relu_g_1_1 -> relu_g_1_1
I0621 01:51:54.187224 20669 net.cpp:141] Setting up relu_g_1_1
I0621 01:51:54.187238 20669 net.cpp:148] Top shape: 100 64 32 32 (6553600)
I0621 01:51:54.187245 20669 net.cpp:156] Memory required for data: 1390593200
I0621 01:51:54.187250 20669 layer_factory.hpp:77] Creating layer conv_g_1_1
I0621 01:51:54.187263 20669 net.cpp:91] Creating Layer conv_g_1_1
I0621 01:51:54.187283 20669 net.cpp:425] conv_g_1_1 <- relu_g_1_1
I0621 01:51:54.187294 20669 net.cpp:399] conv_g_1_1 -> conv_g_1_1
I0621 01:51:54.190909 20669 net.cpp:141] Setting up conv_g_1_1
I0621 01:51:54.190925 20669 net.cpp:148] Top shape: 100 128 16 16 (3276800)
I0621 01:51:54.190937 20669 net.cpp:156] Memory required for data: 1403700400
I0621 01:51:54.190945 20669 layer_factory.hpp:77] Creating layer bn_g_1_2
I0621 01:51:54.190954 20669 net.cpp:91] Creating Layer bn_g_1_2
I0621 01:51:54.190961 20669 net.cpp:425] bn_g_1_2 <- conv_g_1_1
I0621 01:51:54.190971 20669 net.cpp:399] bn_g_1_2 -> bn_g_1_2
I0621 01:51:54.191262 20669 net.cpp:141] Setting up bn_g_1_2
I0621 01:51:54.191275 20669 net.cpp:148] Top shape: 100 128 16 16 (3276800)
I0621 01:51:54.191279 20669 net.cpp:156] Memory required for data: 1416807600
I0621 01:51:54.191289 20669 layer_factory.hpp:77] Creating layer sc_g_1_2
I0621 01:51:54.191298 20669 net.cpp:91] Creating Layer sc_g_1_2
I0621 01:51:54.191306 20669 net.cpp:425] sc_g_1_2 <- bn_g_1_2
I0621 01:51:54.191313 20669 net.cpp:399] sc_g_1_2 -> sc_g_1_2
I0621 01:51:54.191375 20669 layer_factory.hpp:77] Creating layer sc_g_1_2
I0621 01:51:54.191542 20669 net.cpp:141] Setting up sc_g_1_2
I0621 01:51:54.191555 20669 net.cpp:148] Top shape: 100 128 16 16 (3276800)
I0621 01:51:54.191560 20669 net.cpp:156] Memory required for data: 1429914800
I0621 01:51:54.191568 20669 layer_factory.hpp:77] Creating layer relu_g_1_2
I0621 01:51:54.191576 20669 net.cpp:91] Creating Layer relu_g_1_2
I0621 01:51:54.191586 20669 net.cpp:425] relu_g_1_2 <- sc_g_1_2
I0621 01:51:54.191593 20669 net.cpp:399] relu_g_1_2 -> relu_g_1_2
I0621 01:51:54.191809 20669 net.cpp:141] Setting up relu_g_1_2
I0621 01:51:54.191824 20669 net.cpp:148] Top shape: 100 128 16 16 (3276800)
I0621 01:51:54.191831 20669 net.cpp:156] Memory required for data: 1443022000
I0621 01:51:54.191836 20669 layer_factory.hpp:77] Creating layer conv_g_1_2
I0621 01:51:54.191854 20669 net.cpp:91] Creating Layer conv_g_1_2
I0621 01:51:54.191862 20669 net.cpp:425] conv_g_1_2 <- relu_g_1_2
I0621 01:51:54.191871 20669 net.cpp:399] conv_g_1_2 -> conv_g_1_2
I0621 01:51:54.196871 20669 net.cpp:141] Setting up conv_g_1_2
I0621 01:51:54.196887 20669 net.cpp:148] Top shape: 100 128 16 16 (3276800)
I0621 01:51:54.196908 20669 net.cpp:156] Memory required for data: 1456129200
I0621 01:51:54.196918 20669 layer_factory.hpp:77] Creating layer res_g
I0621 01:51:54.196933 20669 net.cpp:91] Creating Layer res_g
I0621 01:51:54.196939 20669 net.cpp:425] res_g <- elt_b_1_elt_b_1_0_split_3
I0621 01:51:54.196950 20669 net.cpp:399] res_g -> res_g
I0621 01:51:54.198757 20669 net.cpp:141] Setting up res_g
I0621 01:51:54.198786 20669 net.cpp:148] Top shape: 100 128 16 16 (3276800)
I0621 01:51:54.198796 20669 net.cpp:156] Memory required for data: 1469236400
I0621 01:51:54.198803 20669 layer_factory.hpp:77] Creating layer elt_g_1
I0621 01:51:54.198814 20669 net.cpp:91] Creating Layer elt_g_1
I0621 01:51:54.198820 20669 net.cpp:425] elt_g_1 <- res_g
I0621 01:51:54.198827 20669 net.cpp:425] elt_g_1 <- conv_g_1_2
I0621 01:51:54.198849 20669 net.cpp:399] elt_g_1 -> elt_g_1
I0621 01:51:54.198874 20669 net.cpp:141] Setting up elt_g_1
I0621 01:51:54.198885 20669 net.cpp:148] Top shape: 100 128 16 16 (3276800)
I0621 01:51:54.198891 20669 net.cpp:156] Memory required for data: 1482343600
I0621 01:51:54.198896 20669 layer_factory.hpp:77] Creating layer bn_h_1_1
I0621 01:51:54.198905 20669 net.cpp:91] Creating Layer bn_h_1_1
I0621 01:51:54.198912 20669 net.cpp:425] bn_h_1_1 <- elt_c_1_elt_c_1_0_split_0
I0621 01:51:54.198922 20669 net.cpp:399] bn_h_1_1 -> bn_h_1_1
I0621 01:51:54.199122 20669 net.cpp:141] Setting up bn_h_1_1
I0621 01:51:54.199136 20669 net.cpp:148] Top shape: 100 64 32 32 (6553600)
I0621 01:51:54.199141 20669 net.cpp:156] Memory required for data: 1508558000
I0621 01:51:54.199151 20669 layer_factory.hpp:77] Creating layer sc_h_1_1
I0621 01:51:54.199162 20669 net.cpp:91] Creating Layer sc_h_1_1
I0621 01:51:54.199170 20669 net.cpp:425] sc_h_1_1 <- bn_h_1_1
I0621 01:51:54.199177 20669 net.cpp:399] sc_h_1_1 -> sc_h_1_1
I0621 01:51:54.199223 20669 layer_factory.hpp:77] Creating layer sc_h_1_1
I0621 01:51:54.199350 20669 net.cpp:141] Setting up sc_h_1_1
I0621 01:51:54.199362 20669 net.cpp:148] Top shape: 100 64 32 32 (6553600)
I0621 01:51:54.199368 20669 net.cpp:156] Memory required for data: 1534772400
I0621 01:51:54.199376 20669 layer_factory.hpp:77] Creating layer relu_h_1_1
I0621 01:51:54.199385 20669 net.cpp:91] Creating Layer relu_h_1_1
I0621 01:51:54.199391 20669 net.cpp:425] relu_h_1_1 <- sc_h_1_1
I0621 01:51:54.199401 20669 net.cpp:399] relu_h_1_1 -> relu_h_1_1
I0621 01:51:54.199717 20669 net.cpp:141] Setting up relu_h_1_1
I0621 01:51:54.199733 20669 net.cpp:148] Top shape: 100 64 32 32 (6553600)
I0621 01:51:54.199738 20669 net.cpp:156] Memory required for data: 1560986800
I0621 01:51:54.199743 20669 layer_factory.hpp:77] Creating layer conv_h_1_1
I0621 01:51:54.199759 20669 net.cpp:91] Creating Layer conv_h_1_1
I0621 01:51:54.199767 20669 net.cpp:425] conv_h_1_1 <- relu_h_1_1
I0621 01:51:54.199779 20669 net.cpp:399] conv_h_1_1 -> conv_h_1_1
I0621 01:51:54.203110 20669 net.cpp:141] Setting up conv_h_1_1
I0621 01:51:54.203140 20669 net.cpp:148] Top shape: 100 128 16 16 (3276800)
I0621 01:51:54.203160 20669 net.cpp:156] Memory required for data: 1574094000
I0621 01:51:54.203168 20669 layer_factory.hpp:77] Creating layer bn_h_1_2
I0621 01:51:54.203178 20669 net.cpp:91] Creating Layer bn_h_1_2
I0621 01:51:54.203184 20669 net.cpp:425] bn_h_1_2 <- conv_h_1_1
I0621 01:51:54.203196 20669 net.cpp:399] bn_h_1_2 -> bn_h_1_2
I0621 01:51:54.203383 20669 net.cpp:141] Setting up bn_h_1_2
I0621 01:51:54.203395 20669 net.cpp:148] Top shape: 100 128 16 16 (3276800)
I0621 01:51:54.203402 20669 net.cpp:156] Memory required for data: 1587201200
I0621 01:51:54.203411 20669 layer_factory.hpp:77] Creating layer sc_h_1_2
I0621 01:51:54.203420 20669 net.cpp:91] Creating Layer sc_h_1_2
I0621 01:51:54.203428 20669 net.cpp:425] sc_h_1_2 <- bn_h_1_2
I0621 01:51:54.203438 20669 net.cpp:399] sc_h_1_2 -> sc_h_1_2
I0621 01:51:54.203480 20669 layer_factory.hpp:77] Creating layer sc_h_1_2
I0621 01:51:54.203579 20669 net.cpp:141] Setting up sc_h_1_2
I0621 01:51:54.203590 20669 net.cpp:148] Top shape: 100 128 16 16 (3276800)
I0621 01:51:54.203596 20669 net.cpp:156] Memory required for data: 1600308400
I0621 01:51:54.203605 20669 layer_factory.hpp:77] Creating layer relu_h_1_2
I0621 01:51:54.203615 20669 net.cpp:91] Creating Layer relu_h_1_2
I0621 01:51:54.203622 20669 net.cpp:425] relu_h_1_2 <- sc_h_1_2
I0621 01:51:54.203629 20669 net.cpp:399] relu_h_1_2 -> relu_h_1_2
I0621 01:51:54.203955 20669 net.cpp:141] Setting up relu_h_1_2
I0621 01:51:54.203970 20669 net.cpp:148] Top shape: 100 128 16 16 (3276800)
I0621 01:51:54.203976 20669 net.cpp:156] Memory required for data: 1613415600
I0621 01:51:54.203981 20669 layer_factory.hpp:77] Creating layer conv_h_1_2
I0621 01:51:54.203996 20669 net.cpp:91] Creating Layer conv_h_1_2
I0621 01:51:54.204005 20669 net.cpp:425] conv_h_1_2 <- relu_h_1_2
I0621 01:51:54.204012 20669 net.cpp:399] conv_h_1_2 -> conv_h_1_2
I0621 01:51:54.208923 20669 net.cpp:141] Setting up conv_h_1_2
I0621 01:51:54.208940 20669 net.cpp:148] Top shape: 100 128 16 16 (3276800)
I0621 01:51:54.208961 20669 net.cpp:156] Memory required for data: 1626522800
I0621 01:51:54.208968 20669 layer_factory.hpp:77] Creating layer res_h
I0621 01:51:54.208984 20669 net.cpp:91] Creating Layer res_h
I0621 01:51:54.208992 20669 net.cpp:425] res_h <- elt_c_1_elt_c_1_0_split_1
I0621 01:51:54.209002 20669 net.cpp:399] res_h -> res_h
I0621 01:51:54.210315 20669 net.cpp:141] Setting up res_h
I0621 01:51:54.210331 20669 net.cpp:148] Top shape: 100 128 16 16 (3276800)
I0621 01:51:54.210340 20669 net.cpp:156] Memory required for data: 1639630000
I0621 01:51:54.210347 20669 layer_factory.hpp:77] Creating layer elt_h_1
I0621 01:51:54.210358 20669 net.cpp:91] Creating Layer elt_h_1
I0621 01:51:54.210366 20669 net.cpp:425] elt_h_1 <- res_h
I0621 01:51:54.210372 20669 net.cpp:425] elt_h_1 <- conv_h_1_2
I0621 01:51:54.210381 20669 net.cpp:399] elt_h_1 -> elt_h_1
I0621 01:51:54.210407 20669 net.cpp:141] Setting up elt_h_1
I0621 01:51:54.210417 20669 net.cpp:148] Top shape: 100 128 16 16 (3276800)
I0621 01:51:54.210422 20669 net.cpp:156] Memory required for data: 1652737200
I0621 01:51:54.210427 20669 layer_factory.hpp:77] Creating layer bn_i_1_1
I0621 01:51:54.210433 20669 net.cpp:91] Creating Layer bn_i_1_1
I0621 01:51:54.210438 20669 net.cpp:425] bn_i_1_1 <- elt_c_1_elt_c_1_0_split_2
I0621 01:51:54.210448 20669 net.cpp:399] bn_i_1_1 -> bn_i_1_1
I0621 01:51:54.210640 20669 net.cpp:141] Setting up bn_i_1_1
I0621 01:51:54.210652 20669 net.cpp:148] Top shape: 100 64 32 32 (6553600)
I0621 01:51:54.210659 20669 net.cpp:156] Memory required for data: 1678951600
I0621 01:51:54.210667 20669 layer_factory.hpp:77] Creating layer sc_i_1_1
I0621 01:51:54.210675 20669 net.cpp:91] Creating Layer sc_i_1_1
I0621 01:51:54.210700 20669 net.cpp:425] sc_i_1_1 <- bn_i_1_1
I0621 01:51:54.210710 20669 net.cpp:399] sc_i_1_1 -> sc_i_1_1
I0621 01:51:54.210772 20669 layer_factory.hpp:77] Creating layer sc_i_1_1
I0621 01:51:54.210911 20669 net.cpp:141] Setting up sc_i_1_1
I0621 01:51:54.210935 20669 net.cpp:148] Top shape: 100 64 32 32 (6553600)
I0621 01:51:54.210942 20669 net.cpp:156] Memory required for data: 1705166000
I0621 01:51:54.210949 20669 layer_factory.hpp:77] Creating layer relu_i_1_1
I0621 01:51:54.210959 20669 net.cpp:91] Creating Layer relu_i_1_1
I0621 01:51:54.210966 20669 net.cpp:425] relu_i_1_1 <- sc_i_1_1
I0621 01:51:54.210974 20669 net.cpp:399] relu_i_1_1 -> relu_i_1_1
I0621 01:51:54.211346 20669 net.cpp:141] Setting up relu_i_1_1
I0621 01:51:54.211361 20669 net.cpp:148] Top shape: 100 64 32 32 (6553600)
I0621 01:51:54.211367 20669 net.cpp:156] Memory required for data: 1731380400
I0621 01:51:54.211372 20669 layer_factory.hpp:77] Creating layer conv_i_1_1
I0621 01:51:54.211385 20669 net.cpp:91] Creating Layer conv_i_1_1
I0621 01:51:54.211391 20669 net.cpp:425] conv_i_1_1 <- relu_i_1_1
I0621 01:51:54.211401 20669 net.cpp:399] conv_i_1_1 -> conv_i_1_1
I0621 01:51:54.214949 20669 net.cpp:141] Setting up conv_i_1_1
I0621 01:51:54.214965 20669 net.cpp:148] Top shape: 100 128 16 16 (3276800)
I0621 01:51:54.214977 20669 net.cpp:156] Memory required for data: 1744487600
I0621 01:51:54.214984 20669 layer_factory.hpp:77] Creating layer bn_i_1_2
I0621 01:51:54.214996 20669 net.cpp:91] Creating Layer bn_i_1_2
I0621 01:51:54.215003 20669 net.cpp:425] bn_i_1_2 <- conv_i_1_1
I0621 01:51:54.215011 20669 net.cpp:399] bn_i_1_2 -> bn_i_1_2
I0621 01:51:54.215196 20669 net.cpp:141] Setting up bn_i_1_2
I0621 01:51:54.215209 20669 net.cpp:148] Top shape: 100 128 16 16 (3276800)
I0621 01:51:54.215214 20669 net.cpp:156] Memory required for data: 1757594800
I0621 01:51:54.215224 20669 layer_factory.hpp:77] Creating layer sc_i_1_2
I0621 01:51:54.215232 20669 net.cpp:91] Creating Layer sc_i_1_2
I0621 01:51:54.215239 20669 net.cpp:425] sc_i_1_2 <- bn_i_1_2
I0621 01:51:54.215260 20669 net.cpp:399] sc_i_1_2 -> sc_i_1_2
I0621 01:51:54.215308 20669 layer_factory.hpp:77] Creating layer sc_i_1_2
I0621 01:51:54.215410 20669 net.cpp:141] Setting up sc_i_1_2
I0621 01:51:54.215423 20669 net.cpp:148] Top shape: 100 128 16 16 (3276800)
I0621 01:51:54.215430 20669 net.cpp:156] Memory required for data: 1770702000
I0621 01:51:54.215437 20669 layer_factory.hpp:77] Creating layer relu_i_1_2
I0621 01:51:54.215445 20669 net.cpp:91] Creating Layer relu_i_1_2
I0621 01:51:54.215451 20669 net.cpp:425] relu_i_1_2 <- sc_i_1_2
I0621 01:51:54.215461 20669 net.cpp:399] relu_i_1_2 -> relu_i_1_2
I0621 01:51:54.215669 20669 net.cpp:141] Setting up relu_i_1_2
I0621 01:51:54.215683 20669 net.cpp:148] Top shape: 100 128 16 16 (3276800)
I0621 01:51:54.215692 20669 net.cpp:156] Memory required for data: 1783809200
I0621 01:51:54.215698 20669 layer_factory.hpp:77] Creating layer conv_i_1_2
I0621 01:51:54.215708 20669 net.cpp:91] Creating Layer conv_i_1_2
I0621 01:51:54.215714 20669 net.cpp:425] conv_i_1_2 <- relu_i_1_2
I0621 01:51:54.215726 20669 net.cpp:399] conv_i_1_2 -> conv_i_1_2
I0621 01:51:54.220943 20669 net.cpp:141] Setting up conv_i_1_2
I0621 01:51:54.220959 20669 net.cpp:148] Top shape: 100 128 16 16 (3276800)
I0621 01:51:54.220983 20669 net.cpp:156] Memory required for data: 1796916400
I0621 01:51:54.220993 20669 layer_factory.hpp:77] Creating layer res_i
I0621 01:51:54.221007 20669 net.cpp:91] Creating Layer res_i
I0621 01:51:54.221015 20669 net.cpp:425] res_i <- elt_c_1_elt_c_1_0_split_3
I0621 01:51:54.221026 20669 net.cpp:399] res_i -> res_i
I0621 01:51:54.222307 20669 net.cpp:141] Setting up res_i
I0621 01:51:54.222322 20669 net.cpp:148] Top shape: 100 128 16 16 (3276800)
I0621 01:51:54.222331 20669 net.cpp:156] Memory required for data: 1810023600
I0621 01:51:54.222357 20669 layer_factory.hpp:77] Creating layer elt_i_1
I0621 01:51:54.222368 20669 net.cpp:91] Creating Layer elt_i_1
I0621 01:51:54.222375 20669 net.cpp:425] elt_i_1 <- res_i
I0621 01:51:54.222381 20669 net.cpp:425] elt_i_1 <- conv_i_1_2
I0621 01:51:54.222388 20669 net.cpp:399] elt_i_1 -> elt_i_1
I0621 01:51:54.222414 20669 net.cpp:141] Setting up elt_i_1
I0621 01:51:54.222424 20669 net.cpp:148] Top shape: 100 128 16 16 (3276800)
I0621 01:51:54.222429 20669 net.cpp:156] Memory required for data: 1823130800
I0621 01:51:54.222450 20669 layer_factory.hpp:77] Creating layer elt_d_f
I0621 01:51:54.222457 20669 net.cpp:91] Creating Layer elt_d_f
I0621 01:51:54.222463 20669 net.cpp:425] elt_d_f <- elt_d_1
I0621 01:51:54.222470 20669 net.cpp:425] elt_d_f <- elt_f_1
I0621 01:51:54.222479 20669 net.cpp:399] elt_d_f -> elt_d_f
I0621 01:51:54.222506 20669 net.cpp:141] Setting up elt_d_f
I0621 01:51:54.222519 20669 net.cpp:148] Top shape: 100 128 16 16 (3276800)
I0621 01:51:54.222525 20669 net.cpp:156] Memory required for data: 1836238000
I0621 01:51:54.222530 20669 layer_factory.hpp:77] Creating layer elt_d_f_elt_d_f_0_split
I0621 01:51:54.222537 20669 net.cpp:91] Creating Layer elt_d_f_elt_d_f_0_split
I0621 01:51:54.222542 20669 net.cpp:425] elt_d_f_elt_d_f_0_split <- elt_d_f
I0621 01:51:54.222548 20669 net.cpp:399] elt_d_f_elt_d_f_0_split -> elt_d_f_elt_d_f_0_split_0
I0621 01:51:54.222558 20669 net.cpp:399] elt_d_f_elt_d_f_0_split -> elt_d_f_elt_d_f_0_split_1
I0621 01:51:54.222609 20669 net.cpp:141] Setting up elt_d_f_elt_d_f_0_split
I0621 01:51:54.222620 20669 net.cpp:148] Top shape: 100 128 16 16 (3276800)
I0621 01:51:54.222628 20669 net.cpp:148] Top shape: 100 128 16 16 (3276800)
I0621 01:51:54.222633 20669 net.cpp:156] Memory required for data: 1862452400
I0621 01:51:54.222638 20669 layer_factory.hpp:77] Creating layer elt_g_i
I0621 01:51:54.222645 20669 net.cpp:91] Creating Layer elt_g_i
I0621 01:51:54.222651 20669 net.cpp:425] elt_g_i <- elt_g_1
I0621 01:51:54.222673 20669 net.cpp:425] elt_g_i <- elt_i_1
I0621 01:51:54.222688 20669 net.cpp:399] elt_g_i -> elt_g_i
I0621 01:51:54.222720 20669 net.cpp:141] Setting up elt_g_i
I0621 01:51:54.222733 20669 net.cpp:148] Top shape: 100 128 16 16 (3276800)
I0621 01:51:54.222738 20669 net.cpp:156] Memory required for data: 1875559600
I0621 01:51:54.222743 20669 layer_factory.hpp:77] Creating layer elt_g_i_elt_g_i_0_split
I0621 01:51:54.222749 20669 net.cpp:91] Creating Layer elt_g_i_elt_g_i_0_split
I0621 01:51:54.222755 20669 net.cpp:425] elt_g_i_elt_g_i_0_split <- elt_g_i
I0621 01:51:54.222764 20669 net.cpp:399] elt_g_i_elt_g_i_0_split -> elt_g_i_elt_g_i_0_split_0
I0621 01:51:54.222774 20669 net.cpp:399] elt_g_i_elt_g_i_0_split -> elt_g_i_elt_g_i_0_split_1
I0621 01:51:54.222810 20669 net.cpp:141] Setting up elt_g_i_elt_g_i_0_split
I0621 01:51:54.222820 20669 net.cpp:148] Top shape: 100 128 16 16 (3276800)
I0621 01:51:54.222826 20669 net.cpp:148] Top shape: 100 128 16 16 (3276800)
I0621 01:51:54.222832 20669 net.cpp:156] Memory required for data: 1901774000
I0621 01:51:54.222837 20669 layer_factory.hpp:77] Creating layer bn_j_1_1
I0621 01:51:54.222847 20669 net.cpp:91] Creating Layer bn_j_1_1
I0621 01:51:54.222854 20669 net.cpp:425] bn_j_1_1 <- elt_d_f_elt_d_f_0_split_0
I0621 01:51:54.222862 20669 net.cpp:399] bn_j_1_1 -> bn_j_1_1
I0621 01:51:54.223047 20669 net.cpp:141] Setting up bn_j_1_1
I0621 01:51:54.223057 20669 net.cpp:148] Top shape: 100 128 16 16 (3276800)
I0621 01:51:54.223063 20669 net.cpp:156] Memory required for data: 1914881200
I0621 01:51:54.223073 20669 layer_factory.hpp:77] Creating layer sc_j_1_1
I0621 01:51:54.223081 20669 net.cpp:91] Creating Layer sc_j_1_1
I0621 01:51:54.223088 20669 net.cpp:425] sc_j_1_1 <- bn_j_1_1
I0621 01:51:54.223094 20669 net.cpp:399] sc_j_1_1 -> sc_j_1_1
I0621 01:51:54.223140 20669 layer_factory.hpp:77] Creating layer sc_j_1_1
I0621 01:51:54.223239 20669 net.cpp:141] Setting up sc_j_1_1
I0621 01:51:54.223250 20669 net.cpp:148] Top shape: 100 128 16 16 (3276800)
I0621 01:51:54.223256 20669 net.cpp:156] Memory required for data: 1927988400
I0621 01:51:54.223264 20669 layer_factory.hpp:77] Creating layer relu_j_1_1
I0621 01:51:54.223274 20669 net.cpp:91] Creating Layer relu_j_1_1
I0621 01:51:54.223280 20669 net.cpp:425] relu_j_1_1 <- sc_j_1_1
I0621 01:51:54.223287 20669 net.cpp:399] relu_j_1_1 -> relu_j_1_1
I0621 01:51:54.223480 20669 net.cpp:141] Setting up relu_j_1_1
I0621 01:51:54.223493 20669 net.cpp:148] Top shape: 100 128 16 16 (3276800)
I0621 01:51:54.223500 20669 net.cpp:156] Memory required for data: 1941095600
I0621 01:51:54.223517 20669 layer_factory.hpp:77] Creating layer conv_j_1_1
I0621 01:51:54.223533 20669 net.cpp:91] Creating Layer conv_j_1_1
I0621 01:51:54.223541 20669 net.cpp:425] conv_j_1_1 <- relu_j_1_1
I0621 01:51:54.223562 20669 net.cpp:399] conv_j_1_1 -> conv_j_1_1
I0621 01:51:54.233000 20669 net.cpp:141] Setting up conv_j_1_1
I0621 01:51:54.233016 20669 net.cpp:148] Top shape: 100 256 8 8 (1638400)
I0621 01:51:54.233026 20669 net.cpp:156] Memory required for data: 1947649200
I0621 01:51:54.233034 20669 layer_factory.hpp:77] Creating layer bn_j_1_2
I0621 01:51:54.233048 20669 net.cpp:91] Creating Layer bn_j_1_2
I0621 01:51:54.233055 20669 net.cpp:425] bn_j_1_2 <- conv_j_1_1
I0621 01:51:54.233065 20669 net.cpp:399] bn_j_1_2 -> bn_j_1_2
I0621 01:51:54.233265 20669 net.cpp:141] Setting up bn_j_1_2
I0621 01:51:54.233278 20669 net.cpp:148] Top shape: 100 256 8 8 (1638400)
I0621 01:51:54.233283 20669 net.cpp:156] Memory required for data: 1954202800
I0621 01:51:54.233292 20669 layer_factory.hpp:77] Creating layer sc_j_1_2
I0621 01:51:54.233314 20669 net.cpp:91] Creating Layer sc_j_1_2
I0621 01:51:54.233321 20669 net.cpp:425] sc_j_1_2 <- bn_j_1_2
I0621 01:51:54.233330 20669 net.cpp:399] sc_j_1_2 -> sc_j_1_2
I0621 01:51:54.233378 20669 layer_factory.hpp:77] Creating layer sc_j_1_2
I0621 01:51:54.233492 20669 net.cpp:141] Setting up sc_j_1_2
I0621 01:51:54.233505 20669 net.cpp:148] Top shape: 100 256 8 8 (1638400)
I0621 01:51:54.233511 20669 net.cpp:156] Memory required for data: 1960756400
I0621 01:51:54.233520 20669 layer_factory.hpp:77] Creating layer relu_j_1_2
I0621 01:51:54.233528 20669 net.cpp:91] Creating Layer relu_j_1_2
I0621 01:51:54.233535 20669 net.cpp:425] relu_j_1_2 <- sc_j_1_2
I0621 01:51:54.233543 20669 net.cpp:399] relu_j_1_2 -> relu_j_1_2
I0621 01:51:54.233870 20669 net.cpp:141] Setting up relu_j_1_2
I0621 01:51:54.233885 20669 net.cpp:148] Top shape: 100 256 8 8 (1638400)
I0621 01:51:54.233891 20669 net.cpp:156] Memory required for data: 1967310000
I0621 01:51:54.233896 20669 layer_factory.hpp:77] Creating layer conv_j_1_2
I0621 01:51:54.233911 20669 net.cpp:91] Creating Layer conv_j_1_2
I0621 01:51:54.233917 20669 net.cpp:425] conv_j_1_2 <- relu_j_1_2
I0621 01:51:54.233928 20669 net.cpp:399] conv_j_1_2 -> conv_j_1_2
I0621 01:51:54.251955 20669 net.cpp:141] Setting up conv_j_1_2
I0621 01:51:54.251971 20669 net.cpp:148] Top shape: 100 256 8 8 (1638400)
I0621 01:51:54.251996 20669 net.cpp:156] Memory required for data: 1973863600
I0621 01:51:54.252004 20669 layer_factory.hpp:77] Creating layer res_j
I0621 01:51:54.252020 20669 net.cpp:91] Creating Layer res_j
I0621 01:51:54.252027 20669 net.cpp:425] res_j <- elt_d_f_elt_d_f_0_split_1
I0621 01:51:54.252038 20669 net.cpp:399] res_j -> res_j
I0621 01:51:54.253877 20669 net.cpp:141] Setting up res_j
I0621 01:51:54.253892 20669 net.cpp:148] Top shape: 100 256 8 8 (1638400)
I0621 01:51:54.253901 20669 net.cpp:156] Memory required for data: 1980417200
I0621 01:51:54.253909 20669 layer_factory.hpp:77] Creating layer elt_j_1
I0621 01:51:54.253919 20669 net.cpp:91] Creating Layer elt_j_1
I0621 01:51:54.253927 20669 net.cpp:425] elt_j_1 <- res_j
I0621 01:51:54.253934 20669 net.cpp:425] elt_j_1 <- conv_j_1_2
I0621 01:51:54.253945 20669 net.cpp:399] elt_j_1 -> elt_j_1
I0621 01:51:54.253976 20669 net.cpp:141] Setting up elt_j_1
I0621 01:51:54.253986 20669 net.cpp:148] Top shape: 100 256 8 8 (1638400)
I0621 01:51:54.253993 20669 net.cpp:156] Memory required for data: 1986970800
I0621 01:51:54.253998 20669 layer_factory.hpp:77] Creating layer bn_e_1_1
I0621 01:51:54.254007 20669 net.cpp:91] Creating Layer bn_e_1_1
I0621 01:51:54.254014 20669 net.cpp:425] bn_e_1_1 <- elt_a_1_elt_a_1_0_split_2
I0621 01:51:54.254037 20669 net.cpp:399] bn_e_1_1 -> bn_e_1_1
I0621 01:51:54.254264 20669 net.cpp:141] Setting up bn_e_1_1
I0621 01:51:54.254276 20669 net.cpp:148] Top shape: 100 64 32 32 (6553600)
I0621 01:51:54.254282 20669 net.cpp:156] Memory required for data: 2013185200
I0621 01:51:54.254302 20669 layer_factory.hpp:77] Creating layer sc_e_1_1
I0621 01:51:54.254310 20669 net.cpp:91] Creating Layer sc_e_1_1
I0621 01:51:54.254349 20669 net.cpp:425] sc_e_1_1 <- bn_e_1_1
I0621 01:51:54.254361 20669 net.cpp:399] sc_e_1_1 -> sc_e_1_1
I0621 01:51:54.254428 20669 layer_factory.hpp:77] Creating layer sc_e_1_1
I0621 01:51:54.254601 20669 net.cpp:141] Setting up sc_e_1_1
I0621 01:51:54.254616 20669 net.cpp:148] Top shape: 100 64 32 32 (6553600)
I0621 01:51:54.254622 20669 net.cpp:156] Memory required for data: 2039399600
I0621 01:51:54.254631 20669 layer_factory.hpp:77] Creating layer relu_e_1_1
I0621 01:51:54.254642 20669 net.cpp:91] Creating Layer relu_e_1_1
I0621 01:51:54.254648 20669 net.cpp:425] relu_e_1_1 <- sc_e_1_1
I0621 01:51:54.254657 20669 net.cpp:399] relu_e_1_1 -> relu_e_1_1
I0621 01:51:54.255007 20669 net.cpp:141] Setting up relu_e_1_1
I0621 01:51:54.255023 20669 net.cpp:148] Top shape: 100 64 32 32 (6553600)
I0621 01:51:54.255028 20669 net.cpp:156] Memory required for data: 2065614000
I0621 01:51:54.255034 20669 layer_factory.hpp:77] Creating layer conv_e_1_1
I0621 01:51:54.255049 20669 net.cpp:91] Creating Layer conv_e_1_1
I0621 01:51:54.255058 20669 net.cpp:425] conv_e_1_1 <- relu_e_1_1
I0621 01:51:54.255065 20669 net.cpp:399] conv_e_1_1 -> conv_e_1_1
I0621 01:51:54.258621 20669 net.cpp:141] Setting up conv_e_1_1
I0621 01:51:54.258638 20669 net.cpp:148] Top shape: 100 128 16 16 (3276800)
I0621 01:51:54.258662 20669 net.cpp:156] Memory required for data: 2078721200
I0621 01:51:54.258671 20669 layer_factory.hpp:77] Creating layer bn_e_1_2
I0621 01:51:54.258687 20669 net.cpp:91] Creating Layer bn_e_1_2
I0621 01:51:54.258697 20669 net.cpp:425] bn_e_1_2 <- conv_e_1_1
I0621 01:51:54.258708 20669 net.cpp:399] bn_e_1_2 -> bn_e_1_2
I0621 01:51:54.258899 20669 net.cpp:141] Setting up bn_e_1_2
I0621 01:51:54.258911 20669 net.cpp:148] Top shape: 100 128 16 16 (3276800)
I0621 01:51:54.258916 20669 net.cpp:156] Memory required for data: 2091828400
I0621 01:51:54.258926 20669 layer_factory.hpp:77] Creating layer sc_e_1_2
I0621 01:51:54.258935 20669 net.cpp:91] Creating Layer sc_e_1_2
I0621 01:51:54.258942 20669 net.cpp:425] sc_e_1_2 <- bn_e_1_2
I0621 01:51:54.258952 20669 net.cpp:399] sc_e_1_2 -> sc_e_1_2
I0621 01:51:54.258997 20669 layer_factory.hpp:77] Creating layer sc_e_1_2
I0621 01:51:54.259102 20669 net.cpp:141] Setting up sc_e_1_2
I0621 01:51:54.259114 20669 net.cpp:148] Top shape: 100 128 16 16 (3276800)
I0621 01:51:54.259121 20669 net.cpp:156] Memory required for data: 2104935600
I0621 01:51:54.259130 20669 layer_factory.hpp:77] Creating layer relu_e_1_2
I0621 01:51:54.259140 20669 net.cpp:91] Creating Layer relu_e_1_2
I0621 01:51:54.259146 20669 net.cpp:425] relu_e_1_2 <- sc_e_1_2
I0621 01:51:54.259153 20669 net.cpp:399] relu_e_1_2 -> relu_e_1_2
I0621 01:51:54.259363 20669 net.cpp:141] Setting up relu_e_1_2
I0621 01:51:54.259377 20669 net.cpp:148] Top shape: 100 128 16 16 (3276800)
I0621 01:51:54.259383 20669 net.cpp:156] Memory required for data: 2118042800
I0621 01:51:54.259388 20669 layer_factory.hpp:77] Creating layer conv_e_1_2
I0621 01:51:54.259402 20669 net.cpp:91] Creating Layer conv_e_1_2
I0621 01:51:54.259410 20669 net.cpp:425] conv_e_1_2 <- relu_e_1_2
I0621 01:51:54.259420 20669 net.cpp:399] conv_e_1_2 -> conv_e_1_2
I0621 01:51:54.264469 20669 net.cpp:141] Setting up conv_e_1_2
I0621 01:51:54.264485 20669 net.cpp:148] Top shape: 100 128 16 16 (3276800)
I0621 01:51:54.264510 20669 net.cpp:156] Memory required for data: 2131150000
I0621 01:51:54.264519 20669 layer_factory.hpp:77] Creating layer res_e
I0621 01:51:54.264536 20669 net.cpp:91] Creating Layer res_e
I0621 01:51:54.264544 20669 net.cpp:425] res_e <- elt_a_1_elt_a_1_0_split_3
I0621 01:51:54.264554 20669 net.cpp:399] res_e -> res_e
I0621 01:51:54.265853 20669 net.cpp:141] Setting up res_e
I0621 01:51:54.265868 20669 net.cpp:148] Top shape: 100 128 16 16 (3276800)
I0621 01:51:54.265890 20669 net.cpp:156] Memory required for data: 2144257200
I0621 01:51:54.265899 20669 layer_factory.hpp:77] Creating layer elt_e_1
I0621 01:51:54.265911 20669 net.cpp:91] Creating Layer elt_e_1
I0621 01:51:54.265918 20669 net.cpp:425] elt_e_1 <- res_e
I0621 01:51:54.265941 20669 net.cpp:425] elt_e_1 <- conv_e_1_2
I0621 01:51:54.265951 20669 net.cpp:399] elt_e_1 -> elt_e_1
I0621 01:51:54.265990 20669 net.cpp:141] Setting up elt_e_1
I0621 01:51:54.266005 20669 net.cpp:148] Top shape: 100 128 16 16 (3276800)
I0621 01:51:54.266023 20669 net.cpp:156] Memory required for data: 2157364400
I0621 01:51:54.266029 20669 layer_factory.hpp:77] Creating layer elt_e_h
I0621 01:51:54.266036 20669 net.cpp:91] Creating Layer elt_e_h
I0621 01:51:54.266043 20669 net.cpp:425] elt_e_h <- elt_e_1
I0621 01:51:54.266049 20669 net.cpp:425] elt_e_h <- elt_h_1
I0621 01:51:54.266057 20669 net.cpp:399] elt_e_h -> elt_e_h
I0621 01:51:54.266090 20669 net.cpp:141] Setting up elt_e_h
I0621 01:51:54.266101 20669 net.cpp:148] Top shape: 100 128 16 16 (3276800)
I0621 01:51:54.266108 20669 net.cpp:156] Memory required for data: 2170471600
I0621 01:51:54.266113 20669 layer_factory.hpp:77] Creating layer elt_e_h_elt_e_h_0_split
I0621 01:51:54.266121 20669 net.cpp:91] Creating Layer elt_e_h_elt_e_h_0_split
I0621 01:51:54.266129 20669 net.cpp:425] elt_e_h_elt_e_h_0_split <- elt_e_h
I0621 01:51:54.266135 20669 net.cpp:399] elt_e_h_elt_e_h_0_split -> elt_e_h_elt_e_h_0_split_0
I0621 01:51:54.266144 20669 net.cpp:399] elt_e_h_elt_e_h_0_split -> elt_e_h_elt_e_h_0_split_1
I0621 01:51:54.266186 20669 net.cpp:141] Setting up elt_e_h_elt_e_h_0_split
I0621 01:51:54.266197 20669 net.cpp:148] Top shape: 100 128 16 16 (3276800)
I0621 01:51:54.266204 20669 net.cpp:148] Top shape: 100 128 16 16 (3276800)
I0621 01:51:54.266209 20669 net.cpp:156] Memory required for data: 2196686000
I0621 01:51:54.266214 20669 layer_factory.hpp:77] Creating layer bn_k_1_1
I0621 01:51:54.266223 20669 net.cpp:91] Creating Layer bn_k_1_1
I0621 01:51:54.266232 20669 net.cpp:425] bn_k_1_1 <- elt_e_h_elt_e_h_0_split_0
I0621 01:51:54.266238 20669 net.cpp:399] bn_k_1_1 -> bn_k_1_1
I0621 01:51:54.266418 20669 net.cpp:141] Setting up bn_k_1_1
I0621 01:51:54.266430 20669 net.cpp:148] Top shape: 100 128 16 16 (3276800)
I0621 01:51:54.266436 20669 net.cpp:156] Memory required for data: 2209793200
I0621 01:51:54.266460 20669 layer_factory.hpp:77] Creating layer sc_k_1_1
I0621 01:51:54.266474 20669 net.cpp:91] Creating Layer sc_k_1_1
I0621 01:51:54.266481 20669 net.cpp:425] sc_k_1_1 <- bn_k_1_1
I0621 01:51:54.266489 20669 net.cpp:399] sc_k_1_1 -> sc_k_1_1
I0621 01:51:54.266546 20669 layer_factory.hpp:77] Creating layer sc_k_1_1
I0621 01:51:54.266680 20669 net.cpp:141] Setting up sc_k_1_1
I0621 01:51:54.266697 20669 net.cpp:148] Top shape: 100 128 16 16 (3276800)
I0621 01:51:54.266703 20669 net.cpp:156] Memory required for data: 2222900400
I0621 01:51:54.266711 20669 layer_factory.hpp:77] Creating layer relu_k_1_1
I0621 01:51:54.266721 20669 net.cpp:91] Creating Layer relu_k_1_1
I0621 01:51:54.266726 20669 net.cpp:425] relu_k_1_1 <- sc_k_1_1
I0621 01:51:54.266736 20669 net.cpp:399] relu_k_1_1 -> relu_k_1_1
I0621 01:51:54.266955 20669 net.cpp:141] Setting up relu_k_1_1
I0621 01:51:54.266968 20669 net.cpp:148] Top shape: 100 128 16 16 (3276800)
I0621 01:51:54.266974 20669 net.cpp:156] Memory required for data: 2236007600
I0621 01:51:54.266993 20669 layer_factory.hpp:77] Creating layer conv_k_1_1
I0621 01:51:54.267006 20669 net.cpp:91] Creating Layer conv_k_1_1
I0621 01:51:54.267014 20669 net.cpp:425] conv_k_1_1 <- relu_k_1_1
I0621 01:51:54.267022 20669 net.cpp:399] conv_k_1_1 -> conv_k_1_1
I0621 01:51:54.276454 20669 net.cpp:141] Setting up conv_k_1_1
I0621 01:51:54.276470 20669 net.cpp:148] Top shape: 100 256 8 8 (1638400)
I0621 01:51:54.276494 20669 net.cpp:156] Memory required for data: 2242561200
I0621 01:51:54.276504 20669 layer_factory.hpp:77] Creating layer bn_k_1_2
I0621 01:51:54.276515 20669 net.cpp:91] Creating Layer bn_k_1_2
I0621 01:51:54.276523 20669 net.cpp:425] bn_k_1_2 <- conv_k_1_1
I0621 01:51:54.276533 20669 net.cpp:399] bn_k_1_2 -> bn_k_1_2
I0621 01:51:54.276782 20669 net.cpp:141] Setting up bn_k_1_2
I0621 01:51:54.276793 20669 net.cpp:148] Top shape: 100 256 8 8 (1638400)
I0621 01:51:54.276798 20669 net.cpp:156] Memory required for data: 2249114800
I0621 01:51:54.276824 20669 layer_factory.hpp:77] Creating layer sc_k_1_2
I0621 01:51:54.276839 20669 net.cpp:91] Creating Layer sc_k_1_2
I0621 01:51:54.276845 20669 net.cpp:425] sc_k_1_2 <- bn_k_1_2
I0621 01:51:54.276854 20669 net.cpp:399] sc_k_1_2 -> sc_k_1_2
I0621 01:51:54.276902 20669 layer_factory.hpp:77] Creating layer sc_k_1_2
I0621 01:51:54.277017 20669 net.cpp:141] Setting up sc_k_1_2
I0621 01:51:54.277029 20669 net.cpp:148] Top shape: 100 256 8 8 (1638400)
I0621 01:51:54.277035 20669 net.cpp:156] Memory required for data: 2255668400
I0621 01:51:54.277043 20669 layer_factory.hpp:77] Creating layer relu_k_1_2
I0621 01:51:54.277051 20669 net.cpp:91] Creating Layer relu_k_1_2
I0621 01:51:54.277057 20669 net.cpp:425] relu_k_1_2 <- sc_k_1_2
I0621 01:51:54.277066 20669 net.cpp:399] relu_k_1_2 -> relu_k_1_2
I0621 01:51:54.277403 20669 net.cpp:141] Setting up relu_k_1_2
I0621 01:51:54.277418 20669 net.cpp:148] Top shape: 100 256 8 8 (1638400)
I0621 01:51:54.277426 20669 net.cpp:156] Memory required for data: 2262222000
I0621 01:51:54.277432 20669 layer_factory.hpp:77] Creating layer conv_k_1_2
I0621 01:51:54.277443 20669 net.cpp:91] Creating Layer conv_k_1_2
I0621 01:51:54.277451 20669 net.cpp:425] conv_k_1_2 <- relu_k_1_2
I0621 01:51:54.277462 20669 net.cpp:399] conv_k_1_2 -> conv_k_1_2
I0621 01:51:54.295078 20669 net.cpp:141] Setting up conv_k_1_2
I0621 01:51:54.295094 20669 net.cpp:148] Top shape: 100 256 8 8 (1638400)
I0621 01:51:54.295111 20669 net.cpp:156] Memory required for data: 2268775600
I0621 01:51:54.295125 20669 layer_factory.hpp:77] Creating layer res_k
I0621 01:51:54.295140 20669 net.cpp:91] Creating Layer res_k
I0621 01:51:54.295148 20669 net.cpp:425] res_k <- elt_e_h_elt_e_h_0_split_1
I0621 01:51:54.295158 20669 net.cpp:399] res_k -> res_k
I0621 01:51:54.297000 20669 net.cpp:141] Setting up res_k
I0621 01:51:54.297015 20669 net.cpp:148] Top shape: 100 256 8 8 (1638400)
I0621 01:51:54.297036 20669 net.cpp:156] Memory required for data: 2275329200
I0621 01:51:54.297044 20669 layer_factory.hpp:77] Creating layer elt_k_1
I0621 01:51:54.297057 20669 net.cpp:91] Creating Layer elt_k_1
I0621 01:51:54.297065 20669 net.cpp:425] elt_k_1 <- res_k
I0621 01:51:54.297071 20669 net.cpp:425] elt_k_1 <- conv_k_1_2
I0621 01:51:54.297082 20669 net.cpp:399] elt_k_1 -> elt_k_1
I0621 01:51:54.297116 20669 net.cpp:141] Setting up elt_k_1
I0621 01:51:54.297127 20669 net.cpp:148] Top shape: 100 256 8 8 (1638400)
I0621 01:51:54.297132 20669 net.cpp:156] Memory required for data: 2281882800
I0621 01:51:54.297137 20669 layer_factory.hpp:77] Creating layer bn_l_1_1
I0621 01:51:54.297159 20669 net.cpp:91] Creating Layer bn_l_1_1
I0621 01:51:54.297168 20669 net.cpp:425] bn_l_1_1 <- elt_g_i_elt_g_i_0_split_0
I0621 01:51:54.297174 20669 net.cpp:399] bn_l_1_1 -> bn_l_1_1
I0621 01:51:54.297385 20669 net.cpp:141] Setting up bn_l_1_1
I0621 01:51:54.297399 20669 net.cpp:148] Top shape: 100 128 16 16 (3276800)
I0621 01:51:54.297405 20669 net.cpp:156] Memory required for data: 2294990000
I0621 01:51:54.297413 20669 layer_factory.hpp:77] Creating layer sc_l_1_1
I0621 01:51:54.297423 20669 net.cpp:91] Creating Layer sc_l_1_1
I0621 01:51:54.297430 20669 net.cpp:425] sc_l_1_1 <- bn_l_1_1
I0621 01:51:54.297437 20669 net.cpp:399] sc_l_1_1 -> sc_l_1_1
I0621 01:51:54.297488 20669 layer_factory.hpp:77] Creating layer sc_l_1_1
I0621 01:51:54.297603 20669 net.cpp:141] Setting up sc_l_1_1
I0621 01:51:54.297615 20669 net.cpp:148] Top shape: 100 128 16 16 (3276800)
I0621 01:51:54.297621 20669 net.cpp:156] Memory required for data: 2308097200
I0621 01:51:54.297629 20669 layer_factory.hpp:77] Creating layer relu_l_1_1
I0621 01:51:54.297638 20669 net.cpp:91] Creating Layer relu_l_1_1
I0621 01:51:54.297646 20669 net.cpp:425] relu_l_1_1 <- sc_l_1_1
I0621 01:51:54.297654 20669 net.cpp:399] relu_l_1_1 -> relu_l_1_1
I0621 01:51:54.298010 20669 net.cpp:141] Setting up relu_l_1_1
I0621 01:51:54.298025 20669 net.cpp:148] Top shape: 100 128 16 16 (3276800)
I0621 01:51:54.298032 20669 net.cpp:156] Memory required for data: 2321204400
I0621 01:51:54.298053 20669 layer_factory.hpp:77] Creating layer conv_l_1_1
I0621 01:51:54.298069 20669 net.cpp:91] Creating Layer conv_l_1_1
I0621 01:51:54.298076 20669 net.cpp:425] conv_l_1_1 <- relu_l_1_1
I0621 01:51:54.298086 20669 net.cpp:399] conv_l_1_1 -> conv_l_1_1
I0621 01:51:54.307401 20669 net.cpp:141] Setting up conv_l_1_1
I0621 01:51:54.307417 20669 net.cpp:148] Top shape: 100 256 8 8 (1638400)
I0621 01:51:54.307440 20669 net.cpp:156] Memory required for data: 2327758000
I0621 01:51:54.307448 20669 layer_factory.hpp:77] Creating layer bn_l_1_2
I0621 01:51:54.307461 20669 net.cpp:91] Creating Layer bn_l_1_2
I0621 01:51:54.307467 20669 net.cpp:425] bn_l_1_2 <- conv_l_1_1
I0621 01:51:54.307476 20669 net.cpp:399] bn_l_1_2 -> bn_l_1_2
I0621 01:51:54.307709 20669 net.cpp:141] Setting up bn_l_1_2
I0621 01:51:54.307723 20669 net.cpp:148] Top shape: 100 256 8 8 (1638400)
I0621 01:51:54.307728 20669 net.cpp:156] Memory required for data: 2334311600
I0621 01:51:54.307737 20669 layer_factory.hpp:77] Creating layer sc_l_1_2
I0621 01:51:54.307761 20669 net.cpp:91] Creating Layer sc_l_1_2
I0621 01:51:54.307770 20669 net.cpp:425] sc_l_1_2 <- bn_l_1_2
I0621 01:51:54.307777 20669 net.cpp:399] sc_l_1_2 -> sc_l_1_2
I0621 01:51:54.307829 20669 layer_factory.hpp:77] Creating layer sc_l_1_2
I0621 01:51:54.307950 20669 net.cpp:141] Setting up sc_l_1_2
I0621 01:51:54.307961 20669 net.cpp:148] Top shape: 100 256 8 8 (1638400)
I0621 01:51:54.307967 20669 net.cpp:156] Memory required for data: 2340865200
I0621 01:51:54.307976 20669 layer_factory.hpp:77] Creating layer relu_l_1_2
I0621 01:51:54.307984 20669 net.cpp:91] Creating Layer relu_l_1_2
I0621 01:51:54.307991 20669 net.cpp:425] relu_l_1_2 <- sc_l_1_2
I0621 01:51:54.307999 20669 net.cpp:399] relu_l_1_2 -> relu_l_1_2
I0621 01:51:54.308212 20669 net.cpp:141] Setting up relu_l_1_2
I0621 01:51:54.308228 20669 net.cpp:148] Top shape: 100 256 8 8 (1638400)
I0621 01:51:54.308234 20669 net.cpp:156] Memory required for data: 2347418800
I0621 01:51:54.308240 20669 layer_factory.hpp:77] Creating layer conv_l_1_2
I0621 01:51:54.308254 20669 net.cpp:91] Creating Layer conv_l_1_2
I0621 01:51:54.308260 20669 net.cpp:425] conv_l_1_2 <- relu_l_1_2
I0621 01:51:54.308269 20669 net.cpp:399] conv_l_1_2 -> conv_l_1_2
I0621 01:51:54.328996 20669 net.cpp:141] Setting up conv_l_1_2
I0621 01:51:54.329017 20669 net.cpp:148] Top shape: 100 256 8 8 (1638400)
I0621 01:51:54.329023 20669 net.cpp:156] Memory required for data: 2353972400
I0621 01:51:54.329037 20669 layer_factory.hpp:77] Creating layer res_l
I0621 01:51:54.329071 20669 net.cpp:91] Creating Layer res_l
I0621 01:51:54.329092 20669 net.cpp:425] res_l <- elt_g_i_elt_g_i_0_split_1
I0621 01:51:54.329108 20669 net.cpp:399] res_l -> res_l
I0621 01:51:54.331136 20669 net.cpp:141] Setting up res_l
I0621 01:51:54.331151 20669 net.cpp:148] Top shape: 100 256 8 8 (1638400)
I0621 01:51:54.331157 20669 net.cpp:156] Memory required for data: 2360526000
I0621 01:51:54.331166 20669 layer_factory.hpp:77] Creating layer elt_l_1
I0621 01:51:54.331177 20669 net.cpp:91] Creating Layer elt_l_1
I0621 01:51:54.331183 20669 net.cpp:425] elt_l_1 <- res_l
I0621 01:51:54.331193 20669 net.cpp:425] elt_l_1 <- conv_l_1_2
I0621 01:51:54.331202 20669 net.cpp:399] elt_l_1 -> elt_l_1
I0621 01:51:54.331231 20669 net.cpp:141] Setting up elt_l_1
I0621 01:51:54.331243 20669 net.cpp:148] Top shape: 100 256 8 8 (1638400)
I0621 01:51:54.331248 20669 net.cpp:156] Memory required for data: 2367079600
I0621 01:51:54.331251 20669 layer_factory.hpp:77] Creating layer elt_j_k_l
I0621 01:51:54.331261 20669 net.cpp:91] Creating Layer elt_j_k_l
I0621 01:51:54.331270 20669 net.cpp:425] elt_j_k_l <- elt_j_1
I0621 01:51:54.331276 20669 net.cpp:425] elt_j_k_l <- elt_k_1
I0621 01:51:54.331285 20669 net.cpp:425] elt_j_k_l <- elt_l_1
I0621 01:51:54.331293 20669 net.cpp:399] elt_j_k_l -> elt_j_k_l
I0621 01:51:54.331322 20669 net.cpp:141] Setting up elt_j_k_l
I0621 01:51:54.331332 20669 net.cpp:148] Top shape: 100 256 8 8 (1638400)
I0621 01:51:54.331337 20669 net.cpp:156] Memory required for data: 2373633200
I0621 01:51:54.331358 20669 layer_factory.hpp:77] Creating layer bn_m_1_1
I0621 01:51:54.331370 20669 net.cpp:91] Creating Layer bn_m_1_1
I0621 01:51:54.331377 20669 net.cpp:425] bn_m_1_1 <- elt_j_k_l
I0621 01:51:54.331388 20669 net.cpp:399] bn_m_1_1 -> bn_m_1_1
I0621 01:51:54.331583 20669 net.cpp:141] Setting up bn_m_1_1
I0621 01:51:54.331594 20669 net.cpp:148] Top shape: 100 256 8 8 (1638400)
I0621 01:51:54.331614 20669 net.cpp:156] Memory required for data: 2380186800
I0621 01:51:54.331624 20669 layer_factory.hpp:77] Creating layer sc_m_1_1
I0621 01:51:54.331635 20669 net.cpp:91] Creating Layer sc_m_1_1
I0621 01:51:54.331642 20669 net.cpp:425] sc_m_1_1 <- bn_m_1_1
I0621 01:51:54.331651 20669 net.cpp:399] sc_m_1_1 -> sc_m_1_1
I0621 01:51:54.331723 20669 layer_factory.hpp:77] Creating layer sc_m_1_1
I0621 01:51:54.331845 20669 net.cpp:141] Setting up sc_m_1_1
I0621 01:51:54.331856 20669 net.cpp:148] Top shape: 100 256 8 8 (1638400)
I0621 01:51:54.331861 20669 net.cpp:156] Memory required for data: 2386740400
I0621 01:51:54.331871 20669 layer_factory.hpp:77] Creating layer relu_m_1_1
I0621 01:51:54.331881 20669 net.cpp:91] Creating Layer relu_m_1_1
I0621 01:51:54.331887 20669 net.cpp:425] relu_m_1_1 <- sc_m_1_1
I0621 01:51:54.331897 20669 net.cpp:399] relu_m_1_1 -> relu_m_1_1
I0621 01:51:54.332131 20669 net.cpp:141] Setting up relu_m_1_1
I0621 01:51:54.332146 20669 net.cpp:148] Top shape: 100 256 8 8 (1638400)
I0621 01:51:54.332152 20669 net.cpp:156] Memory required for data: 2393294000
I0621 01:51:54.332157 20669 layer_factory.hpp:77] Creating layer gap
I0621 01:51:54.332168 20669 net.cpp:91] Creating Layer gap
I0621 01:51:54.332187 20669 net.cpp:425] gap <- relu_m_1_1
I0621 01:51:54.332195 20669 net.cpp:399] gap -> gap
I0621 01:51:54.332521 20669 net.cpp:141] Setting up gap
I0621 01:51:54.332535 20669 net.cpp:148] Top shape: 100 256 1 1 (25600)
I0621 01:51:54.332541 20669 net.cpp:156] Memory required for data: 2393396400
I0621 01:51:54.332546 20669 layer_factory.hpp:77] Creating layer ip1
I0621 01:51:54.332556 20669 net.cpp:91] Creating Layer ip1
I0621 01:51:54.332561 20669 net.cpp:425] ip1 <- gap
I0621 01:51:54.332571 20669 net.cpp:399] ip1 -> ip1
I0621 01:51:54.332797 20669 net.cpp:141] Setting up ip1
I0621 01:51:54.332808 20669 net.cpp:148] Top shape: 100 10 (1000)
I0621 01:51:54.332813 20669 net.cpp:156] Memory required for data: 2393400400
I0621 01:51:54.332821 20669 layer_factory.hpp:77] Creating layer ip1_ip1_0_split
I0621 01:51:54.332829 20669 net.cpp:91] Creating Layer ip1_ip1_0_split
I0621 01:51:54.332834 20669 net.cpp:425] ip1_ip1_0_split <- ip1
I0621 01:51:54.332840 20669 net.cpp:399] ip1_ip1_0_split -> ip1_ip1_0_split_0
I0621 01:51:54.332849 20669 net.cpp:399] ip1_ip1_0_split -> ip1_ip1_0_split_1
I0621 01:51:54.332893 20669 net.cpp:141] Setting up ip1_ip1_0_split
I0621 01:51:54.332904 20669 net.cpp:148] Top shape: 100 10 (1000)
I0621 01:51:54.332911 20669 net.cpp:148] Top shape: 100 10 (1000)
I0621 01:51:54.332914 20669 net.cpp:156] Memory required for data: 2393408400
I0621 01:51:54.332919 20669 layer_factory.hpp:77] Creating layer accuracy
I0621 01:51:54.332931 20669 net.cpp:91] Creating Layer accuracy
I0621 01:51:54.332937 20669 net.cpp:425] accuracy <- ip1_ip1_0_split_0
I0621 01:51:54.332944 20669 net.cpp:425] accuracy <- label_resnet_1_split_0
I0621 01:51:54.332954 20669 net.cpp:399] accuracy -> accuracy
…
