…
I0621 23:28:58.352461 27723 net.cpp:313] The NetState phase (0) differed from the phase (1) specified by a rule in layer accuracy
I0621 23:28:58.353195 27723 net.cpp:49] Initializing net from parameters: 
name: "ResNet"
state {
  phase: TRAIN
}
layer {
  name: "resnet"
  type: "Data"
  top: "data"
  top: "label"
  include {
    phase: TRAIN
  }
  transform_param {
    mean_file: "/home/takeki/caffe/examples/cifar10/mean.binaryproto"
  }
  data_param {
    source: "/home/takeki/caffe/examples/cifar10/cifar10_train_lmdb"
    batch_size: 128
    backend: LMDB
  }
}
layer {
  name: "conv0"
  type: "Convolution"
  bottom: "data"
  top: "conv0"
  param {
    lr_mult: 1
  }
  param {
    lr_mult: 2
  }
  convolution_param {
    num_output: 16
    pad: 1
    kernel_size: 3
    stride: 1
    weight_filler {
      type: "msra"
    }
    bias_filler {
      type: "constant"
    }
  }
}
layer {
  name: "bn_a_1_1"
  type: "BatchNorm"
  bottom: "conv0"
  top: "bn_a_1_1"
  param {
    lr_mult: 0
  }
  param {
    lr_mult: 0
  }
  param {
    lr_mult: 0
  }
  batch_norm_param {
    use_global_stats: false
  }
}
layer {
  name: "sc_a_1_1"
  type: "Scale"
  bottom: "bn_a_1_1"
  top: "sc_a_1_1"
  scale_param {
    bias_term: true
  }
}
layer {
  name: "relu_a_1_1"
  type: "ReLU"
  bottom: "sc_a_1_1"
  top: "relu_a_1_1"
}
layer {
  name: "conv_a_1_1"
  type: "Convolution"
  bottom: "relu_a_1_1"
  top: "conv_a_1_1"
  param {
    lr_mult: 1
    decay_mult: 1
  }
  param {
    lr_mult: 2
    decay_mult: 1
  }
  convolution_param {
    num_output: 64
    pad: 1
    kernel_size: 3
    stride: 1
    weight_filler {
      type: "msra"
    }
    bias_filler {
      type: "constant"
    }
  }
}
layer {
  name: "bn_a_1_2"
  type: "BatchNorm"
  bottom: "conv_a_1_1"
  top: "bn_a_1_2"
  param {
    lr_mult: 0
  }
  param {
    lr_mult: 0
  }
  param {
    lr_mult: 0
  }
  batch_norm_param {
    use_global_stats: false
  }
}
layer {
  name: "sc_a_1_2"
  type: "Scale"
  bottom: "bn_a_1_2"
  top: "sc_a_1_2"
  scale_param {
    bias_term: true
  }
}
layer {
  name: "relu_a_1_2"
  type: "ReLU"
  bottom: "sc_a_1_2"
  top: "relu_a_1_2"
}
layer {
  name: "conv_a_1_2"
  type: "Convolution"
  bottom: "relu_a_1_2"
  top: "conv_a_1_2"
  param {
    lr_mult: 1
    decay_mult: 1
  }
  param {
    lr_mult: 2
    decay_mult: 1
  }
  convolution_param {
    num_output: 64
    pad: 1
    kernel_size: 3
    stride: 1
    weight_filler {
      type: "msra"
    }
    bias_filler {
      type: "constant"
    }
  }
}
layer {
  name: "res_a"
  type: "Convolution"
  bottom: "conv0"
  top: "res_a"
  param {
    lr_mult: 1
    decay_mult: 1
  }
  param {
    lr_mult: 2
    decay_mult: 1
  }
  convolution_param {
    num_output: 64
    pad: 0
    kernel_size: 1
    stride: 1
    weight_filler {
      type: "msra"
    }
    bias_filler {
      type: "constant"
    }
  }
}
layer {
  name: "elt_a_1"
  type: "Eltwise"
  bottom: "res_a"
  bottom: "conv_a_1_2"
  top: "elt_a_1"
  eltwise_param {
    operation: SUM
  }
}
layer {
  name: "bn_b_1_1"
  type: "BatchNorm"
  bottom: "conv0"
  top: "bn_b_1_1"
  param {
    lr_mult: 0
  }
  param {
    lr_mult: 0
  }
  param {
    lr_mult: 0
  }
  batch_norm_param {
    use_global_stats: false
  }
}
layer {
  name: "sc_b_1_1"
  type: "Scale"
  bottom: "bn_b_1_1"
  top: "sc_b_1_1"
  scale_param {
    bias_term: true
  }
}
layer {
  name: "relu_b_1_1"
  type: "ReLU"
  bottom: "sc_b_1_1"
  top: "relu_b_1_1"
}
layer {
  name: "conv_b_1_1"
  type: "Convolution"
  bottom: "relu_b_1_1"
  top: "conv_b_1_1"
  param {
    lr_mult: 1
    decay_mult: 1
  }
  param {
    lr_mult: 2
    decay_mult: 1
  }
  convolution_param {
    num_output: 64
    pad: 1
    kernel_size: 3
    stride: 1
    weight_filler {
      type: "msra"
    }
    bias_filler {
      type: "constant"
    }
  }
}
layer {
  name: "bn_b_1_2"
  type: "BatchNorm"
  bottom: "conv_b_1_1"
  top: "bn_b_1_2"
  param {
    lr_mult: 0
  }
  param {
    lr_mult: 0
  }
  param {
    lr_mult: 0
  }
  batch_norm_param {
    use_global_stats: false
  }
}
layer {
  name: "sc_b_1_2"
  type: "Scale"
  bottom: "bn_b_1_2"
  top: "sc_b_1_2"
  scale_param {
    bias_term: true
  }
}
layer {
  name: "relu_b_1_2"
  type: "ReLU"
  bottom: "sc_b_1_2"
  top: "relu_b_1_2"
}
layer {
  name: "conv_b_1_2"
  type: "Convolution"
  bottom: "relu_b_1_2"
  top: "conv_b_1_2"
  param {
    lr_mult: 1
    decay_mult: 1
  }
  param {
    lr_mult: 2
    decay_mult: 1
  }
  convolution_param {
    num_output: 64
    pad: 1
    kernel_size: 3
    stride: 1
    weight_filler {
      type: "msra"
    }
    bias_filler {
      type: "constant"
    }
  }
}
layer {
  name: "res_b"
  type: "Convolution"
  bottom: "conv0"
  top: "res_b"
  param {
    lr_mult: 1
    decay_mult: 1
  }
  param {
    lr_mult: 2
    decay_mult: 1
  }
  convolution_param {
    num_output: 64
    pad: 0
    kernel_size: 1
    stride: 1
    weight_filler {
      type: "msra"
    }
    bias_filler {
      type: "constant"
    }
  }
}
layer {
  name: "elt_b_1"
  type: "Eltwise"
  bottom: "res_b"
  bottom: "conv_b_1_2"
  top: "elt_b_1"
  eltwise_param {
    operation: SUM
  }
}
layer {
  name: "bn_c_1_1"
  type: "BatchNorm"
  bottom: "conv0"
  top: "bn_c_1_1"
  param {
    lr_mult: 0
  }
  param {
    lr_mult: 0
  }
  param {
    lr_mult: 0
  }
  batch_norm_param {
    use_global_stats: false
  }
}
layer {
  name: "sc_c_1_1"
  type: "Scale"
  bottom: "bn_c_1_1"
  top: "sc_c_1_1"
  scale_param {
    bias_term: true
  }
}
layer {
  name: "relu_c_1_1"
  type: "ReLU"
  bottom: "sc_c_1_1"
  top: "relu_c_1_1"
}
layer {
  name: "conv_c_1_1"
  type: "Convolution"
  bottom: "relu_c_1_1"
  top: "conv_c_1_1"
  param {
    lr_mult: 1
    decay_mult: 1
  }
  param {
    lr_mult: 2
    decay_mult: 1
  }
  convolution_param {
    num_output: 64
    pad: 1
    kernel_size: 3
    stride: 1
    weight_filler {
      type: "msra"
    }
    bias_filler {
      type: "constant"
    }
  }
}
layer {
  name: "bn_c_1_2"
  type: "BatchNorm"
  bottom: "conv_c_1_1"
  top: "bn_c_1_2"
  param {
    lr_mult: 0
  }
  param {
    lr_mult: 0
  }
  param {
    lr_mult: 0
  }
  batch_norm_param {
    use_global_stats: false
  }
}
layer {
  name: "sc_c_1_2"
  type: "Scale"
  bottom: "bn_c_1_2"
  top: "sc_c_1_2"
  scale_param {
    bias_term: true
  }
}
layer {
  name: "relu_c_1_2"
  type: "ReLU"
  bottom: "sc_c_1_2"
  top: "relu_c_1_2"
}
layer {
  name: "conv_c_1_2"
  type: "Convolution"
  bottom: "relu_c_1_2"
  top: "conv_c_1_2"
  param {
    lr_mult: 1
    decay_mult: 1
  }
  param {
    lr_mult: 2
    decay_mult: 1
  }
  convolution_param {
    num_output: 64
    pad: 1
    kernel_size: 3
    stride: 1
    weight_filler {
      type: "msra"
    }
    bias_filler {
      type: "constant"
    }
  }
}
layer {
  name: "res_c"
  type: "Convolution"
  bottom: "conv0"
  top: "res_c"
  param {
    lr_mult: 1
    decay_mult: 1
  }
  param {
    lr_mult: 2
    decay_mult: 1
  }
  convolution_param {
    num_output: 64
    pad: 0
    kernel_size: 1
    stride: 1
    weight_filler {
      type: "msra"
    }
    bias_filler {
      type: "constant"
    }
  }
}
layer {
  name: "elt_c_1"
  type: "Eltwise"
  bottom: "res_c"
  bottom: "conv_c_1_2"
  top: "elt_c_1"
  eltwise_param {
    operation: SUM
  }
}
layer {
  name: "bn_d_1_1"
  type: "BatchNorm"
  bottom: "elt_a_1"
  top: "bn_d_1_1"
  param {
    lr_mult: 0
  }
  param {
    lr_mult: 0
  }
  param {
    lr_mult: 0
  }
  batch_norm_param {
    use_global_stats: false
  }
}
layer {
  name: "sc_d_1_1"
  type: "Scale"
  bottom: "bn_d_1_1"
  top: "sc_d_1_1"
  scale_param {
    bias_term: true
  }
}
layer {
  name: "relu_d_1_1"
  type: "ReLU"
  bottom: "sc_d_1_1"
  top: "relu_d_1_1"
}
layer {
  name: "conv_d_1_1"
  type: "Convolution"
  bottom: "relu_d_1_1"
  top: "conv_d_1_1"
  param {
    lr_mult: 1
    decay_mult: 1
  }
  param {
    lr_mult: 2
    decay_mult: 1
  }
  convolution_param {
    num_output: 128
    pad: 1
    kernel_size: 3
    stride: 2
    weight_filler {
      type: "msra"
    }
    bias_filler {
      type: "constant"
    }
  }
}
layer {
  name: "bn_d_1_2"
  type: "BatchNorm"
  bottom: "conv_d_1_1"
  top: "bn_d_1_2"
  param {
    lr_mult: 0
  }
  param {
    lr_mult: 0
  }
  param {
    lr_mult: 0
  }
  batch_norm_param {
    use_global_stats: false
  }
}
layer {
  name: "sc_d_1_2"
  type: "Scale"
  bottom: "bn_d_1_2"
  top: "sc_d_1_2"
  scale_param {
    bias_term: true
  }
}
layer {
  name: "relu_d_1_2"
  type: "ReLU"
  bottom: "sc_d_1_2"
  top: "relu_d_1_2"
}
layer {
  name: "conv_d_1_2"
  type: "Convolution"
  bottom: "relu_d_1_2"
  top: "conv_d_1_2"
  param {
    lr_mult: 1
    decay_mult: 1
  }
  param {
    lr_mult: 2
    decay_mult: 1
  }
  convolution_param {
    num_output: 128
    pad: 1
    kernel_size: 3
    stride: 1
    weight_filler {
      type: "msra"
    }
    bias_filler {
      type: "constant"
    }
  }
}
layer {
  name: "res_d"
  type: "Convolution"
  bottom: "elt_a_1"
  top: "res_d"
  param {
    lr_mult: 1
    decay_mult: 1
  }
  param {
    lr_mult: 2
    decay_mult: 1
  }
  convolution_param {
    num_output: 128
    pad: 0
    kernel_size: 1
    stride: 2
    weight_filler {
      type: "msra"
    }
    bias_filler {
      type: "constant"
    }
  }
}
layer {
  name: "elt_d_1"
  type: "Eltwise"
  bottom: "res_d"
  bottom: "conv_d_1_2"
  top: "elt_d_1"
  eltwise_param {
    operation: SUM
  }
}
layer {
  name: "bn_f_1_1"
  type: "BatchNorm"
  bottom: "elt_b_1"
  top: "bn_f_1_1"
  param {
    lr_mult: 0
  }
  param {
    lr_mult: 0
  }
  param {
    lr_mult: 0
  }
  batch_norm_param {
    use_global_stats: false
  }
}
layer {
  name: "sc_f_1_1"
  type: "Scale"
  bottom: "bn_f_1_1"
  top: "sc_f_1_1"
  scale_param {
    bias_term: true
  }
}
layer {
  name: "relu_f_1_1"
  type: "ReLU"
  bottom: "sc_f_1_1"
  top: "relu_f_1_1"
}
layer {
  name: "conv_f_1_1"
  type: "Convolution"
  bottom: "relu_f_1_1"
  top: "conv_f_1_1"
  param {
    lr_mult: 1
    decay_mult: 1
  }
  param {
    lr_mult: 2
    decay_mult: 1
  }
  convolution_param {
    num_output: 128
    pad: 1
    kernel_size: 3
    stride: 2
    weight_filler {
      type: "msra"
    }
    bias_filler {
      type: "constant"
    }
  }
}
layer {
  name: "bn_f_1_2"
  type: "BatchNorm"
  bottom: "conv_f_1_1"
  top: "bn_f_1_2"
  param {
    lr_mult: 0
  }
  param {
    lr_mult: 0
  }
  param {
    lr_mult: 0
  }
  batch_norm_param {
    use_global_stats: false
  }
}
layer {
  name: "sc_f_1_2"
  type: "Scale"
  bottom: "bn_f_1_2"
  top: "sc_f_1_2"
  scale_param {
    bias_term: true
  }
}
layer {
  name: "relu_f_1_2"
  type: "ReLU"
  bottom: "sc_f_1_2"
  top: "relu_f_1_2"
}
layer {
  name: "conv_f_1_2"
  type: "Convolution"
  bottom: "relu_f_1_2"
  top: "conv_f_1_2"
  param {
    lr_mult: 1
    decay_mult: 1
  }
  param {
    lr_mult: 2
    decay_mult: 1
  }
  convolution_param {
    num_output: 128
    pad: 1
    kernel_size: 3
    stride: 1
    weight_filler {
      type: "msra"
    }
    bias_filler {
      type: "constant"
    }
  }
}
layer {
  name: "res_f"
  type: "Convolution"
  bottom: "elt_b_1"
  top: "res_f"
  param {
    lr_mult: 1
    decay_mult: 1
  }
  param {
    lr_mult: 2
    decay_mult: 1
  }
  convolution_param {
    num_output: 128
    pad: 0
    kernel_size: 1
    stride: 2
    weight_filler {
      type: "msra"
    }
    bias_filler {
      type: "constant"
    }
  }
}
layer {
  name: "elt_f_1"
  type: "Eltwise"
  bottom: "res_f"
  bottom: "conv_f_1_2"
  top: "elt_f_1"
  eltwise_param {
    operation: SUM
  }
}
layer {
  name: "bn_g_1_1"
  type: "BatchNorm"
  bottom: "elt_b_1"
  top: "bn_g_1_1"
  param {
    lr_mult: 0
  }
  param {
    lr_mult: 0
  }
  param {
    lr_mult: 0
  }
  batch_norm_param {
    use_global_stats: false
  }
}
layer {
  name: "sc_g_1_1"
  type: "Scale"
  bottom: "bn_g_1_1"
  top: "sc_g_1_1"
  scale_param {
    bias_term: true
  }
}
layer {
  name: "relu_g_1_1"
  type: "ReLU"
  bottom: "sc_g_1_1"
  top: "relu_g_1_1"
}
layer {
  name: "conv_g_1_1"
  type: "Convolution"
  bottom: "relu_g_1_1"
  top: "conv_g_1_1"
  param {
    lr_mult: 1
    decay_mult: 1
  }
  param {
    lr_mult: 2
    decay_mult: 1
  }
  convolution_param {
    num_output: 128
    pad: 1
    kernel_size: 3
    stride: 2
    weight_filler {
      type: "msra"
    }
    bias_filler {
      type: "constant"
    }
  }
}
layer {
  name: "bn_g_1_2"
  type: "BatchNorm"
  bottom: "conv_g_1_1"
  top: "bn_g_1_2"
  param {
    lr_mult: 0
  }
  param {
    lr_mult: 0
  }
  param {
    lr_mult: 0
  }
  batch_norm_param {
    use_global_stats: false
  }
}
layer {
  name: "sc_g_1_2"
  type: "Scale"
  bottom: "bn_g_1_2"
  top: "sc_g_1_2"
  scale_param {
    bias_term: true
  }
}
layer {
  name: "relu_g_1_2"
  type: "ReLU"
  bottom: "sc_g_1_2"
  top: "relu_g_1_2"
}
layer {
  name: "conv_g_1_2"
  type: "Convolution"
  bottom: "relu_g_1_2"
  top: "conv_g_1_2"
  param {
    lr_mult: 1
    decay_mult: 1
  }
  param {
    lr_mult: 2
    decay_mult: 1
  }
  convolution_param {
    num_output: 128
    pad: 1
    kernel_size: 3
    stride: 1
    weight_filler {
      type: "msra"
    }
    bias_filler {
      type: "constant"
    }
  }
}
layer {
  name: "res_g"
  type: "Convolution"
  bottom: "elt_b_1"
  top: "res_g"
  param {
    lr_mult: 1
    decay_mult: 1
  }
  param {
    lr_mult: 2
    decay_mult: 1
  }
  convolution_param {
    num_output: 128
    pad: 0
    kernel_size: 1
    stride: 2
    weight_filler {
      type: "msra"
    }
    bias_filler {
      type: "constant"
    }
  }
}
layer {
  name: "elt_g_1"
  type: "Eltwise"
  bottom: "res_g"
  bottom: "conv_g_1_2"
  top: "elt_g_1"
  eltwise_param {
    operation: SUM
  }
}
layer {
  name: "bn_h_1_1"
  type: "BatchNorm"
  bottom: "elt_c_1"
  top: "bn_h_1_1"
  param {
    lr_mult: 0
  }
  param {
    lr_mult: 0
  }
  param {
    lr_mult: 0
  }
  batch_norm_param {
    use_global_stats: false
  }
}
layer {
  name: "sc_h_1_1"
  type: "Scale"
  bottom: "bn_h_1_1"
  top: "sc_h_1_1"
  scale_param {
    bias_term: true
  }
}
layer {
  name: "relu_h_1_1"
  type: "ReLU"
  bottom: "sc_h_1_1"
  top: "relu_h_1_1"
}
layer {
  name: "conv_h_1_1"
  type: "Convolution"
  bottom: "relu_h_1_1"
  top: "conv_h_1_1"
  param {
    lr_mult: 1
    decay_mult: 1
  }
  param {
    lr_mult: 2
    decay_mult: 1
  }
  convolution_param {
    num_output: 128
    pad: 1
    kernel_size: 3
    stride: 2
    weight_filler {
      type: "msra"
    }
    bias_filler {
      type: "constant"
    }
  }
}
layer {
  name: "bn_h_1_2"
  type: "BatchNorm"
  bottom: "conv_h_1_1"
  top: "bn_h_1_2"
  param {
    lr_mult: 0
  }
  param {
    lr_mult: 0
  }
  param {
    lr_mult: 0
  }
  batch_norm_param {
    use_global_stats: false
  }
}
layer {
  name: "sc_h_1_2"
  type: "Scale"
  bottom: "bn_h_1_2"
  top: "sc_h_1_2"
  scale_param {
    bias_term: true
  }
}
layer {
  name: "relu_h_1_2"
  type: "ReLU"
  bottom: "sc_h_1_2"
  top: "relu_h_1_2"
}
layer {
  name: "conv_h_1_2"
  type: "Convolution"
  bottom: "relu_h_1_2"
  top: "conv_h_1_2"
  param {
    lr_mult: 1
    decay_mult: 1
  }
  param {
    lr_mult: 2
    decay_mult: 1
  }
  convolution_param {
    num_output: 128
    pad: 1
    kernel_size: 3
    stride: 1
    weight_filler {
      type: "msra"
    }
    bias_filler {
      type: "constant"
    }
  }
}
layer {
  name: "res_h"
  type: "Convolution"
  bottom: "elt_c_1"
  top: "res_h"
  param {
    lr_mult: 1
    decay_mult: 1
  }
  param {
    lr_mult: 2
    decay_mult: 1
  }
  convolution_param {
    num_output: 128
    pad: 0
    kernel_size: 1
    stride: 2
    weight_filler {
      type: "msra"
    }
    bias_filler {
      type: "constant"
    }
  }
}
layer {
  name: "elt_h_1"
  type: "Eltwise"
  bottom: "res_h"
  bottom: "conv_h_1_2"
  top: "elt_h_1"
  eltwise_param {
    operation: SUM
  }
}
layer {
  name: "bn_i_1_1"
  type: "BatchNorm"
  bottom: "elt_c_1"
  top: "bn_i_1_1"
  param {
    lr_mult: 0
  }
  param {
    lr_mult: 0
  }
  param {
    lr_mult: 0
  }
  batch_norm_param {
    use_global_stats: false
  }
}
layer {
  name: "sc_i_1_1"
  type: "Scale"
  bottom: "bn_i_1_1"
  top: "sc_i_1_1"
  scale_param {
    bias_term: true
  }
}
layer {
  name: "relu_i_1_1"
  type: "ReLU"
  bottom: "sc_i_1_1"
  top: "relu_i_1_1"
}
layer {
  name: "conv_i_1_1"
  type: "Convolution"
  bottom: "relu_i_1_1"
  top: "conv_i_1_1"
  param {
    lr_mult: 1
    decay_mult: 1
  }
  param {
    lr_mult: 2
    decay_mult: 1
  }
  convolution_param {
    num_output: 128
    pad: 1
    kernel_size: 3
    stride: 2
    weight_filler {
      type: "msra"
    }
    bias_filler {
      type: "constant"
    }
  }
}
layer {
  name: "bn_i_1_2"
  type: "BatchNorm"
  bottom: "conv_i_1_1"
  top: "bn_i_1_2"
  param {
    lr_mult: 0
  }
  param {
    lr_mult: 0
  }
  param {
    lr_mult: 0
  }
  batch_norm_param {
    use_global_stats: false
  }
}
layer {
  name: "sc_i_1_2"
  type: "Scale"
  bottom: "bn_i_1_2"
  top: "sc_i_1_2"
  scale_param {
    bias_term: true
  }
}
layer {
  name: "relu_i_1_2"
  type: "ReLU"
  bottom: "sc_i_1_2"
  top: "relu_i_1_2"
}
layer {
  name: "conv_i_1_2"
  type: "Convolution"
  bottom: "relu_i_1_2"
  top: "conv_i_1_2"
  param {
    lr_mult: 1
    decay_mult: 1
  }
  param {
    lr_mult: 2
    decay_mult: 1
  }
  convolution_param {
    num_output: 128
    pad: 1
    kernel_size: 3
    stride: 1
    weight_filler {
      type: "msra"
    }
    bias_filler {
      type: "constant"
    }
  }
}
layer {
  name: "res_i"
  type: "Convolution"
  bottom: "elt_c_1"
  top: "res_i"
  param {
    lr_mult: 1
    decay_mult: 1
  }
  param {
    lr_mult: 2
    decay_mult: 1
  }
  convolution_param {
    num_output: 128
    pad: 0
    kernel_size: 1
    stride: 2
    weight_filler {
      type: "msra"
    }
    bias_filler {
      type: "constant"
    }
  }
}
layer {
  name: "elt_i_1"
  type: "Eltwise"
  bottom: "res_i"
  bottom: "conv_i_1_2"
  top: "elt_i_1"
  eltwise_param {
    operation: SUM
  }
}
layer {
  name: "elt_d_f"
  type: "Eltwise"
  bottom: "elt_d_1"
  bottom: "elt_f_1"
  top: "elt_d_f"
  eltwise_param {
    operation: SUM
  }
}
layer {
  name: "elt_g_i"
  type: "Eltwise"
  bottom: "elt_g_1"
  bottom: "elt_i_1"
  top: "elt_g_i"
  eltwise_param {
    operation: SUM
  }
}
layer {
  name: "bn_j_1_1"
  type: "BatchNorm"
  bottom: "elt_d_f"
  top: "bn_j_1_1"
  param {
    lr_mult: 0
  }
  param {
    lr_mult: 0
  }
  param {
    lr_mult: 0
  }
  batch_norm_param {
    use_global_stats: false
  }
}
layer {
  name: "sc_j_1_1"
  type: "Scale"
  bottom: "bn_j_1_1"
  top: "sc_j_1_1"
  scale_param {
    bias_term: true
  }
}
layer {
  name: "relu_j_1_1"
  type: "ReLU"
  bottom: "sc_j_1_1"
  top: "relu_j_1_1"
}
layer {
  name: "conv_j_1_1"
  type: "Convolution"
  bottom: "relu_j_1_1"
  top: "conv_j_1_1"
  param {
    lr_mult: 1
    decay_mult: 1
  }
  param {
    lr_mult: 2
    decay_mult: 1
  }
  convolution_param {
    num_output: 256
    pad: 1
    kernel_size: 3
    stride: 2
    weight_filler {
      type: "msra"
    }
    bias_filler {
      type: "constant"
    }
  }
}
layer {
  name: "bn_j_1_2"
  type: "BatchNorm"
  bottom: "conv_j_1_1"
  top: "bn_j_1_2"
  param {
    lr_mult: 0
  }
  param {
    lr_mult: 0
  }
  param {
    lr_mult: 0
  }
  batch_norm_param {
    use_global_stats: false
  }
}
layer {
  name: "sc_j_1_2"
  type: "Scale"
  bottom: "bn_j_1_2"
  top: "sc_j_1_2"
  scale_param {
    bias_term: true
  }
}
layer {
  name: "relu_j_1_2"
  type: "ReLU"
  bottom: "sc_j_1_2"
  top: "relu_j_1_2"
}
layer {
  name: "conv_j_1_2"
  type: "Convolution"
  bottom: "relu_j_1_2"
  top: "conv_j_1_2"
  param {
    lr_mult: 1
    decay_mult: 1
  }
  param {
    lr_mult: 2
    decay_mult: 1
  }
  convolution_param {
    num_output: 256
    pad: 1
    kernel_size: 3
    stride: 1
    weight_filler {
      type: "msra"
    }
    bias_filler {
      type: "constant"
    }
  }
}
layer {
  name: "res_j"
  type: "Convolution"
  bottom: "elt_d_f"
  top: "res_j"
  param {
    lr_mult: 1
    decay_mult: 1
  }
  param {
    lr_mult: 2
    decay_mult: 1
  }
  convolution_param {
    num_output: 256
    pad: 0
    kernel_size: 1
    stride: 2
    weight_filler {
      type: "msra"
    }
    bias_filler {
      type: "constant"
    }
  }
}
layer {
  name: "elt_j_1"
  type: "Eltwise"
  bottom: "res_j"
  bottom: "conv_j_1_2"
  top: "elt_j_1"
  eltwise_param {
    operation: SUM
  }
}
layer {
  name: "bn_e_1_1"
  type: "BatchNorm"
  bottom: "elt_a_1"
  top: "bn_e_1_1"
  param {
    lr_mult: 0
  }
  param {
    lr_mult: 0
  }
  param {
    lr_mult: 0
  }
  batch_norm_param {
    use_global_stats: false
  }
}
layer {
  name: "sc_e_1_1"
  type: "Scale"
  bottom: "bn_e_1_1"
  top: "sc_e_1_1"
  scale_param {
    bias_term: true
  }
}
layer {
  name: "relu_e_1_1"
  type: "ReLU"
  bottom: "sc_e_1_1"
  top: "relu_e_1_1"
}
layer {
  name: "conv_e_1_1"
  type: "Convolution"
  bottom: "relu_e_1_1"
  top: "conv_e_1_1"
  param {
    lr_mult: 1
    decay_mult: 1
  }
  param {
    lr_mult: 2
    decay_mult: 1
  }
  convolution_param {
    num_output: 128
    pad: 1
    kernel_size: 3
    stride: 2
    weight_filler {
      type: "msra"
    }
    bias_filler {
      type: "constant"
    }
  }
}
layer {
  name: "bn_e_1_2"
  type: "BatchNorm"
  bottom: "conv_e_1_1"
  top: "bn_e_1_2"
  param {
    lr_mult: 0
  }
  param {
    lr_mult: 0
  }
  param {
    lr_mult: 0
  }
  batch_norm_param {
    use_global_stats: false
  }
}
layer {
  name: "sc_e_1_2"
  type: "Scale"
  bottom: "bn_e_1_2"
  top: "sc_e_1_2"
  scale_param {
    bias_term: true
  }
}
layer {
  name: "relu_e_1_2"
  type: "ReLU"
  bottom: "sc_e_1_2"
  top: "relu_e_1_2"
}
layer {
  name: "conv_e_1_2"
  type: "Convolution"
  bottom: "relu_e_1_2"
  top: "conv_e_1_2"
  param {
    lr_mult: 1
    decay_mult: 1
  }
  param {
    lr_mult: 2
    decay_mult: 1
  }
  convolution_param {
    num_output: 128
    pad: 1
    kernel_size: 3
    stride: 1
    weight_filler {
      type: "msra"
    }
    bias_filler {
      type: "constant"
    }
  }
}
layer {
  name: "res_e"
  type: "Convolution"
  bottom: "elt_a_1"
  top: "res_e"
  param {
    lr_mult: 1
    decay_mult: 1
  }
  param {
    lr_mult: 2
    decay_mult: 1
  }
  convolution_param {
    num_output: 128
    pad: 0
    kernel_size: 1
    stride: 2
    weight_filler {
      type: "msra"
    }
    bias_filler {
      type: "constant"
    }
  }
}
layer {
  name: "elt_e_1"
  type: "Eltwise"
  bottom: "res_e"
  bottom: "conv_e_1_2"
  top: "elt_e_1"
  eltwise_param {
    operation: SUM
  }
}
layer {
  name: "elt_e_h"
  type: "Eltwise"
  bottom: "elt_e_1"
  bottom: "elt_h_1"
  top: "elt_e_h"
  eltwise_param {
    operation: SUM
  }
}
layer {
  name: "bn_k_1_1"
  type: "BatchNorm"
  bottom: "elt_e_h"
  top: "bn_k_1_1"
  param {
    lr_mult: 0
  }
  param {
    lr_mult: 0
  }
  param {
    lr_mult: 0
  }
  batch_norm_param {
    use_global_stats: false
  }
}
layer {
  name: "sc_k_1_1"
  type: "Scale"
  bottom: "bn_k_1_1"
  top: "sc_k_1_1"
  scale_param {
    bias_term: true
  }
}
layer {
  name: "relu_k_1_1"
  type: "ReLU"
  bottom: "sc_k_1_1"
  top: "relu_k_1_1"
}
layer {
  name: "conv_k_1_1"
  type: "Convolution"
  bottom: "relu_k_1_1"
  top: "conv_k_1_1"
  param {
    lr_mult: 1
    decay_mult: 1
  }
  param {
    lr_mult: 2
    decay_mult: 1
  }
  convolution_param {
    num_output: 256
    pad: 1
    kernel_size: 3
    stride: 2
    weight_filler {
      type: "msra"
    }
    bias_filler {
      type: "constant"
    }
  }
}
layer {
  name: "bn_k_1_2"
  type: "BatchNorm"
  bottom: "conv_k_1_1"
  top: "bn_k_1_2"
  param {
    lr_mult: 0
  }
  param {
    lr_mult: 0
  }
  param {
    lr_mult: 0
  }
  batch_norm_param {
    use_global_stats: false
  }
}
layer {
  name: "sc_k_1_2"
  type: "Scale"
  bottom: "bn_k_1_2"
  top: "sc_k_1_2"
  scale_param {
    bias_term: true
  }
}
layer {
  name: "relu_k_1_2"
  type: "ReLU"
  bottom: "sc_k_1_2"
  top: "relu_k_1_2"
}
layer {
  name: "conv_k_1_2"
  type: "Convolution"
  bottom: "relu_k_1_2"
  top: "conv_k_1_2"
  param {
    lr_mult: 1
    decay_mult: 1
  }
  param {
    lr_mult: 2
    decay_mult: 1
  }
  convolution_param {
    num_output: 256
    pad: 1
    kernel_size: 3
    stride: 1
    weight_filler {
      type: "msra"
    }
    bias_filler {
      type: "constant"
    }
  }
}
layer {
  name: "res_k"
  type: "Convolution"
  bottom: "elt_e_h"
  top: "res_k"
  param {
    lr_mult: 1
    decay_mult: 1
  }
  param {
    lr_mult: 2
    decay_mult: 1
  }
  convolution_param {
    num_output: 256
    pad: 0
    kernel_size: 1
    stride: 2
    weight_filler {
      type: "msra"
    }
    bias_filler {
      type: "constant"
    }
  }
}
layer {
  name: "elt_k_1"
  type: "Eltwise"
  bottom: "res_k"
  bottom: "conv_k_1_2"
  top: "elt_k_1"
  eltwise_param {
    operation: SUM
  }
}
layer {
  name: "bn_l_1_1"
  type: "BatchNorm"
  bottom: "elt_g_i"
  top: "bn_l_1_1"
  param {
    lr_mult: 0
  }
  param {
    lr_mult: 0
  }
  param {
    lr_mult: 0
  }
  batch_norm_param {
    use_global_stats: false
  }
}
layer {
  name: "sc_l_1_1"
  type: "Scale"
  bottom: "bn_l_1_1"
  top: "sc_l_1_1"
  scale_param {
    bias_term: true
  }
}
layer {
  name: "relu_l_1_1"
  type: "ReLU"
  bottom: "sc_l_1_1"
  top: "relu_l_1_1"
}
layer {
  name: "conv_l_1_1"
  type: "Convolution"
  bottom: "relu_l_1_1"
  top: "conv_l_1_1"
  param {
    lr_mult: 1
    decay_mult: 1
  }
  param {
    lr_mult: 2
    decay_mult: 1
  }
  convolution_param {
    num_output: 256
    pad: 1
    kernel_size: 3
    stride: 2
    weight_filler {
      type: "msra"
    }
    bias_filler {
      type: "constant"
    }
  }
}
layer {
  name: "bn_l_1_2"
  type: "BatchNorm"
  bottom: "conv_l_1_1"
  top: "bn_l_1_2"
  param {
    lr_mult: 0
  }
  param {
    lr_mult: 0
  }
  param {
    lr_mult: 0
  }
  batch_norm_param {
    use_global_stats: false
  }
}
layer {
  name: "sc_l_1_2"
  type: "Scale"
  bottom: "bn_l_1_2"
  top: "sc_l_1_2"
  scale_param {
    bias_term: true
  }
}
layer {
  name: "relu_l_1_2"
  type: "ReLU"
  bottom: "sc_l_1_2"
  top: "relu_l_1_2"
}
layer {
  name: "conv_l_1_2"
  type: "Convolution"
  bottom: "relu_l_1_2"
  top: "conv_l_1_2"
  param {
    lr_mult: 1
    decay_mult: 1
  }
  param {
    lr_mult: 2
    decay_mult: 1
  }
  convolution_param {
    num_output: 256
    pad: 1
    kernel_size: 3
    stride: 1
    weight_filler {
      type: "msra"
    }
    bias_filler {
      type: "constant"
    }
  }
}
layer {
  name: "res_l"
  type: "Convolution"
  bottom: "elt_g_i"
  top: "res_l"
  param {
    lr_mult: 1
    decay_mult: 1
  }
  param {
    lr_mult: 2
    decay_mult: 1
  }
  convolution_param {
    num_output: 256
    pad: 0
    kernel_size: 1
    stride: 2
    weight_filler {
      type: "msra"
    }
    bias_filler {
      type: "constant"
    }
  }
}
layer {
  name: "elt_l_1"
  type: "Eltwise"
  bottom: "res_l"
  bottom: "conv_l_1_2"
  top: "elt_l_1"
  eltwise_param {
    operation: SUM
  }
}
layer {
  name: "concat_j_k_l"
  type: "Concat"
  bottom: "elt_j_1"
  bottom: "elt_k_1"
  bottom: "elt_l_1"
  top: "elt_j_k_l"
  concat_param {
    axis: 1
  }
}
layer {
  name: "bn_m_1_1"
  type: "BatchNorm"
  bottom: "elt_j_k_l"
  top: "bn_m_1_1"
  param {
    lr_mult: 0
  }
  param {
    lr_mult: 0
  }
  param {
    lr_mult: 0
  }
  batch_norm_param {
    use_global_stats: false
  }
}
layer {
  name: "sc_m_1_1"
  type: "Scale"
  bottom: "bn_m_1_1"
  top: "sc_m_1_1"
  scale_param {
    bias_term: true
  }
}
layer {
  name: "relu_m_1_1"
  type: "ReLU"
  bottom: "sc_m_1_1"
  top: "relu_m_1_1"
}
layer {
  name: "gap"
  type: "Pooling"
  bottom: "relu_m_1_1"
  top: "gap"
  pooling_param {
    pool: AVE
    kernel_size: 8
    stride: 1
  }
}
layer {
  name: "ip1"
  type: "InnerProduct"
  bottom: "gap"
  top: "ip1"
  param {
    lr_mult: 1
    decay_mult: 1
  }
  param {
    lr_mult: 2
    decay_mult: 0
  }
  inner_product_param {
    num_output: 10
    weight_filler {
      type: "msra"
    }
    bias_filler {
      type: "constant"
      value: 0
    }
  }
}
layer {
  name: "loss"
  type: "SoftmaxWithLoss"
  bottom: "ip1"
  bottom: "label"
  top: "loss"
}
I0621 23:28:58.353909 27723 layer_factory.hpp:77] Creating layer resnet
I0621 23:28:58.354523 27723 net.cpp:91] Creating Layer resnet
I0621 23:28:58.354542 27723 net.cpp:399] resnet -> data
I0621 23:28:58.354600 27723 net.cpp:399] resnet -> label
I0621 23:28:58.354624 27723 data_transformer.cpp:25] Loading mean file from: /home/takeki/caffe/examples/cifar10/mean.binaryproto
I0621 23:28:58.360081 27766 db_lmdb.cpp:35] Opened lmdb /home/takeki/caffe/examples/cifar10/cifar10_train_lmdb
I0621 23:28:58.369132 27723 data_layer.cpp:41] output data size: 128,3,32,32
I0621 23:28:58.372462 27723 net.cpp:141] Setting up resnet
I0621 23:28:58.372499 27723 net.cpp:148] Top shape: 128 3 32 32 (393216)
I0621 23:28:58.372508 27723 net.cpp:148] Top shape: 128 (128)
I0621 23:28:58.372512 27723 net.cpp:156] Memory required for data: 1573376
I0621 23:28:58.372522 27723 layer_factory.hpp:77] Creating layer conv0
I0621 23:28:58.372565 27723 net.cpp:91] Creating Layer conv0
I0621 23:28:58.372575 27723 net.cpp:425] conv0 <- data
I0621 23:28:58.372591 27723 net.cpp:399] conv0 -> conv0
I0621 23:28:58.556618 27723 net.cpp:141] Setting up conv0
I0621 23:28:58.556679 27723 net.cpp:148] Top shape: 128 16 32 32 (2097152)
I0621 23:28:58.556695 27723 net.cpp:156] Memory required for data: 9961984
I0621 23:28:58.556749 27723 layer_factory.hpp:77] Creating layer conv0_conv0_0_split
I0621 23:28:58.556782 27723 net.cpp:91] Creating Layer conv0_conv0_0_split
I0621 23:28:58.556814 27723 net.cpp:425] conv0_conv0_0_split <- conv0
I0621 23:28:58.556835 27723 net.cpp:399] conv0_conv0_0_split -> conv0_conv0_0_split_0
I0621 23:28:58.556871 27723 net.cpp:399] conv0_conv0_0_split -> conv0_conv0_0_split_1
I0621 23:28:58.556900 27723 net.cpp:399] conv0_conv0_0_split -> conv0_conv0_0_split_2
I0621 23:28:58.556926 27723 net.cpp:399] conv0_conv0_0_split -> conv0_conv0_0_split_3
I0621 23:28:58.556951 27723 net.cpp:399] conv0_conv0_0_split -> conv0_conv0_0_split_4
I0621 23:28:58.556980 27723 net.cpp:399] conv0_conv0_0_split -> conv0_conv0_0_split_5
I0621 23:28:58.557180 27723 net.cpp:141] Setting up conv0_conv0_0_split
I0621 23:28:58.557210 27723 net.cpp:148] Top shape: 128 16 32 32 (2097152)
I0621 23:28:58.557235 27723 net.cpp:148] Top shape: 128 16 32 32 (2097152)
I0621 23:28:58.557252 27723 net.cpp:148] Top shape: 128 16 32 32 (2097152)
I0621 23:28:58.557266 27723 net.cpp:148] Top shape: 128 16 32 32 (2097152)
I0621 23:28:58.557281 27723 net.cpp:148] Top shape: 128 16 32 32 (2097152)
I0621 23:28:58.557296 27723 net.cpp:148] Top shape: 128 16 32 32 (2097152)
I0621 23:28:58.557312 27723 net.cpp:156] Memory required for data: 60293632
I0621 23:28:58.557324 27723 layer_factory.hpp:77] Creating layer bn_a_1_1
I0621 23:28:58.557348 27723 net.cpp:91] Creating Layer bn_a_1_1
I0621 23:28:58.557361 27723 net.cpp:425] bn_a_1_1 <- conv0_conv0_0_split_0
I0621 23:28:58.557380 27723 net.cpp:399] bn_a_1_1 -> bn_a_1_1
I0621 23:28:58.557822 27723 net.cpp:141] Setting up bn_a_1_1
I0621 23:28:58.557852 27723 net.cpp:148] Top shape: 128 16 32 32 (2097152)
I0621 23:28:58.557865 27723 net.cpp:156] Memory required for data: 68682240
I0621 23:28:58.557900 27723 layer_factory.hpp:77] Creating layer sc_a_1_1
I0621 23:28:58.557930 27723 net.cpp:91] Creating Layer sc_a_1_1
I0621 23:28:58.557947 27723 net.cpp:425] sc_a_1_1 <- bn_a_1_1
I0621 23:28:58.557965 27723 net.cpp:399] sc_a_1_1 -> sc_a_1_1
I0621 23:28:58.558066 27723 layer_factory.hpp:77] Creating layer sc_a_1_1
I0621 23:28:58.558328 27723 net.cpp:141] Setting up sc_a_1_1
I0621 23:28:58.558358 27723 net.cpp:148] Top shape: 128 16 32 32 (2097152)
I0621 23:28:58.558370 27723 net.cpp:156] Memory required for data: 77070848
I0621 23:28:58.558393 27723 layer_factory.hpp:77] Creating layer relu_a_1_1
I0621 23:28:58.558413 27723 net.cpp:91] Creating Layer relu_a_1_1
I0621 23:28:58.558426 27723 net.cpp:425] relu_a_1_1 <- sc_a_1_1
I0621 23:28:58.558444 27723 net.cpp:399] relu_a_1_1 -> relu_a_1_1
I0621 23:28:58.559290 27723 net.cpp:141] Setting up relu_a_1_1
I0621 23:28:58.559330 27723 net.cpp:148] Top shape: 128 16 32 32 (2097152)
I0621 23:28:58.559353 27723 net.cpp:156] Memory required for data: 85459456
I0621 23:28:58.559424 27723 layer_factory.hpp:77] Creating layer conv_a_1_1
I0621 23:28:58.559465 27723 net.cpp:91] Creating Layer conv_a_1_1
I0621 23:28:58.559490 27723 net.cpp:425] conv_a_1_1 <- relu_a_1_1
I0621 23:28:58.559512 27723 net.cpp:399] conv_a_1_1 -> conv_a_1_1
I0621 23:28:58.563051 27723 net.cpp:141] Setting up conv_a_1_1
I0621 23:28:58.563094 27723 net.cpp:148] Top shape: 128 64 32 32 (8388608)
I0621 23:28:58.563118 27723 net.cpp:156] Memory required for data: 119013888
I0621 23:28:58.563148 27723 layer_factory.hpp:77] Creating layer bn_a_1_2
I0621 23:28:58.563174 27723 net.cpp:91] Creating Layer bn_a_1_2
I0621 23:28:58.563195 27723 net.cpp:425] bn_a_1_2 <- conv_a_1_1
I0621 23:28:58.563215 27723 net.cpp:399] bn_a_1_2 -> bn_a_1_2
I0621 23:28:58.563652 27723 net.cpp:141] Setting up bn_a_1_2
I0621 23:28:58.563681 27723 net.cpp:148] Top shape: 128 64 32 32 (8388608)
I0621 23:28:58.563694 27723 net.cpp:156] Memory required for data: 152568320
I0621 23:28:58.563721 27723 layer_factory.hpp:77] Creating layer sc_a_1_2
I0621 23:28:58.563748 27723 net.cpp:91] Creating Layer sc_a_1_2
I0621 23:28:58.563766 27723 net.cpp:425] sc_a_1_2 <- bn_a_1_2
I0621 23:28:58.563784 27723 net.cpp:399] sc_a_1_2 -> sc_a_1_2
I0621 23:28:58.563890 27723 layer_factory.hpp:77] Creating layer sc_a_1_2
I0621 23:28:58.564139 27723 net.cpp:141] Setting up sc_a_1_2
I0621 23:28:58.564167 27723 net.cpp:148] Top shape: 128 64 32 32 (8388608)
I0621 23:28:58.564180 27723 net.cpp:156] Memory required for data: 186122752
I0621 23:28:58.564201 27723 layer_factory.hpp:77] Creating layer relu_a_1_2
I0621 23:28:58.564221 27723 net.cpp:91] Creating Layer relu_a_1_2
I0621 23:28:58.564237 27723 net.cpp:425] relu_a_1_2 <- sc_a_1_2
I0621 23:28:58.564263 27723 net.cpp:399] relu_a_1_2 -> relu_a_1_2
I0621 23:28:58.564916 27723 net.cpp:141] Setting up relu_a_1_2
I0621 23:28:58.564954 27723 net.cpp:148] Top shape: 128 64 32 32 (8388608)
I0621 23:28:58.564980 27723 net.cpp:156] Memory required for data: 219677184
I0621 23:28:58.564993 27723 layer_factory.hpp:77] Creating layer conv_a_1_2
I0621 23:28:58.565023 27723 net.cpp:91] Creating Layer conv_a_1_2
I0621 23:28:58.565042 27723 net.cpp:425] conv_a_1_2 <- relu_a_1_2
I0621 23:28:58.565064 27723 net.cpp:399] conv_a_1_2 -> conv_a_1_2
I0621 23:28:58.570209 27723 net.cpp:141] Setting up conv_a_1_2
I0621 23:28:58.570248 27723 net.cpp:148] Top shape: 128 64 32 32 (8388608)
I0621 23:28:58.570268 27723 net.cpp:156] Memory required for data: 253231616
I0621 23:28:58.570289 27723 layer_factory.hpp:77] Creating layer res_a
I0621 23:28:58.570325 27723 net.cpp:91] Creating Layer res_a
I0621 23:28:58.570341 27723 net.cpp:425] res_a <- conv0_conv0_0_split_1
I0621 23:28:58.570363 27723 net.cpp:399] res_a -> res_a
I0621 23:28:58.572401 27723 net.cpp:141] Setting up res_a
I0621 23:28:58.572438 27723 net.cpp:148] Top shape: 128 64 32 32 (8388608)
I0621 23:28:58.572451 27723 net.cpp:156] Memory required for data: 286786048
I0621 23:28:58.572485 27723 layer_factory.hpp:77] Creating layer elt_a_1
I0621 23:28:58.572515 27723 net.cpp:91] Creating Layer elt_a_1
I0621 23:28:58.572535 27723 net.cpp:425] elt_a_1 <- res_a
I0621 23:28:58.572551 27723 net.cpp:425] elt_a_1 <- conv_a_1_2
I0621 23:28:58.572576 27723 net.cpp:399] elt_a_1 -> elt_a_1
I0621 23:28:58.572649 27723 net.cpp:141] Setting up elt_a_1
I0621 23:28:58.572675 27723 net.cpp:148] Top shape: 128 64 32 32 (8388608)
I0621 23:28:58.572690 27723 net.cpp:156] Memory required for data: 320340480
I0621 23:28:58.572702 27723 layer_factory.hpp:77] Creating layer elt_a_1_elt_a_1_0_split
I0621 23:28:58.572720 27723 net.cpp:91] Creating Layer elt_a_1_elt_a_1_0_split
I0621 23:28:58.572732 27723 net.cpp:425] elt_a_1_elt_a_1_0_split <- elt_a_1
I0621 23:28:58.572749 27723 net.cpp:399] elt_a_1_elt_a_1_0_split -> elt_a_1_elt_a_1_0_split_0
I0621 23:28:58.572769 27723 net.cpp:399] elt_a_1_elt_a_1_0_split -> elt_a_1_elt_a_1_0_split_1
I0621 23:28:58.572788 27723 net.cpp:399] elt_a_1_elt_a_1_0_split -> elt_a_1_elt_a_1_0_split_2
I0621 23:28:58.572810 27723 net.cpp:399] elt_a_1_elt_a_1_0_split -> elt_a_1_elt_a_1_0_split_3
I0621 23:28:58.572984 27723 net.cpp:141] Setting up elt_a_1_elt_a_1_0_split
I0621 23:28:58.573012 27723 net.cpp:148] Top shape: 128 64 32 32 (8388608)
I0621 23:28:58.573027 27723 net.cpp:148] Top shape: 128 64 32 32 (8388608)
I0621 23:28:58.573040 27723 net.cpp:148] Top shape: 128 64 32 32 (8388608)
I0621 23:28:58.573053 27723 net.cpp:148] Top shape: 128 64 32 32 (8388608)
I0621 23:28:58.573065 27723 net.cpp:156] Memory required for data: 454558208
I0621 23:28:58.573076 27723 layer_factory.hpp:77] Creating layer bn_b_1_1
I0621 23:28:58.573096 27723 net.cpp:91] Creating Layer bn_b_1_1
I0621 23:28:58.573109 27723 net.cpp:425] bn_b_1_1 <- conv0_conv0_0_split_2
I0621 23:28:58.573127 27723 net.cpp:399] bn_b_1_1 -> bn_b_1_1
I0621 23:28:58.573535 27723 net.cpp:141] Setting up bn_b_1_1
I0621 23:28:58.573564 27723 net.cpp:148] Top shape: 128 16 32 32 (2097152)
I0621 23:28:58.573575 27723 net.cpp:156] Memory required for data: 462946816
I0621 23:28:58.573597 27723 layer_factory.hpp:77] Creating layer sc_b_1_1
I0621 23:28:58.573628 27723 net.cpp:91] Creating Layer sc_b_1_1
I0621 23:28:58.573642 27723 net.cpp:425] sc_b_1_1 <- bn_b_1_1
I0621 23:28:58.573658 27723 net.cpp:399] sc_b_1_1 -> sc_b_1_1
I0621 23:28:58.573753 27723 layer_factory.hpp:77] Creating layer sc_b_1_1
I0621 23:28:58.573994 27723 net.cpp:141] Setting up sc_b_1_1
I0621 23:28:58.574020 27723 net.cpp:148] Top shape: 128 16 32 32 (2097152)
I0621 23:28:58.574033 27723 net.cpp:156] Memory required for data: 471335424
I0621 23:28:58.574051 27723 layer_factory.hpp:77] Creating layer relu_b_1_1
I0621 23:28:58.574079 27723 net.cpp:91] Creating Layer relu_b_1_1
I0621 23:28:58.574095 27723 net.cpp:425] relu_b_1_1 <- sc_b_1_1
I0621 23:28:58.574111 27723 net.cpp:399] relu_b_1_1 -> relu_b_1_1
I0621 23:28:58.574518 27723 net.cpp:141] Setting up relu_b_1_1
I0621 23:28:58.574550 27723 net.cpp:148] Top shape: 128 16 32 32 (2097152)
I0621 23:28:58.574568 27723 net.cpp:156] Memory required for data: 479724032
I0621 23:28:58.574580 27723 layer_factory.hpp:77] Creating layer conv_b_1_1
I0621 23:28:58.574607 27723 net.cpp:91] Creating Layer conv_b_1_1
I0621 23:28:58.574623 27723 net.cpp:425] conv_b_1_1 <- relu_b_1_1
I0621 23:28:58.574643 27723 net.cpp:399] conv_b_1_1 -> conv_b_1_1
I0621 23:28:58.577196 27723 net.cpp:141] Setting up conv_b_1_1
I0621 23:28:58.577234 27723 net.cpp:148] Top shape: 128 64 32 32 (8388608)
I0621 23:28:58.577249 27723 net.cpp:156] Memory required for data: 513278464
I0621 23:28:58.577270 27723 layer_factory.hpp:77] Creating layer bn_b_1_2
I0621 23:28:58.577293 27723 net.cpp:91] Creating Layer bn_b_1_2
I0621 23:28:58.577309 27723 net.cpp:425] bn_b_1_2 <- conv_b_1_1
I0621 23:28:58.577329 27723 net.cpp:399] bn_b_1_2 -> bn_b_1_2
I0621 23:28:58.577745 27723 net.cpp:141] Setting up bn_b_1_2
I0621 23:28:58.577772 27723 net.cpp:148] Top shape: 128 64 32 32 (8388608)
I0621 23:28:58.577785 27723 net.cpp:156] Memory required for data: 546832896
I0621 23:28:58.577816 27723 layer_factory.hpp:77] Creating layer sc_b_1_2
I0621 23:28:58.577837 27723 net.cpp:91] Creating Layer sc_b_1_2
I0621 23:28:58.577852 27723 net.cpp:425] sc_b_1_2 <- bn_b_1_2
I0621 23:28:58.577869 27723 net.cpp:399] sc_b_1_2 -> sc_b_1_2
I0621 23:28:58.577962 27723 layer_factory.hpp:77] Creating layer sc_b_1_2
I0621 23:28:58.578203 27723 net.cpp:141] Setting up sc_b_1_2
I0621 23:28:58.578229 27723 net.cpp:148] Top shape: 128 64 32 32 (8388608)
I0621 23:28:58.578241 27723 net.cpp:156] Memory required for data: 580387328
I0621 23:28:58.578263 27723 layer_factory.hpp:77] Creating layer relu_b_1_2
I0621 23:28:58.578280 27723 net.cpp:91] Creating Layer relu_b_1_2
I0621 23:28:58.578292 27723 net.cpp:425] relu_b_1_2 <- sc_b_1_2
I0621 23:28:58.578310 27723 net.cpp:399] relu_b_1_2 -> relu_b_1_2
I0621 23:28:58.578533 27723 net.cpp:141] Setting up relu_b_1_2
I0621 23:28:58.578548 27723 net.cpp:148] Top shape: 128 64 32 32 (8388608)
I0621 23:28:58.578554 27723 net.cpp:156] Memory required for data: 613941760
I0621 23:28:58.578560 27723 layer_factory.hpp:77] Creating layer conv_b_1_2
I0621 23:28:58.578593 27723 net.cpp:91] Creating Layer conv_b_1_2
I0621 23:28:58.578603 27723 net.cpp:425] conv_b_1_2 <- relu_b_1_2
I0621 23:28:58.578613 27723 net.cpp:399] conv_b_1_2 -> conv_b_1_2
I0621 23:28:58.582118 27723 net.cpp:141] Setting up conv_b_1_2
I0621 23:28:58.582151 27723 net.cpp:148] Top shape: 128 64 32 32 (8388608)
I0621 23:28:58.582164 27723 net.cpp:156] Memory required for data: 647496192
I0621 23:28:58.582181 27723 layer_factory.hpp:77] Creating layer res_b
I0621 23:28:58.582207 27723 net.cpp:91] Creating Layer res_b
I0621 23:28:58.582221 27723 net.cpp:425] res_b <- conv0_conv0_0_split_3
I0621 23:28:58.582240 27723 net.cpp:399] res_b -> res_b
I0621 23:28:58.584167 27723 net.cpp:141] Setting up res_b
I0621 23:28:58.584199 27723 net.cpp:148] Top shape: 128 64 32 32 (8388608)
I0621 23:28:58.584211 27723 net.cpp:156] Memory required for data: 681050624
I0621 23:28:58.584239 27723 layer_factory.hpp:77] Creating layer elt_b_1
I0621 23:28:58.584256 27723 net.cpp:91] Creating Layer elt_b_1
I0621 23:28:58.584269 27723 net.cpp:425] elt_b_1 <- res_b
I0621 23:28:58.584281 27723 net.cpp:425] elt_b_1 <- conv_b_1_2
I0621 23:28:58.584296 27723 net.cpp:399] elt_b_1 -> elt_b_1
I0621 23:28:58.584359 27723 net.cpp:141] Setting up elt_b_1
I0621 23:28:58.584383 27723 net.cpp:148] Top shape: 128 64 32 32 (8388608)
I0621 23:28:58.584393 27723 net.cpp:156] Memory required for data: 714605056
I0621 23:28:58.584404 27723 layer_factory.hpp:77] Creating layer elt_b_1_elt_b_1_0_split
I0621 23:28:58.584419 27723 net.cpp:91] Creating Layer elt_b_1_elt_b_1_0_split
I0621 23:28:58.584432 27723 net.cpp:425] elt_b_1_elt_b_1_0_split <- elt_b_1
I0621 23:28:58.584447 27723 net.cpp:399] elt_b_1_elt_b_1_0_split -> elt_b_1_elt_b_1_0_split_0
I0621 23:28:58.584465 27723 net.cpp:399] elt_b_1_elt_b_1_0_split -> elt_b_1_elt_b_1_0_split_1
I0621 23:28:58.584484 27723 net.cpp:399] elt_b_1_elt_b_1_0_split -> elt_b_1_elt_b_1_0_split_2
I0621 23:28:58.584503 27723 net.cpp:399] elt_b_1_elt_b_1_0_split -> elt_b_1_elt_b_1_0_split_3
I0621 23:28:58.584616 27723 net.cpp:141] Setting up elt_b_1_elt_b_1_0_split
I0621 23:28:58.584637 27723 net.cpp:148] Top shape: 128 64 32 32 (8388608)
I0621 23:28:58.584650 27723 net.cpp:148] Top shape: 128 64 32 32 (8388608)
I0621 23:28:58.584664 27723 net.cpp:148] Top shape: 128 64 32 32 (8388608)
I0621 23:28:58.584676 27723 net.cpp:148] Top shape: 128 64 32 32 (8388608)
I0621 23:28:58.584686 27723 net.cpp:156] Memory required for data: 848822784
I0621 23:28:58.584695 27723 layer_factory.hpp:77] Creating layer bn_c_1_1
I0621 23:28:58.584712 27723 net.cpp:91] Creating Layer bn_c_1_1
I0621 23:28:58.584725 27723 net.cpp:425] bn_c_1_1 <- conv0_conv0_0_split_4
I0621 23:28:58.584741 27723 net.cpp:399] bn_c_1_1 -> bn_c_1_1
I0621 23:28:58.585093 27723 net.cpp:141] Setting up bn_c_1_1
I0621 23:28:58.585115 27723 net.cpp:148] Top shape: 128 16 32 32 (2097152)
I0621 23:28:58.585127 27723 net.cpp:156] Memory required for data: 857211392
I0621 23:28:58.585149 27723 layer_factory.hpp:77] Creating layer sc_c_1_1
I0621 23:28:58.585167 27723 net.cpp:91] Creating Layer sc_c_1_1
I0621 23:28:58.585180 27723 net.cpp:425] sc_c_1_1 <- bn_c_1_1
I0621 23:28:58.585196 27723 net.cpp:399] sc_c_1_1 -> sc_c_1_1
I0621 23:28:58.585276 27723 layer_factory.hpp:77] Creating layer sc_c_1_1
I0621 23:28:58.585494 27723 net.cpp:141] Setting up sc_c_1_1
I0621 23:28:58.585517 27723 net.cpp:148] Top shape: 128 16 32 32 (2097152)
I0621 23:28:58.585527 27723 net.cpp:156] Memory required for data: 865600000
I0621 23:28:58.585546 27723 layer_factory.hpp:77] Creating layer relu_c_1_1
I0621 23:28:58.585562 27723 net.cpp:91] Creating Layer relu_c_1_1
I0621 23:28:58.585577 27723 net.cpp:425] relu_c_1_1 <- sc_c_1_1
I0621 23:28:58.585590 27723 net.cpp:399] relu_c_1_1 -> relu_c_1_1
I0621 23:28:58.586138 27723 net.cpp:141] Setting up relu_c_1_1
I0621 23:28:58.586168 27723 net.cpp:148] Top shape: 128 16 32 32 (2097152)
I0621 23:28:58.586179 27723 net.cpp:156] Memory required for data: 873988608
I0621 23:28:58.586189 27723 layer_factory.hpp:77] Creating layer conv_c_1_1
I0621 23:28:58.586241 27723 net.cpp:91] Creating Layer conv_c_1_1
I0621 23:28:58.586257 27723 net.cpp:425] conv_c_1_1 <- relu_c_1_1
I0621 23:28:58.586275 27723 net.cpp:399] conv_c_1_1 -> conv_c_1_1
I0621 23:28:58.588377 27723 net.cpp:141] Setting up conv_c_1_1
I0621 23:28:58.588418 27723 net.cpp:148] Top shape: 128 64 32 32 (8388608)
I0621 23:28:58.588429 27723 net.cpp:156] Memory required for data: 907543040
I0621 23:28:58.588448 27723 layer_factory.hpp:77] Creating layer bn_c_1_2
I0621 23:28:58.588466 27723 net.cpp:91] Creating Layer bn_c_1_2
I0621 23:28:58.588477 27723 net.cpp:425] bn_c_1_2 <- conv_c_1_1
I0621 23:28:58.588495 27723 net.cpp:399] bn_c_1_2 -> bn_c_1_2
I0621 23:28:58.588872 27723 net.cpp:141] Setting up bn_c_1_2
I0621 23:28:58.588896 27723 net.cpp:148] Top shape: 128 64 32 32 (8388608)
I0621 23:28:58.588907 27723 net.cpp:156] Memory required for data: 941097472
I0621 23:28:58.588927 27723 layer_factory.hpp:77] Creating layer sc_c_1_2
I0621 23:28:58.588943 27723 net.cpp:91] Creating Layer sc_c_1_2
I0621 23:28:58.588954 27723 net.cpp:425] sc_c_1_2 <- bn_c_1_2
I0621 23:28:58.588968 27723 net.cpp:399] sc_c_1_2 -> sc_c_1_2
I0621 23:28:58.589049 27723 layer_factory.hpp:77] Creating layer sc_c_1_2
I0621 23:28:58.589280 27723 net.cpp:141] Setting up sc_c_1_2
I0621 23:28:58.589304 27723 net.cpp:148] Top shape: 128 64 32 32 (8388608)
I0621 23:28:58.589314 27723 net.cpp:156] Memory required for data: 974651904
I0621 23:28:58.589331 27723 layer_factory.hpp:77] Creating layer relu_c_1_2
I0621 23:28:58.589349 27723 net.cpp:91] Creating Layer relu_c_1_2
I0621 23:28:58.589364 27723 net.cpp:425] relu_c_1_2 <- sc_c_1_2
I0621 23:28:58.589378 27723 net.cpp:399] relu_c_1_2 -> relu_c_1_2
I0621 23:28:58.589929 27723 net.cpp:141] Setting up relu_c_1_2
I0621 23:28:58.589961 27723 net.cpp:148] Top shape: 128 64 32 32 (8388608)
I0621 23:28:58.589970 27723 net.cpp:156] Memory required for data: 1008206336
I0621 23:28:58.589982 27723 layer_factory.hpp:77] Creating layer conv_c_1_2
I0621 23:28:58.590011 27723 net.cpp:91] Creating Layer conv_c_1_2
I0621 23:28:58.590024 27723 net.cpp:425] conv_c_1_2 <- relu_c_1_2
I0621 23:28:58.590042 27723 net.cpp:399] conv_c_1_2 -> conv_c_1_2
I0621 23:28:58.593701 27723 net.cpp:141] Setting up conv_c_1_2
I0621 23:28:58.593732 27723 net.cpp:148] Top shape: 128 64 32 32 (8388608)
I0621 23:28:58.593744 27723 net.cpp:156] Memory required for data: 1041760768
I0621 23:28:58.593760 27723 layer_factory.hpp:77] Creating layer res_c
I0621 23:28:58.593785 27723 net.cpp:91] Creating Layer res_c
I0621 23:28:58.593796 27723 net.cpp:425] res_c <- conv0_conv0_0_split_5
I0621 23:28:58.593813 27723 net.cpp:399] res_c -> res_c
I0621 23:28:58.595516 27723 net.cpp:141] Setting up res_c
I0621 23:28:58.595547 27723 net.cpp:148] Top shape: 128 64 32 32 (8388608)
I0621 23:28:58.595558 27723 net.cpp:156] Memory required for data: 1075315200
I0621 23:28:58.595576 27723 layer_factory.hpp:77] Creating layer elt_c_1
I0621 23:28:58.595592 27723 net.cpp:91] Creating Layer elt_c_1
I0621 23:28:58.595603 27723 net.cpp:425] elt_c_1 <- res_c
I0621 23:28:58.595615 27723 net.cpp:425] elt_c_1 <- conv_c_1_2
I0621 23:28:58.595630 27723 net.cpp:399] elt_c_1 -> elt_c_1
I0621 23:28:58.595686 27723 net.cpp:141] Setting up elt_c_1
I0621 23:28:58.595708 27723 net.cpp:148] Top shape: 128 64 32 32 (8388608)
I0621 23:28:58.595717 27723 net.cpp:156] Memory required for data: 1108869632
I0621 23:28:58.595727 27723 layer_factory.hpp:77] Creating layer elt_c_1_elt_c_1_0_split
I0621 23:28:58.595742 27723 net.cpp:91] Creating Layer elt_c_1_elt_c_1_0_split
I0621 23:28:58.595759 27723 net.cpp:425] elt_c_1_elt_c_1_0_split <- elt_c_1
I0621 23:28:58.595773 27723 net.cpp:399] elt_c_1_elt_c_1_0_split -> elt_c_1_elt_c_1_0_split_0
I0621 23:28:58.595798 27723 net.cpp:399] elt_c_1_elt_c_1_0_split -> elt_c_1_elt_c_1_0_split_1
I0621 23:28:58.595819 27723 net.cpp:399] elt_c_1_elt_c_1_0_split -> elt_c_1_elt_c_1_0_split_2
I0621 23:28:58.595837 27723 net.cpp:399] elt_c_1_elt_c_1_0_split -> elt_c_1_elt_c_1_0_split_3
I0621 23:28:58.595949 27723 net.cpp:141] Setting up elt_c_1_elt_c_1_0_split
I0621 23:28:58.595996 27723 net.cpp:148] Top shape: 128 64 32 32 (8388608)
I0621 23:28:58.596012 27723 net.cpp:148] Top shape: 128 64 32 32 (8388608)
I0621 23:28:58.596024 27723 net.cpp:148] Top shape: 128 64 32 32 (8388608)
I0621 23:28:58.596035 27723 net.cpp:148] Top shape: 128 64 32 32 (8388608)
I0621 23:28:58.596043 27723 net.cpp:156] Memory required for data: 1243087360
I0621 23:28:58.596053 27723 layer_factory.hpp:77] Creating layer bn_d_1_1
I0621 23:28:58.596070 27723 net.cpp:91] Creating Layer bn_d_1_1
I0621 23:28:58.596082 27723 net.cpp:425] bn_d_1_1 <- elt_a_1_elt_a_1_0_split_0
I0621 23:28:58.596097 27723 net.cpp:399] bn_d_1_1 -> bn_d_1_1
I0621 23:28:58.596459 27723 net.cpp:141] Setting up bn_d_1_1
I0621 23:28:58.596482 27723 net.cpp:148] Top shape: 128 64 32 32 (8388608)
I0621 23:28:58.596492 27723 net.cpp:156] Memory required for data: 1276641792
I0621 23:28:58.596510 27723 layer_factory.hpp:77] Creating layer sc_d_1_1
I0621 23:28:58.596529 27723 net.cpp:91] Creating Layer sc_d_1_1
I0621 23:28:58.596541 27723 net.cpp:425] sc_d_1_1 <- bn_d_1_1
I0621 23:28:58.596555 27723 net.cpp:399] sc_d_1_1 -> sc_d_1_1
I0621 23:28:58.596637 27723 layer_factory.hpp:77] Creating layer sc_d_1_1
I0621 23:28:58.596856 27723 net.cpp:141] Setting up sc_d_1_1
I0621 23:28:58.596878 27723 net.cpp:148] Top shape: 128 64 32 32 (8388608)
I0621 23:28:58.596887 27723 net.cpp:156] Memory required for data: 1310196224
I0621 23:28:58.596904 27723 layer_factory.hpp:77] Creating layer relu_d_1_1
I0621 23:28:58.596917 27723 net.cpp:91] Creating Layer relu_d_1_1
I0621 23:28:58.596930 27723 net.cpp:425] relu_d_1_1 <- sc_d_1_1
I0621 23:28:58.596946 27723 net.cpp:399] relu_d_1_1 -> relu_d_1_1
I0621 23:28:58.597291 27723 net.cpp:141] Setting up relu_d_1_1
I0621 23:28:58.597317 27723 net.cpp:148] Top shape: 128 64 32 32 (8388608)
I0621 23:28:58.597329 27723 net.cpp:156] Memory required for data: 1343750656
I0621 23:28:58.597340 27723 layer_factory.hpp:77] Creating layer conv_d_1_1
I0621 23:28:58.597363 27723 net.cpp:91] Creating Layer conv_d_1_1
I0621 23:28:58.597376 27723 net.cpp:425] conv_d_1_1 <- relu_d_1_1
I0621 23:28:58.597393 27723 net.cpp:399] conv_d_1_1 -> conv_d_1_1
I0621 23:28:58.603713 27723 net.cpp:141] Setting up conv_d_1_1
I0621 23:28:58.603742 27723 net.cpp:148] Top shape: 128 128 16 16 (4194304)
I0621 23:28:58.603754 27723 net.cpp:156] Memory required for data: 1360527872
I0621 23:28:58.603770 27723 layer_factory.hpp:77] Creating layer bn_d_1_2
I0621 23:28:58.603785 27723 net.cpp:91] Creating Layer bn_d_1_2
I0621 23:28:58.603796 27723 net.cpp:425] bn_d_1_2 <- conv_d_1_1
I0621 23:28:58.603827 27723 net.cpp:399] bn_d_1_2 -> bn_d_1_2
I0621 23:28:58.604142 27723 net.cpp:141] Setting up bn_d_1_2
I0621 23:28:58.604161 27723 net.cpp:148] Top shape: 128 128 16 16 (4194304)
I0621 23:28:58.604169 27723 net.cpp:156] Memory required for data: 1377305088
I0621 23:28:58.604185 27723 layer_factory.hpp:77] Creating layer sc_d_1_2
I0621 23:28:58.604199 27723 net.cpp:91] Creating Layer sc_d_1_2
I0621 23:28:58.604207 27723 net.cpp:425] sc_d_1_2 <- bn_d_1_2
I0621 23:28:58.604223 27723 net.cpp:399] sc_d_1_2 -> sc_d_1_2
I0621 23:28:58.604286 27723 layer_factory.hpp:77] Creating layer sc_d_1_2
I0621 23:28:58.604461 27723 net.cpp:141] Setting up sc_d_1_2
I0621 23:28:58.604480 27723 net.cpp:148] Top shape: 128 128 16 16 (4194304)
I0621 23:28:58.604487 27723 net.cpp:156] Memory required for data: 1394082304
I0621 23:28:58.604501 27723 layer_factory.hpp:77] Creating layer relu_d_1_2
I0621 23:28:58.604512 27723 net.cpp:91] Creating Layer relu_d_1_2
I0621 23:28:58.604527 27723 net.cpp:425] relu_d_1_2 <- sc_d_1_2
I0621 23:28:58.604539 27723 net.cpp:399] relu_d_1_2 -> relu_d_1_2
I0621 23:28:58.604787 27723 net.cpp:141] Setting up relu_d_1_2
I0621 23:28:58.604804 27723 net.cpp:148] Top shape: 128 128 16 16 (4194304)
I0621 23:28:58.604811 27723 net.cpp:156] Memory required for data: 1410859520
I0621 23:28:58.604817 27723 layer_factory.hpp:77] Creating layer conv_d_1_2
I0621 23:28:58.604832 27723 net.cpp:91] Creating Layer conv_d_1_2
I0621 23:28:58.604857 27723 net.cpp:425] conv_d_1_2 <- relu_d_1_2
I0621 23:28:58.604894 27723 net.cpp:399] conv_d_1_2 -> conv_d_1_2
I0621 23:28:58.613992 27723 net.cpp:141] Setting up conv_d_1_2
I0621 23:28:58.614022 27723 net.cpp:148] Top shape: 128 128 16 16 (4194304)
I0621 23:28:58.614032 27723 net.cpp:156] Memory required for data: 1427636736
I0621 23:28:58.614048 27723 layer_factory.hpp:77] Creating layer res_d
I0621 23:28:58.614099 27723 net.cpp:91] Creating Layer res_d
I0621 23:28:58.614112 27723 net.cpp:425] res_d <- elt_a_1_elt_a_1_0_split_1
I0621 23:28:58.614126 27723 net.cpp:399] res_d -> res_d
I0621 23:28:58.616137 27723 net.cpp:141] Setting up res_d
I0621 23:28:58.616164 27723 net.cpp:148] Top shape: 128 128 16 16 (4194304)
I0621 23:28:58.616173 27723 net.cpp:156] Memory required for data: 1444413952
I0621 23:28:58.616206 27723 layer_factory.hpp:77] Creating layer elt_d_1
I0621 23:28:58.616238 27723 net.cpp:91] Creating Layer elt_d_1
I0621 23:28:58.616252 27723 net.cpp:425] elt_d_1 <- res_d
I0621 23:28:58.616263 27723 net.cpp:425] elt_d_1 <- conv_d_1_2
I0621 23:28:58.616278 27723 net.cpp:399] elt_d_1 -> elt_d_1
I0621 23:28:58.616324 27723 net.cpp:141] Setting up elt_d_1
I0621 23:28:58.616343 27723 net.cpp:148] Top shape: 128 128 16 16 (4194304)
I0621 23:28:58.616349 27723 net.cpp:156] Memory required for data: 1461191168
I0621 23:28:58.616358 27723 layer_factory.hpp:77] Creating layer bn_f_1_1
I0621 23:28:58.616379 27723 net.cpp:91] Creating Layer bn_f_1_1
I0621 23:28:58.616390 27723 net.cpp:425] bn_f_1_1 <- elt_b_1_elt_b_1_0_split_0
I0621 23:28:58.616402 27723 net.cpp:399] bn_f_1_1 -> bn_f_1_1
I0621 23:28:58.616721 27723 net.cpp:141] Setting up bn_f_1_1
I0621 23:28:58.616740 27723 net.cpp:148] Top shape: 128 64 32 32 (8388608)
I0621 23:28:58.616749 27723 net.cpp:156] Memory required for data: 1494745600
I0621 23:28:58.616765 27723 layer_factory.hpp:77] Creating layer sc_f_1_1
I0621 23:28:58.616778 27723 net.cpp:91] Creating Layer sc_f_1_1
I0621 23:28:58.616791 27723 net.cpp:425] sc_f_1_1 <- bn_f_1_1
I0621 23:28:58.616802 27723 net.cpp:399] sc_f_1_1 -> sc_f_1_1
I0621 23:28:58.616873 27723 layer_factory.hpp:77] Creating layer sc_f_1_1
I0621 23:28:58.617050 27723 net.cpp:141] Setting up sc_f_1_1
I0621 23:28:58.617063 27723 net.cpp:148] Top shape: 128 64 32 32 (8388608)
I0621 23:28:58.617069 27723 net.cpp:156] Memory required for data: 1528300032
I0621 23:28:58.617077 27723 layer_factory.hpp:77] Creating layer relu_f_1_1
I0621 23:28:58.617089 27723 net.cpp:91] Creating Layer relu_f_1_1
I0621 23:28:58.617097 27723 net.cpp:425] relu_f_1_1 <- sc_f_1_1
I0621 23:28:58.617105 27723 net.cpp:399] relu_f_1_1 -> relu_f_1_1
I0621 23:28:58.617511 27723 net.cpp:141] Setting up relu_f_1_1
I0621 23:28:58.617533 27723 net.cpp:148] Top shape: 128 64 32 32 (8388608)
I0621 23:28:58.617542 27723 net.cpp:156] Memory required for data: 1561854464
I0621 23:28:58.617550 27723 layer_factory.hpp:77] Creating layer conv_f_1_1
I0621 23:28:58.617571 27723 net.cpp:91] Creating Layer conv_f_1_1
I0621 23:28:58.617584 27723 net.cpp:425] conv_f_1_1 <- relu_f_1_1
I0621 23:28:58.617601 27723 net.cpp:399] conv_f_1_1 -> conv_f_1_1
I0621 23:28:58.623142 27723 net.cpp:141] Setting up conv_f_1_1
I0621 23:28:58.623174 27723 net.cpp:148] Top shape: 128 128 16 16 (4194304)
I0621 23:28:58.623191 27723 net.cpp:156] Memory required for data: 1578631680
I0621 23:28:58.623208 27723 layer_factory.hpp:77] Creating layer bn_f_1_2
I0621 23:28:58.623245 27723 net.cpp:91] Creating Layer bn_f_1_2
I0621 23:28:58.623256 27723 net.cpp:425] bn_f_1_2 <- conv_f_1_1
I0621 23:28:58.623270 27723 net.cpp:399] bn_f_1_2 -> bn_f_1_2
I0621 23:28:58.623581 27723 net.cpp:141] Setting up bn_f_1_2
I0621 23:28:58.623601 27723 net.cpp:148] Top shape: 128 128 16 16 (4194304)
I0621 23:28:58.623610 27723 net.cpp:156] Memory required for data: 1595408896
I0621 23:28:58.623625 27723 layer_factory.hpp:77] Creating layer sc_f_1_2
I0621 23:28:58.623638 27723 net.cpp:91] Creating Layer sc_f_1_2
I0621 23:28:58.623649 27723 net.cpp:425] sc_f_1_2 <- bn_f_1_2
I0621 23:28:58.623661 27723 net.cpp:399] sc_f_1_2 -> sc_f_1_2
I0621 23:28:58.623766 27723 layer_factory.hpp:77] Creating layer sc_f_1_2
I0621 23:28:58.623946 27723 net.cpp:141] Setting up sc_f_1_2
I0621 23:28:58.623965 27723 net.cpp:148] Top shape: 128 128 16 16 (4194304)
I0621 23:28:58.623973 27723 net.cpp:156] Memory required for data: 1612186112
I0621 23:28:58.623986 27723 layer_factory.hpp:77] Creating layer relu_f_1_2
I0621 23:28:58.624012 27723 net.cpp:91] Creating Layer relu_f_1_2
I0621 23:28:58.624023 27723 net.cpp:425] relu_f_1_2 <- sc_f_1_2
I0621 23:28:58.624035 27723 net.cpp:399] relu_f_1_2 -> relu_f_1_2
I0621 23:28:58.624641 27723 net.cpp:141] Setting up relu_f_1_2
I0621 23:28:58.624666 27723 net.cpp:148] Top shape: 128 128 16 16 (4194304)
I0621 23:28:58.624675 27723 net.cpp:156] Memory required for data: 1628963328
I0621 23:28:58.624685 27723 layer_factory.hpp:77] Creating layer conv_f_1_2
I0621 23:28:58.624707 27723 net.cpp:91] Creating Layer conv_f_1_2
I0621 23:28:58.624734 27723 net.cpp:425] conv_f_1_2 <- relu_f_1_2
I0621 23:28:58.624752 27723 net.cpp:399] conv_f_1_2 -> conv_f_1_2
I0621 23:28:58.632982 27723 net.cpp:141] Setting up conv_f_1_2
I0621 23:28:58.633008 27723 net.cpp:148] Top shape: 128 128 16 16 (4194304)
I0621 23:28:58.633016 27723 net.cpp:156] Memory required for data: 1645740544
I0621 23:28:58.633034 27723 layer_factory.hpp:77] Creating layer res_f
I0621 23:28:58.633056 27723 net.cpp:91] Creating Layer res_f
I0621 23:28:58.633069 27723 net.cpp:425] res_f <- elt_b_1_elt_b_1_0_split_1
I0621 23:28:58.633082 27723 net.cpp:399] res_f -> res_f
I0621 23:28:58.634873 27723 net.cpp:141] Setting up res_f
I0621 23:28:58.634899 27723 net.cpp:148] Top shape: 128 128 16 16 (4194304)
I0621 23:28:58.634908 27723 net.cpp:156] Memory required for data: 1662517760
I0621 23:28:58.634922 27723 layer_factory.hpp:77] Creating layer elt_f_1
I0621 23:28:58.634943 27723 net.cpp:91] Creating Layer elt_f_1
I0621 23:28:58.634953 27723 net.cpp:425] elt_f_1 <- res_f
I0621 23:28:58.634963 27723 net.cpp:425] elt_f_1 <- conv_f_1_2
I0621 23:28:58.634975 27723 net.cpp:399] elt_f_1 -> elt_f_1
I0621 23:28:58.635023 27723 net.cpp:141] Setting up elt_f_1
I0621 23:28:58.635041 27723 net.cpp:148] Top shape: 128 128 16 16 (4194304)
I0621 23:28:58.635048 27723 net.cpp:156] Memory required for data: 1679294976
I0621 23:28:58.635057 27723 layer_factory.hpp:77] Creating layer bn_g_1_1
I0621 23:28:58.635073 27723 net.cpp:91] Creating Layer bn_g_1_1
I0621 23:28:58.635085 27723 net.cpp:425] bn_g_1_1 <- elt_b_1_elt_b_1_0_split_2
I0621 23:28:58.635098 27723 net.cpp:399] bn_g_1_1 -> bn_g_1_1
I0621 23:28:58.635433 27723 net.cpp:141] Setting up bn_g_1_1
I0621 23:28:58.635453 27723 net.cpp:148] Top shape: 128 64 32 32 (8388608)
I0621 23:28:58.635462 27723 net.cpp:156] Memory required for data: 1712849408
I0621 23:28:58.635476 27723 layer_factory.hpp:77] Creating layer sc_g_1_1
I0621 23:28:58.635490 27723 net.cpp:91] Creating Layer sc_g_1_1
I0621 23:28:58.635499 27723 net.cpp:425] sc_g_1_1 <- bn_g_1_1
I0621 23:28:58.635510 27723 net.cpp:399] sc_g_1_1 -> sc_g_1_1
I0621 23:28:58.635581 27723 layer_factory.hpp:77] Creating layer sc_g_1_1
I0621 23:28:58.635781 27723 net.cpp:141] Setting up sc_g_1_1
I0621 23:28:58.635799 27723 net.cpp:148] Top shape: 128 64 32 32 (8388608)
I0621 23:28:58.635807 27723 net.cpp:156] Memory required for data: 1746403840
I0621 23:28:58.635820 27723 layer_factory.hpp:77] Creating layer relu_g_1_1
I0621 23:28:58.635835 27723 net.cpp:91] Creating Layer relu_g_1_1
I0621 23:28:58.635844 27723 net.cpp:425] relu_g_1_1 <- sc_g_1_1
I0621 23:28:58.635856 27723 net.cpp:399] relu_g_1_1 -> relu_g_1_1
I0621 23:28:58.636320 27723 net.cpp:141] Setting up relu_g_1_1
I0621 23:28:58.636346 27723 net.cpp:148] Top shape: 128 64 32 32 (8388608)
I0621 23:28:58.636355 27723 net.cpp:156] Memory required for data: 1779958272
I0621 23:28:58.636363 27723 layer_factory.hpp:77] Creating layer conv_g_1_1
I0621 23:28:58.636385 27723 net.cpp:91] Creating Layer conv_g_1_1
I0621 23:28:58.636399 27723 net.cpp:425] conv_g_1_1 <- relu_g_1_1
I0621 23:28:58.636412 27723 net.cpp:399] conv_g_1_1 -> conv_g_1_1
I0621 23:28:58.641845 27723 net.cpp:141] Setting up conv_g_1_1
I0621 23:28:58.641870 27723 net.cpp:148] Top shape: 128 128 16 16 (4194304)
I0621 23:28:58.641880 27723 net.cpp:156] Memory required for data: 1796735488
I0621 23:28:58.641893 27723 layer_factory.hpp:77] Creating layer bn_g_1_2
I0621 23:28:58.641911 27723 net.cpp:91] Creating Layer bn_g_1_2
I0621 23:28:58.641919 27723 net.cpp:425] bn_g_1_2 <- conv_g_1_1
I0621 23:28:58.641933 27723 net.cpp:399] bn_g_1_2 -> bn_g_1_2
I0621 23:28:58.642235 27723 net.cpp:141] Setting up bn_g_1_2
I0621 23:28:58.642253 27723 net.cpp:148] Top shape: 128 128 16 16 (4194304)
I0621 23:28:58.642261 27723 net.cpp:156] Memory required for data: 1813512704
I0621 23:28:58.642277 27723 layer_factory.hpp:77] Creating layer sc_g_1_2
I0621 23:28:58.642292 27723 net.cpp:91] Creating Layer sc_g_1_2
I0621 23:28:58.642302 27723 net.cpp:425] sc_g_1_2 <- bn_g_1_2
I0621 23:28:58.642313 27723 net.cpp:399] sc_g_1_2 -> sc_g_1_2
I0621 23:28:58.642379 27723 layer_factory.hpp:77] Creating layer sc_g_1_2
I0621 23:28:58.642557 27723 net.cpp:141] Setting up sc_g_1_2
I0621 23:28:58.642575 27723 net.cpp:148] Top shape: 128 128 16 16 (4194304)
I0621 23:28:58.642582 27723 net.cpp:156] Memory required for data: 1830289920
I0621 23:28:58.642595 27723 layer_factory.hpp:77] Creating layer relu_g_1_2
I0621 23:28:58.642606 27723 net.cpp:91] Creating Layer relu_g_1_2
I0621 23:28:58.642619 27723 net.cpp:425] relu_g_1_2 <- sc_g_1_2
I0621 23:28:58.642633 27723 net.cpp:399] relu_g_1_2 -> relu_g_1_2
I0621 23:28:58.642935 27723 net.cpp:141] Setting up relu_g_1_2
I0621 23:28:58.642957 27723 net.cpp:148] Top shape: 128 128 16 16 (4194304)
I0621 23:28:58.642966 27723 net.cpp:156] Memory required for data: 1847067136
I0621 23:28:58.642973 27723 layer_factory.hpp:77] Creating layer conv_g_1_2
I0621 23:28:58.642997 27723 net.cpp:91] Creating Layer conv_g_1_2
I0621 23:28:58.643007 27723 net.cpp:425] conv_g_1_2 <- relu_g_1_2
I0621 23:28:58.643020 27723 net.cpp:399] conv_g_1_2 -> conv_g_1_2
I0621 23:28:58.650956 27723 net.cpp:141] Setting up conv_g_1_2
I0621 23:28:58.650981 27723 net.cpp:148] Top shape: 128 128 16 16 (4194304)
I0621 23:28:58.650990 27723 net.cpp:156] Memory required for data: 1863844352
I0621 23:28:58.651003 27723 layer_factory.hpp:77] Creating layer res_g
I0621 23:28:58.651032 27723 net.cpp:91] Creating Layer res_g
I0621 23:28:58.651044 27723 net.cpp:425] res_g <- elt_b_1_elt_b_1_0_split_3
I0621 23:28:58.651060 27723 net.cpp:399] res_g -> res_g
I0621 23:28:58.652822 27723 net.cpp:141] Setting up res_g
I0621 23:28:58.652845 27723 net.cpp:148] Top shape: 128 128 16 16 (4194304)
I0621 23:28:58.652853 27723 net.cpp:156] Memory required for data: 1880621568
I0621 23:28:58.652866 27723 layer_factory.hpp:77] Creating layer elt_g_1
I0621 23:28:58.652881 27723 net.cpp:91] Creating Layer elt_g_1
I0621 23:28:58.652890 27723 net.cpp:425] elt_g_1 <- res_g
I0621 23:28:58.652900 27723 net.cpp:425] elt_g_1 <- conv_g_1_2
I0621 23:28:58.652911 27723 net.cpp:399] elt_g_1 -> elt_g_1
I0621 23:28:58.652954 27723 net.cpp:141] Setting up elt_g_1
I0621 23:28:58.652971 27723 net.cpp:148] Top shape: 128 128 16 16 (4194304)
I0621 23:28:58.652977 27723 net.cpp:156] Memory required for data: 1897398784
I0621 23:28:58.652986 27723 layer_factory.hpp:77] Creating layer bn_h_1_1
I0621 23:28:58.652997 27723 net.cpp:91] Creating Layer bn_h_1_1
I0621 23:28:58.653010 27723 net.cpp:425] bn_h_1_1 <- elt_c_1_elt_c_1_0_split_0
I0621 23:28:58.653025 27723 net.cpp:399] bn_h_1_1 -> bn_h_1_1
I0621 23:28:58.653333 27723 net.cpp:141] Setting up bn_h_1_1
I0621 23:28:58.653350 27723 net.cpp:148] Top shape: 128 64 32 32 (8388608)
I0621 23:28:58.653358 27723 net.cpp:156] Memory required for data: 1930953216
I0621 23:28:58.653373 27723 layer_factory.hpp:77] Creating layer sc_h_1_1
I0621 23:28:58.653393 27723 net.cpp:91] Creating Layer sc_h_1_1
I0621 23:28:58.653404 27723 net.cpp:425] sc_h_1_1 <- bn_h_1_1
I0621 23:28:58.653415 27723 net.cpp:399] sc_h_1_1 -> sc_h_1_1
I0621 23:28:58.653483 27723 layer_factory.hpp:77] Creating layer sc_h_1_1
I0621 23:28:58.653676 27723 net.cpp:141] Setting up sc_h_1_1
I0621 23:28:58.653723 27723 net.cpp:148] Top shape: 128 64 32 32 (8388608)
I0621 23:28:58.653733 27723 net.cpp:156] Memory required for data: 1964507648
I0621 23:28:58.653745 27723 layer_factory.hpp:77] Creating layer relu_h_1_1
I0621 23:28:58.653759 27723 net.cpp:91] Creating Layer relu_h_1_1
I0621 23:28:58.653767 27723 net.cpp:425] relu_h_1_1 <- sc_h_1_1
I0621 23:28:58.653781 27723 net.cpp:399] relu_h_1_1 -> relu_h_1_1
I0621 23:28:58.654072 27723 net.cpp:141] Setting up relu_h_1_1
I0621 23:28:58.654091 27723 net.cpp:148] Top shape: 128 64 32 32 (8388608)
I0621 23:28:58.654098 27723 net.cpp:156] Memory required for data: 1998062080
I0621 23:28:58.654106 27723 layer_factory.hpp:77] Creating layer conv_h_1_1
I0621 23:28:58.654129 27723 net.cpp:91] Creating Layer conv_h_1_1
I0621 23:28:58.654140 27723 net.cpp:425] conv_h_1_1 <- relu_h_1_1
I0621 23:28:58.654153 27723 net.cpp:399] conv_h_1_1 -> conv_h_1_1
I0621 23:28:58.659201 27723 net.cpp:141] Setting up conv_h_1_1
I0621 23:28:58.659226 27723 net.cpp:148] Top shape: 128 128 16 16 (4194304)
I0621 23:28:58.659235 27723 net.cpp:156] Memory required for data: 2014839296
I0621 23:28:58.659247 27723 layer_factory.hpp:77] Creating layer bn_h_1_2
I0621 23:28:58.659267 27723 net.cpp:91] Creating Layer bn_h_1_2
I0621 23:28:58.659281 27723 net.cpp:425] bn_h_1_2 <- conv_h_1_1
I0621 23:28:58.659296 27723 net.cpp:399] bn_h_1_2 -> bn_h_1_2
I0621 23:28:58.659597 27723 net.cpp:141] Setting up bn_h_1_2
I0621 23:28:58.659615 27723 net.cpp:148] Top shape: 128 128 16 16 (4194304)
I0621 23:28:58.659621 27723 net.cpp:156] Memory required for data: 2031616512
I0621 23:28:58.659636 27723 layer_factory.hpp:77] Creating layer sc_h_1_2
I0621 23:28:58.659647 27723 net.cpp:91] Creating Layer sc_h_1_2
I0621 23:28:58.659656 27723 net.cpp:425] sc_h_1_2 <- bn_h_1_2
I0621 23:28:58.659669 27723 net.cpp:399] sc_h_1_2 -> sc_h_1_2
I0621 23:28:58.659730 27723 layer_factory.hpp:77] Creating layer sc_h_1_2
I0621 23:28:58.659898 27723 net.cpp:141] Setting up sc_h_1_2
I0621 23:28:58.659915 27723 net.cpp:148] Top shape: 128 128 16 16 (4194304)
I0621 23:28:58.659922 27723 net.cpp:156] Memory required for data: 2048393728
I0621 23:28:58.659934 27723 layer_factory.hpp:77] Creating layer relu_h_1_2
I0621 23:28:58.659950 27723 net.cpp:91] Creating Layer relu_h_1_2
I0621 23:28:58.659960 27723 net.cpp:425] relu_h_1_2 <- sc_h_1_2
I0621 23:28:58.659970 27723 net.cpp:399] relu_h_1_2 -> relu_h_1_2
I0621 23:28:58.660398 27723 net.cpp:141] Setting up relu_h_1_2
I0621 23:28:58.660420 27723 net.cpp:148] Top shape: 128 128 16 16 (4194304)
I0621 23:28:58.660429 27723 net.cpp:156] Memory required for data: 2065170944
I0621 23:28:58.660436 27723 layer_factory.hpp:77] Creating layer conv_h_1_2
I0621 23:28:58.660456 27723 net.cpp:91] Creating Layer conv_h_1_2
I0621 23:28:58.660470 27723 net.cpp:425] conv_h_1_2 <- relu_h_1_2
I0621 23:28:58.660483 27723 net.cpp:399] conv_h_1_2 -> conv_h_1_2
I0621 23:28:58.667722 27723 net.cpp:141] Setting up conv_h_1_2
I0621 23:28:58.667745 27723 net.cpp:148] Top shape: 128 128 16 16 (4194304)
I0621 23:28:58.667753 27723 net.cpp:156] Memory required for data: 2081948160
I0621 23:28:58.667767 27723 layer_factory.hpp:77] Creating layer res_h
I0621 23:28:58.667794 27723 net.cpp:91] Creating Layer res_h
I0621 23:28:58.667804 27723 net.cpp:425] res_h <- elt_c_1_elt_c_1_0_split_1
I0621 23:28:58.667820 27723 net.cpp:399] res_h -> res_h
I0621 23:28:58.669389 27723 net.cpp:141] Setting up res_h
I0621 23:28:58.669411 27723 net.cpp:148] Top shape: 128 128 16 16 (4194304)
I0621 23:28:58.669420 27723 net.cpp:156] Memory required for data: 2098725376
I0621 23:28:58.669431 27723 layer_factory.hpp:77] Creating layer elt_h_1
I0621 23:28:58.669447 27723 net.cpp:91] Creating Layer elt_h_1
I0621 23:28:58.669456 27723 net.cpp:425] elt_h_1 <- res_h
I0621 23:28:58.669464 27723 net.cpp:425] elt_h_1 <- conv_h_1_2
I0621 23:28:58.669474 27723 net.cpp:399] elt_h_1 -> elt_h_1
I0621 23:28:58.669517 27723 net.cpp:141] Setting up elt_h_1
I0621 23:28:58.669533 27723 net.cpp:148] Top shape: 128 128 16 16 (4194304)
I0621 23:28:58.669564 27723 net.cpp:156] Memory required for data: 2115502592
I0621 23:28:58.669579 27723 layer_factory.hpp:77] Creating layer bn_i_1_1
I0621 23:28:58.669591 27723 net.cpp:91] Creating Layer bn_i_1_1
I0621 23:28:58.669600 27723 net.cpp:425] bn_i_1_1 <- elt_c_1_elt_c_1_0_split_2
I0621 23:28:58.669613 27723 net.cpp:399] bn_i_1_1 -> bn_i_1_1
I0621 23:28:58.669925 27723 net.cpp:141] Setting up bn_i_1_1
I0621 23:28:58.669942 27723 net.cpp:148] Top shape: 128 64 32 32 (8388608)
I0621 23:28:58.669950 27723 net.cpp:156] Memory required for data: 2149057024
I0621 23:28:58.669963 27723 layer_factory.hpp:77] Creating layer sc_i_1_1
I0621 23:28:58.669981 27723 net.cpp:91] Creating Layer sc_i_1_1
I0621 23:28:58.669992 27723 net.cpp:425] sc_i_1_1 <- bn_i_1_1
I0621 23:28:58.670002 27723 net.cpp:399] sc_i_1_1 -> sc_i_1_1
I0621 23:28:58.670069 27723 layer_factory.hpp:77] Creating layer sc_i_1_1
I0621 23:28:58.670254 27723 net.cpp:141] Setting up sc_i_1_1
I0621 23:28:58.670270 27723 net.cpp:148] Top shape: 128 64 32 32 (8388608)
I0621 23:28:58.670276 27723 net.cpp:156] Memory required for data: 2182611456
I0621 23:28:58.670289 27723 layer_factory.hpp:77] Creating layer relu_i_1_1
I0621 23:28:58.670298 27723 net.cpp:91] Creating Layer relu_i_1_1
I0621 23:28:58.670308 27723 net.cpp:425] relu_i_1_1 <- sc_i_1_1
I0621 23:28:58.670321 27723 net.cpp:399] relu_i_1_1 -> relu_i_1_1
I0621 23:28:58.670743 27723 net.cpp:141] Setting up relu_i_1_1
I0621 23:28:58.670764 27723 net.cpp:148] Top shape: 128 64 32 32 (8388608)
I0621 23:28:58.670773 27723 net.cpp:156] Memory required for data: 2216165888
I0621 23:28:58.670779 27723 layer_factory.hpp:77] Creating layer conv_i_1_1
I0621 23:28:58.670800 27723 net.cpp:91] Creating Layer conv_i_1_1
I0621 23:28:58.670811 27723 net.cpp:425] conv_i_1_1 <- relu_i_1_1
I0621 23:28:58.670826 27723 net.cpp:399] conv_i_1_1 -> conv_i_1_1
I0621 23:28:58.675838 27723 net.cpp:141] Setting up conv_i_1_1
I0621 23:28:58.675863 27723 net.cpp:148] Top shape: 128 128 16 16 (4194304)
I0621 23:28:58.675876 27723 net.cpp:156] Memory required for data: 2232943104
I0621 23:28:58.675889 27723 layer_factory.hpp:77] Creating layer bn_i_1_2
I0621 23:28:58.675905 27723 net.cpp:91] Creating Layer bn_i_1_2
I0621 23:28:58.675916 27723 net.cpp:425] bn_i_1_2 <- conv_i_1_1
I0621 23:28:58.675930 27723 net.cpp:399] bn_i_1_2 -> bn_i_1_2
I0621 23:28:58.676216 27723 net.cpp:141] Setting up bn_i_1_2
I0621 23:28:58.676232 27723 net.cpp:148] Top shape: 128 128 16 16 (4194304)
I0621 23:28:58.676239 27723 net.cpp:156] Memory required for data: 2249720320
I0621 23:28:58.676252 27723 layer_factory.hpp:77] Creating layer sc_i_1_2
I0621 23:28:58.676265 27723 net.cpp:91] Creating Layer sc_i_1_2
I0621 23:28:58.676272 27723 net.cpp:425] sc_i_1_2 <- bn_i_1_2
I0621 23:28:58.676285 27723 net.cpp:399] sc_i_1_2 -> sc_i_1_2
I0621 23:28:58.676345 27723 layer_factory.hpp:77] Creating layer sc_i_1_2
I0621 23:28:58.676507 27723 net.cpp:141] Setting up sc_i_1_2
I0621 23:28:58.676522 27723 net.cpp:148] Top shape: 128 128 16 16 (4194304)
I0621 23:28:58.676528 27723 net.cpp:156] Memory required for data: 2266497536
I0621 23:28:58.676539 27723 layer_factory.hpp:77] Creating layer relu_i_1_2
I0621 23:28:58.676551 27723 net.cpp:91] Creating Layer relu_i_1_2
I0621 23:28:58.676558 27723 net.cpp:425] relu_i_1_2 <- sc_i_1_2
I0621 23:28:58.676571 27723 net.cpp:399] relu_i_1_2 -> relu_i_1_2
I0621 23:28:58.676834 27723 net.cpp:141] Setting up relu_i_1_2
I0621 23:28:58.676856 27723 net.cpp:148] Top shape: 128 128 16 16 (4194304)
I0621 23:28:58.676863 27723 net.cpp:156] Memory required for data: 2283274752
I0621 23:28:58.676870 27723 layer_factory.hpp:77] Creating layer conv_i_1_2
I0621 23:28:58.676889 27723 net.cpp:91] Creating Layer conv_i_1_2
I0621 23:28:58.676899 27723 net.cpp:425] conv_i_1_2 <- relu_i_1_2
I0621 23:28:58.676910 27723 net.cpp:399] conv_i_1_2 -> conv_i_1_2
I0621 23:28:58.683746 27723 net.cpp:141] Setting up conv_i_1_2
I0621 23:28:58.683768 27723 net.cpp:148] Top shape: 128 128 16 16 (4194304)
I0621 23:28:58.683776 27723 net.cpp:156] Memory required for data: 2300051968
I0621 23:28:58.683817 27723 layer_factory.hpp:77] Creating layer res_i
I0621 23:28:58.683840 27723 net.cpp:91] Creating Layer res_i
I0621 23:28:58.683851 27723 net.cpp:425] res_i <- elt_c_1_elt_c_1_0_split_3
I0621 23:28:58.683866 27723 net.cpp:399] res_i -> res_i
I0621 23:28:58.685520 27723 net.cpp:141] Setting up res_i
I0621 23:28:58.685541 27723 net.cpp:148] Top shape: 128 128 16 16 (4194304)
I0621 23:28:58.685549 27723 net.cpp:156] Memory required for data: 2316829184
I0621 23:28:58.685581 27723 layer_factory.hpp:77] Creating layer elt_i_1
I0621 23:28:58.685600 27723 net.cpp:91] Creating Layer elt_i_1
I0621 23:28:58.685611 27723 net.cpp:425] elt_i_1 <- res_i
I0621 23:28:58.685619 27723 net.cpp:425] elt_i_1 <- conv_i_1_2
I0621 23:28:58.685629 27723 net.cpp:399] elt_i_1 -> elt_i_1
I0621 23:28:58.685672 27723 net.cpp:141] Setting up elt_i_1
I0621 23:28:58.685685 27723 net.cpp:148] Top shape: 128 128 16 16 (4194304)
I0621 23:28:58.685693 27723 net.cpp:156] Memory required for data: 2333606400
I0621 23:28:58.685700 27723 layer_factory.hpp:77] Creating layer elt_d_f
I0621 23:28:58.685714 27723 net.cpp:91] Creating Layer elt_d_f
I0621 23:28:58.685724 27723 net.cpp:425] elt_d_f <- elt_d_1
I0621 23:28:58.685731 27723 net.cpp:425] elt_d_f <- elt_f_1
I0621 23:28:58.685741 27723 net.cpp:399] elt_d_f -> elt_d_f
I0621 23:28:58.685783 27723 net.cpp:141] Setting up elt_d_f
I0621 23:28:58.685797 27723 net.cpp:148] Top shape: 128 128 16 16 (4194304)
I0621 23:28:58.685803 27723 net.cpp:156] Memory required for data: 2350383616
I0621 23:28:58.685811 27723 layer_factory.hpp:77] Creating layer elt_d_f_elt_d_f_0_split
I0621 23:28:58.685823 27723 net.cpp:91] Creating Layer elt_d_f_elt_d_f_0_split
I0621 23:28:58.685832 27723 net.cpp:425] elt_d_f_elt_d_f_0_split <- elt_d_f
I0621 23:28:58.685843 27723 net.cpp:399] elt_d_f_elt_d_f_0_split -> elt_d_f_elt_d_f_0_split_0
I0621 23:28:58.685856 27723 net.cpp:399] elt_d_f_elt_d_f_0_split -> elt_d_f_elt_d_f_0_split_1
I0621 23:28:58.685915 27723 net.cpp:141] Setting up elt_d_f_elt_d_f_0_split
I0621 23:28:58.685930 27723 net.cpp:148] Top shape: 128 128 16 16 (4194304)
I0621 23:28:58.685938 27723 net.cpp:148] Top shape: 128 128 16 16 (4194304)
I0621 23:28:58.685945 27723 net.cpp:156] Memory required for data: 2383938048
I0621 23:28:58.685950 27723 layer_factory.hpp:77] Creating layer elt_g_i
I0621 23:28:58.685964 27723 net.cpp:91] Creating Layer elt_g_i
I0621 23:28:58.685973 27723 net.cpp:425] elt_g_i <- elt_g_1
I0621 23:28:58.685981 27723 net.cpp:425] elt_g_i <- elt_i_1
I0621 23:28:58.685991 27723 net.cpp:399] elt_g_i -> elt_g_i
I0621 23:28:58.686033 27723 net.cpp:141] Setting up elt_g_i
I0621 23:28:58.686046 27723 net.cpp:148] Top shape: 128 128 16 16 (4194304)
I0621 23:28:58.686053 27723 net.cpp:156] Memory required for data: 2400715264
I0621 23:28:58.686059 27723 layer_factory.hpp:77] Creating layer elt_g_i_elt_g_i_0_split
I0621 23:28:58.686069 27723 net.cpp:91] Creating Layer elt_g_i_elt_g_i_0_split
I0621 23:28:58.686075 27723 net.cpp:425] elt_g_i_elt_g_i_0_split <- elt_g_i
I0621 23:28:58.686087 27723 net.cpp:399] elt_g_i_elt_g_i_0_split -> elt_g_i_elt_g_i_0_split_0
I0621 23:28:58.686100 27723 net.cpp:399] elt_g_i_elt_g_i_0_split -> elt_g_i_elt_g_i_0_split_1
I0621 23:28:58.686158 27723 net.cpp:141] Setting up elt_g_i_elt_g_i_0_split
I0621 23:28:58.686172 27723 net.cpp:148] Top shape: 128 128 16 16 (4194304)
I0621 23:28:58.686180 27723 net.cpp:148] Top shape: 128 128 16 16 (4194304)
I0621 23:28:58.686187 27723 net.cpp:156] Memory required for data: 2434269696
I0621 23:28:58.686194 27723 layer_factory.hpp:77] Creating layer bn_j_1_1
I0621 23:28:58.686205 27723 net.cpp:91] Creating Layer bn_j_1_1
I0621 23:28:58.686213 27723 net.cpp:425] bn_j_1_1 <- elt_d_f_elt_d_f_0_split_0
I0621 23:28:58.686226 27723 net.cpp:399] bn_j_1_1 -> bn_j_1_1
I0621 23:28:58.686496 27723 net.cpp:141] Setting up bn_j_1_1
I0621 23:28:58.686511 27723 net.cpp:148] Top shape: 128 128 16 16 (4194304)
I0621 23:28:58.686518 27723 net.cpp:156] Memory required for data: 2451046912
I0621 23:28:58.686532 27723 layer_factory.hpp:77] Creating layer sc_j_1_1
I0621 23:28:58.686564 27723 net.cpp:91] Creating Layer sc_j_1_1
I0621 23:28:58.686576 27723 net.cpp:425] sc_j_1_1 <- bn_j_1_1
I0621 23:28:58.686586 27723 net.cpp:399] sc_j_1_1 -> sc_j_1_1
I0621 23:28:58.686646 27723 layer_factory.hpp:77] Creating layer sc_j_1_1
I0621 23:28:58.686831 27723 net.cpp:141] Setting up sc_j_1_1
I0621 23:28:58.686851 27723 net.cpp:148] Top shape: 128 128 16 16 (4194304)
I0621 23:28:58.686858 27723 net.cpp:156] Memory required for data: 2467824128
I0621 23:28:58.686869 27723 layer_factory.hpp:77] Creating layer relu_j_1_1
I0621 23:28:58.686880 27723 net.cpp:91] Creating Layer relu_j_1_1
I0621 23:28:58.686889 27723 net.cpp:425] relu_j_1_1 <- sc_j_1_1
I0621 23:28:58.686898 27723 net.cpp:399] relu_j_1_1 -> relu_j_1_1
I0621 23:28:58.687150 27723 net.cpp:141] Setting up relu_j_1_1
I0621 23:28:58.687170 27723 net.cpp:148] Top shape: 128 128 16 16 (4194304)
I0621 23:28:58.687177 27723 net.cpp:156] Memory required for data: 2484601344
I0621 23:28:58.687185 27723 layer_factory.hpp:77] Creating layer conv_j_1_1
I0621 23:28:58.687202 27723 net.cpp:91] Creating Layer conv_j_1_1
I0621 23:28:58.687211 27723 net.cpp:425] conv_j_1_1 <- relu_j_1_1
I0621 23:28:58.687222 27723 net.cpp:399] conv_j_1_1 -> conv_j_1_1
I0621 23:28:58.699656 27723 net.cpp:141] Setting up conv_j_1_1
I0621 23:28:58.699676 27723 net.cpp:148] Top shape: 128 256 8 8 (2097152)
I0621 23:28:58.699683 27723 net.cpp:156] Memory required for data: 2492989952
I0621 23:28:58.699694 27723 layer_factory.hpp:77] Creating layer bn_j_1_2
I0621 23:28:58.699708 27723 net.cpp:91] Creating Layer bn_j_1_2
I0621 23:28:58.699717 27723 net.cpp:425] bn_j_1_2 <- conv_j_1_1
I0621 23:28:58.699725 27723 net.cpp:399] bn_j_1_2 -> bn_j_1_2
I0621 23:28:58.700007 27723 net.cpp:141] Setting up bn_j_1_2
I0621 23:28:58.700022 27723 net.cpp:148] Top shape: 128 256 8 8 (2097152)
I0621 23:28:58.700028 27723 net.cpp:156] Memory required for data: 2501378560
I0621 23:28:58.700040 27723 layer_factory.hpp:77] Creating layer sc_j_1_2
I0621 23:28:58.700050 27723 net.cpp:91] Creating Layer sc_j_1_2
I0621 23:28:58.700057 27723 net.cpp:425] sc_j_1_2 <- bn_j_1_2
I0621 23:28:58.700069 27723 net.cpp:399] sc_j_1_2 -> sc_j_1_2
I0621 23:28:58.700129 27723 layer_factory.hpp:77] Creating layer sc_j_1_2
I0621 23:28:58.700454 27723 net.cpp:141] Setting up sc_j_1_2
I0621 23:28:58.700474 27723 net.cpp:148] Top shape: 128 256 8 8 (2097152)
I0621 23:28:58.700479 27723 net.cpp:156] Memory required for data: 2509767168
I0621 23:28:58.700490 27723 layer_factory.hpp:77] Creating layer relu_j_1_2
I0621 23:28:58.700505 27723 net.cpp:91] Creating Layer relu_j_1_2
I0621 23:28:58.700517 27723 net.cpp:425] relu_j_1_2 <- sc_j_1_2
I0621 23:28:58.700526 27723 net.cpp:399] relu_j_1_2 -> relu_j_1_2
I0621 23:28:58.700906 27723 net.cpp:141] Setting up relu_j_1_2
I0621 23:28:58.700923 27723 net.cpp:148] Top shape: 128 256 8 8 (2097152)
I0621 23:28:58.700929 27723 net.cpp:156] Memory required for data: 2518155776
I0621 23:28:58.700937 27723 layer_factory.hpp:77] Creating layer conv_j_1_2
I0621 23:28:58.700955 27723 net.cpp:91] Creating Layer conv_j_1_2
I0621 23:28:58.700964 27723 net.cpp:425] conv_j_1_2 <- relu_j_1_2
I0621 23:28:58.700975 27723 net.cpp:399] conv_j_1_2 -> conv_j_1_2
I0621 23:28:58.723222 27723 net.cpp:141] Setting up conv_j_1_2
I0621 23:28:58.723244 27723 net.cpp:148] Top shape: 128 256 8 8 (2097152)
I0621 23:28:58.723251 27723 net.cpp:156] Memory required for data: 2526544384
I0621 23:28:58.723261 27723 layer_factory.hpp:77] Creating layer res_j
I0621 23:28:58.723278 27723 net.cpp:91] Creating Layer res_j
I0621 23:28:58.723286 27723 net.cpp:425] res_j <- elt_d_f_elt_d_f_0_split_1
I0621 23:28:58.723296 27723 net.cpp:399] res_j -> res_j
I0621 23:28:58.725656 27723 net.cpp:141] Setting up res_j
I0621 23:28:58.725695 27723 net.cpp:148] Top shape: 128 256 8 8 (2097152)
I0621 23:28:58.725702 27723 net.cpp:156] Memory required for data: 2534932992
I0621 23:28:58.725716 27723 layer_factory.hpp:77] Creating layer elt_j_1
I0621 23:28:58.725734 27723 net.cpp:91] Creating Layer elt_j_1
I0621 23:28:58.725769 27723 net.cpp:425] elt_j_1 <- res_j
I0621 23:28:58.725785 27723 net.cpp:425] elt_j_1 <- conv_j_1_2
I0621 23:28:58.725795 27723 net.cpp:399] elt_j_1 -> elt_j_1
I0621 23:28:58.725844 27723 net.cpp:141] Setting up elt_j_1
I0621 23:28:58.725857 27723 net.cpp:148] Top shape: 128 256 8 8 (2097152)
I0621 23:28:58.725867 27723 net.cpp:156] Memory required for data: 2543321600
I0621 23:28:58.725872 27723 layer_factory.hpp:77] Creating layer bn_e_1_1
I0621 23:28:58.725885 27723 net.cpp:91] Creating Layer bn_e_1_1
I0621 23:28:58.725893 27723 net.cpp:425] bn_e_1_1 <- elt_a_1_elt_a_1_0_split_2
I0621 23:28:58.725901 27723 net.cpp:399] bn_e_1_1 -> bn_e_1_1
I0621 23:28:58.726148 27723 net.cpp:141] Setting up bn_e_1_1
I0621 23:28:58.726161 27723 net.cpp:148] Top shape: 128 64 32 32 (8388608)
I0621 23:28:58.726166 27723 net.cpp:156] Memory required for data: 2576876032
I0621 23:28:58.726178 27723 layer_factory.hpp:77] Creating layer sc_e_1_1
I0621 23:28:58.726191 27723 net.cpp:91] Creating Layer sc_e_1_1
I0621 23:28:58.726197 27723 net.cpp:425] sc_e_1_1 <- bn_e_1_1
I0621 23:28:58.726208 27723 net.cpp:399] sc_e_1_1 -> sc_e_1_1
I0621 23:28:58.726267 27723 layer_factory.hpp:77] Creating layer sc_e_1_1
I0621 23:28:58.726410 27723 net.cpp:141] Setting up sc_e_1_1
I0621 23:28:58.726425 27723 net.cpp:148] Top shape: 128 64 32 32 (8388608)
I0621 23:28:58.726433 27723 net.cpp:156] Memory required for data: 2610430464
I0621 23:28:58.726441 27723 layer_factory.hpp:77] Creating layer relu_e_1_1
I0621 23:28:58.726451 27723 net.cpp:91] Creating Layer relu_e_1_1
I0621 23:28:58.726459 27723 net.cpp:425] relu_e_1_1 <- sc_e_1_1
I0621 23:28:58.726465 27723 net.cpp:399] relu_e_1_1 -> relu_e_1_1
I0621 23:28:58.726841 27723 net.cpp:141] Setting up relu_e_1_1
I0621 23:28:58.726857 27723 net.cpp:148] Top shape: 128 64 32 32 (8388608)
I0621 23:28:58.726864 27723 net.cpp:156] Memory required for data: 2643984896
I0621 23:28:58.726871 27723 layer_factory.hpp:77] Creating layer conv_e_1_1
I0621 23:28:58.726889 27723 net.cpp:91] Creating Layer conv_e_1_1
I0621 23:28:58.726897 27723 net.cpp:425] conv_e_1_1 <- relu_e_1_1
I0621 23:28:58.726907 27723 net.cpp:399] conv_e_1_1 -> conv_e_1_1
I0621 23:28:58.730726 27723 net.cpp:141] Setting up conv_e_1_1
I0621 23:28:58.730742 27723 net.cpp:148] Top shape: 128 128 16 16 (4194304)
I0621 23:28:58.730748 27723 net.cpp:156] Memory required for data: 2660762112
I0621 23:28:58.730765 27723 layer_factory.hpp:77] Creating layer bn_e_1_2
I0621 23:28:58.730780 27723 net.cpp:91] Creating Layer bn_e_1_2
I0621 23:28:58.730787 27723 net.cpp:425] bn_e_1_2 <- conv_e_1_1
I0621 23:28:58.730798 27723 net.cpp:399] bn_e_1_2 -> bn_e_1_2
I0621 23:28:58.731034 27723 net.cpp:141] Setting up bn_e_1_2
I0621 23:28:58.731046 27723 net.cpp:148] Top shape: 128 128 16 16 (4194304)
I0621 23:28:58.731051 27723 net.cpp:156] Memory required for data: 2677539328
I0621 23:28:58.731065 27723 layer_factory.hpp:77] Creating layer sc_e_1_2
I0621 23:28:58.731075 27723 net.cpp:91] Creating Layer sc_e_1_2
I0621 23:28:58.731079 27723 net.cpp:425] sc_e_1_2 <- bn_e_1_2
I0621 23:28:58.731089 27723 net.cpp:399] sc_e_1_2 -> sc_e_1_2
I0621 23:28:58.731137 27723 layer_factory.hpp:77] Creating layer sc_e_1_2
I0621 23:28:58.731267 27723 net.cpp:141] Setting up sc_e_1_2
I0621 23:28:58.731279 27723 net.cpp:148] Top shape: 128 128 16 16 (4194304)
I0621 23:28:58.731284 27723 net.cpp:156] Memory required for data: 2694316544
I0621 23:28:58.731293 27723 layer_factory.hpp:77] Creating layer relu_e_1_2
I0621 23:28:58.731304 27723 net.cpp:91] Creating Layer relu_e_1_2
I0621 23:28:58.731312 27723 net.cpp:425] relu_e_1_2 <- sc_e_1_2
I0621 23:28:58.731319 27723 net.cpp:399] relu_e_1_2 -> relu_e_1_2
I0621 23:28:58.731529 27723 net.cpp:141] Setting up relu_e_1_2
I0621 23:28:58.731546 27723 net.cpp:148] Top shape: 128 128 16 16 (4194304)
I0621 23:28:58.731554 27723 net.cpp:156] Memory required for data: 2711093760
I0621 23:28:58.731559 27723 layer_factory.hpp:77] Creating layer conv_e_1_2
I0621 23:28:58.731572 27723 net.cpp:91] Creating Layer conv_e_1_2
I0621 23:28:58.731580 27723 net.cpp:425] conv_e_1_2 <- relu_e_1_2
I0621 23:28:58.731606 27723 net.cpp:399] conv_e_1_2 -> conv_e_1_2
I0621 23:28:58.736956 27723 net.cpp:141] Setting up conv_e_1_2
I0621 23:28:58.736974 27723 net.cpp:148] Top shape: 128 128 16 16 (4194304)
I0621 23:28:58.736979 27723 net.cpp:156] Memory required for data: 2727870976
I0621 23:28:58.736989 27723 layer_factory.hpp:77] Creating layer res_e
I0621 23:28:58.737006 27723 net.cpp:91] Creating Layer res_e
I0621 23:28:58.737015 27723 net.cpp:425] res_e <- elt_a_1_elt_a_1_0_split_3
I0621 23:28:58.737030 27723 net.cpp:399] res_e -> res_e
I0621 23:28:58.738500 27723 net.cpp:141] Setting up res_e
I0621 23:28:58.738517 27723 net.cpp:148] Top shape: 128 128 16 16 (4194304)
I0621 23:28:58.738523 27723 net.cpp:156] Memory required for data: 2744648192
I0621 23:28:58.738531 27723 layer_factory.hpp:77] Creating layer elt_e_1
I0621 23:28:58.738544 27723 net.cpp:91] Creating Layer elt_e_1
I0621 23:28:58.738553 27723 net.cpp:425] elt_e_1 <- res_e
I0621 23:28:58.738559 27723 net.cpp:425] elt_e_1 <- conv_e_1_2
I0621 23:28:58.738567 27723 net.cpp:399] elt_e_1 -> elt_e_1
I0621 23:28:58.738600 27723 net.cpp:141] Setting up elt_e_1
I0621 23:28:58.738610 27723 net.cpp:148] Top shape: 128 128 16 16 (4194304)
I0621 23:28:58.738615 27723 net.cpp:156] Memory required for data: 2761425408
I0621 23:28:58.738620 27723 layer_factory.hpp:77] Creating layer elt_e_h
I0621 23:28:58.738631 27723 net.cpp:91] Creating Layer elt_e_h
I0621 23:28:58.738638 27723 net.cpp:425] elt_e_h <- elt_e_1
I0621 23:28:58.738646 27723 net.cpp:425] elt_e_h <- elt_h_1
I0621 23:28:58.738652 27723 net.cpp:399] elt_e_h -> elt_e_h
I0621 23:28:58.738697 27723 net.cpp:141] Setting up elt_e_h
I0621 23:28:58.738709 27723 net.cpp:148] Top shape: 128 128 16 16 (4194304)
I0621 23:28:58.738714 27723 net.cpp:156] Memory required for data: 2778202624
I0621 23:28:58.738719 27723 layer_factory.hpp:77] Creating layer elt_e_h_elt_e_h_0_split
I0621 23:28:58.738729 27723 net.cpp:91] Creating Layer elt_e_h_elt_e_h_0_split
I0621 23:28:58.738734 27723 net.cpp:425] elt_e_h_elt_e_h_0_split <- elt_e_h
I0621 23:28:58.738746 27723 net.cpp:399] elt_e_h_elt_e_h_0_split -> elt_e_h_elt_e_h_0_split_0
I0621 23:28:58.738775 27723 net.cpp:399] elt_e_h_elt_e_h_0_split -> elt_e_h_elt_e_h_0_split_1
I0621 23:28:58.738827 27723 net.cpp:141] Setting up elt_e_h_elt_e_h_0_split
I0621 23:28:58.738839 27723 net.cpp:148] Top shape: 128 128 16 16 (4194304)
I0621 23:28:58.738847 27723 net.cpp:148] Top shape: 128 128 16 16 (4194304)
I0621 23:28:58.738852 27723 net.cpp:156] Memory required for data: 2811757056
I0621 23:28:58.738857 27723 layer_factory.hpp:77] Creating layer bn_k_1_1
I0621 23:28:58.738868 27723 net.cpp:91] Creating Layer bn_k_1_1
I0621 23:28:58.738875 27723 net.cpp:425] bn_k_1_1 <- elt_e_h_elt_e_h_0_split_0
I0621 23:28:58.738886 27723 net.cpp:399] bn_k_1_1 -> bn_k_1_1
I0621 23:28:58.739123 27723 net.cpp:141] Setting up bn_k_1_1
I0621 23:28:58.739136 27723 net.cpp:148] Top shape: 128 128 16 16 (4194304)
I0621 23:28:58.739141 27723 net.cpp:156] Memory required for data: 2828534272
I0621 23:28:58.739152 27723 layer_factory.hpp:77] Creating layer sc_k_1_1
I0621 23:28:58.739161 27723 net.cpp:91] Creating Layer sc_k_1_1
I0621 23:28:58.739169 27723 net.cpp:425] sc_k_1_1 <- bn_k_1_1
I0621 23:28:58.739177 27723 net.cpp:399] sc_k_1_1 -> sc_k_1_1
I0621 23:28:58.739228 27723 layer_factory.hpp:77] Creating layer sc_k_1_1
I0621 23:28:58.739361 27723 net.cpp:141] Setting up sc_k_1_1
I0621 23:28:58.739372 27723 net.cpp:148] Top shape: 128 128 16 16 (4194304)
I0621 23:28:58.739378 27723 net.cpp:156] Memory required for data: 2845311488
I0621 23:28:58.739387 27723 layer_factory.hpp:77] Creating layer relu_k_1_1
I0621 23:28:58.739395 27723 net.cpp:91] Creating Layer relu_k_1_1
I0621 23:28:58.739401 27723 net.cpp:425] relu_k_1_1 <- sc_k_1_1
I0621 23:28:58.739410 27723 net.cpp:399] relu_k_1_1 -> relu_k_1_1
I0621 23:28:58.739615 27723 net.cpp:141] Setting up relu_k_1_1
I0621 23:28:58.739629 27723 net.cpp:148] Top shape: 128 128 16 16 (4194304)
I0621 23:28:58.739635 27723 net.cpp:156] Memory required for data: 2862088704
I0621 23:28:58.739657 27723 layer_factory.hpp:77] Creating layer conv_k_1_1
I0621 23:28:58.739677 27723 net.cpp:91] Creating Layer conv_k_1_1
I0621 23:28:58.739686 27723 net.cpp:425] conv_k_1_1 <- relu_k_1_1
I0621 23:28:58.739694 27723 net.cpp:399] conv_k_1_1 -> conv_k_1_1
I0621 23:28:58.749881 27723 net.cpp:141] Setting up conv_k_1_1
I0621 23:28:58.749899 27723 net.cpp:148] Top shape: 128 256 8 8 (2097152)
I0621 23:28:58.749905 27723 net.cpp:156] Memory required for data: 2870477312
I0621 23:28:58.749914 27723 layer_factory.hpp:77] Creating layer bn_k_1_2
I0621 23:28:58.749929 27723 net.cpp:91] Creating Layer bn_k_1_2
I0621 23:28:58.749936 27723 net.cpp:425] bn_k_1_2 <- conv_k_1_1
I0621 23:28:58.749945 27723 net.cpp:399] bn_k_1_2 -> bn_k_1_2
I0621 23:28:58.750185 27723 net.cpp:141] Setting up bn_k_1_2
I0621 23:28:58.750197 27723 net.cpp:148] Top shape: 128 256 8 8 (2097152)
I0621 23:28:58.750202 27723 net.cpp:156] Memory required for data: 2878865920
I0621 23:28:58.750212 27723 layer_factory.hpp:77] Creating layer sc_k_1_2
I0621 23:28:58.750227 27723 net.cpp:91] Creating Layer sc_k_1_2
I0621 23:28:58.750236 27723 net.cpp:425] sc_k_1_2 <- bn_k_1_2
I0621 23:28:58.750243 27723 net.cpp:399] sc_k_1_2 -> sc_k_1_2
I0621 23:28:58.750295 27723 layer_factory.hpp:77] Creating layer sc_k_1_2
I0621 23:28:58.750434 27723 net.cpp:141] Setting up sc_k_1_2
I0621 23:28:58.750447 27723 net.cpp:148] Top shape: 128 256 8 8 (2097152)
I0621 23:28:58.750452 27723 net.cpp:156] Memory required for data: 2887254528
I0621 23:28:58.750460 27723 layer_factory.hpp:77] Creating layer relu_k_1_2
I0621 23:28:58.750471 27723 net.cpp:91] Creating Layer relu_k_1_2
I0621 23:28:58.750478 27723 net.cpp:425] relu_k_1_2 <- sc_k_1_2
I0621 23:28:58.750486 27723 net.cpp:399] relu_k_1_2 -> relu_k_1_2
I0621 23:28:58.750818 27723 net.cpp:141] Setting up relu_k_1_2
I0621 23:28:58.750833 27723 net.cpp:148] Top shape: 128 256 8 8 (2097152)
I0621 23:28:58.750839 27723 net.cpp:156] Memory required for data: 2895643136
I0621 23:28:58.750844 27723 layer_factory.hpp:77] Creating layer conv_k_1_2
I0621 23:28:58.750859 27723 net.cpp:91] Creating Layer conv_k_1_2
I0621 23:28:58.750866 27723 net.cpp:425] conv_k_1_2 <- relu_k_1_2
I0621 23:28:58.750877 27723 net.cpp:399] conv_k_1_2 -> conv_k_1_2
I0621 23:28:58.769829 27723 net.cpp:141] Setting up conv_k_1_2
I0621 23:28:58.769847 27723 net.cpp:148] Top shape: 128 256 8 8 (2097152)
I0621 23:28:58.769853 27723 net.cpp:156] Memory required for data: 2904031744
I0621 23:28:58.769862 27723 layer_factory.hpp:77] Creating layer res_k
I0621 23:28:58.769883 27723 net.cpp:91] Creating Layer res_k
I0621 23:28:58.769891 27723 net.cpp:425] res_k <- elt_e_h_elt_e_h_0_split_1
I0621 23:28:58.769912 27723 net.cpp:399] res_k -> res_k
I0621 23:28:58.771994 27723 net.cpp:141] Setting up res_k
I0621 23:28:58.772012 27723 net.cpp:148] Top shape: 128 256 8 8 (2097152)
I0621 23:28:58.772018 27723 net.cpp:156] Memory required for data: 2912420352
I0621 23:28:58.772027 27723 layer_factory.hpp:77] Creating layer elt_k_1
I0621 23:28:58.772042 27723 net.cpp:91] Creating Layer elt_k_1
I0621 23:28:58.772050 27723 net.cpp:425] elt_k_1 <- res_k
I0621 23:28:58.772059 27723 net.cpp:425] elt_k_1 <- conv_k_1_2
I0621 23:28:58.772081 27723 net.cpp:399] elt_k_1 -> elt_k_1
I0621 23:28:58.772124 27723 net.cpp:141] Setting up elt_k_1
I0621 23:28:58.772135 27723 net.cpp:148] Top shape: 128 256 8 8 (2097152)
I0621 23:28:58.772140 27723 net.cpp:156] Memory required for data: 2920808960
I0621 23:28:58.772145 27723 layer_factory.hpp:77] Creating layer bn_l_1_1
I0621 23:28:58.772153 27723 net.cpp:91] Creating Layer bn_l_1_1
I0621 23:28:58.772161 27723 net.cpp:425] bn_l_1_1 <- elt_g_i_elt_g_i_0_split_0
I0621 23:28:58.772171 27723 net.cpp:399] bn_l_1_1 -> bn_l_1_1
I0621 23:28:58.772403 27723 net.cpp:141] Setting up bn_l_1_1
I0621 23:28:58.772414 27723 net.cpp:148] Top shape: 128 128 16 16 (4194304)
I0621 23:28:58.772419 27723 net.cpp:156] Memory required for data: 2937586176
I0621 23:28:58.772429 27723 layer_factory.hpp:77] Creating layer sc_l_1_1
I0621 23:28:58.772457 27723 net.cpp:91] Creating Layer sc_l_1_1
I0621 23:28:58.772466 27723 net.cpp:425] sc_l_1_1 <- bn_l_1_1
I0621 23:28:58.772475 27723 net.cpp:399] sc_l_1_1 -> sc_l_1_1
I0621 23:28:58.772523 27723 layer_factory.hpp:77] Creating layer sc_l_1_1
I0621 23:28:58.772657 27723 net.cpp:141] Setting up sc_l_1_1
I0621 23:28:58.772671 27723 net.cpp:148] Top shape: 128 128 16 16 (4194304)
I0621 23:28:58.772678 27723 net.cpp:156] Memory required for data: 2954363392
I0621 23:28:58.772687 27723 layer_factory.hpp:77] Creating layer relu_l_1_1
I0621 23:28:58.772696 27723 net.cpp:91] Creating Layer relu_l_1_1
I0621 23:28:58.772702 27723 net.cpp:425] relu_l_1_1 <- sc_l_1_1
I0621 23:28:58.772709 27723 net.cpp:399] relu_l_1_1 -> relu_l_1_1
I0621 23:28:58.773039 27723 net.cpp:141] Setting up relu_l_1_1
I0621 23:28:58.773054 27723 net.cpp:148] Top shape: 128 128 16 16 (4194304)
I0621 23:28:58.773061 27723 net.cpp:156] Memory required for data: 2971140608
I0621 23:28:58.773066 27723 layer_factory.hpp:77] Creating layer conv_l_1_1
I0621 23:28:58.773082 27723 net.cpp:91] Creating Layer conv_l_1_1
I0621 23:28:58.773089 27723 net.cpp:425] conv_l_1_1 <- relu_l_1_1
I0621 23:28:58.773099 27723 net.cpp:399] conv_l_1_1 -> conv_l_1_1
I0621 23:28:58.783247 27723 net.cpp:141] Setting up conv_l_1_1
I0621 23:28:58.783267 27723 net.cpp:148] Top shape: 128 256 8 8 (2097152)
I0621 23:28:58.783273 27723 net.cpp:156] Memory required for data: 2979529216
I0621 23:28:58.783282 27723 layer_factory.hpp:77] Creating layer bn_l_1_2
I0621 23:28:58.783299 27723 net.cpp:91] Creating Layer bn_l_1_2
I0621 23:28:58.783308 27723 net.cpp:425] bn_l_1_2 <- conv_l_1_1
I0621 23:28:58.783318 27723 net.cpp:399] bn_l_1_2 -> bn_l_1_2
I0621 23:28:58.783568 27723 net.cpp:141] Setting up bn_l_1_2
I0621 23:28:58.783581 27723 net.cpp:148] Top shape: 128 256 8 8 (2097152)
I0621 23:28:58.783591 27723 net.cpp:156] Memory required for data: 2987917824
I0621 23:28:58.783601 27723 layer_factory.hpp:77] Creating layer sc_l_1_2
I0621 23:28:58.783614 27723 net.cpp:91] Creating Layer sc_l_1_2
I0621 23:28:58.783622 27723 net.cpp:425] sc_l_1_2 <- bn_l_1_2
I0621 23:28:58.783629 27723 net.cpp:399] sc_l_1_2 -> sc_l_1_2
I0621 23:28:58.783682 27723 layer_factory.hpp:77] Creating layer sc_l_1_2
I0621 23:28:58.783828 27723 net.cpp:141] Setting up sc_l_1_2
I0621 23:28:58.783840 27723 net.cpp:148] Top shape: 128 256 8 8 (2097152)
I0621 23:28:58.783845 27723 net.cpp:156] Memory required for data: 2996306432
I0621 23:28:58.783854 27723 layer_factory.hpp:77] Creating layer relu_l_1_2
I0621 23:28:58.783881 27723 net.cpp:91] Creating Layer relu_l_1_2
I0621 23:28:58.783890 27723 net.cpp:425] relu_l_1_2 <- sc_l_1_2
I0621 23:28:58.783897 27723 net.cpp:399] relu_l_1_2 -> relu_l_1_2
I0621 23:28:58.784099 27723 net.cpp:141] Setting up relu_l_1_2
I0621 23:28:58.784116 27723 net.cpp:148] Top shape: 128 256 8 8 (2097152)
I0621 23:28:58.784122 27723 net.cpp:156] Memory required for data: 3004695040
I0621 23:28:58.784129 27723 layer_factory.hpp:77] Creating layer conv_l_1_2
I0621 23:28:58.784143 27723 net.cpp:91] Creating Layer conv_l_1_2
I0621 23:28:58.784150 27723 net.cpp:425] conv_l_1_2 <- relu_l_1_2
I0621 23:28:58.784159 27723 net.cpp:399] conv_l_1_2 -> conv_l_1_2
I0621 23:28:58.803278 27723 net.cpp:141] Setting up conv_l_1_2
I0621 23:28:58.803297 27723 net.cpp:148] Top shape: 128 256 8 8 (2097152)
I0621 23:28:58.803303 27723 net.cpp:156] Memory required for data: 3013083648
I0621 23:28:58.803313 27723 layer_factory.hpp:77] Creating layer res_l
I0621 23:28:58.803334 27723 net.cpp:91] Creating Layer res_l
I0621 23:28:58.803342 27723 net.cpp:425] res_l <- elt_g_i_elt_g_i_0_split_1
I0621 23:28:58.803359 27723 net.cpp:399] res_l -> res_l
I0621 23:28:58.805436 27723 net.cpp:141] Setting up res_l
I0621 23:28:58.805454 27723 net.cpp:148] Top shape: 128 256 8 8 (2097152)
I0621 23:28:58.805459 27723 net.cpp:156] Memory required for data: 3021472256
I0621 23:28:58.805469 27723 layer_factory.hpp:77] Creating layer elt_l_1
I0621 23:28:58.805482 27723 net.cpp:91] Creating Layer elt_l_1
I0621 23:28:58.805490 27723 net.cpp:425] elt_l_1 <- res_l
I0621 23:28:58.805522 27723 net.cpp:425] elt_l_1 <- conv_l_1_2
I0621 23:28:58.805536 27723 net.cpp:399] elt_l_1 -> elt_l_1
I0621 23:28:58.805579 27723 net.cpp:141] Setting up elt_l_1
I0621 23:28:58.805593 27723 net.cpp:148] Top shape: 128 256 8 8 (2097152)
I0621 23:28:58.805598 27723 net.cpp:156] Memory required for data: 3029860864
I0621 23:28:58.805603 27723 layer_factory.hpp:77] Creating layer concat_j_k_l
I0621 23:28:58.805619 27723 net.cpp:91] Creating Layer concat_j_k_l
I0621 23:28:58.805626 27723 net.cpp:425] concat_j_k_l <- elt_j_1
I0621 23:28:58.805634 27723 net.cpp:425] concat_j_k_l <- elt_k_1
I0621 23:28:58.805639 27723 net.cpp:425] concat_j_k_l <- elt_l_1
I0621 23:28:58.805649 27723 net.cpp:399] concat_j_k_l -> elt_j_k_l
I0621 23:28:58.805690 27723 net.cpp:141] Setting up concat_j_k_l
I0621 23:28:58.805701 27723 net.cpp:148] Top shape: 128 768 8 8 (6291456)
I0621 23:28:58.805707 27723 net.cpp:156] Memory required for data: 3055026688
I0621 23:28:58.805713 27723 layer_factory.hpp:77] Creating layer bn_m_1_1
I0621 23:28:58.805724 27723 net.cpp:91] Creating Layer bn_m_1_1
I0621 23:28:58.805732 27723 net.cpp:425] bn_m_1_1 <- elt_j_k_l
I0621 23:28:58.805742 27723 net.cpp:399] bn_m_1_1 -> bn_m_1_1
I0621 23:28:58.805989 27723 net.cpp:141] Setting up bn_m_1_1
I0621 23:28:58.806001 27723 net.cpp:148] Top shape: 128 768 8 8 (6291456)
I0621 23:28:58.806007 27723 net.cpp:156] Memory required for data: 3080192512
I0621 23:28:58.806017 27723 layer_factory.hpp:77] Creating layer sc_m_1_1
I0621 23:28:58.806026 27723 net.cpp:91] Creating Layer sc_m_1_1
I0621 23:28:58.806033 27723 net.cpp:425] sc_m_1_1 <- bn_m_1_1
I0621 23:28:58.806041 27723 net.cpp:399] sc_m_1_1 -> sc_m_1_1
I0621 23:28:58.806094 27723 layer_factory.hpp:77] Creating layer sc_m_1_1
I0621 23:28:58.806249 27723 net.cpp:141] Setting up sc_m_1_1
I0621 23:28:58.806262 27723 net.cpp:148] Top shape: 128 768 8 8 (6291456)
I0621 23:28:58.806267 27723 net.cpp:156] Memory required for data: 3105358336
I0621 23:28:58.806277 27723 layer_factory.hpp:77] Creating layer relu_m_1_1
I0621 23:28:58.806288 27723 net.cpp:91] Creating Layer relu_m_1_1
I0621 23:28:58.806295 27723 net.cpp:425] relu_m_1_1 <- sc_m_1_1
I0621 23:28:58.806303 27723 net.cpp:399] relu_m_1_1 -> relu_m_1_1
I0621 23:28:58.806511 27723 net.cpp:141] Setting up relu_m_1_1
I0621 23:28:58.806526 27723 net.cpp:148] Top shape: 128 768 8 8 (6291456)
I0621 23:28:58.806532 27723 net.cpp:156] Memory required for data: 3130524160
I0621 23:28:58.806538 27723 layer_factory.hpp:77] Creating layer gap
I0621 23:28:58.806548 27723 net.cpp:91] Creating Layer gap
I0621 23:28:58.806555 27723 net.cpp:425] gap <- relu_m_1_1
I0621 23:28:58.806565 27723 net.cpp:399] gap -> gap
I0621 23:28:58.806942 27723 net.cpp:141] Setting up gap
I0621 23:28:58.806958 27723 net.cpp:148] Top shape: 128 768 1 1 (98304)
I0621 23:28:58.806964 27723 net.cpp:156] Memory required for data: 3130917376
I0621 23:28:58.806969 27723 layer_factory.hpp:77] Creating layer ip1
I0621 23:28:58.806983 27723 net.cpp:91] Creating Layer ip1
I0621 23:28:58.806990 27723 net.cpp:425] ip1 <- gap
I0621 23:28:58.807000 27723 net.cpp:399] ip1 -> ip1
I0621 23:28:58.807374 27723 net.cpp:141] Setting up ip1
I0621 23:28:58.807386 27723 net.cpp:148] Top shape: 128 10 (1280)
I0621 23:28:58.807391 27723 net.cpp:156] Memory required for data: 3130922496
I0621 23:28:58.807400 27723 layer_factory.hpp:77] Creating layer loss
I0621 23:28:58.807420 27723 net.cpp:91] Creating Layer loss
I0621 23:28:58.807427 27723 net.cpp:425] loss <- ip1
I0621 23:28:58.807435 27723 net.cpp:425] loss <- label
I0621 23:28:58.807442 27723 net.cpp:399] loss -> loss
I0621 23:28:58.807462 27723 layer_factory.hpp:77] Creating layer loss
…
I0621 23:28:58.812304 27723 net.cpp:313] The NetState phase (1) differed from the phase (0) specified by a rule in layer resnet
I0621 23:28:58.813093 27723 net.cpp:49] Initializing net from parameters: 
name: "ResNet"
state {
  phase: TEST
}
layer {
  name: "resnet"
  type: "Data"
  top: "data"
  top: "label"
  include {
    phase: TEST
  }
  transform_param {
    mean_file: "/home/takeki/caffe/examples/cifar10/mean.binaryproto"
  }
  data_param {
    source: "/home/takeki/caffe/examples/cifar10/cifar10_test_lmdb"
    batch_size: 100
    backend: LMDB
  }
}
layer {
  name: "conv0"
  type: "Convolution"
  bottom: "data"
  top: "conv0"
  param {
    lr_mult: 1
  }
  param {
    lr_mult: 2
  }
  convolution_param {
    num_output: 16
    pad: 1
    kernel_size: 3
    stride: 1
    weight_filler {
      type: "msra"
    }
    bias_filler {
      type: "constant"
    }
  }
}
layer {
  name: "bn_a_1_1"
  type: "BatchNorm"
  bottom: "conv0"
  top: "bn_a_1_1"
  param {
    lr_mult: 0
  }
  param {
    lr_mult: 0
  }
  param {
    lr_mult: 0
  }
  batch_norm_param {
    use_global_stats: false
  }
}
layer {
  name: "sc_a_1_1"
  type: "Scale"
  bottom: "bn_a_1_1"
  top: "sc_a_1_1"
  scale_param {
    bias_term: true
  }
}
layer {
  name: "relu_a_1_1"
  type: "ReLU"
  bottom: "sc_a_1_1"
  top: "relu_a_1_1"
}
layer {
  name: "conv_a_1_1"
  type: "Convolution"
  bottom: "relu_a_1_1"
  top: "conv_a_1_1"
  param {
    lr_mult: 1
    decay_mult: 1
  }
  param {
    lr_mult: 2
    decay_mult: 1
  }
  convolution_param {
    num_output: 64
    pad: 1
    kernel_size: 3
    stride: 1
    weight_filler {
      type: "msra"
    }
    bias_filler {
      type: "constant"
    }
  }
}
layer {
  name: "bn_a_1_2"
  type: "BatchNorm"
  bottom: "conv_a_1_1"
  top: "bn_a_1_2"
  param {
    lr_mult: 0
  }
  param {
    lr_mult: 0
  }
  param {
    lr_mult: 0
  }
  batch_norm_param {
    use_global_stats: false
  }
}
layer {
  name: "sc_a_1_2"
  type: "Scale"
  bottom: "bn_a_1_2"
  top: "sc_a_1_2"
  scale_param {
    bias_term: true
  }
}
layer {
  name: "relu_a_1_2"
  type: "ReLU"
  bottom: "sc_a_1_2"
  top: "relu_a_1_2"
}
layer {
  name: "conv_a_1_2"
  type: "Convolution"
  bottom: "relu_a_1_2"
  top: "conv_a_1_2"
  param {
    lr_mult: 1
    decay_mult: 1
  }
  param {
    lr_mult: 2
    decay_mult: 1
  }
  convolution_param {
    num_output: 64
    pad: 1
    kernel_size: 3
    stride: 1
    weight_filler {
      type: "msra"
    }
    bias_filler {
      type: "constant"
    }
  }
}
layer {
  name: "res_a"
  type: "Convolution"
  bottom: "conv0"
  top: "res_a"
  param {
    lr_mult: 1
    decay_mult: 1
  }
  param {
    lr_mult: 2
    decay_mult: 1
  }
  convolution_param {
    num_output: 64
    pad: 0
    kernel_size: 1
    stride: 1
    weight_filler {
      type: "msra"
    }
    bias_filler {
      type: "constant"
    }
  }
}
layer {
  name: "elt_a_1"
  type: "Eltwise"
  bottom: "res_a"
  bottom: "conv_a_1_2"
  top: "elt_a_1"
  eltwise_param {
    operation: SUM
  }
}
layer {
  name: "bn_b_1_1"
  type: "BatchNorm"
  bottom: "conv0"
  top: "bn_b_1_1"
  param {
    lr_mult: 0
  }
  param {
    lr_mult: 0
  }
  param {
    lr_mult: 0
  }
  batch_norm_param {
    use_global_stats: false
  }
}
layer {
  name: "sc_b_1_1"
  type: "Scale"
  bottom: "bn_b_1_1"
  top: "sc_b_1_1"
  scale_param {
    bias_term: true
  }
}
layer {
  name: "relu_b_1_1"
  type: "ReLU"
  bottom: "sc_b_1_1"
  top: "relu_b_1_1"
}
layer {
  name: "conv_b_1_1"
  type: "Convolution"
  bottom: "relu_b_1_1"
  top: "conv_b_1_1"
  param {
    lr_mult: 1
    decay_mult: 1
  }
  param {
    lr_mult: 2
    decay_mult: 1
  }
  convolution_param {
    num_output: 64
    pad: 1
    kernel_size: 3
    stride: 1
    weight_filler {
      type: "msra"
    }
    bias_filler {
      type: "constant"
    }
  }
}
layer {
  name: "bn_b_1_2"
  type: "BatchNorm"
  bottom: "conv_b_1_1"
  top: "bn_b_1_2"
  param {
    lr_mult: 0
  }
  param {
    lr_mult: 0
  }
  param {
    lr_mult: 0
  }
  batch_norm_param {
    use_global_stats: false
  }
}
layer {
  name: "sc_b_1_2"
  type: "Scale"
  bottom: "bn_b_1_2"
  top: "sc_b_1_2"
  scale_param {
    bias_term: true
  }
}
layer {
  name: "relu_b_1_2"
  type: "ReLU"
  bottom: "sc_b_1_2"
  top: "relu_b_1_2"
}
layer {
  name: "conv_b_1_2"
  type: "Convolution"
  bottom: "relu_b_1_2"
  top: "conv_b_1_2"
  param {
    lr_mult: 1
    decay_mult: 1
  }
  param {
    lr_mult: 2
    decay_mult: 1
  }
  convolution_param {
    num_output: 64
    pad: 1
    kernel_size: 3
    stride: 1
    weight_filler {
      type: "msra"
    }
    bias_filler {
      type: "constant"
    }
  }
}
layer {
  name: "res_b"
  type: "Convolution"
  bottom: "conv0"
  top: "res_b"
  param {
    lr_mult: 1
    decay_mult: 1
  }
  param {
    lr_mult: 2
    decay_mult: 1
  }
  convolution_param {
    num_output: 64
    pad: 0
    kernel_size: 1
    stride: 1
    weight_filler {
      type: "msra"
    }
    bias_filler {
      type: "constant"
    }
  }
}
layer {
  name: "elt_b_1"
  type: "Eltwise"
  bottom: "res_b"
  bottom: "conv_b_1_2"
  top: "elt_b_1"
  eltwise_param {
    operation: SUM
  }
}
layer {
  name: "bn_c_1_1"
  type: "BatchNorm"
  bottom: "conv0"
  top: "bn_c_1_1"
  param {
    lr_mult: 0
  }
  param {
    lr_mult: 0
  }
  param {
    lr_mult: 0
  }
  batch_norm_param {
    use_global_stats: false
  }
}
layer {
  name: "sc_c_1_1"
  type: "Scale"
  bottom: "bn_c_1_1"
  top: "sc_c_1_1"
  scale_param {
    bias_term: true
  }
}
layer {
  name: "relu_c_1_1"
  type: "ReLU"
  bottom: "sc_c_1_1"
  top: "relu_c_1_1"
}
layer {
  name: "conv_c_1_1"
  type: "Convolution"
  bottom: "relu_c_1_1"
  top: "conv_c_1_1"
  param {
    lr_mult: 1
    decay_mult: 1
  }
  param {
    lr_mult: 2
    decay_mult: 1
  }
  convolution_param {
    num_output: 64
    pad: 1
    kernel_size: 3
    stride: 1
    weight_filler {
      type: "msra"
    }
    bias_filler {
      type: "constant"
    }
  }
}
layer {
  name: "bn_c_1_2"
  type: "BatchNorm"
  bottom: "conv_c_1_1"
  top: "bn_c_1_2"
  param {
    lr_mult: 0
  }
  param {
    lr_mult: 0
  }
  param {
    lr_mult: 0
  }
  batch_norm_param {
    use_global_stats: false
  }
}
layer {
  name: "sc_c_1_2"
  type: "Scale"
  bottom: "bn_c_1_2"
  top: "sc_c_1_2"
  scale_param {
    bias_term: true
  }
}
layer {
  name: "relu_c_1_2"
  type: "ReLU"
  bottom: "sc_c_1_2"
  top: "relu_c_1_2"
}
layer {
  name: "conv_c_1_2"
  type: "Convolution"
  bottom: "relu_c_1_2"
  top: "conv_c_1_2"
  param {
    lr_mult: 1
    decay_mult: 1
  }
  param {
    lr_mult: 2
    decay_mult: 1
  }
  convolution_param {
    num_output: 64
    pad: 1
    kernel_size: 3
    stride: 1
    weight_filler {
      type: "msra"
    }
    bias_filler {
      type: "constant"
    }
  }
}
layer {
  name: "res_c"
  type: "Convolution"
  bottom: "conv0"
  top: "res_c"
  param {
    lr_mult: 1
    decay_mult: 1
  }
  param {
    lr_mult: 2
    decay_mult: 1
  }
  convolution_param {
    num_output: 64
    pad: 0
    kernel_size: 1
    stride: 1
    weight_filler {
      type: "msra"
    }
    bias_filler {
      type: "constant"
    }
  }
}
layer {
  name: "elt_c_1"
  type: "Eltwise"
  bottom: "res_c"
  bottom: "conv_c_1_2"
  top: "elt_c_1"
  eltwise_param {
    operation: SUM
  }
}
layer {
  name: "bn_d_1_1"
  type: "BatchNorm"
  bottom: "elt_a_1"
  top: "bn_d_1_1"
  param {
    lr_mult: 0
  }
  param {
    lr_mult: 0
  }
  param {
    lr_mult: 0
  }
  batch_norm_param {
    use_global_stats: false
  }
}
layer {
  name: "sc_d_1_1"
  type: "Scale"
  bottom: "bn_d_1_1"
  top: "sc_d_1_1"
  scale_param {
    bias_term: true
  }
}
layer {
  name: "relu_d_1_1"
  type: "ReLU"
  bottom: "sc_d_1_1"
  top: "relu_d_1_1"
}
layer {
  name: "conv_d_1_1"
  type: "Convolution"
  bottom: "relu_d_1_1"
  top: "conv_d_1_1"
  param {
    lr_mult: 1
    decay_mult: 1
  }
  param {
    lr_mult: 2
    decay_mult: 1
  }
  convolution_param {
    num_output: 128
    pad: 1
    kernel_size: 3
    stride: 2
    weight_filler {
      type: "msra"
    }
    bias_filler {
      type: "constant"
    }
  }
}
layer {
  name: "bn_d_1_2"
  type: "BatchNorm"
  bottom: "conv_d_1_1"
  top: "bn_d_1_2"
  param {
    lr_mult: 0
  }
  param {
    lr_mult: 0
  }
  param {
    lr_mult: 0
  }
  batch_norm_param {
    use_global_stats: false
  }
}
layer {
  name: "sc_d_1_2"
  type: "Scale"
  bottom: "bn_d_1_2"
  top: "sc_d_1_2"
  scale_param {
    bias_term: true
  }
}
layer {
  name: "relu_d_1_2"
  type: "ReLU"
  bottom: "sc_d_1_2"
  top: "relu_d_1_2"
}
layer {
  name: "conv_d_1_2"
  type: "Convolution"
  bottom: "relu_d_1_2"
  top: "conv_d_1_2"
  param {
    lr_mult: 1
    decay_mult: 1
  }
  param {
    lr_mult: 2
    decay_mult: 1
  }
  convolution_param {
    num_output: 128
    pad: 1
    kernel_size: 3
    stride: 1
    weight_filler {
      type: "msra"
    }
    bias_filler {
      type: "constant"
    }
  }
}
layer {
  name: "res_d"
  type: "Convolution"
  bottom: "elt_a_1"
  top: "res_d"
  param {
    lr_mult: 1
    decay_mult: 1
  }
  param {
    lr_mult: 2
    decay_mult: 1
  }
  convolution_param {
    num_output: 128
    pad: 0
    kernel_size: 1
    stride: 2
    weight_filler {
      type: "msra"
    }
    bias_filler {
      type: "constant"
    }
  }
}
layer {
  name: "elt_d_1"
  type: "Eltwise"
  bottom: "res_d"
  bottom: "conv_d_1_2"
  top: "elt_d_1"
  eltwise_param {
    operation: SUM
  }
}
layer {
  name: "bn_f_1_1"
  type: "BatchNorm"
  bottom: "elt_b_1"
  top: "bn_f_1_1"
  param {
    lr_mult: 0
  }
  param {
    lr_mult: 0
  }
  param {
    lr_mult: 0
  }
  batch_norm_param {
    use_global_stats: false
  }
}
layer {
  name: "sc_f_1_1"
  type: "Scale"
  bottom: "bn_f_1_1"
  top: "sc_f_1_1"
  scale_param {
    bias_term: true
  }
}
layer {
  name: "relu_f_1_1"
  type: "ReLU"
  bottom: "sc_f_1_1"
  top: "relu_f_1_1"
}
layer {
  name: "conv_f_1_1"
  type: "Convolution"
  bottom: "relu_f_1_1"
  top: "conv_f_1_1"
  param {
    lr_mult: 1
    decay_mult: 1
  }
  param {
    lr_mult: 2
    decay_mult: 1
  }
  convolution_param {
    num_output: 128
    pad: 1
    kernel_size: 3
    stride: 2
    weight_filler {
      type: "msra"
    }
    bias_filler {
      type: "constant"
    }
  }
}
layer {
  name: "bn_f_1_2"
  type: "BatchNorm"
  bottom: "conv_f_1_1"
  top: "bn_f_1_2"
  param {
    lr_mult: 0
  }
  param {
    lr_mult: 0
  }
  param {
    lr_mult: 0
  }
  batch_norm_param {
    use_global_stats: false
  }
}
layer {
  name: "sc_f_1_2"
  type: "Scale"
  bottom: "bn_f_1_2"
  top: "sc_f_1_2"
  scale_param {
    bias_term: true
  }
}
layer {
  name: "relu_f_1_2"
  type: "ReLU"
  bottom: "sc_f_1_2"
  top: "relu_f_1_2"
}
layer {
  name: "conv_f_1_2"
  type: "Convolution"
  bottom: "relu_f_1_2"
  top: "conv_f_1_2"
  param {
    lr_mult: 1
    decay_mult: 1
  }
  param {
    lr_mult: 2
    decay_mult: 1
  }
  convolution_param {
    num_output: 128
    pad: 1
    kernel_size: 3
    stride: 1
    weight_filler {
      type: "msra"
    }
    bias_filler {
      type: "constant"
    }
  }
}
layer {
  name: "res_f"
  type: "Convolution"
  bottom: "elt_b_1"
  top: "res_f"
  param {
    lr_mult: 1
    decay_mult: 1
  }
  param {
    lr_mult: 2
    decay_mult: 1
  }
  convolution_param {
    num_output: 128
    pad: 0
    kernel_size: 1
    stride: 2
    weight_filler {
      type: "msra"
    }
    bias_filler {
      type: "constant"
    }
  }
}
layer {
  name: "elt_f_1"
  type: "Eltwise"
  bottom: "res_f"
  bottom: "conv_f_1_2"
  top: "elt_f_1"
  eltwise_param {
    operation: SUM
  }
}
layer {
  name: "bn_g_1_1"
  type: "BatchNorm"
  bottom: "elt_b_1"
  top: "bn_g_1_1"
  param {
    lr_mult: 0
  }
  param {
    lr_mult: 0
  }
  param {
    lr_mult: 0
  }
  batch_norm_param {
    use_global_stats: false
  }
}
layer {
  name: "sc_g_1_1"
  type: "Scale"
  bottom: "bn_g_1_1"
  top: "sc_g_1_1"
  scale_param {
    bias_term: true
  }
}
layer {
  name: "relu_g_1_1"
  type: "ReLU"
  bottom: "sc_g_1_1"
  top: "relu_g_1_1"
}
layer {
  name: "conv_g_1_1"
  type: "Convolution"
  bottom: "relu_g_1_1"
  top: "conv_g_1_1"
  param {
    lr_mult: 1
    decay_mult: 1
  }
  param {
    lr_mult: 2
    decay_mult: 1
  }
  convolution_param {
    num_output: 128
    pad: 1
    kernel_size: 3
    stride: 2
    weight_filler {
      type: "msra"
    }
    bias_filler {
      type: "constant"
    }
  }
}
layer {
  name: "bn_g_1_2"
  type: "BatchNorm"
  bottom: "conv_g_1_1"
  top: "bn_g_1_2"
  param {
    lr_mult: 0
  }
  param {
    lr_mult: 0
  }
  param {
    lr_mult: 0
  }
  batch_norm_param {
    use_global_stats: false
  }
}
layer {
  name: "sc_g_1_2"
  type: "Scale"
  bottom: "bn_g_1_2"
  top: "sc_g_1_2"
  scale_param {
    bias_term: true
  }
}
layer {
  name: "relu_g_1_2"
  type: "ReLU"
  bottom: "sc_g_1_2"
  top: "relu_g_1_2"
}
layer {
  name: "conv_g_1_2"
  type: "Convolution"
  bottom: "relu_g_1_2"
  top: "conv_g_1_2"
  param {
    lr_mult: 1
    decay_mult: 1
  }
  param {
    lr_mult: 2
    decay_mult: 1
  }
  convolution_param {
    num_output: 128
    pad: 1
    kernel_size: 3
    stride: 1
    weight_filler {
      type: "msra"
    }
    bias_filler {
      type: "constant"
    }
  }
}
layer {
  name: "res_g"
  type: "Convolution"
  bottom: "elt_b_1"
  top: "res_g"
  param {
    lr_mult: 1
    decay_mult: 1
  }
  param {
    lr_mult: 2
    decay_mult: 1
  }
  convolution_param {
    num_output: 128
    pad: 0
    kernel_size: 1
    stride: 2
    weight_filler {
      type: "msra"
    }
    bias_filler {
      type: "constant"
    }
  }
}
layer {
  name: "elt_g_1"
  type: "Eltwise"
  bottom: "res_g"
  bottom: "conv_g_1_2"
  top: "elt_g_1"
  eltwise_param {
    operation: SUM
  }
}
layer {
  name: "bn_h_1_1"
  type: "BatchNorm"
  bottom: "elt_c_1"
  top: "bn_h_1_1"
  param {
    lr_mult: 0
  }
  param {
    lr_mult: 0
  }
  param {
    lr_mult: 0
  }
  batch_norm_param {
    use_global_stats: false
  }
}
layer {
  name: "sc_h_1_1"
  type: "Scale"
  bottom: "bn_h_1_1"
  top: "sc_h_1_1"
  scale_param {
    bias_term: true
  }
}
layer {
  name: "relu_h_1_1"
  type: "ReLU"
  bottom: "sc_h_1_1"
  top: "relu_h_1_1"
}
layer {
  name: "conv_h_1_1"
  type: "Convolution"
  bottom: "relu_h_1_1"
  top: "conv_h_1_1"
  param {
    lr_mult: 1
    decay_mult: 1
  }
  param {
    lr_mult: 2
    decay_mult: 1
  }
  convolution_param {
    num_output: 128
    pad: 1
    kernel_size: 3
    stride: 2
    weight_filler {
      type: "msra"
    }
    bias_filler {
      type: "constant"
    }
  }
}
layer {
  name: "bn_h_1_2"
  type: "BatchNorm"
  bottom: "conv_h_1_1"
  top: "bn_h_1_2"
  param {
    lr_mult: 0
  }
  param {
    lr_mult: 0
  }
  param {
    lr_mult: 0
  }
  batch_norm_param {
    use_global_stats: false
  }
}
layer {
  name: "sc_h_1_2"
  type: "Scale"
  bottom: "bn_h_1_2"
  top: "sc_h_1_2"
  scale_param {
    bias_term: true
  }
}
layer {
  name: "relu_h_1_2"
  type: "ReLU"
  bottom: "sc_h_1_2"
  top: "relu_h_1_2"
}
layer {
  name: "conv_h_1_2"
  type: "Convolution"
  bottom: "relu_h_1_2"
  top: "conv_h_1_2"
  param {
    lr_mult: 1
    decay_mult: 1
  }
  param {
    lr_mult: 2
    decay_mult: 1
  }
  convolution_param {
    num_output: 128
    pad: 1
    kernel_size: 3
    stride: 1
    weight_filler {
      type: "msra"
    }
    bias_filler {
      type: "constant"
    }
  }
}
layer {
  name: "res_h"
  type: "Convolution"
  bottom: "elt_c_1"
  top: "res_h"
  param {
    lr_mult: 1
    decay_mult: 1
  }
  param {
    lr_mult: 2
    decay_mult: 1
  }
  convolution_param {
    num_output: 128
    pad: 0
    kernel_size: 1
    stride: 2
    weight_filler {
      type: "msra"
    }
    bias_filler {
      type: "constant"
    }
  }
}
layer {
  name: "elt_h_1"
  type: "Eltwise"
  bottom: "res_h"
  bottom: "conv_h_1_2"
  top: "elt_h_1"
  eltwise_param {
    operation: SUM
  }
}
layer {
  name: "bn_i_1_1"
  type: "BatchNorm"
  bottom: "elt_c_1"
  top: "bn_i_1_1"
  param {
    lr_mult: 0
  }
  param {
    lr_mult: 0
  }
  param {
    lr_mult: 0
  }
  batch_norm_param {
    use_global_stats: false
  }
}
layer {
  name: "sc_i_1_1"
  type: "Scale"
  bottom: "bn_i_1_1"
  top: "sc_i_1_1"
  scale_param {
    bias_term: true
  }
}
layer {
  name: "relu_i_1_1"
  type: "ReLU"
  bottom: "sc_i_1_1"
  top: "relu_i_1_1"
}
layer {
  name: "conv_i_1_1"
  type: "Convolution"
  bottom: "relu_i_1_1"
  top: "conv_i_1_1"
  param {
    lr_mult: 1
    decay_mult: 1
  }
  param {
    lr_mult: 2
    decay_mult: 1
  }
  convolution_param {
    num_output: 128
    pad: 1
    kernel_size: 3
    stride: 2
    weight_filler {
      type: "msra"
    }
    bias_filler {
      type: "constant"
    }
  }
}
layer {
  name: "bn_i_1_2"
  type: "BatchNorm"
  bottom: "conv_i_1_1"
  top: "bn_i_1_2"
  param {
    lr_mult: 0
  }
  param {
    lr_mult: 0
  }
  param {
    lr_mult: 0
  }
  batch_norm_param {
    use_global_stats: false
  }
}
layer {
  name: "sc_i_1_2"
  type: "Scale"
  bottom: "bn_i_1_2"
  top: "sc_i_1_2"
  scale_param {
    bias_term: true
  }
}
layer {
  name: "relu_i_1_2"
  type: "ReLU"
  bottom: "sc_i_1_2"
  top: "relu_i_1_2"
}
layer {
  name: "conv_i_1_2"
  type: "Convolution"
  bottom: "relu_i_1_2"
  top: "conv_i_1_2"
  param {
    lr_mult: 1
    decay_mult: 1
  }
  param {
    lr_mult: 2
    decay_mult: 1
  }
  convolution_param {
    num_output: 128
    pad: 1
    kernel_size: 3
    stride: 1
    weight_filler {
      type: "msra"
    }
    bias_filler {
      type: "constant"
    }
  }
}
layer {
  name: "res_i"
  type: "Convolution"
  bottom: "elt_c_1"
  top: "res_i"
  param {
    lr_mult: 1
    decay_mult: 1
  }
  param {
    lr_mult: 2
    decay_mult: 1
  }
  convolution_param {
    num_output: 128
    pad: 0
    kernel_size: 1
    stride: 2
    weight_filler {
      type: "msra"
    }
    bias_filler {
      type: "constant"
    }
  }
}
layer {
  name: "elt_i_1"
  type: "Eltwise"
  bottom: "res_i"
  bottom: "conv_i_1_2"
  top: "elt_i_1"
  eltwise_param {
    operation: SUM
  }
}
layer {
  name: "elt_d_f"
  type: "Eltwise"
  bottom: "elt_d_1"
  bottom: "elt_f_1"
  top: "elt_d_f"
  eltwise_param {
    operation: SUM
  }
}
layer {
  name: "elt_g_i"
  type: "Eltwise"
  bottom: "elt_g_1"
  bottom: "elt_i_1"
  top: "elt_g_i"
  eltwise_param {
    operation: SUM
  }
}
layer {
  name: "bn_j_1_1"
  type: "BatchNorm"
  bottom: "elt_d_f"
  top: "bn_j_1_1"
  param {
    lr_mult: 0
  }
  param {
    lr_mult: 0
  }
  param {
    lr_mult: 0
  }
  batch_norm_param {
    use_global_stats: false
  }
}
layer {
  name: "sc_j_1_1"
  type: "Scale"
  bottom: "bn_j_1_1"
  top: "sc_j_1_1"
  scale_param {
    bias_term: true
  }
}
layer {
  name: "relu_j_1_1"
  type: "ReLU"
  bottom: "sc_j_1_1"
  top: "relu_j_1_1"
}
layer {
  name: "conv_j_1_1"
  type: "Convolution"
  bottom: "relu_j_1_1"
  top: "conv_j_1_1"
  param {
    lr_mult: 1
    decay_mult: 1
  }
  param {
    lr_mult: 2
    decay_mult: 1
  }
  convolution_param {
    num_output: 256
    pad: 1
    kernel_size: 3
    stride: 2
    weight_filler {
      type: "msra"
    }
    bias_filler {
      type: "constant"
    }
  }
}
layer {
  name: "bn_j_1_2"
  type: "BatchNorm"
  bottom: "conv_j_1_1"
  top: "bn_j_1_2"
  param {
    lr_mult: 0
  }
  param {
    lr_mult: 0
  }
  param {
    lr_mult: 0
  }
  batch_norm_param {
    use_global_stats: false
  }
}
layer {
  name: "sc_j_1_2"
  type: "Scale"
  bottom: "bn_j_1_2"
  top: "sc_j_1_2"
  scale_param {
    bias_term: true
  }
}
layer {
  name: "relu_j_1_2"
  type: "ReLU"
  bottom: "sc_j_1_2"
  top: "relu_j_1_2"
}
layer {
  name: "conv_j_1_2"
  type: "Convolution"
  bottom: "relu_j_1_2"
  top: "conv_j_1_2"
  param {
    lr_mult: 1
    decay_mult: 1
  }
  param {
    lr_mult: 2
    decay_mult: 1
  }
  convolution_param {
    num_output: 256
    pad: 1
    kernel_size: 3
    stride: 1
    weight_filler {
      type: "msra"
    }
    bias_filler {
      type: "constant"
    }
  }
}
layer {
  name: "res_j"
  type: "Convolution"
  bottom: "elt_d_f"
  top: "res_j"
  param {
    lr_mult: 1
    decay_mult: 1
  }
  param {
    lr_mult: 2
    decay_mult: 1
  }
  convolution_param {
    num_output: 256
    pad: 0
    kernel_size: 1
    stride: 2
    weight_filler {
      type: "msra"
    }
    bias_filler {
      type: "constant"
    }
  }
}
layer {
  name: "elt_j_1"
  type: "Eltwise"
  bottom: "res_j"
  bottom: "conv_j_1_2"
  top: "elt_j_1"
  eltwise_param {
    operation: SUM
  }
}
layer {
  name: "bn_e_1_1"
  type: "BatchNorm"
  bottom: "elt_a_1"
  top: "bn_e_1_1"
  param {
    lr_mult: 0
  }
  param {
    lr_mult: 0
  }
  param {
    lr_mult: 0
  }
  batch_norm_param {
    use_global_stats: false
  }
}
layer {
  name: "sc_e_1_1"
  type: "Scale"
  bottom: "bn_e_1_1"
  top: "sc_e_1_1"
  scale_param {
    bias_term: true
  }
}
layer {
  name: "relu_e_1_1"
  type: "ReLU"
  bottom: "sc_e_1_1"
  top: "relu_e_1_1"
}
layer {
  name: "conv_e_1_1"
  type: "Convolution"
  bottom: "relu_e_1_1"
  top: "conv_e_1_1"
  param {
    lr_mult: 1
    decay_mult: 1
  }
  param {
    lr_mult: 2
    decay_mult: 1
  }
  convolution_param {
    num_output: 128
    pad: 1
    kernel_size: 3
    stride: 2
    weight_filler {
      type: "msra"
    }
    bias_filler {
      type: "constant"
    }
  }
}
layer {
  name: "bn_e_1_2"
  type: "BatchNorm"
  bottom: "conv_e_1_1"
  top: "bn_e_1_2"
  param {
    lr_mult: 0
  }
  param {
    lr_mult: 0
  }
  param {
    lr_mult: 0
  }
  batch_norm_param {
    use_global_stats: false
  }
}
layer {
  name: "sc_e_1_2"
  type: "Scale"
  bottom: "bn_e_1_2"
  top: "sc_e_1_2"
  scale_param {
    bias_term: true
  }
}
layer {
  name: "relu_e_1_2"
  type: "ReLU"
  bottom: "sc_e_1_2"
  top: "relu_e_1_2"
}
layer {
  name: "conv_e_1_2"
  type: "Convolution"
  bottom: "relu_e_1_2"
  top: "conv_e_1_2"
  param {
    lr_mult: 1
    decay_mult: 1
  }
  param {
    lr_mult: 2
    decay_mult: 1
  }
  convolution_param {
    num_output: 128
    pad: 1
    kernel_size: 3
    stride: 1
    weight_filler {
      type: "msra"
    }
    bias_filler {
      type: "constant"
    }
  }
}
layer {
  name: "res_e"
  type: "Convolution"
  bottom: "elt_a_1"
  top: "res_e"
  param {
    lr_mult: 1
    decay_mult: 1
  }
  param {
    lr_mult: 2
    decay_mult: 1
  }
  convolution_param {
    num_output: 128
    pad: 0
    kernel_size: 1
    stride: 2
    weight_filler {
      type: "msra"
    }
    bias_filler {
      type: "constant"
    }
  }
}
layer {
  name: "elt_e_1"
  type: "Eltwise"
  bottom: "res_e"
  bottom: "conv_e_1_2"
  top: "elt_e_1"
  eltwise_param {
    operation: SUM
  }
}
layer {
  name: "elt_e_h"
  type: "Eltwise"
  bottom: "elt_e_1"
  bottom: "elt_h_1"
  top: "elt_e_h"
  eltwise_param {
    operation: SUM
  }
}
layer {
  name: "bn_k_1_1"
  type: "BatchNorm"
  bottom: "elt_e_h"
  top: "bn_k_1_1"
  param {
    lr_mult: 0
  }
  param {
    lr_mult: 0
  }
  param {
    lr_mult: 0
  }
  batch_norm_param {
    use_global_stats: false
  }
}
layer {
  name: "sc_k_1_1"
  type: "Scale"
  bottom: "bn_k_1_1"
  top: "sc_k_1_1"
  scale_param {
    bias_term: true
  }
}
layer {
  name: "relu_k_1_1"
  type: "ReLU"
  bottom: "sc_k_1_1"
  top: "relu_k_1_1"
}
layer {
  name: "conv_k_1_1"
  type: "Convolution"
  bottom: "relu_k_1_1"
  top: "conv_k_1_1"
  param {
    lr_mult: 1
    decay_mult: 1
  }
  param {
    lr_mult: 2
    decay_mult: 1
  }
  convolution_param {
    num_output: 256
    pad: 1
    kernel_size: 3
    stride: 2
    weight_filler {
      type: "msra"
    }
    bias_filler {
      type: "constant"
    }
  }
}
layer {
  name: "bn_k_1_2"
  type: "BatchNorm"
  bottom: "conv_k_1_1"
  top: "bn_k_1_2"
  param {
    lr_mult: 0
  }
  param {
    lr_mult: 0
  }
  param {
    lr_mult: 0
  }
  batch_norm_param {
    use_global_stats: false
  }
}
layer {
  name: "sc_k_1_2"
  type: "Scale"
  bottom: "bn_k_1_2"
  top: "sc_k_1_2"
  scale_param {
    bias_term: true
  }
}
layer {
  name: "relu_k_1_2"
  type: "ReLU"
  bottom: "sc_k_1_2"
  top: "relu_k_1_2"
}
layer {
  name: "conv_k_1_2"
  type: "Convolution"
  bottom: "relu_k_1_2"
  top: "conv_k_1_2"
  param {
    lr_mult: 1
    decay_mult: 1
  }
  param {
    lr_mult: 2
    decay_mult: 1
  }
  convolution_param {
    num_output: 256
    pad: 1
    kernel_size: 3
    stride: 1
    weight_filler {
      type: "msra"
    }
    bias_filler {
      type: "constant"
    }
  }
}
layer {
  name: "res_k"
  type: "Convolution"
  bottom: "elt_e_h"
  top: "res_k"
  param {
    lr_mult: 1
    decay_mult: 1
  }
  param {
    lr_mult: 2
    decay_mult: 1
  }
  convolution_param {
    num_output: 256
    pad: 0
    kernel_size: 1
    stride: 2
    weight_filler {
      type: "msra"
    }
    bias_filler {
      type: "constant"
    }
  }
}
layer {
  name: "elt_k_1"
  type: "Eltwise"
  bottom: "res_k"
  bottom: "conv_k_1_2"
  top: "elt_k_1"
  eltwise_param {
    operation: SUM
  }
}
layer {
  name: "bn_l_1_1"
  type: "BatchNorm"
  bottom: "elt_g_i"
  top: "bn_l_1_1"
  param {
    lr_mult: 0
  }
  param {
    lr_mult: 0
  }
  param {
    lr_mult: 0
  }
  batch_norm_param {
    use_global_stats: false
  }
}
layer {
  name: "sc_l_1_1"
  type: "Scale"
  bottom: "bn_l_1_1"
  top: "sc_l_1_1"
  scale_param {
    bias_term: true
  }
}
layer {
  name: "relu_l_1_1"
  type: "ReLU"
  bottom: "sc_l_1_1"
  top: "relu_l_1_1"
}
layer {
  name: "conv_l_1_1"
  type: "Convolution"
  bottom: "relu_l_1_1"
  top: "conv_l_1_1"
  param {
    lr_mult: 1
    decay_mult: 1
  }
  param {
    lr_mult: 2
    decay_mult: 1
  }
  convolution_param {
    num_output: 256
    pad: 1
    kernel_size: 3
    stride: 2
    weight_filler {
      type: "msra"
    }
    bias_filler {
      type: "constant"
    }
  }
}
layer {
  name: "bn_l_1_2"
  type: "BatchNorm"
  bottom: "conv_l_1_1"
  top: "bn_l_1_2"
  param {
    lr_mult: 0
  }
  param {
    lr_mult: 0
  }
  param {
    lr_mult: 0
  }
  batch_norm_param {
    use_global_stats: false
  }
}
layer {
  name: "sc_l_1_2"
  type: "Scale"
  bottom: "bn_l_1_2"
  top: "sc_l_1_2"
  scale_param {
    bias_term: true
  }
}
layer {
  name: "relu_l_1_2"
  type: "ReLU"
  bottom: "sc_l_1_2"
  top: "relu_l_1_2"
}
layer {
  name: "conv_l_1_2"
  type: "Convolution"
  bottom: "relu_l_1_2"
  top: "conv_l_1_2"
  param {
    lr_mult: 1
    decay_mult: 1
  }
  param {
    lr_mult: 2
    decay_mult: 1
  }
  convolution_param {
    num_output: 256
    pad: 1
    kernel_size: 3
    stride: 1
    weight_filler {
      type: "msra"
    }
    bias_filler {
      type: "constant"
    }
  }
}
layer {
  name: "res_l"
  type: "Convolution"
  bottom: "elt_g_i"
  top: "res_l"
  param {
    lr_mult: 1
    decay_mult: 1
  }
  param {
    lr_mult: 2
    decay_mult: 1
  }
  convolution_param {
    num_output: 256
    pad: 0
    kernel_size: 1
    stride: 2
    weight_filler {
      type: "msra"
    }
    bias_filler {
      type: "constant"
    }
  }
}
layer {
  name: "elt_l_1"
  type: "Eltwise"
  bottom: "res_l"
  bottom: "conv_l_1_2"
  top: "elt_l_1"
  eltwise_param {
    operation: SUM
  }
}
layer {
  name: "concat_j_k_l"
  type: "Concat"
  bottom: "elt_j_1"
  bottom: "elt_k_1"
  bottom: "elt_l_1"
  top: "elt_j_k_l"
  concat_param {
    axis: 1
  }
}
layer {
  name: "bn_m_1_1"
  type: "BatchNorm"
  bottom: "elt_j_k_l"
  top: "bn_m_1_1"
  param {
    lr_mult: 0
  }
  param {
    lr_mult: 0
  }
  param {
    lr_mult: 0
  }
  batch_norm_param {
    use_global_stats: false
  }
}
layer {
  name: "sc_m_1_1"
  type: "Scale"
  bottom: "bn_m_1_1"
  top: "sc_m_1_1"
  scale_param {
    bias_term: true
  }
}
layer {
  name: "relu_m_1_1"
  type: "ReLU"
  bottom: "sc_m_1_1"
  top: "relu_m_1_1"
}
layer {
  name: "gap"
  type: "Pooling"
  bottom: "relu_m_1_1"
  top: "gap"
  pooling_param {
    pool: AVE
    kernel_size: 8
    stride: 1
  }
}
layer {
  name: "ip1"
  type: "InnerProduct"
  bottom: "gap"
  top: "ip1"
  param {
    lr_mult: 1
    decay_mult: 1
  }
  param {
    lr_mult: 2
    decay_mult: 0
  }
  inner_product_param {
    num_output: 10
    weight_filler {
      type: "msra"
    }
    bias_filler {
      type: "constant"
      value: 0
    }
  }
}
layer {
  name: "accuracy"
  type: "Accuracy"
  bottom: "ip1"
  bottom: "label"
  top: "accuracy"
  include {
    phase: TEST
  }
}
layer {
  name: "loss"
  type: "SoftmaxWithLoss"
  bottom: "ip1"
  bottom: "label"
  top: "loss"
}
I0621 23:28:58.813679 27723 layer_factory.hpp:77] Creating layer resnet
I0621 23:28:58.814282 27723 net.cpp:91] Creating Layer resnet
I0621 23:28:58.814294 27723 net.cpp:399] resnet -> data
I0621 23:28:58.814306 27723 net.cpp:399] resnet -> label
I0621 23:28:58.814318 27723 data_transformer.cpp:25] Loading mean file from: /home/takeki/caffe/examples/cifar10/mean.binaryproto
I0621 23:28:58.815856 27768 db_lmdb.cpp:35] Opened lmdb /home/takeki/caffe/examples/cifar10/cifar10_test_lmdb
I0621 23:28:58.816020 27723 data_layer.cpp:41] output data size: 100,3,32,32
I0621 23:28:58.819222 27723 net.cpp:141] Setting up resnet
I0621 23:28:58.819242 27723 net.cpp:148] Top shape: 100 3 32 32 (307200)
I0621 23:28:58.819255 27723 net.cpp:148] Top shape: 100 (100)
I0621 23:28:58.819274 27723 net.cpp:156] Memory required for data: 1229200
I0621 23:28:58.819280 27723 layer_factory.hpp:77] Creating layer label_resnet_1_split
I0621 23:28:58.819290 27723 net.cpp:91] Creating Layer label_resnet_1_split
I0621 23:28:58.819298 27723 net.cpp:425] label_resnet_1_split <- label
I0621 23:28:58.819306 27723 net.cpp:399] label_resnet_1_split -> label_resnet_1_split_0
I0621 23:28:58.819319 27723 net.cpp:399] label_resnet_1_split -> label_resnet_1_split_1
I0621 23:28:58.819435 27723 net.cpp:141] Setting up label_resnet_1_split
I0621 23:28:58.819449 27723 net.cpp:148] Top shape: 100 (100)
I0621 23:28:58.819458 27723 net.cpp:148] Top shape: 100 (100)
I0621 23:28:58.819463 27723 net.cpp:156] Memory required for data: 1230000
I0621 23:28:58.819468 27723 layer_factory.hpp:77] Creating layer conv0
I0621 23:28:58.819484 27723 net.cpp:91] Creating Layer conv0
I0621 23:28:58.819491 27723 net.cpp:425] conv0 <- data
I0621 23:28:58.819524 27723 net.cpp:399] conv0 -> conv0
I0621 23:28:58.821041 27723 net.cpp:141] Setting up conv0
I0621 23:28:58.821059 27723 net.cpp:148] Top shape: 100 16 32 32 (1638400)
I0621 23:28:58.821066 27723 net.cpp:156] Memory required for data: 7783600
I0621 23:28:58.821084 27723 layer_factory.hpp:77] Creating layer conv0_conv0_0_split
I0621 23:28:58.821094 27723 net.cpp:91] Creating Layer conv0_conv0_0_split
I0621 23:28:58.821102 27723 net.cpp:425] conv0_conv0_0_split <- conv0
I0621 23:28:58.821112 27723 net.cpp:399] conv0_conv0_0_split -> conv0_conv0_0_split_0
I0621 23:28:58.821133 27723 net.cpp:399] conv0_conv0_0_split -> conv0_conv0_0_split_1
I0621 23:28:58.821146 27723 net.cpp:399] conv0_conv0_0_split -> conv0_conv0_0_split_2
I0621 23:28:58.821156 27723 net.cpp:399] conv0_conv0_0_split -> conv0_conv0_0_split_3
I0621 23:28:58.821167 27723 net.cpp:399] conv0_conv0_0_split -> conv0_conv0_0_split_4
I0621 23:28:58.821177 27723 net.cpp:399] conv0_conv0_0_split -> conv0_conv0_0_split_5
I0621 23:28:58.821298 27723 net.cpp:141] Setting up conv0_conv0_0_split
I0621 23:28:58.821312 27723 net.cpp:148] Top shape: 100 16 32 32 (1638400)
I0621 23:28:58.821319 27723 net.cpp:148] Top shape: 100 16 32 32 (1638400)
I0621 23:28:58.821326 27723 net.cpp:148] Top shape: 100 16 32 32 (1638400)
I0621 23:28:58.821336 27723 net.cpp:148] Top shape: 100 16 32 32 (1638400)
I0621 23:28:58.821341 27723 net.cpp:148] Top shape: 100 16 32 32 (1638400)
I0621 23:28:58.821346 27723 net.cpp:148] Top shape: 100 16 32 32 (1638400)
I0621 23:28:58.821354 27723 net.cpp:156] Memory required for data: 47105200
I0621 23:28:58.821362 27723 layer_factory.hpp:77] Creating layer bn_a_1_1
I0621 23:28:58.821370 27723 net.cpp:91] Creating Layer bn_a_1_1
I0621 23:28:58.821378 27723 net.cpp:425] bn_a_1_1 <- conv0_conv0_0_split_0
I0621 23:28:58.821393 27723 net.cpp:399] bn_a_1_1 -> bn_a_1_1
I0621 23:28:58.821657 27723 net.cpp:141] Setting up bn_a_1_1
I0621 23:28:58.821671 27723 net.cpp:148] Top shape: 100 16 32 32 (1638400)
I0621 23:28:58.821676 27723 net.cpp:156] Memory required for data: 53658800
I0621 23:28:58.821691 27723 layer_factory.hpp:77] Creating layer sc_a_1_1
I0621 23:28:58.821705 27723 net.cpp:91] Creating Layer sc_a_1_1
I0621 23:28:58.821712 27723 net.cpp:425] sc_a_1_1 <- bn_a_1_1
I0621 23:28:58.821722 27723 net.cpp:399] sc_a_1_1 -> sc_a_1_1
I0621 23:28:58.821782 27723 layer_factory.hpp:77] Creating layer sc_a_1_1
I0621 23:28:58.821940 27723 net.cpp:141] Setting up sc_a_1_1
I0621 23:28:58.821952 27723 net.cpp:148] Top shape: 100 16 32 32 (1638400)
I0621 23:28:58.821957 27723 net.cpp:156] Memory required for data: 60212400
I0621 23:28:58.821979 27723 layer_factory.hpp:77] Creating layer relu_a_1_1
I0621 23:28:58.821995 27723 net.cpp:91] Creating Layer relu_a_1_1
I0621 23:28:58.822010 27723 net.cpp:425] relu_a_1_1 <- sc_a_1_1
I0621 23:28:58.822023 27723 net.cpp:399] relu_a_1_1 -> relu_a_1_1
I0621 23:28:58.822690 27723 net.cpp:141] Setting up relu_a_1_1
I0621 23:28:58.822713 27723 net.cpp:148] Top shape: 100 16 32 32 (1638400)
I0621 23:28:58.822721 27723 net.cpp:156] Memory required for data: 66766000
I0621 23:28:58.822726 27723 layer_factory.hpp:77] Creating layer conv_a_1_1
I0621 23:28:58.822742 27723 net.cpp:91] Creating Layer conv_a_1_1
I0621 23:28:58.822751 27723 net.cpp:425] conv_a_1_1 <- relu_a_1_1
I0621 23:28:58.822767 27723 net.cpp:399] conv_a_1_1 -> conv_a_1_1
I0621 23:28:58.824247 27723 net.cpp:141] Setting up conv_a_1_1
I0621 23:28:58.824265 27723 net.cpp:148] Top shape: 100 64 32 32 (6553600)
I0621 23:28:58.824271 27723 net.cpp:156] Memory required for data: 92980400
I0621 23:28:58.824288 27723 layer_factory.hpp:77] Creating layer bn_a_1_2
I0621 23:28:58.824301 27723 net.cpp:91] Creating Layer bn_a_1_2
I0621 23:28:58.824309 27723 net.cpp:425] bn_a_1_2 <- conv_a_1_1
I0621 23:28:58.824317 27723 net.cpp:399] bn_a_1_2 -> bn_a_1_2
I0621 23:28:58.824615 27723 net.cpp:141] Setting up bn_a_1_2
I0621 23:28:58.824628 27723 net.cpp:148] Top shape: 100 64 32 32 (6553600)
I0621 23:28:58.824635 27723 net.cpp:156] Memory required for data: 119194800
I0621 23:28:58.824658 27723 layer_factory.hpp:77] Creating layer sc_a_1_2
I0621 23:28:58.824672 27723 net.cpp:91] Creating Layer sc_a_1_2
I0621 23:28:58.824679 27723 net.cpp:425] sc_a_1_2 <- bn_a_1_2
I0621 23:28:58.824687 27723 net.cpp:399] sc_a_1_2 -> sc_a_1_2
I0621 23:28:58.824839 27723 layer_factory.hpp:77] Creating layer sc_a_1_2
I0621 23:28:58.824998 27723 net.cpp:141] Setting up sc_a_1_2
I0621 23:28:58.825012 27723 net.cpp:148] Top shape: 100 64 32 32 (6553600)
I0621 23:28:58.825018 27723 net.cpp:156] Memory required for data: 145409200
I0621 23:28:58.825027 27723 layer_factory.hpp:77] Creating layer relu_a_1_2
I0621 23:28:58.825037 27723 net.cpp:91] Creating Layer relu_a_1_2
I0621 23:28:58.825045 27723 net.cpp:425] relu_a_1_2 <- sc_a_1_2
I0621 23:28:58.825059 27723 net.cpp:399] relu_a_1_2 -> relu_a_1_2
I0621 23:28:58.825299 27723 net.cpp:141] Setting up relu_a_1_2
I0621 23:28:58.825314 27723 net.cpp:148] Top shape: 100 64 32 32 (6553600)
I0621 23:28:58.825321 27723 net.cpp:156] Memory required for data: 171623600
I0621 23:28:58.825326 27723 layer_factory.hpp:77] Creating layer conv_a_1_2
I0621 23:28:58.825343 27723 net.cpp:91] Creating Layer conv_a_1_2
I0621 23:28:58.825350 27723 net.cpp:425] conv_a_1_2 <- relu_a_1_2
I0621 23:28:58.825362 27723 net.cpp:399] conv_a_1_2 -> conv_a_1_2
I0621 23:28:58.827639 27723 net.cpp:141] Setting up conv_a_1_2
I0621 23:28:58.827657 27723 net.cpp:148] Top shape: 100 64 32 32 (6553600)
I0621 23:28:58.827664 27723 net.cpp:156] Memory required for data: 197838000
I0621 23:28:58.827675 27723 layer_factory.hpp:77] Creating layer res_a
I0621 23:28:58.827689 27723 net.cpp:91] Creating Layer res_a
I0621 23:28:58.827697 27723 net.cpp:425] res_a <- conv0_conv0_0_split_1
I0621 23:28:58.827708 27723 net.cpp:399] res_a -> res_a
I0621 23:28:58.828881 27723 net.cpp:141] Setting up res_a
I0621 23:28:58.828902 27723 net.cpp:148] Top shape: 100 64 32 32 (6553600)
I0621 23:28:58.828908 27723 net.cpp:156] Memory required for data: 224052400
I0621 23:28:58.828920 27723 layer_factory.hpp:77] Creating layer elt_a_1
I0621 23:28:58.828930 27723 net.cpp:91] Creating Layer elt_a_1
I0621 23:28:58.828938 27723 net.cpp:425] elt_a_1 <- res_a
I0621 23:28:58.828946 27723 net.cpp:425] elt_a_1 <- conv_a_1_2
I0621 23:28:58.828955 27723 net.cpp:399] elt_a_1 -> elt_a_1
I0621 23:28:58.828997 27723 net.cpp:141] Setting up elt_a_1
I0621 23:28:58.829008 27723 net.cpp:148] Top shape: 100 64 32 32 (6553600)
I0621 23:28:58.829015 27723 net.cpp:156] Memory required for data: 250266800
I0621 23:28:58.829020 27723 layer_factory.hpp:77] Creating layer elt_a_1_elt_a_1_0_split
I0621 23:28:58.829027 27723 net.cpp:91] Creating Layer elt_a_1_elt_a_1_0_split
I0621 23:28:58.829032 27723 net.cpp:425] elt_a_1_elt_a_1_0_split <- elt_a_1
I0621 23:28:58.829040 27723 net.cpp:399] elt_a_1_elt_a_1_0_split -> elt_a_1_elt_a_1_0_split_0
I0621 23:28:58.829051 27723 net.cpp:399] elt_a_1_elt_a_1_0_split -> elt_a_1_elt_a_1_0_split_1
I0621 23:28:58.829061 27723 net.cpp:399] elt_a_1_elt_a_1_0_split -> elt_a_1_elt_a_1_0_split_2
I0621 23:28:58.829071 27723 net.cpp:399] elt_a_1_elt_a_1_0_split -> elt_a_1_elt_a_1_0_split_3
I0621 23:28:58.829159 27723 net.cpp:141] Setting up elt_a_1_elt_a_1_0_split
I0621 23:28:58.829170 27723 net.cpp:148] Top shape: 100 64 32 32 (6553600)
I0621 23:28:58.829177 27723 net.cpp:148] Top shape: 100 64 32 32 (6553600)
I0621 23:28:58.829183 27723 net.cpp:148] Top shape: 100 64 32 32 (6553600)
I0621 23:28:58.829190 27723 net.cpp:148] Top shape: 100 64 32 32 (6553600)
I0621 23:28:58.829193 27723 net.cpp:156] Memory required for data: 355124400
I0621 23:28:58.829198 27723 layer_factory.hpp:77] Creating layer bn_b_1_1
I0621 23:28:58.829210 27723 net.cpp:91] Creating Layer bn_b_1_1
I0621 23:28:58.829216 27723 net.cpp:425] bn_b_1_1 <- conv0_conv0_0_split_2
I0621 23:28:58.829226 27723 net.cpp:399] bn_b_1_1 -> bn_b_1_1
I0621 23:28:58.829481 27723 net.cpp:141] Setting up bn_b_1_1
I0621 23:28:58.829494 27723 net.cpp:148] Top shape: 100 16 32 32 (1638400)
I0621 23:28:58.829499 27723 net.cpp:156] Memory required for data: 361678000
I0621 23:28:58.829525 27723 layer_factory.hpp:77] Creating layer sc_b_1_1
I0621 23:28:58.829537 27723 net.cpp:91] Creating Layer sc_b_1_1
I0621 23:28:58.829545 27723 net.cpp:425] sc_b_1_1 <- bn_b_1_1
I0621 23:28:58.829555 27723 net.cpp:399] sc_b_1_1 -> sc_b_1_1
I0621 23:28:58.829617 27723 layer_factory.hpp:77] Creating layer sc_b_1_1
I0621 23:28:58.829771 27723 net.cpp:141] Setting up sc_b_1_1
I0621 23:28:58.829787 27723 net.cpp:148] Top shape: 100 16 32 32 (1638400)
I0621 23:28:58.829792 27723 net.cpp:156] Memory required for data: 368231600
I0621 23:28:58.829802 27723 layer_factory.hpp:77] Creating layer relu_b_1_1
I0621 23:28:58.829808 27723 net.cpp:91] Creating Layer relu_b_1_1
I0621 23:28:58.829814 27723 net.cpp:425] relu_b_1_1 <- sc_b_1_1
I0621 23:28:58.829821 27723 net.cpp:399] relu_b_1_1 -> relu_b_1_1
I0621 23:28:58.830039 27723 net.cpp:141] Setting up relu_b_1_1
I0621 23:28:58.830054 27723 net.cpp:148] Top shape: 100 16 32 32 (1638400)
I0621 23:28:58.830059 27723 net.cpp:156] Memory required for data: 374785200
I0621 23:28:58.830065 27723 layer_factory.hpp:77] Creating layer conv_b_1_1
I0621 23:28:58.830077 27723 net.cpp:91] Creating Layer conv_b_1_1
I0621 23:28:58.830085 27723 net.cpp:425] conv_b_1_1 <- relu_b_1_1
I0621 23:28:58.830096 27723 net.cpp:399] conv_b_1_1 -> conv_b_1_1
I0621 23:28:58.831537 27723 net.cpp:141] Setting up conv_b_1_1
I0621 23:28:58.831554 27723 net.cpp:148] Top shape: 100 64 32 32 (6553600)
I0621 23:28:58.831559 27723 net.cpp:156] Memory required for data: 400999600
I0621 23:28:58.831568 27723 layer_factory.hpp:77] Creating layer bn_b_1_2
I0621 23:28:58.831581 27723 net.cpp:91] Creating Layer bn_b_1_2
I0621 23:28:58.831588 27723 net.cpp:425] bn_b_1_2 <- conv_b_1_1
I0621 23:28:58.831598 27723 net.cpp:399] bn_b_1_2 -> bn_b_1_2
I0621 23:28:58.831873 27723 net.cpp:141] Setting up bn_b_1_2
I0621 23:28:58.831887 27723 net.cpp:148] Top shape: 100 64 32 32 (6553600)
I0621 23:28:58.831892 27723 net.cpp:156] Memory required for data: 427214000
I0621 23:28:58.831902 27723 layer_factory.hpp:77] Creating layer sc_b_1_2
I0621 23:28:58.831910 27723 net.cpp:91] Creating Layer sc_b_1_2
I0621 23:28:58.831918 27723 net.cpp:425] sc_b_1_2 <- bn_b_1_2
I0621 23:28:58.831925 27723 net.cpp:399] sc_b_1_2 -> sc_b_1_2
I0621 23:28:58.831991 27723 layer_factory.hpp:77] Creating layer sc_b_1_2
I0621 23:28:58.832149 27723 net.cpp:141] Setting up sc_b_1_2
I0621 23:28:58.832165 27723 net.cpp:148] Top shape: 100 64 32 32 (6553600)
I0621 23:28:58.832170 27723 net.cpp:156] Memory required for data: 453428400
I0621 23:28:58.832180 27723 layer_factory.hpp:77] Creating layer relu_b_1_2
I0621 23:28:58.832186 27723 net.cpp:91] Creating Layer relu_b_1_2
I0621 23:28:58.832192 27723 net.cpp:425] relu_b_1_2 <- sc_b_1_2
I0621 23:28:58.832200 27723 net.cpp:399] relu_b_1_2 -> relu_b_1_2
I0621 23:28:58.832545 27723 net.cpp:141] Setting up relu_b_1_2
I0621 23:28:58.832561 27723 net.cpp:148] Top shape: 100 64 32 32 (6553600)
I0621 23:28:58.832566 27723 net.cpp:156] Memory required for data: 479642800
I0621 23:28:58.832572 27723 layer_factory.hpp:77] Creating layer conv_b_1_2
I0621 23:28:58.832584 27723 net.cpp:91] Creating Layer conv_b_1_2
I0621 23:28:58.832592 27723 net.cpp:425] conv_b_1_2 <- relu_b_1_2
I0621 23:28:58.832604 27723 net.cpp:399] conv_b_1_2 -> conv_b_1_2
I0621 23:28:58.835259 27723 net.cpp:141] Setting up conv_b_1_2
I0621 23:28:58.835279 27723 net.cpp:148] Top shape: 100 64 32 32 (6553600)
I0621 23:28:58.835288 27723 net.cpp:156] Memory required for data: 505857200
I0621 23:28:58.835296 27723 layer_factory.hpp:77] Creating layer res_b
I0621 23:28:58.835310 27723 net.cpp:91] Creating Layer res_b
I0621 23:28:58.835319 27723 net.cpp:425] res_b <- conv0_conv0_0_split_3
I0621 23:28:58.835328 27723 net.cpp:399] res_b -> res_b
I0621 23:28:58.836513 27723 net.cpp:141] Setting up res_b
I0621 23:28:58.836529 27723 net.cpp:148] Top shape: 100 64 32 32 (6553600)
I0621 23:28:58.836535 27723 net.cpp:156] Memory required for data: 532071600
I0621 23:28:58.836552 27723 layer_factory.hpp:77] Creating layer elt_b_1
I0621 23:28:58.836563 27723 net.cpp:91] Creating Layer elt_b_1
I0621 23:28:58.836586 27723 net.cpp:425] elt_b_1 <- res_b
I0621 23:28:58.836594 27723 net.cpp:425] elt_b_1 <- conv_b_1_2
I0621 23:28:58.836603 27723 net.cpp:399] elt_b_1 -> elt_b_1
I0621 23:28:58.836647 27723 net.cpp:141] Setting up elt_b_1
I0621 23:28:58.836660 27723 net.cpp:148] Top shape: 100 64 32 32 (6553600)
I0621 23:28:58.836664 27723 net.cpp:156] Memory required for data: 558286000
I0621 23:28:58.836670 27723 layer_factory.hpp:77] Creating layer elt_b_1_elt_b_1_0_split
I0621 23:28:58.836678 27723 net.cpp:91] Creating Layer elt_b_1_elt_b_1_0_split
I0621 23:28:58.836683 27723 net.cpp:425] elt_b_1_elt_b_1_0_split <- elt_b_1
I0621 23:28:58.836693 27723 net.cpp:399] elt_b_1_elt_b_1_0_split -> elt_b_1_elt_b_1_0_split_0
I0621 23:28:58.836704 27723 net.cpp:399] elt_b_1_elt_b_1_0_split -> elt_b_1_elt_b_1_0_split_1
I0621 23:28:58.836712 27723 net.cpp:399] elt_b_1_elt_b_1_0_split -> elt_b_1_elt_b_1_0_split_2
I0621 23:28:58.836722 27723 net.cpp:399] elt_b_1_elt_b_1_0_split -> elt_b_1_elt_b_1_0_split_3
I0621 23:28:58.836807 27723 net.cpp:141] Setting up elt_b_1_elt_b_1_0_split
I0621 23:28:58.836820 27723 net.cpp:148] Top shape: 100 64 32 32 (6553600)
I0621 23:28:58.836827 27723 net.cpp:148] Top shape: 100 64 32 32 (6553600)
I0621 23:28:58.836833 27723 net.cpp:148] Top shape: 100 64 32 32 (6553600)
I0621 23:28:58.836838 27723 net.cpp:148] Top shape: 100 64 32 32 (6553600)
I0621 23:28:58.836843 27723 net.cpp:156] Memory required for data: 663143600
I0621 23:28:58.836848 27723 layer_factory.hpp:77] Creating layer bn_c_1_1
I0621 23:28:58.836856 27723 net.cpp:91] Creating Layer bn_c_1_1
I0621 23:28:58.836861 27723 net.cpp:425] bn_c_1_1 <- conv0_conv0_0_split_4
I0621 23:28:58.836871 27723 net.cpp:399] bn_c_1_1 -> bn_c_1_1
I0621 23:28:58.837139 27723 net.cpp:141] Setting up bn_c_1_1
I0621 23:28:58.837152 27723 net.cpp:148] Top shape: 100 16 32 32 (1638400)
I0621 23:28:58.837157 27723 net.cpp:156] Memory required for data: 669697200
I0621 23:28:58.837167 27723 layer_factory.hpp:77] Creating layer sc_c_1_1
I0621 23:28:58.837180 27723 net.cpp:91] Creating Layer sc_c_1_1
I0621 23:28:58.837188 27723 net.cpp:425] sc_c_1_1 <- bn_c_1_1
I0621 23:28:58.837195 27723 net.cpp:399] sc_c_1_1 -> sc_c_1_1
I0621 23:28:58.837255 27723 layer_factory.hpp:77] Creating layer sc_c_1_1
I0621 23:28:58.837416 27723 net.cpp:141] Setting up sc_c_1_1
I0621 23:28:58.837430 27723 net.cpp:148] Top shape: 100 16 32 32 (1638400)
I0621 23:28:58.837435 27723 net.cpp:156] Memory required for data: 676250800
I0621 23:28:58.837443 27723 layer_factory.hpp:77] Creating layer relu_c_1_1
I0621 23:28:58.837452 27723 net.cpp:91] Creating Layer relu_c_1_1
I0621 23:28:58.837460 27723 net.cpp:425] relu_c_1_1 <- sc_c_1_1
I0621 23:28:58.837466 27723 net.cpp:399] relu_c_1_1 -> relu_c_1_1
I0621 23:28:58.837813 27723 net.cpp:141] Setting up relu_c_1_1
I0621 23:28:58.837828 27723 net.cpp:148] Top shape: 100 16 32 32 (1638400)
I0621 23:28:58.837833 27723 net.cpp:156] Memory required for data: 682804400
I0621 23:28:58.837839 27723 layer_factory.hpp:77] Creating layer conv_c_1_1
I0621 23:28:58.837852 27723 net.cpp:91] Creating Layer conv_c_1_1
I0621 23:28:58.837860 27723 net.cpp:425] conv_c_1_1 <- relu_c_1_1
I0621 23:28:58.837872 27723 net.cpp:399] conv_c_1_1 -> conv_c_1_1
I0621 23:28:58.839195 27723 net.cpp:141] Setting up conv_c_1_1
I0621 23:28:58.839213 27723 net.cpp:148] Top shape: 100 64 32 32 (6553600)
I0621 23:28:58.839221 27723 net.cpp:156] Memory required for data: 709018800
I0621 23:28:58.839231 27723 layer_factory.hpp:77] Creating layer bn_c_1_2
I0621 23:28:58.839238 27723 net.cpp:91] Creating Layer bn_c_1_2
I0621 23:28:58.839244 27723 net.cpp:425] bn_c_1_2 <- conv_c_1_1
I0621 23:28:58.839254 27723 net.cpp:399] bn_c_1_2 -> bn_c_1_2
I0621 23:28:58.839532 27723 net.cpp:141] Setting up bn_c_1_2
I0621 23:28:58.839545 27723 net.cpp:148] Top shape: 100 64 32 32 (6553600)
I0621 23:28:58.839550 27723 net.cpp:156] Memory required for data: 735233200
I0621 23:28:58.839560 27723 layer_factory.hpp:77] Creating layer sc_c_1_2
I0621 23:28:58.839571 27723 net.cpp:91] Creating Layer sc_c_1_2
I0621 23:28:58.839592 27723 net.cpp:425] sc_c_1_2 <- bn_c_1_2
I0621 23:28:58.839602 27723 net.cpp:399] sc_c_1_2 -> sc_c_1_2
I0621 23:28:58.839666 27723 layer_factory.hpp:77] Creating layer sc_c_1_2
I0621 23:28:58.839828 27723 net.cpp:141] Setting up sc_c_1_2
I0621 23:28:58.839841 27723 net.cpp:148] Top shape: 100 64 32 32 (6553600)
I0621 23:28:58.839846 27723 net.cpp:156] Memory required for data: 761447600
I0621 23:28:58.839854 27723 layer_factory.hpp:77] Creating layer relu_c_1_2
I0621 23:28:58.839869 27723 net.cpp:91] Creating Layer relu_c_1_2
I0621 23:28:58.839877 27723 net.cpp:425] relu_c_1_2 <- sc_c_1_2
I0621 23:28:58.839886 27723 net.cpp:399] relu_c_1_2 -> relu_c_1_2
I0621 23:28:58.840225 27723 net.cpp:141] Setting up relu_c_1_2
I0621 23:28:58.840241 27723 net.cpp:148] Top shape: 100 64 32 32 (6553600)
I0621 23:28:58.840246 27723 net.cpp:156] Memory required for data: 787662000
I0621 23:28:58.840251 27723 layer_factory.hpp:77] Creating layer conv_c_1_2
I0621 23:28:58.840265 27723 net.cpp:91] Creating Layer conv_c_1_2
I0621 23:28:58.840272 27723 net.cpp:425] conv_c_1_2 <- relu_c_1_2
I0621 23:28:58.840283 27723 net.cpp:399] conv_c_1_2 -> conv_c_1_2
I0621 23:28:58.842634 27723 net.cpp:141] Setting up conv_c_1_2
I0621 23:28:58.842650 27723 net.cpp:148] Top shape: 100 64 32 32 (6553600)
I0621 23:28:58.842658 27723 net.cpp:156] Memory required for data: 813876400
I0621 23:28:58.842667 27723 layer_factory.hpp:77] Creating layer res_c
I0621 23:28:58.842680 27723 net.cpp:91] Creating Layer res_c
I0621 23:28:58.842694 27723 net.cpp:425] res_c <- conv0_conv0_0_split_5
I0621 23:28:58.842707 27723 net.cpp:399] res_c -> res_c
I0621 23:28:58.843912 27723 net.cpp:141] Setting up res_c
I0621 23:28:58.843930 27723 net.cpp:148] Top shape: 100 64 32 32 (6553600)
I0621 23:28:58.843935 27723 net.cpp:156] Memory required for data: 840090800
I0621 23:28:58.843943 27723 layer_factory.hpp:77] Creating layer elt_c_1
I0621 23:28:58.843951 27723 net.cpp:91] Creating Layer elt_c_1
I0621 23:28:58.843957 27723 net.cpp:425] elt_c_1 <- res_c
I0621 23:28:58.843964 27723 net.cpp:425] elt_c_1 <- conv_c_1_2
I0621 23:28:58.843974 27723 net.cpp:399] elt_c_1 -> elt_c_1
I0621 23:28:58.844014 27723 net.cpp:141] Setting up elt_c_1
I0621 23:28:58.844029 27723 net.cpp:148] Top shape: 100 64 32 32 (6553600)
…
I0621 23:28:58.849592 27723 net.cpp:91] Creating Layer relu_d_1_2
I0621 23:28:58.849597 27723 net.cpp:425] relu_d_1_2 <- sc_d_1_2
I0621 23:28:58.849607 27723 net.cpp:399] relu_d_1_2 -> relu_d_1_2
I0621 23:28:58.849822 27723 net.cpp:141] Setting up relu_d_1_2
I0621 23:28:58.849835 27723 net.cpp:148] Top shape: 100 128 16 16 (3276800)
I0621 23:28:58.849840 27723 net.cpp:156] Memory required for data: 1102234800
I0621 23:28:58.849845 27723 layer_factory.hpp:77] Creating layer conv_d_1_2
I0621 23:28:58.849859 27723 net.cpp:91] Creating Layer conv_d_1_2
I0621 23:28:58.849867 27723 net.cpp:425] conv_d_1_2 <- relu_d_1_2
I0621 23:28:58.849880 27723 net.cpp:399] conv_d_1_2 -> conv_d_1_2
I0621 23:28:58.855319 27723 net.cpp:141] Setting up conv_d_1_2
I0621 23:28:58.855340 27723 net.cpp:148] Top shape: 100 128 16 16 (3276800)
I0621 23:28:58.855358 27723 net.cpp:156] Memory required for data: 1115342000
I0621 23:28:58.855367 27723 layer_factory.hpp:77] Creating layer res_d
I0621 23:28:58.855384 27723 net.cpp:91] Creating Layer res_d
I0621 23:28:58.855392 27723 net.cpp:425] res_d <- elt_a_1_elt_a_1_0_split_1
I0621 23:28:58.855401 27723 net.cpp:399] res_d -> res_d
I0621 23:28:58.856815 27723 net.cpp:141] Setting up res_d
I0621 23:28:58.856832 27723 net.cpp:148] Top shape: 100 128 16 16 (3276800)
I0621 23:28:58.856842 27723 net.cpp:156] Memory required for data: 1128449200
I0621 23:28:58.856863 27723 layer_factory.hpp:77] Creating layer elt_d_1
I0621 23:28:58.856874 27723 net.cpp:91] Creating Layer elt_d_1
I0621 23:28:58.856881 27723 net.cpp:425] elt_d_1 <- res_d
I0621 23:28:58.856911 27723 net.cpp:425] elt_d_1 <- conv_d_1_2
I0621 23:28:58.856925 27723 net.cpp:399] elt_d_1 -> elt_d_1
I0621 23:28:58.856962 27723 net.cpp:141] Setting up elt_d_1
I0621 23:28:58.856974 27723 net.cpp:148] Top shape: 100 128 16 16 (3276800)
I0621 23:28:58.856979 27723 net.cpp:156] Memory required for data: 1141556400
I0621 23:28:58.856984 27723 layer_factory.hpp:77] Creating layer bn_f_1_1
I0621 23:28:58.856994 27723 net.cpp:91] Creating Layer bn_f_1_1
I0621 23:28:58.857002 27723 net.cpp:425] bn_f_1_1 <- elt_b_1_elt_b_1_0_split_0
I0621 23:28:58.857009 27723 net.cpp:399] bn_f_1_1 -> bn_f_1_1
I0621 23:28:58.857290 27723 net.cpp:141] Setting up bn_f_1_1
I0621 23:28:58.857303 27723 net.cpp:148] Top shape: 100 64 32 32 (6553600)
I0621 23:28:58.857308 27723 net.cpp:156] Memory required for data: 1167770800
I0621 23:28:58.857318 27723 layer_factory.hpp:77] Creating layer sc_f_1_1
I0621 23:28:58.857327 27723 net.cpp:91] Creating Layer sc_f_1_1
I0621 23:28:58.857334 27723 net.cpp:425] sc_f_1_1 <- bn_f_1_1
I0621 23:28:58.857344 27723 net.cpp:399] sc_f_1_1 -> sc_f_1_1
I0621 23:28:58.857416 27723 layer_factory.hpp:77] Creating layer sc_f_1_1
I0621 23:28:58.857583 27723 net.cpp:141] Setting up sc_f_1_1
I0621 23:28:58.857599 27723 net.cpp:148] Top shape: 100 64 32 32 (6553600)
I0621 23:28:58.857605 27723 net.cpp:156] Memory required for data: 1193985200
I0621 23:28:58.857614 27723 layer_factory.hpp:77] Creating layer relu_f_1_1
I0621 23:28:58.857623 27723 net.cpp:91] Creating Layer relu_f_1_1
I0621 23:28:58.857630 27723 net.cpp:425] relu_f_1_1 <- sc_f_1_1
I0621 23:28:58.857640 27723 net.cpp:399] relu_f_1_1 -> relu_f_1_1
I0621 23:28:58.857980 27723 net.cpp:141] Setting up relu_f_1_1
I0621 23:28:58.857996 27723 net.cpp:148] Top shape: 100 64 32 32 (6553600)
I0621 23:28:58.858001 27723 net.cpp:156] Memory required for data: 1220199600
I0621 23:28:58.858007 27723 layer_factory.hpp:77] Creating layer conv_f_1_1
I0621 23:28:58.858021 27723 net.cpp:91] Creating Layer conv_f_1_1
I0621 23:28:58.858028 27723 net.cpp:425] conv_f_1_1 <- relu_f_1_1
I0621 23:28:58.858039 27723 net.cpp:399] conv_f_1_1 -> conv_f_1_1
I0621 23:28:58.861753 27723 net.cpp:141] Setting up conv_f_1_1
I0621 23:28:58.861770 27723 net.cpp:148] Top shape: 100 128 16 16 (3276800)
I0621 23:28:58.861776 27723 net.cpp:156] Memory required for data: 1233306800
I0621 23:28:58.861785 27723 layer_factory.hpp:77] Creating layer bn_f_1_2
I0621 23:28:58.861800 27723 net.cpp:91] Creating Layer bn_f_1_2
I0621 23:28:58.861809 27723 net.cpp:425] bn_f_1_2 <- conv_f_1_1
I0621 23:28:58.861819 27723 net.cpp:399] bn_f_1_2 -> bn_f_1_2
I0621 23:28:58.862094 27723 net.cpp:141] Setting up bn_f_1_2
I0621 23:28:58.862107 27723 net.cpp:148] Top shape: 100 128 16 16 (3276800)
I0621 23:28:58.862112 27723 net.cpp:156] Memory required for data: 1246414000
I0621 23:28:58.862123 27723 layer_factory.hpp:77] Creating layer sc_f_1_2
I0621 23:28:58.862133 27723 net.cpp:91] Creating Layer sc_f_1_2
I0621 23:28:58.862140 27723 net.cpp:425] sc_f_1_2 <- bn_f_1_2
I0621 23:28:58.862148 27723 net.cpp:399] sc_f_1_2 -> sc_f_1_2
I0621 23:28:58.862210 27723 layer_factory.hpp:77] Creating layer sc_f_1_2
I0621 23:28:58.862366 27723 net.cpp:141] Setting up sc_f_1_2
I0621 23:28:58.862380 27723 net.cpp:148] Top shape: 100 128 16 16 (3276800)
I0621 23:28:58.862385 27723 net.cpp:156] Memory required for data: 1259521200
I0621 23:28:58.862392 27723 layer_factory.hpp:77] Creating layer relu_f_1_2
I0621 23:28:58.862399 27723 net.cpp:91] Creating Layer relu_f_1_2
I0621 23:28:58.862406 27723 net.cpp:425] relu_f_1_2 <- sc_f_1_2
I0621 23:28:58.862416 27723 net.cpp:399] relu_f_1_2 -> relu_f_1_2
I0621 23:28:58.862772 27723 net.cpp:141] Setting up relu_f_1_2
I0621 23:28:58.862788 27723 net.cpp:148] Top shape: 100 128 16 16 (3276800)
I0621 23:28:58.862794 27723 net.cpp:156] Memory required for data: 1272628400
I0621 23:28:58.862799 27723 layer_factory.hpp:77] Creating layer conv_f_1_2
I0621 23:28:58.862813 27723 net.cpp:91] Creating Layer conv_f_1_2
I0621 23:28:58.862821 27723 net.cpp:425] conv_f_1_2 <- relu_f_1_2
I0621 23:28:58.862850 27723 net.cpp:399] conv_f_1_2 -> conv_f_1_2
I0621 23:28:58.868293 27723 net.cpp:141] Setting up conv_f_1_2
I0621 23:28:58.868309 27723 net.cpp:148] Top shape: 100 128 16 16 (3276800)
I0621 23:28:58.868330 27723 net.cpp:156] Memory required for data: 1285735600
I0621 23:28:58.868340 27723 layer_factory.hpp:77] Creating layer res_f
I0621 23:28:58.868356 27723 net.cpp:91] Creating Layer res_f
I0621 23:28:58.868365 27723 net.cpp:425] res_f <- elt_b_1_elt_b_1_0_split_1
I0621 23:28:58.868376 27723 net.cpp:399] res_f -> res_f
I0621 23:28:58.869812 27723 net.cpp:141] Setting up res_f
I0621 23:28:58.869827 27723 net.cpp:148] Top shape: 100 128 16 16 (3276800)
I0621 23:28:58.869837 27723 net.cpp:156] Memory required for data: 1298842800
I0621 23:28:58.869846 27723 layer_factory.hpp:77] Creating layer elt_f_1
I0621 23:28:58.869858 27723 net.cpp:91] Creating Layer elt_f_1
I0621 23:28:58.869864 27723 net.cpp:425] elt_f_1 <- res_f
I0621 23:28:58.869874 27723 net.cpp:425] elt_f_1 <- conv_f_1_2
I0621 23:28:58.869884 27723 net.cpp:399] elt_f_1 -> elt_f_1
I0621 23:28:58.869918 27723 net.cpp:141] Setting up elt_f_1
I0621 23:28:58.869935 27723 net.cpp:148] Top shape: 100 128 16 16 (3276800)
I0621 23:28:58.869940 27723 net.cpp:156] Memory required for data: 1311950000
I0621 23:28:58.869946 27723 layer_factory.hpp:77] Creating layer bn_g_1_1
I0621 23:28:58.869953 27723 net.cpp:91] Creating Layer bn_g_1_1
I0621 23:28:58.869959 27723 net.cpp:425] bn_g_1_1 <- elt_b_1_elt_b_1_0_split_2
I0621 23:28:58.869968 27723 net.cpp:399] bn_g_1_1 -> bn_g_1_1
I0621 23:28:58.870255 27723 net.cpp:141] Setting up bn_g_1_1
I0621 23:28:58.870268 27723 net.cpp:148] Top shape: 100 64 32 32 (6553600)
I0621 23:28:58.870273 27723 net.cpp:156] Memory required for data: 1338164400
I0621 23:28:58.870283 27723 layer_factory.hpp:77] Creating layer sc_g_1_1
I0621 23:28:58.870296 27723 net.cpp:91] Creating Layer sc_g_1_1
I0621 23:28:58.870303 27723 net.cpp:425] sc_g_1_1 <- bn_g_1_1
I0621 23:28:58.870311 27723 net.cpp:399] sc_g_1_1 -> sc_g_1_1
I0621 23:28:58.870375 27723 layer_factory.hpp:77] Creating layer sc_g_1_1
I0621 23:28:58.870545 27723 net.cpp:141] Setting up sc_g_1_1
I0621 23:28:58.870558 27723 net.cpp:148] Top shape: 100 64 32 32 (6553600)
I0621 23:28:58.870564 27723 net.cpp:156] Memory required for data: 1364378800
I0621 23:28:58.870573 27723 layer_factory.hpp:77] Creating layer relu_g_1_1
I0621 23:28:58.870584 27723 net.cpp:91] Creating Layer relu_g_1_1
I0621 23:28:58.870591 27723 net.cpp:425] relu_g_1_1 <- sc_g_1_1
I0621 23:28:58.870599 27723 net.cpp:399] relu_g_1_1 -> relu_g_1_1
I0621 23:28:58.870949 27723 net.cpp:141] Setting up relu_g_1_1
I0621 23:28:58.870965 27723 net.cpp:148] Top shape: 100 64 32 32 (6553600)
I0621 23:28:58.870970 27723 net.cpp:156] Memory required for data: 1390593200
I0621 23:28:58.870976 27723 layer_factory.hpp:77] Creating layer conv_g_1_1
I0621 23:28:58.870990 27723 net.cpp:91] Creating Layer conv_g_1_1
I0621 23:28:58.870998 27723 net.cpp:425] conv_g_1_1 <- relu_g_1_1
I0621 23:28:58.871009 27723 net.cpp:399] conv_g_1_1 -> conv_g_1_1
I0621 23:28:58.874833 27723 net.cpp:141] Setting up conv_g_1_1
I0621 23:28:58.874851 27723 net.cpp:148] Top shape: 100 128 16 16 (3276800)
I0621 23:28:58.874874 27723 net.cpp:156] Memory required for data: 1403700400
I0621 23:28:58.874884 27723 layer_factory.hpp:77] Creating layer bn_g_1_2
I0621 23:28:58.874900 27723 net.cpp:91] Creating Layer bn_g_1_2
I0621 23:28:58.874908 27723 net.cpp:425] bn_g_1_2 <- conv_g_1_1
I0621 23:28:58.874917 27723 net.cpp:399] bn_g_1_2 -> bn_g_1_2
I0621 23:28:58.875207 27723 net.cpp:141] Setting up bn_g_1_2
I0621 23:28:58.875221 27723 net.cpp:148] Top shape: 100 128 16 16 (3276800)
I0621 23:28:58.875226 27723 net.cpp:156] Memory required for data: 1416807600
I0621 23:28:58.875236 27723 layer_factory.hpp:77] Creating layer sc_g_1_2
I0621 23:28:58.875246 27723 net.cpp:91] Creating Layer sc_g_1_2
I0621 23:28:58.875252 27723 net.cpp:425] sc_g_1_2 <- bn_g_1_2
I0621 23:28:58.875260 27723 net.cpp:399] sc_g_1_2 -> sc_g_1_2
I0621 23:28:58.875326 27723 layer_factory.hpp:77] Creating layer sc_g_1_2
I0621 23:28:58.875506 27723 net.cpp:141] Setting up sc_g_1_2
I0621 23:28:58.875519 27723 net.cpp:148] Top shape: 100 128 16 16 (3276800)
I0621 23:28:58.875525 27723 net.cpp:156] Memory required for data: 1429914800
I0621 23:28:58.875533 27723 layer_factory.hpp:77] Creating layer relu_g_1_2
I0621 23:28:58.875543 27723 net.cpp:91] Creating Layer relu_g_1_2
I0621 23:28:58.875550 27723 net.cpp:425] relu_g_1_2 <- sc_g_1_2
I0621 23:28:58.875557 27723 net.cpp:399] relu_g_1_2 -> relu_g_1_2
I0621 23:28:58.875779 27723 net.cpp:141] Setting up relu_g_1_2
I0621 23:28:58.875794 27723 net.cpp:148] Top shape: 100 128 16 16 (3276800)
I0621 23:28:58.875799 27723 net.cpp:156] Memory required for data: 1443022000
I0621 23:28:58.875804 27723 layer_factory.hpp:77] Creating layer conv_g_1_2
I0621 23:28:58.875823 27723 net.cpp:91] Creating Layer conv_g_1_2
I0621 23:28:58.875831 27723 net.cpp:425] conv_g_1_2 <- relu_g_1_2
I0621 23:28:58.875841 27723 net.cpp:399] conv_g_1_2 -> conv_g_1_2
I0621 23:28:58.881286 27723 net.cpp:141] Setting up conv_g_1_2
I0621 23:28:58.881304 27723 net.cpp:148] Top shape: 100 128 16 16 (3276800)
I0621 23:28:58.881309 27723 net.cpp:156] Memory required for data: 1456129200
I0621 23:28:58.881319 27723 layer_factory.hpp:77] Creating layer res_g
I0621 23:28:58.881335 27723 net.cpp:91] Creating Layer res_g
I0621 23:28:58.881342 27723 net.cpp:425] res_g <- elt_b_1_elt_b_1_0_split_3
I0621 23:28:58.881351 27723 net.cpp:399] res_g -> res_g
I0621 23:28:58.883314 27723 net.cpp:141] Setting up res_g
I0621 23:28:58.883332 27723 net.cpp:148] Top shape: 100 128 16 16 (3276800)
I0621 23:28:58.883337 27723 net.cpp:156] Memory required for data: 1469236400
I0621 23:28:58.883347 27723 layer_factory.hpp:77] Creating layer elt_g_1
I0621 23:28:58.883358 27723 net.cpp:91] Creating Layer elt_g_1
I0621 23:28:58.883363 27723 net.cpp:425] elt_g_1 <- res_g
I0621 23:28:58.883370 27723 net.cpp:425] elt_g_1 <- conv_g_1_2
I0621 23:28:58.883378 27723 net.cpp:399] elt_g_1 -> elt_g_1
I0621 23:28:58.883409 27723 net.cpp:141] Setting up elt_g_1
I0621 23:28:58.883420 27723 net.cpp:148] Top shape: 100 128 16 16 (3276800)
I0621 23:28:58.883425 27723 net.cpp:156] Memory required for data: 1482343600
I0621 23:28:58.883430 27723 layer_factory.hpp:77] Creating layer bn_h_1_1
I0621 23:28:58.883440 27723 net.cpp:91] Creating Layer bn_h_1_1
I0621 23:28:58.883448 27723 net.cpp:425] bn_h_1_1 <- elt_c_1_elt_c_1_0_split_0
I0621 23:28:58.883462 27723 net.cpp:399] bn_h_1_1 -> bn_h_1_1
I0621 23:28:58.883662 27723 net.cpp:141] Setting up bn_h_1_1
I0621 23:28:58.883676 27723 net.cpp:148] Top shape: 100 64 32 32 (6553600)
I0621 23:28:58.883680 27723 net.cpp:156] Memory required for data: 1508558000
I0621 23:28:58.883690 27723 layer_factory.hpp:77] Creating layer sc_h_1_1
I0621 23:28:58.883699 27723 net.cpp:91] Creating Layer sc_h_1_1
I0621 23:28:58.883708 27723 net.cpp:425] sc_h_1_1 <- bn_h_1_1
I0621 23:28:58.883718 27723 net.cpp:399] sc_h_1_1 -> sc_h_1_1
I0621 23:28:58.883764 27723 layer_factory.hpp:77] Creating layer sc_h_1_1
I0621 23:28:58.883893 27723 net.cpp:141] Setting up sc_h_1_1
I0621 23:28:58.883908 27723 net.cpp:148] Top shape: 100 64 32 32 (6553600)
I0621 23:28:58.883914 27723 net.cpp:156] Memory required for data: 1534772400
I0621 23:28:58.883922 27723 layer_factory.hpp:77] Creating layer relu_h_1_1
I0621 23:28:58.883930 27723 net.cpp:91] Creating Layer relu_h_1_1
I0621 23:28:58.883935 27723 net.cpp:425] relu_h_1_1 <- sc_h_1_1
I0621 23:28:58.883942 27723 net.cpp:399] relu_h_1_1 -> relu_h_1_1
I0621 23:28:58.884280 27723 net.cpp:141] Setting up relu_h_1_1
I0621 23:28:58.884295 27723 net.cpp:148] Top shape: 100 64 32 32 (6553600)
I0621 23:28:58.884300 27723 net.cpp:156] Memory required for data: 1560986800
I0621 23:28:58.884306 27723 layer_factory.hpp:77] Creating layer conv_h_1_1
I0621 23:28:58.884321 27723 net.cpp:91] Creating Layer conv_h_1_1
I0621 23:28:58.884328 27723 net.cpp:425] conv_h_1_1 <- relu_h_1_1
I0621 23:28:58.884338 27723 net.cpp:399] conv_h_1_1 -> conv_h_1_1
I0621 23:28:58.887925 27723 net.cpp:141] Setting up conv_h_1_1
I0621 23:28:58.887958 27723 net.cpp:148] Top shape: 100 128 16 16 (3276800)
I0621 23:28:58.887980 27723 net.cpp:156] Memory required for data: 1574094000
I0621 23:28:58.887990 27723 layer_factory.hpp:77] Creating layer bn_h_1_2
I0621 23:28:58.888005 27723 net.cpp:91] Creating Layer bn_h_1_2
I0621 23:28:58.888013 27723 net.cpp:425] bn_h_1_2 <- conv_h_1_1
I0621 23:28:58.888021 27723 net.cpp:399] bn_h_1_2 -> bn_h_1_2
I0621 23:28:58.888203 27723 net.cpp:141] Setting up bn_h_1_2
I0621 23:28:58.888216 27723 net.cpp:148] Top shape: 100 128 16 16 (3276800)
I0621 23:28:58.888221 27723 net.cpp:156] Memory required for data: 1587201200
I0621 23:28:58.888231 27723 layer_factory.hpp:77] Creating layer sc_h_1_2
I0621 23:28:58.888241 27723 net.cpp:91] Creating Layer sc_h_1_2
I0621 23:28:58.888247 27723 net.cpp:425] sc_h_1_2 <- bn_h_1_2
I0621 23:28:58.888254 27723 net.cpp:399] sc_h_1_2 -> sc_h_1_2
I0621 23:28:58.888303 27723 layer_factory.hpp:77] Creating layer sc_h_1_2
I0621 23:28:58.888404 27723 net.cpp:141] Setting up sc_h_1_2
I0621 23:28:58.888416 27723 net.cpp:148] Top shape: 100 128 16 16 (3276800)
I0621 23:28:58.888420 27723 net.cpp:156] Memory required for data: 1600308400
I0621 23:28:58.888429 27723 layer_factory.hpp:77] Creating layer relu_h_1_2
I0621 23:28:58.888439 27723 net.cpp:91] Creating Layer relu_h_1_2
I0621 23:28:58.888445 27723 net.cpp:425] relu_h_1_2 <- sc_h_1_2
I0621 23:28:58.888453 27723 net.cpp:399] relu_h_1_2 -> relu_h_1_2
I0621 23:28:58.888792 27723 net.cpp:141] Setting up relu_h_1_2
I0621 23:28:58.888808 27723 net.cpp:148] Top shape: 100 128 16 16 (3276800)
I0621 23:28:58.888813 27723 net.cpp:156] Memory required for data: 1613415600
I0621 23:28:58.888818 27723 layer_factory.hpp:77] Creating layer conv_h_1_2
I0621 23:28:58.888833 27723 net.cpp:91] Creating Layer conv_h_1_2
I0621 23:28:58.888840 27723 net.cpp:425] conv_h_1_2 <- relu_h_1_2
I0621 23:28:58.888851 27723 net.cpp:399] conv_h_1_2 -> conv_h_1_2
I0621 23:28:58.894063 27723 net.cpp:141] Setting up conv_h_1_2
I0621 23:28:58.894080 27723 net.cpp:148] Top shape: 100 128 16 16 (3276800)
I0621 23:28:58.894085 27723 net.cpp:156] Memory required for data: 1626522800
I0621 23:28:58.894094 27723 layer_factory.hpp:77] Creating layer res_h
I0621 23:28:58.894114 27723 net.cpp:91] Creating Layer res_h
I0621 23:28:58.894121 27723 net.cpp:425] res_h <- elt_c_1_elt_c_1_0_split_1
I0621 23:28:58.894130 27723 net.cpp:399] res_h -> res_h
I0621 23:28:58.895328 27723 net.cpp:141] Setting up res_h
I0621 23:28:58.895344 27723 net.cpp:148] Top shape: 100 128 16 16 (3276800)
I0621 23:28:58.895350 27723 net.cpp:156] Memory required for data: 1639630000
I0621 23:28:58.895362 27723 layer_factory.hpp:77] Creating layer elt_h_1
I0621 23:28:58.895371 27723 net.cpp:91] Creating Layer elt_h_1
I0621 23:28:58.895382 27723 net.cpp:425] elt_h_1 <- res_h
I0621 23:28:58.895390 27723 net.cpp:425] elt_h_1 <- conv_h_1_2
I0621 23:28:58.895398 27723 net.cpp:399] elt_h_1 -> elt_h_1
I0621 23:28:58.895423 27723 net.cpp:141] Setting up elt_h_1
I0621 23:28:58.895434 27723 net.cpp:148] Top shape: 100 128 16 16 (3276800)
I0621 23:28:58.895439 27723 net.cpp:156] Memory required for data: 1652737200
I0621 23:28:58.895443 27723 layer_factory.hpp:77] Creating layer bn_i_1_1
I0621 23:28:58.895453 27723 net.cpp:91] Creating Layer bn_i_1_1
I0621 23:28:58.895460 27723 net.cpp:425] bn_i_1_1 <- elt_c_1_elt_c_1_0_split_2
I0621 23:28:58.895467 27723 net.cpp:399] bn_i_1_1 -> bn_i_1_1
I0621 23:28:58.895673 27723 net.cpp:141] Setting up bn_i_1_1
I0621 23:28:58.895685 27723 net.cpp:148] Top shape: 100 64 32 32 (6553600)
I0621 23:28:58.895690 27723 net.cpp:156] Memory required for data: 1678951600
I0621 23:28:58.895700 27723 layer_factory.hpp:77] Creating layer sc_i_1_1
I0621 23:28:58.895711 27723 net.cpp:91] Creating Layer sc_i_1_1
I0621 23:28:58.895719 27723 net.cpp:425] sc_i_1_1 <- bn_i_1_1
I0621 23:28:58.895726 27723 net.cpp:399] sc_i_1_1 -> sc_i_1_1
I0621 23:28:58.895776 27723 layer_factory.hpp:77] Creating layer sc_i_1_1
I0621 23:28:58.895908 27723 net.cpp:141] Setting up sc_i_1_1
I0621 23:28:58.895920 27723 net.cpp:148] Top shape: 100 64 32 32 (6553600)
I0621 23:28:58.895939 27723 net.cpp:156] Memory required for data: 1705166000
I0621 23:28:58.895949 27723 layer_factory.hpp:77] Creating layer relu_i_1_1
I0621 23:28:58.895958 27723 net.cpp:91] Creating Layer relu_i_1_1
I0621 23:28:58.895963 27723 net.cpp:425] relu_i_1_1 <- sc_i_1_1
I0621 23:28:58.895973 27723 net.cpp:399] relu_i_1_1 -> relu_i_1_1
I0621 23:28:58.896328 27723 net.cpp:141] Setting up relu_i_1_1
I0621 23:28:58.896343 27723 net.cpp:148] Top shape: 100 64 32 32 (6553600)
I0621 23:28:58.896349 27723 net.cpp:156] Memory required for data: 1731380400
I0621 23:28:58.896354 27723 layer_factory.hpp:77] Creating layer conv_i_1_1
I0621 23:28:58.896369 27723 net.cpp:91] Creating Layer conv_i_1_1
I0621 23:28:58.896378 27723 net.cpp:425] conv_i_1_1 <- relu_i_1_1
I0621 23:28:58.896389 27723 net.cpp:399] conv_i_1_1 -> conv_i_1_1
I0621 23:28:58.900043 27723 net.cpp:141] Setting up conv_i_1_1
I0621 23:28:58.900059 27723 net.cpp:148] Top shape: 100 128 16 16 (3276800)
I0621 23:28:58.900080 27723 net.cpp:156] Memory required for data: 1744487600
I0621 23:28:58.900089 27723 layer_factory.hpp:77] Creating layer bn_i_1_2
I0621 23:28:58.900101 27723 net.cpp:91] Creating Layer bn_i_1_2
I0621 23:28:58.900107 27723 net.cpp:425] bn_i_1_2 <- conv_i_1_1
I0621 23:28:58.900118 27723 net.cpp:399] bn_i_1_2 -> bn_i_1_2
I0621 23:28:58.900295 27723 net.cpp:141] Setting up bn_i_1_2
I0621 23:28:58.900307 27723 net.cpp:148] Top shape: 100 128 16 16 (3276800)
I0621 23:28:58.900311 27723 net.cpp:156] Memory required for data: 1757594800
I0621 23:28:58.900321 27723 layer_factory.hpp:77] Creating layer sc_i_1_2
I0621 23:28:58.900333 27723 net.cpp:91] Creating Layer sc_i_1_2
I0621 23:28:58.900341 27723 net.cpp:425] sc_i_1_2 <- bn_i_1_2
I0621 23:28:58.900347 27723 net.cpp:399] sc_i_1_2 -> sc_i_1_2
I0621 23:28:58.900393 27723 layer_factory.hpp:77] Creating layer sc_i_1_2
I0621 23:28:58.900495 27723 net.cpp:141] Setting up sc_i_1_2
I0621 23:28:58.900506 27723 net.cpp:148] Top shape: 100 128 16 16 (3276800)
I0621 23:28:58.900511 27723 net.cpp:156] Memory required for data: 1770702000
I0621 23:28:58.900518 27723 layer_factory.hpp:77] Creating layer relu_i_1_2
I0621 23:28:58.900526 27723 net.cpp:91] Creating Layer relu_i_1_2
I0621 23:28:58.900530 27723 net.cpp:425] relu_i_1_2 <- sc_i_1_2
I0621 23:28:58.900539 27723 net.cpp:399] relu_i_1_2 -> relu_i_1_2
I0621 23:28:58.900751 27723 net.cpp:141] Setting up relu_i_1_2
I0621 23:28:58.900765 27723 net.cpp:148] Top shape: 100 128 16 16 (3276800)
I0621 23:28:58.900770 27723 net.cpp:156] Memory required for data: 1783809200
I0621 23:28:58.900775 27723 layer_factory.hpp:77] Creating layer conv_i_1_2
I0621 23:28:58.900790 27723 net.cpp:91] Creating Layer conv_i_1_2
I0621 23:28:58.900799 27723 net.cpp:425] conv_i_1_2 <- relu_i_1_2
I0621 23:28:58.900807 27723 net.cpp:399] conv_i_1_2 -> conv_i_1_2
I0621 23:28:58.909384 27723 net.cpp:141] Setting up conv_i_1_2
I0621 23:28:58.909406 27723 net.cpp:148] Top shape: 100 128 16 16 (3276800)
I0621 23:28:58.909427 27723 net.cpp:156] Memory required for data: 1796916400
I0621 23:28:58.909442 27723 layer_factory.hpp:77] Creating layer res_i
I0621 23:28:58.909482 27723 net.cpp:91] Creating Layer res_i
I0621 23:28:58.909497 27723 net.cpp:425] res_i <- elt_c_1_elt_c_1_0_split_3
I0621 23:28:58.909512 27723 net.cpp:399] res_i -> res_i
I0621 23:28:58.910918 27723 net.cpp:141] Setting up res_i
I0621 23:28:58.910935 27723 net.cpp:148] Top shape: 100 128 16 16 (3276800)
I0621 23:28:58.910940 27723 net.cpp:156] Memory required for data: 1810023600
I0621 23:28:58.911011 27723 layer_factory.hpp:77] Creating layer elt_i_1
I0621 23:28:58.911036 27723 net.cpp:91] Creating Layer elt_i_1
I0621 23:28:58.911042 27723 net.cpp:425] elt_i_1 <- res_i
I0621 23:28:58.911052 27723 net.cpp:425] elt_i_1 <- conv_i_1_2
I0621 23:28:58.911064 27723 net.cpp:399] elt_i_1 -> elt_i_1
I0621 23:28:58.911092 27723 net.cpp:141] Setting up elt_i_1
I0621 23:28:58.911103 27723 net.cpp:148] Top shape: 100 128 16 16 (3276800)
I0621 23:28:58.911108 27723 net.cpp:156] Memory required for data: 1823130800
I0621 23:28:58.911144 27723 layer_factory.hpp:77] Creating layer elt_d_f
I0621 23:28:58.911157 27723 net.cpp:91] Creating Layer elt_d_f
I0621 23:28:58.911164 27723 net.cpp:425] elt_d_f <- elt_d_1
I0621 23:28:58.911171 27723 net.cpp:425] elt_d_f <- elt_f_1
I0621 23:28:58.911178 27723 net.cpp:399] elt_d_f -> elt_d_f
I0621 23:28:58.911212 27723 net.cpp:141] Setting up elt_d_f
I0621 23:28:58.911223 27723 net.cpp:148] Top shape: 100 128 16 16 (3276800)
I0621 23:28:58.911228 27723 net.cpp:156] Memory required for data: 1836238000
I0621 23:28:58.911234 27723 layer_factory.hpp:77] Creating layer elt_d_f_elt_d_f_0_split
I0621 23:28:58.911253 27723 net.cpp:91] Creating Layer elt_d_f_elt_d_f_0_split
I0621 23:28:58.911262 27723 net.cpp:425] elt_d_f_elt_d_f_0_split <- elt_d_f
I0621 23:28:58.911270 27723 net.cpp:399] elt_d_f_elt_d_f_0_split -> elt_d_f_elt_d_f_0_split_0
I0621 23:28:58.911280 27723 net.cpp:399] elt_d_f_elt_d_f_0_split -> elt_d_f_elt_d_f_0_split_1
I0621 23:28:58.911320 27723 net.cpp:141] Setting up elt_d_f_elt_d_f_0_split
I0621 23:28:58.911334 27723 net.cpp:148] Top shape: 100 128 16 16 (3276800)
I0621 23:28:58.911341 27723 net.cpp:148] Top shape: 100 128 16 16 (3276800)
I0621 23:28:58.911346 27723 net.cpp:156] Memory required for data: 1862452400
I0621 23:28:58.911351 27723 layer_factory.hpp:77] Creating layer elt_g_i
I0621 23:28:58.911360 27723 net.cpp:91] Creating Layer elt_g_i
I0621 23:28:58.911366 27723 net.cpp:425] elt_g_i <- elt_g_1
I0621 23:28:58.911372 27723 net.cpp:425] elt_g_i <- elt_i_1
I0621 23:28:58.911380 27723 net.cpp:399] elt_g_i -> elt_g_i
I0621 23:28:58.911407 27723 net.cpp:141] Setting up elt_g_i
I0621 23:28:58.911418 27723 net.cpp:148] Top shape: 100 128 16 16 (3276800)
I0621 23:28:58.911423 27723 net.cpp:156] Memory required for data: 1875559600
I0621 23:28:58.911428 27723 layer_factory.hpp:77] Creating layer elt_g_i_elt_g_i_0_split
I0621 23:28:58.911437 27723 net.cpp:91] Creating Layer elt_g_i_elt_g_i_0_split
I0621 23:28:58.911444 27723 net.cpp:425] elt_g_i_elt_g_i_0_split <- elt_g_i
I0621 23:28:58.911451 27723 net.cpp:399] elt_g_i_elt_g_i_0_split -> elt_g_i_elt_g_i_0_split_0
I0621 23:28:58.911459 27723 net.cpp:399] elt_g_i_elt_g_i_0_split -> elt_g_i_elt_g_i_0_split_1
I0621 23:28:58.911499 27723 net.cpp:141] Setting up elt_g_i_elt_g_i_0_split
I0621 23:28:58.911509 27723 net.cpp:148] Top shape: 100 128 16 16 (3276800)
I0621 23:28:58.911515 27723 net.cpp:148] Top shape: 100 128 16 16 (3276800)
I0621 23:28:58.911520 27723 net.cpp:156] Memory required for data: 1901774000
I0621 23:28:58.911525 27723 layer_factory.hpp:77] Creating layer bn_j_1_1
I0621 23:28:58.911533 27723 net.cpp:91] Creating Layer bn_j_1_1
I0621 23:28:58.911540 27723 net.cpp:425] bn_j_1_1 <- elt_d_f_elt_d_f_0_split_0
I0621 23:28:58.911555 27723 net.cpp:399] bn_j_1_1 -> bn_j_1_1
I0621 23:28:58.911752 27723 net.cpp:141] Setting up bn_j_1_1
I0621 23:28:58.911764 27723 net.cpp:148] Top shape: 100 128 16 16 (3276800)
I0621 23:28:58.911769 27723 net.cpp:156] Memory required for data: 1914881200
I0621 23:28:58.911780 27723 layer_factory.hpp:77] Creating layer sc_j_1_1
I0621 23:28:58.911800 27723 net.cpp:91] Creating Layer sc_j_1_1
I0621 23:28:58.911808 27723 net.cpp:425] sc_j_1_1 <- bn_j_1_1
I0621 23:28:58.911818 27723 net.cpp:399] sc_j_1_1 -> sc_j_1_1
I0621 23:28:58.911870 27723 layer_factory.hpp:77] Creating layer sc_j_1_1
I0621 23:28:58.911973 27723 net.cpp:141] Setting up sc_j_1_1
I0621 23:28:58.911985 27723 net.cpp:148] Top shape: 100 128 16 16 (3276800)
I0621 23:28:58.911990 27723 net.cpp:156] Memory required for data: 1927988400
I0621 23:28:58.911998 27723 layer_factory.hpp:77] Creating layer relu_j_1_1
I0621 23:28:58.912005 27723 net.cpp:91] Creating Layer relu_j_1_1
I0621 23:28:58.912012 27723 net.cpp:425] relu_j_1_1 <- sc_j_1_1
I0621 23:28:58.912022 27723 net.cpp:399] relu_j_1_1 -> relu_j_1_1
I0621 23:28:58.912231 27723 net.cpp:141] Setting up relu_j_1_1
I0621 23:28:58.912245 27723 net.cpp:148] Top shape: 100 128 16 16 (3276800)
I0621 23:28:58.912250 27723 net.cpp:156] Memory required for data: 1941095600
I0621 23:28:58.912268 27723 layer_factory.hpp:77] Creating layer conv_j_1_1
I0621 23:28:58.912283 27723 net.cpp:91] Creating Layer conv_j_1_1
I0621 23:28:58.912292 27723 net.cpp:425] conv_j_1_1 <- relu_j_1_1
I0621 23:28:58.912302 27723 net.cpp:399] conv_j_1_1 -> conv_j_1_1
I0621 23:28:58.922226 27723 net.cpp:141] Setting up conv_j_1_1
I0621 23:28:58.922246 27723 net.cpp:148] Top shape: 100 256 8 8 (1638400)
I0621 23:28:58.922262 27723 net.cpp:156] Memory required for data: 1947649200
I0621 23:28:58.922272 27723 layer_factory.hpp:77] Creating layer bn_j_1_2
I0621 23:28:58.922284 27723 net.cpp:91] Creating Layer bn_j_1_2
I0621 23:28:58.922293 27723 net.cpp:425] bn_j_1_2 <- conv_j_1_1
I0621 23:28:58.922303 27723 net.cpp:399] bn_j_1_2 -> bn_j_1_2
I0621 23:28:58.922499 27723 net.cpp:141] Setting up bn_j_1_2
I0621 23:28:58.922511 27723 net.cpp:148] Top shape: 100 256 8 8 (1638400)
I0621 23:28:58.922516 27723 net.cpp:156] Memory required for data: 1954202800
I0621 23:28:58.922526 27723 layer_factory.hpp:77] Creating layer sc_j_1_2
I0621 23:28:58.922541 27723 net.cpp:91] Creating Layer sc_j_1_2
I0621 23:28:58.922549 27723 net.cpp:425] sc_j_1_2 <- bn_j_1_2
I0621 23:28:58.922556 27723 net.cpp:399] sc_j_1_2 -> sc_j_1_2
I0621 23:28:58.922602 27723 layer_factory.hpp:77] Creating layer sc_j_1_2
I0621 23:28:58.922725 27723 net.cpp:141] Setting up sc_j_1_2
I0621 23:28:58.922739 27723 net.cpp:148] Top shape: 100 256 8 8 (1638400)
I0621 23:28:58.922744 27723 net.cpp:156] Memory required for data: 1960756400
I0621 23:28:58.922752 27723 layer_factory.hpp:77] Creating layer relu_j_1_2
I0621 23:28:58.922762 27723 net.cpp:91] Creating Layer relu_j_1_2
I0621 23:28:58.922768 27723 net.cpp:425] relu_j_1_2 <- sc_j_1_2
I0621 23:28:58.922777 27723 net.cpp:399] relu_j_1_2 -> relu_j_1_2
I0621 23:28:58.923112 27723 net.cpp:141] Setting up relu_j_1_2
I0621 23:28:58.923127 27723 net.cpp:148] Top shape: 100 256 8 8 (1638400)
I0621 23:28:58.923133 27723 net.cpp:156] Memory required for data: 1967310000
I0621 23:28:58.923138 27723 layer_factory.hpp:77] Creating layer conv_j_1_2
I0621 23:28:58.923152 27723 net.cpp:91] Creating Layer conv_j_1_2
I0621 23:28:58.923161 27723 net.cpp:425] conv_j_1_2 <- relu_j_1_2
I0621 23:28:58.923172 27723 net.cpp:399] conv_j_1_2 -> conv_j_1_2
I0621 23:28:58.941630 27723 net.cpp:141] Setting up conv_j_1_2
I0621 23:28:58.941648 27723 net.cpp:148] Top shape: 100 256 8 8 (1638400)
I0621 23:28:58.941669 27723 net.cpp:156] Memory required for data: 1973863600
I0621 23:28:58.941679 27723 layer_factory.hpp:77] Creating layer res_j
I0621 23:28:58.941699 27723 net.cpp:91] Creating Layer res_j
I0621 23:28:58.941706 27723 net.cpp:425] res_j <- elt_d_f_elt_d_f_0_split_1
I0621 23:28:58.941715 27723 net.cpp:399] res_j -> res_j
I0621 23:28:58.943632 27723 net.cpp:141] Setting up res_j
I0621 23:28:58.943648 27723 net.cpp:148] Top shape: 100 256 8 8 (1638400)
I0621 23:28:58.943655 27723 net.cpp:156] Memory required for data: 1980417200
I0621 23:28:58.943663 27723 layer_factory.hpp:77] Creating layer elt_j_1
I0621 23:28:58.943675 27723 net.cpp:91] Creating Layer elt_j_1
I0621 23:28:58.943684 27723 net.cpp:425] elt_j_1 <- res_j
I0621 23:28:58.943693 27723 net.cpp:425] elt_j_1 <- conv_j_1_2
I0621 23:28:58.943706 27723 net.cpp:399] elt_j_1 -> elt_j_1
I0621 23:28:58.943739 27723 net.cpp:141] Setting up elt_j_1
I0621 23:28:58.943750 27723 net.cpp:148] Top shape: 100 256 8 8 (1638400)
I0621 23:28:58.943755 27723 net.cpp:156] Memory required for data: 1986970800
I0621 23:28:58.943760 27723 layer_factory.hpp:77] Creating layer bn_e_1_1
I0621 23:28:58.943768 27723 net.cpp:91] Creating Layer bn_e_1_1
I0621 23:28:58.943775 27723 net.cpp:425] bn_e_1_1 <- elt_a_1_elt_a_1_0_split_2
I0621 23:28:58.943786 27723 net.cpp:399] bn_e_1_1 -> bn_e_1_1
I0621 23:28:58.944010 27723 net.cpp:141] Setting up bn_e_1_1
I0621 23:28:58.944023 27723 net.cpp:148] Top shape: 100 64 32 32 (6553600)
I0621 23:28:58.944028 27723 net.cpp:156] Memory required for data: 2013185200
I0621 23:28:58.944038 27723 layer_factory.hpp:77] Creating layer sc_e_1_1
I0621 23:28:58.944049 27723 net.cpp:91] Creating Layer sc_e_1_1
I0621 23:28:58.944084 27723 net.cpp:425] sc_e_1_1 <- bn_e_1_1
I0621 23:28:58.944097 27723 net.cpp:399] sc_e_1_1 -> sc_e_1_1
I0621 23:28:58.944152 27723 layer_factory.hpp:77] Creating layer sc_e_1_1
I0621 23:28:58.944293 27723 net.cpp:141] Setting up sc_e_1_1
I0621 23:28:58.944306 27723 net.cpp:148] Top shape: 100 64 32 32 (6553600)
I0621 23:28:58.944311 27723 net.cpp:156] Memory required for data: 2039399600
I0621 23:28:58.944321 27723 layer_factory.hpp:77] Creating layer relu_e_1_1
I0621 23:28:58.944332 27723 net.cpp:91] Creating Layer relu_e_1_1
I0621 23:28:58.944339 27723 net.cpp:425] relu_e_1_1 <- sc_e_1_1
I0621 23:28:58.944349 27723 net.cpp:399] relu_e_1_1 -> relu_e_1_1
I0621 23:28:58.944700 27723 net.cpp:141] Setting up relu_e_1_1
I0621 23:28:58.944715 27723 net.cpp:148] Top shape: 100 64 32 32 (6553600)
I0621 23:28:58.944721 27723 net.cpp:156] Memory required for data: 2065614000
I0621 23:28:58.944727 27723 layer_factory.hpp:77] Creating layer conv_e_1_1
I0621 23:28:58.944742 27723 net.cpp:91] Creating Layer conv_e_1_1
I0621 23:28:58.944751 27723 net.cpp:425] conv_e_1_1 <- relu_e_1_1
I0621 23:28:58.944763 27723 net.cpp:399] conv_e_1_1 -> conv_e_1_1
I0621 23:28:58.948403 27723 net.cpp:141] Setting up conv_e_1_1
I0621 23:28:58.948421 27723 net.cpp:148] Top shape: 100 128 16 16 (3276800)
I0621 23:28:58.948426 27723 net.cpp:156] Memory required for data: 2078721200
I0621 23:28:58.948439 27723 layer_factory.hpp:77] Creating layer bn_e_1_2
I0621 23:28:58.948451 27723 net.cpp:91] Creating Layer bn_e_1_2
I0621 23:28:58.948459 27723 net.cpp:425] bn_e_1_2 <- conv_e_1_1
I0621 23:28:58.948467 27723 net.cpp:399] bn_e_1_2 -> bn_e_1_2
I0621 23:28:58.948657 27723 net.cpp:141] Setting up bn_e_1_2
I0621 23:28:58.948668 27723 net.cpp:148] Top shape: 100 128 16 16 (3276800)
I0621 23:28:58.948673 27723 net.cpp:156] Memory required for data: 2091828400
I0621 23:28:58.948683 27723 layer_factory.hpp:77] Creating layer sc_e_1_2
I0621 23:28:58.948693 27723 net.cpp:91] Creating Layer sc_e_1_2
I0621 23:28:58.948699 27723 net.cpp:425] sc_e_1_2 <- bn_e_1_2
I0621 23:28:58.948707 27723 net.cpp:399] sc_e_1_2 -> sc_e_1_2
I0621 23:28:58.948756 27723 layer_factory.hpp:77] Creating layer sc_e_1_2
I0621 23:28:58.948861 27723 net.cpp:141] Setting up sc_e_1_2
I0621 23:28:58.948873 27723 net.cpp:148] Top shape: 100 128 16 16 (3276800)
I0621 23:28:58.948878 27723 net.cpp:156] Memory required for data: 2104935600
I0621 23:28:58.948887 27723 layer_factory.hpp:77] Creating layer relu_e_1_2
I0621 23:28:58.948897 27723 net.cpp:91] Creating Layer relu_e_1_2
I0621 23:28:58.948904 27723 net.cpp:425] relu_e_1_2 <- sc_e_1_2
I0621 23:28:58.948911 27723 net.cpp:399] relu_e_1_2 -> relu_e_1_2
I0621 23:28:58.949126 27723 net.cpp:141] Setting up relu_e_1_2
I0621 23:28:58.949139 27723 net.cpp:148] Top shape: 100 128 16 16 (3276800)
I0621 23:28:58.949144 27723 net.cpp:156] Memory required for data: 2118042800
I0621 23:28:58.949149 27723 layer_factory.hpp:77] Creating layer conv_e_1_2
I0621 23:28:58.949162 27723 net.cpp:91] Creating Layer conv_e_1_2
I0621 23:28:58.949169 27723 net.cpp:425] conv_e_1_2 <- relu_e_1_2
I0621 23:28:58.949182 27723 net.cpp:399] conv_e_1_2 -> conv_e_1_2
I0621 23:28:58.954401 27723 net.cpp:141] Setting up conv_e_1_2
I0621 23:28:58.954417 27723 net.cpp:148] Top shape: 100 128 16 16 (3276800)
I0621 23:28:58.954428 27723 net.cpp:156] Memory required for data: 2131150000
I0621 23:28:58.954437 27723 layer_factory.hpp:77] Creating layer res_e
I0621 23:28:58.954452 27723 net.cpp:91] Creating Layer res_e
I0621 23:28:58.954459 27723 net.cpp:425] res_e <- elt_a_1_elt_a_1_0_split_3
I0621 23:28:58.954484 27723 net.cpp:399] res_e -> res_e
I0621 23:28:58.955840 27723 net.cpp:141] Setting up res_e
I0621 23:28:58.955857 27723 net.cpp:148] Top shape: 100 128 16 16 (3276800)
I0621 23:28:58.955862 27723 net.cpp:156] Memory required for data: 2144257200
I0621 23:28:58.955871 27723 layer_factory.hpp:77] Creating layer elt_e_1
I0621 23:28:58.955883 27723 net.cpp:91] Creating Layer elt_e_1
I0621 23:28:58.955888 27723 net.cpp:425] elt_e_1 <- res_e
I0621 23:28:58.955925 27723 net.cpp:425] elt_e_1 <- conv_e_1_2
I0621 23:28:58.955941 27723 net.cpp:399] elt_e_1 -> elt_e_1
I0621 23:28:58.955998 27723 net.cpp:141] Setting up elt_e_1
I0621 23:28:58.956014 27723 net.cpp:148] Top shape: 100 128 16 16 (3276800)
I0621 23:28:58.956022 27723 net.cpp:156] Memory required for data: 2157364400
I0621 23:28:58.956027 27723 layer_factory.hpp:77] Creating layer elt_e_h
I0621 23:28:58.956037 27723 net.cpp:91] Creating Layer elt_e_h
I0621 23:28:58.956043 27723 net.cpp:425] elt_e_h <- elt_e_1
I0621 23:28:58.956050 27723 net.cpp:425] elt_e_h <- elt_h_1
I0621 23:28:58.956058 27723 net.cpp:399] elt_e_h -> elt_e_h
I0621 23:28:58.956085 27723 net.cpp:141] Setting up elt_e_h
I0621 23:28:58.956096 27723 net.cpp:148] Top shape: 100 128 16 16 (3276800)
I0621 23:28:58.956101 27723 net.cpp:156] Memory required for data: 2170471600
I0621 23:28:58.956106 27723 layer_factory.hpp:77] Creating layer elt_e_h_elt_e_h_0_split
I0621 23:28:58.956116 27723 net.cpp:91] Creating Layer elt_e_h_elt_e_h_0_split
I0621 23:28:58.956123 27723 net.cpp:425] elt_e_h_elt_e_h_0_split <- elt_e_h
I0621 23:28:58.956130 27723 net.cpp:399] elt_e_h_elt_e_h_0_split -> elt_e_h_elt_e_h_0_split_0
I0621 23:28:58.956141 27723 net.cpp:399] elt_e_h_elt_e_h_0_split -> elt_e_h_elt_e_h_0_split_1
I0621 23:28:58.956183 27723 net.cpp:141] Setting up elt_e_h_elt_e_h_0_split
I0621 23:28:58.956194 27723 net.cpp:148] Top shape: 100 128 16 16 (3276800)
I0621 23:28:58.956202 27723 net.cpp:148] Top shape: 100 128 16 16 (3276800)
I0621 23:28:58.956207 27723 net.cpp:156] Memory required for data: 2196686000
I0621 23:28:58.956212 27723 layer_factory.hpp:77] Creating layer bn_k_1_1
I0621 23:28:58.956221 27723 net.cpp:91] Creating Layer bn_k_1_1
I0621 23:28:58.956243 27723 net.cpp:425] bn_k_1_1 <- elt_e_h_elt_e_h_0_split_0
I0621 23:28:58.956250 27723 net.cpp:399] bn_k_1_1 -> bn_k_1_1
I0621 23:28:58.956428 27723 net.cpp:141] Setting up bn_k_1_1
I0621 23:28:58.956439 27723 net.cpp:148] Top shape: 100 128 16 16 (3276800)
I0621 23:28:58.956444 27723 net.cpp:156] Memory required for data: 2209793200
I0621 23:28:58.956455 27723 layer_factory.hpp:77] Creating layer sc_k_1_1
I0621 23:28:58.956465 27723 net.cpp:91] Creating Layer sc_k_1_1
I0621 23:28:58.956472 27723 net.cpp:425] sc_k_1_1 <- bn_k_1_1
I0621 23:28:58.956485 27723 net.cpp:399] sc_k_1_1 -> sc_k_1_1
I0621 23:28:58.956532 27723 layer_factory.hpp:77] Creating layer sc_k_1_1
I0621 23:28:58.956640 27723 net.cpp:141] Setting up sc_k_1_1
I0621 23:28:58.956651 27723 net.cpp:148] Top shape: 100 128 16 16 (3276800)
I0621 23:28:58.956655 27723 net.cpp:156] Memory required for data: 2222900400
I0621 23:28:58.956665 27723 layer_factory.hpp:77] Creating layer relu_k_1_1
I0621 23:28:58.956673 27723 net.cpp:91] Creating Layer relu_k_1_1
I0621 23:28:58.956681 27723 net.cpp:425] relu_k_1_1 <- sc_k_1_1
I0621 23:28:58.956687 27723 net.cpp:399] relu_k_1_1 -> relu_k_1_1
I0621 23:28:58.956897 27723 net.cpp:141] Setting up relu_k_1_1
I0621 23:28:58.956912 27723 net.cpp:148] Top shape: 100 128 16 16 (3276800)
I0621 23:28:58.956919 27723 net.cpp:156] Memory required for data: 2236007600
I0621 23:28:58.956924 27723 layer_factory.hpp:77] Creating layer conv_k_1_1
I0621 23:28:58.956938 27723 net.cpp:91] Creating Layer conv_k_1_1
I0621 23:28:58.956945 27723 net.cpp:425] conv_k_1_1 <- relu_k_1_1
I0621 23:28:58.956954 27723 net.cpp:399] conv_k_1_1 -> conv_k_1_1
I0621 23:28:58.966868 27723 net.cpp:141] Setting up conv_k_1_1
I0621 23:28:58.966886 27723 net.cpp:148] Top shape: 100 256 8 8 (1638400)
I0621 23:28:58.966892 27723 net.cpp:156] Memory required for data: 2242561200
I0621 23:28:58.966904 27723 layer_factory.hpp:77] Creating layer bn_k_1_2
I0621 23:28:58.966915 27723 net.cpp:91] Creating Layer bn_k_1_2
I0621 23:28:58.966927 27723 net.cpp:425] bn_k_1_2 <- conv_k_1_1
I0621 23:28:58.966934 27723 net.cpp:399] bn_k_1_2 -> bn_k_1_2
I0621 23:28:58.967133 27723 net.cpp:141] Setting up bn_k_1_2
I0621 23:28:58.967145 27723 net.cpp:148] Top shape: 100 256 8 8 (1638400)
I0621 23:28:58.967150 27723 net.cpp:156] Memory required for data: 2249114800
I0621 23:28:58.967192 27723 layer_factory.hpp:77] Creating layer sc_k_1_2
I0621 23:28:58.967203 27723 net.cpp:91] Creating Layer sc_k_1_2
I0621 23:28:58.967213 27723 net.cpp:425] sc_k_1_2 <- bn_k_1_2
I0621 23:28:58.967224 27723 net.cpp:399] sc_k_1_2 -> sc_k_1_2
I0621 23:28:58.967275 27723 layer_factory.hpp:77] Creating layer sc_k_1_2
I0621 23:28:58.967391 27723 net.cpp:141] Setting up sc_k_1_2
I0621 23:28:58.967404 27723 net.cpp:148] Top shape: 100 256 8 8 (1638400)
I0621 23:28:58.967411 27723 net.cpp:156] Memory required for data: 2255668400
I0621 23:28:58.967419 27723 layer_factory.hpp:77] Creating layer relu_k_1_2
I0621 23:28:58.967427 27723 net.cpp:91] Creating Layer relu_k_1_2
I0621 23:28:58.967433 27723 net.cpp:425] relu_k_1_2 <- sc_k_1_2
I0621 23:28:58.967440 27723 net.cpp:399] relu_k_1_2 -> relu_k_1_2
I0621 23:28:58.967803 27723 net.cpp:141] Setting up relu_k_1_2
I0621 23:28:58.967818 27723 net.cpp:148] Top shape: 100 256 8 8 (1638400)
I0621 23:28:58.967823 27723 net.cpp:156] Memory required for data: 2262222000
I0621 23:28:58.967829 27723 layer_factory.hpp:77] Creating layer conv_k_1_2
I0621 23:28:58.967847 27723 net.cpp:91] Creating Layer conv_k_1_2
I0621 23:28:58.967855 27723 net.cpp:425] conv_k_1_2 <- relu_k_1_2
I0621 23:28:58.967865 27723 net.cpp:399] conv_k_1_2 -> conv_k_1_2
I0621 23:28:58.986466 27723 net.cpp:141] Setting up conv_k_1_2
I0621 23:28:58.986484 27723 net.cpp:148] Top shape: 100 256 8 8 (1638400)
I0621 23:28:58.986490 27723 net.cpp:156] Memory required for data: 2268775600
I0621 23:28:58.986503 27723 layer_factory.hpp:77] Creating layer res_k
I0621 23:28:58.986521 27723 net.cpp:91] Creating Layer res_k
I0621 23:28:58.986529 27723 net.cpp:425] res_k <- elt_e_h_elt_e_h_0_split_1
I0621 23:28:58.986538 27723 net.cpp:399] res_k -> res_k
I0621 23:28:58.988459 27723 net.cpp:141] Setting up res_k
I0621 23:28:58.988476 27723 net.cpp:148] Top shape: 100 256 8 8 (1638400)
I0621 23:28:58.988482 27723 net.cpp:156] Memory required for data: 2275329200
I0621 23:28:58.988494 27723 layer_factory.hpp:77] Creating layer elt_k_1
I0621 23:28:58.988508 27723 net.cpp:91] Creating Layer elt_k_1
I0621 23:28:58.988517 27723 net.cpp:425] elt_k_1 <- res_k
I0621 23:28:58.988523 27723 net.cpp:425] elt_k_1 <- conv_k_1_2
I0621 23:28:58.988530 27723 net.cpp:399] elt_k_1 -> elt_k_1
I0621 23:28:58.988565 27723 net.cpp:141] Setting up elt_k_1
I0621 23:28:58.988576 27723 net.cpp:148] Top shape: 100 256 8 8 (1638400)
I0621 23:28:58.988580 27723 net.cpp:156] Memory required for data: 2281882800
I0621 23:28:58.988586 27723 layer_factory.hpp:77] Creating layer bn_l_1_1
I0621 23:28:58.988597 27723 net.cpp:91] Creating Layer bn_l_1_1
I0621 23:28:58.988605 27723 net.cpp:425] bn_l_1_1 <- elt_g_i_elt_g_i_0_split_0
I0621 23:28:58.988612 27723 net.cpp:399] bn_l_1_1 -> bn_l_1_1
I0621 23:28:58.988806 27723 net.cpp:141] Setting up bn_l_1_1
I0621 23:28:58.988817 27723 net.cpp:148] Top shape: 100 128 16 16 (3276800)
I0621 23:28:58.988822 27723 net.cpp:156] Memory required for data: 2294990000
I0621 23:28:58.988831 27723 layer_factory.hpp:77] Creating layer sc_l_1_1
I0621 23:28:58.988843 27723 net.cpp:91] Creating Layer sc_l_1_1
I0621 23:28:58.988850 27723 net.cpp:425] sc_l_1_1 <- bn_l_1_1
I0621 23:28:58.988858 27723 net.cpp:399] sc_l_1_1 -> sc_l_1_1
I0621 23:28:58.988921 27723 layer_factory.hpp:77] Creating layer sc_l_1_1
I0621 23:28:58.989037 27723 net.cpp:141] Setting up sc_l_1_1
I0621 23:28:58.989048 27723 net.cpp:148] Top shape: 100 128 16 16 (3276800)
I0621 23:28:58.989053 27723 net.cpp:156] Memory required for data: 2308097200
I0621 23:28:58.989063 27723 layer_factory.hpp:77] Creating layer relu_l_1_1
I0621 23:28:58.989071 27723 net.cpp:91] Creating Layer relu_l_1_1
I0621 23:28:58.989078 27723 net.cpp:425] relu_l_1_1 <- sc_l_1_1
I0621 23:28:58.989086 27723 net.cpp:399] relu_l_1_1 -> relu_l_1_1
I0621 23:28:58.989451 27723 net.cpp:141] Setting up relu_l_1_1
I0621 23:28:58.989467 27723 net.cpp:148] Top shape: 100 128 16 16 (3276800)
I0621 23:28:58.989472 27723 net.cpp:156] Memory required for data: 2321204400
I0621 23:28:58.989478 27723 layer_factory.hpp:77] Creating layer conv_l_1_1
I0621 23:28:58.989508 27723 net.cpp:91] Creating Layer conv_l_1_1
I0621 23:28:58.989517 27723 net.cpp:425] conv_l_1_1 <- relu_l_1_1
I0621 23:28:58.989529 27723 net.cpp:399] conv_l_1_1 -> conv_l_1_1
I0621 23:28:58.999439 27723 net.cpp:141] Setting up conv_l_1_1
I0621 23:28:58.999457 27723 net.cpp:148] Top shape: 100 256 8 8 (1638400)
I0621 23:28:58.999480 27723 net.cpp:156] Memory required for data: 2327758000
I0621 23:28:58.999488 27723 layer_factory.hpp:77] Creating layer bn_l_1_2
I0621 23:28:58.999502 27723 net.cpp:91] Creating Layer bn_l_1_2
I0621 23:28:58.999511 27723 net.cpp:425] bn_l_1_2 <- conv_l_1_1
I0621 23:28:58.999521 27723 net.cpp:399] bn_l_1_2 -> bn_l_1_2
I0621 23:28:58.999747 27723 net.cpp:141] Setting up bn_l_1_2
I0621 23:28:58.999759 27723 net.cpp:148] Top shape: 100 256 8 8 (1638400)
I0621 23:28:58.999764 27723 net.cpp:156] Memory required for data: 2334311600
I0621 23:28:58.999774 27723 layer_factory.hpp:77] Creating layer sc_l_1_2
I0621 23:28:58.999810 27723 net.cpp:91] Creating Layer sc_l_1_2
I0621 23:28:58.999819 27723 net.cpp:425] sc_l_1_2 <- bn_l_1_2
I0621 23:28:58.999826 27723 net.cpp:399] sc_l_1_2 -> sc_l_1_2
I0621 23:28:58.999891 27723 layer_factory.hpp:77] Creating layer sc_l_1_2
I0621 23:28:59.000010 27723 net.cpp:141] Setting up sc_l_1_2
I0621 23:28:59.000022 27723 net.cpp:148] Top shape: 100 256 8 8 (1638400)
I0621 23:28:59.000027 27723 net.cpp:156] Memory required for data: 2340865200
I0621 23:28:59.000036 27723 layer_factory.hpp:77] Creating layer relu_l_1_2
I0621 23:28:59.000047 27723 net.cpp:91] Creating Layer relu_l_1_2
I0621 23:28:59.000054 27723 net.cpp:425] relu_l_1_2 <- sc_l_1_2
I0621 23:28:59.000061 27723 net.cpp:399] relu_l_1_2 -> relu_l_1_2
I0621 23:28:59.000273 27723 net.cpp:141] Setting up relu_l_1_2
I0621 23:28:59.000288 27723 net.cpp:148] Top shape: 100 256 8 8 (1638400)
I0621 23:28:59.000293 27723 net.cpp:156] Memory required for data: 2347418800
I0621 23:28:59.000298 27723 layer_factory.hpp:77] Creating layer conv_l_1_2
I0621 23:28:59.000313 27723 net.cpp:91] Creating Layer conv_l_1_2
I0621 23:28:59.000320 27723 net.cpp:425] conv_l_1_2 <- relu_l_1_2
I0621 23:28:59.000334 27723 net.cpp:399] conv_l_1_2 -> conv_l_1_2
I0621 23:28:59.018326 27723 net.cpp:141] Setting up conv_l_1_2
I0621 23:28:59.018342 27723 net.cpp:148] Top shape: 100 256 8 8 (1638400)
I0621 23:28:59.018362 27723 net.cpp:156] Memory required for data: 2353972400
I0621 23:28:59.018370 27723 layer_factory.hpp:77] Creating layer res_l
I0621 23:28:59.018384 27723 net.cpp:91] Creating Layer res_l
I0621 23:28:59.018391 27723 net.cpp:425] res_l <- elt_g_i_elt_g_i_0_split_1
I0621 23:28:59.018402 27723 net.cpp:399] res_l -> res_l
I0621 23:28:59.020422 27723 net.cpp:141] Setting up res_l
I0621 23:28:59.020438 27723 net.cpp:148] Top shape: 100 256 8 8 (1638400)
I0621 23:28:59.020458 27723 net.cpp:156] Memory required for data: 2360526000
I0621 23:28:59.020467 27723 layer_factory.hpp:77] Creating layer elt_l_1
I0621 23:28:59.020478 27723 net.cpp:91] Creating Layer elt_l_1
I0621 23:28:59.020485 27723 net.cpp:425] elt_l_1 <- res_l
I0621 23:28:59.020496 27723 net.cpp:425] elt_l_1 <- conv_l_1_2
I0621 23:28:59.020504 27723 net.cpp:399] elt_l_1 -> elt_l_1
I0621 23:28:59.020539 27723 net.cpp:141] Setting up elt_l_1
I0621 23:28:59.020550 27723 net.cpp:148] Top shape: 100 256 8 8 (1638400)
I0621 23:28:59.020555 27723 net.cpp:156] Memory required for data: 2367079600
I0621 23:28:59.020560 27723 layer_factory.hpp:77] Creating layer concat_j_k_l
I0621 23:28:59.020567 27723 net.cpp:91] Creating Layer concat_j_k_l
I0621 23:28:59.020577 27723 net.cpp:425] concat_j_k_l <- elt_j_1
I0621 23:28:59.020584 27723 net.cpp:425] concat_j_k_l <- elt_k_1
I0621 23:28:59.020589 27723 net.cpp:425] concat_j_k_l <- elt_l_1
I0621 23:28:59.020601 27723 net.cpp:399] concat_j_k_l -> elt_j_k_l
I0621 23:28:59.020635 27723 net.cpp:141] Setting up concat_j_k_l
I0621 23:28:59.020647 27723 net.cpp:148] Top shape: 100 768 8 8 (4915200)
I0621 23:28:59.020651 27723 net.cpp:156] Memory required for data: 2386740400
I0621 23:28:59.020673 27723 layer_factory.hpp:77] Creating layer bn_m_1_1
I0621 23:28:59.020696 27723 net.cpp:91] Creating Layer bn_m_1_1
I0621 23:28:59.020701 27723 net.cpp:425] bn_m_1_1 <- elt_j_k_l
I0621 23:28:59.020712 27723 net.cpp:399] bn_m_1_1 -> bn_m_1_1
I0621 23:28:59.020946 27723 net.cpp:141] Setting up bn_m_1_1
I0621 23:28:59.020958 27723 net.cpp:148] Top shape: 100 768 8 8 (4915200)
I0621 23:28:59.020963 27723 net.cpp:156] Memory required for data: 2406401200
I0621 23:28:59.020974 27723 layer_factory.hpp:77] Creating layer sc_m_1_1
I0621 23:28:59.021003 27723 net.cpp:91] Creating Layer sc_m_1_1
I0621 23:28:59.021010 27723 net.cpp:425] sc_m_1_1 <- bn_m_1_1
I0621 23:28:59.021018 27723 net.cpp:399] sc_m_1_1 -> sc_m_1_1
I0621 23:28:59.021075 27723 layer_factory.hpp:77] Creating layer sc_m_1_1
I0621 23:28:59.021217 27723 net.cpp:141] Setting up sc_m_1_1
I0621 23:28:59.021230 27723 net.cpp:148] Top shape: 100 768 8 8 (4915200)
I0621 23:28:59.021235 27723 net.cpp:156] Memory required for data: 2426062000
I0621 23:28:59.021244 27723 layer_factory.hpp:77] Creating layer relu_m_1_1
I0621 23:28:59.021250 27723 net.cpp:91] Creating Layer relu_m_1_1
I0621 23:28:59.021257 27723 net.cpp:425] relu_m_1_1 <- sc_m_1_1
I0621 23:28:59.021266 27723 net.cpp:399] relu_m_1_1 -> relu_m_1_1
I0621 23:28:59.021493 27723 net.cpp:141] Setting up relu_m_1_1
I0621 23:28:59.021507 27723 net.cpp:148] Top shape: 100 768 8 8 (4915200)
I0621 23:28:59.021512 27723 net.cpp:156] Memory required for data: 2445722800
I0621 23:28:59.021518 27723 layer_factory.hpp:77] Creating layer gap
I0621 23:28:59.021530 27723 net.cpp:91] Creating Layer gap
I0621 23:28:59.021538 27723 net.cpp:425] gap <- relu_m_1_1
I0621 23:28:59.021546 27723 net.cpp:399] gap -> gap
I0621 23:28:59.021904 27723 net.cpp:141] Setting up gap
I0621 23:28:59.021919 27723 net.cpp:148] Top shape: 100 768 1 1 (76800)
I0621 23:28:59.021924 27723 net.cpp:156] Memory required for data: 2446030000
I0621 23:28:59.021929 27723 layer_factory.hpp:77] Creating layer ip1
I0621 23:28:59.021940 27723 net.cpp:91] Creating Layer ip1
I0621 23:28:59.021947 27723 net.cpp:425] ip1 <- gap
I0621 23:28:59.021957 27723 net.cpp:399] ip1 -> ip1
I0621 23:28:59.022346 27723 net.cpp:141] Setting up ip1
I0621 23:28:59.022357 27723 net.cpp:148] Top shape: 100 10 (1000)
I0621 23:28:59.022375 27723 net.cpp:156] Memory required for data: 2446034000
I0621 23:28:59.022384 27723 layer_factory.hpp:77] Creating layer ip1_ip1_0_split
I0621 23:28:59.022392 27723 net.cpp:91] Creating Layer ip1_ip1_0_split
I0621 23:28:59.022397 27723 net.cpp:425] ip1_ip1_0_split <- ip1
I0621 23:28:59.022406 27723 net.cpp:399] ip1_ip1_0_split -> ip1_ip1_0_split_0
I0621 23:28:59.022415 27723 net.cpp:399] ip1_ip1_0_split -> ip1_ip1_0_split_1
I0621 23:28:59.022457 27723 net.cpp:141] Setting up ip1_ip1_0_split
I0621 23:28:59.022470 27723 net.cpp:148] Top shape: 100 10 (1000)
I0621 23:28:59.022477 27723 net.cpp:148] Top shape: 100 10 (1000)
I0621 23:28:59.022482 27723 net.cpp:156] Memory required for data: 2446042000
I0621 23:28:59.022487 27723 layer_factory.hpp:77] Creating layer accuracy
I0621 23:28:59.022497 27723 net.cpp:91] Creating Layer accuracy
I0621 23:28:59.022505 27723 net.cpp:425] accuracy <- ip1_ip1_0_split_0
I0621 23:28:59.022511 27723 net.cpp:425] accuracy <- label_resnet_1_split_0
I0621 23:28:59.022517 27723 net.cpp:399] accuracy -> accuracy
…
