…
I0621 13:53:30.417187 23089 net.cpp:313] The NetState phase (0) differed from the phase (1) specified by a rule in layer accuracy
I0621 13:53:30.417968 23089 net.cpp:49] Initializing net from parameters: 
name: "ResNet"
state {
  phase: TRAIN
}
layer {
  name: "resnet"
  type: "Data"
  top: "data"
  top: "label"
  include {
    phase: TRAIN
  }
  transform_param {
    mean_file: "/home/takeki/caffe/examples/cifar10/mean.binaryproto"
  }
  data_param {
    source: "/home/takeki/caffe/examples/cifar10/cifar10_train_lmdb"
    batch_size: 128
    backend: LMDB
  }
}
layer {
  name: "conv0"
  type: "Convolution"
  bottom: "data"
  top: "conv0"
  param {
    lr_mult: 1
  }
  param {
    lr_mult: 2
  }
  convolution_param {
    num_output: 16
    pad: 1
    kernel_size: 3
    stride: 1
    weight_filler {
      type: "msra"
    }
    bias_filler {
      type: "constant"
    }
  }
}
layer {
  name: "bn_a_1_1"
  type: "BatchNorm"
  bottom: "conv0"
  top: "bn_a_1_1"
  param {
    lr_mult: 0
  }
  param {
    lr_mult: 0
  }
  param {
    lr_mult: 0
  }
  batch_norm_param {
    use_global_stats: false
  }
}
layer {
  name: "sc_a_1_1"
  type: "Scale"
  bottom: "bn_a_1_1"
  top: "sc_a_1_1"
  scale_param {
    bias_term: true
  }
}
layer {
  name: "relu_a_1_1"
  type: "ReLU"
  bottom: "sc_a_1_1"
  top: "relu_a_1_1"
}
layer {
  name: "conv_a_1_1"
  type: "Convolution"
  bottom: "relu_a_1_1"
  top: "conv_a_1_1"
  param {
    lr_mult: 1
    decay_mult: 1
  }
  param {
    lr_mult: 2
    decay_mult: 1
  }
  convolution_param {
    num_output: 64
    pad: 1
    kernel_size: 3
    stride: 1
    weight_filler {
      type: "msra"
    }
    bias_filler {
      type: "constant"
    }
  }
}
layer {
  name: "bn_a_1_2"
  type: "BatchNorm"
  bottom: "conv_a_1_1"
  top: "bn_a_1_2"
  param {
    lr_mult: 0
  }
  param {
    lr_mult: 0
  }
  param {
    lr_mult: 0
  }
  batch_norm_param {
    use_global_stats: false
  }
}
layer {
  name: "sc_a_1_2"
  type: "Scale"
  bottom: "bn_a_1_2"
  top: "sc_a_1_2"
  scale_param {
    bias_term: true
  }
}
layer {
  name: "relu_a_1_2"
  type: "ReLU"
  bottom: "sc_a_1_2"
  top: "relu_a_1_2"
}
layer {
  name: "conv_a_1_2"
  type: "Convolution"
  bottom: "relu_a_1_2"
  top: "conv_a_1_2"
  param {
    lr_mult: 1
    decay_mult: 1
  }
  param {
    lr_mult: 2
    decay_mult: 1
  }
  convolution_param {
    num_output: 64
    pad: 1
    kernel_size: 3
    stride: 1
    weight_filler {
      type: "msra"
    }
    bias_filler {
      type: "constant"
    }
  }
}
layer {
  name: "res_a"
  type: "Convolution"
  bottom: "conv0"
  top: "res_a"
  param {
    lr_mult: 1
    decay_mult: 1
  }
  param {
    lr_mult: 2
    decay_mult: 1
  }
  convolution_param {
    num_output: 64
    pad: 0
    kernel_size: 1
    stride: 1
    weight_filler {
      type: "msra"
    }
    bias_filler {
      type: "constant"
    }
  }
}
layer {
  name: "elt_a_1"
  type: "Eltwise"
  bottom: "res_a"
  bottom: "conv_a_1_2"
  top: "elt_a_1"
  eltwise_param {
    operation: SUM
  }
}
layer {
  name: "bn_b_1_1"
  type: "BatchNorm"
  bottom: "conv0"
  top: "bn_b_1_1"
  param {
    lr_mult: 0
  }
  param {
    lr_mult: 0
  }
  param {
    lr_mult: 0
  }
  batch_norm_param {
    use_global_stats: false
  }
}
layer {
  name: "sc_b_1_1"
  type: "Scale"
  bottom: "bn_b_1_1"
  top: "sc_b_1_1"
  scale_param {
    bias_term: true
  }
}
layer {
  name: "relu_b_1_1"
  type: "ReLU"
  bottom: "sc_b_1_1"
  top: "relu_b_1_1"
}
layer {
  name: "conv_b_1_1"
  type: "Convolution"
  bottom: "relu_b_1_1"
  top: "conv_b_1_1"
  param {
    lr_mult: 1
    decay_mult: 1
  }
  param {
    lr_mult: 2
    decay_mult: 1
  }
  convolution_param {
    num_output: 64
    pad: 1
    kernel_size: 3
    stride: 1
    weight_filler {
      type: "msra"
    }
    bias_filler {
      type: "constant"
    }
  }
}
layer {
  name: "bn_b_1_2"
  type: "BatchNorm"
  bottom: "conv_b_1_1"
  top: "bn_b_1_2"
  param {
    lr_mult: 0
  }
  param {
    lr_mult: 0
  }
  param {
    lr_mult: 0
  }
  batch_norm_param {
    use_global_stats: false
  }
}
layer {
  name: "sc_b_1_2"
  type: "Scale"
  bottom: "bn_b_1_2"
  top: "sc_b_1_2"
  scale_param {
    bias_term: true
  }
}
layer {
  name: "relu_b_1_2"
  type: "ReLU"
  bottom: "sc_b_1_2"
  top: "relu_b_1_2"
}
layer {
  name: "conv_b_1_2"
  type: "Convolution"
  bottom: "relu_b_1_2"
  top: "conv_b_1_2"
  param {
    lr_mult: 1
    decay_mult: 1
  }
  param {
    lr_mult: 2
    decay_mult: 1
  }
  convolution_param {
    num_output: 64
    pad: 1
    kernel_size: 3
    stride: 1
    weight_filler {
      type: "msra"
    }
    bias_filler {
      type: "constant"
    }
  }
}
layer {
  name: "res_b"
  type: "Convolution"
  bottom: "conv0"
  top: "res_b"
  param {
    lr_mult: 1
    decay_mult: 1
  }
  param {
    lr_mult: 2
    decay_mult: 1
  }
  convolution_param {
    num_output: 64
    pad: 0
    kernel_size: 1
    stride: 1
    weight_filler {
      type: "msra"
    }
    bias_filler {
      type: "constant"
    }
  }
}
layer {
  name: "elt_b_1"
  type: "Eltwise"
  bottom: "res_b"
  bottom: "conv_b_1_2"
  top: "elt_b_1"
  eltwise_param {
    operation: SUM
  }
}
layer {
  name: "bn_c_1_1"
  type: "BatchNorm"
  bottom: "conv0"
  top: "bn_c_1_1"
  param {
    lr_mult: 0
  }
  param {
    lr_mult: 0
  }
  param {
    lr_mult: 0
  }
  batch_norm_param {
    use_global_stats: false
  }
}
layer {
  name: "sc_c_1_1"
  type: "Scale"
  bottom: "bn_c_1_1"
  top: "sc_c_1_1"
  scale_param {
    bias_term: true
  }
}
layer {
  name: "relu_c_1_1"
  type: "ReLU"
  bottom: "sc_c_1_1"
  top: "relu_c_1_1"
}
layer {
  name: "conv_c_1_1"
  type: "Convolution"
  bottom: "relu_c_1_1"
  top: "conv_c_1_1"
  param {
    lr_mult: 1
    decay_mult: 1
  }
  param {
    lr_mult: 2
    decay_mult: 1
  }
  convolution_param {
    num_output: 64
    pad: 1
    kernel_size: 3
    stride: 1
    weight_filler {
      type: "msra"
    }
    bias_filler {
      type: "constant"
    }
  }
}
layer {
  name: "bn_c_1_2"
  type: "BatchNorm"
  bottom: "conv_c_1_1"
  top: "bn_c_1_2"
  param {
    lr_mult: 0
  }
  param {
    lr_mult: 0
  }
  param {
    lr_mult: 0
  }
  batch_norm_param {
    use_global_stats: false
  }
}
layer {
  name: "sc_c_1_2"
  type: "Scale"
  bottom: "bn_c_1_2"
  top: "sc_c_1_2"
  scale_param {
    bias_term: true
  }
}
layer {
  name: "relu_c_1_2"
  type: "ReLU"
  bottom: "sc_c_1_2"
  top: "relu_c_1_2"
}
layer {
  name: "conv_c_1_2"
  type: "Convolution"
  bottom: "relu_c_1_2"
  top: "conv_c_1_2"
  param {
    lr_mult: 1
    decay_mult: 1
  }
  param {
    lr_mult: 2
    decay_mult: 1
  }
  convolution_param {
    num_output: 64
    pad: 1
    kernel_size: 3
    stride: 1
    weight_filler {
      type: "msra"
    }
    bias_filler {
      type: "constant"
    }
  }
}
layer {
  name: "res_c"
  type: "Convolution"
  bottom: "conv0"
  top: "res_c"
  param {
    lr_mult: 1
    decay_mult: 1
  }
  param {
    lr_mult: 2
    decay_mult: 1
  }
  convolution_param {
    num_output: 64
    pad: 0
    kernel_size: 1
    stride: 1
    weight_filler {
      type: "msra"
    }
    bias_filler {
      type: "constant"
    }
  }
}
layer {
  name: "elt_c_1"
  type: "Eltwise"
  bottom: "res_c"
  bottom: "conv_c_1_2"
  top: "elt_c_1"
  eltwise_param {
    operation: SUM
  }
}
layer {
  name: "bn_d_1_1"
  type: "BatchNorm"
  bottom: "elt_a_1"
  top: "bn_d_1_1"
  param {
    lr_mult: 0
  }
  param {
    lr_mult: 0
  }
  param {
    lr_mult: 0
  }
  batch_norm_param {
    use_global_stats: false
  }
}
layer {
  name: "sc_d_1_1"
  type: "Scale"
  bottom: "bn_d_1_1"
  top: "sc_d_1_1"
  scale_param {
    bias_term: true
  }
}
layer {
  name: "relu_d_1_1"
  type: "ReLU"
  bottom: "sc_d_1_1"
  top: "relu_d_1_1"
}
layer {
  name: "conv_d_1_1"
  type: "Convolution"
  bottom: "relu_d_1_1"
  top: "conv_d_1_1"
  param {
    lr_mult: 1
    decay_mult: 1
  }
  param {
    lr_mult: 2
    decay_mult: 1
  }
  convolution_param {
    num_output: 128
    pad: 1
    kernel_size: 3
    stride: 2
    weight_filler {
      type: "msra"
    }
    bias_filler {
      type: "constant"
    }
  }
}
layer {
  name: "bn_d_1_2"
  type: "BatchNorm"
  bottom: "conv_d_1_1"
  top: "bn_d_1_2"
  param {
    lr_mult: 0
  }
  param {
    lr_mult: 0
  }
  param {
    lr_mult: 0
  }
  batch_norm_param {
    use_global_stats: false
  }
}
layer {
  name: "sc_d_1_2"
  type: "Scale"
  bottom: "bn_d_1_2"
  top: "sc_d_1_2"
  scale_param {
    bias_term: true
  }
}
layer {
  name: "relu_d_1_2"
  type: "ReLU"
  bottom: "sc_d_1_2"
  top: "relu_d_1_2"
}
layer {
  name: "conv_d_1_2"
  type: "Convolution"
  bottom: "relu_d_1_2"
  top: "conv_d_1_2"
  param {
    lr_mult: 1
    decay_mult: 1
  }
  param {
    lr_mult: 2
    decay_mult: 1
  }
  convolution_param {
    num_output: 128
    pad: 1
    kernel_size: 3
    stride: 1
    weight_filler {
      type: "msra"
    }
    bias_filler {
      type: "constant"
    }
  }
}
layer {
  name: "res_d"
  type: "Convolution"
  bottom: "elt_a_1"
  top: "res_d"
  param {
    lr_mult: 1
    decay_mult: 1
  }
  param {
    lr_mult: 2
    decay_mult: 1
  }
  convolution_param {
    num_output: 128
    pad: 0
    kernel_size: 1
    stride: 2
    weight_filler {
      type: "msra"
    }
    bias_filler {
      type: "constant"
    }
  }
}
layer {
  name: "elt_d_1"
  type: "Eltwise"
  bottom: "res_d"
  bottom: "conv_d_1_2"
  top: "elt_d_1"
  eltwise_param {
    operation: SUM
  }
}
layer {
  name: "bn_f_1_1"
  type: "BatchNorm"
  bottom: "elt_b_1"
  top: "bn_f_1_1"
  param {
    lr_mult: 0
  }
  param {
    lr_mult: 0
  }
  param {
    lr_mult: 0
  }
  batch_norm_param {
    use_global_stats: false
  }
}
layer {
  name: "sc_f_1_1"
  type: "Scale"
  bottom: "bn_f_1_1"
  top: "sc_f_1_1"
  scale_param {
    bias_term: true
  }
}
layer {
  name: "relu_f_1_1"
  type: "ReLU"
  bottom: "sc_f_1_1"
  top: "relu_f_1_1"
}
layer {
  name: "conv_f_1_1"
  type: "Convolution"
  bottom: "relu_f_1_1"
  top: "conv_f_1_1"
  param {
    lr_mult: 1
    decay_mult: 1
  }
  param {
    lr_mult: 2
    decay_mult: 1
  }
  convolution_param {
    num_output: 128
    pad: 1
    kernel_size: 3
    stride: 2
    weight_filler {
      type: "msra"
    }
    bias_filler {
      type: "constant"
    }
  }
}
layer {
  name: "bn_f_1_2"
  type: "BatchNorm"
  bottom: "conv_f_1_1"
  top: "bn_f_1_2"
  param {
    lr_mult: 0
  }
  param {
    lr_mult: 0
  }
  param {
    lr_mult: 0
  }
  batch_norm_param {
    use_global_stats: false
  }
}
layer {
  name: "sc_f_1_2"
  type: "Scale"
  bottom: "bn_f_1_2"
  top: "sc_f_1_2"
  scale_param {
    bias_term: true
  }
}
layer {
  name: "relu_f_1_2"
  type: "ReLU"
  bottom: "sc_f_1_2"
  top: "relu_f_1_2"
}
layer {
  name: "conv_f_1_2"
  type: "Convolution"
  bottom: "relu_f_1_2"
  top: "conv_f_1_2"
  param {
    lr_mult: 1
    decay_mult: 1
  }
  param {
    lr_mult: 2
    decay_mult: 1
  }
  convolution_param {
    num_output: 128
    pad: 1
    kernel_size: 3
    stride: 1
    weight_filler {
      type: "msra"
    }
    bias_filler {
      type: "constant"
    }
  }
}
layer {
  name: "res_f"
  type: "Convolution"
  bottom: "elt_b_1"
  top: "res_f"
  param {
    lr_mult: 1
    decay_mult: 1
  }
  param {
    lr_mult: 2
    decay_mult: 1
  }
  convolution_param {
    num_output: 128
    pad: 0
    kernel_size: 1
    stride: 2
    weight_filler {
      type: "msra"
    }
    bias_filler {
      type: "constant"
    }
  }
}
layer {
  name: "elt_f_1"
  type: "Eltwise"
  bottom: "res_f"
  bottom: "conv_f_1_2"
  top: "elt_f_1"
  eltwise_param {
    operation: SUM
  }
}
layer {
  name: "bn_g_1_1"
  type: "BatchNorm"
  bottom: "elt_b_1"
  top: "bn_g_1_1"
  param {
    lr_mult: 0
  }
  param {
    lr_mult: 0
  }
  param {
    lr_mult: 0
  }
  batch_norm_param {
    use_global_stats: false
  }
}
layer {
  name: "sc_g_1_1"
  type: "Scale"
  bottom: "bn_g_1_1"
  top: "sc_g_1_1"
  scale_param {
    bias_term: true
  }
}
layer {
  name: "relu_g_1_1"
  type: "ReLU"
  bottom: "sc_g_1_1"
  top: "relu_g_1_1"
}
layer {
  name: "conv_g_1_1"
  type: "Convolution"
  bottom: "relu_g_1_1"
  top: "conv_g_1_1"
  param {
    lr_mult: 1
    decay_mult: 1
  }
  param {
    lr_mult: 2
    decay_mult: 1
  }
  convolution_param {
    num_output: 128
    pad: 1
    kernel_size: 3
    stride: 2
    weight_filler {
      type: "msra"
    }
    bias_filler {
      type: "constant"
    }
  }
}
layer {
  name: "bn_g_1_2"
  type: "BatchNorm"
  bottom: "conv_g_1_1"
  top: "bn_g_1_2"
  param {
    lr_mult: 0
  }
  param {
    lr_mult: 0
  }
  param {
    lr_mult: 0
  }
  batch_norm_param {
    use_global_stats: false
  }
}
layer {
  name: "sc_g_1_2"
  type: "Scale"
  bottom: "bn_g_1_2"
  top: "sc_g_1_2"
  scale_param {
    bias_term: true
  }
}
layer {
  name: "relu_g_1_2"
  type: "ReLU"
  bottom: "sc_g_1_2"
  top: "relu_g_1_2"
}
layer {
  name: "conv_g_1_2"
  type: "Convolution"
  bottom: "relu_g_1_2"
  top: "conv_g_1_2"
  param {
    lr_mult: 1
    decay_mult: 1
  }
  param {
    lr_mult: 2
    decay_mult: 1
  }
  convolution_param {
    num_output: 128
    pad: 1
    kernel_size: 3
    stride: 1
    weight_filler {
      type: "msra"
    }
    bias_filler {
      type: "constant"
    }
  }
}
layer {
  name: "res_g"
  type: "Convolution"
  bottom: "elt_b_1"
  top: "res_g"
  param {
    lr_mult: 1
    decay_mult: 1
  }
  param {
    lr_mult: 2
    decay_mult: 1
  }
  convolution_param {
    num_output: 128
    pad: 0
    kernel_size: 1
    stride: 2
    weight_filler {
      type: "msra"
    }
    bias_filler {
      type: "constant"
    }
  }
}
layer {
  name: "elt_g_1"
  type: "Eltwise"
  bottom: "res_g"
  bottom: "conv_g_1_2"
  top: "elt_g_1"
  eltwise_param {
    operation: SUM
  }
}
layer {
  name: "bn_h_1_1"
  type: "BatchNorm"
  bottom: "elt_c_1"
  top: "bn_h_1_1"
  param {
    lr_mult: 0
  }
  param {
    lr_mult: 0
  }
  param {
    lr_mult: 0
  }
  batch_norm_param {
    use_global_stats: false
  }
}
layer {
  name: "sc_h_1_1"
  type: "Scale"
  bottom: "bn_h_1_1"
  top: "sc_h_1_1"
  scale_param {
    bias_term: true
  }
}
layer {
  name: "relu_h_1_1"
  type: "ReLU"
  bottom: "sc_h_1_1"
  top: "relu_h_1_1"
}
layer {
  name: "conv_h_1_1"
  type: "Convolution"
  bottom: "relu_h_1_1"
  top: "conv_h_1_1"
  param {
    lr_mult: 1
    decay_mult: 1
  }
  param {
    lr_mult: 2
    decay_mult: 1
  }
  convolution_param {
    num_output: 128
    pad: 1
    kernel_size: 3
    stride: 2
    weight_filler {
      type: "msra"
    }
    bias_filler {
      type: "constant"
    }
  }
}
layer {
  name: "bn_h_1_2"
  type: "BatchNorm"
  bottom: "conv_h_1_1"
  top: "bn_h_1_2"
  param {
    lr_mult: 0
  }
  param {
    lr_mult: 0
  }
  param {
    lr_mult: 0
  }
  batch_norm_param {
    use_global_stats: false
  }
}
layer {
  name: "sc_h_1_2"
  type: "Scale"
  bottom: "bn_h_1_2"
  top: "sc_h_1_2"
  scale_param {
    bias_term: true
  }
}
layer {
  name: "relu_h_1_2"
  type: "ReLU"
  bottom: "sc_h_1_2"
  top: "relu_h_1_2"
}
layer {
  name: "conv_h_1_2"
  type: "Convolution"
  bottom: "relu_h_1_2"
  top: "conv_h_1_2"
  param {
    lr_mult: 1
    decay_mult: 1
  }
  param {
    lr_mult: 2
    decay_mult: 1
  }
  convolution_param {
    num_output: 128
    pad: 1
    kernel_size: 3
    stride: 1
    weight_filler {
      type: "msra"
    }
    bias_filler {
      type: "constant"
    }
  }
}
layer {
  name: "res_h"
  type: "Convolution"
  bottom: "elt_c_1"
  top: "res_h"
  param {
    lr_mult: 1
    decay_mult: 1
  }
  param {
    lr_mult: 2
    decay_mult: 1
  }
  convolution_param {
    num_output: 128
    pad: 0
    kernel_size: 1
    stride: 2
    weight_filler {
      type: "msra"
    }
    bias_filler {
      type: "constant"
    }
  }
}
layer {
  name: "elt_h_1"
  type: "Eltwise"
  bottom: "res_h"
  bottom: "conv_h_1_2"
  top: "elt_h_1"
  eltwise_param {
    operation: SUM
  }
}
layer {
  name: "bn_i_1_1"
  type: "BatchNorm"
  bottom: "elt_c_1"
  top: "bn_i_1_1"
  param {
    lr_mult: 0
  }
  param {
    lr_mult: 0
  }
  param {
    lr_mult: 0
  }
  batch_norm_param {
    use_global_stats: false
  }
}
layer {
  name: "sc_i_1_1"
  type: "Scale"
  bottom: "bn_i_1_1"
  top: "sc_i_1_1"
  scale_param {
    bias_term: true
  }
}
layer {
  name: "relu_i_1_1"
  type: "ReLU"
  bottom: "sc_i_1_1"
  top: "relu_i_1_1"
}
layer {
  name: "conv_i_1_1"
  type: "Convolution"
  bottom: "relu_i_1_1"
  top: "conv_i_1_1"
  param {
    lr_mult: 1
    decay_mult: 1
  }
  param {
    lr_mult: 2
    decay_mult: 1
  }
  convolution_param {
    num_output: 128
    pad: 1
    kernel_size: 3
    stride: 2
    weight_filler {
      type: "msra"
    }
    bias_filler {
      type: "constant"
    }
  }
}
layer {
  name: "bn_i_1_2"
  type: "BatchNorm"
  bottom: "conv_i_1_1"
  top: "bn_i_1_2"
  param {
    lr_mult: 0
  }
  param {
    lr_mult: 0
  }
  param {
    lr_mult: 0
  }
  batch_norm_param {
    use_global_stats: false
  }
}
layer {
  name: "sc_i_1_2"
  type: "Scale"
  bottom: "bn_i_1_2"
  top: "sc_i_1_2"
  scale_param {
    bias_term: true
  }
}
layer {
  name: "relu_i_1_2"
  type: "ReLU"
  bottom: "sc_i_1_2"
  top: "relu_i_1_2"
}
layer {
  name: "conv_i_1_2"
  type: "Convolution"
  bottom: "relu_i_1_2"
  top: "conv_i_1_2"
  param {
    lr_mult: 1
    decay_mult: 1
  }
  param {
    lr_mult: 2
    decay_mult: 1
  }
  convolution_param {
    num_output: 128
    pad: 1
    kernel_size: 3
    stride: 1
    weight_filler {
      type: "msra"
    }
    bias_filler {
      type: "constant"
    }
  }
}
layer {
  name: "res_i"
  type: "Convolution"
  bottom: "elt_c_1"
  top: "res_i"
  param {
    lr_mult: 1
    decay_mult: 1
  }
  param {
    lr_mult: 2
    decay_mult: 1
  }
  convolution_param {
    num_output: 128
    pad: 0
    kernel_size: 1
    stride: 2
    weight_filler {
      type: "msra"
    }
    bias_filler {
      type: "constant"
    }
  }
}
layer {
  name: "elt_i_1"
  type: "Eltwise"
  bottom: "res_i"
  bottom: "conv_i_1_2"
  top: "elt_i_1"
  eltwise_param {
    operation: SUM
  }
}
layer {
  name: "elt_d_f"
  type: "Eltwise"
  bottom: "elt_d_1"
  bottom: "elt_f_1"
  top: "elt_d_f"
  eltwise_param {
    operation: SUM
  }
}
layer {
  name: "elt_g_i"
  type: "Eltwise"
  bottom: "elt_g_1"
  bottom: "elt_i_1"
  top: "elt_g_i"
  eltwise_param {
    operation: SUM
  }
}
layer {
  name: "bn_j_1_1"
  type: "BatchNorm"
  bottom: "elt_d_f"
  top: "bn_j_1_1"
  param {
    lr_mult: 0
  }
  param {
    lr_mult: 0
  }
  param {
    lr_mult: 0
  }
  batch_norm_param {
    use_global_stats: false
  }
}
layer {
  name: "sc_j_1_1"
  type: "Scale"
  bottom: "bn_j_1_1"
  top: "sc_j_1_1"
  scale_param {
    bias_term: true
  }
}
layer {
  name: "relu_j_1_1"
  type: "ReLU"
  bottom: "sc_j_1_1"
  top: "relu_j_1_1"
}
layer {
  name: "conv_j_1_1"
  type: "Convolution"
  bottom: "relu_j_1_1"
  top: "conv_j_1_1"
  param {
    lr_mult: 1
    decay_mult: 1
  }
  param {
    lr_mult: 2
    decay_mult: 1
  }
  convolution_param {
    num_output: 256
    pad: 1
    kernel_size: 3
    stride: 2
    weight_filler {
      type: "msra"
    }
    bias_filler {
      type: "constant"
    }
  }
}
layer {
  name: "bn_j_1_2"
  type: "BatchNorm"
  bottom: "conv_j_1_1"
  top: "bn_j_1_2"
  param {
    lr_mult: 0
  }
  param {
    lr_mult: 0
  }
  param {
    lr_mult: 0
  }
  batch_norm_param {
    use_global_stats: false
  }
}
layer {
  name: "sc_j_1_2"
  type: "Scale"
  bottom: "bn_j_1_2"
  top: "sc_j_1_2"
  scale_param {
    bias_term: true
  }
}
layer {
  name: "relu_j_1_2"
  type: "ReLU"
  bottom: "sc_j_1_2"
  top: "relu_j_1_2"
}
layer {
  name: "conv_j_1_2"
  type: "Convolution"
  bottom: "relu_j_1_2"
  top: "conv_j_1_2"
  param {
    lr_mult: 1
    decay_mult: 1
  }
  param {
    lr_mult: 2
    decay_mult: 1
  }
  convolution_param {
    num_output: 256
    pad: 1
    kernel_size: 3
    stride: 1
    weight_filler {
      type: "msra"
    }
    bias_filler {
      type: "constant"
    }
  }
}
layer {
  name: "res_j"
  type: "Convolution"
  bottom: "elt_d_f"
  top: "res_j"
  param {
    lr_mult: 1
    decay_mult: 1
  }
  param {
    lr_mult: 2
    decay_mult: 1
  }
  convolution_param {
    num_output: 256
    pad: 0
    kernel_size: 1
    stride: 2
    weight_filler {
      type: "msra"
    }
    bias_filler {
      type: "constant"
    }
  }
}
layer {
  name: "elt_j_1"
  type: "Eltwise"
  bottom: "res_j"
  bottom: "conv_j_1_2"
  top: "elt_j_1"
  eltwise_param {
    operation: SUM
  }
}
layer {
  name: "bn_e_1_1"
  type: "BatchNorm"
  bottom: "elt_a_1"
  top: "bn_e_1_1"
  param {
    lr_mult: 0
  }
  param {
    lr_mult: 0
  }
  param {
    lr_mult: 0
  }
  batch_norm_param {
    use_global_stats: false
  }
}
layer {
  name: "sc_e_1_1"
  type: "Scale"
  bottom: "bn_e_1_1"
  top: "sc_e_1_1"
  scale_param {
    bias_term: true
  }
}
layer {
  name: "relu_e_1_1"
  type: "ReLU"
  bottom: "sc_e_1_1"
  top: "relu_e_1_1"
}
layer {
  name: "conv_e_1_1"
  type: "Convolution"
  bottom: "relu_e_1_1"
  top: "conv_e_1_1"
  param {
    lr_mult: 1
    decay_mult: 1
  }
  param {
    lr_mult: 2
    decay_mult: 1
  }
  convolution_param {
    num_output: 128
    pad: 1
    kernel_size: 3
    stride: 2
    weight_filler {
      type: "msra"
    }
    bias_filler {
      type: "constant"
    }
  }
}
layer {
  name: "bn_e_1_2"
  type: "BatchNorm"
  bottom: "conv_e_1_1"
  top: "bn_e_1_2"
  param {
    lr_mult: 0
  }
  param {
    lr_mult: 0
  }
  param {
    lr_mult: 0
  }
  batch_norm_param {
    use_global_stats: false
  }
}
layer {
  name: "sc_e_1_2"
  type: "Scale"
  bottom: "bn_e_1_2"
  top: "sc_e_1_2"
  scale_param {
    bias_term: true
  }
}
layer {
  name: "relu_e_1_2"
  type: "ReLU"
  bottom: "sc_e_1_2"
  top: "relu_e_1_2"
}
layer {
  name: "conv_e_1_2"
  type: "Convolution"
  bottom: "relu_e_1_2"
  top: "conv_e_1_2"
  param {
    lr_mult: 1
    decay_mult: 1
  }
  param {
    lr_mult: 2
    decay_mult: 1
  }
  convolution_param {
    num_output: 128
    pad: 1
    kernel_size: 3
    stride: 1
    weight_filler {
      type: "msra"
    }
    bias_filler {
      type: "constant"
    }
  }
}
layer {
  name: "res_e"
  type: "Convolution"
  bottom: "elt_a_1"
  top: "res_e"
  param {
    lr_mult: 1
    decay_mult: 1
  }
  param {
    lr_mult: 2
    decay_mult: 1
  }
  convolution_param {
    num_output: 128
    pad: 0
    kernel_size: 1
    stride: 2
    weight_filler {
      type: "msra"
    }
    bias_filler {
      type: "constant"
    }
  }
}
layer {
  name: "elt_e_1"
  type: "Eltwise"
  bottom: "res_e"
  bottom: "conv_e_1_2"
  top: "elt_e_1"
  eltwise_param {
    operation: SUM
  }
}
layer {
  name: "elt_e_h"
  type: "Eltwise"
  bottom: "elt_e_1"
  bottom: "elt_h_1"
  top: "elt_e_h"
  eltwise_param {
    operation: SUM
  }
}
layer {
  name: "bn_k_1_1"
  type: "BatchNorm"
  bottom: "elt_e_h"
  top: "bn_k_1_1"
  param {
    lr_mult: 0
  }
  param {
    lr_mult: 0
  }
  param {
    lr_mult: 0
  }
  batch_norm_param {
    use_global_stats: false
  }
}
layer {
  name: "sc_k_1_1"
  type: "Scale"
  bottom: "bn_k_1_1"
  top: "sc_k_1_1"
  scale_param {
    bias_term: true
  }
}
layer {
  name: "relu_k_1_1"
  type: "ReLU"
  bottom: "sc_k_1_1"
  top: "relu_k_1_1"
}
layer {
  name: "conv_k_1_1"
  type: "Convolution"
  bottom: "relu_k_1_1"
  top: "conv_k_1_1"
  param {
    lr_mult: 1
    decay_mult: 1
  }
  param {
    lr_mult: 2
    decay_mult: 1
  }
  convolution_param {
    num_output: 256
    pad: 1
    kernel_size: 3
    stride: 2
    weight_filler {
      type: "msra"
    }
    bias_filler {
      type: "constant"
    }
  }
}
layer {
  name: "bn_k_1_2"
  type: "BatchNorm"
  bottom: "conv_k_1_1"
  top: "bn_k_1_2"
  param {
    lr_mult: 0
  }
  param {
    lr_mult: 0
  }
  param {
    lr_mult: 0
  }
  batch_norm_param {
    use_global_stats: false
  }
}
layer {
  name: "sc_k_1_2"
  type: "Scale"
  bottom: "bn_k_1_2"
  top: "sc_k_1_2"
  scale_param {
    bias_term: true
  }
}
layer {
  name: "relu_k_1_2"
  type: "ReLU"
  bottom: "sc_k_1_2"
  top: "relu_k_1_2"
}
layer {
  name: "conv_k_1_2"
  type: "Convolution"
  bottom: "relu_k_1_2"
  top: "conv_k_1_2"
  param {
    lr_mult: 1
    decay_mult: 1
  }
  param {
    lr_mult: 2
    decay_mult: 1
  }
  convolution_param {
    num_output: 256
    pad: 1
    kernel_size: 3
    stride: 1
    weight_filler {
      type: "msra"
    }
    bias_filler {
      type: "constant"
    }
  }
}
layer {
  name: "res_k"
  type: "Convolution"
  bottom: "elt_e_h"
  top: "res_k"
  param {
    lr_mult: 1
    decay_mult: 1
  }
  param {
    lr_mult: 2
    decay_mult: 1
  }
  convolution_param {
    num_output: 256
    pad: 0
    kernel_size: 1
    stride: 2
    weight_filler {
      type: "msra"
    }
    bias_filler {
      type: "constant"
    }
  }
}
layer {
  name: "elt_k_1"
  type: "Eltwise"
  bottom: "res_k"
  bottom: "conv_k_1_2"
  top: "elt_k_1"
  eltwise_param {
    operation: SUM
  }
}
layer {
  name: "bn_l_1_1"
  type: "BatchNorm"
  bottom: "elt_g_i"
  top: "bn_l_1_1"
  param {
    lr_mult: 0
  }
  param {
    lr_mult: 0
  }
  param {
    lr_mult: 0
  }
  batch_norm_param {
    use_global_stats: false
  }
}
layer {
  name: "sc_l_1_1"
  type: "Scale"
  bottom: "bn_l_1_1"
  top: "sc_l_1_1"
  scale_param {
    bias_term: true
  }
}
layer {
  name: "relu_l_1_1"
  type: "ReLU"
  bottom: "sc_l_1_1"
  top: "relu_l_1_1"
}
layer {
  name: "conv_l_1_1"
  type: "Convolution"
  bottom: "relu_l_1_1"
  top: "conv_l_1_1"
  param {
    lr_mult: 1
    decay_mult: 1
  }
  param {
    lr_mult: 2
    decay_mult: 1
  }
  convolution_param {
    num_output: 256
    pad: 1
    kernel_size: 3
    stride: 2
    weight_filler {
      type: "msra"
    }
    bias_filler {
      type: "constant"
    }
  }
}
layer {
  name: "bn_l_1_2"
  type: "BatchNorm"
  bottom: "conv_l_1_1"
  top: "bn_l_1_2"
  param {
    lr_mult: 0
  }
  param {
    lr_mult: 0
  }
  param {
    lr_mult: 0
  }
  batch_norm_param {
    use_global_stats: false
  }
}
layer {
  name: "sc_l_1_2"
  type: "Scale"
  bottom: "bn_l_1_2"
  top: "sc_l_1_2"
  scale_param {
    bias_term: true
  }
}
layer {
  name: "relu_l_1_2"
  type: "ReLU"
  bottom: "sc_l_1_2"
  top: "relu_l_1_2"
}
layer {
  name: "conv_l_1_2"
  type: "Convolution"
  bottom: "relu_l_1_2"
  top: "conv_l_1_2"
  param {
    lr_mult: 1
    decay_mult: 1
  }
  param {
    lr_mult: 2
    decay_mult: 1
  }
  convolution_param {
    num_output: 256
    pad: 1
    kernel_size: 3
    stride: 1
    weight_filler {
      type: "msra"
    }
    bias_filler {
      type: "constant"
    }
  }
}
layer {
  name: "res_l"
  type: "Convolution"
  bottom: "elt_g_i"
  top: "res_l"
  param {
    lr_mult: 1
    decay_mult: 1
  }
  param {
    lr_mult: 2
    decay_mult: 1
  }
  convolution_param {
    num_output: 256
    pad: 0
    kernel_size: 1
    stride: 2
    weight_filler {
      type: "msra"
    }
    bias_filler {
      type: "constant"
    }
  }
}
layer {
  name: "elt_l_1"
  type: "Eltwise"
  bottom: "res_l"
  bottom: "conv_l_1_2"
  top: "elt_l_1"
  eltwise_param {
    operation: SUM
  }
}
layer {
  name: "concat_j_k_l"
  type: "Concat"
  bottom: "elt_j_1"
  bottom: "elt_k_1"
  bottom: "elt_l_1"
  top: "elt_j_k_l"
  concat_param {
    axis: 1
  }
}
layer {
  name: "bn_m_1_1"
  type: "BatchNorm"
  bottom: "elt_j_k_l"
  top: "bn_m_1_1"
  param {
    lr_mult: 0
  }
  param {
    lr_mult: 0
  }
  param {
    lr_mult: 0
  }
  batch_norm_param {
    use_global_stats: false
  }
}
layer {
  name: "sc_m_1_1"
  type: "Scale"
  bottom: "bn_m_1_1"
  top: "sc_m_1_1"
  scale_param {
    bias_term: true
  }
}
layer {
  name: "relu_m_1_1"
  type: "ReLU"
  bottom: "sc_m_1_1"
  top: "relu_m_1_1"
}
layer {
  name: "gap"
  type: "Pooling"
  bottom: "relu_m_1_1"
  top: "gap"
  pooling_param {
    pool: AVE
    kernel_size: 8
    stride: 1
  }
}
layer {
  name: "ip1"
  type: "InnerProduct"
  bottom: "gap"
  top: "ip1"
  param {
    lr_mult: 1
    decay_mult: 1
  }
  param {
    lr_mult: 2
    decay_mult: 0
  }
  inner_product_param {
    num_output: 10
    weight_filler {
      type: "msra"
    }
    bias_filler {
      type: "constant"
      value: 0
    }
  }
}
layer {
  name: "loss"
  type: "SoftmaxWithLoss"
  bottom: "ip1"
  bottom: "label"
  top: "loss"
}
I0621 13:53:30.418607 23089 layer_factory.hpp:77] Creating layer resnet
I0621 13:53:30.419217 23089 net.cpp:91] Creating Layer resnet
I0621 13:53:30.419231 23089 net.cpp:399] resnet -> data
I0621 13:53:30.419282 23089 net.cpp:399] resnet -> label
I0621 13:53:30.419311 23089 data_transformer.cpp:25] Loading mean file from: /home/takeki/caffe/examples/cifar10/mean.binaryproto
I0621 13:53:30.419997 23132 db_lmdb.cpp:35] Opened lmdb /home/takeki/caffe/examples/cifar10/cifar10_train_lmdb
I0621 13:53:30.431859 23089 data_layer.cpp:41] output data size: 128,3,32,32
I0621 13:53:30.434906 23089 net.cpp:141] Setting up resnet
I0621 13:53:30.434929 23089 net.cpp:148] Top shape: 128 3 32 32 (393216)
I0621 13:53:30.434937 23089 net.cpp:148] Top shape: 128 (128)
I0621 13:53:30.434942 23089 net.cpp:156] Memory required for data: 1573376
I0621 13:53:30.434952 23089 layer_factory.hpp:77] Creating layer conv0
I0621 13:53:30.434991 23089 net.cpp:91] Creating Layer conv0
I0621 13:53:30.435001 23089 net.cpp:425] conv0 <- data
I0621 13:53:30.435016 23089 net.cpp:399] conv0 -> conv0
I0621 13:53:30.607408 23089 net.cpp:141] Setting up conv0
I0621 13:53:30.607466 23089 net.cpp:148] Top shape: 128 16 32 32 (2097152)
I0621 13:53:30.607475 23089 net.cpp:156] Memory required for data: 9961984
I0621 13:53:30.607498 23089 layer_factory.hpp:77] Creating layer conv0_conv0_0_split
I0621 13:53:30.607533 23089 net.cpp:91] Creating Layer conv0_conv0_0_split
I0621 13:53:30.607547 23089 net.cpp:425] conv0_conv0_0_split <- conv0
I0621 13:53:30.607556 23089 net.cpp:399] conv0_conv0_0_split -> conv0_conv0_0_split_0
I0621 13:53:30.607571 23089 net.cpp:399] conv0_conv0_0_split -> conv0_conv0_0_split_1
I0621 13:53:30.607583 23089 net.cpp:399] conv0_conv0_0_split -> conv0_conv0_0_split_2
I0621 13:53:30.607592 23089 net.cpp:399] conv0_conv0_0_split -> conv0_conv0_0_split_3
I0621 13:53:30.607602 23089 net.cpp:399] conv0_conv0_0_split -> conv0_conv0_0_split_4
I0621 13:53:30.607614 23089 net.cpp:399] conv0_conv0_0_split -> conv0_conv0_0_split_5
I0621 13:53:30.607692 23089 net.cpp:141] Setting up conv0_conv0_0_split
I0621 13:53:30.607704 23089 net.cpp:148] Top shape: 128 16 32 32 (2097152)
I0621 13:53:30.607712 23089 net.cpp:148] Top shape: 128 16 32 32 (2097152)
I0621 13:53:30.607719 23089 net.cpp:148] Top shape: 128 16 32 32 (2097152)
I0621 13:53:30.607725 23089 net.cpp:148] Top shape: 128 16 32 32 (2097152)
I0621 13:53:30.607731 23089 net.cpp:148] Top shape: 128 16 32 32 (2097152)
I0621 13:53:30.607738 23089 net.cpp:148] Top shape: 128 16 32 32 (2097152)
I0621 13:53:30.607743 23089 net.cpp:156] Memory required for data: 60293632
I0621 13:53:30.607748 23089 layer_factory.hpp:77] Creating layer bn_a_1_1
I0621 13:53:30.607759 23089 net.cpp:91] Creating Layer bn_a_1_1
I0621 13:53:30.607766 23089 net.cpp:425] bn_a_1_1 <- conv0_conv0_0_split_0
I0621 13:53:30.607774 23089 net.cpp:399] bn_a_1_1 -> bn_a_1_1
I0621 13:53:30.607956 23089 net.cpp:141] Setting up bn_a_1_1
I0621 13:53:30.607981 23089 net.cpp:148] Top shape: 128 16 32 32 (2097152)
I0621 13:53:30.607988 23089 net.cpp:156] Memory required for data: 68682240
I0621 13:53:30.608005 23089 layer_factory.hpp:77] Creating layer sc_a_1_1
I0621 13:53:30.608017 23089 net.cpp:91] Creating Layer sc_a_1_1
I0621 13:53:30.608024 23089 net.cpp:425] sc_a_1_1 <- bn_a_1_1
I0621 13:53:30.608032 23089 net.cpp:399] sc_a_1_1 -> sc_a_1_1
I0621 13:53:30.608078 23089 layer_factory.hpp:77] Creating layer sc_a_1_1
I0621 13:53:30.608203 23089 net.cpp:141] Setting up sc_a_1_1
I0621 13:53:30.608217 23089 net.cpp:148] Top shape: 128 16 32 32 (2097152)
I0621 13:53:30.608222 23089 net.cpp:156] Memory required for data: 77070848
I0621 13:53:30.608232 23089 layer_factory.hpp:77] Creating layer relu_a_1_1
I0621 13:53:30.608242 23089 net.cpp:91] Creating Layer relu_a_1_1
I0621 13:53:30.608248 23089 net.cpp:425] relu_a_1_1 <- sc_a_1_1
I0621 13:53:30.608255 23089 net.cpp:399] relu_a_1_1 -> relu_a_1_1
I0621 13:53:30.608549 23089 net.cpp:141] Setting up relu_a_1_1
I0621 13:53:30.608563 23089 net.cpp:148] Top shape: 128 16 32 32 (2097152)
I0621 13:53:30.608571 23089 net.cpp:156] Memory required for data: 85459456
I0621 13:53:30.608600 23089 layer_factory.hpp:77] Creating layer conv_a_1_1
I0621 13:53:30.608623 23089 net.cpp:91] Creating Layer conv_a_1_1
I0621 13:53:30.608630 23089 net.cpp:425] conv_a_1_1 <- relu_a_1_1
I0621 13:53:30.608639 23089 net.cpp:399] conv_a_1_1 -> conv_a_1_1
I0621 13:53:30.610189 23089 net.cpp:141] Setting up conv_a_1_1
I0621 13:53:30.610205 23089 net.cpp:148] Top shape: 128 64 32 32 (8388608)
I0621 13:53:30.610225 23089 net.cpp:156] Memory required for data: 119013888
I0621 13:53:30.610239 23089 layer_factory.hpp:77] Creating layer bn_a_1_2
I0621 13:53:30.610249 23089 net.cpp:91] Creating Layer bn_a_1_2
I0621 13:53:30.610255 23089 net.cpp:425] bn_a_1_2 <- conv_a_1_1
I0621 13:53:30.610263 23089 net.cpp:399] bn_a_1_2 -> bn_a_1_2
I0621 13:53:30.610445 23089 net.cpp:141] Setting up bn_a_1_2
I0621 13:53:30.610472 23089 net.cpp:148] Top shape: 128 64 32 32 (8388608)
I0621 13:53:30.610478 23089 net.cpp:156] Memory required for data: 152568320
I0621 13:53:30.610489 23089 layer_factory.hpp:77] Creating layer sc_a_1_2
I0621 13:53:30.610501 23089 net.cpp:91] Creating Layer sc_a_1_2
I0621 13:53:30.610507 23089 net.cpp:425] sc_a_1_2 <- bn_a_1_2
I0621 13:53:30.610515 23089 net.cpp:399] sc_a_1_2 -> sc_a_1_2
I0621 13:53:30.610555 23089 layer_factory.hpp:77] Creating layer sc_a_1_2
I0621 13:53:30.610661 23089 net.cpp:141] Setting up sc_a_1_2
I0621 13:53:30.610673 23089 net.cpp:148] Top shape: 128 64 32 32 (8388608)
I0621 13:53:30.610679 23089 net.cpp:156] Memory required for data: 186122752
I0621 13:53:30.610695 23089 layer_factory.hpp:77] Creating layer relu_a_1_2
I0621 13:53:30.610703 23089 net.cpp:91] Creating Layer relu_a_1_2
I0621 13:53:30.610709 23089 net.cpp:425] relu_a_1_2 <- sc_a_1_2
I0621 13:53:30.610716 23089 net.cpp:399] relu_a_1_2 -> relu_a_1_2
I0621 13:53:30.611007 23089 net.cpp:141] Setting up relu_a_1_2
I0621 13:53:30.611024 23089 net.cpp:148] Top shape: 128 64 32 32 (8388608)
I0621 13:53:30.611032 23089 net.cpp:156] Memory required for data: 219677184
I0621 13:53:30.611037 23089 layer_factory.hpp:77] Creating layer conv_a_1_2
I0621 13:53:30.611052 23089 net.cpp:91] Creating Layer conv_a_1_2
I0621 13:53:30.611059 23089 net.cpp:425] conv_a_1_2 <- relu_a_1_2
I0621 13:53:30.611068 23089 net.cpp:399] conv_a_1_2 -> conv_a_1_2
I0621 13:53:30.613557 23089 net.cpp:141] Setting up conv_a_1_2
I0621 13:53:30.613574 23089 net.cpp:148] Top shape: 128 64 32 32 (8388608)
I0621 13:53:30.613595 23089 net.cpp:156] Memory required for data: 253231616
I0621 13:53:30.613605 23089 layer_factory.hpp:77] Creating layer res_a
I0621 13:53:30.613621 23089 net.cpp:91] Creating Layer res_a
I0621 13:53:30.613628 23089 net.cpp:425] res_a <- conv0_conv0_0_split_1
I0621 13:53:30.613639 23089 net.cpp:399] res_a -> res_a
I0621 13:53:30.614625 23089 net.cpp:141] Setting up res_a
I0621 13:53:30.614644 23089 net.cpp:148] Top shape: 128 64 32 32 (8388608)
I0621 13:53:30.614663 23089 net.cpp:156] Memory required for data: 286786048
I0621 13:53:30.614675 23089 layer_factory.hpp:77] Creating layer elt_a_1
I0621 13:53:30.614691 23089 net.cpp:91] Creating Layer elt_a_1
I0621 13:53:30.614698 23089 net.cpp:425] elt_a_1 <- res_a
I0621 13:53:30.614706 23089 net.cpp:425] elt_a_1 <- conv_a_1_2
I0621 13:53:30.614730 23089 net.cpp:399] elt_a_1 -> elt_a_1
I0621 13:53:30.614768 23089 net.cpp:141] Setting up elt_a_1
I0621 13:53:30.614779 23089 net.cpp:148] Top shape: 128 64 32 32 (8388608)
I0621 13:53:30.614785 23089 net.cpp:156] Memory required for data: 320340480
I0621 13:53:30.614790 23089 layer_factory.hpp:77] Creating layer elt_a_1_elt_a_1_0_split
I0621 13:53:30.614799 23089 net.cpp:91] Creating Layer elt_a_1_elt_a_1_0_split
I0621 13:53:30.614804 23089 net.cpp:425] elt_a_1_elt_a_1_0_split <- elt_a_1
I0621 13:53:30.614810 23089 net.cpp:399] elt_a_1_elt_a_1_0_split -> elt_a_1_elt_a_1_0_split_0
I0621 13:53:30.614823 23089 net.cpp:399] elt_a_1_elt_a_1_0_split -> elt_a_1_elt_a_1_0_split_1
I0621 13:53:30.614833 23089 net.cpp:399] elt_a_1_elt_a_1_0_split -> elt_a_1_elt_a_1_0_split_2
I0621 13:53:30.614842 23089 net.cpp:399] elt_a_1_elt_a_1_0_split -> elt_a_1_elt_a_1_0_split_3
I0621 13:53:30.614918 23089 net.cpp:141] Setting up elt_a_1_elt_a_1_0_split
I0621 13:53:30.614930 23089 net.cpp:148] Top shape: 128 64 32 32 (8388608)
I0621 13:53:30.614938 23089 net.cpp:148] Top shape: 128 64 32 32 (8388608)
I0621 13:53:30.614943 23089 net.cpp:148] Top shape: 128 64 32 32 (8388608)
I0621 13:53:30.614949 23089 net.cpp:148] Top shape: 128 64 32 32 (8388608)
I0621 13:53:30.614955 23089 net.cpp:156] Memory required for data: 454558208
I0621 13:53:30.614960 23089 layer_factory.hpp:77] Creating layer bn_b_1_1
I0621 13:53:30.614971 23089 net.cpp:91] Creating Layer bn_b_1_1
I0621 13:53:30.614979 23089 net.cpp:425] bn_b_1_1 <- conv0_conv0_0_split_2
I0621 13:53:30.614989 23089 net.cpp:399] bn_b_1_1 -> bn_b_1_1
I0621 13:53:30.615217 23089 net.cpp:141] Setting up bn_b_1_1
I0621 13:53:30.615231 23089 net.cpp:148] Top shape: 128 16 32 32 (2097152)
I0621 13:53:30.615236 23089 net.cpp:156] Memory required for data: 462946816
I0621 13:53:30.615247 23089 layer_factory.hpp:77] Creating layer sc_b_1_1
I0621 13:53:30.615257 23089 net.cpp:91] Creating Layer sc_b_1_1
I0621 13:53:30.615263 23089 net.cpp:425] sc_b_1_1 <- bn_b_1_1
I0621 13:53:30.615270 23089 net.cpp:399] sc_b_1_1 -> sc_b_1_1
I0621 13:53:30.615329 23089 layer_factory.hpp:77] Creating layer sc_b_1_1
I0621 13:53:30.615453 23089 net.cpp:141] Setting up sc_b_1_1
I0621 13:53:30.615464 23089 net.cpp:148] Top shape: 128 16 32 32 (2097152)
I0621 13:53:30.615470 23089 net.cpp:156] Memory required for data: 471335424
I0621 13:53:30.615492 23089 layer_factory.hpp:77] Creating layer relu_b_1_1
I0621 13:53:30.615505 23089 net.cpp:91] Creating Layer relu_b_1_1
I0621 13:53:30.615512 23089 net.cpp:425] relu_b_1_1 <- sc_b_1_1
I0621 13:53:30.615520 23089 net.cpp:399] relu_b_1_1 -> relu_b_1_1
I0621 13:53:30.615730 23089 net.cpp:141] Setting up relu_b_1_1
I0621 13:53:30.615743 23089 net.cpp:148] Top shape: 128 16 32 32 (2097152)
I0621 13:53:30.615749 23089 net.cpp:156] Memory required for data: 479724032
I0621 13:53:30.615756 23089 layer_factory.hpp:77] Creating layer conv_b_1_1
I0621 13:53:30.615769 23089 net.cpp:91] Creating Layer conv_b_1_1
I0621 13:53:30.615777 23089 net.cpp:425] conv_b_1_1 <- relu_b_1_1
I0621 13:53:30.615787 23089 net.cpp:399] conv_b_1_1 -> conv_b_1_1
I0621 13:53:30.617012 23089 net.cpp:141] Setting up conv_b_1_1
I0621 13:53:30.617028 23089 net.cpp:148] Top shape: 128 64 32 32 (8388608)
I0621 13:53:30.617034 23089 net.cpp:156] Memory required for data: 513278464
I0621 13:53:30.617043 23089 layer_factory.hpp:77] Creating layer bn_b_1_2
I0621 13:53:30.617055 23089 net.cpp:91] Creating Layer bn_b_1_2
I0621 13:53:30.617063 23089 net.cpp:425] bn_b_1_2 <- conv_b_1_1
I0621 13:53:30.617072 23089 net.cpp:399] bn_b_1_2 -> bn_b_1_2
I0621 13:53:30.617259 23089 net.cpp:141] Setting up bn_b_1_2
I0621 13:53:30.617270 23089 net.cpp:148] Top shape: 128 64 32 32 (8388608)
I0621 13:53:30.617275 23089 net.cpp:156] Memory required for data: 546832896
I0621 13:53:30.617285 23089 layer_factory.hpp:77] Creating layer sc_b_1_2
I0621 13:53:30.617293 23089 net.cpp:91] Creating Layer sc_b_1_2
I0621 13:53:30.617300 23089 net.cpp:425] sc_b_1_2 <- bn_b_1_2
I0621 13:53:30.617307 23089 net.cpp:399] sc_b_1_2 -> sc_b_1_2
I0621 13:53:30.617350 23089 layer_factory.hpp:77] Creating layer sc_b_1_2
I0621 13:53:30.617460 23089 net.cpp:141] Setting up sc_b_1_2
I0621 13:53:30.617471 23089 net.cpp:148] Top shape: 128 64 32 32 (8388608)
I0621 13:53:30.617476 23089 net.cpp:156] Memory required for data: 580387328
I0621 13:53:30.617485 23089 layer_factory.hpp:77] Creating layer relu_b_1_2
I0621 13:53:30.617492 23089 net.cpp:91] Creating Layer relu_b_1_2
I0621 13:53:30.617497 23089 net.cpp:425] relu_b_1_2 <- sc_b_1_2
I0621 13:53:30.617506 23089 net.cpp:399] relu_b_1_2 -> relu_b_1_2
I0621 13:53:30.617686 23089 net.cpp:141] Setting up relu_b_1_2
I0621 13:53:30.617702 23089 net.cpp:148] Top shape: 128 64 32 32 (8388608)
I0621 13:53:30.617708 23089 net.cpp:156] Memory required for data: 613941760
I0621 13:53:30.617713 23089 layer_factory.hpp:77] Creating layer conv_b_1_2
I0621 13:53:30.617739 23089 net.cpp:91] Creating Layer conv_b_1_2
I0621 13:53:30.617748 23089 net.cpp:425] conv_b_1_2 <- relu_b_1_2
I0621 13:53:30.617756 23089 net.cpp:399] conv_b_1_2 -> conv_b_1_2
I0621 13:53:30.619796 23089 net.cpp:141] Setting up conv_b_1_2
I0621 13:53:30.619814 23089 net.cpp:148] Top shape: 128 64 32 32 (8388608)
I0621 13:53:30.619835 23089 net.cpp:156] Memory required for data: 647496192
I0621 13:53:30.619844 23089 layer_factory.hpp:77] Creating layer res_b
I0621 13:53:30.619860 23089 net.cpp:91] Creating Layer res_b
I0621 13:53:30.619868 23089 net.cpp:425] res_b <- conv0_conv0_0_split_3
I0621 13:53:30.619876 23089 net.cpp:399] res_b -> res_b
I0621 13:53:30.620990 23089 net.cpp:141] Setting up res_b
I0621 13:53:30.621006 23089 net.cpp:148] Top shape: 128 64 32 32 (8388608)
I0621 13:53:30.621024 23089 net.cpp:156] Memory required for data: 681050624
I0621 13:53:30.621040 23089 layer_factory.hpp:77] Creating layer elt_b_1
I0621 13:53:30.621050 23089 net.cpp:91] Creating Layer elt_b_1
I0621 13:53:30.621057 23089 net.cpp:425] elt_b_1 <- res_b
I0621 13:53:30.621063 23089 net.cpp:425] elt_b_1 <- conv_b_1_2
I0621 13:53:30.621073 23089 net.cpp:399] elt_b_1 -> elt_b_1
I0621 13:53:30.621107 23089 net.cpp:141] Setting up elt_b_1
I0621 13:53:30.621119 23089 net.cpp:148] Top shape: 128 64 32 32 (8388608)
I0621 13:53:30.621124 23089 net.cpp:156] Memory required for data: 714605056
I0621 13:53:30.621129 23089 layer_factory.hpp:77] Creating layer elt_b_1_elt_b_1_0_split
I0621 13:53:30.621137 23089 net.cpp:91] Creating Layer elt_b_1_elt_b_1_0_split
I0621 13:53:30.621143 23089 net.cpp:425] elt_b_1_elt_b_1_0_split <- elt_b_1
I0621 13:53:30.621153 23089 net.cpp:399] elt_b_1_elt_b_1_0_split -> elt_b_1_elt_b_1_0_split_0
I0621 13:53:30.621176 23089 net.cpp:399] elt_b_1_elt_b_1_0_split -> elt_b_1_elt_b_1_0_split_1
I0621 13:53:30.621186 23089 net.cpp:399] elt_b_1_elt_b_1_0_split -> elt_b_1_elt_b_1_0_split_2
I0621 13:53:30.621196 23089 net.cpp:399] elt_b_1_elt_b_1_0_split -> elt_b_1_elt_b_1_0_split_3
I0621 13:53:30.621260 23089 net.cpp:141] Setting up elt_b_1_elt_b_1_0_split
I0621 13:53:30.621284 23089 net.cpp:148] Top shape: 128 64 32 32 (8388608)
I0621 13:53:30.621294 23089 net.cpp:148] Top shape: 128 64 32 32 (8388608)
I0621 13:53:30.621299 23089 net.cpp:148] Top shape: 128 64 32 32 (8388608)
I0621 13:53:30.621305 23089 net.cpp:148] Top shape: 128 64 32 32 (8388608)
I0621 13:53:30.621310 23089 net.cpp:156] Memory required for data: 848822784
I0621 13:53:30.621315 23089 layer_factory.hpp:77] Creating layer bn_c_1_1
I0621 13:53:30.621325 23089 net.cpp:91] Creating Layer bn_c_1_1
I0621 13:53:30.621332 23089 net.cpp:425] bn_c_1_1 <- conv0_conv0_0_split_4
I0621 13:53:30.621340 23089 net.cpp:399] bn_c_1_1 -> bn_c_1_1
I0621 13:53:30.621528 23089 net.cpp:141] Setting up bn_c_1_1
I0621 13:53:30.621541 23089 net.cpp:148] Top shape: 128 16 32 32 (2097152)
I0621 13:53:30.621546 23089 net.cpp:156] Memory required for data: 857211392
I0621 13:53:30.621557 23089 layer_factory.hpp:77] Creating layer sc_c_1_1
I0621 13:53:30.621567 23089 net.cpp:91] Creating Layer sc_c_1_1
I0621 13:53:30.621573 23089 net.cpp:425] sc_c_1_1 <- bn_c_1_1
I0621 13:53:30.621584 23089 net.cpp:399] sc_c_1_1 -> sc_c_1_1
I0621 13:53:30.621628 23089 layer_factory.hpp:77] Creating layer sc_c_1_1
I0621 13:53:30.621760 23089 net.cpp:141] Setting up sc_c_1_1
I0621 13:53:30.621774 23089 net.cpp:148] Top shape: 128 16 32 32 (2097152)
I0621 13:53:30.621780 23089 net.cpp:156] Memory required for data: 865600000
I0621 13:53:30.621803 23089 layer_factory.hpp:77] Creating layer relu_c_1_1
I0621 13:53:30.621811 23089 net.cpp:91] Creating Layer relu_c_1_1
I0621 13:53:30.621817 23089 net.cpp:425] relu_c_1_1 <- sc_c_1_1
I0621 13:53:30.621824 23089 net.cpp:399] relu_c_1_1 -> relu_c_1_1
I0621 13:53:30.622133 23089 net.cpp:141] Setting up relu_c_1_1
I0621 13:53:30.622148 23089 net.cpp:148] Top shape: 128 16 32 32 (2097152)
I0621 13:53:30.622155 23089 net.cpp:156] Memory required for data: 873988608
I0621 13:53:30.622161 23089 layer_factory.hpp:77] Creating layer conv_c_1_1
I0621 13:53:30.622200 23089 net.cpp:91] Creating Layer conv_c_1_1
I0621 13:53:30.622208 23089 net.cpp:425] conv_c_1_1 <- relu_c_1_1
I0621 13:53:30.622217 23089 net.cpp:399] conv_c_1_1 -> conv_c_1_1
I0621 13:53:30.623370 23089 net.cpp:141] Setting up conv_c_1_1
I0621 13:53:30.623386 23089 net.cpp:148] Top shape: 128 64 32 32 (8388608)
I0621 13:53:30.623406 23089 net.cpp:156] Memory required for data: 907543040
I0621 13:53:30.623415 23089 layer_factory.hpp:77] Creating layer bn_c_1_2
I0621 13:53:30.623428 23089 net.cpp:91] Creating Layer bn_c_1_2
I0621 13:53:30.623435 23089 net.cpp:425] bn_c_1_2 <- conv_c_1_1
I0621 13:53:30.623445 23089 net.cpp:399] bn_c_1_2 -> bn_c_1_2
I0621 13:53:30.623638 23089 net.cpp:141] Setting up bn_c_1_2
I0621 13:53:30.623651 23089 net.cpp:148] Top shape: 128 64 32 32 (8388608)
I0621 13:53:30.623656 23089 net.cpp:156] Memory required for data: 941097472
I0621 13:53:30.623664 23089 layer_factory.hpp:77] Creating layer sc_c_1_2
I0621 13:53:30.623674 23089 net.cpp:91] Creating Layer sc_c_1_2
I0621 13:53:30.623682 23089 net.cpp:425] sc_c_1_2 <- bn_c_1_2
I0621 13:53:30.623688 23089 net.cpp:399] sc_c_1_2 -> sc_c_1_2
I0621 13:53:30.623735 23089 layer_factory.hpp:77] Creating layer sc_c_1_2
I0621 13:53:30.623869 23089 net.cpp:141] Setting up sc_c_1_2
I0621 13:53:30.623881 23089 net.cpp:148] Top shape: 128 64 32 32 (8388608)
I0621 13:53:30.623888 23089 net.cpp:156] Memory required for data: 974651904
I0621 13:53:30.623896 23089 layer_factory.hpp:77] Creating layer relu_c_1_2
I0621 13:53:30.623908 23089 net.cpp:91] Creating Layer relu_c_1_2
I0621 13:53:30.623914 23089 net.cpp:425] relu_c_1_2 <- sc_c_1_2
I0621 13:53:30.623922 23089 net.cpp:399] relu_c_1_2 -> relu_c_1_2
I0621 13:53:30.624224 23089 net.cpp:141] Setting up relu_c_1_2
I0621 13:53:30.624239 23089 net.cpp:148] Top shape: 128 64 32 32 (8388608)
I0621 13:53:30.624246 23089 net.cpp:156] Memory required for data: 1008206336
I0621 13:53:30.624253 23089 layer_factory.hpp:77] Creating layer conv_c_1_2
I0621 13:53:30.624271 23089 net.cpp:91] Creating Layer conv_c_1_2
I0621 13:53:30.624280 23089 net.cpp:425] conv_c_1_2 <- relu_c_1_2
I0621 13:53:30.624291 23089 net.cpp:399] conv_c_1_2 -> conv_c_1_2
I0621 13:53:30.626310 23089 net.cpp:141] Setting up conv_c_1_2
I0621 13:53:30.626325 23089 net.cpp:148] Top shape: 128 64 32 32 (8388608)
I0621 13:53:30.626345 23089 net.cpp:156] Memory required for data: 1041760768
I0621 13:53:30.626355 23089 layer_factory.hpp:77] Creating layer res_c
I0621 13:53:30.626370 23089 net.cpp:91] Creating Layer res_c
I0621 13:53:30.626379 23089 net.cpp:425] res_c <- conv0_conv0_0_split_5
I0621 13:53:30.626389 23089 net.cpp:399] res_c -> res_c
I0621 13:53:30.627410 23089 net.cpp:141] Setting up res_c
I0621 13:53:30.627429 23089 net.cpp:148] Top shape: 128 64 32 32 (8388608)
I0621 13:53:30.627447 23089 net.cpp:156] Memory required for data: 1075315200
I0621 13:53:30.627457 23089 layer_factory.hpp:77] Creating layer elt_c_1
I0621 13:53:30.627466 23089 net.cpp:91] Creating Layer elt_c_1
I0621 13:53:30.627473 23089 net.cpp:425] elt_c_1 <- res_c
I0621 13:53:30.627480 23089 net.cpp:425] elt_c_1 <- conv_c_1_2
I0621 13:53:30.627487 23089 net.cpp:399] elt_c_1 -> elt_c_1
I0621 13:53:30.627521 23089 net.cpp:141] Setting up elt_c_1
I0621 13:53:30.627532 23089 net.cpp:148] Top shape: 128 64 32 32 (8388608)
I0621 13:53:30.627538 23089 net.cpp:156] Memory required for data: 1108869632
I0621 13:53:30.627543 23089 layer_factory.hpp:77] Creating layer elt_c_1_elt_c_1_0_split
I0621 13:53:30.627553 23089 net.cpp:91] Creating Layer elt_c_1_elt_c_1_0_split
I0621 13:53:30.627559 23089 net.cpp:425] elt_c_1_elt_c_1_0_split <- elt_c_1
I0621 13:53:30.627567 23089 net.cpp:399] elt_c_1_elt_c_1_0_split -> elt_c_1_elt_c_1_0_split_0
I0621 13:53:30.627575 23089 net.cpp:399] elt_c_1_elt_c_1_0_split -> elt_c_1_elt_c_1_0_split_1
I0621 13:53:30.627584 23089 net.cpp:399] elt_c_1_elt_c_1_0_split -> elt_c_1_elt_c_1_0_split_2
I0621 13:53:30.627594 23089 net.cpp:399] elt_c_1_elt_c_1_0_split -> elt_c_1_elt_c_1_0_split_3
I0621 13:53:30.627657 23089 net.cpp:141] Setting up elt_c_1_elt_c_1_0_split
I0621 13:53:30.627682 23089 net.cpp:148] Top shape: 128 64 32 32 (8388608)
I0621 13:53:30.627691 23089 net.cpp:148] Top shape: 128 64 32 32 (8388608)
I0621 13:53:30.627696 23089 net.cpp:148] Top shape: 128 64 32 32 (8388608)
I0621 13:53:30.627702 23089 net.cpp:148] Top shape: 128 64 32 32 (8388608)
I0621 13:53:30.627707 23089 net.cpp:156] Memory required for data: 1243087360
I0621 13:53:30.627712 23089 layer_factory.hpp:77] Creating layer bn_d_1_1
I0621 13:53:30.627723 23089 net.cpp:91] Creating Layer bn_d_1_1
I0621 13:53:30.627730 23089 net.cpp:425] bn_d_1_1 <- elt_a_1_elt_a_1_0_split_0
I0621 13:53:30.627737 23089 net.cpp:399] bn_d_1_1 -> bn_d_1_1
I0621 13:53:30.627948 23089 net.cpp:141] Setting up bn_d_1_1
I0621 13:53:30.627959 23089 net.cpp:148] Top shape: 128 64 32 32 (8388608)
I0621 13:53:30.627966 23089 net.cpp:156] Memory required for data: 1276641792
I0621 13:53:30.627976 23089 layer_factory.hpp:77] Creating layer sc_d_1_1
I0621 13:53:30.627986 23089 net.cpp:91] Creating Layer sc_d_1_1
I0621 13:53:30.627993 23089 net.cpp:425] sc_d_1_1 <- bn_d_1_1
I0621 13:53:30.628000 23089 net.cpp:399] sc_d_1_1 -> sc_d_1_1
I0621 13:53:30.628059 23089 layer_factory.hpp:77] Creating layer sc_d_1_1
I0621 13:53:30.628176 23089 net.cpp:141] Setting up sc_d_1_1
I0621 13:53:30.628187 23089 net.cpp:148] Top shape: 128 64 32 32 (8388608)
I0621 13:53:30.628206 23089 net.cpp:156] Memory required for data: 1310196224
I0621 13:53:30.628214 23089 layer_factory.hpp:77] Creating layer relu_d_1_1
I0621 13:53:30.628224 23089 net.cpp:91] Creating Layer relu_d_1_1
I0621 13:53:30.628232 23089 net.cpp:425] relu_d_1_1 <- sc_d_1_1
I0621 13:53:30.628238 23089 net.cpp:399] relu_d_1_1 -> relu_d_1_1
I0621 13:53:30.628463 23089 net.cpp:141] Setting up relu_d_1_1
I0621 13:53:30.628478 23089 net.cpp:148] Top shape: 128 64 32 32 (8388608)
I0621 13:53:30.628484 23089 net.cpp:156] Memory required for data: 1343750656
I0621 13:53:30.628489 23089 layer_factory.hpp:77] Creating layer conv_d_1_1
I0621 13:53:30.628504 23089 net.cpp:91] Creating Layer conv_d_1_1
I0621 13:53:30.628511 23089 net.cpp:425] conv_d_1_1 <- relu_d_1_1
I0621 13:53:30.628522 23089 net.cpp:399] conv_d_1_1 -> conv_d_1_1
I0621 13:53:30.632068 23089 net.cpp:141] Setting up conv_d_1_1
I0621 13:53:30.632084 23089 net.cpp:148] Top shape: 128 128 16 16 (4194304)
I0621 13:53:30.632104 23089 net.cpp:156] Memory required for data: 1360527872
I0621 13:53:30.632113 23089 layer_factory.hpp:77] Creating layer bn_d_1_2
I0621 13:53:30.632129 23089 net.cpp:91] Creating Layer bn_d_1_2
I0621 13:53:30.632136 23089 net.cpp:425] bn_d_1_2 <- conv_d_1_1
I0621 13:53:30.632144 23089 net.cpp:399] bn_d_1_2 -> bn_d_1_2
I0621 13:53:30.632344 23089 net.cpp:141] Setting up bn_d_1_2
I0621 13:53:30.632357 23089 net.cpp:148] Top shape: 128 128 16 16 (4194304)
I0621 13:53:30.632364 23089 net.cpp:156] Memory required for data: 1377305088
I0621 13:53:30.632374 23089 layer_factory.hpp:77] Creating layer sc_d_1_2
I0621 13:53:30.632383 23089 net.cpp:91] Creating Layer sc_d_1_2
I0621 13:53:30.632390 23089 net.cpp:425] sc_d_1_2 <- bn_d_1_2
I0621 13:53:30.632397 23089 net.cpp:399] sc_d_1_2 -> sc_d_1_2
I0621 13:53:30.632439 23089 layer_factory.hpp:77] Creating layer sc_d_1_2
I0621 13:53:30.632567 23089 net.cpp:141] Setting up sc_d_1_2
I0621 13:53:30.632588 23089 net.cpp:148] Top shape: 128 128 16 16 (4194304)
I0621 13:53:30.632594 23089 net.cpp:156] Memory required for data: 1394082304
I0621 13:53:30.632602 23089 layer_factory.hpp:77] Creating layer relu_d_1_2
I0621 13:53:30.632611 23089 net.cpp:91] Creating Layer relu_d_1_2
I0621 13:53:30.632618 23089 net.cpp:425] relu_d_1_2 <- sc_d_1_2
I0621 13:53:30.632628 23089 net.cpp:399] relu_d_1_2 -> relu_d_1_2
I0621 13:53:30.632817 23089 net.cpp:141] Setting up relu_d_1_2
I0621 13:53:30.632830 23089 net.cpp:148] Top shape: 128 128 16 16 (4194304)
I0621 13:53:30.632838 23089 net.cpp:156] Memory required for data: 1410859520
I0621 13:53:30.632843 23089 layer_factory.hpp:77] Creating layer conv_d_1_2
I0621 13:53:30.632861 23089 net.cpp:91] Creating Layer conv_d_1_2
I0621 13:53:30.632884 23089 net.cpp:425] conv_d_1_2 <- relu_d_1_2
I0621 13:53:30.632894 23089 net.cpp:399] conv_d_1_2 -> conv_d_1_2
I0621 13:53:30.638181 23089 net.cpp:141] Setting up conv_d_1_2
I0621 13:53:30.638196 23089 net.cpp:148] Top shape: 128 128 16 16 (4194304)
I0621 13:53:30.638216 23089 net.cpp:156] Memory required for data: 1427636736
I0621 13:53:30.638227 23089 layer_factory.hpp:77] Creating layer res_d
I0621 13:53:30.638242 23089 net.cpp:91] Creating Layer res_d
I0621 13:53:30.638250 23089 net.cpp:425] res_d <- elt_a_1_elt_a_1_0_split_1
I0621 13:53:30.638259 23089 net.cpp:399] res_d -> res_d
I0621 13:53:30.639506 23089 net.cpp:141] Setting up res_d
I0621 13:53:30.639523 23089 net.cpp:148] Top shape: 128 128 16 16 (4194304)
I0621 13:53:30.639528 23089 net.cpp:156] Memory required for data: 1444413952
I0621 13:53:30.639562 23089 layer_factory.hpp:77] Creating layer elt_d_1
I0621 13:53:30.639574 23089 net.cpp:91] Creating Layer elt_d_1
I0621 13:53:30.639580 23089 net.cpp:425] elt_d_1 <- res_d
I0621 13:53:30.639587 23089 net.cpp:425] elt_d_1 <- conv_d_1_2
I0621 13:53:30.639595 23089 net.cpp:399] elt_d_1 -> elt_d_1
I0621 13:53:30.639627 23089 net.cpp:141] Setting up elt_d_1
I0621 13:53:30.639638 23089 net.cpp:148] Top shape: 128 128 16 16 (4194304)
I0621 13:53:30.639645 23089 net.cpp:156] Memory required for data: 1461191168
I0621 13:53:30.639650 23089 layer_factory.hpp:77] Creating layer bn_f_1_1
I0621 13:53:30.639660 23089 net.cpp:91] Creating Layer bn_f_1_1
I0621 13:53:30.639667 23089 net.cpp:425] bn_f_1_1 <- elt_b_1_elt_b_1_0_split_0
I0621 13:53:30.639675 23089 net.cpp:399] bn_f_1_1 -> bn_f_1_1
I0621 13:53:30.639880 23089 net.cpp:141] Setting up bn_f_1_1
I0621 13:53:30.639892 23089 net.cpp:148] Top shape: 128 64 32 32 (8388608)
I0621 13:53:30.639899 23089 net.cpp:156] Memory required for data: 1494745600
I0621 13:53:30.639909 23089 layer_factory.hpp:77] Creating layer sc_f_1_1
I0621 13:53:30.639919 23089 net.cpp:91] Creating Layer sc_f_1_1
I0621 13:53:30.639925 23089 net.cpp:425] sc_f_1_1 <- bn_f_1_1
I0621 13:53:30.639935 23089 net.cpp:399] sc_f_1_1 -> sc_f_1_1
I0621 13:53:30.639982 23089 layer_factory.hpp:77] Creating layer sc_f_1_1
I0621 13:53:30.640103 23089 net.cpp:141] Setting up sc_f_1_1
I0621 13:53:30.640117 23089 net.cpp:148] Top shape: 128 64 32 32 (8388608)
I0621 13:53:30.640123 23089 net.cpp:156] Memory required for data: 1528300032
I0621 13:53:30.640132 23089 layer_factory.hpp:77] Creating layer relu_f_1_1
I0621 13:53:30.640141 23089 net.cpp:91] Creating Layer relu_f_1_1
I0621 13:53:30.640147 23089 net.cpp:425] relu_f_1_1 <- sc_f_1_1
I0621 13:53:30.640156 23089 net.cpp:399] relu_f_1_1 -> relu_f_1_1
I0621 13:53:30.640457 23089 net.cpp:141] Setting up relu_f_1_1
I0621 13:53:30.640473 23089 net.cpp:148] Top shape: 128 64 32 32 (8388608)
I0621 13:53:30.640480 23089 net.cpp:156] Memory required for data: 1561854464
I0621 13:53:30.640486 23089 layer_factory.hpp:77] Creating layer conv_f_1_1
I0621 13:53:30.640501 23089 net.cpp:91] Creating Layer conv_f_1_1
I0621 13:53:30.640509 23089 net.cpp:425] conv_f_1_1 <- relu_f_1_1
I0621 13:53:30.640518 23089 net.cpp:399] conv_f_1_1 -> conv_f_1_1
I0621 13:53:30.643934 23089 net.cpp:141] Setting up conv_f_1_1
I0621 13:53:30.643950 23089 net.cpp:148] Top shape: 128 128 16 16 (4194304)
I0621 13:53:30.643970 23089 net.cpp:156] Memory required for data: 1578631680
I0621 13:53:30.643980 23089 layer_factory.hpp:77] Creating layer bn_f_1_2
I0621 13:53:30.643992 23089 net.cpp:91] Creating Layer bn_f_1_2
I0621 13:53:30.643999 23089 net.cpp:425] bn_f_1_2 <- conv_f_1_1
I0621 13:53:30.644008 23089 net.cpp:399] bn_f_1_2 -> bn_f_1_2
I0621 13:53:30.644206 23089 net.cpp:141] Setting up bn_f_1_2
I0621 13:53:30.644217 23089 net.cpp:148] Top shape: 128 128 16 16 (4194304)
I0621 13:53:30.644223 23089 net.cpp:156] Memory required for data: 1595408896
I0621 13:53:30.644233 23089 layer_factory.hpp:77] Creating layer sc_f_1_2
I0621 13:53:30.644243 23089 net.cpp:91] Creating Layer sc_f_1_2
I0621 13:53:30.644249 23089 net.cpp:425] sc_f_1_2 <- bn_f_1_2
I0621 13:53:30.644259 23089 net.cpp:399] sc_f_1_2 -> sc_f_1_2
I0621 13:53:30.644340 23089 layer_factory.hpp:77] Creating layer sc_f_1_2
I0621 13:53:30.644456 23089 net.cpp:141] Setting up sc_f_1_2
I0621 13:53:30.644469 23089 net.cpp:148] Top shape: 128 128 16 16 (4194304)
I0621 13:53:30.644475 23089 net.cpp:156] Memory required for data: 1612186112
I0621 13:53:30.644484 23089 layer_factory.hpp:77] Creating layer relu_f_1_2
I0621 13:53:30.644495 23089 net.cpp:91] Creating Layer relu_f_1_2
I0621 13:53:30.644502 23089 net.cpp:425] relu_f_1_2 <- sc_f_1_2
I0621 13:53:30.644510 23089 net.cpp:399] relu_f_1_2 -> relu_f_1_2
I0621 13:53:30.644927 23089 net.cpp:141] Setting up relu_f_1_2
I0621 13:53:30.644942 23089 net.cpp:148] Top shape: 128 128 16 16 (4194304)
I0621 13:53:30.644949 23089 net.cpp:156] Memory required for data: 1628963328
I0621 13:53:30.644954 23089 layer_factory.hpp:77] Creating layer conv_f_1_2
I0621 13:53:30.644968 23089 net.cpp:91] Creating Layer conv_f_1_2
I0621 13:53:30.644976 23089 net.cpp:425] conv_f_1_2 <- relu_f_1_2
I0621 13:53:30.644987 23089 net.cpp:399] conv_f_1_2 -> conv_f_1_2
I0621 13:53:30.650110 23089 net.cpp:141] Setting up conv_f_1_2
I0621 13:53:30.650125 23089 net.cpp:148] Top shape: 128 128 16 16 (4194304)
I0621 13:53:30.650148 23089 net.cpp:156] Memory required for data: 1645740544
I0621 13:53:30.650157 23089 layer_factory.hpp:77] Creating layer res_f
I0621 13:53:30.650173 23089 net.cpp:91] Creating Layer res_f
I0621 13:53:30.650182 23089 net.cpp:425] res_f <- elt_b_1_elt_b_1_0_split_1
I0621 13:53:30.650192 23089 net.cpp:399] res_f -> res_f
I0621 13:53:30.651410 23089 net.cpp:141] Setting up res_f
I0621 13:53:30.651428 23089 net.cpp:148] Top shape: 128 128 16 16 (4194304)
I0621 13:53:30.651448 23089 net.cpp:156] Memory required for data: 1662517760
I0621 13:53:30.651458 23089 layer_factory.hpp:77] Creating layer elt_f_1
I0621 13:53:30.651468 23089 net.cpp:91] Creating Layer elt_f_1
I0621 13:53:30.651474 23089 net.cpp:425] elt_f_1 <- res_f
I0621 13:53:30.651482 23089 net.cpp:425] elt_f_1 <- conv_f_1_2
I0621 13:53:30.651489 23089 net.cpp:399] elt_f_1 -> elt_f_1
I0621 13:53:30.651520 23089 net.cpp:141] Setting up elt_f_1
I0621 13:53:30.651532 23089 net.cpp:148] Top shape: 128 128 16 16 (4194304)
I0621 13:53:30.651538 23089 net.cpp:156] Memory required for data: 1679294976
I0621 13:53:30.651543 23089 layer_factory.hpp:77] Creating layer bn_g_1_1
I0621 13:53:30.651553 23089 net.cpp:91] Creating Layer bn_g_1_1
I0621 13:53:30.651561 23089 net.cpp:425] bn_g_1_1 <- elt_b_1_elt_b_1_0_split_2
I0621 13:53:30.651568 23089 net.cpp:399] bn_g_1_1 -> bn_g_1_1
I0621 13:53:30.651778 23089 net.cpp:141] Setting up bn_g_1_1
I0621 13:53:30.651790 23089 net.cpp:148] Top shape: 128 64 32 32 (8388608)
I0621 13:53:30.651796 23089 net.cpp:156] Memory required for data: 1712849408
I0621 13:53:30.651806 23089 layer_factory.hpp:77] Creating layer sc_g_1_1
I0621 13:53:30.651816 23089 net.cpp:91] Creating Layer sc_g_1_1
I0621 13:53:30.651823 23089 net.cpp:425] sc_g_1_1 <- bn_g_1_1
I0621 13:53:30.651832 23089 net.cpp:399] sc_g_1_1 -> sc_g_1_1
I0621 13:53:30.651880 23089 layer_factory.hpp:77] Creating layer sc_g_1_1
I0621 13:53:30.652021 23089 net.cpp:141] Setting up sc_g_1_1
I0621 13:53:30.652035 23089 net.cpp:148] Top shape: 128 64 32 32 (8388608)
I0621 13:53:30.652041 23089 net.cpp:156] Memory required for data: 1746403840
I0621 13:53:30.652050 23089 layer_factory.hpp:77] Creating layer relu_g_1_1
I0621 13:53:30.652060 23089 net.cpp:91] Creating Layer relu_g_1_1
I0621 13:53:30.652065 23089 net.cpp:425] relu_g_1_1 <- sc_g_1_1
I0621 13:53:30.652072 23089 net.cpp:399] relu_g_1_1 -> relu_g_1_1
I0621 13:53:30.652405 23089 net.cpp:141] Setting up relu_g_1_1
I0621 13:53:30.652420 23089 net.cpp:148] Top shape: 128 64 32 32 (8388608)
I0621 13:53:30.652426 23089 net.cpp:156] Memory required for data: 1779958272
I0621 13:53:30.652431 23089 layer_factory.hpp:77] Creating layer conv_g_1_1
I0621 13:53:30.652446 23089 net.cpp:91] Creating Layer conv_g_1_1
I0621 13:53:30.652454 23089 net.cpp:425] conv_g_1_1 <- relu_g_1_1
I0621 13:53:30.652462 23089 net.cpp:399] conv_g_1_1 -> conv_g_1_1
I0621 13:53:30.656049 23089 net.cpp:141] Setting up conv_g_1_1
I0621 13:53:30.656067 23089 net.cpp:148] Top shape: 128 128 16 16 (4194304)
I0621 13:53:30.656075 23089 net.cpp:156] Memory required for data: 1796735488
I0621 13:53:30.656082 23089 layer_factory.hpp:77] Creating layer bn_g_1_2
I0621 13:53:30.656092 23089 net.cpp:91] Creating Layer bn_g_1_2
I0621 13:53:30.656100 23089 net.cpp:425] bn_g_1_2 <- conv_g_1_1
I0621 13:53:30.656110 23089 net.cpp:399] bn_g_1_2 -> bn_g_1_2
I0621 13:53:30.656318 23089 net.cpp:141] Setting up bn_g_1_2
I0621 13:53:30.656330 23089 net.cpp:148] Top shape: 128 128 16 16 (4194304)
I0621 13:53:30.656335 23089 net.cpp:156] Memory required for data: 1813512704
I0621 13:53:30.656345 23089 layer_factory.hpp:77] Creating layer sc_g_1_2
I0621 13:53:30.656354 23089 net.cpp:91] Creating Layer sc_g_1_2
I0621 13:53:30.656360 23089 net.cpp:425] sc_g_1_2 <- bn_g_1_2
I0621 13:53:30.656370 23089 net.cpp:399] sc_g_1_2 -> sc_g_1_2
I0621 13:53:30.656426 23089 layer_factory.hpp:77] Creating layer sc_g_1_2
I0621 13:53:30.656543 23089 net.cpp:141] Setting up sc_g_1_2
I0621 13:53:30.656555 23089 net.cpp:148] Top shape: 128 128 16 16 (4194304)
I0621 13:53:30.656561 23089 net.cpp:156] Memory required for data: 1830289920
I0621 13:53:30.656570 23089 layer_factory.hpp:77] Creating layer relu_g_1_2
I0621 13:53:30.656579 23089 net.cpp:91] Creating Layer relu_g_1_2
I0621 13:53:30.656585 23089 net.cpp:425] relu_g_1_2 <- sc_g_1_2
I0621 13:53:30.656595 23089 net.cpp:399] relu_g_1_2 -> relu_g_1_2
I0621 13:53:30.656792 23089 net.cpp:141] Setting up relu_g_1_2
I0621 13:53:30.656810 23089 net.cpp:148] Top shape: 128 128 16 16 (4194304)
I0621 13:53:30.656816 23089 net.cpp:156] Memory required for data: 1847067136
I0621 13:53:30.656822 23089 layer_factory.hpp:77] Creating layer conv_g_1_2
I0621 13:53:30.656836 23089 net.cpp:91] Creating Layer conv_g_1_2
I0621 13:53:30.656843 23089 net.cpp:425] conv_g_1_2 <- relu_g_1_2
I0621 13:53:30.656852 23089 net.cpp:399] conv_g_1_2 -> conv_g_1_2
I0621 13:53:30.661916 23089 net.cpp:141] Setting up conv_g_1_2
I0621 13:53:30.661932 23089 net.cpp:148] Top shape: 128 128 16 16 (4194304)
I0621 13:53:30.661954 23089 net.cpp:156] Memory required for data: 1863844352
I0621 13:53:30.661964 23089 layer_factory.hpp:77] Creating layer res_g
I0621 13:53:30.661985 23089 net.cpp:91] Creating Layer res_g
I0621 13:53:30.661993 23089 net.cpp:425] res_g <- elt_b_1_elt_b_1_0_split_3
I0621 13:53:30.662004 23089 net.cpp:399] res_g -> res_g
I0621 13:53:30.663255 23089 net.cpp:141] Setting up res_g
I0621 13:53:30.663271 23089 net.cpp:148] Top shape: 128 128 16 16 (4194304)
I0621 13:53:30.663293 23089 net.cpp:156] Memory required for data: 1880621568
I0621 13:53:30.663303 23089 layer_factory.hpp:77] Creating layer elt_g_1
I0621 13:53:30.663316 23089 net.cpp:91] Creating Layer elt_g_1
I0621 13:53:30.663323 23089 net.cpp:425] elt_g_1 <- res_g
I0621 13:53:30.663329 23089 net.cpp:425] elt_g_1 <- conv_g_1_2
I0621 13:53:30.663338 23089 net.cpp:399] elt_g_1 -> elt_g_1
I0621 13:53:30.663368 23089 net.cpp:141] Setting up elt_g_1
I0621 13:53:30.663379 23089 net.cpp:148] Top shape: 128 128 16 16 (4194304)
I0621 13:53:30.663385 23089 net.cpp:156] Memory required for data: 1897398784
I0621 13:53:30.663390 23089 layer_factory.hpp:77] Creating layer bn_h_1_1
I0621 13:53:30.663400 23089 net.cpp:91] Creating Layer bn_h_1_1
I0621 13:53:30.663409 23089 net.cpp:425] bn_h_1_1 <- elt_c_1_elt_c_1_0_split_0
I0621 13:53:30.663417 23089 net.cpp:399] bn_h_1_1 -> bn_h_1_1
I0621 13:53:30.663641 23089 net.cpp:141] Setting up bn_h_1_1
I0621 13:53:30.663655 23089 net.cpp:148] Top shape: 128 64 32 32 (8388608)
I0621 13:53:30.663661 23089 net.cpp:156] Memory required for data: 1930953216
I0621 13:53:30.663671 23089 layer_factory.hpp:77] Creating layer sc_h_1_1
I0621 13:53:30.663681 23089 net.cpp:91] Creating Layer sc_h_1_1
I0621 13:53:30.663688 23089 net.cpp:425] sc_h_1_1 <- bn_h_1_1
I0621 13:53:30.663698 23089 net.cpp:399] sc_h_1_1 -> sc_h_1_1
I0621 13:53:30.663748 23089 layer_factory.hpp:77] Creating layer sc_h_1_1
I0621 13:53:30.663875 23089 net.cpp:141] Setting up sc_h_1_1
I0621 13:53:30.663911 23089 net.cpp:148] Top shape: 128 64 32 32 (8388608)
I0621 13:53:30.663919 23089 net.cpp:156] Memory required for data: 1964507648
I0621 13:53:30.663928 23089 layer_factory.hpp:77] Creating layer relu_h_1_1
I0621 13:53:30.663939 23089 net.cpp:91] Creating Layer relu_h_1_1
I0621 13:53:30.663946 23089 net.cpp:425] relu_h_1_1 <- sc_h_1_1
I0621 13:53:30.663954 23089 net.cpp:399] relu_h_1_1 -> relu_h_1_1
I0621 13:53:30.664151 23089 net.cpp:141] Setting up relu_h_1_1
I0621 13:53:30.664165 23089 net.cpp:148] Top shape: 128 64 32 32 (8388608)
I0621 13:53:30.664171 23089 net.cpp:156] Memory required for data: 1998062080
I0621 13:53:30.664176 23089 layer_factory.hpp:77] Creating layer conv_h_1_1
I0621 13:53:30.664191 23089 net.cpp:91] Creating Layer conv_h_1_1
I0621 13:53:30.664199 23089 net.cpp:425] conv_h_1_1 <- relu_h_1_1
I0621 13:53:30.664211 23089 net.cpp:399] conv_h_1_1 -> conv_h_1_1
I0621 13:53:30.667812 23089 net.cpp:141] Setting up conv_h_1_1
I0621 13:53:30.667829 23089 net.cpp:148] Top shape: 128 128 16 16 (4194304)
I0621 13:53:30.667851 23089 net.cpp:156] Memory required for data: 2014839296
I0621 13:53:30.667861 23089 layer_factory.hpp:77] Creating layer bn_h_1_2
I0621 13:53:30.667876 23089 net.cpp:91] Creating Layer bn_h_1_2
I0621 13:53:30.667883 23089 net.cpp:425] bn_h_1_2 <- conv_h_1_1
I0621 13:53:30.667891 23089 net.cpp:399] bn_h_1_2 -> bn_h_1_2
I0621 13:53:30.668104 23089 net.cpp:141] Setting up bn_h_1_2
I0621 13:53:30.668117 23089 net.cpp:148] Top shape: 128 128 16 16 (4194304)
I0621 13:53:30.668121 23089 net.cpp:156] Memory required for data: 2031616512
I0621 13:53:30.668133 23089 layer_factory.hpp:77] Creating layer sc_h_1_2
I0621 13:53:30.668141 23089 net.cpp:91] Creating Layer sc_h_1_2
I0621 13:53:30.668148 23089 net.cpp:425] sc_h_1_2 <- bn_h_1_2
I0621 13:53:30.668156 23089 net.cpp:399] sc_h_1_2 -> sc_h_1_2
I0621 13:53:30.668203 23089 layer_factory.hpp:77] Creating layer sc_h_1_2
I0621 13:53:30.668324 23089 net.cpp:141] Setting up sc_h_1_2
I0621 13:53:30.668336 23089 net.cpp:148] Top shape: 128 128 16 16 (4194304)
I0621 13:53:30.668342 23089 net.cpp:156] Memory required for data: 2048393728
I0621 13:53:30.668351 23089 layer_factory.hpp:77] Creating layer relu_h_1_2
I0621 13:53:30.668360 23089 net.cpp:91] Creating Layer relu_h_1_2
I0621 13:53:30.668367 23089 net.cpp:425] relu_h_1_2 <- sc_h_1_2
I0621 13:53:30.668377 23089 net.cpp:399] relu_h_1_2 -> relu_h_1_2
I0621 13:53:30.668686 23089 net.cpp:141] Setting up relu_h_1_2
I0621 13:53:30.668701 23089 net.cpp:148] Top shape: 128 128 16 16 (4194304)
I0621 13:53:30.668709 23089 net.cpp:156] Memory required for data: 2065170944
I0621 13:53:30.668715 23089 layer_factory.hpp:77] Creating layer conv_h_1_2
I0621 13:53:30.668728 23089 net.cpp:91] Creating Layer conv_h_1_2
I0621 13:53:30.668736 23089 net.cpp:425] conv_h_1_2 <- relu_h_1_2
I0621 13:53:30.668747 23089 net.cpp:399] conv_h_1_2 -> conv_h_1_2
I0621 13:53:30.673832 23089 net.cpp:141] Setting up conv_h_1_2
I0621 13:53:30.673848 23089 net.cpp:148] Top shape: 128 128 16 16 (4194304)
I0621 13:53:30.673857 23089 net.cpp:156] Memory required for data: 2081948160
I0621 13:53:30.673866 23089 layer_factory.hpp:77] Creating layer res_h
I0621 13:53:30.673884 23089 net.cpp:91] Creating Layer res_h
I0621 13:53:30.673892 23089 net.cpp:425] res_h <- elt_c_1_elt_c_1_0_split_1
I0621 13:53:30.673903 23089 net.cpp:399] res_h -> res_h
I0621 13:53:30.675089 23089 net.cpp:141] Setting up res_h
I0621 13:53:30.675106 23089 net.cpp:148] Top shape: 128 128 16 16 (4194304)
I0621 13:53:30.675127 23089 net.cpp:156] Memory required for data: 2098725376
I0621 13:53:30.675137 23089 layer_factory.hpp:77] Creating layer elt_h_1
I0621 13:53:30.675148 23089 net.cpp:91] Creating Layer elt_h_1
I0621 13:53:30.675155 23089 net.cpp:425] elt_h_1 <- res_h
I0621 13:53:30.675163 23089 net.cpp:425] elt_h_1 <- conv_h_1_2
I0621 13:53:30.675171 23089 net.cpp:399] elt_h_1 -> elt_h_1
I0621 13:53:30.675200 23089 net.cpp:141] Setting up elt_h_1
I0621 13:53:30.675211 23089 net.cpp:148] Top shape: 128 128 16 16 (4194304)
I0621 13:53:30.675232 23089 net.cpp:156] Memory required for data: 2115502592
I0621 13:53:30.675248 23089 layer_factory.hpp:77] Creating layer bn_i_1_1
I0621 13:53:30.675259 23089 net.cpp:91] Creating Layer bn_i_1_1
I0621 13:53:30.675266 23089 net.cpp:425] bn_i_1_1 <- elt_c_1_elt_c_1_0_split_2
I0621 13:53:30.675276 23089 net.cpp:399] bn_i_1_1 -> bn_i_1_1
I0621 13:53:30.675495 23089 net.cpp:141] Setting up bn_i_1_1
I0621 13:53:30.675508 23089 net.cpp:148] Top shape: 128 64 32 32 (8388608)
I0621 13:53:30.675514 23089 net.cpp:156] Memory required for data: 2149057024
I0621 13:53:30.675524 23089 layer_factory.hpp:77] Creating layer sc_i_1_1
I0621 13:53:30.675534 23089 net.cpp:91] Creating Layer sc_i_1_1
I0621 13:53:30.675540 23089 net.cpp:425] sc_i_1_1 <- bn_i_1_1
I0621 13:53:30.675555 23089 net.cpp:399] sc_i_1_1 -> sc_i_1_1
I0621 13:53:30.675621 23089 layer_factory.hpp:77] Creating layer sc_i_1_1
I0621 13:53:30.675755 23089 net.cpp:141] Setting up sc_i_1_1
I0621 13:53:30.675767 23089 net.cpp:148] Top shape: 128 64 32 32 (8388608)
I0621 13:53:30.675772 23089 net.cpp:156] Memory required for data: 2182611456
I0621 13:53:30.675781 23089 layer_factory.hpp:77] Creating layer relu_i_1_1
I0621 13:53:30.675792 23089 net.cpp:91] Creating Layer relu_i_1_1
I0621 13:53:30.675799 23089 net.cpp:425] relu_i_1_1 <- sc_i_1_1
I0621 13:53:30.675806 23089 net.cpp:399] relu_i_1_1 -> relu_i_1_1
I0621 13:53:30.676123 23089 net.cpp:141] Setting up relu_i_1_1
I0621 13:53:30.676139 23089 net.cpp:148] Top shape: 128 64 32 32 (8388608)
I0621 13:53:30.676146 23089 net.cpp:156] Memory required for data: 2216165888
I0621 13:53:30.676151 23089 layer_factory.hpp:77] Creating layer conv_i_1_1
I0621 13:53:30.676167 23089 net.cpp:91] Creating Layer conv_i_1_1
I0621 13:53:30.676175 23089 net.cpp:425] conv_i_1_1 <- relu_i_1_1
I0621 13:53:30.676184 23089 net.cpp:399] conv_i_1_1 -> conv_i_1_1
I0621 13:53:30.679922 23089 net.cpp:141] Setting up conv_i_1_1
I0621 13:53:30.679939 23089 net.cpp:148] Top shape: 128 128 16 16 (4194304)
I0621 13:53:30.679947 23089 net.cpp:156] Memory required for data: 2232943104
I0621 13:53:30.679956 23089 layer_factory.hpp:77] Creating layer bn_i_1_2
I0621 13:53:30.679968 23089 net.cpp:91] Creating Layer bn_i_1_2
I0621 13:53:30.679975 23089 net.cpp:425] bn_i_1_2 <- conv_i_1_1
I0621 13:53:30.679986 23089 net.cpp:399] bn_i_1_2 -> bn_i_1_2
I0621 13:53:30.680203 23089 net.cpp:141] Setting up bn_i_1_2
I0621 13:53:30.680215 23089 net.cpp:148] Top shape: 128 128 16 16 (4194304)
I0621 13:53:30.680234 23089 net.cpp:156] Memory required for data: 2249720320
I0621 13:53:30.680244 23089 layer_factory.hpp:77] Creating layer sc_i_1_2
I0621 13:53:30.680258 23089 net.cpp:91] Creating Layer sc_i_1_2
I0621 13:53:30.680264 23089 net.cpp:425] sc_i_1_2 <- bn_i_1_2
I0621 13:53:30.680272 23089 net.cpp:399] sc_i_1_2 -> sc_i_1_2
I0621 13:53:30.680320 23089 layer_factory.hpp:77] Creating layer sc_i_1_2
I0621 13:53:30.680446 23089 net.cpp:141] Setting up sc_i_1_2
I0621 13:53:30.680457 23089 net.cpp:148] Top shape: 128 128 16 16 (4194304)
I0621 13:53:30.680464 23089 net.cpp:156] Memory required for data: 2266497536
I0621 13:53:30.680472 23089 layer_factory.hpp:77] Creating layer relu_i_1_2
I0621 13:53:30.680481 23089 net.cpp:91] Creating Layer relu_i_1_2
I0621 13:53:30.680488 23089 net.cpp:425] relu_i_1_2 <- sc_i_1_2
I0621 13:53:30.680498 23089 net.cpp:399] relu_i_1_2 -> relu_i_1_2
I0621 13:53:30.680703 23089 net.cpp:141] Setting up relu_i_1_2
I0621 13:53:30.680716 23089 net.cpp:148] Top shape: 128 128 16 16 (4194304)
I0621 13:53:30.680723 23089 net.cpp:156] Memory required for data: 2283274752
I0621 13:53:30.680729 23089 layer_factory.hpp:77] Creating layer conv_i_1_2
I0621 13:53:30.680747 23089 net.cpp:91] Creating Layer conv_i_1_2
I0621 13:53:30.680754 23089 net.cpp:425] conv_i_1_2 <- relu_i_1_2
I0621 13:53:30.680763 23089 net.cpp:399] conv_i_1_2 -> conv_i_1_2
I0621 13:53:30.686018 23089 net.cpp:141] Setting up conv_i_1_2
I0621 13:53:30.686034 23089 net.cpp:148] Top shape: 128 128 16 16 (4194304)
I0621 13:53:30.686058 23089 net.cpp:156] Memory required for data: 2300051968
I0621 13:53:30.686094 23089 layer_factory.hpp:77] Creating layer res_i
I0621 13:53:30.686110 23089 net.cpp:91] Creating Layer res_i
I0621 13:53:30.686118 23089 net.cpp:425] res_i <- elt_c_1_elt_c_1_0_split_3
I0621 13:53:30.686131 23089 net.cpp:399] res_i -> res_i
I0621 13:53:30.687435 23089 net.cpp:141] Setting up res_i
I0621 13:53:30.687451 23089 net.cpp:148] Top shape: 128 128 16 16 (4194304)
I0621 13:53:30.687471 23089 net.cpp:156] Memory required for data: 2316829184
I0621 13:53:30.687497 23089 layer_factory.hpp:77] Creating layer elt_i_1
I0621 13:53:30.687510 23089 net.cpp:91] Creating Layer elt_i_1
I0621 13:53:30.687516 23089 net.cpp:425] elt_i_1 <- res_i
I0621 13:53:30.687523 23089 net.cpp:425] elt_i_1 <- conv_i_1_2
I0621 13:53:30.687530 23089 net.cpp:399] elt_i_1 -> elt_i_1
I0621 13:53:30.687561 23089 net.cpp:141] Setting up elt_i_1
I0621 13:53:30.687572 23089 net.cpp:148] Top shape: 128 128 16 16 (4194304)
I0621 13:53:30.687578 23089 net.cpp:156] Memory required for data: 2333606400
I0621 13:53:30.687584 23089 layer_factory.hpp:77] Creating layer elt_d_f
I0621 13:53:30.687605 23089 net.cpp:91] Creating Layer elt_d_f
I0621 13:53:30.687613 23089 net.cpp:425] elt_d_f <- elt_d_1
I0621 13:53:30.687619 23089 net.cpp:425] elt_d_f <- elt_f_1
I0621 13:53:30.687629 23089 net.cpp:399] elt_d_f -> elt_d_f
I0621 13:53:30.687665 23089 net.cpp:141] Setting up elt_d_f
I0621 13:53:30.687677 23089 net.cpp:148] Top shape: 128 128 16 16 (4194304)
I0621 13:53:30.687683 23089 net.cpp:156] Memory required for data: 2350383616
I0621 13:53:30.687688 23089 layer_factory.hpp:77] Creating layer elt_d_f_elt_d_f_0_split
I0621 13:53:30.687696 23089 net.cpp:91] Creating Layer elt_d_f_elt_d_f_0_split
I0621 13:53:30.687701 23089 net.cpp:425] elt_d_f_elt_d_f_0_split <- elt_d_f
I0621 13:53:30.687708 23089 net.cpp:399] elt_d_f_elt_d_f_0_split -> elt_d_f_elt_d_f_0_split_0
I0621 13:53:30.687721 23089 net.cpp:399] elt_d_f_elt_d_f_0_split -> elt_d_f_elt_d_f_0_split_1
I0621 13:53:30.687768 23089 net.cpp:141] Setting up elt_d_f_elt_d_f_0_split
I0621 13:53:30.687780 23089 net.cpp:148] Top shape: 128 128 16 16 (4194304)
I0621 13:53:30.687786 23089 net.cpp:148] Top shape: 128 128 16 16 (4194304)
I0621 13:53:30.687791 23089 net.cpp:156] Memory required for data: 2383938048
I0621 13:53:30.687796 23089 layer_factory.hpp:77] Creating layer elt_g_i
I0621 13:53:30.687806 23089 net.cpp:91] Creating Layer elt_g_i
I0621 13:53:30.687813 23089 net.cpp:425] elt_g_i <- elt_g_1
I0621 13:53:30.687820 23089 net.cpp:425] elt_g_i <- elt_i_1
I0621 13:53:30.687827 23089 net.cpp:399] elt_g_i -> elt_g_i
I0621 13:53:30.687861 23089 net.cpp:141] Setting up elt_g_i
I0621 13:53:30.687872 23089 net.cpp:148] Top shape: 128 128 16 16 (4194304)
I0621 13:53:30.687878 23089 net.cpp:156] Memory required for data: 2400715264
I0621 13:53:30.687883 23089 layer_factory.hpp:77] Creating layer elt_g_i_elt_g_i_0_split
I0621 13:53:30.687891 23089 net.cpp:91] Creating Layer elt_g_i_elt_g_i_0_split
I0621 13:53:30.687896 23089 net.cpp:425] elt_g_i_elt_g_i_0_split <- elt_g_i
I0621 13:53:30.687906 23089 net.cpp:399] elt_g_i_elt_g_i_0_split -> elt_g_i_elt_g_i_0_split_0
I0621 13:53:30.687930 23089 net.cpp:399] elt_g_i_elt_g_i_0_split -> elt_g_i_elt_g_i_0_split_1
I0621 13:53:30.687975 23089 net.cpp:141] Setting up elt_g_i_elt_g_i_0_split
I0621 13:53:30.687986 23089 net.cpp:148] Top shape: 128 128 16 16 (4194304)
I0621 13:53:30.687994 23089 net.cpp:148] Top shape: 128 128 16 16 (4194304)
I0621 13:53:30.687999 23089 net.cpp:156] Memory required for data: 2434269696
I0621 13:53:30.688004 23089 layer_factory.hpp:77] Creating layer bn_j_1_1
I0621 13:53:30.688014 23089 net.cpp:91] Creating Layer bn_j_1_1
I0621 13:53:30.688021 23089 net.cpp:425] bn_j_1_1 <- elt_d_f_elt_d_f_0_split_0
I0621 13:53:30.688030 23089 net.cpp:399] bn_j_1_1 -> bn_j_1_1
I0621 13:53:30.688246 23089 net.cpp:141] Setting up bn_j_1_1
I0621 13:53:30.688258 23089 net.cpp:148] Top shape: 128 128 16 16 (4194304)
I0621 13:53:30.688264 23089 net.cpp:156] Memory required for data: 2451046912
I0621 13:53:30.688274 23089 layer_factory.hpp:77] Creating layer sc_j_1_1
I0621 13:53:30.688298 23089 net.cpp:91] Creating Layer sc_j_1_1
I0621 13:53:30.688307 23089 net.cpp:425] sc_j_1_1 <- bn_j_1_1
I0621 13:53:30.688314 23089 net.cpp:399] sc_j_1_1 -> sc_j_1_1
I0621 13:53:30.688369 23089 layer_factory.hpp:77] Creating layer sc_j_1_1
I0621 13:53:30.688503 23089 net.cpp:141] Setting up sc_j_1_1
I0621 13:53:30.688515 23089 net.cpp:148] Top shape: 128 128 16 16 (4194304)
I0621 13:53:30.688521 23089 net.cpp:156] Memory required for data: 2467824128
I0621 13:53:30.688530 23089 layer_factory.hpp:77] Creating layer relu_j_1_1
I0621 13:53:30.688542 23089 net.cpp:91] Creating Layer relu_j_1_1
I0621 13:53:30.688563 23089 net.cpp:425] relu_j_1_1 <- sc_j_1_1
I0621 13:53:30.688570 23089 net.cpp:399] relu_j_1_1 -> relu_j_1_1
I0621 13:53:30.688781 23089 net.cpp:141] Setting up relu_j_1_1
I0621 13:53:30.688794 23089 net.cpp:148] Top shape: 128 128 16 16 (4194304)
I0621 13:53:30.688801 23089 net.cpp:156] Memory required for data: 2484601344
I0621 13:53:30.688820 23089 layer_factory.hpp:77] Creating layer conv_j_1_1
I0621 13:53:30.688837 23089 net.cpp:91] Creating Layer conv_j_1_1
I0621 13:53:30.688844 23089 net.cpp:425] conv_j_1_1 <- relu_j_1_1
I0621 13:53:30.688853 23089 net.cpp:399] conv_j_1_1 -> conv_j_1_1
I0621 13:53:30.698599 23089 net.cpp:141] Setting up conv_j_1_1
I0621 13:53:30.698616 23089 net.cpp:148] Top shape: 128 256 8 8 (2097152)
I0621 13:53:30.698626 23089 net.cpp:156] Memory required for data: 2492989952
I0621 13:53:30.698634 23089 layer_factory.hpp:77] Creating layer bn_j_1_2
I0621 13:53:30.698647 23089 net.cpp:91] Creating Layer bn_j_1_2
I0621 13:53:30.698654 23089 net.cpp:425] bn_j_1_2 <- conv_j_1_1
I0621 13:53:30.698664 23089 net.cpp:399] bn_j_1_2 -> bn_j_1_2
I0621 13:53:30.698931 23089 net.cpp:141] Setting up bn_j_1_2
I0621 13:53:30.698945 23089 net.cpp:148] Top shape: 128 256 8 8 (2097152)
I0621 13:53:30.698951 23089 net.cpp:156] Memory required for data: 2501378560
I0621 13:53:30.698961 23089 layer_factory.hpp:77] Creating layer sc_j_1_2
I0621 13:53:30.698971 23089 net.cpp:91] Creating Layer sc_j_1_2
I0621 13:53:30.698976 23089 net.cpp:425] sc_j_1_2 <- bn_j_1_2
I0621 13:53:30.698984 23089 net.cpp:399] sc_j_1_2 -> sc_j_1_2
I0621 13:53:30.699034 23089 layer_factory.hpp:77] Creating layer sc_j_1_2
I0621 13:53:30.699167 23089 net.cpp:141] Setting up sc_j_1_2
I0621 13:53:30.699179 23089 net.cpp:148] Top shape: 128 256 8 8 (2097152)
I0621 13:53:30.699187 23089 net.cpp:156] Memory required for data: 2509767168
I0621 13:53:30.699195 23089 layer_factory.hpp:77] Creating layer relu_j_1_2
I0621 13:53:30.699206 23089 net.cpp:91] Creating Layer relu_j_1_2
I0621 13:53:30.699213 23089 net.cpp:425] relu_j_1_2 <- sc_j_1_2
I0621 13:53:30.699221 23089 net.cpp:399] relu_j_1_2 -> relu_j_1_2
I0621 13:53:30.699533 23089 net.cpp:141] Setting up relu_j_1_2
I0621 13:53:30.699549 23089 net.cpp:148] Top shape: 128 256 8 8 (2097152)
I0621 13:53:30.699555 23089 net.cpp:156] Memory required for data: 2518155776
I0621 13:53:30.699561 23089 layer_factory.hpp:77] Creating layer conv_j_1_2
I0621 13:53:30.699576 23089 net.cpp:91] Creating Layer conv_j_1_2
I0621 13:53:30.699584 23089 net.cpp:425] conv_j_1_2 <- relu_j_1_2
I0621 13:53:30.699595 23089 net.cpp:399] conv_j_1_2 -> conv_j_1_2
I0621 13:53:30.717717 23089 net.cpp:141] Setting up conv_j_1_2
I0621 13:53:30.717733 23089 net.cpp:148] Top shape: 128 256 8 8 (2097152)
I0621 13:53:30.717757 23089 net.cpp:156] Memory required for data: 2526544384
I0621 13:53:30.717767 23089 layer_factory.hpp:77] Creating layer res_j
I0621 13:53:30.717784 23089 net.cpp:91] Creating Layer res_j
I0621 13:53:30.717792 23089 net.cpp:425] res_j <- elt_d_f_elt_d_f_0_split_1
I0621 13:53:30.717800 23089 net.cpp:399] res_j -> res_j
I0621 13:53:30.719686 23089 net.cpp:141] Setting up res_j
I0621 13:53:30.719702 23089 net.cpp:148] Top shape: 128 256 8 8 (2097152)
I0621 13:53:30.719725 23089 net.cpp:156] Memory required for data: 2534932992
I0621 13:53:30.719734 23089 layer_factory.hpp:77] Creating layer elt_j_1
I0621 13:53:30.719748 23089 net.cpp:91] Creating Layer elt_j_1
I0621 13:53:30.719779 23089 net.cpp:425] elt_j_1 <- res_j
I0621 13:53:30.719790 23089 net.cpp:425] elt_j_1 <- conv_j_1_2
I0621 13:53:30.719799 23089 net.cpp:399] elt_j_1 -> elt_j_1
I0621 13:53:30.719838 23089 net.cpp:141] Setting up elt_j_1
I0621 13:53:30.719851 23089 net.cpp:148] Top shape: 128 256 8 8 (2097152)
I0621 13:53:30.719856 23089 net.cpp:156] Memory required for data: 2543321600
I0621 13:53:30.719869 23089 layer_factory.hpp:77] Creating layer bn_e_1_1
I0621 13:53:30.719877 23089 net.cpp:91] Creating Layer bn_e_1_1
I0621 13:53:30.719884 23089 net.cpp:425] bn_e_1_1 <- elt_a_1_elt_a_1_0_split_2
I0621 13:53:30.719894 23089 net.cpp:399] bn_e_1_1 -> bn_e_1_1
I0621 13:53:30.720150 23089 net.cpp:141] Setting up bn_e_1_1
I0621 13:53:30.720163 23089 net.cpp:148] Top shape: 128 64 32 32 (8388608)
I0621 13:53:30.720170 23089 net.cpp:156] Memory required for data: 2576876032
I0621 13:53:30.720180 23089 layer_factory.hpp:77] Creating layer sc_e_1_1
I0621 13:53:30.720191 23089 net.cpp:91] Creating Layer sc_e_1_1
I0621 13:53:30.720196 23089 net.cpp:425] sc_e_1_1 <- bn_e_1_1
I0621 13:53:30.720204 23089 net.cpp:399] sc_e_1_1 -> sc_e_1_1
I0621 13:53:30.720264 23089 layer_factory.hpp:77] Creating layer sc_e_1_1
I0621 13:53:30.720419 23089 net.cpp:141] Setting up sc_e_1_1
I0621 13:53:30.720432 23089 net.cpp:148] Top shape: 128 64 32 32 (8388608)
I0621 13:53:30.720438 23089 net.cpp:156] Memory required for data: 2610430464
I0621 13:53:30.720446 23089 layer_factory.hpp:77] Creating layer relu_e_1_1
I0621 13:53:30.720458 23089 net.cpp:91] Creating Layer relu_e_1_1
I0621 13:53:30.720465 23089 net.cpp:425] relu_e_1_1 <- sc_e_1_1
I0621 13:53:30.720473 23089 net.cpp:399] relu_e_1_1 -> relu_e_1_1
I0621 13:53:30.720788 23089 net.cpp:141] Setting up relu_e_1_1
I0621 13:53:30.720805 23089 net.cpp:148] Top shape: 128 64 32 32 (8388608)
I0621 13:53:30.720813 23089 net.cpp:156] Memory required for data: 2643984896
I0621 13:53:30.720818 23089 layer_factory.hpp:77] Creating layer conv_e_1_1
I0621 13:53:30.720832 23089 net.cpp:91] Creating Layer conv_e_1_1
I0621 13:53:30.720840 23089 net.cpp:425] conv_e_1_1 <- relu_e_1_1
I0621 13:53:30.720850 23089 net.cpp:399] conv_e_1_1 -> conv_e_1_1
I0621 13:53:30.724406 23089 net.cpp:141] Setting up conv_e_1_1
I0621 13:53:30.724422 23089 net.cpp:148] Top shape: 128 128 16 16 (4194304)
I0621 13:53:30.724444 23089 net.cpp:156] Memory required for data: 2660762112
I0621 13:53:30.724453 23089 layer_factory.hpp:77] Creating layer bn_e_1_2
I0621 13:53:30.724467 23089 net.cpp:91] Creating Layer bn_e_1_2
I0621 13:53:30.724474 23089 net.cpp:425] bn_e_1_2 <- conv_e_1_1
I0621 13:53:30.724483 23089 net.cpp:399] bn_e_1_2 -> bn_e_1_2
I0621 13:53:30.724723 23089 net.cpp:141] Setting up bn_e_1_2
I0621 13:53:30.724736 23089 net.cpp:148] Top shape: 128 128 16 16 (4194304)
I0621 13:53:30.724741 23089 net.cpp:156] Memory required for data: 2677539328
I0621 13:53:30.724751 23089 layer_factory.hpp:77] Creating layer sc_e_1_2
I0621 13:53:30.724761 23089 net.cpp:91] Creating Layer sc_e_1_2
I0621 13:53:30.724768 23089 net.cpp:425] sc_e_1_2 <- bn_e_1_2
I0621 13:53:30.724776 23089 net.cpp:399] sc_e_1_2 -> sc_e_1_2
I0621 13:53:30.724825 23089 layer_factory.hpp:77] Creating layer sc_e_1_2
I0621 13:53:30.724956 23089 net.cpp:141] Setting up sc_e_1_2
I0621 13:53:30.724968 23089 net.cpp:148] Top shape: 128 128 16 16 (4194304)
I0621 13:53:30.724974 23089 net.cpp:156] Memory required for data: 2694316544
I0621 13:53:30.724983 23089 layer_factory.hpp:77] Creating layer relu_e_1_2
I0621 13:53:30.724992 23089 net.cpp:91] Creating Layer relu_e_1_2
I0621 13:53:30.724999 23089 net.cpp:425] relu_e_1_2 <- sc_e_1_2
I0621 13:53:30.725009 23089 net.cpp:399] relu_e_1_2 -> relu_e_1_2
I0621 13:53:30.725216 23089 net.cpp:141] Setting up relu_e_1_2
I0621 13:53:30.725230 23089 net.cpp:148] Top shape: 128 128 16 16 (4194304)
I0621 13:53:30.725237 23089 net.cpp:156] Memory required for data: 2711093760
I0621 13:53:30.725242 23089 layer_factory.hpp:77] Creating layer conv_e_1_2
I0621 13:53:30.725258 23089 net.cpp:91] Creating Layer conv_e_1_2
I0621 13:53:30.725280 23089 net.cpp:425] conv_e_1_2 <- relu_e_1_2
I0621 13:53:30.725291 23089 net.cpp:399] conv_e_1_2 -> conv_e_1_2
I0621 13:53:30.730446 23089 net.cpp:141] Setting up conv_e_1_2
I0621 13:53:30.730464 23089 net.cpp:148] Top shape: 128 128 16 16 (4194304)
I0621 13:53:30.730485 23089 net.cpp:156] Memory required for data: 2727870976
I0621 13:53:30.730494 23089 layer_factory.hpp:77] Creating layer res_e
I0621 13:53:30.730509 23089 net.cpp:91] Creating Layer res_e
I0621 13:53:30.730517 23089 net.cpp:425] res_e <- elt_a_1_elt_a_1_0_split_3
I0621 13:53:30.730528 23089 net.cpp:399] res_e -> res_e
I0621 13:53:30.732100 23089 net.cpp:141] Setting up res_e
I0621 13:53:30.732117 23089 net.cpp:148] Top shape: 128 128 16 16 (4194304)
I0621 13:53:30.732138 23089 net.cpp:156] Memory required for data: 2744648192
I0621 13:53:30.732148 23089 layer_factory.hpp:77] Creating layer elt_e_1
I0621 13:53:30.732157 23089 net.cpp:91] Creating Layer elt_e_1
I0621 13:53:30.732166 23089 net.cpp:425] elt_e_1 <- res_e
I0621 13:53:30.732174 23089 net.cpp:425] elt_e_1 <- conv_e_1_2
I0621 13:53:30.732184 23089 net.cpp:399] elt_e_1 -> elt_e_1
I0621 13:53:30.732215 23089 net.cpp:141] Setting up elt_e_1
I0621 13:53:30.732229 23089 net.cpp:148] Top shape: 128 128 16 16 (4194304)
I0621 13:53:30.732235 23089 net.cpp:156] Memory required for data: 2761425408
I0621 13:53:30.732241 23089 layer_factory.hpp:77] Creating layer elt_e_h
I0621 13:53:30.732249 23089 net.cpp:91] Creating Layer elt_e_h
I0621 13:53:30.732254 23089 net.cpp:425] elt_e_h <- elt_e_1
I0621 13:53:30.732259 23089 net.cpp:425] elt_e_h <- elt_h_1
I0621 13:53:30.732282 23089 net.cpp:399] elt_e_h -> elt_e_h
I0621 13:53:30.732319 23089 net.cpp:141] Setting up elt_e_h
I0621 13:53:30.732331 23089 net.cpp:148] Top shape: 128 128 16 16 (4194304)
I0621 13:53:30.732337 23089 net.cpp:156] Memory required for data: 2778202624
I0621 13:53:30.732342 23089 layer_factory.hpp:77] Creating layer elt_e_h_elt_e_h_0_split
I0621 13:53:30.732354 23089 net.cpp:91] Creating Layer elt_e_h_elt_e_h_0_split
I0621 13:53:30.732362 23089 net.cpp:425] elt_e_h_elt_e_h_0_split <- elt_e_h
I0621 13:53:30.732369 23089 net.cpp:399] elt_e_h_elt_e_h_0_split -> elt_e_h_elt_e_h_0_split_0
I0621 13:53:30.732391 23089 net.cpp:399] elt_e_h_elt_e_h_0_split -> elt_e_h_elt_e_h_0_split_1
I0621 13:53:30.732444 23089 net.cpp:141] Setting up elt_e_h_elt_e_h_0_split
I0621 13:53:30.732458 23089 net.cpp:148] Top shape: 128 128 16 16 (4194304)
I0621 13:53:30.732466 23089 net.cpp:148] Top shape: 128 128 16 16 (4194304)
I0621 13:53:30.732471 23089 net.cpp:156] Memory required for data: 2811757056
I0621 13:53:30.732477 23089 layer_factory.hpp:77] Creating layer bn_k_1_1
I0621 13:53:30.732486 23089 net.cpp:91] Creating Layer bn_k_1_1
I0621 13:53:30.732492 23089 net.cpp:425] bn_k_1_1 <- elt_e_h_elt_e_h_0_split_0
I0621 13:53:30.732503 23089 net.cpp:399] bn_k_1_1 -> bn_k_1_1
I0621 13:53:30.732755 23089 net.cpp:141] Setting up bn_k_1_1
I0621 13:53:30.732766 23089 net.cpp:148] Top shape: 128 128 16 16 (4194304)
I0621 13:53:30.732772 23089 net.cpp:156] Memory required for data: 2828534272
I0621 13:53:30.732782 23089 layer_factory.hpp:77] Creating layer sc_k_1_1
I0621 13:53:30.732791 23089 net.cpp:91] Creating Layer sc_k_1_1
I0621 13:53:30.732798 23089 net.cpp:425] sc_k_1_1 <- bn_k_1_1
I0621 13:53:30.732808 23089 net.cpp:399] sc_k_1_1 -> sc_k_1_1
I0621 13:53:30.732853 23089 layer_factory.hpp:77] Creating layer sc_k_1_1
I0621 13:53:30.732991 23089 net.cpp:141] Setting up sc_k_1_1
I0621 13:53:30.733002 23089 net.cpp:148] Top shape: 128 128 16 16 (4194304)
I0621 13:53:30.733008 23089 net.cpp:156] Memory required for data: 2845311488
I0621 13:53:30.733017 23089 layer_factory.hpp:77] Creating layer relu_k_1_1
I0621 13:53:30.733027 23089 net.cpp:91] Creating Layer relu_k_1_1
I0621 13:53:30.733048 23089 net.cpp:425] relu_k_1_1 <- sc_k_1_1
I0621 13:53:30.733055 23089 net.cpp:399] relu_k_1_1 -> relu_k_1_1
I0621 13:53:30.733259 23089 net.cpp:141] Setting up relu_k_1_1
I0621 13:53:30.733276 23089 net.cpp:148] Top shape: 128 128 16 16 (4194304)
I0621 13:53:30.733283 23089 net.cpp:156] Memory required for data: 2862088704
I0621 13:53:30.733304 23089 layer_factory.hpp:77] Creating layer conv_k_1_1
I0621 13:53:30.733330 23089 net.cpp:91] Creating Layer conv_k_1_1
I0621 13:53:30.733337 23089 net.cpp:425] conv_k_1_1 <- relu_k_1_1
I0621 13:53:30.733346 23089 net.cpp:399] conv_k_1_1 -> conv_k_1_1
I0621 13:53:30.743026 23089 net.cpp:141] Setting up conv_k_1_1
I0621 13:53:30.743054 23089 net.cpp:148] Top shape: 128 256 8 8 (2097152)
I0621 13:53:30.743060 23089 net.cpp:156] Memory required for data: 2870477312
I0621 13:53:30.743068 23089 layer_factory.hpp:77] Creating layer bn_k_1_2
I0621 13:53:30.743080 23089 net.cpp:91] Creating Layer bn_k_1_2
I0621 13:53:30.743086 23089 net.cpp:425] bn_k_1_2 <- conv_k_1_1
I0621 13:53:30.743094 23089 net.cpp:399] bn_k_1_2 -> bn_k_1_2
I0621 13:53:30.743340 23089 net.cpp:141] Setting up bn_k_1_2
I0621 13:53:30.743366 23089 net.cpp:148] Top shape: 128 256 8 8 (2097152)
I0621 13:53:30.743371 23089 net.cpp:156] Memory required for data: 2878865920
I0621 13:53:30.743388 23089 layer_factory.hpp:77] Creating layer sc_k_1_2
I0621 13:53:30.743399 23089 net.cpp:91] Creating Layer sc_k_1_2
I0621 13:53:30.743408 23089 net.cpp:425] sc_k_1_2 <- bn_k_1_2
I0621 13:53:30.743419 23089 net.cpp:399] sc_k_1_2 -> sc_k_1_2
I0621 13:53:30.743474 23089 layer_factory.hpp:77] Creating layer sc_k_1_2
I0621 13:53:30.743613 23089 net.cpp:141] Setting up sc_k_1_2
I0621 13:53:30.743624 23089 net.cpp:148] Top shape: 128 256 8 8 (2097152)
I0621 13:53:30.743629 23089 net.cpp:156] Memory required for data: 2887254528
I0621 13:53:30.743638 23089 layer_factory.hpp:77] Creating layer relu_k_1_2
I0621 13:53:30.743648 23089 net.cpp:91] Creating Layer relu_k_1_2
I0621 13:53:30.743655 23089 net.cpp:425] relu_k_1_2 <- sc_k_1_2
I0621 13:53:30.743662 23089 net.cpp:399] relu_k_1_2 -> relu_k_1_2
I0621 13:53:30.744004 23089 net.cpp:141] Setting up relu_k_1_2
I0621 13:53:30.744031 23089 net.cpp:148] Top shape: 128 256 8 8 (2097152)
I0621 13:53:30.744037 23089 net.cpp:156] Memory required for data: 2895643136
I0621 13:53:30.744043 23089 layer_factory.hpp:77] Creating layer conv_k_1_2
I0621 13:53:30.744057 23089 net.cpp:91] Creating Layer conv_k_1_2
I0621 13:53:30.744067 23089 net.cpp:425] conv_k_1_2 <- relu_k_1_2
I0621 13:53:30.744076 23089 net.cpp:399] conv_k_1_2 -> conv_k_1_2
I0621 13:53:30.761673 23089 net.cpp:141] Setting up conv_k_1_2
I0621 13:53:30.761689 23089 net.cpp:148] Top shape: 128 256 8 8 (2097152)
I0621 13:53:30.761695 23089 net.cpp:156] Memory required for data: 2904031744
I0621 13:53:30.761703 23089 layer_factory.hpp:77] Creating layer res_k
I0621 13:53:30.761735 23089 net.cpp:91] Creating Layer res_k
I0621 13:53:30.761742 23089 net.cpp:425] res_k <- elt_e_h_elt_e_h_0_split_1
I0621 13:53:30.761751 23089 net.cpp:399] res_k -> res_k
I0621 13:53:30.763736 23089 net.cpp:141] Setting up res_k
I0621 13:53:30.763751 23089 net.cpp:148] Top shape: 128 256 8 8 (2097152)
I0621 13:53:30.763757 23089 net.cpp:156] Memory required for data: 2912420352
I0621 13:53:30.763766 23089 layer_factory.hpp:77] Creating layer elt_k_1
I0621 13:53:30.763777 23089 net.cpp:91] Creating Layer elt_k_1
I0621 13:53:30.763795 23089 net.cpp:425] elt_k_1 <- res_k
I0621 13:53:30.763803 23089 net.cpp:425] elt_k_1 <- conv_k_1_2
I0621 13:53:30.763810 23089 net.cpp:399] elt_k_1 -> elt_k_1
I0621 13:53:30.763845 23089 net.cpp:141] Setting up elt_k_1
I0621 13:53:30.763857 23089 net.cpp:148] Top shape: 128 256 8 8 (2097152)
I0621 13:53:30.763862 23089 net.cpp:156] Memory required for data: 2920808960
I0621 13:53:30.763867 23089 layer_factory.hpp:77] Creating layer bn_l_1_1
I0621 13:53:30.763878 23089 net.cpp:91] Creating Layer bn_l_1_1
I0621 13:53:30.763885 23089 net.cpp:425] bn_l_1_1 <- elt_g_i_elt_g_i_0_split_0
I0621 13:53:30.763892 23089 net.cpp:399] bn_l_1_1 -> bn_l_1_1
I0621 13:53:30.764122 23089 net.cpp:141] Setting up bn_l_1_1
I0621 13:53:30.764133 23089 net.cpp:148] Top shape: 128 128 16 16 (4194304)
I0621 13:53:30.764142 23089 net.cpp:156] Memory required for data: 2937586176
I0621 13:53:30.764152 23089 layer_factory.hpp:77] Creating layer sc_l_1_1
I0621 13:53:30.764197 23089 net.cpp:91] Creating Layer sc_l_1_1
I0621 13:53:30.764206 23089 net.cpp:425] sc_l_1_1 <- bn_l_1_1
I0621 13:53:30.764214 23089 net.cpp:399] sc_l_1_1 -> sc_l_1_1
I0621 13:53:30.764283 23089 layer_factory.hpp:77] Creating layer sc_l_1_1
I0621 13:53:30.764422 23089 net.cpp:141] Setting up sc_l_1_1
I0621 13:53:30.764434 23089 net.cpp:148] Top shape: 128 128 16 16 (4194304)
I0621 13:53:30.764439 23089 net.cpp:156] Memory required for data: 2954363392
I0621 13:53:30.764448 23089 layer_factory.hpp:77] Creating layer relu_l_1_1
I0621 13:53:30.764459 23089 net.cpp:91] Creating Layer relu_l_1_1
I0621 13:53:30.764467 23089 net.cpp:425] relu_l_1_1 <- sc_l_1_1
I0621 13:53:30.764474 23089 net.cpp:399] relu_l_1_1 -> relu_l_1_1
I0621 13:53:30.764804 23089 net.cpp:141] Setting up relu_l_1_1
I0621 13:53:30.764819 23089 net.cpp:148] Top shape: 128 128 16 16 (4194304)
I0621 13:53:30.764827 23089 net.cpp:156] Memory required for data: 2971140608
I0621 13:53:30.764832 23089 layer_factory.hpp:77] Creating layer conv_l_1_1
I0621 13:53:30.764847 23089 net.cpp:91] Creating Layer conv_l_1_1
I0621 13:53:30.764854 23089 net.cpp:425] conv_l_1_1 <- relu_l_1_1
I0621 13:53:30.764866 23089 net.cpp:399] conv_l_1_1 -> conv_l_1_1
I0621 13:53:30.774884 23089 net.cpp:141] Setting up conv_l_1_1
I0621 13:53:30.774901 23089 net.cpp:148] Top shape: 128 256 8 8 (2097152)
I0621 13:53:30.774924 23089 net.cpp:156] Memory required for data: 2979529216
I0621 13:53:30.774935 23089 layer_factory.hpp:77] Creating layer bn_l_1_2
I0621 13:53:30.774948 23089 net.cpp:91] Creating Layer bn_l_1_2
I0621 13:53:30.774956 23089 net.cpp:425] bn_l_1_2 <- conv_l_1_1
I0621 13:53:30.774966 23089 net.cpp:399] bn_l_1_2 -> bn_l_1_2
I0621 13:53:30.775213 23089 net.cpp:141] Setting up bn_l_1_2
I0621 13:53:30.775225 23089 net.cpp:148] Top shape: 128 256 8 8 (2097152)
I0621 13:53:30.775230 23089 net.cpp:156] Memory required for data: 2987917824
I0621 13:53:30.775241 23089 layer_factory.hpp:77] Creating layer sc_l_1_2
I0621 13:53:30.775250 23089 net.cpp:91] Creating Layer sc_l_1_2
I0621 13:53:30.775257 23089 net.cpp:425] sc_l_1_2 <- bn_l_1_2
I0621 13:53:30.775265 23089 net.cpp:399] sc_l_1_2 -> sc_l_1_2
I0621 13:53:30.775321 23089 layer_factory.hpp:77] Creating layer sc_l_1_2
I0621 13:53:30.775465 23089 net.cpp:141] Setting up sc_l_1_2
I0621 13:53:30.775477 23089 net.cpp:148] Top shape: 128 256 8 8 (2097152)
I0621 13:53:30.775482 23089 net.cpp:156] Memory required for data: 2996306432
I0621 13:53:30.775490 23089 layer_factory.hpp:77] Creating layer relu_l_1_2
I0621 13:53:30.775514 23089 net.cpp:91] Creating Layer relu_l_1_2
I0621 13:53:30.775522 23089 net.cpp:425] relu_l_1_2 <- sc_l_1_2
I0621 13:53:30.775530 23089 net.cpp:399] relu_l_1_2 -> relu_l_1_2
I0621 13:53:30.775737 23089 net.cpp:141] Setting up relu_l_1_2
I0621 13:53:30.775750 23089 net.cpp:148] Top shape: 128 256 8 8 (2097152)
I0621 13:53:30.775756 23089 net.cpp:156] Memory required for data: 3004695040
I0621 13:53:30.775763 23089 layer_factory.hpp:77] Creating layer conv_l_1_2
I0621 13:53:30.775779 23089 net.cpp:91] Creating Layer conv_l_1_2
I0621 13:53:30.775786 23089 net.cpp:425] conv_l_1_2 <- relu_l_1_2
I0621 13:53:30.775795 23089 net.cpp:399] conv_l_1_2 -> conv_l_1_2
I0621 13:53:30.794551 23089 net.cpp:141] Setting up conv_l_1_2
I0621 13:53:30.794584 23089 net.cpp:148] Top shape: 128 256 8 8 (2097152)
I0621 13:53:30.794590 23089 net.cpp:156] Memory required for data: 3013083648
I0621 13:53:30.794600 23089 layer_factory.hpp:77] Creating layer res_l
I0621 13:53:30.794613 23089 net.cpp:91] Creating Layer res_l
I0621 13:53:30.794620 23089 net.cpp:425] res_l <- elt_g_i_elt_g_i_0_split_1
I0621 13:53:30.794628 23089 net.cpp:399] res_l -> res_l
I0621 13:53:30.796690 23089 net.cpp:141] Setting up res_l
I0621 13:53:30.796706 23089 net.cpp:148] Top shape: 128 256 8 8 (2097152)
I0621 13:53:30.796711 23089 net.cpp:156] Memory required for data: 3021472256
I0621 13:53:30.796720 23089 layer_factory.hpp:77] Creating layer elt_l_1
I0621 13:53:30.796728 23089 net.cpp:91] Creating Layer elt_l_1
I0621 13:53:30.796762 23089 net.cpp:425] elt_l_1 <- res_l
I0621 13:53:30.796782 23089 net.cpp:425] elt_l_1 <- conv_l_1_2
I0621 13:53:30.796790 23089 net.cpp:399] elt_l_1 -> elt_l_1
I0621 13:53:30.796844 23089 net.cpp:141] Setting up elt_l_1
I0621 13:53:30.796856 23089 net.cpp:148] Top shape: 128 256 8 8 (2097152)
I0621 13:53:30.796861 23089 net.cpp:156] Memory required for data: 3029860864
I0621 13:53:30.796867 23089 layer_factory.hpp:77] Creating layer concat_j_k_l
I0621 13:53:30.796881 23089 net.cpp:91] Creating Layer concat_j_k_l
I0621 13:53:30.796888 23089 net.cpp:425] concat_j_k_l <- elt_j_1
I0621 13:53:30.796895 23089 net.cpp:425] concat_j_k_l <- elt_k_1
I0621 13:53:30.796900 23089 net.cpp:425] concat_j_k_l <- elt_l_1
I0621 13:53:30.796911 23089 net.cpp:399] concat_j_k_l -> elt_j_k_l
I0621 13:53:30.796950 23089 net.cpp:141] Setting up concat_j_k_l
I0621 13:53:30.796965 23089 net.cpp:148] Top shape: 128 768 8 8 (6291456)
I0621 13:53:30.796972 23089 net.cpp:156] Memory required for data: 3055026688
I0621 13:53:30.796977 23089 layer_factory.hpp:77] Creating layer bn_m_1_1
I0621 13:53:30.796986 23089 net.cpp:91] Creating Layer bn_m_1_1
I0621 13:53:30.796995 23089 net.cpp:425] bn_m_1_1 <- elt_j_k_l
I0621 13:53:30.797005 23089 net.cpp:399] bn_m_1_1 -> bn_m_1_1
I0621 13:53:30.797262 23089 net.cpp:141] Setting up bn_m_1_1
I0621 13:53:30.797276 23089 net.cpp:148] Top shape: 128 768 8 8 (6291456)
I0621 13:53:30.797281 23089 net.cpp:156] Memory required for data: 3080192512
I0621 13:53:30.797305 23089 layer_factory.hpp:77] Creating layer sc_m_1_1
I0621 13:53:30.797317 23089 net.cpp:91] Creating Layer sc_m_1_1
I0621 13:53:30.797322 23089 net.cpp:425] sc_m_1_1 <- bn_m_1_1
I0621 13:53:30.797329 23089 net.cpp:399] sc_m_1_1 -> sc_m_1_1
I0621 13:53:30.797389 23089 layer_factory.hpp:77] Creating layer sc_m_1_1
I0621 13:53:30.797539 23089 net.cpp:141] Setting up sc_m_1_1
I0621 13:53:30.797552 23089 net.cpp:148] Top shape: 128 768 8 8 (6291456)
I0621 13:53:30.797557 23089 net.cpp:156] Memory required for data: 3105358336
I0621 13:53:30.797565 23089 layer_factory.hpp:77] Creating layer relu_m_1_1
I0621 13:53:30.797574 23089 net.cpp:91] Creating Layer relu_m_1_1
I0621 13:53:30.797581 23089 net.cpp:425] relu_m_1_1 <- sc_m_1_1
I0621 13:53:30.797590 23089 net.cpp:399] relu_m_1_1 -> relu_m_1_1
I0621 13:53:30.797806 23089 net.cpp:141] Setting up relu_m_1_1
I0621 13:53:30.797821 23089 net.cpp:148] Top shape: 128 768 8 8 (6291456)
I0621 13:53:30.797826 23089 net.cpp:156] Memory required for data: 3130524160
I0621 13:53:30.797832 23089 layer_factory.hpp:77] Creating layer gap
I0621 13:53:30.797840 23089 net.cpp:91] Creating Layer gap
I0621 13:53:30.797847 23089 net.cpp:425] gap <- relu_m_1_1
I0621 13:53:30.797857 23089 net.cpp:399] gap -> gap
I0621 13:53:30.798213 23089 net.cpp:141] Setting up gap
I0621 13:53:30.798228 23089 net.cpp:148] Top shape: 128 768 1 1 (98304)
I0621 13:53:30.798234 23089 net.cpp:156] Memory required for data: 3130917376
I0621 13:53:30.798252 23089 layer_factory.hpp:77] Creating layer ip1
I0621 13:53:30.798265 23089 net.cpp:91] Creating Layer ip1
I0621 13:53:30.798272 23089 net.cpp:425] ip1 <- gap
I0621 13:53:30.798280 23089 net.cpp:399] ip1 -> ip1
I0621 13:53:30.798652 23089 net.cpp:141] Setting up ip1
I0621 13:53:30.798665 23089 net.cpp:148] Top shape: 128 10 (1280)
I0621 13:53:30.798669 23089 net.cpp:156] Memory required for data: 3130922496
I0621 13:53:30.798677 23089 layer_factory.hpp:77] Creating layer loss
I0621 13:53:30.798707 23089 net.cpp:91] Creating Layer loss
I0621 13:53:30.798714 23089 net.cpp:425] loss <- ip1
I0621 13:53:30.798720 23089 net.cpp:425] loss <- label
I0621 13:53:30.798732 23089 net.cpp:399] loss -> loss
I0621 13:53:30.798749 23089 layer_factory.hpp:77] Creating layer loss
…
I0621 13:53:30.803475 23089 net.cpp:313] The NetState phase (1) differed from the phase (0) specified by a rule in layer resnet
I0621 13:53:30.804375 23089 net.cpp:49] Initializing net from parameters: 
name: "ResNet"
state {
  phase: TEST
}
layer {
  name: "resnet"
  type: "Data"
  top: "data"
  top: "label"
  include {
    phase: TEST
  }
  transform_param {
    mean_file: "/home/takeki/caffe/examples/cifar10/mean.binaryproto"
  }
  data_param {
    source: "/home/takeki/caffe/examples/cifar10/cifar10_test_lmdb"
    batch_size: 100
    backend: LMDB
  }
}
layer {
  name: "conv0"
  type: "Convolution"
  bottom: "data"
  top: "conv0"
  param {
    lr_mult: 1
  }
  param {
    lr_mult: 2
  }
  convolution_param {
    num_output: 16
    pad: 1
    kernel_size: 3
    stride: 1
    weight_filler {
      type: "msra"
    }
    bias_filler {
      type: "constant"
    }
  }
}
layer {
  name: "bn_a_1_1"
  type: "BatchNorm"
  bottom: "conv0"
  top: "bn_a_1_1"
  param {
    lr_mult: 0
  }
  param {
    lr_mult: 0
  }
  param {
    lr_mult: 0
  }
  batch_norm_param {
    use_global_stats: false
  }
}
layer {
  name: "sc_a_1_1"
  type: "Scale"
  bottom: "bn_a_1_1"
  top: "sc_a_1_1"
  scale_param {
    bias_term: true
  }
}
layer {
  name: "relu_a_1_1"
  type: "ReLU"
  bottom: "sc_a_1_1"
  top: "relu_a_1_1"
}
layer {
  name: "conv_a_1_1"
  type: "Convolution"
  bottom: "relu_a_1_1"
  top: "conv_a_1_1"
  param {
    lr_mult: 1
    decay_mult: 1
  }
  param {
    lr_mult: 2
    decay_mult: 1
  }
  convolution_param {
    num_output: 64
    pad: 1
    kernel_size: 3
    stride: 1
    weight_filler {
      type: "msra"
    }
    bias_filler {
      type: "constant"
    }
  }
}
layer {
  name: "bn_a_1_2"
  type: "BatchNorm"
  bottom: "conv_a_1_1"
  top: "bn_a_1_2"
  param {
    lr_mult: 0
  }
  param {
    lr_mult: 0
  }
  param {
    lr_mult: 0
  }
  batch_norm_param {
    use_global_stats: false
  }
}
layer {
  name: "sc_a_1_2"
  type: "Scale"
  bottom: "bn_a_1_2"
  top: "sc_a_1_2"
  scale_param {
    bias_term: true
  }
}
layer {
  name: "relu_a_1_2"
  type: "ReLU"
  bottom: "sc_a_1_2"
  top: "relu_a_1_2"
}
layer {
  name: "conv_a_1_2"
  type: "Convolution"
  bottom: "relu_a_1_2"
  top: "conv_a_1_2"
  param {
    lr_mult: 1
    decay_mult: 1
  }
  param {
    lr_mult: 2
    decay_mult: 1
  }
  convolution_param {
    num_output: 64
    pad: 1
    kernel_size: 3
    stride: 1
    weight_filler {
      type: "msra"
    }
    bias_filler {
      type: "constant"
    }
  }
}
layer {
  name: "res_a"
  type: "Convolution"
  bottom: "conv0"
  top: "res_a"
  param {
    lr_mult: 1
    decay_mult: 1
  }
  param {
    lr_mult: 2
    decay_mult: 1
  }
  convolution_param {
    num_output: 64
    pad: 0
    kernel_size: 1
    stride: 1
    weight_filler {
      type: "msra"
    }
    bias_filler {
      type: "constant"
    }
  }
}
layer {
  name: "elt_a_1"
  type: "Eltwise"
  bottom: "res_a"
  bottom: "conv_a_1_2"
  top: "elt_a_1"
  eltwise_param {
    operation: SUM
  }
}
layer {
  name: "bn_b_1_1"
  type: "BatchNorm"
  bottom: "conv0"
  top: "bn_b_1_1"
  param {
    lr_mult: 0
  }
  param {
    lr_mult: 0
  }
  param {
    lr_mult: 0
  }
  batch_norm_param {
    use_global_stats: false
  }
}
layer {
  name: "sc_b_1_1"
  type: "Scale"
  bottom: "bn_b_1_1"
  top: "sc_b_1_1"
  scale_param {
    bias_term: true
  }
}
layer {
  name: "relu_b_1_1"
  type: "ReLU"
  bottom: "sc_b_1_1"
  top: "relu_b_1_1"
}
layer {
  name: "conv_b_1_1"
  type: "Convolution"
  bottom: "relu_b_1_1"
  top: "conv_b_1_1"
  param {
    lr_mult: 1
    decay_mult: 1
  }
  param {
    lr_mult: 2
    decay_mult: 1
  }
  convolution_param {
    num_output: 64
    pad: 1
    kernel_size: 3
    stride: 1
    weight_filler {
      type: "msra"
    }
    bias_filler {
      type: "constant"
    }
  }
}
layer {
  name: "bn_b_1_2"
  type: "BatchNorm"
  bottom: "conv_b_1_1"
  top: "bn_b_1_2"
  param {
    lr_mult: 0
  }
  param {
    lr_mult: 0
  }
  param {
    lr_mult: 0
  }
  batch_norm_param {
    use_global_stats: false
  }
}
layer {
  name: "sc_b_1_2"
  type: "Scale"
  bottom: "bn_b_1_2"
  top: "sc_b_1_2"
  scale_param {
    bias_term: true
  }
}
layer {
  name: "relu_b_1_2"
  type: "ReLU"
  bottom: "sc_b_1_2"
  top: "relu_b_1_2"
}
layer {
  name: "conv_b_1_2"
  type: "Convolution"
  bottom: "relu_b_1_2"
  top: "conv_b_1_2"
  param {
    lr_mult: 1
    decay_mult: 1
  }
  param {
    lr_mult: 2
    decay_mult: 1
  }
  convolution_param {
    num_output: 64
    pad: 1
    kernel_size: 3
    stride: 1
    weight_filler {
      type: "msra"
    }
    bias_filler {
      type: "constant"
    }
  }
}
layer {
  name: "res_b"
  type: "Convolution"
  bottom: "conv0"
  top: "res_b"
  param {
    lr_mult: 1
    decay_mult: 1
  }
  param {
    lr_mult: 2
    decay_mult: 1
  }
  convolution_param {
    num_output: 64
    pad: 0
    kernel_size: 1
    stride: 1
    weight_filler {
      type: "msra"
    }
    bias_filler {
      type: "constant"
    }
  }
}
layer {
  name: "elt_b_1"
  type: "Eltwise"
  bottom: "res_b"
  bottom: "conv_b_1_2"
  top: "elt_b_1"
  eltwise_param {
    operation: SUM
  }
}
layer {
  name: "bn_c_1_1"
  type: "BatchNorm"
  bottom: "conv0"
  top: "bn_c_1_1"
  param {
    lr_mult: 0
  }
  param {
    lr_mult: 0
  }
  param {
    lr_mult: 0
  }
  batch_norm_param {
    use_global_stats: false
  }
}
layer {
  name: "sc_c_1_1"
  type: "Scale"
  bottom: "bn_c_1_1"
  top: "sc_c_1_1"
  scale_param {
    bias_term: true
  }
}
layer {
  name: "relu_c_1_1"
  type: "ReLU"
  bottom: "sc_c_1_1"
  top: "relu_c_1_1"
}
layer {
  name: "conv_c_1_1"
  type: "Convolution"
  bottom: "relu_c_1_1"
  top: "conv_c_1_1"
  param {
    lr_mult: 1
    decay_mult: 1
  }
  param {
    lr_mult: 2
    decay_mult: 1
  }
  convolution_param {
    num_output: 64
    pad: 1
    kernel_size: 3
    stride: 1
    weight_filler {
      type: "msra"
    }
    bias_filler {
      type: "constant"
    }
  }
}
layer {
  name: "bn_c_1_2"
  type: "BatchNorm"
  bottom: "conv_c_1_1"
  top: "bn_c_1_2"
  param {
    lr_mult: 0
  }
  param {
    lr_mult: 0
  }
  param {
    lr_mult: 0
  }
  batch_norm_param {
    use_global_stats: false
  }
}
layer {
  name: "sc_c_1_2"
  type: "Scale"
  bottom: "bn_c_1_2"
  top: "sc_c_1_2"
  scale_param {
    bias_term: true
  }
}
layer {
  name: "relu_c_1_2"
  type: "ReLU"
  bottom: "sc_c_1_2"
  top: "relu_c_1_2"
}
layer {
  name: "conv_c_1_2"
  type: "Convolution"
  bottom: "relu_c_1_2"
  top: "conv_c_1_2"
  param {
    lr_mult: 1
    decay_mult: 1
  }
  param {
    lr_mult: 2
    decay_mult: 1
  }
  convolution_param {
    num_output: 64
    pad: 1
    kernel_size: 3
    stride: 1
    weight_filler {
      type: "msra"
    }
    bias_filler {
      type: "constant"
    }
  }
}
layer {
  name: "res_c"
  type: "Convolution"
  bottom: "conv0"
  top: "res_c"
  param {
    lr_mult: 1
    decay_mult: 1
  }
  param {
    lr_mult: 2
    decay_mult: 1
  }
  convolution_param {
    num_output: 64
    pad: 0
    kernel_size: 1
    stride: 1
    weight_filler {
      type: "msra"
    }
    bias_filler {
      type: "constant"
    }
  }
}
layer {
  name: "elt_c_1"
  type: "Eltwise"
  bottom: "res_c"
  bottom: "conv_c_1_2"
  top: "elt_c_1"
  eltwise_param {
    operation: SUM
  }
}
layer {
  name: "bn_d_1_1"
  type: "BatchNorm"
  bottom: "elt_a_1"
  top: "bn_d_1_1"
  param {
    lr_mult: 0
  }
  param {
    lr_mult: 0
  }
  param {
    lr_mult: 0
  }
  batch_norm_param {
    use_global_stats: false
  }
}
layer {
  name: "sc_d_1_1"
  type: "Scale"
  bottom: "bn_d_1_1"
  top: "sc_d_1_1"
  scale_param {
    bias_term: true
  }
}
layer {
  name: "relu_d_1_1"
  type: "ReLU"
  bottom: "sc_d_1_1"
  top: "relu_d_1_1"
}
layer {
  name: "conv_d_1_1"
  type: "Convolution"
  bottom: "relu_d_1_1"
  top: "conv_d_1_1"
  param {
    lr_mult: 1
    decay_mult: 1
  }
  param {
    lr_mult: 2
    decay_mult: 1
  }
  convolution_param {
    num_output: 128
    pad: 1
    kernel_size: 3
    stride: 2
    weight_filler {
      type: "msra"
    }
    bias_filler {
      type: "constant"
    }
  }
}
layer {
  name: "bn_d_1_2"
  type: "BatchNorm"
  bottom: "conv_d_1_1"
  top: "bn_d_1_2"
  param {
    lr_mult: 0
  }
  param {
    lr_mult: 0
  }
  param {
    lr_mult: 0
  }
  batch_norm_param {
    use_global_stats: false
  }
}
layer {
  name: "sc_d_1_2"
  type: "Scale"
  bottom: "bn_d_1_2"
  top: "sc_d_1_2"
  scale_param {
    bias_term: true
  }
}
layer {
  name: "relu_d_1_2"
  type: "ReLU"
  bottom: "sc_d_1_2"
  top: "relu_d_1_2"
}
layer {
  name: "conv_d_1_2"
  type: "Convolution"
  bottom: "relu_d_1_2"
  top: "conv_d_1_2"
  param {
    lr_mult: 1
    decay_mult: 1
  }
  param {
    lr_mult: 2
    decay_mult: 1
  }
  convolution_param {
    num_output: 128
    pad: 1
    kernel_size: 3
    stride: 1
    weight_filler {
      type: "msra"
    }
    bias_filler {
      type: "constant"
    }
  }
}
layer {
  name: "res_d"
  type: "Convolution"
  bottom: "elt_a_1"
  top: "res_d"
  param {
    lr_mult: 1
    decay_mult: 1
  }
  param {
    lr_mult: 2
    decay_mult: 1
  }
  convolution_param {
    num_output: 128
    pad: 0
    kernel_size: 1
    stride: 2
    weight_filler {
      type: "msra"
    }
    bias_filler {
      type: "constant"
    }
  }
}
layer {
  name: "elt_d_1"
  type: "Eltwise"
  bottom: "res_d"
  bottom: "conv_d_1_2"
  top: "elt_d_1"
  eltwise_param {
    operation: SUM
  }
}
layer {
  name: "bn_f_1_1"
  type: "BatchNorm"
  bottom: "elt_b_1"
  top: "bn_f_1_1"
  param {
    lr_mult: 0
  }
  param {
    lr_mult: 0
  }
  param {
    lr_mult: 0
  }
  batch_norm_param {
    use_global_stats: false
  }
}
layer {
  name: "sc_f_1_1"
  type: "Scale"
  bottom: "bn_f_1_1"
  top: "sc_f_1_1"
  scale_param {
    bias_term: true
  }
}
layer {
  name: "relu_f_1_1"
  type: "ReLU"
  bottom: "sc_f_1_1"
  top: "relu_f_1_1"
}
layer {
  name: "conv_f_1_1"
  type: "Convolution"
  bottom: "relu_f_1_1"
  top: "conv_f_1_1"
  param {
    lr_mult: 1
    decay_mult: 1
  }
  param {
    lr_mult: 2
    decay_mult: 1
  }
  convolution_param {
    num_output: 128
    pad: 1
    kernel_size: 3
    stride: 2
    weight_filler {
      type: "msra"
    }
    bias_filler {
      type: "constant"
    }
  }
}
layer {
  name: "bn_f_1_2"
  type: "BatchNorm"
  bottom: "conv_f_1_1"
  top: "bn_f_1_2"
  param {
    lr_mult: 0
  }
  param {
    lr_mult: 0
  }
  param {
    lr_mult: 0
  }
  batch_norm_param {
    use_global_stats: false
  }
}
layer {
  name: "sc_f_1_2"
  type: "Scale"
  bottom: "bn_f_1_2"
  top: "sc_f_1_2"
  scale_param {
    bias_term: true
  }
}
layer {
  name: "relu_f_1_2"
  type: "ReLU"
  bottom: "sc_f_1_2"
  top: "relu_f_1_2"
}
layer {
  name: "conv_f_1_2"
  type: "Convolution"
  bottom: "relu_f_1_2"
  top: "conv_f_1_2"
  param {
    lr_mult: 1
    decay_mult: 1
  }
  param {
    lr_mult: 2
    decay_mult: 1
  }
  convolution_param {
    num_output: 128
    pad: 1
    kernel_size: 3
    stride: 1
    weight_filler {
      type: "msra"
    }
    bias_filler {
      type: "constant"
    }
  }
}
layer {
  name: "res_f"
  type: "Convolution"
  bottom: "elt_b_1"
  top: "res_f"
  param {
    lr_mult: 1
    decay_mult: 1
  }
  param {
    lr_mult: 2
    decay_mult: 1
  }
  convolution_param {
    num_output: 128
    pad: 0
    kernel_size: 1
    stride: 2
    weight_filler {
      type: "msra"
    }
    bias_filler {
      type: "constant"
    }
  }
}
layer {
  name: "elt_f_1"
  type: "Eltwise"
  bottom: "res_f"
  bottom: "conv_f_1_2"
  top: "elt_f_1"
  eltwise_param {
    operation: SUM
  }
}
layer {
  name: "bn_g_1_1"
  type: "BatchNorm"
  bottom: "elt_b_1"
  top: "bn_g_1_1"
  param {
    lr_mult: 0
  }
  param {
    lr_mult: 0
  }
  param {
    lr_mult: 0
  }
  batch_norm_param {
    use_global_stats: false
  }
}
layer {
  name: "sc_g_1_1"
  type: "Scale"
  bottom: "bn_g_1_1"
  top: "sc_g_1_1"
  scale_param {
    bias_term: true
  }
}
layer {
  name: "relu_g_1_1"
  type: "ReLU"
  bottom: "sc_g_1_1"
  top: "relu_g_1_1"
}
layer {
  name: "conv_g_1_1"
  type: "Convolution"
  bottom: "relu_g_1_1"
  top: "conv_g_1_1"
  param {
    lr_mult: 1
    decay_mult: 1
  }
  param {
    lr_mult: 2
    decay_mult: 1
  }
  convolution_param {
    num_output: 128
    pad: 1
    kernel_size: 3
    stride: 2
    weight_filler {
      type: "msra"
    }
    bias_filler {
      type: "constant"
    }
  }
}
layer {
  name: "bn_g_1_2"
  type: "BatchNorm"
  bottom: "conv_g_1_1"
  top: "bn_g_1_2"
  param {
    lr_mult: 0
  }
  param {
    lr_mult: 0
  }
  param {
    lr_mult: 0
  }
  batch_norm_param {
    use_global_stats: false
  }
}
layer {
  name: "sc_g_1_2"
  type: "Scale"
  bottom: "bn_g_1_2"
  top: "sc_g_1_2"
  scale_param {
    bias_term: true
  }
}
layer {
  name: "relu_g_1_2"
  type: "ReLU"
  bottom: "sc_g_1_2"
  top: "relu_g_1_2"
}
layer {
  name: "conv_g_1_2"
  type: "Convolution"
  bottom: "relu_g_1_2"
  top: "conv_g_1_2"
  param {
    lr_mult: 1
    decay_mult: 1
  }
  param {
    lr_mult: 2
    decay_mult: 1
  }
  convolution_param {
    num_output: 128
    pad: 1
    kernel_size: 3
    stride: 1
    weight_filler {
      type: "msra"
    }
    bias_filler {
      type: "constant"
    }
  }
}
layer {
  name: "res_g"
  type: "Convolution"
  bottom: "elt_b_1"
  top: "res_g"
  param {
    lr_mult: 1
    decay_mult: 1
  }
  param {
    lr_mult: 2
    decay_mult: 1
  }
  convolution_param {
    num_output: 128
    pad: 0
    kernel_size: 1
    stride: 2
    weight_filler {
      type: "msra"
    }
    bias_filler {
      type: "constant"
    }
  }
}
layer {
  name: "elt_g_1"
  type: "Eltwise"
  bottom: "res_g"
  bottom: "conv_g_1_2"
  top: "elt_g_1"
  eltwise_param {
    operation: SUM
  }
}
layer {
  name: "bn_h_1_1"
  type: "BatchNorm"
  bottom: "elt_c_1"
  top: "bn_h_1_1"
  param {
    lr_mult: 0
  }
  param {
    lr_mult: 0
  }
  param {
    lr_mult: 0
  }
  batch_norm_param {
    use_global_stats: false
  }
}
layer {
  name: "sc_h_1_1"
  type: "Scale"
  bottom: "bn_h_1_1"
  top: "sc_h_1_1"
  scale_param {
    bias_term: true
  }
}
layer {
  name: "relu_h_1_1"
  type: "ReLU"
  bottom: "sc_h_1_1"
  top: "relu_h_1_1"
}
layer {
  name: "conv_h_1_1"
  type: "Convolution"
  bottom: "relu_h_1_1"
  top: "conv_h_1_1"
  param {
    lr_mult: 1
    decay_mult: 1
  }
  param {
    lr_mult: 2
    decay_mult: 1
  }
  convolution_param {
    num_output: 128
    pad: 1
    kernel_size: 3
    stride: 2
    weight_filler {
      type: "msra"
    }
    bias_filler {
      type: "constant"
    }
  }
}
layer {
  name: "bn_h_1_2"
  type: "BatchNorm"
  bottom: "conv_h_1_1"
  top: "bn_h_1_2"
  param {
    lr_mult: 0
  }
  param {
    lr_mult: 0
  }
  param {
    lr_mult: 0
  }
  batch_norm_param {
    use_global_stats: false
  }
}
layer {
  name: "sc_h_1_2"
  type: "Scale"
  bottom: "bn_h_1_2"
  top: "sc_h_1_2"
  scale_param {
    bias_term: true
  }
}
layer {
  name: "relu_h_1_2"
  type: "ReLU"
  bottom: "sc_h_1_2"
  top: "relu_h_1_2"
}
layer {
  name: "conv_h_1_2"
  type: "Convolution"
  bottom: "relu_h_1_2"
  top: "conv_h_1_2"
  param {
    lr_mult: 1
    decay_mult: 1
  }
  param {
    lr_mult: 2
    decay_mult: 1
  }
  convolution_param {
    num_output: 128
    pad: 1
    kernel_size: 3
    stride: 1
    weight_filler {
      type: "msra"
    }
    bias_filler {
      type: "constant"
    }
  }
}
layer {
  name: "res_h"
  type: "Convolution"
  bottom: "elt_c_1"
  top: "res_h"
  param {
    lr_mult: 1
    decay_mult: 1
  }
  param {
    lr_mult: 2
    decay_mult: 1
  }
  convolution_param {
    num_output: 128
    pad: 0
    kernel_size: 1
    stride: 2
    weight_filler {
      type: "msra"
    }
    bias_filler {
      type: "constant"
    }
  }
}
layer {
  name: "elt_h_1"
  type: "Eltwise"
  bottom: "res_h"
  bottom: "conv_h_1_2"
  top: "elt_h_1"
  eltwise_param {
    operation: SUM
  }
}
layer {
  name: "bn_i_1_1"
  type: "BatchNorm"
  bottom: "elt_c_1"
  top: "bn_i_1_1"
  param {
    lr_mult: 0
  }
  param {
    lr_mult: 0
  }
  param {
    lr_mult: 0
  }
  batch_norm_param {
    use_global_stats: false
  }
}
layer {
  name: "sc_i_1_1"
  type: "Scale"
  bottom: "bn_i_1_1"
  top: "sc_i_1_1"
  scale_param {
    bias_term: true
  }
}
layer {
  name: "relu_i_1_1"
  type: "ReLU"
  bottom: "sc_i_1_1"
  top: "relu_i_1_1"
}
layer {
  name: "conv_i_1_1"
  type: "Convolution"
  bottom: "relu_i_1_1"
  top: "conv_i_1_1"
  param {
    lr_mult: 1
    decay_mult: 1
  }
  param {
    lr_mult: 2
    decay_mult: 1
  }
  convolution_param {
    num_output: 128
    pad: 1
    kernel_size: 3
    stride: 2
    weight_filler {
      type: "msra"
    }
    bias_filler {
      type: "constant"
    }
  }
}
layer {
  name: "bn_i_1_2"
  type: "BatchNorm"
  bottom: "conv_i_1_1"
  top: "bn_i_1_2"
  param {
    lr_mult: 0
  }
  param {
    lr_mult: 0
  }
  param {
    lr_mult: 0
  }
  batch_norm_param {
    use_global_stats: false
  }
}
layer {
  name: "sc_i_1_2"
  type: "Scale"
  bottom: "bn_i_1_2"
  top: "sc_i_1_2"
  scale_param {
    bias_term: true
  }
}
layer {
  name: "relu_i_1_2"
  type: "ReLU"
  bottom: "sc_i_1_2"
  top: "relu_i_1_2"
}
layer {
  name: "conv_i_1_2"
  type: "Convolution"
  bottom: "relu_i_1_2"
  top: "conv_i_1_2"
  param {
    lr_mult: 1
    decay_mult: 1
  }
  param {
    lr_mult: 2
    decay_mult: 1
  }
  convolution_param {
    num_output: 128
    pad: 1
    kernel_size: 3
    stride: 1
    weight_filler {
      type: "msra"
    }
    bias_filler {
      type: "constant"
    }
  }
}
layer {
  name: "res_i"
  type: "Convolution"
  bottom: "elt_c_1"
  top: "res_i"
  param {
    lr_mult: 1
    decay_mult: 1
  }
  param {
    lr_mult: 2
    decay_mult: 1
  }
  convolution_param {
    num_output: 128
    pad: 0
    kernel_size: 1
    stride: 2
    weight_filler {
      type: "msra"
    }
    bias_filler {
      type: "constant"
    }
  }
}
layer {
  name: "elt_i_1"
  type: "Eltwise"
  bottom: "res_i"
  bottom: "conv_i_1_2"
  top: "elt_i_1"
  eltwise_param {
    operation: SUM
  }
}
layer {
  name: "elt_d_f"
  type: "Eltwise"
  bottom: "elt_d_1"
  bottom: "elt_f_1"
  top: "elt_d_f"
  eltwise_param {
    operation: SUM
  }
}
layer {
  name: "elt_g_i"
  type: "Eltwise"
  bottom: "elt_g_1"
  bottom: "elt_i_1"
  top: "elt_g_i"
  eltwise_param {
    operation: SUM
  }
}
layer {
  name: "bn_j_1_1"
  type: "BatchNorm"
  bottom: "elt_d_f"
  top: "bn_j_1_1"
  param {
    lr_mult: 0
  }
  param {
    lr_mult: 0
  }
  param {
    lr_mult: 0
  }
  batch_norm_param {
    use_global_stats: false
  }
}
layer {
  name: "sc_j_1_1"
  type: "Scale"
  bottom: "bn_j_1_1"
  top: "sc_j_1_1"
  scale_param {
    bias_term: true
  }
}
layer {
  name: "relu_j_1_1"
  type: "ReLU"
  bottom: "sc_j_1_1"
  top: "relu_j_1_1"
}
layer {
  name: "conv_j_1_1"
  type: "Convolution"
  bottom: "relu_j_1_1"
  top: "conv_j_1_1"
  param {
    lr_mult: 1
    decay_mult: 1
  }
  param {
    lr_mult: 2
    decay_mult: 1
  }
  convolution_param {
    num_output: 256
    pad: 1
    kernel_size: 3
    stride: 2
    weight_filler {
      type: "msra"
    }
    bias_filler {
      type: "constant"
    }
  }
}
layer {
  name: "bn_j_1_2"
  type: "BatchNorm"
  bottom: "conv_j_1_1"
  top: "bn_j_1_2"
  param {
    lr_mult: 0
  }
  param {
    lr_mult: 0
  }
  param {
    lr_mult: 0
  }
  batch_norm_param {
    use_global_stats: false
  }
}
layer {
  name: "sc_j_1_2"
  type: "Scale"
  bottom: "bn_j_1_2"
  top: "sc_j_1_2"
  scale_param {
    bias_term: true
  }
}
layer {
  name: "relu_j_1_2"
  type: "ReLU"
  bottom: "sc_j_1_2"
  top: "relu_j_1_2"
}
layer {
  name: "conv_j_1_2"
  type: "Convolution"
  bottom: "relu_j_1_2"
  top: "conv_j_1_2"
  param {
    lr_mult: 1
    decay_mult: 1
  }
  param {
    lr_mult: 2
    decay_mult: 1
  }
  convolution_param {
    num_output: 256
    pad: 1
    kernel_size: 3
    stride: 1
    weight_filler {
      type: "msra"
    }
    bias_filler {
      type: "constant"
    }
  }
}
layer {
  name: "res_j"
  type: "Convolution"
  bottom: "elt_d_f"
  top: "res_j"
  param {
    lr_mult: 1
    decay_mult: 1
  }
  param {
    lr_mult: 2
    decay_mult: 1
  }
  convolution_param {
    num_output: 256
    pad: 0
    kernel_size: 1
    stride: 2
    weight_filler {
      type: "msra"
    }
    bias_filler {
      type: "constant"
    }
  }
}
layer {
  name: "elt_j_1"
  type: "Eltwise"
  bottom: "res_j"
  bottom: "conv_j_1_2"
  top: "elt_j_1"
  eltwise_param {
    operation: SUM
  }
}
layer {
  name: "bn_e_1_1"
  type: "BatchNorm"
  bottom: "elt_a_1"
  top: "bn_e_1_1"
  param {
    lr_mult: 0
  }
  param {
    lr_mult: 0
  }
  param {
    lr_mult: 0
  }
  batch_norm_param {
    use_global_stats: false
  }
}
layer {
  name: "sc_e_1_1"
  type: "Scale"
  bottom: "bn_e_1_1"
  top: "sc_e_1_1"
  scale_param {
    bias_term: true
  }
}
layer {
  name: "relu_e_1_1"
  type: "ReLU"
  bottom: "sc_e_1_1"
  top: "relu_e_1_1"
}
layer {
  name: "conv_e_1_1"
  type: "Convolution"
  bottom: "relu_e_1_1"
  top: "conv_e_1_1"
  param {
    lr_mult: 1
    decay_mult: 1
  }
  param {
    lr_mult: 2
    decay_mult: 1
  }
  convolution_param {
    num_output: 128
    pad: 1
    kernel_size: 3
    stride: 2
    weight_filler {
      type: "msra"
    }
    bias_filler {
      type: "constant"
    }
  }
}
layer {
  name: "bn_e_1_2"
  type: "BatchNorm"
  bottom: "conv_e_1_1"
  top: "bn_e_1_2"
  param {
    lr_mult: 0
  }
  param {
    lr_mult: 0
  }
  param {
    lr_mult: 0
  }
  batch_norm_param {
    use_global_stats: false
  }
}
layer {
  name: "sc_e_1_2"
  type: "Scale"
  bottom: "bn_e_1_2"
  top: "sc_e_1_2"
  scale_param {
    bias_term: true
  }
}
layer {
  name: "relu_e_1_2"
  type: "ReLU"
  bottom: "sc_e_1_2"
  top: "relu_e_1_2"
}
layer {
  name: "conv_e_1_2"
  type: "Convolution"
  bottom: "relu_e_1_2"
  top: "conv_e_1_2"
  param {
    lr_mult: 1
    decay_mult: 1
  }
  param {
    lr_mult: 2
    decay_mult: 1
  }
  convolution_param {
    num_output: 128
    pad: 1
    kernel_size: 3
    stride: 1
    weight_filler {
      type: "msra"
    }
    bias_filler {
      type: "constant"
    }
  }
}
layer {
  name: "res_e"
  type: "Convolution"
  bottom: "elt_a_1"
  top: "res_e"
  param {
    lr_mult: 1
    decay_mult: 1
  }
  param {
    lr_mult: 2
    decay_mult: 1
  }
  convolution_param {
    num_output: 128
    pad: 0
    kernel_size: 1
    stride: 2
    weight_filler {
      type: "msra"
    }
    bias_filler {
      type: "constant"
    }
  }
}
layer {
  name: "elt_e_1"
  type: "Eltwise"
  bottom: "res_e"
  bottom: "conv_e_1_2"
  top: "elt_e_1"
  eltwise_param {
    operation: SUM
  }
}
layer {
  name: "elt_e_h"
  type: "Eltwise"
  bottom: "elt_e_1"
  bottom: "elt_h_1"
  top: "elt_e_h"
  eltwise_param {
    operation: SUM
  }
}
layer {
  name: "bn_k_1_1"
  type: "BatchNorm"
  bottom: "elt_e_h"
  top: "bn_k_1_1"
  param {
    lr_mult: 0
  }
  param {
    lr_mult: 0
  }
  param {
    lr_mult: 0
  }
  batch_norm_param {
    use_global_stats: false
  }
}
layer {
  name: "sc_k_1_1"
  type: "Scale"
  bottom: "bn_k_1_1"
  top: "sc_k_1_1"
  scale_param {
    bias_term: true
  }
}
layer {
  name: "relu_k_1_1"
  type: "ReLU"
  bottom: "sc_k_1_1"
  top: "relu_k_1_1"
}
layer {
  name: "conv_k_1_1"
  type: "Convolution"
  bottom: "relu_k_1_1"
  top: "conv_k_1_1"
  param {
    lr_mult: 1
    decay_mult: 1
  }
  param {
    lr_mult: 2
    decay_mult: 1
  }
  convolution_param {
    num_output: 256
    pad: 1
    kernel_size: 3
    stride: 2
    weight_filler {
      type: "msra"
    }
    bias_filler {
      type: "constant"
    }
  }
}
layer {
  name: "bn_k_1_2"
  type: "BatchNorm"
  bottom: "conv_k_1_1"
  top: "bn_k_1_2"
  param {
    lr_mult: 0
  }
  param {
    lr_mult: 0
  }
  param {
    lr_mult: 0
  }
  batch_norm_param {
    use_global_stats: false
  }
}
layer {
  name: "sc_k_1_2"
  type: "Scale"
  bottom: "bn_k_1_2"
  top: "sc_k_1_2"
  scale_param {
    bias_term: true
  }
}
layer {
  name: "relu_k_1_2"
  type: "ReLU"
  bottom: "sc_k_1_2"
  top: "relu_k_1_2"
}
layer {
  name: "conv_k_1_2"
  type: "Convolution"
  bottom: "relu_k_1_2"
  top: "conv_k_1_2"
  param {
    lr_mult: 1
    decay_mult: 1
  }
  param {
    lr_mult: 2
    decay_mult: 1
  }
  convolution_param {
    num_output: 256
    pad: 1
    kernel_size: 3
    stride: 1
    weight_filler {
      type: "msra"
    }
    bias_filler {
      type: "constant"
    }
  }
}
layer {
  name: "res_k"
  type: "Convolution"
  bottom: "elt_e_h"
  top: "res_k"
  param {
    lr_mult: 1
    decay_mult: 1
  }
  param {
    lr_mult: 2
    decay_mult: 1
  }
  convolution_param {
    num_output: 256
    pad: 0
    kernel_size: 1
    stride: 2
    weight_filler {
      type: "msra"
    }
    bias_filler {
      type: "constant"
    }
  }
}
layer {
  name: "elt_k_1"
  type: "Eltwise"
  bottom: "res_k"
  bottom: "conv_k_1_2"
  top: "elt_k_1"
  eltwise_param {
    operation: SUM
  }
}
layer {
  name: "bn_l_1_1"
  type: "BatchNorm"
  bottom: "elt_g_i"
  top: "bn_l_1_1"
  param {
    lr_mult: 0
  }
  param {
    lr_mult: 0
  }
  param {
    lr_mult: 0
  }
  batch_norm_param {
    use_global_stats: false
  }
}
layer {
  name: "sc_l_1_1"
  type: "Scale"
  bottom: "bn_l_1_1"
  top: "sc_l_1_1"
  scale_param {
    bias_term: true
  }
}
layer {
  name: "relu_l_1_1"
  type: "ReLU"
  bottom: "sc_l_1_1"
  top: "relu_l_1_1"
}
layer {
  name: "conv_l_1_1"
  type: "Convolution"
  bottom: "relu_l_1_1"
  top: "conv_l_1_1"
  param {
    lr_mult: 1
    decay_mult: 1
  }
  param {
    lr_mult: 2
    decay_mult: 1
  }
  convolution_param {
    num_output: 256
    pad: 1
    kernel_size: 3
    stride: 2
    weight_filler {
      type: "msra"
    }
    bias_filler {
      type: "constant"
    }
  }
}
layer {
  name: "bn_l_1_2"
  type: "BatchNorm"
  bottom: "conv_l_1_1"
  top: "bn_l_1_2"
  param {
    lr_mult: 0
  }
  param {
    lr_mult: 0
  }
  param {
    lr_mult: 0
  }
  batch_norm_param {
    use_global_stats: false
  }
}
layer {
  name: "sc_l_1_2"
  type: "Scale"
  bottom: "bn_l_1_2"
  top: "sc_l_1_2"
  scale_param {
    bias_term: true
  }
}
layer {
  name: "relu_l_1_2"
  type: "ReLU"
  bottom: "sc_l_1_2"
  top: "relu_l_1_2"
}
layer {
  name: "conv_l_1_2"
  type: "Convolution"
  bottom: "relu_l_1_2"
  top: "conv_l_1_2"
  param {
    lr_mult: 1
    decay_mult: 1
  }
  param {
    lr_mult: 2
    decay_mult: 1
  }
  convolution_param {
    num_output: 256
    pad: 1
    kernel_size: 3
    stride: 1
    weight_filler {
      type: "msra"
    }
    bias_filler {
      type: "constant"
    }
  }
}
layer {
  name: "res_l"
  type: "Convolution"
  bottom: "elt_g_i"
  top: "res_l"
  param {
    lr_mult: 1
    decay_mult: 1
  }
  param {
    lr_mult: 2
    decay_mult: 1
  }
  convolution_param {
    num_output: 256
    pad: 0
    kernel_size: 1
    stride: 2
    weight_filler {
      type: "msra"
    }
    bias_filler {
      type: "constant"
    }
  }
}
layer {
  name: "elt_l_1"
  type: "Eltwise"
  bottom: "res_l"
  bottom: "conv_l_1_2"
  top: "elt_l_1"
  eltwise_param {
    operation: SUM
  }
}
layer {
  name: "concat_j_k_l"
  type: "Concat"
  bottom: "elt_j_1"
  bottom: "elt_k_1"
  bottom: "elt_l_1"
  top: "elt_j_k_l"
  concat_param {
    axis: 1
  }
}
layer {
  name: "bn_m_1_1"
  type: "BatchNorm"
  bottom: "elt_j_k_l"
  top: "bn_m_1_1"
  param {
    lr_mult: 0
  }
  param {
    lr_mult: 0
  }
  param {
    lr_mult: 0
  }
  batch_norm_param {
    use_global_stats: false
  }
}
layer {
  name: "sc_m_1_1"
  type: "Scale"
  bottom: "bn_m_1_1"
  top: "sc_m_1_1"
  scale_param {
    bias_term: true
  }
}
layer {
  name: "relu_m_1_1"
  type: "ReLU"
  bottom: "sc_m_1_1"
  top: "relu_m_1_1"
}
layer {
  name: "gap"
  type: "Pooling"
  bottom: "relu_m_1_1"
  top: "gap"
  pooling_param {
    pool: AVE
    kernel_size: 8
    stride: 1
  }
}
layer {
  name: "ip1"
  type: "InnerProduct"
  bottom: "gap"
  top: "ip1"
  param {
    lr_mult: 1
    decay_mult: 1
  }
  param {
    lr_mult: 2
    decay_mult: 0
  }
  inner_product_param {
    num_output: 10
    weight_filler {
      type: "msra"
    }
    bias_filler {
      type: "constant"
      value: 0
    }
  }
}
layer {
  name: "accuracy"
  type: "Accuracy"
  bottom: "ip1"
  bottom: "label"
  top: "accuracy"
  include {
    phase: TEST
  }
}
layer {
  name: "loss"
  type: "SoftmaxWithLoss"
  bottom: "ip1"
  bottom: "label"
  top: "loss"
}
I0621 13:53:30.804976 23089 layer_factory.hpp:77] Creating layer resnet
I0621 13:53:30.805105 23089 net.cpp:91] Creating Layer resnet
I0621 13:53:30.805125 23089 net.cpp:399] resnet -> data
I0621 13:53:30.805137 23089 net.cpp:399] resnet -> label
I0621 13:53:30.805148 23089 data_transformer.cpp:25] Loading mean file from: /home/takeki/caffe/examples/cifar10/mean.binaryproto
I0621 13:53:30.806253 23134 db_lmdb.cpp:35] Opened lmdb /home/takeki/caffe/examples/cifar10/cifar10_test_lmdb
I0621 13:53:30.806455 23089 data_layer.cpp:41] output data size: 100,3,32,32
I0621 13:53:30.809391 23089 net.cpp:141] Setting up resnet
I0621 13:53:30.809409 23089 net.cpp:148] Top shape: 100 3 32 32 (307200)
I0621 13:53:30.809419 23089 net.cpp:148] Top shape: 100 (100)
I0621 13:53:30.809424 23089 net.cpp:156] Memory required for data: 1229200
I0621 13:53:30.809430 23089 layer_factory.hpp:77] Creating layer label_resnet_1_split
I0621 13:53:30.809439 23089 net.cpp:91] Creating Layer label_resnet_1_split
I0621 13:53:30.809447 23089 net.cpp:425] label_resnet_1_split <- label
I0621 13:53:30.809458 23089 net.cpp:399] label_resnet_1_split -> label_resnet_1_split_0
I0621 13:53:30.809478 23089 net.cpp:399] label_resnet_1_split -> label_resnet_1_split_1
I0621 13:53:30.809586 23089 net.cpp:141] Setting up label_resnet_1_split
I0621 13:53:30.809598 23089 net.cpp:148] Top shape: 100 (100)
I0621 13:53:30.809605 23089 net.cpp:148] Top shape: 100 (100)
I0621 13:53:30.809609 23089 net.cpp:156] Memory required for data: 1230000
I0621 13:53:30.809615 23089 layer_factory.hpp:77] Creating layer conv0
I0621 13:53:30.809631 23089 net.cpp:91] Creating Layer conv0
I0621 13:53:30.809639 23089 net.cpp:425] conv0 <- data
I0621 13:53:30.809666 23089 net.cpp:399] conv0 -> conv0
I0621 13:53:30.811136 23089 net.cpp:141] Setting up conv0
I0621 13:53:30.811157 23089 net.cpp:148] Top shape: 100 16 32 32 (1638400)
I0621 13:53:30.811179 23089 net.cpp:156] Memory required for data: 7783600
I0621 13:53:30.811200 23089 layer_factory.hpp:77] Creating layer conv0_conv0_0_split
I0621 13:53:30.811211 23089 net.cpp:91] Creating Layer conv0_conv0_0_split
I0621 13:53:30.811218 23089 net.cpp:425] conv0_conv0_0_split <- conv0
I0621 13:53:30.811226 23089 net.cpp:399] conv0_conv0_0_split -> conv0_conv0_0_split_0
I0621 13:53:30.811241 23089 net.cpp:399] conv0_conv0_0_split -> conv0_conv0_0_split_1
I0621 13:53:30.811254 23089 net.cpp:399] conv0_conv0_0_split -> conv0_conv0_0_split_2
I0621 13:53:30.811264 23089 net.cpp:399] conv0_conv0_0_split -> conv0_conv0_0_split_3
I0621 13:53:30.811275 23089 net.cpp:399] conv0_conv0_0_split -> conv0_conv0_0_split_4
I0621 13:53:30.811285 23089 net.cpp:399] conv0_conv0_0_split -> conv0_conv0_0_split_5
I0621 13:53:30.811403 23089 net.cpp:141] Setting up conv0_conv0_0_split
I0621 13:53:30.811416 23089 net.cpp:148] Top shape: 100 16 32 32 (1638400)
I0621 13:53:30.811422 23089 net.cpp:148] Top shape: 100 16 32 32 (1638400)
I0621 13:53:30.811429 23089 net.cpp:148] Top shape: 100 16 32 32 (1638400)
I0621 13:53:30.811439 23089 net.cpp:148] Top shape: 100 16 32 32 (1638400)
I0621 13:53:30.811444 23089 net.cpp:148] Top shape: 100 16 32 32 (1638400)
I0621 13:53:30.811450 23089 net.cpp:148] Top shape: 100 16 32 32 (1638400)
I0621 13:53:30.811458 23089 net.cpp:156] Memory required for data: 47105200
I0621 13:53:30.811463 23089 layer_factory.hpp:77] Creating layer bn_a_1_1
I0621 13:53:30.811476 23089 net.cpp:91] Creating Layer bn_a_1_1
I0621 13:53:30.811486 23089 net.cpp:425] bn_a_1_1 <- conv0_conv0_0_split_0
I0621 13:53:30.811493 23089 net.cpp:399] bn_a_1_1 -> bn_a_1_1
I0621 13:53:30.811756 23089 net.cpp:141] Setting up bn_a_1_1
I0621 13:53:30.811769 23089 net.cpp:148] Top shape: 100 16 32 32 (1638400)
I0621 13:53:30.811776 23089 net.cpp:156] Memory required for data: 53658800
I0621 13:53:30.811791 23089 layer_factory.hpp:77] Creating layer sc_a_1_1
I0621 13:53:30.811800 23089 net.cpp:91] Creating Layer sc_a_1_1
I0621 13:53:30.811808 23089 net.cpp:425] sc_a_1_1 <- bn_a_1_1
I0621 13:53:30.811816 23089 net.cpp:399] sc_a_1_1 -> sc_a_1_1
I0621 13:53:30.811879 23089 layer_factory.hpp:77] Creating layer sc_a_1_1
I0621 13:53:30.812052 23089 net.cpp:141] Setting up sc_a_1_1
I0621 13:53:30.812065 23089 net.cpp:148] Top shape: 100 16 32 32 (1638400)
I0621 13:53:30.812072 23089 net.cpp:156] Memory required for data: 60212400
I0621 13:53:30.812080 23089 layer_factory.hpp:77] Creating layer relu_a_1_1
I0621 13:53:30.812090 23089 net.cpp:91] Creating Layer relu_a_1_1
I0621 13:53:30.812099 23089 net.cpp:425] relu_a_1_1 <- sc_a_1_1
I0621 13:53:30.812106 23089 net.cpp:399] relu_a_1_1 -> relu_a_1_1
I0621 13:53:30.812588 23089 net.cpp:141] Setting up relu_a_1_1
I0621 13:53:30.812603 23089 net.cpp:148] Top shape: 100 16 32 32 (1638400)
I0621 13:53:30.812610 23089 net.cpp:156] Memory required for data: 66766000
I0621 13:53:30.812616 23089 layer_factory.hpp:77] Creating layer conv_a_1_1
I0621 13:53:30.812629 23089 net.cpp:91] Creating Layer conv_a_1_1
I0621 13:53:30.812636 23089 net.cpp:425] conv_a_1_1 <- relu_a_1_1
I0621 13:53:30.812649 23089 net.cpp:399] conv_a_1_1 -> conv_a_1_1
I0621 13:53:30.814224 23089 net.cpp:141] Setting up conv_a_1_1
I0621 13:53:30.814241 23089 net.cpp:148] Top shape: 100 64 32 32 (6553600)
I0621 13:53:30.814262 23089 net.cpp:156] Memory required for data: 92980400
I0621 13:53:30.814277 23089 layer_factory.hpp:77] Creating layer bn_a_1_2
I0621 13:53:30.814291 23089 net.cpp:91] Creating Layer bn_a_1_2
I0621 13:53:30.814299 23089 net.cpp:425] bn_a_1_2 <- conv_a_1_1
I0621 13:53:30.814311 23089 net.cpp:399] bn_a_1_2 -> bn_a_1_2
I0621 13:53:30.814596 23089 net.cpp:141] Setting up bn_a_1_2
I0621 13:53:30.814610 23089 net.cpp:148] Top shape: 100 64 32 32 (6553600)
I0621 13:53:30.814615 23089 net.cpp:156] Memory required for data: 119194800
I0621 13:53:30.814645 23089 layer_factory.hpp:77] Creating layer sc_a_1_2
I0621 13:53:30.814654 23089 net.cpp:91] Creating Layer sc_a_1_2
I0621 13:53:30.814661 23089 net.cpp:425] sc_a_1_2 <- bn_a_1_2
I0621 13:53:30.814669 23089 net.cpp:399] sc_a_1_2 -> sc_a_1_2
I0621 13:53:30.814755 23089 layer_factory.hpp:77] Creating layer sc_a_1_2
I0621 13:53:30.815033 23089 net.cpp:141] Setting up sc_a_1_2
I0621 13:53:30.815047 23089 net.cpp:148] Top shape: 100 64 32 32 (6553600)
I0621 13:53:30.815054 23089 net.cpp:156] Memory required for data: 145409200
I0621 13:53:30.815065 23089 layer_factory.hpp:77] Creating layer relu_a_1_2
I0621 13:53:30.815074 23089 net.cpp:91] Creating Layer relu_a_1_2
I0621 13:53:30.815081 23089 net.cpp:425] relu_a_1_2 <- sc_a_1_2
I0621 13:53:30.815090 23089 net.cpp:399] relu_a_1_2 -> relu_a_1_2
I0621 13:53:30.815313 23089 net.cpp:141] Setting up relu_a_1_2
I0621 13:53:30.815330 23089 net.cpp:148] Top shape: 100 64 32 32 (6553600)
I0621 13:53:30.815335 23089 net.cpp:156] Memory required for data: 171623600
I0621 13:53:30.815341 23089 layer_factory.hpp:77] Creating layer conv_a_1_2
I0621 13:53:30.815356 23089 net.cpp:91] Creating Layer conv_a_1_2
I0621 13:53:30.815363 23089 net.cpp:425] conv_a_1_2 <- relu_a_1_2
I0621 13:53:30.815376 23089 net.cpp:399] conv_a_1_2 -> conv_a_1_2
I0621 13:53:30.817570 23089 net.cpp:141] Setting up conv_a_1_2
I0621 13:53:30.817587 23089 net.cpp:148] Top shape: 100 64 32 32 (6553600)
I0621 13:53:30.817607 23089 net.cpp:156] Memory required for data: 197838000
I0621 13:53:30.817617 23089 layer_factory.hpp:77] Creating layer res_a
I0621 13:53:30.817632 23089 net.cpp:91] Creating Layer res_a
I0621 13:53:30.817642 23089 net.cpp:425] res_a <- conv0_conv0_0_split_1
I0621 13:53:30.817651 23089 net.cpp:399] res_a -> res_a
I0621 13:53:30.818817 23089 net.cpp:141] Setting up res_a
I0621 13:53:30.818833 23089 net.cpp:148] Top shape: 100 64 32 32 (6553600)
I0621 13:53:30.818855 23089 net.cpp:156] Memory required for data: 224052400
I0621 13:53:30.818871 23089 layer_factory.hpp:77] Creating layer elt_a_1
I0621 13:53:30.818882 23089 net.cpp:91] Creating Layer elt_a_1
I0621 13:53:30.818891 23089 net.cpp:425] elt_a_1 <- res_a
I0621 13:53:30.818897 23089 net.cpp:425] elt_a_1 <- conv_a_1_2
I0621 13:53:30.818904 23089 net.cpp:399] elt_a_1 -> elt_a_1
I0621 13:53:30.818943 23089 net.cpp:141] Setting up elt_a_1
I0621 13:53:30.818955 23089 net.cpp:148] Top shape: 100 64 32 32 (6553600)
I0621 13:53:30.818963 23089 net.cpp:156] Memory required for data: 250266800
I0621 13:53:30.818967 23089 layer_factory.hpp:77] Creating layer elt_a_1_elt_a_1_0_split
I0621 13:53:30.818977 23089 net.cpp:91] Creating Layer elt_a_1_elt_a_1_0_split
I0621 13:53:30.818984 23089 net.cpp:425] elt_a_1_elt_a_1_0_split <- elt_a_1
I0621 13:53:30.818994 23089 net.cpp:399] elt_a_1_elt_a_1_0_split -> elt_a_1_elt_a_1_0_split_0
I0621 13:53:30.819005 23089 net.cpp:399] elt_a_1_elt_a_1_0_split -> elt_a_1_elt_a_1_0_split_1
I0621 13:53:30.819015 23089 net.cpp:399] elt_a_1_elt_a_1_0_split -> elt_a_1_elt_a_1_0_split_2
I0621 13:53:30.819025 23089 net.cpp:399] elt_a_1_elt_a_1_0_split -> elt_a_1_elt_a_1_0_split_3
I0621 13:53:30.819110 23089 net.cpp:141] Setting up elt_a_1_elt_a_1_0_split
I0621 13:53:30.819123 23089 net.cpp:148] Top shape: 100 64 32 32 (6553600)
I0621 13:53:30.819130 23089 net.cpp:148] Top shape: 100 64 32 32 (6553600)
I0621 13:53:30.819136 23089 net.cpp:148] Top shape: 100 64 32 32 (6553600)
I0621 13:53:30.819142 23089 net.cpp:148] Top shape: 100 64 32 32 (6553600)
I0621 13:53:30.819147 23089 net.cpp:156] Memory required for data: 355124400
I0621 13:53:30.819152 23089 layer_factory.hpp:77] Creating layer bn_b_1_1
I0621 13:53:30.819162 23089 net.cpp:91] Creating Layer bn_b_1_1
I0621 13:53:30.819169 23089 net.cpp:425] bn_b_1_1 <- conv0_conv0_0_split_2
I0621 13:53:30.819180 23089 net.cpp:399] bn_b_1_1 -> bn_b_1_1
I0621 13:53:30.819454 23089 net.cpp:141] Setting up bn_b_1_1
I0621 13:53:30.819468 23089 net.cpp:148] Top shape: 100 16 32 32 (1638400)
I0621 13:53:30.819473 23089 net.cpp:156] Memory required for data: 361678000
I0621 13:53:30.819499 23089 layer_factory.hpp:77] Creating layer sc_b_1_1
I0621 13:53:30.819512 23089 net.cpp:91] Creating Layer sc_b_1_1
I0621 13:53:30.819520 23089 net.cpp:425] sc_b_1_1 <- bn_b_1_1
I0621 13:53:30.819527 23089 net.cpp:399] sc_b_1_1 -> sc_b_1_1
I0621 13:53:30.819586 23089 layer_factory.hpp:77] Creating layer sc_b_1_1
I0621 13:53:30.819758 23089 net.cpp:141] Setting up sc_b_1_1
I0621 13:53:30.819771 23089 net.cpp:148] Top shape: 100 16 32 32 (1638400)
I0621 13:53:30.819777 23089 net.cpp:156] Memory required for data: 368231600
I0621 13:53:30.819785 23089 layer_factory.hpp:77] Creating layer relu_b_1_1
I0621 13:53:30.819797 23089 net.cpp:91] Creating Layer relu_b_1_1
I0621 13:53:30.819803 23089 net.cpp:425] relu_b_1_1 <- sc_b_1_1
I0621 13:53:30.819810 23089 net.cpp:399] relu_b_1_1 -> relu_b_1_1
I0621 13:53:30.820024 23089 net.cpp:141] Setting up relu_b_1_1
I0621 13:53:30.820039 23089 net.cpp:148] Top shape: 100 16 32 32 (1638400)
I0621 13:53:30.820045 23089 net.cpp:156] Memory required for data: 374785200
I0621 13:53:30.820051 23089 layer_factory.hpp:77] Creating layer conv_b_1_1
I0621 13:53:30.820065 23089 net.cpp:91] Creating Layer conv_b_1_1
I0621 13:53:30.820072 23089 net.cpp:425] conv_b_1_1 <- relu_b_1_1
I0621 13:53:30.820083 23089 net.cpp:399] conv_b_1_1 -> conv_b_1_1
I0621 13:53:30.821483 23089 net.cpp:141] Setting up conv_b_1_1
I0621 13:53:30.821502 23089 net.cpp:148] Top shape: 100 64 32 32 (6553600)
I0621 13:53:30.821522 23089 net.cpp:156] Memory required for data: 400999600
I0621 13:53:30.821532 23089 layer_factory.hpp:77] Creating layer bn_b_1_2
I0621 13:53:30.821542 23089 net.cpp:91] Creating Layer bn_b_1_2
I0621 13:53:30.821548 23089 net.cpp:425] bn_b_1_2 <- conv_b_1_1
I0621 13:53:30.821559 23089 net.cpp:399] bn_b_1_2 -> bn_b_1_2
I0621 13:53:30.821837 23089 net.cpp:141] Setting up bn_b_1_2
I0621 13:53:30.821851 23089 net.cpp:148] Top shape: 100 64 32 32 (6553600)
I0621 13:53:30.821856 23089 net.cpp:156] Memory required for data: 427214000
I0621 13:53:30.821866 23089 layer_factory.hpp:77] Creating layer sc_b_1_2
I0621 13:53:30.821877 23089 net.cpp:91] Creating Layer sc_b_1_2
I0621 13:53:30.821884 23089 net.cpp:425] sc_b_1_2 <- bn_b_1_2
I0621 13:53:30.821892 23089 net.cpp:399] sc_b_1_2 -> sc_b_1_2
I0621 13:53:30.821956 23089 layer_factory.hpp:77] Creating layer sc_b_1_2
I0621 13:53:30.822111 23089 net.cpp:141] Setting up sc_b_1_2
I0621 13:53:30.822124 23089 net.cpp:148] Top shape: 100 64 32 32 (6553600)
I0621 13:53:30.822129 23089 net.cpp:156] Memory required for data: 453428400
I0621 13:53:30.822137 23089 layer_factory.hpp:77] Creating layer relu_b_1_2
I0621 13:53:30.822149 23089 net.cpp:91] Creating Layer relu_b_1_2
I0621 13:53:30.822155 23089 net.cpp:425] relu_b_1_2 <- sc_b_1_2
I0621 13:53:30.822163 23089 net.cpp:399] relu_b_1_2 -> relu_b_1_2
I0621 13:53:30.822492 23089 net.cpp:141] Setting up relu_b_1_2
I0621 13:53:30.822507 23089 net.cpp:148] Top shape: 100 64 32 32 (6553600)
I0621 13:53:30.822515 23089 net.cpp:156] Memory required for data: 479642800
I0621 13:53:30.822520 23089 layer_factory.hpp:77] Creating layer conv_b_1_2
I0621 13:53:30.822533 23089 net.cpp:91] Creating Layer conv_b_1_2
I0621 13:53:30.822541 23089 net.cpp:425] conv_b_1_2 <- relu_b_1_2
I0621 13:53:30.822553 23089 net.cpp:399] conv_b_1_2 -> conv_b_1_2
I0621 13:53:30.825182 23089 net.cpp:141] Setting up conv_b_1_2
I0621 13:53:30.825201 23089 net.cpp:148] Top shape: 100 64 32 32 (6553600)
I0621 13:53:30.825207 23089 net.cpp:156] Memory required for data: 505857200
I0621 13:53:30.825217 23089 layer_factory.hpp:77] Creating layer res_b
I0621 13:53:30.825233 23089 net.cpp:91] Creating Layer res_b
I0621 13:53:30.825242 23089 net.cpp:425] res_b <- conv0_conv0_0_split_3
I0621 13:53:30.825250 23089 net.cpp:399] res_b -> res_b
I0621 13:53:30.826413 23089 net.cpp:141] Setting up res_b
I0621 13:53:30.826428 23089 net.cpp:148] Top shape: 100 64 32 32 (6553600)
I0621 13:53:30.826448 23089 net.cpp:156] Memory required for data: 532071600
I0621 13:53:30.826464 23089 layer_factory.hpp:77] Creating layer elt_b_1
I0621 13:53:30.826490 23089 net.cpp:91] Creating Layer elt_b_1
I0621 13:53:30.826499 23089 net.cpp:425] elt_b_1 <- res_b
I0621 13:53:30.826506 23089 net.cpp:425] elt_b_1 <- conv_b_1_2
I0621 13:53:30.826514 23089 net.cpp:399] elt_b_1 -> elt_b_1
I0621 13:53:30.826555 23089 net.cpp:141] Setting up elt_b_1
I0621 13:53:30.826568 23089 net.cpp:148] Top shape: 100 64 32 32 (6553600)
I0621 13:53:30.826586 23089 net.cpp:156] Memory required for data: 558286000
I0621 13:53:30.826591 23089 layer_factory.hpp:77] Creating layer elt_b_1_elt_b_1_0_split
I0621 13:53:30.826598 23089 net.cpp:91] Creating Layer elt_b_1_elt_b_1_0_split
I0621 13:53:30.826606 23089 net.cpp:425] elt_b_1_elt_b_1_0_split <- elt_b_1
I0621 13:53:30.826614 23089 net.cpp:399] elt_b_1_elt_b_1_0_split -> elt_b_1_elt_b_1_0_split_0
I0621 13:53:30.826625 23089 net.cpp:399] elt_b_1_elt_b_1_0_split -> elt_b_1_elt_b_1_0_split_1
I0621 13:53:30.826635 23089 net.cpp:399] elt_b_1_elt_b_1_0_split -> elt_b_1_elt_b_1_0_split_2
I0621 13:53:30.826645 23089 net.cpp:399] elt_b_1_elt_b_1_0_split -> elt_b_1_elt_b_1_0_split_3
I0621 13:53:30.826742 23089 net.cpp:141] Setting up elt_b_1_elt_b_1_0_split
I0621 13:53:30.826756 23089 net.cpp:148] Top shape: 100 64 32 32 (6553600)
I0621 13:53:30.826762 23089 net.cpp:148] Top shape: 100 64 32 32 (6553600)
I0621 13:53:30.826769 23089 net.cpp:148] Top shape: 100 64 32 32 (6553600)
I0621 13:53:30.826776 23089 net.cpp:148] Top shape: 100 64 32 32 (6553600)
I0621 13:53:30.826781 23089 net.cpp:156] Memory required for data: 663143600
I0621 13:53:30.826786 23089 layer_factory.hpp:77] Creating layer bn_c_1_1
I0621 13:53:30.826797 23089 net.cpp:91] Creating Layer bn_c_1_1
I0621 13:53:30.826803 23089 net.cpp:425] bn_c_1_1 <- conv0_conv0_0_split_4
I0621 13:53:30.826813 23089 net.cpp:399] bn_c_1_1 -> bn_c_1_1
I0621 13:53:30.827077 23089 net.cpp:141] Setting up bn_c_1_1
I0621 13:53:30.827090 23089 net.cpp:148] Top shape: 100 16 32 32 (1638400)
I0621 13:53:30.827096 23089 net.cpp:156] Memory required for data: 669697200
I0621 13:53:30.827107 23089 layer_factory.hpp:77] Creating layer sc_c_1_1
I0621 13:53:30.827116 23089 net.cpp:91] Creating Layer sc_c_1_1
I0621 13:53:30.827123 23089 net.cpp:425] sc_c_1_1 <- bn_c_1_1
I0621 13:53:30.827131 23089 net.cpp:399] sc_c_1_1 -> sc_c_1_1
I0621 13:53:30.827194 23089 layer_factory.hpp:77] Creating layer sc_c_1_1
I0621 13:53:30.827358 23089 net.cpp:141] Setting up sc_c_1_1
I0621 13:53:30.827370 23089 net.cpp:148] Top shape: 100 16 32 32 (1638400)
I0621 13:53:30.827376 23089 net.cpp:156] Memory required for data: 676250800
I0621 13:53:30.827385 23089 layer_factory.hpp:77] Creating layer relu_c_1_1
I0621 13:53:30.827395 23089 net.cpp:91] Creating Layer relu_c_1_1
I0621 13:53:30.827402 23089 net.cpp:425] relu_c_1_1 <- sc_c_1_1
I0621 13:53:30.827409 23089 net.cpp:399] relu_c_1_1 -> relu_c_1_1
I0621 13:53:30.827754 23089 net.cpp:141] Setting up relu_c_1_1
I0621 13:53:30.827769 23089 net.cpp:148] Top shape: 100 16 32 32 (1638400)
I0621 13:53:30.827775 23089 net.cpp:156] Memory required for data: 682804400
I0621 13:53:30.827781 23089 layer_factory.hpp:77] Creating layer conv_c_1_1
I0621 13:53:30.827796 23089 net.cpp:91] Creating Layer conv_c_1_1
I0621 13:53:30.827805 23089 net.cpp:425] conv_c_1_1 <- relu_c_1_1
I0621 13:53:30.827813 23089 net.cpp:399] conv_c_1_1 -> conv_c_1_1
I0621 13:53:30.829113 23089 net.cpp:141] Setting up conv_c_1_1
I0621 13:53:30.829128 23089 net.cpp:148] Top shape: 100 64 32 32 (6553600)
I0621 13:53:30.829135 23089 net.cpp:156] Memory required for data: 709018800
I0621 13:53:30.829145 23089 layer_factory.hpp:77] Creating layer bn_c_1_2
I0621 13:53:30.829157 23089 net.cpp:91] Creating Layer bn_c_1_2
I0621 13:53:30.829165 23089 net.cpp:425] bn_c_1_2 <- conv_c_1_1
I0621 13:53:30.829175 23089 net.cpp:399] bn_c_1_2 -> bn_c_1_2
I0621 13:53:30.829447 23089 net.cpp:141] Setting up bn_c_1_2
I0621 13:53:30.829460 23089 net.cpp:148] Top shape: 100 64 32 32 (6553600)
I0621 13:53:30.829466 23089 net.cpp:156] Memory required for data: 735233200
I0621 13:53:30.829476 23089 layer_factory.hpp:77] Creating layer sc_c_1_2
I0621 13:53:30.829500 23089 net.cpp:91] Creating Layer sc_c_1_2
I0621 13:53:30.829507 23089 net.cpp:425] sc_c_1_2 <- bn_c_1_2
I0621 13:53:30.829514 23089 net.cpp:399] sc_c_1_2 -> sc_c_1_2
I0621 13:53:30.829581 23089 layer_factory.hpp:77] Creating layer sc_c_1_2
I0621 13:53:30.829738 23089 net.cpp:141] Setting up sc_c_1_2
I0621 13:53:30.829751 23089 net.cpp:148] Top shape: 100 64 32 32 (6553600)
I0621 13:53:30.829756 23089 net.cpp:156] Memory required for data: 761447600
I0621 13:53:30.829766 23089 layer_factory.hpp:77] Creating layer relu_c_1_2
I0621 13:53:30.829779 23089 net.cpp:91] Creating Layer relu_c_1_2
I0621 13:53:30.829787 23089 net.cpp:425] relu_c_1_2 <- sc_c_1_2
I0621 13:53:30.829794 23089 net.cpp:399] relu_c_1_2 -> relu_c_1_2
I0621 13:53:30.830132 23089 net.cpp:141] Setting up relu_c_1_2
I0621 13:53:30.830147 23089 net.cpp:148] Top shape: 100 64 32 32 (6553600)
I0621 13:53:30.830154 23089 net.cpp:156] Memory required for data: 787662000
I0621 13:53:30.830159 23089 layer_factory.hpp:77] Creating layer conv_c_1_2
I0621 13:53:30.830173 23089 net.cpp:91] Creating Layer conv_c_1_2
I0621 13:53:30.830181 23089 net.cpp:425] conv_c_1_2 <- relu_c_1_2
I0621 13:53:30.830193 23089 net.cpp:399] conv_c_1_2 -> conv_c_1_2
I0621 13:53:30.832551 23089 net.cpp:141] Setting up conv_c_1_2
I0621 13:53:30.832568 23089 net.cpp:148] Top shape: 100 64 32 32 (6553600)
I0621 13:53:30.832576 23089 net.cpp:156] Memory required for data: 813876400
I0621 13:53:30.832584 23089 layer_factory.hpp:77] Creating layer res_c
I0621 13:53:30.832602 23089 net.cpp:91] Creating Layer res_c
I0621 13:53:30.832609 23089 net.cpp:425] res_c <- conv0_conv0_0_split_5
I0621 13:53:30.832620 23089 net.cpp:399] res_c -> res_c
I0621 13:53:30.833789 23089 net.cpp:141] Setting up res_c
I0621 13:53:30.833804 23089 net.cpp:148] Top shape: 100 64 32 32 (6553600)
I0621 13:53:30.833824 23089 net.cpp:156] Memory required for data: 840090800
I0621 13:53:30.833833 23089 layer_factory.hpp:77] Creating layer elt_c_1
I0621 13:53:30.833844 23089 net.cpp:91] Creating Layer elt_c_1
I0621 13:53:30.833853 23089 net.cpp:425] elt_c_1 <- res_c
I0621 13:53:30.833859 23089 net.cpp:425] elt_c_1 <- conv_c_1_2
I0621 13:53:30.833870 23089 net.cpp:399] elt_c_1 -> elt_c_1
I0621 13:53:30.833909 23089 net.cpp:141] Setting up elt_c_1
I0621 13:53:30.833921 23089 net.cpp:148] Top shape: 100 64 32 32 (6553600)
…
I0621 13:53:30.839560 23089 net.cpp:91] Creating Layer relu_d_1_2
I0621 13:53:30.839566 23089 net.cpp:425] relu_d_1_2 <- sc_d_1_2
I0621 13:53:30.839573 23089 net.cpp:399] relu_d_1_2 -> relu_d_1_2
I0621 13:53:30.839787 23089 net.cpp:141] Setting up relu_d_1_2
I0621 13:53:30.839800 23089 net.cpp:148] Top shape: 100 128 16 16 (3276800)
I0621 13:53:30.839807 23089 net.cpp:156] Memory required for data: 1102234800
I0621 13:53:30.839813 23089 layer_factory.hpp:77] Creating layer conv_d_1_2
I0621 13:53:30.839826 23089 net.cpp:91] Creating Layer conv_d_1_2
I0621 13:53:30.839834 23089 net.cpp:425] conv_d_1_2 <- relu_d_1_2
I0621 13:53:30.839845 23089 net.cpp:399] conv_d_1_2 -> conv_d_1_2
I0621 13:53:30.845329 23089 net.cpp:141] Setting up conv_d_1_2
I0621 13:53:30.845347 23089 net.cpp:148] Top shape: 100 128 16 16 (3276800)
I0621 13:53:30.845360 23089 net.cpp:156] Memory required for data: 1115342000
I0621 13:53:30.845368 23089 layer_factory.hpp:77] Creating layer res_d
I0621 13:53:30.845387 23089 net.cpp:91] Creating Layer res_d
I0621 13:53:30.845396 23089 net.cpp:425] res_d <- elt_a_1_elt_a_1_0_split_1
I0621 13:53:30.845404 23089 net.cpp:399] res_d -> res_d
I0621 13:53:30.846824 23089 net.cpp:141] Setting up res_d
I0621 13:53:30.846855 23089 net.cpp:148] Top shape: 100 128 16 16 (3276800)
I0621 13:53:30.846861 23089 net.cpp:156] Memory required for data: 1128449200
I0621 13:53:30.846880 23089 layer_factory.hpp:77] Creating layer elt_d_1
I0621 13:53:30.846889 23089 net.cpp:91] Creating Layer elt_d_1
I0621 13:53:30.846895 23089 net.cpp:425] elt_d_1 <- res_d
I0621 13:53:30.846943 23089 net.cpp:425] elt_d_1 <- conv_d_1_2
I0621 13:53:30.846956 23089 net.cpp:399] elt_d_1 -> elt_d_1
I0621 13:53:30.846994 23089 net.cpp:141] Setting up elt_d_1
I0621 13:53:30.847007 23089 net.cpp:148] Top shape: 100 128 16 16 (3276800)
I0621 13:53:30.847013 23089 net.cpp:156] Memory required for data: 1141556400
I0621 13:53:30.847019 23089 layer_factory.hpp:77] Creating layer bn_f_1_1
I0621 13:53:30.847029 23089 net.cpp:91] Creating Layer bn_f_1_1
I0621 13:53:30.847038 23089 net.cpp:425] bn_f_1_1 <- elt_b_1_elt_b_1_0_split_0
I0621 13:53:30.847045 23089 net.cpp:399] bn_f_1_1 -> bn_f_1_1
I0621 13:53:30.847337 23089 net.cpp:141] Setting up bn_f_1_1
I0621 13:53:30.847349 23089 net.cpp:148] Top shape: 100 64 32 32 (6553600)
I0621 13:53:30.847354 23089 net.cpp:156] Memory required for data: 1167770800
I0621 13:53:30.847364 23089 layer_factory.hpp:77] Creating layer sc_f_1_1
I0621 13:53:30.847374 23089 net.cpp:91] Creating Layer sc_f_1_1
I0621 13:53:30.847380 23089 net.cpp:425] sc_f_1_1 <- bn_f_1_1
I0621 13:53:30.847388 23089 net.cpp:399] sc_f_1_1 -> sc_f_1_1
I0621 13:53:30.847460 23089 layer_factory.hpp:77] Creating layer sc_f_1_1
I0621 13:53:30.847628 23089 net.cpp:141] Setting up sc_f_1_1
I0621 13:53:30.847642 23089 net.cpp:148] Top shape: 100 64 32 32 (6553600)
I0621 13:53:30.847650 23089 net.cpp:156] Memory required for data: 1193985200
I0621 13:53:30.847658 23089 layer_factory.hpp:77] Creating layer relu_f_1_1
I0621 13:53:30.847666 23089 net.cpp:91] Creating Layer relu_f_1_1
I0621 13:53:30.847673 23089 net.cpp:425] relu_f_1_1 <- sc_f_1_1
I0621 13:53:30.847681 23089 net.cpp:399] relu_f_1_1 -> relu_f_1_1
I0621 13:53:30.848021 23089 net.cpp:141] Setting up relu_f_1_1
I0621 13:53:30.848037 23089 net.cpp:148] Top shape: 100 64 32 32 (6553600)
I0621 13:53:30.848043 23089 net.cpp:156] Memory required for data: 1220199600
I0621 13:53:30.848049 23089 layer_factory.hpp:77] Creating layer conv_f_1_1
I0621 13:53:30.848062 23089 net.cpp:91] Creating Layer conv_f_1_1
I0621 13:53:30.848072 23089 net.cpp:425] conv_f_1_1 <- relu_f_1_1
I0621 13:53:30.848083 23089 net.cpp:399] conv_f_1_1 -> conv_f_1_1
I0621 13:53:30.851766 23089 net.cpp:141] Setting up conv_f_1_1
I0621 13:53:30.851783 23089 net.cpp:148] Top shape: 100 128 16 16 (3276800)
I0621 13:53:30.851802 23089 net.cpp:156] Memory required for data: 1233306800
I0621 13:53:30.851811 23089 layer_factory.hpp:77] Creating layer bn_f_1_2
I0621 13:53:30.851824 23089 net.cpp:91] Creating Layer bn_f_1_2
I0621 13:53:30.851833 23089 net.cpp:425] bn_f_1_2 <- conv_f_1_1
I0621 13:53:30.851841 23089 net.cpp:399] bn_f_1_2 -> bn_f_1_2
I0621 13:53:30.852116 23089 net.cpp:141] Setting up bn_f_1_2
I0621 13:53:30.852129 23089 net.cpp:148] Top shape: 100 128 16 16 (3276800)
I0621 13:53:30.852134 23089 net.cpp:156] Memory required for data: 1246414000
I0621 13:53:30.852144 23089 layer_factory.hpp:77] Creating layer sc_f_1_2
I0621 13:53:30.852154 23089 net.cpp:91] Creating Layer sc_f_1_2
I0621 13:53:30.852164 23089 net.cpp:425] sc_f_1_2 <- bn_f_1_2
I0621 13:53:30.852171 23089 net.cpp:399] sc_f_1_2 -> sc_f_1_2
I0621 13:53:30.852236 23089 layer_factory.hpp:77] Creating layer sc_f_1_2
I0621 13:53:30.852392 23089 net.cpp:141] Setting up sc_f_1_2
I0621 13:53:30.852406 23089 net.cpp:148] Top shape: 100 128 16 16 (3276800)
I0621 13:53:30.852411 23089 net.cpp:156] Memory required for data: 1259521200
I0621 13:53:30.852419 23089 layer_factory.hpp:77] Creating layer relu_f_1_2
I0621 13:53:30.852427 23089 net.cpp:91] Creating Layer relu_f_1_2
I0621 13:53:30.852433 23089 net.cpp:425] relu_f_1_2 <- sc_f_1_2
I0621 13:53:30.852443 23089 net.cpp:399] relu_f_1_2 -> relu_f_1_2
I0621 13:53:30.852780 23089 net.cpp:141] Setting up relu_f_1_2
I0621 13:53:30.852795 23089 net.cpp:148] Top shape: 100 128 16 16 (3276800)
I0621 13:53:30.852802 23089 net.cpp:156] Memory required for data: 1272628400
I0621 13:53:30.852807 23089 layer_factory.hpp:77] Creating layer conv_f_1_2
I0621 13:53:30.852823 23089 net.cpp:91] Creating Layer conv_f_1_2
I0621 13:53:30.852830 23089 net.cpp:425] conv_f_1_2 <- relu_f_1_2
I0621 13:53:30.852859 23089 net.cpp:399] conv_f_1_2 -> conv_f_1_2
I0621 13:53:30.858096 23089 net.cpp:141] Setting up conv_f_1_2
I0621 13:53:30.858113 23089 net.cpp:148] Top shape: 100 128 16 16 (3276800)
I0621 13:53:30.858119 23089 net.cpp:156] Memory required for data: 1285735600
I0621 13:53:30.858141 23089 layer_factory.hpp:77] Creating layer res_f
I0621 13:53:30.858160 23089 net.cpp:91] Creating Layer res_f
I0621 13:53:30.858168 23089 net.cpp:425] res_f <- elt_b_1_elt_b_1_0_split_1
I0621 13:53:30.858177 23089 net.cpp:399] res_f -> res_f
I0621 13:53:30.859592 23089 net.cpp:141] Setting up res_f
I0621 13:53:30.859607 23089 net.cpp:148] Top shape: 100 128 16 16 (3276800)
I0621 13:53:30.859630 23089 net.cpp:156] Memory required for data: 1298842800
I0621 13:53:30.859639 23089 layer_factory.hpp:77] Creating layer elt_f_1
I0621 13:53:30.859652 23089 net.cpp:91] Creating Layer elt_f_1
I0621 13:53:30.859659 23089 net.cpp:425] elt_f_1 <- res_f
I0621 13:53:30.859666 23089 net.cpp:425] elt_f_1 <- conv_f_1_2
I0621 13:53:30.859673 23089 net.cpp:399] elt_f_1 -> elt_f_1
I0621 13:53:30.859709 23089 net.cpp:141] Setting up elt_f_1
I0621 13:53:30.859720 23089 net.cpp:148] Top shape: 100 128 16 16 (3276800)
I0621 13:53:30.859726 23089 net.cpp:156] Memory required for data: 1311950000
I0621 13:53:30.859731 23089 layer_factory.hpp:77] Creating layer bn_g_1_1
I0621 13:53:30.859741 23089 net.cpp:91] Creating Layer bn_g_1_1
I0621 13:53:30.859748 23089 net.cpp:425] bn_g_1_1 <- elt_b_1_elt_b_1_0_split_2
I0621 13:53:30.859758 23089 net.cpp:399] bn_g_1_1 -> bn_g_1_1
I0621 13:53:30.860054 23089 net.cpp:141] Setting up bn_g_1_1
I0621 13:53:30.860067 23089 net.cpp:148] Top shape: 100 64 32 32 (6553600)
I0621 13:53:30.860072 23089 net.cpp:156] Memory required for data: 1338164400
I0621 13:53:30.860082 23089 layer_factory.hpp:77] Creating layer sc_g_1_1
I0621 13:53:30.860092 23089 net.cpp:91] Creating Layer sc_g_1_1
I0621 13:53:30.860100 23089 net.cpp:425] sc_g_1_1 <- bn_g_1_1
I0621 13:53:30.860107 23089 net.cpp:399] sc_g_1_1 -> sc_g_1_1
I0621 13:53:30.860175 23089 layer_factory.hpp:77] Creating layer sc_g_1_1
I0621 13:53:30.860342 23089 net.cpp:141] Setting up sc_g_1_1
I0621 13:53:30.860354 23089 net.cpp:148] Top shape: 100 64 32 32 (6553600)
I0621 13:53:30.860359 23089 net.cpp:156] Memory required for data: 1364378800
I0621 13:53:30.860368 23089 layer_factory.hpp:77] Creating layer relu_g_1_1
I0621 13:53:30.860378 23089 net.cpp:91] Creating Layer relu_g_1_1
I0621 13:53:30.860385 23089 net.cpp:425] relu_g_1_1 <- sc_g_1_1
I0621 13:53:30.860394 23089 net.cpp:399] relu_g_1_1 -> relu_g_1_1
I0621 13:53:30.860723 23089 net.cpp:141] Setting up relu_g_1_1
I0621 13:53:30.860738 23089 net.cpp:148] Top shape: 100 64 32 32 (6553600)
I0621 13:53:30.860745 23089 net.cpp:156] Memory required for data: 1390593200
I0621 13:53:30.860751 23089 layer_factory.hpp:77] Creating layer conv_g_1_1
I0621 13:53:30.860767 23089 net.cpp:91] Creating Layer conv_g_1_1
I0621 13:53:30.860775 23089 net.cpp:425] conv_g_1_1 <- relu_g_1_1
I0621 13:53:30.860785 23089 net.cpp:399] conv_g_1_1 -> conv_g_1_1
I0621 13:53:30.864635 23089 net.cpp:141] Setting up conv_g_1_1
I0621 13:53:30.864653 23089 net.cpp:148] Top shape: 100 128 16 16 (3276800)
I0621 13:53:30.864676 23089 net.cpp:156] Memory required for data: 1403700400
I0621 13:53:30.864686 23089 layer_factory.hpp:77] Creating layer bn_g_1_2
I0621 13:53:30.864696 23089 net.cpp:91] Creating Layer bn_g_1_2
I0621 13:53:30.864704 23089 net.cpp:425] bn_g_1_2 <- conv_g_1_1
I0621 13:53:30.864715 23089 net.cpp:399] bn_g_1_2 -> bn_g_1_2
I0621 13:53:30.865003 23089 net.cpp:141] Setting up bn_g_1_2
I0621 13:53:30.865016 23089 net.cpp:148] Top shape: 100 128 16 16 (3276800)
I0621 13:53:30.865021 23089 net.cpp:156] Memory required for data: 1416807600
I0621 13:53:30.865031 23089 layer_factory.hpp:77] Creating layer sc_g_1_2
I0621 13:53:30.865041 23089 net.cpp:91] Creating Layer sc_g_1_2
I0621 13:53:30.865048 23089 net.cpp:425] sc_g_1_2 <- bn_g_1_2
I0621 13:53:30.865058 23089 net.cpp:399] sc_g_1_2 -> sc_g_1_2
I0621 13:53:30.865120 23089 layer_factory.hpp:77] Creating layer sc_g_1_2
I0621 13:53:30.865332 23089 net.cpp:141] Setting up sc_g_1_2
I0621 13:53:30.865345 23089 net.cpp:148] Top shape: 100 128 16 16 (3276800)
I0621 13:53:30.865350 23089 net.cpp:156] Memory required for data: 1429914800
I0621 13:53:30.865360 23089 layer_factory.hpp:77] Creating layer relu_g_1_2
I0621 13:53:30.865370 23089 net.cpp:91] Creating Layer relu_g_1_2
I0621 13:53:30.865377 23089 net.cpp:425] relu_g_1_2 <- sc_g_1_2
I0621 13:53:30.865386 23089 net.cpp:399] relu_g_1_2 -> relu_g_1_2
I0621 13:53:30.865613 23089 net.cpp:141] Setting up relu_g_1_2
I0621 13:53:30.865628 23089 net.cpp:148] Top shape: 100 128 16 16 (3276800)
I0621 13:53:30.865633 23089 net.cpp:156] Memory required for data: 1443022000
I0621 13:53:30.865639 23089 layer_factory.hpp:77] Creating layer conv_g_1_2
I0621 13:53:30.865658 23089 net.cpp:91] Creating Layer conv_g_1_2
I0621 13:53:30.865666 23089 net.cpp:425] conv_g_1_2 <- relu_g_1_2
I0621 13:53:30.865675 23089 net.cpp:399] conv_g_1_2 -> conv_g_1_2
I0621 13:53:30.871057 23089 net.cpp:141] Setting up conv_g_1_2
I0621 13:53:30.871073 23089 net.cpp:148] Top shape: 100 128 16 16 (3276800)
I0621 13:53:30.871095 23089 net.cpp:156] Memory required for data: 1456129200
I0621 13:53:30.871105 23089 layer_factory.hpp:77] Creating layer res_g
I0621 13:53:30.871120 23089 net.cpp:91] Creating Layer res_g
I0621 13:53:30.871129 23089 net.cpp:425] res_g <- elt_b_1_elt_b_1_0_split_3
I0621 13:53:30.871140 23089 net.cpp:399] res_g -> res_g
I0621 13:53:30.873033 23089 net.cpp:141] Setting up res_g
I0621 13:53:30.873049 23089 net.cpp:148] Top shape: 100 128 16 16 (3276800)
I0621 13:53:30.873071 23089 net.cpp:156] Memory required for data: 1469236400
I0621 13:53:30.873081 23089 layer_factory.hpp:77] Creating layer elt_g_1
I0621 13:53:30.873093 23089 net.cpp:91] Creating Layer elt_g_1
I0621 13:53:30.873101 23089 net.cpp:425] elt_g_1 <- res_g
I0621 13:53:30.873108 23089 net.cpp:425] elt_g_1 <- conv_g_1_2
I0621 13:53:30.873116 23089 net.cpp:399] elt_g_1 -> elt_g_1
I0621 13:53:30.873143 23089 net.cpp:141] Setting up elt_g_1
I0621 13:53:30.873154 23089 net.cpp:148] Top shape: 100 128 16 16 (3276800)
I0621 13:53:30.873162 23089 net.cpp:156] Memory required for data: 1482343600
I0621 13:53:30.873167 23089 layer_factory.hpp:77] Creating layer bn_h_1_1
I0621 13:53:30.873174 23089 net.cpp:91] Creating Layer bn_h_1_1
I0621 13:53:30.873179 23089 net.cpp:425] bn_h_1_1 <- elt_c_1_elt_c_1_0_split_0
I0621 13:53:30.873190 23089 net.cpp:399] bn_h_1_1 -> bn_h_1_1
I0621 13:53:30.873389 23089 net.cpp:141] Setting up bn_h_1_1
I0621 13:53:30.873402 23089 net.cpp:148] Top shape: 100 64 32 32 (6553600)
I0621 13:53:30.873409 23089 net.cpp:156] Memory required for data: 1508558000
I0621 13:53:30.873419 23089 layer_factory.hpp:77] Creating layer sc_h_1_1
I0621 13:53:30.873430 23089 net.cpp:91] Creating Layer sc_h_1_1
I0621 13:53:30.873437 23089 net.cpp:425] sc_h_1_1 <- bn_h_1_1
I0621 13:53:30.873445 23089 net.cpp:399] sc_h_1_1 -> sc_h_1_1
I0621 13:53:30.873492 23089 layer_factory.hpp:77] Creating layer sc_h_1_1
I0621 13:53:30.873625 23089 net.cpp:141] Setting up sc_h_1_1
I0621 13:53:30.873638 23089 net.cpp:148] Top shape: 100 64 32 32 (6553600)
I0621 13:53:30.873644 23089 net.cpp:156] Memory required for data: 1534772400
I0621 13:53:30.873653 23089 layer_factory.hpp:77] Creating layer relu_h_1_1
I0621 13:53:30.873664 23089 net.cpp:91] Creating Layer relu_h_1_1
I0621 13:53:30.873672 23089 net.cpp:425] relu_h_1_1 <- sc_h_1_1
I0621 13:53:30.873678 23089 net.cpp:399] relu_h_1_1 -> relu_h_1_1
I0621 13:53:30.874007 23089 net.cpp:141] Setting up relu_h_1_1
I0621 13:53:30.874024 23089 net.cpp:148] Top shape: 100 64 32 32 (6553600)
I0621 13:53:30.874032 23089 net.cpp:156] Memory required for data: 1560986800
I0621 13:53:30.874037 23089 layer_factory.hpp:77] Creating layer conv_h_1_1
I0621 13:53:30.874050 23089 net.cpp:91] Creating Layer conv_h_1_1
I0621 13:53:30.874058 23089 net.cpp:425] conv_h_1_1 <- relu_h_1_1
I0621 13:53:30.874068 23089 net.cpp:399] conv_h_1_1 -> conv_h_1_1
I0621 13:53:30.877610 23089 net.cpp:141] Setting up conv_h_1_1
I0621 13:53:30.877641 23089 net.cpp:148] Top shape: 100 128 16 16 (3276800)
I0621 13:53:30.877676 23089 net.cpp:156] Memory required for data: 1574094000
I0621 13:53:30.877686 23089 layer_factory.hpp:77] Creating layer bn_h_1_2
I0621 13:53:30.877701 23089 net.cpp:91] Creating Layer bn_h_1_2
I0621 13:53:30.877709 23089 net.cpp:425] bn_h_1_2 <- conv_h_1_1
I0621 13:53:30.877718 23089 net.cpp:399] bn_h_1_2 -> bn_h_1_2
I0621 13:53:30.877899 23089 net.cpp:141] Setting up bn_h_1_2
I0621 13:53:30.877912 23089 net.cpp:148] Top shape: 100 128 16 16 (3276800)
I0621 13:53:30.877918 23089 net.cpp:156] Memory required for data: 1587201200
I0621 13:53:30.877928 23089 layer_factory.hpp:77] Creating layer sc_h_1_2
I0621 13:53:30.877936 23089 net.cpp:91] Creating Layer sc_h_1_2
I0621 13:53:30.877943 23089 net.cpp:425] sc_h_1_2 <- bn_h_1_2
I0621 13:53:30.877954 23089 net.cpp:399] sc_h_1_2 -> sc_h_1_2
I0621 13:53:30.878008 23089 layer_factory.hpp:77] Creating layer sc_h_1_2
I0621 13:53:30.878111 23089 net.cpp:141] Setting up sc_h_1_2
I0621 13:53:30.878123 23089 net.cpp:148] Top shape: 100 128 16 16 (3276800)
I0621 13:53:30.878128 23089 net.cpp:156] Memory required for data: 1600308400
I0621 13:53:30.878136 23089 layer_factory.hpp:77] Creating layer relu_h_1_2
I0621 13:53:30.878144 23089 net.cpp:91] Creating Layer relu_h_1_2
I0621 13:53:30.878150 23089 net.cpp:425] relu_h_1_2 <- sc_h_1_2
I0621 13:53:30.878157 23089 net.cpp:399] relu_h_1_2 -> relu_h_1_2
I0621 13:53:30.878495 23089 net.cpp:141] Setting up relu_h_1_2
I0621 13:53:30.878510 23089 net.cpp:148] Top shape: 100 128 16 16 (3276800)
I0621 13:53:30.878517 23089 net.cpp:156] Memory required for data: 1613415600
I0621 13:53:30.878523 23089 layer_factory.hpp:77] Creating layer conv_h_1_2
I0621 13:53:30.878538 23089 net.cpp:91] Creating Layer conv_h_1_2
I0621 13:53:30.878546 23089 net.cpp:425] conv_h_1_2 <- relu_h_1_2
I0621 13:53:30.878556 23089 net.cpp:399] conv_h_1_2 -> conv_h_1_2
I0621 13:53:30.883772 23089 net.cpp:141] Setting up conv_h_1_2
I0621 13:53:30.883790 23089 net.cpp:148] Top shape: 100 128 16 16 (3276800)
I0621 13:53:30.883808 23089 net.cpp:156] Memory required for data: 1626522800
I0621 13:53:30.883817 23089 layer_factory.hpp:77] Creating layer res_h
I0621 13:53:30.883836 23089 net.cpp:91] Creating Layer res_h
I0621 13:53:30.883843 23089 net.cpp:425] res_h <- elt_c_1_elt_c_1_0_split_1
I0621 13:53:30.883854 23089 net.cpp:399] res_h -> res_h
I0621 13:53:30.885061 23089 net.cpp:141] Setting up res_h
I0621 13:53:30.885076 23089 net.cpp:148] Top shape: 100 128 16 16 (3276800)
I0621 13:53:30.885098 23089 net.cpp:156] Memory required for data: 1639630000
I0621 13:53:30.885107 23089 layer_factory.hpp:77] Creating layer elt_h_1
I0621 13:53:30.885119 23089 net.cpp:91] Creating Layer elt_h_1
I0621 13:53:30.885128 23089 net.cpp:425] elt_h_1 <- res_h
I0621 13:53:30.885134 23089 net.cpp:425] elt_h_1 <- conv_h_1_2
I0621 13:53:30.885145 23089 net.cpp:399] elt_h_1 -> elt_h_1
I0621 13:53:30.885170 23089 net.cpp:141] Setting up elt_h_1
I0621 13:53:30.885180 23089 net.cpp:148] Top shape: 100 128 16 16 (3276800)
I0621 13:53:30.885185 23089 net.cpp:156] Memory required for data: 1652737200
I0621 13:53:30.885190 23089 layer_factory.hpp:77] Creating layer bn_i_1_1
I0621 13:53:30.885201 23089 net.cpp:91] Creating Layer bn_i_1_1
I0621 13:53:30.885207 23089 net.cpp:425] bn_i_1_1 <- elt_c_1_elt_c_1_0_split_2
I0621 13:53:30.885215 23089 net.cpp:399] bn_i_1_1 -> bn_i_1_1
I0621 13:53:30.885432 23089 net.cpp:141] Setting up bn_i_1_1
I0621 13:53:30.885445 23089 net.cpp:148] Top shape: 100 64 32 32 (6553600)
I0621 13:53:30.885452 23089 net.cpp:156] Memory required for data: 1678951600
I0621 13:53:30.885462 23089 layer_factory.hpp:77] Creating layer sc_i_1_1
I0621 13:53:30.885471 23089 net.cpp:91] Creating Layer sc_i_1_1
I0621 13:53:30.885478 23089 net.cpp:425] sc_i_1_1 <- bn_i_1_1
I0621 13:53:30.885486 23089 net.cpp:399] sc_i_1_1 -> sc_i_1_1
I0621 13:53:30.885537 23089 layer_factory.hpp:77] Creating layer sc_i_1_1
I0621 13:53:30.885671 23089 net.cpp:141] Setting up sc_i_1_1
I0621 13:53:30.885684 23089 net.cpp:148] Top shape: 100 64 32 32 (6553600)
I0621 13:53:30.885704 23089 net.cpp:156] Memory required for data: 1705166000
I0621 13:53:30.885715 23089 layer_factory.hpp:77] Creating layer relu_i_1_1
I0621 13:53:30.885725 23089 net.cpp:91] Creating Layer relu_i_1_1
I0621 13:53:30.885731 23089 net.cpp:425] relu_i_1_1 <- sc_i_1_1
I0621 13:53:30.885741 23089 net.cpp:399] relu_i_1_1 -> relu_i_1_1
I0621 13:53:30.886116 23089 net.cpp:141] Setting up relu_i_1_1
I0621 13:53:30.886132 23089 net.cpp:148] Top shape: 100 64 32 32 (6553600)
I0621 13:53:30.886150 23089 net.cpp:156] Memory required for data: 1731380400
I0621 13:53:30.886157 23089 layer_factory.hpp:77] Creating layer conv_i_1_1
I0621 13:53:30.886169 23089 net.cpp:91] Creating Layer conv_i_1_1
I0621 13:53:30.886178 23089 net.cpp:425] conv_i_1_1 <- relu_i_1_1
I0621 13:53:30.886188 23089 net.cpp:399] conv_i_1_1 -> conv_i_1_1
I0621 13:53:30.889878 23089 net.cpp:141] Setting up conv_i_1_1
I0621 13:53:30.889895 23089 net.cpp:148] Top shape: 100 128 16 16 (3276800)
I0621 13:53:30.889916 23089 net.cpp:156] Memory required for data: 1744487600
I0621 13:53:30.889925 23089 layer_factory.hpp:77] Creating layer bn_i_1_2
I0621 13:53:30.889935 23089 net.cpp:91] Creating Layer bn_i_1_2
I0621 13:53:30.889942 23089 net.cpp:425] bn_i_1_2 <- conv_i_1_1
I0621 13:53:30.889952 23089 net.cpp:399] bn_i_1_2 -> bn_i_1_2
I0621 13:53:30.890144 23089 net.cpp:141] Setting up bn_i_1_2
I0621 13:53:30.890157 23089 net.cpp:148] Top shape: 100 128 16 16 (3276800)
I0621 13:53:30.890162 23089 net.cpp:156] Memory required for data: 1757594800
I0621 13:53:30.890172 23089 layer_factory.hpp:77] Creating layer sc_i_1_2
I0621 13:53:30.890182 23089 net.cpp:91] Creating Layer sc_i_1_2
I0621 13:53:30.890202 23089 net.cpp:425] sc_i_1_2 <- bn_i_1_2
I0621 13:53:30.890210 23089 net.cpp:399] sc_i_1_2 -> sc_i_1_2
I0621 13:53:30.890259 23089 layer_factory.hpp:77] Creating layer sc_i_1_2
I0621 13:53:30.890362 23089 net.cpp:141] Setting up sc_i_1_2
I0621 13:53:30.890373 23089 net.cpp:148] Top shape: 100 128 16 16 (3276800)
I0621 13:53:30.890379 23089 net.cpp:156] Memory required for data: 1770702000
I0621 13:53:30.890388 23089 layer_factory.hpp:77] Creating layer relu_i_1_2
I0621 13:53:30.890399 23089 net.cpp:91] Creating Layer relu_i_1_2
I0621 13:53:30.890406 23089 net.cpp:425] relu_i_1_2 <- sc_i_1_2
I0621 13:53:30.890414 23089 net.cpp:399] relu_i_1_2 -> relu_i_1_2
I0621 13:53:30.890624 23089 net.cpp:141] Setting up relu_i_1_2
I0621 13:53:30.890640 23089 net.cpp:148] Top shape: 100 128 16 16 (3276800)
I0621 13:53:30.890646 23089 net.cpp:156] Memory required for data: 1783809200
I0621 13:53:30.890651 23089 layer_factory.hpp:77] Creating layer conv_i_1_2
I0621 13:53:30.890666 23089 net.cpp:91] Creating Layer conv_i_1_2
I0621 13:53:30.890674 23089 net.cpp:425] conv_i_1_2 <- relu_i_1_2
I0621 13:53:30.890689 23089 net.cpp:399] conv_i_1_2 -> conv_i_1_2
I0621 13:53:30.896073 23089 net.cpp:141] Setting up conv_i_1_2
I0621 13:53:30.896090 23089 net.cpp:148] Top shape: 100 128 16 16 (3276800)
I0621 13:53:30.896113 23089 net.cpp:156] Memory required for data: 1796916400
I0621 13:53:30.896122 23089 layer_factory.hpp:77] Creating layer res_i
I0621 13:53:30.896138 23089 net.cpp:91] Creating Layer res_i
I0621 13:53:30.896147 23089 net.cpp:425] res_i <- elt_c_1_elt_c_1_0_split_3
I0621 13:53:30.896158 23089 net.cpp:399] res_i -> res_i
I0621 13:53:30.897506 23089 net.cpp:141] Setting up res_i
I0621 13:53:30.897522 23089 net.cpp:148] Top shape: 100 128 16 16 (3276800)
I0621 13:53:30.897545 23089 net.cpp:156] Memory required for data: 1810023600
I0621 13:53:30.897573 23089 layer_factory.hpp:77] Creating layer elt_i_1
I0621 13:53:30.897584 23089 net.cpp:91] Creating Layer elt_i_1
I0621 13:53:30.897593 23089 net.cpp:425] elt_i_1 <- res_i
I0621 13:53:30.897599 23089 net.cpp:425] elt_i_1 <- conv_i_1_2
I0621 13:53:30.897606 23089 net.cpp:399] elt_i_1 -> elt_i_1
I0621 13:53:30.897634 23089 net.cpp:141] Setting up elt_i_1
I0621 13:53:30.897644 23089 net.cpp:148] Top shape: 100 128 16 16 (3276800)
I0621 13:53:30.897650 23089 net.cpp:156] Memory required for data: 1823130800
I0621 13:53:30.897672 23089 layer_factory.hpp:77] Creating layer elt_d_f
I0621 13:53:30.897692 23089 net.cpp:91] Creating Layer elt_d_f
I0621 13:53:30.897699 23089 net.cpp:425] elt_d_f <- elt_d_1
I0621 13:53:30.897706 23089 net.cpp:425] elt_d_f <- elt_f_1
I0621 13:53:30.897716 23089 net.cpp:399] elt_d_f -> elt_d_f
I0621 13:53:30.897748 23089 net.cpp:141] Setting up elt_d_f
I0621 13:53:30.897759 23089 net.cpp:148] Top shape: 100 128 16 16 (3276800)
I0621 13:53:30.897766 23089 net.cpp:156] Memory required for data: 1836238000
I0621 13:53:30.897771 23089 layer_factory.hpp:77] Creating layer elt_d_f_elt_d_f_0_split
I0621 13:53:30.897778 23089 net.cpp:91] Creating Layer elt_d_f_elt_d_f_0_split
I0621 13:53:30.897784 23089 net.cpp:425] elt_d_f_elt_d_f_0_split <- elt_d_f
I0621 13:53:30.897791 23089 net.cpp:399] elt_d_f_elt_d_f_0_split -> elt_d_f_elt_d_f_0_split_0
I0621 13:53:30.897804 23089 net.cpp:399] elt_d_f_elt_d_f_0_split -> elt_d_f_elt_d_f_0_split_1
I0621 13:53:30.897843 23089 net.cpp:141] Setting up elt_d_f_elt_d_f_0_split
I0621 13:53:30.897855 23089 net.cpp:148] Top shape: 100 128 16 16 (3276800)
I0621 13:53:30.897861 23089 net.cpp:148] Top shape: 100 128 16 16 (3276800)
I0621 13:53:30.897867 23089 net.cpp:156] Memory required for data: 1862452400
I0621 13:53:30.897872 23089 layer_factory.hpp:77] Creating layer elt_g_i
I0621 13:53:30.897881 23089 net.cpp:91] Creating Layer elt_g_i
I0621 13:53:30.897888 23089 net.cpp:425] elt_g_i <- elt_g_1
I0621 13:53:30.897896 23089 net.cpp:425] elt_g_i <- elt_i_1
I0621 13:53:30.897902 23089 net.cpp:399] elt_g_i -> elt_g_i
I0621 13:53:30.897933 23089 net.cpp:141] Setting up elt_g_i
I0621 13:53:30.897943 23089 net.cpp:148] Top shape: 100 128 16 16 (3276800)
I0621 13:53:30.897948 23089 net.cpp:156] Memory required for data: 1875559600
I0621 13:53:30.897954 23089 layer_factory.hpp:77] Creating layer elt_g_i_elt_g_i_0_split
I0621 13:53:30.897960 23089 net.cpp:91] Creating Layer elt_g_i_elt_g_i_0_split
I0621 13:53:30.897967 23089 net.cpp:425] elt_g_i_elt_g_i_0_split <- elt_g_i
I0621 13:53:30.897976 23089 net.cpp:399] elt_g_i_elt_g_i_0_split -> elt_g_i_elt_g_i_0_split_0
I0621 13:53:30.897987 23089 net.cpp:399] elt_g_i_elt_g_i_0_split -> elt_g_i_elt_g_i_0_split_1
I0621 13:53:30.898036 23089 net.cpp:141] Setting up elt_g_i_elt_g_i_0_split
I0621 13:53:30.898046 23089 net.cpp:148] Top shape: 100 128 16 16 (3276800)
I0621 13:53:30.898052 23089 net.cpp:148] Top shape: 100 128 16 16 (3276800)
I0621 13:53:30.898058 23089 net.cpp:156] Memory required for data: 1901774000
I0621 13:53:30.898063 23089 layer_factory.hpp:77] Creating layer bn_j_1_1
I0621 13:53:30.898073 23089 net.cpp:91] Creating Layer bn_j_1_1
I0621 13:53:30.898082 23089 net.cpp:425] bn_j_1_1 <- elt_d_f_elt_d_f_0_split_0
I0621 13:53:30.898089 23089 net.cpp:399] bn_j_1_1 -> bn_j_1_1
I0621 13:53:30.898280 23089 net.cpp:141] Setting up bn_j_1_1
I0621 13:53:30.898293 23089 net.cpp:148] Top shape: 100 128 16 16 (3276800)
I0621 13:53:30.898298 23089 net.cpp:156] Memory required for data: 1914881200
I0621 13:53:30.898308 23089 layer_factory.hpp:77] Creating layer sc_j_1_1
I0621 13:53:30.898318 23089 net.cpp:91] Creating Layer sc_j_1_1
I0621 13:53:30.898324 23089 net.cpp:425] sc_j_1_1 <- bn_j_1_1
I0621 13:53:30.898332 23089 net.cpp:399] sc_j_1_1 -> sc_j_1_1
I0621 13:53:30.898380 23089 layer_factory.hpp:77] Creating layer sc_j_1_1
I0621 13:53:30.898484 23089 net.cpp:141] Setting up sc_j_1_1
I0621 13:53:30.898496 23089 net.cpp:148] Top shape: 100 128 16 16 (3276800)
I0621 13:53:30.898502 23089 net.cpp:156] Memory required for data: 1927988400
I0621 13:53:30.898511 23089 layer_factory.hpp:77] Creating layer relu_j_1_1
I0621 13:53:30.898521 23089 net.cpp:91] Creating Layer relu_j_1_1
I0621 13:53:30.898530 23089 net.cpp:425] relu_j_1_1 <- sc_j_1_1
I0621 13:53:30.898536 23089 net.cpp:399] relu_j_1_1 -> relu_j_1_1
I0621 13:53:30.898752 23089 net.cpp:141] Setting up relu_j_1_1
I0621 13:53:30.898766 23089 net.cpp:148] Top shape: 100 128 16 16 (3276800)
I0621 13:53:30.898772 23089 net.cpp:156] Memory required for data: 1941095600
I0621 13:53:30.898792 23089 layer_factory.hpp:77] Creating layer conv_j_1_1
I0621 13:53:30.898805 23089 net.cpp:91] Creating Layer conv_j_1_1
I0621 13:53:30.898826 23089 net.cpp:425] conv_j_1_1 <- relu_j_1_1
I0621 13:53:30.898838 23089 net.cpp:399] conv_j_1_1 -> conv_j_1_1
I0621 13:53:30.908687 23089 net.cpp:141] Setting up conv_j_1_1
I0621 13:53:30.908704 23089 net.cpp:148] Top shape: 100 256 8 8 (1638400)
I0621 13:53:30.908715 23089 net.cpp:156] Memory required for data: 1947649200
I0621 13:53:30.908725 23089 layer_factory.hpp:77] Creating layer bn_j_1_2
I0621 13:53:30.908737 23089 net.cpp:91] Creating Layer bn_j_1_2
I0621 13:53:30.908745 23089 net.cpp:425] bn_j_1_2 <- conv_j_1_1
I0621 13:53:30.908754 23089 net.cpp:399] bn_j_1_2 -> bn_j_1_2
I0621 13:53:30.908957 23089 net.cpp:141] Setting up bn_j_1_2
I0621 13:53:30.908968 23089 net.cpp:148] Top shape: 100 256 8 8 (1638400)
I0621 13:53:30.908973 23089 net.cpp:156] Memory required for data: 1954202800
I0621 13:53:30.908983 23089 layer_factory.hpp:77] Creating layer sc_j_1_2
I0621 13:53:30.909006 23089 net.cpp:91] Creating Layer sc_j_1_2
I0621 13:53:30.909014 23089 net.cpp:425] sc_j_1_2 <- bn_j_1_2
I0621 13:53:30.909023 23089 net.cpp:399] sc_j_1_2 -> sc_j_1_2
I0621 13:53:30.909072 23089 layer_factory.hpp:77] Creating layer sc_j_1_2
I0621 13:53:30.909189 23089 net.cpp:141] Setting up sc_j_1_2
I0621 13:53:30.909201 23089 net.cpp:148] Top shape: 100 256 8 8 (1638400)
I0621 13:53:30.909207 23089 net.cpp:156] Memory required for data: 1960756400
I0621 13:53:30.909216 23089 layer_factory.hpp:77] Creating layer relu_j_1_2
I0621 13:53:30.909224 23089 net.cpp:91] Creating Layer relu_j_1_2
I0621 13:53:30.909230 23089 net.cpp:425] relu_j_1_2 <- sc_j_1_2
I0621 13:53:30.909240 23089 net.cpp:399] relu_j_1_2 -> relu_j_1_2
I0621 13:53:30.909584 23089 net.cpp:141] Setting up relu_j_1_2
I0621 13:53:30.909598 23089 net.cpp:148] Top shape: 100 256 8 8 (1638400)
I0621 13:53:30.909605 23089 net.cpp:156] Memory required for data: 1967310000
I0621 13:53:30.909611 23089 layer_factory.hpp:77] Creating layer conv_j_1_2
I0621 13:53:30.909626 23089 net.cpp:91] Creating Layer conv_j_1_2
I0621 13:53:30.909633 23089 net.cpp:425] conv_j_1_2 <- relu_j_1_2
I0621 13:53:30.909644 23089 net.cpp:399] conv_j_1_2 -> conv_j_1_2
I0621 13:53:30.928056 23089 net.cpp:141] Setting up conv_j_1_2
I0621 13:53:30.928076 23089 net.cpp:148] Top shape: 100 256 8 8 (1638400)
I0621 13:53:30.928082 23089 net.cpp:156] Memory required for data: 1973863600
I0621 13:53:30.928092 23089 layer_factory.hpp:77] Creating layer res_j
I0621 13:53:30.928107 23089 net.cpp:91] Creating Layer res_j
I0621 13:53:30.928115 23089 net.cpp:425] res_j <- elt_d_f_elt_d_f_0_split_1
I0621 13:53:30.928123 23089 net.cpp:399] res_j -> res_j
I0621 13:53:30.930040 23089 net.cpp:141] Setting up res_j
I0621 13:53:30.930057 23089 net.cpp:148] Top shape: 100 256 8 8 (1638400)
I0621 13:53:30.930064 23089 net.cpp:156] Memory required for data: 1980417200
I0621 13:53:30.930073 23089 layer_factory.hpp:77] Creating layer elt_j_1
I0621 13:53:30.930088 23089 net.cpp:91] Creating Layer elt_j_1
I0621 13:53:30.930096 23089 net.cpp:425] elt_j_1 <- res_j
I0621 13:53:30.930102 23089 net.cpp:425] elt_j_1 <- conv_j_1_2
I0621 13:53:30.930110 23089 net.cpp:399] elt_j_1 -> elt_j_1
I0621 13:53:30.930140 23089 net.cpp:141] Setting up elt_j_1
I0621 13:53:30.930151 23089 net.cpp:148] Top shape: 100 256 8 8 (1638400)
I0621 13:53:30.930156 23089 net.cpp:156] Memory required for data: 1986970800
I0621 13:53:30.930161 23089 layer_factory.hpp:77] Creating layer bn_e_1_1
I0621 13:53:30.930172 23089 net.cpp:91] Creating Layer bn_e_1_1
I0621 13:53:30.930179 23089 net.cpp:425] bn_e_1_1 <- elt_a_1_elt_a_1_0_split_2
I0621 13:53:30.930187 23089 net.cpp:399] bn_e_1_1 -> bn_e_1_1
I0621 13:53:30.930387 23089 net.cpp:141] Setting up bn_e_1_1
I0621 13:53:30.930399 23089 net.cpp:148] Top shape: 100 64 32 32 (6553600)
I0621 13:53:30.930405 23089 net.cpp:156] Memory required for data: 2013185200
I0621 13:53:30.930415 23089 layer_factory.hpp:77] Creating layer sc_e_1_1
I0621 13:53:30.930424 23089 net.cpp:91] Creating Layer sc_e_1_1
I0621 13:53:30.930459 23089 net.cpp:425] sc_e_1_1 <- bn_e_1_1
I0621 13:53:30.930474 23089 net.cpp:399] sc_e_1_1 -> sc_e_1_1
I0621 13:53:30.930538 23089 layer_factory.hpp:77] Creating layer sc_e_1_1
I0621 13:53:30.930680 23089 net.cpp:141] Setting up sc_e_1_1
I0621 13:53:30.930701 23089 net.cpp:148] Top shape: 100 64 32 32 (6553600)
I0621 13:53:30.930706 23089 net.cpp:156] Memory required for data: 2039399600
I0621 13:53:30.930716 23089 layer_factory.hpp:77] Creating layer relu_e_1_1
I0621 13:53:30.930724 23089 net.cpp:91] Creating Layer relu_e_1_1
I0621 13:53:30.930730 23089 net.cpp:425] relu_e_1_1 <- sc_e_1_1
I0621 13:53:30.930737 23089 net.cpp:399] relu_e_1_1 -> relu_e_1_1
I0621 13:53:30.931084 23089 net.cpp:141] Setting up relu_e_1_1
I0621 13:53:30.931100 23089 net.cpp:148] Top shape: 100 64 32 32 (6553600)
I0621 13:53:30.931107 23089 net.cpp:156] Memory required for data: 2065614000
I0621 13:53:30.931113 23089 layer_factory.hpp:77] Creating layer conv_e_1_1
I0621 13:53:30.931128 23089 net.cpp:91] Creating Layer conv_e_1_1
I0621 13:53:30.931136 23089 net.cpp:425] conv_e_1_1 <- relu_e_1_1
I0621 13:53:30.931145 23089 net.cpp:399] conv_e_1_1 -> conv_e_1_1
I0621 13:53:30.934852 23089 net.cpp:141] Setting up conv_e_1_1
I0621 13:53:30.934869 23089 net.cpp:148] Top shape: 100 128 16 16 (3276800)
I0621 13:53:30.934892 23089 net.cpp:156] Memory required for data: 2078721200
I0621 13:53:30.934901 23089 layer_factory.hpp:77] Creating layer bn_e_1_2
I0621 13:53:30.934912 23089 net.cpp:91] Creating Layer bn_e_1_2
I0621 13:53:30.934919 23089 net.cpp:425] bn_e_1_2 <- conv_e_1_1
I0621 13:53:30.934933 23089 net.cpp:399] bn_e_1_2 -> bn_e_1_2
I0621 13:53:30.935129 23089 net.cpp:141] Setting up bn_e_1_2
I0621 13:53:30.935142 23089 net.cpp:148] Top shape: 100 128 16 16 (3276800)
I0621 13:53:30.935148 23089 net.cpp:156] Memory required for data: 2091828400
I0621 13:53:30.935158 23089 layer_factory.hpp:77] Creating layer sc_e_1_2
I0621 13:53:30.935168 23089 net.cpp:91] Creating Layer sc_e_1_2
I0621 13:53:30.935174 23089 net.cpp:425] sc_e_1_2 <- bn_e_1_2
I0621 13:53:30.935184 23089 net.cpp:399] sc_e_1_2 -> sc_e_1_2
I0621 13:53:30.935233 23089 layer_factory.hpp:77] Creating layer sc_e_1_2
I0621 13:53:30.935340 23089 net.cpp:141] Setting up sc_e_1_2
I0621 13:53:30.935353 23089 net.cpp:148] Top shape: 100 128 16 16 (3276800)
I0621 13:53:30.935360 23089 net.cpp:156] Memory required for data: 2104935600
I0621 13:53:30.935369 23089 layer_factory.hpp:77] Creating layer relu_e_1_2
I0621 13:53:30.935379 23089 net.cpp:91] Creating Layer relu_e_1_2
I0621 13:53:30.935384 23089 net.cpp:425] relu_e_1_2 <- sc_e_1_2
I0621 13:53:30.935391 23089 net.cpp:399] relu_e_1_2 -> relu_e_1_2
I0621 13:53:30.935606 23089 net.cpp:141] Setting up relu_e_1_2
I0621 13:53:30.935621 23089 net.cpp:148] Top shape: 100 128 16 16 (3276800)
I0621 13:53:30.935626 23089 net.cpp:156] Memory required for data: 2118042800
I0621 13:53:30.935631 23089 layer_factory.hpp:77] Creating layer conv_e_1_2
I0621 13:53:30.935645 23089 net.cpp:91] Creating Layer conv_e_1_2
I0621 13:53:30.935653 23089 net.cpp:425] conv_e_1_2 <- relu_e_1_2
I0621 13:53:30.935664 23089 net.cpp:399] conv_e_1_2 -> conv_e_1_2
I0621 13:53:30.940903 23089 net.cpp:141] Setting up conv_e_1_2
I0621 13:53:30.940919 23089 net.cpp:148] Top shape: 100 128 16 16 (3276800)
I0621 13:53:30.940943 23089 net.cpp:156] Memory required for data: 2131150000
I0621 13:53:30.940951 23089 layer_factory.hpp:77] Creating layer res_e
I0621 13:53:30.940968 23089 net.cpp:91] Creating Layer res_e
I0621 13:53:30.940978 23089 net.cpp:425] res_e <- elt_a_1_elt_a_1_0_split_3
I0621 13:53:30.940986 23089 net.cpp:399] res_e -> res_e
I0621 13:53:30.942337 23089 net.cpp:141] Setting up res_e
I0621 13:53:30.942353 23089 net.cpp:148] Top shape: 100 128 16 16 (3276800)
I0621 13:53:30.942374 23089 net.cpp:156] Memory required for data: 2144257200
I0621 13:53:30.942384 23089 layer_factory.hpp:77] Creating layer elt_e_1
I0621 13:53:30.942396 23089 net.cpp:91] Creating Layer elt_e_1
I0621 13:53:30.942404 23089 net.cpp:425] elt_e_1 <- res_e
I0621 13:53:30.942428 23089 net.cpp:425] elt_e_1 <- conv_e_1_2
I0621 13:53:30.942450 23089 net.cpp:399] elt_e_1 -> elt_e_1
I0621 13:53:30.942492 23089 net.cpp:141] Setting up elt_e_1
I0621 13:53:30.942504 23089 net.cpp:148] Top shape: 100 128 16 16 (3276800)
I0621 13:53:30.942512 23089 net.cpp:156] Memory required for data: 2157364400
I0621 13:53:30.942517 23089 layer_factory.hpp:77] Creating layer elt_e_h
I0621 13:53:30.942524 23089 net.cpp:91] Creating Layer elt_e_h
I0621 13:53:30.942530 23089 net.cpp:425] elt_e_h <- elt_e_1
I0621 13:53:30.942536 23089 net.cpp:425] elt_e_h <- elt_h_1
I0621 13:53:30.942548 23089 net.cpp:399] elt_e_h -> elt_e_h
I0621 13:53:30.942577 23089 net.cpp:141] Setting up elt_e_h
I0621 13:53:30.942590 23089 net.cpp:148] Top shape: 100 128 16 16 (3276800)
I0621 13:53:30.942597 23089 net.cpp:156] Memory required for data: 2170471600
I0621 13:53:30.942602 23089 layer_factory.hpp:77] Creating layer elt_e_h_elt_e_h_0_split
I0621 13:53:30.942610 23089 net.cpp:91] Creating Layer elt_e_h_elt_e_h_0_split
I0621 13:53:30.942615 23089 net.cpp:425] elt_e_h_elt_e_h_0_split <- elt_e_h
I0621 13:53:30.942622 23089 net.cpp:399] elt_e_h_elt_e_h_0_split -> elt_e_h_elt_e_h_0_split_0
I0621 13:53:30.942632 23089 net.cpp:399] elt_e_h_elt_e_h_0_split -> elt_e_h_elt_e_h_0_split_1
I0621 13:53:30.942675 23089 net.cpp:141] Setting up elt_e_h_elt_e_h_0_split
I0621 13:53:30.942692 23089 net.cpp:148] Top shape: 100 128 16 16 (3276800)
I0621 13:53:30.942699 23089 net.cpp:148] Top shape: 100 128 16 16 (3276800)
I0621 13:53:30.942704 23089 net.cpp:156] Memory required for data: 2196686000
I0621 13:53:30.942710 23089 layer_factory.hpp:77] Creating layer bn_k_1_1
I0621 13:53:30.942721 23089 net.cpp:91] Creating Layer bn_k_1_1
I0621 13:53:30.942728 23089 net.cpp:425] bn_k_1_1 <- elt_e_h_elt_e_h_0_split_0
I0621 13:53:30.942736 23089 net.cpp:399] bn_k_1_1 -> bn_k_1_1
I0621 13:53:30.942927 23089 net.cpp:141] Setting up bn_k_1_1
I0621 13:53:30.942939 23089 net.cpp:148] Top shape: 100 128 16 16 (3276800)
I0621 13:53:30.942960 23089 net.cpp:156] Memory required for data: 2209793200
I0621 13:53:30.942970 23089 layer_factory.hpp:77] Creating layer sc_k_1_1
I0621 13:53:30.942984 23089 net.cpp:91] Creating Layer sc_k_1_1
I0621 13:53:30.942991 23089 net.cpp:425] sc_k_1_1 <- bn_k_1_1
I0621 13:53:30.942999 23089 net.cpp:399] sc_k_1_1 -> sc_k_1_1
I0621 13:53:30.943063 23089 layer_factory.hpp:77] Creating layer sc_k_1_1
I0621 13:53:30.943171 23089 net.cpp:141] Setting up sc_k_1_1
I0621 13:53:30.943182 23089 net.cpp:148] Top shape: 100 128 16 16 (3276800)
I0621 13:53:30.943187 23089 net.cpp:156] Memory required for data: 2222900400
I0621 13:53:30.943197 23089 layer_factory.hpp:77] Creating layer relu_k_1_1
I0621 13:53:30.943204 23089 net.cpp:91] Creating Layer relu_k_1_1
I0621 13:53:30.943210 23089 net.cpp:425] relu_k_1_1 <- sc_k_1_1
I0621 13:53:30.943220 23089 net.cpp:399] relu_k_1_1 -> relu_k_1_1
I0621 13:53:30.943459 23089 net.cpp:141] Setting up relu_k_1_1
I0621 13:53:30.943472 23089 net.cpp:148] Top shape: 100 128 16 16 (3276800)
I0621 13:53:30.943478 23089 net.cpp:156] Memory required for data: 2236007600
I0621 13:53:30.943483 23089 layer_factory.hpp:77] Creating layer conv_k_1_1
I0621 13:53:30.943498 23089 net.cpp:91] Creating Layer conv_k_1_1
I0621 13:53:30.943506 23089 net.cpp:425] conv_k_1_1 <- relu_k_1_1
I0621 13:53:30.943514 23089 net.cpp:399] conv_k_1_1 -> conv_k_1_1
I0621 13:53:30.953420 23089 net.cpp:141] Setting up conv_k_1_1
I0621 13:53:30.953438 23089 net.cpp:148] Top shape: 100 256 8 8 (1638400)
I0621 13:53:30.953449 23089 net.cpp:156] Memory required for data: 2242561200
I0621 13:53:30.953457 23089 layer_factory.hpp:77] Creating layer bn_k_1_2
I0621 13:53:30.953470 23089 net.cpp:91] Creating Layer bn_k_1_2
I0621 13:53:30.953479 23089 net.cpp:425] bn_k_1_2 <- conv_k_1_1
I0621 13:53:30.953486 23089 net.cpp:399] bn_k_1_2 -> bn_k_1_2
I0621 13:53:30.953717 23089 net.cpp:141] Setting up bn_k_1_2
I0621 13:53:30.953729 23089 net.cpp:148] Top shape: 100 256 8 8 (1638400)
I0621 13:53:30.953735 23089 net.cpp:156] Memory required for data: 2249114800
I0621 13:53:30.953761 23089 layer_factory.hpp:77] Creating layer sc_k_1_2
I0621 13:53:30.953784 23089 net.cpp:91] Creating Layer sc_k_1_2
I0621 13:53:30.953791 23089 net.cpp:425] sc_k_1_2 <- bn_k_1_2
I0621 13:53:30.953800 23089 net.cpp:399] sc_k_1_2 -> sc_k_1_2
I0621 13:53:30.953850 23089 layer_factory.hpp:77] Creating layer sc_k_1_2
I0621 13:53:30.953968 23089 net.cpp:141] Setting up sc_k_1_2
I0621 13:53:30.953979 23089 net.cpp:148] Top shape: 100 256 8 8 (1638400)
I0621 13:53:30.953986 23089 net.cpp:156] Memory required for data: 2255668400
I0621 13:53:30.953995 23089 layer_factory.hpp:77] Creating layer relu_k_1_2
I0621 13:53:30.954006 23089 net.cpp:91] Creating Layer relu_k_1_2
I0621 13:53:30.954015 23089 net.cpp:425] relu_k_1_2 <- sc_k_1_2
I0621 13:53:30.954022 23089 net.cpp:399] relu_k_1_2 -> relu_k_1_2
I0621 13:53:30.954370 23089 net.cpp:141] Setting up relu_k_1_2
I0621 13:53:30.954387 23089 net.cpp:148] Top shape: 100 256 8 8 (1638400)
I0621 13:53:30.954394 23089 net.cpp:156] Memory required for data: 2262222000
I0621 13:53:30.954401 23089 layer_factory.hpp:77] Creating layer conv_k_1_2
I0621 13:53:30.954414 23089 net.cpp:91] Creating Layer conv_k_1_2
I0621 13:53:30.954422 23089 net.cpp:425] conv_k_1_2 <- relu_k_1_2
I0621 13:53:30.954432 23089 net.cpp:399] conv_k_1_2 -> conv_k_1_2
I0621 13:53:30.973374 23089 net.cpp:141] Setting up conv_k_1_2
I0621 13:53:30.973390 23089 net.cpp:148] Top shape: 100 256 8 8 (1638400)
I0621 13:53:30.973415 23089 net.cpp:156] Memory required for data: 2268775600
I0621 13:53:30.973425 23089 layer_factory.hpp:77] Creating layer res_k
I0621 13:53:30.973440 23089 net.cpp:91] Creating Layer res_k
I0621 13:53:30.973449 23089 net.cpp:425] res_k <- elt_e_h_elt_e_h_0_split_1
I0621 13:53:30.973460 23089 net.cpp:399] res_k -> res_k
I0621 13:53:30.975385 23089 net.cpp:141] Setting up res_k
I0621 13:53:30.975401 23089 net.cpp:148] Top shape: 100 256 8 8 (1638400)
I0621 13:53:30.975424 23089 net.cpp:156] Memory required for data: 2275329200
I0621 13:53:30.975432 23089 layer_factory.hpp:77] Creating layer elt_k_1
I0621 13:53:30.975445 23089 net.cpp:91] Creating Layer elt_k_1
I0621 13:53:30.975453 23089 net.cpp:425] elt_k_1 <- res_k
I0621 13:53:30.975461 23089 net.cpp:425] elt_k_1 <- conv_k_1_2
I0621 13:53:30.975468 23089 net.cpp:399] elt_k_1 -> elt_k_1
I0621 13:53:30.975503 23089 net.cpp:141] Setting up elt_k_1
I0621 13:53:30.975514 23089 net.cpp:148] Top shape: 100 256 8 8 (1638400)
I0621 13:53:30.975520 23089 net.cpp:156] Memory required for data: 2281882800
I0621 13:53:30.975527 23089 layer_factory.hpp:77] Creating layer bn_l_1_1
I0621 13:53:30.975535 23089 net.cpp:91] Creating Layer bn_l_1_1
I0621 13:53:30.975543 23089 net.cpp:425] bn_l_1_1 <- elt_g_i_elt_g_i_0_split_0
I0621 13:53:30.975550 23089 net.cpp:399] bn_l_1_1 -> bn_l_1_1
I0621 13:53:30.975759 23089 net.cpp:141] Setting up bn_l_1_1
I0621 13:53:30.975772 23089 net.cpp:148] Top shape: 100 128 16 16 (3276800)
I0621 13:53:30.975778 23089 net.cpp:156] Memory required for data: 2294990000
I0621 13:53:30.975790 23089 layer_factory.hpp:77] Creating layer sc_l_1_1
I0621 13:53:30.975798 23089 net.cpp:91] Creating Layer sc_l_1_1
I0621 13:53:30.975805 23089 net.cpp:425] sc_l_1_1 <- bn_l_1_1
I0621 13:53:30.975813 23089 net.cpp:399] sc_l_1_1 -> sc_l_1_1
I0621 13:53:30.975867 23089 layer_factory.hpp:77] Creating layer sc_l_1_1
I0621 13:53:30.975981 23089 net.cpp:141] Setting up sc_l_1_1
I0621 13:53:30.975993 23089 net.cpp:148] Top shape: 100 128 16 16 (3276800)
I0621 13:53:30.976001 23089 net.cpp:156] Memory required for data: 2308097200
I0621 13:53:30.976008 23089 layer_factory.hpp:77] Creating layer relu_l_1_1
I0621 13:53:30.976017 23089 net.cpp:91] Creating Layer relu_l_1_1
I0621 13:53:30.976023 23089 net.cpp:425] relu_l_1_1 <- sc_l_1_1
I0621 13:53:30.976032 23089 net.cpp:399] relu_l_1_1 -> relu_l_1_1
I0621 13:53:30.976379 23089 net.cpp:141] Setting up relu_l_1_1
I0621 13:53:30.976394 23089 net.cpp:148] Top shape: 100 128 16 16 (3276800)
I0621 13:53:30.976402 23089 net.cpp:156] Memory required for data: 2321204400
I0621 13:53:30.976423 23089 layer_factory.hpp:77] Creating layer conv_l_1_1
I0621 13:53:30.976449 23089 net.cpp:91] Creating Layer conv_l_1_1
I0621 13:53:30.976457 23089 net.cpp:425] conv_l_1_1 <- relu_l_1_1
I0621 13:53:30.976469 23089 net.cpp:399] conv_l_1_1 -> conv_l_1_1
I0621 13:53:30.986577 23089 net.cpp:141] Setting up conv_l_1_1
I0621 13:53:30.986593 23089 net.cpp:148] Top shape: 100 256 8 8 (1638400)
I0621 13:53:30.986618 23089 net.cpp:156] Memory required for data: 2327758000
I0621 13:53:30.986627 23089 layer_factory.hpp:77] Creating layer bn_l_1_2
I0621 13:53:30.986640 23089 net.cpp:91] Creating Layer bn_l_1_2
I0621 13:53:30.986649 23089 net.cpp:425] bn_l_1_2 <- conv_l_1_1
I0621 13:53:30.986657 23089 net.cpp:399] bn_l_1_2 -> bn_l_1_2
I0621 13:53:30.986882 23089 net.cpp:141] Setting up bn_l_1_2
I0621 13:53:30.986896 23089 net.cpp:148] Top shape: 100 256 8 8 (1638400)
I0621 13:53:30.986901 23089 net.cpp:156] Memory required for data: 2334311600
I0621 13:53:30.986919 23089 layer_factory.hpp:77] Creating layer sc_l_1_2
I0621 13:53:30.986945 23089 net.cpp:91] Creating Layer sc_l_1_2
I0621 13:53:30.986954 23089 net.cpp:425] sc_l_1_2 <- bn_l_1_2
I0621 13:53:30.986963 23089 net.cpp:399] sc_l_1_2 -> sc_l_1_2
I0621 13:53:30.987015 23089 layer_factory.hpp:77] Creating layer sc_l_1_2
I0621 13:53:30.987139 23089 net.cpp:141] Setting up sc_l_1_2
I0621 13:53:30.987152 23089 net.cpp:148] Top shape: 100 256 8 8 (1638400)
I0621 13:53:30.987157 23089 net.cpp:156] Memory required for data: 2340865200
I0621 13:53:30.987166 23089 layer_factory.hpp:77] Creating layer relu_l_1_2
I0621 13:53:30.987176 23089 net.cpp:91] Creating Layer relu_l_1_2
I0621 13:53:30.987184 23089 net.cpp:425] relu_l_1_2 <- sc_l_1_2
I0621 13:53:30.987190 23089 net.cpp:399] relu_l_1_2 -> relu_l_1_2
I0621 13:53:30.987412 23089 net.cpp:141] Setting up relu_l_1_2
I0621 13:53:30.987426 23089 net.cpp:148] Top shape: 100 256 8 8 (1638400)
I0621 13:53:30.987433 23089 net.cpp:156] Memory required for data: 2347418800
I0621 13:53:30.987439 23089 layer_factory.hpp:77] Creating layer conv_l_1_2
I0621 13:53:30.987452 23089 net.cpp:91] Creating Layer conv_l_1_2
I0621 13:53:30.987460 23089 net.cpp:425] conv_l_1_2 <- relu_l_1_2
I0621 13:53:30.987473 23089 net.cpp:399] conv_l_1_2 -> conv_l_1_2
I0621 13:53:31.006420 23089 net.cpp:141] Setting up conv_l_1_2
I0621 13:53:31.006438 23089 net.cpp:148] Top shape: 100 256 8 8 (1638400)
I0621 13:53:31.006461 23089 net.cpp:156] Memory required for data: 2353972400
I0621 13:53:31.006471 23089 layer_factory.hpp:77] Creating layer res_l
I0621 13:53:31.006489 23089 net.cpp:91] Creating Layer res_l
I0621 13:53:31.006499 23089 net.cpp:425] res_l <- elt_g_i_elt_g_i_0_split_1
I0621 13:53:31.006507 23089 net.cpp:399] res_l -> res_l
I0621 13:53:31.008571 23089 net.cpp:141] Setting up res_l
I0621 13:53:31.008587 23089 net.cpp:148] Top shape: 100 256 8 8 (1638400)
I0621 13:53:31.008605 23089 net.cpp:156] Memory required for data: 2360526000
I0621 13:53:31.008615 23089 layer_factory.hpp:77] Creating layer elt_l_1
I0621 13:53:31.008627 23089 net.cpp:91] Creating Layer elt_l_1
I0621 13:53:31.008635 23089 net.cpp:425] elt_l_1 <- res_l
I0621 13:53:31.008642 23089 net.cpp:425] elt_l_1 <- conv_l_1_2
I0621 13:53:31.008653 23089 net.cpp:399] elt_l_1 -> elt_l_1
I0621 13:53:31.008690 23089 net.cpp:141] Setting up elt_l_1
I0621 13:53:31.008702 23089 net.cpp:148] Top shape: 100 256 8 8 (1638400)
I0621 13:53:31.008708 23089 net.cpp:156] Memory required for data: 2367079600
I0621 13:53:31.008714 23089 layer_factory.hpp:77] Creating layer concat_j_k_l
I0621 13:53:31.008723 23089 net.cpp:91] Creating Layer concat_j_k_l
I0621 13:53:31.008729 23089 net.cpp:425] concat_j_k_l <- elt_j_1
I0621 13:53:31.008735 23089 net.cpp:425] concat_j_k_l <- elt_k_1
I0621 13:53:31.008740 23089 net.cpp:425] concat_j_k_l <- elt_l_1
I0621 13:53:31.008749 23089 net.cpp:399] concat_j_k_l -> elt_j_k_l
I0621 13:53:31.008781 23089 net.cpp:141] Setting up concat_j_k_l
I0621 13:53:31.008792 23089 net.cpp:148] Top shape: 100 768 8 8 (4915200)
I0621 13:53:31.008797 23089 net.cpp:156] Memory required for data: 2386740400
I0621 13:53:31.008817 23089 layer_factory.hpp:77] Creating layer bn_m_1_1
I0621 13:53:31.008833 23089 net.cpp:91] Creating Layer bn_m_1_1
I0621 13:53:31.008841 23089 net.cpp:425] bn_m_1_1 <- elt_j_k_l
I0621 13:53:31.008851 23089 net.cpp:399] bn_m_1_1 -> bn_m_1_1
I0621 13:53:31.009094 23089 net.cpp:141] Setting up bn_m_1_1
I0621 13:53:31.009107 23089 net.cpp:148] Top shape: 100 768 8 8 (4915200)
I0621 13:53:31.009114 23089 net.cpp:156] Memory required for data: 2406401200
I0621 13:53:31.009124 23089 layer_factory.hpp:77] Creating layer sc_m_1_1
I0621 13:53:31.009141 23089 net.cpp:91] Creating Layer sc_m_1_1
I0621 13:53:31.009148 23089 net.cpp:425] sc_m_1_1 <- bn_m_1_1
I0621 13:53:31.009156 23089 net.cpp:399] sc_m_1_1 -> sc_m_1_1
I0621 13:53:31.009220 23089 layer_factory.hpp:77] Creating layer sc_m_1_1
I0621 13:53:31.009366 23089 net.cpp:141] Setting up sc_m_1_1
I0621 13:53:31.009379 23089 net.cpp:148] Top shape: 100 768 8 8 (4915200)
I0621 13:53:31.009384 23089 net.cpp:156] Memory required for data: 2426062000
I0621 13:53:31.009393 23089 layer_factory.hpp:77] Creating layer relu_m_1_1
I0621 13:53:31.009402 23089 net.cpp:91] Creating Layer relu_m_1_1
I0621 13:53:31.009408 23089 net.cpp:425] relu_m_1_1 <- sc_m_1_1
I0621 13:53:31.009418 23089 net.cpp:399] relu_m_1_1 -> relu_m_1_1
I0621 13:53:31.009644 23089 net.cpp:141] Setting up relu_m_1_1
I0621 13:53:31.009660 23089 net.cpp:148] Top shape: 100 768 8 8 (4915200)
I0621 13:53:31.009667 23089 net.cpp:156] Memory required for data: 2445722800
I0621 13:53:31.009673 23089 layer_factory.hpp:77] Creating layer gap
I0621 13:53:31.009682 23089 net.cpp:91] Creating Layer gap
I0621 13:53:31.009690 23089 net.cpp:425] gap <- relu_m_1_1
I0621 13:53:31.009697 23089 net.cpp:399] gap -> gap
I0621 13:53:31.010067 23089 net.cpp:141] Setting up gap
I0621 13:53:31.010082 23089 net.cpp:148] Top shape: 100 768 1 1 (76800)
I0621 13:53:31.010088 23089 net.cpp:156] Memory required for data: 2446030000
I0621 13:53:31.010094 23089 layer_factory.hpp:77] Creating layer ip1
I0621 13:53:31.010107 23089 net.cpp:91] Creating Layer ip1
I0621 13:53:31.010113 23089 net.cpp:425] ip1 <- gap
I0621 13:53:31.010121 23089 net.cpp:399] ip1 -> ip1
I0621 13:53:31.010474 23089 net.cpp:141] Setting up ip1
I0621 13:53:31.010486 23089 net.cpp:148] Top shape: 100 10 (1000)
I0621 13:53:31.010491 23089 net.cpp:156] Memory required for data: 2446034000
I0621 13:53:31.010499 23089 layer_factory.hpp:77] Creating layer ip1_ip1_0_split
I0621 13:53:31.010509 23089 net.cpp:91] Creating Layer ip1_ip1_0_split
I0621 13:53:31.010515 23089 net.cpp:425] ip1_ip1_0_split <- ip1
I0621 13:53:31.010522 23089 net.cpp:399] ip1_ip1_0_split -> ip1_ip1_0_split_0
I0621 13:53:31.010532 23089 net.cpp:399] ip1_ip1_0_split -> ip1_ip1_0_split_1
I0621 13:53:31.010576 23089 net.cpp:141] Setting up ip1_ip1_0_split
I0621 13:53:31.010587 23089 net.cpp:148] Top shape: 100 10 (1000)
I0621 13:53:31.010594 23089 net.cpp:148] Top shape: 100 10 (1000)
I0621 13:53:31.010599 23089 net.cpp:156] Memory required for data: 2446042000
I0621 13:53:31.010604 23089 layer_factory.hpp:77] Creating layer accuracy
I0621 13:53:31.010615 23089 net.cpp:91] Creating Layer accuracy
I0621 13:53:31.010622 23089 net.cpp:425] accuracy <- ip1_ip1_0_split_0
I0621 13:53:31.010628 23089 net.cpp:425] accuracy <- label_resnet_1_split_0
I0621 13:53:31.010635 23089 net.cpp:399] accuracy -> accuracy
…
