…
I0620 19:54:19.873816 18458 net.cpp:313] The NetState phase (0) differed from the phase (1) specified by a rule in layer accuracy
I0620 19:54:19.874547 18458 net.cpp:49] Initializing net from parameters: 
name: "ResNet"
state {
  phase: TRAIN
}
layer {
  name: "resnet"
  type: "Data"
  top: "data"
  top: "label"
  include {
    phase: TRAIN
  }
  transform_param {
    mean_file: "/home/takeki/caffe/examples/cifar10/mean.binaryproto"
  }
  data_param {
    source: "/home/takeki/caffe/examples/cifar10/cifar10_train_lmdb"
    batch_size: 128
    backend: LMDB
  }
}
layer {
  name: "conv0"
  type: "Convolution"
  bottom: "data"
  top: "conv0"
  param {
    lr_mult: 1
  }
  param {
    lr_mult: 2
  }
  convolution_param {
    num_output: 16
    pad: 1
    kernel_size: 3
    stride: 1
    weight_filler {
      type: "msra"
    }
    bias_filler {
      type: "constant"
    }
  }
}
layer {
  name: "bn_a_1_1"
  type: "BatchNorm"
  bottom: "conv0"
  top: "bn_a_1_1"
  param {
    lr_mult: 0
  }
  param {
    lr_mult: 0
  }
  param {
    lr_mult: 0
  }
  batch_norm_param {
    use_global_stats: false
  }
}
layer {
  name: "sc_a_1_1"
  type: "Scale"
  bottom: "bn_a_1_1"
  top: "sc_a_1_1"
  scale_param {
    bias_term: true
  }
}
layer {
  name: "relu_a_1_1"
  type: "ReLU"
  bottom: "sc_a_1_1"
  top: "relu_a_1_1"
}
layer {
  name: "conv_a_1_1"
  type: "Convolution"
  bottom: "relu_a_1_1"
  top: "conv_a_1_1"
  param {
    lr_mult: 1
    decay_mult: 1
  }
  param {
    lr_mult: 2
    decay_mult: 1
  }
  convolution_param {
    num_output: 64
    pad: 1
    kernel_size: 3
    stride: 1
    weight_filler {
      type: "msra"
    }
    bias_filler {
      type: "constant"
    }
  }
}
layer {
  name: "bn_a_1_2"
  type: "BatchNorm"
  bottom: "conv_a_1_1"
  top: "bn_a_1_2"
  param {
    lr_mult: 0
  }
  param {
    lr_mult: 0
  }
  param {
    lr_mult: 0
  }
  batch_norm_param {
    use_global_stats: false
  }
}
layer {
  name: "sc_a_1_2"
  type: "Scale"
  bottom: "bn_a_1_2"
  top: "sc_a_1_2"
  scale_param {
    bias_term: true
  }
}
layer {
  name: "relu_a_1_2"
  type: "ReLU"
  bottom: "sc_a_1_2"
  top: "relu_a_1_2"
}
layer {
  name: "conv_a_1_2"
  type: "Convolution"
  bottom: "relu_a_1_2"
  top: "conv_a_1_2"
  param {
    lr_mult: 1
    decay_mult: 1
  }
  param {
    lr_mult: 2
    decay_mult: 1
  }
  convolution_param {
    num_output: 64
    pad: 1
    kernel_size: 3
    stride: 1
    weight_filler {
      type: "msra"
    }
    bias_filler {
      type: "constant"
    }
  }
}
layer {
  name: "res_a"
  type: "Convolution"
  bottom: "conv0"
  top: "res_a"
  param {
    lr_mult: 1
    decay_mult: 1
  }
  param {
    lr_mult: 2
    decay_mult: 1
  }
  convolution_param {
    num_output: 64
    pad: 0
    kernel_size: 1
    stride: 1
    weight_filler {
      type: "msra"
    }
    bias_filler {
      type: "constant"
    }
  }
}
layer {
  name: "elt_a_1"
  type: "Eltwise"
  bottom: "res_a"
  bottom: "conv_a_1_2"
  top: "elt_a_1"
  eltwise_param {
    operation: SUM
  }
}
layer {
  name: "bn_b_1_1"
  type: "BatchNorm"
  bottom: "conv0"
  top: "bn_b_1_1"
  param {
    lr_mult: 0
  }
  param {
    lr_mult: 0
  }
  param {
    lr_mult: 0
  }
  batch_norm_param {
    use_global_stats: false
  }
}
layer {
  name: "sc_b_1_1"
  type: "Scale"
  bottom: "bn_b_1_1"
  top: "sc_b_1_1"
  scale_param {
    bias_term: true
  }
}
layer {
  name: "relu_b_1_1"
  type: "ReLU"
  bottom: "sc_b_1_1"
  top: "relu_b_1_1"
}
layer {
  name: "conv_b_1_1"
  type: "Convolution"
  bottom: "relu_b_1_1"
  top: "conv_b_1_1"
  param {
    lr_mult: 1
    decay_mult: 1
  }
  param {
    lr_mult: 2
    decay_mult: 1
  }
  convolution_param {
    num_output: 64
    pad: 1
    kernel_size: 3
    stride: 1
    weight_filler {
      type: "msra"
    }
    bias_filler {
      type: "constant"
    }
  }
}
layer {
  name: "bn_b_1_2"
  type: "BatchNorm"
  bottom: "conv_b_1_1"
  top: "bn_b_1_2"
  param {
    lr_mult: 0
  }
  param {
    lr_mult: 0
  }
  param {
    lr_mult: 0
  }
  batch_norm_param {
    use_global_stats: false
  }
}
layer {
  name: "sc_b_1_2"
  type: "Scale"
  bottom: "bn_b_1_2"
  top: "sc_b_1_2"
  scale_param {
    bias_term: true
  }
}
layer {
  name: "relu_b_1_2"
  type: "ReLU"
  bottom: "sc_b_1_2"
  top: "relu_b_1_2"
}
layer {
  name: "conv_b_1_2"
  type: "Convolution"
  bottom: "relu_b_1_2"
  top: "conv_b_1_2"
  param {
    lr_mult: 1
    decay_mult: 1
  }
  param {
    lr_mult: 2
    decay_mult: 1
  }
  convolution_param {
    num_output: 64
    pad: 1
    kernel_size: 3
    stride: 1
    weight_filler {
      type: "msra"
    }
    bias_filler {
      type: "constant"
    }
  }
}
layer {
  name: "res_b"
  type: "Convolution"
  bottom: "conv0"
  top: "res_b"
  param {
    lr_mult: 1
    decay_mult: 1
  }
  param {
    lr_mult: 2
    decay_mult: 1
  }
  convolution_param {
    num_output: 64
    pad: 0
    kernel_size: 1
    stride: 1
    weight_filler {
      type: "msra"
    }
    bias_filler {
      type: "constant"
    }
  }
}
layer {
  name: "elt_b_1"
  type: "Eltwise"
  bottom: "res_b"
  bottom: "conv_b_1_2"
  top: "elt_b_1"
  eltwise_param {
    operation: SUM
  }
}
layer {
  name: "bn_c_1_1"
  type: "BatchNorm"
  bottom: "conv0"
  top: "bn_c_1_1"
  param {
    lr_mult: 0
  }
  param {
    lr_mult: 0
  }
  param {
    lr_mult: 0
  }
  batch_norm_param {
    use_global_stats: false
  }
}
layer {
  name: "sc_c_1_1"
  type: "Scale"
  bottom: "bn_c_1_1"
  top: "sc_c_1_1"
  scale_param {
    bias_term: true
  }
}
layer {
  name: "relu_c_1_1"
  type: "ReLU"
  bottom: "sc_c_1_1"
  top: "relu_c_1_1"
}
layer {
  name: "conv_c_1_1"
  type: "Convolution"
  bottom: "relu_c_1_1"
  top: "conv_c_1_1"
  param {
    lr_mult: 1
    decay_mult: 1
  }
  param {
    lr_mult: 2
    decay_mult: 1
  }
  convolution_param {
    num_output: 64
    pad: 1
    kernel_size: 3
    stride: 1
    weight_filler {
      type: "msra"
    }
    bias_filler {
      type: "constant"
    }
  }
}
layer {
  name: "bn_c_1_2"
  type: "BatchNorm"
  bottom: "conv_c_1_1"
  top: "bn_c_1_2"
  param {
    lr_mult: 0
  }
  param {
    lr_mult: 0
  }
  param {
    lr_mult: 0
  }
  batch_norm_param {
    use_global_stats: false
  }
}
layer {
  name: "sc_c_1_2"
  type: "Scale"
  bottom: "bn_c_1_2"
  top: "sc_c_1_2"
  scale_param {
    bias_term: true
  }
}
layer {
  name: "relu_c_1_2"
  type: "ReLU"
  bottom: "sc_c_1_2"
  top: "relu_c_1_2"
}
layer {
  name: "conv_c_1_2"
  type: "Convolution"
  bottom: "relu_c_1_2"
  top: "conv_c_1_2"
  param {
    lr_mult: 1
    decay_mult: 1
  }
  param {
    lr_mult: 2
    decay_mult: 1
  }
  convolution_param {
    num_output: 64
    pad: 1
    kernel_size: 3
    stride: 1
    weight_filler {
      type: "msra"
    }
    bias_filler {
      type: "constant"
    }
  }
}
layer {
  name: "res_c"
  type: "Convolution"
  bottom: "conv0"
  top: "res_c"
  param {
    lr_mult: 1
    decay_mult: 1
  }
  param {
    lr_mult: 2
    decay_mult: 1
  }
  convolution_param {
    num_output: 64
    pad: 0
    kernel_size: 1
    stride: 1
    weight_filler {
      type: "msra"
    }
    bias_filler {
      type: "constant"
    }
  }
}
layer {
  name: "elt_c_1"
  type: "Eltwise"
  bottom: "res_c"
  bottom: "conv_c_1_2"
  top: "elt_c_1"
  eltwise_param {
    operation: SUM
  }
}
layer {
  name: "bn_d_1_1"
  type: "BatchNorm"
  bottom: "elt_a_1"
  top: "bn_d_1_1"
  param {
    lr_mult: 0
  }
  param {
    lr_mult: 0
  }
  param {
    lr_mult: 0
  }
  batch_norm_param {
    use_global_stats: false
  }
}
layer {
  name: "sc_d_1_1"
  type: "Scale"
  bottom: "bn_d_1_1"
  top: "sc_d_1_1"
  scale_param {
    bias_term: true
  }
}
layer {
  name: "relu_d_1_1"
  type: "ReLU"
  bottom: "sc_d_1_1"
  top: "relu_d_1_1"
}
layer {
  name: "conv_d_1_1"
  type: "Convolution"
  bottom: "relu_d_1_1"
  top: "conv_d_1_1"
  param {
    lr_mult: 1
    decay_mult: 1
  }
  param {
    lr_mult: 2
    decay_mult: 1
  }
  convolution_param {
    num_output: 128
    pad: 1
    kernel_size: 3
    stride: 2
    weight_filler {
      type: "msra"
    }
    bias_filler {
      type: "constant"
    }
  }
}
layer {
  name: "bn_d_1_2"
  type: "BatchNorm"
  bottom: "conv_d_1_1"
  top: "bn_d_1_2"
  param {
    lr_mult: 0
  }
  param {
    lr_mult: 0
  }
  param {
    lr_mult: 0
  }
  batch_norm_param {
    use_global_stats: false
  }
}
layer {
  name: "sc_d_1_2"
  type: "Scale"
  bottom: "bn_d_1_2"
  top: "sc_d_1_2"
  scale_param {
    bias_term: true
  }
}
layer {
  name: "relu_d_1_2"
  type: "ReLU"
  bottom: "sc_d_1_2"
  top: "relu_d_1_2"
}
layer {
  name: "conv_d_1_2"
  type: "Convolution"
  bottom: "relu_d_1_2"
  top: "conv_d_1_2"
  param {
    lr_mult: 1
    decay_mult: 1
  }
  param {
    lr_mult: 2
    decay_mult: 1
  }
  convolution_param {
    num_output: 128
    pad: 1
    kernel_size: 3
    stride: 1
    weight_filler {
      type: "msra"
    }
    bias_filler {
      type: "constant"
    }
  }
}
layer {
  name: "res_d"
  type: "Convolution"
  bottom: "elt_a_1"
  top: "res_d"
  param {
    lr_mult: 1
    decay_mult: 1
  }
  param {
    lr_mult: 2
    decay_mult: 1
  }
  convolution_param {
    num_output: 128
    pad: 0
    kernel_size: 1
    stride: 2
    weight_filler {
      type: "msra"
    }
    bias_filler {
      type: "constant"
    }
  }
}
layer {
  name: "elt_d_1"
  type: "Eltwise"
  bottom: "res_d"
  bottom: "conv_d_1_2"
  top: "elt_d_1"
  eltwise_param {
    operation: SUM
  }
}
layer {
  name: "bn_f_1_1"
  type: "BatchNorm"
  bottom: "elt_b_1"
  top: "bn_f_1_1"
  param {
    lr_mult: 0
  }
  param {
    lr_mult: 0
  }
  param {
    lr_mult: 0
  }
  batch_norm_param {
    use_global_stats: false
  }
}
layer {
  name: "sc_f_1_1"
  type: "Scale"
  bottom: "bn_f_1_1"
  top: "sc_f_1_1"
  scale_param {
    bias_term: true
  }
}
layer {
  name: "relu_f_1_1"
  type: "ReLU"
  bottom: "sc_f_1_1"
  top: "relu_f_1_1"
}
layer {
  name: "conv_f_1_1"
  type: "Convolution"
  bottom: "relu_f_1_1"
  top: "conv_f_1_1"
  param {
    lr_mult: 1
    decay_mult: 1
  }
  param {
    lr_mult: 2
    decay_mult: 1
  }
  convolution_param {
    num_output: 128
    pad: 1
    kernel_size: 3
    stride: 2
    weight_filler {
      type: "msra"
    }
    bias_filler {
      type: "constant"
    }
  }
}
layer {
  name: "bn_f_1_2"
  type: "BatchNorm"
  bottom: "conv_f_1_1"
  top: "bn_f_1_2"
  param {
    lr_mult: 0
  }
  param {
    lr_mult: 0
  }
  param {
    lr_mult: 0
  }
  batch_norm_param {
    use_global_stats: false
  }
}
layer {
  name: "sc_f_1_2"
  type: "Scale"
  bottom: "bn_f_1_2"
  top: "sc_f_1_2"
  scale_param {
    bias_term: true
  }
}
layer {
  name: "relu_f_1_2"
  type: "ReLU"
  bottom: "sc_f_1_2"
  top: "relu_f_1_2"
}
layer {
  name: "conv_f_1_2"
  type: "Convolution"
  bottom: "relu_f_1_2"
  top: "conv_f_1_2"
  param {
    lr_mult: 1
    decay_mult: 1
  }
  param {
    lr_mult: 2
    decay_mult: 1
  }
  convolution_param {
    num_output: 128
    pad: 1
    kernel_size: 3
    stride: 1
    weight_filler {
      type: "msra"
    }
    bias_filler {
      type: "constant"
    }
  }
}
layer {
  name: "res_f"
  type: "Convolution"
  bottom: "elt_b_1"
  top: "res_f"
  param {
    lr_mult: 1
    decay_mult: 1
  }
  param {
    lr_mult: 2
    decay_mult: 1
  }
  convolution_param {
    num_output: 128
    pad: 0
    kernel_size: 1
    stride: 2
    weight_filler {
      type: "msra"
    }
    bias_filler {
      type: "constant"
    }
  }
}
layer {
  name: "elt_f_1"
  type: "Eltwise"
  bottom: "res_f"
  bottom: "conv_f_1_2"
  top: "elt_f_1"
  eltwise_param {
    operation: SUM
  }
}
layer {
  name: "bn_g_1_1"
  type: "BatchNorm"
  bottom: "elt_b_1"
  top: "bn_g_1_1"
  param {
    lr_mult: 0
  }
  param {
    lr_mult: 0
  }
  param {
    lr_mult: 0
  }
  batch_norm_param {
    use_global_stats: false
  }
}
layer {
  name: "sc_g_1_1"
  type: "Scale"
  bottom: "bn_g_1_1"
  top: "sc_g_1_1"
  scale_param {
    bias_term: true
  }
}
layer {
  name: "relu_g_1_1"
  type: "ReLU"
  bottom: "sc_g_1_1"
  top: "relu_g_1_1"
}
layer {
  name: "conv_g_1_1"
  type: "Convolution"
  bottom: "relu_g_1_1"
  top: "conv_g_1_1"
  param {
    lr_mult: 1
    decay_mult: 1
  }
  param {
    lr_mult: 2
    decay_mult: 1
  }
  convolution_param {
    num_output: 128
    pad: 1
    kernel_size: 3
    stride: 2
    weight_filler {
      type: "msra"
    }
    bias_filler {
      type: "constant"
    }
  }
}
layer {
  name: "bn_g_1_2"
  type: "BatchNorm"
  bottom: "conv_g_1_1"
  top: "bn_g_1_2"
  param {
    lr_mult: 0
  }
  param {
    lr_mult: 0
  }
  param {
    lr_mult: 0
  }
  batch_norm_param {
    use_global_stats: false
  }
}
layer {
  name: "sc_g_1_2"
  type: "Scale"
  bottom: "bn_g_1_2"
  top: "sc_g_1_2"
  scale_param {
    bias_term: true
  }
}
layer {
  name: "relu_g_1_2"
  type: "ReLU"
  bottom: "sc_g_1_2"
  top: "relu_g_1_2"
}
layer {
  name: "conv_g_1_2"
  type: "Convolution"
  bottom: "relu_g_1_2"
  top: "conv_g_1_2"
  param {
    lr_mult: 1
    decay_mult: 1
  }
  param {
    lr_mult: 2
    decay_mult: 1
  }
  convolution_param {
    num_output: 128
    pad: 1
    kernel_size: 3
    stride: 1
    weight_filler {
      type: "msra"
    }
    bias_filler {
      type: "constant"
    }
  }
}
layer {
  name: "res_g"
  type: "Convolution"
  bottom: "elt_b_1"
  top: "res_g"
  param {
    lr_mult: 1
    decay_mult: 1
  }
  param {
    lr_mult: 2
    decay_mult: 1
  }
  convolution_param {
    num_output: 128
    pad: 0
    kernel_size: 1
    stride: 2
    weight_filler {
      type: "msra"
    }
    bias_filler {
      type: "constant"
    }
  }
}
layer {
  name: "elt_g_1"
  type: "Eltwise"
  bottom: "res_g"
  bottom: "conv_g_1_2"
  top: "elt_g_1"
  eltwise_param {
    operation: SUM
  }
}
layer {
  name: "bn_h_1_1"
  type: "BatchNorm"
  bottom: "elt_c_1"
  top: "bn_h_1_1"
  param {
    lr_mult: 0
  }
  param {
    lr_mult: 0
  }
  param {
    lr_mult: 0
  }
  batch_norm_param {
    use_global_stats: false
  }
}
layer {
  name: "sc_h_1_1"
  type: "Scale"
  bottom: "bn_h_1_1"
  top: "sc_h_1_1"
  scale_param {
    bias_term: true
  }
}
layer {
  name: "relu_h_1_1"
  type: "ReLU"
  bottom: "sc_h_1_1"
  top: "relu_h_1_1"
}
layer {
  name: "conv_h_1_1"
  type: "Convolution"
  bottom: "relu_h_1_1"
  top: "conv_h_1_1"
  param {
    lr_mult: 1
    decay_mult: 1
  }
  param {
    lr_mult: 2
    decay_mult: 1
  }
  convolution_param {
    num_output: 128
    pad: 1
    kernel_size: 3
    stride: 2
    weight_filler {
      type: "msra"
    }
    bias_filler {
      type: "constant"
    }
  }
}
layer {
  name: "bn_h_1_2"
  type: "BatchNorm"
  bottom: "conv_h_1_1"
  top: "bn_h_1_2"
  param {
    lr_mult: 0
  }
  param {
    lr_mult: 0
  }
  param {
    lr_mult: 0
  }
  batch_norm_param {
    use_global_stats: false
  }
}
layer {
  name: "sc_h_1_2"
  type: "Scale"
  bottom: "bn_h_1_2"
  top: "sc_h_1_2"
  scale_param {
    bias_term: true
  }
}
layer {
  name: "relu_h_1_2"
  type: "ReLU"
  bottom: "sc_h_1_2"
  top: "relu_h_1_2"
}
layer {
  name: "conv_h_1_2"
  type: "Convolution"
  bottom: "relu_h_1_2"
  top: "conv_h_1_2"
  param {
    lr_mult: 1
    decay_mult: 1
  }
  param {
    lr_mult: 2
    decay_mult: 1
  }
  convolution_param {
    num_output: 128
    pad: 1
    kernel_size: 3
    stride: 1
    weight_filler {
      type: "msra"
    }
    bias_filler {
      type: "constant"
    }
  }
}
layer {
  name: "res_h"
  type: "Convolution"
  bottom: "elt_c_1"
  top: "res_h"
  param {
    lr_mult: 1
    decay_mult: 1
  }
  param {
    lr_mult: 2
    decay_mult: 1
  }
  convolution_param {
    num_output: 128
    pad: 0
    kernel_size: 1
    stride: 2
    weight_filler {
      type: "msra"
    }
    bias_filler {
      type: "constant"
    }
  }
}
layer {
  name: "elt_h_1"
  type: "Eltwise"
  bottom: "res_h"
  bottom: "conv_h_1_2"
  top: "elt_h_1"
  eltwise_param {
    operation: SUM
  }
}
layer {
  name: "bn_i_1_1"
  type: "BatchNorm"
  bottom: "elt_c_1"
  top: "bn_i_1_1"
  param {
    lr_mult: 0
  }
  param {
    lr_mult: 0
  }
  param {
    lr_mult: 0
  }
  batch_norm_param {
    use_global_stats: false
  }
}
layer {
  name: "sc_i_1_1"
  type: "Scale"
  bottom: "bn_i_1_1"
  top: "sc_i_1_1"
  scale_param {
    bias_term: true
  }
}
layer {
  name: "relu_i_1_1"
  type: "ReLU"
  bottom: "sc_i_1_1"
  top: "relu_i_1_1"
}
layer {
  name: "conv_i_1_1"
  type: "Convolution"
  bottom: "relu_i_1_1"
  top: "conv_i_1_1"
  param {
    lr_mult: 1
    decay_mult: 1
  }
  param {
    lr_mult: 2
    decay_mult: 1
  }
  convolution_param {
    num_output: 128
    pad: 1
    kernel_size: 3
    stride: 2
    weight_filler {
      type: "msra"
    }
    bias_filler {
      type: "constant"
    }
  }
}
layer {
  name: "bn_i_1_2"
  type: "BatchNorm"
  bottom: "conv_i_1_1"
  top: "bn_i_1_2"
  param {
    lr_mult: 0
  }
  param {
    lr_mult: 0
  }
  param {
    lr_mult: 0
  }
  batch_norm_param {
    use_global_stats: false
  }
}
layer {
  name: "sc_i_1_2"
  type: "Scale"
  bottom: "bn_i_1_2"
  top: "sc_i_1_2"
  scale_param {
    bias_term: true
  }
}
layer {
  name: "relu_i_1_2"
  type: "ReLU"
  bottom: "sc_i_1_2"
  top: "relu_i_1_2"
}
layer {
  name: "conv_i_1_2"
  type: "Convolution"
  bottom: "relu_i_1_2"
  top: "conv_i_1_2"
  param {
    lr_mult: 1
    decay_mult: 1
  }
  param {
    lr_mult: 2
    decay_mult: 1
  }
  convolution_param {
    num_output: 128
    pad: 1
    kernel_size: 3
    stride: 1
    weight_filler {
      type: "msra"
    }
    bias_filler {
      type: "constant"
    }
  }
}
layer {
  name: "res_i"
  type: "Convolution"
  bottom: "elt_c_1"
  top: "res_i"
  param {
    lr_mult: 1
    decay_mult: 1
  }
  param {
    lr_mult: 2
    decay_mult: 1
  }
  convolution_param {
    num_output: 128
    pad: 0
    kernel_size: 1
    stride: 2
    weight_filler {
      type: "msra"
    }
    bias_filler {
      type: "constant"
    }
  }
}
layer {
  name: "elt_i_1"
  type: "Eltwise"
  bottom: "res_i"
  bottom: "conv_i_1_2"
  top: "elt_i_1"
  eltwise_param {
    operation: SUM
  }
}
layer {
  name: "elt_d_f"
  type: "Eltwise"
  bottom: "elt_d_1"
  bottom: "elt_f_1"
  top: "elt_d_f"
  eltwise_param {
    operation: SUM
  }
}
layer {
  name: "elt_g_i"
  type: "Eltwise"
  bottom: "elt_g_1"
  bottom: "elt_i_1"
  top: "elt_g_i"
  eltwise_param {
    operation: SUM
  }
}
layer {
  name: "bn_j_1_1"
  type: "BatchNorm"
  bottom: "elt_d_f"
  top: "bn_j_1_1"
  param {
    lr_mult: 0
  }
  param {
    lr_mult: 0
  }
  param {
    lr_mult: 0
  }
  batch_norm_param {
    use_global_stats: false
  }
}
layer {
  name: "sc_j_1_1"
  type: "Scale"
  bottom: "bn_j_1_1"
  top: "sc_j_1_1"
  scale_param {
    bias_term: true
  }
}
layer {
  name: "relu_j_1_1"
  type: "ReLU"
  bottom: "sc_j_1_1"
  top: "relu_j_1_1"
}
layer {
  name: "conv_j_1_1"
  type: "Convolution"
  bottom: "relu_j_1_1"
  top: "conv_j_1_1"
  param {
    lr_mult: 1
    decay_mult: 1
  }
  param {
    lr_mult: 2
    decay_mult: 1
  }
  convolution_param {
    num_output: 256
    pad: 1
    kernel_size: 3
    stride: 2
    weight_filler {
      type: "msra"
    }
    bias_filler {
      type: "constant"
    }
  }
}
layer {
  name: "bn_j_1_2"
  type: "BatchNorm"
  bottom: "conv_j_1_1"
  top: "bn_j_1_2"
  param {
    lr_mult: 0
  }
  param {
    lr_mult: 0
  }
  param {
    lr_mult: 0
  }
  batch_norm_param {
    use_global_stats: false
  }
}
layer {
  name: "sc_j_1_2"
  type: "Scale"
  bottom: "bn_j_1_2"
  top: "sc_j_1_2"
  scale_param {
    bias_term: true
  }
}
layer {
  name: "relu_j_1_2"
  type: "ReLU"
  bottom: "sc_j_1_2"
  top: "relu_j_1_2"
}
layer {
  name: "conv_j_1_2"
  type: "Convolution"
  bottom: "relu_j_1_2"
  top: "conv_j_1_2"
  param {
    lr_mult: 1
    decay_mult: 1
  }
  param {
    lr_mult: 2
    decay_mult: 1
  }
  convolution_param {
    num_output: 256
    pad: 1
    kernel_size: 3
    stride: 1
    weight_filler {
      type: "msra"
    }
    bias_filler {
      type: "constant"
    }
  }
}
layer {
  name: "res_j"
  type: "Convolution"
  bottom: "elt_d_f"
  top: "res_j"
  param {
    lr_mult: 1
    decay_mult: 1
  }
  param {
    lr_mult: 2
    decay_mult: 1
  }
  convolution_param {
    num_output: 256
    pad: 0
    kernel_size: 1
    stride: 2
    weight_filler {
      type: "msra"
    }
    bias_filler {
      type: "constant"
    }
  }
}
layer {
  name: "elt_j_1"
  type: "Eltwise"
  bottom: "res_j"
  bottom: "conv_j_1_2"
  top: "elt_j_1"
  eltwise_param {
    operation: SUM
  }
}
layer {
  name: "bn_e_1_1"
  type: "BatchNorm"
  bottom: "elt_a_1"
  top: "bn_e_1_1"
  param {
    lr_mult: 0
  }
  param {
    lr_mult: 0
  }
  param {
    lr_mult: 0
  }
  batch_norm_param {
    use_global_stats: false
  }
}
layer {
  name: "sc_e_1_1"
  type: "Scale"
  bottom: "bn_e_1_1"
  top: "sc_e_1_1"
  scale_param {
    bias_term: true
  }
}
layer {
  name: "relu_e_1_1"
  type: "ReLU"
  bottom: "sc_e_1_1"
  top: "relu_e_1_1"
}
layer {
  name: "conv_e_1_1"
  type: "Convolution"
  bottom: "relu_e_1_1"
  top: "conv_e_1_1"
  param {
    lr_mult: 1
    decay_mult: 1
  }
  param {
    lr_mult: 2
    decay_mult: 1
  }
  convolution_param {
    num_output: 128
    pad: 1
    kernel_size: 3
    stride: 2
    weight_filler {
      type: "msra"
    }
    bias_filler {
      type: "constant"
    }
  }
}
layer {
  name: "bn_e_1_2"
  type: "BatchNorm"
  bottom: "conv_e_1_1"
  top: "bn_e_1_2"
  param {
    lr_mult: 0
  }
  param {
    lr_mult: 0
  }
  param {
    lr_mult: 0
  }
  batch_norm_param {
    use_global_stats: false
  }
}
layer {
  name: "sc_e_1_2"
  type: "Scale"
  bottom: "bn_e_1_2"
  top: "sc_e_1_2"
  scale_param {
    bias_term: true
  }
}
layer {
  name: "relu_e_1_2"
  type: "ReLU"
  bottom: "sc_e_1_2"
  top: "relu_e_1_2"
}
layer {
  name: "conv_e_1_2"
  type: "Convolution"
  bottom: "relu_e_1_2"
  top: "conv_e_1_2"
  param {
    lr_mult: 1
    decay_mult: 1
  }
  param {
    lr_mult: 2
    decay_mult: 1
  }
  convolution_param {
    num_output: 128
    pad: 1
    kernel_size: 3
    stride: 1
    weight_filler {
      type: "msra"
    }
    bias_filler {
      type: "constant"
    }
  }
}
layer {
  name: "res_e"
  type: "Convolution"
  bottom: "elt_a_1"
  top: "res_e"
  param {
    lr_mult: 1
    decay_mult: 1
  }
  param {
    lr_mult: 2
    decay_mult: 1
  }
  convolution_param {
    num_output: 128
    pad: 0
    kernel_size: 1
    stride: 2
    weight_filler {
      type: "msra"
    }
    bias_filler {
      type: "constant"
    }
  }
}
layer {
  name: "elt_e_1"
  type: "Eltwise"
  bottom: "res_e"
  bottom: "conv_e_1_2"
  top: "elt_e_1"
  eltwise_param {
    operation: SUM
  }
}
layer {
  name: "elt_e_h"
  type: "Eltwise"
  bottom: "elt_e_1"
  bottom: "elt_h_1"
  top: "elt_e_h"
  eltwise_param {
    operation: SUM
  }
}
layer {
  name: "bn_k_1_1"
  type: "BatchNorm"
  bottom: "elt_e_h"
  top: "bn_k_1_1"
  param {
    lr_mult: 0
  }
  param {
    lr_mult: 0
  }
  param {
    lr_mult: 0
  }
  batch_norm_param {
    use_global_stats: false
  }
}
layer {
  name: "sc_k_1_1"
  type: "Scale"
  bottom: "bn_k_1_1"
  top: "sc_k_1_1"
  scale_param {
    bias_term: true
  }
}
layer {
  name: "relu_k_1_1"
  type: "ReLU"
  bottom: "sc_k_1_1"
  top: "relu_k_1_1"
}
layer {
  name: "conv_k_1_1"
  type: "Convolution"
  bottom: "relu_k_1_1"
  top: "conv_k_1_1"
  param {
    lr_mult: 1
    decay_mult: 1
  }
  param {
    lr_mult: 2
    decay_mult: 1
  }
  convolution_param {
    num_output: 256
    pad: 1
    kernel_size: 3
    stride: 2
    weight_filler {
      type: "msra"
    }
    bias_filler {
      type: "constant"
    }
  }
}
layer {
  name: "bn_k_1_2"
  type: "BatchNorm"
  bottom: "conv_k_1_1"
  top: "bn_k_1_2"
  param {
    lr_mult: 0
  }
  param {
    lr_mult: 0
  }
  param {
    lr_mult: 0
  }
  batch_norm_param {
    use_global_stats: false
  }
}
layer {
  name: "sc_k_1_2"
  type: "Scale"
  bottom: "bn_k_1_2"
  top: "sc_k_1_2"
  scale_param {
    bias_term: true
  }
}
layer {
  name: "relu_k_1_2"
  type: "ReLU"
  bottom: "sc_k_1_2"
  top: "relu_k_1_2"
}
layer {
  name: "conv_k_1_2"
  type: "Convolution"
  bottom: "relu_k_1_2"
  top: "conv_k_1_2"
  param {
    lr_mult: 1
    decay_mult: 1
  }
  param {
    lr_mult: 2
    decay_mult: 1
  }
  convolution_param {
    num_output: 256
    pad: 1
    kernel_size: 3
    stride: 1
    weight_filler {
      type: "msra"
    }
    bias_filler {
      type: "constant"
    }
  }
}
layer {
  name: "res_k"
  type: "Convolution"
  bottom: "elt_e_h"
  top: "res_k"
  param {
    lr_mult: 1
    decay_mult: 1
  }
  param {
    lr_mult: 2
    decay_mult: 1
  }
  convolution_param {
    num_output: 256
    pad: 0
    kernel_size: 1
    stride: 2
    weight_filler {
      type: "msra"
    }
    bias_filler {
      type: "constant"
    }
  }
}
layer {
  name: "elt_k_1"
  type: "Eltwise"
  bottom: "res_k"
  bottom: "conv_k_1_2"
  top: "elt_k_1"
  eltwise_param {
    operation: SUM
  }
}
layer {
  name: "bn_l_1_1"
  type: "BatchNorm"
  bottom: "elt_g_i"
  top: "bn_l_1_1"
  param {
    lr_mult: 0
  }
  param {
    lr_mult: 0
  }
  param {
    lr_mult: 0
  }
  batch_norm_param {
    use_global_stats: false
  }
}
layer {
  name: "sc_l_1_1"
  type: "Scale"
  bottom: "bn_l_1_1"
  top: "sc_l_1_1"
  scale_param {
    bias_term: true
  }
}
layer {
  name: "relu_l_1_1"
  type: "ReLU"
  bottom: "sc_l_1_1"
  top: "relu_l_1_1"
}
layer {
  name: "conv_l_1_1"
  type: "Convolution"
  bottom: "relu_l_1_1"
  top: "conv_l_1_1"
  param {
    lr_mult: 1
    decay_mult: 1
  }
  param {
    lr_mult: 2
    decay_mult: 1
  }
  convolution_param {
    num_output: 256
    pad: 1
    kernel_size: 3
    stride: 2
    weight_filler {
      type: "msra"
    }
    bias_filler {
      type: "constant"
    }
  }
}
layer {
  name: "bn_l_1_2"
  type: "BatchNorm"
  bottom: "conv_l_1_1"
  top: "bn_l_1_2"
  param {
    lr_mult: 0
  }
  param {
    lr_mult: 0
  }
  param {
    lr_mult: 0
  }
  batch_norm_param {
    use_global_stats: false
  }
}
layer {
  name: "sc_l_1_2"
  type: "Scale"
  bottom: "bn_l_1_2"
  top: "sc_l_1_2"
  scale_param {
    bias_term: true
  }
}
layer {
  name: "relu_l_1_2"
  type: "ReLU"
  bottom: "sc_l_1_2"
  top: "relu_l_1_2"
}
layer {
  name: "conv_l_1_2"
  type: "Convolution"
  bottom: "relu_l_1_2"
  top: "conv_l_1_2"
  param {
    lr_mult: 1
    decay_mult: 1
  }
  param {
    lr_mult: 2
    decay_mult: 1
  }
  convolution_param {
    num_output: 256
    pad: 1
    kernel_size: 3
    stride: 1
    weight_filler {
      type: "msra"
    }
    bias_filler {
      type: "constant"
    }
  }
}
layer {
  name: "res_l"
  type: "Convolution"
  bottom: "elt_g_i"
  top: "res_l"
  param {
    lr_mult: 1
    decay_mult: 1
  }
  param {
    lr_mult: 2
    decay_mult: 1
  }
  convolution_param {
    num_output: 256
    pad: 0
    kernel_size: 1
    stride: 2
    weight_filler {
      type: "msra"
    }
    bias_filler {
      type: "constant"
    }
  }
}
layer {
  name: "elt_l_1"
  type: "Eltwise"
  bottom: "res_l"
  bottom: "conv_l_1_2"
  top: "elt_l_1"
  eltwise_param {
    operation: SUM
  }
}
layer {
  name: "elt_j_k_l"
  type: "Eltwise"
  bottom: "elt_j_1"
  bottom: "elt_k_1"
  bottom: "elt_l_1"
  top: "elt_j_k_l"
  eltwise_param {
    operation: SUM
  }
}
layer {
  name: "bn_m_1_1"
  type: "BatchNorm"
  bottom: "elt_j_k_l"
  top: "bn_m_1_1"
  param {
    lr_mult: 0
  }
  param {
    lr_mult: 0
  }
  param {
    lr_mult: 0
  }
  batch_norm_param {
    use_global_stats: false
  }
}
layer {
  name: "sc_m_1_1"
  type: "Scale"
  bottom: "bn_m_1_1"
  top: "sc_m_1_1"
  scale_param {
    bias_term: true
  }
}
layer {
  name: "relu_m_1_1"
  type: "ReLU"
  bottom: "sc_m_1_1"
  top: "relu_m_1_1"
}
layer {
  name: "gap"
  type: "Pooling"
  bottom: "relu_m_1_1"
  top: "gap"
  pooling_param {
    pool: AVE
    kernel_size: 8
    stride: 1
  }
}
layer {
  name: "ip1"
  type: "InnerProduct"
  bottom: "gap"
  top: "ip1"
  param {
    lr_mult: 1
    decay_mult: 1
  }
  param {
    lr_mult: 2
    decay_mult: 0
  }
  inner_product_param {
    num_output: 10
    weight_filler {
      type: "msra"
    }
    bias_filler {
      type: "constant"
      value: 0
    }
  }
}
layer {
  name: "loss"
  type: "SoftmaxWithLoss"
  bottom: "ip1"
  bottom: "label"
  top: "loss"
}
I0620 19:54:19.875243 18458 layer_factory.hpp:77] Creating layer resnet
I0620 19:54:19.875769 18458 net.cpp:91] Creating Layer resnet
I0620 19:54:19.875804 18458 net.cpp:399] resnet -> data
I0620 19:54:19.875847 18458 net.cpp:399] resnet -> label
I0620 19:54:19.875869 18458 data_transformer.cpp:25] Loading mean file from: /home/takeki/caffe/examples/cifar10/mean.binaryproto
I0620 19:54:19.877041 18501 db_lmdb.cpp:35] Opened lmdb /home/takeki/caffe/examples/cifar10/cifar10_train_lmdb
I0620 19:54:19.888336 18458 data_layer.cpp:41] output data size: 128,3,32,32
I0620 19:54:19.891398 18458 net.cpp:141] Setting up resnet
I0620 19:54:19.891436 18458 net.cpp:148] Top shape: 128 3 32 32 (393216)
I0620 19:54:19.891444 18458 net.cpp:148] Top shape: 128 (128)
I0620 19:54:19.891448 18458 net.cpp:156] Memory required for data: 1573376
I0620 19:54:19.891458 18458 layer_factory.hpp:77] Creating layer conv0
I0620 19:54:19.891496 18458 net.cpp:91] Creating Layer conv0
I0620 19:54:19.891505 18458 net.cpp:425] conv0 <- data
I0620 19:54:19.891523 18458 net.cpp:399] conv0 -> conv0
I0620 19:54:20.060976 18458 net.cpp:141] Setting up conv0
I0620 19:54:20.061028 18458 net.cpp:148] Top shape: 128 16 32 32 (2097152)
I0620 19:54:20.061035 18458 net.cpp:156] Memory required for data: 9961984
I0620 19:54:20.061058 18458 layer_factory.hpp:77] Creating layer conv0_conv0_0_split
I0620 19:54:20.061089 18458 net.cpp:91] Creating Layer conv0_conv0_0_split
I0620 19:54:20.061095 18458 net.cpp:425] conv0_conv0_0_split <- conv0
I0620 19:54:20.061105 18458 net.cpp:399] conv0_conv0_0_split -> conv0_conv0_0_split_0
I0620 19:54:20.061118 18458 net.cpp:399] conv0_conv0_0_split -> conv0_conv0_0_split_1
I0620 19:54:20.061130 18458 net.cpp:399] conv0_conv0_0_split -> conv0_conv0_0_split_2
I0620 19:54:20.061139 18458 net.cpp:399] conv0_conv0_0_split -> conv0_conv0_0_split_3
I0620 19:54:20.061147 18458 net.cpp:399] conv0_conv0_0_split -> conv0_conv0_0_split_4
I0620 19:54:20.061158 18458 net.cpp:399] conv0_conv0_0_split -> conv0_conv0_0_split_5
I0620 19:54:20.061241 18458 net.cpp:141] Setting up conv0_conv0_0_split
I0620 19:54:20.061252 18458 net.cpp:148] Top shape: 128 16 32 32 (2097152)
I0620 19:54:20.061264 18458 net.cpp:148] Top shape: 128 16 32 32 (2097152)
I0620 19:54:20.061269 18458 net.cpp:148] Top shape: 128 16 32 32 (2097152)
I0620 19:54:20.061275 18458 net.cpp:148] Top shape: 128 16 32 32 (2097152)
I0620 19:54:20.061282 18458 net.cpp:148] Top shape: 128 16 32 32 (2097152)
I0620 19:54:20.061288 18458 net.cpp:148] Top shape: 128 16 32 32 (2097152)
I0620 19:54:20.061293 18458 net.cpp:156] Memory required for data: 60293632
I0620 19:54:20.061298 18458 layer_factory.hpp:77] Creating layer bn_a_1_1
I0620 19:54:20.061308 18458 net.cpp:91] Creating Layer bn_a_1_1
I0620 19:54:20.061314 18458 net.cpp:425] bn_a_1_1 <- conv0_conv0_0_split_0
I0620 19:54:20.061322 18458 net.cpp:399] bn_a_1_1 -> bn_a_1_1
I0620 19:54:20.061486 18458 net.cpp:141] Setting up bn_a_1_1
I0620 19:54:20.061497 18458 net.cpp:148] Top shape: 128 16 32 32 (2097152)
I0620 19:54:20.061502 18458 net.cpp:156] Memory required for data: 68682240
I0620 19:54:20.061517 18458 layer_factory.hpp:77] Creating layer sc_a_1_1
I0620 19:54:20.061527 18458 net.cpp:91] Creating Layer sc_a_1_1
I0620 19:54:20.061534 18458 net.cpp:425] sc_a_1_1 <- bn_a_1_1
I0620 19:54:20.061542 18458 net.cpp:399] sc_a_1_1 -> sc_a_1_1
I0620 19:54:20.061583 18458 layer_factory.hpp:77] Creating layer sc_a_1_1
I0620 19:54:20.061681 18458 net.cpp:141] Setting up sc_a_1_1
I0620 19:54:20.061693 18458 net.cpp:148] Top shape: 128 16 32 32 (2097152)
I0620 19:54:20.061699 18458 net.cpp:156] Memory required for data: 77070848
I0620 19:54:20.061707 18458 layer_factory.hpp:77] Creating layer relu_a_1_1
I0620 19:54:20.061717 18458 net.cpp:91] Creating Layer relu_a_1_1
I0620 19:54:20.061724 18458 net.cpp:425] relu_a_1_1 <- sc_a_1_1
I0620 19:54:20.061730 18458 net.cpp:399] relu_a_1_1 -> relu_a_1_1
I0620 19:54:20.062005 18458 net.cpp:141] Setting up relu_a_1_1
I0620 19:54:20.062019 18458 net.cpp:148] Top shape: 128 16 32 32 (2097152)
I0620 19:54:20.062050 18458 net.cpp:156] Memory required for data: 85459456
I0620 19:54:20.062057 18458 layer_factory.hpp:77] Creating layer conv_a_1_1
I0620 19:54:20.062072 18458 net.cpp:91] Creating Layer conv_a_1_1
I0620 19:54:20.062078 18458 net.cpp:425] conv_a_1_1 <- relu_a_1_1
I0620 19:54:20.062088 18458 net.cpp:399] conv_a_1_1 -> conv_a_1_1
I0620 19:54:20.063568 18458 net.cpp:141] Setting up conv_a_1_1
I0620 19:54:20.063585 18458 net.cpp:148] Top shape: 128 64 32 32 (8388608)
I0620 19:54:20.063602 18458 net.cpp:156] Memory required for data: 119013888
I0620 19:54:20.063614 18458 layer_factory.hpp:77] Creating layer bn_a_1_2
I0620 19:54:20.063624 18458 net.cpp:91] Creating Layer bn_a_1_2
I0620 19:54:20.063632 18458 net.cpp:425] bn_a_1_2 <- conv_a_1_1
I0620 19:54:20.063639 18458 net.cpp:399] bn_a_1_2 -> bn_a_1_2
I0620 19:54:20.063803 18458 net.cpp:141] Setting up bn_a_1_2
I0620 19:54:20.063829 18458 net.cpp:148] Top shape: 128 64 32 32 (8388608)
I0620 19:54:20.063835 18458 net.cpp:156] Memory required for data: 152568320
I0620 19:54:20.063849 18458 layer_factory.hpp:77] Creating layer sc_a_1_2
I0620 19:54:20.063859 18458 net.cpp:91] Creating Layer sc_a_1_2
I0620 19:54:20.063864 18458 net.cpp:425] sc_a_1_2 <- bn_a_1_2
I0620 19:54:20.063871 18458 net.cpp:399] sc_a_1_2 -> sc_a_1_2
I0620 19:54:20.063910 18458 layer_factory.hpp:77] Creating layer sc_a_1_2
I0620 19:54:20.064020 18458 net.cpp:141] Setting up sc_a_1_2
I0620 19:54:20.064033 18458 net.cpp:148] Top shape: 128 64 32 32 (8388608)
I0620 19:54:20.064038 18458 net.cpp:156] Memory required for data: 186122752
I0620 19:54:20.064048 18458 layer_factory.hpp:77] Creating layer relu_a_1_2
I0620 19:54:20.064057 18458 net.cpp:91] Creating Layer relu_a_1_2
I0620 19:54:20.064067 18458 net.cpp:425] relu_a_1_2 <- sc_a_1_2
I0620 19:54:20.064074 18458 net.cpp:399] relu_a_1_2 -> relu_a_1_2
I0620 19:54:20.064400 18458 net.cpp:141] Setting up relu_a_1_2
I0620 19:54:20.064415 18458 net.cpp:148] Top shape: 128 64 32 32 (8388608)
I0620 19:54:20.064434 18458 net.cpp:156] Memory required for data: 219677184
I0620 19:54:20.064440 18458 layer_factory.hpp:77] Creating layer conv_a_1_2
I0620 19:54:20.064451 18458 net.cpp:91] Creating Layer conv_a_1_2
I0620 19:54:20.064457 18458 net.cpp:425] conv_a_1_2 <- relu_a_1_2
I0620 19:54:20.064465 18458 net.cpp:399] conv_a_1_2 -> conv_a_1_2
I0620 19:54:20.066699 18458 net.cpp:141] Setting up conv_a_1_2
I0620 19:54:20.066727 18458 net.cpp:148] Top shape: 128 64 32 32 (8388608)
I0620 19:54:20.066733 18458 net.cpp:156] Memory required for data: 253231616
I0620 19:54:20.066742 18458 layer_factory.hpp:77] Creating layer res_a
I0620 19:54:20.066753 18458 net.cpp:91] Creating Layer res_a
I0620 19:54:20.066759 18458 net.cpp:425] res_a <- conv0_conv0_0_split_1
I0620 19:54:20.066767 18458 net.cpp:399] res_a -> res_a
I0620 19:54:20.067778 18458 net.cpp:141] Setting up res_a
I0620 19:54:20.067806 18458 net.cpp:148] Top shape: 128 64 32 32 (8388608)
I0620 19:54:20.067811 18458 net.cpp:156] Memory required for data: 286786048
I0620 19:54:20.067824 18458 layer_factory.hpp:77] Creating layer elt_a_1
I0620 19:54:20.067834 18458 net.cpp:91] Creating Layer elt_a_1
I0620 19:54:20.067839 18458 net.cpp:425] elt_a_1 <- res_a
I0620 19:54:20.067845 18458 net.cpp:425] elt_a_1 <- conv_a_1_2
I0620 19:54:20.067870 18458 net.cpp:399] elt_a_1 -> elt_a_1
I0620 19:54:20.067903 18458 net.cpp:141] Setting up elt_a_1
I0620 19:54:20.067914 18458 net.cpp:148] Top shape: 128 64 32 32 (8388608)
I0620 19:54:20.067919 18458 net.cpp:156] Memory required for data: 320340480
I0620 19:54:20.067924 18458 layer_factory.hpp:77] Creating layer elt_a_1_elt_a_1_0_split
I0620 19:54:20.067934 18458 net.cpp:91] Creating Layer elt_a_1_elt_a_1_0_split
I0620 19:54:20.067939 18458 net.cpp:425] elt_a_1_elt_a_1_0_split <- elt_a_1
I0620 19:54:20.067946 18458 net.cpp:399] elt_a_1_elt_a_1_0_split -> elt_a_1_elt_a_1_0_split_0
I0620 19:54:20.067955 18458 net.cpp:399] elt_a_1_elt_a_1_0_split -> elt_a_1_elt_a_1_0_split_1
I0620 19:54:20.067965 18458 net.cpp:399] elt_a_1_elt_a_1_0_split -> elt_a_1_elt_a_1_0_split_2
I0620 19:54:20.067991 18458 net.cpp:399] elt_a_1_elt_a_1_0_split -> elt_a_1_elt_a_1_0_split_3
I0620 19:54:20.068049 18458 net.cpp:141] Setting up elt_a_1_elt_a_1_0_split
I0620 19:54:20.068060 18458 net.cpp:148] Top shape: 128 64 32 32 (8388608)
I0620 19:54:20.068065 18458 net.cpp:148] Top shape: 128 64 32 32 (8388608)
I0620 19:54:20.068071 18458 net.cpp:148] Top shape: 128 64 32 32 (8388608)
I0620 19:54:20.068076 18458 net.cpp:148] Top shape: 128 64 32 32 (8388608)
I0620 19:54:20.068080 18458 net.cpp:156] Memory required for data: 454558208
I0620 19:54:20.068085 18458 layer_factory.hpp:77] Creating layer bn_b_1_1
I0620 19:54:20.068095 18458 net.cpp:91] Creating Layer bn_b_1_1
I0620 19:54:20.068101 18458 net.cpp:425] bn_b_1_1 <- conv0_conv0_0_split_2
I0620 19:54:20.068109 18458 net.cpp:399] bn_b_1_1 -> bn_b_1_1
I0620 19:54:20.068284 18458 net.cpp:141] Setting up bn_b_1_1
I0620 19:54:20.068295 18458 net.cpp:148] Top shape: 128 16 32 32 (2097152)
I0620 19:54:20.068301 18458 net.cpp:156] Memory required for data: 462946816
I0620 19:54:20.068310 18458 layer_factory.hpp:77] Creating layer sc_b_1_1
I0620 19:54:20.068334 18458 net.cpp:91] Creating Layer sc_b_1_1
I0620 19:54:20.068342 18458 net.cpp:425] sc_b_1_1 <- bn_b_1_1
I0620 19:54:20.068349 18458 net.cpp:399] sc_b_1_1 -> sc_b_1_1
I0620 19:54:20.068397 18458 layer_factory.hpp:77] Creating layer sc_b_1_1
I0620 19:54:20.068507 18458 net.cpp:141] Setting up sc_b_1_1
I0620 19:54:20.068519 18458 net.cpp:148] Top shape: 128 16 32 32 (2097152)
I0620 19:54:20.068526 18458 net.cpp:156] Memory required for data: 471335424
I0620 19:54:20.068534 18458 layer_factory.hpp:77] Creating layer relu_b_1_1
I0620 19:54:20.068544 18458 net.cpp:91] Creating Layer relu_b_1_1
I0620 19:54:20.068552 18458 net.cpp:425] relu_b_1_1 <- sc_b_1_1
I0620 19:54:20.068558 18458 net.cpp:399] relu_b_1_1 -> relu_b_1_1
I0620 19:54:20.068744 18458 net.cpp:141] Setting up relu_b_1_1
I0620 19:54:20.068770 18458 net.cpp:148] Top shape: 128 16 32 32 (2097152)
I0620 19:54:20.068778 18458 net.cpp:156] Memory required for data: 479724032
I0620 19:54:20.068783 18458 layer_factory.hpp:77] Creating layer conv_b_1_1
I0620 19:54:20.068797 18458 net.cpp:91] Creating Layer conv_b_1_1
I0620 19:54:20.068804 18458 net.cpp:425] conv_b_1_1 <- relu_b_1_1
I0620 19:54:20.068814 18458 net.cpp:399] conv_b_1_1 -> conv_b_1_1
I0620 19:54:20.070000 18458 net.cpp:141] Setting up conv_b_1_1
I0620 19:54:20.070015 18458 net.cpp:148] Top shape: 128 64 32 32 (8388608)
I0620 19:54:20.070022 18458 net.cpp:156] Memory required for data: 513278464
I0620 19:54:20.070030 18458 layer_factory.hpp:77] Creating layer bn_b_1_2
I0620 19:54:20.070042 18458 net.cpp:91] Creating Layer bn_b_1_2
I0620 19:54:20.070050 18458 net.cpp:425] bn_b_1_2 <- conv_b_1_1
I0620 19:54:20.070057 18458 net.cpp:399] bn_b_1_2 -> bn_b_1_2
I0620 19:54:20.070241 18458 net.cpp:141] Setting up bn_b_1_2
I0620 19:54:20.070252 18458 net.cpp:148] Top shape: 128 64 32 32 (8388608)
I0620 19:54:20.070257 18458 net.cpp:156] Memory required for data: 546832896
I0620 19:54:20.070266 18458 layer_factory.hpp:77] Creating layer sc_b_1_2
I0620 19:54:20.070276 18458 net.cpp:91] Creating Layer sc_b_1_2
I0620 19:54:20.070282 18458 net.cpp:425] sc_b_1_2 <- bn_b_1_2
I0620 19:54:20.070292 18458 net.cpp:399] sc_b_1_2 -> sc_b_1_2
I0620 19:54:20.070333 18458 layer_factory.hpp:77] Creating layer sc_b_1_2
I0620 19:54:20.070436 18458 net.cpp:141] Setting up sc_b_1_2
I0620 19:54:20.070449 18458 net.cpp:148] Top shape: 128 64 32 32 (8388608)
I0620 19:54:20.070454 18458 net.cpp:156] Memory required for data: 580387328
I0620 19:54:20.070462 18458 layer_factory.hpp:77] Creating layer relu_b_1_2
I0620 19:54:20.070471 18458 net.cpp:91] Creating Layer relu_b_1_2
I0620 19:54:20.070477 18458 net.cpp:425] relu_b_1_2 <- sc_b_1_2
I0620 19:54:20.070484 18458 net.cpp:399] relu_b_1_2 -> relu_b_1_2
I0620 19:54:20.070665 18458 net.cpp:141] Setting up relu_b_1_2
I0620 19:54:20.070678 18458 net.cpp:148] Top shape: 128 64 32 32 (8388608)
I0620 19:54:20.070690 18458 net.cpp:156] Memory required for data: 613941760
I0620 19:54:20.070709 18458 layer_factory.hpp:77] Creating layer conv_b_1_2
I0620 19:54:20.070739 18458 net.cpp:91] Creating Layer conv_b_1_2
I0620 19:54:20.070747 18458 net.cpp:425] conv_b_1_2 <- relu_b_1_2
I0620 19:54:20.070755 18458 net.cpp:399] conv_b_1_2 -> conv_b_1_2
I0620 19:54:20.072727 18458 net.cpp:141] Setting up conv_b_1_2
I0620 19:54:20.072742 18458 net.cpp:148] Top shape: 128 64 32 32 (8388608)
I0620 19:54:20.072762 18458 net.cpp:156] Memory required for data: 647496192
I0620 19:54:20.072770 18458 layer_factory.hpp:77] Creating layer res_b
I0620 19:54:20.072787 18458 net.cpp:91] Creating Layer res_b
I0620 19:54:20.072794 18458 net.cpp:425] res_b <- conv0_conv0_0_split_3
I0620 19:54:20.072803 18458 net.cpp:399] res_b -> res_b
I0620 19:54:20.073873 18458 net.cpp:141] Setting up res_b
I0620 19:54:20.073889 18458 net.cpp:148] Top shape: 128 64 32 32 (8388608)
I0620 19:54:20.073906 18458 net.cpp:156] Memory required for data: 681050624
I0620 19:54:20.073921 18458 layer_factory.hpp:77] Creating layer elt_b_1
I0620 19:54:20.073932 18458 net.cpp:91] Creating Layer elt_b_1
I0620 19:54:20.073938 18458 net.cpp:425] elt_b_1 <- res_b
I0620 19:54:20.073945 18458 net.cpp:425] elt_b_1 <- conv_b_1_2
I0620 19:54:20.073954 18458 net.cpp:399] elt_b_1 -> elt_b_1
I0620 19:54:20.073987 18458 net.cpp:141] Setting up elt_b_1
I0620 19:54:20.073999 18458 net.cpp:148] Top shape: 128 64 32 32 (8388608)
I0620 19:54:20.074004 18458 net.cpp:156] Memory required for data: 714605056
I0620 19:54:20.074009 18458 layer_factory.hpp:77] Creating layer elt_b_1_elt_b_1_0_split
I0620 19:54:20.074018 18458 net.cpp:91] Creating Layer elt_b_1_elt_b_1_0_split
I0620 19:54:20.074034 18458 net.cpp:425] elt_b_1_elt_b_1_0_split <- elt_b_1
I0620 19:54:20.074045 18458 net.cpp:399] elt_b_1_elt_b_1_0_split -> elt_b_1_elt_b_1_0_split_0
I0620 19:54:20.074055 18458 net.cpp:399] elt_b_1_elt_b_1_0_split -> elt_b_1_elt_b_1_0_split_1
I0620 19:54:20.074064 18458 net.cpp:399] elt_b_1_elt_b_1_0_split -> elt_b_1_elt_b_1_0_split_2
I0620 19:54:20.074077 18458 net.cpp:399] elt_b_1_elt_b_1_0_split -> elt_b_1_elt_b_1_0_split_3
I0620 19:54:20.074138 18458 net.cpp:141] Setting up elt_b_1_elt_b_1_0_split
I0620 19:54:20.074151 18458 net.cpp:148] Top shape: 128 64 32 32 (8388608)
I0620 19:54:20.074159 18458 net.cpp:148] Top shape: 128 64 32 32 (8388608)
I0620 19:54:20.074164 18458 net.cpp:148] Top shape: 128 64 32 32 (8388608)
I0620 19:54:20.074172 18458 net.cpp:148] Top shape: 128 64 32 32 (8388608)
I0620 19:54:20.074177 18458 net.cpp:156] Memory required for data: 848822784
I0620 19:54:20.074182 18458 layer_factory.hpp:77] Creating layer bn_c_1_1
I0620 19:54:20.074189 18458 net.cpp:91] Creating Layer bn_c_1_1
I0620 19:54:20.074195 18458 net.cpp:425] bn_c_1_1 <- conv0_conv0_0_split_4
I0620 19:54:20.074206 18458 net.cpp:399] bn_c_1_1 -> bn_c_1_1
I0620 19:54:20.074391 18458 net.cpp:141] Setting up bn_c_1_1
I0620 19:54:20.074404 18458 net.cpp:148] Top shape: 128 16 32 32 (2097152)
I0620 19:54:20.074409 18458 net.cpp:156] Memory required for data: 857211392
I0620 19:54:20.074419 18458 layer_factory.hpp:77] Creating layer sc_c_1_1
I0620 19:54:20.074430 18458 net.cpp:91] Creating Layer sc_c_1_1
I0620 19:54:20.074437 18458 net.cpp:425] sc_c_1_1 <- bn_c_1_1
I0620 19:54:20.074445 18458 net.cpp:399] sc_c_1_1 -> sc_c_1_1
I0620 19:54:20.074486 18458 layer_factory.hpp:77] Creating layer sc_c_1_1
I0620 19:54:20.074610 18458 net.cpp:141] Setting up sc_c_1_1
I0620 19:54:20.074621 18458 net.cpp:148] Top shape: 128 16 32 32 (2097152)
I0620 19:54:20.074627 18458 net.cpp:156] Memory required for data: 865600000
I0620 19:54:20.074635 18458 layer_factory.hpp:77] Creating layer relu_c_1_1
I0620 19:54:20.074643 18458 net.cpp:91] Creating Layer relu_c_1_1
I0620 19:54:20.074650 18458 net.cpp:425] relu_c_1_1 <- sc_c_1_1
I0620 19:54:20.074672 18458 net.cpp:399] relu_c_1_1 -> relu_c_1_1
I0620 19:54:20.074975 18458 net.cpp:141] Setting up relu_c_1_1
I0620 19:54:20.074995 18458 net.cpp:148] Top shape: 128 16 32 32 (2097152)
I0620 19:54:20.075002 18458 net.cpp:156] Memory required for data: 873988608
I0620 19:54:20.075007 18458 layer_factory.hpp:77] Creating layer conv_c_1_1
I0620 19:54:20.075038 18458 net.cpp:91] Creating Layer conv_c_1_1
I0620 19:54:20.075048 18458 net.cpp:425] conv_c_1_1 <- relu_c_1_1
I0620 19:54:20.075062 18458 net.cpp:399] conv_c_1_1 -> conv_c_1_1
I0620 19:54:20.076164 18458 net.cpp:141] Setting up conv_c_1_1
I0620 19:54:20.076179 18458 net.cpp:148] Top shape: 128 64 32 32 (8388608)
I0620 19:54:20.076200 18458 net.cpp:156] Memory required for data: 907543040
I0620 19:54:20.076210 18458 layer_factory.hpp:77] Creating layer bn_c_1_2
I0620 19:54:20.076220 18458 net.cpp:91] Creating Layer bn_c_1_2
I0620 19:54:20.076228 18458 net.cpp:425] bn_c_1_2 <- conv_c_1_1
I0620 19:54:20.076238 18458 net.cpp:399] bn_c_1_2 -> bn_c_1_2
I0620 19:54:20.076439 18458 net.cpp:141] Setting up bn_c_1_2
I0620 19:54:20.076452 18458 net.cpp:148] Top shape: 128 64 32 32 (8388608)
I0620 19:54:20.076457 18458 net.cpp:156] Memory required for data: 941097472
I0620 19:54:20.076467 18458 layer_factory.hpp:77] Creating layer sc_c_1_2
I0620 19:54:20.076478 18458 net.cpp:91] Creating Layer sc_c_1_2
I0620 19:54:20.076484 18458 net.cpp:425] sc_c_1_2 <- bn_c_1_2
I0620 19:54:20.076491 18458 net.cpp:399] sc_c_1_2 -> sc_c_1_2
I0620 19:54:20.076539 18458 layer_factory.hpp:77] Creating layer sc_c_1_2
I0620 19:54:20.076658 18458 net.cpp:141] Setting up sc_c_1_2
I0620 19:54:20.076669 18458 net.cpp:148] Top shape: 128 64 32 32 (8388608)
I0620 19:54:20.076675 18458 net.cpp:156] Memory required for data: 974651904
I0620 19:54:20.076683 18458 layer_factory.hpp:77] Creating layer relu_c_1_2
I0620 19:54:20.076695 18458 net.cpp:91] Creating Layer relu_c_1_2
I0620 19:54:20.076702 18458 net.cpp:425] relu_c_1_2 <- sc_c_1_2
I0620 19:54:20.076711 18458 net.cpp:399] relu_c_1_2 -> relu_c_1_2
I0620 19:54:20.077008 18458 net.cpp:141] Setting up relu_c_1_2
I0620 19:54:20.077023 18458 net.cpp:148] Top shape: 128 64 32 32 (8388608)
I0620 19:54:20.077028 18458 net.cpp:156] Memory required for data: 1008206336
I0620 19:54:20.077034 18458 layer_factory.hpp:77] Creating layer conv_c_1_2
I0620 19:54:20.077052 18458 net.cpp:91] Creating Layer conv_c_1_2
I0620 19:54:20.077060 18458 net.cpp:425] conv_c_1_2 <- relu_c_1_2
I0620 19:54:20.077069 18458 net.cpp:399] conv_c_1_2 -> conv_c_1_2
I0620 19:54:20.078969 18458 net.cpp:141] Setting up conv_c_1_2
I0620 19:54:20.078984 18458 net.cpp:148] Top shape: 128 64 32 32 (8388608)
I0620 19:54:20.079004 18458 net.cpp:156] Memory required for data: 1041760768
I0620 19:54:20.079012 18458 layer_factory.hpp:77] Creating layer res_c
I0620 19:54:20.079027 18458 net.cpp:91] Creating Layer res_c
I0620 19:54:20.079035 18458 net.cpp:425] res_c <- conv0_conv0_0_split_5
I0620 19:54:20.079046 18458 net.cpp:399] res_c -> res_c
I0620 19:54:20.080025 18458 net.cpp:141] Setting up res_c
I0620 19:54:20.080040 18458 net.cpp:148] Top shape: 128 64 32 32 (8388608)
I0620 19:54:20.080060 18458 net.cpp:156] Memory required for data: 1075315200
I0620 19:54:20.080068 18458 layer_factory.hpp:77] Creating layer elt_c_1
I0620 19:54:20.080081 18458 net.cpp:91] Creating Layer elt_c_1
I0620 19:54:20.080088 18458 net.cpp:425] elt_c_1 <- res_c
I0620 19:54:20.080095 18458 net.cpp:425] elt_c_1 <- conv_c_1_2
I0620 19:54:20.080102 18458 net.cpp:399] elt_c_1 -> elt_c_1
I0620 19:54:20.080134 18458 net.cpp:141] Setting up elt_c_1
I0620 19:54:20.080145 18458 net.cpp:148] Top shape: 128 64 32 32 (8388608)
I0620 19:54:20.080152 18458 net.cpp:156] Memory required for data: 1108869632
I0620 19:54:20.080157 18458 layer_factory.hpp:77] Creating layer elt_c_1_elt_c_1_0_split
I0620 19:54:20.080163 18458 net.cpp:91] Creating Layer elt_c_1_elt_c_1_0_split
I0620 19:54:20.080180 18458 net.cpp:425] elt_c_1_elt_c_1_0_split <- elt_c_1
I0620 19:54:20.080190 18458 net.cpp:399] elt_c_1_elt_c_1_0_split -> elt_c_1_elt_c_1_0_split_0
I0620 19:54:20.080201 18458 net.cpp:399] elt_c_1_elt_c_1_0_split -> elt_c_1_elt_c_1_0_split_1
I0620 19:54:20.080210 18458 net.cpp:399] elt_c_1_elt_c_1_0_split -> elt_c_1_elt_c_1_0_split_2
I0620 19:54:20.080224 18458 net.cpp:399] elt_c_1_elt_c_1_0_split -> elt_c_1_elt_c_1_0_split_3
I0620 19:54:20.080286 18458 net.cpp:141] Setting up elt_c_1_elt_c_1_0_split
I0620 19:54:20.080310 18458 net.cpp:148] Top shape: 128 64 32 32 (8388608)
I0620 19:54:20.080318 18458 net.cpp:148] Top shape: 128 64 32 32 (8388608)
I0620 19:54:20.080324 18458 net.cpp:148] Top shape: 128 64 32 32 (8388608)
I0620 19:54:20.080329 18458 net.cpp:148] Top shape: 128 64 32 32 (8388608)
I0620 19:54:20.080334 18458 net.cpp:156] Memory required for data: 1243087360
I0620 19:54:20.080338 18458 layer_factory.hpp:77] Creating layer bn_d_1_1
I0620 19:54:20.080350 18458 net.cpp:91] Creating Layer bn_d_1_1
I0620 19:54:20.080358 18458 net.cpp:425] bn_d_1_1 <- elt_a_1_elt_a_1_0_split_0
I0620 19:54:20.080365 18458 net.cpp:399] bn_d_1_1 -> bn_d_1_1
I0620 19:54:20.080555 18458 net.cpp:141] Setting up bn_d_1_1
I0620 19:54:20.080567 18458 net.cpp:148] Top shape: 128 64 32 32 (8388608)
I0620 19:54:20.080574 18458 net.cpp:156] Memory required for data: 1276641792
I0620 19:54:20.080584 18458 layer_factory.hpp:77] Creating layer sc_d_1_1
I0620 19:54:20.080592 18458 net.cpp:91] Creating Layer sc_d_1_1
I0620 19:54:20.080598 18458 net.cpp:425] sc_d_1_1 <- bn_d_1_1
I0620 19:54:20.080608 18458 net.cpp:399] sc_d_1_1 -> sc_d_1_1
I0620 19:54:20.080651 18458 layer_factory.hpp:77] Creating layer sc_d_1_1
I0620 19:54:20.080765 18458 net.cpp:141] Setting up sc_d_1_1
I0620 19:54:20.080776 18458 net.cpp:148] Top shape: 128 64 32 32 (8388608)
I0620 19:54:20.080782 18458 net.cpp:156] Memory required for data: 1310196224
I0620 19:54:20.080790 18458 layer_factory.hpp:77] Creating layer relu_d_1_1
I0620 19:54:20.080804 18458 net.cpp:91] Creating Layer relu_d_1_1
I0620 19:54:20.080812 18458 net.cpp:425] relu_d_1_1 <- sc_d_1_1
I0620 19:54:20.080819 18458 net.cpp:399] relu_d_1_1 -> relu_d_1_1
I0620 19:54:20.081014 18458 net.cpp:141] Setting up relu_d_1_1
I0620 19:54:20.081027 18458 net.cpp:148] Top shape: 128 64 32 32 (8388608)
I0620 19:54:20.081032 18458 net.cpp:156] Memory required for data: 1343750656
I0620 19:54:20.081037 18458 layer_factory.hpp:77] Creating layer conv_d_1_1
I0620 19:54:20.081051 18458 net.cpp:91] Creating Layer conv_d_1_1
I0620 19:54:20.081058 18458 net.cpp:425] conv_d_1_1 <- relu_d_1_1
I0620 19:54:20.081068 18458 net.cpp:399] conv_d_1_1 -> conv_d_1_1
I0620 19:54:20.084486 18458 net.cpp:141] Setting up conv_d_1_1
I0620 19:54:20.084501 18458 net.cpp:148] Top shape: 128 128 16 16 (4194304)
I0620 19:54:20.084523 18458 net.cpp:156] Memory required for data: 1360527872
I0620 19:54:20.084532 18458 layer_factory.hpp:77] Creating layer bn_d_1_2
I0620 19:54:20.084542 18458 net.cpp:91] Creating Layer bn_d_1_2
I0620 19:54:20.084549 18458 net.cpp:425] bn_d_1_2 <- conv_d_1_1
I0620 19:54:20.084560 18458 net.cpp:399] bn_d_1_2 -> bn_d_1_2
I0620 19:54:20.084769 18458 net.cpp:141] Setting up bn_d_1_2
I0620 19:54:20.084781 18458 net.cpp:148] Top shape: 128 128 16 16 (4194304)
I0620 19:54:20.084786 18458 net.cpp:156] Memory required for data: 1377305088
I0620 19:54:20.084796 18458 layer_factory.hpp:77] Creating layer sc_d_1_2
I0620 19:54:20.084806 18458 net.cpp:91] Creating Layer sc_d_1_2
I0620 19:54:20.084813 18458 net.cpp:425] sc_d_1_2 <- bn_d_1_2
I0620 19:54:20.084823 18458 net.cpp:399] sc_d_1_2 -> sc_d_1_2
I0620 19:54:20.084868 18458 layer_factory.hpp:77] Creating layer sc_d_1_2
I0620 19:54:20.084985 18458 net.cpp:141] Setting up sc_d_1_2
I0620 19:54:20.084996 18458 net.cpp:148] Top shape: 128 128 16 16 (4194304)
I0620 19:54:20.085018 18458 net.cpp:156] Memory required for data: 1394082304
I0620 19:54:20.085027 18458 layer_factory.hpp:77] Creating layer relu_d_1_2
I0620 19:54:20.085036 18458 net.cpp:91] Creating Layer relu_d_1_2
I0620 19:54:20.085042 18458 net.cpp:425] relu_d_1_2 <- sc_d_1_2
I0620 19:54:20.085052 18458 net.cpp:399] relu_d_1_2 -> relu_d_1_2
I0620 19:54:20.085243 18458 net.cpp:141] Setting up relu_d_1_2
I0620 19:54:20.085256 18458 net.cpp:148] Top shape: 128 128 16 16 (4194304)
I0620 19:54:20.085263 18458 net.cpp:156] Memory required for data: 1410859520
I0620 19:54:20.085273 18458 layer_factory.hpp:77] Creating layer conv_d_1_2
I0620 19:54:20.085288 18458 net.cpp:91] Creating Layer conv_d_1_2
I0620 19:54:20.085309 18458 net.cpp:425] conv_d_1_2 <- relu_d_1_2
I0620 19:54:20.085325 18458 net.cpp:399] conv_d_1_2 -> conv_d_1_2
I0620 19:54:20.090234 18458 net.cpp:141] Setting up conv_d_1_2
I0620 19:54:20.090250 18458 net.cpp:148] Top shape: 128 128 16 16 (4194304)
I0620 19:54:20.090273 18458 net.cpp:156] Memory required for data: 1427636736
I0620 19:54:20.090282 18458 layer_factory.hpp:77] Creating layer res_d
I0620 19:54:20.090298 18458 net.cpp:91] Creating Layer res_d
I0620 19:54:20.090306 18458 net.cpp:425] res_d <- elt_a_1_elt_a_1_0_split_1
I0620 19:54:20.090317 18458 net.cpp:399] res_d -> res_d
I0620 19:54:20.091495 18458 net.cpp:141] Setting up res_d
I0620 19:54:20.091511 18458 net.cpp:148] Top shape: 128 128 16 16 (4194304)
I0620 19:54:20.091531 18458 net.cpp:156] Memory required for data: 1444413952
I0620 19:54:20.091549 18458 layer_factory.hpp:77] Creating layer elt_d_1
I0620 19:54:20.091562 18458 net.cpp:91] Creating Layer elt_d_1
I0620 19:54:20.091569 18458 net.cpp:425] elt_d_1 <- res_d
I0620 19:54:20.091576 18458 net.cpp:425] elt_d_1 <- conv_d_1_2
I0620 19:54:20.091584 18458 net.cpp:399] elt_d_1 -> elt_d_1
I0620 19:54:20.091614 18458 net.cpp:141] Setting up elt_d_1
I0620 19:54:20.091625 18458 net.cpp:148] Top shape: 128 128 16 16 (4194304)
I0620 19:54:20.091631 18458 net.cpp:156] Memory required for data: 1461191168
I0620 19:54:20.091636 18458 layer_factory.hpp:77] Creating layer bn_f_1_1
I0620 19:54:20.091645 18458 net.cpp:91] Creating Layer bn_f_1_1
I0620 19:54:20.091650 18458 net.cpp:425] bn_f_1_1 <- elt_b_1_elt_b_1_0_split_0
I0620 19:54:20.091662 18458 net.cpp:399] bn_f_1_1 -> bn_f_1_1
I0620 19:54:20.091866 18458 net.cpp:141] Setting up bn_f_1_1
I0620 19:54:20.091878 18458 net.cpp:148] Top shape: 128 64 32 32 (8388608)
I0620 19:54:20.091884 18458 net.cpp:156] Memory required for data: 1494745600
I0620 19:54:20.091894 18458 layer_factory.hpp:77] Creating layer sc_f_1_1
I0620 19:54:20.091905 18458 net.cpp:91] Creating Layer sc_f_1_1
I0620 19:54:20.091912 18458 net.cpp:425] sc_f_1_1 <- bn_f_1_1
I0620 19:54:20.091920 18458 net.cpp:399] sc_f_1_1 -> sc_f_1_1
I0620 19:54:20.091969 18458 layer_factory.hpp:77] Creating layer sc_f_1_1
I0620 19:54:20.092088 18458 net.cpp:141] Setting up sc_f_1_1
I0620 19:54:20.092100 18458 net.cpp:148] Top shape: 128 64 32 32 (8388608)
I0620 19:54:20.092108 18458 net.cpp:156] Memory required for data: 1528300032
I0620 19:54:20.092118 18458 layer_factory.hpp:77] Creating layer relu_f_1_1
I0620 19:54:20.092129 18458 net.cpp:91] Creating Layer relu_f_1_1
I0620 19:54:20.092136 18458 net.cpp:425] relu_f_1_1 <- sc_f_1_1
I0620 19:54:20.092142 18458 net.cpp:399] relu_f_1_1 -> relu_f_1_1
I0620 19:54:20.092437 18458 net.cpp:141] Setting up relu_f_1_1
I0620 19:54:20.092454 18458 net.cpp:148] Top shape: 128 64 32 32 (8388608)
I0620 19:54:20.092460 18458 net.cpp:156] Memory required for data: 1561854464
I0620 19:54:20.092465 18458 layer_factory.hpp:77] Creating layer conv_f_1_1
I0620 19:54:20.092479 18458 net.cpp:91] Creating Layer conv_f_1_1
I0620 19:54:20.092488 18458 net.cpp:425] conv_f_1_1 <- relu_f_1_1
I0620 19:54:20.092496 18458 net.cpp:399] conv_f_1_1 -> conv_f_1_1
I0620 19:54:20.095705 18458 net.cpp:141] Setting up conv_f_1_1
I0620 19:54:20.095722 18458 net.cpp:148] Top shape: 128 128 16 16 (4194304)
I0620 19:54:20.095741 18458 net.cpp:156] Memory required for data: 1578631680
I0620 19:54:20.095751 18458 layer_factory.hpp:77] Creating layer bn_f_1_2
I0620 19:54:20.095762 18458 net.cpp:91] Creating Layer bn_f_1_2
I0620 19:54:20.095769 18458 net.cpp:425] bn_f_1_2 <- conv_f_1_1
I0620 19:54:20.095780 18458 net.cpp:399] bn_f_1_2 -> bn_f_1_2
I0620 19:54:20.095993 18458 net.cpp:141] Setting up bn_f_1_2
I0620 19:54:20.096005 18458 net.cpp:148] Top shape: 128 128 16 16 (4194304)
I0620 19:54:20.096012 18458 net.cpp:156] Memory required for data: 1595408896
I0620 19:54:20.096024 18458 layer_factory.hpp:77] Creating layer sc_f_1_2
I0620 19:54:20.096034 18458 net.cpp:91] Creating Layer sc_f_1_2
I0620 19:54:20.096040 18458 net.cpp:425] sc_f_1_2 <- bn_f_1_2
I0620 19:54:20.096048 18458 net.cpp:399] sc_f_1_2 -> sc_f_1_2
I0620 19:54:20.096112 18458 layer_factory.hpp:77] Creating layer sc_f_1_2
I0620 19:54:20.096227 18458 net.cpp:141] Setting up sc_f_1_2
I0620 19:54:20.096240 18458 net.cpp:148] Top shape: 128 128 16 16 (4194304)
I0620 19:54:20.096246 18458 net.cpp:156] Memory required for data: 1612186112
I0620 19:54:20.096256 18458 layer_factory.hpp:77] Creating layer relu_f_1_2
I0620 19:54:20.096266 18458 net.cpp:91] Creating Layer relu_f_1_2
I0620 19:54:20.096271 18458 net.cpp:425] relu_f_1_2 <- sc_f_1_2
I0620 19:54:20.096282 18458 net.cpp:399] relu_f_1_2 -> relu_f_1_2
I0620 19:54:20.096674 18458 net.cpp:141] Setting up relu_f_1_2
I0620 19:54:20.096689 18458 net.cpp:148] Top shape: 128 128 16 16 (4194304)
I0620 19:54:20.096695 18458 net.cpp:156] Memory required for data: 1628963328
I0620 19:54:20.096701 18458 layer_factory.hpp:77] Creating layer conv_f_1_2
I0620 19:54:20.096714 18458 net.cpp:91] Creating Layer conv_f_1_2
I0620 19:54:20.096722 18458 net.cpp:425] conv_f_1_2 <- relu_f_1_2
I0620 19:54:20.096732 18458 net.cpp:399] conv_f_1_2 -> conv_f_1_2
I0620 19:54:20.101586 18458 net.cpp:141] Setting up conv_f_1_2
I0620 19:54:20.101603 18458 net.cpp:148] Top shape: 128 128 16 16 (4194304)
I0620 19:54:20.101624 18458 net.cpp:156] Memory required for data: 1645740544
I0620 19:54:20.101634 18458 layer_factory.hpp:77] Creating layer res_f
I0620 19:54:20.101651 18458 net.cpp:91] Creating Layer res_f
I0620 19:54:20.101660 18458 net.cpp:425] res_f <- elt_b_1_elt_b_1_0_split_1
I0620 19:54:20.101668 18458 net.cpp:399] res_f -> res_f
I0620 19:54:20.102828 18458 net.cpp:141] Setting up res_f
I0620 19:54:20.102843 18458 net.cpp:148] Top shape: 128 128 16 16 (4194304)
I0620 19:54:20.102850 18458 net.cpp:156] Memory required for data: 1662517760
I0620 19:54:20.102859 18458 layer_factory.hpp:77] Creating layer elt_f_1
I0620 19:54:20.102870 18458 net.cpp:91] Creating Layer elt_f_1
I0620 19:54:20.102877 18458 net.cpp:425] elt_f_1 <- res_f
I0620 19:54:20.102885 18458 net.cpp:425] elt_f_1 <- conv_f_1_2
I0620 19:54:20.102892 18458 net.cpp:399] elt_f_1 -> elt_f_1
I0620 19:54:20.102936 18458 net.cpp:141] Setting up elt_f_1
I0620 19:54:20.102946 18458 net.cpp:148] Top shape: 128 128 16 16 (4194304)
I0620 19:54:20.102952 18458 net.cpp:156] Memory required for data: 1679294976
I0620 19:54:20.102962 18458 layer_factory.hpp:77] Creating layer bn_g_1_1
I0620 19:54:20.102972 18458 net.cpp:91] Creating Layer bn_g_1_1
I0620 19:54:20.102977 18458 net.cpp:425] bn_g_1_1 <- elt_b_1_elt_b_1_0_split_2
I0620 19:54:20.102988 18458 net.cpp:399] bn_g_1_1 -> bn_g_1_1
I0620 19:54:20.103198 18458 net.cpp:141] Setting up bn_g_1_1
I0620 19:54:20.103209 18458 net.cpp:148] Top shape: 128 64 32 32 (8388608)
I0620 19:54:20.103215 18458 net.cpp:156] Memory required for data: 1712849408
I0620 19:54:20.103225 18458 layer_factory.hpp:77] Creating layer sc_g_1_1
I0620 19:54:20.103236 18458 net.cpp:91] Creating Layer sc_g_1_1
I0620 19:54:20.103243 18458 net.cpp:425] sc_g_1_1 <- bn_g_1_1
I0620 19:54:20.103251 18458 net.cpp:399] sc_g_1_1 -> sc_g_1_1
I0620 19:54:20.103301 18458 layer_factory.hpp:77] Creating layer sc_g_1_1
I0620 19:54:20.103426 18458 net.cpp:141] Setting up sc_g_1_1
I0620 19:54:20.103438 18458 net.cpp:148] Top shape: 128 64 32 32 (8388608)
I0620 19:54:20.103443 18458 net.cpp:156] Memory required for data: 1746403840
I0620 19:54:20.103451 18458 layer_factory.hpp:77] Creating layer relu_g_1_1
I0620 19:54:20.103461 18458 net.cpp:91] Creating Layer relu_g_1_1
I0620 19:54:20.103467 18458 net.cpp:425] relu_g_1_1 <- sc_g_1_1
I0620 19:54:20.103477 18458 net.cpp:399] relu_g_1_1 -> relu_g_1_1
I0620 19:54:20.103771 18458 net.cpp:141] Setting up relu_g_1_1
I0620 19:54:20.103786 18458 net.cpp:148] Top shape: 128 64 32 32 (8388608)
I0620 19:54:20.103792 18458 net.cpp:156] Memory required for data: 1779958272
I0620 19:54:20.103798 18458 layer_factory.hpp:77] Creating layer conv_g_1_1
I0620 19:54:20.103811 18458 net.cpp:91] Creating Layer conv_g_1_1
I0620 19:54:20.103818 18458 net.cpp:425] conv_g_1_1 <- relu_g_1_1
I0620 19:54:20.103829 18458 net.cpp:399] conv_g_1_1 -> conv_g_1_1
I0620 19:54:20.107306 18458 net.cpp:141] Setting up conv_g_1_1
I0620 19:54:20.107321 18458 net.cpp:148] Top shape: 128 128 16 16 (4194304)
I0620 19:54:20.107341 18458 net.cpp:156] Memory required for data: 1796735488
I0620 19:54:20.107349 18458 layer_factory.hpp:77] Creating layer bn_g_1_2
I0620 19:54:20.107362 18458 net.cpp:91] Creating Layer bn_g_1_2
I0620 19:54:20.107369 18458 net.cpp:425] bn_g_1_2 <- conv_g_1_1
I0620 19:54:20.107378 18458 net.cpp:399] bn_g_1_2 -> bn_g_1_2
I0620 19:54:20.107590 18458 net.cpp:141] Setting up bn_g_1_2
I0620 19:54:20.107604 18458 net.cpp:148] Top shape: 128 128 16 16 (4194304)
I0620 19:54:20.107607 18458 net.cpp:156] Memory required for data: 1813512704
I0620 19:54:20.107617 18458 layer_factory.hpp:77] Creating layer sc_g_1_2
I0620 19:54:20.107628 18458 net.cpp:91] Creating Layer sc_g_1_2
I0620 19:54:20.107635 18458 net.cpp:425] sc_g_1_2 <- bn_g_1_2
I0620 19:54:20.107643 18458 net.cpp:399] sc_g_1_2 -> sc_g_1_2
I0620 19:54:20.107692 18458 layer_factory.hpp:77] Creating layer sc_g_1_2
I0620 19:54:20.107808 18458 net.cpp:141] Setting up sc_g_1_2
I0620 19:54:20.107820 18458 net.cpp:148] Top shape: 128 128 16 16 (4194304)
I0620 19:54:20.107826 18458 net.cpp:156] Memory required for data: 1830289920
I0620 19:54:20.107834 18458 layer_factory.hpp:77] Creating layer relu_g_1_2
I0620 19:54:20.107846 18458 net.cpp:91] Creating Layer relu_g_1_2
I0620 19:54:20.107853 18458 net.cpp:425] relu_g_1_2 <- sc_g_1_2
I0620 19:54:20.107861 18458 net.cpp:399] relu_g_1_2 -> relu_g_1_2
I0620 19:54:20.108060 18458 net.cpp:141] Setting up relu_g_1_2
I0620 19:54:20.108074 18458 net.cpp:148] Top shape: 128 128 16 16 (4194304)
I0620 19:54:20.108080 18458 net.cpp:156] Memory required for data: 1847067136
I0620 19:54:20.108085 18458 layer_factory.hpp:77] Creating layer conv_g_1_2
I0620 19:54:20.108099 18458 net.cpp:91] Creating Layer conv_g_1_2
I0620 19:54:20.108108 18458 net.cpp:425] conv_g_1_2 <- relu_g_1_2
I0620 19:54:20.108117 18458 net.cpp:399] conv_g_1_2 -> conv_g_1_2
I0620 19:54:20.112844 18458 net.cpp:141] Setting up conv_g_1_2
I0620 19:54:20.112859 18458 net.cpp:148] Top shape: 128 128 16 16 (4194304)
I0620 19:54:20.112881 18458 net.cpp:156] Memory required for data: 1863844352
I0620 19:54:20.112890 18458 layer_factory.hpp:77] Creating layer res_g
I0620 19:54:20.112911 18458 net.cpp:91] Creating Layer res_g
I0620 19:54:20.112920 18458 net.cpp:425] res_g <- elt_b_1_elt_b_1_0_split_3
I0620 19:54:20.112927 18458 net.cpp:399] res_g -> res_g
I0620 19:54:20.114130 18458 net.cpp:141] Setting up res_g
I0620 19:54:20.114158 18458 net.cpp:148] Top shape: 128 128 16 16 (4194304)
I0620 19:54:20.114166 18458 net.cpp:156] Memory required for data: 1880621568
I0620 19:54:20.114174 18458 layer_factory.hpp:77] Creating layer elt_g_1
I0620 19:54:20.114183 18458 net.cpp:91] Creating Layer elt_g_1
I0620 19:54:20.114190 18458 net.cpp:425] elt_g_1 <- res_g
I0620 19:54:20.114197 18458 net.cpp:425] elt_g_1 <- conv_g_1_2
I0620 19:54:20.114207 18458 net.cpp:399] elt_g_1 -> elt_g_1
I0620 19:54:20.114235 18458 net.cpp:141] Setting up elt_g_1
I0620 19:54:20.114261 18458 net.cpp:148] Top shape: 128 128 16 16 (4194304)
I0620 19:54:20.114269 18458 net.cpp:156] Memory required for data: 1897398784
I0620 19:54:20.114274 18458 layer_factory.hpp:77] Creating layer bn_h_1_1
I0620 19:54:20.114289 18458 net.cpp:91] Creating Layer bn_h_1_1
I0620 19:54:20.114296 18458 net.cpp:425] bn_h_1_1 <- elt_c_1_elt_c_1_0_split_0
I0620 19:54:20.114306 18458 net.cpp:399] bn_h_1_1 -> bn_h_1_1
I0620 19:54:20.114537 18458 net.cpp:141] Setting up bn_h_1_1
I0620 19:54:20.114564 18458 net.cpp:148] Top shape: 128 64 32 32 (8388608)
I0620 19:54:20.114570 18458 net.cpp:156] Memory required for data: 1930953216
I0620 19:54:20.114580 18458 layer_factory.hpp:77] Creating layer sc_h_1_1
I0620 19:54:20.114593 18458 net.cpp:91] Creating Layer sc_h_1_1
I0620 19:54:20.114600 18458 net.cpp:425] sc_h_1_1 <- bn_h_1_1
I0620 19:54:20.114608 18458 net.cpp:399] sc_h_1_1 -> sc_h_1_1
I0620 19:54:20.114666 18458 layer_factory.hpp:77] Creating layer sc_h_1_1
I0620 19:54:20.114840 18458 net.cpp:141] Setting up sc_h_1_1
I0620 19:54:20.114855 18458 net.cpp:148] Top shape: 128 64 32 32 (8388608)
I0620 19:54:20.114861 18458 net.cpp:156] Memory required for data: 1964507648
I0620 19:54:20.114869 18458 layer_factory.hpp:77] Creating layer relu_h_1_1
I0620 19:54:20.114881 18458 net.cpp:91] Creating Layer relu_h_1_1
I0620 19:54:20.114888 18458 net.cpp:425] relu_h_1_1 <- sc_h_1_1
I0620 19:54:20.114898 18458 net.cpp:399] relu_h_1_1 -> relu_h_1_1
I0620 19:54:20.115089 18458 net.cpp:141] Setting up relu_h_1_1
I0620 19:54:20.115106 18458 net.cpp:148] Top shape: 128 64 32 32 (8388608)
I0620 19:54:20.115113 18458 net.cpp:156] Memory required for data: 1998062080
I0620 19:54:20.115118 18458 layer_factory.hpp:77] Creating layer conv_h_1_1
I0620 19:54:20.115134 18458 net.cpp:91] Creating Layer conv_h_1_1
I0620 19:54:20.115141 18458 net.cpp:425] conv_h_1_1 <- relu_h_1_1
I0620 19:54:20.115150 18458 net.cpp:399] conv_h_1_1 -> conv_h_1_1
I0620 19:54:20.118468 18458 net.cpp:141] Setting up conv_h_1_1
I0620 19:54:20.118485 18458 net.cpp:148] Top shape: 128 128 16 16 (4194304)
I0620 19:54:20.118505 18458 net.cpp:156] Memory required for data: 2014839296
I0620 19:54:20.118515 18458 layer_factory.hpp:77] Creating layer bn_h_1_2
I0620 19:54:20.118525 18458 net.cpp:91] Creating Layer bn_h_1_2
I0620 19:54:20.118531 18458 net.cpp:425] bn_h_1_2 <- conv_h_1_1
I0620 19:54:20.118541 18458 net.cpp:399] bn_h_1_2 -> bn_h_1_2
I0620 19:54:20.118818 18458 net.cpp:141] Setting up bn_h_1_2
I0620 19:54:20.118831 18458 net.cpp:148] Top shape: 128 128 16 16 (4194304)
I0620 19:54:20.118836 18458 net.cpp:156] Memory required for data: 2031616512
I0620 19:54:20.118847 18458 layer_factory.hpp:77] Creating layer sc_h_1_2
I0620 19:54:20.118857 18458 net.cpp:91] Creating Layer sc_h_1_2
I0620 19:54:20.118865 18458 net.cpp:425] sc_h_1_2 <- bn_h_1_2
I0620 19:54:20.118872 18458 net.cpp:399] sc_h_1_2 -> sc_h_1_2
I0620 19:54:20.118924 18458 layer_factory.hpp:77] Creating layer sc_h_1_2
I0620 19:54:20.119081 18458 net.cpp:141] Setting up sc_h_1_2
I0620 19:54:20.119092 18458 net.cpp:148] Top shape: 128 128 16 16 (4194304)
I0620 19:54:20.119098 18458 net.cpp:156] Memory required for data: 2048393728
I0620 19:54:20.119109 18458 layer_factory.hpp:77] Creating layer relu_h_1_2
I0620 19:54:20.119118 18458 net.cpp:91] Creating Layer relu_h_1_2
I0620 19:54:20.119125 18458 net.cpp:425] relu_h_1_2 <- sc_h_1_2
I0620 19:54:20.119135 18458 net.cpp:399] relu_h_1_2 -> relu_h_1_2
I0620 19:54:20.119438 18458 net.cpp:141] Setting up relu_h_1_2
I0620 19:54:20.119453 18458 net.cpp:148] Top shape: 128 128 16 16 (4194304)
I0620 19:54:20.119459 18458 net.cpp:156] Memory required for data: 2065170944
I0620 19:54:20.119465 18458 layer_factory.hpp:77] Creating layer conv_h_1_2
I0620 19:54:20.119478 18458 net.cpp:91] Creating Layer conv_h_1_2
I0620 19:54:20.119487 18458 net.cpp:425] conv_h_1_2 <- relu_h_1_2
I0620 19:54:20.119498 18458 net.cpp:399] conv_h_1_2 -> conv_h_1_2
I0620 19:54:20.124294 18458 net.cpp:141] Setting up conv_h_1_2
I0620 19:54:20.124310 18458 net.cpp:148] Top shape: 128 128 16 16 (4194304)
I0620 19:54:20.124327 18458 net.cpp:156] Memory required for data: 2081948160
I0620 19:54:20.124336 18458 layer_factory.hpp:77] Creating layer res_h
I0620 19:54:20.124353 18458 net.cpp:91] Creating Layer res_h
I0620 19:54:20.124361 18458 net.cpp:425] res_h <- elt_c_1_elt_c_1_0_split_1
I0620 19:54:20.124369 18458 net.cpp:399] res_h -> res_h
I0620 19:54:20.125480 18458 net.cpp:141] Setting up res_h
I0620 19:54:20.125495 18458 net.cpp:148] Top shape: 128 128 16 16 (4194304)
I0620 19:54:20.125500 18458 net.cpp:156] Memory required for data: 2098725376
I0620 19:54:20.125509 18458 layer_factory.hpp:77] Creating layer elt_h_1
I0620 19:54:20.125516 18458 net.cpp:91] Creating Layer elt_h_1
I0620 19:54:20.125522 18458 net.cpp:425] elt_h_1 <- res_h
I0620 19:54:20.125540 18458 net.cpp:425] elt_h_1 <- conv_h_1_2
I0620 19:54:20.125550 18458 net.cpp:399] elt_h_1 -> elt_h_1
I0620 19:54:20.125577 18458 net.cpp:141] Setting up elt_h_1
I0620 19:54:20.125588 18458 net.cpp:148] Top shape: 128 128 16 16 (4194304)
I0620 19:54:20.125608 18458 net.cpp:156] Memory required for data: 2115502592
I0620 19:54:20.125615 18458 layer_factory.hpp:77] Creating layer bn_i_1_1
I0620 19:54:20.125625 18458 net.cpp:91] Creating Layer bn_i_1_1
I0620 19:54:20.125632 18458 net.cpp:425] bn_i_1_1 <- elt_c_1_elt_c_1_0_split_2
I0620 19:54:20.125641 18458 net.cpp:399] bn_i_1_1 -> bn_i_1_1
I0620 19:54:20.125879 18458 net.cpp:141] Setting up bn_i_1_1
I0620 19:54:20.125890 18458 net.cpp:148] Top shape: 128 64 32 32 (8388608)
I0620 19:54:20.125896 18458 net.cpp:156] Memory required for data: 2149057024
I0620 19:54:20.125906 18458 layer_factory.hpp:77] Creating layer sc_i_1_1
I0620 19:54:20.125917 18458 net.cpp:91] Creating Layer sc_i_1_1
I0620 19:54:20.125924 18458 net.cpp:425] sc_i_1_1 <- bn_i_1_1
I0620 19:54:20.125932 18458 net.cpp:399] sc_i_1_1 -> sc_i_1_1
I0620 19:54:20.125983 18458 layer_factory.hpp:77] Creating layer sc_i_1_1
I0620 19:54:20.126119 18458 net.cpp:141] Setting up sc_i_1_1
I0620 19:54:20.126132 18458 net.cpp:148] Top shape: 128 64 32 32 (8388608)
I0620 19:54:20.126137 18458 net.cpp:156] Memory required for data: 2182611456
I0620 19:54:20.126144 18458 layer_factory.hpp:77] Creating layer relu_i_1_1
I0620 19:54:20.126153 18458 net.cpp:91] Creating Layer relu_i_1_1
I0620 19:54:20.126159 18458 net.cpp:425] relu_i_1_1 <- sc_i_1_1
I0620 19:54:20.126169 18458 net.cpp:399] relu_i_1_1 -> relu_i_1_1
I0620 19:54:20.126479 18458 net.cpp:141] Setting up relu_i_1_1
I0620 19:54:20.126493 18458 net.cpp:148] Top shape: 128 64 32 32 (8388608)
I0620 19:54:20.126499 18458 net.cpp:156] Memory required for data: 2216165888
I0620 19:54:20.126504 18458 layer_factory.hpp:77] Creating layer conv_i_1_1
I0620 19:54:20.126518 18458 net.cpp:91] Creating Layer conv_i_1_1
I0620 19:54:20.126525 18458 net.cpp:425] conv_i_1_1 <- relu_i_1_1
I0620 19:54:20.126536 18458 net.cpp:399] conv_i_1_1 -> conv_i_1_1
I0620 19:54:20.130062 18458 net.cpp:141] Setting up conv_i_1_1
I0620 19:54:20.130077 18458 net.cpp:148] Top shape: 128 128 16 16 (4194304)
I0620 19:54:20.130101 18458 net.cpp:156] Memory required for data: 2232943104
I0620 19:54:20.130110 18458 layer_factory.hpp:77] Creating layer bn_i_1_2
I0620 19:54:20.130121 18458 net.cpp:91] Creating Layer bn_i_1_2
I0620 19:54:20.130128 18458 net.cpp:425] bn_i_1_2 <- conv_i_1_1
I0620 19:54:20.130141 18458 net.cpp:399] bn_i_1_2 -> bn_i_1_2
I0620 19:54:20.130365 18458 net.cpp:141] Setting up bn_i_1_2
I0620 19:54:20.130378 18458 net.cpp:148] Top shape: 128 128 16 16 (4194304)
I0620 19:54:20.130383 18458 net.cpp:156] Memory required for data: 2249720320
I0620 19:54:20.130393 18458 layer_factory.hpp:77] Creating layer sc_i_1_2
I0620 19:54:20.130401 18458 net.cpp:91] Creating Layer sc_i_1_2
I0620 19:54:20.130409 18458 net.cpp:425] sc_i_1_2 <- bn_i_1_2
I0620 19:54:20.130415 18458 net.cpp:399] sc_i_1_2 -> sc_i_1_2
I0620 19:54:20.130466 18458 layer_factory.hpp:77] Creating layer sc_i_1_2
I0620 19:54:20.130584 18458 net.cpp:141] Setting up sc_i_1_2
I0620 19:54:20.130596 18458 net.cpp:148] Top shape: 128 128 16 16 (4194304)
I0620 19:54:20.130602 18458 net.cpp:156] Memory required for data: 2266497536
I0620 19:54:20.130620 18458 layer_factory.hpp:77] Creating layer relu_i_1_2
I0620 19:54:20.130630 18458 net.cpp:91] Creating Layer relu_i_1_2
I0620 19:54:20.130636 18458 net.cpp:425] relu_i_1_2 <- sc_i_1_2
I0620 19:54:20.130645 18458 net.cpp:399] relu_i_1_2 -> relu_i_1_2
I0620 19:54:20.130856 18458 net.cpp:141] Setting up relu_i_1_2
I0620 19:54:20.130872 18458 net.cpp:148] Top shape: 128 128 16 16 (4194304)
I0620 19:54:20.130879 18458 net.cpp:156] Memory required for data: 2283274752
I0620 19:54:20.130884 18458 layer_factory.hpp:77] Creating layer conv_i_1_2
I0620 19:54:20.130898 18458 net.cpp:91] Creating Layer conv_i_1_2
I0620 19:54:20.130905 18458 net.cpp:425] conv_i_1_2 <- relu_i_1_2
I0620 19:54:20.130916 18458 net.cpp:399] conv_i_1_2 -> conv_i_1_2
I0620 19:54:20.135819 18458 net.cpp:141] Setting up conv_i_1_2
I0620 19:54:20.135835 18458 net.cpp:148] Top shape: 128 128 16 16 (4194304)
I0620 19:54:20.135860 18458 net.cpp:156] Memory required for data: 2300051968
I0620 19:54:20.135886 18458 layer_factory.hpp:77] Creating layer res_i
I0620 19:54:20.135902 18458 net.cpp:91] Creating Layer res_i
I0620 19:54:20.135911 18458 net.cpp:425] res_i <- elt_c_1_elt_c_1_0_split_3
I0620 19:54:20.135921 18458 net.cpp:399] res_i -> res_i
I0620 19:54:20.137128 18458 net.cpp:141] Setting up res_i
I0620 19:54:20.137143 18458 net.cpp:148] Top shape: 128 128 16 16 (4194304)
I0620 19:54:20.137161 18458 net.cpp:156] Memory required for data: 2316829184
I0620 19:54:20.137186 18458 layer_factory.hpp:77] Creating layer elt_i_1
I0620 19:54:20.137198 18458 net.cpp:91] Creating Layer elt_i_1
I0620 19:54:20.137205 18458 net.cpp:425] elt_i_1 <- res_i
I0620 19:54:20.137212 18458 net.cpp:425] elt_i_1 <- conv_i_1_2
I0620 19:54:20.137220 18458 net.cpp:399] elt_i_1 -> elt_i_1
I0620 19:54:20.137250 18458 net.cpp:141] Setting up elt_i_1
I0620 19:54:20.137261 18458 net.cpp:148] Top shape: 128 128 16 16 (4194304)
I0620 19:54:20.137266 18458 net.cpp:156] Memory required for data: 2333606400
I0620 19:54:20.137271 18458 layer_factory.hpp:77] Creating layer elt_d_f
I0620 19:54:20.137291 18458 net.cpp:91] Creating Layer elt_d_f
I0620 19:54:20.137297 18458 net.cpp:425] elt_d_f <- elt_d_1
I0620 19:54:20.137305 18458 net.cpp:425] elt_d_f <- elt_f_1
I0620 19:54:20.137315 18458 net.cpp:399] elt_d_f -> elt_d_f
I0620 19:54:20.137351 18458 net.cpp:141] Setting up elt_d_f
I0620 19:54:20.137362 18458 net.cpp:148] Top shape: 128 128 16 16 (4194304)
I0620 19:54:20.137367 18458 net.cpp:156] Memory required for data: 2350383616
I0620 19:54:20.137374 18458 layer_factory.hpp:77] Creating layer elt_d_f_elt_d_f_0_split
I0620 19:54:20.137384 18458 net.cpp:91] Creating Layer elt_d_f_elt_d_f_0_split
I0620 19:54:20.137392 18458 net.cpp:425] elt_d_f_elt_d_f_0_split <- elt_d_f
I0620 19:54:20.137398 18458 net.cpp:399] elt_d_f_elt_d_f_0_split -> elt_d_f_elt_d_f_0_split_0
I0620 19:54:20.137406 18458 net.cpp:399] elt_d_f_elt_d_f_0_split -> elt_d_f_elt_d_f_0_split_1
I0620 19:54:20.137452 18458 net.cpp:141] Setting up elt_d_f_elt_d_f_0_split
I0620 19:54:20.137466 18458 net.cpp:148] Top shape: 128 128 16 16 (4194304)
I0620 19:54:20.137473 18458 net.cpp:148] Top shape: 128 128 16 16 (4194304)
I0620 19:54:20.137477 18458 net.cpp:156] Memory required for data: 2383938048
I0620 19:54:20.137482 18458 layer_factory.hpp:77] Creating layer elt_g_i
I0620 19:54:20.137493 18458 net.cpp:91] Creating Layer elt_g_i
I0620 19:54:20.137500 18458 net.cpp:425] elt_g_i <- elt_g_1
I0620 19:54:20.137506 18458 net.cpp:425] elt_g_i <- elt_i_1
I0620 19:54:20.137512 18458 net.cpp:399] elt_g_i -> elt_g_i
I0620 19:54:20.137545 18458 net.cpp:141] Setting up elt_g_i
I0620 19:54:20.137557 18458 net.cpp:148] Top shape: 128 128 16 16 (4194304)
I0620 19:54:20.137562 18458 net.cpp:156] Memory required for data: 2400715264
I0620 19:54:20.137567 18458 layer_factory.hpp:77] Creating layer elt_g_i_elt_g_i_0_split
I0620 19:54:20.137574 18458 net.cpp:91] Creating Layer elt_g_i_elt_g_i_0_split
I0620 19:54:20.137579 18458 net.cpp:425] elt_g_i_elt_g_i_0_split <- elt_g_i
I0620 19:54:20.137588 18458 net.cpp:399] elt_g_i_elt_g_i_0_split -> elt_g_i_elt_g_i_0_split_0
I0620 19:54:20.137598 18458 net.cpp:399] elt_g_i_elt_g_i_0_split -> elt_g_i_elt_g_i_0_split_1
I0620 19:54:20.137640 18458 net.cpp:141] Setting up elt_g_i_elt_g_i_0_split
I0620 19:54:20.137651 18458 net.cpp:148] Top shape: 128 128 16 16 (4194304)
I0620 19:54:20.137658 18458 net.cpp:148] Top shape: 128 128 16 16 (4194304)
I0620 19:54:20.137663 18458 net.cpp:156] Memory required for data: 2434269696
I0620 19:54:20.137668 18458 layer_factory.hpp:77] Creating layer bn_j_1_1
I0620 19:54:20.137676 18458 net.cpp:91] Creating Layer bn_j_1_1
I0620 19:54:20.137682 18458 net.cpp:425] bn_j_1_1 <- elt_d_f_elt_d_f_0_split_0
I0620 19:54:20.137692 18458 net.cpp:399] bn_j_1_1 -> bn_j_1_1
I0620 19:54:20.137920 18458 net.cpp:141] Setting up bn_j_1_1
I0620 19:54:20.137933 18458 net.cpp:148] Top shape: 128 128 16 16 (4194304)
I0620 19:54:20.137938 18458 net.cpp:156] Memory required for data: 2451046912
I0620 19:54:20.137948 18458 layer_factory.hpp:77] Creating layer sc_j_1_1
I0620 19:54:20.137970 18458 net.cpp:91] Creating Layer sc_j_1_1
I0620 19:54:20.137977 18458 net.cpp:425] sc_j_1_1 <- bn_j_1_1
I0620 19:54:20.137987 18458 net.cpp:399] sc_j_1_1 -> sc_j_1_1
I0620 19:54:20.138033 18458 layer_factory.hpp:77] Creating layer sc_j_1_1
I0620 19:54:20.138150 18458 net.cpp:141] Setting up sc_j_1_1
I0620 19:54:20.138162 18458 net.cpp:148] Top shape: 128 128 16 16 (4194304)
I0620 19:54:20.138167 18458 net.cpp:156] Memory required for data: 2467824128
I0620 19:54:20.138176 18458 layer_factory.hpp:77] Creating layer relu_j_1_1
I0620 19:54:20.138186 18458 net.cpp:91] Creating Layer relu_j_1_1
I0620 19:54:20.138193 18458 net.cpp:425] relu_j_1_1 <- sc_j_1_1
I0620 19:54:20.138200 18458 net.cpp:399] relu_j_1_1 -> relu_j_1_1
I0620 19:54:20.138401 18458 net.cpp:141] Setting up relu_j_1_1
I0620 19:54:20.138413 18458 net.cpp:148] Top shape: 128 128 16 16 (4194304)
I0620 19:54:20.138418 18458 net.cpp:156] Memory required for data: 2484601344
I0620 19:54:20.138423 18458 layer_factory.hpp:77] Creating layer conv_j_1_1
I0620 19:54:20.138439 18458 net.cpp:91] Creating Layer conv_j_1_1
I0620 19:54:20.138447 18458 net.cpp:425] conv_j_1_1 <- relu_j_1_1
I0620 19:54:20.138458 18458 net.cpp:399] conv_j_1_1 -> conv_j_1_1
I0620 19:54:20.147547 18458 net.cpp:141] Setting up conv_j_1_1
I0620 19:54:20.147563 18458 net.cpp:148] Top shape: 128 256 8 8 (2097152)
I0620 19:54:20.147588 18458 net.cpp:156] Memory required for data: 2492989952
I0620 19:54:20.147596 18458 layer_factory.hpp:77] Creating layer bn_j_1_2
I0620 19:54:20.147608 18458 net.cpp:91] Creating Layer bn_j_1_2
I0620 19:54:20.147616 18458 net.cpp:425] bn_j_1_2 <- conv_j_1_1
I0620 19:54:20.147624 18458 net.cpp:399] bn_j_1_2 -> bn_j_1_2
I0620 19:54:20.147866 18458 net.cpp:141] Setting up bn_j_1_2
I0620 19:54:20.147878 18458 net.cpp:148] Top shape: 128 256 8 8 (2097152)
I0620 19:54:20.147883 18458 net.cpp:156] Memory required for data: 2501378560
I0620 19:54:20.147893 18458 layer_factory.hpp:77] Creating layer sc_j_1_2
I0620 19:54:20.147902 18458 net.cpp:91] Creating Layer sc_j_1_2
I0620 19:54:20.147909 18458 net.cpp:425] sc_j_1_2 <- bn_j_1_2
I0620 19:54:20.147917 18458 net.cpp:399] sc_j_1_2 -> sc_j_1_2
I0620 19:54:20.147970 18458 layer_factory.hpp:77] Creating layer sc_j_1_2
I0620 19:54:20.148098 18458 net.cpp:141] Setting up sc_j_1_2
I0620 19:54:20.148110 18458 net.cpp:148] Top shape: 128 256 8 8 (2097152)
I0620 19:54:20.148116 18458 net.cpp:156] Memory required for data: 2509767168
I0620 19:54:20.148125 18458 layer_factory.hpp:77] Creating layer relu_j_1_2
I0620 19:54:20.148135 18458 net.cpp:91] Creating Layer relu_j_1_2
I0620 19:54:20.148142 18458 net.cpp:425] relu_j_1_2 <- sc_j_1_2
I0620 19:54:20.148154 18458 net.cpp:399] relu_j_1_2 -> relu_j_1_2
I0620 19:54:20.148502 18458 net.cpp:141] Setting up relu_j_1_2
I0620 19:54:20.148517 18458 net.cpp:148] Top shape: 128 256 8 8 (2097152)
I0620 19:54:20.148524 18458 net.cpp:156] Memory required for data: 2518155776
I0620 19:54:20.148530 18458 layer_factory.hpp:77] Creating layer conv_j_1_2
I0620 19:54:20.148543 18458 net.cpp:91] Creating Layer conv_j_1_2
I0620 19:54:20.148550 18458 net.cpp:425] conv_j_1_2 <- relu_j_1_2
I0620 19:54:20.148561 18458 net.cpp:399] conv_j_1_2 -> conv_j_1_2
I0620 19:54:20.165587 18458 net.cpp:141] Setting up conv_j_1_2
I0620 19:54:20.165603 18458 net.cpp:148] Top shape: 128 256 8 8 (2097152)
I0620 19:54:20.165621 18458 net.cpp:156] Memory required for data: 2526544384
I0620 19:54:20.165629 18458 layer_factory.hpp:77] Creating layer res_j
I0620 19:54:20.165645 18458 net.cpp:91] Creating Layer res_j
I0620 19:54:20.165652 18458 net.cpp:425] res_j <- elt_d_f_elt_d_f_0_split_1
I0620 19:54:20.165665 18458 net.cpp:399] res_j -> res_j
I0620 19:54:20.167444 18458 net.cpp:141] Setting up res_j
I0620 19:54:20.167459 18458 net.cpp:148] Top shape: 128 256 8 8 (2097152)
I0620 19:54:20.167464 18458 net.cpp:156] Memory required for data: 2534932992
I0620 19:54:20.167472 18458 layer_factory.hpp:77] Creating layer elt_j_1
I0620 19:54:20.167480 18458 net.cpp:91] Creating Layer elt_j_1
I0620 19:54:20.167515 18458 net.cpp:425] elt_j_1 <- res_j
I0620 19:54:20.167523 18458 net.cpp:425] elt_j_1 <- conv_j_1_2
I0620 19:54:20.167532 18458 net.cpp:399] elt_j_1 -> elt_j_1
I0620 19:54:20.167578 18458 net.cpp:141] Setting up elt_j_1
I0620 19:54:20.167592 18458 net.cpp:148] Top shape: 128 256 8 8 (2097152)
I0620 19:54:20.167596 18458 net.cpp:156] Memory required for data: 2543321600
I0620 19:54:20.167601 18458 layer_factory.hpp:77] Creating layer bn_e_1_1
I0620 19:54:20.167613 18458 net.cpp:91] Creating Layer bn_e_1_1
I0620 19:54:20.167619 18458 net.cpp:425] bn_e_1_1 <- elt_a_1_elt_a_1_0_split_2
I0620 19:54:20.167629 18458 net.cpp:399] bn_e_1_1 -> bn_e_1_1
I0620 19:54:20.167889 18458 net.cpp:141] Setting up bn_e_1_1
I0620 19:54:20.167901 18458 net.cpp:148] Top shape: 128 64 32 32 (8388608)
I0620 19:54:20.167906 18458 net.cpp:156] Memory required for data: 2576876032
I0620 19:54:20.167917 18458 layer_factory.hpp:77] Creating layer sc_e_1_1
I0620 19:54:20.167924 18458 net.cpp:91] Creating Layer sc_e_1_1
I0620 19:54:20.167929 18458 net.cpp:425] sc_e_1_1 <- bn_e_1_1
I0620 19:54:20.167937 18458 net.cpp:399] sc_e_1_1 -> sc_e_1_1
I0620 19:54:20.167989 18458 layer_factory.hpp:77] Creating layer sc_e_1_1
I0620 19:54:20.168123 18458 net.cpp:141] Setting up sc_e_1_1
I0620 19:54:20.168134 18458 net.cpp:148] Top shape: 128 64 32 32 (8388608)
I0620 19:54:20.168149 18458 net.cpp:156] Memory required for data: 2610430464
I0620 19:54:20.168160 18458 layer_factory.hpp:77] Creating layer relu_e_1_1
I0620 19:54:20.168171 18458 net.cpp:91] Creating Layer relu_e_1_1
I0620 19:54:20.168179 18458 net.cpp:425] relu_e_1_1 <- sc_e_1_1
I0620 19:54:20.168185 18458 net.cpp:399] relu_e_1_1 -> relu_e_1_1
I0620 19:54:20.168514 18458 net.cpp:141] Setting up relu_e_1_1
I0620 19:54:20.168529 18458 net.cpp:148] Top shape: 128 64 32 32 (8388608)
I0620 19:54:20.168534 18458 net.cpp:156] Memory required for data: 2643984896
I0620 19:54:20.168540 18458 layer_factory.hpp:77] Creating layer conv_e_1_1
I0620 19:54:20.168557 18458 net.cpp:91] Creating Layer conv_e_1_1
I0620 19:54:20.168565 18458 net.cpp:425] conv_e_1_1 <- relu_e_1_1
I0620 19:54:20.168575 18458 net.cpp:399] conv_e_1_1 -> conv_e_1_1
I0620 19:54:20.172026 18458 net.cpp:141] Setting up conv_e_1_1
I0620 19:54:20.172042 18458 net.cpp:148] Top shape: 128 128 16 16 (4194304)
I0620 19:54:20.172066 18458 net.cpp:156] Memory required for data: 2660762112
I0620 19:54:20.172075 18458 layer_factory.hpp:77] Creating layer bn_e_1_2
I0620 19:54:20.172086 18458 net.cpp:91] Creating Layer bn_e_1_2
I0620 19:54:20.172092 18458 net.cpp:425] bn_e_1_2 <- conv_e_1_1
I0620 19:54:20.172102 18458 net.cpp:399] bn_e_1_2 -> bn_e_1_2
I0620 19:54:20.172329 18458 net.cpp:141] Setting up bn_e_1_2
I0620 19:54:20.172343 18458 net.cpp:148] Top shape: 128 128 16 16 (4194304)
I0620 19:54:20.172350 18458 net.cpp:156] Memory required for data: 2677539328
I0620 19:54:20.172359 18458 layer_factory.hpp:77] Creating layer sc_e_1_2
I0620 19:54:20.172369 18458 net.cpp:91] Creating Layer sc_e_1_2
I0620 19:54:20.172375 18458 net.cpp:425] sc_e_1_2 <- bn_e_1_2
I0620 19:54:20.172384 18458 net.cpp:399] sc_e_1_2 -> sc_e_1_2
I0620 19:54:20.172433 18458 layer_factory.hpp:77] Creating layer sc_e_1_2
I0620 19:54:20.172562 18458 net.cpp:141] Setting up sc_e_1_2
I0620 19:54:20.172576 18458 net.cpp:148] Top shape: 128 128 16 16 (4194304)
I0620 19:54:20.172581 18458 net.cpp:156] Memory required for data: 2694316544
I0620 19:54:20.172590 18458 layer_factory.hpp:77] Creating layer relu_e_1_2
I0620 19:54:20.172598 18458 net.cpp:91] Creating Layer relu_e_1_2
I0620 19:54:20.172605 18458 net.cpp:425] relu_e_1_2 <- sc_e_1_2
I0620 19:54:20.172615 18458 net.cpp:399] relu_e_1_2 -> relu_e_1_2
I0620 19:54:20.172829 18458 net.cpp:141] Setting up relu_e_1_2
I0620 19:54:20.172843 18458 net.cpp:148] Top shape: 128 128 16 16 (4194304)
I0620 19:54:20.172849 18458 net.cpp:156] Memory required for data: 2711093760
I0620 19:54:20.172854 18458 layer_factory.hpp:77] Creating layer conv_e_1_2
I0620 19:54:20.172868 18458 net.cpp:91] Creating Layer conv_e_1_2
I0620 19:54:20.172889 18458 net.cpp:425] conv_e_1_2 <- relu_e_1_2
I0620 19:54:20.172906 18458 net.cpp:399] conv_e_1_2 -> conv_e_1_2
I0620 19:54:20.177712 18458 net.cpp:141] Setting up conv_e_1_2
I0620 19:54:20.177742 18458 net.cpp:148] Top shape: 128 128 16 16 (4194304)
I0620 19:54:20.177748 18458 net.cpp:156] Memory required for data: 2727870976
I0620 19:54:20.177757 18458 layer_factory.hpp:77] Creating layer res_e
I0620 19:54:20.177772 18458 net.cpp:91] Creating Layer res_e
I0620 19:54:20.177778 18458 net.cpp:425] res_e <- elt_a_1_elt_a_1_0_split_3
I0620 19:54:20.177785 18458 net.cpp:399] res_e -> res_e
I0620 19:54:20.179217 18458 net.cpp:141] Setting up res_e
I0620 19:54:20.179249 18458 net.cpp:148] Top shape: 128 128 16 16 (4194304)
I0620 19:54:20.179255 18458 net.cpp:156] Memory required for data: 2744648192
I0620 19:54:20.179262 18458 layer_factory.hpp:77] Creating layer elt_e_1
I0620 19:54:20.179270 18458 net.cpp:91] Creating Layer elt_e_1
I0620 19:54:20.179276 18458 net.cpp:425] elt_e_1 <- res_e
I0620 19:54:20.179282 18458 net.cpp:425] elt_e_1 <- conv_e_1_2
I0620 19:54:20.179291 18458 net.cpp:399] elt_e_1 -> elt_e_1
I0620 19:54:20.179334 18458 net.cpp:141] Setting up elt_e_1
I0620 19:54:20.179347 18458 net.cpp:148] Top shape: 128 128 16 16 (4194304)
I0620 19:54:20.179352 18458 net.cpp:156] Memory required for data: 2761425408
I0620 19:54:20.179357 18458 layer_factory.hpp:77] Creating layer elt_e_h
I0620 19:54:20.179366 18458 net.cpp:91] Creating Layer elt_e_h
I0620 19:54:20.179373 18458 net.cpp:425] elt_e_h <- elt_e_1
I0620 19:54:20.179379 18458 net.cpp:425] elt_e_h <- elt_h_1
I0620 19:54:20.179386 18458 net.cpp:399] elt_e_h -> elt_e_h
I0620 19:54:20.179422 18458 net.cpp:141] Setting up elt_e_h
I0620 19:54:20.179433 18458 net.cpp:148] Top shape: 128 128 16 16 (4194304)
I0620 19:54:20.179438 18458 net.cpp:156] Memory required for data: 2778202624
I0620 19:54:20.179443 18458 layer_factory.hpp:77] Creating layer elt_e_h_elt_e_h_0_split
I0620 19:54:20.179450 18458 net.cpp:91] Creating Layer elt_e_h_elt_e_h_0_split
I0620 19:54:20.179455 18458 net.cpp:425] elt_e_h_elt_e_h_0_split <- elt_e_h
I0620 19:54:20.179464 18458 net.cpp:399] elt_e_h_elt_e_h_0_split -> elt_e_h_elt_e_h_0_split_0
I0620 19:54:20.179484 18458 net.cpp:399] elt_e_h_elt_e_h_0_split -> elt_e_h_elt_e_h_0_split_1
I0620 19:54:20.179535 18458 net.cpp:141] Setting up elt_e_h_elt_e_h_0_split
I0620 19:54:20.179550 18458 net.cpp:148] Top shape: 128 128 16 16 (4194304)
I0620 19:54:20.179558 18458 net.cpp:148] Top shape: 128 128 16 16 (4194304)
I0620 19:54:20.179563 18458 net.cpp:156] Memory required for data: 2811757056
I0620 19:54:20.179569 18458 layer_factory.hpp:77] Creating layer bn_k_1_1
I0620 19:54:20.179579 18458 net.cpp:91] Creating Layer bn_k_1_1
I0620 19:54:20.179585 18458 net.cpp:425] bn_k_1_1 <- elt_e_h_elt_e_h_0_split_0
I0620 19:54:20.179596 18458 net.cpp:399] bn_k_1_1 -> bn_k_1_1
I0620 19:54:20.179805 18458 net.cpp:141] Setting up bn_k_1_1
I0620 19:54:20.179817 18458 net.cpp:148] Top shape: 128 128 16 16 (4194304)
I0620 19:54:20.179823 18458 net.cpp:156] Memory required for data: 2828534272
I0620 19:54:20.179833 18458 layer_factory.hpp:77] Creating layer sc_k_1_1
I0620 19:54:20.179844 18458 net.cpp:91] Creating Layer sc_k_1_1
I0620 19:54:20.179852 18458 net.cpp:425] sc_k_1_1 <- bn_k_1_1
I0620 19:54:20.179859 18458 net.cpp:399] sc_k_1_1 -> sc_k_1_1
I0620 19:54:20.179906 18458 layer_factory.hpp:77] Creating layer sc_k_1_1
I0620 19:54:20.180066 18458 net.cpp:141] Setting up sc_k_1_1
I0620 19:54:20.180078 18458 net.cpp:148] Top shape: 128 128 16 16 (4194304)
I0620 19:54:20.180085 18458 net.cpp:156] Memory required for data: 2845311488
I0620 19:54:20.180095 18458 layer_factory.hpp:77] Creating layer relu_k_1_1
I0620 19:54:20.180104 18458 net.cpp:91] Creating Layer relu_k_1_1
I0620 19:54:20.180111 18458 net.cpp:425] relu_k_1_1 <- sc_k_1_1
I0620 19:54:20.180120 18458 net.cpp:399] relu_k_1_1 -> relu_k_1_1
I0620 19:54:20.180317 18458 net.cpp:141] Setting up relu_k_1_1
I0620 19:54:20.180330 18458 net.cpp:148] Top shape: 128 128 16 16 (4194304)
I0620 19:54:20.180351 18458 net.cpp:156] Memory required for data: 2862088704
I0620 19:54:20.180357 18458 layer_factory.hpp:77] Creating layer conv_k_1_1
I0620 19:54:20.180371 18458 net.cpp:91] Creating Layer conv_k_1_1
I0620 19:54:20.180380 18458 net.cpp:425] conv_k_1_1 <- relu_k_1_1
I0620 19:54:20.180389 18458 net.cpp:399] conv_k_1_1 -> conv_k_1_1
I0620 19:54:20.189606 18458 net.cpp:141] Setting up conv_k_1_1
I0620 19:54:20.189621 18458 net.cpp:148] Top shape: 128 256 8 8 (2097152)
I0620 19:54:20.189645 18458 net.cpp:156] Memory required for data: 2870477312
I0620 19:54:20.189653 18458 layer_factory.hpp:77] Creating layer bn_k_1_2
I0620 19:54:20.189664 18458 net.cpp:91] Creating Layer bn_k_1_2
I0620 19:54:20.189672 18458 net.cpp:425] bn_k_1_2 <- conv_k_1_1
I0620 19:54:20.189682 18458 net.cpp:399] bn_k_1_2 -> bn_k_1_2
I0620 19:54:20.189929 18458 net.cpp:141] Setting up bn_k_1_2
I0620 19:54:20.189941 18458 net.cpp:148] Top shape: 128 256 8 8 (2097152)
I0620 19:54:20.189946 18458 net.cpp:156] Memory required for data: 2878865920
I0620 19:54:20.189955 18458 layer_factory.hpp:77] Creating layer sc_k_1_2
I0620 19:54:20.189967 18458 net.cpp:91] Creating Layer sc_k_1_2
I0620 19:54:20.189975 18458 net.cpp:425] sc_k_1_2 <- bn_k_1_2
I0620 19:54:20.189982 18458 net.cpp:399] sc_k_1_2 -> sc_k_1_2
I0620 19:54:20.190037 18458 layer_factory.hpp:77] Creating layer sc_k_1_2
I0620 19:54:20.190172 18458 net.cpp:141] Setting up sc_k_1_2
I0620 19:54:20.190184 18458 net.cpp:148] Top shape: 128 256 8 8 (2097152)
I0620 19:54:20.190189 18458 net.cpp:156] Memory required for data: 2887254528
I0620 19:54:20.190197 18458 layer_factory.hpp:77] Creating layer relu_k_1_2
I0620 19:54:20.190207 18458 net.cpp:91] Creating Layer relu_k_1_2
I0620 19:54:20.190212 18458 net.cpp:425] relu_k_1_2 <- sc_k_1_2
I0620 19:54:20.190224 18458 net.cpp:399] relu_k_1_2 -> relu_k_1_2
I0620 19:54:20.190544 18458 net.cpp:141] Setting up relu_k_1_2
I0620 19:54:20.190560 18458 net.cpp:148] Top shape: 128 256 8 8 (2097152)
I0620 19:54:20.190567 18458 net.cpp:156] Memory required for data: 2895643136
I0620 19:54:20.190572 18458 layer_factory.hpp:77] Creating layer conv_k_1_2
I0620 19:54:20.190585 18458 net.cpp:91] Creating Layer conv_k_1_2
I0620 19:54:20.190593 18458 net.cpp:425] conv_k_1_2 <- relu_k_1_2
I0620 19:54:20.190605 18458 net.cpp:399] conv_k_1_2 -> conv_k_1_2
I0620 19:54:20.207433 18458 net.cpp:141] Setting up conv_k_1_2
I0620 19:54:20.207449 18458 net.cpp:148] Top shape: 128 256 8 8 (2097152)
I0620 19:54:20.207471 18458 net.cpp:156] Memory required for data: 2904031744
I0620 19:54:20.207480 18458 layer_factory.hpp:77] Creating layer res_k
I0620 19:54:20.207495 18458 net.cpp:91] Creating Layer res_k
I0620 19:54:20.207502 18458 net.cpp:425] res_k <- elt_e_h_elt_e_h_0_split_1
I0620 19:54:20.207514 18458 net.cpp:399] res_k -> res_k
I0620 19:54:20.209415 18458 net.cpp:141] Setting up res_k
I0620 19:54:20.209431 18458 net.cpp:148] Top shape: 128 256 8 8 (2097152)
I0620 19:54:20.209452 18458 net.cpp:156] Memory required for data: 2912420352
I0620 19:54:20.209461 18458 layer_factory.hpp:77] Creating layer elt_k_1
I0620 19:54:20.209470 18458 net.cpp:91] Creating Layer elt_k_1
I0620 19:54:20.209480 18458 net.cpp:425] elt_k_1 <- res_k
I0620 19:54:20.209486 18458 net.cpp:425] elt_k_1 <- conv_k_1_2
I0620 19:54:20.209499 18458 net.cpp:399] elt_k_1 -> elt_k_1
I0620 19:54:20.209534 18458 net.cpp:141] Setting up elt_k_1
I0620 19:54:20.209547 18458 net.cpp:148] Top shape: 128 256 8 8 (2097152)
I0620 19:54:20.209553 18458 net.cpp:156] Memory required for data: 2920808960
I0620 19:54:20.209558 18458 layer_factory.hpp:77] Creating layer bn_l_1_1
I0620 19:54:20.209579 18458 net.cpp:91] Creating Layer bn_l_1_1
I0620 19:54:20.209586 18458 net.cpp:425] bn_l_1_1 <- elt_g_i_elt_g_i_0_split_0
I0620 19:54:20.209596 18458 net.cpp:399] bn_l_1_1 -> bn_l_1_1
I0620 19:54:20.209831 18458 net.cpp:141] Setting up bn_l_1_1
I0620 19:54:20.209843 18458 net.cpp:148] Top shape: 128 128 16 16 (4194304)
I0620 19:54:20.209849 18458 net.cpp:156] Memory required for data: 2937586176
I0620 19:54:20.209859 18458 layer_factory.hpp:77] Creating layer sc_l_1_1
I0620 19:54:20.209885 18458 net.cpp:91] Creating Layer sc_l_1_1
I0620 19:54:20.209894 18458 net.cpp:425] sc_l_1_1 <- bn_l_1_1
I0620 19:54:20.209904 18458 net.cpp:399] sc_l_1_1 -> sc_l_1_1
I0620 19:54:20.209952 18458 layer_factory.hpp:77] Creating layer sc_l_1_1
I0620 19:54:20.210095 18458 net.cpp:141] Setting up sc_l_1_1
I0620 19:54:20.210110 18458 net.cpp:148] Top shape: 128 128 16 16 (4194304)
I0620 19:54:20.210117 18458 net.cpp:156] Memory required for data: 2954363392
I0620 19:54:20.210125 18458 layer_factory.hpp:77] Creating layer relu_l_1_1
I0620 19:54:20.210136 18458 net.cpp:91] Creating Layer relu_l_1_1
I0620 19:54:20.210144 18458 net.cpp:425] relu_l_1_1 <- sc_l_1_1
I0620 19:54:20.210151 18458 net.cpp:399] relu_l_1_1 -> relu_l_1_1
I0620 19:54:20.210472 18458 net.cpp:141] Setting up relu_l_1_1
I0620 19:54:20.210486 18458 net.cpp:148] Top shape: 128 128 16 16 (4194304)
I0620 19:54:20.210494 18458 net.cpp:156] Memory required for data: 2971140608
I0620 19:54:20.210500 18458 layer_factory.hpp:77] Creating layer conv_l_1_1
I0620 19:54:20.210512 18458 net.cpp:91] Creating Layer conv_l_1_1
I0620 19:54:20.210520 18458 net.cpp:425] conv_l_1_1 <- relu_l_1_1
I0620 19:54:20.210531 18458 net.cpp:399] conv_l_1_1 -> conv_l_1_1
I0620 19:54:20.219589 18458 net.cpp:141] Setting up conv_l_1_1
I0620 19:54:20.219604 18458 net.cpp:148] Top shape: 128 256 8 8 (2097152)
I0620 19:54:20.219627 18458 net.cpp:156] Memory required for data: 2979529216
I0620 19:54:20.219636 18458 layer_factory.hpp:77] Creating layer bn_l_1_2
I0620 19:54:20.219648 18458 net.cpp:91] Creating Layer bn_l_1_2
I0620 19:54:20.219656 18458 net.cpp:425] bn_l_1_2 <- conv_l_1_1
I0620 19:54:20.219668 18458 net.cpp:399] bn_l_1_2 -> bn_l_1_2
I0620 19:54:20.219926 18458 net.cpp:141] Setting up bn_l_1_2
I0620 19:54:20.219938 18458 net.cpp:148] Top shape: 128 256 8 8 (2097152)
I0620 19:54:20.219944 18458 net.cpp:156] Memory required for data: 2987917824
I0620 19:54:20.219952 18458 layer_factory.hpp:77] Creating layer sc_l_1_2
I0620 19:54:20.219962 18458 net.cpp:91] Creating Layer sc_l_1_2
I0620 19:54:20.219969 18458 net.cpp:425] sc_l_1_2 <- bn_l_1_2
I0620 19:54:20.219980 18458 net.cpp:399] sc_l_1_2 -> sc_l_1_2
I0620 19:54:20.220031 18458 layer_factory.hpp:77] Creating layer sc_l_1_2
I0620 19:54:20.220172 18458 net.cpp:141] Setting up sc_l_1_2
I0620 19:54:20.220187 18458 net.cpp:148] Top shape: 128 256 8 8 (2097152)
I0620 19:54:20.220193 18458 net.cpp:156] Memory required for data: 2996306432
I0620 19:54:20.220202 18458 layer_factory.hpp:77] Creating layer relu_l_1_2
I0620 19:54:20.220226 18458 net.cpp:91] Creating Layer relu_l_1_2
I0620 19:54:20.220233 18458 net.cpp:425] relu_l_1_2 <- sc_l_1_2
I0620 19:54:20.220242 18458 net.cpp:399] relu_l_1_2 -> relu_l_1_2
I0620 19:54:20.220448 18458 net.cpp:141] Setting up relu_l_1_2
I0620 19:54:20.220463 18458 net.cpp:148] Top shape: 128 256 8 8 (2097152)
I0620 19:54:20.220468 18458 net.cpp:156] Memory required for data: 3004695040
I0620 19:54:20.220474 18458 layer_factory.hpp:77] Creating layer conv_l_1_2
I0620 19:54:20.220487 18458 net.cpp:91] Creating Layer conv_l_1_2
I0620 19:54:20.220494 18458 net.cpp:425] conv_l_1_2 <- relu_l_1_2
I0620 19:54:20.220505 18458 net.cpp:399] conv_l_1_2 -> conv_l_1_2
I0620 19:54:20.237447 18458 net.cpp:141] Setting up conv_l_1_2
I0620 19:54:20.237462 18458 net.cpp:148] Top shape: 128 256 8 8 (2097152)
I0620 19:54:20.237467 18458 net.cpp:156] Memory required for data: 3013083648
I0620 19:54:20.237475 18458 layer_factory.hpp:77] Creating layer res_l
I0620 19:54:20.237489 18458 net.cpp:91] Creating Layer res_l
I0620 19:54:20.237509 18458 net.cpp:425] res_l <- elt_g_i_elt_g_i_0_split_1
I0620 19:54:20.237519 18458 net.cpp:399] res_l -> res_l
I0620 19:54:20.239429 18458 net.cpp:141] Setting up res_l
I0620 19:54:20.239444 18458 net.cpp:148] Top shape: 128 256 8 8 (2097152)
I0620 19:54:20.239449 18458 net.cpp:156] Memory required for data: 3021472256
I0620 19:54:20.239459 18458 layer_factory.hpp:77] Creating layer elt_l_1
I0620 19:54:20.239465 18458 net.cpp:91] Creating Layer elt_l_1
I0620 19:54:20.239498 18458 net.cpp:425] elt_l_1 <- res_l
I0620 19:54:20.239506 18458 net.cpp:425] elt_l_1 <- conv_l_1_2
I0620 19:54:20.239516 18458 net.cpp:399] elt_l_1 -> elt_l_1
I0620 19:54:20.239557 18458 net.cpp:141] Setting up elt_l_1
I0620 19:54:20.239568 18458 net.cpp:148] Top shape: 128 256 8 8 (2097152)
I0620 19:54:20.239573 18458 net.cpp:156] Memory required for data: 3029860864
I0620 19:54:20.239578 18458 layer_factory.hpp:77] Creating layer elt_j_k_l
I0620 19:54:20.239588 18458 net.cpp:91] Creating Layer elt_j_k_l
I0620 19:54:20.239594 18458 net.cpp:425] elt_j_k_l <- elt_j_1
I0620 19:54:20.239600 18458 net.cpp:425] elt_j_k_l <- elt_k_1
I0620 19:54:20.239605 18458 net.cpp:425] elt_j_k_l <- elt_l_1
I0620 19:54:20.239612 18458 net.cpp:399] elt_j_k_l -> elt_j_k_l
I0620 19:54:20.239646 18458 net.cpp:141] Setting up elt_j_k_l
I0620 19:54:20.239657 18458 net.cpp:148] Top shape: 128 256 8 8 (2097152)
I0620 19:54:20.239662 18458 net.cpp:156] Memory required for data: 3038249472
I0620 19:54:20.239666 18458 layer_factory.hpp:77] Creating layer bn_m_1_1
I0620 19:54:20.239677 18458 net.cpp:91] Creating Layer bn_m_1_1
I0620 19:54:20.239683 18458 net.cpp:425] bn_m_1_1 <- elt_j_k_l
I0620 19:54:20.239693 18458 net.cpp:399] bn_m_1_1 -> bn_m_1_1
I0620 19:54:20.239934 18458 net.cpp:141] Setting up bn_m_1_1
I0620 19:54:20.239948 18458 net.cpp:148] Top shape: 128 256 8 8 (2097152)
I0620 19:54:20.239953 18458 net.cpp:156] Memory required for data: 3046638080
I0620 19:54:20.239961 18458 layer_factory.hpp:77] Creating layer sc_m_1_1
I0620 19:54:20.239971 18458 net.cpp:91] Creating Layer sc_m_1_1
I0620 19:54:20.239977 18458 net.cpp:425] sc_m_1_1 <- bn_m_1_1
I0620 19:54:20.239985 18458 net.cpp:399] sc_m_1_1 -> sc_m_1_1
I0620 19:54:20.240036 18458 layer_factory.hpp:77] Creating layer sc_m_1_1
I0620 19:54:20.240172 18458 net.cpp:141] Setting up sc_m_1_1
I0620 19:54:20.240183 18458 net.cpp:148] Top shape: 128 256 8 8 (2097152)
I0620 19:54:20.240188 18458 net.cpp:156] Memory required for data: 3055026688
I0620 19:54:20.240196 18458 layer_factory.hpp:77] Creating layer relu_m_1_1
I0620 19:54:20.240207 18458 net.cpp:91] Creating Layer relu_m_1_1
I0620 19:54:20.240214 18458 net.cpp:425] relu_m_1_1 <- sc_m_1_1
I0620 19:54:20.240221 18458 net.cpp:399] relu_m_1_1 -> relu_m_1_1
I0620 19:54:20.240422 18458 net.cpp:141] Setting up relu_m_1_1
I0620 19:54:20.240437 18458 net.cpp:148] Top shape: 128 256 8 8 (2097152)
I0620 19:54:20.240442 18458 net.cpp:156] Memory required for data: 3063415296
I0620 19:54:20.240448 18458 layer_factory.hpp:77] Creating layer gap
I0620 19:54:20.240459 18458 net.cpp:91] Creating Layer gap
I0620 19:54:20.240466 18458 net.cpp:425] gap <- relu_m_1_1
I0620 19:54:20.240475 18458 net.cpp:399] gap -> gap
I0620 19:54:20.240828 18458 net.cpp:141] Setting up gap
I0620 19:54:20.240854 18458 net.cpp:148] Top shape: 128 256 1 1 (32768)
I0620 19:54:20.240860 18458 net.cpp:156] Memory required for data: 3063546368
I0620 19:54:20.240865 18458 layer_factory.hpp:77] Creating layer ip1
I0620 19:54:20.240877 18458 net.cpp:91] Creating Layer ip1
I0620 19:54:20.240885 18458 net.cpp:425] ip1 <- gap
I0620 19:54:20.240891 18458 net.cpp:399] ip1 -> ip1
I0620 19:54:20.241130 18458 net.cpp:141] Setting up ip1
I0620 19:54:20.241142 18458 net.cpp:148] Top shape: 128 10 (1280)
I0620 19:54:20.241147 18458 net.cpp:156] Memory required for data: 3063551488
I0620 19:54:20.241155 18458 layer_factory.hpp:77] Creating layer loss
I0620 19:54:20.241170 18458 net.cpp:91] Creating Layer loss
I0620 19:54:20.241178 18458 net.cpp:425] loss <- ip1
I0620 19:54:20.241183 18458 net.cpp:425] loss <- label
I0620 19:54:20.241194 18458 net.cpp:399] loss -> loss
I0620 19:54:20.241211 18458 layer_factory.hpp:77] Creating layer loss
…
I0620 19:54:20.245770 18458 net.cpp:313] The NetState phase (1) differed from the phase (0) specified by a rule in layer resnet
I0620 19:54:20.246522 18458 net.cpp:49] Initializing net from parameters: 
name: "ResNet"
state {
  phase: TEST
}
layer {
  name: "resnet"
  type: "Data"
  top: "data"
  top: "label"
  include {
    phase: TEST
  }
  transform_param {
    mean_file: "/home/takeki/caffe/examples/cifar10/mean.binaryproto"
  }
  data_param {
    source: "/home/takeki/caffe/examples/cifar10/cifar10_test_lmdb"
    batch_size: 100
    backend: LMDB
  }
}
layer {
  name: "conv0"
  type: "Convolution"
  bottom: "data"
  top: "conv0"
  param {
    lr_mult: 1
  }
  param {
    lr_mult: 2
  }
  convolution_param {
    num_output: 16
    pad: 1
    kernel_size: 3
    stride: 1
    weight_filler {
      type: "msra"
    }
    bias_filler {
      type: "constant"
    }
  }
}
layer {
  name: "bn_a_1_1"
  type: "BatchNorm"
  bottom: "conv0"
  top: "bn_a_1_1"
  param {
    lr_mult: 0
  }
  param {
    lr_mult: 0
  }
  param {
    lr_mult: 0
  }
  batch_norm_param {
    use_global_stats: false
  }
}
layer {
  name: "sc_a_1_1"
  type: "Scale"
  bottom: "bn_a_1_1"
  top: "sc_a_1_1"
  scale_param {
    bias_term: true
  }
}
layer {
  name: "relu_a_1_1"
  type: "ReLU"
  bottom: "sc_a_1_1"
  top: "relu_a_1_1"
}
layer {
  name: "conv_a_1_1"
  type: "Convolution"
  bottom: "relu_a_1_1"
  top: "conv_a_1_1"
  param {
    lr_mult: 1
    decay_mult: 1
  }
  param {
    lr_mult: 2
    decay_mult: 1
  }
  convolution_param {
    num_output: 64
    pad: 1
    kernel_size: 3
    stride: 1
    weight_filler {
      type: "msra"
    }
    bias_filler {
      type: "constant"
    }
  }
}
layer {
  name: "bn_a_1_2"
  type: "BatchNorm"
  bottom: "conv_a_1_1"
  top: "bn_a_1_2"
  param {
    lr_mult: 0
  }
  param {
    lr_mult: 0
  }
  param {
    lr_mult: 0
  }
  batch_norm_param {
    use_global_stats: false
  }
}
layer {
  name: "sc_a_1_2"
  type: "Scale"
  bottom: "bn_a_1_2"
  top: "sc_a_1_2"
  scale_param {
    bias_term: true
  }
}
layer {
  name: "relu_a_1_2"
  type: "ReLU"
  bottom: "sc_a_1_2"
  top: "relu_a_1_2"
}
layer {
  name: "conv_a_1_2"
  type: "Convolution"
  bottom: "relu_a_1_2"
  top: "conv_a_1_2"
  param {
    lr_mult: 1
    decay_mult: 1
  }
  param {
    lr_mult: 2
    decay_mult: 1
  }
  convolution_param {
    num_output: 64
    pad: 1
    kernel_size: 3
    stride: 1
    weight_filler {
      type: "msra"
    }
    bias_filler {
      type: "constant"
    }
  }
}
layer {
  name: "res_a"
  type: "Convolution"
  bottom: "conv0"
  top: "res_a"
  param {
    lr_mult: 1
    decay_mult: 1
  }
  param {
    lr_mult: 2
    decay_mult: 1
  }
  convolution_param {
    num_output: 64
    pad: 0
    kernel_size: 1
    stride: 1
    weight_filler {
      type: "msra"
    }
    bias_filler {
      type: "constant"
    }
  }
}
layer {
  name: "elt_a_1"
  type: "Eltwise"
  bottom: "res_a"
  bottom: "conv_a_1_2"
  top: "elt_a_1"
  eltwise_param {
    operation: SUM
  }
}
layer {
  name: "bn_b_1_1"
  type: "BatchNorm"
  bottom: "conv0"
  top: "bn_b_1_1"
  param {
    lr_mult: 0
  }
  param {
    lr_mult: 0
  }
  param {
    lr_mult: 0
  }
  batch_norm_param {
    use_global_stats: false
  }
}
layer {
  name: "sc_b_1_1"
  type: "Scale"
  bottom: "bn_b_1_1"
  top: "sc_b_1_1"
  scale_param {
    bias_term: true
  }
}
layer {
  name: "relu_b_1_1"
  type: "ReLU"
  bottom: "sc_b_1_1"
  top: "relu_b_1_1"
}
layer {
  name: "conv_b_1_1"
  type: "Convolution"
  bottom: "relu_b_1_1"
  top: "conv_b_1_1"
  param {
    lr_mult: 1
    decay_mult: 1
  }
  param {
    lr_mult: 2
    decay_mult: 1
  }
  convolution_param {
    num_output: 64
    pad: 1
    kernel_size: 3
    stride: 1
    weight_filler {
      type: "msra"
    }
    bias_filler {
      type: "constant"
    }
  }
}
layer {
  name: "bn_b_1_2"
  type: "BatchNorm"
  bottom: "conv_b_1_1"
  top: "bn_b_1_2"
  param {
    lr_mult: 0
  }
  param {
    lr_mult: 0
  }
  param {
    lr_mult: 0
  }
  batch_norm_param {
    use_global_stats: false
  }
}
layer {
  name: "sc_b_1_2"
  type: "Scale"
  bottom: "bn_b_1_2"
  top: "sc_b_1_2"
  scale_param {
    bias_term: true
  }
}
layer {
  name: "relu_b_1_2"
  type: "ReLU"
  bottom: "sc_b_1_2"
  top: "relu_b_1_2"
}
layer {
  name: "conv_b_1_2"
  type: "Convolution"
  bottom: "relu_b_1_2"
  top: "conv_b_1_2"
  param {
    lr_mult: 1
    decay_mult: 1
  }
  param {
    lr_mult: 2
    decay_mult: 1
  }
  convolution_param {
    num_output: 64
    pad: 1
    kernel_size: 3
    stride: 1
    weight_filler {
      type: "msra"
    }
    bias_filler {
      type: "constant"
    }
  }
}
layer {
  name: "res_b"
  type: "Convolution"
  bottom: "conv0"
  top: "res_b"
  param {
    lr_mult: 1
    decay_mult: 1
  }
  param {
    lr_mult: 2
    decay_mult: 1
  }
  convolution_param {
    num_output: 64
    pad: 0
    kernel_size: 1
    stride: 1
    weight_filler {
      type: "msra"
    }
    bias_filler {
      type: "constant"
    }
  }
}
layer {
  name: "elt_b_1"
  type: "Eltwise"
  bottom: "res_b"
  bottom: "conv_b_1_2"
  top: "elt_b_1"
  eltwise_param {
    operation: SUM
  }
}
layer {
  name: "bn_c_1_1"
  type: "BatchNorm"
  bottom: "conv0"
  top: "bn_c_1_1"
  param {
    lr_mult: 0
  }
  param {
    lr_mult: 0
  }
  param {
    lr_mult: 0
  }
  batch_norm_param {
    use_global_stats: false
  }
}
layer {
  name: "sc_c_1_1"
  type: "Scale"
  bottom: "bn_c_1_1"
  top: "sc_c_1_1"
  scale_param {
    bias_term: true
  }
}
layer {
  name: "relu_c_1_1"
  type: "ReLU"
  bottom: "sc_c_1_1"
  top: "relu_c_1_1"
}
layer {
  name: "conv_c_1_1"
  type: "Convolution"
  bottom: "relu_c_1_1"
  top: "conv_c_1_1"
  param {
    lr_mult: 1
    decay_mult: 1
  }
  param {
    lr_mult: 2
    decay_mult: 1
  }
  convolution_param {
    num_output: 64
    pad: 1
    kernel_size: 3
    stride: 1
    weight_filler {
      type: "msra"
    }
    bias_filler {
      type: "constant"
    }
  }
}
layer {
  name: "bn_c_1_2"
  type: "BatchNorm"
  bottom: "conv_c_1_1"
  top: "bn_c_1_2"
  param {
    lr_mult: 0
  }
  param {
    lr_mult: 0
  }
  param {
    lr_mult: 0
  }
  batch_norm_param {
    use_global_stats: false
  }
}
layer {
  name: "sc_c_1_2"
  type: "Scale"
  bottom: "bn_c_1_2"
  top: "sc_c_1_2"
  scale_param {
    bias_term: true
  }
}
layer {
  name: "relu_c_1_2"
  type: "ReLU"
  bottom: "sc_c_1_2"
  top: "relu_c_1_2"
}
layer {
  name: "conv_c_1_2"
  type: "Convolution"
  bottom: "relu_c_1_2"
  top: "conv_c_1_2"
  param {
    lr_mult: 1
    decay_mult: 1
  }
  param {
    lr_mult: 2
    decay_mult: 1
  }
  convolution_param {
    num_output: 64
    pad: 1
    kernel_size: 3
    stride: 1
    weight_filler {
      type: "msra"
    }
    bias_filler {
      type: "constant"
    }
  }
}
layer {
  name: "res_c"
  type: "Convolution"
  bottom: "conv0"
  top: "res_c"
  param {
    lr_mult: 1
    decay_mult: 1
  }
  param {
    lr_mult: 2
    decay_mult: 1
  }
  convolution_param {
    num_output: 64
    pad: 0
    kernel_size: 1
    stride: 1
    weight_filler {
      type: "msra"
    }
    bias_filler {
      type: "constant"
    }
  }
}
layer {
  name: "elt_c_1"
  type: "Eltwise"
  bottom: "res_c"
  bottom: "conv_c_1_2"
  top: "elt_c_1"
  eltwise_param {
    operation: SUM
  }
}
layer {
  name: "bn_d_1_1"
  type: "BatchNorm"
  bottom: "elt_a_1"
  top: "bn_d_1_1"
  param {
    lr_mult: 0
  }
  param {
    lr_mult: 0
  }
  param {
    lr_mult: 0
  }
  batch_norm_param {
    use_global_stats: false
  }
}
layer {
  name: "sc_d_1_1"
  type: "Scale"
  bottom: "bn_d_1_1"
  top: "sc_d_1_1"
  scale_param {
    bias_term: true
  }
}
layer {
  name: "relu_d_1_1"
  type: "ReLU"
  bottom: "sc_d_1_1"
  top: "relu_d_1_1"
}
layer {
  name: "conv_d_1_1"
  type: "Convolution"
  bottom: "relu_d_1_1"
  top: "conv_d_1_1"
  param {
    lr_mult: 1
    decay_mult: 1
  }
  param {
    lr_mult: 2
    decay_mult: 1
  }
  convolution_param {
    num_output: 128
    pad: 1
    kernel_size: 3
    stride: 2
    weight_filler {
      type: "msra"
    }
    bias_filler {
      type: "constant"
    }
  }
}
layer {
  name: "bn_d_1_2"
  type: "BatchNorm"
  bottom: "conv_d_1_1"
  top: "bn_d_1_2"
  param {
    lr_mult: 0
  }
  param {
    lr_mult: 0
  }
  param {
    lr_mult: 0
  }
  batch_norm_param {
    use_global_stats: false
  }
}
layer {
  name: "sc_d_1_2"
  type: "Scale"
  bottom: "bn_d_1_2"
  top: "sc_d_1_2"
  scale_param {
    bias_term: true
  }
}
layer {
  name: "relu_d_1_2"
  type: "ReLU"
  bottom: "sc_d_1_2"
  top: "relu_d_1_2"
}
layer {
  name: "conv_d_1_2"
  type: "Convolution"
  bottom: "relu_d_1_2"
  top: "conv_d_1_2"
  param {
    lr_mult: 1
    decay_mult: 1
  }
  param {
    lr_mult: 2
    decay_mult: 1
  }
  convolution_param {
    num_output: 128
    pad: 1
    kernel_size: 3
    stride: 1
    weight_filler {
      type: "msra"
    }
    bias_filler {
      type: "constant"
    }
  }
}
layer {
  name: "res_d"
  type: "Convolution"
  bottom: "elt_a_1"
  top: "res_d"
  param {
    lr_mult: 1
    decay_mult: 1
  }
  param {
    lr_mult: 2
    decay_mult: 1
  }
  convolution_param {
    num_output: 128
    pad: 0
    kernel_size: 1
    stride: 2
    weight_filler {
      type: "msra"
    }
    bias_filler {
      type: "constant"
    }
  }
}
layer {
  name: "elt_d_1"
  type: "Eltwise"
  bottom: "res_d"
  bottom: "conv_d_1_2"
  top: "elt_d_1"
  eltwise_param {
    operation: SUM
  }
}
layer {
  name: "bn_f_1_1"
  type: "BatchNorm"
  bottom: "elt_b_1"
  top: "bn_f_1_1"
  param {
    lr_mult: 0
  }
  param {
    lr_mult: 0
  }
  param {
    lr_mult: 0
  }
  batch_norm_param {
    use_global_stats: false
  }
}
layer {
  name: "sc_f_1_1"
  type: "Scale"
  bottom: "bn_f_1_1"
  top: "sc_f_1_1"
  scale_param {
    bias_term: true
  }
}
layer {
  name: "relu_f_1_1"
  type: "ReLU"
  bottom: "sc_f_1_1"
  top: "relu_f_1_1"
}
layer {
  name: "conv_f_1_1"
  type: "Convolution"
  bottom: "relu_f_1_1"
  top: "conv_f_1_1"
  param {
    lr_mult: 1
    decay_mult: 1
  }
  param {
    lr_mult: 2
    decay_mult: 1
  }
  convolution_param {
    num_output: 128
    pad: 1
    kernel_size: 3
    stride: 2
    weight_filler {
      type: "msra"
    }
    bias_filler {
      type: "constant"
    }
  }
}
layer {
  name: "bn_f_1_2"
  type: "BatchNorm"
  bottom: "conv_f_1_1"
  top: "bn_f_1_2"
  param {
    lr_mult: 0
  }
  param {
    lr_mult: 0
  }
  param {
    lr_mult: 0
  }
  batch_norm_param {
    use_global_stats: false
  }
}
layer {
  name: "sc_f_1_2"
  type: "Scale"
  bottom: "bn_f_1_2"
  top: "sc_f_1_2"
  scale_param {
    bias_term: true
  }
}
layer {
  name: "relu_f_1_2"
  type: "ReLU"
  bottom: "sc_f_1_2"
  top: "relu_f_1_2"
}
layer {
  name: "conv_f_1_2"
  type: "Convolution"
  bottom: "relu_f_1_2"
  top: "conv_f_1_2"
  param {
    lr_mult: 1
    decay_mult: 1
  }
  param {
    lr_mult: 2
    decay_mult: 1
  }
  convolution_param {
    num_output: 128
    pad: 1
    kernel_size: 3
    stride: 1
    weight_filler {
      type: "msra"
    }
    bias_filler {
      type: "constant"
    }
  }
}
layer {
  name: "res_f"
  type: "Convolution"
  bottom: "elt_b_1"
  top: "res_f"
  param {
    lr_mult: 1
    decay_mult: 1
  }
  param {
    lr_mult: 2
    decay_mult: 1
  }
  convolution_param {
    num_output: 128
    pad: 0
    kernel_size: 1
    stride: 2
    weight_filler {
      type: "msra"
    }
    bias_filler {
      type: "constant"
    }
  }
}
layer {
  name: "elt_f_1"
  type: "Eltwise"
  bottom: "res_f"
  bottom: "conv_f_1_2"
  top: "elt_f_1"
  eltwise_param {
    operation: SUM
  }
}
layer {
  name: "bn_g_1_1"
  type: "BatchNorm"
  bottom: "elt_b_1"
  top: "bn_g_1_1"
  param {
    lr_mult: 0
  }
  param {
    lr_mult: 0
  }
  param {
    lr_mult: 0
  }
  batch_norm_param {
    use_global_stats: false
  }
}
layer {
  name: "sc_g_1_1"
  type: "Scale"
  bottom: "bn_g_1_1"
  top: "sc_g_1_1"
  scale_param {
    bias_term: true
  }
}
layer {
  name: "relu_g_1_1"
  type: "ReLU"
  bottom: "sc_g_1_1"
  top: "relu_g_1_1"
}
layer {
  name: "conv_g_1_1"
  type: "Convolution"
  bottom: "relu_g_1_1"
  top: "conv_g_1_1"
  param {
    lr_mult: 1
    decay_mult: 1
  }
  param {
    lr_mult: 2
    decay_mult: 1
  }
  convolution_param {
    num_output: 128
    pad: 1
    kernel_size: 3
    stride: 2
    weight_filler {
      type: "msra"
    }
    bias_filler {
      type: "constant"
    }
  }
}
layer {
  name: "bn_g_1_2"
  type: "BatchNorm"
  bottom: "conv_g_1_1"
  top: "bn_g_1_2"
  param {
    lr_mult: 0
  }
  param {
    lr_mult: 0
  }
  param {
    lr_mult: 0
  }
  batch_norm_param {
    use_global_stats: false
  }
}
layer {
  name: "sc_g_1_2"
  type: "Scale"
  bottom: "bn_g_1_2"
  top: "sc_g_1_2"
  scale_param {
    bias_term: true
  }
}
layer {
  name: "relu_g_1_2"
  type: "ReLU"
  bottom: "sc_g_1_2"
  top: "relu_g_1_2"
}
layer {
  name: "conv_g_1_2"
  type: "Convolution"
  bottom: "relu_g_1_2"
  top: "conv_g_1_2"
  param {
    lr_mult: 1
    decay_mult: 1
  }
  param {
    lr_mult: 2
    decay_mult: 1
  }
  convolution_param {
    num_output: 128
    pad: 1
    kernel_size: 3
    stride: 1
    weight_filler {
      type: "msra"
    }
    bias_filler {
      type: "constant"
    }
  }
}
layer {
  name: "res_g"
  type: "Convolution"
  bottom: "elt_b_1"
  top: "res_g"
  param {
    lr_mult: 1
    decay_mult: 1
  }
  param {
    lr_mult: 2
    decay_mult: 1
  }
  convolution_param {
    num_output: 128
    pad: 0
    kernel_size: 1
    stride: 2
    weight_filler {
      type: "msra"
    }
    bias_filler {
      type: "constant"
    }
  }
}
layer {
  name: "elt_g_1"
  type: "Eltwise"
  bottom: "res_g"
  bottom: "conv_g_1_2"
  top: "elt_g_1"
  eltwise_param {
    operation: SUM
  }
}
layer {
  name: "bn_h_1_1"
  type: "BatchNorm"
  bottom: "elt_c_1"
  top: "bn_h_1_1"
  param {
    lr_mult: 0
  }
  param {
    lr_mult: 0
  }
  param {
    lr_mult: 0
  }
  batch_norm_param {
    use_global_stats: false
  }
}
layer {
  name: "sc_h_1_1"
  type: "Scale"
  bottom: "bn_h_1_1"
  top: "sc_h_1_1"
  scale_param {
    bias_term: true
  }
}
layer {
  name: "relu_h_1_1"
  type: "ReLU"
  bottom: "sc_h_1_1"
  top: "relu_h_1_1"
}
layer {
  name: "conv_h_1_1"
  type: "Convolution"
  bottom: "relu_h_1_1"
  top: "conv_h_1_1"
  param {
    lr_mult: 1
    decay_mult: 1
  }
  param {
    lr_mult: 2
    decay_mult: 1
  }
  convolution_param {
    num_output: 128
    pad: 1
    kernel_size: 3
    stride: 2
    weight_filler {
      type: "msra"
    }
    bias_filler {
      type: "constant"
    }
  }
}
layer {
  name: "bn_h_1_2"
  type: "BatchNorm"
  bottom: "conv_h_1_1"
  top: "bn_h_1_2"
  param {
    lr_mult: 0
  }
  param {
    lr_mult: 0
  }
  param {
    lr_mult: 0
  }
  batch_norm_param {
    use_global_stats: false
  }
}
layer {
  name: "sc_h_1_2"
  type: "Scale"
  bottom: "bn_h_1_2"
  top: "sc_h_1_2"
  scale_param {
    bias_term: true
  }
}
layer {
  name: "relu_h_1_2"
  type: "ReLU"
  bottom: "sc_h_1_2"
  top: "relu_h_1_2"
}
layer {
  name: "conv_h_1_2"
  type: "Convolution"
  bottom: "relu_h_1_2"
  top: "conv_h_1_2"
  param {
    lr_mult: 1
    decay_mult: 1
  }
  param {
    lr_mult: 2
    decay_mult: 1
  }
  convolution_param {
    num_output: 128
    pad: 1
    kernel_size: 3
    stride: 1
    weight_filler {
      type: "msra"
    }
    bias_filler {
      type: "constant"
    }
  }
}
layer {
  name: "res_h"
  type: "Convolution"
  bottom: "elt_c_1"
  top: "res_h"
  param {
    lr_mult: 1
    decay_mult: 1
  }
  param {
    lr_mult: 2
    decay_mult: 1
  }
  convolution_param {
    num_output: 128
    pad: 0
    kernel_size: 1
    stride: 2
    weight_filler {
      type: "msra"
    }
    bias_filler {
      type: "constant"
    }
  }
}
layer {
  name: "elt_h_1"
  type: "Eltwise"
  bottom: "res_h"
  bottom: "conv_h_1_2"
  top: "elt_h_1"
  eltwise_param {
    operation: SUM
  }
}
layer {
  name: "bn_i_1_1"
  type: "BatchNorm"
  bottom: "elt_c_1"
  top: "bn_i_1_1"
  param {
    lr_mult: 0
  }
  param {
    lr_mult: 0
  }
  param {
    lr_mult: 0
  }
  batch_norm_param {
    use_global_stats: false
  }
}
layer {
  name: "sc_i_1_1"
  type: "Scale"
  bottom: "bn_i_1_1"
  top: "sc_i_1_1"
  scale_param {
    bias_term: true
  }
}
layer {
  name: "relu_i_1_1"
  type: "ReLU"
  bottom: "sc_i_1_1"
  top: "relu_i_1_1"
}
layer {
  name: "conv_i_1_1"
  type: "Convolution"
  bottom: "relu_i_1_1"
  top: "conv_i_1_1"
  param {
    lr_mult: 1
    decay_mult: 1
  }
  param {
    lr_mult: 2
    decay_mult: 1
  }
  convolution_param {
    num_output: 128
    pad: 1
    kernel_size: 3
    stride: 2
    weight_filler {
      type: "msra"
    }
    bias_filler {
      type: "constant"
    }
  }
}
layer {
  name: "bn_i_1_2"
  type: "BatchNorm"
  bottom: "conv_i_1_1"
  top: "bn_i_1_2"
  param {
    lr_mult: 0
  }
  param {
    lr_mult: 0
  }
  param {
    lr_mult: 0
  }
  batch_norm_param {
    use_global_stats: false
  }
}
layer {
  name: "sc_i_1_2"
  type: "Scale"
  bottom: "bn_i_1_2"
  top: "sc_i_1_2"
  scale_param {
    bias_term: true
  }
}
layer {
  name: "relu_i_1_2"
  type: "ReLU"
  bottom: "sc_i_1_2"
  top: "relu_i_1_2"
}
layer {
  name: "conv_i_1_2"
  type: "Convolution"
  bottom: "relu_i_1_2"
  top: "conv_i_1_2"
  param {
    lr_mult: 1
    decay_mult: 1
  }
  param {
    lr_mult: 2
    decay_mult: 1
  }
  convolution_param {
    num_output: 128
    pad: 1
    kernel_size: 3
    stride: 1
    weight_filler {
      type: "msra"
    }
    bias_filler {
      type: "constant"
    }
  }
}
layer {
  name: "res_i"
  type: "Convolution"
  bottom: "elt_c_1"
  top: "res_i"
  param {
    lr_mult: 1
    decay_mult: 1
  }
  param {
    lr_mult: 2
    decay_mult: 1
  }
  convolution_param {
    num_output: 128
    pad: 0
    kernel_size: 1
    stride: 2
    weight_filler {
      type: "msra"
    }
    bias_filler {
      type: "constant"
    }
  }
}
layer {
  name: "elt_i_1"
  type: "Eltwise"
  bottom: "res_i"
  bottom: "conv_i_1_2"
  top: "elt_i_1"
  eltwise_param {
    operation: SUM
  }
}
layer {
  name: "elt_d_f"
  type: "Eltwise"
  bottom: "elt_d_1"
  bottom: "elt_f_1"
  top: "elt_d_f"
  eltwise_param {
    operation: SUM
  }
}
layer {
  name: "elt_g_i"
  type: "Eltwise"
  bottom: "elt_g_1"
  bottom: "elt_i_1"
  top: "elt_g_i"
  eltwise_param {
    operation: SUM
  }
}
layer {
  name: "bn_j_1_1"
  type: "BatchNorm"
  bottom: "elt_d_f"
  top: "bn_j_1_1"
  param {
    lr_mult: 0
  }
  param {
    lr_mult: 0
  }
  param {
    lr_mult: 0
  }
  batch_norm_param {
    use_global_stats: false
  }
}
layer {
  name: "sc_j_1_1"
  type: "Scale"
  bottom: "bn_j_1_1"
  top: "sc_j_1_1"
  scale_param {
    bias_term: true
  }
}
layer {
  name: "relu_j_1_1"
  type: "ReLU"
  bottom: "sc_j_1_1"
  top: "relu_j_1_1"
}
layer {
  name: "conv_j_1_1"
  type: "Convolution"
  bottom: "relu_j_1_1"
  top: "conv_j_1_1"
  param {
    lr_mult: 1
    decay_mult: 1
  }
  param {
    lr_mult: 2
    decay_mult: 1
  }
  convolution_param {
    num_output: 256
    pad: 1
    kernel_size: 3
    stride: 2
    weight_filler {
      type: "msra"
    }
    bias_filler {
      type: "constant"
    }
  }
}
layer {
  name: "bn_j_1_2"
  type: "BatchNorm"
  bottom: "conv_j_1_1"
  top: "bn_j_1_2"
  param {
    lr_mult: 0
  }
  param {
    lr_mult: 0
  }
  param {
    lr_mult: 0
  }
  batch_norm_param {
    use_global_stats: false
  }
}
layer {
  name: "sc_j_1_2"
  type: "Scale"
  bottom: "bn_j_1_2"
  top: "sc_j_1_2"
  scale_param {
    bias_term: true
  }
}
layer {
  name: "relu_j_1_2"
  type: "ReLU"
  bottom: "sc_j_1_2"
  top: "relu_j_1_2"
}
layer {
  name: "conv_j_1_2"
  type: "Convolution"
  bottom: "relu_j_1_2"
  top: "conv_j_1_2"
  param {
    lr_mult: 1
    decay_mult: 1
  }
  param {
    lr_mult: 2
    decay_mult: 1
  }
  convolution_param {
    num_output: 256
    pad: 1
    kernel_size: 3
    stride: 1
    weight_filler {
      type: "msra"
    }
    bias_filler {
      type: "constant"
    }
  }
}
layer {
  name: "res_j"
  type: "Convolution"
  bottom: "elt_d_f"
  top: "res_j"
  param {
    lr_mult: 1
    decay_mult: 1
  }
  param {
    lr_mult: 2
    decay_mult: 1
  }
  convolution_param {
    num_output: 256
    pad: 0
    kernel_size: 1
    stride: 2
    weight_filler {
      type: "msra"
    }
    bias_filler {
      type: "constant"
    }
  }
}
layer {
  name: "elt_j_1"
  type: "Eltwise"
  bottom: "res_j"
  bottom: "conv_j_1_2"
  top: "elt_j_1"
  eltwise_param {
    operation: SUM
  }
}
layer {
  name: "bn_e_1_1"
  type: "BatchNorm"
  bottom: "elt_a_1"
  top: "bn_e_1_1"
  param {
    lr_mult: 0
  }
  param {
    lr_mult: 0
  }
  param {
    lr_mult: 0
  }
  batch_norm_param {
    use_global_stats: false
  }
}
layer {
  name: "sc_e_1_1"
  type: "Scale"
  bottom: "bn_e_1_1"
  top: "sc_e_1_1"
  scale_param {
    bias_term: true
  }
}
layer {
  name: "relu_e_1_1"
  type: "ReLU"
  bottom: "sc_e_1_1"
  top: "relu_e_1_1"
}
layer {
  name: "conv_e_1_1"
  type: "Convolution"
  bottom: "relu_e_1_1"
  top: "conv_e_1_1"
  param {
    lr_mult: 1
    decay_mult: 1
  }
  param {
    lr_mult: 2
    decay_mult: 1
  }
  convolution_param {
    num_output: 128
    pad: 1
    kernel_size: 3
    stride: 2
    weight_filler {
      type: "msra"
    }
    bias_filler {
      type: "constant"
    }
  }
}
layer {
  name: "bn_e_1_2"
  type: "BatchNorm"
  bottom: "conv_e_1_1"
  top: "bn_e_1_2"
  param {
    lr_mult: 0
  }
  param {
    lr_mult: 0
  }
  param {
    lr_mult: 0
  }
  batch_norm_param {
    use_global_stats: false
  }
}
layer {
  name: "sc_e_1_2"
  type: "Scale"
  bottom: "bn_e_1_2"
  top: "sc_e_1_2"
  scale_param {
    bias_term: true
  }
}
layer {
  name: "relu_e_1_2"
  type: "ReLU"
  bottom: "sc_e_1_2"
  top: "relu_e_1_2"
}
layer {
  name: "conv_e_1_2"
  type: "Convolution"
  bottom: "relu_e_1_2"
  top: "conv_e_1_2"
  param {
    lr_mult: 1
    decay_mult: 1
  }
  param {
    lr_mult: 2
    decay_mult: 1
  }
  convolution_param {
    num_output: 128
    pad: 1
    kernel_size: 3
    stride: 1
    weight_filler {
      type: "msra"
    }
    bias_filler {
      type: "constant"
    }
  }
}
layer {
  name: "res_e"
  type: "Convolution"
  bottom: "elt_a_1"
  top: "res_e"
  param {
    lr_mult: 1
    decay_mult: 1
  }
  param {
    lr_mult: 2
    decay_mult: 1
  }
  convolution_param {
    num_output: 128
    pad: 0
    kernel_size: 1
    stride: 2
    weight_filler {
      type: "msra"
    }
    bias_filler {
      type: "constant"
    }
  }
}
layer {
  name: "elt_e_1"
  type: "Eltwise"
  bottom: "res_e"
  bottom: "conv_e_1_2"
  top: "elt_e_1"
  eltwise_param {
    operation: SUM
  }
}
layer {
  name: "elt_e_h"
  type: "Eltwise"
  bottom: "elt_e_1"
  bottom: "elt_h_1"
  top: "elt_e_h"
  eltwise_param {
    operation: SUM
  }
}
layer {
  name: "bn_k_1_1"
  type: "BatchNorm"
  bottom: "elt_e_h"
  top: "bn_k_1_1"
  param {
    lr_mult: 0
  }
  param {
    lr_mult: 0
  }
  param {
    lr_mult: 0
  }
  batch_norm_param {
    use_global_stats: false
  }
}
layer {
  name: "sc_k_1_1"
  type: "Scale"
  bottom: "bn_k_1_1"
  top: "sc_k_1_1"
  scale_param {
    bias_term: true
  }
}
layer {
  name: "relu_k_1_1"
  type: "ReLU"
  bottom: "sc_k_1_1"
  top: "relu_k_1_1"
}
layer {
  name: "conv_k_1_1"
  type: "Convolution"
  bottom: "relu_k_1_1"
  top: "conv_k_1_1"
  param {
    lr_mult: 1
    decay_mult: 1
  }
  param {
    lr_mult: 2
    decay_mult: 1
  }
  convolution_param {
    num_output: 256
    pad: 1
    kernel_size: 3
    stride: 2
    weight_filler {
      type: "msra"
    }
    bias_filler {
      type: "constant"
    }
  }
}
layer {
  name: "bn_k_1_2"
  type: "BatchNorm"
  bottom: "conv_k_1_1"
  top: "bn_k_1_2"
  param {
    lr_mult: 0
  }
  param {
    lr_mult: 0
  }
  param {
    lr_mult: 0
  }
  batch_norm_param {
    use_global_stats: false
  }
}
layer {
  name: "sc_k_1_2"
  type: "Scale"
  bottom: "bn_k_1_2"
  top: "sc_k_1_2"
  scale_param {
    bias_term: true
  }
}
layer {
  name: "relu_k_1_2"
  type: "ReLU"
  bottom: "sc_k_1_2"
  top: "relu_k_1_2"
}
layer {
  name: "conv_k_1_2"
  type: "Convolution"
  bottom: "relu_k_1_2"
  top: "conv_k_1_2"
  param {
    lr_mult: 1
    decay_mult: 1
  }
  param {
    lr_mult: 2
    decay_mult: 1
  }
  convolution_param {
    num_output: 256
    pad: 1
    kernel_size: 3
    stride: 1
    weight_filler {
      type: "msra"
    }
    bias_filler {
      type: "constant"
    }
  }
}
layer {
  name: "res_k"
  type: "Convolution"
  bottom: "elt_e_h"
  top: "res_k"
  param {
    lr_mult: 1
    decay_mult: 1
  }
  param {
    lr_mult: 2
    decay_mult: 1
  }
  convolution_param {
    num_output: 256
    pad: 0
    kernel_size: 1
    stride: 2
    weight_filler {
      type: "msra"
    }
    bias_filler {
      type: "constant"
    }
  }
}
layer {
  name: "elt_k_1"
  type: "Eltwise"
  bottom: "res_k"
  bottom: "conv_k_1_2"
  top: "elt_k_1"
  eltwise_param {
    operation: SUM
  }
}
layer {
  name: "bn_l_1_1"
  type: "BatchNorm"
  bottom: "elt_g_i"
  top: "bn_l_1_1"
  param {
    lr_mult: 0
  }
  param {
    lr_mult: 0
  }
  param {
    lr_mult: 0
  }
  batch_norm_param {
    use_global_stats: false
  }
}
layer {
  name: "sc_l_1_1"
  type: "Scale"
  bottom: "bn_l_1_1"
  top: "sc_l_1_1"
  scale_param {
    bias_term: true
  }
}
layer {
  name: "relu_l_1_1"
  type: "ReLU"
  bottom: "sc_l_1_1"
  top: "relu_l_1_1"
}
layer {
  name: "conv_l_1_1"
  type: "Convolution"
  bottom: "relu_l_1_1"
  top: "conv_l_1_1"
  param {
    lr_mult: 1
    decay_mult: 1
  }
  param {
    lr_mult: 2
    decay_mult: 1
  }
  convolution_param {
    num_output: 256
    pad: 1
    kernel_size: 3
    stride: 2
    weight_filler {
      type: "msra"
    }
    bias_filler {
      type: "constant"
    }
  }
}
layer {
  name: "bn_l_1_2"
  type: "BatchNorm"
  bottom: "conv_l_1_1"
  top: "bn_l_1_2"
  param {
    lr_mult: 0
  }
  param {
    lr_mult: 0
  }
  param {
    lr_mult: 0
  }
  batch_norm_param {
    use_global_stats: false
  }
}
layer {
  name: "sc_l_1_2"
  type: "Scale"
  bottom: "bn_l_1_2"
  top: "sc_l_1_2"
  scale_param {
    bias_term: true
  }
}
layer {
  name: "relu_l_1_2"
  type: "ReLU"
  bottom: "sc_l_1_2"
  top: "relu_l_1_2"
}
layer {
  name: "conv_l_1_2"
  type: "Convolution"
  bottom: "relu_l_1_2"
  top: "conv_l_1_2"
  param {
    lr_mult: 1
    decay_mult: 1
  }
  param {
    lr_mult: 2
    decay_mult: 1
  }
  convolution_param {
    num_output: 256
    pad: 1
    kernel_size: 3
    stride: 1
    weight_filler {
      type: "msra"
    }
    bias_filler {
      type: "constant"
    }
  }
}
layer {
  name: "res_l"
  type: "Convolution"
  bottom: "elt_g_i"
  top: "res_l"
  param {
    lr_mult: 1
    decay_mult: 1
  }
  param {
    lr_mult: 2
    decay_mult: 1
  }
  convolution_param {
    num_output: 256
    pad: 0
    kernel_size: 1
    stride: 2
    weight_filler {
      type: "msra"
    }
    bias_filler {
      type: "constant"
    }
  }
}
layer {
  name: "elt_l_1"
  type: "Eltwise"
  bottom: "res_l"
  bottom: "conv_l_1_2"
  top: "elt_l_1"
  eltwise_param {
    operation: SUM
  }
}
layer {
  name: "elt_j_k_l"
  type: "Eltwise"
  bottom: "elt_j_1"
  bottom: "elt_k_1"
  bottom: "elt_l_1"
  top: "elt_j_k_l"
  eltwise_param {
    operation: SUM
  }
}
layer {
  name: "bn_m_1_1"
  type: "BatchNorm"
  bottom: "elt_j_k_l"
  top: "bn_m_1_1"
  param {
    lr_mult: 0
  }
  param {
    lr_mult: 0
  }
  param {
    lr_mult: 0
  }
  batch_norm_param {
    use_global_stats: false
  }
}
layer {
  name: "sc_m_1_1"
  type: "Scale"
  bottom: "bn_m_1_1"
  top: "sc_m_1_1"
  scale_param {
    bias_term: true
  }
}
layer {
  name: "relu_m_1_1"
  type: "ReLU"
  bottom: "sc_m_1_1"
  top: "relu_m_1_1"
}
layer {
  name: "gap"
  type: "Pooling"
  bottom: "relu_m_1_1"
  top: "gap"
  pooling_param {
    pool: AVE
    kernel_size: 8
    stride: 1
  }
}
layer {
  name: "ip1"
  type: "InnerProduct"
  bottom: "gap"
  top: "ip1"
  param {
    lr_mult: 1
    decay_mult: 1
  }
  param {
    lr_mult: 2
    decay_mult: 0
  }
  inner_product_param {
    num_output: 10
    weight_filler {
      type: "msra"
    }
    bias_filler {
      type: "constant"
      value: 0
    }
  }
}
layer {
  name: "accuracy"
  type: "Accuracy"
  bottom: "ip1"
  bottom: "label"
  top: "accuracy"
  include {
    phase: TEST
  }
}
layer {
  name: "loss"
  type: "SoftmaxWithLoss"
  bottom: "ip1"
  bottom: "label"
  top: "loss"
}
I0620 19:54:20.247128 18458 layer_factory.hpp:77] Creating layer resnet
I0620 19:54:20.247246 18458 net.cpp:91] Creating Layer resnet
I0620 19:54:20.247261 18458 net.cpp:399] resnet -> data
I0620 19:54:20.247272 18458 net.cpp:399] resnet -> label
I0620 19:54:20.247282 18458 data_transformer.cpp:25] Loading mean file from: /home/takeki/caffe/examples/cifar10/mean.binaryproto
I0620 19:54:20.248291 18504 db_lmdb.cpp:35] Opened lmdb /home/takeki/caffe/examples/cifar10/cifar10_test_lmdb
I0620 19:54:20.248458 18458 data_layer.cpp:41] output data size: 100,3,32,32
I0620 19:54:20.251942 18458 net.cpp:141] Setting up resnet
I0620 19:54:20.251968 18458 net.cpp:148] Top shape: 100 3 32 32 (307200)
I0620 19:54:20.251977 18458 net.cpp:148] Top shape: 100 (100)
I0620 19:54:20.251983 18458 net.cpp:156] Memory required for data: 1229200
I0620 19:54:20.251994 18458 layer_factory.hpp:77] Creating layer label_resnet_1_split
I0620 19:54:20.252020 18458 net.cpp:91] Creating Layer label_resnet_1_split
I0620 19:54:20.252029 18458 net.cpp:425] label_resnet_1_split <- label
I0620 19:54:20.252043 18458 net.cpp:399] label_resnet_1_split -> label_resnet_1_split_0
I0620 19:54:20.252058 18458 net.cpp:399] label_resnet_1_split -> label_resnet_1_split_1
I0620 19:54:20.252198 18458 net.cpp:141] Setting up label_resnet_1_split
I0620 19:54:20.252218 18458 net.cpp:148] Top shape: 100 (100)
I0620 19:54:20.252224 18458 net.cpp:148] Top shape: 100 (100)
I0620 19:54:20.252229 18458 net.cpp:156] Memory required for data: 1230000
I0620 19:54:20.252236 18458 layer_factory.hpp:77] Creating layer conv0
I0620 19:54:20.252259 18458 net.cpp:91] Creating Layer conv0
I0620 19:54:20.252271 18458 net.cpp:425] conv0 <- data
I0620 19:54:20.252315 18458 net.cpp:399] conv0 -> conv0
I0620 19:54:20.254045 18458 net.cpp:141] Setting up conv0
I0620 19:54:20.254070 18458 net.cpp:148] Top shape: 100 16 32 32 (1638400)
I0620 19:54:20.254077 18458 net.cpp:156] Memory required for data: 7783600
I0620 19:54:20.254092 18458 layer_factory.hpp:77] Creating layer conv0_conv0_0_split
I0620 19:54:20.254107 18458 net.cpp:91] Creating Layer conv0_conv0_0_split
I0620 19:54:20.254115 18458 net.cpp:425] conv0_conv0_0_split <- conv0
I0620 19:54:20.254128 18458 net.cpp:399] conv0_conv0_0_split -> conv0_conv0_0_split_0
I0620 19:54:20.254142 18458 net.cpp:399] conv0_conv0_0_split -> conv0_conv0_0_split_1
I0620 19:54:20.254165 18458 net.cpp:399] conv0_conv0_0_split -> conv0_conv0_0_split_2
I0620 19:54:20.254178 18458 net.cpp:399] conv0_conv0_0_split -> conv0_conv0_0_split_3
I0620 19:54:20.254199 18458 net.cpp:399] conv0_conv0_0_split -> conv0_conv0_0_split_4
I0620 19:54:20.254211 18458 net.cpp:399] conv0_conv0_0_split -> conv0_conv0_0_split_5
I0620 19:54:20.254349 18458 net.cpp:141] Setting up conv0_conv0_0_split
I0620 19:54:20.254366 18458 net.cpp:148] Top shape: 100 16 32 32 (1638400)
I0620 19:54:20.254374 18458 net.cpp:148] Top shape: 100 16 32 32 (1638400)
I0620 19:54:20.254384 18458 net.cpp:148] Top shape: 100 16 32 32 (1638400)
I0620 19:54:20.254395 18458 net.cpp:148] Top shape: 100 16 32 32 (1638400)
I0620 19:54:20.254405 18458 net.cpp:148] Top shape: 100 16 32 32 (1638400)
I0620 19:54:20.254410 18458 net.cpp:148] Top shape: 100 16 32 32 (1638400)
I0620 19:54:20.254415 18458 net.cpp:156] Memory required for data: 47105200
I0620 19:54:20.254433 18458 layer_factory.hpp:77] Creating layer bn_a_1_1
I0620 19:54:20.254451 18458 net.cpp:91] Creating Layer bn_a_1_1
I0620 19:54:20.254462 18458 net.cpp:425] bn_a_1_1 <- conv0_conv0_0_split_0
I0620 19:54:20.254472 18458 net.cpp:399] bn_a_1_1 -> bn_a_1_1
I0620 19:54:20.254782 18458 net.cpp:141] Setting up bn_a_1_1
I0620 19:54:20.254798 18458 net.cpp:148] Top shape: 100 16 32 32 (1638400)
I0620 19:54:20.254804 18458 net.cpp:156] Memory required for data: 53658800
I0620 19:54:20.254833 18458 layer_factory.hpp:77] Creating layer sc_a_1_1
I0620 19:54:20.254847 18458 net.cpp:91] Creating Layer sc_a_1_1
I0620 19:54:20.254854 18458 net.cpp:425] sc_a_1_1 <- bn_a_1_1
I0620 19:54:20.254868 18458 net.cpp:399] sc_a_1_1 -> sc_a_1_1
I0620 19:54:20.254938 18458 layer_factory.hpp:77] Creating layer sc_a_1_1
I0620 19:54:20.255113 18458 net.cpp:141] Setting up sc_a_1_1
I0620 19:54:20.255149 18458 net.cpp:148] Top shape: 100 16 32 32 (1638400)
I0620 19:54:20.255156 18458 net.cpp:156] Memory required for data: 60212400
I0620 19:54:20.255170 18458 layer_factory.hpp:77] Creating layer relu_a_1_1
I0620 19:54:20.255190 18458 net.cpp:91] Creating Layer relu_a_1_1
I0620 19:54:20.255206 18458 net.cpp:425] relu_a_1_1 <- sc_a_1_1
I0620 19:54:20.255215 18458 net.cpp:399] relu_a_1_1 -> relu_a_1_1
I0620 19:54:20.255815 18458 net.cpp:141] Setting up relu_a_1_1
I0620 19:54:20.255836 18458 net.cpp:148] Top shape: 100 16 32 32 (1638400)
I0620 19:54:20.255843 18458 net.cpp:156] Memory required for data: 66766000
I0620 19:54:20.255851 18458 layer_factory.hpp:77] Creating layer conv_a_1_1
I0620 19:54:20.255867 18458 net.cpp:91] Creating Layer conv_a_1_1
I0620 19:54:20.255875 18458 net.cpp:425] conv_a_1_1 <- relu_a_1_1
I0620 19:54:20.255887 18458 net.cpp:399] conv_a_1_1 -> conv_a_1_1
I0620 19:54:20.257616 18458 net.cpp:141] Setting up conv_a_1_1
I0620 19:54:20.257637 18458 net.cpp:148] Top shape: 100 64 32 32 (6553600)
I0620 19:54:20.257645 18458 net.cpp:156] Memory required for data: 92980400
I0620 19:54:20.257659 18458 layer_factory.hpp:77] Creating layer bn_a_1_2
I0620 19:54:20.257683 18458 net.cpp:91] Creating Layer bn_a_1_2
I0620 19:54:20.257693 18458 net.cpp:425] bn_a_1_2 <- conv_a_1_1
I0620 19:54:20.257705 18458 net.cpp:399] bn_a_1_2 -> bn_a_1_2
I0620 19:54:20.258003 18458 net.cpp:141] Setting up bn_a_1_2
I0620 19:54:20.258021 18458 net.cpp:148] Top shape: 100 64 32 32 (6553600)
I0620 19:54:20.258028 18458 net.cpp:156] Memory required for data: 119194800
I0620 19:54:20.258059 18458 layer_factory.hpp:77] Creating layer sc_a_1_2
I0620 19:54:20.258071 18458 net.cpp:91] Creating Layer sc_a_1_2
I0620 19:54:20.258080 18458 net.cpp:425] sc_a_1_2 <- bn_a_1_2
I0620 19:54:20.258087 18458 net.cpp:399] sc_a_1_2 -> sc_a_1_2
I0620 19:54:20.258162 18458 layer_factory.hpp:77] Creating layer sc_a_1_2
I0620 19:54:20.258340 18458 net.cpp:141] Setting up sc_a_1_2
I0620 19:54:20.258361 18458 net.cpp:148] Top shape: 100 64 32 32 (6553600)
I0620 19:54:20.258369 18458 net.cpp:156] Memory required for data: 145409200
I0620 19:54:20.258379 18458 layer_factory.hpp:77] Creating layer relu_a_1_2
I0620 19:54:20.258400 18458 net.cpp:91] Creating Layer relu_a_1_2
I0620 19:54:20.258411 18458 net.cpp:425] relu_a_1_2 <- sc_a_1_2
I0620 19:54:20.258420 18458 net.cpp:399] relu_a_1_2 -> relu_a_1_2
I0620 19:54:20.258677 18458 net.cpp:141] Setting up relu_a_1_2
I0620 19:54:20.258704 18458 net.cpp:148] Top shape: 100 64 32 32 (6553600)
I0620 19:54:20.258719 18458 net.cpp:156] Memory required for data: 171623600
I0620 19:54:20.258738 18458 layer_factory.hpp:77] Creating layer conv_a_1_2
I0620 19:54:20.258754 18458 net.cpp:91] Creating Layer conv_a_1_2
I0620 19:54:20.258764 18458 net.cpp:425] conv_a_1_2 <- relu_a_1_2
I0620 19:54:20.258780 18458 net.cpp:399] conv_a_1_2 -> conv_a_1_2
I0620 19:54:20.261322 18458 net.cpp:141] Setting up conv_a_1_2
I0620 19:54:20.261348 18458 net.cpp:148] Top shape: 100 64 32 32 (6553600)
I0620 19:54:20.261358 18458 net.cpp:156] Memory required for data: 197838000
I0620 19:54:20.261369 18458 layer_factory.hpp:77] Creating layer res_a
I0620 19:54:20.261389 18458 net.cpp:91] Creating Layer res_a
I0620 19:54:20.261402 18458 net.cpp:425] res_a <- conv0_conv0_0_split_1
I0620 19:54:20.261415 18458 net.cpp:399] res_a -> res_a
I0620 19:54:20.262807 18458 net.cpp:141] Setting up res_a
I0620 19:54:20.262827 18458 net.cpp:148] Top shape: 100 64 32 32 (6553600)
I0620 19:54:20.262835 18458 net.cpp:156] Memory required for data: 224052400
I0620 19:54:20.262852 18458 layer_factory.hpp:77] Creating layer elt_a_1
I0620 19:54:20.262866 18458 net.cpp:91] Creating Layer elt_a_1
I0620 19:54:20.262873 18458 net.cpp:425] elt_a_1 <- res_a
I0620 19:54:20.262881 18458 net.cpp:425] elt_a_1 <- conv_a_1_2
I0620 19:54:20.262889 18458 net.cpp:399] elt_a_1 -> elt_a_1
I0620 19:54:20.262938 18458 net.cpp:141] Setting up elt_a_1
I0620 19:54:20.262951 18458 net.cpp:148] Top shape: 100 64 32 32 (6553600)
I0620 19:54:20.262959 18458 net.cpp:156] Memory required for data: 250266800
I0620 19:54:20.262964 18458 layer_factory.hpp:77] Creating layer elt_a_1_elt_a_1_0_split
I0620 19:54:20.262974 18458 net.cpp:91] Creating Layer elt_a_1_elt_a_1_0_split
I0620 19:54:20.262979 18458 net.cpp:425] elt_a_1_elt_a_1_0_split <- elt_a_1
I0620 19:54:20.262990 18458 net.cpp:399] elt_a_1_elt_a_1_0_split -> elt_a_1_elt_a_1_0_split_0
I0620 19:54:20.263003 18458 net.cpp:399] elt_a_1_elt_a_1_0_split -> elt_a_1_elt_a_1_0_split_1
I0620 19:54:20.263015 18458 net.cpp:399] elt_a_1_elt_a_1_0_split -> elt_a_1_elt_a_1_0_split_2
I0620 19:54:20.263025 18458 net.cpp:399] elt_a_1_elt_a_1_0_split -> elt_a_1_elt_a_1_0_split_3
I0620 19:54:20.263119 18458 net.cpp:141] Setting up elt_a_1_elt_a_1_0_split
I0620 19:54:20.263134 18458 net.cpp:148] Top shape: 100 64 32 32 (6553600)
I0620 19:54:20.263141 18458 net.cpp:148] Top shape: 100 64 32 32 (6553600)
I0620 19:54:20.263147 18458 net.cpp:148] Top shape: 100 64 32 32 (6553600)
I0620 19:54:20.263154 18458 net.cpp:148] Top shape: 100 64 32 32 (6553600)
I0620 19:54:20.263159 18458 net.cpp:156] Memory required for data: 355124400
I0620 19:54:20.263165 18458 layer_factory.hpp:77] Creating layer bn_b_1_1
I0620 19:54:20.263175 18458 net.cpp:91] Creating Layer bn_b_1_1
I0620 19:54:20.263183 18458 net.cpp:425] bn_b_1_1 <- conv0_conv0_0_split_2
I0620 19:54:20.263195 18458 net.cpp:399] bn_b_1_1 -> bn_b_1_1
I0620 19:54:20.263494 18458 net.cpp:141] Setting up bn_b_1_1
I0620 19:54:20.263506 18458 net.cpp:148] Top shape: 100 16 32 32 (1638400)
I0620 19:54:20.263514 18458 net.cpp:156] Memory required for data: 361678000
I0620 19:54:20.263545 18458 layer_factory.hpp:77] Creating layer sc_b_1_1
I0620 19:54:20.263561 18458 net.cpp:91] Creating Layer sc_b_1_1
I0620 19:54:20.263571 18458 net.cpp:425] sc_b_1_1 <- bn_b_1_1
I0620 19:54:20.263579 18458 net.cpp:399] sc_b_1_1 -> sc_b_1_1
I0620 19:54:20.263649 18458 layer_factory.hpp:77] Creating layer sc_b_1_1
I0620 19:54:20.263833 18458 net.cpp:141] Setting up sc_b_1_1
I0620 19:54:20.263846 18458 net.cpp:148] Top shape: 100 16 32 32 (1638400)
I0620 19:54:20.263854 18458 net.cpp:156] Memory required for data: 368231600
I0620 19:54:20.263864 18458 layer_factory.hpp:77] Creating layer relu_b_1_1
I0620 19:54:20.263873 18458 net.cpp:91] Creating Layer relu_b_1_1
I0620 19:54:20.263881 18458 net.cpp:425] relu_b_1_1 <- sc_b_1_1
I0620 19:54:20.263891 18458 net.cpp:399] relu_b_1_1 -> relu_b_1_1
I0620 19:54:20.264144 18458 net.cpp:141] Setting up relu_b_1_1
I0620 19:54:20.264163 18458 net.cpp:148] Top shape: 100 16 32 32 (1638400)
I0620 19:54:20.264170 18458 net.cpp:156] Memory required for data: 374785200
I0620 19:54:20.264176 18458 layer_factory.hpp:77] Creating layer conv_b_1_1
I0620 19:54:20.264194 18458 net.cpp:91] Creating Layer conv_b_1_1
I0620 19:54:20.264201 18458 net.cpp:425] conv_b_1_1 <- relu_b_1_1
I0620 19:54:20.264211 18458 net.cpp:399] conv_b_1_1 -> conv_b_1_1
I0620 19:54:20.265816 18458 net.cpp:141] Setting up conv_b_1_1
I0620 19:54:20.265836 18458 net.cpp:148] Top shape: 100 64 32 32 (6553600)
I0620 19:54:20.265843 18458 net.cpp:156] Memory required for data: 400999600
I0620 19:54:20.265853 18458 layer_factory.hpp:77] Creating layer bn_b_1_2
I0620 19:54:20.265869 18458 net.cpp:91] Creating Layer bn_b_1_2
I0620 19:54:20.265877 18458 net.cpp:425] bn_b_1_2 <- conv_b_1_1
I0620 19:54:20.265887 18458 net.cpp:399] bn_b_1_2 -> bn_b_1_2
I0620 19:54:20.266190 18458 net.cpp:141] Setting up bn_b_1_2
I0620 19:54:20.266204 18458 net.cpp:148] Top shape: 100 64 32 32 (6553600)
I0620 19:54:20.266211 18458 net.cpp:156] Memory required for data: 427214000
I0620 19:54:20.266222 18458 layer_factory.hpp:77] Creating layer sc_b_1_2
I0620 19:54:20.266232 18458 net.cpp:91] Creating Layer sc_b_1_2
I0620 19:54:20.266237 18458 net.cpp:425] sc_b_1_2 <- bn_b_1_2
I0620 19:54:20.266245 18458 net.cpp:399] sc_b_1_2 -> sc_b_1_2
I0620 19:54:20.266331 18458 layer_factory.hpp:77] Creating layer sc_b_1_2
I0620 19:54:20.266505 18458 net.cpp:141] Setting up sc_b_1_2
I0620 19:54:20.266520 18458 net.cpp:148] Top shape: 100 64 32 32 (6553600)
I0620 19:54:20.266525 18458 net.cpp:156] Memory required for data: 453428400
I0620 19:54:20.266535 18458 layer_factory.hpp:77] Creating layer relu_b_1_2
I0620 19:54:20.266544 18458 net.cpp:91] Creating Layer relu_b_1_2
I0620 19:54:20.266551 18458 net.cpp:425] relu_b_1_2 <- sc_b_1_2
I0620 19:54:20.266561 18458 net.cpp:399] relu_b_1_2 -> relu_b_1_2
I0620 19:54:20.266958 18458 net.cpp:141] Setting up relu_b_1_2
I0620 19:54:20.266976 18458 net.cpp:148] Top shape: 100 64 32 32 (6553600)
I0620 19:54:20.266984 18458 net.cpp:156] Memory required for data: 479642800
I0620 19:54:20.266990 18458 layer_factory.hpp:77] Creating layer conv_b_1_2
I0620 19:54:20.267006 18458 net.cpp:91] Creating Layer conv_b_1_2
I0620 19:54:20.267014 18458 net.cpp:425] conv_b_1_2 <- relu_b_1_2
I0620 19:54:20.267029 18458 net.cpp:399] conv_b_1_2 -> conv_b_1_2
I0620 19:54:20.269995 18458 net.cpp:141] Setting up conv_b_1_2
I0620 19:54:20.270015 18458 net.cpp:148] Top shape: 100 64 32 32 (6553600)
I0620 19:54:20.270021 18458 net.cpp:156] Memory required for data: 505857200
I0620 19:54:20.270031 18458 layer_factory.hpp:77] Creating layer res_b
I0620 19:54:20.270048 18458 net.cpp:91] Creating Layer res_b
I0620 19:54:20.270056 18458 net.cpp:425] res_b <- conv0_conv0_0_split_3
I0620 19:54:20.270068 18458 net.cpp:399] res_b -> res_b
I0620 19:54:20.271414 18458 net.cpp:141] Setting up res_b
I0620 19:54:20.271436 18458 net.cpp:148] Top shape: 100 64 32 32 (6553600)
I0620 19:54:20.271442 18458 net.cpp:156] Memory required for data: 532071600
I0620 19:54:20.271457 18458 layer_factory.hpp:77] Creating layer elt_b_1
I0620 19:54:20.271486 18458 net.cpp:91] Creating Layer elt_b_1
I0620 19:54:20.271495 18458 net.cpp:425] elt_b_1 <- res_b
I0620 19:54:20.271502 18458 net.cpp:425] elt_b_1 <- conv_b_1_2
I0620 19:54:20.271512 18458 net.cpp:399] elt_b_1 -> elt_b_1
I0620 19:54:20.271559 18458 net.cpp:141] Setting up elt_b_1
I0620 19:54:20.271574 18458 net.cpp:148] Top shape: 100 64 32 32 (6553600)
I0620 19:54:20.271579 18458 net.cpp:156] Memory required for data: 558286000
I0620 19:54:20.271584 18458 layer_factory.hpp:77] Creating layer elt_b_1_elt_b_1_0_split
I0620 19:54:20.271594 18458 net.cpp:91] Creating Layer elt_b_1_elt_b_1_0_split
I0620 19:54:20.271600 18458 net.cpp:425] elt_b_1_elt_b_1_0_split <- elt_b_1
I0620 19:54:20.271610 18458 net.cpp:399] elt_b_1_elt_b_1_0_split -> elt_b_1_elt_b_1_0_split_0
I0620 19:54:20.271622 18458 net.cpp:399] elt_b_1_elt_b_1_0_split -> elt_b_1_elt_b_1_0_split_1
I0620 19:54:20.271633 18458 net.cpp:399] elt_b_1_elt_b_1_0_split -> elt_b_1_elt_b_1_0_split_2
I0620 19:54:20.271643 18458 net.cpp:399] elt_b_1_elt_b_1_0_split -> elt_b_1_elt_b_1_0_split_3
I0620 19:54:20.271747 18458 net.cpp:141] Setting up elt_b_1_elt_b_1_0_split
I0620 19:54:20.271760 18458 net.cpp:148] Top shape: 100 64 32 32 (6553600)
I0620 19:54:20.271769 18458 net.cpp:148] Top shape: 100 64 32 32 (6553600)
I0620 19:54:20.271775 18458 net.cpp:148] Top shape: 100 64 32 32 (6553600)
I0620 19:54:20.271782 18458 net.cpp:148] Top shape: 100 64 32 32 (6553600)
I0620 19:54:20.271787 18458 net.cpp:156] Memory required for data: 663143600
I0620 19:54:20.271793 18458 layer_factory.hpp:77] Creating layer bn_c_1_1
I0620 19:54:20.271806 18458 net.cpp:91] Creating Layer bn_c_1_1
I0620 19:54:20.271813 18458 net.cpp:425] bn_c_1_1 <- conv0_conv0_0_split_4
I0620 19:54:20.271821 18458 net.cpp:399] bn_c_1_1 -> bn_c_1_1
I0620 19:54:20.272114 18458 net.cpp:141] Setting up bn_c_1_1
I0620 19:54:20.272130 18458 net.cpp:148] Top shape: 100 16 32 32 (1638400)
I0620 19:54:20.272136 18458 net.cpp:156] Memory required for data: 669697200
I0620 19:54:20.272147 18458 layer_factory.hpp:77] Creating layer sc_c_1_1
I0620 19:54:20.272158 18458 net.cpp:91] Creating Layer sc_c_1_1
I0620 19:54:20.272166 18458 net.cpp:425] sc_c_1_1 <- bn_c_1_1
I0620 19:54:20.272178 18458 net.cpp:399] sc_c_1_1 -> sc_c_1_1
I0620 19:54:20.272246 18458 layer_factory.hpp:77] Creating layer sc_c_1_1
I0620 19:54:20.272424 18458 net.cpp:141] Setting up sc_c_1_1
I0620 19:54:20.272439 18458 net.cpp:148] Top shape: 100 16 32 32 (1638400)
I0620 19:54:20.272444 18458 net.cpp:156] Memory required for data: 676250800
I0620 19:54:20.272454 18458 layer_factory.hpp:77] Creating layer relu_c_1_1
I0620 19:54:20.272464 18458 net.cpp:91] Creating Layer relu_c_1_1
I0620 19:54:20.272470 18458 net.cpp:425] relu_c_1_1 <- sc_c_1_1
I0620 19:54:20.272478 18458 net.cpp:399] relu_c_1_1 -> relu_c_1_1
I0620 19:54:20.272863 18458 net.cpp:141] Setting up relu_c_1_1
I0620 19:54:20.272881 18458 net.cpp:148] Top shape: 100 16 32 32 (1638400)
I0620 19:54:20.272887 18458 net.cpp:156] Memory required for data: 682804400
I0620 19:54:20.272893 18458 layer_factory.hpp:77] Creating layer conv_c_1_1
I0620 19:54:20.272909 18458 net.cpp:91] Creating Layer conv_c_1_1
I0620 19:54:20.272917 18458 net.cpp:425] conv_c_1_1 <- relu_c_1_1
I0620 19:54:20.272929 18458 net.cpp:399] conv_c_1_1 -> conv_c_1_1
I0620 19:54:20.274391 18458 net.cpp:141] Setting up conv_c_1_1
I0620 19:54:20.274410 18458 net.cpp:148] Top shape: 100 64 32 32 (6553600)
I0620 19:54:20.274416 18458 net.cpp:156] Memory required for data: 709018800
I0620 19:54:20.274427 18458 layer_factory.hpp:77] Creating layer bn_c_1_2
I0620 19:54:20.274441 18458 net.cpp:91] Creating Layer bn_c_1_2
I0620 19:54:20.274447 18458 net.cpp:425] bn_c_1_2 <- conv_c_1_1
I0620 19:54:20.274456 18458 net.cpp:399] bn_c_1_2 -> bn_c_1_2
I0620 19:54:20.274780 18458 net.cpp:141] Setting up bn_c_1_2
I0620 19:54:20.274796 18458 net.cpp:148] Top shape: 100 64 32 32 (6553600)
I0620 19:54:20.274801 18458 net.cpp:156] Memory required for data: 735233200
I0620 19:54:20.274812 18458 layer_factory.hpp:77] Creating layer sc_c_1_2
I0620 19:54:20.274839 18458 net.cpp:91] Creating Layer sc_c_1_2
I0620 19:54:20.274847 18458 net.cpp:425] sc_c_1_2 <- bn_c_1_2
I0620 19:54:20.274859 18458 net.cpp:399] sc_c_1_2 -> sc_c_1_2
I0620 19:54:20.274932 18458 layer_factory.hpp:77] Creating layer sc_c_1_2
I0620 19:54:20.275109 18458 net.cpp:141] Setting up sc_c_1_2
I0620 19:54:20.275122 18458 net.cpp:148] Top shape: 100 64 32 32 (6553600)
I0620 19:54:20.275127 18458 net.cpp:156] Memory required for data: 761447600
I0620 19:54:20.275137 18458 layer_factory.hpp:77] Creating layer relu_c_1_2
I0620 19:54:20.275149 18458 net.cpp:91] Creating Layer relu_c_1_2
I0620 19:54:20.275157 18458 net.cpp:425] relu_c_1_2 <- sc_c_1_2
I0620 19:54:20.275168 18458 net.cpp:399] relu_c_1_2 -> relu_c_1_2
I0620 19:54:20.275547 18458 net.cpp:141] Setting up relu_c_1_2
I0620 19:54:20.275566 18458 net.cpp:148] Top shape: 100 64 32 32 (6553600)
I0620 19:54:20.275574 18458 net.cpp:156] Memory required for data: 787662000
I0620 19:54:20.275580 18458 layer_factory.hpp:77] Creating layer conv_c_1_2
I0620 19:54:20.275596 18458 net.cpp:91] Creating Layer conv_c_1_2
I0620 19:54:20.275605 18458 net.cpp:425] conv_c_1_2 <- relu_c_1_2
I0620 19:54:20.275615 18458 net.cpp:399] conv_c_1_2 -> conv_c_1_2
I0620 19:54:20.278216 18458 net.cpp:141] Setting up conv_c_1_2
I0620 19:54:20.278235 18458 net.cpp:148] Top shape: 100 64 32 32 (6553600)
I0620 19:54:20.278241 18458 net.cpp:156] Memory required for data: 813876400
I0620 19:54:20.278252 18458 layer_factory.hpp:77] Creating layer res_c
I0620 19:54:20.278271 18458 net.cpp:91] Creating Layer res_c
I0620 19:54:20.278280 18458 net.cpp:425] res_c <- conv0_conv0_0_split_5
I0620 19:54:20.278290 18458 net.cpp:399] res_c -> res_c
I0620 19:54:20.279628 18458 net.cpp:141] Setting up res_c
I0620 19:54:20.279647 18458 net.cpp:148] Top shape: 100 64 32 32 (6553600)
I0620 19:54:20.279654 18458 net.cpp:156] Memory required for data: 840090800
I0620 19:54:20.279664 18458 layer_factory.hpp:77] Creating layer elt_c_1
I0620 19:54:20.279680 18458 net.cpp:91] Creating Layer elt_c_1
I0620 19:54:20.279687 18458 net.cpp:425] elt_c_1 <- res_c
I0620 19:54:20.279695 18458 net.cpp:425] elt_c_1 <- conv_c_1_2
I0620 19:54:20.279703 18458 net.cpp:399] elt_c_1 -> elt_c_1
I0620 19:54:20.279747 18458 net.cpp:141] Setting up elt_c_1
I0620 19:54:20.279762 18458 net.cpp:148] Top shape: 100 64 32 32 (6553600)
I0620 19:54:20.279767 18458 net.cpp:156] Memory required for data: 866305200
…
I0620 19:54:20.285996 18458 layer_factory.hpp:77] Creating layer relu_d_1_2
I0620 19:54:20.286005 18458 net.cpp:91] Creating Layer relu_d_1_2
I0620 19:54:20.286012 18458 net.cpp:425] relu_d_1_2 <- sc_d_1_2
I0620 19:54:20.286025 18458 net.cpp:399] relu_d_1_2 -> relu_d_1_2
I0620 19:54:20.286264 18458 net.cpp:141] Setting up relu_d_1_2
I0620 19:54:20.286280 18458 net.cpp:148] Top shape: 100 128 16 16 (3276800)
I0620 19:54:20.286286 18458 net.cpp:156] Memory required for data: 1102234800
I0620 19:54:20.286293 18458 layer_factory.hpp:77] Creating layer conv_d_1_2
I0620 19:54:20.286314 18458 net.cpp:91] Creating Layer conv_d_1_2
I0620 19:54:20.286322 18458 net.cpp:425] conv_d_1_2 <- relu_d_1_2
I0620 19:54:20.286332 18458 net.cpp:399] conv_d_1_2 -> conv_d_1_2
I0620 19:54:20.292351 18458 net.cpp:141] Setting up conv_d_1_2
I0620 19:54:20.292372 18458 net.cpp:148] Top shape: 100 128 16 16 (3276800)
I0620 19:54:20.292379 18458 net.cpp:156] Memory required for data: 1115342000
I0620 19:54:20.292389 18458 layer_factory.hpp:77] Creating layer res_d
I0620 19:54:20.292405 18458 net.cpp:91] Creating Layer res_d
I0620 19:54:20.292413 18458 net.cpp:425] res_d <- elt_a_1_elt_a_1_0_split_1
I0620 19:54:20.292423 18458 net.cpp:399] res_d -> res_d
I0620 19:54:20.294011 18458 net.cpp:141] Setting up res_d
I0620 19:54:20.294030 18458 net.cpp:148] Top shape: 100 128 16 16 (3276800)
I0620 19:54:20.294036 18458 net.cpp:156] Memory required for data: 1128449200
I0620 19:54:20.294059 18458 layer_factory.hpp:77] Creating layer elt_d_1
I0620 19:54:20.294072 18458 net.cpp:91] Creating Layer elt_d_1
I0620 19:54:20.294080 18458 net.cpp:425] elt_d_1 <- res_d
I0620 19:54:20.294109 18458 net.cpp:425] elt_d_1 <- conv_d_1_2
I0620 19:54:20.294124 18458 net.cpp:399] elt_d_1 -> elt_d_1
I0620 19:54:20.294164 18458 net.cpp:141] Setting up elt_d_1
I0620 19:54:20.294178 18458 net.cpp:148] Top shape: 100 128 16 16 (3276800)
I0620 19:54:20.294183 18458 net.cpp:156] Memory required for data: 1141556400
I0620 19:54:20.294189 18458 layer_factory.hpp:77] Creating layer bn_f_1_1
I0620 19:54:20.294203 18458 net.cpp:91] Creating Layer bn_f_1_1
I0620 19:54:20.294210 18458 net.cpp:425] bn_f_1_1 <- elt_b_1_elt_b_1_0_split_0
I0620 19:54:20.294221 18458 net.cpp:399] bn_f_1_1 -> bn_f_1_1
I0620 19:54:20.294534 18458 net.cpp:141] Setting up bn_f_1_1
I0620 19:54:20.294549 18458 net.cpp:148] Top shape: 100 64 32 32 (6553600)
I0620 19:54:20.294554 18458 net.cpp:156] Memory required for data: 1167770800
I0620 19:54:20.294566 18458 layer_factory.hpp:77] Creating layer sc_f_1_1
I0620 19:54:20.294575 18458 net.cpp:91] Creating Layer sc_f_1_1
I0620 19:54:20.294581 18458 net.cpp:425] sc_f_1_1 <- bn_f_1_1
I0620 19:54:20.294589 18458 net.cpp:399] sc_f_1_1 -> sc_f_1_1
I0620 19:54:20.294672 18458 layer_factory.hpp:77] Creating layer sc_f_1_1
I0620 19:54:20.294863 18458 net.cpp:141] Setting up sc_f_1_1
I0620 19:54:20.294879 18458 net.cpp:148] Top shape: 100 64 32 32 (6553600)
I0620 19:54:20.294885 18458 net.cpp:156] Memory required for data: 1193985200
I0620 19:54:20.294895 18458 layer_factory.hpp:77] Creating layer relu_f_1_1
I0620 19:54:20.294904 18458 net.cpp:91] Creating Layer relu_f_1_1
I0620 19:54:20.294912 18458 net.cpp:425] relu_f_1_1 <- sc_f_1_1
I0620 19:54:20.294924 18458 net.cpp:399] relu_f_1_1 -> relu_f_1_1
I0620 19:54:20.295308 18458 net.cpp:141] Setting up relu_f_1_1
I0620 19:54:20.295325 18458 net.cpp:148] Top shape: 100 64 32 32 (6553600)
I0620 19:54:20.295331 18458 net.cpp:156] Memory required for data: 1220199600
I0620 19:54:20.295338 18458 layer_factory.hpp:77] Creating layer conv_f_1_1
I0620 19:54:20.295353 18458 net.cpp:91] Creating Layer conv_f_1_1
I0620 19:54:20.295361 18458 net.cpp:425] conv_f_1_1 <- relu_f_1_1
I0620 19:54:20.295373 18458 net.cpp:399] conv_f_1_1 -> conv_f_1_1
I0620 19:54:20.299521 18458 net.cpp:141] Setting up conv_f_1_1
I0620 19:54:20.299543 18458 net.cpp:148] Top shape: 100 128 16 16 (3276800)
I0620 19:54:20.299551 18458 net.cpp:156] Memory required for data: 1233306800
I0620 19:54:20.299561 18458 layer_factory.hpp:77] Creating layer bn_f_1_2
I0620 19:54:20.299571 18458 net.cpp:91] Creating Layer bn_f_1_2
I0620 19:54:20.299577 18458 net.cpp:425] bn_f_1_2 <- conv_f_1_1
I0620 19:54:20.299589 18458 net.cpp:399] bn_f_1_2 -> bn_f_1_2
I0620 19:54:20.299896 18458 net.cpp:141] Setting up bn_f_1_2
I0620 19:54:20.299911 18458 net.cpp:148] Top shape: 100 128 16 16 (3276800)
I0620 19:54:20.299917 18458 net.cpp:156] Memory required for data: 1246414000
I0620 19:54:20.299928 18458 layer_factory.hpp:77] Creating layer sc_f_1_2
I0620 19:54:20.299938 18458 net.cpp:91] Creating Layer sc_f_1_2
I0620 19:54:20.299944 18458 net.cpp:425] sc_f_1_2 <- bn_f_1_2
I0620 19:54:20.299957 18458 net.cpp:399] sc_f_1_2 -> sc_f_1_2
I0620 19:54:20.300021 18458 layer_factory.hpp:77] Creating layer sc_f_1_2
I0620 19:54:20.300201 18458 net.cpp:141] Setting up sc_f_1_2
I0620 19:54:20.300215 18458 net.cpp:148] Top shape: 100 128 16 16 (3276800)
I0620 19:54:20.300220 18458 net.cpp:156] Memory required for data: 1259521200
I0620 19:54:20.300230 18458 layer_factory.hpp:77] Creating layer relu_f_1_2
I0620 19:54:20.300241 18458 net.cpp:91] Creating Layer relu_f_1_2
I0620 19:54:20.300251 18458 net.cpp:425] relu_f_1_2 <- sc_f_1_2
I0620 19:54:20.300258 18458 net.cpp:399] relu_f_1_2 -> relu_f_1_2
I0620 19:54:20.300643 18458 net.cpp:141] Setting up relu_f_1_2
I0620 19:54:20.300660 18458 net.cpp:148] Top shape: 100 128 16 16 (3276800)
I0620 19:54:20.300667 18458 net.cpp:156] Memory required for data: 1272628400
I0620 19:54:20.300673 18458 layer_factory.hpp:77] Creating layer conv_f_1_2
I0620 19:54:20.300690 18458 net.cpp:91] Creating Layer conv_f_1_2
I0620 19:54:20.300698 18458 net.cpp:425] conv_f_1_2 <- relu_f_1_2
I0620 19:54:20.300724 18458 net.cpp:399] conv_f_1_2 -> conv_f_1_2
I0620 19:54:20.306769 18458 net.cpp:141] Setting up conv_f_1_2
I0620 19:54:20.306788 18458 net.cpp:148] Top shape: 100 128 16 16 (3276800)
I0620 19:54:20.306794 18458 net.cpp:156] Memory required for data: 1285735600
I0620 19:54:20.306804 18458 layer_factory.hpp:77] Creating layer res_f
I0620 19:54:20.306821 18458 net.cpp:91] Creating Layer res_f
I0620 19:54:20.306828 18458 net.cpp:425] res_f <- elt_b_1_elt_b_1_0_split_1
I0620 19:54:20.306841 18458 net.cpp:399] res_f -> res_f
I0620 19:54:20.308449 18458 net.cpp:141] Setting up res_f
I0620 19:54:20.308466 18458 net.cpp:148] Top shape: 100 128 16 16 (3276800)
I0620 19:54:20.308475 18458 net.cpp:156] Memory required for data: 1298842800
I0620 19:54:20.308485 18458 layer_factory.hpp:77] Creating layer elt_f_1
I0620 19:54:20.308495 18458 net.cpp:91] Creating Layer elt_f_1
I0620 19:54:20.308502 18458 net.cpp:425] elt_f_1 <- res_f
I0620 19:54:20.308511 18458 net.cpp:425] elt_f_1 <- conv_f_1_2
I0620 19:54:20.308517 18458 net.cpp:399] elt_f_1 -> elt_f_1
I0620 19:54:20.308562 18458 net.cpp:141] Setting up elt_f_1
I0620 19:54:20.308576 18458 net.cpp:148] Top shape: 100 128 16 16 (3276800)
I0620 19:54:20.308583 18458 net.cpp:156] Memory required for data: 1311950000
I0620 19:54:20.308588 18458 layer_factory.hpp:77] Creating layer bn_g_1_1
I0620 19:54:20.308599 18458 net.cpp:91] Creating Layer bn_g_1_1
I0620 19:54:20.308609 18458 net.cpp:425] bn_g_1_1 <- elt_b_1_elt_b_1_0_split_2
I0620 19:54:20.308617 18458 net.cpp:399] bn_g_1_1 -> bn_g_1_1
I0620 19:54:20.308936 18458 net.cpp:141] Setting up bn_g_1_1
I0620 19:54:20.308951 18458 net.cpp:148] Top shape: 100 64 32 32 (6553600)
I0620 19:54:20.308956 18458 net.cpp:156] Memory required for data: 1338164400
I0620 19:54:20.308967 18458 layer_factory.hpp:77] Creating layer sc_g_1_1
I0620 19:54:20.308977 18458 net.cpp:91] Creating Layer sc_g_1_1
I0620 19:54:20.308984 18458 net.cpp:425] sc_g_1_1 <- bn_g_1_1
I0620 19:54:20.309000 18458 net.cpp:399] sc_g_1_1 -> sc_g_1_1
I0620 19:54:20.309072 18458 layer_factory.hpp:77] Creating layer sc_g_1_1
I0620 19:54:20.309257 18458 net.cpp:141] Setting up sc_g_1_1
I0620 19:54:20.309270 18458 net.cpp:148] Top shape: 100 64 32 32 (6553600)
I0620 19:54:20.309276 18458 net.cpp:156] Memory required for data: 1364378800
I0620 19:54:20.309286 18458 layer_factory.hpp:77] Creating layer relu_g_1_1
I0620 19:54:20.309294 18458 net.cpp:91] Creating Layer relu_g_1_1
I0620 19:54:20.309305 18458 net.cpp:425] relu_g_1_1 <- sc_g_1_1
I0620 19:54:20.309314 18458 net.cpp:399] relu_g_1_1 -> relu_g_1_1
I0620 19:54:20.309689 18458 net.cpp:141] Setting up relu_g_1_1
I0620 19:54:20.309705 18458 net.cpp:148] Top shape: 100 64 32 32 (6553600)
I0620 19:54:20.309711 18458 net.cpp:156] Memory required for data: 1390593200
I0620 19:54:20.309717 18458 layer_factory.hpp:77] Creating layer conv_g_1_1
I0620 19:54:20.309736 18458 net.cpp:91] Creating Layer conv_g_1_1
I0620 19:54:20.309742 18458 net.cpp:425] conv_g_1_1 <- relu_g_1_1
I0620 19:54:20.309756 18458 net.cpp:399] conv_g_1_1 -> conv_g_1_1
I0620 19:54:20.314081 18458 net.cpp:141] Setting up conv_g_1_1
I0620 19:54:20.314101 18458 net.cpp:148] Top shape: 100 128 16 16 (3276800)
I0620 19:54:20.314108 18458 net.cpp:156] Memory required for data: 1403700400
I0620 19:54:20.314118 18458 layer_factory.hpp:77] Creating layer bn_g_1_2
I0620 19:54:20.314131 18458 net.cpp:91] Creating Layer bn_g_1_2
I0620 19:54:20.314139 18458 net.cpp:425] bn_g_1_2 <- conv_g_1_1
I0620 19:54:20.314148 18458 net.cpp:399] bn_g_1_2 -> bn_g_1_2
I0620 19:54:20.314478 18458 net.cpp:141] Setting up bn_g_1_2
I0620 19:54:20.314492 18458 net.cpp:148] Top shape: 100 128 16 16 (3276800)
I0620 19:54:20.314498 18458 net.cpp:156] Memory required for data: 1416807600
I0620 19:54:20.314509 18458 layer_factory.hpp:77] Creating layer sc_g_1_2
I0620 19:54:20.314522 18458 net.cpp:91] Creating Layer sc_g_1_2
I0620 19:54:20.314528 18458 net.cpp:425] sc_g_1_2 <- bn_g_1_2
I0620 19:54:20.314538 18458 net.cpp:399] sc_g_1_2 -> sc_g_1_2
I0620 19:54:20.314609 18458 layer_factory.hpp:77] Creating layer sc_g_1_2
I0620 19:54:20.314818 18458 net.cpp:141] Setting up sc_g_1_2
I0620 19:54:20.314834 18458 net.cpp:148] Top shape: 100 128 16 16 (3276800)
I0620 19:54:20.314839 18458 net.cpp:156] Memory required for data: 1429914800
I0620 19:54:20.314849 18458 layer_factory.hpp:77] Creating layer relu_g_1_2
I0620 19:54:20.314858 18458 net.cpp:91] Creating Layer relu_g_1_2
I0620 19:54:20.314864 18458 net.cpp:425] relu_g_1_2 <- sc_g_1_2
I0620 19:54:20.314872 18458 net.cpp:399] relu_g_1_2 -> relu_g_1_2
I0620 19:54:20.315132 18458 net.cpp:141] Setting up relu_g_1_2
I0620 19:54:20.315148 18458 net.cpp:148] Top shape: 100 128 16 16 (3276800)
I0620 19:54:20.315155 18458 net.cpp:156] Memory required for data: 1443022000
I0620 19:54:20.315160 18458 layer_factory.hpp:77] Creating layer conv_g_1_2
I0620 19:54:20.315181 18458 net.cpp:91] Creating Layer conv_g_1_2
I0620 19:54:20.315189 18458 net.cpp:425] conv_g_1_2 <- relu_g_1_2
I0620 19:54:20.315202 18458 net.cpp:399] conv_g_1_2 -> conv_g_1_2
I0620 19:54:20.321247 18458 net.cpp:141] Setting up conv_g_1_2
I0620 19:54:20.321269 18458 net.cpp:148] Top shape: 100 128 16 16 (3276800)
I0620 19:54:20.321276 18458 net.cpp:156] Memory required for data: 1456129200
I0620 19:54:20.321286 18458 layer_factory.hpp:77] Creating layer res_g
I0620 19:54:20.321303 18458 net.cpp:91] Creating Layer res_g
I0620 19:54:20.321310 18458 net.cpp:425] res_g <- elt_b_1_elt_b_1_0_split_3
I0620 19:54:20.321321 18458 net.cpp:399] res_g -> res_g
I0620 19:54:20.323459 18458 net.cpp:141] Setting up res_g
I0620 19:54:20.323479 18458 net.cpp:148] Top shape: 100 128 16 16 (3276800)
I0620 19:54:20.323485 18458 net.cpp:156] Memory required for data: 1469236400
I0620 19:54:20.323495 18458 layer_factory.hpp:77] Creating layer elt_g_1
I0620 19:54:20.323508 18458 net.cpp:91] Creating Layer elt_g_1
I0620 19:54:20.323516 18458 net.cpp:425] elt_g_1 <- res_g
I0620 19:54:20.323524 18458 net.cpp:425] elt_g_1 <- conv_g_1_2
I0620 19:54:20.323534 18458 net.cpp:399] elt_g_1 -> elt_g_1
I0620 19:54:20.323568 18458 net.cpp:141] Setting up elt_g_1
I0620 19:54:20.323580 18458 net.cpp:148] Top shape: 100 128 16 16 (3276800)
I0620 19:54:20.323586 18458 net.cpp:156] Memory required for data: 1482343600
I0620 19:54:20.323592 18458 layer_factory.hpp:77] Creating layer bn_h_1_1
I0620 19:54:20.323604 18458 net.cpp:91] Creating Layer bn_h_1_1
I0620 19:54:20.323613 18458 net.cpp:425] bn_h_1_1 <- elt_c_1_elt_c_1_0_split_0
I0620 19:54:20.323622 18458 net.cpp:399] bn_h_1_1 -> bn_h_1_1
I0620 19:54:20.323845 18458 net.cpp:141] Setting up bn_h_1_1
I0620 19:54:20.323860 18458 net.cpp:148] Top shape: 100 64 32 32 (6553600)
I0620 19:54:20.323865 18458 net.cpp:156] Memory required for data: 1508558000
I0620 19:54:20.323876 18458 layer_factory.hpp:77] Creating layer sc_h_1_1
I0620 19:54:20.323886 18458 net.cpp:91] Creating Layer sc_h_1_1
I0620 19:54:20.323892 18458 net.cpp:425] sc_h_1_1 <- bn_h_1_1
I0620 19:54:20.323901 18458 net.cpp:399] sc_h_1_1 -> sc_h_1_1
I0620 19:54:20.323952 18458 layer_factory.hpp:77] Creating layer sc_h_1_1
I0620 19:54:20.324100 18458 net.cpp:141] Setting up sc_h_1_1
I0620 19:54:20.324115 18458 net.cpp:148] Top shape: 100 64 32 32 (6553600)
I0620 19:54:20.324120 18458 net.cpp:156] Memory required for data: 1534772400
I0620 19:54:20.324131 18458 layer_factory.hpp:77] Creating layer relu_h_1_1
I0620 19:54:20.324141 18458 net.cpp:91] Creating Layer relu_h_1_1
I0620 19:54:20.324147 18458 net.cpp:425] relu_h_1_1 <- sc_h_1_1
I0620 19:54:20.324158 18458 net.cpp:399] relu_h_1_1 -> relu_h_1_1
I0620 19:54:20.324539 18458 net.cpp:141] Setting up relu_h_1_1
I0620 19:54:20.324558 18458 net.cpp:148] Top shape: 100 64 32 32 (6553600)
I0620 19:54:20.324563 18458 net.cpp:156] Memory required for data: 1560986800
I0620 19:54:20.324569 18458 layer_factory.hpp:77] Creating layer conv_h_1_1
I0620 19:54:20.324585 18458 net.cpp:91] Creating Layer conv_h_1_1
I0620 19:54:20.324592 18458 net.cpp:425] conv_h_1_1 <- relu_h_1_1
I0620 19:54:20.324605 18458 net.cpp:399] conv_h_1_1 -> conv_h_1_1
I0620 19:54:20.328624 18458 net.cpp:141] Setting up conv_h_1_1
I0620 19:54:20.328658 18458 net.cpp:148] Top shape: 100 128 16 16 (3276800)
I0620 19:54:20.328665 18458 net.cpp:156] Memory required for data: 1574094000
I0620 19:54:20.328676 18458 layer_factory.hpp:77] Creating layer bn_h_1_2
I0620 19:54:20.328690 18458 net.cpp:91] Creating Layer bn_h_1_2
I0620 19:54:20.328696 18458 net.cpp:425] bn_h_1_2 <- conv_h_1_1
I0620 19:54:20.328708 18458 net.cpp:399] bn_h_1_2 -> bn_h_1_2
I0620 19:54:20.328905 18458 net.cpp:141] Setting up bn_h_1_2
I0620 19:54:20.328919 18458 net.cpp:148] Top shape: 100 128 16 16 (3276800)
I0620 19:54:20.328925 18458 net.cpp:156] Memory required for data: 1587201200
I0620 19:54:20.328936 18458 layer_factory.hpp:77] Creating layer sc_h_1_2
I0620 19:54:20.328951 18458 net.cpp:91] Creating Layer sc_h_1_2
I0620 19:54:20.328959 18458 net.cpp:425] sc_h_1_2 <- bn_h_1_2
I0620 19:54:20.328969 18458 net.cpp:399] sc_h_1_2 -> sc_h_1_2
I0620 19:54:20.329021 18458 layer_factory.hpp:77] Creating layer sc_h_1_2
I0620 19:54:20.329140 18458 net.cpp:141] Setting up sc_h_1_2
I0620 19:54:20.329154 18458 net.cpp:148] Top shape: 100 128 16 16 (3276800)
I0620 19:54:20.329160 18458 net.cpp:156] Memory required for data: 1600308400
I0620 19:54:20.329169 18458 layer_factory.hpp:77] Creating layer relu_h_1_2
I0620 19:54:20.329180 18458 net.cpp:91] Creating Layer relu_h_1_2
I0620 19:54:20.329186 18458 net.cpp:425] relu_h_1_2 <- sc_h_1_2
I0620 19:54:20.329196 18458 net.cpp:399] relu_h_1_2 -> relu_h_1_2
I0620 19:54:20.329587 18458 net.cpp:141] Setting up relu_h_1_2
I0620 19:54:20.329604 18458 net.cpp:148] Top shape: 100 128 16 16 (3276800)
I0620 19:54:20.329610 18458 net.cpp:156] Memory required for data: 1613415600
I0620 19:54:20.329617 18458 layer_factory.hpp:77] Creating layer conv_h_1_2
I0620 19:54:20.329632 18458 net.cpp:91] Creating Layer conv_h_1_2
I0620 19:54:20.329639 18458 net.cpp:425] conv_h_1_2 <- relu_h_1_2
I0620 19:54:20.329659 18458 net.cpp:399] conv_h_1_2 -> conv_h_1_2
I0620 19:54:20.335585 18458 net.cpp:141] Setting up conv_h_1_2
I0620 19:54:20.335604 18458 net.cpp:148] Top shape: 100 128 16 16 (3276800)
I0620 19:54:20.335610 18458 net.cpp:156] Memory required for data: 1626522800
I0620 19:54:20.335620 18458 layer_factory.hpp:77] Creating layer res_h
I0620 19:54:20.335638 18458 net.cpp:91] Creating Layer res_h
I0620 19:54:20.335644 18458 net.cpp:425] res_h <- elt_c_1_elt_c_1_0_split_1
I0620 19:54:20.335657 18458 net.cpp:399] res_h -> res_h
I0620 19:54:20.337033 18458 net.cpp:141] Setting up res_h
I0620 19:54:20.337051 18458 net.cpp:148] Top shape: 100 128 16 16 (3276800)
I0620 19:54:20.337057 18458 net.cpp:156] Memory required for data: 1639630000
I0620 19:54:20.337067 18458 layer_factory.hpp:77] Creating layer elt_h_1
I0620 19:54:20.337080 18458 net.cpp:91] Creating Layer elt_h_1
I0620 19:54:20.337087 18458 net.cpp:425] elt_h_1 <- res_h
I0620 19:54:20.337095 18458 net.cpp:425] elt_h_1 <- conv_h_1_2
I0620 19:54:20.337105 18458 net.cpp:399] elt_h_1 -> elt_h_1
I0620 19:54:20.337131 18458 net.cpp:141] Setting up elt_h_1
I0620 19:54:20.337147 18458 net.cpp:148] Top shape: 100 128 16 16 (3276800)
I0620 19:54:20.337153 18458 net.cpp:156] Memory required for data: 1652737200
I0620 19:54:20.337159 18458 layer_factory.hpp:77] Creating layer bn_i_1_1
I0620 19:54:20.337170 18458 net.cpp:91] Creating Layer bn_i_1_1
I0620 19:54:20.337179 18458 net.cpp:425] bn_i_1_1 <- elt_c_1_elt_c_1_0_split_2
I0620 19:54:20.337191 18458 net.cpp:399] bn_i_1_1 -> bn_i_1_1
I0620 19:54:20.337422 18458 net.cpp:141] Setting up bn_i_1_1
I0620 19:54:20.337437 18458 net.cpp:148] Top shape: 100 64 32 32 (6553600)
I0620 19:54:20.337443 18458 net.cpp:156] Memory required for data: 1678951600
I0620 19:54:20.337455 18458 layer_factory.hpp:77] Creating layer sc_i_1_1
I0620 19:54:20.337463 18458 net.cpp:91] Creating Layer sc_i_1_1
I0620 19:54:20.337471 18458 net.cpp:425] sc_i_1_1 <- bn_i_1_1
I0620 19:54:20.337479 18458 net.cpp:399] sc_i_1_1 -> sc_i_1_1
I0620 19:54:20.337535 18458 layer_factory.hpp:77] Creating layer sc_i_1_1
I0620 19:54:20.337688 18458 net.cpp:141] Setting up sc_i_1_1
I0620 19:54:20.337718 18458 net.cpp:148] Top shape: 100 64 32 32 (6553600)
I0620 19:54:20.337725 18458 net.cpp:156] Memory required for data: 1705166000
I0620 19:54:20.337735 18458 layer_factory.hpp:77] Creating layer relu_i_1_1
I0620 19:54:20.337746 18458 net.cpp:91] Creating Layer relu_i_1_1
I0620 19:54:20.337755 18458 net.cpp:425] relu_i_1_1 <- sc_i_1_1
I0620 19:54:20.337764 18458 net.cpp:399] relu_i_1_1 -> relu_i_1_1
I0620 19:54:20.338171 18458 net.cpp:141] Setting up relu_i_1_1
I0620 19:54:20.338188 18458 net.cpp:148] Top shape: 100 64 32 32 (6553600)
I0620 19:54:20.338194 18458 net.cpp:156] Memory required for data: 1731380400
I0620 19:54:20.338201 18458 layer_factory.hpp:77] Creating layer conv_i_1_1
I0620 19:54:20.338218 18458 net.cpp:91] Creating Layer conv_i_1_1
I0620 19:54:20.338225 18458 net.cpp:425] conv_i_1_1 <- relu_i_1_1
I0620 19:54:20.338235 18458 net.cpp:399] conv_i_1_1 -> conv_i_1_1
I0620 19:54:20.342453 18458 net.cpp:141] Setting up conv_i_1_1
I0620 19:54:20.342471 18458 net.cpp:148] Top shape: 100 128 16 16 (3276800)
I0620 19:54:20.342478 18458 net.cpp:156] Memory required for data: 1744487600
I0620 19:54:20.342489 18458 layer_factory.hpp:77] Creating layer bn_i_1_2
I0620 19:54:20.342501 18458 net.cpp:91] Creating Layer bn_i_1_2
I0620 19:54:20.342509 18458 net.cpp:425] bn_i_1_2 <- conv_i_1_1
I0620 19:54:20.342519 18458 net.cpp:399] bn_i_1_2 -> bn_i_1_2
I0620 19:54:20.342741 18458 net.cpp:141] Setting up bn_i_1_2
I0620 19:54:20.342757 18458 net.cpp:148] Top shape: 100 128 16 16 (3276800)
I0620 19:54:20.342763 18458 net.cpp:156] Memory required for data: 1757594800
I0620 19:54:20.342774 18458 layer_factory.hpp:77] Creating layer sc_i_1_2
I0620 19:54:20.342789 18458 net.cpp:91] Creating Layer sc_i_1_2
I0620 19:54:20.342800 18458 net.cpp:425] sc_i_1_2 <- bn_i_1_2
I0620 19:54:20.342811 18458 net.cpp:399] sc_i_1_2 -> sc_i_1_2
I0620 19:54:20.342865 18458 layer_factory.hpp:77] Creating layer sc_i_1_2
I0620 19:54:20.342981 18458 net.cpp:141] Setting up sc_i_1_2
I0620 19:54:20.342996 18458 net.cpp:148] Top shape: 100 128 16 16 (3276800)
I0620 19:54:20.343003 18458 net.cpp:156] Memory required for data: 1770702000
I0620 19:54:20.343013 18458 layer_factory.hpp:77] Creating layer relu_i_1_2
I0620 19:54:20.343020 18458 net.cpp:91] Creating Layer relu_i_1_2
I0620 19:54:20.343029 18458 net.cpp:425] relu_i_1_2 <- sc_i_1_2
I0620 19:54:20.343036 18458 net.cpp:399] relu_i_1_2 -> relu_i_1_2
I0620 19:54:20.343277 18458 net.cpp:141] Setting up relu_i_1_2
I0620 19:54:20.343292 18458 net.cpp:148] Top shape: 100 128 16 16 (3276800)
I0620 19:54:20.343298 18458 net.cpp:156] Memory required for data: 1783809200
I0620 19:54:20.343304 18458 layer_factory.hpp:77] Creating layer conv_i_1_2
I0620 19:54:20.343320 18458 net.cpp:91] Creating Layer conv_i_1_2
I0620 19:54:20.343328 18458 net.cpp:425] conv_i_1_2 <- relu_i_1_2
I0620 19:54:20.343340 18458 net.cpp:399] conv_i_1_2 -> conv_i_1_2
I0620 19:54:20.349405 18458 net.cpp:141] Setting up conv_i_1_2
I0620 19:54:20.349426 18458 net.cpp:148] Top shape: 100 128 16 16 (3276800)
I0620 19:54:20.349433 18458 net.cpp:156] Memory required for data: 1796916400
I0620 19:54:20.349443 18458 layer_factory.hpp:77] Creating layer res_i
I0620 19:54:20.349464 18458 net.cpp:91] Creating Layer res_i
I0620 19:54:20.349472 18458 net.cpp:425] res_i <- elt_c_1_elt_c_1_0_split_3
I0620 19:54:20.349483 18458 net.cpp:399] res_i -> res_i
I0620 19:54:20.351016 18458 net.cpp:141] Setting up res_i
I0620 19:54:20.351038 18458 net.cpp:148] Top shape: 100 128 16 16 (3276800)
I0620 19:54:20.351045 18458 net.cpp:156] Memory required for data: 1810023600
I0620 19:54:20.351078 18458 layer_factory.hpp:77] Creating layer elt_i_1
I0620 19:54:20.351094 18458 net.cpp:91] Creating Layer elt_i_1
I0620 19:54:20.351106 18458 net.cpp:425] elt_i_1 <- res_i
I0620 19:54:20.351114 18458 net.cpp:425] elt_i_1 <- conv_i_1_2
I0620 19:54:20.351124 18458 net.cpp:399] elt_i_1 -> elt_i_1
I0620 19:54:20.351160 18458 net.cpp:141] Setting up elt_i_1
I0620 19:54:20.351172 18458 net.cpp:148] Top shape: 100 128 16 16 (3276800)
I0620 19:54:20.351177 18458 net.cpp:156] Memory required for data: 1823130800
I0620 19:54:20.351202 18458 layer_factory.hpp:77] Creating layer elt_d_f
I0620 19:54:20.351215 18458 net.cpp:91] Creating Layer elt_d_f
I0620 19:54:20.351223 18458 net.cpp:425] elt_d_f <- elt_d_1
I0620 19:54:20.351230 18458 net.cpp:425] elt_d_f <- elt_f_1
I0620 19:54:20.351239 18458 net.cpp:399] elt_d_f -> elt_d_f
I0620 19:54:20.351274 18458 net.cpp:141] Setting up elt_d_f
I0620 19:54:20.351287 18458 net.cpp:148] Top shape: 100 128 16 16 (3276800)
I0620 19:54:20.351294 18458 net.cpp:156] Memory required for data: 1836238000
I0620 19:54:20.351299 18458 layer_factory.hpp:77] Creating layer elt_d_f_elt_d_f_0_split
I0620 19:54:20.351307 18458 net.cpp:91] Creating Layer elt_d_f_elt_d_f_0_split
I0620 19:54:20.351313 18458 net.cpp:425] elt_d_f_elt_d_f_0_split <- elt_d_f
I0620 19:54:20.351323 18458 net.cpp:399] elt_d_f_elt_d_f_0_split -> elt_d_f_elt_d_f_0_split_0
I0620 19:54:20.351336 18458 net.cpp:399] elt_d_f_elt_d_f_0_split -> elt_d_f_elt_d_f_0_split_1
I0620 19:54:20.351380 18458 net.cpp:141] Setting up elt_d_f_elt_d_f_0_split
I0620 19:54:20.351395 18458 net.cpp:148] Top shape: 100 128 16 16 (3276800)
I0620 19:54:20.351404 18458 net.cpp:148] Top shape: 100 128 16 16 (3276800)
I0620 19:54:20.351410 18458 net.cpp:156] Memory required for data: 1862452400
I0620 19:54:20.351415 18458 layer_factory.hpp:77] Creating layer elt_g_i
I0620 19:54:20.351423 18458 net.cpp:91] Creating Layer elt_g_i
I0620 19:54:20.351429 18458 net.cpp:425] elt_g_i <- elt_g_1
I0620 19:54:20.351436 18458 net.cpp:425] elt_g_i <- elt_i_1
I0620 19:54:20.351449 18458 net.cpp:399] elt_g_i -> elt_g_i
I0620 19:54:20.351478 18458 net.cpp:141] Setting up elt_g_i
I0620 19:54:20.351491 18458 net.cpp:148] Top shape: 100 128 16 16 (3276800)
I0620 19:54:20.351496 18458 net.cpp:156] Memory required for data: 1875559600
I0620 19:54:20.351501 18458 layer_factory.hpp:77] Creating layer elt_g_i_elt_g_i_0_split
I0620 19:54:20.351512 18458 net.cpp:91] Creating Layer elt_g_i_elt_g_i_0_split
I0620 19:54:20.351521 18458 net.cpp:425] elt_g_i_elt_g_i_0_split <- elt_g_i
I0620 19:54:20.351528 18458 net.cpp:399] elt_g_i_elt_g_i_0_split -> elt_g_i_elt_g_i_0_split_0
I0620 19:54:20.351538 18458 net.cpp:399] elt_g_i_elt_g_i_0_split -> elt_g_i_elt_g_i_0_split_1
I0620 19:54:20.351583 18458 net.cpp:141] Setting up elt_g_i_elt_g_i_0_split
I0620 19:54:20.351596 18458 net.cpp:148] Top shape: 100 128 16 16 (3276800)
I0620 19:54:20.351603 18458 net.cpp:148] Top shape: 100 128 16 16 (3276800)
I0620 19:54:20.351608 18458 net.cpp:156] Memory required for data: 1901774000
I0620 19:54:20.351614 18458 layer_factory.hpp:77] Creating layer bn_j_1_1
I0620 19:54:20.351624 18458 net.cpp:91] Creating Layer bn_j_1_1
I0620 19:54:20.351629 18458 net.cpp:425] bn_j_1_1 <- elt_d_f_elt_d_f_0_split_0
I0620 19:54:20.351637 18458 net.cpp:399] bn_j_1_1 -> bn_j_1_1
I0620 19:54:20.351836 18458 net.cpp:141] Setting up bn_j_1_1
I0620 19:54:20.351850 18458 net.cpp:148] Top shape: 100 128 16 16 (3276800)
I0620 19:54:20.351857 18458 net.cpp:156] Memory required for data: 1914881200
I0620 19:54:20.351869 18458 layer_factory.hpp:77] Creating layer sc_j_1_1
I0620 19:54:20.351879 18458 net.cpp:91] Creating Layer sc_j_1_1
I0620 19:54:20.351887 18458 net.cpp:425] sc_j_1_1 <- bn_j_1_1
I0620 19:54:20.351897 18458 net.cpp:399] sc_j_1_1 -> sc_j_1_1
I0620 19:54:20.351953 18458 layer_factory.hpp:77] Creating layer sc_j_1_1
I0620 19:54:20.352072 18458 net.cpp:141] Setting up sc_j_1_1
I0620 19:54:20.352085 18458 net.cpp:148] Top shape: 100 128 16 16 (3276800)
I0620 19:54:20.352093 18458 net.cpp:156] Memory required for data: 1927988400
I0620 19:54:20.352102 18458 layer_factory.hpp:77] Creating layer relu_j_1_1
I0620 19:54:20.352113 18458 net.cpp:91] Creating Layer relu_j_1_1
I0620 19:54:20.352120 18458 net.cpp:425] relu_j_1_1 <- sc_j_1_1
I0620 19:54:20.352131 18458 net.cpp:399] relu_j_1_1 -> relu_j_1_1
I0620 19:54:20.352370 18458 net.cpp:141] Setting up relu_j_1_1
I0620 19:54:20.352386 18458 net.cpp:148] Top shape: 100 128 16 16 (3276800)
I0620 19:54:20.352393 18458 net.cpp:156] Memory required for data: 1941095600
I0620 19:54:20.352414 18458 layer_factory.hpp:77] Creating layer conv_j_1_1
I0620 19:54:20.352432 18458 net.cpp:91] Creating Layer conv_j_1_1
I0620 19:54:20.352440 18458 net.cpp:425] conv_j_1_1 <- relu_j_1_1
I0620 19:54:20.352453 18458 net.cpp:399] conv_j_1_1 -> conv_j_1_1
I0620 19:54:20.363778 18458 net.cpp:141] Setting up conv_j_1_1
I0620 19:54:20.363798 18458 net.cpp:148] Top shape: 100 256 8 8 (1638400)
I0620 19:54:20.363806 18458 net.cpp:156] Memory required for data: 1947649200
I0620 19:54:20.363816 18458 layer_factory.hpp:77] Creating layer bn_j_1_2
I0620 19:54:20.363829 18458 net.cpp:91] Creating Layer bn_j_1_2
I0620 19:54:20.363837 18458 net.cpp:425] bn_j_1_2 <- conv_j_1_1
I0620 19:54:20.363847 18458 net.cpp:399] bn_j_1_2 -> bn_j_1_2
I0620 19:54:20.364079 18458 net.cpp:141] Setting up bn_j_1_2
I0620 19:54:20.364094 18458 net.cpp:148] Top shape: 100 256 8 8 (1638400)
I0620 19:54:20.364099 18458 net.cpp:156] Memory required for data: 1954202800
I0620 19:54:20.364110 18458 layer_factory.hpp:77] Creating layer sc_j_1_2
I0620 19:54:20.364120 18458 net.cpp:91] Creating Layer sc_j_1_2
I0620 19:54:20.364126 18458 net.cpp:425] sc_j_1_2 <- bn_j_1_2
I0620 19:54:20.364135 18458 net.cpp:399] sc_j_1_2 -> sc_j_1_2
I0620 19:54:20.364189 18458 layer_factory.hpp:77] Creating layer sc_j_1_2
I0620 19:54:20.364320 18458 net.cpp:141] Setting up sc_j_1_2
I0620 19:54:20.364337 18458 net.cpp:148] Top shape: 100 256 8 8 (1638400)
I0620 19:54:20.364346 18458 net.cpp:156] Memory required for data: 1960756400
I0620 19:54:20.364356 18458 layer_factory.hpp:77] Creating layer relu_j_1_2
I0620 19:54:20.364368 18458 net.cpp:91] Creating Layer relu_j_1_2
I0620 19:54:20.364379 18458 net.cpp:425] relu_j_1_2 <- sc_j_1_2
I0620 19:54:20.364387 18458 net.cpp:399] relu_j_1_2 -> relu_j_1_2
I0620 19:54:20.364771 18458 net.cpp:141] Setting up relu_j_1_2
I0620 19:54:20.364789 18458 net.cpp:148] Top shape: 100 256 8 8 (1638400)
I0620 19:54:20.364795 18458 net.cpp:156] Memory required for data: 1967310000
I0620 19:54:20.364801 18458 layer_factory.hpp:77] Creating layer conv_j_1_2
I0620 19:54:20.364820 18458 net.cpp:91] Creating Layer conv_j_1_2
I0620 19:54:20.364826 18458 net.cpp:425] conv_j_1_2 <- relu_j_1_2
I0620 19:54:20.364837 18458 net.cpp:399] conv_j_1_2 -> conv_j_1_2
I0620 19:54:20.392457 18458 net.cpp:141] Setting up conv_j_1_2
I0620 19:54:20.392508 18458 net.cpp:148] Top shape: 100 256 8 8 (1638400)
I0620 19:54:20.392520 18458 net.cpp:156] Memory required for data: 1973863600
I0620 19:54:20.392554 18458 layer_factory.hpp:77] Creating layer res_j
I0620 19:54:20.392622 18458 net.cpp:91] Creating Layer res_j
I0620 19:54:20.392660 18458 net.cpp:425] res_j <- elt_d_f_elt_d_f_0_split_1
I0620 19:54:20.392706 18458 net.cpp:399] res_j -> res_j
I0620 19:54:20.394994 18458 net.cpp:141] Setting up res_j
I0620 19:54:20.395014 18458 net.cpp:148] Top shape: 100 256 8 8 (1638400)
I0620 19:54:20.395026 18458 net.cpp:156] Memory required for data: 1980417200
I0620 19:54:20.395037 18458 layer_factory.hpp:77] Creating layer elt_j_1
I0620 19:54:20.395057 18458 net.cpp:91] Creating Layer elt_j_1
I0620 19:54:20.395067 18458 net.cpp:425] elt_j_1 <- res_j
I0620 19:54:20.395097 18458 net.cpp:425] elt_j_1 <- conv_j_1_2
I0620 19:54:20.395109 18458 net.cpp:399] elt_j_1 -> elt_j_1
I0620 19:54:20.395149 18458 net.cpp:141] Setting up elt_j_1
I0620 19:54:20.395162 18458 net.cpp:148] Top shape: 100 256 8 8 (1638400)
I0620 19:54:20.395169 18458 net.cpp:156] Memory required for data: 1986970800
I0620 19:54:20.395175 18458 layer_factory.hpp:77] Creating layer bn_e_1_1
I0620 19:54:20.395195 18458 net.cpp:91] Creating Layer bn_e_1_1
I0620 19:54:20.395203 18458 net.cpp:425] bn_e_1_1 <- elt_a_1_elt_a_1_0_split_2
I0620 19:54:20.395233 18458 net.cpp:399] bn_e_1_1 -> bn_e_1_1
I0620 19:54:20.395519 18458 net.cpp:141] Setting up bn_e_1_1
I0620 19:54:20.395534 18458 net.cpp:148] Top shape: 100 64 32 32 (6553600)
I0620 19:54:20.395539 18458 net.cpp:156] Memory required for data: 2013185200
I0620 19:54:20.395550 18458 layer_factory.hpp:77] Creating layer sc_e_1_1
I0620 19:54:20.395587 18458 net.cpp:91] Creating Layer sc_e_1_1
I0620 19:54:20.395614 18458 net.cpp:425] sc_e_1_1 <- bn_e_1_1
I0620 19:54:20.395644 18458 net.cpp:399] sc_e_1_1 -> sc_e_1_1
I0620 19:54:20.395720 18458 layer_factory.hpp:77] Creating layer sc_e_1_1
I0620 19:54:20.395877 18458 net.cpp:141] Setting up sc_e_1_1
I0620 19:54:20.395892 18458 net.cpp:148] Top shape: 100 64 32 32 (6553600)
I0620 19:54:20.395897 18458 net.cpp:156] Memory required for data: 2039399600
I0620 19:54:20.395915 18458 layer_factory.hpp:77] Creating layer relu_e_1_1
I0620 19:54:20.395931 18458 net.cpp:91] Creating Layer relu_e_1_1
I0620 19:54:20.395941 18458 net.cpp:425] relu_e_1_1 <- sc_e_1_1
I0620 19:54:20.395959 18458 net.cpp:399] relu_e_1_1 -> relu_e_1_1
I0620 19:54:20.396345 18458 net.cpp:141] Setting up relu_e_1_1
I0620 19:54:20.396363 18458 net.cpp:148] Top shape: 100 64 32 32 (6553600)
I0620 19:54:20.396369 18458 net.cpp:156] Memory required for data: 2065614000
I0620 19:54:20.396375 18458 layer_factory.hpp:77] Creating layer conv_e_1_1
I0620 19:54:20.396389 18458 net.cpp:91] Creating Layer conv_e_1_1
I0620 19:54:20.396399 18458 net.cpp:425] conv_e_1_1 <- relu_e_1_1
I0620 19:54:20.396425 18458 net.cpp:399] conv_e_1_1 -> conv_e_1_1
I0620 19:54:20.400676 18458 net.cpp:141] Setting up conv_e_1_1
I0620 19:54:20.400696 18458 net.cpp:148] Top shape: 100 128 16 16 (3276800)
I0620 19:54:20.400702 18458 net.cpp:156] Memory required for data: 2078721200
I0620 19:54:20.400712 18458 layer_factory.hpp:77] Creating layer bn_e_1_2
I0620 19:54:20.400727 18458 net.cpp:91] Creating Layer bn_e_1_2
I0620 19:54:20.400737 18458 net.cpp:425] bn_e_1_2 <- conv_e_1_1
I0620 19:54:20.400759 18458 net.cpp:399] bn_e_1_2 -> bn_e_1_2
I0620 19:54:20.400974 18458 net.cpp:141] Setting up bn_e_1_2
I0620 19:54:20.400988 18458 net.cpp:148] Top shape: 100 128 16 16 (3276800)
I0620 19:54:20.400995 18458 net.cpp:156] Memory required for data: 2091828400
I0620 19:54:20.401005 18458 layer_factory.hpp:77] Creating layer sc_e_1_2
I0620 19:54:20.401031 18458 net.cpp:91] Creating Layer sc_e_1_2
I0620 19:54:20.401039 18458 net.cpp:425] sc_e_1_2 <- bn_e_1_2
I0620 19:54:20.401048 18458 net.cpp:399] sc_e_1_2 -> sc_e_1_2
I0620 19:54:20.401103 18458 layer_factory.hpp:77] Creating layer sc_e_1_2
I0620 19:54:20.401231 18458 net.cpp:141] Setting up sc_e_1_2
I0620 19:54:20.401244 18458 net.cpp:148] Top shape: 100 128 16 16 (3276800)
I0620 19:54:20.401249 18458 net.cpp:156] Memory required for data: 2104935600
I0620 19:54:20.401259 18458 layer_factory.hpp:77] Creating layer relu_e_1_2
I0620 19:54:20.401268 18458 net.cpp:91] Creating Layer relu_e_1_2
I0620 19:54:20.401274 18458 net.cpp:425] relu_e_1_2 <- sc_e_1_2
I0620 19:54:20.401285 18458 net.cpp:399] relu_e_1_2 -> relu_e_1_2
I0620 19:54:20.401531 18458 net.cpp:141] Setting up relu_e_1_2
I0620 19:54:20.401546 18458 net.cpp:148] Top shape: 100 128 16 16 (3276800)
I0620 19:54:20.401552 18458 net.cpp:156] Memory required for data: 2118042800
I0620 19:54:20.401558 18458 layer_factory.hpp:77] Creating layer conv_e_1_2
I0620 19:54:20.401582 18458 net.cpp:91] Creating Layer conv_e_1_2
I0620 19:54:20.401593 18458 net.cpp:425] conv_e_1_2 <- relu_e_1_2
I0620 19:54:20.401603 18458 net.cpp:399] conv_e_1_2 -> conv_e_1_2
I0620 19:54:20.407557 18458 net.cpp:141] Setting up conv_e_1_2
I0620 19:54:20.407577 18458 net.cpp:148] Top shape: 100 128 16 16 (3276800)
I0620 19:54:20.407588 18458 net.cpp:156] Memory required for data: 2131150000
I0620 19:54:20.407598 18458 layer_factory.hpp:77] Creating layer res_e
I0620 19:54:20.407634 18458 net.cpp:91] Creating Layer res_e
I0620 19:54:20.407644 18458 net.cpp:425] res_e <- elt_a_1_elt_a_1_0_split_3
I0620 19:54:20.407665 18458 net.cpp:399] res_e -> res_e
I0620 19:54:20.409227 18458 net.cpp:141] Setting up res_e
I0620 19:54:20.409246 18458 net.cpp:148] Top shape: 100 128 16 16 (3276800)
I0620 19:54:20.409252 18458 net.cpp:156] Memory required for data: 2144257200
I0620 19:54:20.409262 18458 layer_factory.hpp:77] Creating layer elt_e_1
I0620 19:54:20.409291 18458 net.cpp:91] Creating Layer elt_e_1
I0620 19:54:20.409301 18458 net.cpp:425] elt_e_1 <- res_e
I0620 19:54:20.409325 18458 net.cpp:425] elt_e_1 <- conv_e_1_2
I0620 19:54:20.409338 18458 net.cpp:399] elt_e_1 -> elt_e_1
I0620 19:54:20.409462 18458 net.cpp:141] Setting up elt_e_1
I0620 19:54:20.409477 18458 net.cpp:148] Top shape: 100 128 16 16 (3276800)
I0620 19:54:20.409484 18458 net.cpp:156] Memory required for data: 2157364400
I0620 19:54:20.409492 18458 layer_factory.hpp:77] Creating layer elt_e_h
I0620 19:54:20.409502 18458 net.cpp:91] Creating Layer elt_e_h
I0620 19:54:20.409510 18458 net.cpp:425] elt_e_h <- elt_e_1
I0620 19:54:20.409518 18458 net.cpp:425] elt_e_h <- elt_h_1
I0620 19:54:20.409526 18458 net.cpp:399] elt_e_h -> elt_e_h
I0620 19:54:20.409560 18458 net.cpp:141] Setting up elt_e_h
I0620 19:54:20.409574 18458 net.cpp:148] Top shape: 100 128 16 16 (3276800)
I0620 19:54:20.409579 18458 net.cpp:156] Memory required for data: 2170471600
I0620 19:54:20.409584 18458 layer_factory.hpp:77] Creating layer elt_e_h_elt_e_h_0_split
I0620 19:54:20.409592 18458 net.cpp:91] Creating Layer elt_e_h_elt_e_h_0_split
I0620 19:54:20.409598 18458 net.cpp:425] elt_e_h_elt_e_h_0_split <- elt_e_h
I0620 19:54:20.409610 18458 net.cpp:399] elt_e_h_elt_e_h_0_split -> elt_e_h_elt_e_h_0_split_0
I0620 19:54:20.409621 18458 net.cpp:399] elt_e_h_elt_e_h_0_split -> elt_e_h_elt_e_h_0_split_1
I0620 19:54:20.409668 18458 net.cpp:141] Setting up elt_e_h_elt_e_h_0_split
I0620 19:54:20.409680 18458 net.cpp:148] Top shape: 100 128 16 16 (3276800)
I0620 19:54:20.409687 18458 net.cpp:148] Top shape: 100 128 16 16 (3276800)
I0620 19:54:20.409694 18458 net.cpp:156] Memory required for data: 2196686000
I0620 19:54:20.409699 18458 layer_factory.hpp:77] Creating layer bn_k_1_1
I0620 19:54:20.409713 18458 net.cpp:91] Creating Layer bn_k_1_1
I0620 19:54:20.409723 18458 net.cpp:425] bn_k_1_1 <- elt_e_h_elt_e_h_0_split_0
I0620 19:54:20.409734 18458 net.cpp:399] bn_k_1_1 -> bn_k_1_1
I0620 19:54:20.409942 18458 net.cpp:141] Setting up bn_k_1_1
I0620 19:54:20.409956 18458 net.cpp:148] Top shape: 100 128 16 16 (3276800)
I0620 19:54:20.409963 18458 net.cpp:156] Memory required for data: 2209793200
I0620 19:54:20.409981 18458 layer_factory.hpp:77] Creating layer sc_k_1_1
I0620 19:54:20.409992 18458 net.cpp:91] Creating Layer sc_k_1_1
I0620 19:54:20.410001 18458 net.cpp:425] sc_k_1_1 <- bn_k_1_1
I0620 19:54:20.410008 18458 net.cpp:399] sc_k_1_1 -> sc_k_1_1
I0620 19:54:20.410065 18458 layer_factory.hpp:77] Creating layer sc_k_1_1
I0620 19:54:20.410192 18458 net.cpp:141] Setting up sc_k_1_1
I0620 19:54:20.410205 18458 net.cpp:148] Top shape: 100 128 16 16 (3276800)
I0620 19:54:20.410212 18458 net.cpp:156] Memory required for data: 2222900400
I0620 19:54:20.410220 18458 layer_factory.hpp:77] Creating layer relu_k_1_1
I0620 19:54:20.410234 18458 net.cpp:91] Creating Layer relu_k_1_1
I0620 19:54:20.410243 18458 net.cpp:425] relu_k_1_1 <- sc_k_1_1
I0620 19:54:20.410250 18458 net.cpp:399] relu_k_1_1 -> relu_k_1_1
I0620 19:54:20.410496 18458 net.cpp:141] Setting up relu_k_1_1
I0620 19:54:20.410512 18458 net.cpp:148] Top shape: 100 128 16 16 (3276800)
I0620 19:54:20.410518 18458 net.cpp:156] Memory required for data: 2236007600
I0620 19:54:20.410524 18458 layer_factory.hpp:77] Creating layer conv_k_1_1
I0620 19:54:20.410547 18458 net.cpp:91] Creating Layer conv_k_1_1
I0620 19:54:20.410557 18458 net.cpp:425] conv_k_1_1 <- relu_k_1_1
I0620 19:54:20.410567 18458 net.cpp:399] conv_k_1_1 -> conv_k_1_1
I0620 19:54:20.422020 18458 net.cpp:141] Setting up conv_k_1_1
I0620 19:54:20.422041 18458 net.cpp:148] Top shape: 100 256 8 8 (1638400)
I0620 19:54:20.422047 18458 net.cpp:156] Memory required for data: 2242561200
I0620 19:54:20.422057 18458 layer_factory.hpp:77] Creating layer bn_k_1_2
I0620 19:54:20.422072 18458 net.cpp:91] Creating Layer bn_k_1_2
I0620 19:54:20.422081 18458 net.cpp:425] bn_k_1_2 <- conv_k_1_1
I0620 19:54:20.422096 18458 net.cpp:399] bn_k_1_2 -> bn_k_1_2
I0620 19:54:20.422329 18458 net.cpp:141] Setting up bn_k_1_2
I0620 19:54:20.422344 18458 net.cpp:148] Top shape: 100 256 8 8 (1638400)
I0620 19:54:20.422350 18458 net.cpp:156] Memory required for data: 2249114800
I0620 19:54:20.422385 18458 layer_factory.hpp:77] Creating layer sc_k_1_2
I0620 19:54:20.422399 18458 net.cpp:91] Creating Layer sc_k_1_2
I0620 19:54:20.422406 18458 net.cpp:425] sc_k_1_2 <- bn_k_1_2
I0620 19:54:20.422421 18458 net.cpp:399] sc_k_1_2 -> sc_k_1_2
I0620 19:54:20.422483 18458 layer_factory.hpp:77] Creating layer sc_k_1_2
I0620 19:54:20.422613 18458 net.cpp:141] Setting up sc_k_1_2
I0620 19:54:20.422627 18458 net.cpp:148] Top shape: 100 256 8 8 (1638400)
I0620 19:54:20.422633 18458 net.cpp:156] Memory required for data: 2255668400
I0620 19:54:20.422643 18458 layer_factory.hpp:77] Creating layer relu_k_1_2
I0620 19:54:20.422652 18458 net.cpp:91] Creating Layer relu_k_1_2
I0620 19:54:20.422659 18458 net.cpp:425] relu_k_1_2 <- sc_k_1_2
I0620 19:54:20.422670 18458 net.cpp:399] relu_k_1_2 -> relu_k_1_2
I0620 19:54:20.423069 18458 net.cpp:141] Setting up relu_k_1_2
I0620 19:54:20.423089 18458 net.cpp:148] Top shape: 100 256 8 8 (1638400)
I0620 19:54:20.423094 18458 net.cpp:156] Memory required for data: 2262222000
I0620 19:54:20.423100 18458 layer_factory.hpp:77] Creating layer conv_k_1_2
I0620 19:54:20.423115 18458 net.cpp:91] Creating Layer conv_k_1_2
I0620 19:54:20.423125 18458 net.cpp:425] conv_k_1_2 <- relu_k_1_2
I0620 19:54:20.423137 18458 net.cpp:399] conv_k_1_2 -> conv_k_1_2
I0620 19:54:20.444524 18458 net.cpp:141] Setting up conv_k_1_2
I0620 19:54:20.444543 18458 net.cpp:148] Top shape: 100 256 8 8 (1638400)
I0620 19:54:20.444556 18458 net.cpp:156] Memory required for data: 2268775600
I0620 19:54:20.444566 18458 layer_factory.hpp:77] Creating layer res_k
I0620 19:54:20.444597 18458 net.cpp:91] Creating Layer res_k
I0620 19:54:20.444607 18458 net.cpp:425] res_k <- elt_e_h_elt_e_h_0_split_1
I0620 19:54:20.444620 18458 net.cpp:399] res_k -> res_k
I0620 19:54:20.446833 18458 net.cpp:141] Setting up res_k
I0620 19:54:20.446853 18458 net.cpp:148] Top shape: 100 256 8 8 (1638400)
I0620 19:54:20.446861 18458 net.cpp:156] Memory required for data: 2275329200
I0620 19:54:20.446878 18458 layer_factory.hpp:77] Creating layer elt_k_1
I0620 19:54:20.446895 18458 net.cpp:91] Creating Layer elt_k_1
I0620 19:54:20.446905 18458 net.cpp:425] elt_k_1 <- res_k
I0620 19:54:20.446913 18458 net.cpp:425] elt_k_1 <- conv_k_1_2
I0620 19:54:20.446923 18458 net.cpp:399] elt_k_1 -> elt_k_1
I0620 19:54:20.446961 18458 net.cpp:141] Setting up elt_k_1
I0620 19:54:20.446975 18458 net.cpp:148] Top shape: 100 256 8 8 (1638400)
I0620 19:54:20.446980 18458 net.cpp:156] Memory required for data: 2281882800
I0620 19:54:20.446986 18458 layer_factory.hpp:77] Creating layer bn_l_1_1
I0620 19:54:20.446997 18458 net.cpp:91] Creating Layer bn_l_1_1
I0620 19:54:20.447006 18458 net.cpp:425] bn_l_1_1 <- elt_g_i_elt_g_i_0_split_0
I0620 19:54:20.447017 18458 net.cpp:399] bn_l_1_1 -> bn_l_1_1
I0620 19:54:20.447245 18458 net.cpp:141] Setting up bn_l_1_1
I0620 19:54:20.447260 18458 net.cpp:148] Top shape: 100 128 16 16 (3276800)
I0620 19:54:20.447268 18458 net.cpp:156] Memory required for data: 2294990000
I0620 19:54:20.447279 18458 layer_factory.hpp:77] Creating layer sc_l_1_1
I0620 19:54:20.447295 18458 net.cpp:91] Creating Layer sc_l_1_1
I0620 19:54:20.447305 18458 net.cpp:425] sc_l_1_1 <- bn_l_1_1
I0620 19:54:20.447316 18458 net.cpp:399] sc_l_1_1 -> sc_l_1_1
I0620 19:54:20.447371 18458 layer_factory.hpp:77] Creating layer sc_l_1_1
I0620 19:54:20.447497 18458 net.cpp:141] Setting up sc_l_1_1
I0620 19:54:20.447510 18458 net.cpp:148] Top shape: 100 128 16 16 (3276800)
I0620 19:54:20.447516 18458 net.cpp:156] Memory required for data: 2308097200
I0620 19:54:20.447531 18458 layer_factory.hpp:77] Creating layer relu_l_1_1
I0620 19:54:20.447551 18458 net.cpp:91] Creating Layer relu_l_1_1
I0620 19:54:20.447561 18458 net.cpp:425] relu_l_1_1 <- sc_l_1_1
I0620 19:54:20.447568 18458 net.cpp:399] relu_l_1_1 -> relu_l_1_1
I0620 19:54:20.447967 18458 net.cpp:141] Setting up relu_l_1_1
I0620 19:54:20.447983 18458 net.cpp:148] Top shape: 100 128 16 16 (3276800)
I0620 19:54:20.447990 18458 net.cpp:156] Memory required for data: 2321204400
I0620 19:54:20.448016 18458 layer_factory.hpp:77] Creating layer conv_l_1_1
I0620 19:54:20.448035 18458 net.cpp:91] Creating Layer conv_l_1_1
I0620 19:54:20.448045 18458 net.cpp:425] conv_l_1_1 <- relu_l_1_1
I0620 19:54:20.448055 18458 net.cpp:399] conv_l_1_1 -> conv_l_1_1
I0620 19:54:20.459390 18458 net.cpp:141] Setting up conv_l_1_1
I0620 19:54:20.459413 18458 net.cpp:148] Top shape: 100 256 8 8 (1638400)
I0620 19:54:20.459421 18458 net.cpp:156] Memory required for data: 2327758000
I0620 19:54:20.459432 18458 layer_factory.hpp:77] Creating layer bn_l_1_2
I0620 19:54:20.459445 18458 net.cpp:91] Creating Layer bn_l_1_2
I0620 19:54:20.459455 18458 net.cpp:425] bn_l_1_2 <- conv_l_1_1
I0620 19:54:20.459473 18458 net.cpp:399] bn_l_1_2 -> bn_l_1_2
I0620 19:54:20.459717 18458 net.cpp:141] Setting up bn_l_1_2
I0620 19:54:20.459730 18458 net.cpp:148] Top shape: 100 256 8 8 (1638400)
I0620 19:54:20.459736 18458 net.cpp:156] Memory required for data: 2334311600
I0620 19:54:20.459748 18458 layer_factory.hpp:77] Creating layer sc_l_1_2
I0620 19:54:20.459796 18458 net.cpp:91] Creating Layer sc_l_1_2
I0620 19:54:20.459807 18458 net.cpp:425] sc_l_1_2 <- bn_l_1_2
I0620 19:54:20.459816 18458 net.cpp:399] sc_l_1_2 -> sc_l_1_2
I0620 19:54:20.459874 18458 layer_factory.hpp:77] Creating layer sc_l_1_2
I0620 19:54:20.460017 18458 net.cpp:141] Setting up sc_l_1_2
I0620 19:54:20.460032 18458 net.cpp:148] Top shape: 100 256 8 8 (1638400)
I0620 19:54:20.460037 18458 net.cpp:156] Memory required for data: 2340865200
I0620 19:54:20.460048 18458 layer_factory.hpp:77] Creating layer relu_l_1_2
I0620 19:54:20.460057 18458 net.cpp:91] Creating Layer relu_l_1_2
I0620 19:54:20.460062 18458 net.cpp:425] relu_l_1_2 <- sc_l_1_2
I0620 19:54:20.460070 18458 net.cpp:399] relu_l_1_2 -> relu_l_1_2
I0620 19:54:20.460326 18458 net.cpp:141] Setting up relu_l_1_2
I0620 19:54:20.460342 18458 net.cpp:148] Top shape: 100 256 8 8 (1638400)
I0620 19:54:20.460348 18458 net.cpp:156] Memory required for data: 2347418800
I0620 19:54:20.460355 18458 layer_factory.hpp:77] Creating layer conv_l_1_2
I0620 19:54:20.460368 18458 net.cpp:91] Creating Layer conv_l_1_2
I0620 19:54:20.460377 18458 net.cpp:425] conv_l_1_2 <- relu_l_1_2
I0620 19:54:20.460397 18458 net.cpp:399] conv_l_1_2 -> conv_l_1_2
I0620 19:54:20.481647 18458 net.cpp:141] Setting up conv_l_1_2
I0620 19:54:20.481667 18458 net.cpp:148] Top shape: 100 256 8 8 (1638400)
I0620 19:54:20.481674 18458 net.cpp:156] Memory required for data: 2353972400
I0620 19:54:20.481684 18458 layer_factory.hpp:77] Creating layer res_l
I0620 19:54:20.481703 18458 net.cpp:91] Creating Layer res_l
I0620 19:54:20.481711 18458 net.cpp:425] res_l <- elt_g_i_elt_g_i_0_split_1
I0620 19:54:20.481735 18458 net.cpp:399] res_l -> res_l
I0620 19:54:20.484094 18458 net.cpp:141] Setting up res_l
I0620 19:54:20.484117 18458 net.cpp:148] Top shape: 100 256 8 8 (1638400)
I0620 19:54:20.484124 18458 net.cpp:156] Memory required for data: 2360526000
I0620 19:54:20.484135 18458 layer_factory.hpp:77] Creating layer elt_l_1
I0620 19:54:20.484153 18458 net.cpp:91] Creating Layer elt_l_1
I0620 19:54:20.484163 18458 net.cpp:425] elt_l_1 <- res_l
I0620 19:54:20.484172 18458 net.cpp:425] elt_l_1 <- conv_l_1_2
I0620 19:54:20.484180 18458 net.cpp:399] elt_l_1 -> elt_l_1
I0620 19:54:20.484220 18458 net.cpp:141] Setting up elt_l_1
I0620 19:54:20.484233 18458 net.cpp:148] Top shape: 100 256 8 8 (1638400)
I0620 19:54:20.484239 18458 net.cpp:156] Memory required for data: 2367079600
I0620 19:54:20.484251 18458 layer_factory.hpp:77] Creating layer elt_j_k_l
I0620 19:54:20.484275 18458 net.cpp:91] Creating Layer elt_j_k_l
I0620 19:54:20.484285 18458 net.cpp:425] elt_j_k_l <- elt_j_1
I0620 19:54:20.484292 18458 net.cpp:425] elt_j_k_l <- elt_k_1
I0620 19:54:20.484299 18458 net.cpp:425] elt_j_k_l <- elt_l_1
I0620 19:54:20.484308 18458 net.cpp:399] elt_j_k_l -> elt_j_k_l
I0620 19:54:20.484354 18458 net.cpp:141] Setting up elt_j_k_l
I0620 19:54:20.484367 18458 net.cpp:148] Top shape: 100 256 8 8 (1638400)
I0620 19:54:20.484372 18458 net.cpp:156] Memory required for data: 2373633200
I0620 19:54:20.484416 18458 layer_factory.hpp:77] Creating layer bn_m_1_1
I0620 19:54:20.484436 18458 net.cpp:91] Creating Layer bn_m_1_1
I0620 19:54:20.484444 18458 net.cpp:425] bn_m_1_1 <- elt_j_k_l
I0620 19:54:20.484453 18458 net.cpp:399] bn_m_1_1 -> bn_m_1_1
I0620 19:54:20.484686 18458 net.cpp:141] Setting up bn_m_1_1
I0620 19:54:20.484700 18458 net.cpp:148] Top shape: 100 256 8 8 (1638400)
I0620 19:54:20.484705 18458 net.cpp:156] Memory required for data: 2380186800
I0620 19:54:20.484717 18458 layer_factory.hpp:77] Creating layer sc_m_1_1
I0620 19:54:20.484745 18458 net.cpp:91] Creating Layer sc_m_1_1
I0620 19:54:20.484755 18458 net.cpp:425] sc_m_1_1 <- bn_m_1_1
I0620 19:54:20.484768 18458 net.cpp:399] sc_m_1_1 -> sc_m_1_1
I0620 19:54:20.484827 18458 layer_factory.hpp:77] Creating layer sc_m_1_1
I0620 19:54:20.484962 18458 net.cpp:141] Setting up sc_m_1_1
I0620 19:54:20.484978 18458 net.cpp:148] Top shape: 100 256 8 8 (1638400)
I0620 19:54:20.484984 18458 net.cpp:156] Memory required for data: 2386740400
I0620 19:54:20.484993 18458 layer_factory.hpp:77] Creating layer relu_m_1_1
I0620 19:54:20.485002 18458 net.cpp:91] Creating Layer relu_m_1_1
I0620 19:54:20.485010 18458 net.cpp:425] relu_m_1_1 <- sc_m_1_1
I0620 19:54:20.485018 18458 net.cpp:399] relu_m_1_1 -> relu_m_1_1
I0620 19:54:20.485275 18458 net.cpp:141] Setting up relu_m_1_1
I0620 19:54:20.485292 18458 net.cpp:148] Top shape: 100 256 8 8 (1638400)
I0620 19:54:20.485298 18458 net.cpp:156] Memory required for data: 2393294000
I0620 19:54:20.485304 18458 layer_factory.hpp:77] Creating layer gap
I0620 19:54:20.485321 18458 net.cpp:91] Creating Layer gap
I0620 19:54:20.485329 18458 net.cpp:425] gap <- relu_m_1_1
I0620 19:54:20.485342 18458 net.cpp:399] gap -> gap
I0620 19:54:20.485749 18458 net.cpp:141] Setting up gap
I0620 19:54:20.485765 18458 net.cpp:148] Top shape: 100 256 1 1 (25600)
I0620 19:54:20.485775 18458 net.cpp:156] Memory required for data: 2393396400
I0620 19:54:20.485781 18458 layer_factory.hpp:77] Creating layer ip1
I0620 19:54:20.485792 18458 net.cpp:91] Creating Layer ip1
I0620 19:54:20.485803 18458 net.cpp:425] ip1 <- gap
I0620 19:54:20.485816 18458 net.cpp:399] ip1 -> ip1
I0620 19:54:20.486250 18458 net.cpp:141] Setting up ip1
I0620 19:54:20.486265 18458 net.cpp:148] Top shape: 100 10 (1000)
I0620 19:54:20.486271 18458 net.cpp:156] Memory required for data: 2393400400
I0620 19:54:20.486281 18458 layer_factory.hpp:77] Creating layer ip1_ip1_0_split
I0620 19:54:20.486291 18458 net.cpp:91] Creating Layer ip1_ip1_0_split
I0620 19:54:20.486299 18458 net.cpp:425] ip1_ip1_0_split <- ip1
I0620 19:54:20.486310 18458 net.cpp:399] ip1_ip1_0_split -> ip1_ip1_0_split_0
I0620 19:54:20.486322 18458 net.cpp:399] ip1_ip1_0_split -> ip1_ip1_0_split_1
I0620 19:54:20.486376 18458 net.cpp:141] Setting up ip1_ip1_0_split
I0620 19:54:20.486388 18458 net.cpp:148] Top shape: 100 10 (1000)
I0620 19:54:20.486395 18458 net.cpp:148] Top shape: 100 10 (1000)
I0620 19:54:20.486402 18458 net.cpp:156] Memory required for data: 2393408400
I0620 19:54:20.486413 18458 layer_factory.hpp:77] Creating layer accuracy
I0620 19:54:20.486426 18458 net.cpp:91] Creating Layer accuracy
I0620 19:54:20.486433 18458 net.cpp:425] accuracy <- ip1_ip1_0_split_0
I0620 19:54:20.486443 18458 net.cpp:425] accuracy <- label_resnet_1_split_0
I0620 19:54:20.486454 18458 net.cpp:399] accuracy -> accuracy
…
