…
I0623 12:43:56.519490 33602 net.cpp:313] The NetState phase (0) differed from the phase (1) specified by a rule in layer accuracy
I0623 12:43:56.520653 33602 net.cpp:49] Initializing net from parameters: 
name: "ResNet"
state {
  phase: TRAIN
}
layer {
  name: "resnet"
  type: "Data"
  top: "data"
  top: "label"
  include {
    phase: TRAIN
  }
  transform_param {
    mean_file: "/home/takeki/caffe/examples/cifar10/mean.binaryproto"
  }
  data_param {
    source: "/home/takeki/caffe/examples/cifar10/cifar10_train_lmdb"
    batch_size: 64
    backend: LMDB
  }
}
layer {
  name: "conv0"
  type: "Convolution"
  bottom: "data"
  top: "conv0"
  param {
    lr_mult: 1
  }
  param {
    lr_mult: 2
  }
  convolution_param {
    num_output: 16
    pad: 1
    kernel_size: 3
    stride: 1
    weight_filler {
      type: "msra"
    }
    bias_filler {
      type: "constant"
    }
  }
}
layer {
  name: "bn_a_1_1"
  type: "BatchNorm"
  bottom: "conv0"
  top: "bn_a_1_1"
  param {
    lr_mult: 0
  }
  param {
    lr_mult: 0
  }
  param {
    lr_mult: 0
  }
  batch_norm_param {
    use_global_stats: false
  }
}
layer {
  name: "sc_a_1_1"
  type: "Scale"
  bottom: "bn_a_1_1"
  top: "sc_a_1_1"
  scale_param {
    bias_term: true
  }
}
layer {
  name: "relu_a_1_1"
  type: "ReLU"
  bottom: "sc_a_1_1"
  top: "relu_a_1_1"
}
layer {
  name: "conv_a_1_1"
  type: "Convolution"
  bottom: "relu_a_1_1"
  top: "conv_a_1_1"
  param {
    lr_mult: 1
    decay_mult: 1
  }
  param {
    lr_mult: 2
    decay_mult: 1
  }
  convolution_param {
    num_output: 64
    pad: 1
    kernel_size: 3
    stride: 1
    weight_filler {
      type: "msra"
    }
    bias_filler {
      type: "constant"
    }
  }
}
layer {
  name: "bn_a_1_2"
  type: "BatchNorm"
  bottom: "conv_a_1_1"
  top: "bn_a_1_2"
  param {
    lr_mult: 0
  }
  param {
    lr_mult: 0
  }
  param {
    lr_mult: 0
  }
  batch_norm_param {
    use_global_stats: false
  }
}
layer {
  name: "sc_a_1_2"
  type: "Scale"
  bottom: "bn_a_1_2"
  top: "sc_a_1_2"
  scale_param {
    bias_term: true
  }
}
layer {
  name: "relu_a_1_2"
  type: "ReLU"
  bottom: "sc_a_1_2"
  top: "relu_a_1_2"
}
layer {
  name: "conv_a_1_2"
  type: "Convolution"
  bottom: "relu_a_1_2"
  top: "conv_a_1_2"
  param {
    lr_mult: 1
    decay_mult: 1
  }
  param {
    lr_mult: 2
    decay_mult: 1
  }
  convolution_param {
    num_output: 64
    pad: 1
    kernel_size: 3
    stride: 1
    weight_filler {
      type: "msra"
    }
    bias_filler {
      type: "constant"
    }
  }
}
layer {
  name: "res_a"
  type: "Convolution"
  bottom: "conv0"
  top: "res_a"
  param {
    lr_mult: 1
    decay_mult: 1
  }
  param {
    lr_mult: 2
    decay_mult: 1
  }
  convolution_param {
    num_output: 64
    pad: 0
    kernel_size: 1
    stride: 1
    weight_filler {
      type: "msra"
    }
    bias_filler {
      type: "constant"
    }
  }
}
layer {
  name: "elt_a_1"
  type: "Eltwise"
  bottom: "res_a"
  bottom: "conv_a_1_2"
  top: "elt_a_1"
  eltwise_param {
    operation: SUM
  }
}
layer {
  name: "bn_a_2_1"
  type: "BatchNorm"
  bottom: "elt_a_1"
  top: "bn_a_2_1"
  param {
    lr_mult: 0
  }
  param {
    lr_mult: 0
  }
  param {
    lr_mult: 0
  }
  batch_norm_param {
    use_global_stats: false
  }
}
layer {
  name: "sc_a_2_1"
  type: "Scale"
  bottom: "bn_a_2_1"
  top: "sc_a_2_1"
  scale_param {
    bias_term: true
  }
}
layer {
  name: "relu_a_2_1"
  type: "ReLU"
  bottom: "sc_a_2_1"
  top: "relu_a_2_1"
}
layer {
  name: "conv_a_2_1"
  type: "Convolution"
  bottom: "relu_a_2_1"
  top: "conv_a_2_1"
  param {
    lr_mult: 1
    decay_mult: 1
  }
  param {
    lr_mult: 2
    decay_mult: 1
  }
  convolution_param {
    num_output: 64
    pad: 1
    kernel_size: 3
    stride: 1
    weight_filler {
      type: "msra"
    }
    bias_filler {
      type: "constant"
    }
  }
}
layer {
  name: "bn_a_2_2"
  type: "BatchNorm"
  bottom: "conv_a_2_1"
  top: "bn_a_2_2"
  param {
    lr_mult: 0
  }
  param {
    lr_mult: 0
  }
  param {
    lr_mult: 0
  }
  batch_norm_param {
    use_global_stats: false
  }
}
layer {
  name: "sc_a_2_2"
  type: "Scale"
  bottom: "bn_a_2_2"
  top: "sc_a_2_2"
  scale_param {
    bias_term: true
  }
}
layer {
  name: "relu_a_2_2"
  type: "ReLU"
  bottom: "sc_a_2_2"
  top: "relu_a_2_2"
}
layer {
  name: "conv_a_2_2"
  type: "Convolution"
  bottom: "relu_a_2_2"
  top: "conv_a_2_2"
  param {
    lr_mult: 1
    decay_mult: 1
  }
  param {
    lr_mult: 2
    decay_mult: 1
  }
  convolution_param {
    num_output: 64
    pad: 1
    kernel_size: 3
    stride: 1
    weight_filler {
      type: "msra"
    }
    bias_filler {
      type: "constant"
    }
  }
}
layer {
  name: "elt_a_2"
  type: "Eltwise"
  bottom: "elt_a_1"
  bottom: "conv_a_2_2"
  top: "elt_a_2"
  eltwise_param {
    operation: SUM
  }
}
layer {
  name: "bn_b_1_1"
  type: "BatchNorm"
  bottom: "conv0"
  top: "bn_b_1_1"
  param {
    lr_mult: 0
  }
  param {
    lr_mult: 0
  }
  param {
    lr_mult: 0
  }
  batch_norm_param {
    use_global_stats: false
  }
}
layer {
  name: "sc_b_1_1"
  type: "Scale"
  bottom: "bn_b_1_1"
  top: "sc_b_1_1"
  scale_param {
    bias_term: true
  }
}
layer {
  name: "relu_b_1_1"
  type: "ReLU"
  bottom: "sc_b_1_1"
  top: "relu_b_1_1"
}
layer {
  name: "conv_b_1_1"
  type: "Convolution"
  bottom: "relu_b_1_1"
  top: "conv_b_1_1"
  param {
    lr_mult: 1
    decay_mult: 1
  }
  param {
    lr_mult: 2
    decay_mult: 1
  }
  convolution_param {
    num_output: 64
    pad: 1
    kernel_size: 3
    stride: 1
    weight_filler {
      type: "msra"
    }
    bias_filler {
      type: "constant"
    }
  }
}
layer {
  name: "bn_b_1_2"
  type: "BatchNorm"
  bottom: "conv_b_1_1"
  top: "bn_b_1_2"
  param {
    lr_mult: 0
  }
  param {
    lr_mult: 0
  }
  param {
    lr_mult: 0
  }
  batch_norm_param {
    use_global_stats: false
  }
}
layer {
  name: "sc_b_1_2"
  type: "Scale"
  bottom: "bn_b_1_2"
  top: "sc_b_1_2"
  scale_param {
    bias_term: true
  }
}
layer {
  name: "relu_b_1_2"
  type: "ReLU"
  bottom: "sc_b_1_2"
  top: "relu_b_1_2"
}
layer {
  name: "conv_b_1_2"
  type: "Convolution"
  bottom: "relu_b_1_2"
  top: "conv_b_1_2"
  param {
    lr_mult: 1
    decay_mult: 1
  }
  param {
    lr_mult: 2
    decay_mult: 1
  }
  convolution_param {
    num_output: 64
    pad: 1
    kernel_size: 3
    stride: 1
    weight_filler {
      type: "msra"
    }
    bias_filler {
      type: "constant"
    }
  }
}
layer {
  name: "res_b"
  type: "Convolution"
  bottom: "conv0"
  top: "res_b"
  param {
    lr_mult: 1
    decay_mult: 1
  }
  param {
    lr_mult: 2
    decay_mult: 1
  }
  convolution_param {
    num_output: 64
    pad: 0
    kernel_size: 1
    stride: 1
    weight_filler {
      type: "msra"
    }
    bias_filler {
      type: "constant"
    }
  }
}
layer {
  name: "elt_b_1"
  type: "Eltwise"
  bottom: "res_b"
  bottom: "conv_b_1_2"
  top: "elt_b_1"
  eltwise_param {
    operation: SUM
  }
}
layer {
  name: "bn_b_2_1"
  type: "BatchNorm"
  bottom: "elt_b_1"
  top: "bn_b_2_1"
  param {
    lr_mult: 0
  }
  param {
    lr_mult: 0
  }
  param {
    lr_mult: 0
  }
  batch_norm_param {
    use_global_stats: false
  }
}
layer {
  name: "sc_b_2_1"
  type: "Scale"
  bottom: "bn_b_2_1"
  top: "sc_b_2_1"
  scale_param {
    bias_term: true
  }
}
layer {
  name: "relu_b_2_1"
  type: "ReLU"
  bottom: "sc_b_2_1"
  top: "relu_b_2_1"
}
layer {
  name: "conv_b_2_1"
  type: "Convolution"
  bottom: "relu_b_2_1"
  top: "conv_b_2_1"
  param {
    lr_mult: 1
    decay_mult: 1
  }
  param {
    lr_mult: 2
    decay_mult: 1
  }
  convolution_param {
    num_output: 64
    pad: 1
    kernel_size: 3
    stride: 1
    weight_filler {
      type: "msra"
    }
    bias_filler {
      type: "constant"
    }
  }
}
layer {
  name: "bn_b_2_2"
  type: "BatchNorm"
  bottom: "conv_b_2_1"
  top: "bn_b_2_2"
  param {
    lr_mult: 0
  }
  param {
    lr_mult: 0
  }
  param {
    lr_mult: 0
  }
  batch_norm_param {
    use_global_stats: false
  }
}
layer {
  name: "sc_b_2_2"
  type: "Scale"
  bottom: "bn_b_2_2"
  top: "sc_b_2_2"
  scale_param {
    bias_term: true
  }
}
layer {
  name: "relu_b_2_2"
  type: "ReLU"
  bottom: "sc_b_2_2"
  top: "relu_b_2_2"
}
layer {
  name: "conv_b_2_2"
  type: "Convolution"
  bottom: "relu_b_2_2"
  top: "conv_b_2_2"
  param {
    lr_mult: 1
    decay_mult: 1
  }
  param {
    lr_mult: 2
    decay_mult: 1
  }
  convolution_param {
    num_output: 64
    pad: 1
    kernel_size: 3
    stride: 1
    weight_filler {
      type: "msra"
    }
    bias_filler {
      type: "constant"
    }
  }
}
layer {
  name: "elt_b_2"
  type: "Eltwise"
  bottom: "elt_b_1"
  bottom: "conv_b_2_2"
  top: "elt_b_2"
  eltwise_param {
    operation: SUM
  }
}
layer {
  name: "bn_c_1_1"
  type: "BatchNorm"
  bottom: "conv0"
  top: "bn_c_1_1"
  param {
    lr_mult: 0
  }
  param {
    lr_mult: 0
  }
  param {
    lr_mult: 0
  }
  batch_norm_param {
    use_global_stats: false
  }
}
layer {
  name: "sc_c_1_1"
  type: "Scale"
  bottom: "bn_c_1_1"
  top: "sc_c_1_1"
  scale_param {
    bias_term: true
  }
}
layer {
  name: "relu_c_1_1"
  type: "ReLU"
  bottom: "sc_c_1_1"
  top: "relu_c_1_1"
}
layer {
  name: "conv_c_1_1"
  type: "Convolution"
  bottom: "relu_c_1_1"
  top: "conv_c_1_1"
  param {
    lr_mult: 1
    decay_mult: 1
  }
  param {
    lr_mult: 2
    decay_mult: 1
  }
  convolution_param {
    num_output: 64
    pad: 1
    kernel_size: 3
    stride: 1
    weight_filler {
      type: "msra"
    }
    bias_filler {
      type: "constant"
    }
  }
}
layer {
  name: "bn_c_1_2"
  type: "BatchNorm"
  bottom: "conv_c_1_1"
  top: "bn_c_1_2"
  param {
    lr_mult: 0
  }
  param {
    lr_mult: 0
  }
  param {
    lr_mult: 0
  }
  batch_norm_param {
    use_global_stats: false
  }
}
layer {
  name: "sc_c_1_2"
  type: "Scale"
  bottom: "bn_c_1_2"
  top: "sc_c_1_2"
  scale_param {
    bias_term: true
  }
}
layer {
  name: "relu_c_1_2"
  type: "ReLU"
  bottom: "sc_c_1_2"
  top: "relu_c_1_2"
}
layer {
  name: "conv_c_1_2"
  type: "Convolution"
  bottom: "relu_c_1_2"
  top: "conv_c_1_2"
  param {
    lr_mult: 1
    decay_mult: 1
  }
  param {
    lr_mult: 2
    decay_mult: 1
  }
  convolution_param {
    num_output: 64
    pad: 1
    kernel_size: 3
    stride: 1
    weight_filler {
      type: "msra"
    }
    bias_filler {
      type: "constant"
    }
  }
}
layer {
  name: "res_c"
  type: "Convolution"
  bottom: "conv0"
  top: "res_c"
  param {
    lr_mult: 1
    decay_mult: 1
  }
  param {
    lr_mult: 2
    decay_mult: 1
  }
  convolution_param {
    num_output: 64
    pad: 0
    kernel_size: 1
    stride: 1
    weight_filler {
      type: "msra"
    }
    bias_filler {
      type: "constant"
    }
  }
}
layer {
  name: "elt_c_1"
  type: "Eltwise"
  bottom: "res_c"
  bottom: "conv_c_1_2"
  top: "elt_c_1"
  eltwise_param {
    operation: SUM
  }
}
layer {
  name: "bn_c_2_1"
  type: "BatchNorm"
  bottom: "elt_c_1"
  top: "bn_c_2_1"
  param {
    lr_mult: 0
  }
  param {
    lr_mult: 0
  }
  param {
    lr_mult: 0
  }
  batch_norm_param {
    use_global_stats: false
  }
}
layer {
  name: "sc_c_2_1"
  type: "Scale"
  bottom: "bn_c_2_1"
  top: "sc_c_2_1"
  scale_param {
    bias_term: true
  }
}
layer {
  name: "relu_c_2_1"
  type: "ReLU"
  bottom: "sc_c_2_1"
  top: "relu_c_2_1"
}
layer {
  name: "conv_c_2_1"
  type: "Convolution"
  bottom: "relu_c_2_1"
  top: "conv_c_2_1"
  param {
    lr_mult: 1
    decay_mult: 1
  }
  param {
    lr_mult: 2
    decay_mult: 1
  }
  convolution_param {
    num_output: 64
    pad: 1
    kernel_size: 3
    stride: 1
    weight_filler {
      type: "msra"
    }
    bias_filler {
      type: "constant"
    }
  }
}
layer {
  name: "bn_c_2_2"
  type: "BatchNorm"
  bottom: "conv_c_2_1"
  top: "bn_c_2_2"
  param {
    lr_mult: 0
  }
  param {
    lr_mult: 0
  }
  param {
    lr_mult: 0
  }
  batch_norm_param {
    use_global_stats: false
  }
}
layer {
  name: "sc_c_2_2"
  type: "Scale"
  bottom: "bn_c_2_2"
  top: "sc_c_2_2"
  scale_param {
    bias_term: true
  }
}
layer {
  name: "relu_c_2_2"
  type: "ReLU"
  bottom: "sc_c_2_2"
  top: "relu_c_2_2"
}
layer {
  name: "conv_c_2_2"
  type: "Convolution"
  bottom: "relu_c_2_2"
  top: "conv_c_2_2"
  param {
    lr_mult: 1
    decay_mult: 1
  }
  param {
    lr_mult: 2
    decay_mult: 1
  }
  convolution_param {
    num_output: 64
    pad: 1
    kernel_size: 3
    stride: 1
    weight_filler {
      type: "msra"
    }
    bias_filler {
      type: "constant"
    }
  }
}
layer {
  name: "elt_c_2"
  type: "Eltwise"
  bottom: "elt_c_1"
  bottom: "conv_c_2_2"
  top: "elt_c_2"
  eltwise_param {
    operation: SUM
  }
}
layer {
  name: "bn_d_1_1"
  type: "BatchNorm"
  bottom: "elt_a_2"
  top: "bn_d_1_1"
  param {
    lr_mult: 0
  }
  param {
    lr_mult: 0
  }
  param {
    lr_mult: 0
  }
  batch_norm_param {
    use_global_stats: false
  }
}
layer {
  name: "sc_d_1_1"
  type: "Scale"
  bottom: "bn_d_1_1"
  top: "sc_d_1_1"
  scale_param {
    bias_term: true
  }
}
layer {
  name: "relu_d_1_1"
  type: "ReLU"
  bottom: "sc_d_1_1"
  top: "relu_d_1_1"
}
layer {
  name: "conv_d_1_1"
  type: "Convolution"
  bottom: "relu_d_1_1"
  top: "conv_d_1_1"
  param {
    lr_mult: 1
    decay_mult: 1
  }
  param {
    lr_mult: 2
    decay_mult: 1
  }
  convolution_param {
    num_output: 128
    pad: 1
    kernel_size: 3
    stride: 2
    weight_filler {
      type: "msra"
    }
    bias_filler {
      type: "constant"
    }
  }
}
layer {
  name: "bn_d_1_2"
  type: "BatchNorm"
  bottom: "conv_d_1_1"
  top: "bn_d_1_2"
  param {
    lr_mult: 0
  }
  param {
    lr_mult: 0
  }
  param {
    lr_mult: 0
  }
  batch_norm_param {
    use_global_stats: false
  }
}
layer {
  name: "sc_d_1_2"
  type: "Scale"
  bottom: "bn_d_1_2"
  top: "sc_d_1_2"
  scale_param {
    bias_term: true
  }
}
layer {
  name: "relu_d_1_2"
  type: "ReLU"
  bottom: "sc_d_1_2"
  top: "relu_d_1_2"
}
layer {
  name: "conv_d_1_2"
  type: "Convolution"
  bottom: "relu_d_1_2"
  top: "conv_d_1_2"
  param {
    lr_mult: 1
    decay_mult: 1
  }
  param {
    lr_mult: 2
    decay_mult: 1
  }
  convolution_param {
    num_output: 128
    pad: 1
    kernel_size: 3
    stride: 1
    weight_filler {
      type: "msra"
    }
    bias_filler {
      type: "constant"
    }
  }
}
layer {
  name: "res_d"
  type: "Convolution"
  bottom: "elt_a_2"
  top: "res_d"
  param {
    lr_mult: 1
    decay_mult: 1
  }
  param {
    lr_mult: 2
    decay_mult: 1
  }
  convolution_param {
    num_output: 128
    pad: 0
    kernel_size: 1
    stride: 2
    weight_filler {
      type: "msra"
    }
    bias_filler {
      type: "constant"
    }
  }
}
layer {
  name: "elt_d_1"
  type: "Eltwise"
  bottom: "res_d"
  bottom: "conv_d_1_2"
  top: "elt_d_1"
  eltwise_param {
    operation: SUM
  }
}
layer {
  name: "bn_d_2_1"
  type: "BatchNorm"
  bottom: "elt_d_1"
  top: "bn_d_2_1"
  param {
    lr_mult: 0
  }
  param {
    lr_mult: 0
  }
  param {
    lr_mult: 0
  }
  batch_norm_param {
    use_global_stats: false
  }
}
layer {
  name: "sc_d_2_1"
  type: "Scale"
  bottom: "bn_d_2_1"
  top: "sc_d_2_1"
  scale_param {
    bias_term: true
  }
}
layer {
  name: "relu_d_2_1"
  type: "ReLU"
  bottom: "sc_d_2_1"
  top: "relu_d_2_1"
}
layer {
  name: "conv_d_2_1"
  type: "Convolution"
  bottom: "relu_d_2_1"
  top: "conv_d_2_1"
  param {
    lr_mult: 1
    decay_mult: 1
  }
  param {
    lr_mult: 2
    decay_mult: 1
  }
  convolution_param {
    num_output: 128
    pad: 1
    kernel_size: 3
    stride: 1
    weight_filler {
      type: "msra"
    }
    bias_filler {
      type: "constant"
    }
  }
}
layer {
  name: "bn_d_2_2"
  type: "BatchNorm"
  bottom: "conv_d_2_1"
  top: "bn_d_2_2"
  param {
    lr_mult: 0
  }
  param {
    lr_mult: 0
  }
  param {
    lr_mult: 0
  }
  batch_norm_param {
    use_global_stats: false
  }
}
layer {
  name: "sc_d_2_2"
  type: "Scale"
  bottom: "bn_d_2_2"
  top: "sc_d_2_2"
  scale_param {
    bias_term: true
  }
}
layer {
  name: "relu_d_2_2"
  type: "ReLU"
  bottom: "sc_d_2_2"
  top: "relu_d_2_2"
}
layer {
  name: "conv_d_2_2"
  type: "Convolution"
  bottom: "relu_d_2_2"
  top: "conv_d_2_2"
  param {
    lr_mult: 1
    decay_mult: 1
  }
  param {
    lr_mult: 2
    decay_mult: 1
  }
  convolution_param {
    num_output: 128
    pad: 1
    kernel_size: 3
    stride: 1
    weight_filler {
      type: "msra"
    }
    bias_filler {
      type: "constant"
    }
  }
}
layer {
  name: "elt_d_2"
  type: "Eltwise"
  bottom: "elt_d_1"
  bottom: "conv_d_2_2"
  top: "elt_d_2"
  eltwise_param {
    operation: SUM
  }
}
layer {
  name: "bn_f_1_1"
  type: "BatchNorm"
  bottom: "elt_b_2"
  top: "bn_f_1_1"
  param {
    lr_mult: 0
  }
  param {
    lr_mult: 0
  }
  param {
    lr_mult: 0
  }
  batch_norm_param {
    use_global_stats: false
  }
}
layer {
  name: "sc_f_1_1"
  type: "Scale"
  bottom: "bn_f_1_1"
  top: "sc_f_1_1"
  scale_param {
    bias_term: true
  }
}
layer {
  name: "relu_f_1_1"
  type: "ReLU"
  bottom: "sc_f_1_1"
  top: "relu_f_1_1"
}
layer {
  name: "conv_f_1_1"
  type: "Convolution"
  bottom: "relu_f_1_1"
  top: "conv_f_1_1"
  param {
    lr_mult: 1
    decay_mult: 1
  }
  param {
    lr_mult: 2
    decay_mult: 1
  }
  convolution_param {
    num_output: 128
    pad: 1
    kernel_size: 3
    stride: 2
    weight_filler {
      type: "msra"
    }
    bias_filler {
      type: "constant"
    }
  }
}
layer {
  name: "bn_f_1_2"
  type: "BatchNorm"
  bottom: "conv_f_1_1"
  top: "bn_f_1_2"
  param {
    lr_mult: 0
  }
  param {
    lr_mult: 0
  }
  param {
    lr_mult: 0
  }
  batch_norm_param {
    use_global_stats: false
  }
}
layer {
  name: "sc_f_1_2"
  type: "Scale"
  bottom: "bn_f_1_2"
  top: "sc_f_1_2"
  scale_param {
    bias_term: true
  }
}
layer {
  name: "relu_f_1_2"
  type: "ReLU"
  bottom: "sc_f_1_2"
  top: "relu_f_1_2"
}
layer {
  name: "conv_f_1_2"
  type: "Convolution"
  bottom: "relu_f_1_2"
  top: "conv_f_1_2"
  param {
    lr_mult: 1
    decay_mult: 1
  }
  param {
    lr_mult: 2
    decay_mult: 1
  }
  convolution_param {
    num_output: 128
    pad: 1
    kernel_size: 3
    stride: 1
    weight_filler {
      type: "msra"
    }
    bias_filler {
      type: "constant"
    }
  }
}
layer {
  name: "res_f"
  type: "Convolution"
  bottom: "elt_b_2"
  top: "res_f"
  param {
    lr_mult: 1
    decay_mult: 1
  }
  param {
    lr_mult: 2
    decay_mult: 1
  }
  convolution_param {
    num_output: 128
    pad: 0
    kernel_size: 1
    stride: 2
    weight_filler {
      type: "msra"
    }
    bias_filler {
      type: "constant"
    }
  }
}
layer {
  name: "elt_f_1"
  type: "Eltwise"
  bottom: "res_f"
  bottom: "conv_f_1_2"
  top: "elt_f_1"
  eltwise_param {
    operation: SUM
  }
}
layer {
  name: "bn_f_2_1"
  type: "BatchNorm"
  bottom: "elt_f_1"
  top: "bn_f_2_1"
  param {
    lr_mult: 0
  }
  param {
    lr_mult: 0
  }
  param {
    lr_mult: 0
  }
  batch_norm_param {
    use_global_stats: false
  }
}
layer {
  name: "sc_f_2_1"
  type: "Scale"
  bottom: "bn_f_2_1"
  top: "sc_f_2_1"
  scale_param {
    bias_term: true
  }
}
layer {
  name: "relu_f_2_1"
  type: "ReLU"
  bottom: "sc_f_2_1"
  top: "relu_f_2_1"
}
layer {
  name: "conv_f_2_1"
  type: "Convolution"
  bottom: "relu_f_2_1"
  top: "conv_f_2_1"
  param {
    lr_mult: 1
    decay_mult: 1
  }
  param {
    lr_mult: 2
    decay_mult: 1
  }
  convolution_param {
    num_output: 128
    pad: 1
    kernel_size: 3
    stride: 1
    weight_filler {
      type: "msra"
    }
    bias_filler {
      type: "constant"
    }
  }
}
layer {
  name: "bn_f_2_2"
  type: "BatchNorm"
  bottom: "conv_f_2_1"
  top: "bn_f_2_2"
  param {
    lr_mult: 0
  }
  param {
    lr_mult: 0
  }
  param {
    lr_mult: 0
  }
  batch_norm_param {
    use_global_stats: false
  }
}
layer {
  name: "sc_f_2_2"
  type: "Scale"
  bottom: "bn_f_2_2"
  top: "sc_f_2_2"
  scale_param {
    bias_term: true
  }
}
layer {
  name: "relu_f_2_2"
  type: "ReLU"
  bottom: "sc_f_2_2"
  top: "relu_f_2_2"
}
layer {
  name: "conv_f_2_2"
  type: "Convolution"
  bottom: "relu_f_2_2"
  top: "conv_f_2_2"
  param {
    lr_mult: 1
    decay_mult: 1
  }
  param {
    lr_mult: 2
    decay_mult: 1
  }
  convolution_param {
    num_output: 128
    pad: 1
    kernel_size: 3
    stride: 1
    weight_filler {
      type: "msra"
    }
    bias_filler {
      type: "constant"
    }
  }
}
layer {
  name: "elt_f_2"
  type: "Eltwise"
  bottom: "elt_f_1"
  bottom: "conv_f_2_2"
  top: "elt_f_2"
  eltwise_param {
    operation: SUM
  }
}
layer {
  name: "bn_g_1_1"
  type: "BatchNorm"
  bottom: "elt_b_2"
  top: "bn_g_1_1"
  param {
    lr_mult: 0
  }
  param {
    lr_mult: 0
  }
  param {
    lr_mult: 0
  }
  batch_norm_param {
    use_global_stats: false
  }
}
layer {
  name: "sc_g_1_1"
  type: "Scale"
  bottom: "bn_g_1_1"
  top: "sc_g_1_1"
  scale_param {
    bias_term: true
  }
}
layer {
  name: "relu_g_1_1"
  type: "ReLU"
  bottom: "sc_g_1_1"
  top: "relu_g_1_1"
}
layer {
  name: "conv_g_1_1"
  type: "Convolution"
  bottom: "relu_g_1_1"
  top: "conv_g_1_1"
  param {
    lr_mult: 1
    decay_mult: 1
  }
  param {
    lr_mult: 2
    decay_mult: 1
  }
  convolution_param {
    num_output: 128
    pad: 1
    kernel_size: 3
    stride: 2
    weight_filler {
      type: "msra"
    }
    bias_filler {
      type: "constant"
    }
  }
}
layer {
  name: "bn_g_1_2"
  type: "BatchNorm"
  bottom: "conv_g_1_1"
  top: "bn_g_1_2"
  param {
    lr_mult: 0
  }
  param {
    lr_mult: 0
  }
  param {
    lr_mult: 0
  }
  batch_norm_param {
    use_global_stats: false
  }
}
layer {
  name: "sc_g_1_2"
  type: "Scale"
  bottom: "bn_g_1_2"
  top: "sc_g_1_2"
  scale_param {
    bias_term: true
  }
}
layer {
  name: "relu_g_1_2"
  type: "ReLU"
  bottom: "sc_g_1_2"
  top: "relu_g_1_2"
}
layer {
  name: "conv_g_1_2"
  type: "Convolution"
  bottom: "relu_g_1_2"
  top: "conv_g_1_2"
  param {
    lr_mult: 1
    decay_mult: 1
  }
  param {
    lr_mult: 2
    decay_mult: 1
  }
  convolution_param {
    num_output: 128
    pad: 1
    kernel_size: 3
    stride: 1
    weight_filler {
      type: "msra"
    }
    bias_filler {
      type: "constant"
    }
  }
}
layer {
  name: "res_g"
  type: "Convolution"
  bottom: "elt_b_2"
  top: "res_g"
  param {
    lr_mult: 1
    decay_mult: 1
  }
  param {
    lr_mult: 2
    decay_mult: 1
  }
  convolution_param {
    num_output: 128
    pad: 0
    kernel_size: 1
    stride: 2
    weight_filler {
      type: "msra"
    }
    bias_filler {
      type: "constant"
    }
  }
}
layer {
  name: "elt_g_1"
  type: "Eltwise"
  bottom: "res_g"
  bottom: "conv_g_1_2"
  top: "elt_g_1"
  eltwise_param {
    operation: SUM
  }
}
layer {
  name: "bn_g_2_1"
  type: "BatchNorm"
  bottom: "elt_g_1"
  top: "bn_g_2_1"
  param {
    lr_mult: 0
  }
  param {
    lr_mult: 0
  }
  param {
    lr_mult: 0
  }
  batch_norm_param {
    use_global_stats: false
  }
}
layer {
  name: "sc_g_2_1"
  type: "Scale"
  bottom: "bn_g_2_1"
  top: "sc_g_2_1"
  scale_param {
    bias_term: true
  }
}
layer {
  name: "relu_g_2_1"
  type: "ReLU"
  bottom: "sc_g_2_1"
  top: "relu_g_2_1"
}
layer {
  name: "conv_g_2_1"
  type: "Convolution"
  bottom: "relu_g_2_1"
  top: "conv_g_2_1"
  param {
    lr_mult: 1
    decay_mult: 1
  }
  param {
    lr_mult: 2
    decay_mult: 1
  }
  convolution_param {
    num_output: 128
    pad: 1
    kernel_size: 3
    stride: 1
    weight_filler {
      type: "msra"
    }
    bias_filler {
      type: "constant"
    }
  }
}
layer {
  name: "bn_g_2_2"
  type: "BatchNorm"
  bottom: "conv_g_2_1"
  top: "bn_g_2_2"
  param {
    lr_mult: 0
  }
  param {
    lr_mult: 0
  }
  param {
    lr_mult: 0
  }
  batch_norm_param {
    use_global_stats: false
  }
}
layer {
  name: "sc_g_2_2"
  type: "Scale"
  bottom: "bn_g_2_2"
  top: "sc_g_2_2"
  scale_param {
    bias_term: true
  }
}
layer {
  name: "relu_g_2_2"
  type: "ReLU"
  bottom: "sc_g_2_2"
  top: "relu_g_2_2"
}
layer {
  name: "conv_g_2_2"
  type: "Convolution"
  bottom: "relu_g_2_2"
  top: "conv_g_2_2"
  param {
    lr_mult: 1
    decay_mult: 1
  }
  param {
    lr_mult: 2
    decay_mult: 1
  }
  convolution_param {
    num_output: 128
    pad: 1
    kernel_size: 3
    stride: 1
    weight_filler {
      type: "msra"
    }
    bias_filler {
      type: "constant"
    }
  }
}
layer {
  name: "elt_g_2"
  type: "Eltwise"
  bottom: "elt_g_1"
  bottom: "conv_g_2_2"
  top: "elt_g_2"
  eltwise_param {
    operation: SUM
  }
}
layer {
  name: "bn_h_1_1"
  type: "BatchNorm"
  bottom: "elt_c_2"
  top: "bn_h_1_1"
  param {
    lr_mult: 0
  }
  param {
    lr_mult: 0
  }
  param {
    lr_mult: 0
  }
  batch_norm_param {
    use_global_stats: false
  }
}
layer {
  name: "sc_h_1_1"
  type: "Scale"
  bottom: "bn_h_1_1"
  top: "sc_h_1_1"
  scale_param {
    bias_term: true
  }
}
layer {
  name: "relu_h_1_1"
  type: "ReLU"
  bottom: "sc_h_1_1"
  top: "relu_h_1_1"
}
layer {
  name: "conv_h_1_1"
  type: "Convolution"
  bottom: "relu_h_1_1"
  top: "conv_h_1_1"
  param {
    lr_mult: 1
    decay_mult: 1
  }
  param {
    lr_mult: 2
    decay_mult: 1
  }
  convolution_param {
    num_output: 128
    pad: 1
    kernel_size: 3
    stride: 2
    weight_filler {
      type: "msra"
    }
    bias_filler {
      type: "constant"
    }
  }
}
layer {
  name: "bn_h_1_2"
  type: "BatchNorm"
  bottom: "conv_h_1_1"
  top: "bn_h_1_2"
  param {
    lr_mult: 0
  }
  param {
    lr_mult: 0
  }
  param {
    lr_mult: 0
  }
  batch_norm_param {
    use_global_stats: false
  }
}
layer {
  name: "sc_h_1_2"
  type: "Scale"
  bottom: "bn_h_1_2"
  top: "sc_h_1_2"
  scale_param {
    bias_term: true
  }
}
layer {
  name: "relu_h_1_2"
  type: "ReLU"
  bottom: "sc_h_1_2"
  top: "relu_h_1_2"
}
layer {
  name: "conv_h_1_2"
  type: "Convolution"
  bottom: "relu_h_1_2"
  top: "conv_h_1_2"
  param {
    lr_mult: 1
    decay_mult: 1
  }
  param {
    lr_mult: 2
    decay_mult: 1
  }
  convolution_param {
    num_output: 128
    pad: 1
    kernel_size: 3
    stride: 1
    weight_filler {
      type: "msra"
    }
    bias_filler {
      type: "constant"
    }
  }
}
layer {
  name: "res_h"
  type: "Convolution"
  bottom: "elt_c_2"
  top: "res_h"
  param {
    lr_mult: 1
    decay_mult: 1
  }
  param {
    lr_mult: 2
    decay_mult: 1
  }
  convolution_param {
    num_output: 128
    pad: 0
    kernel_size: 1
    stride: 2
    weight_filler {
      type: "msra"
    }
    bias_filler {
      type: "constant"
    }
  }
}
layer {
  name: "elt_h_1"
  type: "Eltwise"
  bottom: "res_h"
  bottom: "conv_h_1_2"
  top: "elt_h_1"
  eltwise_param {
    operation: SUM
  }
}
layer {
  name: "bn_h_2_1"
  type: "BatchNorm"
  bottom: "elt_h_1"
  top: "bn_h_2_1"
  param {
    lr_mult: 0
  }
  param {
    lr_mult: 0
  }
  param {
    lr_mult: 0
  }
  batch_norm_param {
    use_global_stats: false
  }
}
layer {
  name: "sc_h_2_1"
  type: "Scale"
  bottom: "bn_h_2_1"
  top: "sc_h_2_1"
  scale_param {
    bias_term: true
  }
}
layer {
  name: "relu_h_2_1"
  type: "ReLU"
  bottom: "sc_h_2_1"
  top: "relu_h_2_1"
}
layer {
  name: "conv_h_2_1"
  type: "Convolution"
  bottom: "relu_h_2_1"
  top: "conv_h_2_1"
  param {
    lr_mult: 1
    decay_mult: 1
  }
  param {
    lr_mult: 2
    decay_mult: 1
  }
  convolution_param {
    num_output: 128
    pad: 1
    kernel_size: 3
    stride: 1
    weight_filler {
      type: "msra"
    }
    bias_filler {
      type: "constant"
    }
  }
}
layer {
  name: "bn_h_2_2"
  type: "BatchNorm"
  bottom: "conv_h_2_1"
  top: "bn_h_2_2"
  param {
    lr_mult: 0
  }
  param {
    lr_mult: 0
  }
  param {
    lr_mult: 0
  }
  batch_norm_param {
    use_global_stats: false
  }
}
layer {
  name: "sc_h_2_2"
  type: "Scale"
  bottom: "bn_h_2_2"
  top: "sc_h_2_2"
  scale_param {
    bias_term: true
  }
}
layer {
  name: "relu_h_2_2"
  type: "ReLU"
  bottom: "sc_h_2_2"
  top: "relu_h_2_2"
}
layer {
  name: "conv_h_2_2"
  type: "Convolution"
  bottom: "relu_h_2_2"
  top: "conv_h_2_2"
  param {
    lr_mult: 1
    decay_mult: 1
  }
  param {
    lr_mult: 2
    decay_mult: 1
  }
  convolution_param {
    num_output: 128
    pad: 1
    kernel_size: 3
    stride: 1
    weight_filler {
      type: "msra"
    }
    bias_filler {
      type: "constant"
    }
  }
}
layer {
  name: "elt_h_2"
  type: "Eltwise"
  bottom: "elt_h_1"
  bottom: "conv_h_2_2"
  top: "elt_h_2"
  eltwise_param {
    operation: SUM
  }
}
layer {
  name: "bn_i_1_1"
  type: "BatchNorm"
  bottom: "elt_c_2"
  top: "bn_i_1_1"
  param {
    lr_mult: 0
  }
  param {
    lr_mult: 0
  }
  param {
    lr_mult: 0
  }
  batch_norm_param {
    use_global_stats: false
  }
}
layer {
  name: "sc_i_1_1"
  type: "Scale"
  bottom: "bn_i_1_1"
  top: "sc_i_1_1"
  scale_param {
    bias_term: true
  }
}
layer {
  name: "relu_i_1_1"
  type: "ReLU"
  bottom: "sc_i_1_1"
  top: "relu_i_1_1"
}
layer {
  name: "conv_i_1_1"
  type: "Convolution"
  bottom: "relu_i_1_1"
  top: "conv_i_1_1"
  param {
    lr_mult: 1
    decay_mult: 1
  }
  param {
    lr_mult: 2
    decay_mult: 1
  }
  convolution_param {
    num_output: 128
    pad: 1
    kernel_size: 3
    stride: 2
    weight_filler {
      type: "msra"
    }
    bias_filler {
      type: "constant"
    }
  }
}
layer {
  name: "bn_i_1_2"
  type: "BatchNorm"
  bottom: "conv_i_1_1"
  top: "bn_i_1_2"
  param {
    lr_mult: 0
  }
  param {
    lr_mult: 0
  }
  param {
    lr_mult: 0
  }
  batch_norm_param {
    use_global_stats: false
  }
}
layer {
  name: "sc_i_1_2"
  type: "Scale"
  bottom: "bn_i_1_2"
  top: "sc_i_1_2"
  scale_param {
    bias_term: true
  }
}
layer {
  name: "relu_i_1_2"
  type: "ReLU"
  bottom: "sc_i_1_2"
  top: "relu_i_1_2"
}
layer {
  name: "conv_i_1_2"
  type: "Convolution"
  bottom: "relu_i_1_2"
  top: "conv_i_1_2"
  param {
    lr_mult: 1
    decay_mult: 1
  }
  param {
    lr_mult: 2
    decay_mult: 1
  }
  convolution_param {
    num_output: 128
    pad: 1
    kernel_size: 3
    stride: 1
    weight_filler {
      type: "msra"
    }
    bias_filler {
      type: "constant"
    }
  }
}
layer {
  name: "res_i"
  type: "Convolution"
  bottom: "elt_c_2"
  top: "res_i"
  param {
    lr_mult: 1
    decay_mult: 1
  }
  param {
    lr_mult: 2
    decay_mult: 1
  }
  convolution_param {
    num_output: 128
    pad: 0
    kernel_size: 1
    stride: 2
    weight_filler {
      type: "msra"
    }
    bias_filler {
      type: "constant"
    }
  }
}
layer {
I0623 12:43:56.521754 33602 layer_factory.hpp:77] Creating layer resnet
I0623 12:43:56.522914 33602 net.cpp:91] Creating Layer resnet
I0623 12:43:56.522948 33602 net.cpp:399] resnet -> data
I0623 12:43:56.522989 33602 net.cpp:399] resnet -> label
I0623 12:43:56.523030 33602 data_transformer.cpp:25] Loading mean file from: /home/takeki/caffe/examples/cifar10/mean.binaryproto
I0623 12:43:56.524045 33645 db_lmdb.cpp:35] Opened lmdb /home/takeki/caffe/examples/cifar10/cifar10_train_lmdb
I0623 12:43:56.534557 33602 data_layer.cpp:41] output data size: 64,3,32,32
I0623 12:43:56.536790 33602 net.cpp:141] Setting up resnet
I0623 12:43:56.536833 33602 net.cpp:148] Top shape: 64 3 32 32 (196608)
I0623 12:43:56.536841 33602 net.cpp:148] Top shape: 64 (64)
I0623 12:43:56.536846 33602 net.cpp:156] Memory required for data: 786688
I0623 12:43:56.536855 33602 layer_factory.hpp:77] Creating layer conv0
I0623 12:43:56.536890 33602 net.cpp:91] Creating Layer conv0
I0623 12:43:56.536901 33602 net.cpp:425] conv0 <- data
I0623 12:43:56.536916 33602 net.cpp:399] conv0 -> conv0
I0623 12:43:56.538080 33646 blocking_queue.cpp:50] Waiting for data
I0623 12:43:56.701092 33602 net.cpp:141] Setting up conv0
I0623 12:43:56.701144 33602 net.cpp:148] Top shape: 64 16 32 32 (1048576)
I0623 12:43:56.701151 33602 net.cpp:156] Memory required for data: 4980992
I0623 12:43:56.701175 33602 layer_factory.hpp:77] Creating layer conv0_conv0_0_split
I0623 12:43:56.701212 33602 net.cpp:91] Creating Layer conv0_conv0_0_split
I0623 12:43:56.701220 33602 net.cpp:425] conv0_conv0_0_split <- conv0
I0623 12:43:56.701230 33602 net.cpp:399] conv0_conv0_0_split -> conv0_conv0_0_split_0
I0623 12:43:56.701242 33602 net.cpp:399] conv0_conv0_0_split -> conv0_conv0_0_split_1
I0623 12:43:56.701267 33602 net.cpp:399] conv0_conv0_0_split -> conv0_conv0_0_split_2
I0623 12:43:56.701277 33602 net.cpp:399] conv0_conv0_0_split -> conv0_conv0_0_split_3
I0623 12:43:56.701308 33602 net.cpp:399] conv0_conv0_0_split -> conv0_conv0_0_split_4
I0623 12:43:56.701333 33602 net.cpp:399] conv0_conv0_0_split -> conv0_conv0_0_split_5
I0623 12:43:56.701428 33602 net.cpp:141] Setting up conv0_conv0_0_split
I0623 12:43:56.701441 33602 net.cpp:148] Top shape: 64 16 32 32 (1048576)
I0623 12:43:56.701448 33602 net.cpp:148] Top shape: 64 16 32 32 (1048576)
I0623 12:43:56.701455 33602 net.cpp:148] Top shape: 64 16 32 32 (1048576)
I0623 12:43:56.701460 33602 net.cpp:148] Top shape: 64 16 32 32 (1048576)
I0623 12:43:56.701467 33602 net.cpp:148] Top shape: 64 16 32 32 (1048576)
I0623 12:43:56.701472 33602 net.cpp:148] Top shape: 64 16 32 32 (1048576)
I0623 12:43:56.701478 33602 net.cpp:156] Memory required for data: 30146816
I0623 12:43:56.701483 33602 layer_factory.hpp:77] Creating layer bn_a_1_1
I0623 12:43:56.701496 33602 net.cpp:91] Creating Layer bn_a_1_1
I0623 12:43:56.701503 33602 net.cpp:425] bn_a_1_1 <- conv0_conv0_0_split_0
I0623 12:43:56.701511 33602 net.cpp:399] bn_a_1_1 -> bn_a_1_1
I0623 12:43:56.701725 33602 net.cpp:141] Setting up bn_a_1_1
I0623 12:43:56.701737 33602 net.cpp:148] Top shape: 64 16 32 32 (1048576)
I0623 12:43:56.701742 33602 net.cpp:156] Memory required for data: 34341120
I0623 12:43:56.701757 33602 layer_factory.hpp:77] Creating layer sc_a_1_1
I0623 12:43:56.701771 33602 net.cpp:91] Creating Layer sc_a_1_1
I0623 12:43:56.701777 33602 net.cpp:425] sc_a_1_1 <- bn_a_1_1
I0623 12:43:56.701783 33602 net.cpp:399] sc_a_1_1 -> sc_a_1_1
I0623 12:43:56.701835 33602 layer_factory.hpp:77] Creating layer sc_a_1_1
I0623 12:43:56.701956 33602 net.cpp:141] Setting up sc_a_1_1
I0623 12:43:56.701967 33602 net.cpp:148] Top shape: 64 16 32 32 (1048576)
I0623 12:43:56.701972 33602 net.cpp:156] Memory required for data: 38535424
I0623 12:43:56.701982 33602 layer_factory.hpp:77] Creating layer relu_a_1_1
I0623 12:43:56.702004 33602 net.cpp:91] Creating Layer relu_a_1_1
I0623 12:43:56.702011 33602 net.cpp:425] relu_a_1_1 <- sc_a_1_1
I0623 12:43:56.702021 33602 net.cpp:399] relu_a_1_1 -> relu_a_1_1
I0623 12:43:56.702343 33602 net.cpp:141] Setting up relu_a_1_1
I0623 12:43:56.702371 33602 net.cpp:148] Top shape: 64 16 32 32 (1048576)
I0623 12:43:56.702378 33602 net.cpp:156] Memory required for data: 42729728
I0623 12:43:56.702383 33602 layer_factory.hpp:77] Creating layer conv_a_1_1
I0623 12:43:56.702401 33602 net.cpp:91] Creating Layer conv_a_1_1
I0623 12:43:56.702409 33602 net.cpp:425] conv_a_1_1 <- relu_a_1_1
I0623 12:43:56.702430 33602 net.cpp:399] conv_a_1_1 -> conv_a_1_1
I0623 12:43:56.703982 33602 net.cpp:141] Setting up conv_a_1_1
I0623 12:43:56.703997 33602 net.cpp:148] Top shape: 64 64 32 32 (4194304)
I0623 12:43:56.704017 33602 net.cpp:156] Memory required for data: 59506944
I0623 12:43:56.704028 33602 layer_factory.hpp:77] Creating layer bn_a_1_2
I0623 12:43:56.704041 33602 net.cpp:91] Creating Layer bn_a_1_2
I0623 12:43:56.704047 33602 net.cpp:425] bn_a_1_2 <- conv_a_1_1
I0623 12:43:56.704056 33602 net.cpp:399] bn_a_1_2 -> bn_a_1_2
I0623 12:43:56.704267 33602 net.cpp:141] Setting up bn_a_1_2
I0623 12:43:56.704279 33602 net.cpp:148] Top shape: 64 64 32 32 (4194304)
I0623 12:43:56.704284 33602 net.cpp:156] Memory required for data: 76284160
I0623 12:43:56.704295 33602 layer_factory.hpp:77] Creating layer sc_a_1_2
I0623 12:43:56.704306 33602 net.cpp:91] Creating Layer sc_a_1_2
I0623 12:43:56.704313 33602 net.cpp:425] sc_a_1_2 <- bn_a_1_2
I0623 12:43:56.704320 33602 net.cpp:399] sc_a_1_2 -> sc_a_1_2
I0623 12:43:56.704365 33602 layer_factory.hpp:77] Creating layer sc_a_1_2
I0623 12:43:56.704478 33602 net.cpp:141] Setting up sc_a_1_2
I0623 12:43:56.704488 33602 net.cpp:148] Top shape: 64 64 32 32 (4194304)
I0623 12:43:56.704493 33602 net.cpp:156] Memory required for data: 93061376
I0623 12:43:56.704502 33602 layer_factory.hpp:77] Creating layer relu_a_1_2
I0623 12:43:56.704512 33602 net.cpp:91] Creating Layer relu_a_1_2
I0623 12:43:56.704519 33602 net.cpp:425] relu_a_1_2 <- sc_a_1_2
I0623 12:43:56.704526 33602 net.cpp:399] relu_a_1_2 -> relu_a_1_2
I0623 12:43:56.704812 33602 net.cpp:141] Setting up relu_a_1_2
I0623 12:43:56.704839 33602 net.cpp:148] Top shape: 64 64 32 32 (4194304)
I0623 12:43:56.704848 33602 net.cpp:156] Memory required for data: 109838592
I0623 12:43:56.704854 33602 layer_factory.hpp:77] Creating layer conv_a_1_2
I0623 12:43:56.704869 33602 net.cpp:91] Creating Layer conv_a_1_2
I0623 12:43:56.704876 33602 net.cpp:425] conv_a_1_2 <- relu_a_1_2
I0623 12:43:56.704885 33602 net.cpp:399] conv_a_1_2 -> conv_a_1_2
I0623 12:43:56.707238 33602 net.cpp:141] Setting up conv_a_1_2
I0623 12:43:56.707255 33602 net.cpp:148] Top shape: 64 64 32 32 (4194304)
I0623 12:43:56.707276 33602 net.cpp:156] Memory required for data: 126615808
I0623 12:43:56.707285 33602 layer_factory.hpp:77] Creating layer res_a
I0623 12:43:56.707301 33602 net.cpp:91] Creating Layer res_a
I0623 12:43:56.707309 33602 net.cpp:425] res_a <- conv0_conv0_0_split_1
I0623 12:43:56.707317 33602 net.cpp:399] res_a -> res_a
I0623 12:43:56.708307 33602 net.cpp:141] Setting up res_a
I0623 12:43:56.708323 33602 net.cpp:148] Top shape: 64 64 32 32 (4194304)
I0623 12:43:56.708343 33602 net.cpp:156] Memory required for data: 143393024
I0623 12:43:56.708358 33602 layer_factory.hpp:77] Creating layer elt_a_1
I0623 12:43:56.708370 33602 net.cpp:91] Creating Layer elt_a_1
I0623 12:43:56.708377 33602 net.cpp:425] elt_a_1 <- res_a
I0623 12:43:56.708384 33602 net.cpp:425] elt_a_1 <- conv_a_1_2
I0623 12:43:56.708391 33602 net.cpp:399] elt_a_1 -> elt_a_1
I0623 12:43:56.708425 33602 net.cpp:141] Setting up elt_a_1
I0623 12:43:56.708436 33602 net.cpp:148] Top shape: 64 64 32 32 (4194304)
I0623 12:43:56.708441 33602 net.cpp:156] Memory required for data: 160170240
I0623 12:43:56.708446 33602 layer_factory.hpp:77] Creating layer elt_a_1_elt_a_1_0_split
I0623 12:43:56.708456 33602 net.cpp:91] Creating Layer elt_a_1_elt_a_1_0_split
I0623 12:43:56.708462 33602 net.cpp:425] elt_a_1_elt_a_1_0_split <- elt_a_1
I0623 12:43:56.708472 33602 net.cpp:399] elt_a_1_elt_a_1_0_split -> elt_a_1_elt_a_1_0_split_0
I0623 12:43:56.708482 33602 net.cpp:399] elt_a_1_elt_a_1_0_split -> elt_a_1_elt_a_1_0_split_1
I0623 12:43:56.708520 33602 net.cpp:141] Setting up elt_a_1_elt_a_1_0_split
I0623 12:43:56.708531 33602 net.cpp:148] Top shape: 64 64 32 32 (4194304)
I0623 12:43:56.708537 33602 net.cpp:148] Top shape: 64 64 32 32 (4194304)
I0623 12:43:56.708542 33602 net.cpp:156] Memory required for data: 193724672
I0623 12:43:56.708547 33602 layer_factory.hpp:77] Creating layer bn_a_2_1
I0623 12:43:56.708557 33602 net.cpp:91] Creating Layer bn_a_2_1
I0623 12:43:56.708564 33602 net.cpp:425] bn_a_2_1 <- elt_a_1_elt_a_1_0_split_0
I0623 12:43:56.708571 33602 net.cpp:399] bn_a_2_1 -> bn_a_2_1
I0623 12:43:56.708752 33602 net.cpp:141] Setting up bn_a_2_1
I0623 12:43:56.708765 33602 net.cpp:148] Top shape: 64 64 32 32 (4194304)
I0623 12:43:56.708770 33602 net.cpp:156] Memory required for data: 210501888
I0623 12:43:56.708781 33602 layer_factory.hpp:77] Creating layer sc_a_2_1
I0623 12:43:56.708793 33602 net.cpp:91] Creating Layer sc_a_2_1
I0623 12:43:56.708801 33602 net.cpp:425] sc_a_2_1 <- bn_a_2_1
I0623 12:43:56.708807 33602 net.cpp:399] sc_a_2_1 -> sc_a_2_1
I0623 12:43:56.708854 33602 layer_factory.hpp:77] Creating layer sc_a_2_1
I0623 12:43:56.708966 33602 net.cpp:141] Setting up sc_a_2_1
I0623 12:43:56.708978 33602 net.cpp:148] Top shape: 64 64 32 32 (4194304)
I0623 12:43:56.708983 33602 net.cpp:156] Memory required for data: 227279104
I0623 12:43:56.708992 33602 layer_factory.hpp:77] Creating layer relu_a_2_1
I0623 12:43:56.709017 33602 net.cpp:91] Creating Layer relu_a_2_1
I0623 12:43:56.709023 33602 net.cpp:425] relu_a_2_1 <- sc_a_2_1
I0623 12:43:56.709030 33602 net.cpp:399] relu_a_2_1 -> relu_a_2_1
I0623 12:43:56.709228 33602 net.cpp:141] Setting up relu_a_2_1
I0623 12:43:56.709241 33602 net.cpp:148] Top shape: 64 64 32 32 (4194304)
I0623 12:43:56.709247 33602 net.cpp:156] Memory required for data: 244056320
I0623 12:43:56.709252 33602 layer_factory.hpp:77] Creating layer conv_a_2_1
I0623 12:43:56.709266 33602 net.cpp:91] Creating Layer conv_a_2_1
I0623 12:43:56.709287 33602 net.cpp:425] conv_a_2_1 <- relu_a_2_1
I0623 12:43:56.709300 33602 net.cpp:399] conv_a_2_1 -> conv_a_2_1
I0623 12:43:56.711195 33602 net.cpp:141] Setting up conv_a_2_1
I0623 12:43:56.711212 33602 net.cpp:148] Top shape: 64 64 32 32 (4194304)
I0623 12:43:56.711232 33602 net.cpp:156] Memory required for data: 260833536
I0623 12:43:56.711241 33602 layer_factory.hpp:77] Creating layer bn_a_2_2
I0623 12:43:56.711251 33602 net.cpp:91] Creating Layer bn_a_2_2
I0623 12:43:56.711257 33602 net.cpp:425] bn_a_2_2 <- conv_a_2_1
I0623 12:43:56.711267 33602 net.cpp:399] bn_a_2_2 -> bn_a_2_2
I0623 12:43:56.711482 33602 net.cpp:141] Setting up bn_a_2_2
I0623 12:43:56.711494 33602 net.cpp:148] Top shape: 64 64 32 32 (4194304)
I0623 12:43:56.711499 33602 net.cpp:156] Memory required for data: 277610752
I0623 12:43:56.711508 33602 layer_factory.hpp:77] Creating layer sc_a_2_2
I0623 12:43:56.711521 33602 net.cpp:91] Creating Layer sc_a_2_2
I0623 12:43:56.711529 33602 net.cpp:425] sc_a_2_2 <- bn_a_2_2
I0623 12:43:56.711535 33602 net.cpp:399] sc_a_2_2 -> sc_a_2_2
I0623 12:43:56.711580 33602 layer_factory.hpp:77] Creating layer sc_a_2_2
I0623 12:43:56.711694 33602 net.cpp:141] Setting up sc_a_2_2
I0623 12:43:56.711705 33602 net.cpp:148] Top shape: 64 64 32 32 (4194304)
I0623 12:43:56.711710 33602 net.cpp:156] Memory required for data: 294387968
I0623 12:43:56.711719 33602 layer_factory.hpp:77] Creating layer relu_a_2_2
I0623 12:43:56.711742 33602 net.cpp:91] Creating Layer relu_a_2_2
I0623 12:43:56.711750 33602 net.cpp:425] relu_a_2_2 <- sc_a_2_2
I0623 12:43:56.711756 33602 net.cpp:399] relu_a_2_2 -> relu_a_2_2
I0623 12:43:56.711956 33602 net.cpp:141] Setting up relu_a_2_2
I0623 12:43:56.711971 33602 net.cpp:148] Top shape: 64 64 32 32 (4194304)
I0623 12:43:56.711977 33602 net.cpp:156] Memory required for data: 311165184
I0623 12:43:56.711982 33602 layer_factory.hpp:77] Creating layer conv_a_2_2
I0623 12:43:56.711995 33602 net.cpp:91] Creating Layer conv_a_2_2
I0623 12:43:56.712003 33602 net.cpp:425] conv_a_2_2 <- relu_a_2_2
I0623 12:43:56.712014 33602 net.cpp:399] conv_a_2_2 -> conv_a_2_2
I0623 12:43:56.713904 33602 net.cpp:141] Setting up conv_a_2_2
I0623 12:43:56.713919 33602 net.cpp:148] Top shape: 64 64 32 32 (4194304)
I0623 12:43:56.713938 33602 net.cpp:156] Memory required for data: 327942400
I0623 12:43:56.713948 33602 layer_factory.hpp:77] Creating layer elt_a_2
I0623 12:43:56.713958 33602 net.cpp:91] Creating Layer elt_a_2
I0623 12:43:56.713965 33602 net.cpp:425] elt_a_2 <- elt_a_1_elt_a_1_0_split_1
I0623 12:43:56.713971 33602 net.cpp:425] elt_a_2 <- conv_a_2_2
I0623 12:43:56.713978 33602 net.cpp:399] elt_a_2 -> elt_a_2
I0623 12:43:56.714006 33602 net.cpp:141] Setting up elt_a_2
I0623 12:43:56.714017 33602 net.cpp:148] Top shape: 64 64 32 32 (4194304)
I0623 12:43:56.714021 33602 net.cpp:156] Memory required for data: 344719616
I0623 12:43:56.714026 33602 layer_factory.hpp:77] Creating layer elt_a_2_elt_a_2_0_split
I0623 12:43:56.714038 33602 net.cpp:91] Creating Layer elt_a_2_elt_a_2_0_split
I0623 12:43:56.714046 33602 net.cpp:425] elt_a_2_elt_a_2_0_split <- elt_a_2
I0623 12:43:56.714054 33602 net.cpp:399] elt_a_2_elt_a_2_0_split -> elt_a_2_elt_a_2_0_split_0
I0623 12:43:56.714063 33602 net.cpp:399] elt_a_2_elt_a_2_0_split -> elt_a_2_elt_a_2_0_split_1
I0623 12:43:56.714072 33602 net.cpp:399] elt_a_2_elt_a_2_0_split -> elt_a_2_elt_a_2_0_split_2
I0623 12:43:56.714083 33602 net.cpp:399] elt_a_2_elt_a_2_0_split -> elt_a_2_elt_a_2_0_split_3
I0623 12:43:56.714143 33602 net.cpp:141] Setting up elt_a_2_elt_a_2_0_split
I0623 12:43:56.714154 33602 net.cpp:148] Top shape: 64 64 32 32 (4194304)
I0623 12:43:56.714159 33602 net.cpp:148] Top shape: 64 64 32 32 (4194304)
I0623 12:43:56.714165 33602 net.cpp:148] Top shape: 64 64 32 32 (4194304)
I0623 12:43:56.714171 33602 net.cpp:148] Top shape: 64 64 32 32 (4194304)
I0623 12:43:56.714176 33602 net.cpp:156] Memory required for data: 411828480
I0623 12:43:56.714180 33602 layer_factory.hpp:77] Creating layer bn_b_1_1
I0623 12:43:56.714190 33602 net.cpp:91] Creating Layer bn_b_1_1
I0623 12:43:56.714223 33602 net.cpp:425] bn_b_1_1 <- conv0_conv0_0_split_2
I0623 12:43:56.714233 33602 net.cpp:399] bn_b_1_1 -> bn_b_1_1
I0623 12:43:56.714454 33602 net.cpp:141] Setting up bn_b_1_1
I0623 12:43:56.714467 33602 net.cpp:148] Top shape: 64 16 32 32 (1048576)
I0623 12:43:56.714473 33602 net.cpp:156] Memory required for data: 416022784
I0623 12:43:56.714486 33602 layer_factory.hpp:77] Creating layer sc_b_1_1
I0623 12:43:56.714496 33602 net.cpp:91] Creating Layer sc_b_1_1
I0623 12:43:56.714504 33602 net.cpp:425] sc_b_1_1 <- bn_b_1_1
I0623 12:43:56.714514 33602 net.cpp:399] sc_b_1_1 -> sc_b_1_1
I0623 12:43:56.714573 33602 layer_factory.hpp:77] Creating layer sc_b_1_1
I0623 12:43:56.714706 33602 net.cpp:141] Setting up sc_b_1_1
I0623 12:43:56.714720 33602 net.cpp:148] Top shape: 64 16 32 32 (1048576)
I0623 12:43:56.714725 33602 net.cpp:156] Memory required for data: 420217088
I0623 12:43:56.714745 33602 layer_factory.hpp:77] Creating layer relu_b_1_1
I0623 12:43:56.714754 33602 net.cpp:91] Creating Layer relu_b_1_1
I0623 12:43:56.714761 33602 net.cpp:425] relu_b_1_1 <- sc_b_1_1
I0623 12:43:56.714766 33602 net.cpp:399] relu_b_1_1 -> relu_b_1_1
I0623 12:43:56.715133 33602 net.cpp:141] Setting up relu_b_1_1
I0623 12:43:56.715149 33602 net.cpp:148] Top shape: 64 16 32 32 (1048576)
I0623 12:43:56.715157 33602 net.cpp:156] Memory required for data: 424411392
I0623 12:43:56.715162 33602 layer_factory.hpp:77] Creating layer conv_b_1_1
I0623 12:43:56.715175 33602 net.cpp:91] Creating Layer conv_b_1_1
I0623 12:43:56.715183 33602 net.cpp:425] conv_b_1_1 <- relu_b_1_1
I0623 12:43:56.715194 33602 net.cpp:399] conv_b_1_1 -> conv_b_1_1
I0623 12:43:56.716508 33602 net.cpp:141] Setting up conv_b_1_1
I0623 12:43:56.716524 33602 net.cpp:148] Top shape: 64 64 32 32 (4194304)
I0623 12:43:56.716544 33602 net.cpp:156] Memory required for data: 441188608
I0623 12:43:56.716553 33602 layer_factory.hpp:77] Creating layer bn_b_1_2
I0623 12:43:56.716567 33602 net.cpp:91] Creating Layer bn_b_1_2
I0623 12:43:56.716573 33602 net.cpp:425] bn_b_1_2 <- conv_b_1_1
I0623 12:43:56.716583 33602 net.cpp:399] bn_b_1_2 -> bn_b_1_2
I0623 12:43:56.716814 33602 net.cpp:141] Setting up bn_b_1_2
I0623 12:43:56.716825 33602 net.cpp:148] Top shape: 64 64 32 32 (4194304)
I0623 12:43:56.716830 33602 net.cpp:156] Memory required for data: 457965824
I0623 12:43:56.716840 33602 layer_factory.hpp:77] Creating layer sc_b_1_2
I0623 12:43:56.716850 33602 net.cpp:91] Creating Layer sc_b_1_2
I0623 12:43:56.716856 33602 net.cpp:425] sc_b_1_2 <- bn_b_1_2
I0623 12:43:56.716863 33602 net.cpp:399] sc_b_1_2 -> sc_b_1_2
I0623 12:43:56.716913 33602 layer_factory.hpp:77] Creating layer sc_b_1_2
I0623 12:43:56.717028 33602 net.cpp:141] Setting up sc_b_1_2
I0623 12:43:56.717039 33602 net.cpp:148] Top shape: 64 64 32 32 (4194304)
I0623 12:43:56.717044 33602 net.cpp:156] Memory required for data: 474743040
I0623 12:43:56.717052 33602 layer_factory.hpp:77] Creating layer relu_b_1_2
I0623 12:43:56.717063 33602 net.cpp:91] Creating Layer relu_b_1_2
I0623 12:43:56.717070 33602 net.cpp:425] relu_b_1_2 <- sc_b_1_2
I0623 12:43:56.717078 33602 net.cpp:399] relu_b_1_2 -> relu_b_1_2
I0623 12:43:56.717267 33602 net.cpp:141] Setting up relu_b_1_2
I0623 12:43:56.717280 33602 net.cpp:148] Top shape: 64 64 32 32 (4194304)
I0623 12:43:56.717285 33602 net.cpp:156] Memory required for data: 491520256
I0623 12:43:56.717291 33602 layer_factory.hpp:77] Creating layer conv_b_1_2
I0623 12:43:56.717304 33602 net.cpp:91] Creating Layer conv_b_1_2
I0623 12:43:56.717311 33602 net.cpp:425] conv_b_1_2 <- relu_b_1_2
I0623 12:43:56.717322 33602 net.cpp:399] conv_b_1_2 -> conv_b_1_2
I0623 12:43:56.719295 33602 net.cpp:141] Setting up conv_b_1_2
I0623 12:43:56.719310 33602 net.cpp:148] Top shape: 64 64 32 32 (4194304)
I0623 12:43:56.719329 33602 net.cpp:156] Memory required for data: 508297472
I0623 12:43:56.719338 33602 layer_factory.hpp:77] Creating layer res_b
I0623 12:43:56.719358 33602 net.cpp:91] Creating Layer res_b
I0623 12:43:56.719367 33602 net.cpp:425] res_b <- conv0_conv0_0_split_3
I0623 12:43:56.719388 33602 net.cpp:399] res_b -> res_b
I0623 12:43:56.720391 33602 net.cpp:141] Setting up res_b
I0623 12:43:56.720407 33602 net.cpp:148] Top shape: 64 64 32 32 (4194304)
I0623 12:43:56.720412 33602 net.cpp:156] Memory required for data: 525074688
I0623 12:43:56.720419 33602 layer_factory.hpp:77] Creating layer elt_b_1
I0623 12:43:56.720427 33602 net.cpp:91] Creating Layer elt_b_1
I0623 12:43:56.720448 33602 net.cpp:425] elt_b_1 <- res_b
I0623 12:43:56.720453 33602 net.cpp:425] elt_b_1 <- conv_b_1_2
I0623 12:43:56.720460 33602 net.cpp:399] elt_b_1 -> elt_b_1
I0623 12:43:56.720489 33602 net.cpp:141] Setting up elt_b_1
I0623 12:43:56.720499 33602 net.cpp:148] Top shape: 64 64 32 32 (4194304)
I0623 12:43:56.720504 33602 net.cpp:156] Memory required for data: 541851904
I0623 12:43:56.720510 33602 layer_factory.hpp:77] Creating layer elt_b_1_elt_b_1_0_split
I0623 12:43:56.720518 33602 net.cpp:91] Creating Layer elt_b_1_elt_b_1_0_split
I0623 12:43:56.720525 33602 net.cpp:425] elt_b_1_elt_b_1_0_split <- elt_b_1
I0623 12:43:56.720533 33602 net.cpp:399] elt_b_1_elt_b_1_0_split -> elt_b_1_elt_b_1_0_split_0
I0623 12:43:56.720543 33602 net.cpp:399] elt_b_1_elt_b_1_0_split -> elt_b_1_elt_b_1_0_split_1
I0623 12:43:56.720582 33602 net.cpp:141] Setting up elt_b_1_elt_b_1_0_split
I0623 12:43:56.720592 33602 net.cpp:148] Top shape: 64 64 32 32 (4194304)
I0623 12:43:56.720597 33602 net.cpp:148] Top shape: 64 64 32 32 (4194304)
I0623 12:43:56.720602 33602 net.cpp:156] Memory required for data: 575406336
I0623 12:43:56.720607 33602 layer_factory.hpp:77] Creating layer bn_b_2_1
I0623 12:43:56.720616 33602 net.cpp:91] Creating Layer bn_b_2_1
I0623 12:43:56.720623 33602 net.cpp:425] bn_b_2_1 <- elt_b_1_elt_b_1_0_split_0
I0623 12:43:56.720629 33602 net.cpp:399] bn_b_2_1 -> bn_b_2_1
I0623 12:43:56.720811 33602 net.cpp:141] Setting up bn_b_2_1
I0623 12:43:56.720823 33602 net.cpp:148] Top shape: 64 64 32 32 (4194304)
I0623 12:43:56.720829 33602 net.cpp:156] Memory required for data: 592183552
I0623 12:43:56.720839 33602 layer_factory.hpp:77] Creating layer sc_b_2_1
I0623 12:43:56.720849 33602 net.cpp:91] Creating Layer sc_b_2_1
I0623 12:43:56.720856 33602 net.cpp:425] sc_b_2_1 <- bn_b_2_1
I0623 12:43:56.720863 33602 net.cpp:399] sc_b_2_1 -> sc_b_2_1
I0623 12:43:56.720924 33602 layer_factory.hpp:77] Creating layer sc_b_2_1
I0623 12:43:56.721055 33602 net.cpp:141] Setting up sc_b_2_1
I0623 12:43:56.721067 33602 net.cpp:148] Top shape: 64 64 32 32 (4194304)
I0623 12:43:56.721072 33602 net.cpp:156] Memory required for data: 608960768
I0623 12:43:56.721081 33602 layer_factory.hpp:77] Creating layer relu_b_2_1
I0623 12:43:56.721089 33602 net.cpp:91] Creating Layer relu_b_2_1
I0623 12:43:56.721096 33602 net.cpp:425] relu_b_2_1 <- sc_b_2_1
I0623 12:43:56.721106 33602 net.cpp:399] relu_b_2_1 -> relu_b_2_1
I0623 12:43:56.721323 33602 net.cpp:141] Setting up relu_b_2_1
I0623 12:43:56.721335 33602 net.cpp:148] Top shape: 64 64 32 32 (4194304)
I0623 12:43:56.721340 33602 net.cpp:156] Memory required for data: 625737984
I0623 12:43:56.721345 33602 layer_factory.hpp:77] Creating layer conv_b_2_1
I0623 12:43:56.721359 33602 net.cpp:91] Creating Layer conv_b_2_1
I0623 12:43:56.721365 33602 net.cpp:425] conv_b_2_1 <- relu_b_2_1
I0623 12:43:56.721375 33602 net.cpp:399] conv_b_2_1 -> conv_b_2_1
I0623 12:43:56.723276 33602 net.cpp:141] Setting up conv_b_2_1
I0623 12:43:56.723291 33602 net.cpp:148] Top shape: 64 64 32 32 (4194304)
I0623 12:43:56.723296 33602 net.cpp:156] Memory required for data: 642515200
I0623 12:43:56.723318 33602 layer_factory.hpp:77] Creating layer bn_b_2_2
I0623 12:43:56.723330 33602 net.cpp:91] Creating Layer bn_b_2_2
I0623 12:43:56.723337 33602 net.cpp:425] bn_b_2_2 <- conv_b_2_1
I0623 12:43:56.723346 33602 net.cpp:399] bn_b_2_2 -> bn_b_2_2
I0623 12:43:56.723554 33602 net.cpp:141] Setting up bn_b_2_2
I0623 12:43:56.723567 33602 net.cpp:148] Top shape: 64 64 32 32 (4194304)
I0623 12:43:56.723572 33602 net.cpp:156] Memory required for data: 659292416
I0623 12:43:56.723582 33602 layer_factory.hpp:77] Creating layer sc_b_2_2
I0623 12:43:56.723592 33602 net.cpp:91] Creating Layer sc_b_2_2
I0623 12:43:56.723613 33602 net.cpp:425] sc_b_2_2 <- bn_b_2_2
I0623 12:43:56.723621 33602 net.cpp:399] sc_b_2_2 -> sc_b_2_2
I0623 12:43:56.723669 33602 layer_factory.hpp:77] Creating layer sc_b_2_2
I0623 12:43:56.723805 33602 net.cpp:141] Setting up sc_b_2_2
I0623 12:43:56.723817 33602 net.cpp:148] Top shape: 64 64 32 32 (4194304)
I0623 12:43:56.723824 33602 net.cpp:156] Memory required for data: 676069632
I0623 12:43:56.723831 33602 layer_factory.hpp:77] Creating layer relu_b_2_2
I0623 12:43:56.723840 33602 net.cpp:91] Creating Layer relu_b_2_2
I0623 12:43:56.723847 33602 net.cpp:425] relu_b_2_2 <- sc_b_2_2
I0623 12:43:56.723870 33602 net.cpp:399] relu_b_2_2 -> relu_b_2_2
I0623 12:43:56.724185 33602 net.cpp:141] Setting up relu_b_2_2
I0623 12:43:56.724202 33602 net.cpp:148] Top shape: 64 64 32 32 (4194304)
I0623 12:43:56.724210 33602 net.cpp:156] Memory required for data: 692846848
I0623 12:43:56.724215 33602 layer_factory.hpp:77] Creating layer conv_b_2_2
I0623 12:43:56.724230 33602 net.cpp:91] Creating Layer conv_b_2_2
I0623 12:43:56.724237 33602 net.cpp:425] conv_b_2_2 <- relu_b_2_2
I0623 12:43:56.724246 33602 net.cpp:399] conv_b_2_2 -> conv_b_2_2
I0623 12:43:56.726075 33602 net.cpp:141] Setting up conv_b_2_2
I0623 12:43:56.726090 33602 net.cpp:148] Top shape: 64 64 32 32 (4194304)
I0623 12:43:56.726109 33602 net.cpp:156] Memory required for data: 709624064
I0623 12:43:56.726119 33602 layer_factory.hpp:77] Creating layer elt_b_2
I0623 12:43:56.726130 33602 net.cpp:91] Creating Layer elt_b_2
I0623 12:43:56.726136 33602 net.cpp:425] elt_b_2 <- elt_b_1_elt_b_1_0_split_1
I0623 12:43:56.726142 33602 net.cpp:425] elt_b_2 <- conv_b_2_2
I0623 12:43:56.726150 33602 net.cpp:399] elt_b_2 -> elt_b_2
I0623 12:43:56.726181 33602 net.cpp:141] Setting up elt_b_2
I0623 12:43:56.726192 33602 net.cpp:148] Top shape: 64 64 32 32 (4194304)
I0623 12:43:56.726197 33602 net.cpp:156] Memory required for data: 726401280
I0623 12:43:56.726202 33602 layer_factory.hpp:77] Creating layer elt_b_2_elt_b_2_0_split
I0623 12:43:56.726209 33602 net.cpp:91] Creating Layer elt_b_2_elt_b_2_0_split
I0623 12:43:56.726215 33602 net.cpp:425] elt_b_2_elt_b_2_0_split <- elt_b_2
I0623 12:43:56.726238 33602 net.cpp:399] elt_b_2_elt_b_2_0_split -> elt_b_2_elt_b_2_0_split_0
I0623 12:43:56.726248 33602 net.cpp:399] elt_b_2_elt_b_2_0_split -> elt_b_2_elt_b_2_0_split_1
I0623 12:43:56.726258 33602 net.cpp:399] elt_b_2_elt_b_2_0_split -> elt_b_2_elt_b_2_0_split_2
I0623 12:43:56.726267 33602 net.cpp:399] elt_b_2_elt_b_2_0_split -> elt_b_2_elt_b_2_0_split_3
I0623 12:43:56.726344 33602 net.cpp:141] Setting up elt_b_2_elt_b_2_0_split
I0623 12:43:56.726356 33602 net.cpp:148] Top shape: 64 64 32 32 (4194304)
I0623 12:43:56.726362 33602 net.cpp:148] Top shape: 64 64 32 32 (4194304)
I0623 12:43:56.726368 33602 net.cpp:148] Top shape: 64 64 32 32 (4194304)
I0623 12:43:56.726373 33602 net.cpp:148] Top shape: 64 64 32 32 (4194304)
I0623 12:43:56.726378 33602 net.cpp:156] Memory required for data: 793510144
I0623 12:43:56.726383 33602 layer_factory.hpp:77] Creating layer bn_c_1_1
I0623 12:43:56.726392 33602 net.cpp:91] Creating Layer bn_c_1_1
I0623 12:43:56.726397 33602 net.cpp:425] bn_c_1_1 <- conv0_conv0_0_split_4
I0623 12:43:56.726408 33602 net.cpp:399] bn_c_1_1 -> bn_c_1_1
I0623 12:43:56.726604 33602 net.cpp:141] Setting up bn_c_1_1
I0623 12:43:56.726616 33602 net.cpp:148] Top shape: 64 16 32 32 (1048576)
I0623 12:43:56.726621 33602 net.cpp:156] Memory required for data: 797704448
I0623 12:43:56.726640 33602 layer_factory.hpp:77] Creating layer sc_c_1_1
I0623 12:43:56.726652 33602 net.cpp:91] Creating Layer sc_c_1_1
I0623 12:43:56.726660 33602 net.cpp:425] sc_c_1_1 <- bn_c_1_1
I0623 12:43:56.726670 33602 net.cpp:399] sc_c_1_1 -> sc_c_1_1
I0623 12:43:56.726739 33602 layer_factory.hpp:77] Creating layer sc_c_1_1
I0623 12:43:56.726873 33602 net.cpp:141] Setting up sc_c_1_1
I0623 12:43:56.726886 33602 net.cpp:148] Top shape: 64 16 32 32 (1048576)
I0623 12:43:56.726891 33602 net.cpp:156] Memory required for data: 801898752
I0623 12:43:56.726899 33602 layer_factory.hpp:77] Creating layer relu_c_1_1
I0623 12:43:56.726939 33602 net.cpp:91] Creating Layer relu_c_1_1
I0623 12:43:56.726948 33602 net.cpp:425] relu_c_1_1 <- sc_c_1_1
I0623 12:43:56.726955 33602 net.cpp:399] relu_c_1_1 -> relu_c_1_1
I0623 12:43:56.727258 33602 net.cpp:141] Setting up relu_c_1_1
I0623 12:43:56.727274 33602 net.cpp:148] Top shape: 64 16 32 32 (1048576)
I0623 12:43:56.727279 33602 net.cpp:156] Memory required for data: 806093056
I0623 12:43:56.727285 33602 layer_factory.hpp:77] Creating layer conv_c_1_1
I0623 12:43:56.727301 33602 net.cpp:91] Creating Layer conv_c_1_1
I0623 12:43:56.727309 33602 net.cpp:425] conv_c_1_1 <- relu_c_1_1
I0623 12:43:56.727321 33602 net.cpp:399] conv_c_1_1 -> conv_c_1_1
I0623 12:43:56.728544 33602 net.cpp:141] Setting up conv_c_1_1
I0623 12:43:56.728559 33602 net.cpp:148] Top shape: 64 64 32 32 (4194304)
I0623 12:43:56.728579 33602 net.cpp:156] Memory required for data: 822870272
I0623 12:43:56.728588 33602 layer_factory.hpp:77] Creating layer bn_c_1_2
I0623 12:43:56.728597 33602 net.cpp:91] Creating Layer bn_c_1_2
I0623 12:43:56.728605 33602 net.cpp:425] bn_c_1_2 <- conv_c_1_1
I0623 12:43:56.728615 33602 net.cpp:399] bn_c_1_2 -> bn_c_1_2
I0623 12:43:56.728829 33602 net.cpp:141] Setting up bn_c_1_2
I0623 12:43:56.728842 33602 net.cpp:148] Top shape: 64 64 32 32 (4194304)
I0623 12:43:56.728847 33602 net.cpp:156] Memory required for data: 839647488
I0623 12:43:56.728857 33602 layer_factory.hpp:77] Creating layer sc_c_1_2
I0623 12:43:56.728868 33602 net.cpp:91] Creating Layer sc_c_1_2
I0623 12:43:56.728875 33602 net.cpp:425] sc_c_1_2 <- bn_c_1_2
I0623 12:43:56.728883 33602 net.cpp:399] sc_c_1_2 -> sc_c_1_2
I0623 12:43:56.728936 33602 layer_factory.hpp:77] Creating layer sc_c_1_2
I0623 12:43:56.729053 33602 net.cpp:141] Setting up sc_c_1_2
I0623 12:43:56.729068 33602 net.cpp:148] Top shape: 64 64 32 32 (4194304)
I0623 12:43:56.729074 33602 net.cpp:156] Memory required for data: 856424704
I0623 12:43:56.729081 33602 layer_factory.hpp:77] Creating layer relu_c_1_2
I0623 12:43:56.729090 33602 net.cpp:91] Creating Layer relu_c_1_2
I0623 12:43:56.729096 33602 net.cpp:425] relu_c_1_2 <- sc_c_1_2
I0623 12:43:56.729104 33602 net.cpp:399] relu_c_1_2 -> relu_c_1_2
I0623 12:43:56.729295 33602 net.cpp:141] Setting up relu_c_1_2
I0623 12:43:56.729308 33602 net.cpp:148] Top shape: 64 64 32 32 (4194304)
I0623 12:43:56.729313 33602 net.cpp:156] Memory required for data: 873201920
I0623 12:43:56.729318 33602 layer_factory.hpp:77] Creating layer conv_c_1_2
I0623 12:43:56.729332 33602 net.cpp:91] Creating Layer conv_c_1_2
I0623 12:43:56.729339 33602 net.cpp:425] conv_c_1_2 <- relu_c_1_2
I0623 12:43:56.729351 33602 net.cpp:399] conv_c_1_2 -> conv_c_1_2
I0623 12:43:56.731317 33602 net.cpp:141] Setting up conv_c_1_2
I0623 12:43:56.731333 33602 net.cpp:148] Top shape: 64 64 32 32 (4194304)
I0623 12:43:56.731351 33602 net.cpp:156] Memory required for data: 889979136
I0623 12:43:56.731361 33602 layer_factory.hpp:77] Creating layer res_c
I0623 12:43:56.731379 33602 net.cpp:91] Creating Layer res_c
I0623 12:43:56.731387 33602 net.cpp:425] res_c <- conv0_conv0_0_split_5
I0623 12:43:56.731396 33602 net.cpp:399] res_c -> res_c
I0623 12:43:56.732470 33602 net.cpp:141] Setting up res_c
I0623 12:43:56.732484 33602 net.cpp:148] Top shape: 64 64 32 32 (4194304)
I0623 12:43:56.732489 33602 net.cpp:156] Memory required for data: 906756352
I0623 12:43:56.732498 33602 layer_factory.hpp:77] Creating layer elt_c_1
I0623 12:43:56.732506 33602 net.cpp:91] Creating Layer elt_c_1
I0623 12:43:56.732524 33602 net.cpp:425] elt_c_1 <- res_c
I0623 12:43:56.732530 33602 net.cpp:425] elt_c_1 <- conv_c_1_2
I0623 12:43:56.732537 33602 net.cpp:399] elt_c_1 -> elt_c_1
I0623 12:43:56.732570 33602 net.cpp:141] Setting up elt_c_1
I0623 12:43:56.732583 33602 net.cpp:148] Top shape: 64 64 32 32 (4194304)
I0623 12:43:56.732589 33602 net.cpp:156] Memory required for data: 923533568
I0623 12:43:56.732594 33602 layer_factory.hpp:77] Creating layer elt_c_1_elt_c_1_0_split
I0623 12:43:56.732600 33602 net.cpp:91] Creating Layer elt_c_1_elt_c_1_0_split
I0623 12:43:56.732620 33602 net.cpp:425] elt_c_1_elt_c_1_0_split <- elt_c_1
I0623 12:43:56.732627 33602 net.cpp:399] elt_c_1_elt_c_1_0_split -> elt_c_1_elt_c_1_0_split_0
I0623 12:43:56.732636 33602 net.cpp:399] elt_c_1_elt_c_1_0_split -> elt_c_1_elt_c_1_0_split_1
I0623 12:43:56.732681 33602 net.cpp:141] Setting up elt_c_1_elt_c_1_0_split
I0623 12:43:56.732692 33602 net.cpp:148] Top shape: 64 64 32 32 (4194304)
I0623 12:43:56.732698 33602 net.cpp:148] Top shape: 64 64 32 32 (4194304)
I0623 12:43:56.732702 33602 net.cpp:156] Memory required for data: 957088000
I0623 12:43:56.732707 33602 layer_factory.hpp:77] Creating layer bn_c_2_1
I0623 12:43:56.732717 33602 net.cpp:91] Creating Layer bn_c_2_1
I0623 12:43:56.732723 33602 net.cpp:425] bn_c_2_1 <- elt_c_1_elt_c_1_0_split_0
I0623 12:43:56.732731 33602 net.cpp:399] bn_c_2_1 -> bn_c_2_1
I0623 12:43:56.732923 33602 net.cpp:141] Setting up bn_c_2_1
I0623 12:43:56.732934 33602 net.cpp:148] Top shape: 64 64 32 32 (4194304)
I0623 12:43:56.732940 33602 net.cpp:156] Memory required for data: 973865216
I0623 12:43:56.732949 33602 layer_factory.hpp:77] Creating layer sc_c_2_1
I0623 12:43:56.732959 33602 net.cpp:91] Creating Layer sc_c_2_1
I0623 12:43:56.732965 33602 net.cpp:425] sc_c_2_1 <- bn_c_2_1
I0623 12:43:56.732972 33602 net.cpp:399] sc_c_2_1 -> sc_c_2_1
I0623 12:43:56.733033 33602 layer_factory.hpp:77] Creating layer sc_c_2_1
I0623 12:43:56.733170 33602 net.cpp:141] Setting up sc_c_2_1
I0623 12:43:56.733182 33602 net.cpp:148] Top shape: 64 64 32 32 (4194304)
I0623 12:43:56.733187 33602 net.cpp:156] Memory required for data: 990642432
I0623 12:43:56.733196 33602 layer_factory.hpp:77] Creating layer relu_c_2_1
I0623 12:43:56.733204 33602 net.cpp:91] Creating Layer relu_c_2_1
I0623 12:43:56.733211 33602 net.cpp:425] relu_c_2_1 <- sc_c_2_1
I0623 12:43:56.733219 33602 net.cpp:399] relu_c_2_1 -> relu_c_2_1
I0623 12:43:56.733419 33602 net.cpp:141] Setting up relu_c_2_1
I0623 12:43:56.733435 33602 net.cpp:148] Top shape: 64 64 32 32 (4194304)
I0623 12:43:56.733441 33602 net.cpp:156] Memory required for data: 1007419648
I0623 12:43:56.733448 33602 layer_factory.hpp:77] Creating layer conv_c_2_1
I0623 12:43:56.733460 33602 net.cpp:91] Creating Layer conv_c_2_1
I0623 12:43:56.733469 33602 net.cpp:425] conv_c_2_1 <- relu_c_2_1
I0623 12:43:56.733477 33602 net.cpp:399] conv_c_2_1 -> conv_c_2_1
I0623 12:43:56.735894 33602 net.cpp:141] Setting up conv_c_2_1
I0623 12:43:56.735911 33602 net.cpp:148] Top shape: 64 64 32 32 (4194304)
I0623 12:43:56.735931 33602 net.cpp:156] Memory required for data: 1024196864
I0623 12:43:56.735940 33602 layer_factory.hpp:77] Creating layer bn_c_2_2
I0623 12:43:56.735954 33602 net.cpp:91] Creating Layer bn_c_2_2
I0623 12:43:56.735960 33602 net.cpp:425] bn_c_2_2 <- conv_c_2_1
I0623 12:43:56.735968 33602 net.cpp:399] bn_c_2_2 -> bn_c_2_2
I0623 12:43:56.736183 33602 net.cpp:141] Setting up bn_c_2_2
I0623 12:43:56.736196 33602 net.cpp:148] Top shape: 64 64 32 32 (4194304)
I0623 12:43:56.736201 33602 net.cpp:156] Memory required for data: 1040974080
I0623 12:43:56.736210 33602 layer_factory.hpp:77] Creating layer sc_c_2_2
I0623 12:43:56.736219 33602 net.cpp:91] Creating Layer sc_c_2_2
I0623 12:43:56.736227 33602 net.cpp:425] sc_c_2_2 <- bn_c_2_2
I0623 12:43:56.736237 33602 net.cpp:399] sc_c_2_2 -> sc_c_2_2
I0623 12:43:56.736287 33602 layer_factory.hpp:77] Creating layer sc_c_2_2
I0623 12:43:56.736413 33602 net.cpp:141] Setting up sc_c_2_2
I0623 12:43:56.736424 33602 net.cpp:148] Top shape: 64 64 32 32 (4194304)
I0623 12:43:56.736429 33602 net.cpp:156] Memory required for data: 1057751296
I0623 12:43:56.736438 33602 layer_factory.hpp:77] Creating layer relu_c_2_2
I0623 12:43:56.736446 33602 net.cpp:91] Creating Layer relu_c_2_2
I0623 12:43:56.736454 33602 net.cpp:425] relu_c_2_2 <- sc_c_2_2
I0623 12:43:56.736460 33602 net.cpp:399] relu_c_2_2 -> relu_c_2_2
I0623 12:43:56.736765 33602 net.cpp:141] Setting up relu_c_2_2
I0623 12:43:56.736780 33602 net.cpp:148] Top shape: 64 64 32 32 (4194304)
I0623 12:43:56.736788 33602 net.cpp:156] Memory required for data: 1074528512
I0623 12:43:56.736807 33602 layer_factory.hpp:77] Creating layer conv_c_2_2
I0623 12:43:56.736822 33602 net.cpp:91] Creating Layer conv_c_2_2
I0623 12:43:56.736830 33602 net.cpp:425] conv_c_2_2 <- relu_c_2_2
I0623 12:43:56.736841 33602 net.cpp:399] conv_c_2_2 -> conv_c_2_2
I0623 12:43:56.738834 33602 net.cpp:141] Setting up conv_c_2_2
I0623 12:43:56.738850 33602 net.cpp:148] Top shape: 64 64 32 32 (4194304)
I0623 12:43:56.738870 33602 net.cpp:156] Memory required for data: 1091305728
I0623 12:43:56.738879 33602 layer_factory.hpp:77] Creating layer elt_c_2
I0623 12:43:56.738895 33602 net.cpp:91] Creating Layer elt_c_2
I0623 12:43:56.738903 33602 net.cpp:425] elt_c_2 <- elt_c_1_elt_c_1_0_split_1
I0623 12:43:56.738909 33602 net.cpp:425] elt_c_2 <- conv_c_2_2
I0623 12:43:56.738917 33602 net.cpp:399] elt_c_2 -> elt_c_2
I0623 12:43:56.738952 33602 net.cpp:141] Setting up elt_c_2
I0623 12:43:56.738963 33602 net.cpp:148] Top shape: 64 64 32 32 (4194304)
I0623 12:43:56.738968 33602 net.cpp:156] Memory required for data: 1108082944
I0623 12:43:56.738973 33602 layer_factory.hpp:77] Creating layer elt_c_2_elt_c_2_0_split
I0623 12:43:56.738994 33602 net.cpp:91] Creating Layer elt_c_2_elt_c_2_0_split
I0623 12:43:56.739001 33602 net.cpp:425] elt_c_2_elt_c_2_0_split <- elt_c_2
I0623 12:43:56.739012 33602 net.cpp:399] elt_c_2_elt_c_2_0_split -> elt_c_2_elt_c_2_0_split_0
I0623 12:43:56.739022 33602 net.cpp:399] elt_c_2_elt_c_2_0_split -> elt_c_2_elt_c_2_0_split_1
I0623 12:43:56.739032 33602 net.cpp:399] elt_c_2_elt_c_2_0_split -> elt_c_2_elt_c_2_0_split_2
I0623 12:43:56.739040 33602 net.cpp:399] elt_c_2_elt_c_2_0_split -> elt_c_2_elt_c_2_0_split_3
I0623 12:43:56.739110 33602 net.cpp:141] Setting up elt_c_2_elt_c_2_0_split
I0623 12:43:56.739121 33602 net.cpp:148] Top shape: 64 64 32 32 (4194304)
I0623 12:43:56.739128 33602 net.cpp:148] Top shape: 64 64 32 32 (4194304)
I0623 12:43:56.739135 33602 net.cpp:148] Top shape: 64 64 32 32 (4194304)
I0623 12:43:56.739141 33602 net.cpp:148] Top shape: 64 64 32 32 (4194304)
I0623 12:43:56.739145 33602 net.cpp:156] Memory required for data: 1175191808
I0623 12:43:56.739151 33602 layer_factory.hpp:77] Creating layer bn_d_1_1
I0623 12:43:56.739161 33602 net.cpp:91] Creating Layer bn_d_1_1
I0623 12:43:56.739167 33602 net.cpp:425] bn_d_1_1 <- elt_a_2_elt_a_2_0_split_0
I0623 12:43:56.739174 33602 net.cpp:399] bn_d_1_1 -> bn_d_1_1
I0623 12:43:56.739375 33602 net.cpp:141] Setting up bn_d_1_1
I0623 12:43:56.739387 33602 net.cpp:148] Top shape: 64 64 32 32 (4194304)
I0623 12:43:56.739392 33602 net.cpp:156] Memory required for data: 1191969024
I0623 12:43:56.739403 33602 layer_factory.hpp:77] Creating layer sc_d_1_1
I0623 12:43:56.739413 33602 net.cpp:91] Creating Layer sc_d_1_1
I0623 12:43:56.739431 33602 net.cpp:425] sc_d_1_1 <- bn_d_1_1
I0623 12:43:56.739444 33602 net.cpp:399] sc_d_1_1 -> sc_d_1_1
I0623 12:43:56.739495 33602 layer_factory.hpp:77] Creating layer sc_d_1_1
I0623 12:43:56.739632 33602 net.cpp:141] Setting up sc_d_1_1
I0623 12:43:56.739645 33602 net.cpp:148] Top shape: 64 64 32 32 (4194304)
I0623 12:43:56.739650 33602 net.cpp:156] Memory required for data: 1208746240
I0623 12:43:56.739658 33602 layer_factory.hpp:77] Creating layer relu_d_1_1
I0623 12:43:56.739666 33602 net.cpp:91] Creating Layer relu_d_1_1
I0623 12:43:56.739672 33602 net.cpp:425] relu_d_1_1 <- sc_d_1_1
I0623 12:43:56.739680 33602 net.cpp:399] relu_d_1_1 -> relu_d_1_1
I0623 12:43:56.739876 33602 net.cpp:141] Setting up relu_d_1_1
I0623 12:43:56.739891 33602 net.cpp:148] Top shape: 64 64 32 32 (4194304)
I0623 12:43:56.739897 33602 net.cpp:156] Memory required for data: 1225523456
I0623 12:43:56.739902 33602 layer_factory.hpp:77] Creating layer conv_d_1_1
I0623 12:43:56.739919 33602 net.cpp:91] Creating Layer conv_d_1_1
I0623 12:43:56.739928 33602 net.cpp:425] conv_d_1_1 <- relu_d_1_1
I0623 12:43:56.739936 33602 net.cpp:399] conv_d_1_1 -> conv_d_1_1
I0623 12:43:56.743252 33602 net.cpp:141] Setting up conv_d_1_1
I0623 12:43:56.743268 33602 net.cpp:148] Top shape: 64 128 16 16 (2097152)
I0623 12:43:56.743286 33602 net.cpp:156] Memory required for data: 1233912064
I0623 12:43:56.743309 33602 layer_factory.hpp:77] Creating layer bn_d_1_2
I0623 12:43:56.743322 33602 net.cpp:91] Creating Layer bn_d_1_2
I0623 12:43:56.743330 33602 net.cpp:425] bn_d_1_2 <- conv_d_1_1
I0623 12:43:56.743352 33602 net.cpp:399] bn_d_1_2 -> bn_d_1_2
I0623 12:43:56.743592 33602 net.cpp:141] Setting up bn_d_1_2
I0623 12:43:56.743607 33602 net.cpp:148] Top shape: 64 128 16 16 (2097152)
I0623 12:43:56.743612 33602 net.cpp:156] Memory required for data: 1242300672
I0623 12:43:56.743621 33602 layer_factory.hpp:77] Creating layer sc_d_1_2
I0623 12:43:56.743631 33602 net.cpp:91] Creating Layer sc_d_1_2
I0623 12:43:56.743638 33602 net.cpp:425] sc_d_1_2 <- bn_d_1_2
I0623 12:43:56.743659 33602 net.cpp:399] sc_d_1_2 -> sc_d_1_2
I0623 12:43:56.743710 33602 layer_factory.hpp:77] Creating layer sc_d_1_2
I0623 12:43:56.743826 33602 net.cpp:141] Setting up sc_d_1_2
I0623 12:43:56.743839 33602 net.cpp:148] Top shape: 64 128 16 16 (2097152)
I0623 12:43:56.743844 33602 net.cpp:156] Memory required for data: 1250689280
I0623 12:43:56.743851 33602 layer_factory.hpp:77] Creating layer relu_d_1_2
I0623 12:43:56.743860 33602 net.cpp:91] Creating Layer relu_d_1_2
I0623 12:43:56.743865 33602 net.cpp:425] relu_d_1_2 <- sc_d_1_2
I0623 12:43:56.743875 33602 net.cpp:399] relu_d_1_2 -> relu_d_1_2
I0623 12:43:56.744074 33602 net.cpp:141] Setting up relu_d_1_2
I0623 12:43:56.744091 33602 net.cpp:148] Top shape: 64 128 16 16 (2097152)
I0623 12:43:56.744097 33602 net.cpp:156] Memory required for data: 1259077888
I0623 12:43:56.744103 33602 layer_factory.hpp:77] Creating layer conv_d_1_2
I0623 12:43:56.744117 33602 net.cpp:91] Creating Layer conv_d_1_2
I0623 12:43:56.744124 33602 net.cpp:425] conv_d_1_2 <- relu_d_1_2
I0623 12:43:56.744132 33602 net.cpp:399] conv_d_1_2 -> conv_d_1_2
I0623 12:43:56.749208 33602 net.cpp:141] Setting up conv_d_1_2
I0623 12:43:56.749227 33602 net.cpp:148] Top shape: 64 128 16 16 (2097152)
I0623 12:43:56.749248 33602 net.cpp:156] Memory required for data: 1267466496
I0623 12:43:56.749258 33602 layer_factory.hpp:77] Creating layer res_d
I0623 12:43:56.749274 33602 net.cpp:91] Creating Layer res_d
I0623 12:43:56.749282 33602 net.cpp:425] res_d <- elt_a_2_elt_a_2_0_split_1
I0623 12:43:56.749294 33602 net.cpp:399] res_d -> res_d
I0623 12:43:56.750509 33602 net.cpp:141] Setting up res_d
I0623 12:43:56.750524 33602 net.cpp:148] Top shape: 64 128 16 16 (2097152)
I0623 12:43:56.750545 33602 net.cpp:156] Memory required for data: 1275855104
I0623 12:43:56.750555 33602 layer_factory.hpp:77] Creating layer elt_d_1
I0623 12:43:56.750568 33602 net.cpp:91] Creating Layer elt_d_1
I0623 12:43:56.750576 33602 net.cpp:425] elt_d_1 <- res_d
I0623 12:43:56.750582 33602 net.cpp:425] elt_d_1 <- conv_d_1_2
I0623 12:43:56.750589 33602 net.cpp:399] elt_d_1 -> elt_d_1
I0623 12:43:56.750617 33602 net.cpp:141] Setting up elt_d_1
I0623 12:43:56.750628 33602 net.cpp:148] Top shape: 64 128 16 16 (2097152)
I0623 12:43:56.750633 33602 net.cpp:156] Memory required for data: 1284243712
I0623 12:43:56.750638 33602 layer_factory.hpp:77] Creating layer elt_d_1_elt_d_1_0_split
I0623 12:43:56.750648 33602 net.cpp:91] Creating Layer elt_d_1_elt_d_1_0_split
I0623 12:43:56.750654 33602 net.cpp:425] elt_d_1_elt_d_1_0_split <- elt_d_1
I0623 12:43:56.750674 33602 net.cpp:399] elt_d_1_elt_d_1_0_split -> elt_d_1_elt_d_1_0_split_0
I0623 12:43:56.750694 33602 net.cpp:399] elt_d_1_elt_d_1_0_split -> elt_d_1_elt_d_1_0_split_1
I0623 12:43:56.750756 33602 net.cpp:141] Setting up elt_d_1_elt_d_1_0_split
I0623 12:43:56.750768 33602 net.cpp:148] Top shape: 64 128 16 16 (2097152)
I0623 12:43:56.750777 33602 net.cpp:148] Top shape: 64 128 16 16 (2097152)
I0623 12:43:56.750782 33602 net.cpp:156] Memory required for data: 1301020928
I0623 12:43:56.750787 33602 layer_factory.hpp:77] Creating layer bn_d_2_1
I0623 12:43:56.750797 33602 net.cpp:91] Creating Layer bn_d_2_1
I0623 12:43:56.750803 33602 net.cpp:425] bn_d_2_1 <- elt_d_1_elt_d_1_0_split_0
I0623 12:43:56.750811 33602 net.cpp:399] bn_d_2_1 -> bn_d_2_1
I0623 12:43:56.751022 33602 net.cpp:141] Setting up bn_d_2_1
I0623 12:43:56.751062 33602 net.cpp:148] Top shape: 64 128 16 16 (2097152)
I0623 12:43:56.751070 33602 net.cpp:156] Memory required for data: 1309409536
I0623 12:43:56.751080 33602 layer_factory.hpp:77] Creating layer sc_d_2_1
I0623 12:43:56.751090 33602 net.cpp:91] Creating Layer sc_d_2_1
I0623 12:43:56.751096 33602 net.cpp:425] sc_d_2_1 <- bn_d_2_1
I0623 12:43:56.751106 33602 net.cpp:399] sc_d_2_1 -> sc_d_2_1
I0623 12:43:56.751159 33602 layer_factory.hpp:77] Creating layer sc_d_2_1
I0623 12:43:56.751276 33602 net.cpp:141] Setting up sc_d_2_1
I0623 12:43:56.751288 33602 net.cpp:148] Top shape: 64 128 16 16 (2097152)
I0623 12:43:56.751307 33602 net.cpp:156] Memory required for data: 1317798144
I0623 12:43:56.751315 33602 layer_factory.hpp:77] Creating layer relu_d_2_1
I0623 12:43:56.751325 33602 net.cpp:91] Creating Layer relu_d_2_1
I0623 12:43:56.751332 33602 net.cpp:425] relu_d_2_1 <- sc_d_2_1
I0623 12:43:56.751339 33602 net.cpp:399] relu_d_2_1 -> relu_d_2_1
I0623 12:43:56.751634 33602 net.cpp:141] Setting up relu_d_2_1
I0623 12:43:56.751649 33602 net.cpp:148] Top shape: 64 128 16 16 (2097152)
I0623 12:43:56.751654 33602 net.cpp:156] Memory required for data: 1326186752
I0623 12:43:56.751659 33602 layer_factory.hpp:77] Creating layer conv_d_2_1
I0623 12:43:56.751672 33602 net.cpp:91] Creating Layer conv_d_2_1
I0623 12:43:56.751679 33602 net.cpp:425] conv_d_2_1 <- relu_d_2_1
I0623 12:43:56.751689 33602 net.cpp:399] conv_d_2_1 -> conv_d_2_1
I0623 12:43:56.756933 33602 net.cpp:141] Setting up conv_d_2_1
I0623 12:43:56.756948 33602 net.cpp:148] Top shape: 64 128 16 16 (2097152)
I0623 12:43:56.756966 33602 net.cpp:156] Memory required for data: 1334575360
I0623 12:43:56.756974 33602 layer_factory.hpp:77] Creating layer bn_d_2_2
I0623 12:43:56.756988 33602 net.cpp:91] Creating Layer bn_d_2_2
I0623 12:43:56.756995 33602 net.cpp:425] bn_d_2_2 <- conv_d_2_1
I0623 12:43:56.757004 33602 net.cpp:399] bn_d_2_2 -> bn_d_2_2
I0623 12:43:56.757241 33602 net.cpp:141] Setting up bn_d_2_2
I0623 12:43:56.757252 33602 net.cpp:148] Top shape: 64 128 16 16 (2097152)
I0623 12:43:56.757257 33602 net.cpp:156] Memory required for data: 1342963968
I0623 12:43:56.757267 33602 layer_factory.hpp:77] Creating layer sc_d_2_2
I0623 12:43:56.757277 33602 net.cpp:91] Creating Layer sc_d_2_2
I0623 12:43:56.757284 33602 net.cpp:425] sc_d_2_2 <- bn_d_2_2
I0623 12:43:56.757292 33602 net.cpp:399] sc_d_2_2 -> sc_d_2_2
I0623 12:43:56.757344 33602 layer_factory.hpp:77] Creating layer sc_d_2_2
I0623 12:43:56.757463 33602 net.cpp:141] Setting up sc_d_2_2
I0623 12:43:56.757475 33602 net.cpp:148] Top shape: 64 128 16 16 (2097152)
I0623 12:43:56.757480 33602 net.cpp:156] Memory required for data: 1351352576
I0623 12:43:56.757488 33602 layer_factory.hpp:77] Creating layer relu_d_2_2
I0623 12:43:56.757499 33602 net.cpp:91] Creating Layer relu_d_2_2
I0623 12:43:56.757506 33602 net.cpp:425] relu_d_2_2 <- sc_d_2_2
I0623 12:43:56.757514 33602 net.cpp:399] relu_d_2_2 -> relu_d_2_2
I0623 12:43:56.757827 33602 net.cpp:141] Setting up relu_d_2_2
I0623 12:43:56.757841 33602 net.cpp:148] Top shape: 64 128 16 16 (2097152)
I0623 12:43:56.757848 33602 net.cpp:156] Memory required for data: 1359741184
I0623 12:43:56.757866 33602 layer_factory.hpp:77] Creating layer conv_d_2_2
I0623 12:43:56.757880 33602 net.cpp:91] Creating Layer conv_d_2_2
I0623 12:43:56.757886 33602 net.cpp:425] conv_d_2_2 <- relu_d_2_2
I0623 12:43:56.757900 33602 net.cpp:399] conv_d_2_2 -> conv_d_2_2
I0623 12:43:56.763124 33602 net.cpp:141] Setting up conv_d_2_2
I0623 12:43:56.763139 33602 net.cpp:148] Top shape: 64 128 16 16 (2097152)
I0623 12:43:56.763144 33602 net.cpp:156] Memory required for data: 1368129792
I0623 12:43:56.763152 33602 layer_factory.hpp:77] Creating layer elt_d_2
I0623 12:43:56.763160 33602 net.cpp:91] Creating Layer elt_d_2
I0623 12:43:56.763166 33602 net.cpp:425] elt_d_2 <- elt_d_1_elt_d_1_0_split_1
I0623 12:43:56.763185 33602 net.cpp:425] elt_d_2 <- conv_d_2_2
I0623 12:43:56.763195 33602 net.cpp:399] elt_d_2 -> elt_d_2
I0623 12:43:56.763221 33602 net.cpp:141] Setting up elt_d_2
I0623 12:43:56.763258 33602 net.cpp:148] Top shape: 64 128 16 16 (2097152)
I0623 12:43:56.763268 33602 net.cpp:156] Memory required for data: 1376518400
I0623 12:43:56.763274 33602 layer_factory.hpp:77] Creating layer bn_f_1_1
I0623 12:43:56.763284 33602 net.cpp:91] Creating Layer bn_f_1_1
I0623 12:43:56.763293 33602 net.cpp:425] bn_f_1_1 <- elt_b_2_elt_b_2_0_split_0
I0623 12:43:56.763303 33602 net.cpp:399] bn_f_1_1 -> bn_f_1_1
I0623 12:43:56.763522 33602 net.cpp:141] Setting up bn_f_1_1
I0623 12:43:56.763535 33602 net.cpp:148] Top shape: 64 64 32 32 (4194304)
I0623 12:43:56.763540 33602 net.cpp:156] Memory required for data: 1393295616
I0623 12:43:56.763548 33602 layer_factory.hpp:77] Creating layer sc_f_1_1
I0623 12:43:56.763571 33602 net.cpp:91] Creating Layer sc_f_1_1
I0623 12:43:56.763577 33602 net.cpp:425] sc_f_1_1 <- bn_f_1_1
I0623 12:43:56.763584 33602 net.cpp:399] sc_f_1_1 -> sc_f_1_1
I0623 12:43:56.763648 33602 layer_factory.hpp:77] Creating layer sc_f_1_1
I0623 12:43:56.763792 33602 net.cpp:141] Setting up sc_f_1_1
I0623 12:43:56.763805 33602 net.cpp:148] Top shape: 64 64 32 32 (4194304)
I0623 12:43:56.763809 33602 net.cpp:156] Memory required for data: 1410072832
I0623 12:43:56.763818 33602 layer_factory.hpp:77] Creating layer relu_f_1_1
I0623 12:43:56.763828 33602 net.cpp:91] Creating Layer relu_f_1_1
I0623 12:43:56.763835 33602 net.cpp:425] relu_f_1_1 <- sc_f_1_1
I0623 12:43:56.763844 33602 net.cpp:399] relu_f_1_1 -> relu_f_1_1
I0623 12:43:56.764149 33602 net.cpp:141] Setting up relu_f_1_1
I0623 12:43:56.764164 33602 net.cpp:148] Top shape: 64 64 32 32 (4194304)
I0623 12:43:56.764169 33602 net.cpp:156] Memory required for data: 1426850048
I0623 12:43:56.764175 33602 layer_factory.hpp:77] Creating layer conv_f_1_1
I0623 12:43:56.764190 33602 net.cpp:91] Creating Layer conv_f_1_1
I0623 12:43:56.764199 33602 net.cpp:425] conv_f_1_1 <- relu_f_1_1
I0623 12:43:56.764207 33602 net.cpp:399] conv_f_1_1 -> conv_f_1_1
I0623 12:43:56.767170 33602 net.cpp:141] Setting up conv_f_1_1
I0623 12:43:56.767186 33602 net.cpp:148] Top shape: 64 128 16 16 (2097152)
I0623 12:43:56.767204 33602 net.cpp:156] Memory required for data: 1435238656
I0623 12:43:56.767230 33602 layer_factory.hpp:77] Creating layer bn_f_1_2
I0623 12:43:56.767242 33602 net.cpp:91] Creating Layer bn_f_1_2
I0623 12:43:56.767251 33602 net.cpp:425] bn_f_1_2 <- conv_f_1_1
I0623 12:43:56.767258 33602 net.cpp:399] bn_f_1_2 -> bn_f_1_2
I0623 12:43:56.767487 33602 net.cpp:141] Setting up bn_f_1_2
I0623 12:43:56.767498 33602 net.cpp:148] Top shape: 64 128 16 16 (2097152)
I0623 12:43:56.767503 33602 net.cpp:156] Memory required for data: 1443627264
I0623 12:43:56.767514 33602 layer_factory.hpp:77] Creating layer sc_f_1_2
I0623 12:43:56.767525 33602 net.cpp:91] Creating Layer sc_f_1_2
I0623 12:43:56.767534 33602 net.cpp:425] sc_f_1_2 <- bn_f_1_2
I0623 12:43:56.767541 33602 net.cpp:399] sc_f_1_2 -> sc_f_1_2
I0623 12:43:56.767595 33602 layer_factory.hpp:77] Creating layer sc_f_1_2
I0623 12:43:56.767717 33602 net.cpp:141] Setting up sc_f_1_2
I0623 12:43:56.767729 33602 net.cpp:148] Top shape: 64 128 16 16 (2097152)
I0623 12:43:56.767735 33602 net.cpp:156] Memory required for data: 1452015872
I0623 12:43:56.767743 33602 layer_factory.hpp:77] Creating layer relu_f_1_2
I0623 12:43:56.767751 33602 net.cpp:91] Creating Layer relu_f_1_2
I0623 12:43:56.767757 33602 net.cpp:425] relu_f_1_2 <- sc_f_1_2
I0623 12:43:56.767765 33602 net.cpp:399] relu_f_1_2 -> relu_f_1_2
I0623 12:43:56.768071 33602 net.cpp:141] Setting up relu_f_1_2
I0623 12:43:56.768086 33602 net.cpp:148] Top shape: 64 128 16 16 (2097152)
I0623 12:43:56.768093 33602 net.cpp:156] Memory required for data: 1460404480
I0623 12:43:56.768100 33602 layer_factory.hpp:77] Creating layer conv_f_1_2
I0623 12:43:56.768112 33602 net.cpp:91] Creating Layer conv_f_1_2
I0623 12:43:56.768121 33602 net.cpp:425] conv_f_1_2 <- relu_f_1_2
I0623 12:43:56.768131 33602 net.cpp:399] conv_f_1_2 -> conv_f_1_2
I0623 12:43:56.773381 33602 net.cpp:141] Setting up conv_f_1_2
I0623 12:43:56.773397 33602 net.cpp:148] Top shape: 64 128 16 16 (2097152)
I0623 12:43:56.773432 33602 net.cpp:156] Memory required for data: 1468793088
I0623 12:43:56.773443 33602 layer_factory.hpp:77] Creating layer res_f
I0623 12:43:56.773459 33602 net.cpp:91] Creating Layer res_f
I0623 12:43:56.773481 33602 net.cpp:425] res_f <- elt_b_2_elt_b_2_0_split_1
I0623 12:43:56.773494 33602 net.cpp:399] res_f -> res_f
I0623 12:43:56.774756 33602 net.cpp:141] Setting up res_f
I0623 12:43:56.774771 33602 net.cpp:148] Top shape: 64 128 16 16 (2097152)
I0623 12:43:56.774776 33602 net.cpp:156] Memory required for data: 1477181696
I0623 12:43:56.774798 33602 layer_factory.hpp:77] Creating layer elt_f_1
I0623 12:43:56.774811 33602 net.cpp:91] Creating Layer elt_f_1
I0623 12:43:56.774818 33602 net.cpp:425] elt_f_1 <- res_f
I0623 12:43:56.774826 33602 net.cpp:425] elt_f_1 <- conv_f_1_2
I0623 12:43:56.774832 33602 net.cpp:399] elt_f_1 -> elt_f_1
I0623 12:43:56.774863 33602 net.cpp:141] Setting up elt_f_1
I0623 12:43:56.774873 33602 net.cpp:148] Top shape: 64 128 16 16 (2097152)
I0623 12:43:56.774878 33602 net.cpp:156] Memory required for data: 1485570304
I0623 12:43:56.774883 33602 layer_factory.hpp:77] Creating layer elt_f_1_elt_f_1_0_split
I0623 12:43:56.774890 33602 net.cpp:91] Creating Layer elt_f_1_elt_f_1_0_split
I0623 12:43:56.774898 33602 net.cpp:425] elt_f_1_elt_f_1_0_split <- elt_f_1
I0623 12:43:56.774904 33602 net.cpp:399] elt_f_1_elt_f_1_0_split -> elt_f_1_elt_f_1_0_split_0
I0623 12:43:56.774911 33602 net.cpp:399] elt_f_1_elt_f_1_0_split -> elt_f_1_elt_f_1_0_split_1
I0623 12:43:56.774971 33602 net.cpp:141] Setting up elt_f_1_elt_f_1_0_split
I0623 12:43:56.774983 33602 net.cpp:148] Top shape: 64 128 16 16 (2097152)
I0623 12:43:56.774989 33602 net.cpp:148] Top shape: 64 128 16 16 (2097152)
I0623 12:43:56.775009 33602 net.cpp:156] Memory required for data: 1502347520
I0623 12:43:56.775014 33602 layer_factory.hpp:77] Creating layer bn_f_2_1
I0623 12:43:56.775025 33602 net.cpp:91] Creating Layer bn_f_2_1
I0623 12:43:56.775032 33602 net.cpp:425] bn_f_2_1 <- elt_f_1_elt_f_1_0_split_0
I0623 12:43:56.775041 33602 net.cpp:399] bn_f_2_1 -> bn_f_2_1
I0623 12:43:56.775271 33602 net.cpp:141] Setting up bn_f_2_1
I0623 12:43:56.775284 33602 net.cpp:148] Top shape: 64 128 16 16 (2097152)
I0623 12:43:56.775288 33602 net.cpp:156] Memory required for data: 1510736128
I0623 12:43:56.775298 33602 layer_factory.hpp:77] Creating layer sc_f_2_1
I0623 12:43:56.775310 33602 net.cpp:91] Creating Layer sc_f_2_1
I0623 12:43:56.775316 33602 net.cpp:425] sc_f_2_1 <- bn_f_2_1
I0623 12:43:56.775323 33602 net.cpp:399] sc_f_2_1 -> sc_f_2_1
I0623 12:43:56.775390 33602 layer_factory.hpp:77] Creating layer sc_f_2_1
I0623 12:43:56.775517 33602 net.cpp:141] Setting up sc_f_2_1
I0623 12:43:56.775529 33602 net.cpp:148] Top shape: 64 128 16 16 (2097152)
I0623 12:43:56.775534 33602 net.cpp:156] Memory required for data: 1519124736
I0623 12:43:56.775543 33602 layer_factory.hpp:77] Creating layer relu_f_2_1
I0623 12:43:56.775552 33602 net.cpp:91] Creating Layer relu_f_2_1
I0623 12:43:56.775557 33602 net.cpp:425] relu_f_2_1 <- sc_f_2_1
I0623 12:43:56.775566 33602 net.cpp:399] relu_f_2_1 -> relu_f_2_1
I0623 12:43:56.775873 33602 net.cpp:141] Setting up relu_f_2_1
I0623 12:43:56.775887 33602 net.cpp:148] Top shape: 64 128 16 16 (2097152)
I0623 12:43:56.775893 33602 net.cpp:156] Memory required for data: 1527513344
I0623 12:43:56.775899 33602 layer_factory.hpp:77] Creating layer conv_f_2_1
I0623 12:43:56.775913 33602 net.cpp:91] Creating Layer conv_f_2_1
I0623 12:43:56.775919 33602 net.cpp:425] conv_f_2_1 <- relu_f_2_1
I0623 12:43:56.775929 33602 net.cpp:399] conv_f_2_1 -> conv_f_2_1
I0623 12:43:56.781184 33602 net.cpp:141] Setting up conv_f_2_1
I0623 12:43:56.781201 33602 net.cpp:148] Top shape: 64 128 16 16 (2097152)
I0623 12:43:56.781224 33602 net.cpp:156] Memory required for data: 1535901952
I0623 12:43:56.781231 33602 layer_factory.hpp:77] Creating layer bn_f_2_2
I0623 12:43:56.781244 33602 net.cpp:91] Creating Layer bn_f_2_2
I0623 12:43:56.781251 33602 net.cpp:425] bn_f_2_2 <- conv_f_2_1
I0623 12:43:56.781260 33602 net.cpp:399] bn_f_2_2 -> bn_f_2_2
I0623 12:43:56.781518 33602 net.cpp:141] Setting up bn_f_2_2
I0623 12:43:56.781533 33602 net.cpp:148] Top shape: 64 128 16 16 (2097152)
I0623 12:43:56.781538 33602 net.cpp:156] Memory required for data: 1544290560
I0623 12:43:56.781546 33602 layer_factory.hpp:77] Creating layer sc_f_2_2
I0623 12:43:56.781556 33602 net.cpp:91] Creating Layer sc_f_2_2
I0623 12:43:56.781563 33602 net.cpp:425] sc_f_2_2 <- bn_f_2_2
I0623 12:43:56.781574 33602 net.cpp:399] sc_f_2_2 -> sc_f_2_2
I0623 12:43:56.781623 33602 layer_factory.hpp:77] Creating layer sc_f_2_2
I0623 12:43:56.781746 33602 net.cpp:141] Setting up sc_f_2_2
I0623 12:43:56.781759 33602 net.cpp:148] Top shape: 64 128 16 16 (2097152)
I0623 12:43:56.781764 33602 net.cpp:156] Memory required for data: 1552679168
I0623 12:43:56.781772 33602 layer_factory.hpp:77] Creating layer relu_f_2_2
I0623 12:43:56.781782 33602 net.cpp:91] Creating Layer relu_f_2_2
I0623 12:43:56.781790 33602 net.cpp:425] relu_f_2_2 <- sc_f_2_2
I0623 12:43:56.781797 33602 net.cpp:399] relu_f_2_2 -> relu_f_2_2
I0623 12:43:56.782100 33602 net.cpp:141] Setting up relu_f_2_2
I0623 12:43:56.782115 33602 net.cpp:148] Top shape: 64 128 16 16 (2097152)
I0623 12:43:56.782121 33602 net.cpp:156] Memory required for data: 1561067776
I0623 12:43:56.782127 33602 layer_factory.hpp:77] Creating layer conv_f_2_2
I0623 12:43:56.782140 33602 net.cpp:91] Creating Layer conv_f_2_2
I0623 12:43:56.782150 33602 net.cpp:425] conv_f_2_2 <- relu_f_2_2
I0623 12:43:56.782160 33602 net.cpp:399] conv_f_2_2 -> conv_f_2_2
I0623 12:43:56.787674 33602 net.cpp:141] Setting up conv_f_2_2
I0623 12:43:56.787690 33602 net.cpp:148] Top shape: 64 128 16 16 (2097152)
I0623 12:43:56.787714 33602 net.cpp:156] Memory required for data: 1569456384
I0623 12:43:56.787724 33602 layer_factory.hpp:77] Creating layer elt_f_2
I0623 12:43:56.787734 33602 net.cpp:91] Creating Layer elt_f_2
I0623 12:43:56.787740 33602 net.cpp:425] elt_f_2 <- elt_f_1_elt_f_1_0_split_1
I0623 12:43:56.787747 33602 net.cpp:425] elt_f_2 <- conv_f_2_2
I0623 12:43:56.787760 33602 net.cpp:399] elt_f_2 -> elt_f_2
I0623 12:43:56.787792 33602 net.cpp:141] Setting up elt_f_2
I0623 12:43:56.787804 33602 net.cpp:148] Top shape: 64 128 16 16 (2097152)
I0623 12:43:56.787808 33602 net.cpp:156] Memory required for data: 1577844992
I0623 12:43:56.787814 33602 layer_factory.hpp:77] Creating layer bn_g_1_1
I0623 12:43:56.787824 33602 net.cpp:91] Creating Layer bn_g_1_1
I0623 12:43:56.787832 33602 net.cpp:425] bn_g_1_1 <- elt_b_2_elt_b_2_0_split_2
I0623 12:43:56.787839 33602 net.cpp:399] bn_g_1_1 -> bn_g_1_1
I0623 12:43:56.788069 33602 net.cpp:141] Setting up bn_g_1_1
I0623 12:43:56.788082 33602 net.cpp:148] Top shape: 64 64 32 32 (4194304)
I0623 12:43:56.788087 33602 net.cpp:156] Memory required for data: 1594622208
I0623 12:43:56.788097 33602 layer_factory.hpp:77] Creating layer sc_g_1_1
I0623 12:43:56.788108 33602 net.cpp:91] Creating Layer sc_g_1_1
I0623 12:43:56.788116 33602 net.cpp:425] sc_g_1_1 <- bn_g_1_1
I0623 12:43:56.788123 33602 net.cpp:399] sc_g_1_1 -> sc_g_1_1
I0623 12:43:56.788179 33602 layer_factory.hpp:77] Creating layer sc_g_1_1
I0623 12:43:56.788314 33602 net.cpp:141] Setting up sc_g_1_1
I0623 12:43:56.788327 33602 net.cpp:148] Top shape: 64 64 32 32 (4194304)
I0623 12:43:56.788332 33602 net.cpp:156] Memory required for data: 1611399424
I0623 12:43:56.788341 33602 layer_factory.hpp:77] Creating layer relu_g_1_1
I0623 12:43:56.788349 33602 net.cpp:91] Creating Layer relu_g_1_1
I0623 12:43:56.788354 33602 net.cpp:425] relu_g_1_1 <- sc_g_1_1
I0623 12:43:56.788364 33602 net.cpp:399] relu_g_1_1 -> relu_g_1_1
I0623 12:43:56.788570 33602 net.cpp:141] Setting up relu_g_1_1
I0623 12:43:56.788585 33602 net.cpp:148] Top shape: 64 64 32 32 (4194304)
I0623 12:43:56.788591 33602 net.cpp:156] Memory required for data: 1628176640
I0623 12:43:56.788597 33602 layer_factory.hpp:77] Creating layer conv_g_1_1
I0623 12:43:56.788614 33602 net.cpp:91] Creating Layer conv_g_1_1
I0623 12:43:56.788622 33602 net.cpp:425] conv_g_1_1 <- relu_g_1_1
I0623 12:43:56.788631 33602 net.cpp:399] conv_g_1_1 -> conv_g_1_1
I0623 12:43:56.791695 33602 net.cpp:141] Setting up conv_g_1_1
I0623 12:43:56.791713 33602 net.cpp:148] Top shape: 64 128 16 16 (2097152)
I0623 12:43:56.791734 33602 net.cpp:156] Memory required for data: 1636565248
I0623 12:43:56.791743 33602 layer_factory.hpp:77] Creating layer bn_g_1_2
I0623 12:43:56.791755 33602 net.cpp:91] Creating Layer bn_g_1_2
I0623 12:43:56.791762 33602 net.cpp:425] bn_g_1_2 <- conv_g_1_1
I0623 12:43:56.791771 33602 net.cpp:399] bn_g_1_2 -> bn_g_1_2
I0623 12:43:56.792009 33602 net.cpp:141] Setting up bn_g_1_2
I0623 12:43:56.792022 33602 net.cpp:148] Top shape: 64 128 16 16 (2097152)
I0623 12:43:56.792027 33602 net.cpp:156] Memory required for data: 1644953856
I0623 12:43:56.792037 33602 layer_factory.hpp:77] Creating layer sc_g_1_2
I0623 12:43:56.792047 33602 net.cpp:91] Creating Layer sc_g_1_2
I0623 12:43:56.792053 33602 net.cpp:425] sc_g_1_2 <- bn_g_1_2
I0623 12:43:56.792062 33602 net.cpp:399] sc_g_1_2 -> sc_g_1_2
I0623 12:43:56.792117 33602 layer_factory.hpp:77] Creating layer sc_g_1_2
I0623 12:43:56.792243 33602 net.cpp:141] Setting up sc_g_1_2
I0623 12:43:56.792254 33602 net.cpp:148] Top shape: 64 128 16 16 (2097152)
I0623 12:43:56.792259 33602 net.cpp:156] Memory required for data: 1653342464
I0623 12:43:56.792268 33602 layer_factory.hpp:77] Creating layer relu_g_1_2
I0623 12:43:56.792279 33602 net.cpp:91] Creating Layer relu_g_1_2
I0623 12:43:56.792286 33602 net.cpp:425] relu_g_1_2 <- sc_g_1_2
I0623 12:43:56.792294 33602 net.cpp:399] relu_g_1_2 -> relu_g_1_2
I0623 12:43:56.792601 33602 net.cpp:141] Setting up relu_g_1_2
I0623 12:43:56.792619 33602 net.cpp:148] Top shape: 64 128 16 16 (2097152)
I0623 12:43:56.792625 33602 net.cpp:156] Memory required for data: 1661731072
I0623 12:43:56.792631 33602 layer_factory.hpp:77] Creating layer conv_g_1_2
I0623 12:43:56.792644 33602 net.cpp:91] Creating Layer conv_g_1_2
I0623 12:43:56.792652 33602 net.cpp:425] conv_g_1_2 <- relu_g_1_2
I0623 12:43:56.792661 33602 net.cpp:399] conv_g_1_2 -> conv_g_1_2
I0623 12:43:56.797808 33602 net.cpp:141] Setting up conv_g_1_2
I0623 12:43:56.797823 33602 net.cpp:148] Top shape: 64 128 16 16 (2097152)
I0623 12:43:56.797847 33602 net.cpp:156] Memory required for data: 1670119680
I0623 12:43:56.797855 33602 layer_factory.hpp:77] Creating layer res_g
I0623 12:43:56.797871 33602 net.cpp:91] Creating Layer res_g
I0623 12:43:56.797878 33602 net.cpp:425] res_g <- elt_b_2_elt_b_2_0_split_3
I0623 12:43:56.797888 33602 net.cpp:399] res_g -> res_g
I0623 12:43:56.799208 33602 net.cpp:141] Setting up res_g
I0623 12:43:56.799224 33602 net.cpp:148] Top shape: 64 128 16 16 (2097152)
I0623 12:43:56.799247 33602 net.cpp:156] Memory required for data: 1678508288
I0623 12:43:56.799255 33602 layer_factory.hpp:77] Creating layer elt_g_1
I0623 12:43:56.799268 33602 net.cpp:91] Creating Layer elt_g_1
I0623 12:43:56.799274 33602 net.cpp:425] elt_g_1 <- res_g
I0623 12:43:56.799281 33602 net.cpp:425] elt_g_1 <- conv_g_1_2
I0623 12:43:56.799288 33602 net.cpp:399] elt_g_1 -> elt_g_1
I0623 12:43:56.799321 33602 net.cpp:141] Setting up elt_g_1
I0623 12:43:56.799332 33602 net.cpp:148] Top shape: 64 128 16 16 (2097152)
I0623 12:43:56.799337 33602 net.cpp:156] Memory required for data: 1686896896
I0623 12:43:56.799342 33602 layer_factory.hpp:77] Creating layer elt_g_1_elt_g_1_0_split
I0623 12:43:56.799350 33602 net.cpp:91] Creating Layer elt_g_1_elt_g_1_0_split
I0623 12:43:56.799355 33602 net.cpp:425] elt_g_1_elt_g_1_0_split <- elt_g_1
I0623 12:43:56.799365 33602 net.cpp:399] elt_g_1_elt_g_1_0_split -> elt_g_1_elt_g_1_0_split_0
I0623 12:43:56.799376 33602 net.cpp:399] elt_g_1_elt_g_1_0_split -> elt_g_1_elt_g_1_0_split_1
I0623 12:43:56.799437 33602 net.cpp:141] Setting up elt_g_1_elt_g_1_0_split
I0623 12:43:56.799448 33602 net.cpp:148] Top shape: 64 128 16 16 (2097152)
I0623 12:43:56.799454 33602 net.cpp:148] Top shape: 64 128 16 16 (2097152)
I0623 12:43:56.799461 33602 net.cpp:156] Memory required for data: 1703674112
I0623 12:43:56.799466 33602 layer_factory.hpp:77] Creating layer bn_g_2_1
I0623 12:43:56.799477 33602 net.cpp:91] Creating Layer bn_g_2_1
I0623 12:43:56.799497 33602 net.cpp:425] bn_g_2_1 <- elt_g_1_elt_g_1_0_split_0
I0623 12:43:56.799525 33602 net.cpp:399] bn_g_2_1 -> bn_g_2_1
I0623 12:43:56.799782 33602 net.cpp:141] Setting up bn_g_2_1
I0623 12:43:56.799795 33602 net.cpp:148] Top shape: 64 128 16 16 (2097152)
I0623 12:43:56.799800 33602 net.cpp:156] Memory required for data: 1712062720
I0623 12:43:56.799810 33602 layer_factory.hpp:77] Creating layer sc_g_2_1
I0623 12:43:56.799832 33602 net.cpp:91] Creating Layer sc_g_2_1
I0623 12:43:56.799839 33602 net.cpp:425] sc_g_2_1 <- bn_g_2_1
I0623 12:43:56.799847 33602 net.cpp:399] sc_g_2_1 -> sc_g_2_1
I0623 12:43:56.799907 33602 layer_factory.hpp:77] Creating layer sc_g_2_1
I0623 12:43:56.800066 33602 net.cpp:141] Setting up sc_g_2_1
I0623 12:43:56.800078 33602 net.cpp:148] Top shape: 64 128 16 16 (2097152)
I0623 12:43:56.800083 33602 net.cpp:156] Memory required for data: 1720451328
I0623 12:43:56.800092 33602 layer_factory.hpp:77] Creating layer relu_g_2_1
I0623 12:43:56.800107 33602 net.cpp:91] Creating Layer relu_g_2_1
I0623 12:43:56.800113 33602 net.cpp:425] relu_g_2_1 <- sc_g_2_1
I0623 12:43:56.800122 33602 net.cpp:399] relu_g_2_1 -> relu_g_2_1
I0623 12:43:56.800549 33602 net.cpp:141] Setting up relu_g_2_1
I0623 12:43:56.800564 33602 net.cpp:148] Top shape: 64 128 16 16 (2097152)
I0623 12:43:56.800581 33602 net.cpp:156] Memory required for data: 1728839936
I0623 12:43:56.800587 33602 layer_factory.hpp:77] Creating layer conv_g_2_1
I0623 12:43:56.800603 33602 net.cpp:91] Creating Layer conv_g_2_1
I0623 12:43:56.800611 33602 net.cpp:425] conv_g_2_1 <- relu_g_2_1
I0623 12:43:56.800619 33602 net.cpp:399] conv_g_2_1 -> conv_g_2_1
I0623 12:43:56.806005 33602 net.cpp:141] Setting up conv_g_2_1
I0623 12:43:56.806023 33602 net.cpp:148] Top shape: 64 128 16 16 (2097152)
I0623 12:43:56.806044 33602 net.cpp:156] Memory required for data: 1737228544
I0623 12:43:56.806053 33602 layer_factory.hpp:77] Creating layer bn_g_2_2
I0623 12:43:56.806064 33602 net.cpp:91] Creating Layer bn_g_2_2
I0623 12:43:56.806072 33602 net.cpp:425] bn_g_2_2 <- conv_g_2_1
I0623 12:43:56.806082 33602 net.cpp:399] bn_g_2_2 -> bn_g_2_2
I0623 12:43:56.806320 33602 net.cpp:141] Setting up bn_g_2_2
I0623 12:43:56.806346 33602 net.cpp:148] Top shape: 64 128 16 16 (2097152)
I0623 12:43:56.806351 33602 net.cpp:156] Memory required for data: 1745617152
I0623 12:43:56.806362 33602 layer_factory.hpp:77] Creating layer sc_g_2_2
I0623 12:43:56.806371 33602 net.cpp:91] Creating Layer sc_g_2_2
I0623 12:43:56.806378 33602 net.cpp:425] sc_g_2_2 <- bn_g_2_2
I0623 12:43:56.806386 33602 net.cpp:399] sc_g_2_2 -> sc_g_2_2
I0623 12:43:56.806442 33602 layer_factory.hpp:77] Creating layer sc_g_2_2
I0623 12:43:56.806572 33602 net.cpp:141] Setting up sc_g_2_2
I0623 12:43:56.806584 33602 net.cpp:148] Top shape: 64 128 16 16 (2097152)
I0623 12:43:56.806589 33602 net.cpp:156] Memory required for data: 1754005760
I0623 12:43:56.806597 33602 layer_factory.hpp:77] Creating layer relu_g_2_2
I0623 12:43:56.806608 33602 net.cpp:91] Creating Layer relu_g_2_2
I0623 12:43:56.806615 33602 net.cpp:425] relu_g_2_2 <- sc_g_2_2
I0623 12:43:56.806622 33602 net.cpp:399] relu_g_2_2 -> relu_g_2_2
I0623 12:43:56.806846 33602 net.cpp:141] Setting up relu_g_2_2
I0623 12:43:56.806861 33602 net.cpp:148] Top shape: 64 128 16 16 (2097152)
I0623 12:43:56.806870 33602 net.cpp:156] Memory required for data: 1762394368
I0623 12:43:56.806876 33602 layer_factory.hpp:77] Creating layer conv_g_2_2
I0623 12:43:56.806890 33602 net.cpp:91] Creating Layer conv_g_2_2
I0623 12:43:56.806898 33602 net.cpp:425] conv_g_2_2 <- relu_g_2_2
I0623 12:43:56.806908 33602 net.cpp:399] conv_g_2_2 -> conv_g_2_2
I0623 12:43:56.812361 33602 net.cpp:141] Setting up conv_g_2_2
I0623 12:43:56.812378 33602 net.cpp:148] Top shape: 64 128 16 16 (2097152)
I0623 12:43:56.812402 33602 net.cpp:156] Memory required for data: 1770782976
I0623 12:43:56.812412 33602 layer_factory.hpp:77] Creating layer elt_g_2
I0623 12:43:56.812424 33602 net.cpp:91] Creating Layer elt_g_2
I0623 12:43:56.812432 33602 net.cpp:425] elt_g_2 <- elt_g_1_elt_g_1_0_split_1
I0623 12:43:56.812453 33602 net.cpp:425] elt_g_2 <- conv_g_2_2
I0623 12:43:56.812477 33602 net.cpp:399] elt_g_2 -> elt_g_2
I0623 12:43:56.812510 33602 net.cpp:141] Setting up elt_g_2
I0623 12:43:56.812522 33602 net.cpp:148] Top shape: 64 128 16 16 (2097152)
I0623 12:43:56.812528 33602 net.cpp:156] Memory required for data: 1779171584
I0623 12:43:56.812533 33602 layer_factory.hpp:77] Creating layer bn_h_1_1
I0623 12:43:56.812544 33602 net.cpp:91] Creating Layer bn_h_1_1
I0623 12:43:56.812566 33602 net.cpp:425] bn_h_1_1 <- elt_c_2_elt_c_2_0_split_0
I0623 12:43:56.812577 33602 net.cpp:399] bn_h_1_1 -> bn_h_1_1
I0623 12:43:56.812840 33602 net.cpp:141] Setting up bn_h_1_1
I0623 12:43:56.812854 33602 net.cpp:148] Top shape: 64 64 32 32 (4194304)
I0623 12:43:56.812860 33602 net.cpp:156] Memory required for data: 1795948800
I0623 12:43:56.812870 33602 layer_factory.hpp:77] Creating layer sc_h_1_1
I0623 12:43:56.812880 33602 net.cpp:91] Creating Layer sc_h_1_1
I0623 12:43:56.812886 33602 net.cpp:425] sc_h_1_1 <- bn_h_1_1
I0623 12:43:56.812893 33602 net.cpp:399] sc_h_1_1 -> sc_h_1_1
I0623 12:43:56.812952 33602 layer_factory.hpp:77] Creating layer sc_h_1_1
I0623 12:43:56.813093 33602 net.cpp:141] Setting up sc_h_1_1
I0623 12:43:56.813105 33602 net.cpp:148] Top shape: 64 64 32 32 (4194304)
I0623 12:43:56.813110 33602 net.cpp:156] Memory required for data: 1812726016
I0623 12:43:56.813118 33602 layer_factory.hpp:77] Creating layer relu_h_1_1
I0623 12:43:56.813140 33602 net.cpp:91] Creating Layer relu_h_1_1
I0623 12:43:56.813148 33602 net.cpp:425] relu_h_1_1 <- sc_h_1_1
I0623 12:43:56.813156 33602 net.cpp:399] relu_h_1_1 -> relu_h_1_1
I0623 12:43:56.813364 33602 net.cpp:141] Setting up relu_h_1_1
I0623 12:43:56.813376 33602 net.cpp:148] Top shape: 64 64 32 32 (4194304)
I0623 12:43:56.813381 33602 net.cpp:156] Memory required for data: 1829503232
I0623 12:43:56.813387 33602 layer_factory.hpp:77] Creating layer conv_h_1_1
I0623 12:43:56.813403 33602 net.cpp:91] Creating Layer conv_h_1_1
I0623 12:43:56.813411 33602 net.cpp:425] conv_h_1_1 <- relu_h_1_1
I0623 12:43:56.813422 33602 net.cpp:399] conv_h_1_1 -> conv_h_1_1
I0623 12:43:56.816378 33602 net.cpp:141] Setting up conv_h_1_1
I0623 12:43:56.816395 33602 net.cpp:148] Top shape: 64 128 16 16 (2097152)
I0623 12:43:56.816412 33602 net.cpp:156] Memory required for data: 1837891840
I0623 12:43:56.816421 33602 layer_factory.hpp:77] Creating layer bn_h_1_2
I0623 12:43:56.816431 33602 net.cpp:91] Creating Layer bn_h_1_2
I0623 12:43:56.816438 33602 net.cpp:425] bn_h_1_2 <- conv_h_1_1
I0623 12:43:56.816448 33602 net.cpp:399] bn_h_1_2 -> bn_h_1_2
I0623 12:43:56.816707 33602 net.cpp:141] Setting up bn_h_1_2
I0623 12:43:56.816720 33602 net.cpp:148] Top shape: 64 128 16 16 (2097152)
I0623 12:43:56.816725 33602 net.cpp:156] Memory required for data: 1846280448
I0623 12:43:56.816735 33602 layer_factory.hpp:77] Creating layer sc_h_1_2
I0623 12:43:56.816745 33602 net.cpp:91] Creating Layer sc_h_1_2
I0623 12:43:56.816752 33602 net.cpp:425] sc_h_1_2 <- bn_h_1_2
I0623 12:43:56.816762 33602 net.cpp:399] sc_h_1_2 -> sc_h_1_2
I0623 12:43:56.816817 33602 layer_factory.hpp:77] Creating layer sc_h_1_2
I0623 12:43:56.816964 33602 net.cpp:141] Setting up sc_h_1_2
I0623 12:43:56.816978 33602 net.cpp:148] Top shape: 64 128 16 16 (2097152)
I0623 12:43:56.816984 33602 net.cpp:156] Memory required for data: 1854669056
I0623 12:43:56.816993 33602 layer_factory.hpp:77] Creating layer relu_h_1_2
I0623 12:43:56.817000 33602 net.cpp:91] Creating Layer relu_h_1_2
I0623 12:43:56.817008 33602 net.cpp:425] relu_h_1_2 <- sc_h_1_2
I0623 12:43:56.817014 33602 net.cpp:399] relu_h_1_2 -> relu_h_1_2
I0623 12:43:56.817329 33602 net.cpp:141] Setting up relu_h_1_2
I0623 12:43:56.817344 33602 net.cpp:148] Top shape: 64 128 16 16 (2097152)
I0623 12:43:56.817350 33602 net.cpp:156] Memory required for data: 1863057664
I0623 12:43:56.817355 33602 layer_factory.hpp:77] Creating layer conv_h_1_2
I0623 12:43:56.817373 33602 net.cpp:91] Creating Layer conv_h_1_2
I0623 12:43:56.817380 33602 net.cpp:425] conv_h_1_2 <- relu_h_1_2
I0623 12:43:56.817404 33602 net.cpp:399] conv_h_1_2 -> conv_h_1_2
I0623 12:43:56.822866 33602 net.cpp:141] Setting up conv_h_1_2
I0623 12:43:56.822881 33602 net.cpp:148] Top shape: 64 128 16 16 (2097152)
I0623 12:43:56.822887 33602 net.cpp:156] Memory required for data: 1871446272
I0623 12:43:56.822896 33602 layer_factory.hpp:77] Creating layer res_h
I0623 12:43:56.822922 33602 net.cpp:91] Creating Layer res_h
I0623 12:43:56.822929 33602 net.cpp:425] res_h <- elt_c_2_elt_c_2_0_split_1
I0623 12:43:56.822940 33602 net.cpp:399] res_h -> res_h
I0623 12:43:56.824112 33602 net.cpp:141] Setting up res_h
I0623 12:43:56.824142 33602 net.cpp:148] Top shape: 64 128 16 16 (2097152)
I0623 12:43:56.824148 33602 net.cpp:156] Memory required for data: 1879834880
I0623 12:43:56.824157 33602 layer_factory.hpp:77] Creating layer elt_h_1
I0623 12:43:56.824164 33602 net.cpp:91] Creating Layer elt_h_1
I0623 12:43:56.824170 33602 net.cpp:425] elt_h_1 <- res_h
I0623 12:43:56.824177 33602 net.cpp:425] elt_h_1 <- conv_h_1_2
I0623 12:43:56.824183 33602 net.cpp:399] elt_h_1 -> elt_h_1
I0623 12:43:56.824228 33602 net.cpp:141] Setting up elt_h_1
I0623 12:43:56.824239 33602 net.cpp:148] Top shape: 64 128 16 16 (2097152)
I0623 12:43:56.824244 33602 net.cpp:156] Memory required for data: 1888223488
I0623 12:43:56.824249 33602 layer_factory.hpp:77] Creating layer elt_h_1_elt_h_1_0_split
I0623 12:43:56.824257 33602 net.cpp:91] Creating Layer elt_h_1_elt_h_1_0_split
I0623 12:43:56.824262 33602 net.cpp:425] elt_h_1_elt_h_1_0_split <- elt_h_1
I0623 12:43:56.824270 33602 net.cpp:399] elt_h_1_elt_h_1_0_split -> elt_h_1_elt_h_1_0_split_0
I0623 12:43:56.824283 33602 net.cpp:399] elt_h_1_elt_h_1_0_split -> elt_h_1_elt_h_1_0_split_1
I0623 12:43:56.824331 33602 net.cpp:141] Setting up elt_h_1_elt_h_1_0_split
I0623 12:43:56.824344 33602 net.cpp:148] Top shape: 64 128 16 16 (2097152)
I0623 12:43:56.824352 33602 net.cpp:148] Top shape: 64 128 16 16 (2097152)
I0623 12:43:56.824357 33602 net.cpp:156] Memory required for data: 1905000704
I0623 12:43:56.824362 33602 layer_factory.hpp:77] Creating layer bn_h_2_1
I0623 12:43:56.824369 33602 net.cpp:91] Creating Layer bn_h_2_1
I0623 12:43:56.824375 33602 net.cpp:425] bn_h_2_1 <- elt_h_1_elt_h_1_0_split_0
I0623 12:43:56.824384 33602 net.cpp:399] bn_h_2_1 -> bn_h_2_1
I0623 12:43:56.824630 33602 net.cpp:141] Setting up bn_h_2_1
I0623 12:43:56.824642 33602 net.cpp:148] Top shape: 64 128 16 16 (2097152)
I0623 12:43:56.824647 33602 net.cpp:156] Memory required for data: 1913389312
I0623 12:43:56.824657 33602 layer_factory.hpp:77] Creating layer sc_h_2_1
I0623 12:43:56.824667 33602 net.cpp:91] Creating Layer sc_h_2_1
I0623 12:43:56.824674 33602 net.cpp:425] sc_h_2_1 <- bn_h_2_1
I0623 12:43:56.824684 33602 net.cpp:399] sc_h_2_1 -> sc_h_2_1
I0623 12:43:56.824753 33602 layer_factory.hpp:77] Creating layer sc_h_2_1
I0623 12:43:56.824913 33602 net.cpp:141] Setting up sc_h_2_1
I0623 12:43:56.824926 33602 net.cpp:148] Top shape: 64 128 16 16 (2097152)
I0623 12:43:56.824945 33602 net.cpp:156] Memory required for data: 1921777920
I0623 12:43:56.824954 33602 layer_factory.hpp:77] Creating layer relu_h_2_1
I0623 12:43:56.824964 33602 net.cpp:91] Creating Layer relu_h_2_1
I0623 12:43:56.824970 33602 net.cpp:425] relu_h_2_1 <- sc_h_2_1
I0623 12:43:56.824977 33602 net.cpp:399] relu_h_2_1 -> relu_h_2_1
I0623 12:43:56.825309 33602 net.cpp:141] Setting up relu_h_2_1
I0623 12:43:56.825337 33602 net.cpp:148] Top shape: 64 128 16 16 (2097152)
I0623 12:43:56.825343 33602 net.cpp:156] Memory required for data: 1930166528
I0623 12:43:56.825348 33602 layer_factory.hpp:77] Creating layer conv_h_2_1
I0623 12:43:56.825364 33602 net.cpp:91] Creating Layer conv_h_2_1
I0623 12:43:56.825371 33602 net.cpp:425] conv_h_2_1 <- relu_h_2_1
I0623 12:43:56.825381 33602 net.cpp:399] conv_h_2_1 -> conv_h_2_1
I0623 12:43:56.830822 33602 net.cpp:141] Setting up conv_h_2_1
I0623 12:43:56.830838 33602 net.cpp:148] Top shape: 64 128 16 16 (2097152)
I0623 12:43:56.830857 33602 net.cpp:156] Memory required for data: 1938555136
I0623 12:43:56.830865 33602 layer_factory.hpp:77] Creating layer bn_h_2_2
I0623 12:43:56.830890 33602 net.cpp:91] Creating Layer bn_h_2_2
I0623 12:43:56.830898 33602 net.cpp:425] bn_h_2_2 <- conv_h_2_1
I0623 12:43:56.830919 33602 net.cpp:399] bn_h_2_2 -> bn_h_2_2
I0623 12:43:56.831177 33602 net.cpp:141] Setting up bn_h_2_2
I0623 12:43:56.831190 33602 net.cpp:148] Top shape: 64 128 16 16 (2097152)
I0623 12:43:56.831197 33602 net.cpp:156] Memory required for data: 1946943744
I0623 12:43:56.831207 33602 layer_factory.hpp:77] Creating layer sc_h_2_2
I0623 12:43:56.831230 33602 net.cpp:91] Creating Layer sc_h_2_2
I0623 12:43:56.831243 33602 net.cpp:425] sc_h_2_2 <- bn_h_2_2
I0623 12:43:56.831250 33602 net.cpp:399] sc_h_2_2 -> sc_h_2_2
I0623 12:43:56.831306 33602 layer_factory.hpp:77] Creating layer sc_h_2_2
I0623 12:43:56.831444 33602 net.cpp:141] Setting up sc_h_2_2
I0623 12:43:56.831456 33602 net.cpp:148] Top shape: 64 128 16 16 (2097152)
I0623 12:43:56.831461 33602 net.cpp:156] Memory required for data: 1955332352
I0623 12:43:56.831470 33602 layer_factory.hpp:77] Creating layer relu_h_2_2
I0623 12:43:56.831477 33602 net.cpp:91] Creating Layer relu_h_2_2
I0623 12:43:56.831486 33602 net.cpp:425] relu_h_2_2 <- sc_h_2_2
I0623 12:43:56.831493 33602 net.cpp:399] relu_h_2_2 -> relu_h_2_2
I0623 12:43:56.831696 33602 net.cpp:141] Setting up relu_h_2_2
I0623 12:43:56.831708 33602 net.cpp:148] Top shape: 64 128 16 16 (2097152)
I0623 12:43:56.831714 33602 net.cpp:156] Memory required for data: 1963720960
I0623 12:43:56.831719 33602 layer_factory.hpp:77] Creating layer conv_h_2_2
I0623 12:43:56.831733 33602 net.cpp:91] Creating Layer conv_h_2_2
I0623 12:43:56.831742 33602 net.cpp:425] conv_h_2_2 <- relu_h_2_2
I0623 12:43:56.831753 33602 net.cpp:399] conv_h_2_2 -> conv_h_2_2
I0623 12:43:56.837137 33602 net.cpp:141] Setting up conv_h_2_2
I0623 12:43:56.837153 33602 net.cpp:148] Top shape: 64 128 16 16 (2097152)
I0623 12:43:56.837172 33602 net.cpp:156] Memory required for data: 1972109568
I0623 12:43:56.837182 33602 layer_factory.hpp:77] Creating layer elt_h_2
I0623 12:43:56.837191 33602 net.cpp:91] Creating Layer elt_h_2
I0623 12:43:56.837198 33602 net.cpp:425] elt_h_2 <- elt_h_1_elt_h_1_0_split_1
I0623 12:43:56.837204 33602 net.cpp:425] elt_h_2 <- conv_h_2_2
I0623 12:43:56.837211 33602 net.cpp:399] elt_h_2 -> elt_h_2
I0623 12:43:56.837256 33602 net.cpp:141] Setting up elt_h_2
I0623 12:43:56.837268 33602 net.cpp:148] Top shape: 64 128 16 16 (2097152)
I0623 12:43:56.837273 33602 net.cpp:156] Memory required for data: 1980498176
I0623 12:43:56.837278 33602 layer_factory.hpp:77] Creating layer bn_i_1_1
I0623 12:43:56.837291 33602 net.cpp:91] Creating Layer bn_i_1_1
I0623 12:43:56.837299 33602 net.cpp:425] bn_i_1_1 <- elt_c_2_elt_c_2_0_split_2
I0623 12:43:56.837309 33602 net.cpp:399] bn_i_1_1 -> bn_i_1_1
I0623 12:43:56.837563 33602 net.cpp:141] Setting up bn_i_1_1
I0623 12:43:56.837576 33602 net.cpp:148] Top shape: 64 64 32 32 (4194304)
I0623 12:43:56.837581 33602 net.cpp:156] Memory required for data: 1997275392
I0623 12:43:56.837591 33602 layer_factory.hpp:77] Creating layer sc_i_1_1
I0623 12:43:56.837600 33602 net.cpp:91] Creating Layer sc_i_1_1
I0623 12:43:56.837610 33602 net.cpp:425] sc_i_1_1 <- bn_i_1_1
I0623 12:43:56.837617 33602 net.cpp:399] sc_i_1_1 -> sc_i_1_1
I0623 12:43:56.837677 33602 layer_factory.hpp:77] Creating layer sc_i_1_1
I0623 12:43:56.837823 33602 net.cpp:141] Setting up sc_i_1_1
I0623 12:43:56.837836 33602 net.cpp:148] Top shape: 64 64 32 32 (4194304)
I0623 12:43:56.837841 33602 net.cpp:156] Memory required for data: 2014052608
I0623 12:43:56.837849 33602 layer_factory.hpp:77] Creating layer relu_i_1_1
I0623 12:43:56.837860 33602 net.cpp:91] Creating Layer relu_i_1_1
I0623 12:43:56.837867 33602 net.cpp:425] relu_i_1_1 <- sc_i_1_1
I0623 12:43:56.837874 33602 net.cpp:399] relu_i_1_1 -> relu_i_1_1
I0623 12:43:56.838209 33602 net.cpp:141] Setting up relu_i_1_1
I0623 12:43:56.838237 33602 net.cpp:148] Top shape: 64 64 32 32 (4194304)
I0623 12:43:56.838243 33602 net.cpp:156] Memory required for data: 2030829824
I0623 12:43:56.838248 33602 layer_factory.hpp:77] Creating layer conv_i_1_1
I0623 12:43:56.838275 33602 net.cpp:91] Creating Layer conv_i_1_1
I0623 12:43:56.838284 33602 net.cpp:425] conv_i_1_1 <- relu_i_1_1
I0623 12:43:56.838292 33602 net.cpp:399] conv_i_1_1 -> conv_i_1_1
I0623 12:43:56.841222 33602 net.cpp:141] Setting up conv_i_1_1
I0623 12:43:56.841250 33602 net.cpp:148] Top shape: 64 128 16 16 (2097152)
I0623 12:43:56.841256 33602 net.cpp:156] Memory required for data: 2039218432
I0623 12:43:56.841265 33602 layer_factory.hpp:77] Creating layer bn_i_1_2
I0623 12:43:56.841276 33602 net.cpp:91] Creating Layer bn_i_1_2
I0623 12:43:56.841282 33602 net.cpp:425] bn_i_1_2 <- conv_i_1_1
I0623 12:43:56.841292 33602 net.cpp:399] bn_i_1_2 -> bn_i_1_2
I0623 12:43:56.841567 33602 net.cpp:141] Setting up bn_i_1_2
I0623 12:43:56.841579 33602 net.cpp:148] Top shape: 64 128 16 16 (2097152)
I0623 12:43:56.841584 33602 net.cpp:156] Memory required for data: 2047607040
I0623 12:43:56.841594 33602 layer_factory.hpp:77] Creating layer sc_i_1_2
I0623 12:43:56.841608 33602 net.cpp:91] Creating Layer sc_i_1_2
I0623 12:43:56.841615 33602 net.cpp:425] sc_i_1_2 <- bn_i_1_2
I0623 12:43:56.841624 33602 net.cpp:399] sc_i_1_2 -> sc_i_1_2
I0623 12:43:56.841682 33602 layer_factory.hpp:77] Creating layer sc_i_1_2
I0623 12:43:56.841820 33602 net.cpp:141] Setting up sc_i_1_2
I0623 12:43:56.841832 33602 net.cpp:148] Top shape: 64 128 16 16 (2097152)
I0623 12:43:56.841837 33602 net.cpp:156] Memory required for data: 2055995648
I0623 12:43:56.841846 33602 layer_factory.hpp:77] Creating layer relu_i_1_2
I0623 12:43:56.841855 33602 net.cpp:91] Creating Layer relu_i_1_2
I0623 12:43:56.841861 33602 net.cpp:425] relu_i_1_2 <- sc_i_1_2
I0623 12:43:56.841871 33602 net.cpp:399] relu_i_1_2 -> relu_i_1_2
I0623 12:43:56.842298 33602 net.cpp:141] Setting up relu_i_1_2
I0623 12:43:56.842313 33602 net.cpp:148] Top shape: 64 128 16 16 (2097152)
I0623 12:43:56.842319 33602 net.cpp:156] Memory required for data: 2064384256
I0623 12:43:56.842324 33602 layer_factory.hpp:77] Creating layer conv_i_1_2
I0623 12:43:56.842336 33602 net.cpp:91] Creating Layer conv_i_1_2
I0623 12:43:56.842344 33602 net.cpp:425] conv_i_1_2 <- relu_i_1_2
I0623 12:43:56.842366 33602 net.cpp:399] conv_i_1_2 -> conv_i_1_2
I0623 12:43:56.847659 33602 net.cpp:141] Setting up conv_i_1_2
I0623 12:43:56.847687 33602 net.cpp:148] Top shape: 64 128 16 16 (2097152)
I0623 12:43:56.847693 33602 net.cpp:156] Memory required for data: 2072772864
I0623 12:43:56.847702 33602 layer_factory.hpp:77] Creating layer res_i
I0623 12:43:56.847715 33602 net.cpp:91] Creating Layer res_i
I0623 12:43:56.847721 33602 net.cpp:425] res_i <- elt_c_2_elt_c_2_0_split_3
I0623 12:43:56.847733 33602 net.cpp:399] res_i -> res_i
I0623 12:43:56.849048 33602 net.cpp:141] Setting up res_i
I0623 12:43:56.849062 33602 net.cpp:148] Top shape: 64 128 16 16 (2097152)
I0623 12:43:56.849067 33602 net.cpp:156] Memory required for data: 2081161472
I0623 12:43:56.849076 33602 layer_factory.hpp:77] Creating layer elt_i_1
I0623 12:43:56.849086 33602 net.cpp:91] Creating Layer elt_i_1
I0623 12:43:56.849090 33602 net.cpp:425] elt_i_1 <- res_i
I0623 12:43:56.849109 33602 net.cpp:425] elt_i_1 <- conv_i_1_2
I0623 12:43:56.849117 33602 net.cpp:399] elt_i_1 -> elt_i_1
I0623 12:43:56.849149 33602 net.cpp:141] Setting up elt_i_1
I0623 12:43:56.849161 33602 net.cpp:148] Top shape: 64 128 16 16 (2097152)
I0623 12:43:56.849166 33602 net.cpp:156] Memory required for data: 2089550080
I0623 12:43:56.849170 33602 layer_factory.hpp:77] Creating layer elt_i_1_elt_i_1_0_split
I0623 12:43:56.849177 33602 net.cpp:91] Creating Layer elt_i_1_elt_i_1_0_split
I0623 12:43:56.849184 33602 net.cpp:425] elt_i_1_elt_i_1_0_split <- elt_i_1
I0623 12:43:56.849191 33602 net.cpp:399] elt_i_1_elt_i_1_0_split -> elt_i_1_elt_i_1_0_split_0
I0623 12:43:56.849202 33602 net.cpp:399] elt_i_1_elt_i_1_0_split -> elt_i_1_elt_i_1_0_split_1
I0623 12:43:56.849252 33602 net.cpp:141] Setting up elt_i_1_elt_i_1_0_split
I0623 12:43:56.849266 33602 net.cpp:148] Top shape: 64 128 16 16 (2097152)
I0623 12:43:56.849274 33602 net.cpp:148] Top shape: 64 128 16 16 (2097152)
I0623 12:43:56.849308 33602 net.cpp:156] Memory required for data: 2106327296
I0623 12:43:56.849314 33602 layer_factory.hpp:77] Creating layer bn_i_2_1
I0623 12:43:56.849323 33602 net.cpp:91] Creating Layer bn_i_2_1
I0623 12:43:56.849329 33602 net.cpp:425] bn_i_2_1 <- elt_i_1_elt_i_1_0_split_0
I0623 12:43:56.849339 33602 net.cpp:399] bn_i_2_1 -> bn_i_2_1
I0623 12:43:56.849609 33602 net.cpp:141] Setting up bn_i_2_1
I0623 12:43:56.849622 33602 net.cpp:148] Top shape: 64 128 16 16 (2097152)
I0623 12:43:56.849627 33602 net.cpp:156] Memory required for data: 2114715904
I0623 12:43:56.849653 33602 layer_factory.hpp:77] Creating layer sc_i_2_1
I0623 12:43:56.849661 33602 net.cpp:91] Creating Layer sc_i_2_1
I0623 12:43:56.849668 33602 net.cpp:425] sc_i_2_1 <- bn_i_2_1
I0623 12:43:56.849676 33602 net.cpp:399] sc_i_2_1 -> sc_i_2_1
I0623 12:43:56.849745 33602 layer_factory.hpp:77] Creating layer sc_i_2_1
I0623 12:43:56.849928 33602 net.cpp:141] Setting up sc_i_2_1
I0623 12:43:56.849942 33602 net.cpp:148] Top shape: 64 128 16 16 (2097152)
I0623 12:43:56.849949 33602 net.cpp:156] Memory required for data: 2123104512
I0623 12:43:56.849958 33602 layer_factory.hpp:77] Creating layer relu_i_2_1
I0623 12:43:56.849967 33602 net.cpp:91] Creating Layer relu_i_2_1
I0623 12:43:56.849972 33602 net.cpp:425] relu_i_2_1 <- sc_i_2_1
I0623 12:43:56.849980 33602 net.cpp:399] relu_i_2_1 -> relu_i_2_1
I0623 12:43:56.850198 33602 net.cpp:141] Setting up relu_i_2_1
I0623 12:43:56.850225 33602 net.cpp:148] Top shape: 64 128 16 16 (2097152)
I0623 12:43:56.850232 33602 net.cpp:156] Memory required for data: 2131493120
I0623 12:43:56.850237 33602 layer_factory.hpp:77] Creating layer conv_i_2_1
I0623 12:43:56.850250 33602 net.cpp:91] Creating Layer conv_i_2_1
I0623 12:43:56.850258 33602 net.cpp:425] conv_i_2_1 <- relu_i_2_1
I0623 12:43:56.850266 33602 net.cpp:399] conv_i_2_1 -> conv_i_2_1
I0623 12:43:56.855609 33602 net.cpp:141] Setting up conv_i_2_1
I0623 12:43:56.855624 33602 net.cpp:148] Top shape: 64 128 16 16 (2097152)
I0623 12:43:56.855630 33602 net.cpp:156] Memory required for data: 2139881728
I0623 12:43:56.855638 33602 layer_factory.hpp:77] Creating layer bn_i_2_2
I0623 12:43:56.855662 33602 net.cpp:91] Creating Layer bn_i_2_2
I0623 12:43:56.855669 33602 net.cpp:425] bn_i_2_2 <- conv_i_2_1
I0623 12:43:56.855676 33602 net.cpp:399] bn_i_2_2 -> bn_i_2_2
I0623 12:43:56.855952 33602 net.cpp:141] Setting up bn_i_2_2
I0623 12:43:56.855978 33602 net.cpp:148] Top shape: 64 128 16 16 (2097152)
I0623 12:43:56.855983 33602 net.cpp:156] Memory required for data: 2148270336
I0623 12:43:56.855991 33602 layer_factory.hpp:77] Creating layer sc_i_2_2
I0623 12:43:56.855999 33602 net.cpp:91] Creating Layer sc_i_2_2
I0623 12:43:56.856005 33602 net.cpp:425] sc_i_2_2 <- bn_i_2_2
I0623 12:43:56.856012 33602 net.cpp:399] sc_i_2_2 -> sc_i_2_2
I0623 12:43:56.856086 33602 layer_factory.hpp:77] Creating layer sc_i_2_2
I0623 12:43:56.856230 33602 net.cpp:141] Setting up sc_i_2_2
I0623 12:43:56.856241 33602 net.cpp:148] Top shape: 64 128 16 16 (2097152)
I0623 12:43:56.856246 33602 net.cpp:156] Memory required for data: 2156658944
I0623 12:43:56.856254 33602 layer_factory.hpp:77] Creating layer relu_i_2_2
I0623 12:43:56.856266 33602 net.cpp:91] Creating Layer relu_i_2_2
I0623 12:43:56.856271 33602 net.cpp:425] relu_i_2_2 <- sc_i_2_2
I0623 12:43:56.856281 33602 net.cpp:399] relu_i_2_2 -> relu_i_2_2
I0623 12:43:56.856489 33602 net.cpp:141] Setting up relu_i_2_2
I0623 12:43:56.856503 33602 net.cpp:148] Top shape: 64 128 16 16 (2097152)
I0623 12:43:56.856508 33602 net.cpp:156] Memory required for data: 2165047552
I0623 12:43:56.856513 33602 layer_factory.hpp:77] Creating layer conv_i_2_2
I0623 12:43:56.856528 33602 net.cpp:91] Creating Layer conv_i_2_2
I0623 12:43:56.856535 33602 net.cpp:425] conv_i_2_2 <- relu_i_2_2
I0623 12:43:56.856546 33602 net.cpp:399] conv_i_2_2 -> conv_i_2_2
I0623 12:43:56.861879 33602 net.cpp:141] Setting up conv_i_2_2
I0623 12:43:56.861894 33602 net.cpp:148] Top shape: 64 128 16 16 (2097152)
I0623 12:43:56.861913 33602 net.cpp:156] Memory required for data: 2173436160
I0623 12:43:56.861935 33602 layer_factory.hpp:77] Creating layer elt_i_2
I0623 12:43:56.861946 33602 net.cpp:91] Creating Layer elt_i_2
I0623 12:43:56.861953 33602 net.cpp:425] elt_i_2 <- elt_i_1_elt_i_1_0_split_1
I0623 12:43:56.861974 33602 net.cpp:425] elt_i_2 <- conv_i_2_2
I0623 12:43:56.861981 33602 net.cpp:399] elt_i_2 -> elt_i_2
I0623 12:43:56.862016 33602 net.cpp:141] Setting up elt_i_2
I0623 12:43:56.862030 33602 net.cpp:148] Top shape: 64 128 16 16 (2097152)
I0623 12:43:56.862035 33602 net.cpp:156] Memory required for data: 2181824768
I0623 12:43:56.862040 33602 layer_factory.hpp:77] Creating layer elt_d_f
I0623 12:43:56.862046 33602 net.cpp:91] Creating Layer elt_d_f
I0623 12:43:56.862052 33602 net.cpp:425] elt_d_f <- elt_d_2
I0623 12:43:56.862058 33602 net.cpp:425] elt_d_f <- elt_f_2
I0623 12:43:56.862067 33602 net.cpp:399] elt_d_f -> elt_d_f
I0623 12:43:56.862104 33602 net.cpp:141] Setting up elt_d_f
I0623 12:43:56.862119 33602 net.cpp:148] Top shape: 64 128 16 16 (2097152)
I0623 12:43:56.862126 33602 net.cpp:156] Memory required for data: 2190213376
I0623 12:43:56.862131 33602 layer_factory.hpp:77] Creating layer elt_d_f_elt_d_f_0_split
I0623 12:43:56.862138 33602 net.cpp:91] Creating Layer elt_d_f_elt_d_f_0_split
I0623 12:43:56.862143 33602 net.cpp:425] elt_d_f_elt_d_f_0_split <- elt_d_f
I0623 12:43:56.862150 33602 net.cpp:399] elt_d_f_elt_d_f_0_split -> elt_d_f_elt_d_f_0_split_0
I0623 12:43:56.862159 33602 net.cpp:399] elt_d_f_elt_d_f_0_split -> elt_d_f_elt_d_f_0_split_1
I0623 12:43:56.862229 33602 net.cpp:141] Setting up elt_d_f_elt_d_f_0_split
I0623 12:43:56.862241 33602 net.cpp:148] Top shape: 64 128 16 16 (2097152)
I0623 12:43:56.862248 33602 net.cpp:148] Top shape: 64 128 16 16 (2097152)
I0623 12:43:56.862253 33602 net.cpp:156] Memory required for data: 2206990592
I0623 12:43:56.862258 33602 layer_factory.hpp:77] Creating layer elt_g_i
I0623 12:43:56.862265 33602 net.cpp:91] Creating Layer elt_g_i
I0623 12:43:56.862284 33602 net.cpp:425] elt_g_i <- elt_g_2
I0623 12:43:56.862292 33602 net.cpp:425] elt_g_i <- elt_i_2
I0623 12:43:56.862303 33602 net.cpp:399] elt_g_i -> elt_g_i
I0623 12:43:56.862341 33602 net.cpp:141] Setting up elt_g_i
I0623 12:43:56.862352 33602 net.cpp:148] Top shape: 64 128 16 16 (2097152)
I0623 12:43:56.862357 33602 net.cpp:156] Memory required for data: 2215379200
I0623 12:43:56.862362 33602 layer_factory.hpp:77] Creating layer elt_g_i_elt_g_i_0_split
I0623 12:43:56.862370 33602 net.cpp:91] Creating Layer elt_g_i_elt_g_i_0_split
I0623 12:43:56.862375 33602 net.cpp:425] elt_g_i_elt_g_i_0_split <- elt_g_i
I0623 12:43:56.862381 33602 net.cpp:399] elt_g_i_elt_g_i_0_split -> elt_g_i_elt_g_i_0_split_0
I0623 12:43:56.862391 33602 net.cpp:399] elt_g_i_elt_g_i_0_split -> elt_g_i_elt_g_i_0_split_1
I0623 12:43:56.862445 33602 net.cpp:141] Setting up elt_g_i_elt_g_i_0_split
I0623 12:43:56.862457 33602 net.cpp:148] Top shape: 64 128 16 16 (2097152)
I0623 12:43:56.862463 33602 net.cpp:148] Top shape: 64 128 16 16 (2097152)
I0623 12:43:56.862468 33602 net.cpp:156] Memory required for data: 2232156416
I0623 12:43:56.862473 33602 layer_factory.hpp:77] Creating layer bn_j_1_1
I0623 12:43:56.862483 33602 net.cpp:91] Creating Layer bn_j_1_1
I0623 12:43:56.862490 33602 net.cpp:425] bn_j_1_1 <- elt_d_f_elt_d_f_0_split_0
I0623 12:43:56.862499 33602 net.cpp:399] bn_j_1_1 -> bn_j_1_1
I0623 12:43:56.862766 33602 net.cpp:141] Setting up bn_j_1_1
I0623 12:43:56.862779 33602 net.cpp:148] Top shape: 64 128 16 16 (2097152)
I0623 12:43:56.862785 33602 net.cpp:156] Memory required for data: 2240545024
I0623 12:43:56.862795 33602 layer_factory.hpp:77] Creating layer sc_j_1_1
I0623 12:43:56.862805 33602 net.cpp:91] Creating Layer sc_j_1_1
I0623 12:43:56.862812 33602 net.cpp:425] sc_j_1_1 <- bn_j_1_1
I0623 12:43:56.862820 33602 net.cpp:399] sc_j_1_1 -> sc_j_1_1
I0623 12:43:56.862884 33602 layer_factory.hpp:77] Creating layer sc_j_1_1
I0623 12:43:56.863057 33602 net.cpp:141] Setting up sc_j_1_1
I0623 12:43:56.863070 33602 net.cpp:148] Top shape: 64 128 16 16 (2097152)
I0623 12:43:56.863075 33602 net.cpp:156] Memory required for data: 2248933632
I0623 12:43:56.863096 33602 layer_factory.hpp:77] Creating layer relu_j_1_1
I0623 12:43:56.863107 33602 net.cpp:91] Creating Layer relu_j_1_1
I0623 12:43:56.863116 33602 net.cpp:425] relu_j_1_1 <- sc_j_1_1
I0623 12:43:56.863122 33602 net.cpp:399] relu_j_1_1 -> relu_j_1_1
I0623 12:43:56.863450 33602 net.cpp:141] Setting up relu_j_1_1
I0623 12:43:56.863464 33602 net.cpp:148] Top shape: 64 128 16 16 (2097152)
I0623 12:43:56.863471 33602 net.cpp:156] Memory required for data: 2257322240
I0623 12:43:56.863476 33602 layer_factory.hpp:77] Creating layer conv_j_1_1
I0623 12:43:56.863490 33602 net.cpp:91] Creating Layer conv_j_1_1
I0623 12:43:56.863498 33602 net.cpp:425] conv_j_1_1 <- relu_j_1_1
I0623 12:43:56.863508 33602 net.cpp:399] conv_j_1_1 -> conv_j_1_1
I0623 12:43:56.872836 33602 net.cpp:141] Setting up conv_j_1_1
I0623 12:43:56.872853 33602 net.cpp:148] Top shape: 64 256 8 8 (1048576)
I0623 12:43:56.872871 33602 net.cpp:156] Memory required for data: 2261516544
I0623 12:43:56.872879 33602 layer_factory.hpp:77] Creating layer bn_j_1_2
I0623 12:43:56.872892 33602 net.cpp:91] Creating Layer bn_j_1_2
I0623 12:43:56.872900 33602 net.cpp:425] bn_j_1_2 <- conv_j_1_1
I0623 12:43:56.872907 33602 net.cpp:399] bn_j_1_2 -> bn_j_1_2
I0623 12:43:56.873201 33602 net.cpp:141] Setting up bn_j_1_2
I0623 12:43:56.873214 33602 net.cpp:148] Top shape: 64 256 8 8 (1048576)
I0623 12:43:56.873219 33602 net.cpp:156] Memory required for data: 2265710848
I0623 12:43:56.873229 33602 layer_factory.hpp:77] Creating layer sc_j_1_2
I0623 12:43:56.873239 33602 net.cpp:91] Creating Layer sc_j_1_2
I0623 12:43:56.873248 33602 net.cpp:425] sc_j_1_2 <- bn_j_1_2
I0623 12:43:56.873256 33602 net.cpp:399] sc_j_1_2 -> sc_j_1_2
I0623 12:43:56.873317 33602 layer_factory.hpp:77] Creating layer sc_j_1_2
I0623 12:43:56.873471 33602 net.cpp:141] Setting up sc_j_1_2
I0623 12:43:56.873484 33602 net.cpp:148] Top shape: 64 256 8 8 (1048576)
I0623 12:43:56.873488 33602 net.cpp:156] Memory required for data: 2269905152
I0623 12:43:56.873497 33602 layer_factory.hpp:77] Creating layer relu_j_1_2
I0623 12:43:56.873507 33602 net.cpp:91] Creating Layer relu_j_1_2
I0623 12:43:56.873514 33602 net.cpp:425] relu_j_1_2 <- sc_j_1_2
I0623 12:43:56.873522 33602 net.cpp:399] relu_j_1_2 -> relu_j_1_2
I0623 12:43:56.873733 33602 net.cpp:141] Setting up relu_j_1_2
I0623 12:43:56.873745 33602 net.cpp:148] Top shape: 64 256 8 8 (1048576)
I0623 12:43:56.873750 33602 net.cpp:156] Memory required for data: 2274099456
I0623 12:43:56.873756 33602 layer_factory.hpp:77] Creating layer conv_j_1_2
I0623 12:43:56.873769 33602 net.cpp:91] Creating Layer conv_j_1_2
I0623 12:43:56.873777 33602 net.cpp:425] conv_j_1_2 <- relu_j_1_2
I0623 12:43:56.873788 33602 net.cpp:399] conv_j_1_2 -> conv_j_1_2
I0623 12:43:56.890887 33602 net.cpp:141] Setting up conv_j_1_2
I0623 12:43:56.890916 33602 net.cpp:148] Top shape: 64 256 8 8 (1048576)
I0623 12:43:56.890923 33602 net.cpp:156] Memory required for data: 2278293760
I0623 12:43:56.890930 33602 layer_factory.hpp:77] Creating layer res_j
I0623 12:43:56.890944 33602 net.cpp:91] Creating Layer res_j
I0623 12:43:56.890950 33602 net.cpp:425] res_j <- elt_d_f_elt_d_f_0_split_1
I0623 12:43:56.890960 33602 net.cpp:399] res_j -> res_j
I0623 12:43:56.892925 33602 net.cpp:141] Setting up res_j
I0623 12:43:56.892940 33602 net.cpp:148] Top shape: 64 256 8 8 (1048576)
I0623 12:43:56.892948 33602 net.cpp:156] Memory required for data: 2282488064
I0623 12:43:56.893003 33602 layer_factory.hpp:77] Creating layer elt_j_1
I0623 12:43:56.893016 33602 net.cpp:91] Creating Layer elt_j_1
I0623 12:43:56.893026 33602 net.cpp:425] elt_j_1 <- res_j
I0623 12:43:56.893033 33602 net.cpp:425] elt_j_1 <- conv_j_1_2
I0623 12:43:56.893040 33602 net.cpp:399] elt_j_1 -> elt_j_1
I0623 12:43:56.893079 33602 net.cpp:141] Setting up elt_j_1
I0623 12:43:56.893090 33602 net.cpp:148] Top shape: 64 256 8 8 (1048576)
I0623 12:43:56.893095 33602 net.cpp:156] Memory required for data: 2286682368
I0623 12:43:56.893100 33602 layer_factory.hpp:77] Creating layer elt_j_1_elt_j_1_0_split
I0623 12:43:56.893136 33602 net.cpp:91] Creating Layer elt_j_1_elt_j_1_0_split
I0623 12:43:56.893146 33602 net.cpp:425] elt_j_1_elt_j_1_0_split <- elt_j_1
I0623 12:43:56.893156 33602 net.cpp:399] elt_j_1_elt_j_1_0_split -> elt_j_1_elt_j_1_0_split_0
I0623 12:43:56.893167 33602 net.cpp:399] elt_j_1_elt_j_1_0_split -> elt_j_1_elt_j_1_0_split_1
I0623 12:43:56.893239 33602 net.cpp:141] Setting up elt_j_1_elt_j_1_0_split
I0623 12:43:56.893254 33602 net.cpp:148] Top shape: 64 256 8 8 (1048576)
I0623 12:43:56.893262 33602 net.cpp:148] Top shape: 64 256 8 8 (1048576)
I0623 12:43:56.893267 33602 net.cpp:156] Memory required for data: 2295070976
I0623 12:43:56.893273 33602 layer_factory.hpp:77] Creating layer bn_j_2_1
I0623 12:43:56.893283 33602 net.cpp:91] Creating Layer bn_j_2_1
I0623 12:43:56.893290 33602 net.cpp:425] bn_j_2_1 <- elt_j_1_elt_j_1_0_split_0
I0623 12:43:56.893298 33602 net.cpp:399] bn_j_2_1 -> bn_j_2_1
I0623 12:43:56.893600 33602 net.cpp:141] Setting up bn_j_2_1
I0623 12:43:56.893613 33602 net.cpp:148] Top shape: 64 256 8 8 (1048576)
I0623 12:43:56.893618 33602 net.cpp:156] Memory required for data: 2299265280
I0623 12:43:56.893628 33602 layer_factory.hpp:77] Creating layer sc_j_2_1
I0623 12:43:56.893637 33602 net.cpp:91] Creating Layer sc_j_2_1
I0623 12:43:56.893645 33602 net.cpp:425] sc_j_2_1 <- bn_j_2_1
I0623 12:43:56.893666 33602 net.cpp:399] sc_j_2_1 -> sc_j_2_1
I0623 12:43:56.893740 33602 layer_factory.hpp:77] Creating layer sc_j_2_1
I0623 12:43:56.893893 33602 net.cpp:141] Setting up sc_j_2_1
I0623 12:43:56.893905 33602 net.cpp:148] Top shape: 64 256 8 8 (1048576)
I0623 12:43:56.893910 33602 net.cpp:156] Memory required for data: 2303459584
I0623 12:43:56.893918 33602 layer_factory.hpp:77] Creating layer relu_j_2_1
I0623 12:43:56.893929 33602 net.cpp:91] Creating Layer relu_j_2_1
I0623 12:43:56.893936 33602 net.cpp:425] relu_j_2_1 <- sc_j_2_1
I0623 12:43:56.893944 33602 net.cpp:399] relu_j_2_1 -> relu_j_2_1
I0623 12:43:56.894153 33602 net.cpp:141] Setting up relu_j_2_1
I0623 12:43:56.894167 33602 net.cpp:148] Top shape: 64 256 8 8 (1048576)
I0623 12:43:56.894172 33602 net.cpp:156] Memory required for data: 2307653888
I0623 12:43:56.894177 33602 layer_factory.hpp:77] Creating layer conv_j_2_1
I0623 12:43:56.894191 33602 net.cpp:91] Creating Layer conv_j_2_1
I0623 12:43:56.894199 33602 net.cpp:425] conv_j_2_1 <- relu_j_2_1
I0623 12:43:56.894209 33602 net.cpp:399] conv_j_2_1 -> conv_j_2_1
I0623 12:43:56.911926 33602 net.cpp:141] Setting up conv_j_2_1
I0623 12:43:56.911942 33602 net.cpp:148] Top shape: 64 256 8 8 (1048576)
I0623 12:43:56.911962 33602 net.cpp:156] Memory required for data: 2311848192
I0623 12:43:56.911970 33602 layer_factory.hpp:77] Creating layer bn_j_2_2
I0623 12:43:56.911984 33602 net.cpp:91] Creating Layer bn_j_2_2
I0623 12:43:56.911993 33602 net.cpp:425] bn_j_2_2 <- conv_j_2_1
I0623 12:43:56.912000 33602 net.cpp:399] bn_j_2_2 -> bn_j_2_2
I0623 12:43:56.912286 33602 net.cpp:141] Setting up bn_j_2_2
I0623 12:43:56.912312 33602 net.cpp:148] Top shape: 64 256 8 8 (1048576)
I0623 12:43:56.912317 33602 net.cpp:156] Memory required for data: 2316042496
I0623 12:43:56.912327 33602 layer_factory.hpp:77] Creating layer sc_j_2_2
I0623 12:43:56.912334 33602 net.cpp:91] Creating Layer sc_j_2_2
I0623 12:43:56.912339 33602 net.cpp:425] sc_j_2_2 <- bn_j_2_2
I0623 12:43:56.912349 33602 net.cpp:399] sc_j_2_2 -> sc_j_2_2
I0623 12:43:56.912423 33602 layer_factory.hpp:77] Creating layer sc_j_2_2
I0623 12:43:56.912580 33602 net.cpp:141] Setting up sc_j_2_2
I0623 12:43:56.912591 33602 net.cpp:148] Top shape: 64 256 8 8 (1048576)
I0623 12:43:56.912596 33602 net.cpp:156] Memory required for data: 2320236800
I0623 12:43:56.912606 33602 layer_factory.hpp:77] Creating layer relu_j_2_2
I0623 12:43:56.912613 33602 net.cpp:91] Creating Layer relu_j_2_2
I0623 12:43:56.912619 33602 net.cpp:425] relu_j_2_2 <- sc_j_2_2
I0623 12:43:56.912626 33602 net.cpp:399] relu_j_2_2 -> relu_j_2_2
I0623 12:43:56.912976 33602 net.cpp:141] Setting up relu_j_2_2
I0623 12:43:56.912991 33602 net.cpp:148] Top shape: 64 256 8 8 (1048576)
I0623 12:43:56.913023 33602 net.cpp:156] Memory required for data: 2324431104
I0623 12:43:56.913030 33602 layer_factory.hpp:77] Creating layer conv_j_2_2
I0623 12:43:56.913045 33602 net.cpp:91] Creating Layer conv_j_2_2
I0623 12:43:56.913051 33602 net.cpp:425] conv_j_2_2 <- relu_j_2_2
I0623 12:43:56.913074 33602 net.cpp:399] conv_j_2_2 -> conv_j_2_2
I0623 12:43:56.930200 33602 net.cpp:141] Setting up conv_j_2_2
I0623 12:43:56.930230 33602 net.cpp:148] Top shape: 64 256 8 8 (1048576)
I0623 12:43:56.930236 33602 net.cpp:156] Memory required for data: 2328625408
I0623 12:43:56.930245 33602 layer_factory.hpp:77] Creating layer elt_j_2
I0623 12:43:56.930253 33602 net.cpp:91] Creating Layer elt_j_2
I0623 12:43:56.930259 33602 net.cpp:425] elt_j_2 <- elt_j_1_elt_j_1_0_split_1
I0623 12:43:56.930265 33602 net.cpp:425] elt_j_2 <- conv_j_2_2
I0623 12:43:56.930272 33602 net.cpp:399] elt_j_2 -> elt_j_2
I0623 12:43:56.930328 33602 net.cpp:141] Setting up elt_j_2
I0623 12:43:56.930341 33602 net.cpp:148] Top shape: 64 256 8 8 (1048576)
I0623 12:43:56.930346 33602 net.cpp:156] Memory required for data: 2332819712
I0623 12:43:56.930351 33602 layer_factory.hpp:77] Creating layer bn_e_1_1
I0623 12:43:56.930361 33602 net.cpp:91] Creating Layer bn_e_1_1
I0623 12:43:56.930371 33602 net.cpp:425] bn_e_1_1 <- elt_a_2_elt_a_2_0_split_2
I0623 12:43:56.930378 33602 net.cpp:399] bn_e_1_1 -> bn_e_1_1
I0623 12:43:56.930656 33602 net.cpp:141] Setting up bn_e_1_1
I0623 12:43:56.930687 33602 net.cpp:148] Top shape: 64 64 32 32 (4194304)
I0623 12:43:56.930693 33602 net.cpp:156] Memory required for data: 2349596928
I0623 12:43:56.930703 33602 layer_factory.hpp:77] Creating layer sc_e_1_1
I0623 12:43:56.930714 33602 net.cpp:91] Creating Layer sc_e_1_1
I0623 12:43:56.930721 33602 net.cpp:425] sc_e_1_1 <- bn_e_1_1
I0623 12:43:56.930742 33602 net.cpp:399] sc_e_1_1 -> sc_e_1_1
I0623 12:43:56.930807 33602 layer_factory.hpp:77] Creating layer sc_e_1_1
I0623 12:43:56.930971 33602 net.cpp:141] Setting up sc_e_1_1
I0623 12:43:56.930984 33602 net.cpp:148] Top shape: 64 64 32 32 (4194304)
I0623 12:43:56.930989 33602 net.cpp:156] Memory required for data: 2366374144
I0623 12:43:56.930999 33602 layer_factory.hpp:77] Creating layer relu_e_1_1
I0623 12:43:56.931010 33602 net.cpp:91] Creating Layer relu_e_1_1
I0623 12:43:56.931016 33602 net.cpp:425] relu_e_1_1 <- sc_e_1_1
I0623 12:43:56.931025 33602 net.cpp:399] relu_e_1_1 -> relu_e_1_1
I0623 12:43:56.931380 33602 net.cpp:141] Setting up relu_e_1_1
I0623 12:43:56.931396 33602 net.cpp:148] Top shape: 64 64 32 32 (4194304)
I0623 12:43:56.931414 33602 net.cpp:156] Memory required for data: 2383151360
I0623 12:43:56.931419 33602 layer_factory.hpp:77] Creating layer conv_e_1_1
I0623 12:43:56.931434 33602 net.cpp:91] Creating Layer conv_e_1_1
I0623 12:43:56.931440 33602 net.cpp:425] conv_e_1_1 <- relu_e_1_1
I0623 12:43:56.931452 33602 net.cpp:399] conv_e_1_1 -> conv_e_1_1
I0623 12:43:56.934499 33602 net.cpp:141] Setting up conv_e_1_1
I0623 12:43:56.934514 33602 net.cpp:148] Top shape: 64 128 16 16 (2097152)
I0623 12:43:56.934532 33602 net.cpp:156] Memory required for data: 2391539968
I0623 12:43:56.934540 33602 layer_factory.hpp:77] Creating layer bn_e_1_2
I0623 12:43:56.934550 33602 net.cpp:91] Creating Layer bn_e_1_2
I0623 12:43:56.934554 33602 net.cpp:425] bn_e_1_2 <- conv_e_1_1
I0623 12:43:56.934564 33602 net.cpp:399] bn_e_1_2 -> bn_e_1_2
I0623 12:43:56.934897 33602 net.cpp:141] Setting up bn_e_1_2
I0623 12:43:56.934911 33602 net.cpp:148] Top shape: 64 128 16 16 (2097152)
I0623 12:43:56.934916 33602 net.cpp:156] Memory required for data: 2399928576
I0623 12:43:56.934926 33602 layer_factory.hpp:77] Creating layer sc_e_1_2
I0623 12:43:56.934934 33602 net.cpp:91] Creating Layer sc_e_1_2
I0623 12:43:56.934954 33602 net.cpp:425] sc_e_1_2 <- bn_e_1_2
I0623 12:43:56.934964 33602 net.cpp:399] sc_e_1_2 -> sc_e_1_2
I0623 12:43:56.935037 33602 layer_factory.hpp:77] Creating layer sc_e_1_2
I0623 12:43:56.935186 33602 net.cpp:141] Setting up sc_e_1_2
I0623 12:43:56.935201 33602 net.cpp:148] Top shape: 64 128 16 16 (2097152)
I0623 12:43:56.935240 33602 net.cpp:156] Memory required for data: 2408317184
I0623 12:43:56.935251 33602 layer_factory.hpp:77] Creating layer relu_e_1_2
I0623 12:43:56.935258 33602 net.cpp:91] Creating Layer relu_e_1_2
I0623 12:43:56.935264 33602 net.cpp:425] relu_e_1_2 <- sc_e_1_2
I0623 12:43:56.935272 33602 net.cpp:399] relu_e_1_2 -> relu_e_1_2
I0623 12:43:56.935503 33602 net.cpp:141] Setting up relu_e_1_2
I0623 12:43:56.935516 33602 net.cpp:148] Top shape: 64 128 16 16 (2097152)
I0623 12:43:56.935521 33602 net.cpp:156] Memory required for data: 2416705792
I0623 12:43:56.935526 33602 layer_factory.hpp:77] Creating layer conv_e_1_2
I0623 12:43:56.935539 33602 net.cpp:91] Creating Layer conv_e_1_2
I0623 12:43:56.935547 33602 net.cpp:425] conv_e_1_2 <- relu_e_1_2
I0623 12:43:56.935559 33602 net.cpp:399] conv_e_1_2 -> conv_e_1_2
I0623 12:43:56.940933 33602 net.cpp:141] Setting up conv_e_1_2
I0623 12:43:56.940948 33602 net.cpp:148] Top shape: 64 128 16 16 (2097152)
I0623 12:43:56.940954 33602 net.cpp:156] Memory required for data: 2425094400
I0623 12:43:56.940963 33602 layer_factory.hpp:77] Creating layer res_e
I0623 12:43:56.940975 33602 net.cpp:91] Creating Layer res_e
I0623 12:43:56.940994 33602 net.cpp:425] res_e <- elt_a_2_elt_a_2_0_split_3
I0623 12:43:56.941005 33602 net.cpp:399] res_e -> res_e
I0623 12:43:56.942358 33602 net.cpp:141] Setting up res_e
I0623 12:43:56.942371 33602 net.cpp:148] Top shape: 64 128 16 16 (2097152)
I0623 12:43:56.942378 33602 net.cpp:156] Memory required for data: 2433483008
I0623 12:43:56.942384 33602 layer_factory.hpp:77] Creating layer elt_e_1
I0623 12:43:56.942395 33602 net.cpp:91] Creating Layer elt_e_1
I0623 12:43:56.942414 33602 net.cpp:425] elt_e_1 <- res_e
I0623 12:43:56.942420 33602 net.cpp:425] elt_e_1 <- conv_e_1_2
I0623 12:43:56.942427 33602 net.cpp:399] elt_e_1 -> elt_e_1
I0623 12:43:56.942459 33602 net.cpp:141] Setting up elt_e_1
I0623 12:43:56.942471 33602 net.cpp:148] Top shape: 64 128 16 16 (2097152)
I0623 12:43:56.942476 33602 net.cpp:156] Memory required for data: 2441871616
I0623 12:43:56.942481 33602 layer_factory.hpp:77] Creating layer elt_e_1_elt_e_1_0_split
I0623 12:43:56.942489 33602 net.cpp:91] Creating Layer elt_e_1_elt_e_1_0_split
I0623 12:43:56.942498 33602 net.cpp:425] elt_e_1_elt_e_1_0_split <- elt_e_1
I0623 12:43:56.942505 33602 net.cpp:399] elt_e_1_elt_e_1_0_split -> elt_e_1_elt_e_1_0_split_0
I0623 12:43:56.942515 33602 net.cpp:399] elt_e_1_elt_e_1_0_split -> elt_e_1_elt_e_1_0_split_1
I0623 12:43:56.942566 33602 net.cpp:141] Setting up elt_e_1_elt_e_1_0_split
I0623 12:43:56.942591 33602 net.cpp:148] Top shape: 64 128 16 16 (2097152)
I0623 12:43:56.942601 33602 net.cpp:148] Top shape: 64 128 16 16 (2097152)
I0623 12:43:56.942605 33602 net.cpp:156] Memory required for data: 2458648832
I0623 12:43:56.942610 33602 layer_factory.hpp:77] Creating layer bn_e_2_1
I0623 12:43:56.942620 33602 net.cpp:91] Creating Layer bn_e_2_1
I0623 12:43:56.942630 33602 net.cpp:425] bn_e_2_1 <- elt_e_1_elt_e_1_0_split_0
I0623 12:43:56.942651 33602 net.cpp:399] bn_e_2_1 -> bn_e_2_1
I0623 12:43:56.942955 33602 net.cpp:141] Setting up bn_e_2_1
I0623 12:43:56.942967 33602 net.cpp:148] Top shape: 64 128 16 16 (2097152)
I0623 12:43:56.942986 33602 net.cpp:156] Memory required for data: 2467037440
I0623 12:43:56.942997 33602 layer_factory.hpp:77] Creating layer sc_e_2_1
I0623 12:43:56.943007 33602 net.cpp:91] Creating Layer sc_e_2_1
I0623 12:43:56.943014 33602 net.cpp:425] sc_e_2_1 <- bn_e_2_1
I0623 12:43:56.943022 33602 net.cpp:399] sc_e_2_1 -> sc_e_2_1
I0623 12:43:56.943101 33602 layer_factory.hpp:77] Creating layer sc_e_2_1
I0623 12:43:56.943258 33602 net.cpp:141] Setting up sc_e_2_1
I0623 12:43:56.943269 33602 net.cpp:148] Top shape: 64 128 16 16 (2097152)
I0623 12:43:56.943275 33602 net.cpp:156] Memory required for data: 2475426048
I0623 12:43:56.943284 33602 layer_factory.hpp:77] Creating layer relu_e_2_1
I0623 12:43:56.943295 33602 net.cpp:91] Creating Layer relu_e_2_1
I0623 12:43:56.943302 33602 net.cpp:425] relu_e_2_1 <- sc_e_2_1
I0623 12:43:56.943310 33602 net.cpp:399] relu_e_2_1 -> relu_e_2_1
I0623 12:43:56.943534 33602 net.cpp:141] Setting up relu_e_2_1
I0623 12:43:56.943548 33602 net.cpp:148] Top shape: 64 128 16 16 (2097152)
I0623 12:43:56.943557 33602 net.cpp:156] Memory required for data: 2483814656
I0623 12:43:56.943562 33602 layer_factory.hpp:77] Creating layer conv_e_2_1
I0623 12:43:56.943577 33602 net.cpp:91] Creating Layer conv_e_2_1
I0623 12:43:56.943583 33602 net.cpp:425] conv_e_2_1 <- relu_e_2_1
I0623 12:43:56.943593 33602 net.cpp:399] conv_e_2_1 -> conv_e_2_1
I0623 12:43:56.948956 33602 net.cpp:141] Setting up conv_e_2_1
I0623 12:43:56.948984 33602 net.cpp:148] Top shape: 64 128 16 16 (2097152)
I0623 12:43:56.948990 33602 net.cpp:156] Memory required for data: 2492203264
I0623 12:43:56.948998 33602 layer_factory.hpp:77] Creating layer bn_e_2_2
I0623 12:43:56.949009 33602 net.cpp:91] Creating Layer bn_e_2_2
I0623 12:43:56.949018 33602 net.cpp:425] bn_e_2_2 <- conv_e_2_1
I0623 12:43:56.949026 33602 net.cpp:399] bn_e_2_2 -> bn_e_2_2
I0623 12:43:56.949340 33602 net.cpp:141] Setting up bn_e_2_2
I0623 12:43:56.949353 33602 net.cpp:148] Top shape: 64 128 16 16 (2097152)
I0623 12:43:56.949358 33602 net.cpp:156] Memory required for data: 2500591872
I0623 12:43:56.949368 33602 layer_factory.hpp:77] Creating layer sc_e_2_2
I0623 12:43:56.949376 33602 net.cpp:91] Creating Layer sc_e_2_2
I0623 12:43:56.949394 33602 net.cpp:425] sc_e_2_2 <- bn_e_2_2
I0623 12:43:56.949403 33602 net.cpp:399] sc_e_2_2 -> sc_e_2_2
I0623 12:43:56.949465 33602 layer_factory.hpp:77] Creating layer sc_e_2_2
I0623 12:43:56.949621 33602 net.cpp:141] Setting up sc_e_2_2
I0623 12:43:56.949633 33602 net.cpp:148] Top shape: 64 128 16 16 (2097152)
I0623 12:43:56.949638 33602 net.cpp:156] Memory required for data: 2508980480
I0623 12:43:56.949646 33602 layer_factory.hpp:77] Creating layer relu_e_2_2
I0623 12:43:56.949657 33602 net.cpp:91] Creating Layer relu_e_2_2
I0623 12:43:56.949666 33602 net.cpp:425] relu_e_2_2 <- sc_e_2_2
I0623 12:43:56.949676 33602 net.cpp:399] relu_e_2_2 -> relu_e_2_2
I0623 12:43:56.950019 33602 net.cpp:141] Setting up relu_e_2_2
I0623 12:43:56.950049 33602 net.cpp:148] Top shape: 64 128 16 16 (2097152)
I0623 12:43:56.950055 33602 net.cpp:156] Memory required for data: 2517369088
I0623 12:43:56.950060 33602 layer_factory.hpp:77] Creating layer conv_e_2_2
I0623 12:43:56.950074 33602 net.cpp:91] Creating Layer conv_e_2_2
I0623 12:43:56.950081 33602 net.cpp:425] conv_e_2_2 <- relu_e_2_2
I0623 12:43:56.950090 33602 net.cpp:399] conv_e_2_2 -> conv_e_2_2
I0623 12:43:56.955734 33602 net.cpp:141] Setting up conv_e_2_2
I0623 12:43:56.955749 33602 net.cpp:148] Top shape: 64 128 16 16 (2097152)
I0623 12:43:56.955754 33602 net.cpp:156] Memory required for data: 2525757696
I0623 12:43:56.955762 33602 layer_factory.hpp:77] Creating layer elt_e_2
I0623 12:43:56.955772 33602 net.cpp:91] Creating Layer elt_e_2
I0623 12:43:56.955778 33602 net.cpp:425] elt_e_2 <- elt_e_1_elt_e_1_0_split_1
I0623 12:43:56.955797 33602 net.cpp:425] elt_e_2 <- conv_e_2_2
I0623 12:43:56.955804 33602 net.cpp:399] elt_e_2 -> elt_e_2
I0623 12:43:56.955826 33602 net.cpp:141] Setting up elt_e_2
I0623 12:43:56.955837 33602 net.cpp:148] Top shape: 64 128 16 16 (2097152)
I0623 12:43:56.955842 33602 net.cpp:156] Memory required for data: 2534146304
I0623 12:43:56.955859 33602 layer_factory.hpp:77] Creating layer elt_e_h
I0623 12:43:56.955870 33602 net.cpp:91] Creating Layer elt_e_h
I0623 12:43:56.955878 33602 net.cpp:425] elt_e_h <- elt_e_2
I0623 12:43:56.955884 33602 net.cpp:425] elt_e_h <- elt_h_2
I0623 12:43:56.955893 33602 net.cpp:399] elt_e_h -> elt_e_h
I0623 12:43:56.955920 33602 net.cpp:141] Setting up elt_e_h
I0623 12:43:56.955930 33602 net.cpp:148] Top shape: 64 128 16 16 (2097152)
I0623 12:43:56.955935 33602 net.cpp:156] Memory required for data: 2542534912
I0623 12:43:56.955940 33602 layer_factory.hpp:77] Creating layer elt_e_h_elt_e_h_0_split
I0623 12:43:56.955947 33602 net.cpp:91] Creating Layer elt_e_h_elt_e_h_0_split
I0623 12:43:56.955952 33602 net.cpp:425] elt_e_h_elt_e_h_0_split <- elt_e_h
I0623 12:43:56.955963 33602 net.cpp:399] elt_e_h_elt_e_h_0_split -> elt_e_h_elt_e_h_0_split_0
I0623 12:43:56.956001 33602 net.cpp:399] elt_e_h_elt_e_h_0_split -> elt_e_h_elt_e_h_0_split_1
I0623 12:43:56.956044 33602 net.cpp:141] Setting up elt_e_h_elt_e_h_0_split
I0623 12:43:56.956069 33602 net.cpp:148] Top shape: 64 128 16 16 (2097152)
I0623 12:43:56.956078 33602 net.cpp:148] Top shape: 64 128 16 16 (2097152)
I0623 12:43:56.956082 33602 net.cpp:156] Memory required for data: 2559312128
I0623 12:43:56.956087 33602 layer_factory.hpp:77] Creating layer bn_k_1_1
I0623 12:43:56.956097 33602 net.cpp:91] Creating Layer bn_k_1_1
I0623 12:43:56.956105 33602 net.cpp:425] bn_k_1_1 <- elt_e_h_elt_e_h_0_split_0
I0623 12:43:56.956113 33602 net.cpp:399] bn_k_1_1 -> bn_k_1_1
I0623 12:43:56.956300 33602 net.cpp:141] Setting up bn_k_1_1
I0623 12:43:56.956311 33602 net.cpp:148] Top shape: 64 128 16 16 (2097152)
I0623 12:43:56.956318 33602 net.cpp:156] Memory required for data: 2567700736
I0623 12:43:56.956328 33602 layer_factory.hpp:77] Creating layer sc_k_1_1
I0623 12:43:56.956337 33602 net.cpp:91] Creating Layer sc_k_1_1
I0623 12:43:56.956357 33602 net.cpp:425] sc_k_1_1 <- bn_k_1_1
I0623 12:43:56.956365 33602 net.cpp:399] sc_k_1_1 -> sc_k_1_1
I0623 12:43:56.956409 33602 layer_factory.hpp:77] Creating layer sc_k_1_1
I0623 12:43:56.956535 33602 net.cpp:141] Setting up sc_k_1_1
I0623 12:43:56.956547 33602 net.cpp:148] Top shape: 64 128 16 16 (2097152)
I0623 12:43:56.956553 33602 net.cpp:156] Memory required for data: 2576089344
I0623 12:43:56.956562 33602 layer_factory.hpp:77] Creating layer relu_k_1_1
I0623 12:43:56.956570 33602 net.cpp:91] Creating Layer relu_k_1_1
I0623 12:43:56.956578 33602 net.cpp:425] relu_k_1_1 <- sc_k_1_1
I0623 12:43:56.956586 33602 net.cpp:399] relu_k_1_1 -> relu_k_1_1
I0623 12:43:56.956913 33602 net.cpp:141] Setting up relu_k_1_1
I0623 12:43:56.956940 33602 net.cpp:148] Top shape: 64 128 16 16 (2097152)
I0623 12:43:56.956948 33602 net.cpp:156] Memory required for data: 2584477952
I0623 12:43:56.956954 33602 layer_factory.hpp:77] Creating layer conv_k_1_1
I0623 12:43:56.956967 33602 net.cpp:91] Creating Layer conv_k_1_1
I0623 12:43:56.956975 33602 net.cpp:425] conv_k_1_1 <- relu_k_1_1
I0623 12:43:56.956986 33602 net.cpp:399] conv_k_1_1 -> conv_k_1_1
I0623 12:43:56.966189 33602 net.cpp:141] Setting up conv_k_1_1
I0623 12:43:56.966207 33602 net.cpp:148] Top shape: 64 256 8 8 (1048576)
I0623 12:43:56.966226 33602 net.cpp:156] Memory required for data: 2588672256
I0623 12:43:56.966236 33602 layer_factory.hpp:77] Creating layer bn_k_1_2
I0623 12:43:56.966249 33602 net.cpp:91] Creating Layer bn_k_1_2
I0623 12:43:56.966258 33602 net.cpp:425] bn_k_1_2 <- conv_k_1_1
I0623 12:43:56.966265 33602 net.cpp:399] bn_k_1_2 -> bn_k_1_2
I0623 12:43:56.966485 33602 net.cpp:141] Setting up bn_k_1_2
I0623 12:43:56.966497 33602 net.cpp:148] Top shape: 64 256 8 8 (1048576)
I0623 12:43:56.966502 33602 net.cpp:156] Memory required for data: 2592866560
I0623 12:43:56.966512 33602 layer_factory.hpp:77] Creating layer sc_k_1_2
I0623 12:43:56.966522 33602 net.cpp:91] Creating Layer sc_k_1_2
I0623 12:43:56.966531 33602 net.cpp:425] sc_k_1_2 <- bn_k_1_2
I0623 12:43:56.966539 33602 net.cpp:399] sc_k_1_2 -> sc_k_1_2
I0623 12:43:56.966586 33602 layer_factory.hpp:77] Creating layer sc_k_1_2
I0623 12:43:56.966711 33602 net.cpp:141] Setting up sc_k_1_2
I0623 12:43:56.966725 33602 net.cpp:148] Top shape: 64 256 8 8 (1048576)
I0623 12:43:56.966732 33602 net.cpp:156] Memory required for data: 2597060864
I0623 12:43:56.966740 33602 layer_factory.hpp:77] Creating layer relu_k_1_2
I0623 12:43:56.966749 33602 net.cpp:91] Creating Layer relu_k_1_2
I0623 12:43:56.966758 33602 net.cpp:425] relu_k_1_2 <- sc_k_1_2
I0623 12:43:56.966764 33602 net.cpp:399] relu_k_1_2 -> relu_k_1_2
I0623 12:43:56.966979 33602 net.cpp:141] Setting up relu_k_1_2
I0623 12:43:56.966992 33602 net.cpp:148] Top shape: 64 256 8 8 (1048576)
I0623 12:43:56.966998 33602 net.cpp:156] Memory required for data: 2601255168
I0623 12:43:56.967003 33602 layer_factory.hpp:77] Creating layer conv_k_1_2
I0623 12:43:56.967017 33602 net.cpp:91] Creating Layer conv_k_1_2
I0623 12:43:56.967042 33602 net.cpp:425] conv_k_1_2 <- relu_k_1_2
I0623 12:43:56.967056 33602 net.cpp:399] conv_k_1_2 -> conv_k_1_2
I0623 12:43:56.984933 33602 net.cpp:141] Setting up conv_k_1_2
I0623 12:43:56.984951 33602 net.cpp:148] Top shape: 64 256 8 8 (1048576)
I0623 12:43:56.984969 33602 net.cpp:156] Memory required for data: 2605449472
I0623 12:43:56.984979 33602 layer_factory.hpp:77] Creating layer res_k
I0623 12:43:56.984995 33602 net.cpp:91] Creating Layer res_k
I0623 12:43:56.985003 33602 net.cpp:425] res_k <- elt_e_h_elt_e_h_0_split_1
I0623 12:43:56.985015 33602 net.cpp:399] res_k -> res_k
I0623 12:43:56.987076 33602 net.cpp:141] Setting up res_k
I0623 12:43:56.987092 33602 net.cpp:148] Top shape: 64 256 8 8 (1048576)
I0623 12:43:56.987113 33602 net.cpp:156] Memory required for data: 2609643776
I0623 12:43:56.987123 33602 layer_factory.hpp:77] Creating layer elt_k_1
I0623 12:43:56.987138 33602 net.cpp:91] Creating Layer elt_k_1
I0623 12:43:56.987145 33602 net.cpp:425] elt_k_1 <- res_k
I0623 12:43:56.987152 33602 net.cpp:425] elt_k_1 <- conv_k_1_2
I0623 12:43:56.987159 33602 net.cpp:399] elt_k_1 -> elt_k_1
I0623 12:43:56.987196 33602 net.cpp:141] Setting up elt_k_1
I0623 12:43:56.987208 33602 net.cpp:148] Top shape: 64 256 8 8 (1048576)
I0623 12:43:56.987212 33602 net.cpp:156] Memory required for data: 2613838080
I0623 12:43:56.987218 33602 layer_factory.hpp:77] Creating layer elt_k_1_elt_k_1_0_split
I0623 12:43:56.987226 33602 net.cpp:91] Creating Layer elt_k_1_elt_k_1_0_split
I0623 12:43:56.987231 33602 net.cpp:425] elt_k_1_elt_k_1_0_split <- elt_k_1
I0623 12:43:56.987241 33602 net.cpp:399] elt_k_1_elt_k_1_0_split -> elt_k_1_elt_k_1_0_split_0
I0623 12:43:56.987251 33602 net.cpp:399] elt_k_1_elt_k_1_0_split -> elt_k_1_elt_k_1_0_split_1
I0623 12:43:56.987290 33602 net.cpp:141] Setting up elt_k_1_elt_k_1_0_split
I0623 12:43:56.987301 33602 net.cpp:148] Top shape: 64 256 8 8 (1048576)
I0623 12:43:56.987308 33602 net.cpp:148] Top shape: 64 256 8 8 (1048576)
I0623 12:43:56.987313 33602 net.cpp:156] Memory required for data: 2622226688
I0623 12:43:56.987318 33602 layer_factory.hpp:77] Creating layer bn_k_2_1
I0623 12:43:56.987329 33602 net.cpp:91] Creating Layer bn_k_2_1
I0623 12:43:56.987335 33602 net.cpp:425] bn_k_2_1 <- elt_k_1_elt_k_1_0_split_0
I0623 12:43:56.987345 33602 net.cpp:399] bn_k_2_1 -> bn_k_2_1
I0623 12:43:56.987521 33602 net.cpp:141] Setting up bn_k_2_1
I0623 12:43:56.987534 33602 net.cpp:148] Top shape: 64 256 8 8 (1048576)
I0623 12:43:56.987538 33602 net.cpp:156] Memory required for data: 2626420992
I0623 12:43:56.987548 33602 layer_factory.hpp:77] Creating layer sc_k_2_1
I0623 12:43:56.987558 33602 net.cpp:91] Creating Layer sc_k_2_1
I0623 12:43:56.987565 33602 net.cpp:425] sc_k_2_1 <- bn_k_2_1
I0623 12:43:56.987572 33602 net.cpp:399] sc_k_2_1 -> sc_k_2_1
I0623 12:43:56.987622 33602 layer_factory.hpp:77] Creating layer sc_k_2_1
I0623 12:43:56.987730 33602 net.cpp:141] Setting up sc_k_2_1
I0623 12:43:56.987742 33602 net.cpp:148] Top shape: 64 256 8 8 (1048576)
I0623 12:43:56.987748 33602 net.cpp:156] Memory required for data: 2630615296
I0623 12:43:56.987757 33602 layer_factory.hpp:77] Creating layer relu_k_2_1
I0623 12:43:56.987782 33602 net.cpp:91] Creating Layer relu_k_2_1
…
I0623 12:43:57.277026 33602 net.cpp:425] conv_i_2_2 <- relu_i_2_2
I0623 12:43:57.277035 33602 net.cpp:399] conv_i_2_2 -> conv_i_2_2
I0623 12:43:57.282553 33602 net.cpp:141] Setting up conv_i_2_2
I0623 12:43:57.282569 33602 net.cpp:148] Top shape: 100 128 16 16 (3276800)
I0623 12:43:57.282591 33602 net.cpp:156] Memory required for data: 3395994800
I0623 12:43:57.282601 33602 layer_factory.hpp:77] Creating layer elt_i_2
I0623 12:43:57.282613 33602 net.cpp:91] Creating Layer elt_i_2
I0623 12:43:57.282623 33602 net.cpp:425] elt_i_2 <- elt_i_1_elt_i_1_0_split_1
I0623 12:43:57.282629 33602 net.cpp:425] elt_i_2 <- conv_i_2_2
I0623 12:43:57.282636 33602 net.cpp:399] elt_i_2 -> elt_i_2
I0623 12:43:57.282665 33602 net.cpp:141] Setting up elt_i_2
I0623 12:43:57.282676 33602 net.cpp:148] Top shape: 100 128 16 16 (3276800)
I0623 12:43:57.282681 33602 net.cpp:156] Memory required for data: 3409102000
I0623 12:43:57.282706 33602 layer_factory.hpp:77] Creating layer elt_d_f
I0623 12:43:57.282714 33602 net.cpp:91] Creating Layer elt_d_f
I0623 12:43:57.282721 33602 net.cpp:425] elt_d_f <- elt_d_2
I0623 12:43:57.282727 33602 net.cpp:425] elt_d_f <- elt_f_2
I0623 12:43:57.282737 33602 net.cpp:399] elt_d_f -> elt_d_f
I0623 12:43:57.282781 33602 net.cpp:141] Setting up elt_d_f
I0623 12:43:57.282793 33602 net.cpp:148] Top shape: 100 128 16 16 (3276800)
I0623 12:43:57.282799 33602 net.cpp:156] Memory required for data: 3422209200
I0623 12:43:57.282804 33602 layer_factory.hpp:77] Creating layer elt_d_f_elt_d_f_0_split
I0623 12:43:57.282814 33602 net.cpp:91] Creating Layer elt_d_f_elt_d_f_0_split
I0623 12:43:57.282820 33602 net.cpp:425] elt_d_f_elt_d_f_0_split <- elt_d_f
I0623 12:43:57.282829 33602 net.cpp:399] elt_d_f_elt_d_f_0_split -> elt_d_f_elt_d_f_0_split_0
I0623 12:43:57.282836 33602 net.cpp:399] elt_d_f_elt_d_f_0_split -> elt_d_f_elt_d_f_0_split_1
I0623 12:43:57.282881 33602 net.cpp:141] Setting up elt_d_f_elt_d_f_0_split
I0623 12:43:57.282891 33602 net.cpp:148] Top shape: 100 128 16 16 (3276800)
I0623 12:43:57.282897 33602 net.cpp:148] Top shape: 100 128 16 16 (3276800)
I0623 12:43:57.282902 33602 net.cpp:156] Memory required for data: 3448423600
I0623 12:43:57.282907 33602 layer_factory.hpp:77] Creating layer elt_g_i
I0623 12:43:57.282917 33602 net.cpp:91] Creating Layer elt_g_i
I0623 12:43:57.282924 33602 net.cpp:425] elt_g_i <- elt_g_2
I0623 12:43:57.282932 33602 net.cpp:425] elt_g_i <- elt_i_2
I0623 12:43:57.282938 33602 net.cpp:399] elt_g_i -> elt_g_i
I0623 12:43:57.282966 33602 net.cpp:141] Setting up elt_g_i
I0623 12:43:57.282977 33602 net.cpp:148] Top shape: 100 128 16 16 (3276800)
I0623 12:43:57.282982 33602 net.cpp:156] Memory required for data: 3461530800
I0623 12:43:57.282987 33602 layer_factory.hpp:77] Creating layer elt_g_i_elt_g_i_0_split
I0623 12:43:57.282994 33602 net.cpp:91] Creating Layer elt_g_i_elt_g_i_0_split
I0623 12:43:57.283015 33602 net.cpp:425] elt_g_i_elt_g_i_0_split <- elt_g_i
I0623 12:43:57.283023 33602 net.cpp:399] elt_g_i_elt_g_i_0_split -> elt_g_i_elt_g_i_0_split_0
I0623 12:43:57.283033 33602 net.cpp:399] elt_g_i_elt_g_i_0_split -> elt_g_i_elt_g_i_0_split_1
I0623 12:43:57.283072 33602 net.cpp:141] Setting up elt_g_i_elt_g_i_0_split
I0623 12:43:57.283085 33602 net.cpp:148] Top shape: 100 128 16 16 (3276800)
I0623 12:43:57.283092 33602 net.cpp:148] Top shape: 100 128 16 16 (3276800)
I0623 12:43:57.283097 33602 net.cpp:156] Memory required for data: 3487745200
I0623 12:43:57.283102 33602 layer_factory.hpp:77] Creating layer bn_j_1_1
I0623 12:43:57.283110 33602 net.cpp:91] Creating Layer bn_j_1_1
I0623 12:43:57.283115 33602 net.cpp:425] bn_j_1_1 <- elt_d_f_elt_d_f_0_split_0
I0623 12:43:57.283125 33602 net.cpp:399] bn_j_1_1 -> bn_j_1_1
I0623 12:43:57.283299 33602 net.cpp:141] Setting up bn_j_1_1
I0623 12:43:57.283311 33602 net.cpp:148] Top shape: 100 128 16 16 (3276800)
I0623 12:43:57.283344 33602 net.cpp:156] Memory required for data: 3500852400
I0623 12:43:57.283357 33602 layer_factory.hpp:77] Creating layer sc_j_1_1
I0623 12:43:57.283367 33602 net.cpp:91] Creating Layer sc_j_1_1
I0623 12:43:57.283375 33602 net.cpp:425] sc_j_1_1 <- bn_j_1_1
I0623 12:43:57.283385 33602 net.cpp:399] sc_j_1_1 -> sc_j_1_1
I0623 12:43:57.283444 33602 layer_factory.hpp:77] Creating layer sc_j_1_1
I0623 12:43:57.283552 33602 net.cpp:141] Setting up sc_j_1_1
I0623 12:43:57.283581 33602 net.cpp:148] Top shape: 100 128 16 16 (3276800)
I0623 12:43:57.283587 33602 net.cpp:156] Memory required for data: 3513959600
I0623 12:43:57.283596 33602 layer_factory.hpp:77] Creating layer relu_j_1_1
I0623 12:43:57.283604 33602 net.cpp:91] Creating Layer relu_j_1_1
I0623 12:43:57.283612 33602 net.cpp:425] relu_j_1_1 <- sc_j_1_1
I0623 12:43:57.283618 33602 net.cpp:399] relu_j_1_1 -> relu_j_1_1
I0623 12:43:57.284004 33602 net.cpp:141] Setting up relu_j_1_1
I0623 12:43:57.284019 33602 net.cpp:148] Top shape: 100 128 16 16 (3276800)
I0623 12:43:57.284039 33602 net.cpp:156] Memory required for data: 3527066800
I0623 12:43:57.284044 33602 layer_factory.hpp:77] Creating layer conv_j_1_1
I0623 12:43:57.284059 33602 net.cpp:91] Creating Layer conv_j_1_1
I0623 12:43:57.284065 33602 net.cpp:425] conv_j_1_1 <- relu_j_1_1
I0623 12:43:57.284075 33602 net.cpp:399] conv_j_1_1 -> conv_j_1_1
I0623 12:43:57.293509 33602 net.cpp:141] Setting up conv_j_1_1
I0623 12:43:57.293525 33602 net.cpp:148] Top shape: 100 256 8 8 (1638400)
I0623 12:43:57.293545 33602 net.cpp:156] Memory required for data: 3533620400
I0623 12:43:57.293552 33602 layer_factory.hpp:77] Creating layer bn_j_1_2
I0623 12:43:57.293565 33602 net.cpp:91] Creating Layer bn_j_1_2
I0623 12:43:57.293573 33602 net.cpp:425] bn_j_1_2 <- conv_j_1_1
I0623 12:43:57.293581 33602 net.cpp:399] bn_j_1_2 -> bn_j_1_2
I0623 12:43:57.293813 33602 net.cpp:141] Setting up bn_j_1_2
I0623 12:43:57.293825 33602 net.cpp:148] Top shape: 100 256 8 8 (1638400)
I0623 12:43:57.293830 33602 net.cpp:156] Memory required for data: 3540174000
I0623 12:43:57.293839 33602 layer_factory.hpp:77] Creating layer sc_j_1_2
I0623 12:43:57.293851 33602 net.cpp:91] Creating Layer sc_j_1_2
I0623 12:43:57.293872 33602 net.cpp:425] sc_j_1_2 <- bn_j_1_2
I0623 12:43:57.293880 33602 net.cpp:399] sc_j_1_2 -> sc_j_1_2
I0623 12:43:57.293928 33602 layer_factory.hpp:77] Creating layer sc_j_1_2
I0623 12:43:57.294044 33602 net.cpp:141] Setting up sc_j_1_2
I0623 12:43:57.294055 33602 net.cpp:148] Top shape: 100 256 8 8 (1638400)
I0623 12:43:57.294060 33602 net.cpp:156] Memory required for data: 3546727600
I0623 12:43:57.294069 33602 layer_factory.hpp:77] Creating layer relu_j_1_2
I0623 12:43:57.294080 33602 net.cpp:91] Creating Layer relu_j_1_2
I0623 12:43:57.294086 33602 net.cpp:425] relu_j_1_2 <- sc_j_1_2
I0623 12:43:57.294095 33602 net.cpp:399] relu_j_1_2 -> relu_j_1_2
I0623 12:43:57.294328 33602 net.cpp:141] Setting up relu_j_1_2
I0623 12:43:57.294342 33602 net.cpp:148] Top shape: 100 256 8 8 (1638400)
I0623 12:43:57.294348 33602 net.cpp:156] Memory required for data: 3553281200
I0623 12:43:57.294353 33602 layer_factory.hpp:77] Creating layer conv_j_1_2
I0623 12:43:57.294366 33602 net.cpp:91] Creating Layer conv_j_1_2
I0623 12:43:57.294373 33602 net.cpp:425] conv_j_1_2 <- relu_j_1_2
I0623 12:43:57.294384 33602 net.cpp:399] conv_j_1_2 -> conv_j_1_2
I0623 12:43:57.312019 33602 net.cpp:141] Setting up conv_j_1_2
I0623 12:43:57.312036 33602 net.cpp:148] Top shape: 100 256 8 8 (1638400)
I0623 12:43:57.312054 33602 net.cpp:156] Memory required for data: 3559834800
I0623 12:43:57.312063 33602 layer_factory.hpp:77] Creating layer res_j
I0623 12:43:57.312080 33602 net.cpp:91] Creating Layer res_j
I0623 12:43:57.312088 33602 net.cpp:425] res_j <- elt_d_f_elt_d_f_0_split_1
I0623 12:43:57.312099 33602 net.cpp:399] res_j -> res_j
I0623 12:43:57.314600 33602 net.cpp:141] Setting up res_j
I0623 12:43:57.314616 33602 net.cpp:148] Top shape: 100 256 8 8 (1638400)
I0623 12:43:57.314625 33602 net.cpp:156] Memory required for data: 3566388400
I0623 12:43:57.314669 33602 layer_factory.hpp:77] Creating layer elt_j_1
I0623 12:43:57.314713 33602 net.cpp:91] Creating Layer elt_j_1
I0623 12:43:57.314721 33602 net.cpp:425] elt_j_1 <- res_j
I0623 12:43:57.314728 33602 net.cpp:425] elt_j_1 <- conv_j_1_2
I0623 12:43:57.314735 33602 net.cpp:399] elt_j_1 -> elt_j_1
I0623 12:43:57.314785 33602 net.cpp:141] Setting up elt_j_1
I0623 12:43:57.314796 33602 net.cpp:148] Top shape: 100 256 8 8 (1638400)
I0623 12:43:57.314801 33602 net.cpp:156] Memory required for data: 3572942000
I0623 12:43:57.314806 33602 layer_factory.hpp:77] Creating layer elt_j_1_elt_j_1_0_split
I0623 12:43:57.314815 33602 net.cpp:91] Creating Layer elt_j_1_elt_j_1_0_split
I0623 12:43:57.314836 33602 net.cpp:425] elt_j_1_elt_j_1_0_split <- elt_j_1
I0623 12:43:57.314846 33602 net.cpp:399] elt_j_1_elt_j_1_0_split -> elt_j_1_elt_j_1_0_split_0
I0623 12:43:57.314857 33602 net.cpp:399] elt_j_1_elt_j_1_0_split -> elt_j_1_elt_j_1_0_split_1
I0623 12:43:57.314904 33602 net.cpp:141] Setting up elt_j_1_elt_j_1_0_split
I0623 12:43:57.314916 33602 net.cpp:148] Top shape: 100 256 8 8 (1638400)
I0623 12:43:57.314923 33602 net.cpp:148] Top shape: 100 256 8 8 (1638400)
I0623 12:43:57.314927 33602 net.cpp:156] Memory required for data: 3586049200
I0623 12:43:57.314932 33602 layer_factory.hpp:77] Creating layer bn_j_2_1
I0623 12:43:57.314944 33602 net.cpp:91] Creating Layer bn_j_2_1
I0623 12:43:57.314951 33602 net.cpp:425] bn_j_2_1 <- elt_j_1_elt_j_1_0_split_0
I0623 12:43:57.314961 33602 net.cpp:399] bn_j_2_1 -> bn_j_2_1
I0623 12:43:57.315173 33602 net.cpp:141] Setting up bn_j_2_1
I0623 12:43:57.315186 33602 net.cpp:148] Top shape: 100 256 8 8 (1638400)
I0623 12:43:57.315191 33602 net.cpp:156] Memory required for data: 3592602800
I0623 12:43:57.315201 33602 layer_factory.hpp:77] Creating layer sc_j_2_1
I0623 12:43:57.315210 33602 net.cpp:91] Creating Layer sc_j_2_1
I0623 12:43:57.315217 33602 net.cpp:425] sc_j_2_1 <- bn_j_2_1
I0623 12:43:57.315225 33602 net.cpp:399] sc_j_2_1 -> sc_j_2_1
I0623 12:43:57.315275 33602 layer_factory.hpp:77] Creating layer sc_j_2_1
I0623 12:43:57.315388 33602 net.cpp:141] Setting up sc_j_2_1
I0623 12:43:57.315400 33602 net.cpp:148] Top shape: 100 256 8 8 (1638400)
I0623 12:43:57.315405 33602 net.cpp:156] Memory required for data: 3599156400
I0623 12:43:57.315414 33602 layer_factory.hpp:77] Creating layer relu_j_2_1
I0623 12:43:57.315423 33602 net.cpp:91] Creating Layer relu_j_2_1
I0623 12:43:57.315428 33602 net.cpp:425] relu_j_2_1 <- sc_j_2_1
I0623 12:43:57.315438 33602 net.cpp:399] relu_j_2_1 -> relu_j_2_1
I0623 12:43:57.315675 33602 net.cpp:141] Setting up relu_j_2_1
I0623 12:43:57.315691 33602 net.cpp:148] Top shape: 100 256 8 8 (1638400)
I0623 12:43:57.315697 33602 net.cpp:156] Memory required for data: 3605710000
I0623 12:43:57.315703 33602 layer_factory.hpp:77] Creating layer conv_j_2_1
I0623 12:43:57.315716 33602 net.cpp:91] Creating Layer conv_j_2_1
I0623 12:43:57.315724 33602 net.cpp:425] conv_j_2_1 <- relu_j_2_1
I0623 12:43:57.315733 33602 net.cpp:399] conv_j_2_1 -> conv_j_2_1
I0623 12:43:57.333421 33602 net.cpp:141] Setting up conv_j_2_1
I0623 12:43:57.333438 33602 net.cpp:148] Top shape: 100 256 8 8 (1638400)
I0623 12:43:57.333456 33602 net.cpp:156] Memory required for data: 3612263600
I0623 12:43:57.333467 33602 layer_factory.hpp:77] Creating layer bn_j_2_2
I0623 12:43:57.333477 33602 net.cpp:91] Creating Layer bn_j_2_2
I0623 12:43:57.333484 33602 net.cpp:425] bn_j_2_2 <- conv_j_2_1
I0623 12:43:57.333492 33602 net.cpp:399] bn_j_2_2 -> bn_j_2_2
I0623 12:43:57.333712 33602 net.cpp:141] Setting up bn_j_2_2
I0623 12:43:57.333725 33602 net.cpp:148] Top shape: 100 256 8 8 (1638400)
I0623 12:43:57.333730 33602 net.cpp:156] Memory required for data: 3618817200
I0623 12:43:57.333740 33602 layer_factory.hpp:77] Creating layer sc_j_2_2
I0623 12:43:57.333751 33602 net.cpp:91] Creating Layer sc_j_2_2
I0623 12:43:57.333760 33602 net.cpp:425] sc_j_2_2 <- bn_j_2_2
I0623 12:43:57.333770 33602 net.cpp:399] sc_j_2_2 -> sc_j_2_2
I0623 12:43:57.333819 33602 layer_factory.hpp:77] Creating layer sc_j_2_2
I0623 12:43:57.333940 33602 net.cpp:141] Setting up sc_j_2_2
I0623 12:43:57.333979 33602 net.cpp:148] Top shape: 100 256 8 8 (1638400)
I0623 12:43:57.333986 33602 net.cpp:156] Memory required for data: 3625370800
I0623 12:43:57.333995 33602 layer_factory.hpp:77] Creating layer relu_j_2_2
I0623 12:43:57.334003 33602 net.cpp:91] Creating Layer relu_j_2_2
I0623 12:43:57.334008 33602 net.cpp:425] relu_j_2_2 <- sc_j_2_2
I0623 12:43:57.334017 33602 net.cpp:399] relu_j_2_2 -> relu_j_2_2
I0623 12:43:57.334411 33602 net.cpp:141] Setting up relu_j_2_2
I0623 12:43:57.334429 33602 net.cpp:148] Top shape: 100 256 8 8 (1638400)
I0623 12:43:57.334436 33602 net.cpp:156] Memory required for data: 3631924400
I0623 12:43:57.334441 33602 layer_factory.hpp:77] Creating layer conv_j_2_2
I0623 12:43:57.334455 33602 net.cpp:91] Creating Layer conv_j_2_2
I0623 12:43:57.334463 33602 net.cpp:425] conv_j_2_2 <- relu_j_2_2
I0623 12:43:57.334472 33602 net.cpp:399] conv_j_2_2 -> conv_j_2_2
I0623 12:43:57.352033 33602 net.cpp:141] Setting up conv_j_2_2
I0623 12:43:57.352051 33602 net.cpp:148] Top shape: 100 256 8 8 (1638400)
I0623 12:43:57.352073 33602 net.cpp:156] Memory required for data: 3638478000
I0623 12:43:57.352082 33602 layer_factory.hpp:77] Creating layer elt_j_2
I0623 12:43:57.352092 33602 net.cpp:91] Creating Layer elt_j_2
I0623 12:43:57.352102 33602 net.cpp:425] elt_j_2 <- elt_j_1_elt_j_1_0_split_1
I0623 12:43:57.352108 33602 net.cpp:425] elt_j_2 <- conv_j_2_2
I0623 12:43:57.352115 33602 net.cpp:399] elt_j_2 -> elt_j_2
I0623 12:43:57.352154 33602 net.cpp:141] Setting up elt_j_2
I0623 12:43:57.352164 33602 net.cpp:148] Top shape: 100 256 8 8 (1638400)
I0623 12:43:57.352169 33602 net.cpp:156] Memory required for data: 3645031600
I0623 12:43:57.352174 33602 layer_factory.hpp:77] Creating layer bn_e_1_1
I0623 12:43:57.352183 33602 net.cpp:91] Creating Layer bn_e_1_1
I0623 12:43:57.352191 33602 net.cpp:425] bn_e_1_1 <- elt_a_2_elt_a_2_0_split_2
I0623 12:43:57.352198 33602 net.cpp:399] bn_e_1_1 -> bn_e_1_1
I0623 12:43:57.352442 33602 net.cpp:141] Setting up bn_e_1_1
I0623 12:43:57.352455 33602 net.cpp:148] Top shape: 100 64 32 32 (6553600)
I0623 12:43:57.352460 33602 net.cpp:156] Memory required for data: 3671246000
I0623 12:43:57.352470 33602 layer_factory.hpp:77] Creating layer sc_e_1_1
I0623 12:43:57.352483 33602 net.cpp:91] Creating Layer sc_e_1_1
I0623 12:43:57.352490 33602 net.cpp:425] sc_e_1_1 <- bn_e_1_1
I0623 12:43:57.352499 33602 net.cpp:399] sc_e_1_1 -> sc_e_1_1
I0623 12:43:57.352550 33602 layer_factory.hpp:77] Creating layer sc_e_1_1
I0623 12:43:57.352712 33602 net.cpp:141] Setting up sc_e_1_1
I0623 12:43:57.352725 33602 net.cpp:148] Top shape: 100 64 32 32 (6553600)
I0623 12:43:57.352730 33602 net.cpp:156] Memory required for data: 3697460400
I0623 12:43:57.352738 33602 layer_factory.hpp:77] Creating layer relu_e_1_1
I0623 12:43:57.352746 33602 net.cpp:91] Creating Layer relu_e_1_1
I0623 12:43:57.352752 33602 net.cpp:425] relu_e_1_1 <- sc_e_1_1
I0623 12:43:57.352762 33602 net.cpp:399] relu_e_1_1 -> relu_e_1_1
I0623 12:43:57.353130 33602 net.cpp:141] Setting up relu_e_1_1
I0623 12:43:57.353145 33602 net.cpp:148] Top shape: 100 64 32 32 (6553600)
I0623 12:43:57.353152 33602 net.cpp:156] Memory required for data: 3723674800
I0623 12:43:57.353157 33602 layer_factory.hpp:77] Creating layer conv_e_1_1
I0623 12:43:57.353173 33602 net.cpp:91] Creating Layer conv_e_1_1
I0623 12:43:57.353179 33602 net.cpp:425] conv_e_1_1 <- relu_e_1_1
I0623 12:43:57.353191 33602 net.cpp:399] conv_e_1_1 -> conv_e_1_1
I0623 12:43:57.356293 33602 net.cpp:141] Setting up conv_e_1_1
I0623 12:43:57.356309 33602 net.cpp:148] Top shape: 100 128 16 16 (3276800)
I0623 12:43:57.356331 33602 net.cpp:156] Memory required for data: 3736782000
I0623 12:43:57.356341 33602 layer_factory.hpp:77] Creating layer bn_e_1_2
I0623 12:43:57.356350 33602 net.cpp:91] Creating Layer bn_e_1_2
I0623 12:43:57.356358 33602 net.cpp:425] bn_e_1_2 <- conv_e_1_1
I0623 12:43:57.356367 33602 net.cpp:399] bn_e_1_2 -> bn_e_1_2
I0623 12:43:57.356583 33602 net.cpp:141] Setting up bn_e_1_2
I0623 12:43:57.356595 33602 net.cpp:148] Top shape: 100 128 16 16 (3276800)
I0623 12:43:57.356616 33602 net.cpp:156] Memory required for data: 3749889200
I0623 12:43:57.356642 33602 layer_factory.hpp:77] Creating layer sc_e_1_2
I0623 12:43:57.356652 33602 net.cpp:91] Creating Layer sc_e_1_2
I0623 12:43:57.356658 33602 net.cpp:425] sc_e_1_2 <- bn_e_1_2
I0623 12:43:57.356669 33602 net.cpp:399] sc_e_1_2 -> sc_e_1_2
I0623 12:43:57.356719 33602 layer_factory.hpp:77] Creating layer sc_e_1_2
I0623 12:43:57.356833 33602 net.cpp:141] Setting up sc_e_1_2
I0623 12:43:57.356847 33602 net.cpp:148] Top shape: 100 128 16 16 (3276800)
I0623 12:43:57.356851 33602 net.cpp:156] Memory required for data: 3762996400
I0623 12:43:57.356859 33602 layer_factory.hpp:77] Creating layer relu_e_1_2
I0623 12:43:57.356869 33602 net.cpp:91] Creating Layer relu_e_1_2
I0623 12:43:57.356878 33602 net.cpp:425] relu_e_1_2 <- sc_e_1_2
I0623 12:43:57.356884 33602 net.cpp:399] relu_e_1_2 -> relu_e_1_2
I0623 12:43:57.357167 33602 net.cpp:141] Setting up relu_e_1_2
I0623 12:43:57.357180 33602 net.cpp:148] Top shape: 100 128 16 16 (3276800)
I0623 12:43:57.357185 33602 net.cpp:156] Memory required for data: 3776103600
I0623 12:43:57.357190 33602 layer_factory.hpp:77] Creating layer conv_e_1_2
I0623 12:43:57.357203 33602 net.cpp:91] Creating Layer conv_e_1_2
I0623 12:43:57.357210 33602 net.cpp:425] conv_e_1_2 <- relu_e_1_2
I0623 12:43:57.357221 33602 net.cpp:399] conv_e_1_2 -> conv_e_1_2
I0623 12:43:57.362828 33602 net.cpp:141] Setting up conv_e_1_2
I0623 12:43:57.362844 33602 net.cpp:148] Top shape: 100 128 16 16 (3276800)
I0623 12:43:57.362864 33602 net.cpp:156] Memory required for data: 3789210800
I0623 12:43:57.362872 33602 layer_factory.hpp:77] Creating layer res_e
I0623 12:43:57.362889 33602 net.cpp:91] Creating Layer res_e
I0623 12:43:57.362896 33602 net.cpp:425] res_e <- elt_a_2_elt_a_2_0_split_3
I0623 12:43:57.362907 33602 net.cpp:399] res_e -> res_e
I0623 12:43:57.364357 33602 net.cpp:141] Setting up res_e
I0623 12:43:57.364372 33602 net.cpp:148] Top shape: 100 128 16 16 (3276800)
I0623 12:43:57.364382 33602 net.cpp:156] Memory required for data: 3802318000
I0623 12:43:57.364389 33602 layer_factory.hpp:77] Creating layer elt_e_1
I0623 12:43:57.364403 33602 net.cpp:91] Creating Layer elt_e_1
I0623 12:43:57.364409 33602 net.cpp:425] elt_e_1 <- res_e
I0623 12:43:57.364416 33602 net.cpp:425] elt_e_1 <- conv_e_1_2
I0623 12:43:57.364423 33602 net.cpp:399] elt_e_1 -> elt_e_1
I0623 12:43:57.364449 33602 net.cpp:141] Setting up elt_e_1
I0623 12:43:57.364459 33602 net.cpp:148] Top shape: 100 128 16 16 (3276800)
I0623 12:43:57.364464 33602 net.cpp:156] Memory required for data: 3815425200
I0623 12:43:57.364470 33602 layer_factory.hpp:77] Creating layer elt_e_1_elt_e_1_0_split
I0623 12:43:57.364478 33602 net.cpp:91] Creating Layer elt_e_1_elt_e_1_0_split
I0623 12:43:57.364485 33602 net.cpp:425] elt_e_1_elt_e_1_0_split <- elt_e_1
I0623 12:43:57.364492 33602 net.cpp:399] elt_e_1_elt_e_1_0_split -> elt_e_1_elt_e_1_0_split_0
I0623 12:43:57.364501 33602 net.cpp:399] elt_e_1_elt_e_1_0_split -> elt_e_1_elt_e_1_0_split_1
I0623 12:43:57.364557 33602 net.cpp:141] Setting up elt_e_1_elt_e_1_0_split
I0623 12:43:57.364567 33602 net.cpp:148] Top shape: 100 128 16 16 (3276800)
I0623 12:43:57.364573 33602 net.cpp:148] Top shape: 100 128 16 16 (3276800)
I0623 12:43:57.364578 33602 net.cpp:156] Memory required for data: 3841639600
I0623 12:43:57.364596 33602 layer_factory.hpp:77] Creating layer bn_e_2_1
I0623 12:43:57.364606 33602 net.cpp:91] Creating Layer bn_e_2_1
I0623 12:43:57.364614 33602 net.cpp:425] bn_e_2_1 <- elt_e_1_elt_e_1_0_split_0
I0623 12:43:57.364621 33602 net.cpp:399] bn_e_2_1 -> bn_e_2_1
I0623 12:43:57.364816 33602 net.cpp:141] Setting up bn_e_2_1
I0623 12:43:57.364828 33602 net.cpp:148] Top shape: 100 128 16 16 (3276800)
I0623 12:43:57.364835 33602 net.cpp:156] Memory required for data: 3854746800
I0623 12:43:57.364845 33602 layer_factory.hpp:77] Creating layer sc_e_2_1
I0623 12:43:57.364855 33602 net.cpp:91] Creating Layer sc_e_2_1
I0623 12:43:57.364861 33602 net.cpp:425] sc_e_2_1 <- bn_e_2_1
I0623 12:43:57.364897 33602 net.cpp:399] sc_e_2_1 -> sc_e_2_1
I0623 12:43:57.364965 33602 layer_factory.hpp:77] Creating layer sc_e_2_1
I0623 12:43:57.365080 33602 net.cpp:141] Setting up sc_e_2_1
I0623 12:43:57.365092 33602 net.cpp:148] Top shape: 100 128 16 16 (3276800)
I0623 12:43:57.365098 33602 net.cpp:156] Memory required for data: 3867854000
I0623 12:43:57.365108 33602 layer_factory.hpp:77] Creating layer relu_e_2_1
I0623 12:43:57.365118 33602 net.cpp:91] Creating Layer relu_e_2_1
I0623 12:43:57.365124 33602 net.cpp:425] relu_e_2_1 <- sc_e_2_1
I0623 12:43:57.365133 33602 net.cpp:399] relu_e_2_1 -> relu_e_2_1
I0623 12:43:57.365384 33602 net.cpp:141] Setting up relu_e_2_1
I0623 12:43:57.365397 33602 net.cpp:148] Top shape: 100 128 16 16 (3276800)
I0623 12:43:57.365402 33602 net.cpp:156] Memory required for data: 3880961200
I0623 12:43:57.365408 33602 layer_factory.hpp:77] Creating layer conv_e_2_1
I0623 12:43:57.365420 33602 net.cpp:91] Creating Layer conv_e_2_1
I0623 12:43:57.365440 33602 net.cpp:425] conv_e_2_1 <- relu_e_2_1
I0623 12:43:57.365453 33602 net.cpp:399] conv_e_2_1 -> conv_e_2_1
I0623 12:43:57.371000 33602 net.cpp:141] Setting up conv_e_2_1
I0623 12:43:57.371016 33602 net.cpp:148] Top shape: 100 128 16 16 (3276800)
I0623 12:43:57.371021 33602 net.cpp:156] Memory required for data: 3894068400
I0623 12:43:57.371029 33602 layer_factory.hpp:77] Creating layer bn_e_2_2
I0623 12:43:57.371042 33602 net.cpp:91] Creating Layer bn_e_2_2
I0623 12:43:57.371048 33602 net.cpp:425] bn_e_2_2 <- conv_e_2_1
I0623 12:43:57.371057 33602 net.cpp:399] bn_e_2_2 -> bn_e_2_2
I0623 12:43:57.371275 33602 net.cpp:141] Setting up bn_e_2_2
I0623 12:43:57.371289 33602 net.cpp:148] Top shape: 100 128 16 16 (3276800)
I0623 12:43:57.371294 33602 net.cpp:156] Memory required for data: 3907175600
I0623 12:43:57.371304 33602 layer_factory.hpp:77] Creating layer sc_e_2_2
I0623 12:43:57.371315 33602 net.cpp:91] Creating Layer sc_e_2_2
I0623 12:43:57.371321 33602 net.cpp:425] sc_e_2_2 <- bn_e_2_2
I0623 12:43:57.371330 33602 net.cpp:399] sc_e_2_2 -> sc_e_2_2
I0623 12:43:57.371379 33602 layer_factory.hpp:77] Creating layer sc_e_2_2
I0623 12:43:57.371492 33602 net.cpp:141] Setting up sc_e_2_2
I0623 12:43:57.371505 33602 net.cpp:148] Top shape: 100 128 16 16 (3276800)
I0623 12:43:57.371510 33602 net.cpp:156] Memory required for data: 3920282800
I0623 12:43:57.371517 33602 layer_factory.hpp:77] Creating layer relu_e_2_2
I0623 12:43:57.371528 33602 net.cpp:91] Creating Layer relu_e_2_2
I0623 12:43:57.371536 33602 net.cpp:425] relu_e_2_2 <- sc_e_2_2
I0623 12:43:57.371547 33602 net.cpp:399] relu_e_2_2 -> relu_e_2_2
I0623 12:43:57.371913 33602 net.cpp:141] Setting up relu_e_2_2
I0623 12:43:57.371930 33602 net.cpp:148] Top shape: 100 128 16 16 (3276800)
I0623 12:43:57.371937 33602 net.cpp:156] Memory required for data: 3933390000
I0623 12:43:57.371942 33602 layer_factory.hpp:77] Creating layer conv_e_2_2
I0623 12:43:57.371956 33602 net.cpp:91] Creating Layer conv_e_2_2
I0623 12:43:57.371963 33602 net.cpp:425] conv_e_2_2 <- relu_e_2_2
I0623 12:43:57.371973 33602 net.cpp:399] conv_e_2_2 -> conv_e_2_2
I0623 12:43:57.377601 33602 net.cpp:141] Setting up conv_e_2_2
I0623 12:43:57.377617 33602 net.cpp:148] Top shape: 100 128 16 16 (3276800)
I0623 12:43:57.377636 33602 net.cpp:156] Memory required for data: 3946497200
I0623 12:43:57.377645 33602 layer_factory.hpp:77] Creating layer elt_e_2
I0623 12:43:57.377658 33602 net.cpp:91] Creating Layer elt_e_2
I0623 12:43:57.377666 33602 net.cpp:425] elt_e_2 <- elt_e_1_elt_e_1_0_split_1
I0623 12:43:57.377673 33602 net.cpp:425] elt_e_2 <- conv_e_2_2
I0623 12:43:57.377681 33602 net.cpp:399] elt_e_2 -> elt_e_2
I0623 12:43:57.377722 33602 net.cpp:141] Setting up elt_e_2
I0623 12:43:57.377734 33602 net.cpp:148] Top shape: 100 128 16 16 (3276800)
I0623 12:43:57.377738 33602 net.cpp:156] Memory required for data: 3959604400
I0623 12:43:57.377743 33602 layer_factory.hpp:77] Creating layer elt_e_h
I0623 12:43:57.377754 33602 net.cpp:91] Creating Layer elt_e_h
I0623 12:43:57.377761 33602 net.cpp:425] elt_e_h <- elt_e_2
I0623 12:43:57.377784 33602 net.cpp:425] elt_e_h <- elt_h_2
I0623 12:43:57.377796 33602 net.cpp:399] elt_e_h -> elt_e_h
I0623 12:43:57.377827 33602 net.cpp:141] Setting up elt_e_h
I0623 12:43:57.377840 33602 net.cpp:148] Top shape: 100 128 16 16 (3276800)
I0623 12:43:57.377845 33602 net.cpp:156] Memory required for data: 3972711600
I0623 12:43:57.377849 33602 layer_factory.hpp:77] Creating layer elt_e_h_elt_e_h_0_split
I0623 12:43:57.377859 33602 net.cpp:91] Creating Layer elt_e_h_elt_e_h_0_split
I0623 12:43:57.377866 33602 net.cpp:425] elt_e_h_elt_e_h_0_split <- elt_e_h
I0623 12:43:57.377873 33602 net.cpp:399] elt_e_h_elt_e_h_0_split -> elt_e_h_elt_e_h_0_split_0
I0623 12:43:57.377882 33602 net.cpp:399] elt_e_h_elt_e_h_0_split -> elt_e_h_elt_e_h_0_split_1
I0623 12:43:57.377926 33602 net.cpp:141] Setting up elt_e_h_elt_e_h_0_split
I0623 12:43:57.377938 33602 net.cpp:148] Top shape: 100 128 16 16 (3276800)
I0623 12:43:57.377943 33602 net.cpp:148] Top shape: 100 128 16 16 (3276800)
I0623 12:43:57.377948 33602 net.cpp:156] Memory required for data: 3998926000
I0623 12:43:57.377954 33602 layer_factory.hpp:77] Creating layer bn_k_1_1
I0623 12:43:57.377964 33602 net.cpp:91] Creating Layer bn_k_1_1
I0623 12:43:57.377971 33602 net.cpp:425] bn_k_1_1 <- elt_e_h_elt_e_h_0_split_0
I0623 12:43:57.377979 33602 net.cpp:399] bn_k_1_1 -> bn_k_1_1
I0623 12:43:57.378180 33602 net.cpp:141] Setting up bn_k_1_1
I0623 12:43:57.378190 33602 net.cpp:148] Top shape: 100 128 16 16 (3276800)
I0623 12:43:57.378196 33602 net.cpp:156] Memory required for data: 4012033200
I0623 12:43:57.378206 33602 layer_factory.hpp:77] Creating layer sc_k_1_1
I0623 12:43:57.378216 33602 net.cpp:91] Creating Layer sc_k_1_1
I0623 12:43:57.378222 33602 net.cpp:425] sc_k_1_1 <- bn_k_1_1
I0623 12:43:57.378229 33602 net.cpp:399] sc_k_1_1 -> sc_k_1_1
I0623 12:43:57.378281 33602 layer_factory.hpp:77] Creating layer sc_k_1_1
I0623 12:43:57.378419 33602 net.cpp:141] Setting up sc_k_1_1
I0623 12:43:57.378430 33602 net.cpp:148] Top shape: 100 128 16 16 (3276800)
I0623 12:43:57.378435 33602 net.cpp:156] Memory required for data: 4025140400
I0623 12:43:57.378443 33602 layer_factory.hpp:77] Creating layer relu_k_1_1
I0623 12:43:57.378450 33602 net.cpp:91] Creating Layer relu_k_1_1
I0623 12:43:57.378456 33602 net.cpp:425] relu_k_1_1 <- sc_k_1_1
I0623 12:43:57.378464 33602 net.cpp:399] relu_k_1_1 -> relu_k_1_1
I0623 12:43:57.378691 33602 net.cpp:141] Setting up relu_k_1_1
I0623 12:43:57.378718 33602 net.cpp:148] Top shape: 100 128 16 16 (3276800)
I0623 12:43:57.378725 33602 net.cpp:156] Memory required for data: 4038247600
I0623 12:43:57.378729 33602 layer_factory.hpp:77] Creating layer conv_k_1_1
I0623 12:43:57.378742 33602 net.cpp:91] Creating Layer conv_k_1_1
I0623 12:43:57.378751 33602 net.cpp:425] conv_k_1_1 <- relu_k_1_1
I0623 12:43:57.378760 33602 net.cpp:399] conv_k_1_1 -> conv_k_1_1
I0623 12:43:57.388301 33602 net.cpp:141] Setting up conv_k_1_1
I0623 12:43:57.388319 33602 net.cpp:148] Top shape: 100 256 8 8 (1638400)
I0623 12:43:57.388324 33602 net.cpp:156] Memory required for data: 4044801200
I0623 12:43:57.388332 33602 layer_factory.hpp:77] Creating layer bn_k_1_2
I0623 12:43:57.388365 33602 net.cpp:91] Creating Layer bn_k_1_2
I0623 12:43:57.388373 33602 net.cpp:425] bn_k_1_2 <- conv_k_1_1
I0623 12:43:57.388384 33602 net.cpp:399] bn_k_1_2 -> bn_k_1_2
I0623 12:43:57.388612 33602 net.cpp:141] Setting up bn_k_1_2
I0623 12:43:57.388625 33602 net.cpp:148] Top shape: 100 256 8 8 (1638400)
I0623 12:43:57.388630 33602 net.cpp:156] Memory required for data: 4051354800
I0623 12:43:57.388640 33602 layer_factory.hpp:77] Creating layer sc_k_1_2
I0623 12:43:57.388650 33602 net.cpp:91] Creating Layer sc_k_1_2
I0623 12:43:57.388659 33602 net.cpp:425] sc_k_1_2 <- bn_k_1_2
I0623 12:43:57.388666 33602 net.cpp:399] sc_k_1_2 -> sc_k_1_2
I0623 12:43:57.388720 33602 layer_factory.hpp:77] Creating layer sc_k_1_2
I0623 12:43:57.388845 33602 net.cpp:141] Setting up sc_k_1_2
I0623 12:43:57.388856 33602 net.cpp:148] Top shape: 100 256 8 8 (1638400)
I0623 12:43:57.388861 33602 net.cpp:156] Memory required for data: 4057908400
I0623 12:43:57.388886 33602 layer_factory.hpp:77] Creating layer relu_k_1_2
I0623 12:43:57.388896 33602 net.cpp:91] Creating Layer relu_k_1_2
I0623 12:43:57.388902 33602 net.cpp:425] relu_k_1_2 <- sc_k_1_2
I0623 12:43:57.388911 33602 net.cpp:399] relu_k_1_2 -> relu_k_1_2
I0623 12:43:57.389149 33602 net.cpp:141] Setting up relu_k_1_2
I0623 12:43:57.389163 33602 net.cpp:148] Top shape: 100 256 8 8 (1638400)
I0623 12:43:57.389168 33602 net.cpp:156] Memory required for data: 4064462000
I0623 12:43:57.389173 33602 layer_factory.hpp:77] Creating layer conv_k_1_2
I0623 12:43:57.389186 33602 net.cpp:91] Creating Layer conv_k_1_2
I0623 12:43:57.389194 33602 net.cpp:425] conv_k_1_2 <- relu_k_1_2
I0623 12:43:57.389205 33602 net.cpp:399] conv_k_1_2 -> conv_k_1_2
I0623 12:43:57.406962 33602 net.cpp:141] Setting up conv_k_1_2
I0623 12:43:57.406978 33602 net.cpp:148] Top shape: 100 256 8 8 (1638400)
I0623 12:43:57.406985 33602 net.cpp:156] Memory required for data: 4071015600
I0623 12:43:57.407006 33602 layer_factory.hpp:77] Creating layer res_k
I0623 12:43:57.407023 33602 net.cpp:91] Creating Layer res_k
I0623 12:43:57.407032 33602 net.cpp:425] res_k <- elt_e_h_elt_e_h_0_split_1
I0623 12:43:57.407040 33602 net.cpp:399] res_k -> res_k
I0623 12:43:57.409157 33602 net.cpp:141] Setting up res_k
I0623 12:43:57.409173 33602 net.cpp:148] Top shape: 100 256 8 8 (1638400)
I0623 12:43:57.409195 33602 net.cpp:156] Memory required for data: 4077569200
I0623 12:43:57.409204 33602 layer_factory.hpp:77] Creating layer elt_k_1
I0623 12:43:57.409215 33602 net.cpp:91] Creating Layer elt_k_1
I0623 12:43:57.409221 33602 net.cpp:425] elt_k_1 <- res_k
I0623 12:43:57.409229 33602 net.cpp:425] elt_k_1 <- conv_k_1_2
I0623 12:43:57.409241 33602 net.cpp:399] elt_k_1 -> elt_k_1
I0623 12:43:57.409276 33602 net.cpp:141] Setting up elt_k_1
I0623 12:43:57.409286 33602 net.cpp:148] Top shape: 100 256 8 8 (1638400)
I0623 12:43:57.409291 33602 net.cpp:156] Memory required for data: 4084122800
I0623 12:43:57.409296 33602 layer_factory.hpp:77] Creating layer elt_k_1_elt_k_1_0_split
I0623 12:43:57.409307 33602 net.cpp:91] Creating Layer elt_k_1_elt_k_1_0_split
I0623 12:43:57.409313 33602 net.cpp:425] elt_k_1_elt_k_1_0_split <- elt_k_1
I0623 12:43:57.409320 33602 net.cpp:399] elt_k_1_elt_k_1_0_split -> elt_k_1_elt_k_1_0_split_0
I0623 12:43:57.409329 33602 net.cpp:399] elt_k_1_elt_k_1_0_split -> elt_k_1_elt_k_1_0_split_1
I0623 12:43:57.409375 33602 net.cpp:141] Setting up elt_k_1_elt_k_1_0_split
I0623 12:43:57.409386 33602 net.cpp:148] Top shape: 100 256 8 8 (1638400)
I0623 12:43:57.409392 33602 net.cpp:148] Top shape: 100 256 8 8 (1638400)
I0623 12:43:57.409397 33602 net.cpp:156] Memory required for data: 4097230000
I0623 12:43:57.409402 33602 layer_factory.hpp:77] Creating layer bn_k_2_1
I0623 12:43:57.409412 33602 net.cpp:91] Creating Layer bn_k_2_1
I0623 12:43:57.409420 33602 net.cpp:425] bn_k_2_1 <- elt_k_1_elt_k_1_0_split_0
I0623 12:43:57.409427 33602 net.cpp:399] bn_k_2_1 -> bn_k_2_1
I0623 12:43:57.409634 33602 net.cpp:141] Setting up bn_k_2_1
I0623 12:43:57.409646 33602 net.cpp:148] Top shape: 100 256 8 8 (1638400)
I0623 12:43:57.409651 33602 net.cpp:156] Memory required for data: 4103783600
I0623 12:43:57.409662 33602 layer_factory.hpp:77] Creating layer sc_k_2_1
I0623 12:43:57.409672 33602 net.cpp:91] Creating Layer sc_k_2_1
I0623 12:43:57.409678 33602 net.cpp:425] sc_k_2_1 <- bn_k_2_1
I0623 12:43:57.409693 33602 net.cpp:399] sc_k_2_1 -> sc_k_2_1
I0623 12:43:57.409746 33602 layer_factory.hpp:77] Creating layer sc_k_2_1
I0623 12:43:57.409871 33602 net.cpp:141] Setting up sc_k_2_1
I0623 12:43:57.409883 33602 net.cpp:148] Top shape: 100 256 8 8 (1638400)
I0623 12:43:57.409888 33602 net.cpp:156] Memory required for data: 4110337200
I0623 12:43:57.409898 33602 layer_factory.hpp:77] Creating layer relu_k_2_1
I0623 12:43:57.409905 33602 net.cpp:91] Creating Layer relu_k_2_1
I0623 12:43:57.409911 33602 net.cpp:425] relu_k_2_1 <- sc_k_2_1
I0623 12:43:57.409919 33602 net.cpp:399] relu_k_2_1 -> relu_k_2_1
I0623 12:43:57.410434 33602 net.cpp:141] Setting up relu_k_2_1
I0623 12:43:57.410468 33602 net.cpp:148] Top shape: 100 256 8 8 (1638400)
I0623 12:43:57.410477 33602 net.cpp:156] Memory required for data: 4116890800
I0623 12:43:57.410483 33602 layer_factory.hpp:77] Creating layer conv_k_2_1
I0623 12:43:57.410495 33602 net.cpp:91] Creating Layer conv_k_2_1
I0623 12:43:57.410516 33602 net.cpp:425] conv_k_2_1 <- relu_k_2_1
I0623 12:43:57.410528 33602 net.cpp:399] conv_k_2_1 -> conv_k_2_1
I0623 12:43:57.428675 33602 net.cpp:141] Setting up conv_k_2_1
I0623 12:43:57.428692 33602 net.cpp:148] Top shape: 100 256 8 8 (1638400)
I0623 12:43:57.428699 33602 net.cpp:156] Memory required for data: 4123444400
I0623 12:43:57.428720 33602 layer_factory.hpp:77] Creating layer bn_k_2_2
I0623 12:43:57.428736 33602 net.cpp:91] Creating Layer bn_k_2_2
I0623 12:43:57.428745 33602 net.cpp:425] bn_k_2_2 <- conv_k_2_1
I0623 12:43:57.428753 33602 net.cpp:399] bn_k_2_2 -> bn_k_2_2
I0623 12:43:57.428972 33602 net.cpp:141] Setting up bn_k_2_2
I0623 12:43:57.428984 33602 net.cpp:148] Top shape: 100 256 8 8 (1638400)
I0623 12:43:57.428989 33602 net.cpp:156] Memory required for data: 4129998000
I0623 12:43:57.428999 33602 layer_factory.hpp:77] Creating layer sc_k_2_2
I0623 12:43:57.429013 33602 net.cpp:91] Creating Layer sc_k_2_2
I0623 12:43:57.429020 33602 net.cpp:425] sc_k_2_2 <- bn_k_2_2
I0623 12:43:57.429028 33602 net.cpp:399] sc_k_2_2 -> sc_k_2_2
I0623 12:43:57.429078 33602 layer_factory.hpp:77] Creating layer sc_k_2_2
I0623 12:43:57.429205 33602 net.cpp:141] Setting up sc_k_2_2
I0623 12:43:57.429217 33602 net.cpp:148] Top shape: 100 256 8 8 (1638400)
I0623 12:43:57.429222 33602 net.cpp:156] Memory required for data: 4136551600
I0623 12:43:57.429231 33602 layer_factory.hpp:77] Creating layer relu_k_2_2
I0623 12:43:57.429242 33602 net.cpp:91] Creating Layer relu_k_2_2
I0623 12:43:57.429250 33602 net.cpp:425] relu_k_2_2 <- sc_k_2_2
I0623 12:43:57.429257 33602 net.cpp:399] relu_k_2_2 -> relu_k_2_2
I0623 12:43:57.429631 33602 net.cpp:141] Setting up relu_k_2_2
I0623 12:43:57.429649 33602 net.cpp:148] Top shape: 100 256 8 8 (1638400)
I0623 12:43:57.429656 33602 net.cpp:156] Memory required for data: 4143105200
I0623 12:43:57.429661 33602 layer_factory.hpp:77] Creating layer conv_k_2_2
I0623 12:43:57.429675 33602 net.cpp:91] Creating Layer conv_k_2_2
I0623 12:43:57.429683 33602 net.cpp:425] conv_k_2_2 <- relu_k_2_2
I0623 12:43:57.429692 33602 net.cpp:399] conv_k_2_2 -> conv_k_2_2
I0623 12:43:57.447785 33602 net.cpp:141] Setting up conv_k_2_2
I0623 12:43:57.447801 33602 net.cpp:148] Top shape: 100 256 8 8 (1638400)
I0623 12:43:57.447819 33602 net.cpp:156] Memory required for data: 4149658800
I0623 12:43:57.447829 33602 layer_factory.hpp:77] Creating layer elt_k_2
I0623 12:43:57.447839 33602 net.cpp:91] Creating Layer elt_k_2
I0623 12:43:57.447849 33602 net.cpp:425] elt_k_2 <- elt_k_1_elt_k_1_0_split_1
I0623 12:43:57.447855 33602 net.cpp:425] elt_k_2 <- conv_k_2_2
I0623 12:43:57.447865 33602 net.cpp:399] elt_k_2 -> elt_k_2
I0623 12:43:57.447898 33602 net.cpp:141] Setting up elt_k_2
I0623 12:43:57.447909 33602 net.cpp:148] Top shape: 100 256 8 8 (1638400)
I0623 12:43:57.447914 33602 net.cpp:156] Memory required for data: 4156212400
I0623 12:43:57.447919 33602 layer_factory.hpp:77] Creating layer bn_l_1_1
I0623 12:43:57.447929 33602 net.cpp:91] Creating Layer bn_l_1_1
I0623 12:43:57.447937 33602 net.cpp:425] bn_l_1_1 <- elt_g_i_elt_g_i_0_split_0
I0623 12:43:57.447947 33602 net.cpp:399] bn_l_1_1 -> bn_l_1_1
I0623 12:43:57.448171 33602 net.cpp:141] Setting up bn_l_1_1
I0623 12:43:57.448184 33602 net.cpp:148] Top shape: 100 128 16 16 (3276800)
I0623 12:43:57.448190 33602 net.cpp:156] Memory required for data: 4169319600
I0623 12:43:57.448201 33602 layer_factory.hpp:77] Creating layer sc_l_1_1
I0623 12:43:57.448211 33602 net.cpp:91] Creating Layer sc_l_1_1
I0623 12:43:57.448217 33602 net.cpp:425] sc_l_1_1 <- bn_l_1_1
I0623 12:43:57.448225 33602 net.cpp:399] sc_l_1_1 -> sc_l_1_1
I0623 12:43:57.448279 33602 layer_factory.hpp:77] Creating layer sc_l_1_1
I0623 12:43:57.448400 33602 net.cpp:141] Setting up sc_l_1_1
I0623 12:43:57.448426 33602 net.cpp:148] Top shape: 100 128 16 16 (3276800)
I0623 12:43:57.448432 33602 net.cpp:156] Memory required for data: 4182426800
I0623 12:43:57.448441 33602 layer_factory.hpp:77] Creating layer relu_l_1_1
I0623 12:43:57.448452 33602 net.cpp:91] Creating Layer relu_l_1_1
I0623 12:43:57.448460 33602 net.cpp:425] relu_l_1_1 <- sc_l_1_1
I0623 12:43:57.448467 33602 net.cpp:399] relu_l_1_1 -> relu_l_1_1
I0623 12:43:57.448705 33602 net.cpp:141] Setting up relu_l_1_1
I0623 12:43:57.448719 33602 net.cpp:148] Top shape: 100 128 16 16 (3276800)
I0623 12:43:57.448724 33602 net.cpp:156] Memory required for data: 4195534000
I0623 12:43:57.448729 33602 layer_factory.hpp:77] Creating layer conv_l_1_1
I0623 12:43:57.448745 33602 net.cpp:91] Creating Layer conv_l_1_1
I0623 12:43:57.448753 33602 net.cpp:425] conv_l_1_1 <- relu_l_1_1
I0623 12:43:57.448762 33602 net.cpp:399] conv_l_1_1 -> conv_l_1_1
I0623 12:43:57.458271 33602 net.cpp:141] Setting up conv_l_1_1
I0623 12:43:57.458289 33602 net.cpp:148] Top shape: 100 256 8 8 (1638400)
I0623 12:43:57.458312 33602 net.cpp:156] Memory required for data: 4202087600
I0623 12:43:57.458320 33602 layer_factory.hpp:77] Creating layer bn_l_1_2
I0623 12:43:57.458330 33602 net.cpp:91] Creating Layer bn_l_1_2
I0623 12:43:57.458339 33602 net.cpp:425] bn_l_1_2 <- conv_l_1_1
I0623 12:43:57.458349 33602 net.cpp:399] bn_l_1_2 -> bn_l_1_2
I0623 12:43:57.458585 33602 net.cpp:141] Setting up bn_l_1_2
I0623 12:43:57.458597 33602 net.cpp:148] Top shape: 100 256 8 8 (1638400)
I0623 12:43:57.458602 33602 net.cpp:156] Memory required for data: 4208641200
I0623 12:43:57.458612 33602 layer_factory.hpp:77] Creating layer sc_l_1_2
I0623 12:43:57.458626 33602 net.cpp:91] Creating Layer sc_l_1_2
I0623 12:43:57.458633 33602 net.cpp:425] sc_l_1_2 <- bn_l_1_2
I0623 12:43:57.458642 33602 net.cpp:399] sc_l_1_2 -> sc_l_1_2
I0623 12:43:57.458714 33602 layer_factory.hpp:77] Creating layer sc_l_1_2
I0623 12:43:57.458847 33602 net.cpp:141] Setting up sc_l_1_2
I0623 12:43:57.458858 33602 net.cpp:148] Top shape: 100 256 8 8 (1638400)
I0623 12:43:57.458863 33602 net.cpp:156] Memory required for data: 4215194800
I0623 12:43:57.458873 33602 layer_factory.hpp:77] Creating layer relu_l_1_2
I0623 12:43:57.458881 33602 net.cpp:91] Creating Layer relu_l_1_2
I0623 12:43:57.458887 33602 net.cpp:425] relu_l_1_2 <- sc_l_1_2
I0623 12:43:57.458899 33602 net.cpp:399] relu_l_1_2 -> relu_l_1_2
I0623 12:43:57.459286 33602 net.cpp:141] Setting up relu_l_1_2
I0623 12:43:57.459301 33602 net.cpp:148] Top shape: 100 256 8 8 (1638400)
I0623 12:43:57.459306 33602 net.cpp:156] Memory required for data: 4221748400
I0623 12:43:57.459312 33602 layer_factory.hpp:77] Creating layer conv_l_1_2
I0623 12:43:57.459326 33602 net.cpp:91] Creating Layer conv_l_1_2
I0623 12:43:57.459333 33602 net.cpp:425] conv_l_1_2 <- relu_l_1_2
I0623 12:43:57.459345 33602 net.cpp:399] conv_l_1_2 -> conv_l_1_2
I0623 12:43:57.477371 33602 net.cpp:141] Setting up conv_l_1_2
I0623 12:43:57.477388 33602 net.cpp:148] Top shape: 100 256 8 8 (1638400)
I0623 12:43:57.477407 33602 net.cpp:156] Memory required for data: 4228302000
I0623 12:43:57.477416 33602 layer_factory.hpp:77] Creating layer res_l
I0623 12:43:57.477433 33602 net.cpp:91] Creating Layer res_l
I0623 12:43:57.477442 33602 net.cpp:425] res_l <- elt_g_i_elt_g_i_0_split_1
I0623 12:43:57.477452 33602 net.cpp:399] res_l -> res_l
I0623 12:43:57.479532 33602 net.cpp:141] Setting up res_l
I0623 12:43:57.479547 33602 net.cpp:148] Top shape: 100 256 8 8 (1638400)
I0623 12:43:57.479557 33602 net.cpp:156] Memory required for data: 4234855600
I0623 12:43:57.479564 33602 layer_factory.hpp:77] Creating layer elt_l_1
I0623 12:43:57.479578 33602 net.cpp:91] Creating Layer elt_l_1
I0623 12:43:57.479585 33602 net.cpp:425] elt_l_1 <- res_l
I0623 12:43:57.479591 33602 net.cpp:425] elt_l_1 <- conv_l_1_2
I0623 12:43:57.479601 33602 net.cpp:399] elt_l_1 -> elt_l_1
I0623 12:43:57.479634 33602 net.cpp:141] Setting up elt_l_1
I0623 12:43:57.479645 33602 net.cpp:148] Top shape: 100 256 8 8 (1638400)
I0623 12:43:57.479650 33602 net.cpp:156] Memory required for data: 4241409200
I0623 12:43:57.479673 33602 layer_factory.hpp:77] Creating layer elt_l_1_elt_l_1_0_split
I0623 12:43:57.479683 33602 net.cpp:91] Creating Layer elt_l_1_elt_l_1_0_split
I0623 12:43:57.479689 33602 net.cpp:425] elt_l_1_elt_l_1_0_split <- elt_l_1
I0623 12:43:57.479712 33602 net.cpp:399] elt_l_1_elt_l_1_0_split -> elt_l_1_elt_l_1_0_split_0
I0623 12:43:57.479723 33602 net.cpp:399] elt_l_1_elt_l_1_0_split -> elt_l_1_elt_l_1_0_split_1
I0623 12:43:57.479784 33602 net.cpp:141] Setting up elt_l_1_elt_l_1_0_split
I0623 12:43:57.479795 33602 net.cpp:148] Top shape: 100 256 8 8 (1638400)
I0623 12:43:57.479801 33602 net.cpp:148] Top shape: 100 256 8 8 (1638400)
I0623 12:43:57.479805 33602 net.cpp:156] Memory required for data: 4254516400
I0623 12:43:57.479810 33602 layer_factory.hpp:77] Creating layer bn_l_2_1
I0623 12:43:57.479821 33602 net.cpp:91] Creating Layer bn_l_2_1
I0623 12:43:57.479828 33602 net.cpp:425] bn_l_2_1 <- elt_l_1_elt_l_1_0_split_0
I0623 12:43:57.479836 33602 net.cpp:399] bn_l_2_1 -> bn_l_2_1
I0623 12:43:57.480057 33602 net.cpp:141] Setting up bn_l_2_1
I0623 12:43:57.480068 33602 net.cpp:148] Top shape: 100 256 8 8 (1638400)
I0623 12:43:57.480074 33602 net.cpp:156] Memory required for data: 4261070000
I0623 12:43:57.480085 33602 layer_factory.hpp:77] Creating layer sc_l_2_1
I0623 12:43:57.480094 33602 net.cpp:91] Creating Layer sc_l_2_1
I0623 12:43:57.480101 33602 net.cpp:425] sc_l_2_1 <- bn_l_2_1
I0623 12:43:57.480109 33602 net.cpp:399] sc_l_2_1 -> sc_l_2_1
I0623 12:43:57.480165 33602 layer_factory.hpp:77] Creating layer sc_l_2_1
I0623 12:43:57.480309 33602 net.cpp:141] Setting up sc_l_2_1
I0623 12:43:57.480336 33602 net.cpp:148] Top shape: 100 256 8 8 (1638400)
I0623 12:43:57.480342 33602 net.cpp:156] Memory required for data: 4267623600
I0623 12:43:57.480351 33602 layer_factory.hpp:77] Creating layer relu_l_2_1
I0623 12:43:57.480360 33602 net.cpp:91] Creating Layer relu_l_2_1
I0623 12:43:57.480366 33602 net.cpp:425] relu_l_2_1 <- sc_l_2_1
I0623 12:43:57.480373 33602 net.cpp:399] relu_l_2_1 -> relu_l_2_1
I0623 12:43:57.480798 33602 net.cpp:141] Setting up relu_l_2_1
I0623 12:43:57.480813 33602 net.cpp:148] Top shape: 100 256 8 8 (1638400)
I0623 12:43:57.480818 33602 net.cpp:156] Memory required for data: 4274177200
I0623 12:43:57.480824 33602 layer_factory.hpp:77] Creating layer conv_l_2_1
I0623 12:43:57.480839 33602 net.cpp:91] Creating Layer conv_l_2_1
I0623 12:43:57.480847 33602 net.cpp:425] conv_l_2_1 <- relu_l_2_1
I0623 12:43:57.480856 33602 net.cpp:399] conv_l_2_1 -> conv_l_2_1
I0623 12:43:57.498566 33602 net.cpp:141] Setting up conv_l_2_1
I0623 12:43:57.498582 33602 net.cpp:148] Top shape: 100 256 8 8 (1638400)
I0623 12:43:57.498589 33602 net.cpp:156] Memory required for data: 4280730800
I0623 12:43:57.498612 33602 layer_factory.hpp:77] Creating layer bn_l_2_2
I0623 12:43:57.498625 33602 net.cpp:91] Creating Layer bn_l_2_2
I0623 12:43:57.498633 33602 net.cpp:425] bn_l_2_2 <- conv_l_2_1
I0623 12:43:57.498641 33602 net.cpp:399] bn_l_2_2 -> bn_l_2_2
I0623 12:43:57.498908 33602 net.cpp:141] Setting up bn_l_2_2
I0623 12:43:57.498922 33602 net.cpp:148] Top shape: 100 256 8 8 (1638400)
I0623 12:43:57.498927 33602 net.cpp:156] Memory required for data: 4287284400
I0623 12:43:57.498939 33602 layer_factory.hpp:77] Creating layer sc_l_2_2
I0623 12:43:57.498950 33602 net.cpp:91] Creating Layer sc_l_2_2
I0623 12:43:57.498960 33602 net.cpp:425] sc_l_2_2 <- bn_l_2_2
I0623 12:43:57.498968 33602 net.cpp:399] sc_l_2_2 -> sc_l_2_2
I0623 12:43:57.499027 33602 layer_factory.hpp:77] Creating layer sc_l_2_2
I0623 12:43:57.499171 33602 net.cpp:141] Setting up sc_l_2_2
I0623 12:43:57.499183 33602 net.cpp:148] Top shape: 100 256 8 8 (1638400)
I0623 12:43:57.499188 33602 net.cpp:156] Memory required for data: 4293838000
I0623 12:43:57.499197 33602 layer_factory.hpp:77] Creating layer relu_l_2_2
I0623 12:43:57.499207 33602 net.cpp:91] Creating Layer relu_l_2_2
I0623 12:43:57.499215 33602 net.cpp:425] relu_l_2_2 <- sc_l_2_2
I0623 12:43:57.499222 33602 net.cpp:399] relu_l_2_2 -> relu_l_2_2
I0623 12:43:57.499613 33602 net.cpp:141] Setting up relu_l_2_2
I0623 12:43:57.499627 33602 net.cpp:148] Top shape: 100 256 8 8 (1638400)
I0623 12:43:57.499634 33602 net.cpp:156] Memory required for data: 4300391600
I0623 12:43:57.499639 33602 layer_factory.hpp:77] Creating layer conv_l_2_2
I0623 12:43:57.499655 33602 net.cpp:91] Creating Layer conv_l_2_2
I0623 12:43:57.499663 33602 net.cpp:425] conv_l_2_2 <- relu_l_2_2
I0623 12:43:57.499672 33602 net.cpp:399] conv_l_2_2 -> conv_l_2_2
I0623 12:43:57.517762 33602 net.cpp:141] Setting up conv_l_2_2
I0623 12:43:57.517779 33602 net.cpp:148] Top shape: 100 256 8 8 (1638400)
I0623 12:43:57.517798 33602 net.cpp:156] Memory required for data: 4306945200
I0623 12:43:57.517808 33602 layer_factory.hpp:77] Creating layer elt_l_2
I0623 12:43:57.517819 33602 net.cpp:91] Creating Layer elt_l_2
I0623 12:43:57.517829 33602 net.cpp:425] elt_l_2 <- elt_l_1_elt_l_1_0_split_1
I0623 12:43:57.517838 33602 net.cpp:425] elt_l_2 <- conv_l_2_2
I0623 12:43:57.517864 33602 net.cpp:399] elt_l_2 -> elt_l_2
I0623 12:43:57.517900 33602 net.cpp:141] Setting up elt_l_2
I0623 12:43:57.517915 33602 net.cpp:148] Top shape: 100 256 8 8 (1638400)
I0623 12:43:57.517921 33602 net.cpp:156] Memory required for data: 4313498800
I0623 12:43:57.517926 33602 layer_factory.hpp:77] Creating layer elt_j_k_l
I0623 12:43:57.517935 33602 net.cpp:91] Creating Layer elt_j_k_l
I0623 12:43:57.517940 33602 net.cpp:425] elt_j_k_l <- elt_j_2
I0623 12:43:57.517947 33602 net.cpp:425] elt_j_k_l <- elt_k_2
I0623 12:43:57.517954 33602 net.cpp:425] elt_j_k_l <- elt_l_2
I0623 12:43:57.517962 33602 net.cpp:399] elt_j_k_l -> elt_j_k_l
I0623 12:43:57.517997 33602 net.cpp:141] Setting up elt_j_k_l
I0623 12:43:57.518007 33602 net.cpp:148] Top shape: 100 256 8 8 (1638400)
I0623 12:43:57.518012 33602 net.cpp:156] Memory required for data: 4320052400
I0623 12:43:57.518018 33602 layer_factory.hpp:77] Creating layer bn_m_1_1
I0623 12:43:57.518028 33602 net.cpp:91] Creating Layer bn_m_1_1
I0623 12:43:57.518034 33602 net.cpp:425] bn_m_1_1 <- elt_j_k_l
I0623 12:43:57.518041 33602 net.cpp:399] bn_m_1_1 -> bn_m_1_1
I0623 12:43:57.518260 33602 net.cpp:141] Setting up bn_m_1_1
I0623 12:43:57.518272 33602 net.cpp:148] Top shape: 100 256 8 8 (1638400)
I0623 12:43:57.518277 33602 net.cpp:156] Memory required for data: 4326606000
I0623 12:43:57.518287 33602 layer_factory.hpp:77] Creating layer sc_m_1_1
I0623 12:43:57.518297 33602 net.cpp:91] Creating Layer sc_m_1_1
I0623 12:43:57.518304 33602 net.cpp:425] sc_m_1_1 <- bn_m_1_1
I0623 12:43:57.518314 33602 net.cpp:399] sc_m_1_1 -> sc_m_1_1
I0623 12:43:57.518368 33602 layer_factory.hpp:77] Creating layer sc_m_1_1
I0623 12:43:57.518499 33602 net.cpp:141] Setting up sc_m_1_1
I0623 12:43:57.518512 33602 net.cpp:148] Top shape: 100 256 8 8 (1638400)
I0623 12:43:57.518517 33602 net.cpp:156] Memory required for data: 4333159600
I0623 12:43:57.518524 33602 layer_factory.hpp:77] Creating layer relu_m_1_1
I0623 12:43:57.518565 33602 net.cpp:91] Creating Layer relu_m_1_1
I0623 12:43:57.518574 33602 net.cpp:425] relu_m_1_1 <- sc_m_1_1
I0623 12:43:57.518582 33602 net.cpp:399] relu_m_1_1 -> relu_m_1_1
I0623 12:43:57.518972 33602 net.cpp:141] Setting up relu_m_1_1
I0623 12:43:57.518986 33602 net.cpp:148] Top shape: 100 256 8 8 (1638400)
I0623 12:43:57.518991 33602 net.cpp:156] Memory required for data: 4339713200
I0623 12:43:57.518997 33602 layer_factory.hpp:77] Creating layer gap
I0623 12:43:57.519006 33602 net.cpp:91] Creating Layer gap
I0623 12:43:57.519013 33602 net.cpp:425] gap <- relu_m_1_1
I0623 12:43:57.519021 33602 net.cpp:399] gap -> gap
I0623 12:43:57.519361 33602 net.cpp:141] Setting up gap
I0623 12:43:57.519376 33602 net.cpp:148] Top shape: 100 256 1 1 (25600)
I0623 12:43:57.519382 33602 net.cpp:156] Memory required for data: 4339815600
I0623 12:43:57.519387 33602 layer_factory.hpp:77] Creating layer ip1
I0623 12:43:57.519397 33602 net.cpp:91] Creating Layer ip1
I0623 12:43:57.519403 33602 net.cpp:425] ip1 <- gap
I0623 12:43:57.519412 33602 net.cpp:399] ip1 -> ip1
I0623 12:43:57.519623 33602 net.cpp:141] Setting up ip1
I0623 12:43:57.519649 33602 net.cpp:148] Top shape: 100 10 (1000)
I0623 12:43:57.519655 33602 net.cpp:156] Memory required for data: 4339819600
I0623 12:43:57.519664 33602 layer_factory.hpp:77] Creating layer ip1_ip1_0_split
I0623 12:43:57.519672 33602 net.cpp:91] Creating Layer ip1_ip1_0_split
I0623 12:43:57.519680 33602 net.cpp:425] ip1_ip1_0_split <- ip1
I0623 12:43:57.519686 33602 net.cpp:399] ip1_ip1_0_split -> ip1_ip1_0_split_0
I0623 12:43:57.519696 33602 net.cpp:399] ip1_ip1_0_split -> ip1_ip1_0_split_1
I0623 12:43:57.519757 33602 net.cpp:141] Setting up ip1_ip1_0_split
I0623 12:43:57.519768 33602 net.cpp:148] Top shape: 100 10 (1000)
I0623 12:43:57.519774 33602 net.cpp:148] Top shape: 100 10 (1000)
I0623 12:43:57.519779 33602 net.cpp:156] Memory required for data: 4339827600
I0623 12:43:57.519784 33602 layer_factory.hpp:77] Creating layer accuracy
I0623 12:43:57.519807 33602 net.cpp:91] Creating Layer accuracy
I0623 12:43:57.519814 33602 net.cpp:425] accuracy <- ip1_ip1_0_split_0
I0623 12:43:57.519820 33602 net.cpp:425] accuracy <- label_resnet_1_split_0
I0623 12:43:57.519827 33602 net.cpp:399] accuracy -> accuracy
…
