…
I0623 00:04:52.271078  9350 net.cpp:313] The NetState phase (0) differed from the phase (1) specified by a rule in layer accuracy
I0623 00:04:52.272845  9350 net.cpp:49] Initializing net from parameters: 
name: "ResNet"
state {
  phase: TRAIN
}
layer {
  name: "resnet"
  type: "Data"
  top: "data"
  top: "label"
  include {
    phase: TRAIN
  }
  transform_param {
    mean_file: "/home/takeki/caffe/examples/cifar10/mean.binaryproto"
  }
  data_param {
    source: "/home/takeki/caffe/examples/cifar10/cifar10_train_lmdb"
    batch_size: 64
    backend: LMDB
  }
}
layer {
  name: "conv0"
  type: "Convolution"
  bottom: "data"
  top: "conv0"
  param {
    lr_mult: 1
  }
  param {
    lr_mult: 2
  }
  convolution_param {
    num_output: 16
    pad: 1
    kernel_size: 3
    stride: 1
    weight_filler {
      type: "msra"
    }
    bias_filler {
      type: "constant"
    }
  }
}
layer {
  name: "bn_a_1_1"
  type: "BatchNorm"
  bottom: "conv0"
  top: "bn_a_1_1"
  param {
    lr_mult: 0
  }
  param {
    lr_mult: 0
  }
  param {
    lr_mult: 0
  }
  batch_norm_param {
    use_global_stats: false
  }
}
layer {
  name: "sc_a_1_1"
  type: "Scale"
  bottom: "bn_a_1_1"
  top: "sc_a_1_1"
  scale_param {
    bias_term: true
  }
}
layer {
  name: "relu_a_1_1"
  type: "ReLU"
  bottom: "sc_a_1_1"
  top: "relu_a_1_1"
}
layer {
  name: "conv_a_1_1"
  type: "Convolution"
  bottom: "relu_a_1_1"
  top: "conv_a_1_1"
  param {
    lr_mult: 1
    decay_mult: 1
  }
  param {
    lr_mult: 2
    decay_mult: 1
  }
  convolution_param {
    num_output: 64
    pad: 1
    kernel_size: 3
    stride: 1
    weight_filler {
      type: "msra"
    }
    bias_filler {
      type: "constant"
    }
  }
}
layer {
  name: "bn_a_1_2"
  type: "BatchNorm"
  bottom: "conv_a_1_1"
  top: "bn_a_1_2"
  param {
    lr_mult: 0
  }
  param {
    lr_mult: 0
  }
  param {
    lr_mult: 0
  }
  batch_norm_param {
    use_global_stats: false
  }
}
layer {
  name: "sc_a_1_2"
  type: "Scale"
  bottom: "bn_a_1_2"
  top: "sc_a_1_2"
  scale_param {
    bias_term: true
  }
}
layer {
  name: "relu_a_1_2"
  type: "ReLU"
  bottom: "sc_a_1_2"
  top: "relu_a_1_2"
}
layer {
  name: "conv_a_1_2"
  type: "Convolution"
  bottom: "relu_a_1_2"
  top: "conv_a_1_2"
  param {
    lr_mult: 1
    decay_mult: 1
  }
  param {
    lr_mult: 2
    decay_mult: 1
  }
  convolution_param {
    num_output: 64
    pad: 1
    kernel_size: 3
    stride: 1
    weight_filler {
      type: "msra"
    }
    bias_filler {
      type: "constant"
    }
  }
}
layer {
  name: "res_a"
  type: "Convolution"
  bottom: "conv0"
  top: "res_a"
  param {
    lr_mult: 1
    decay_mult: 1
  }
  param {
    lr_mult: 2
    decay_mult: 1
  }
  convolution_param {
    num_output: 64
    pad: 0
    kernel_size: 1
    stride: 1
    weight_filler {
      type: "msra"
    }
    bias_filler {
      type: "constant"
    }
  }
}
layer {
  name: "elt_a_1"
  type: "Eltwise"
  bottom: "res_a"
  bottom: "conv_a_1_2"
  top: "elt_a_1"
  eltwise_param {
    operation: SUM
  }
}
layer {
  name: "bn_a_2_1"
  type: "BatchNorm"
  bottom: "elt_a_1"
  top: "bn_a_2_1"
  param {
    lr_mult: 0
  }
  param {
    lr_mult: 0
  }
  param {
    lr_mult: 0
  }
  batch_norm_param {
    use_global_stats: false
  }
}
layer {
  name: "sc_a_2_1"
  type: "Scale"
  bottom: "bn_a_2_1"
  top: "sc_a_2_1"
  scale_param {
    bias_term: true
  }
}
layer {
  name: "relu_a_2_1"
  type: "ReLU"
  bottom: "sc_a_2_1"
  top: "relu_a_2_1"
}
layer {
  name: "conv_a_2_1"
  type: "Convolution"
  bottom: "relu_a_2_1"
  top: "conv_a_2_1"
  param {
    lr_mult: 1
    decay_mult: 1
  }
  param {
    lr_mult: 2
    decay_mult: 1
  }
  convolution_param {
    num_output: 64
    pad: 1
    kernel_size: 3
    stride: 1
    weight_filler {
      type: "msra"
    }
    bias_filler {
      type: "constant"
    }
  }
}
layer {
  name: "bn_a_2_2"
  type: "BatchNorm"
  bottom: "conv_a_2_1"
  top: "bn_a_2_2"
  param {
    lr_mult: 0
  }
  param {
    lr_mult: 0
  }
  param {
    lr_mult: 0
  }
  batch_norm_param {
    use_global_stats: false
  }
}
layer {
  name: "sc_a_2_2"
  type: "Scale"
  bottom: "bn_a_2_2"
  top: "sc_a_2_2"
  scale_param {
    bias_term: true
  }
}
layer {
  name: "relu_a_2_2"
  type: "ReLU"
  bottom: "sc_a_2_2"
  top: "relu_a_2_2"
}
layer {
  name: "conv_a_2_2"
  type: "Convolution"
  bottom: "relu_a_2_2"
  top: "conv_a_2_2"
  param {
    lr_mult: 1
    decay_mult: 1
  }
  param {
    lr_mult: 2
    decay_mult: 1
  }
  convolution_param {
    num_output: 64
    pad: 1
    kernel_size: 3
    stride: 1
    weight_filler {
      type: "msra"
    }
    bias_filler {
      type: "constant"
    }
  }
}
layer {
  name: "elt_a_2"
  type: "Eltwise"
  bottom: "elt_a_1"
  bottom: "conv_a_2_2"
  top: "elt_a_2"
  eltwise_param {
    operation: SUM
  }
}
layer {
  name: "bn_b_1_1"
  type: "BatchNorm"
  bottom: "conv0"
  top: "bn_b_1_1"
  param {
    lr_mult: 0
  }
  param {
    lr_mult: 0
  }
  param {
    lr_mult: 0
  }
  batch_norm_param {
    use_global_stats: false
  }
}
layer {
  name: "sc_b_1_1"
  type: "Scale"
  bottom: "bn_b_1_1"
  top: "sc_b_1_1"
  scale_param {
    bias_term: true
  }
}
layer {
  name: "relu_b_1_1"
  type: "ReLU"
  bottom: "sc_b_1_1"
  top: "relu_b_1_1"
}
layer {
  name: "conv_b_1_1"
  type: "Convolution"
  bottom: "relu_b_1_1"
  top: "conv_b_1_1"
  param {
    lr_mult: 1
    decay_mult: 1
  }
  param {
    lr_mult: 2
    decay_mult: 1
  }
  convolution_param {
    num_output: 64
    pad: 1
    kernel_size: 3
    stride: 1
    weight_filler {
      type: "msra"
    }
    bias_filler {
      type: "constant"
    }
  }
}
layer {
  name: "bn_b_1_2"
  type: "BatchNorm"
  bottom: "conv_b_1_1"
  top: "bn_b_1_2"
  param {
    lr_mult: 0
  }
  param {
    lr_mult: 0
  }
  param {
    lr_mult: 0
  }
  batch_norm_param {
    use_global_stats: false
  }
}
layer {
  name: "sc_b_1_2"
  type: "Scale"
  bottom: "bn_b_1_2"
  top: "sc_b_1_2"
  scale_param {
    bias_term: true
  }
}
layer {
  name: "relu_b_1_2"
  type: "ReLU"
  bottom: "sc_b_1_2"
  top: "relu_b_1_2"
}
layer {
  name: "conv_b_1_2"
  type: "Convolution"
  bottom: "relu_b_1_2"
  top: "conv_b_1_2"
  param {
    lr_mult: 1
    decay_mult: 1
  }
  param {
    lr_mult: 2
    decay_mult: 1
  }
  convolution_param {
    num_output: 64
    pad: 1
    kernel_size: 3
    stride: 1
    weight_filler {
      type: "msra"
    }
    bias_filler {
      type: "constant"
    }
  }
}
layer {
  name: "res_b"
  type: "Convolution"
  bottom: "conv0"
  top: "res_b"
  param {
    lr_mult: 1
    decay_mult: 1
  }
  param {
    lr_mult: 2
    decay_mult: 1
  }
  convolution_param {
    num_output: 64
    pad: 0
    kernel_size: 1
    stride: 1
    weight_filler {
      type: "msra"
    }
    bias_filler {
      type: "constant"
    }
  }
}
layer {
  name: "elt_b_1"
  type: "Eltwise"
  bottom: "res_b"
  bottom: "conv_b_1_2"
  top: "elt_b_1"
  eltwise_param {
    operation: SUM
  }
}
layer {
  name: "bn_b_2_1"
  type: "BatchNorm"
  bottom: "elt_b_1"
  top: "bn_b_2_1"
  param {
    lr_mult: 0
  }
  param {
    lr_mult: 0
  }
  param {
    lr_mult: 0
  }
  batch_norm_param {
    use_global_stats: false
  }
}
layer {
  name: "sc_b_2_1"
  type: "Scale"
  bottom: "bn_b_2_1"
  top: "sc_b_2_1"
  scale_param {
    bias_term: true
  }
}
layer {
  name: "relu_b_2_1"
  type: "ReLU"
  bottom: "sc_b_2_1"
  top: "relu_b_2_1"
}
layer {
  name: "conv_b_2_1"
  type: "Convolution"
  bottom: "relu_b_2_1"
  top: "conv_b_2_1"
  param {
    lr_mult: 1
    decay_mult: 1
  }
  param {
    lr_mult: 2
    decay_mult: 1
  }
  convolution_param {
    num_output: 64
    pad: 1
    kernel_size: 3
    stride: 1
    weight_filler {
      type: "msra"
    }
    bias_filler {
      type: "constant"
    }
  }
}
layer {
  name: "bn_b_2_2"
  type: "BatchNorm"
  bottom: "conv_b_2_1"
  top: "bn_b_2_2"
  param {
    lr_mult: 0
  }
  param {
    lr_mult: 0
  }
  param {
    lr_mult: 0
  }
  batch_norm_param {
    use_global_stats: false
  }
}
layer {
  name: "sc_b_2_2"
  type: "Scale"
  bottom: "bn_b_2_2"
  top: "sc_b_2_2"
  scale_param {
    bias_term: true
  }
}
layer {
  name: "relu_b_2_2"
  type: "ReLU"
  bottom: "sc_b_2_2"
  top: "relu_b_2_2"
}
layer {
  name: "conv_b_2_2"
  type: "Convolution"
  bottom: "relu_b_2_2"
  top: "conv_b_2_2"
  param {
    lr_mult: 1
    decay_mult: 1
  }
  param {
    lr_mult: 2
    decay_mult: 1
  }
  convolution_param {
    num_output: 64
    pad: 1
    kernel_size: 3
    stride: 1
    weight_filler {
      type: "msra"
    }
    bias_filler {
      type: "constant"
    }
  }
}
layer {
  name: "elt_b_2"
  type: "Eltwise"
  bottom: "elt_b_1"
  bottom: "conv_b_2_2"
  top: "elt_b_2"
  eltwise_param {
    operation: SUM
  }
}
layer {
  name: "bn_c_1_1"
  type: "BatchNorm"
  bottom: "conv0"
  top: "bn_c_1_1"
  param {
    lr_mult: 0
  }
  param {
    lr_mult: 0
  }
  param {
    lr_mult: 0
  }
  batch_norm_param {
    use_global_stats: false
  }
}
layer {
  name: "sc_c_1_1"
  type: "Scale"
  bottom: "bn_c_1_1"
  top: "sc_c_1_1"
  scale_param {
    bias_term: true
  }
}
layer {
  name: "relu_c_1_1"
  type: "ReLU"
  bottom: "sc_c_1_1"
  top: "relu_c_1_1"
}
layer {
  name: "conv_c_1_1"
  type: "Convolution"
  bottom: "relu_c_1_1"
  top: "conv_c_1_1"
  param {
    lr_mult: 1
    decay_mult: 1
  }
  param {
    lr_mult: 2
    decay_mult: 1
  }
  convolution_param {
    num_output: 64
    pad: 1
    kernel_size: 3
    stride: 1
    weight_filler {
      type: "msra"
    }
    bias_filler {
      type: "constant"
    }
  }
}
layer {
  name: "bn_c_1_2"
  type: "BatchNorm"
  bottom: "conv_c_1_1"
  top: "bn_c_1_2"
  param {
    lr_mult: 0
  }
  param {
    lr_mult: 0
  }
  param {
    lr_mult: 0
  }
  batch_norm_param {
    use_global_stats: false
  }
}
layer {
  name: "sc_c_1_2"
  type: "Scale"
  bottom: "bn_c_1_2"
  top: "sc_c_1_2"
  scale_param {
    bias_term: true
  }
}
layer {
  name: "relu_c_1_2"
  type: "ReLU"
  bottom: "sc_c_1_2"
  top: "relu_c_1_2"
}
layer {
  name: "conv_c_1_2"
  type: "Convolution"
  bottom: "relu_c_1_2"
  top: "conv_c_1_2"
  param {
    lr_mult: 1
    decay_mult: 1
  }
  param {
    lr_mult: 2
    decay_mult: 1
  }
  convolution_param {
    num_output: 64
    pad: 1
    kernel_size: 3
    stride: 1
    weight_filler {
      type: "msra"
    }
    bias_filler {
      type: "constant"
    }
  }
}
layer {
  name: "res_c"
  type: "Convolution"
  bottom: "conv0"
  top: "res_c"
  param {
    lr_mult: 1
    decay_mult: 1
  }
  param {
    lr_mult: 2
    decay_mult: 1
  }
  convolution_param {
    num_output: 64
    pad: 0
    kernel_size: 1
    stride: 1
    weight_filler {
      type: "msra"
    }
    bias_filler {
      type: "constant"
    }
  }
}
layer {
  name: "elt_c_1"
  type: "Eltwise"
  bottom: "res_c"
  bottom: "conv_c_1_2"
  top: "elt_c_1"
  eltwise_param {
    operation: SUM
  }
}
layer {
  name: "bn_c_2_1"
  type: "BatchNorm"
  bottom: "elt_c_1"
  top: "bn_c_2_1"
  param {
    lr_mult: 0
  }
  param {
    lr_mult: 0
  }
  param {
    lr_mult: 0
  }
  batch_norm_param {
    use_global_stats: false
  }
}
layer {
  name: "sc_c_2_1"
  type: "Scale"
  bottom: "bn_c_2_1"
  top: "sc_c_2_1"
  scale_param {
    bias_term: true
  }
}
layer {
  name: "relu_c_2_1"
  type: "ReLU"
  bottom: "sc_c_2_1"
  top: "relu_c_2_1"
}
layer {
  name: "conv_c_2_1"
  type: "Convolution"
  bottom: "relu_c_2_1"
  top: "conv_c_2_1"
  param {
    lr_mult: 1
    decay_mult: 1
  }
  param {
    lr_mult: 2
    decay_mult: 1
  }
  convolution_param {
    num_output: 64
    pad: 1
    kernel_size: 3
    stride: 1
    weight_filler {
      type: "msra"
    }
    bias_filler {
      type: "constant"
    }
  }
}
layer {
  name: "bn_c_2_2"
  type: "BatchNorm"
  bottom: "conv_c_2_1"
  top: "bn_c_2_2"
  param {
    lr_mult: 0
  }
  param {
    lr_mult: 0
  }
  param {
    lr_mult: 0
  }
  batch_norm_param {
    use_global_stats: false
  }
}
layer {
  name: "sc_c_2_2"
  type: "Scale"
  bottom: "bn_c_2_2"
  top: "sc_c_2_2"
  scale_param {
    bias_term: true
  }
}
layer {
  name: "relu_c_2_2"
  type: "ReLU"
  bottom: "sc_c_2_2"
  top: "relu_c_2_2"
}
layer {
  name: "conv_c_2_2"
  type: "Convolution"
  bottom: "relu_c_2_2"
  top: "conv_c_2_2"
  param {
    lr_mult: 1
    decay_mult: 1
  }
  param {
    lr_mult: 2
    decay_mult: 1
  }
  convolution_param {
    num_output: 64
    pad: 1
    kernel_size: 3
    stride: 1
    weight_filler {
      type: "msra"
    }
    bias_filler {
      type: "constant"
    }
  }
}
layer {
  name: "elt_c_2"
  type: "Eltwise"
  bottom: "elt_c_1"
  bottom: "conv_c_2_2"
  top: "elt_c_2"
  eltwise_param {
    operation: SUM
  }
}
layer {
  name: "bn_d_1_1"
  type: "BatchNorm"
  bottom: "elt_a_2"
  top: "bn_d_1_1"
  param {
    lr_mult: 0
  }
  param {
    lr_mult: 0
  }
  param {
    lr_mult: 0
  }
  batch_norm_param {
    use_global_stats: false
  }
}
layer {
  name: "sc_d_1_1"
  type: "Scale"
  bottom: "bn_d_1_1"
  top: "sc_d_1_1"
  scale_param {
    bias_term: true
  }
}
layer {
  name: "relu_d_1_1"
  type: "ReLU"
  bottom: "sc_d_1_1"
  top: "relu_d_1_1"
}
layer {
  name: "conv_d_1_1"
  type: "Convolution"
  bottom: "relu_d_1_1"
  top: "conv_d_1_1"
  param {
    lr_mult: 1
    decay_mult: 1
  }
  param {
    lr_mult: 2
    decay_mult: 1
  }
  convolution_param {
    num_output: 128
    pad: 1
    kernel_size: 3
    stride: 2
    weight_filler {
      type: "msra"
    }
    bias_filler {
      type: "constant"
    }
  }
}
layer {
  name: "bn_d_1_2"
  type: "BatchNorm"
  bottom: "conv_d_1_1"
  top: "bn_d_1_2"
  param {
    lr_mult: 0
  }
  param {
    lr_mult: 0
  }
  param {
    lr_mult: 0
  }
  batch_norm_param {
    use_global_stats: false
  }
}
layer {
  name: "sc_d_1_2"
  type: "Scale"
  bottom: "bn_d_1_2"
  top: "sc_d_1_2"
  scale_param {
    bias_term: true
  }
}
layer {
  name: "relu_d_1_2"
  type: "ReLU"
  bottom: "sc_d_1_2"
  top: "relu_d_1_2"
}
layer {
  name: "conv_d_1_2"
  type: "Convolution"
  bottom: "relu_d_1_2"
  top: "conv_d_1_2"
  param {
    lr_mult: 1
    decay_mult: 1
  }
  param {
    lr_mult: 2
    decay_mult: 1
  }
  convolution_param {
    num_output: 128
    pad: 1
    kernel_size: 3
    stride: 1
    weight_filler {
      type: "msra"
    }
    bias_filler {
      type: "constant"
    }
  }
}
layer {
  name: "res_d"
  type: "Convolution"
  bottom: "elt_a_2"
  top: "res_d"
  param {
    lr_mult: 1
    decay_mult: 1
  }
  param {
    lr_mult: 2
    decay_mult: 1
  }
  convolution_param {
    num_output: 128
    pad: 0
    kernel_size: 1
    stride: 2
    weight_filler {
      type: "msra"
    }
    bias_filler {
      type: "constant"
    }
  }
}
layer {
  name: "elt_d_1"
  type: "Eltwise"
  bottom: "res_d"
  bottom: "conv_d_1_2"
  top: "elt_d_1"
  eltwise_param {
    operation: SUM
  }
}
layer {
  name: "bn_d_2_1"
  type: "BatchNorm"
  bottom: "elt_d_1"
  top: "bn_d_2_1"
  param {
    lr_mult: 0
  }
  param {
    lr_mult: 0
  }
  param {
    lr_mult: 0
  }
  batch_norm_param {
    use_global_stats: false
  }
}
layer {
  name: "sc_d_2_1"
  type: "Scale"
  bottom: "bn_d_2_1"
  top: "sc_d_2_1"
  scale_param {
    bias_term: true
  }
}
layer {
  name: "relu_d_2_1"
  type: "ReLU"
  bottom: "sc_d_2_1"
  top: "relu_d_2_1"
}
layer {
  name: "conv_d_2_1"
  type: "Convolution"
  bottom: "relu_d_2_1"
  top: "conv_d_2_1"
  param {
    lr_mult: 1
    decay_mult: 1
  }
  param {
    lr_mult: 2
    decay_mult: 1
  }
  convolution_param {
    num_output: 128
    pad: 1
    kernel_size: 3
    stride: 1
    weight_filler {
      type: "msra"
    }
    bias_filler {
      type: "constant"
    }
  }
}
layer {
  name: "bn_d_2_2"
  type: "BatchNorm"
  bottom: "conv_d_2_1"
  top: "bn_d_2_2"
  param {
    lr_mult: 0
  }
  param {
    lr_mult: 0
  }
  param {
    lr_mult: 0
  }
  batch_norm_param {
    use_global_stats: false
  }
}
layer {
  name: "sc_d_2_2"
  type: "Scale"
  bottom: "bn_d_2_2"
  top: "sc_d_2_2"
  scale_param {
    bias_term: true
  }
}
layer {
  name: "relu_d_2_2"
  type: "ReLU"
  bottom: "sc_d_2_2"
  top: "relu_d_2_2"
}
layer {
  name: "conv_d_2_2"
  type: "Convolution"
  bottom: "relu_d_2_2"
  top: "conv_d_2_2"
  param {
    lr_mult: 1
    decay_mult: 1
  }
  param {
    lr_mult: 2
    decay_mult: 1
  }
  convolution_param {
    num_output: 128
    pad: 1
    kernel_size: 3
    stride: 1
    weight_filler {
      type: "msra"
    }
    bias_filler {
      type: "constant"
    }
  }
}
layer {
  name: "elt_d_2"
  type: "Eltwise"
  bottom: "elt_d_1"
  bottom: "conv_d_2_2"
  top: "elt_d_2"
  eltwise_param {
    operation: SUM
  }
}
layer {
  name: "bn_f_1_1"
  type: "BatchNorm"
  bottom: "elt_b_2"
  top: "bn_f_1_1"
  param {
    lr_mult: 0
  }
  param {
    lr_mult: 0
  }
  param {
    lr_mult: 0
  }
  batch_norm_param {
    use_global_stats: false
  }
}
layer {
  name: "sc_f_1_1"
  type: "Scale"
  bottom: "bn_f_1_1"
  top: "sc_f_1_1"
  scale_param {
    bias_term: true
  }
}
layer {
  name: "relu_f_1_1"
  type: "ReLU"
  bottom: "sc_f_1_1"
  top: "relu_f_1_1"
}
layer {
  name: "conv_f_1_1"
  type: "Convolution"
  bottom: "relu_f_1_1"
  top: "conv_f_1_1"
  param {
    lr_mult: 1
    decay_mult: 1
  }
  param {
    lr_mult: 2
    decay_mult: 1
  }
  convolution_param {
    num_output: 128
    pad: 1
    kernel_size: 3
    stride: 2
    weight_filler {
      type: "msra"
    }
    bias_filler {
      type: "constant"
    }
  }
}
layer {
  name: "bn_f_1_2"
  type: "BatchNorm"
  bottom: "conv_f_1_1"
  top: "bn_f_1_2"
  param {
    lr_mult: 0
  }
  param {
    lr_mult: 0
  }
  param {
    lr_mult: 0
  }
  batch_norm_param {
    use_global_stats: false
  }
}
layer {
  name: "sc_f_1_2"
  type: "Scale"
  bottom: "bn_f_1_2"
  top: "sc_f_1_2"
  scale_param {
    bias_term: true
  }
}
layer {
  name: "relu_f_1_2"
  type: "ReLU"
  bottom: "sc_f_1_2"
  top: "relu_f_1_2"
}
layer {
  name: "conv_f_1_2"
  type: "Convolution"
  bottom: "relu_f_1_2"
  top: "conv_f_1_2"
  param {
    lr_mult: 1
    decay_mult: 1
  }
  param {
    lr_mult: 2
    decay_mult: 1
  }
  convolution_param {
    num_output: 128
    pad: 1
    kernel_size: 3
    stride: 1
    weight_filler {
      type: "msra"
    }
    bias_filler {
      type: "constant"
    }
  }
}
layer {
  name: "res_f"
  type: "Convolution"
  bottom: "elt_b_2"
  top: "res_f"
  param {
    lr_mult: 1
    decay_mult: 1
  }
  param {
    lr_mult: 2
    decay_mult: 1
  }
  convolution_param {
    num_output: 128
    pad: 0
    kernel_size: 1
    stride: 2
    weight_filler {
      type: "msra"
    }
    bias_filler {
      type: "constant"
    }
  }
}
layer {
  name: "elt_f_1"
  type: "Eltwise"
  bottom: "res_f"
  bottom: "conv_f_1_2"
  top: "elt_f_1"
  eltwise_param {
    operation: SUM
  }
}
layer {
  name: "bn_f_2_1"
  type: "BatchNorm"
  bottom: "elt_f_1"
  top: "bn_f_2_1"
  param {
    lr_mult: 0
  }
  param {
    lr_mult: 0
  }
  param {
    lr_mult: 0
  }
  batch_norm_param {
    use_global_stats: false
  }
}
layer {
  name: "sc_f_2_1"
  type: "Scale"
  bottom: "bn_f_2_1"
  top: "sc_f_2_1"
  scale_param {
    bias_term: true
  }
}
layer {
  name: "relu_f_2_1"
  type: "ReLU"
  bottom: "sc_f_2_1"
  top: "relu_f_2_1"
}
layer {
  name: "conv_f_2_1"
  type: "Convolution"
  bottom: "relu_f_2_1"
  top: "conv_f_2_1"
  param {
    lr_mult: 1
    decay_mult: 1
  }
  param {
    lr_mult: 2
    decay_mult: 1
  }
  convolution_param {
    num_output: 128
    pad: 1
    kernel_size: 3
    stride: 1
    weight_filler {
      type: "msra"
    }
    bias_filler {
      type: "constant"
    }
  }
}
layer {
  name: "bn_f_2_2"
  type: "BatchNorm"
  bottom: "conv_f_2_1"
  top: "bn_f_2_2"
  param {
    lr_mult: 0
  }
  param {
    lr_mult: 0
  }
  param {
    lr_mult: 0
  }
  batch_norm_param {
    use_global_stats: false
  }
}
layer {
  name: "sc_f_2_2"
  type: "Scale"
  bottom: "bn_f_2_2"
  top: "sc_f_2_2"
  scale_param {
    bias_term: true
  }
}
layer {
  name: "relu_f_2_2"
  type: "ReLU"
  bottom: "sc_f_2_2"
  top: "relu_f_2_2"
}
layer {
  name: "conv_f_2_2"
  type: "Convolution"
  bottom: "relu_f_2_2"
  top: "conv_f_2_2"
  param {
    lr_mult: 1
    decay_mult: 1
  }
  param {
    lr_mult: 2
    decay_mult: 1
  }
  convolution_param {
    num_output: 128
    pad: 1
    kernel_size: 3
    stride: 1
    weight_filler {
      type: "msra"
    }
    bias_filler {
      type: "constant"
    }
  }
}
layer {
  name: "elt_f_2"
  type: "Eltwise"
  bottom: "elt_f_1"
  bottom: "conv_f_2_2"
  top: "elt_f_2"
  eltwise_param {
    operation: SUM
  }
}
layer {
  name: "bn_g_1_1"
  type: "BatchNorm"
  bottom: "elt_b_2"
  top: "bn_g_1_1"
  param {
    lr_mult: 0
  }
  param {
    lr_mult: 0
  }
  param {
    lr_mult: 0
  }
  batch_norm_param {
    use_global_stats: false
  }
}
layer {
  name: "sc_g_1_1"
  type: "Scale"
  bottom: "bn_g_1_1"
  top: "sc_g_1_1"
  scale_param {
    bias_term: true
  }
}
layer {
  name: "relu_g_1_1"
  type: "ReLU"
  bottom: "sc_g_1_1"
  top: "relu_g_1_1"
}
layer {
  name: "conv_g_1_1"
  type: "Convolution"
  bottom: "relu_g_1_1"
  top: "conv_g_1_1"
  param {
    lr_mult: 1
    decay_mult: 1
  }
  param {
    lr_mult: 2
    decay_mult: 1
  }
  convolution_param {
    num_output: 128
    pad: 1
    kernel_size: 3
    stride: 2
    weight_filler {
      type: "msra"
    }
    bias_filler {
      type: "constant"
    }
  }
}
layer {
  name: "bn_g_1_2"
  type: "BatchNorm"
  bottom: "conv_g_1_1"
  top: "bn_g_1_2"
  param {
    lr_mult: 0
  }
  param {
    lr_mult: 0
  }
  param {
    lr_mult: 0
  }
  batch_norm_param {
    use_global_stats: false
  }
}
layer {
  name: "sc_g_1_2"
  type: "Scale"
  bottom: "bn_g_1_2"
  top: "sc_g_1_2"
  scale_param {
    bias_term: true
  }
}
layer {
  name: "relu_g_1_2"
  type: "ReLU"
  bottom: "sc_g_1_2"
  top: "relu_g_1_2"
}
layer {
  name: "conv_g_1_2"
  type: "Convolution"
  bottom: "relu_g_1_2"
  top: "conv_g_1_2"
  param {
    lr_mult: 1
    decay_mult: 1
  }
  param {
    lr_mult: 2
    decay_mult: 1
  }
  convolution_param {
    num_output: 128
    pad: 1
    kernel_size: 3
    stride: 1
    weight_filler {
      type: "msra"
    }
    bias_filler {
      type: "constant"
    }
  }
}
layer {
  name: "res_g"
  type: "Convolution"
  bottom: "elt_b_2"
  top: "res_g"
  param {
    lr_mult: 1
    decay_mult: 1
  }
  param {
    lr_mult: 2
    decay_mult: 1
  }
  convolution_param {
    num_output: 128
    pad: 0
    kernel_size: 1
    stride: 2
    weight_filler {
      type: "msra"
    }
    bias_filler {
      type: "constant"
    }
  }
}
layer {
  name: "elt_g_1"
  type: "Eltwise"
  bottom: "res_g"
  bottom: "conv_g_1_2"
  top: "elt_g_1"
  eltwise_param {
    operation: SUM
  }
}
layer {
  name: "bn_g_2_1"
  type: "BatchNorm"
  bottom: "elt_g_1"
  top: "bn_g_2_1"
  param {
    lr_mult: 0
  }
  param {
    lr_mult: 0
  }
  param {
    lr_mult: 0
  }
  batch_norm_param {
    use_global_stats: false
  }
}
layer {
  name: "sc_g_2_1"
  type: "Scale"
  bottom: "bn_g_2_1"
  top: "sc_g_2_1"
  scale_param {
    bias_term: true
  }
}
layer {
  name: "relu_g_2_1"
  type: "ReLU"
  bottom: "sc_g_2_1"
  top: "relu_g_2_1"
}
layer {
  name: "conv_g_2_1"
  type: "Convolution"
  bottom: "relu_g_2_1"
  top: "conv_g_2_1"
  param {
    lr_mult: 1
    decay_mult: 1
  }
  param {
    lr_mult: 2
    decay_mult: 1
  }
  convolution_param {
    num_output: 128
    pad: 1
    kernel_size: 3
    stride: 1
    weight_filler {
      type: "msra"
    }
    bias_filler {
      type: "constant"
    }
  }
}
layer {
  name: "bn_g_2_2"
  type: "BatchNorm"
  bottom: "conv_g_2_1"
  top: "bn_g_2_2"
  param {
    lr_mult: 0
  }
  param {
    lr_mult: 0
  }
  param {
    lr_mult: 0
  }
  batch_norm_param {
    use_global_stats: false
  }
}
layer {
  name: "sc_g_2_2"
  type: "Scale"
  bottom: "bn_g_2_2"
  top: "sc_g_2_2"
  scale_param {
    bias_term: true
  }
}
layer {
  name: "relu_g_2_2"
  type: "ReLU"
  bottom: "sc_g_2_2"
  top: "relu_g_2_2"
}
layer {
  name: "conv_g_2_2"
  type: "Convolution"
  bottom: "relu_g_2_2"
  top: "conv_g_2_2"
  param {
    lr_mult: 1
    decay_mult: 1
  }
  param {
    lr_mult: 2
    decay_mult: 1
  }
  convolution_param {
    num_output: 128
    pad: 1
    kernel_size: 3
    stride: 1
    weight_filler {
      type: "msra"
    }
    bias_filler {
      type: "constant"
    }
  }
}
layer {
  name: "elt_g_2"
  type: "Eltwise"
  bottom: "elt_g_1"
  bottom: "conv_g_2_2"
  top: "elt_g_2"
  eltwise_param {
    operation: SUM
  }
}
layer {
  name: "bn_h_1_1"
  type: "BatchNorm"
  bottom: "elt_c_2"
  top: "bn_h_1_1"
  param {
    lr_mult: 0
  }
  param {
    lr_mult: 0
  }
  param {
    lr_mult: 0
  }
  batch_norm_param {
    use_global_stats: false
  }
}
layer {
  name: "sc_h_1_1"
  type: "Scale"
  bottom: "bn_h_1_1"
  top: "sc_h_1_1"
  scale_param {
    bias_term: true
  }
}
layer {
  name: "relu_h_1_1"
  type: "ReLU"
  bottom: "sc_h_1_1"
  top: "relu_h_1_1"
}
layer {
  name: "conv_h_1_1"
  type: "Convolution"
  bottom: "relu_h_1_1"
  top: "conv_h_1_1"
  param {
    lr_mult: 1
    decay_mult: 1
  }
  param {
    lr_mult: 2
    decay_mult: 1
  }
  convolution_param {
    num_output: 128
    pad: 1
    kernel_size: 3
    stride: 2
    weight_filler {
      type: "msra"
    }
    bias_filler {
      type: "constant"
    }
  }
}
layer {
  name: "bn_h_1_2"
  type: "BatchNorm"
  bottom: "conv_h_1_1"
  top: "bn_h_1_2"
  param {
    lr_mult: 0
  }
  param {
    lr_mult: 0
  }
  param {
    lr_mult: 0
  }
  batch_norm_param {
    use_global_stats: false
  }
}
layer {
  name: "sc_h_1_2"
  type: "Scale"
  bottom: "bn_h_1_2"
  top: "sc_h_1_2"
  scale_param {
    bias_term: true
  }
}
layer {
  name: "relu_h_1_2"
  type: "ReLU"
  bottom: "sc_h_1_2"
  top: "relu_h_1_2"
}
layer {
  name: "conv_h_1_2"
  type: "Convolution"
  bottom: "relu_h_1_2"
  top: "conv_h_1_2"
  param {
    lr_mult: 1
    decay_mult: 1
  }
  param {
    lr_mult: 2
    decay_mult: 1
  }
  convolution_param {
    num_output: 128
    pad: 1
    kernel_size: 3
    stride: 1
    weight_filler {
      type: "msra"
    }
    bias_filler {
      type: "constant"
    }
  }
}
layer {
  name: "res_h"
  type: "Convolution"
  bottom: "elt_c_2"
  top: "res_h"
  param {
    lr_mult: 1
    decay_mult: 1
  }
  param {
    lr_mult: 2
    decay_mult: 1
  }
  convolution_param {
    num_output: 128
    pad: 0
    kernel_size: 1
    stride: 2
    weight_filler {
      type: "msra"
    }
    bias_filler {
      type: "constant"
    }
  }
}
layer {
  name: "elt_h_1"
  type: "Eltwise"
  bottom: "res_h"
  bottom: "conv_h_1_2"
  top: "elt_h_1"
  eltwise_param {
    operation: SUM
  }
}
layer {
  name: "bn_h_2_1"
  type: "BatchNorm"
  bottom: "elt_h_1"
  top: "bn_h_2_1"
  param {
    lr_mult: 0
  }
  param {
    lr_mult: 0
  }
  param {
    lr_mult: 0
  }
  batch_norm_param {
    use_global_stats: false
  }
}
layer {
  name: "sc_h_2_1"
  type: "Scale"
  bottom: "bn_h_2_1"
  top: "sc_h_2_1"
  scale_param {
    bias_term: true
  }
}
layer {
  name: "relu_h_2_1"
  type: "ReLU"
  bottom: "sc_h_2_1"
  top: "relu_h_2_1"
}
layer {
  name: "conv_h_2_1"
  type: "Convolution"
  bottom: "relu_h_2_1"
  top: "conv_h_2_1"
  param {
    lr_mult: 1
    decay_mult: 1
  }
  param {
    lr_mult: 2
    decay_mult: 1
  }
  convolution_param {
    num_output: 128
    pad: 1
    kernel_size: 3
    stride: 1
    weight_filler {
      type: "msra"
    }
    bias_filler {
      type: "constant"
    }
  }
}
layer {
  name: "bn_h_2_2"
  type: "BatchNorm"
  bottom: "conv_h_2_1"
  top: "bn_h_2_2"
  param {
    lr_mult: 0
  }
  param {
    lr_mult: 0
  }
  param {
    lr_mult: 0
  }
  batch_norm_param {
    use_global_stats: false
  }
}
layer {
  name: "sc_h_2_2"
  type: "Scale"
  bottom: "bn_h_2_2"
  top: "sc_h_2_2"
  scale_param {
    bias_term: true
  }
}
layer {
  name: "relu_h_2_2"
  type: "ReLU"
  bottom: "sc_h_2_2"
  top: "relu_h_2_2"
}
layer {
  name: "conv_h_2_2"
  type: "Convolution"
  bottom: "relu_h_2_2"
  top: "conv_h_2_2"
  param {
    lr_mult: 1
    decay_mult: 1
  }
  param {
    lr_mult: 2
    decay_mult: 1
  }
  convolution_param {
    num_output: 128
    pad: 1
    kernel_size: 3
    stride: 1
    weight_filler {
      type: "msra"
    }
    bias_filler {
      type: "constant"
    }
  }
}
layer {
  name: "elt_h_2"
  type: "Eltwise"
  bottom: "elt_h_1"
  bottom: "conv_h_2_2"
  top: "elt_h_2"
  eltwise_param {
    operation: SUM
  }
}
layer {
  name: "bn_i_1_1"
  type: "BatchNorm"
  bottom: "elt_c_2"
  top: "bn_i_1_1"
  param {
    lr_mult: 0
  }
  param {
    lr_mult: 0
  }
  param {
    lr_mult: 0
  }
  batch_norm_param {
    use_global_stats: false
  }
}
layer {
  name: "sc_i_1_1"
  type: "Scale"
  bottom: "bn_i_1_1"
  top: "sc_i_1_1"
  scale_param {
    bias_term: true
  }
}
layer {
  name: "relu_i_1_1"
  type: "ReLU"
  bottom: "sc_i_1_1"
  top: "relu_i_1_1"
}
layer {
  name: "conv_i_1_1"
  type: "Convolution"
  bottom: "relu_i_1_1"
  top: "conv_i_1_1"
  param {
    lr_mult: 1
    decay_mult: 1
  }
  param {
    lr_mult: 2
    decay_mult: 1
  }
  convolution_param {
    num_output: 128
    pad: 1
    kernel_size: 3
    stride: 2
    weight_filler {
      type: "msra"
    }
    bias_filler {
      type: "constant"
    }
  }
}
layer {
  name: "bn_i_1_2"
  type: "BatchNorm"
  bottom: "conv_i_1_1"
  top: "bn_i_1_2"
  param {
    lr_mult: 0
  }
  param {
    lr_mult: 0
  }
  param {
    lr_mult: 0
  }
  batch_norm_param {
    use_global_stats: false
  }
}
layer {
  name: "sc_i_1_2"
  type: "Scale"
  bottom: "bn_i_1_2"
  top: "sc_i_1_2"
  scale_param {
    bias_term: true
  }
}
layer {
  name: "relu_i_1_2"
  type: "ReLU"
  bottom: "sc_i_1_2"
  top: "relu_i_1_2"
}
layer {
  name: "conv_i_1_2"
  type: "Convolution"
  bottom: "relu_i_1_2"
  top: "conv_i_1_2"
  param {
    lr_mult: 1
    decay_mult: 1
  }
  param {
    lr_mult: 2
    decay_mult: 1
  }
  convolution_param {
    num_output: 128
    pad: 1
    kernel_size: 3
    stride: 1
    weight_filler {
      type: "msra"
    }
    bias_filler {
      type: "constant"
    }
  }
}
layer {
  name: "res_i"
  type: "Convolution"
  bottom: "elt_c_2"
  top: "res_i"
  param {
    lr_mult: 1
    decay_mult: 1
  }
  param {
    lr_mult: 2
    decay_mult: 1
  }
  convolution_param {
    num_output: 128
    pad: 0
    kernel_size: 1
    stride: 2
    weight_filler {
      type: "msra"
    }
    bias_filler {
      type: "constant"
    }
  }
}
layer {
I0623 00:04:52.274199  9350 layer_factory.hpp:77] Creating layer resnet
I0623 00:04:52.274866  9350 net.cpp:91] Creating Layer resnet
I0623 00:04:52.274886  9350 net.cpp:399] resnet -> data
I0623 00:04:52.274976  9350 net.cpp:399] resnet -> label
I0623 00:04:52.275017  9350 data_transformer.cpp:25] Loading mean file from: /home/takeki/caffe/examples/cifar10/mean.binaryproto
I0623 00:04:52.278717  9395 db_lmdb.cpp:35] Opened lmdb /home/takeki/caffe/examples/cifar10/cifar10_train_lmdb
I0623 00:04:52.289732  9350 data_layer.cpp:41] output data size: 64,3,32,32
I0623 00:04:52.292356  9350 net.cpp:141] Setting up resnet
I0623 00:04:52.292385  9350 net.cpp:148] Top shape: 64 3 32 32 (196608)
I0623 00:04:52.292433  9350 net.cpp:148] Top shape: 64 (64)
I0623 00:04:52.292443  9350 net.cpp:156] Memory required for data: 786688
I0623 00:04:52.292454  9350 layer_factory.hpp:77] Creating layer conv0
I0623 00:04:52.292518  9350 net.cpp:91] Creating Layer conv0
I0623 00:04:52.292531  9350 net.cpp:425] conv0 <- data
I0623 00:04:52.292556  9350 net.cpp:399] conv0 -> conv0
I0623 00:04:52.294790  9396 blocking_queue.cpp:50] Waiting for data
I0623 00:04:52.509742  9350 net.cpp:141] Setting up conv0
I0623 00:04:52.509794  9350 net.cpp:148] Top shape: 64 16 32 32 (1048576)
I0623 00:04:52.509804  9350 net.cpp:156] Memory required for data: 4980992
I0623 00:04:52.509835  9350 layer_factory.hpp:77] Creating layer conv0_conv0_0_split
I0623 00:04:52.509860  9350 net.cpp:91] Creating Layer conv0_conv0_0_split
I0623 00:04:52.509868  9350 net.cpp:425] conv0_conv0_0_split <- conv0
I0623 00:04:52.509879  9350 net.cpp:399] conv0_conv0_0_split -> conv0_conv0_0_split_0
I0623 00:04:52.509897  9350 net.cpp:399] conv0_conv0_0_split -> conv0_conv0_0_split_1
I0623 00:04:52.509912  9350 net.cpp:399] conv0_conv0_0_split -> conv0_conv0_0_split_2
I0623 00:04:52.509922  9350 net.cpp:399] conv0_conv0_0_split -> conv0_conv0_0_split_3
I0623 00:04:52.509961  9350 net.cpp:399] conv0_conv0_0_split -> conv0_conv0_0_split_4
I0623 00:04:52.509974  9350 net.cpp:399] conv0_conv0_0_split -> conv0_conv0_0_split_5
I0623 00:04:52.510074  9350 net.cpp:141] Setting up conv0_conv0_0_split
I0623 00:04:52.510089  9350 net.cpp:148] Top shape: 64 16 32 32 (1048576)
I0623 00:04:52.510099  9350 net.cpp:148] Top shape: 64 16 32 32 (1048576)
I0623 00:04:52.510107  9350 net.cpp:148] Top shape: 64 16 32 32 (1048576)
I0623 00:04:52.510115  9350 net.cpp:148] Top shape: 64 16 32 32 (1048576)
I0623 00:04:52.510123  9350 net.cpp:148] Top shape: 64 16 32 32 (1048576)
I0623 00:04:52.510131  9350 net.cpp:148] Top shape: 64 16 32 32 (1048576)
I0623 00:04:52.510138  9350 net.cpp:156] Memory required for data: 30146816
I0623 00:04:52.510148  9350 layer_factory.hpp:77] Creating layer bn_a_1_1
I0623 00:04:52.510162  9350 net.cpp:91] Creating Layer bn_a_1_1
I0623 00:04:52.510169  9350 net.cpp:425] bn_a_1_1 <- conv0_conv0_0_split_0
I0623 00:04:52.510177  9350 net.cpp:399] bn_a_1_1 -> bn_a_1_1
I0623 00:04:52.510371  9350 net.cpp:141] Setting up bn_a_1_1
I0623 00:04:52.510386  9350 net.cpp:148] Top shape: 64 16 32 32 (1048576)
I0623 00:04:52.510395  9350 net.cpp:156] Memory required for data: 34341120
I0623 00:04:52.510411  9350 layer_factory.hpp:77] Creating layer sc_a_1_1
I0623 00:04:52.510426  9350 net.cpp:91] Creating Layer sc_a_1_1
I0623 00:04:52.510434  9350 net.cpp:425] sc_a_1_1 <- bn_a_1_1
I0623 00:04:52.510444  9350 net.cpp:399] sc_a_1_1 -> sc_a_1_1
I0623 00:04:52.510500  9350 layer_factory.hpp:77] Creating layer sc_a_1_1
I0623 00:04:52.510620  9350 net.cpp:141] Setting up sc_a_1_1
I0623 00:04:52.510634  9350 net.cpp:148] Top shape: 64 16 32 32 (1048576)
I0623 00:04:52.510642  9350 net.cpp:156] Memory required for data: 38535424
I0623 00:04:52.510654  9350 layer_factory.hpp:77] Creating layer relu_a_1_1
I0623 00:04:52.510666  9350 net.cpp:91] Creating Layer relu_a_1_1
I0623 00:04:52.510673  9350 net.cpp:425] relu_a_1_1 <- sc_a_1_1
I0623 00:04:52.510680  9350 net.cpp:399] relu_a_1_1 -> relu_a_1_1
I0623 00:04:52.511036  9350 net.cpp:141] Setting up relu_a_1_1
I0623 00:04:52.511054  9350 net.cpp:148] Top shape: 64 16 32 32 (1048576)
I0623 00:04:52.511061  9350 net.cpp:156] Memory required for data: 42729728
I0623 00:04:52.511070  9350 layer_factory.hpp:77] Creating layer conv_a_1_1
I0623 00:04:52.511088  9350 net.cpp:91] Creating Layer conv_a_1_1
I0623 00:04:52.511096  9350 net.cpp:425] conv_a_1_1 <- relu_a_1_1
I0623 00:04:52.511106  9350 net.cpp:399] conv_a_1_1 -> conv_a_1_1
I0623 00:04:52.512914  9350 net.cpp:141] Setting up conv_a_1_1
I0623 00:04:52.512935  9350 net.cpp:148] Top shape: 64 64 32 32 (4194304)
I0623 00:04:52.512943  9350 net.cpp:156] Memory required for data: 59506944
I0623 00:04:52.512956  9350 layer_factory.hpp:77] Creating layer bn_a_1_2
I0623 00:04:52.512967  9350 net.cpp:91] Creating Layer bn_a_1_2
I0623 00:04:52.512976  9350 net.cpp:425] bn_a_1_2 <- conv_a_1_1
I0623 00:04:52.512986  9350 net.cpp:399] bn_a_1_2 -> bn_a_1_2
I0623 00:04:52.513177  9350 net.cpp:141] Setting up bn_a_1_2
I0623 00:04:52.513191  9350 net.cpp:148] Top shape: 64 64 32 32 (4194304)
I0623 00:04:52.513198  9350 net.cpp:156] Memory required for data: 76284160
I0623 00:04:52.513211  9350 layer_factory.hpp:77] Creating layer sc_a_1_2
I0623 00:04:52.513222  9350 net.cpp:91] Creating Layer sc_a_1_2
I0623 00:04:52.513231  9350 net.cpp:425] sc_a_1_2 <- bn_a_1_2
I0623 00:04:52.513242  9350 net.cpp:399] sc_a_1_2 -> sc_a_1_2
I0623 00:04:52.513288  9350 layer_factory.hpp:77] Creating layer sc_a_1_2
I0623 00:04:52.513402  9350 net.cpp:141] Setting up sc_a_1_2
I0623 00:04:52.513416  9350 net.cpp:148] Top shape: 64 64 32 32 (4194304)
I0623 00:04:52.513423  9350 net.cpp:156] Memory required for data: 93061376
I0623 00:04:52.513433  9350 layer_factory.hpp:77] Creating layer relu_a_1_2
I0623 00:04:52.513443  9350 net.cpp:91] Creating Layer relu_a_1_2
I0623 00:04:52.513450  9350 net.cpp:425] relu_a_1_2 <- sc_a_1_2
I0623 00:04:52.513460  9350 net.cpp:399] relu_a_1_2 -> relu_a_1_2
I0623 00:04:52.513767  9350 net.cpp:141] Setting up relu_a_1_2
I0623 00:04:52.513800  9350 net.cpp:148] Top shape: 64 64 32 32 (4194304)
I0623 00:04:52.513809  9350 net.cpp:156] Memory required for data: 109838592
I0623 00:04:52.513818  9350 layer_factory.hpp:77] Creating layer conv_a_1_2
I0623 00:04:52.513833  9350 net.cpp:91] Creating Layer conv_a_1_2
I0623 00:04:52.513841  9350 net.cpp:425] conv_a_1_2 <- relu_a_1_2
I0623 00:04:52.513852  9350 net.cpp:399] conv_a_1_2 -> conv_a_1_2
I0623 00:04:52.516862  9350 net.cpp:141] Setting up conv_a_1_2
I0623 00:04:52.516885  9350 net.cpp:148] Top shape: 64 64 32 32 (4194304)
I0623 00:04:52.516894  9350 net.cpp:156] Memory required for data: 126615808
I0623 00:04:52.516906  9350 layer_factory.hpp:77] Creating layer res_a
I0623 00:04:52.516922  9350 net.cpp:91] Creating Layer res_a
I0623 00:04:52.516932  9350 net.cpp:425] res_a <- conv0_conv0_0_split_1
I0623 00:04:52.516944  9350 net.cpp:399] res_a -> res_a
I0623 00:04:52.518187  9350 net.cpp:141] Setting up res_a
I0623 00:04:52.518205  9350 net.cpp:148] Top shape: 64 64 32 32 (4194304)
I0623 00:04:52.518213  9350 net.cpp:156] Memory required for data: 143393024
I0623 00:04:52.518229  9350 layer_factory.hpp:77] Creating layer elt_a_1
I0623 00:04:52.518241  9350 net.cpp:91] Creating Layer elt_a_1
I0623 00:04:52.518252  9350 net.cpp:425] elt_a_1 <- res_a
I0623 00:04:52.518260  9350 net.cpp:425] elt_a_1 <- conv_a_1_2
I0623 00:04:52.518268  9350 net.cpp:399] elt_a_1 -> elt_a_1
I0623 00:04:52.518311  9350 net.cpp:141] Setting up elt_a_1
I0623 00:04:52.518324  9350 net.cpp:148] Top shape: 64 64 32 32 (4194304)
I0623 00:04:52.518332  9350 net.cpp:156] Memory required for data: 160170240
I0623 00:04:52.518338  9350 layer_factory.hpp:77] Creating layer elt_a_1_elt_a_1_0_split
I0623 00:04:52.518350  9350 net.cpp:91] Creating Layer elt_a_1_elt_a_1_0_split
I0623 00:04:52.518358  9350 net.cpp:425] elt_a_1_elt_a_1_0_split <- elt_a_1
I0623 00:04:52.518368  9350 net.cpp:399] elt_a_1_elt_a_1_0_split -> elt_a_1_elt_a_1_0_split_0
I0623 00:04:52.518378  9350 net.cpp:399] elt_a_1_elt_a_1_0_split -> elt_a_1_elt_a_1_0_split_1
I0623 00:04:52.518426  9350 net.cpp:141] Setting up elt_a_1_elt_a_1_0_split
I0623 00:04:52.518438  9350 net.cpp:148] Top shape: 64 64 32 32 (4194304)
I0623 00:04:52.518446  9350 net.cpp:148] Top shape: 64 64 32 32 (4194304)
I0623 00:04:52.518453  9350 net.cpp:156] Memory required for data: 193724672
I0623 00:04:52.518460  9350 layer_factory.hpp:77] Creating layer bn_a_2_1
I0623 00:04:52.518472  9350 net.cpp:91] Creating Layer bn_a_2_1
I0623 00:04:52.518482  9350 net.cpp:425] bn_a_2_1 <- elt_a_1_elt_a_1_0_split_0
I0623 00:04:52.518499  9350 net.cpp:399] bn_a_2_1 -> bn_a_2_1
I0623 00:04:52.518759  9350 net.cpp:141] Setting up bn_a_2_1
I0623 00:04:52.518776  9350 net.cpp:148] Top shape: 64 64 32 32 (4194304)
I0623 00:04:52.518784  9350 net.cpp:156] Memory required for data: 210501888
I0623 00:04:52.518796  9350 layer_factory.hpp:77] Creating layer sc_a_2_1
I0623 00:04:52.518807  9350 net.cpp:91] Creating Layer sc_a_2_1
I0623 00:04:52.518815  9350 net.cpp:425] sc_a_2_1 <- bn_a_2_1
I0623 00:04:52.518824  9350 net.cpp:399] sc_a_2_1 -> sc_a_2_1
I0623 00:04:52.518879  9350 layer_factory.hpp:77] Creating layer sc_a_2_1
I0623 00:04:52.519007  9350 net.cpp:141] Setting up sc_a_2_1
I0623 00:04:52.519021  9350 net.cpp:148] Top shape: 64 64 32 32 (4194304)
I0623 00:04:52.519028  9350 net.cpp:156] Memory required for data: 227279104
I0623 00:04:52.519038  9350 layer_factory.hpp:77] Creating layer relu_a_2_1
I0623 00:04:52.519050  9350 net.cpp:91] Creating Layer relu_a_2_1
I0623 00:04:52.519060  9350 net.cpp:425] relu_a_2_1 <- sc_a_2_1
I0623 00:04:52.519070  9350 net.cpp:399] relu_a_2_1 -> relu_a_2_1
I0623 00:04:52.519286  9350 net.cpp:141] Setting up relu_a_2_1
I0623 00:04:52.519301  9350 net.cpp:148] Top shape: 64 64 32 32 (4194304)
I0623 00:04:52.519309  9350 net.cpp:156] Memory required for data: 244056320
I0623 00:04:52.519317  9350 layer_factory.hpp:77] Creating layer conv_a_2_1
I0623 00:04:52.519343  9350 net.cpp:91] Creating Layer conv_a_2_1
I0623 00:04:52.519361  9350 net.cpp:425] conv_a_2_1 <- relu_a_2_1
I0623 00:04:52.519397  9350 net.cpp:399] conv_a_2_1 -> conv_a_2_1
I0623 00:04:52.521682  9350 net.cpp:141] Setting up conv_a_2_1
I0623 00:04:52.521702  9350 net.cpp:148] Top shape: 64 64 32 32 (4194304)
I0623 00:04:52.521709  9350 net.cpp:156] Memory required for data: 260833536
I0623 00:04:52.521723  9350 layer_factory.hpp:77] Creating layer bn_a_2_2
I0623 00:04:52.521739  9350 net.cpp:91] Creating Layer bn_a_2_2
I0623 00:04:52.521746  9350 net.cpp:425] bn_a_2_2 <- conv_a_2_1
I0623 00:04:52.521760  9350 net.cpp:399] bn_a_2_2 -> bn_a_2_2
I0623 00:04:52.521981  9350 net.cpp:141] Setting up bn_a_2_2
I0623 00:04:52.521996  9350 net.cpp:148] Top shape: 64 64 32 32 (4194304)
I0623 00:04:52.522002  9350 net.cpp:156] Memory required for data: 277610752
I0623 00:04:52.522013  9350 layer_factory.hpp:77] Creating layer sc_a_2_2
I0623 00:04:52.522024  9350 net.cpp:91] Creating Layer sc_a_2_2
I0623 00:04:52.522032  9350 net.cpp:425] sc_a_2_2 <- bn_a_2_2
I0623 00:04:52.522042  9350 net.cpp:399] sc_a_2_2 -> sc_a_2_2
I0623 00:04:52.522099  9350 layer_factory.hpp:77] Creating layer sc_a_2_2
I0623 00:04:52.522228  9350 net.cpp:141] Setting up sc_a_2_2
I0623 00:04:52.522241  9350 net.cpp:148] Top shape: 64 64 32 32 (4194304)
I0623 00:04:52.522248  9350 net.cpp:156] Memory required for data: 294387968
I0623 00:04:52.522260  9350 layer_factory.hpp:77] Creating layer relu_a_2_2
I0623 00:04:52.522270  9350 net.cpp:91] Creating Layer relu_a_2_2
I0623 00:04:52.522279  9350 net.cpp:425] relu_a_2_2 <- sc_a_2_2
I0623 00:04:52.522290  9350 net.cpp:399] relu_a_2_2 -> relu_a_2_2
I0623 00:04:52.522505  9350 net.cpp:141] Setting up relu_a_2_2
I0623 00:04:52.522521  9350 net.cpp:148] Top shape: 64 64 32 32 (4194304)
I0623 00:04:52.522528  9350 net.cpp:156] Memory required for data: 311165184
I0623 00:04:52.522536  9350 layer_factory.hpp:77] Creating layer conv_a_2_2
I0623 00:04:52.522563  9350 net.cpp:91] Creating Layer conv_a_2_2
I0623 00:04:52.522579  9350 net.cpp:425] conv_a_2_2 <- relu_a_2_2
I0623 00:04:52.522604  9350 net.cpp:399] conv_a_2_2 -> conv_a_2_2
I0623 00:04:52.524925  9350 net.cpp:141] Setting up conv_a_2_2
I0623 00:04:52.524945  9350 net.cpp:148] Top shape: 64 64 32 32 (4194304)
I0623 00:04:52.524955  9350 net.cpp:156] Memory required for data: 327942400
I0623 00:04:52.524966  9350 layer_factory.hpp:77] Creating layer elt_a_2
I0623 00:04:52.524976  9350 net.cpp:91] Creating Layer elt_a_2
I0623 00:04:52.524982  9350 net.cpp:425] elt_a_2 <- elt_a_1_elt_a_1_0_split_1
I0623 00:04:52.524991  9350 net.cpp:425] elt_a_2 <- conv_a_2_2
I0623 00:04:52.525002  9350 net.cpp:399] elt_a_2 -> elt_a_2
I0623 00:04:52.525038  9350 net.cpp:141] Setting up elt_a_2
I0623 00:04:52.525053  9350 net.cpp:148] Top shape: 64 64 32 32 (4194304)
I0623 00:04:52.525060  9350 net.cpp:156] Memory required for data: 344719616
I0623 00:04:52.525068  9350 layer_factory.hpp:77] Creating layer elt_a_2_elt_a_2_0_split
I0623 00:04:52.525075  9350 net.cpp:91] Creating Layer elt_a_2_elt_a_2_0_split
I0623 00:04:52.525081  9350 net.cpp:425] elt_a_2_elt_a_2_0_split <- elt_a_2
I0623 00:04:52.525089  9350 net.cpp:399] elt_a_2_elt_a_2_0_split -> elt_a_2_elt_a_2_0_split_0
I0623 00:04:52.525099  9350 net.cpp:399] elt_a_2_elt_a_2_0_split -> elt_a_2_elt_a_2_0_split_1
I0623 00:04:52.525109  9350 net.cpp:399] elt_a_2_elt_a_2_0_split -> elt_a_2_elt_a_2_0_split_2
I0623 00:04:52.525125  9350 net.cpp:399] elt_a_2_elt_a_2_0_split -> elt_a_2_elt_a_2_0_split_3
I0623 00:04:52.525195  9350 net.cpp:141] Setting up elt_a_2_elt_a_2_0_split
I0623 00:04:52.525208  9350 net.cpp:148] Top shape: 64 64 32 32 (4194304)
I0623 00:04:52.525218  9350 net.cpp:148] Top shape: 64 64 32 32 (4194304)
I0623 00:04:52.525225  9350 net.cpp:148] Top shape: 64 64 32 32 (4194304)
I0623 00:04:52.525233  9350 net.cpp:148] Top shape: 64 64 32 32 (4194304)
I0623 00:04:52.525238  9350 net.cpp:156] Memory required for data: 411828480
I0623 00:04:52.525243  9350 layer_factory.hpp:77] Creating layer bn_b_1_1
I0623 00:04:52.525257  9350 net.cpp:91] Creating Layer bn_b_1_1
I0623 00:04:52.525282  9350 net.cpp:425] bn_b_1_1 <- conv0_conv0_0_split_2
I0623 00:04:52.525296  9350 net.cpp:399] bn_b_1_1 -> bn_b_1_1
I0623 00:04:52.525624  9350 net.cpp:141] Setting up bn_b_1_1
I0623 00:04:52.525647  9350 net.cpp:148] Top shape: 64 16 32 32 (1048576)
I0623 00:04:52.525660  9350 net.cpp:156] Memory required for data: 416022784
I0623 00:04:52.525676  9350 layer_factory.hpp:77] Creating layer sc_b_1_1
I0623 00:04:52.525691  9350 net.cpp:91] Creating Layer sc_b_1_1
I0623 00:04:52.525701  9350 net.cpp:425] sc_b_1_1 <- bn_b_1_1
I0623 00:04:52.525715  9350 net.cpp:399] sc_b_1_1 -> sc_b_1_1
I0623 00:04:52.525773  9350 layer_factory.hpp:77] Creating layer sc_b_1_1
I0623 00:04:52.525907  9350 net.cpp:141] Setting up sc_b_1_1
I0623 00:04:52.525921  9350 net.cpp:148] Top shape: 64 16 32 32 (1048576)
I0623 00:04:52.525928  9350 net.cpp:156] Memory required for data: 420217088
I0623 00:04:52.525938  9350 layer_factory.hpp:77] Creating layer relu_b_1_1
I0623 00:04:52.525950  9350 net.cpp:91] Creating Layer relu_b_1_1
I0623 00:04:52.525959  9350 net.cpp:425] relu_b_1_1 <- sc_b_1_1
I0623 00:04:52.525969  9350 net.cpp:399] relu_b_1_1 -> relu_b_1_1
I0623 00:04:52.526365  9350 net.cpp:141] Setting up relu_b_1_1
I0623 00:04:52.526391  9350 net.cpp:148] Top shape: 64 16 32 32 (1048576)
I0623 00:04:52.526406  9350 net.cpp:156] Memory required for data: 424411392
I0623 00:04:52.526423  9350 layer_factory.hpp:77] Creating layer conv_b_1_1
I0623 00:04:52.526443  9350 net.cpp:91] Creating Layer conv_b_1_1
I0623 00:04:52.526451  9350 net.cpp:425] conv_b_1_1 <- relu_b_1_1
I0623 00:04:52.526465  9350 net.cpp:399] conv_b_1_1 -> conv_b_1_1
I0623 00:04:52.528075  9350 net.cpp:141] Setting up conv_b_1_1
I0623 00:04:52.528095  9350 net.cpp:148] Top shape: 64 64 32 32 (4194304)
I0623 00:04:52.528105  9350 net.cpp:156] Memory required for data: 441188608
I0623 00:04:52.528115  9350 layer_factory.hpp:77] Creating layer bn_b_1_2
I0623 00:04:52.528131  9350 net.cpp:91] Creating Layer bn_b_1_2
I0623 00:04:52.528138  9350 net.cpp:425] bn_b_1_2 <- conv_b_1_1
I0623 00:04:52.528149  9350 net.cpp:399] bn_b_1_2 -> bn_b_1_2
I0623 00:04:52.528415  9350 net.cpp:141] Setting up bn_b_1_2
I0623 00:04:52.528432  9350 net.cpp:148] Top shape: 64 64 32 32 (4194304)
I0623 00:04:52.528439  9350 net.cpp:156] Memory required for data: 457965824
I0623 00:04:52.528451  9350 layer_factory.hpp:77] Creating layer sc_b_1_2
I0623 00:04:52.528462  9350 net.cpp:91] Creating Layer sc_b_1_2
I0623 00:04:52.528471  9350 net.cpp:425] sc_b_1_2 <- bn_b_1_2
I0623 00:04:52.528493  9350 net.cpp:399] sc_b_1_2 -> sc_b_1_2
I0623 00:04:52.528564  9350 layer_factory.hpp:77] Creating layer sc_b_1_2
I0623 00:04:52.528734  9350 net.cpp:141] Setting up sc_b_1_2
I0623 00:04:52.528750  9350 net.cpp:148] Top shape: 64 64 32 32 (4194304)
I0623 00:04:52.528758  9350 net.cpp:156] Memory required for data: 474743040
I0623 00:04:52.528769  9350 layer_factory.hpp:77] Creating layer relu_b_1_2
I0623 00:04:52.528779  9350 net.cpp:91] Creating Layer relu_b_1_2
I0623 00:04:52.528786  9350 net.cpp:425] relu_b_1_2 <- sc_b_1_2
I0623 00:04:52.528798  9350 net.cpp:399] relu_b_1_2 -> relu_b_1_2
I0623 00:04:52.529026  9350 net.cpp:141] Setting up relu_b_1_2
I0623 00:04:52.529041  9350 net.cpp:148] Top shape: 64 64 32 32 (4194304)
I0623 00:04:52.529048  9350 net.cpp:156] Memory required for data: 491520256
I0623 00:04:52.529057  9350 layer_factory.hpp:77] Creating layer conv_b_1_2
I0623 00:04:52.529084  9350 net.cpp:91] Creating Layer conv_b_1_2
I0623 00:04:52.529098  9350 net.cpp:425] conv_b_1_2 <- relu_b_1_2
I0623 00:04:52.529119  9350 net.cpp:399] conv_b_1_2 -> conv_b_1_2
I0623 00:04:52.531708  9350 net.cpp:141] Setting up conv_b_1_2
I0623 00:04:52.531728  9350 net.cpp:148] Top shape: 64 64 32 32 (4194304)
I0623 00:04:52.531734  9350 net.cpp:156] Memory required for data: 508297472
I0623 00:04:52.531745  9350 layer_factory.hpp:77] Creating layer res_b
I0623 00:04:52.531767  9350 net.cpp:91] Creating Layer res_b
I0623 00:04:52.531779  9350 net.cpp:425] res_b <- conv0_conv0_0_split_3
I0623 00:04:52.531788  9350 net.cpp:399] res_b -> res_b
I0623 00:04:52.532939  9350 net.cpp:141] Setting up res_b
I0623 00:04:52.532958  9350 net.cpp:148] Top shape: 64 64 32 32 (4194304)
I0623 00:04:52.532965  9350 net.cpp:156] Memory required for data: 525074688
I0623 00:04:52.532975  9350 layer_factory.hpp:77] Creating layer elt_b_1
I0623 00:04:52.532989  9350 net.cpp:91] Creating Layer elt_b_1
I0623 00:04:52.532995  9350 net.cpp:425] elt_b_1 <- res_b
I0623 00:04:52.533002  9350 net.cpp:425] elt_b_1 <- conv_b_1_2
I0623 00:04:52.533012  9350 net.cpp:399] elt_b_1 -> elt_b_1
I0623 00:04:52.533052  9350 net.cpp:141] Setting up elt_b_1
I0623 00:04:52.533066  9350 net.cpp:148] Top shape: 64 64 32 32 (4194304)
I0623 00:04:52.533071  9350 net.cpp:156] Memory required for data: 541851904
I0623 00:04:52.533078  9350 layer_factory.hpp:77] Creating layer elt_b_1_elt_b_1_0_split
I0623 00:04:52.533090  9350 net.cpp:91] Creating Layer elt_b_1_elt_b_1_0_split
I0623 00:04:52.533097  9350 net.cpp:425] elt_b_1_elt_b_1_0_split <- elt_b_1
I0623 00:04:52.533107  9350 net.cpp:399] elt_b_1_elt_b_1_0_split -> elt_b_1_elt_b_1_0_split_0
I0623 00:04:52.533118  9350 net.cpp:399] elt_b_1_elt_b_1_0_split -> elt_b_1_elt_b_1_0_split_1
I0623 00:04:52.533167  9350 net.cpp:141] Setting up elt_b_1_elt_b_1_0_split
I0623 00:04:52.533180  9350 net.cpp:148] Top shape: 64 64 32 32 (4194304)
I0623 00:04:52.533188  9350 net.cpp:148] Top shape: 64 64 32 32 (4194304)
I0623 00:04:52.533195  9350 net.cpp:156] Memory required for data: 575406336
I0623 00:04:52.533203  9350 layer_factory.hpp:77] Creating layer bn_b_2_1
I0623 00:04:52.533216  9350 net.cpp:91] Creating Layer bn_b_2_1
I0623 00:04:52.533222  9350 net.cpp:425] bn_b_2_1 <- elt_b_1_elt_b_1_0_split_0
I0623 00:04:52.533233  9350 net.cpp:399] bn_b_2_1 -> bn_b_2_1
I0623 00:04:52.533468  9350 net.cpp:141] Setting up bn_b_2_1
I0623 00:04:52.533483  9350 net.cpp:148] Top shape: 64 64 32 32 (4194304)
I0623 00:04:52.533490  9350 net.cpp:156] Memory required for data: 592183552
I0623 00:04:52.533502  9350 layer_factory.hpp:77] Creating layer sc_b_2_1
I0623 00:04:52.533512  9350 net.cpp:91] Creating Layer sc_b_2_1
I0623 00:04:52.533520  9350 net.cpp:425] sc_b_2_1 <- bn_b_2_1
I0623 00:04:52.533529  9350 net.cpp:399] sc_b_2_1 -> sc_b_2_1
I0623 00:04:52.533584  9350 layer_factory.hpp:77] Creating layer sc_b_2_1
I0623 00:04:52.533723  9350 net.cpp:141] Setting up sc_b_2_1
I0623 00:04:52.533737  9350 net.cpp:148] Top shape: 64 64 32 32 (4194304)
I0623 00:04:52.533743  9350 net.cpp:156] Memory required for data: 608960768
I0623 00:04:52.533753  9350 layer_factory.hpp:77] Creating layer relu_b_2_1
I0623 00:04:52.533763  9350 net.cpp:91] Creating Layer relu_b_2_1
I0623 00:04:52.533771  9350 net.cpp:425] relu_b_2_1 <- sc_b_2_1
I0623 00:04:52.533782  9350 net.cpp:399] relu_b_2_1 -> relu_b_2_1
I0623 00:04:52.533995  9350 net.cpp:141] Setting up relu_b_2_1
I0623 00:04:52.534013  9350 net.cpp:148] Top shape: 64 64 32 32 (4194304)
I0623 00:04:52.534021  9350 net.cpp:156] Memory required for data: 625737984
I0623 00:04:52.534034  9350 layer_factory.hpp:77] Creating layer conv_b_2_1
I0623 00:04:52.534055  9350 net.cpp:91] Creating Layer conv_b_2_1
I0623 00:04:52.534065  9350 net.cpp:425] conv_b_2_1 <- relu_b_2_1
I0623 00:04:52.534075  9350 net.cpp:399] conv_b_2_1 -> conv_b_2_1
I0623 00:04:52.536373  9350 net.cpp:141] Setting up conv_b_2_1
I0623 00:04:52.536393  9350 net.cpp:148] Top shape: 64 64 32 32 (4194304)
I0623 00:04:52.536402  9350 net.cpp:156] Memory required for data: 642515200
I0623 00:04:52.536413  9350 layer_factory.hpp:77] Creating layer bn_b_2_2
I0623 00:04:52.536428  9350 net.cpp:91] Creating Layer bn_b_2_2
I0623 00:04:52.536437  9350 net.cpp:425] bn_b_2_2 <- conv_b_2_1
I0623 00:04:52.536448  9350 net.cpp:399] bn_b_2_2 -> bn_b_2_2
I0623 00:04:52.536684  9350 net.cpp:141] Setting up bn_b_2_2
I0623 00:04:52.536697  9350 net.cpp:148] Top shape: 64 64 32 32 (4194304)
I0623 00:04:52.536703  9350 net.cpp:156] Memory required for data: 659292416
I0623 00:04:52.536715  9350 layer_factory.hpp:77] Creating layer sc_b_2_2
I0623 00:04:52.536725  9350 net.cpp:91] Creating Layer sc_b_2_2
I0623 00:04:52.536751  9350 net.cpp:425] sc_b_2_2 <- bn_b_2_2
I0623 00:04:52.536762  9350 net.cpp:399] sc_b_2_2 -> sc_b_2_2
I0623 00:04:52.536820  9350 layer_factory.hpp:77] Creating layer sc_b_2_2
I0623 00:04:52.536957  9350 net.cpp:141] Setting up sc_b_2_2
I0623 00:04:52.536972  9350 net.cpp:148] Top shape: 64 64 32 32 (4194304)
I0623 00:04:52.536978  9350 net.cpp:156] Memory required for data: 676069632
I0623 00:04:52.536988  9350 layer_factory.hpp:77] Creating layer relu_b_2_2
I0623 00:04:52.536998  9350 net.cpp:91] Creating Layer relu_b_2_2
I0623 00:04:52.537003  9350 net.cpp:425] relu_b_2_2 <- sc_b_2_2
I0623 00:04:52.537017  9350 net.cpp:399] relu_b_2_2 -> relu_b_2_2
I0623 00:04:52.537350  9350 net.cpp:141] Setting up relu_b_2_2
I0623 00:04:52.537369  9350 net.cpp:148] Top shape: 64 64 32 32 (4194304)
I0623 00:04:52.537374  9350 net.cpp:156] Memory required for data: 692846848
I0623 00:04:52.537381  9350 layer_factory.hpp:77] Creating layer conv_b_2_2
I0623 00:04:52.537397  9350 net.cpp:91] Creating Layer conv_b_2_2
I0623 00:04:52.537410  9350 net.cpp:425] conv_b_2_2 <- relu_b_2_2
I0623 00:04:52.537420  9350 net.cpp:399] conv_b_2_2 -> conv_b_2_2
I0623 00:04:52.539729  9350 net.cpp:141] Setting up conv_b_2_2
I0623 00:04:52.539750  9350 net.cpp:148] Top shape: 64 64 32 32 (4194304)
I0623 00:04:52.539757  9350 net.cpp:156] Memory required for data: 709624064
I0623 00:04:52.539767  9350 layer_factory.hpp:77] Creating layer elt_b_2
I0623 00:04:52.539777  9350 net.cpp:91] Creating Layer elt_b_2
I0623 00:04:52.539784  9350 net.cpp:425] elt_b_2 <- elt_b_1_elt_b_1_0_split_1
I0623 00:04:52.539795  9350 net.cpp:425] elt_b_2 <- conv_b_2_2
I0623 00:04:52.539808  9350 net.cpp:399] elt_b_2 -> elt_b_2
I0623 00:04:52.539845  9350 net.cpp:141] Setting up elt_b_2
I0623 00:04:52.539858  9350 net.cpp:148] Top shape: 64 64 32 32 (4194304)
I0623 00:04:52.539866  9350 net.cpp:156] Memory required for data: 726401280
I0623 00:04:52.539872  9350 layer_factory.hpp:77] Creating layer elt_b_2_elt_b_2_0_split
I0623 00:04:52.539883  9350 net.cpp:91] Creating Layer elt_b_2_elt_b_2_0_split
I0623 00:04:52.539891  9350 net.cpp:425] elt_b_2_elt_b_2_0_split <- elt_b_2
I0623 00:04:52.539899  9350 net.cpp:399] elt_b_2_elt_b_2_0_split -> elt_b_2_elt_b_2_0_split_0
I0623 00:04:52.539914  9350 net.cpp:399] elt_b_2_elt_b_2_0_split -> elt_b_2_elt_b_2_0_split_1
I0623 00:04:52.539924  9350 net.cpp:399] elt_b_2_elt_b_2_0_split -> elt_b_2_elt_b_2_0_split_2
I0623 00:04:52.539934  9350 net.cpp:399] elt_b_2_elt_b_2_0_split -> elt_b_2_elt_b_2_0_split_3
I0623 00:04:52.540007  9350 net.cpp:141] Setting up elt_b_2_elt_b_2_0_split
I0623 00:04:52.540020  9350 net.cpp:148] Top shape: 64 64 32 32 (4194304)
I0623 00:04:52.540029  9350 net.cpp:148] Top shape: 64 64 32 32 (4194304)
I0623 00:04:52.540035  9350 net.cpp:148] Top shape: 64 64 32 32 (4194304)
I0623 00:04:52.540042  9350 net.cpp:148] Top shape: 64 64 32 32 (4194304)
I0623 00:04:52.540047  9350 net.cpp:156] Memory required for data: 793510144
I0623 00:04:52.540055  9350 layer_factory.hpp:77] Creating layer bn_c_1_1
I0623 00:04:52.540068  9350 net.cpp:91] Creating Layer bn_c_1_1
I0623 00:04:52.540074  9350 net.cpp:425] bn_c_1_1 <- conv0_conv0_0_split_4
I0623 00:04:52.540086  9350 net.cpp:399] bn_c_1_1 -> bn_c_1_1
I0623 00:04:52.540318  9350 net.cpp:141] Setting up bn_c_1_1
I0623 00:04:52.540333  9350 net.cpp:148] Top shape: 64 16 32 32 (1048576)
I0623 00:04:52.540338  9350 net.cpp:156] Memory required for data: 797704448
I0623 00:04:52.540364  9350 layer_factory.hpp:77] Creating layer sc_c_1_1
I0623 00:04:52.540376  9350 net.cpp:91] Creating Layer sc_c_1_1
I0623 00:04:52.540385  9350 net.cpp:425] sc_c_1_1 <- bn_c_1_1
I0623 00:04:52.540395  9350 net.cpp:399] sc_c_1_1 -> sc_c_1_1
I0623 00:04:52.540452  9350 layer_factory.hpp:77] Creating layer sc_c_1_1
I0623 00:04:52.540591  9350 net.cpp:141] Setting up sc_c_1_1
I0623 00:04:52.540604  9350 net.cpp:148] Top shape: 64 16 32 32 (1048576)
I0623 00:04:52.540611  9350 net.cpp:156] Memory required for data: 801898752
I0623 00:04:52.540621  9350 layer_factory.hpp:77] Creating layer relu_c_1_1
I0623 00:04:52.540649  9350 net.cpp:91] Creating Layer relu_c_1_1
I0623 00:04:52.540659  9350 net.cpp:425] relu_c_1_1 <- sc_c_1_1
I0623 00:04:52.540673  9350 net.cpp:399] relu_c_1_1 -> relu_c_1_1
I0623 00:04:52.541013  9350 net.cpp:141] Setting up relu_c_1_1
I0623 00:04:52.541030  9350 net.cpp:148] Top shape: 64 16 32 32 (1048576)
I0623 00:04:52.541038  9350 net.cpp:156] Memory required for data: 806093056
I0623 00:04:52.541043  9350 layer_factory.hpp:77] Creating layer conv_c_1_1
I0623 00:04:52.541061  9350 net.cpp:91] Creating Layer conv_c_1_1
I0623 00:04:52.541072  9350 net.cpp:425] conv_c_1_1 <- relu_c_1_1
I0623 00:04:52.541084  9350 net.cpp:399] conv_c_1_1 -> conv_c_1_1
I0623 00:04:52.542503  9350 net.cpp:141] Setting up conv_c_1_1
I0623 00:04:52.542522  9350 net.cpp:148] Top shape: 64 64 32 32 (4194304)
I0623 00:04:52.542529  9350 net.cpp:156] Memory required for data: 822870272
I0623 00:04:52.542539  9350 layer_factory.hpp:77] Creating layer bn_c_1_2
I0623 00:04:52.542554  9350 net.cpp:91] Creating Layer bn_c_1_2
I0623 00:04:52.542564  9350 net.cpp:425] bn_c_1_2 <- conv_c_1_1
I0623 00:04:52.542577  9350 net.cpp:399] bn_c_1_2 -> bn_c_1_2
I0623 00:04:52.542831  9350 net.cpp:141] Setting up bn_c_1_2
I0623 00:04:52.542847  9350 net.cpp:148] Top shape: 64 64 32 32 (4194304)
I0623 00:04:52.542855  9350 net.cpp:156] Memory required for data: 839647488
I0623 00:04:52.542867  9350 layer_factory.hpp:77] Creating layer sc_c_1_2
I0623 00:04:52.542877  9350 net.cpp:91] Creating Layer sc_c_1_2
I0623 00:04:52.542883  9350 net.cpp:425] sc_c_1_2 <- bn_c_1_2
I0623 00:04:52.542891  9350 net.cpp:399] sc_c_1_2 -> sc_c_1_2
I0623 00:04:52.542955  9350 layer_factory.hpp:77] Creating layer sc_c_1_2
I0623 00:04:52.543103  9350 net.cpp:141] Setting up sc_c_1_2
I0623 00:04:52.543123  9350 net.cpp:148] Top shape: 64 64 32 32 (4194304)
I0623 00:04:52.543133  9350 net.cpp:156] Memory required for data: 856424704
I0623 00:04:52.543143  9350 layer_factory.hpp:77] Creating layer relu_c_1_2
I0623 00:04:52.543153  9350 net.cpp:91] Creating Layer relu_c_1_2
I0623 00:04:52.543160  9350 net.cpp:425] relu_c_1_2 <- sc_c_1_2
I0623 00:04:52.543172  9350 net.cpp:399] relu_c_1_2 -> relu_c_1_2
I0623 00:04:52.543398  9350 net.cpp:141] Setting up relu_c_1_2
I0623 00:04:52.543413  9350 net.cpp:148] Top shape: 64 64 32 32 (4194304)
I0623 00:04:52.543421  9350 net.cpp:156] Memory required for data: 873201920
I0623 00:04:52.543428  9350 layer_factory.hpp:77] Creating layer conv_c_1_2
I0623 00:04:52.543447  9350 net.cpp:91] Creating Layer conv_c_1_2
I0623 00:04:52.543458  9350 net.cpp:425] conv_c_1_2 <- relu_c_1_2
I0623 00:04:52.543475  9350 net.cpp:399] conv_c_1_2 -> conv_c_1_2
I0623 00:04:52.545763  9350 net.cpp:141] Setting up conv_c_1_2
I0623 00:04:52.545783  9350 net.cpp:148] Top shape: 64 64 32 32 (4194304)
I0623 00:04:52.545789  9350 net.cpp:156] Memory required for data: 889979136
I0623 00:04:52.545799  9350 layer_factory.hpp:77] Creating layer res_c
I0623 00:04:52.545819  9350 net.cpp:91] Creating Layer res_c
I0623 00:04:52.545825  9350 net.cpp:425] res_c <- conv0_conv0_0_split_5
I0623 00:04:52.545838  9350 net.cpp:399] res_c -> res_c
I0623 00:04:52.547125  9350 net.cpp:141] Setting up res_c
I0623 00:04:52.547145  9350 net.cpp:148] Top shape: 64 64 32 32 (4194304)
I0623 00:04:52.547152  9350 net.cpp:156] Memory required for data: 906756352
I0623 00:04:52.547163  9350 layer_factory.hpp:77] Creating layer elt_c_1
I0623 00:04:52.547175  9350 net.cpp:91] Creating Layer elt_c_1
I0623 00:04:52.547183  9350 net.cpp:425] elt_c_1 <- res_c
I0623 00:04:52.547194  9350 net.cpp:425] elt_c_1 <- conv_c_1_2
I0623 00:04:52.547202  9350 net.cpp:399] elt_c_1 -> elt_c_1
I0623 00:04:52.547243  9350 net.cpp:141] Setting up elt_c_1
I0623 00:04:52.547256  9350 net.cpp:148] Top shape: 64 64 32 32 (4194304)
I0623 00:04:52.547265  9350 net.cpp:156] Memory required for data: 923533568
I0623 00:04:52.547271  9350 layer_factory.hpp:77] Creating layer elt_c_1_elt_c_1_0_split
I0623 00:04:52.547281  9350 net.cpp:91] Creating Layer elt_c_1_elt_c_1_0_split
I0623 00:04:52.547305  9350 net.cpp:425] elt_c_1_elt_c_1_0_split <- elt_c_1
I0623 00:04:52.547318  9350 net.cpp:399] elt_c_1_elt_c_1_0_split -> elt_c_1_elt_c_1_0_split_0
I0623 00:04:52.547329  9350 net.cpp:399] elt_c_1_elt_c_1_0_split -> elt_c_1_elt_c_1_0_split_1
I0623 00:04:52.547381  9350 net.cpp:141] Setting up elt_c_1_elt_c_1_0_split
I0623 00:04:52.547395  9350 net.cpp:148] Top shape: 64 64 32 32 (4194304)
I0623 00:04:52.547405  9350 net.cpp:148] Top shape: 64 64 32 32 (4194304)
I0623 00:04:52.547411  9350 net.cpp:156] Memory required for data: 957088000
I0623 00:04:52.547420  9350 layer_factory.hpp:77] Creating layer bn_c_2_1
I0623 00:04:52.547433  9350 net.cpp:91] Creating Layer bn_c_2_1
I0623 00:04:52.547441  9350 net.cpp:425] bn_c_2_1 <- elt_c_1_elt_c_1_0_split_0
I0623 00:04:52.547452  9350 net.cpp:399] bn_c_2_1 -> bn_c_2_1
I0623 00:04:52.547695  9350 net.cpp:141] Setting up bn_c_2_1
I0623 00:04:52.547710  9350 net.cpp:148] Top shape: 64 64 32 32 (4194304)
I0623 00:04:52.547716  9350 net.cpp:156] Memory required for data: 973865216
I0623 00:04:52.547729  9350 layer_factory.hpp:77] Creating layer sc_c_2_1
I0623 00:04:52.547739  9350 net.cpp:91] Creating Layer sc_c_2_1
I0623 00:04:52.547747  9350 net.cpp:425] sc_c_2_1 <- bn_c_2_1
I0623 00:04:52.547761  9350 net.cpp:399] sc_c_2_1 -> sc_c_2_1
I0623 00:04:52.547818  9350 layer_factory.hpp:77] Creating layer sc_c_2_1
I0623 00:04:52.547961  9350 net.cpp:141] Setting up sc_c_2_1
I0623 00:04:52.547976  9350 net.cpp:148] Top shape: 64 64 32 32 (4194304)
I0623 00:04:52.547983  9350 net.cpp:156] Memory required for data: 990642432
I0623 00:04:52.547994  9350 layer_factory.hpp:77] Creating layer relu_c_2_1
I0623 00:04:52.548003  9350 net.cpp:91] Creating Layer relu_c_2_1
I0623 00:04:52.548012  9350 net.cpp:425] relu_c_2_1 <- sc_c_2_1
I0623 00:04:52.548022  9350 net.cpp:399] relu_c_2_1 -> relu_c_2_1
I0623 00:04:52.548249  9350 net.cpp:141] Setting up relu_c_2_1
I0623 00:04:52.548264  9350 net.cpp:148] Top shape: 64 64 32 32 (4194304)
I0623 00:04:52.548272  9350 net.cpp:156] Memory required for data: 1007419648
I0623 00:04:52.548280  9350 layer_factory.hpp:77] Creating layer conv_c_2_1
I0623 00:04:52.548298  9350 net.cpp:91] Creating Layer conv_c_2_1
I0623 00:04:52.548306  9350 net.cpp:425] conv_c_2_1 <- relu_c_2_1
I0623 00:04:52.548316  9350 net.cpp:399] conv_c_2_1 -> conv_c_2_1
I0623 00:04:52.551234  9350 net.cpp:141] Setting up conv_c_2_1
I0623 00:04:52.551254  9350 net.cpp:148] Top shape: 64 64 32 32 (4194304)
I0623 00:04:52.551260  9350 net.cpp:156] Memory required for data: 1024196864
I0623 00:04:52.551270  9350 layer_factory.hpp:77] Creating layer bn_c_2_2
I0623 00:04:52.551281  9350 net.cpp:91] Creating Layer bn_c_2_2
I0623 00:04:52.551288  9350 net.cpp:425] bn_c_2_2 <- conv_c_2_1
I0623 00:04:52.551304  9350 net.cpp:399] bn_c_2_2 -> bn_c_2_2
I0623 00:04:52.551569  9350 net.cpp:141] Setting up bn_c_2_2
I0623 00:04:52.551584  9350 net.cpp:148] Top shape: 64 64 32 32 (4194304)
I0623 00:04:52.551590  9350 net.cpp:156] Memory required for data: 1040974080
I0623 00:04:52.551601  9350 layer_factory.hpp:77] Creating layer sc_c_2_2
I0623 00:04:52.551614  9350 net.cpp:91] Creating Layer sc_c_2_2
I0623 00:04:52.551621  9350 net.cpp:425] sc_c_2_2 <- bn_c_2_2
I0623 00:04:52.551632  9350 net.cpp:399] sc_c_2_2 -> sc_c_2_2
I0623 00:04:52.551689  9350 layer_factory.hpp:77] Creating layer sc_c_2_2
I0623 00:04:52.551831  9350 net.cpp:141] Setting up sc_c_2_2
I0623 00:04:52.551844  9350 net.cpp:148] Top shape: 64 64 32 32 (4194304)
I0623 00:04:52.551852  9350 net.cpp:156] Memory required for data: 1057751296
I0623 00:04:52.551865  9350 layer_factory.hpp:77] Creating layer relu_c_2_2
I0623 00:04:52.551883  9350 net.cpp:91] Creating Layer relu_c_2_2
I0623 00:04:52.551890  9350 net.cpp:425] relu_c_2_2 <- sc_c_2_2
I0623 00:04:52.551899  9350 net.cpp:399] relu_c_2_2 -> relu_c_2_2
I0623 00:04:52.552284  9350 net.cpp:141] Setting up relu_c_2_2
I0623 00:04:52.552302  9350 net.cpp:148] Top shape: 64 64 32 32 (4194304)
I0623 00:04:52.552309  9350 net.cpp:156] Memory required for data: 1074528512
I0623 00:04:52.552330  9350 layer_factory.hpp:77] Creating layer conv_c_2_2
I0623 00:04:52.552348  9350 net.cpp:91] Creating Layer conv_c_2_2
I0623 00:04:52.552358  9350 net.cpp:425] conv_c_2_2 <- relu_c_2_2
I0623 00:04:52.552372  9350 net.cpp:399] conv_c_2_2 -> conv_c_2_2
I0623 00:04:52.554966  9350 net.cpp:141] Setting up conv_c_2_2
I0623 00:04:52.554986  9350 net.cpp:148] Top shape: 64 64 32 32 (4194304)
I0623 00:04:52.554996  9350 net.cpp:156] Memory required for data: 1091305728
I0623 00:04:52.555011  9350 layer_factory.hpp:77] Creating layer elt_c_2
I0623 00:04:52.555040  9350 net.cpp:91] Creating Layer elt_c_2
I0623 00:04:52.555052  9350 net.cpp:425] elt_c_2 <- elt_c_1_elt_c_1_0_split_1
I0623 00:04:52.555064  9350 net.cpp:425] elt_c_2 <- conv_c_2_2
I0623 00:04:52.555081  9350 net.cpp:399] elt_c_2 -> elt_c_2
I0623 00:04:52.555132  9350 net.cpp:141] Setting up elt_c_2
I0623 00:04:52.555147  9350 net.cpp:148] Top shape: 64 64 32 32 (4194304)
I0623 00:04:52.555156  9350 net.cpp:156] Memory required for data: 1108082944
I0623 00:04:52.555163  9350 layer_factory.hpp:77] Creating layer elt_c_2_elt_c_2_0_split
I0623 00:04:52.555174  9350 net.cpp:91] Creating Layer elt_c_2_elt_c_2_0_split
I0623 00:04:52.555181  9350 net.cpp:425] elt_c_2_elt_c_2_0_split <- elt_c_2
I0623 00:04:52.555196  9350 net.cpp:399] elt_c_2_elt_c_2_0_split -> elt_c_2_elt_c_2_0_split_0
I0623 00:04:52.555218  9350 net.cpp:399] elt_c_2_elt_c_2_0_split -> elt_c_2_elt_c_2_0_split_1
I0623 00:04:52.555243  9350 net.cpp:399] elt_c_2_elt_c_2_0_split -> elt_c_2_elt_c_2_0_split_2
I0623 00:04:52.555256  9350 net.cpp:399] elt_c_2_elt_c_2_0_split -> elt_c_2_elt_c_2_0_split_3
I0623 00:04:52.555336  9350 net.cpp:141] Setting up elt_c_2_elt_c_2_0_split
I0623 00:04:52.555353  9350 net.cpp:148] Top shape: 64 64 32 32 (4194304)
I0623 00:04:52.555361  9350 net.cpp:148] Top shape: 64 64 32 32 (4194304)
I0623 00:04:52.555369  9350 net.cpp:148] Top shape: 64 64 32 32 (4194304)
I0623 00:04:52.555377  9350 net.cpp:148] Top shape: 64 64 32 32 (4194304)
I0623 00:04:52.555384  9350 net.cpp:156] Memory required for data: 1175191808
I0623 00:04:52.555390  9350 layer_factory.hpp:77] Creating layer bn_d_1_1
I0623 00:04:52.555402  9350 net.cpp:91] Creating Layer bn_d_1_1
I0623 00:04:52.555408  9350 net.cpp:425] bn_d_1_1 <- elt_a_2_elt_a_2_0_split_0
I0623 00:04:52.555423  9350 net.cpp:399] bn_d_1_1 -> bn_d_1_1
I0623 00:04:52.555660  9350 net.cpp:141] Setting up bn_d_1_1
I0623 00:04:52.555673  9350 net.cpp:148] Top shape: 64 64 32 32 (4194304)
I0623 00:04:52.555678  9350 net.cpp:156] Memory required for data: 1191969024
I0623 00:04:52.555691  9350 layer_factory.hpp:77] Creating layer sc_d_1_1
I0623 00:04:52.555703  9350 net.cpp:91] Creating Layer sc_d_1_1
I0623 00:04:52.555711  9350 net.cpp:425] sc_d_1_1 <- bn_d_1_1
I0623 00:04:52.555723  9350 net.cpp:399] sc_d_1_1 -> sc_d_1_1
I0623 00:04:52.555804  9350 layer_factory.hpp:77] Creating layer sc_d_1_1
I0623 00:04:52.555963  9350 net.cpp:141] Setting up sc_d_1_1
I0623 00:04:52.555979  9350 net.cpp:148] Top shape: 64 64 32 32 (4194304)
I0623 00:04:52.555985  9350 net.cpp:156] Memory required for data: 1208746240
I0623 00:04:52.555995  9350 layer_factory.hpp:77] Creating layer relu_d_1_1
I0623 00:04:52.556008  9350 net.cpp:91] Creating Layer relu_d_1_1
I0623 00:04:52.556016  9350 net.cpp:425] relu_d_1_1 <- sc_d_1_1
I0623 00:04:52.556026  9350 net.cpp:399] relu_d_1_1 -> relu_d_1_1
I0623 00:04:52.556246  9350 net.cpp:141] Setting up relu_d_1_1
I0623 00:04:52.556262  9350 net.cpp:148] Top shape: 64 64 32 32 (4194304)
I0623 00:04:52.556269  9350 net.cpp:156] Memory required for data: 1225523456
I0623 00:04:52.556278  9350 layer_factory.hpp:77] Creating layer conv_d_1_1
I0623 00:04:52.556294  9350 net.cpp:91] Creating Layer conv_d_1_1
I0623 00:04:52.556301  9350 net.cpp:425] conv_d_1_1 <- relu_d_1_1
I0623 00:04:52.556313  9350 net.cpp:399] conv_d_1_1 -> conv_d_1_1
I0623 00:04:52.560438  9350 net.cpp:141] Setting up conv_d_1_1
I0623 00:04:52.560458  9350 net.cpp:148] Top shape: 64 128 16 16 (2097152)
I0623 00:04:52.560466  9350 net.cpp:156] Memory required for data: 1233912064
I0623 00:04:52.560492  9350 layer_factory.hpp:77] Creating layer bn_d_1_2
I0623 00:04:52.560508  9350 net.cpp:91] Creating Layer bn_d_1_2
I0623 00:04:52.560518  9350 net.cpp:425] bn_d_1_2 <- conv_d_1_1
I0623 00:04:52.560528  9350 net.cpp:399] bn_d_1_2 -> bn_d_1_2
I0623 00:04:52.560781  9350 net.cpp:141] Setting up bn_d_1_2
I0623 00:04:52.560801  9350 net.cpp:148] Top shape: 64 128 16 16 (2097152)
I0623 00:04:52.560807  9350 net.cpp:156] Memory required for data: 1242300672
I0623 00:04:52.560819  9350 layer_factory.hpp:77] Creating layer sc_d_1_2
I0623 00:04:52.560833  9350 net.cpp:91] Creating Layer sc_d_1_2
I0623 00:04:52.560842  9350 net.cpp:425] sc_d_1_2 <- bn_d_1_2
I0623 00:04:52.560853  9350 net.cpp:399] sc_d_1_2 -> sc_d_1_2
I0623 00:04:52.560931  9350 layer_factory.hpp:77] Creating layer sc_d_1_2
I0623 00:04:52.561079  9350 net.cpp:141] Setting up sc_d_1_2
I0623 00:04:52.561092  9350 net.cpp:148] Top shape: 64 128 16 16 (2097152)
I0623 00:04:52.561100  9350 net.cpp:156] Memory required for data: 1250689280
I0623 00:04:52.561112  9350 layer_factory.hpp:77] Creating layer relu_d_1_2
I0623 00:04:52.561123  9350 net.cpp:91] Creating Layer relu_d_1_2
I0623 00:04:52.561131  9350 net.cpp:425] relu_d_1_2 <- sc_d_1_2
I0623 00:04:52.561141  9350 net.cpp:399] relu_d_1_2 -> relu_d_1_2
I0623 00:04:52.561388  9350 net.cpp:141] Setting up relu_d_1_2
I0623 00:04:52.561408  9350 net.cpp:148] Top shape: 64 128 16 16 (2097152)
I0623 00:04:52.561415  9350 net.cpp:156] Memory required for data: 1259077888
I0623 00:04:52.561424  9350 layer_factory.hpp:77] Creating layer conv_d_1_2
I0623 00:04:52.561440  9350 net.cpp:91] Creating Layer conv_d_1_2
I0623 00:04:52.561450  9350 net.cpp:425] conv_d_1_2 <- relu_d_1_2
I0623 00:04:52.561463  9350 net.cpp:399] conv_d_1_2 -> conv_d_1_2
I0623 00:04:52.567740  9350 net.cpp:141] Setting up conv_d_1_2
I0623 00:04:52.567764  9350 net.cpp:148] Top shape: 64 128 16 16 (2097152)
I0623 00:04:52.567770  9350 net.cpp:156] Memory required for data: 1267466496
I0623 00:04:52.567781  9350 layer_factory.hpp:77] Creating layer res_d
I0623 00:04:52.567808  9350 net.cpp:91] Creating Layer res_d
I0623 00:04:52.567826  9350 net.cpp:425] res_d <- elt_a_2_elt_a_2_0_split_1
I0623 00:04:52.567843  9350 net.cpp:399] res_d -> res_d
I0623 00:04:52.571387  9350 net.cpp:141] Setting up res_d
I0623 00:04:52.571460  9350 net.cpp:148] Top shape: 64 128 16 16 (2097152)
I0623 00:04:52.571478  9350 net.cpp:156] Memory required for data: 1275855104
I0623 00:04:52.571506  9350 layer_factory.hpp:77] Creating layer elt_d_1
I0623 00:04:52.571537  9350 net.cpp:91] Creating Layer elt_d_1
I0623 00:04:52.571560  9350 net.cpp:425] elt_d_1 <- res_d
I0623 00:04:52.571583  9350 net.cpp:425] elt_d_1 <- conv_d_1_2
I0623 00:04:52.571612  9350 net.cpp:399] elt_d_1 -> elt_d_1
I0623 00:04:52.571694  9350 net.cpp:141] Setting up elt_d_1
I0623 00:04:52.571727  9350 net.cpp:148] Top shape: 64 128 16 16 (2097152)
I0623 00:04:52.571749  9350 net.cpp:156] Memory required for data: 1284243712
I0623 00:04:52.571774  9350 layer_factory.hpp:77] Creating layer elt_d_1_elt_d_1_0_split
I0623 00:04:52.571807  9350 net.cpp:91] Creating Layer elt_d_1_elt_d_1_0_split
I0623 00:04:52.571826  9350 net.cpp:425] elt_d_1_elt_d_1_0_split <- elt_d_1
I0623 00:04:52.571854  9350 net.cpp:399] elt_d_1_elt_d_1_0_split -> elt_d_1_elt_d_1_0_split_0
I0623 00:04:52.571882  9350 net.cpp:399] elt_d_1_elt_d_1_0_split -> elt_d_1_elt_d_1_0_split_1
I0623 00:04:52.572003  9350 net.cpp:141] Setting up elt_d_1_elt_d_1_0_split
I0623 00:04:52.572033  9350 net.cpp:148] Top shape: 64 128 16 16 (2097152)
I0623 00:04:52.572053  9350 net.cpp:148] Top shape: 64 128 16 16 (2097152)
I0623 00:04:52.572069  9350 net.cpp:156] Memory required for data: 1301020928
I0623 00:04:52.572083  9350 layer_factory.hpp:77] Creating layer bn_d_2_1
I0623 00:04:52.572115  9350 net.cpp:91] Creating Layer bn_d_2_1
I0623 00:04:52.572134  9350 net.cpp:425] bn_d_2_1 <- elt_d_1_elt_d_1_0_split_0
I0623 00:04:52.572160  9350 net.cpp:399] bn_d_2_1 -> bn_d_2_1
I0623 00:04:52.572698  9350 net.cpp:141] Setting up bn_d_2_1
I0623 00:04:52.572783  9350 net.cpp:148] Top shape: 64 128 16 16 (2097152)
I0623 00:04:52.572800  9350 net.cpp:156] Memory required for data: 1309409536
I0623 00:04:52.572829  9350 layer_factory.hpp:77] Creating layer sc_d_2_1
I0623 00:04:52.572860  9350 net.cpp:91] Creating Layer sc_d_2_1
I0623 00:04:52.572881  9350 net.cpp:425] sc_d_2_1 <- bn_d_2_1
I0623 00:04:52.572902  9350 net.cpp:399] sc_d_2_1 -> sc_d_2_1
I0623 00:04:52.573045  9350 layer_factory.hpp:77] Creating layer sc_d_2_1
I0623 00:04:52.573360  9350 net.cpp:141] Setting up sc_d_2_1
I0623 00:04:52.573392  9350 net.cpp:148] Top shape: 64 128 16 16 (2097152)
I0623 00:04:52.573410  9350 net.cpp:156] Memory required for data: 1317798144
I0623 00:04:52.573432  9350 layer_factory.hpp:77] Creating layer relu_d_2_1
I0623 00:04:52.573457  9350 net.cpp:91] Creating Layer relu_d_2_1
I0623 00:04:52.573474  9350 net.cpp:425] relu_d_2_1 <- sc_d_2_1
I0623 00:04:52.573514  9350 net.cpp:399] relu_d_2_1 -> relu_d_2_1
I0623 00:04:52.574277  9350 net.cpp:141] Setting up relu_d_2_1
I0623 00:04:52.574318  9350 net.cpp:148] Top shape: 64 128 16 16 (2097152)
I0623 00:04:52.574333  9350 net.cpp:156] Memory required for data: 1326186752
I0623 00:04:52.574348  9350 layer_factory.hpp:77] Creating layer conv_d_2_1
I0623 00:04:52.574393  9350 net.cpp:91] Creating Layer conv_d_2_1
I0623 00:04:52.574411  9350 net.cpp:425] conv_d_2_1 <- relu_d_2_1
I0623 00:04:52.574440  9350 net.cpp:399] conv_d_2_1 -> conv_d_2_1
I0623 00:04:52.588810  9350 net.cpp:141] Setting up conv_d_2_1
I0623 00:04:52.588855  9350 net.cpp:148] Top shape: 64 128 16 16 (2097152)
I0623 00:04:52.588870  9350 net.cpp:156] Memory required for data: 1334575360
I0623 00:04:52.588892  9350 layer_factory.hpp:77] Creating layer bn_d_2_2
I0623 00:04:52.588925  9350 net.cpp:91] Creating Layer bn_d_2_2
I0623 00:04:52.588943  9350 net.cpp:425] bn_d_2_2 <- conv_d_2_1
I0623 00:04:52.588968  9350 net.cpp:399] bn_d_2_2 -> bn_d_2_2
I0623 00:04:52.589637  9350 net.cpp:141] Setting up bn_d_2_2
I0623 00:04:52.589671  9350 net.cpp:148] Top shape: 64 128 16 16 (2097152)
I0623 00:04:52.589684  9350 net.cpp:156] Memory required for data: 1342963968
I0623 00:04:52.589716  9350 layer_factory.hpp:77] Creating layer sc_d_2_2
I0623 00:04:52.589737  9350 net.cpp:91] Creating Layer sc_d_2_2
I0623 00:04:52.589756  9350 net.cpp:425] sc_d_2_2 <- bn_d_2_2
I0623 00:04:52.589774  9350 net.cpp:399] sc_d_2_2 -> sc_d_2_2
I0623 00:04:52.589902  9350 layer_factory.hpp:77] Creating layer sc_d_2_2
I0623 00:04:52.590195  9350 net.cpp:141] Setting up sc_d_2_2
I0623 00:04:52.590224  9350 net.cpp:148] Top shape: 64 128 16 16 (2097152)
I0623 00:04:52.590240  9350 net.cpp:156] Memory required for data: 1351352576
I0623 00:04:52.590265  9350 layer_factory.hpp:77] Creating layer relu_d_2_2
I0623 00:04:52.590284  9350 net.cpp:91] Creating Layer relu_d_2_2
I0623 00:04:52.590298  9350 net.cpp:425] relu_d_2_2 <- sc_d_2_2
I0623 00:04:52.590320  9350 net.cpp:399] relu_d_2_2 -> relu_d_2_2
I0623 00:04:52.591068  9350 net.cpp:141] Setting up relu_d_2_2
I0623 00:04:52.591106  9350 net.cpp:148] Top shape: 64 128 16 16 (2097152)
I0623 00:04:52.591120  9350 net.cpp:156] Memory required for data: 1359741184
I0623 00:04:52.591133  9350 layer_factory.hpp:77] Creating layer conv_d_2_2
I0623 00:04:52.591177  9350 net.cpp:91] Creating Layer conv_d_2_2
I0623 00:04:52.591197  9350 net.cpp:425] conv_d_2_2 <- relu_d_2_2
I0623 00:04:52.591228  9350 net.cpp:399] conv_d_2_2 -> conv_d_2_2
I0623 00:04:52.604555  9350 net.cpp:141] Setting up conv_d_2_2
I0623 00:04:52.604600  9350 net.cpp:148] Top shape: 64 128 16 16 (2097152)
I0623 00:04:52.604615  9350 net.cpp:156] Memory required for data: 1368129792
I0623 00:04:52.604636  9350 layer_factory.hpp:77] Creating layer elt_d_2
I0623 00:04:52.604658  9350 net.cpp:91] Creating Layer elt_d_2
I0623 00:04:52.604676  9350 net.cpp:425] elt_d_2 <- elt_d_1_elt_d_1_0_split_1
I0623 00:04:52.604692  9350 net.cpp:425] elt_d_2 <- conv_d_2_2
I0623 00:04:52.604710  9350 net.cpp:399] elt_d_2 -> elt_d_2
I0623 00:04:52.604781  9350 net.cpp:141] Setting up elt_d_2
I0623 00:04:52.604843  9350 net.cpp:148] Top shape: 64 128 16 16 (2097152)
I0623 00:04:52.604861  9350 net.cpp:156] Memory required for data: 1376518400
I0623 00:04:52.604874  9350 layer_factory.hpp:77] Creating layer bn_f_1_1
I0623 00:04:52.604902  9350 net.cpp:91] Creating Layer bn_f_1_1
I0623 00:04:52.604919  9350 net.cpp:425] bn_f_1_1 <- elt_b_2_elt_b_2_0_split_0
I0623 00:04:52.604941  9350 net.cpp:399] bn_f_1_1 -> bn_f_1_1
I0623 00:04:52.605461  9350 net.cpp:141] Setting up bn_f_1_1
I0623 00:04:52.605490  9350 net.cpp:148] Top shape: 64 64 32 32 (4194304)
I0623 00:04:52.605506  9350 net.cpp:156] Memory required for data: 1393295616
I0623 00:04:52.605530  9350 layer_factory.hpp:77] Creating layer sc_f_1_1
I0623 00:04:52.605550  9350 net.cpp:91] Creating Layer sc_f_1_1
I0623 00:04:52.605563  9350 net.cpp:425] sc_f_1_1 <- bn_f_1_1
I0623 00:04:52.605586  9350 net.cpp:399] sc_f_1_1 -> sc_f_1_1
I0623 00:04:52.605715  9350 layer_factory.hpp:77] Creating layer sc_f_1_1
I0623 00:04:52.606009  9350 net.cpp:141] Setting up sc_f_1_1
I0623 00:04:52.606036  9350 net.cpp:148] Top shape: 64 64 32 32 (4194304)
I0623 00:04:52.606048  9350 net.cpp:156] Memory required for data: 1410072832
I0623 00:04:52.606068  9350 layer_factory.hpp:77] Creating layer relu_f_1_1
I0623 00:04:52.606086  9350 net.cpp:91] Creating Layer relu_f_1_1
I0623 00:04:52.606098  9350 net.cpp:425] relu_f_1_1 <- sc_f_1_1
I0623 00:04:52.606118  9350 net.cpp:399] relu_f_1_1 -> relu_f_1_1
I0623 00:04:52.606813  9350 net.cpp:141] Setting up relu_f_1_1
I0623 00:04:52.606847  9350 net.cpp:148] Top shape: 64 64 32 32 (4194304)
I0623 00:04:52.606858  9350 net.cpp:156] Memory required for data: 1426850048
I0623 00:04:52.606870  9350 layer_factory.hpp:77] Creating layer conv_f_1_1
I0623 00:04:52.606904  9350 net.cpp:91] Creating Layer conv_f_1_1
I0623 00:04:52.606919  9350 net.cpp:425] conv_f_1_1 <- relu_f_1_1
I0623 00:04:52.606948  9350 net.cpp:399] conv_f_1_1 -> conv_f_1_1
I0623 00:04:52.613883  9350 net.cpp:141] Setting up conv_f_1_1
I0623 00:04:52.613921  9350 net.cpp:148] Top shape: 64 128 16 16 (2097152)
I0623 00:04:52.613934  9350 net.cpp:156] Memory required for data: 1435238656
I0623 00:04:52.614004  9350 layer_factory.hpp:77] Creating layer bn_f_1_2
I0623 00:04:52.614032  9350 net.cpp:91] Creating Layer bn_f_1_2
I0623 00:04:52.614048  9350 net.cpp:425] bn_f_1_2 <- conv_f_1_1
I0623 00:04:52.614070  9350 net.cpp:399] bn_f_1_2 -> bn_f_1_2
I0623 00:04:52.614518  9350 net.cpp:141] Setting up bn_f_1_2
I0623 00:04:52.614548  9350 net.cpp:148] Top shape: 64 128 16 16 (2097152)
I0623 00:04:52.614562  9350 net.cpp:156] Memory required for data: 1443627264
I0623 00:04:52.614585  9350 layer_factory.hpp:77] Creating layer sc_f_1_2
I0623 00:04:52.614603  9350 net.cpp:91] Creating Layer sc_f_1_2
I0623 00:04:52.614614  9350 net.cpp:425] sc_f_1_2 <- bn_f_1_2
I0623 00:04:52.614631  9350 net.cpp:399] sc_f_1_2 -> sc_f_1_2
I0623 00:04:52.614784  9350 layer_factory.hpp:77] Creating layer sc_f_1_2
I0623 00:04:52.615046  9350 net.cpp:141] Setting up sc_f_1_2
I0623 00:04:52.615072  9350 net.cpp:148] Top shape: 64 128 16 16 (2097152)
I0623 00:04:52.615083  9350 net.cpp:156] Memory required for data: 1452015872
I0623 00:04:52.615102  9350 layer_factory.hpp:77] Creating layer relu_f_1_2
I0623 00:04:52.615126  9350 net.cpp:91] Creating Layer relu_f_1_2
I0623 00:04:52.615144  9350 net.cpp:425] relu_f_1_2 <- sc_f_1_2
I0623 00:04:52.615160  9350 net.cpp:399] relu_f_1_2 -> relu_f_1_2
I0623 00:04:52.615767  9350 net.cpp:141] Setting up relu_f_1_2
I0623 00:04:52.615803  9350 net.cpp:148] Top shape: 64 128 16 16 (2097152)
I0623 00:04:52.615816  9350 net.cpp:156] Memory required for data: 1460404480
I0623 00:04:52.615828  9350 layer_factory.hpp:77] Creating layer conv_f_1_2
I0623 00:04:52.615857  9350 net.cpp:91] Creating Layer conv_f_1_2
I0623 00:04:52.615875  9350 net.cpp:425] conv_f_1_2 <- relu_f_1_2
I0623 00:04:52.615895  9350 net.cpp:399] conv_f_1_2 -> conv_f_1_2
I0623 00:04:52.627447  9350 net.cpp:141] Setting up conv_f_1_2
I0623 00:04:52.627482  9350 net.cpp:148] Top shape: 64 128 16 16 (2097152)
I0623 00:04:52.627526  9350 net.cpp:156] Memory required for data: 1468793088
I0623 00:04:52.627547  9350 layer_factory.hpp:77] Creating layer res_f
I0623 00:04:52.627580  9350 net.cpp:91] Creating Layer res_f
I0623 00:04:52.627598  9350 net.cpp:425] res_f <- elt_b_2_elt_b_2_0_split_1
I0623 00:04:52.627615  9350 net.cpp:399] res_f -> res_f
I0623 00:04:52.630051  9350 net.cpp:141] Setting up res_f
I0623 00:04:52.630084  9350 net.cpp:148] Top shape: 64 128 16 16 (2097152)
I0623 00:04:52.630096  9350 net.cpp:156] Memory required for data: 1477181696
I0623 00:04:52.630115  9350 layer_factory.hpp:77] Creating layer elt_f_1
I0623 00:04:52.630132  9350 net.cpp:91] Creating Layer elt_f_1
I0623 00:04:52.630148  9350 net.cpp:425] elt_f_1 <- res_f
I0623 00:04:52.630162  9350 net.cpp:425] elt_f_1 <- conv_f_1_2
I0623 00:04:52.630182  9350 net.cpp:399] elt_f_1 -> elt_f_1
I0623 00:04:52.630239  9350 net.cpp:141] Setting up elt_f_1
I0623 00:04:52.630262  9350 net.cpp:148] Top shape: 64 128 16 16 (2097152)
I0623 00:04:52.630275  9350 net.cpp:156] Memory required for data: 1485570304
I0623 00:04:52.630286  9350 layer_factory.hpp:77] Creating layer elt_f_1_elt_f_1_0_split
I0623 00:04:52.630309  9350 net.cpp:91] Creating Layer elt_f_1_elt_f_1_0_split
I0623 00:04:52.630326  9350 net.cpp:425] elt_f_1_elt_f_1_0_split <- elt_f_1
I0623 00:04:52.630343  9350 net.cpp:399] elt_f_1_elt_f_1_0_split -> elt_f_1_elt_f_1_0_split_0
I0623 00:04:52.630364  9350 net.cpp:399] elt_f_1_elt_f_1_0_split -> elt_f_1_elt_f_1_0_split_1
I0623 00:04:52.630461  9350 net.cpp:141] Setting up elt_f_1_elt_f_1_0_split
I0623 00:04:52.630484  9350 net.cpp:148] Top shape: 64 128 16 16 (2097152)
I0623 00:04:52.630501  9350 net.cpp:148] Top shape: 64 128 16 16 (2097152)
I0623 00:04:52.630512  9350 net.cpp:156] Memory required for data: 1502347520
I0623 00:04:52.630523  9350 layer_factory.hpp:77] Creating layer bn_f_2_1
I0623 00:04:52.630547  9350 net.cpp:91] Creating Layer bn_f_2_1
I0623 00:04:52.630560  9350 net.cpp:425] bn_f_2_1 <- elt_f_1_elt_f_1_0_split_0
I0623 00:04:52.630578  9350 net.cpp:399] bn_f_2_1 -> bn_f_2_1
I0623 00:04:52.631034  9350 net.cpp:141] Setting up bn_f_2_1
I0623 00:04:52.631062  9350 net.cpp:148] Top shape: 64 128 16 16 (2097152)
I0623 00:04:52.631074  9350 net.cpp:156] Memory required for data: 1510736128
I0623 00:04:52.631098  9350 layer_factory.hpp:77] Creating layer sc_f_2_1
I0623 00:04:52.631119  9350 net.cpp:91] Creating Layer sc_f_2_1
I0623 00:04:52.631132  9350 net.cpp:425] sc_f_2_1 <- bn_f_2_1
I0623 00:04:52.631150  9350 net.cpp:399] sc_f_2_1 -> sc_f_2_1
I0623 00:04:52.631260  9350 layer_factory.hpp:77] Creating layer sc_f_2_1
I0623 00:04:52.631508  9350 net.cpp:141] Setting up sc_f_2_1
I0623 00:04:52.631532  9350 net.cpp:148] Top shape: 64 128 16 16 (2097152)
I0623 00:04:52.631544  9350 net.cpp:156] Memory required for data: 1519124736
I0623 00:04:52.631564  9350 layer_factory.hpp:77] Creating layer relu_f_2_1
I0623 00:04:52.631582  9350 net.cpp:91] Creating Layer relu_f_2_1
I0623 00:04:52.631595  9350 net.cpp:425] relu_f_2_1 <- sc_f_2_1
I0623 00:04:52.631618  9350 net.cpp:399] relu_f_2_1 -> relu_f_2_1
I0623 00:04:52.632277  9350 net.cpp:141] Setting up relu_f_2_1
I0623 00:04:52.632314  9350 net.cpp:148] Top shape: 64 128 16 16 (2097152)
I0623 00:04:52.632331  9350 net.cpp:156] Memory required for data: 1527513344
I0623 00:04:52.632349  9350 layer_factory.hpp:77] Creating layer conv_f_2_1
I0623 00:04:52.632479  9350 net.cpp:91] Creating Layer conv_f_2_1
I0623 00:04:52.632505  9350 net.cpp:425] conv_f_2_1 <- relu_f_2_1
I0623 00:04:52.632536  9350 net.cpp:399] conv_f_2_1 -> conv_f_2_1
I0623 00:04:52.643434  9350 net.cpp:141] Setting up conv_f_2_1
I0623 00:04:52.643465  9350 net.cpp:148] Top shape: 64 128 16 16 (2097152)
I0623 00:04:52.643476  9350 net.cpp:156] Memory required for data: 1535901952
I0623 00:04:52.643491  9350 layer_factory.hpp:77] Creating layer bn_f_2_2
I0623 00:04:52.643519  9350 net.cpp:91] Creating Layer bn_f_2_2
I0623 00:04:52.643532  9350 net.cpp:425] bn_f_2_2 <- conv_f_2_1
I0623 00:04:52.643550  9350 net.cpp:399] bn_f_2_2 -> bn_f_2_2
I0623 00:04:52.644032  9350 net.cpp:141] Setting up bn_f_2_2
I0623 00:04:52.644057  9350 net.cpp:148] Top shape: 64 128 16 16 (2097152)
I0623 00:04:52.644069  9350 net.cpp:156] Memory required for data: 1544290560
I0623 00:04:52.644088  9350 layer_factory.hpp:77] Creating layer sc_f_2_2
I0623 00:04:52.644109  9350 net.cpp:91] Creating Layer sc_f_2_2
I0623 00:04:52.644124  9350 net.cpp:425] sc_f_2_2 <- bn_f_2_2
I0623 00:04:52.644140  9350 net.cpp:399] sc_f_2_2 -> sc_f_2_2
I0623 00:04:52.644234  9350 layer_factory.hpp:77] Creating layer sc_f_2_2
I0623 00:04:52.644454  9350 net.cpp:141] Setting up sc_f_2_2
I0623 00:04:52.644475  9350 net.cpp:148] Top shape: 64 128 16 16 (2097152)
I0623 00:04:52.644484  9350 net.cpp:156] Memory required for data: 1552679168
I0623 00:04:52.644502  9350 layer_factory.hpp:77] Creating layer relu_f_2_2
I0623 00:04:52.644515  9350 net.cpp:91] Creating Layer relu_f_2_2
I0623 00:04:52.644526  9350 net.cpp:425] relu_f_2_2 <- sc_f_2_2
I0623 00:04:52.644541  9350 net.cpp:399] relu_f_2_2 -> relu_f_2_2
I0623 00:04:52.645056  9350 net.cpp:141] Setting up relu_f_2_2
I0623 00:04:52.645082  9350 net.cpp:148] Top shape: 64 128 16 16 (2097152)
I0623 00:04:52.645092  9350 net.cpp:156] Memory required for data: 1561067776
I0623 00:04:52.645102  9350 layer_factory.hpp:77] Creating layer conv_f_2_2
I0623 00:04:52.645151  9350 net.cpp:91] Creating Layer conv_f_2_2
I0623 00:04:52.645167  9350 net.cpp:425] conv_f_2_2 <- relu_f_2_2
I0623 00:04:52.645190  9350 net.cpp:399] conv_f_2_2 -> conv_f_2_2
I0623 00:04:52.655309  9350 net.cpp:141] Setting up conv_f_2_2
I0623 00:04:52.655340  9350 net.cpp:148] Top shape: 64 128 16 16 (2097152)
I0623 00:04:52.655351  9350 net.cpp:156] Memory required for data: 1569456384
I0623 00:04:52.655367  9350 layer_factory.hpp:77] Creating layer elt_f_2
I0623 00:04:52.655387  9350 net.cpp:91] Creating Layer elt_f_2
I0623 00:04:52.655403  9350 net.cpp:425] elt_f_2 <- elt_f_1_elt_f_1_0_split_1
I0623 00:04:52.655416  9350 net.cpp:425] elt_f_2 <- conv_f_2_2
I0623 00:04:52.655429  9350 net.cpp:399] elt_f_2 -> elt_f_2
I0623 00:04:52.655484  9350 net.cpp:141] Setting up elt_f_2
I0623 00:04:52.655506  9350 net.cpp:148] Top shape: 64 128 16 16 (2097152)
I0623 00:04:52.655517  9350 net.cpp:156] Memory required for data: 1577844992
I0623 00:04:52.655527  9350 layer_factory.hpp:77] Creating layer bn_g_1_1
I0623 00:04:52.655550  9350 net.cpp:91] Creating Layer bn_g_1_1
I0623 00:04:52.655562  9350 net.cpp:425] bn_g_1_1 <- elt_b_2_elt_b_2_0_split_2
I0623 00:04:52.655580  9350 net.cpp:399] bn_g_1_1 -> bn_g_1_1
I0623 00:04:52.655997  9350 net.cpp:141] Setting up bn_g_1_1
I0623 00:04:52.656019  9350 net.cpp:148] Top shape: 64 64 32 32 (4194304)
I0623 00:04:52.656028  9350 net.cpp:156] Memory required for data: 1594622208
I0623 00:04:52.656047  9350 layer_factory.hpp:77] Creating layer sc_g_1_1
I0623 00:04:52.656062  9350 net.cpp:91] Creating Layer sc_g_1_1
I0623 00:04:52.656072  9350 net.cpp:425] sc_g_1_1 <- bn_g_1_1
I0623 00:04:52.656090  9350 net.cpp:399] sc_g_1_1 -> sc_g_1_1
I0623 00:04:52.656185  9350 layer_factory.hpp:77] Creating layer sc_g_1_1
I0623 00:04:52.656424  9350 net.cpp:141] Setting up sc_g_1_1
I0623 00:04:52.656445  9350 net.cpp:148] Top shape: 64 64 32 32 (4194304)
I0623 00:04:52.656455  9350 net.cpp:156] Memory required for data: 1611399424
I0623 00:04:52.656469  9350 layer_factory.hpp:77] Creating layer relu_g_1_1
I0623 00:04:52.656483  9350 net.cpp:91] Creating Layer relu_g_1_1
I0623 00:04:52.656493  9350 net.cpp:425] relu_g_1_1 <- sc_g_1_1
I0623 00:04:52.656513  9350 net.cpp:399] relu_g_1_1 -> relu_g_1_1
I0623 00:04:52.656882  9350 net.cpp:141] Setting up relu_g_1_1
I0623 00:04:52.656911  9350 net.cpp:148] Top shape: 64 64 32 32 (4194304)
I0623 00:04:52.656921  9350 net.cpp:156] Memory required for data: 1628176640
I0623 00:04:52.656932  9350 layer_factory.hpp:77] Creating layer conv_g_1_1
I0623 00:04:52.656956  9350 net.cpp:91] Creating Layer conv_g_1_1
I0623 00:04:52.656971  9350 net.cpp:425] conv_g_1_1 <- relu_g_1_1
I0623 00:04:52.656991  9350 net.cpp:399] conv_g_1_1 -> conv_g_1_1
I0623 00:04:52.662292  9350 net.cpp:141] Setting up conv_g_1_1
I0623 00:04:52.662323  9350 net.cpp:148] Top shape: 64 128 16 16 (2097152)
I0623 00:04:52.662334  9350 net.cpp:156] Memory required for data: 1636565248
I0623 00:04:52.662349  9350 layer_factory.hpp:77] Creating layer bn_g_1_2
I0623 00:04:52.662365  9350 net.cpp:91] Creating Layer bn_g_1_2
I0623 00:04:52.662379  9350 net.cpp:425] bn_g_1_2 <- conv_g_1_1
I0623 00:04:52.662397  9350 net.cpp:399] bn_g_1_2 -> bn_g_1_2
I0623 00:04:52.662799  9350 net.cpp:141] Setting up bn_g_1_2
I0623 00:04:52.662822  9350 net.cpp:148] Top shape: 64 128 16 16 (2097152)
I0623 00:04:52.662830  9350 net.cpp:156] Memory required for data: 1644953856
I0623 00:04:52.662848  9350 layer_factory.hpp:77] Creating layer sc_g_1_2
I0623 00:04:52.662863  9350 net.cpp:91] Creating Layer sc_g_1_2
I0623 00:04:52.662873  9350 net.cpp:425] sc_g_1_2 <- bn_g_1_2
I0623 00:04:52.662894  9350 net.cpp:399] sc_g_1_2 -> sc_g_1_2
I0623 00:04:52.662979  9350 layer_factory.hpp:77] Creating layer sc_g_1_2
I0623 00:04:52.663189  9350 net.cpp:141] Setting up sc_g_1_2
I0623 00:04:52.663209  9350 net.cpp:148] Top shape: 64 128 16 16 (2097152)
I0623 00:04:52.663219  9350 net.cpp:156] Memory required for data: 1653342464
I0623 00:04:52.663234  9350 layer_factory.hpp:77] Creating layer relu_g_1_2
I0623 00:04:52.663251  9350 net.cpp:91] Creating Layer relu_g_1_2
I0623 00:04:52.663261  9350 net.cpp:425] relu_g_1_2 <- sc_g_1_2
I0623 00:04:52.663274  9350 net.cpp:399] relu_g_1_2 -> relu_g_1_2
I0623 00:04:52.663785  9350 net.cpp:141] Setting up relu_g_1_2
I0623 00:04:52.663810  9350 net.cpp:148] Top shape: 64 128 16 16 (2097152)
I0623 00:04:52.663820  9350 net.cpp:156] Memory required for data: 1661731072
I0623 00:04:52.663828  9350 layer_factory.hpp:77] Creating layer conv_g_1_2
I0623 00:04:52.663854  9350 net.cpp:91] Creating Layer conv_g_1_2
I0623 00:04:52.663868  9350 net.cpp:425] conv_g_1_2 <- relu_g_1_2
I0623 00:04:52.663884  9350 net.cpp:399] conv_g_1_2 -> conv_g_1_2
I0623 00:04:52.673009  9350 net.cpp:141] Setting up conv_g_1_2
I0623 00:04:52.673037  9350 net.cpp:148] Top shape: 64 128 16 16 (2097152)
I0623 00:04:52.673046  9350 net.cpp:156] Memory required for data: 1670119680
I0623 00:04:52.673061  9350 layer_factory.hpp:77] Creating layer res_g
I0623 00:04:52.673084  9350 net.cpp:91] Creating Layer res_g
I0623 00:04:52.673099  9350 net.cpp:425] res_g <- elt_b_2_elt_b_2_0_split_3
I0623 00:04:52.673117  9350 net.cpp:399] res_g -> res_g
I0623 00:04:52.675179  9350 net.cpp:141] Setting up res_g
I0623 00:04:52.675205  9350 net.cpp:148] Top shape: 64 128 16 16 (2097152)
I0623 00:04:52.675215  9350 net.cpp:156] Memory required for data: 1678508288
I0623 00:04:52.675228  9350 layer_factory.hpp:77] Creating layer elt_g_1
I0623 00:04:52.675246  9350 net.cpp:91] Creating Layer elt_g_1
I0623 00:04:52.675256  9350 net.cpp:425] elt_g_1 <- res_g
I0623 00:04:52.675271  9350 net.cpp:425] elt_g_1 <- conv_g_1_2
I0623 00:04:52.675283  9350 net.cpp:399] elt_g_1 -> elt_g_1
I0623 00:04:52.675331  9350 net.cpp:141] Setting up elt_g_1
I0623 00:04:52.675349  9350 net.cpp:148] Top shape: 64 128 16 16 (2097152)
I0623 00:04:52.675359  9350 net.cpp:156] Memory required for data: 1686896896
I0623 00:04:52.675369  9350 layer_factory.hpp:77] Creating layer elt_g_1_elt_g_1_0_split
I0623 00:04:52.675387  9350 net.cpp:91] Creating Layer elt_g_1_elt_g_1_0_split
I0623 00:04:52.675400  9350 net.cpp:425] elt_g_1_elt_g_1_0_split <- elt_g_1
I0623 00:04:52.675412  9350 net.cpp:399] elt_g_1_elt_g_1_0_split -> elt_g_1_elt_g_1_0_split_0
I0623 00:04:52.675432  9350 net.cpp:399] elt_g_1_elt_g_1_0_split -> elt_g_1_elt_g_1_0_split_1
I0623 00:04:52.675510  9350 net.cpp:141] Setting up elt_g_1_elt_g_1_0_split
I0623 00:04:52.675529  9350 net.cpp:148] Top shape: 64 128 16 16 (2097152)
I0623 00:04:52.675541  9350 net.cpp:148] Top shape: 64 128 16 16 (2097152)
I0623 00:04:52.675551  9350 net.cpp:156] Memory required for data: 1703674112
I0623 00:04:52.675560  9350 layer_factory.hpp:77] Creating layer bn_g_2_1
I0623 00:04:52.675578  9350 net.cpp:91] Creating Layer bn_g_2_1
I0623 00:04:52.675614  9350 net.cpp:425] bn_g_2_1 <- elt_g_1_elt_g_1_0_split_0
I0623 00:04:52.675631  9350 net.cpp:399] bn_g_2_1 -> bn_g_2_1
I0623 00:04:52.675988  9350 net.cpp:141] Setting up bn_g_2_1
I0623 00:04:52.676008  9350 net.cpp:148] Top shape: 64 128 16 16 (2097152)
I0623 00:04:52.676018  9350 net.cpp:156] Memory required for data: 1712062720
I0623 00:04:52.676038  9350 layer_factory.hpp:77] Creating layer sc_g_2_1
I0623 00:04:52.676051  9350 net.cpp:91] Creating Layer sc_g_2_1
I0623 00:04:52.676060  9350 net.cpp:425] sc_g_2_1 <- bn_g_2_1
I0623 00:04:52.676076  9350 net.cpp:399] sc_g_2_1 -> sc_g_2_1
I0623 00:04:52.676165  9350 layer_factory.hpp:77] Creating layer sc_g_2_1
I0623 00:04:52.676367  9350 net.cpp:141] Setting up sc_g_2_1
I0623 00:04:52.676386  9350 net.cpp:148] Top shape: 64 128 16 16 (2097152)
I0623 00:04:52.676396  9350 net.cpp:156] Memory required for data: 1720451328
I0623 00:04:52.676410  9350 layer_factory.hpp:77] Creating layer relu_g_2_1
I0623 00:04:52.676427  9350 net.cpp:91] Creating Layer relu_g_2_1
I0623 00:04:52.676440  9350 net.cpp:425] relu_g_2_1 <- sc_g_2_1
I0623 00:04:52.676455  9350 net.cpp:399] relu_g_2_1 -> relu_g_2_1
I0623 00:04:52.677088  9350 net.cpp:141] Setting up relu_g_2_1
I0623 00:04:52.677114  9350 net.cpp:148] Top shape: 64 128 16 16 (2097152)
I0623 00:04:52.677122  9350 net.cpp:156] Memory required for data: 1728839936
I0623 00:04:52.677131  9350 layer_factory.hpp:77] Creating layer conv_g_2_1
I0623 00:04:52.677153  9350 net.cpp:91] Creating Layer conv_g_2_1
I0623 00:04:52.677167  9350 net.cpp:425] conv_g_2_1 <- relu_g_2_1
I0623 00:04:52.677187  9350 net.cpp:399] conv_g_2_1 -> conv_g_2_1
I0623 00:04:52.685971  9350 net.cpp:141] Setting up conv_g_2_1
I0623 00:04:52.685997  9350 net.cpp:148] Top shape: 64 128 16 16 (2097152)
I0623 00:04:52.686007  9350 net.cpp:156] Memory required for data: 1737228544
I0623 00:04:52.686020  9350 layer_factory.hpp:77] Creating layer bn_g_2_2
I0623 00:04:52.686038  9350 net.cpp:91] Creating Layer bn_g_2_2
I0623 00:04:52.686053  9350 net.cpp:425] bn_g_2_2 <- conv_g_2_1
I0623 00:04:52.686069  9350 net.cpp:399] bn_g_2_2 -> bn_g_2_2
I0623 00:04:52.686374  9350 net.cpp:141] Setting up bn_g_2_2
I0623 00:04:52.686390  9350 net.cpp:148] Top shape: 64 128 16 16 (2097152)
I0623 00:04:52.686398  9350 net.cpp:156] Memory required for data: 1745617152
I0623 00:04:52.686410  9350 layer_factory.hpp:77] Creating layer sc_g_2_2
I0623 00:04:52.686424  9350 net.cpp:91] Creating Layer sc_g_2_2
I0623 00:04:52.686432  9350 net.cpp:425] sc_g_2_2 <- bn_g_2_2
I0623 00:04:52.686444  9350 net.cpp:399] sc_g_2_2 -> sc_g_2_2
I0623 00:04:52.686512  9350 layer_factory.hpp:77] Creating layer sc_g_2_2
I0623 00:04:52.686676  9350 net.cpp:141] Setting up sc_g_2_2
I0623 00:04:52.686708  9350 net.cpp:148] Top shape: 64 128 16 16 (2097152)
I0623 00:04:52.686718  9350 net.cpp:156] Memory required for data: 1754005760
I0623 00:04:52.686729  9350 layer_factory.hpp:77] Creating layer relu_g_2_2
I0623 00:04:52.686739  9350 net.cpp:91] Creating Layer relu_g_2_2
I0623 00:04:52.686748  9350 net.cpp:425] relu_g_2_2 <- sc_g_2_2
I0623 00:04:52.686759  9350 net.cpp:399] relu_g_2_2 -> relu_g_2_2
I0623 00:04:52.687013  9350 net.cpp:141] Setting up relu_g_2_2
I0623 00:04:52.687031  9350 net.cpp:148] Top shape: 64 128 16 16 (2097152)
I0623 00:04:52.687038  9350 net.cpp:156] Memory required for data: 1762394368
I0623 00:04:52.687046  9350 layer_factory.hpp:77] Creating layer conv_g_2_2
I0623 00:04:52.687063  9350 net.cpp:91] Creating Layer conv_g_2_2
I0623 00:04:52.687072  9350 net.cpp:425] conv_g_2_2 <- relu_g_2_2
I0623 00:04:52.687088  9350 net.cpp:399] conv_g_2_2 -> conv_g_2_2
I0623 00:04:52.695600  9350 net.cpp:141] Setting up conv_g_2_2
I0623 00:04:52.695624  9350 net.cpp:148] Top shape: 64 128 16 16 (2097152)
I0623 00:04:52.695633  9350 net.cpp:156] Memory required for data: 1770782976
I0623 00:04:52.695647  9350 layer_factory.hpp:77] Creating layer elt_g_2
I0623 00:04:52.695659  9350 net.cpp:91] Creating Layer elt_g_2
I0623 00:04:52.695669  9350 net.cpp:425] elt_g_2 <- elt_g_1_elt_g_1_0_split_1
I0623 00:04:52.695703  9350 net.cpp:425] elt_g_2 <- conv_g_2_2
I0623 00:04:52.695724  9350 net.cpp:399] elt_g_2 -> elt_g_2
I0623 00:04:52.695780  9350 net.cpp:141] Setting up elt_g_2
I0623 00:04:52.695796  9350 net.cpp:148] Top shape: 64 128 16 16 (2097152)
I0623 00:04:52.695806  9350 net.cpp:156] Memory required for data: 1779171584
I0623 00:04:52.695812  9350 layer_factory.hpp:77] Creating layer bn_h_1_1
I0623 00:04:52.695828  9350 net.cpp:91] Creating Layer bn_h_1_1
I0623 00:04:52.695838  9350 net.cpp:425] bn_h_1_1 <- elt_c_2_elt_c_2_0_split_0
I0623 00:04:52.695850  9350 net.cpp:399] bn_h_1_1 -> bn_h_1_1
I0623 00:04:52.696161  9350 net.cpp:141] Setting up bn_h_1_1
I0623 00:04:52.696176  9350 net.cpp:148] Top shape: 64 64 32 32 (4194304)
I0623 00:04:52.696182  9350 net.cpp:156] Memory required for data: 1795948800
I0623 00:04:52.696194  9350 layer_factory.hpp:77] Creating layer sc_h_1_1
I0623 00:04:52.696209  9350 net.cpp:91] Creating Layer sc_h_1_1
I0623 00:04:52.696216  9350 net.cpp:425] sc_h_1_1 <- bn_h_1_1
I0623 00:04:52.696228  9350 net.cpp:399] sc_h_1_1 -> sc_h_1_1
I0623 00:04:52.696301  9350 layer_factory.hpp:77] Creating layer sc_h_1_1
I0623 00:04:52.696481  9350 net.cpp:141] Setting up sc_h_1_1
I0623 00:04:52.696497  9350 net.cpp:148] Top shape: 64 64 32 32 (4194304)
I0623 00:04:52.696506  9350 net.cpp:156] Memory required for data: 1812726016
I0623 00:04:52.696516  9350 layer_factory.hpp:77] Creating layer relu_h_1_1
I0623 00:04:52.696552  9350 net.cpp:91] Creating Layer relu_h_1_1
I0623 00:04:52.696563  9350 net.cpp:425] relu_h_1_1 <- sc_h_1_1
I0623 00:04:52.696573  9350 net.cpp:399] relu_h_1_1 -> relu_h_1_1
I0623 00:04:52.696826  9350 net.cpp:141] Setting up relu_h_1_1
I0623 00:04:52.696844  9350 net.cpp:148] Top shape: 64 64 32 32 (4194304)
I0623 00:04:52.696852  9350 net.cpp:156] Memory required for data: 1829503232
I0623 00:04:52.696861  9350 layer_factory.hpp:77] Creating layer conv_h_1_1
I0623 00:04:52.696880  9350 net.cpp:91] Creating Layer conv_h_1_1
I0623 00:04:52.696889  9350 net.cpp:425] conv_h_1_1 <- relu_h_1_1
I0623 00:04:52.696904  9350 net.cpp:399] conv_h_1_1 -> conv_h_1_1
I0623 00:04:52.701361  9350 net.cpp:141] Setting up conv_h_1_1
I0623 00:04:52.701385  9350 net.cpp:148] Top shape: 64 128 16 16 (2097152)
I0623 00:04:52.701396  9350 net.cpp:156] Memory required for data: 1837891840
I0623 00:04:52.701411  9350 layer_factory.hpp:77] Creating layer bn_h_1_2
I0623 00:04:52.701427  9350 net.cpp:91] Creating Layer bn_h_1_2
I0623 00:04:52.701436  9350 net.cpp:425] bn_h_1_2 <- conv_h_1_1
I0623 00:04:52.701464  9350 net.cpp:399] bn_h_1_2 -> bn_h_1_2
I0623 00:04:52.701759  9350 net.cpp:141] Setting up bn_h_1_2
I0623 00:04:52.701776  9350 net.cpp:148] Top shape: 64 128 16 16 (2097152)
I0623 00:04:52.701781  9350 net.cpp:156] Memory required for data: 1846280448
I0623 00:04:52.701794  9350 layer_factory.hpp:77] Creating layer sc_h_1_2
I0623 00:04:52.701809  9350 net.cpp:91] Creating Layer sc_h_1_2
I0623 00:04:52.701817  9350 net.cpp:425] sc_h_1_2 <- bn_h_1_2
I0623 00:04:52.701829  9350 net.cpp:399] sc_h_1_2 -> sc_h_1_2
I0623 00:04:52.701899  9350 layer_factory.hpp:77] Creating layer sc_h_1_2
I0623 00:04:52.702066  9350 net.cpp:141] Setting up sc_h_1_2
I0623 00:04:52.702081  9350 net.cpp:148] Top shape: 64 128 16 16 (2097152)
I0623 00:04:52.702090  9350 net.cpp:156] Memory required for data: 1854669056
I0623 00:04:52.702100  9350 layer_factory.hpp:77] Creating layer relu_h_1_2
I0623 00:04:52.702111  9350 net.cpp:91] Creating Layer relu_h_1_2
I0623 00:04:52.702117  9350 net.cpp:425] relu_h_1_2 <- sc_h_1_2
I0623 00:04:52.702131  9350 net.cpp:399] relu_h_1_2 -> relu_h_1_2
I0623 00:04:52.702527  9350 net.cpp:141] Setting up relu_h_1_2
I0623 00:04:52.702545  9350 net.cpp:148] Top shape: 64 128 16 16 (2097152)
I0623 00:04:52.702553  9350 net.cpp:156] Memory required for data: 1863057664
I0623 00:04:52.702559  9350 layer_factory.hpp:77] Creating layer conv_h_1_2
I0623 00:04:52.702579  9350 net.cpp:91] Creating Layer conv_h_1_2
I0623 00:04:52.702586  9350 net.cpp:425] conv_h_1_2 <- relu_h_1_2
I0623 00:04:52.702620  9350 net.cpp:399] conv_h_1_2 -> conv_h_1_2
I0623 00:04:52.710842  9350 net.cpp:141] Setting up conv_h_1_2
I0623 00:04:52.710867  9350 net.cpp:148] Top shape: 64 128 16 16 (2097152)
I0623 00:04:52.710875  9350 net.cpp:156] Memory required for data: 1871446272
I0623 00:04:52.710888  9350 layer_factory.hpp:77] Creating layer res_h
I0623 00:04:52.710911  9350 net.cpp:91] Creating Layer res_h
I0623 00:04:52.710922  9350 net.cpp:425] res_h <- elt_c_2_elt_c_2_0_split_1
I0623 00:04:52.710933  9350 net.cpp:399] res_h -> res_h
I0623 00:04:52.712535  9350 net.cpp:141] Setting up res_h
I0623 00:04:52.712558  9350 net.cpp:148] Top shape: 64 128 16 16 (2097152)
I0623 00:04:52.712565  9350 net.cpp:156] Memory required for data: 1879834880
I0623 00:04:52.712577  9350 layer_factory.hpp:77] Creating layer elt_h_1
I0623 00:04:52.712594  9350 net.cpp:91] Creating Layer elt_h_1
I0623 00:04:52.712602  9350 net.cpp:425] elt_h_1 <- res_h
I0623 00:04:52.712611  9350 net.cpp:425] elt_h_1 <- conv_h_1_2
I0623 00:04:52.712622  9350 net.cpp:399] elt_h_1 -> elt_h_1
I0623 00:04:52.712677  9350 net.cpp:141] Setting up elt_h_1
I0623 00:04:52.712695  9350 net.cpp:148] Top shape: 64 128 16 16 (2097152)
I0623 00:04:52.712702  9350 net.cpp:156] Memory required for data: 1888223488
I0623 00:04:52.712708  9350 layer_factory.hpp:77] Creating layer elt_h_1_elt_h_1_0_split
I0623 00:04:52.712719  9350 net.cpp:91] Creating Layer elt_h_1_elt_h_1_0_split
I0623 00:04:52.712729  9350 net.cpp:425] elt_h_1_elt_h_1_0_split <- elt_h_1
I0623 00:04:52.712738  9350 net.cpp:399] elt_h_1_elt_h_1_0_split -> elt_h_1_elt_h_1_0_split_0
I0623 00:04:52.712755  9350 net.cpp:399] elt_h_1_elt_h_1_0_split -> elt_h_1_elt_h_1_0_split_1
I0623 00:04:52.712821  9350 net.cpp:141] Setting up elt_h_1_elt_h_1_0_split
I0623 00:04:52.712836  9350 net.cpp:148] Top shape: 64 128 16 16 (2097152)
I0623 00:04:52.712843  9350 net.cpp:148] Top shape: 64 128 16 16 (2097152)
I0623 00:04:52.712851  9350 net.cpp:156] Memory required for data: 1905000704
I0623 00:04:52.712857  9350 layer_factory.hpp:77] Creating layer bn_h_2_1
I0623 00:04:52.712870  9350 net.cpp:91] Creating Layer bn_h_2_1
I0623 00:04:52.712880  9350 net.cpp:425] bn_h_2_1 <- elt_h_1_elt_h_1_0_split_0
I0623 00:04:52.712893  9350 net.cpp:399] bn_h_2_1 -> bn_h_2_1
I0623 00:04:52.713189  9350 net.cpp:141] Setting up bn_h_2_1
I0623 00:04:52.713204  9350 net.cpp:148] Top shape: 64 128 16 16 (2097152)
I0623 00:04:52.713212  9350 net.cpp:156] Memory required for data: 1913389312
I0623 00:04:52.713223  9350 layer_factory.hpp:77] Creating layer sc_h_2_1
I0623 00:04:52.713238  9350 net.cpp:91] Creating Layer sc_h_2_1
I0623 00:04:52.713246  9350 net.cpp:425] sc_h_2_1 <- bn_h_2_1
I0623 00:04:52.713256  9350 net.cpp:399] sc_h_2_1 -> sc_h_2_1
I0623 00:04:52.713330  9350 layer_factory.hpp:77] Creating layer sc_h_2_1
I0623 00:04:52.713502  9350 net.cpp:141] Setting up sc_h_2_1
I0623 00:04:52.713518  9350 net.cpp:148] Top shape: 64 128 16 16 (2097152)
I0623 00:04:52.713524  9350 net.cpp:156] Memory required for data: 1921777920
I0623 00:04:52.713536  9350 layer_factory.hpp:77] Creating layer relu_h_2_1
I0623 00:04:52.713547  9350 net.cpp:91] Creating Layer relu_h_2_1
I0623 00:04:52.713556  9350 net.cpp:425] relu_h_2_1 <- sc_h_2_1
I0623 00:04:52.713567  9350 net.cpp:399] relu_h_2_1 -> relu_h_2_1
I0623 00:04:52.713980  9350 net.cpp:141] Setting up relu_h_2_1
I0623 00:04:52.714001  9350 net.cpp:148] Top shape: 64 128 16 16 (2097152)
I0623 00:04:52.714010  9350 net.cpp:156] Memory required for data: 1930166528
I0623 00:04:52.714016  9350 layer_factory.hpp:77] Creating layer conv_h_2_1
I0623 00:04:52.714038  9350 net.cpp:91] Creating Layer conv_h_2_1
I0623 00:04:52.714047  9350 net.cpp:425] conv_h_2_1 <- relu_h_2_1
I0623 00:04:52.714061  9350 net.cpp:399] conv_h_2_1 -> conv_h_2_1
I0623 00:04:52.721845  9350 net.cpp:141] Setting up conv_h_2_1
I0623 00:04:52.721869  9350 net.cpp:148] Top shape: 64 128 16 16 (2097152)
I0623 00:04:52.721878  9350 net.cpp:156] Memory required for data: 1938555136
I0623 00:04:52.721889  9350 layer_factory.hpp:77] Creating layer bn_h_2_2
I0623 00:04:52.721930  9350 net.cpp:91] Creating Layer bn_h_2_2
I0623 00:04:52.721941  9350 net.cpp:425] bn_h_2_2 <- conv_h_2_1
I0623 00:04:52.721952  9350 net.cpp:399] bn_h_2_2 -> bn_h_2_2
I0623 00:04:52.722276  9350 net.cpp:141] Setting up bn_h_2_2
I0623 00:04:52.722292  9350 net.cpp:148] Top shape: 64 128 16 16 (2097152)
I0623 00:04:52.722300  9350 net.cpp:156] Memory required for data: 1946943744
I0623 00:04:52.722312  9350 layer_factory.hpp:77] Creating layer sc_h_2_2
I0623 00:04:52.722323  9350 net.cpp:91] Creating Layer sc_h_2_2
I0623 00:04:52.722331  9350 net.cpp:425] sc_h_2_2 <- bn_h_2_2
I0623 00:04:52.722340  9350 net.cpp:399] sc_h_2_2 -> sc_h_2_2
I0623 00:04:52.722414  9350 layer_factory.hpp:77] Creating layer sc_h_2_2
I0623 00:04:52.722585  9350 net.cpp:141] Setting up sc_h_2_2
I0623 00:04:52.722600  9350 net.cpp:148] Top shape: 64 128 16 16 (2097152)
I0623 00:04:52.722607  9350 net.cpp:156] Memory required for data: 1955332352
I0623 00:04:52.722618  9350 layer_factory.hpp:77] Creating layer relu_h_2_2
I0623 00:04:52.722633  9350 net.cpp:91] Creating Layer relu_h_2_2
I0623 00:04:52.722643  9350 net.cpp:425] relu_h_2_2 <- sc_h_2_2
I0623 00:04:52.722653  9350 net.cpp:399] relu_h_2_2 -> relu_h_2_2
I0623 00:04:52.722926  9350 net.cpp:141] Setting up relu_h_2_2
I0623 00:04:52.722945  9350 net.cpp:148] Top shape: 64 128 16 16 (2097152)
I0623 00:04:52.722952  9350 net.cpp:156] Memory required for data: 1963720960
I0623 00:04:52.722959  9350 layer_factory.hpp:77] Creating layer conv_h_2_2
I0623 00:04:52.722990  9350 net.cpp:91] Creating Layer conv_h_2_2
I0623 00:04:52.722998  9350 net.cpp:425] conv_h_2_2 <- relu_h_2_2
I0623 00:04:52.723011  9350 net.cpp:399] conv_h_2_2 -> conv_h_2_2
I0623 00:04:52.730847  9350 net.cpp:141] Setting up conv_h_2_2
I0623 00:04:52.730868  9350 net.cpp:148] Top shape: 64 128 16 16 (2097152)
I0623 00:04:52.730876  9350 net.cpp:156] Memory required for data: 1972109568
I0623 00:04:52.730888  9350 layer_factory.hpp:77] Creating layer elt_h_2
I0623 00:04:52.730901  9350 net.cpp:91] Creating Layer elt_h_2
I0623 00:04:52.730908  9350 net.cpp:425] elt_h_2 <- elt_h_1_elt_h_1_0_split_1
I0623 00:04:52.730916  9350 net.cpp:425] elt_h_2 <- conv_h_2_2
I0623 00:04:52.730929  9350 net.cpp:399] elt_h_2 -> elt_h_2
I0623 00:04:52.730970  9350 net.cpp:141] Setting up elt_h_2
I0623 00:04:52.730985  9350 net.cpp:148] Top shape: 64 128 16 16 (2097152)
I0623 00:04:52.730991  9350 net.cpp:156] Memory required for data: 1980498176
I0623 00:04:52.730998  9350 layer_factory.hpp:77] Creating layer bn_i_1_1
I0623 00:04:52.731014  9350 net.cpp:91] Creating Layer bn_i_1_1
I0623 00:04:52.731022  9350 net.cpp:425] bn_i_1_1 <- elt_c_2_elt_c_2_0_split_2
I0623 00:04:52.731034  9350 net.cpp:399] bn_i_1_1 -> bn_i_1_1
I0623 00:04:52.731358  9350 net.cpp:141] Setting up bn_i_1_1
I0623 00:04:52.731374  9350 net.cpp:148] Top shape: 64 64 32 32 (4194304)
I0623 00:04:52.731380  9350 net.cpp:156] Memory required for data: 1997275392
I0623 00:04:52.731394  9350 layer_factory.hpp:77] Creating layer sc_i_1_1
I0623 00:04:52.731407  9350 net.cpp:91] Creating Layer sc_i_1_1
I0623 00:04:52.731415  9350 net.cpp:425] sc_i_1_1 <- bn_i_1_1
I0623 00:04:52.731426  9350 net.cpp:399] sc_i_1_1 -> sc_i_1_1
I0623 00:04:52.731499  9350 layer_factory.hpp:77] Creating layer sc_i_1_1
I0623 00:04:52.731688  9350 net.cpp:141] Setting up sc_i_1_1
I0623 00:04:52.731704  9350 net.cpp:148] Top shape: 64 64 32 32 (4194304)
I0623 00:04:52.731710  9350 net.cpp:156] Memory required for data: 2014052608
I0623 00:04:52.731721  9350 layer_factory.hpp:77] Creating layer relu_i_1_1
I0623 00:04:52.731734  9350 net.cpp:91] Creating Layer relu_i_1_1
I0623 00:04:52.731744  9350 net.cpp:425] relu_i_1_1 <- sc_i_1_1
I0623 00:04:52.731755  9350 net.cpp:399] relu_i_1_1 -> relu_i_1_1
I0623 00:04:52.732161  9350 net.cpp:141] Setting up relu_i_1_1
I0623 00:04:52.732182  9350 net.cpp:148] Top shape: 64 64 32 32 (4194304)
I0623 00:04:52.732188  9350 net.cpp:156] Memory required for data: 2030829824
I0623 00:04:52.732195  9350 layer_factory.hpp:77] Creating layer conv_i_1_1
I0623 00:04:52.732234  9350 net.cpp:91] Creating Layer conv_i_1_1
I0623 00:04:52.732244  9350 net.cpp:425] conv_i_1_1 <- relu_i_1_1
I0623 00:04:52.732257  9350 net.cpp:399] conv_i_1_1 -> conv_i_1_1
I0623 00:04:52.736150  9350 net.cpp:141] Setting up conv_i_1_1
I0623 00:04:52.736171  9350 net.cpp:148] Top shape: 64 128 16 16 (2097152)
I0623 00:04:52.736178  9350 net.cpp:156] Memory required for data: 2039218432
I0623 00:04:52.736191  9350 layer_factory.hpp:77] Creating layer bn_i_1_2
I0623 00:04:52.736205  9350 net.cpp:91] Creating Layer bn_i_1_2
I0623 00:04:52.736213  9350 net.cpp:425] bn_i_1_2 <- conv_i_1_1
I0623 00:04:52.736224  9350 net.cpp:399] bn_i_1_2 -> bn_i_1_2
I0623 00:04:52.736533  9350 net.cpp:141] Setting up bn_i_1_2
I0623 00:04:52.736551  9350 net.cpp:148] Top shape: 64 128 16 16 (2097152)
I0623 00:04:52.736557  9350 net.cpp:156] Memory required for data: 2047607040
I0623 00:04:52.736570  9350 layer_factory.hpp:77] Creating layer sc_i_1_2
I0623 00:04:52.736582  9350 net.cpp:91] Creating Layer sc_i_1_2
I0623 00:04:52.736589  9350 net.cpp:425] sc_i_1_2 <- bn_i_1_2
I0623 00:04:52.736598  9350 net.cpp:399] sc_i_1_2 -> sc_i_1_2
I0623 00:04:52.736672  9350 layer_factory.hpp:77] Creating layer sc_i_1_2
I0623 00:04:52.736846  9350 net.cpp:141] Setting up sc_i_1_2
I0623 00:04:52.736861  9350 net.cpp:148] Top shape: 64 128 16 16 (2097152)
I0623 00:04:52.736868  9350 net.cpp:156] Memory required for data: 2055995648
I0623 00:04:52.736879  9350 layer_factory.hpp:77] Creating layer relu_i_1_2
I0623 00:04:52.736896  9350 net.cpp:91] Creating Layer relu_i_1_2
I0623 00:04:52.736906  9350 net.cpp:425] relu_i_1_2 <- sc_i_1_2
I0623 00:04:52.736917  9350 net.cpp:399] relu_i_1_2 -> relu_i_1_2
I0623 00:04:52.737503  9350 net.cpp:141] Setting up relu_i_1_2
I0623 00:04:52.737529  9350 net.cpp:148] Top shape: 64 128 16 16 (2097152)
I0623 00:04:52.737538  9350 net.cpp:156] Memory required for data: 2064384256
I0623 00:04:52.737550  9350 layer_factory.hpp:77] Creating layer conv_i_1_2
I0623 00:04:52.737577  9350 net.cpp:91] Creating Layer conv_i_1_2
I0623 00:04:52.737594  9350 net.cpp:425] conv_i_1_2 <- relu_i_1_2
I0623 00:04:52.737612  9350 net.cpp:399] conv_i_1_2 -> conv_i_1_2
I0623 00:04:52.745051  9350 net.cpp:141] Setting up conv_i_1_2
I0623 00:04:52.745074  9350 net.cpp:148] Top shape: 64 128 16 16 (2097152)
I0623 00:04:52.745080  9350 net.cpp:156] Memory required for data: 2072772864
I0623 00:04:52.745092  9350 layer_factory.hpp:77] Creating layer res_i
I0623 00:04:52.745111  9350 net.cpp:91] Creating Layer res_i
I0623 00:04:52.745120  9350 net.cpp:425] res_i <- elt_c_2_elt_c_2_0_split_3
I0623 00:04:52.745133  9350 net.cpp:399] res_i -> res_i
I0623 00:04:52.746772  9350 net.cpp:141] Setting up res_i
I0623 00:04:52.746791  9350 net.cpp:148] Top shape: 64 128 16 16 (2097152)
I0623 00:04:52.746798  9350 net.cpp:156] Memory required for data: 2081161472
I0623 00:04:52.746809  9350 layer_factory.hpp:77] Creating layer elt_i_1
I0623 00:04:52.746820  9350 net.cpp:91] Creating Layer elt_i_1
I0623 00:04:52.746829  9350 net.cpp:425] elt_i_1 <- res_i
I0623 00:04:52.746840  9350 net.cpp:425] elt_i_1 <- conv_i_1_2
I0623 00:04:52.746850  9350 net.cpp:399] elt_i_1 -> elt_i_1
I0623 00:04:52.746888  9350 net.cpp:141] Setting up elt_i_1
I0623 00:04:52.746906  9350 net.cpp:148] Top shape: 64 128 16 16 (2097152)
I0623 00:04:52.746917  9350 net.cpp:156] Memory required for data: 2089550080
I0623 00:04:52.746923  9350 layer_factory.hpp:77] Creating layer elt_i_1_elt_i_1_0_split
I0623 00:04:52.746932  9350 net.cpp:91] Creating Layer elt_i_1_elt_i_1_0_split
I0623 00:04:52.746939  9350 net.cpp:425] elt_i_1_elt_i_1_0_split <- elt_i_1
I0623 00:04:52.746948  9350 net.cpp:399] elt_i_1_elt_i_1_0_split -> elt_i_1_elt_i_1_0_split_0
I0623 00:04:52.746961  9350 net.cpp:399] elt_i_1_elt_i_1_0_split -> elt_i_1_elt_i_1_0_split_1
I0623 00:04:52.747027  9350 net.cpp:141] Setting up elt_i_1_elt_i_1_0_split
I0623 00:04:52.747041  9350 net.cpp:148] Top shape: 64 128 16 16 (2097152)
I0623 00:04:52.747050  9350 net.cpp:148] Top shape: 64 128 16 16 (2097152)
I0623 00:04:52.747074  9350 net.cpp:156] Memory required for data: 2106327296
I0623 00:04:52.747082  9350 layer_factory.hpp:77] Creating layer bn_i_2_1
I0623 00:04:52.747097  9350 net.cpp:91] Creating Layer bn_i_2_1
I0623 00:04:52.747105  9350 net.cpp:425] bn_i_2_1 <- elt_i_1_elt_i_1_0_split_0
I0623 00:04:52.747115  9350 net.cpp:399] bn_i_2_1 -> bn_i_2_1
I0623 00:04:52.747414  9350 net.cpp:141] Setting up bn_i_2_1
I0623 00:04:52.747429  9350 net.cpp:148] Top shape: 64 128 16 16 (2097152)
I0623 00:04:52.747438  9350 net.cpp:156] Memory required for data: 2114715904
I0623 00:04:52.747452  9350 layer_factory.hpp:77] Creating layer sc_i_2_1
I0623 00:04:52.747467  9350 net.cpp:91] Creating Layer sc_i_2_1
I0623 00:04:52.747476  9350 net.cpp:425] sc_i_2_1 <- bn_i_2_1
I0623 00:04:52.747486  9350 net.cpp:399] sc_i_2_1 -> sc_i_2_1
I0623 00:04:52.747561  9350 layer_factory.hpp:77] Creating layer sc_i_2_1
I0623 00:04:52.747738  9350 net.cpp:141] Setting up sc_i_2_1
I0623 00:04:52.747753  9350 net.cpp:148] Top shape: 64 128 16 16 (2097152)
I0623 00:04:52.747761  9350 net.cpp:156] Memory required for data: 2123104512
I0623 00:04:52.747772  9350 layer_factory.hpp:77] Creating layer relu_i_2_1
I0623 00:04:52.747783  9350 net.cpp:91] Creating Layer relu_i_2_1
I0623 00:04:52.747792  9350 net.cpp:425] relu_i_2_1 <- sc_i_2_1
I0623 00:04:52.747803  9350 net.cpp:399] relu_i_2_1 -> relu_i_2_1
I0623 00:04:52.748049  9350 net.cpp:141] Setting up relu_i_2_1
I0623 00:04:52.748066  9350 net.cpp:148] Top shape: 64 128 16 16 (2097152)
I0623 00:04:52.748075  9350 net.cpp:156] Memory required for data: 2131493120
I0623 00:04:52.748081  9350 layer_factory.hpp:77] Creating layer conv_i_2_1
I0623 00:04:52.748101  9350 net.cpp:91] Creating Layer conv_i_2_1
I0623 00:04:52.748111  9350 net.cpp:425] conv_i_2_1 <- relu_i_2_1
I0623 00:04:52.748122  9350 net.cpp:399] conv_i_2_1 -> conv_i_2_1
I0623 00:04:52.755221  9350 net.cpp:141] Setting up conv_i_2_1
I0623 00:04:52.755241  9350 net.cpp:148] Top shape: 64 128 16 16 (2097152)
I0623 00:04:52.755249  9350 net.cpp:156] Memory required for data: 2139881728
I0623 00:04:52.755259  9350 layer_factory.hpp:77] Creating layer bn_i_2_2
I0623 00:04:52.755275  9350 net.cpp:91] Creating Layer bn_i_2_2
I0623 00:04:52.755282  9350 net.cpp:425] bn_i_2_2 <- conv_i_2_1
I0623 00:04:52.755292  9350 net.cpp:399] bn_i_2_2 -> bn_i_2_2
I0623 00:04:52.755586  9350 net.cpp:141] Setting up bn_i_2_2
I0623 00:04:52.755602  9350 net.cpp:148] Top shape: 64 128 16 16 (2097152)
I0623 00:04:52.755609  9350 net.cpp:156] Memory required for data: 2148270336
I0623 00:04:52.755620  9350 layer_factory.hpp:77] Creating layer sc_i_2_2
I0623 00:04:52.755636  9350 net.cpp:91] Creating Layer sc_i_2_2
I0623 00:04:52.755645  9350 net.cpp:425] sc_i_2_2 <- bn_i_2_2
I0623 00:04:52.755653  9350 net.cpp:399] sc_i_2_2 -> sc_i_2_2
I0623 00:04:52.755720  9350 layer_factory.hpp:77] Creating layer sc_i_2_2
I0623 00:04:52.755887  9350 net.cpp:141] Setting up sc_i_2_2
I0623 00:04:52.755902  9350 net.cpp:148] Top shape: 64 128 16 16 (2097152)
I0623 00:04:52.755908  9350 net.cpp:156] Memory required for data: 2156658944
I0623 00:04:52.755918  9350 layer_factory.hpp:77] Creating layer relu_i_2_2
I0623 00:04:52.755929  9350 net.cpp:91] Creating Layer relu_i_2_2
I0623 00:04:52.755941  9350 net.cpp:425] relu_i_2_2 <- sc_i_2_2
I0623 00:04:52.755949  9350 net.cpp:399] relu_i_2_2 -> relu_i_2_2
I0623 00:04:52.756193  9350 net.cpp:141] Setting up relu_i_2_2
I0623 00:04:52.756209  9350 net.cpp:148] Top shape: 64 128 16 16 (2097152)
I0623 00:04:52.756216  9350 net.cpp:156] Memory required for data: 2165047552
I0623 00:04:52.756222  9350 layer_factory.hpp:77] Creating layer conv_i_2_2
I0623 00:04:52.756239  9350 net.cpp:91] Creating Layer conv_i_2_2
I0623 00:04:52.756247  9350 net.cpp:425] conv_i_2_2 <- relu_i_2_2
I0623 00:04:52.756259  9350 net.cpp:399] conv_i_2_2 -> conv_i_2_2
I0623 00:04:52.763219  9350 net.cpp:141] Setting up conv_i_2_2
I0623 00:04:52.763241  9350 net.cpp:148] Top shape: 64 128 16 16 (2097152)
I0623 00:04:52.763247  9350 net.cpp:156] Memory required for data: 2173436160
I0623 00:04:52.763276  9350 layer_factory.hpp:77] Creating layer elt_i_2
I0623 00:04:52.763293  9350 net.cpp:91] Creating Layer elt_i_2
I0623 00:04:52.763300  9350 net.cpp:425] elt_i_2 <- elt_i_1_elt_i_1_0_split_1
I0623 00:04:52.763309  9350 net.cpp:425] elt_i_2 <- conv_i_2_2
I0623 00:04:52.763317  9350 net.cpp:399] elt_i_2 -> elt_i_2
I0623 00:04:52.763356  9350 net.cpp:141] Setting up elt_i_2
I0623 00:04:52.763370  9350 net.cpp:148] Top shape: 64 128 16 16 (2097152)
I0623 00:04:52.763377  9350 net.cpp:156] Memory required for data: 2181824768
I0623 00:04:52.763383  9350 layer_factory.hpp:77] Creating layer elt_d_f
I0623 00:04:52.763396  9350 net.cpp:91] Creating Layer elt_d_f
I0623 00:04:52.763406  9350 net.cpp:425] elt_d_f <- elt_d_2
I0623 00:04:52.763413  9350 net.cpp:425] elt_d_f <- elt_f_2
I0623 00:04:52.763422  9350 net.cpp:399] elt_d_f -> elt_d_f
I0623 00:04:52.763468  9350 net.cpp:141] Setting up elt_d_f
I0623 00:04:52.763481  9350 net.cpp:148] Top shape: 64 128 16 16 (2097152)
I0623 00:04:52.763487  9350 net.cpp:156] Memory required for data: 2190213376
I0623 00:04:52.763494  9350 layer_factory.hpp:77] Creating layer elt_d_f_elt_d_f_0_split
I0623 00:04:52.763502  9350 net.cpp:91] Creating Layer elt_d_f_elt_d_f_0_split
I0623 00:04:52.763512  9350 net.cpp:425] elt_d_f_elt_d_f_0_split <- elt_d_f
I0623 00:04:52.763526  9350 net.cpp:399] elt_d_f_elt_d_f_0_split -> elt_d_f_elt_d_f_0_split_0
I0623 00:04:52.763540  9350 net.cpp:399] elt_d_f_elt_d_f_0_split -> elt_d_f_elt_d_f_0_split_1
I0623 00:04:52.763600  9350 net.cpp:141] Setting up elt_d_f_elt_d_f_0_split
I0623 00:04:52.763617  9350 net.cpp:148] Top shape: 64 128 16 16 (2097152)
I0623 00:04:52.763628  9350 net.cpp:148] Top shape: 64 128 16 16 (2097152)
I0623 00:04:52.763633  9350 net.cpp:156] Memory required for data: 2206990592
I0623 00:04:52.763639  9350 layer_factory.hpp:77] Creating layer elt_g_i
I0623 00:04:52.763648  9350 net.cpp:91] Creating Layer elt_g_i
I0623 00:04:52.763656  9350 net.cpp:425] elt_g_i <- elt_g_2
I0623 00:04:52.763664  9350 net.cpp:425] elt_g_i <- elt_i_2
I0623 00:04:52.763675  9350 net.cpp:399] elt_g_i -> elt_g_i
I0623 00:04:52.763716  9350 net.cpp:141] Setting up elt_g_i
I0623 00:04:52.763730  9350 net.cpp:148] Top shape: 64 128 16 16 (2097152)
I0623 00:04:52.763737  9350 net.cpp:156] Memory required for data: 2215379200
I0623 00:04:52.763743  9350 layer_factory.hpp:77] Creating layer elt_g_i_elt_g_i_0_split
I0623 00:04:52.763756  9350 net.cpp:91] Creating Layer elt_g_i_elt_g_i_0_split
I0623 00:04:52.763763  9350 net.cpp:425] elt_g_i_elt_g_i_0_split <- elt_g_i
I0623 00:04:52.763772  9350 net.cpp:399] elt_g_i_elt_g_i_0_split -> elt_g_i_elt_g_i_0_split_0
I0623 00:04:52.763782  9350 net.cpp:399] elt_g_i_elt_g_i_0_split -> elt_g_i_elt_g_i_0_split_1
I0623 00:04:52.763844  9350 net.cpp:141] Setting up elt_g_i_elt_g_i_0_split
I0623 00:04:52.763856  9350 net.cpp:148] Top shape: 64 128 16 16 (2097152)
I0623 00:04:52.763865  9350 net.cpp:148] Top shape: 64 128 16 16 (2097152)
I0623 00:04:52.763871  9350 net.cpp:156] Memory required for data: 2232156416
I0623 00:04:52.763877  9350 layer_factory.hpp:77] Creating layer bn_j_1_1
I0623 00:04:52.763890  9350 net.cpp:91] Creating Layer bn_j_1_1
I0623 00:04:52.763900  9350 net.cpp:425] bn_j_1_1 <- elt_d_f_elt_d_f_0_split_0
I0623 00:04:52.763908  9350 net.cpp:399] bn_j_1_1 -> bn_j_1_1
I0623 00:04:52.764189  9350 net.cpp:141] Setting up bn_j_1_1
I0623 00:04:52.764204  9350 net.cpp:148] Top shape: 64 128 16 16 (2097152)
I0623 00:04:52.764211  9350 net.cpp:156] Memory required for data: 2240545024
I0623 00:04:52.764224  9350 layer_factory.hpp:77] Creating layer sc_j_1_1
I0623 00:04:52.764235  9350 net.cpp:91] Creating Layer sc_j_1_1
I0623 00:04:52.764243  9350 net.cpp:425] sc_j_1_1 <- bn_j_1_1
I0623 00:04:52.764252  9350 net.cpp:399] sc_j_1_1 -> sc_j_1_1
I0623 00:04:52.764325  9350 layer_factory.hpp:77] Creating layer sc_j_1_1
I0623 00:04:52.764494  9350 net.cpp:141] Setting up sc_j_1_1
I0623 00:04:52.764508  9350 net.cpp:148] Top shape: 64 128 16 16 (2097152)
I0623 00:04:52.764515  9350 net.cpp:156] Memory required for data: 2248933632
I0623 00:04:52.764542  9350 layer_factory.hpp:77] Creating layer relu_j_1_1
I0623 00:04:52.764554  9350 net.cpp:91] Creating Layer relu_j_1_1
I0623 00:04:52.764567  9350 net.cpp:425] relu_j_1_1 <- sc_j_1_1
I0623 00:04:52.764576  9350 net.cpp:399] relu_j_1_1 -> relu_j_1_1
I0623 00:04:52.764957  9350 net.cpp:141] Setting up relu_j_1_1
I0623 00:04:52.764976  9350 net.cpp:148] Top shape: 64 128 16 16 (2097152)
I0623 00:04:52.764984  9350 net.cpp:156] Memory required for data: 2257322240
I0623 00:04:52.764991  9350 layer_factory.hpp:77] Creating layer conv_j_1_1
I0623 00:04:52.765008  9350 net.cpp:91] Creating Layer conv_j_1_1
I0623 00:04:52.765017  9350 net.cpp:425] conv_j_1_1 <- relu_j_1_1
I0623 00:04:52.765030  9350 net.cpp:399] conv_j_1_1 -> conv_j_1_1
I0623 00:04:52.776690  9350 net.cpp:141] Setting up conv_j_1_1
I0623 00:04:52.776712  9350 net.cpp:148] Top shape: 64 256 8 8 (1048576)
I0623 00:04:52.776721  9350 net.cpp:156] Memory required for data: 2261516544
I0623 00:04:52.776731  9350 layer_factory.hpp:77] Creating layer bn_j_1_2
I0623 00:04:52.776746  9350 net.cpp:91] Creating Layer bn_j_1_2
I0623 00:04:52.776757  9350 net.cpp:425] bn_j_1_2 <- conv_j_1_1
I0623 00:04:52.776768  9350 net.cpp:399] bn_j_1_2 -> bn_j_1_2
I0623 00:04:52.777070  9350 net.cpp:141] Setting up bn_j_1_2
I0623 00:04:52.777084  9350 net.cpp:148] Top shape: 64 256 8 8 (1048576)
I0623 00:04:52.777091  9350 net.cpp:156] Memory required for data: 2265710848
I0623 00:04:52.777101  9350 layer_factory.hpp:77] Creating layer sc_j_1_2
I0623 00:04:52.777117  9350 net.cpp:91] Creating Layer sc_j_1_2
I0623 00:04:52.777124  9350 net.cpp:425] sc_j_1_2 <- bn_j_1_2
I0623 00:04:52.777133  9350 net.cpp:399] sc_j_1_2 -> sc_j_1_2
I0623 00:04:52.777201  9350 layer_factory.hpp:77] Creating layer sc_j_1_2
I0623 00:04:52.777379  9350 net.cpp:141] Setting up sc_j_1_2
I0623 00:04:52.777393  9350 net.cpp:148] Top shape: 64 256 8 8 (1048576)
I0623 00:04:52.777400  9350 net.cpp:156] Memory required for data: 2269905152
I0623 00:04:52.777410  9350 layer_factory.hpp:77] Creating layer relu_j_1_2
I0623 00:04:52.777420  9350 net.cpp:91] Creating Layer relu_j_1_2
I0623 00:04:52.777427  9350 net.cpp:425] relu_j_1_2 <- sc_j_1_2
I0623 00:04:52.777439  9350 net.cpp:399] relu_j_1_2 -> relu_j_1_2
I0623 00:04:52.777672  9350 net.cpp:141] Setting up relu_j_1_2
I0623 00:04:52.777688  9350 net.cpp:148] Top shape: 64 256 8 8 (1048576)
I0623 00:04:52.777693  9350 net.cpp:156] Memory required for data: 2274099456
I0623 00:04:52.777699  9350 layer_factory.hpp:77] Creating layer conv_j_1_2
I0623 00:04:52.777721  9350 net.cpp:91] Creating Layer conv_j_1_2
I0623 00:04:52.777729  9350 net.cpp:425] conv_j_1_2 <- relu_j_1_2
I0623 00:04:52.777740  9350 net.cpp:399] conv_j_1_2 -> conv_j_1_2
I0623 00:04:52.804044  9350 net.cpp:141] Setting up conv_j_1_2
I0623 00:04:52.804078  9350 net.cpp:148] Top shape: 64 256 8 8 (1048576)
I0623 00:04:52.804085  9350 net.cpp:156] Memory required for data: 2278293760
I0623 00:04:52.804143  9350 layer_factory.hpp:77] Creating layer res_j
I0623 00:04:52.804177  9350 net.cpp:91] Creating Layer res_j
I0623 00:04:52.804235  9350 net.cpp:425] res_j <- elt_d_f_elt_d_f_0_split_1
I0623 00:04:52.804313  9350 net.cpp:399] res_j -> res_j
I0623 00:04:52.806780  9350 net.cpp:141] Setting up res_j
I0623 00:04:52.806799  9350 net.cpp:148] Top shape: 64 256 8 8 (1048576)
I0623 00:04:52.806807  9350 net.cpp:156] Memory required for data: 2282488064
I0623 00:04:52.807260  9350 layer_factory.hpp:77] Creating layer elt_j_1
I0623 00:04:52.807281  9350 net.cpp:91] Creating Layer elt_j_1
I0623 00:04:52.807291  9350 net.cpp:425] elt_j_1 <- res_j
I0623 00:04:52.807332  9350 net.cpp:425] elt_j_1 <- conv_j_1_2
I0623 00:04:52.807366  9350 net.cpp:399] elt_j_1 -> elt_j_1
I0623 00:04:52.807440  9350 net.cpp:141] Setting up elt_j_1
I0623 00:04:52.807461  9350 net.cpp:148] Top shape: 64 256 8 8 (1048576)
I0623 00:04:52.807469  9350 net.cpp:156] Memory required for data: 2286682368
I0623 00:04:52.807478  9350 layer_factory.hpp:77] Creating layer elt_j_1_elt_j_1_0_split
I0623 00:04:52.807518  9350 net.cpp:91] Creating Layer elt_j_1_elt_j_1_0_split
I0623 00:04:52.807530  9350 net.cpp:425] elt_j_1_elt_j_1_0_split <- elt_j_1
I0623 00:04:52.807546  9350 net.cpp:399] elt_j_1_elt_j_1_0_split -> elt_j_1_elt_j_1_0_split_0
I0623 00:04:52.807565  9350 net.cpp:399] elt_j_1_elt_j_1_0_split -> elt_j_1_elt_j_1_0_split_1
I0623 00:04:52.807636  9350 net.cpp:141] Setting up elt_j_1_elt_j_1_0_split
I0623 00:04:52.807651  9350 net.cpp:148] Top shape: 64 256 8 8 (1048576)
I0623 00:04:52.807660  9350 net.cpp:148] Top shape: 64 256 8 8 (1048576)
I0623 00:04:52.807667  9350 net.cpp:156] Memory required for data: 2295070976
I0623 00:04:52.807672  9350 layer_factory.hpp:77] Creating layer bn_j_2_1
I0623 00:04:52.807682  9350 net.cpp:91] Creating Layer bn_j_2_1
I0623 00:04:52.807689  9350 net.cpp:425] bn_j_2_1 <- elt_j_1_elt_j_1_0_split_0
I0623 00:04:52.807728  9350 net.cpp:399] bn_j_2_1 -> bn_j_2_1
I0623 00:04:52.808087  9350 net.cpp:141] Setting up bn_j_2_1
I0623 00:04:52.808104  9350 net.cpp:148] Top shape: 64 256 8 8 (1048576)
I0623 00:04:52.808110  9350 net.cpp:156] Memory required for data: 2299265280
I0623 00:04:52.808121  9350 layer_factory.hpp:77] Creating layer sc_j_2_1
I0623 00:04:52.808145  9350 net.cpp:91] Creating Layer sc_j_2_1
I0623 00:04:52.808154  9350 net.cpp:425] sc_j_2_1 <- bn_j_2_1
I0623 00:04:52.808171  9350 net.cpp:399] sc_j_2_1 -> sc_j_2_1
I0623 00:04:52.808243  9350 layer_factory.hpp:77] Creating layer sc_j_2_1
I0623 00:04:52.808416  9350 net.cpp:141] Setting up sc_j_2_1
I0623 00:04:52.808431  9350 net.cpp:148] Top shape: 64 256 8 8 (1048576)
I0623 00:04:52.808439  9350 net.cpp:156] Memory required for data: 2303459584
I0623 00:04:52.808447  9350 layer_factory.hpp:77] Creating layer relu_j_2_1
I0623 00:04:52.808464  9350 net.cpp:91] Creating Layer relu_j_2_1
I0623 00:04:52.808471  9350 net.cpp:425] relu_j_2_1 <- sc_j_2_1
I0623 00:04:52.808491  9350 net.cpp:399] relu_j_2_1 -> relu_j_2_1
I0623 00:04:52.808740  9350 net.cpp:141] Setting up relu_j_2_1
I0623 00:04:52.808756  9350 net.cpp:148] Top shape: 64 256 8 8 (1048576)
I0623 00:04:52.808763  9350 net.cpp:156] Memory required for data: 2307653888
I0623 00:04:52.808769  9350 layer_factory.hpp:77] Creating layer conv_j_2_1
I0623 00:04:52.808789  9350 net.cpp:91] Creating Layer conv_j_2_1
I0623 00:04:52.808797  9350 net.cpp:425] conv_j_2_1 <- relu_j_2_1
I0623 00:04:52.808807  9350 net.cpp:399] conv_j_2_1 -> conv_j_2_1
I0623 00:04:52.830229  9350 net.cpp:141] Setting up conv_j_2_1
I0623 00:04:52.830248  9350 net.cpp:148] Top shape: 64 256 8 8 (1048576)
I0623 00:04:52.830255  9350 net.cpp:156] Memory required for data: 2311848192
I0623 00:04:52.830265  9350 layer_factory.hpp:77] Creating layer bn_j_2_2
I0623 00:04:52.830276  9350 net.cpp:91] Creating Layer bn_j_2_2
I0623 00:04:52.830286  9350 net.cpp:425] bn_j_2_2 <- conv_j_2_1
I0623 00:04:52.830299  9350 net.cpp:399] bn_j_2_2 -> bn_j_2_2
I0623 00:04:52.830610  9350 net.cpp:141] Setting up bn_j_2_2
I0623 00:04:52.830624  9350 net.cpp:148] Top shape: 64 256 8 8 (1048576)
I0623 00:04:52.830631  9350 net.cpp:156] Memory required for data: 2316042496
I0623 00:04:52.830641  9350 layer_factory.hpp:77] Creating layer sc_j_2_2
I0623 00:04:52.830662  9350 net.cpp:91] Creating Layer sc_j_2_2
I0623 00:04:52.830669  9350 net.cpp:425] sc_j_2_2 <- bn_j_2_2
I0623 00:04:52.830678  9350 net.cpp:399] sc_j_2_2 -> sc_j_2_2
I0623 00:04:52.830796  9350 layer_factory.hpp:77] Creating layer sc_j_2_2
I0623 00:04:52.831079  9350 net.cpp:141] Setting up sc_j_2_2
I0623 00:04:52.831105  9350 net.cpp:148] Top shape: 64 256 8 8 (1048576)
I0623 00:04:52.831116  9350 net.cpp:156] Memory required for data: 2320236800
I0623 00:04:52.831147  9350 layer_factory.hpp:77] Creating layer relu_j_2_2
I0623 00:04:52.831166  9350 net.cpp:91] Creating Layer relu_j_2_2
I0623 00:04:52.831179  9350 net.cpp:425] relu_j_2_2 <- sc_j_2_2
I0623 00:04:52.831192  9350 net.cpp:399] relu_j_2_2 -> relu_j_2_2
I0623 00:04:52.831599  9350 net.cpp:141] Setting up relu_j_2_2
I0623 00:04:52.831619  9350 net.cpp:148] Top shape: 64 256 8 8 (1048576)
I0623 00:04:52.831643  9350 net.cpp:156] Memory required for data: 2324431104
I0623 00:04:52.831651  9350 layer_factory.hpp:77] Creating layer conv_j_2_2
I0623 00:04:52.831673  9350 net.cpp:91] Creating Layer conv_j_2_2
I0623 00:04:52.831682  9350 net.cpp:425] conv_j_2_2 <- relu_j_2_2
I0623 00:04:52.831692  9350 net.cpp:399] conv_j_2_2 -> conv_j_2_2
I0623 00:04:52.853121  9350 net.cpp:141] Setting up conv_j_2_2
I0623 00:04:52.853142  9350 net.cpp:148] Top shape: 64 256 8 8 (1048576)
I0623 00:04:52.853148  9350 net.cpp:156] Memory required for data: 2328625408
I0623 00:04:52.853158  9350 layer_factory.hpp:77] Creating layer elt_j_2
I0623 00:04:52.853171  9350 net.cpp:91] Creating Layer elt_j_2
I0623 00:04:52.853178  9350 net.cpp:425] elt_j_2 <- elt_j_1_elt_j_1_0_split_1
I0623 00:04:52.853186  9350 net.cpp:425] elt_j_2 <- conv_j_2_2
I0623 00:04:52.853194  9350 net.cpp:399] elt_j_2 -> elt_j_2
I0623 00:04:52.853241  9350 net.cpp:141] Setting up elt_j_2
I0623 00:04:52.853255  9350 net.cpp:148] Top shape: 64 256 8 8 (1048576)
I0623 00:04:52.853261  9350 net.cpp:156] Memory required for data: 2332819712
I0623 00:04:52.853267  9350 layer_factory.hpp:77] Creating layer bn_e_1_1
I0623 00:04:52.853286  9350 net.cpp:91] Creating Layer bn_e_1_1
I0623 00:04:52.853299  9350 net.cpp:425] bn_e_1_1 <- elt_a_2_elt_a_2_0_split_2
I0623 00:04:52.853322  9350 net.cpp:399] bn_e_1_1 -> bn_e_1_1
I0623 00:04:52.853705  9350 net.cpp:141] Setting up bn_e_1_1
I0623 00:04:52.853720  9350 net.cpp:148] Top shape: 64 64 32 32 (4194304)
I0623 00:04:52.853726  9350 net.cpp:156] Memory required for data: 2349596928
I0623 00:04:52.853744  9350 layer_factory.hpp:77] Creating layer sc_e_1_1
I0623 00:04:52.853754  9350 net.cpp:91] Creating Layer sc_e_1_1
I0623 00:04:52.853760  9350 net.cpp:425] sc_e_1_1 <- bn_e_1_1
I0623 00:04:52.853776  9350 net.cpp:399] sc_e_1_1 -> sc_e_1_1
I0623 00:04:52.853848  9350 layer_factory.hpp:77] Creating layer sc_e_1_1
I0623 00:04:52.854038  9350 net.cpp:141] Setting up sc_e_1_1
I0623 00:04:52.854051  9350 net.cpp:148] Top shape: 64 64 32 32 (4194304)
I0623 00:04:52.854058  9350 net.cpp:156] Memory required for data: 2366374144
I0623 00:04:52.854068  9350 layer_factory.hpp:77] Creating layer relu_e_1_1
I0623 00:04:52.854081  9350 net.cpp:91] Creating Layer relu_e_1_1
I0623 00:04:52.854090  9350 net.cpp:425] relu_e_1_1 <- sc_e_1_1
I0623 00:04:52.854110  9350 net.cpp:399] relu_e_1_1 -> relu_e_1_1
I0623 00:04:52.854490  9350 net.cpp:141] Setting up relu_e_1_1
I0623 00:04:52.854508  9350 net.cpp:148] Top shape: 64 64 32 32 (4194304)
I0623 00:04:52.854516  9350 net.cpp:156] Memory required for data: 2383151360
I0623 00:04:52.854522  9350 layer_factory.hpp:77] Creating layer conv_e_1_1
I0623 00:04:52.854537  9350 net.cpp:91] Creating Layer conv_e_1_1
I0623 00:04:52.854545  9350 net.cpp:425] conv_e_1_1 <- relu_e_1_1
I0623 00:04:52.854559  9350 net.cpp:399] conv_e_1_1 -> conv_e_1_1
I0623 00:04:52.858314  9350 net.cpp:141] Setting up conv_e_1_1
I0623 00:04:52.858333  9350 net.cpp:148] Top shape: 64 128 16 16 (2097152)
I0623 00:04:52.858340  9350 net.cpp:156] Memory required for data: 2391539968
I0623 00:04:52.858350  9350 layer_factory.hpp:77] Creating layer bn_e_1_2
I0623 00:04:52.858363  9350 net.cpp:91] Creating Layer bn_e_1_2
I0623 00:04:52.858371  9350 net.cpp:425] bn_e_1_2 <- conv_e_1_1
I0623 00:04:52.858381  9350 net.cpp:399] bn_e_1_2 -> bn_e_1_2
I0623 00:04:52.858757  9350 net.cpp:141] Setting up bn_e_1_2
I0623 00:04:52.858773  9350 net.cpp:148] Top shape: 64 128 16 16 (2097152)
I0623 00:04:52.858779  9350 net.cpp:156] Memory required for data: 2399928576
I0623 00:04:52.858798  9350 layer_factory.hpp:77] Creating layer sc_e_1_2
I0623 00:04:52.858816  9350 net.cpp:91] Creating Layer sc_e_1_2
I0623 00:04:52.858824  9350 net.cpp:425] sc_e_1_2 <- bn_e_1_2
I0623 00:04:52.858832  9350 net.cpp:399] sc_e_1_2 -> sc_e_1_2
I0623 00:04:52.858901  9350 layer_factory.hpp:77] Creating layer sc_e_1_2
I0623 00:04:52.859074  9350 net.cpp:141] Setting up sc_e_1_2
I0623 00:04:52.859088  9350 net.cpp:148] Top shape: 64 128 16 16 (2097152)
I0623 00:04:52.859113  9350 net.cpp:156] Memory required for data: 2408317184
I0623 00:04:52.859124  9350 layer_factory.hpp:77] Creating layer relu_e_1_2
I0623 00:04:52.859133  9350 net.cpp:91] Creating Layer relu_e_1_2
I0623 00:04:52.859140  9350 net.cpp:425] relu_e_1_2 <- sc_e_1_2
I0623 00:04:52.859151  9350 net.cpp:399] relu_e_1_2 -> relu_e_1_2
I0623 00:04:52.859390  9350 net.cpp:141] Setting up relu_e_1_2
I0623 00:04:52.859406  9350 net.cpp:148] Top shape: 64 128 16 16 (2097152)
I0623 00:04:52.859412  9350 net.cpp:156] Memory required for data: 2416705792
I0623 00:04:52.859418  9350 layer_factory.hpp:77] Creating layer conv_e_1_2
I0623 00:04:52.859437  9350 net.cpp:91] Creating Layer conv_e_1_2
I0623 00:04:52.859446  9350 net.cpp:425] conv_e_1_2 <- relu_e_1_2
I0623 00:04:52.859455  9350 net.cpp:399] conv_e_1_2 -> conv_e_1_2
I0623 00:04:52.866226  9350 net.cpp:141] Setting up conv_e_1_2
I0623 00:04:52.866246  9350 net.cpp:148] Top shape: 64 128 16 16 (2097152)
I0623 00:04:52.866253  9350 net.cpp:156] Memory required for data: 2425094400
I0623 00:04:52.866263  9350 layer_factory.hpp:77] Creating layer res_e
I0623 00:04:52.866289  9350 net.cpp:91] Creating Layer res_e
I0623 00:04:52.866298  9350 net.cpp:425] res_e <- elt_a_2_elt_a_2_0_split_3
I0623 00:04:52.866317  9350 net.cpp:399] res_e -> res_e
I0623 00:04:52.867905  9350 net.cpp:141] Setting up res_e
I0623 00:04:52.867924  9350 net.cpp:148] Top shape: 64 128 16 16 (2097152)
I0623 00:04:52.867931  9350 net.cpp:156] Memory required for data: 2433483008
I0623 00:04:52.867941  9350 layer_factory.hpp:77] Creating layer elt_e_1
I0623 00:04:52.867950  9350 net.cpp:91] Creating Layer elt_e_1
I0623 00:04:52.867957  9350 net.cpp:425] elt_e_1 <- res_e
I0623 00:04:52.867965  9350 net.cpp:425] elt_e_1 <- conv_e_1_2
I0623 00:04:52.867976  9350 net.cpp:399] elt_e_1 -> elt_e_1
I0623 00:04:52.868016  9350 net.cpp:141] Setting up elt_e_1
I0623 00:04:52.868029  9350 net.cpp:148] Top shape: 64 128 16 16 (2097152)
I0623 00:04:52.868036  9350 net.cpp:156] Memory required for data: 2441871616
I0623 00:04:52.868041  9350 layer_factory.hpp:77] Creating layer elt_e_1_elt_e_1_0_split
I0623 00:04:52.868052  9350 net.cpp:91] Creating Layer elt_e_1_elt_e_1_0_split
I0623 00:04:52.868060  9350 net.cpp:425] elt_e_1_elt_e_1_0_split <- elt_e_1
I0623 00:04:52.868068  9350 net.cpp:399] elt_e_1_elt_e_1_0_split -> elt_e_1_elt_e_1_0_split_0
I0623 00:04:52.868083  9350 net.cpp:399] elt_e_1_elt_e_1_0_split -> elt_e_1_elt_e_1_0_split_1
I0623 00:04:52.868149  9350 net.cpp:141] Setting up elt_e_1_elt_e_1_0_split
I0623 00:04:52.868162  9350 net.cpp:148] Top shape: 64 128 16 16 (2097152)
I0623 00:04:52.868170  9350 net.cpp:148] Top shape: 64 128 16 16 (2097152)
I0623 00:04:52.868178  9350 net.cpp:156] Memory required for data: 2458648832
I0623 00:04:52.868185  9350 layer_factory.hpp:77] Creating layer bn_e_2_1
I0623 00:04:52.868196  9350 net.cpp:91] Creating Layer bn_e_2_1
I0623 00:04:52.868203  9350 net.cpp:425] bn_e_2_1 <- elt_e_1_elt_e_1_0_split_0
I0623 00:04:52.868212  9350 net.cpp:399] bn_e_2_1 -> bn_e_2_1
I0623 00:04:52.868541  9350 net.cpp:141] Setting up bn_e_2_1
I0623 00:04:52.868559  9350 net.cpp:148] Top shape: 64 128 16 16 (2097152)
I0623 00:04:52.868568  9350 net.cpp:156] Memory required for data: 2467037440
I0623 00:04:52.868587  9350 layer_factory.hpp:77] Creating layer sc_e_2_1
I0623 00:04:52.868613  9350 net.cpp:91] Creating Layer sc_e_2_1
I0623 00:04:52.868629  9350 net.cpp:425] sc_e_2_1 <- bn_e_2_1
I0623 00:04:52.868643  9350 net.cpp:399] sc_e_2_1 -> sc_e_2_1
I0623 00:04:52.868733  9350 layer_factory.hpp:77] Creating layer sc_e_2_1
I0623 00:04:52.868911  9350 net.cpp:141] Setting up sc_e_2_1
I0623 00:04:52.868927  9350 net.cpp:148] Top shape: 64 128 16 16 (2097152)
I0623 00:04:52.868932  9350 net.cpp:156] Memory required for data: 2475426048
I0623 00:04:52.868953  9350 layer_factory.hpp:77] Creating layer relu_e_2_1
I0623 00:04:52.868964  9350 net.cpp:91] Creating Layer relu_e_2_1
I0623 00:04:52.868971  9350 net.cpp:425] relu_e_2_1 <- sc_e_2_1
I0623 00:04:52.868986  9350 net.cpp:399] relu_e_2_1 -> relu_e_2_1
I0623 00:04:52.869287  9350 net.cpp:141] Setting up relu_e_2_1
I0623 00:04:52.869303  9350 net.cpp:148] Top shape: 64 128 16 16 (2097152)
I0623 00:04:52.869310  9350 net.cpp:156] Memory required for data: 2483814656
I0623 00:04:52.869316  9350 layer_factory.hpp:77] Creating layer conv_e_2_1
I0623 00:04:52.869330  9350 net.cpp:91] Creating Layer conv_e_2_1
I0623 00:04:52.869339  9350 net.cpp:425] conv_e_2_1 <- relu_e_2_1
I0623 00:04:52.869352  9350 net.cpp:399] conv_e_2_1 -> conv_e_2_1
I0623 00:04:52.875984  9350 net.cpp:141] Setting up conv_e_2_1
I0623 00:04:52.876004  9350 net.cpp:148] Top shape: 64 128 16 16 (2097152)
I0623 00:04:52.876011  9350 net.cpp:156] Memory required for data: 2492203264
I0623 00:04:52.876021  9350 layer_factory.hpp:77] Creating layer bn_e_2_2
I0623 00:04:52.876039  9350 net.cpp:91] Creating Layer bn_e_2_2
I0623 00:04:52.876046  9350 net.cpp:425] bn_e_2_2 <- conv_e_2_1
I0623 00:04:52.876058  9350 net.cpp:399] bn_e_2_2 -> bn_e_2_2
I0623 00:04:52.876374  9350 net.cpp:141] Setting up bn_e_2_2
I0623 00:04:52.876389  9350 net.cpp:148] Top shape: 64 128 16 16 (2097152)
I0623 00:04:52.876394  9350 net.cpp:156] Memory required for data: 2500591872
I0623 00:04:52.876411  9350 layer_factory.hpp:77] Creating layer sc_e_2_2
I0623 00:04:52.876421  9350 net.cpp:91] Creating Layer sc_e_2_2
I0623 00:04:52.876428  9350 net.cpp:425] sc_e_2_2 <- bn_e_2_2
I0623 00:04:52.876440  9350 net.cpp:399] sc_e_2_2 -> sc_e_2_2
I0623 00:04:52.876507  9350 layer_factory.hpp:77] Creating layer sc_e_2_2
I0623 00:04:52.876704  9350 net.cpp:141] Setting up sc_e_2_2
I0623 00:04:52.876721  9350 net.cpp:148] Top shape: 64 128 16 16 (2097152)
I0623 00:04:52.876732  9350 net.cpp:156] Memory required for data: 2508980480
I0623 00:04:52.876742  9350 layer_factory.hpp:77] Creating layer relu_e_2_2
I0623 00:04:52.876754  9350 net.cpp:91] Creating Layer relu_e_2_2
I0623 00:04:52.876765  9350 net.cpp:425] relu_e_2_2 <- sc_e_2_2
I0623 00:04:52.876772  9350 net.cpp:399] relu_e_2_2 -> relu_e_2_2
I0623 00:04:52.877154  9350 net.cpp:141] Setting up relu_e_2_2
I0623 00:04:52.877171  9350 net.cpp:148] Top shape: 64 128 16 16 (2097152)
I0623 00:04:52.877177  9350 net.cpp:156] Memory required for data: 2517369088
I0623 00:04:52.877184  9350 layer_factory.hpp:77] Creating layer conv_e_2_2
I0623 00:04:52.877207  9350 net.cpp:91] Creating Layer conv_e_2_2
I0623 00:04:52.877214  9350 net.cpp:425] conv_e_2_2 <- relu_e_2_2
I0623 00:04:52.877225  9350 net.cpp:399] conv_e_2_2 -> conv_e_2_2
I0623 00:04:52.884371  9350 net.cpp:141] Setting up conv_e_2_2
I0623 00:04:52.884390  9350 net.cpp:148] Top shape: 64 128 16 16 (2097152)
I0623 00:04:52.884397  9350 net.cpp:156] Memory required for data: 2525757696
I0623 00:04:52.884407  9350 layer_factory.hpp:77] Creating layer elt_e_2
I0623 00:04:52.884425  9350 net.cpp:91] Creating Layer elt_e_2
I0623 00:04:52.884433  9350 net.cpp:425] elt_e_2 <- elt_e_1_elt_e_1_0_split_1
I0623 00:04:52.884440  9350 net.cpp:425] elt_e_2 <- conv_e_2_2
I0623 00:04:52.884452  9350 net.cpp:399] elt_e_2 -> elt_e_2
I0623 00:04:52.884479  9350 net.cpp:141] Setting up elt_e_2
I0623 00:04:52.884492  9350 net.cpp:148] Top shape: 64 128 16 16 (2097152)
I0623 00:04:52.884497  9350 net.cpp:156] Memory required for data: 2534146304
I0623 00:04:52.884503  9350 layer_factory.hpp:77] Creating layer elt_e_h
I0623 00:04:52.884515  9350 net.cpp:91] Creating Layer elt_e_h
I0623 00:04:52.884523  9350 net.cpp:425] elt_e_h <- elt_e_2
I0623 00:04:52.884531  9350 net.cpp:425] elt_e_h <- elt_h_2
I0623 00:04:52.884544  9350 net.cpp:399] elt_e_h -> elt_e_h
I0623 00:04:52.884579  9350 net.cpp:141] Setting up elt_e_h
I0623 00:04:52.884591  9350 net.cpp:148] Top shape: 64 128 16 16 (2097152)
I0623 00:04:52.884598  9350 net.cpp:156] Memory required for data: 2542534912
I0623 00:04:52.884603  9350 layer_factory.hpp:77] Creating layer elt_e_h_elt_e_h_0_split
I0623 00:04:52.884610  9350 net.cpp:91] Creating Layer elt_e_h_elt_e_h_0_split
I0623 00:04:52.884616  9350 net.cpp:425] elt_e_h_elt_e_h_0_split <- elt_e_h
I0623 00:04:52.884626  9350 net.cpp:399] elt_e_h_elt_e_h_0_split -> elt_e_h_elt_e_h_0_split_0
I0623 00:04:52.884656  9350 net.cpp:399] elt_e_h_elt_e_h_0_split -> elt_e_h_elt_e_h_0_split_1
I0623 00:04:52.884703  9350 net.cpp:141] Setting up elt_e_h_elt_e_h_0_split
I0623 00:04:52.884718  9350 net.cpp:148] Top shape: 64 128 16 16 (2097152)
I0623 00:04:52.884727  9350 net.cpp:148] Top shape: 64 128 16 16 (2097152)
I0623 00:04:52.884733  9350 net.cpp:156] Memory required for data: 2559312128
I0623 00:04:52.884739  9350 layer_factory.hpp:77] Creating layer bn_k_1_1
I0623 00:04:52.884754  9350 net.cpp:91] Creating Layer bn_k_1_1
I0623 00:04:52.884763  9350 net.cpp:425] bn_k_1_1 <- elt_e_h_elt_e_h_0_split_0
I0623 00:04:52.884775  9350 net.cpp:399] bn_k_1_1 -> bn_k_1_1
I0623 00:04:52.884966  9350 net.cpp:141] Setting up bn_k_1_1
I0623 00:04:52.884979  9350 net.cpp:148] Top shape: 64 128 16 16 (2097152)
I0623 00:04:52.884986  9350 net.cpp:156] Memory required for data: 2567700736
I0623 00:04:52.884999  9350 layer_factory.hpp:77] Creating layer sc_k_1_1
I0623 00:04:52.885018  9350 net.cpp:91] Creating Layer sc_k_1_1
I0623 00:04:52.885027  9350 net.cpp:425] sc_k_1_1 <- bn_k_1_1
I0623 00:04:52.885040  9350 net.cpp:399] sc_k_1_1 -> sc_k_1_1
I0623 00:04:52.885092  9350 layer_factory.hpp:77] Creating layer sc_k_1_1
I0623 00:04:52.885205  9350 net.cpp:141] Setting up sc_k_1_1
I0623 00:04:52.885217  9350 net.cpp:148] Top shape: 64 128 16 16 (2097152)
I0623 00:04:52.885224  9350 net.cpp:156] Memory required for data: 2576089344
I0623 00:04:52.885234  9350 layer_factory.hpp:77] Creating layer relu_k_1_1
I0623 00:04:52.885243  9350 net.cpp:91] Creating Layer relu_k_1_1
I0623 00:04:52.885251  9350 net.cpp:425] relu_k_1_1 <- sc_k_1_1
I0623 00:04:52.885258  9350 net.cpp:399] relu_k_1_1 -> relu_k_1_1
I0623 00:04:52.885625  9350 net.cpp:141] Setting up relu_k_1_1
I0623 00:04:52.885643  9350 net.cpp:148] Top shape: 64 128 16 16 (2097152)
I0623 00:04:52.885650  9350 net.cpp:156] Memory required for data: 2584477952
I0623 00:04:52.885656  9350 layer_factory.hpp:77] Creating layer conv_k_1_1
I0623 00:04:52.885680  9350 net.cpp:91] Creating Layer conv_k_1_1
I0623 00:04:52.885690  9350 net.cpp:425] conv_k_1_1 <- relu_k_1_1
I0623 00:04:52.885701  9350 net.cpp:399] conv_k_1_1 -> conv_k_1_1
I0623 00:04:52.897183  9350 net.cpp:141] Setting up conv_k_1_1
I0623 00:04:52.897207  9350 net.cpp:148] Top shape: 64 256 8 8 (1048576)
I0623 00:04:52.897213  9350 net.cpp:156] Memory required for data: 2588672256
I0623 00:04:52.897224  9350 layer_factory.hpp:77] Creating layer bn_k_1_2
I0623 00:04:52.897238  9350 net.cpp:91] Creating Layer bn_k_1_2
I0623 00:04:52.897250  9350 net.cpp:425] bn_k_1_2 <- conv_k_1_1
I0623 00:04:52.897263  9350 net.cpp:399] bn_k_1_2 -> bn_k_1_2
I0623 00:04:52.897536  9350 net.cpp:141] Setting up bn_k_1_2
I0623 00:04:52.897552  9350 net.cpp:148] Top shape: 64 256 8 8 (1048576)
I0623 00:04:52.897557  9350 net.cpp:156] Memory required for data: 2592866560
I0623 00:04:52.897569  9350 layer_factory.hpp:77] Creating layer sc_k_1_2
I0623 00:04:52.897581  9350 net.cpp:91] Creating Layer sc_k_1_2
I0623 00:04:52.897590  9350 net.cpp:425] sc_k_1_2 <- bn_k_1_2
I0623 00:04:52.897599  9350 net.cpp:399] sc_k_1_2 -> sc_k_1_2
I0623 00:04:52.897655  9350 layer_factory.hpp:77] Creating layer sc_k_1_2
I0623 00:04:52.897779  9350 net.cpp:141] Setting up sc_k_1_2
I0623 00:04:52.897794  9350 net.cpp:148] Top shape: 64 256 8 8 (1048576)
I0623 00:04:52.897799  9350 net.cpp:156] Memory required for data: 2597060864
I0623 00:04:52.897816  9350 layer_factory.hpp:77] Creating layer relu_k_1_2
I0623 00:04:52.897827  9350 net.cpp:91] Creating Layer relu_k_1_2
I0623 00:04:52.897835  9350 net.cpp:425] relu_k_1_2 <- sc_k_1_2
I0623 00:04:52.897845  9350 net.cpp:399] relu_k_1_2 -> relu_k_1_2
I0623 00:04:52.898113  9350 net.cpp:141] Setting up relu_k_1_2
I0623 00:04:52.898129  9350 net.cpp:148] Top shape: 64 256 8 8 (1048576)
I0623 00:04:52.898135  9350 net.cpp:156] Memory required for data: 2601255168
I0623 00:04:52.898141  9350 layer_factory.hpp:77] Creating layer conv_k_1_2
I0623 00:04:52.898165  9350 net.cpp:91] Creating Layer conv_k_1_2
I0623 00:04:52.898193  9350 net.cpp:425] conv_k_1_2 <- relu_k_1_2
I0623 00:04:52.898205  9350 net.cpp:399] conv_k_1_2 -> conv_k_1_2
I0623 00:04:52.919708  9350 net.cpp:141] Setting up conv_k_1_2
I0623 00:04:52.919729  9350 net.cpp:148] Top shape: 64 256 8 8 (1048576)
I0623 00:04:52.919736  9350 net.cpp:156] Memory required for data: 2605449472
I0623 00:04:52.919746  9350 layer_factory.hpp:77] Creating layer res_k
I0623 00:04:52.919762  9350 net.cpp:91] Creating Layer res_k
I0623 00:04:52.919770  9350 net.cpp:425] res_k <- elt_e_h_elt_e_h_0_split_1
I0623 00:04:52.919783  9350 net.cpp:399] res_k -> res_k
I0623 00:04:52.922221  9350 net.cpp:141] Setting up res_k
I0623 00:04:52.922240  9350 net.cpp:148] Top shape: 64 256 8 8 (1048576)
I0623 00:04:52.922247  9350 net.cpp:156] Memory required for data: 2609643776
I0623 00:04:52.922257  9350 layer_factory.hpp:77] Creating layer elt_k_1
I0623 00:04:52.922281  9350 net.cpp:91] Creating Layer elt_k_1
I0623 00:04:52.922289  9350 net.cpp:425] elt_k_1 <- res_k
I0623 00:04:52.922297  9350 net.cpp:425] elt_k_1 <- conv_k_1_2
I0623 00:04:52.922307  9350 net.cpp:399] elt_k_1 -> elt_k_1
I0623 00:04:52.922343  9350 net.cpp:141] Setting up elt_k_1
I0623 00:04:52.922355  9350 net.cpp:148] Top shape: 64 256 8 8 (1048576)
I0623 00:04:52.922361  9350 net.cpp:156] Memory required for data: 2613838080
I0623 00:04:52.922368  9350 layer_factory.hpp:77] Creating layer elt_k_1_elt_k_1_0_split
I0623 00:04:52.922379  9350 net.cpp:91] Creating Layer elt_k_1_elt_k_1_0_split
I0623 00:04:52.922386  9350 net.cpp:425] elt_k_1_elt_k_1_0_split <- elt_k_1
I0623 00:04:52.922397  9350 net.cpp:399] elt_k_1_elt_k_1_0_split -> elt_k_1_elt_k_1_0_split_0
I0623 00:04:52.922412  9350 net.cpp:399] elt_k_1_elt_k_1_0_split -> elt_k_1_elt_k_1_0_split_1
I0623 00:04:52.922458  9350 net.cpp:141] Setting up elt_k_1_elt_k_1_0_split
I0623 00:04:52.922472  9350 net.cpp:148] Top shape: 64 256 8 8 (1048576)
I0623 00:04:52.922478  9350 net.cpp:148] Top shape: 64 256 8 8 (1048576)
I0623 00:04:52.922483  9350 net.cpp:156] Memory required for data: 2622226688
I0623 00:04:52.922489  9350 layer_factory.hpp:77] Creating layer bn_k_2_1
I0623 00:04:52.922500  9350 net.cpp:91] Creating Layer bn_k_2_1
I0623 00:04:52.922511  9350 net.cpp:425] bn_k_2_1 <- elt_k_1_elt_k_1_0_split_0
I0623 00:04:52.922533  9350 net.cpp:399] bn_k_2_1 -> bn_k_2_1
I0623 00:04:52.922770  9350 net.cpp:141] Setting up bn_k_2_1
I0623 00:04:52.922786  9350 net.cpp:148] Top shape: 64 256 8 8 (1048576)
I0623 00:04:52.922792  9350 net.cpp:156] Memory required for data: 2626420992
I0623 00:04:52.922804  9350 layer_factory.hpp:77] Creating layer sc_k_2_1
I0623 00:04:52.922821  9350 net.cpp:91] Creating Layer sc_k_2_1
I0623 00:04:52.922830  9350 net.cpp:425] sc_k_2_1 <- bn_k_2_1
I0623 00:04:52.922845  9350 net.cpp:399] sc_k_2_1 -> sc_k_2_1
I0623 00:04:52.922899  9350 layer_factory.hpp:77] Creating layer sc_k_2_1
I0623 00:04:52.923027  9350 net.cpp:141] Setting up sc_k_2_1
I0623 00:04:52.923041  9350 net.cpp:148] Top shape: 64 256 8 8 (1048576)
I0623 00:04:52.923048  9350 net.cpp:156] Memory required for data: 2630615296
I0623 00:04:52.923056  9350 layer_factory.hpp:77] Creating layer relu_k_2_1
I0623 00:04:52.923066  9350 net.cpp:91] Creating Layer relu_k_2_1
…
I0623 00:04:53.265264  9350 net.cpp:425] conv_i_2_2 <- relu_i_2_2
I0623 00:04:53.265280  9350 net.cpp:399] conv_i_2_2 -> conv_i_2_2
I0623 00:04:53.271960  9350 net.cpp:141] Setting up conv_i_2_2
I0623 00:04:53.271980  9350 net.cpp:148] Top shape: 100 128 16 16 (3276800)
I0623 00:04:53.271986  9350 net.cpp:156] Memory required for data: 3395994800
I0623 00:04:53.271996  9350 layer_factory.hpp:77] Creating layer elt_i_2
I0623 00:04:53.272007  9350 net.cpp:91] Creating Layer elt_i_2
I0623 00:04:53.272014  9350 net.cpp:425] elt_i_2 <- elt_i_1_elt_i_1_0_split_1
I0623 00:04:53.272022  9350 net.cpp:425] elt_i_2 <- conv_i_2_2
I0623 00:04:53.272032  9350 net.cpp:399] elt_i_2 -> elt_i_2
I0623 00:04:53.272063  9350 net.cpp:141] Setting up elt_i_2
I0623 00:04:53.272076  9350 net.cpp:148] Top shape: 100 128 16 16 (3276800)
I0623 00:04:53.272083  9350 net.cpp:156] Memory required for data: 3409102000
I0623 00:04:53.272089  9350 layer_factory.hpp:77] Creating layer elt_d_f
I0623 00:04:53.272099  9350 net.cpp:91] Creating Layer elt_d_f
I0623 00:04:53.272109  9350 net.cpp:425] elt_d_f <- elt_d_2
I0623 00:04:53.272115  9350 net.cpp:425] elt_d_f <- elt_f_2
I0623 00:04:53.272125  9350 net.cpp:399] elt_d_f -> elt_d_f
I0623 00:04:53.272161  9350 net.cpp:141] Setting up elt_d_f
I0623 00:04:53.272173  9350 net.cpp:148] Top shape: 100 128 16 16 (3276800)
I0623 00:04:53.272179  9350 net.cpp:156] Memory required for data: 3422209200
I0623 00:04:53.272186  9350 layer_factory.hpp:77] Creating layer elt_d_f_elt_d_f_0_split
I0623 00:04:53.272193  9350 net.cpp:91] Creating Layer elt_d_f_elt_d_f_0_split
I0623 00:04:53.272203  9350 net.cpp:425] elt_d_f_elt_d_f_0_split <- elt_d_f
I0623 00:04:53.272214  9350 net.cpp:399] elt_d_f_elt_d_f_0_split -> elt_d_f_elt_d_f_0_split_0
I0623 00:04:53.272228  9350 net.cpp:399] elt_d_f_elt_d_f_0_split -> elt_d_f_elt_d_f_0_split_1
I0623 00:04:53.272274  9350 net.cpp:141] Setting up elt_d_f_elt_d_f_0_split
I0623 00:04:53.272286  9350 net.cpp:148] Top shape: 100 128 16 16 (3276800)
I0623 00:04:53.272297  9350 net.cpp:148] Top shape: 100 128 16 16 (3276800)
I0623 00:04:53.272302  9350 net.cpp:156] Memory required for data: 3448423600
I0623 00:04:53.272308  9350 layer_factory.hpp:77] Creating layer elt_g_i
I0623 00:04:53.272317  9350 net.cpp:91] Creating Layer elt_g_i
I0623 00:04:53.272325  9350 net.cpp:425] elt_g_i <- elt_g_2
I0623 00:04:53.272331  9350 net.cpp:425] elt_g_i <- elt_i_2
I0623 00:04:53.272339  9350 net.cpp:399] elt_g_i -> elt_g_i
I0623 00:04:53.272373  9350 net.cpp:141] Setting up elt_g_i
I0623 00:04:53.272385  9350 net.cpp:148] Top shape: 100 128 16 16 (3276800)
I0623 00:04:53.272390  9350 net.cpp:156] Memory required for data: 3461530800
I0623 00:04:53.272397  9350 layer_factory.hpp:77] Creating layer elt_g_i_elt_g_i_0_split
I0623 00:04:53.272404  9350 net.cpp:91] Creating Layer elt_g_i_elt_g_i_0_split
I0623 00:04:53.272415  9350 net.cpp:425] elt_g_i_elt_g_i_0_split <- elt_g_i
I0623 00:04:53.272423  9350 net.cpp:399] elt_g_i_elt_g_i_0_split -> elt_g_i_elt_g_i_0_split_0
I0623 00:04:53.272433  9350 net.cpp:399] elt_g_i_elt_g_i_0_split -> elt_g_i_elt_g_i_0_split_1
I0623 00:04:53.272480  9350 net.cpp:141] Setting up elt_g_i_elt_g_i_0_split
I0623 00:04:53.272491  9350 net.cpp:148] Top shape: 100 128 16 16 (3276800)
I0623 00:04:53.272498  9350 net.cpp:148] Top shape: 100 128 16 16 (3276800)
I0623 00:04:53.272505  9350 net.cpp:156] Memory required for data: 3487745200
I0623 00:04:53.272511  9350 layer_factory.hpp:77] Creating layer bn_j_1_1
I0623 00:04:53.272521  9350 net.cpp:91] Creating Layer bn_j_1_1
I0623 00:04:53.272529  9350 net.cpp:425] bn_j_1_1 <- elt_d_f_elt_d_f_0_split_0
I0623 00:04:53.272541  9350 net.cpp:399] bn_j_1_1 -> bn_j_1_1
I0623 00:04:53.272743  9350 net.cpp:141] Setting up bn_j_1_1
I0623 00:04:53.272756  9350 net.cpp:148] Top shape: 100 128 16 16 (3276800)
I0623 00:04:53.272780  9350 net.cpp:156] Memory required for data: 3500852400
I0623 00:04:53.272794  9350 layer_factory.hpp:77] Creating layer sc_j_1_1
I0623 00:04:53.272807  9350 net.cpp:91] Creating Layer sc_j_1_1
I0623 00:04:53.272815  9350 net.cpp:425] sc_j_1_1 <- bn_j_1_1
I0623 00:04:53.272825  9350 net.cpp:399] sc_j_1_1 -> sc_j_1_1
I0623 00:04:53.272879  9350 layer_factory.hpp:77] Creating layer sc_j_1_1
I0623 00:04:53.273002  9350 net.cpp:141] Setting up sc_j_1_1
I0623 00:04:53.273015  9350 net.cpp:148] Top shape: 100 128 16 16 (3276800)
I0623 00:04:53.273022  9350 net.cpp:156] Memory required for data: 3513959600
I0623 00:04:53.273032  9350 layer_factory.hpp:77] Creating layer relu_j_1_1
I0623 00:04:53.273042  9350 net.cpp:91] Creating Layer relu_j_1_1
I0623 00:04:53.273049  9350 net.cpp:425] relu_j_1_1 <- sc_j_1_1
I0623 00:04:53.273059  9350 net.cpp:399] relu_j_1_1 -> relu_j_1_1
I0623 00:04:53.273470  9350 net.cpp:141] Setting up relu_j_1_1
I0623 00:04:53.273488  9350 net.cpp:148] Top shape: 100 128 16 16 (3276800)
I0623 00:04:53.273495  9350 net.cpp:156] Memory required for data: 3527066800
I0623 00:04:53.273502  9350 layer_factory.hpp:77] Creating layer conv_j_1_1
I0623 00:04:53.273520  9350 net.cpp:91] Creating Layer conv_j_1_1
I0623 00:04:53.273530  9350 net.cpp:425] conv_j_1_1 <- relu_j_1_1
I0623 00:04:53.273540  9350 net.cpp:399] conv_j_1_1 -> conv_j_1_1
I0623 00:04:53.285221  9350 net.cpp:141] Setting up conv_j_1_1
I0623 00:04:53.285241  9350 net.cpp:148] Top shape: 100 256 8 8 (1638400)
I0623 00:04:53.285248  9350 net.cpp:156] Memory required for data: 3533620400
I0623 00:04:53.285259  9350 layer_factory.hpp:77] Creating layer bn_j_1_2
I0623 00:04:53.285272  9350 net.cpp:91] Creating Layer bn_j_1_2
I0623 00:04:53.285280  9350 net.cpp:425] bn_j_1_2 <- conv_j_1_1
I0623 00:04:53.285291  9350 net.cpp:399] bn_j_1_2 -> bn_j_1_2
I0623 00:04:53.285523  9350 net.cpp:141] Setting up bn_j_1_2
I0623 00:04:53.285538  9350 net.cpp:148] Top shape: 100 256 8 8 (1638400)
I0623 00:04:53.285544  9350 net.cpp:156] Memory required for data: 3540174000
I0623 00:04:53.285557  9350 layer_factory.hpp:77] Creating layer sc_j_1_2
I0623 00:04:53.285565  9350 net.cpp:91] Creating Layer sc_j_1_2
I0623 00:04:53.285573  9350 net.cpp:425] sc_j_1_2 <- bn_j_1_2
I0623 00:04:53.285581  9350 net.cpp:399] sc_j_1_2 -> sc_j_1_2
I0623 00:04:53.285636  9350 layer_factory.hpp:77] Creating layer sc_j_1_2
I0623 00:04:53.285766  9350 net.cpp:141] Setting up sc_j_1_2
I0623 00:04:53.285780  9350 net.cpp:148] Top shape: 100 256 8 8 (1638400)
I0623 00:04:53.285786  9350 net.cpp:156] Memory required for data: 3546727600
I0623 00:04:53.285795  9350 layer_factory.hpp:77] Creating layer relu_j_1_2
I0623 00:04:53.285810  9350 net.cpp:91] Creating Layer relu_j_1_2
I0623 00:04:53.285820  9350 net.cpp:425] relu_j_1_2 <- sc_j_1_2
I0623 00:04:53.285830  9350 net.cpp:399] relu_j_1_2 -> relu_j_1_2
I0623 00:04:53.286098  9350 net.cpp:141] Setting up relu_j_1_2
I0623 00:04:53.286113  9350 net.cpp:148] Top shape: 100 256 8 8 (1638400)
I0623 00:04:53.286121  9350 net.cpp:156] Memory required for data: 3553281200
I0623 00:04:53.286128  9350 layer_factory.hpp:77] Creating layer conv_j_1_2
I0623 00:04:53.286142  9350 net.cpp:91] Creating Layer conv_j_1_2
I0623 00:04:53.286151  9350 net.cpp:425] conv_j_1_2 <- relu_j_1_2
I0623 00:04:53.286164  9350 net.cpp:399] conv_j_1_2 -> conv_j_1_2
I0623 00:04:53.307543  9350 net.cpp:141] Setting up conv_j_1_2
I0623 00:04:53.307564  9350 net.cpp:148] Top shape: 100 256 8 8 (1638400)
I0623 00:04:53.307570  9350 net.cpp:156] Memory required for data: 3559834800
I0623 00:04:53.307581  9350 layer_factory.hpp:77] Creating layer res_j
I0623 00:04:53.307600  9350 net.cpp:91] Creating Layer res_j
I0623 00:04:53.307607  9350 net.cpp:425] res_j <- elt_d_f_elt_d_f_0_split_1
I0623 00:04:53.307617  9350 net.cpp:399] res_j -> res_j
I0623 00:04:53.310566  9350 net.cpp:141] Setting up res_j
I0623 00:04:53.310585  9350 net.cpp:148] Top shape: 100 256 8 8 (1638400)
I0623 00:04:53.310592  9350 net.cpp:156] Memory required for data: 3566388400
I0623 00:04:53.310650  9350 layer_factory.hpp:77] Creating layer elt_j_1
I0623 00:04:53.310698  9350 net.cpp:91] Creating Layer elt_j_1
I0623 00:04:53.310710  9350 net.cpp:425] elt_j_1 <- res_j
I0623 00:04:53.310719  9350 net.cpp:425] elt_j_1 <- conv_j_1_2
I0623 00:04:53.310734  9350 net.cpp:399] elt_j_1 -> elt_j_1
I0623 00:04:53.310772  9350 net.cpp:141] Setting up elt_j_1
I0623 00:04:53.310786  9350 net.cpp:148] Top shape: 100 256 8 8 (1638400)
I0623 00:04:53.310798  9350 net.cpp:156] Memory required for data: 3572942000
I0623 00:04:53.310804  9350 layer_factory.hpp:77] Creating layer elt_j_1_elt_j_1_0_split
I0623 00:04:53.310813  9350 net.cpp:91] Creating Layer elt_j_1_elt_j_1_0_split
I0623 00:04:53.310824  9350 net.cpp:425] elt_j_1_elt_j_1_0_split <- elt_j_1
I0623 00:04:53.310837  9350 net.cpp:399] elt_j_1_elt_j_1_0_split -> elt_j_1_elt_j_1_0_split_0
I0623 00:04:53.310850  9350 net.cpp:399] elt_j_1_elt_j_1_0_split -> elt_j_1_elt_j_1_0_split_1
I0623 00:04:53.310899  9350 net.cpp:141] Setting up elt_j_1_elt_j_1_0_split
I0623 00:04:53.310914  9350 net.cpp:148] Top shape: 100 256 8 8 (1638400)
I0623 00:04:53.310922  9350 net.cpp:148] Top shape: 100 256 8 8 (1638400)
I0623 00:04:53.310928  9350 net.cpp:156] Memory required for data: 3586049200
I0623 00:04:53.310935  9350 layer_factory.hpp:77] Creating layer bn_j_2_1
I0623 00:04:53.310946  9350 net.cpp:91] Creating Layer bn_j_2_1
I0623 00:04:53.310955  9350 net.cpp:425] bn_j_2_1 <- elt_j_1_elt_j_1_0_split_0
I0623 00:04:53.310963  9350 net.cpp:399] bn_j_2_1 -> bn_j_2_1
I0623 00:04:53.311185  9350 net.cpp:141] Setting up bn_j_2_1
I0623 00:04:53.311198  9350 net.cpp:148] Top shape: 100 256 8 8 (1638400)
I0623 00:04:53.311205  9350 net.cpp:156] Memory required for data: 3592602800
I0623 00:04:53.311218  9350 layer_factory.hpp:77] Creating layer sc_j_2_1
I0623 00:04:53.311228  9350 net.cpp:91] Creating Layer sc_j_2_1
I0623 00:04:53.311236  9350 net.cpp:425] sc_j_2_1 <- bn_j_2_1
I0623 00:04:53.311245  9350 net.cpp:399] sc_j_2_1 -> sc_j_2_1
I0623 00:04:53.311303  9350 layer_factory.hpp:77] Creating layer sc_j_2_1
I0623 00:04:53.311436  9350 net.cpp:141] Setting up sc_j_2_1
I0623 00:04:53.311450  9350 net.cpp:148] Top shape: 100 256 8 8 (1638400)
I0623 00:04:53.311456  9350 net.cpp:156] Memory required for data: 3599156400
I0623 00:04:53.311466  9350 layer_factory.hpp:77] Creating layer relu_j_2_1
I0623 00:04:53.311480  9350 net.cpp:91] Creating Layer relu_j_2_1
I0623 00:04:53.311488  9350 net.cpp:425] relu_j_2_1 <- sc_j_2_1
I0623 00:04:53.311497  9350 net.cpp:399] relu_j_2_1 -> relu_j_2_1
I0623 00:04:53.311769  9350 net.cpp:141] Setting up relu_j_2_1
I0623 00:04:53.311784  9350 net.cpp:148] Top shape: 100 256 8 8 (1638400)
I0623 00:04:53.311791  9350 net.cpp:156] Memory required for data: 3605710000
I0623 00:04:53.311797  9350 layer_factory.hpp:77] Creating layer conv_j_2_1
I0623 00:04:53.311813  9350 net.cpp:91] Creating Layer conv_j_2_1
I0623 00:04:53.311822  9350 net.cpp:425] conv_j_2_1 <- relu_j_2_1
I0623 00:04:53.311835  9350 net.cpp:399] conv_j_2_1 -> conv_j_2_1
I0623 00:04:53.333015  9350 net.cpp:141] Setting up conv_j_2_1
I0623 00:04:53.333035  9350 net.cpp:148] Top shape: 100 256 8 8 (1638400)
I0623 00:04:53.333042  9350 net.cpp:156] Memory required for data: 3612263600
I0623 00:04:53.333052  9350 layer_factory.hpp:77] Creating layer bn_j_2_2
I0623 00:04:53.333065  9350 net.cpp:91] Creating Layer bn_j_2_2
I0623 00:04:53.333075  9350 net.cpp:425] bn_j_2_2 <- conv_j_2_1
I0623 00:04:53.333086  9350 net.cpp:399] bn_j_2_2 -> bn_j_2_2
I0623 00:04:53.333323  9350 net.cpp:141] Setting up bn_j_2_2
I0623 00:04:53.333338  9350 net.cpp:148] Top shape: 100 256 8 8 (1638400)
I0623 00:04:53.333343  9350 net.cpp:156] Memory required for data: 3618817200
I0623 00:04:53.333354  9350 layer_factory.hpp:77] Creating layer sc_j_2_2
I0623 00:04:53.333367  9350 net.cpp:91] Creating Layer sc_j_2_2
I0623 00:04:53.333376  9350 net.cpp:425] sc_j_2_2 <- bn_j_2_2
I0623 00:04:53.333386  9350 net.cpp:399] sc_j_2_2 -> sc_j_2_2
I0623 00:04:53.333442  9350 layer_factory.hpp:77] Creating layer sc_j_2_2
I0623 00:04:53.333576  9350 net.cpp:141] Setting up sc_j_2_2
I0623 00:04:53.333606  9350 net.cpp:148] Top shape: 100 256 8 8 (1638400)
I0623 00:04:53.333614  9350 net.cpp:156] Memory required for data: 3625370800
I0623 00:04:53.333626  9350 layer_factory.hpp:77] Creating layer relu_j_2_2
I0623 00:04:53.333636  9350 net.cpp:91] Creating Layer relu_j_2_2
I0623 00:04:53.333643  9350 net.cpp:425] relu_j_2_2 <- sc_j_2_2
I0623 00:04:53.333654  9350 net.cpp:399] relu_j_2_2 -> relu_j_2_2
I0623 00:04:53.334074  9350 net.cpp:141] Setting up relu_j_2_2
I0623 00:04:53.334091  9350 net.cpp:148] Top shape: 100 256 8 8 (1638400)
I0623 00:04:53.334100  9350 net.cpp:156] Memory required for data: 3631924400
I0623 00:04:53.334105  9350 layer_factory.hpp:77] Creating layer conv_j_2_2
I0623 00:04:53.334121  9350 net.cpp:91] Creating Layer conv_j_2_2
I0623 00:04:53.334131  9350 net.cpp:425] conv_j_2_2 <- relu_j_2_2
I0623 00:04:53.334142  9350 net.cpp:399] conv_j_2_2 -> conv_j_2_2
I0623 00:04:53.355428  9350 net.cpp:141] Setting up conv_j_2_2
I0623 00:04:53.355448  9350 net.cpp:148] Top shape: 100 256 8 8 (1638400)
I0623 00:04:53.355455  9350 net.cpp:156] Memory required for data: 3638478000
I0623 00:04:53.355465  9350 layer_factory.hpp:77] Creating layer elt_j_2
I0623 00:04:53.355476  9350 net.cpp:91] Creating Layer elt_j_2
I0623 00:04:53.355484  9350 net.cpp:425] elt_j_2 <- elt_j_1_elt_j_1_0_split_1
I0623 00:04:53.355491  9350 net.cpp:425] elt_j_2 <- conv_j_2_2
I0623 00:04:53.355504  9350 net.cpp:399] elt_j_2 -> elt_j_2
I0623 00:04:53.355540  9350 net.cpp:141] Setting up elt_j_2
I0623 00:04:53.355556  9350 net.cpp:148] Top shape: 100 256 8 8 (1638400)
I0623 00:04:53.355566  9350 net.cpp:156] Memory required for data: 3645031600
I0623 00:04:53.355571  9350 layer_factory.hpp:77] Creating layer bn_e_1_1
I0623 00:04:53.355581  9350 net.cpp:91] Creating Layer bn_e_1_1
I0623 00:04:53.355592  9350 net.cpp:425] bn_e_1_1 <- elt_a_2_elt_a_2_0_split_2
I0623 00:04:53.355604  9350 net.cpp:399] bn_e_1_1 -> bn_e_1_1
I0623 00:04:53.355872  9350 net.cpp:141] Setting up bn_e_1_1
I0623 00:04:53.355887  9350 net.cpp:148] Top shape: 100 64 32 32 (6553600)
I0623 00:04:53.355893  9350 net.cpp:156] Memory required for data: 3671246000
I0623 00:04:53.355906  9350 layer_factory.hpp:77] Creating layer sc_e_1_1
I0623 00:04:53.355918  9350 net.cpp:91] Creating Layer sc_e_1_1
I0623 00:04:53.355924  9350 net.cpp:425] sc_e_1_1 <- bn_e_1_1
I0623 00:04:53.355934  9350 net.cpp:399] sc_e_1_1 -> sc_e_1_1
I0623 00:04:53.355990  9350 layer_factory.hpp:77] Creating layer sc_e_1_1
I0623 00:04:53.356179  9350 net.cpp:141] Setting up sc_e_1_1
I0623 00:04:53.356194  9350 net.cpp:148] Top shape: 100 64 32 32 (6553600)
I0623 00:04:53.356199  9350 net.cpp:156] Memory required for data: 3697460400
I0623 00:04:53.356209  9350 layer_factory.hpp:77] Creating layer relu_e_1_1
I0623 00:04:53.356222  9350 net.cpp:91] Creating Layer relu_e_1_1
I0623 00:04:53.356230  9350 net.cpp:425] relu_e_1_1 <- sc_e_1_1
I0623 00:04:53.356240  9350 net.cpp:399] relu_e_1_1 -> relu_e_1_1
I0623 00:04:53.356655  9350 net.cpp:141] Setting up relu_e_1_1
I0623 00:04:53.356676  9350 net.cpp:148] Top shape: 100 64 32 32 (6553600)
I0623 00:04:53.356683  9350 net.cpp:156] Memory required for data: 3723674800
I0623 00:04:53.356689  9350 layer_factory.hpp:77] Creating layer conv_e_1_1
I0623 00:04:53.356705  9350 net.cpp:91] Creating Layer conv_e_1_1
I0623 00:04:53.356714  9350 net.cpp:425] conv_e_1_1 <- relu_e_1_1
I0623 00:04:53.356724  9350 net.cpp:399] conv_e_1_1 -> conv_e_1_1
I0623 00:04:53.360452  9350 net.cpp:141] Setting up conv_e_1_1
I0623 00:04:53.360471  9350 net.cpp:148] Top shape: 100 128 16 16 (3276800)
I0623 00:04:53.360478  9350 net.cpp:156] Memory required for data: 3736782000
I0623 00:04:53.360488  9350 layer_factory.hpp:77] Creating layer bn_e_1_2
I0623 00:04:53.360502  9350 net.cpp:91] Creating Layer bn_e_1_2
I0623 00:04:53.360509  9350 net.cpp:425] bn_e_1_2 <- conv_e_1_1
I0623 00:04:53.360519  9350 net.cpp:399] bn_e_1_2 -> bn_e_1_2
I0623 00:04:53.360750  9350 net.cpp:141] Setting up bn_e_1_2
I0623 00:04:53.360764  9350 net.cpp:148] Top shape: 100 128 16 16 (3276800)
I0623 00:04:53.360788  9350 net.cpp:156] Memory required for data: 3749889200
I0623 00:04:53.360802  9350 layer_factory.hpp:77] Creating layer sc_e_1_2
I0623 00:04:53.360816  9350 net.cpp:91] Creating Layer sc_e_1_2
I0623 00:04:53.360824  9350 net.cpp:425] sc_e_1_2 <- bn_e_1_2
I0623 00:04:53.360833  9350 net.cpp:399] sc_e_1_2 -> sc_e_1_2
I0623 00:04:53.360891  9350 layer_factory.hpp:77] Creating layer sc_e_1_2
I0623 00:04:53.361024  9350 net.cpp:141] Setting up sc_e_1_2
I0623 00:04:53.361038  9350 net.cpp:148] Top shape: 100 128 16 16 (3276800)
I0623 00:04:53.361045  9350 net.cpp:156] Memory required for data: 3762996400
I0623 00:04:53.361055  9350 layer_factory.hpp:77] Creating layer relu_e_1_2
I0623 00:04:53.361065  9350 net.cpp:91] Creating Layer relu_e_1_2
I0623 00:04:53.361071  9350 net.cpp:425] relu_e_1_2 <- sc_e_1_2
I0623 00:04:53.361079  9350 net.cpp:399] relu_e_1_2 -> relu_e_1_2
I0623 00:04:53.361351  9350 net.cpp:141] Setting up relu_e_1_2
I0623 00:04:53.361366  9350 net.cpp:148] Top shape: 100 128 16 16 (3276800)
I0623 00:04:53.361372  9350 net.cpp:156] Memory required for data: 3776103600
I0623 00:04:53.361378  9350 layer_factory.hpp:77] Creating layer conv_e_1_2
I0623 00:04:53.361394  9350 net.cpp:91] Creating Layer conv_e_1_2
I0623 00:04:53.361402  9350 net.cpp:425] conv_e_1_2 <- relu_e_1_2
I0623 00:04:53.361415  9350 net.cpp:399] conv_e_1_2 -> conv_e_1_2
I0623 00:04:53.368039  9350 net.cpp:141] Setting up conv_e_1_2
I0623 00:04:53.368062  9350 net.cpp:148] Top shape: 100 128 16 16 (3276800)
I0623 00:04:53.368073  9350 net.cpp:156] Memory required for data: 3789210800
I0623 00:04:53.368084  9350 layer_factory.hpp:77] Creating layer res_e
I0623 00:04:53.368104  9350 net.cpp:91] Creating Layer res_e
I0623 00:04:53.368113  9350 net.cpp:425] res_e <- elt_a_2_elt_a_2_0_split_3
I0623 00:04:53.368124  9350 net.cpp:399] res_e -> res_e
I0623 00:04:53.369768  9350 net.cpp:141] Setting up res_e
I0623 00:04:53.369787  9350 net.cpp:148] Top shape: 100 128 16 16 (3276800)
I0623 00:04:53.369799  9350 net.cpp:156] Memory required for data: 3802318000
I0623 00:04:53.369809  9350 layer_factory.hpp:77] Creating layer elt_e_1
I0623 00:04:53.369819  9350 net.cpp:91] Creating Layer elt_e_1
I0623 00:04:53.369829  9350 net.cpp:425] elt_e_1 <- res_e
I0623 00:04:53.369837  9350 net.cpp:425] elt_e_1 <- conv_e_1_2
I0623 00:04:53.369849  9350 net.cpp:399] elt_e_1 -> elt_e_1
I0623 00:04:53.369884  9350 net.cpp:141] Setting up elt_e_1
I0623 00:04:53.369897  9350 net.cpp:148] Top shape: 100 128 16 16 (3276800)
I0623 00:04:53.369902  9350 net.cpp:156] Memory required for data: 3815425200
I0623 00:04:53.369909  9350 layer_factory.hpp:77] Creating layer elt_e_1_elt_e_1_0_split
I0623 00:04:53.369917  9350 net.cpp:91] Creating Layer elt_e_1_elt_e_1_0_split
I0623 00:04:53.369925  9350 net.cpp:425] elt_e_1_elt_e_1_0_split <- elt_e_1
I0623 00:04:53.369935  9350 net.cpp:399] elt_e_1_elt_e_1_0_split -> elt_e_1_elt_e_1_0_split_0
I0623 00:04:53.369947  9350 net.cpp:399] elt_e_1_elt_e_1_0_split -> elt_e_1_elt_e_1_0_split_1
I0623 00:04:53.369997  9350 net.cpp:141] Setting up elt_e_1_elt_e_1_0_split
I0623 00:04:53.370014  9350 net.cpp:148] Top shape: 100 128 16 16 (3276800)
I0623 00:04:53.370023  9350 net.cpp:148] Top shape: 100 128 16 16 (3276800)
I0623 00:04:53.370029  9350 net.cpp:156] Memory required for data: 3841639600
I0623 00:04:53.370035  9350 layer_factory.hpp:77] Creating layer bn_e_2_1
I0623 00:04:53.370044  9350 net.cpp:91] Creating Layer bn_e_2_1
I0623 00:04:53.370052  9350 net.cpp:425] bn_e_2_1 <- elt_e_1_elt_e_1_0_split_0
I0623 00:04:53.370064  9350 net.cpp:399] bn_e_2_1 -> bn_e_2_1
I0623 00:04:53.370287  9350 net.cpp:141] Setting up bn_e_2_1
I0623 00:04:53.370301  9350 net.cpp:148] Top shape: 100 128 16 16 (3276800)
I0623 00:04:53.370308  9350 net.cpp:156] Memory required for data: 3854746800
I0623 00:04:53.370321  9350 layer_factory.hpp:77] Creating layer sc_e_2_1
I0623 00:04:53.370332  9350 net.cpp:91] Creating Layer sc_e_2_1
I0623 00:04:53.370338  9350 net.cpp:425] sc_e_2_1 <- bn_e_2_1
I0623 00:04:53.370368  9350 net.cpp:399] sc_e_2_1 -> sc_e_2_1
I0623 00:04:53.370425  9350 layer_factory.hpp:77] Creating layer sc_e_2_1
I0623 00:04:53.370559  9350 net.cpp:141] Setting up sc_e_2_1
I0623 00:04:53.370576  9350 net.cpp:148] Top shape: 100 128 16 16 (3276800)
I0623 00:04:53.370584  9350 net.cpp:156] Memory required for data: 3867854000
I0623 00:04:53.370594  9350 layer_factory.hpp:77] Creating layer relu_e_2_1
I0623 00:04:53.370604  9350 net.cpp:91] Creating Layer relu_e_2_1
I0623 00:04:53.370611  9350 net.cpp:425] relu_e_2_1 <- sc_e_2_1
I0623 00:04:53.370620  9350 net.cpp:399] relu_e_2_1 -> relu_e_2_1
I0623 00:04:53.370908  9350 net.cpp:141] Setting up relu_e_2_1
I0623 00:04:53.370924  9350 net.cpp:148] Top shape: 100 128 16 16 (3276800)
I0623 00:04:53.370932  9350 net.cpp:156] Memory required for data: 3880961200
I0623 00:04:53.370939  9350 layer_factory.hpp:77] Creating layer conv_e_2_1
I0623 00:04:53.370954  9350 net.cpp:91] Creating Layer conv_e_2_1
I0623 00:04:53.370962  9350 net.cpp:425] conv_e_2_1 <- relu_e_2_1
I0623 00:04:53.370976  9350 net.cpp:399] conv_e_2_1 -> conv_e_2_1
I0623 00:04:53.377712  9350 net.cpp:141] Setting up conv_e_2_1
I0623 00:04:53.377732  9350 net.cpp:148] Top shape: 100 128 16 16 (3276800)
I0623 00:04:53.377739  9350 net.cpp:156] Memory required for data: 3894068400
I0623 00:04:53.377749  9350 layer_factory.hpp:77] Creating layer bn_e_2_2
I0623 00:04:53.377763  9350 net.cpp:91] Creating Layer bn_e_2_2
I0623 00:04:53.377769  9350 net.cpp:425] bn_e_2_2 <- conv_e_2_1
I0623 00:04:53.377779  9350 net.cpp:399] bn_e_2_2 -> bn_e_2_2
I0623 00:04:53.378006  9350 net.cpp:141] Setting up bn_e_2_2
I0623 00:04:53.378021  9350 net.cpp:148] Top shape: 100 128 16 16 (3276800)
I0623 00:04:53.378026  9350 net.cpp:156] Memory required for data: 3907175600
I0623 00:04:53.378038  9350 layer_factory.hpp:77] Creating layer sc_e_2_2
I0623 00:04:53.378047  9350 net.cpp:91] Creating Layer sc_e_2_2
I0623 00:04:53.378054  9350 net.cpp:425] sc_e_2_2 <- bn_e_2_2
I0623 00:04:53.378062  9350 net.cpp:399] sc_e_2_2 -> sc_e_2_2
I0623 00:04:53.378125  9350 layer_factory.hpp:77] Creating layer sc_e_2_2
I0623 00:04:53.378253  9350 net.cpp:141] Setting up sc_e_2_2
I0623 00:04:53.378268  9350 net.cpp:148] Top shape: 100 128 16 16 (3276800)
I0623 00:04:53.378273  9350 net.cpp:156] Memory required for data: 3920282800
I0623 00:04:53.378283  9350 layer_factory.hpp:77] Creating layer relu_e_2_2
I0623 00:04:53.378293  9350 net.cpp:91] Creating Layer relu_e_2_2
I0623 00:04:53.378298  9350 net.cpp:425] relu_e_2_2 <- sc_e_2_2
I0623 00:04:53.378309  9350 net.cpp:399] relu_e_2_2 -> relu_e_2_2
I0623 00:04:53.378751  9350 net.cpp:141] Setting up relu_e_2_2
I0623 00:04:53.378769  9350 net.cpp:148] Top shape: 100 128 16 16 (3276800)
I0623 00:04:53.378777  9350 net.cpp:156] Memory required for data: 3933390000
I0623 00:04:53.378782  9350 layer_factory.hpp:77] Creating layer conv_e_2_2
I0623 00:04:53.378798  9350 net.cpp:91] Creating Layer conv_e_2_2
I0623 00:04:53.378805  9350 net.cpp:425] conv_e_2_2 <- relu_e_2_2
I0623 00:04:53.378818  9350 net.cpp:399] conv_e_2_2 -> conv_e_2_2
I0623 00:04:53.385555  9350 net.cpp:141] Setting up conv_e_2_2
I0623 00:04:53.385577  9350 net.cpp:148] Top shape: 100 128 16 16 (3276800)
I0623 00:04:53.385584  9350 net.cpp:156] Memory required for data: 3946497200
I0623 00:04:53.385596  9350 layer_factory.hpp:77] Creating layer elt_e_2
I0623 00:04:53.385607  9350 net.cpp:91] Creating Layer elt_e_2
I0623 00:04:53.385613  9350 net.cpp:425] elt_e_2 <- elt_e_1_elt_e_1_0_split_1
I0623 00:04:53.385622  9350 net.cpp:425] elt_e_2 <- conv_e_2_2
I0623 00:04:53.385629  9350 net.cpp:399] elt_e_2 -> elt_e_2
I0623 00:04:53.385663  9350 net.cpp:141] Setting up elt_e_2
I0623 00:04:53.385675  9350 net.cpp:148] Top shape: 100 128 16 16 (3276800)
I0623 00:04:53.385681  9350 net.cpp:156] Memory required for data: 3959604400
I0623 00:04:53.385687  9350 layer_factory.hpp:77] Creating layer elt_e_h
I0623 00:04:53.385696  9350 net.cpp:91] Creating Layer elt_e_h
I0623 00:04:53.385702  9350 net.cpp:425] elt_e_h <- elt_e_2
I0623 00:04:53.385710  9350 net.cpp:425] elt_e_h <- elt_h_2
I0623 00:04:53.385741  9350 net.cpp:399] elt_e_h -> elt_e_h
I0623 00:04:53.385778  9350 net.cpp:141] Setting up elt_e_h
I0623 00:04:53.385792  9350 net.cpp:148] Top shape: 100 128 16 16 (3276800)
I0623 00:04:53.385798  9350 net.cpp:156] Memory required for data: 3972711600
I0623 00:04:53.385804  9350 layer_factory.hpp:77] Creating layer elt_e_h_elt_e_h_0_split
I0623 00:04:53.385817  9350 net.cpp:91] Creating Layer elt_e_h_elt_e_h_0_split
I0623 00:04:53.385824  9350 net.cpp:425] elt_e_h_elt_e_h_0_split <- elt_e_h
I0623 00:04:53.385833  9350 net.cpp:399] elt_e_h_elt_e_h_0_split -> elt_e_h_elt_e_h_0_split_0
I0623 00:04:53.385844  9350 net.cpp:399] elt_e_h_elt_e_h_0_split -> elt_e_h_elt_e_h_0_split_1
I0623 00:04:53.385893  9350 net.cpp:141] Setting up elt_e_h_elt_e_h_0_split
I0623 00:04:53.385906  9350 net.cpp:148] Top shape: 100 128 16 16 (3276800)
I0623 00:04:53.385915  9350 net.cpp:148] Top shape: 100 128 16 16 (3276800)
I0623 00:04:53.385921  9350 net.cpp:156] Memory required for data: 3998926000
I0623 00:04:53.385926  9350 layer_factory.hpp:77] Creating layer bn_k_1_1
I0623 00:04:53.385938  9350 net.cpp:91] Creating Layer bn_k_1_1
I0623 00:04:53.385946  9350 net.cpp:425] bn_k_1_1 <- elt_e_h_elt_e_h_0_split_0
I0623 00:04:53.385956  9350 net.cpp:399] bn_k_1_1 -> bn_k_1_1
I0623 00:04:53.386178  9350 net.cpp:141] Setting up bn_k_1_1
I0623 00:04:53.386191  9350 net.cpp:148] Top shape: 100 128 16 16 (3276800)
I0623 00:04:53.386198  9350 net.cpp:156] Memory required for data: 4012033200
I0623 00:04:53.386210  9350 layer_factory.hpp:77] Creating layer sc_k_1_1
I0623 00:04:53.386221  9350 net.cpp:91] Creating Layer sc_k_1_1
I0623 00:04:53.386229  9350 net.cpp:425] sc_k_1_1 <- bn_k_1_1
I0623 00:04:53.386240  9350 net.cpp:399] sc_k_1_1 -> sc_k_1_1
I0623 00:04:53.386298  9350 layer_factory.hpp:77] Creating layer sc_k_1_1
I0623 00:04:53.386427  9350 net.cpp:141] Setting up sc_k_1_1
I0623 00:04:53.386440  9350 net.cpp:148] Top shape: 100 128 16 16 (3276800)
I0623 00:04:53.386447  9350 net.cpp:156] Memory required for data: 4025140400
I0623 00:04:53.386457  9350 layer_factory.hpp:77] Creating layer relu_k_1_1
I0623 00:04:53.386469  9350 net.cpp:91] Creating Layer relu_k_1_1
I0623 00:04:53.386477  9350 net.cpp:425] relu_k_1_1 <- sc_k_1_1
I0623 00:04:53.386485  9350 net.cpp:399] relu_k_1_1 -> relu_k_1_1
I0623 00:04:53.386775  9350 net.cpp:141] Setting up relu_k_1_1
I0623 00:04:53.386795  9350 net.cpp:148] Top shape: 100 128 16 16 (3276800)
I0623 00:04:53.386802  9350 net.cpp:156] Memory required for data: 4038247600
I0623 00:04:53.386808  9350 layer_factory.hpp:77] Creating layer conv_k_1_1
I0623 00:04:53.386824  9350 net.cpp:91] Creating Layer conv_k_1_1
I0623 00:04:53.386833  9350 net.cpp:425] conv_k_1_1 <- relu_k_1_1
I0623 00:04:53.386843  9350 net.cpp:399] conv_k_1_1 -> conv_k_1_1
I0623 00:04:53.398344  9350 net.cpp:141] Setting up conv_k_1_1
I0623 00:04:53.398363  9350 net.cpp:148] Top shape: 100 256 8 8 (1638400)
I0623 00:04:53.398370  9350 net.cpp:156] Memory required for data: 4044801200
I0623 00:04:53.398381  9350 layer_factory.hpp:77] Creating layer bn_k_1_2
I0623 00:04:53.398394  9350 net.cpp:91] Creating Layer bn_k_1_2
I0623 00:04:53.398401  9350 net.cpp:425] bn_k_1_2 <- conv_k_1_1
I0623 00:04:53.398414  9350 net.cpp:399] bn_k_1_2 -> bn_k_1_2
I0623 00:04:53.398658  9350 net.cpp:141] Setting up bn_k_1_2
I0623 00:04:53.398674  9350 net.cpp:148] Top shape: 100 256 8 8 (1638400)
I0623 00:04:53.398679  9350 net.cpp:156] Memory required for data: 4051354800
I0623 00:04:53.398707  9350 layer_factory.hpp:77] Creating layer sc_k_1_2
I0623 00:04:53.398718  9350 net.cpp:91] Creating Layer sc_k_1_2
I0623 00:04:53.398727  9350 net.cpp:425] sc_k_1_2 <- bn_k_1_2
I0623 00:04:53.398737  9350 net.cpp:399] sc_k_1_2 -> sc_k_1_2
I0623 00:04:53.398799  9350 layer_factory.hpp:77] Creating layer sc_k_1_2
I0623 00:04:53.398944  9350 net.cpp:141] Setting up sc_k_1_2
I0623 00:04:53.398958  9350 net.cpp:148] Top shape: 100 256 8 8 (1638400)
I0623 00:04:53.398967  9350 net.cpp:156] Memory required for data: 4057908400
I0623 00:04:53.398993  9350 layer_factory.hpp:77] Creating layer relu_k_1_2
I0623 00:04:53.399003  9350 net.cpp:91] Creating Layer relu_k_1_2
I0623 00:04:53.399015  9350 net.cpp:425] relu_k_1_2 <- sc_k_1_2
I0623 00:04:53.399024  9350 net.cpp:399] relu_k_1_2 -> relu_k_1_2
I0623 00:04:53.399298  9350 net.cpp:141] Setting up relu_k_1_2
I0623 00:04:53.399317  9350 net.cpp:148] Top shape: 100 256 8 8 (1638400)
I0623 00:04:53.399324  9350 net.cpp:156] Memory required for data: 4064462000
I0623 00:04:53.399332  9350 layer_factory.hpp:77] Creating layer conv_k_1_2
I0623 00:04:53.399346  9350 net.cpp:91] Creating Layer conv_k_1_2
I0623 00:04:53.399355  9350 net.cpp:425] conv_k_1_2 <- relu_k_1_2
I0623 00:04:53.399365  9350 net.cpp:399] conv_k_1_2 -> conv_k_1_2
I0623 00:04:53.420738  9350 net.cpp:141] Setting up conv_k_1_2
I0623 00:04:53.420759  9350 net.cpp:148] Top shape: 100 256 8 8 (1638400)
I0623 00:04:53.420766  9350 net.cpp:156] Memory required for data: 4071015600
I0623 00:04:53.420776  9350 layer_factory.hpp:77] Creating layer res_k
I0623 00:04:53.420794  9350 net.cpp:91] Creating Layer res_k
I0623 00:04:53.420801  9350 net.cpp:425] res_k <- elt_e_h_elt_e_h_0_split_1
I0623 00:04:53.420814  9350 net.cpp:399] res_k -> res_k
I0623 00:04:53.423372  9350 net.cpp:141] Setting up res_k
I0623 00:04:53.423393  9350 net.cpp:148] Top shape: 100 256 8 8 (1638400)
I0623 00:04:53.423399  9350 net.cpp:156] Memory required for data: 4077569200
I0623 00:04:53.423409  9350 layer_factory.hpp:77] Creating layer elt_k_1
I0623 00:04:53.423423  9350 net.cpp:91] Creating Layer elt_k_1
I0623 00:04:53.423429  9350 net.cpp:425] elt_k_1 <- res_k
I0623 00:04:53.423437  9350 net.cpp:425] elt_k_1 <- conv_k_1_2
I0623 00:04:53.423451  9350 net.cpp:399] elt_k_1 -> elt_k_1
I0623 00:04:53.423496  9350 net.cpp:141] Setting up elt_k_1
I0623 00:04:53.423509  9350 net.cpp:148] Top shape: 100 256 8 8 (1638400)
I0623 00:04:53.423514  9350 net.cpp:156] Memory required for data: 4084122800
I0623 00:04:53.423521  9350 layer_factory.hpp:77] Creating layer elt_k_1_elt_k_1_0_split
I0623 00:04:53.423529  9350 net.cpp:91] Creating Layer elt_k_1_elt_k_1_0_split
I0623 00:04:53.423538  9350 net.cpp:425] elt_k_1_elt_k_1_0_split <- elt_k_1
I0623 00:04:53.423549  9350 net.cpp:399] elt_k_1_elt_k_1_0_split -> elt_k_1_elt_k_1_0_split_0
I0623 00:04:53.423563  9350 net.cpp:399] elt_k_1_elt_k_1_0_split -> elt_k_1_elt_k_1_0_split_1
I0623 00:04:53.423612  9350 net.cpp:141] Setting up elt_k_1_elt_k_1_0_split
I0623 00:04:53.423627  9350 net.cpp:148] Top shape: 100 256 8 8 (1638400)
I0623 00:04:53.423636  9350 net.cpp:148] Top shape: 100 256 8 8 (1638400)
I0623 00:04:53.423642  9350 net.cpp:156] Memory required for data: 4097230000
I0623 00:04:53.423648  9350 layer_factory.hpp:77] Creating layer bn_k_2_1
I0623 00:04:53.423658  9350 net.cpp:91] Creating Layer bn_k_2_1
I0623 00:04:53.423666  9350 net.cpp:425] bn_k_2_1 <- elt_k_1_elt_k_1_0_split_0
I0623 00:04:53.423677  9350 net.cpp:399] bn_k_2_1 -> bn_k_2_1
I0623 00:04:53.423919  9350 net.cpp:141] Setting up bn_k_2_1
I0623 00:04:53.423933  9350 net.cpp:148] Top shape: 100 256 8 8 (1638400)
I0623 00:04:53.423939  9350 net.cpp:156] Memory required for data: 4103783600
I0623 00:04:53.423951  9350 layer_factory.hpp:77] Creating layer sc_k_2_1
I0623 00:04:53.423965  9350 net.cpp:91] Creating Layer sc_k_2_1
I0623 00:04:53.423974  9350 net.cpp:425] sc_k_2_1 <- bn_k_2_1
I0623 00:04:53.423982  9350 net.cpp:399] sc_k_2_1 -> sc_k_2_1
I0623 00:04:53.424046  9350 layer_factory.hpp:77] Creating layer sc_k_2_1
I0623 00:04:53.424190  9350 net.cpp:141] Setting up sc_k_2_1
I0623 00:04:53.424203  9350 net.cpp:148] Top shape: 100 256 8 8 (1638400)
I0623 00:04:53.424211  9350 net.cpp:156] Memory required for data: 4110337200
I0623 00:04:53.424221  9350 layer_factory.hpp:77] Creating layer relu_k_2_1
I0623 00:04:53.424232  9350 net.cpp:91] Creating Layer relu_k_2_1
I0623 00:04:53.424239  9350 net.cpp:425] relu_k_2_1 <- sc_k_2_1
I0623 00:04:53.424250  9350 net.cpp:399] relu_k_2_1 -> relu_k_2_1
I0623 00:04:53.424839  9350 net.cpp:141] Setting up relu_k_2_1
I0623 00:04:53.424878  9350 net.cpp:148] Top shape: 100 256 8 8 (1638400)
I0623 00:04:53.424887  9350 net.cpp:156] Memory required for data: 4116890800
I0623 00:04:53.424895  9350 layer_factory.hpp:77] Creating layer conv_k_2_1
I0623 00:04:53.424911  9350 net.cpp:91] Creating Layer conv_k_2_1
I0623 00:04:53.424921  9350 net.cpp:425] conv_k_2_1 <- relu_k_2_1
I0623 00:04:53.424932  9350 net.cpp:399] conv_k_2_1 -> conv_k_2_1
I0623 00:04:53.446213  9350 net.cpp:141] Setting up conv_k_2_1
I0623 00:04:53.446233  9350 net.cpp:148] Top shape: 100 256 8 8 (1638400)
I0623 00:04:53.446239  9350 net.cpp:156] Memory required for data: 4123444400
I0623 00:04:53.446249  9350 layer_factory.hpp:77] Creating layer bn_k_2_2
I0623 00:04:53.446264  9350 net.cpp:91] Creating Layer bn_k_2_2
I0623 00:04:53.446270  9350 net.cpp:425] bn_k_2_2 <- conv_k_2_1
I0623 00:04:53.446286  9350 net.cpp:399] bn_k_2_2 -> bn_k_2_2
I0623 00:04:53.446533  9350 net.cpp:141] Setting up bn_k_2_2
I0623 00:04:53.446548  9350 net.cpp:148] Top shape: 100 256 8 8 (1638400)
I0623 00:04:53.446554  9350 net.cpp:156] Memory required for data: 4129998000
I0623 00:04:53.446565  9350 layer_factory.hpp:77] Creating layer sc_k_2_2
I0623 00:04:53.446579  9350 net.cpp:91] Creating Layer sc_k_2_2
I0623 00:04:53.446589  9350 net.cpp:425] sc_k_2_2 <- bn_k_2_2
I0623 00:04:53.446599  9350 net.cpp:399] sc_k_2_2 -> sc_k_2_2
I0623 00:04:53.446662  9350 layer_factory.hpp:77] Creating layer sc_k_2_2
I0623 00:04:53.446825  9350 net.cpp:141] Setting up sc_k_2_2
I0623 00:04:53.446841  9350 net.cpp:148] Top shape: 100 256 8 8 (1638400)
I0623 00:04:53.446846  9350 net.cpp:156] Memory required for data: 4136551600
I0623 00:04:53.446856  9350 layer_factory.hpp:77] Creating layer relu_k_2_2
I0623 00:04:53.446869  9350 net.cpp:91] Creating Layer relu_k_2_2
I0623 00:04:53.446878  9350 net.cpp:425] relu_k_2_2 <- sc_k_2_2
I0623 00:04:53.446889  9350 net.cpp:399] relu_k_2_2 -> relu_k_2_2
I0623 00:04:53.447320  9350 net.cpp:141] Setting up relu_k_2_2
I0623 00:04:53.447337  9350 net.cpp:148] Top shape: 100 256 8 8 (1638400)
I0623 00:04:53.447343  9350 net.cpp:156] Memory required for data: 4143105200
I0623 00:04:53.447350  9350 layer_factory.hpp:77] Creating layer conv_k_2_2
I0623 00:04:53.447366  9350 net.cpp:91] Creating Layer conv_k_2_2
I0623 00:04:53.447374  9350 net.cpp:425] conv_k_2_2 <- relu_k_2_2
I0623 00:04:53.447387  9350 net.cpp:399] conv_k_2_2 -> conv_k_2_2
I0623 00:04:53.468818  9350 net.cpp:141] Setting up conv_k_2_2
I0623 00:04:53.468838  9350 net.cpp:148] Top shape: 100 256 8 8 (1638400)
I0623 00:04:53.468845  9350 net.cpp:156] Memory required for data: 4149658800
I0623 00:04:53.468857  9350 layer_factory.hpp:77] Creating layer elt_k_2
I0623 00:04:53.468869  9350 net.cpp:91] Creating Layer elt_k_2
I0623 00:04:53.468876  9350 net.cpp:425] elt_k_2 <- elt_k_1_elt_k_1_0_split_1
I0623 00:04:53.468885  9350 net.cpp:425] elt_k_2 <- conv_k_2_2
I0623 00:04:53.468894  9350 net.cpp:399] elt_k_2 -> elt_k_2
I0623 00:04:53.468935  9350 net.cpp:141] Setting up elt_k_2
I0623 00:04:53.468948  9350 net.cpp:148] Top shape: 100 256 8 8 (1638400)
I0623 00:04:53.468955  9350 net.cpp:156] Memory required for data: 4156212400
I0623 00:04:53.468961  9350 layer_factory.hpp:77] Creating layer bn_l_1_1
I0623 00:04:53.468971  9350 net.cpp:91] Creating Layer bn_l_1_1
I0623 00:04:53.468981  9350 net.cpp:425] bn_l_1_1 <- elt_g_i_elt_g_i_0_split_0
I0623 00:04:53.468989  9350 net.cpp:399] bn_l_1_1 -> bn_l_1_1
I0623 00:04:53.469234  9350 net.cpp:141] Setting up bn_l_1_1
I0623 00:04:53.469249  9350 net.cpp:148] Top shape: 100 128 16 16 (3276800)
I0623 00:04:53.469254  9350 net.cpp:156] Memory required for data: 4169319600
I0623 00:04:53.469265  9350 layer_factory.hpp:77] Creating layer sc_l_1_1
I0623 00:04:53.469275  9350 net.cpp:91] Creating Layer sc_l_1_1
I0623 00:04:53.469281  9350 net.cpp:425] sc_l_1_1 <- bn_l_1_1
I0623 00:04:53.469290  9350 net.cpp:399] sc_l_1_1 -> sc_l_1_1
I0623 00:04:53.469352  9350 layer_factory.hpp:77] Creating layer sc_l_1_1
I0623 00:04:53.469490  9350 net.cpp:141] Setting up sc_l_1_1
I0623 00:04:53.469519  9350 net.cpp:148] Top shape: 100 128 16 16 (3276800)
I0623 00:04:53.469528  9350 net.cpp:156] Memory required for data: 4182426800
I0623 00:04:53.469539  9350 layer_factory.hpp:77] Creating layer relu_l_1_1
I0623 00:04:53.469549  9350 net.cpp:91] Creating Layer relu_l_1_1
I0623 00:04:53.469555  9350 net.cpp:425] relu_l_1_1 <- sc_l_1_1
I0623 00:04:53.469570  9350 net.cpp:399] relu_l_1_1 -> relu_l_1_1
I0623 00:04:53.469841  9350 net.cpp:141] Setting up relu_l_1_1
I0623 00:04:53.469857  9350 net.cpp:148] Top shape: 100 128 16 16 (3276800)
I0623 00:04:53.469864  9350 net.cpp:156] Memory required for data: 4195534000
I0623 00:04:53.469871  9350 layer_factory.hpp:77] Creating layer conv_l_1_1
I0623 00:04:53.469888  9350 net.cpp:91] Creating Layer conv_l_1_1
I0623 00:04:53.469897  9350 net.cpp:425] conv_l_1_1 <- relu_l_1_1
I0623 00:04:53.469909  9350 net.cpp:399] conv_l_1_1 -> conv_l_1_1
I0623 00:04:53.481417  9350 net.cpp:141] Setting up conv_l_1_1
I0623 00:04:53.481437  9350 net.cpp:148] Top shape: 100 256 8 8 (1638400)
I0623 00:04:53.481444  9350 net.cpp:156] Memory required for data: 4202087600
I0623 00:04:53.481456  9350 layer_factory.hpp:77] Creating layer bn_l_1_2
I0623 00:04:53.481468  9350 net.cpp:91] Creating Layer bn_l_1_2
I0623 00:04:53.481479  9350 net.cpp:425] bn_l_1_2 <- conv_l_1_1
I0623 00:04:53.481489  9350 net.cpp:399] bn_l_1_2 -> bn_l_1_2
I0623 00:04:53.481742  9350 net.cpp:141] Setting up bn_l_1_2
I0623 00:04:53.481758  9350 net.cpp:148] Top shape: 100 256 8 8 (1638400)
I0623 00:04:53.481763  9350 net.cpp:156] Memory required for data: 4208641200
I0623 00:04:53.481775  9350 layer_factory.hpp:77] Creating layer sc_l_1_2
I0623 00:04:53.481789  9350 net.cpp:91] Creating Layer sc_l_1_2
I0623 00:04:53.481798  9350 net.cpp:425] sc_l_1_2 <- bn_l_1_2
I0623 00:04:53.481807  9350 net.cpp:399] sc_l_1_2 -> sc_l_1_2
I0623 00:04:53.481870  9350 layer_factory.hpp:77] Creating layer sc_l_1_2
I0623 00:04:53.482015  9350 net.cpp:141] Setting up sc_l_1_2
I0623 00:04:53.482029  9350 net.cpp:148] Top shape: 100 256 8 8 (1638400)
I0623 00:04:53.482038  9350 net.cpp:156] Memory required for data: 4215194800
I0623 00:04:53.482048  9350 layer_factory.hpp:77] Creating layer relu_l_1_2
I0623 00:04:53.482060  9350 net.cpp:91] Creating Layer relu_l_1_2
I0623 00:04:53.482069  9350 net.cpp:425] relu_l_1_2 <- sc_l_1_2
I0623 00:04:53.482076  9350 net.cpp:399] relu_l_1_2 -> relu_l_1_2
I0623 00:04:53.482497  9350 net.cpp:141] Setting up relu_l_1_2
I0623 00:04:53.482517  9350 net.cpp:148] Top shape: 100 256 8 8 (1638400)
I0623 00:04:53.482525  9350 net.cpp:156] Memory required for data: 4221748400
I0623 00:04:53.482532  9350 layer_factory.hpp:77] Creating layer conv_l_1_2
I0623 00:04:53.482547  9350 net.cpp:91] Creating Layer conv_l_1_2
I0623 00:04:53.482556  9350 net.cpp:425] conv_l_1_2 <- relu_l_1_2
I0623 00:04:53.482568  9350 net.cpp:399] conv_l_1_2 -> conv_l_1_2
I0623 00:04:53.503847  9350 net.cpp:141] Setting up conv_l_1_2
I0623 00:04:53.503867  9350 net.cpp:148] Top shape: 100 256 8 8 (1638400)
I0623 00:04:53.503875  9350 net.cpp:156] Memory required for data: 4228302000
I0623 00:04:53.503885  9350 layer_factory.hpp:77] Creating layer res_l
I0623 00:04:53.503902  9350 net.cpp:91] Creating Layer res_l
I0623 00:04:53.503911  9350 net.cpp:425] res_l <- elt_g_i_elt_g_i_0_split_1
I0623 00:04:53.503923  9350 net.cpp:399] res_l -> res_l
I0623 00:04:53.506476  9350 net.cpp:141] Setting up res_l
I0623 00:04:53.506495  9350 net.cpp:148] Top shape: 100 256 8 8 (1638400)
I0623 00:04:53.506502  9350 net.cpp:156] Memory required for data: 4234855600
I0623 00:04:53.506512  9350 layer_factory.hpp:77] Creating layer elt_l_1
I0623 00:04:53.506522  9350 net.cpp:91] Creating Layer elt_l_1
I0623 00:04:53.506530  9350 net.cpp:425] elt_l_1 <- res_l
I0623 00:04:53.506537  9350 net.cpp:425] elt_l_1 <- conv_l_1_2
I0623 00:04:53.506549  9350 net.cpp:399] elt_l_1 -> elt_l_1
I0623 00:04:53.506587  9350 net.cpp:141] Setting up elt_l_1
I0623 00:04:53.506600  9350 net.cpp:148] Top shape: 100 256 8 8 (1638400)
I0623 00:04:53.506606  9350 net.cpp:156] Memory required for data: 4241409200
I0623 00:04:53.506631  9350 layer_factory.hpp:77] Creating layer elt_l_1_elt_l_1_0_split
I0623 00:04:53.506645  9350 net.cpp:91] Creating Layer elt_l_1_elt_l_1_0_split
I0623 00:04:53.506654  9350 net.cpp:425] elt_l_1_elt_l_1_0_split <- elt_l_1
I0623 00:04:53.506662  9350 net.cpp:399] elt_l_1_elt_l_1_0_split -> elt_l_1_elt_l_1_0_split_0
I0623 00:04:53.506680  9350 net.cpp:399] elt_l_1_elt_l_1_0_split -> elt_l_1_elt_l_1_0_split_1
I0623 00:04:53.506759  9350 net.cpp:141] Setting up elt_l_1_elt_l_1_0_split
I0623 00:04:53.506773  9350 net.cpp:148] Top shape: 100 256 8 8 (1638400)
I0623 00:04:53.506781  9350 net.cpp:148] Top shape: 100 256 8 8 (1638400)
I0623 00:04:53.506786  9350 net.cpp:156] Memory required for data: 4254516400
I0623 00:04:53.506793  9350 layer_factory.hpp:77] Creating layer bn_l_2_1
I0623 00:04:53.506804  9350 net.cpp:91] Creating Layer bn_l_2_1
I0623 00:04:53.506813  9350 net.cpp:425] bn_l_2_1 <- elt_l_1_elt_l_1_0_split_0
I0623 00:04:53.506822  9350 net.cpp:399] bn_l_2_1 -> bn_l_2_1
I0623 00:04:53.507067  9350 net.cpp:141] Setting up bn_l_2_1
I0623 00:04:53.507081  9350 net.cpp:148] Top shape: 100 256 8 8 (1638400)
I0623 00:04:53.507088  9350 net.cpp:156] Memory required for data: 4261070000
I0623 00:04:53.507102  9350 layer_factory.hpp:77] Creating layer sc_l_2_1
I0623 00:04:53.507112  9350 net.cpp:91] Creating Layer sc_l_2_1
I0623 00:04:53.507120  9350 net.cpp:425] sc_l_2_1 <- bn_l_2_1
I0623 00:04:53.507133  9350 net.cpp:399] sc_l_2_1 -> sc_l_2_1
I0623 00:04:53.507194  9350 layer_factory.hpp:77] Creating layer sc_l_2_1
I0623 00:04:53.507344  9350 net.cpp:141] Setting up sc_l_2_1
I0623 00:04:53.507357  9350 net.cpp:148] Top shape: 100 256 8 8 (1638400)
I0623 00:04:53.507364  9350 net.cpp:156] Memory required for data: 4267623600
I0623 00:04:53.507375  9350 layer_factory.hpp:77] Creating layer relu_l_2_1
I0623 00:04:53.507385  9350 net.cpp:91] Creating Layer relu_l_2_1
I0623 00:04:53.507392  9350 net.cpp:425] relu_l_2_1 <- sc_l_2_1
I0623 00:04:53.507400  9350 net.cpp:399] relu_l_2_1 -> relu_l_2_1
I0623 00:04:53.507835  9350 net.cpp:141] Setting up relu_l_2_1
I0623 00:04:53.507853  9350 net.cpp:148] Top shape: 100 256 8 8 (1638400)
I0623 00:04:53.507860  9350 net.cpp:156] Memory required for data: 4274177200
I0623 00:04:53.507866  9350 layer_factory.hpp:77] Creating layer conv_l_2_1
I0623 00:04:53.507882  9350 net.cpp:91] Creating Layer conv_l_2_1
I0623 00:04:53.507891  9350 net.cpp:425] conv_l_2_1 <- relu_l_2_1
I0623 00:04:53.507905  9350 net.cpp:399] conv_l_2_1 -> conv_l_2_1
I0623 00:04:53.529193  9350 net.cpp:141] Setting up conv_l_2_1
I0623 00:04:53.529213  9350 net.cpp:148] Top shape: 100 256 8 8 (1638400)
I0623 00:04:53.529220  9350 net.cpp:156] Memory required for data: 4280730800
I0623 00:04:53.529230  9350 layer_factory.hpp:77] Creating layer bn_l_2_2
I0623 00:04:53.529243  9350 net.cpp:91] Creating Layer bn_l_2_2
I0623 00:04:53.529252  9350 net.cpp:425] bn_l_2_2 <- conv_l_2_1
I0623 00:04:53.529260  9350 net.cpp:399] bn_l_2_2 -> bn_l_2_2
I0623 00:04:53.529517  9350 net.cpp:141] Setting up bn_l_2_2
I0623 00:04:53.529531  9350 net.cpp:148] Top shape: 100 256 8 8 (1638400)
I0623 00:04:53.529537  9350 net.cpp:156] Memory required for data: 4287284400
I0623 00:04:53.529549  9350 layer_factory.hpp:77] Creating layer sc_l_2_2
I0623 00:04:53.529559  9350 net.cpp:91] Creating Layer sc_l_2_2
I0623 00:04:53.529566  9350 net.cpp:425] sc_l_2_2 <- bn_l_2_2
I0623 00:04:53.529577  9350 net.cpp:399] sc_l_2_2 -> sc_l_2_2
I0623 00:04:53.529638  9350 layer_factory.hpp:77] Creating layer sc_l_2_2
I0623 00:04:53.529786  9350 net.cpp:141] Setting up sc_l_2_2
I0623 00:04:53.529800  9350 net.cpp:148] Top shape: 100 256 8 8 (1638400)
I0623 00:04:53.529806  9350 net.cpp:156] Memory required for data: 4293838000
I0623 00:04:53.529815  9350 layer_factory.hpp:77] Creating layer relu_l_2_2
I0623 00:04:53.529827  9350 net.cpp:91] Creating Layer relu_l_2_2
I0623 00:04:53.529837  9350 net.cpp:425] relu_l_2_2 <- sc_l_2_2
I0623 00:04:53.529846  9350 net.cpp:399] relu_l_2_2 -> relu_l_2_2
I0623 00:04:53.530275  9350 net.cpp:141] Setting up relu_l_2_2
I0623 00:04:53.530313  9350 net.cpp:148] Top shape: 100 256 8 8 (1638400)
I0623 00:04:53.530319  9350 net.cpp:156] Memory required for data: 4300391600
I0623 00:04:53.530326  9350 layer_factory.hpp:77] Creating layer conv_l_2_2
I0623 00:04:53.530344  9350 net.cpp:91] Creating Layer conv_l_2_2
I0623 00:04:53.530350  9350 net.cpp:425] conv_l_2_2 <- relu_l_2_2
I0623 00:04:53.530361  9350 net.cpp:399] conv_l_2_2 -> conv_l_2_2
I0623 00:04:53.551837  9350 net.cpp:141] Setting up conv_l_2_2
I0623 00:04:53.551858  9350 net.cpp:148] Top shape: 100 256 8 8 (1638400)
I0623 00:04:53.551865  9350 net.cpp:156] Memory required for data: 4306945200
I0623 00:04:53.551875  9350 layer_factory.hpp:77] Creating layer elt_l_2
I0623 00:04:53.551885  9350 net.cpp:91] Creating Layer elt_l_2
I0623 00:04:53.551893  9350 net.cpp:425] elt_l_2 <- elt_l_1_elt_l_1_0_split_1
I0623 00:04:53.551901  9350 net.cpp:425] elt_l_2 <- conv_l_2_2
I0623 00:04:53.551913  9350 net.cpp:399] elt_l_2 -> elt_l_2
I0623 00:04:53.551954  9350 net.cpp:141] Setting up elt_l_2
I0623 00:04:53.551969  9350 net.cpp:148] Top shape: 100 256 8 8 (1638400)
I0623 00:04:53.551975  9350 net.cpp:156] Memory required for data: 4313498800
I0623 00:04:53.551980  9350 layer_factory.hpp:77] Creating layer elt_j_k_l
I0623 00:04:53.551990  9350 net.cpp:91] Creating Layer elt_j_k_l
I0623 00:04:53.552000  9350 net.cpp:425] elt_j_k_l <- elt_j_2
I0623 00:04:53.552007  9350 net.cpp:425] elt_j_k_l <- elt_k_2
I0623 00:04:53.552013  9350 net.cpp:425] elt_j_k_l <- elt_l_2
I0623 00:04:53.552024  9350 net.cpp:399] elt_j_k_l -> elt_j_k_l
I0623 00:04:53.552062  9350 net.cpp:141] Setting up elt_j_k_l
I0623 00:04:53.552078  9350 net.cpp:148] Top shape: 100 256 8 8 (1638400)
I0623 00:04:53.552084  9350 net.cpp:156] Memory required for data: 4320052400
I0623 00:04:53.552090  9350 layer_factory.hpp:77] Creating layer bn_m_1_1
I0623 00:04:53.552100  9350 net.cpp:91] Creating Layer bn_m_1_1
I0623 00:04:53.552110  9350 net.cpp:425] bn_m_1_1 <- elt_j_k_l
I0623 00:04:53.552122  9350 net.cpp:399] bn_m_1_1 -> bn_m_1_1
I0623 00:04:53.552372  9350 net.cpp:141] Setting up bn_m_1_1
I0623 00:04:53.552386  9350 net.cpp:148] Top shape: 100 256 8 8 (1638400)
I0623 00:04:53.552393  9350 net.cpp:156] Memory required for data: 4326606000
I0623 00:04:53.552405  9350 layer_factory.hpp:77] Creating layer sc_m_1_1
I0623 00:04:53.552418  9350 net.cpp:91] Creating Layer sc_m_1_1
I0623 00:04:53.552426  9350 net.cpp:425] sc_m_1_1 <- bn_m_1_1
I0623 00:04:53.552435  9350 net.cpp:399] sc_m_1_1 -> sc_m_1_1
I0623 00:04:53.552496  9350 layer_factory.hpp:77] Creating layer sc_m_1_1
I0623 00:04:53.552649  9350 net.cpp:141] Setting up sc_m_1_1
I0623 00:04:53.552664  9350 net.cpp:148] Top shape: 100 256 8 8 (1638400)
I0623 00:04:53.552670  9350 net.cpp:156] Memory required for data: 4333159600
I0623 00:04:53.552680  9350 layer_factory.hpp:77] Creating layer relu_m_1_1
I0623 00:04:53.552729  9350 net.cpp:91] Creating Layer relu_m_1_1
I0623 00:04:53.552741  9350 net.cpp:425] relu_m_1_1 <- sc_m_1_1
I0623 00:04:53.552749  9350 net.cpp:399] relu_m_1_1 -> relu_m_1_1
I0623 00:04:53.553189  9350 net.cpp:141] Setting up relu_m_1_1
I0623 00:04:53.553205  9350 net.cpp:148] Top shape: 100 256 8 8 (1638400)
I0623 00:04:53.553211  9350 net.cpp:156] Memory required for data: 4339713200
I0623 00:04:53.553218  9350 layer_factory.hpp:77] Creating layer gap
I0623 00:04:53.553231  9350 net.cpp:91] Creating Layer gap
I0623 00:04:53.553239  9350 net.cpp:425] gap <- relu_m_1_1
I0623 00:04:53.553248  9350 net.cpp:399] gap -> gap
I0623 00:04:53.553663  9350 net.cpp:141] Setting up gap
I0623 00:04:53.553680  9350 net.cpp:148] Top shape: 100 256 1 1 (25600)
I0623 00:04:53.553688  9350 net.cpp:156] Memory required for data: 4339815600
I0623 00:04:53.553694  9350 layer_factory.hpp:77] Creating layer ip1
I0623 00:04:53.553706  9350 net.cpp:91] Creating Layer ip1
I0623 00:04:53.553714  9350 net.cpp:425] ip1 <- gap
I0623 00:04:53.553722  9350 net.cpp:399] ip1 -> ip1
I0623 00:04:53.553992  9350 net.cpp:141] Setting up ip1
I0623 00:04:53.554024  9350 net.cpp:148] Top shape: 100 10 (1000)
I0623 00:04:53.554031  9350 net.cpp:156] Memory required for data: 4339819600
I0623 00:04:53.554042  9350 layer_factory.hpp:77] Creating layer ip1_ip1_0_split
I0623 00:04:53.554051  9350 net.cpp:91] Creating Layer ip1_ip1_0_split
I0623 00:04:53.554057  9350 net.cpp:425] ip1_ip1_0_split <- ip1
I0623 00:04:53.554066  9350 net.cpp:399] ip1_ip1_0_split -> ip1_ip1_0_split_0
I0623 00:04:53.554076  9350 net.cpp:399] ip1_ip1_0_split -> ip1_ip1_0_split_1
I0623 00:04:53.554127  9350 net.cpp:141] Setting up ip1_ip1_0_split
I0623 00:04:53.554141  9350 net.cpp:148] Top shape: 100 10 (1000)
I0623 00:04:53.554148  9350 net.cpp:148] Top shape: 100 10 (1000)
I0623 00:04:53.554153  9350 net.cpp:156] Memory required for data: 4339827600
I0623 00:04:53.554159  9350 layer_factory.hpp:77] Creating layer accuracy
I0623 00:04:53.554170  9350 net.cpp:91] Creating Layer accuracy
I0623 00:04:53.554177  9350 net.cpp:425] accuracy <- ip1_ip1_0_split_0
I0623 00:04:53.554184  9350 net.cpp:425] accuracy <- label_resnet_1_split_0
I0623 00:04:53.554193  9350 net.cpp:399] accuracy -> accuracy
…
