…
I0621 13:40:01.031385 22964 net.cpp:313] The NetState phase (0) differed from the phase (1) specified by a rule in layer accuracy
I0621 13:40:01.032177 22964 net.cpp:49] Initializing net from parameters: 
name: "ResNet"
state {
  phase: TRAIN
}
layer {
  name: "resnet"
  type: "Data"
  top: "data"
  top: "label"
  include {
    phase: TRAIN
  }
  transform_param {
    mean_file: "/home/takeki/caffe/examples/cifar10/mean.binaryproto"
  }
  data_param {
    source: "/home/takeki/caffe/examples/cifar10/cifar10_train_lmdb"
    batch_size: 128
    backend: LMDB
  }
}
layer {
  name: "conv0"
  type: "Convolution"
  bottom: "data"
  top: "conv0"
  param {
    lr_mult: 1
  }
  param {
    lr_mult: 2
  }
  convolution_param {
    num_output: 16
    pad: 1
    kernel_size: 3
    stride: 1
    weight_filler {
      type: "msra"
    }
    bias_filler {
      type: "constant"
    }
  }
}
layer {
  name: "bn_a_1_1"
  type: "BatchNorm"
  bottom: "conv0"
  top: "bn_a_1_1"
  param {
    lr_mult: 0
  }
  param {
    lr_mult: 0
  }
  param {
    lr_mult: 0
  }
  batch_norm_param {
    use_global_stats: false
  }
}
layer {
  name: "sc_a_1_1"
  type: "Scale"
  bottom: "bn_a_1_1"
  top: "sc_a_1_1"
  scale_param {
    bias_term: true
  }
}
layer {
  name: "relu_a_1_1"
  type: "ReLU"
  bottom: "sc_a_1_1"
  top: "relu_a_1_1"
}
layer {
  name: "conv_a_1_1"
  type: "Convolution"
  bottom: "relu_a_1_1"
  top: "conv_a_1_1"
  param {
    lr_mult: 1
    decay_mult: 1
  }
  param {
    lr_mult: 2
    decay_mult: 1
  }
  convolution_param {
    num_output: 64
    pad: 1
    kernel_size: 3
    stride: 1
    weight_filler {
      type: "msra"
    }
    bias_filler {
      type: "constant"
    }
  }
}
layer {
  name: "bn_a_1_2"
  type: "BatchNorm"
  bottom: "conv_a_1_1"
  top: "bn_a_1_2"
  param {
    lr_mult: 0
  }
  param {
    lr_mult: 0
  }
  param {
    lr_mult: 0
  }
  batch_norm_param {
    use_global_stats: false
  }
}
layer {
  name: "sc_a_1_2"
  type: "Scale"
  bottom: "bn_a_1_2"
  top: "sc_a_1_2"
  scale_param {
    bias_term: true
  }
}
layer {
  name: "relu_a_1_2"
  type: "ReLU"
  bottom: "sc_a_1_2"
  top: "relu_a_1_2"
}
layer {
  name: "conv_a_1_2"
  type: "Convolution"
  bottom: "relu_a_1_2"
  top: "conv_a_1_2"
  param {
    lr_mult: 1
    decay_mult: 1
  }
  param {
    lr_mult: 2
    decay_mult: 1
  }
  convolution_param {
    num_output: 64
    pad: 1
    kernel_size: 3
    stride: 1
    weight_filler {
      type: "msra"
    }
    bias_filler {
      type: "constant"
    }
  }
}
layer {
  name: "res_a"
  type: "Convolution"
  bottom: "conv0"
  top: "res_a"
  param {
    lr_mult: 1
    decay_mult: 1
  }
  param {
    lr_mult: 2
    decay_mult: 1
  }
  convolution_param {
    num_output: 64
    pad: 0
    kernel_size: 1
    stride: 1
    weight_filler {
      type: "msra"
    }
    bias_filler {
      type: "constant"
    }
  }
}
layer {
  name: "elt_a_1"
  type: "Eltwise"
  bottom: "res_a"
  bottom: "conv_a_1_2"
  top: "elt_a_1"
  eltwise_param {
    operation: SUM
  }
}
layer {
  name: "bn_b_1_1"
  type: "BatchNorm"
  bottom: "conv0"
  top: "bn_b_1_1"
  param {
    lr_mult: 0
  }
  param {
    lr_mult: 0
  }
  param {
    lr_mult: 0
  }
  batch_norm_param {
    use_global_stats: false
  }
}
layer {
  name: "sc_b_1_1"
  type: "Scale"
  bottom: "bn_b_1_1"
  top: "sc_b_1_1"
  scale_param {
    bias_term: true
  }
}
layer {
  name: "relu_b_1_1"
  type: "ReLU"
  bottom: "sc_b_1_1"
  top: "relu_b_1_1"
}
layer {
  name: "conv_b_1_1"
  type: "Convolution"
  bottom: "relu_b_1_1"
  top: "conv_b_1_1"
  param {
    lr_mult: 1
    decay_mult: 1
  }
  param {
    lr_mult: 2
    decay_mult: 1
  }
  convolution_param {
    num_output: 64
    pad: 1
    kernel_size: 3
    stride: 1
    weight_filler {
      type: "msra"
    }
    bias_filler {
      type: "constant"
    }
  }
}
layer {
  name: "bn_b_1_2"
  type: "BatchNorm"
  bottom: "conv_b_1_1"
  top: "bn_b_1_2"
  param {
    lr_mult: 0
  }
  param {
    lr_mult: 0
  }
  param {
    lr_mult: 0
  }
  batch_norm_param {
    use_global_stats: false
  }
}
layer {
  name: "sc_b_1_2"
  type: "Scale"
  bottom: "bn_b_1_2"
  top: "sc_b_1_2"
  scale_param {
    bias_term: true
  }
}
layer {
  name: "relu_b_1_2"
  type: "ReLU"
  bottom: "sc_b_1_2"
  top: "relu_b_1_2"
}
layer {
  name: "conv_b_1_2"
  type: "Convolution"
  bottom: "relu_b_1_2"
  top: "conv_b_1_2"
  param {
    lr_mult: 1
    decay_mult: 1
  }
  param {
    lr_mult: 2
    decay_mult: 1
  }
  convolution_param {
    num_output: 64
    pad: 1
    kernel_size: 3
    stride: 1
    weight_filler {
      type: "msra"
    }
    bias_filler {
      type: "constant"
    }
  }
}
layer {
  name: "res_b"
  type: "Convolution"
  bottom: "conv0"
  top: "res_b"
  param {
    lr_mult: 1
    decay_mult: 1
  }
  param {
    lr_mult: 2
    decay_mult: 1
  }
  convolution_param {
    num_output: 64
    pad: 0
    kernel_size: 1
    stride: 1
    weight_filler {
      type: "msra"
    }
    bias_filler {
      type: "constant"
    }
  }
}
layer {
  name: "elt_b_1"
  type: "Eltwise"
  bottom: "res_b"
  bottom: "conv_b_1_2"
  top: "elt_b_1"
  eltwise_param {
    operation: SUM
  }
}
layer {
  name: "bn_c_1_1"
  type: "BatchNorm"
  bottom: "conv0"
  top: "bn_c_1_1"
  param {
    lr_mult: 0
  }
  param {
    lr_mult: 0
  }
  param {
    lr_mult: 0
  }
  batch_norm_param {
    use_global_stats: false
  }
}
layer {
  name: "sc_c_1_1"
  type: "Scale"
  bottom: "bn_c_1_1"
  top: "sc_c_1_1"
  scale_param {
    bias_term: true
  }
}
layer {
  name: "relu_c_1_1"
  type: "ReLU"
  bottom: "sc_c_1_1"
  top: "relu_c_1_1"
}
layer {
  name: "conv_c_1_1"
  type: "Convolution"
  bottom: "relu_c_1_1"
  top: "conv_c_1_1"
  param {
    lr_mult: 1
    decay_mult: 1
  }
  param {
    lr_mult: 2
    decay_mult: 1
  }
  convolution_param {
    num_output: 64
    pad: 1
    kernel_size: 3
    stride: 1
    weight_filler {
      type: "msra"
    }
    bias_filler {
      type: "constant"
    }
  }
}
layer {
  name: "bn_c_1_2"
  type: "BatchNorm"
  bottom: "conv_c_1_1"
  top: "bn_c_1_2"
  param {
    lr_mult: 0
  }
  param {
    lr_mult: 0
  }
  param {
    lr_mult: 0
  }
  batch_norm_param {
    use_global_stats: false
  }
}
layer {
  name: "sc_c_1_2"
  type: "Scale"
  bottom: "bn_c_1_2"
  top: "sc_c_1_2"
  scale_param {
    bias_term: true
  }
}
layer {
  name: "relu_c_1_2"
  type: "ReLU"
  bottom: "sc_c_1_2"
  top: "relu_c_1_2"
}
layer {
  name: "conv_c_1_2"
  type: "Convolution"
  bottom: "relu_c_1_2"
  top: "conv_c_1_2"
  param {
    lr_mult: 1
    decay_mult: 1
  }
  param {
    lr_mult: 2
    decay_mult: 1
  }
  convolution_param {
    num_output: 64
    pad: 1
    kernel_size: 3
    stride: 1
    weight_filler {
      type: "msra"
    }
    bias_filler {
      type: "constant"
    }
  }
}
layer {
  name: "res_c"
  type: "Convolution"
  bottom: "conv0"
  top: "res_c"
  param {
    lr_mult: 1
    decay_mult: 1
  }
  param {
    lr_mult: 2
    decay_mult: 1
  }
  convolution_param {
    num_output: 64
    pad: 0
    kernel_size: 1
    stride: 1
    weight_filler {
      type: "msra"
    }
    bias_filler {
      type: "constant"
    }
  }
}
layer {
  name: "elt_c_1"
  type: "Eltwise"
  bottom: "res_c"
  bottom: "conv_c_1_2"
  top: "elt_c_1"
  eltwise_param {
    operation: SUM
  }
}
layer {
  name: "bn_d_1_1"
  type: "BatchNorm"
  bottom: "elt_a_1"
  top: "bn_d_1_1"
  param {
    lr_mult: 0
  }
  param {
    lr_mult: 0
  }
  param {
    lr_mult: 0
  }
  batch_norm_param {
    use_global_stats: false
  }
}
layer {
  name: "sc_d_1_1"
  type: "Scale"
  bottom: "bn_d_1_1"
  top: "sc_d_1_1"
  scale_param {
    bias_term: true
  }
}
layer {
  name: "relu_d_1_1"
  type: "ReLU"
  bottom: "sc_d_1_1"
  top: "relu_d_1_1"
}
layer {
  name: "conv_d_1_1"
  type: "Convolution"
  bottom: "relu_d_1_1"
  top: "conv_d_1_1"
  param {
    lr_mult: 1
    decay_mult: 1
  }
  param {
    lr_mult: 2
    decay_mult: 1
  }
  convolution_param {
    num_output: 128
    pad: 1
    kernel_size: 3
    stride: 2
    weight_filler {
      type: "msra"
    }
    bias_filler {
      type: "constant"
    }
  }
}
layer {
  name: "bn_d_1_2"
  type: "BatchNorm"
  bottom: "conv_d_1_1"
  top: "bn_d_1_2"
  param {
    lr_mult: 0
  }
  param {
    lr_mult: 0
  }
  param {
    lr_mult: 0
  }
  batch_norm_param {
    use_global_stats: false
  }
}
layer {
  name: "sc_d_1_2"
  type: "Scale"
  bottom: "bn_d_1_2"
  top: "sc_d_1_2"
  scale_param {
    bias_term: true
  }
}
layer {
  name: "relu_d_1_2"
  type: "ReLU"
  bottom: "sc_d_1_2"
  top: "relu_d_1_2"
}
layer {
  name: "conv_d_1_2"
  type: "Convolution"
  bottom: "relu_d_1_2"
  top: "conv_d_1_2"
  param {
    lr_mult: 1
    decay_mult: 1
  }
  param {
    lr_mult: 2
    decay_mult: 1
  }
  convolution_param {
    num_output: 128
    pad: 1
    kernel_size: 3
    stride: 1
    weight_filler {
      type: "msra"
    }
    bias_filler {
      type: "constant"
    }
  }
}
layer {
  name: "res_d"
  type: "Convolution"
  bottom: "elt_a_1"
  top: "res_d"
  param {
    lr_mult: 1
    decay_mult: 1
  }
  param {
    lr_mult: 2
    decay_mult: 1
  }
  convolution_param {
    num_output: 128
    pad: 0
    kernel_size: 1
    stride: 2
    weight_filler {
      type: "msra"
    }
    bias_filler {
      type: "constant"
    }
  }
}
layer {
  name: "elt_d_1"
  type: "Eltwise"
  bottom: "res_d"
  bottom: "conv_d_1_2"
  top: "elt_d_1"
  eltwise_param {
    operation: SUM
  }
}
layer {
  name: "bn_f_1_1"
  type: "BatchNorm"
  bottom: "elt_b_1"
  top: "bn_f_1_1"
  param {
    lr_mult: 0
  }
  param {
    lr_mult: 0
  }
  param {
    lr_mult: 0
  }
  batch_norm_param {
    use_global_stats: false
  }
}
layer {
  name: "sc_f_1_1"
  type: "Scale"
  bottom: "bn_f_1_1"
  top: "sc_f_1_1"
  scale_param {
    bias_term: true
  }
}
layer {
  name: "relu_f_1_1"
  type: "ReLU"
  bottom: "sc_f_1_1"
  top: "relu_f_1_1"
}
layer {
  name: "conv_f_1_1"
  type: "Convolution"
  bottom: "relu_f_1_1"
  top: "conv_f_1_1"
  param {
    lr_mult: 1
    decay_mult: 1
  }
  param {
    lr_mult: 2
    decay_mult: 1
  }
  convolution_param {
    num_output: 128
    pad: 1
    kernel_size: 3
    stride: 2
    weight_filler {
      type: "msra"
    }
    bias_filler {
      type: "constant"
    }
  }
}
layer {
  name: "bn_f_1_2"
  type: "BatchNorm"
  bottom: "conv_f_1_1"
  top: "bn_f_1_2"
  param {
    lr_mult: 0
  }
  param {
    lr_mult: 0
  }
  param {
    lr_mult: 0
  }
  batch_norm_param {
    use_global_stats: false
  }
}
layer {
  name: "sc_f_1_2"
  type: "Scale"
  bottom: "bn_f_1_2"
  top: "sc_f_1_2"
  scale_param {
    bias_term: true
  }
}
layer {
  name: "relu_f_1_2"
  type: "ReLU"
  bottom: "sc_f_1_2"
  top: "relu_f_1_2"
}
layer {
  name: "conv_f_1_2"
  type: "Convolution"
  bottom: "relu_f_1_2"
  top: "conv_f_1_2"
  param {
    lr_mult: 1
    decay_mult: 1
  }
  param {
    lr_mult: 2
    decay_mult: 1
  }
  convolution_param {
    num_output: 128
    pad: 1
    kernel_size: 3
    stride: 1
    weight_filler {
      type: "msra"
    }
    bias_filler {
      type: "constant"
    }
  }
}
layer {
  name: "res_f"
  type: "Convolution"
  bottom: "elt_b_1"
  top: "res_f"
  param {
    lr_mult: 1
    decay_mult: 1
  }
  param {
    lr_mult: 2
    decay_mult: 1
  }
  convolution_param {
    num_output: 128
    pad: 0
    kernel_size: 1
    stride: 2
    weight_filler {
      type: "msra"
    }
    bias_filler {
      type: "constant"
    }
  }
}
layer {
  name: "elt_f_1"
  type: "Eltwise"
  bottom: "res_f"
  bottom: "conv_f_1_2"
  top: "elt_f_1"
  eltwise_param {
    operation: SUM
  }
}
layer {
  name: "bn_g_1_1"
  type: "BatchNorm"
  bottom: "elt_b_1"
  top: "bn_g_1_1"
  param {
    lr_mult: 0
  }
  param {
    lr_mult: 0
  }
  param {
    lr_mult: 0
  }
  batch_norm_param {
    use_global_stats: false
  }
}
layer {
  name: "sc_g_1_1"
  type: "Scale"
  bottom: "bn_g_1_1"
  top: "sc_g_1_1"
  scale_param {
    bias_term: true
  }
}
layer {
  name: "relu_g_1_1"
  type: "ReLU"
  bottom: "sc_g_1_1"
  top: "relu_g_1_1"
}
layer {
  name: "conv_g_1_1"
  type: "Convolution"
  bottom: "relu_g_1_1"
  top: "conv_g_1_1"
  param {
    lr_mult: 1
    decay_mult: 1
  }
  param {
    lr_mult: 2
    decay_mult: 1
  }
  convolution_param {
    num_output: 128
    pad: 1
    kernel_size: 3
    stride: 2
    weight_filler {
      type: "msra"
    }
    bias_filler {
      type: "constant"
    }
  }
}
layer {
  name: "bn_g_1_2"
  type: "BatchNorm"
  bottom: "conv_g_1_1"
  top: "bn_g_1_2"
  param {
    lr_mult: 0
  }
  param {
    lr_mult: 0
  }
  param {
    lr_mult: 0
  }
  batch_norm_param {
    use_global_stats: false
  }
}
layer {
  name: "sc_g_1_2"
  type: "Scale"
  bottom: "bn_g_1_2"
  top: "sc_g_1_2"
  scale_param {
    bias_term: true
  }
}
layer {
  name: "relu_g_1_2"
  type: "ReLU"
  bottom: "sc_g_1_2"
  top: "relu_g_1_2"
}
layer {
  name: "conv_g_1_2"
  type: "Convolution"
  bottom: "relu_g_1_2"
  top: "conv_g_1_2"
  param {
    lr_mult: 1
    decay_mult: 1
  }
  param {
    lr_mult: 2
    decay_mult: 1
  }
  convolution_param {
    num_output: 128
    pad: 1
    kernel_size: 3
    stride: 1
    weight_filler {
      type: "msra"
    }
    bias_filler {
      type: "constant"
    }
  }
}
layer {
  name: "res_g"
  type: "Convolution"
  bottom: "elt_b_1"
  top: "res_g"
  param {
    lr_mult: 1
    decay_mult: 1
  }
  param {
    lr_mult: 2
    decay_mult: 1
  }
  convolution_param {
    num_output: 128
    pad: 0
    kernel_size: 1
    stride: 2
    weight_filler {
      type: "msra"
    }
    bias_filler {
      type: "constant"
    }
  }
}
layer {
  name: "elt_g_1"
  type: "Eltwise"
  bottom: "res_g"
  bottom: "conv_g_1_2"
  top: "elt_g_1"
  eltwise_param {
    operation: SUM
  }
}
layer {
  name: "bn_h_1_1"
  type: "BatchNorm"
  bottom: "elt_c_1"
  top: "bn_h_1_1"
  param {
    lr_mult: 0
  }
  param {
    lr_mult: 0
  }
  param {
    lr_mult: 0
  }
  batch_norm_param {
    use_global_stats: false
  }
}
layer {
  name: "sc_h_1_1"
  type: "Scale"
  bottom: "bn_h_1_1"
  top: "sc_h_1_1"
  scale_param {
    bias_term: true
  }
}
layer {
  name: "relu_h_1_1"
  type: "ReLU"
  bottom: "sc_h_1_1"
  top: "relu_h_1_1"
}
layer {
  name: "conv_h_1_1"
  type: "Convolution"
  bottom: "relu_h_1_1"
  top: "conv_h_1_1"
  param {
    lr_mult: 1
    decay_mult: 1
  }
  param {
    lr_mult: 2
    decay_mult: 1
  }
  convolution_param {
    num_output: 128
    pad: 1
    kernel_size: 3
    stride: 2
    weight_filler {
      type: "msra"
    }
    bias_filler {
      type: "constant"
    }
  }
}
layer {
  name: "bn_h_1_2"
  type: "BatchNorm"
  bottom: "conv_h_1_1"
  top: "bn_h_1_2"
  param {
    lr_mult: 0
  }
  param {
    lr_mult: 0
  }
  param {
    lr_mult: 0
  }
  batch_norm_param {
    use_global_stats: false
  }
}
layer {
  name: "sc_h_1_2"
  type: "Scale"
  bottom: "bn_h_1_2"
  top: "sc_h_1_2"
  scale_param {
    bias_term: true
  }
}
layer {
  name: "relu_h_1_2"
  type: "ReLU"
  bottom: "sc_h_1_2"
  top: "relu_h_1_2"
}
layer {
  name: "conv_h_1_2"
  type: "Convolution"
  bottom: "relu_h_1_2"
  top: "conv_h_1_2"
  param {
    lr_mult: 1
    decay_mult: 1
  }
  param {
    lr_mult: 2
    decay_mult: 1
  }
  convolution_param {
    num_output: 128
    pad: 1
    kernel_size: 3
    stride: 1
    weight_filler {
      type: "msra"
    }
    bias_filler {
      type: "constant"
    }
  }
}
layer {
  name: "res_h"
  type: "Convolution"
  bottom: "elt_c_1"
  top: "res_h"
  param {
    lr_mult: 1
    decay_mult: 1
  }
  param {
    lr_mult: 2
    decay_mult: 1
  }
  convolution_param {
    num_output: 128
    pad: 0
    kernel_size: 1
    stride: 2
    weight_filler {
      type: "msra"
    }
    bias_filler {
      type: "constant"
    }
  }
}
layer {
  name: "elt_h_1"
  type: "Eltwise"
  bottom: "res_h"
  bottom: "conv_h_1_2"
  top: "elt_h_1"
  eltwise_param {
    operation: SUM
  }
}
layer {
  name: "bn_i_1_1"
  type: "BatchNorm"
  bottom: "elt_c_1"
  top: "bn_i_1_1"
  param {
    lr_mult: 0
  }
  param {
    lr_mult: 0
  }
  param {
    lr_mult: 0
  }
  batch_norm_param {
    use_global_stats: false
  }
}
layer {
  name: "sc_i_1_1"
  type: "Scale"
  bottom: "bn_i_1_1"
  top: "sc_i_1_1"
  scale_param {
    bias_term: true
  }
}
layer {
  name: "relu_i_1_1"
  type: "ReLU"
  bottom: "sc_i_1_1"
  top: "relu_i_1_1"
}
layer {
  name: "conv_i_1_1"
  type: "Convolution"
  bottom: "relu_i_1_1"
  top: "conv_i_1_1"
  param {
    lr_mult: 1
    decay_mult: 1
  }
  param {
    lr_mult: 2
    decay_mult: 1
  }
  convolution_param {
    num_output: 128
    pad: 1
    kernel_size: 3
    stride: 2
    weight_filler {
      type: "msra"
    }
    bias_filler {
      type: "constant"
    }
  }
}
layer {
  name: "bn_i_1_2"
  type: "BatchNorm"
  bottom: "conv_i_1_1"
  top: "bn_i_1_2"
  param {
    lr_mult: 0
  }
  param {
    lr_mult: 0
  }
  param {
    lr_mult: 0
  }
  batch_norm_param {
    use_global_stats: false
  }
}
layer {
  name: "sc_i_1_2"
  type: "Scale"
  bottom: "bn_i_1_2"
  top: "sc_i_1_2"
  scale_param {
    bias_term: true
  }
}
layer {
  name: "relu_i_1_2"
  type: "ReLU"
  bottom: "sc_i_1_2"
  top: "relu_i_1_2"
}
layer {
  name: "conv_i_1_2"
  type: "Convolution"
  bottom: "relu_i_1_2"
  top: "conv_i_1_2"
  param {
    lr_mult: 1
    decay_mult: 1
  }
  param {
    lr_mult: 2
    decay_mult: 1
  }
  convolution_param {
    num_output: 128
    pad: 1
    kernel_size: 3
    stride: 1
    weight_filler {
      type: "msra"
    }
    bias_filler {
      type: "constant"
    }
  }
}
layer {
  name: "res_i"
  type: "Convolution"
  bottom: "elt_c_1"
  top: "res_i"
  param {
    lr_mult: 1
    decay_mult: 1
  }
  param {
    lr_mult: 2
    decay_mult: 1
  }
  convolution_param {
    num_output: 128
    pad: 0
    kernel_size: 1
    stride: 2
    weight_filler {
      type: "msra"
    }
    bias_filler {
      type: "constant"
    }
  }
}
layer {
  name: "elt_i_1"
  type: "Eltwise"
  bottom: "res_i"
  bottom: "conv_i_1_2"
  top: "elt_i_1"
  eltwise_param {
    operation: SUM
  }
}
layer {
  name: "elt_d_f"
  type: "Eltwise"
  bottom: "elt_d_1"
  bottom: "elt_f_1"
  top: "elt_d_f"
  eltwise_param {
    operation: SUM
  }
}
layer {
  name: "elt_g_i"
  type: "Eltwise"
  bottom: "elt_g_1"
  bottom: "elt_i_1"
  top: "elt_g_i"
  eltwise_param {
    operation: SUM
  }
}
layer {
  name: "bn_j_1_1"
  type: "BatchNorm"
  bottom: "elt_d_f"
  top: "bn_j_1_1"
  param {
    lr_mult: 0
  }
  param {
    lr_mult: 0
  }
  param {
    lr_mult: 0
  }
  batch_norm_param {
    use_global_stats: false
  }
}
layer {
  name: "sc_j_1_1"
  type: "Scale"
  bottom: "bn_j_1_1"
  top: "sc_j_1_1"
  scale_param {
    bias_term: true
  }
}
layer {
  name: "relu_j_1_1"
  type: "ReLU"
  bottom: "sc_j_1_1"
  top: "relu_j_1_1"
}
layer {
  name: "conv_j_1_1"
  type: "Convolution"
  bottom: "relu_j_1_1"
  top: "conv_j_1_1"
  param {
    lr_mult: 1
    decay_mult: 1
  }
  param {
    lr_mult: 2
    decay_mult: 1
  }
  convolution_param {
    num_output: 256
    pad: 1
    kernel_size: 3
    stride: 2
    weight_filler {
      type: "msra"
    }
    bias_filler {
      type: "constant"
    }
  }
}
layer {
  name: "bn_j_1_2"
  type: "BatchNorm"
  bottom: "conv_j_1_1"
  top: "bn_j_1_2"
  param {
    lr_mult: 0
  }
  param {
    lr_mult: 0
  }
  param {
    lr_mult: 0
  }
  batch_norm_param {
    use_global_stats: false
  }
}
layer {
  name: "sc_j_1_2"
  type: "Scale"
  bottom: "bn_j_1_2"
  top: "sc_j_1_2"
  scale_param {
    bias_term: true
  }
}
layer {
  name: "relu_j_1_2"
  type: "ReLU"
  bottom: "sc_j_1_2"
  top: "relu_j_1_2"
}
layer {
  name: "conv_j_1_2"
  type: "Convolution"
  bottom: "relu_j_1_2"
  top: "conv_j_1_2"
  param {
    lr_mult: 1
    decay_mult: 1
  }
  param {
    lr_mult: 2
    decay_mult: 1
  }
  convolution_param {
    num_output: 256
    pad: 1
    kernel_size: 3
    stride: 1
    weight_filler {
      type: "msra"
    }
    bias_filler {
      type: "constant"
    }
  }
}
layer {
  name: "res_j"
  type: "Convolution"
  bottom: "elt_d_f"
  top: "res_j"
  param {
    lr_mult: 1
    decay_mult: 1
  }
  param {
    lr_mult: 2
    decay_mult: 1
  }
  convolution_param {
    num_output: 256
    pad: 0
    kernel_size: 1
    stride: 2
    weight_filler {
      type: "msra"
    }
    bias_filler {
      type: "constant"
    }
  }
}
layer {
  name: "elt_j_1"
  type: "Eltwise"
  bottom: "res_j"
  bottom: "conv_j_1_2"
  top: "elt_j_1"
  eltwise_param {
    operation: SUM
  }
}
layer {
  name: "bn_e_1_1"
  type: "BatchNorm"
  bottom: "elt_a_1"
  top: "bn_e_1_1"
  param {
    lr_mult: 0
  }
  param {
    lr_mult: 0
  }
  param {
    lr_mult: 0
  }
  batch_norm_param {
    use_global_stats: false
  }
}
layer {
  name: "sc_e_1_1"
  type: "Scale"
  bottom: "bn_e_1_1"
  top: "sc_e_1_1"
  scale_param {
    bias_term: true
  }
}
layer {
  name: "relu_e_1_1"
  type: "ReLU"
  bottom: "sc_e_1_1"
  top: "relu_e_1_1"
}
layer {
  name: "conv_e_1_1"
  type: "Convolution"
  bottom: "relu_e_1_1"
  top: "conv_e_1_1"
  param {
    lr_mult: 1
    decay_mult: 1
  }
  param {
    lr_mult: 2
    decay_mult: 1
  }
  convolution_param {
    num_output: 128
    pad: 1
    kernel_size: 3
    stride: 2
    weight_filler {
      type: "msra"
    }
    bias_filler {
      type: "constant"
    }
  }
}
layer {
  name: "bn_e_1_2"
  type: "BatchNorm"
  bottom: "conv_e_1_1"
  top: "bn_e_1_2"
  param {
    lr_mult: 0
  }
  param {
    lr_mult: 0
  }
  param {
    lr_mult: 0
  }
  batch_norm_param {
    use_global_stats: false
  }
}
layer {
  name: "sc_e_1_2"
  type: "Scale"
  bottom: "bn_e_1_2"
  top: "sc_e_1_2"
  scale_param {
    bias_term: true
  }
}
layer {
  name: "relu_e_1_2"
  type: "ReLU"
  bottom: "sc_e_1_2"
  top: "relu_e_1_2"
}
layer {
  name: "conv_e_1_2"
  type: "Convolution"
  bottom: "relu_e_1_2"
  top: "conv_e_1_2"
  param {
    lr_mult: 1
    decay_mult: 1
  }
  param {
    lr_mult: 2
    decay_mult: 1
  }
  convolution_param {
    num_output: 128
    pad: 1
    kernel_size: 3
    stride: 1
    weight_filler {
      type: "msra"
    }
    bias_filler {
      type: "constant"
    }
  }
}
layer {
  name: "res_e"
  type: "Convolution"
  bottom: "elt_a_1"
  top: "res_e"
  param {
    lr_mult: 1
    decay_mult: 1
  }
  param {
    lr_mult: 2
    decay_mult: 1
  }
  convolution_param {
    num_output: 128
    pad: 0
    kernel_size: 1
    stride: 2
    weight_filler {
      type: "msra"
    }
    bias_filler {
      type: "constant"
    }
  }
}
layer {
  name: "elt_e_1"
  type: "Eltwise"
  bottom: "res_e"
  bottom: "conv_e_1_2"
  top: "elt_e_1"
  eltwise_param {
    operation: SUM
  }
}
layer {
  name: "elt_e_h"
  type: "Eltwise"
  bottom: "elt_e_1"
  bottom: "elt_h_1"
  top: "elt_e_h"
  eltwise_param {
    operation: SUM
  }
}
layer {
  name: "bn_k_1_1"
  type: "BatchNorm"
  bottom: "elt_e_h"
  top: "bn_k_1_1"
  param {
    lr_mult: 0
  }
  param {
    lr_mult: 0
  }
  param {
    lr_mult: 0
  }
  batch_norm_param {
    use_global_stats: false
  }
}
layer {
  name: "sc_k_1_1"
  type: "Scale"
  bottom: "bn_k_1_1"
  top: "sc_k_1_1"
  scale_param {
    bias_term: true
  }
}
layer {
  name: "relu_k_1_1"
  type: "ReLU"
  bottom: "sc_k_1_1"
  top: "relu_k_1_1"
}
layer {
  name: "conv_k_1_1"
  type: "Convolution"
  bottom: "relu_k_1_1"
  top: "conv_k_1_1"
  param {
    lr_mult: 1
    decay_mult: 1
  }
  param {
    lr_mult: 2
    decay_mult: 1
  }
  convolution_param {
    num_output: 256
    pad: 1
    kernel_size: 3
    stride: 2
    weight_filler {
      type: "msra"
    }
    bias_filler {
      type: "constant"
    }
  }
}
layer {
  name: "bn_k_1_2"
  type: "BatchNorm"
  bottom: "conv_k_1_1"
  top: "bn_k_1_2"
  param {
    lr_mult: 0
  }
  param {
    lr_mult: 0
  }
  param {
    lr_mult: 0
  }
  batch_norm_param {
    use_global_stats: false
  }
}
layer {
  name: "sc_k_1_2"
  type: "Scale"
  bottom: "bn_k_1_2"
  top: "sc_k_1_2"
  scale_param {
    bias_term: true
  }
}
layer {
  name: "relu_k_1_2"
  type: "ReLU"
  bottom: "sc_k_1_2"
  top: "relu_k_1_2"
}
layer {
  name: "conv_k_1_2"
  type: "Convolution"
  bottom: "relu_k_1_2"
  top: "conv_k_1_2"
  param {
    lr_mult: 1
    decay_mult: 1
  }
  param {
    lr_mult: 2
    decay_mult: 1
  }
  convolution_param {
    num_output: 256
    pad: 1
    kernel_size: 3
    stride: 1
    weight_filler {
      type: "msra"
    }
    bias_filler {
      type: "constant"
    }
  }
}
layer {
  name: "res_k"
  type: "Convolution"
  bottom: "elt_e_h"
  top: "res_k"
  param {
    lr_mult: 1
    decay_mult: 1
  }
  param {
    lr_mult: 2
    decay_mult: 1
  }
  convolution_param {
    num_output: 256
    pad: 0
    kernel_size: 1
    stride: 2
    weight_filler {
      type: "msra"
    }
    bias_filler {
      type: "constant"
    }
  }
}
layer {
  name: "elt_k_1"
  type: "Eltwise"
  bottom: "res_k"
  bottom: "conv_k_1_2"
  top: "elt_k_1"
  eltwise_param {
    operation: SUM
  }
}
layer {
  name: "bn_l_1_1"
  type: "BatchNorm"
  bottom: "elt_g_i"
  top: "bn_l_1_1"
  param {
    lr_mult: 0
  }
  param {
    lr_mult: 0
  }
  param {
    lr_mult: 0
  }
  batch_norm_param {
    use_global_stats: false
  }
}
layer {
  name: "sc_l_1_1"
  type: "Scale"
  bottom: "bn_l_1_1"
  top: "sc_l_1_1"
  scale_param {
    bias_term: true
  }
}
layer {
  name: "relu_l_1_1"
  type: "ReLU"
  bottom: "sc_l_1_1"
  top: "relu_l_1_1"
}
layer {
  name: "conv_l_1_1"
  type: "Convolution"
  bottom: "relu_l_1_1"
  top: "conv_l_1_1"
  param {
    lr_mult: 1
    decay_mult: 1
  }
  param {
    lr_mult: 2
    decay_mult: 1
  }
  convolution_param {
    num_output: 256
    pad: 1
    kernel_size: 3
    stride: 2
    weight_filler {
      type: "msra"
    }
    bias_filler {
      type: "constant"
    }
  }
}
layer {
  name: "bn_l_1_2"
  type: "BatchNorm"
  bottom: "conv_l_1_1"
  top: "bn_l_1_2"
  param {
    lr_mult: 0
  }
  param {
    lr_mult: 0
  }
  param {
    lr_mult: 0
  }
  batch_norm_param {
    use_global_stats: false
  }
}
layer {
  name: "sc_l_1_2"
  type: "Scale"
  bottom: "bn_l_1_2"
  top: "sc_l_1_2"
  scale_param {
    bias_term: true
  }
}
layer {
  name: "relu_l_1_2"
  type: "ReLU"
  bottom: "sc_l_1_2"
  top: "relu_l_1_2"
}
layer {
  name: "conv_l_1_2"
  type: "Convolution"
  bottom: "relu_l_1_2"
  top: "conv_l_1_2"
  param {
    lr_mult: 1
    decay_mult: 1
  }
  param {
    lr_mult: 2
    decay_mult: 1
  }
  convolution_param {
    num_output: 256
    pad: 1
    kernel_size: 3
    stride: 1
    weight_filler {
      type: "msra"
    }
    bias_filler {
      type: "constant"
    }
  }
}
layer {
  name: "res_l"
  type: "Convolution"
  bottom: "elt_g_i"
  top: "res_l"
  param {
    lr_mult: 1
    decay_mult: 1
  }
  param {
    lr_mult: 2
    decay_mult: 1
  }
  convolution_param {
    num_output: 256
    pad: 0
    kernel_size: 1
    stride: 2
    weight_filler {
      type: "msra"
    }
    bias_filler {
      type: "constant"
    }
  }
}
layer {
  name: "elt_l_1"
  type: "Eltwise"
  bottom: "res_l"
  bottom: "conv_l_1_2"
  top: "elt_l_1"
  eltwise_param {
    operation: SUM
  }
}
layer {
  name: "elt_j_k_l"
  type: "Eltwise"
  bottom: "elt_j_1"
  bottom: "elt_k_1"
  bottom: "elt_l_1"
  top: "elt_j_k_l"
  eltwise_param {
    operation: SUM
  }
}
layer {
  name: "bn_m_1_1"
  type: "BatchNorm"
  bottom: "elt_j_k_l"
  top: "bn_m_1_1"
  param {
    lr_mult: 0
  }
  param {
    lr_mult: 0
  }
  param {
    lr_mult: 0
  }
  batch_norm_param {
    use_global_stats: false
  }
}
layer {
  name: "sc_m_1_1"
  type: "Scale"
  bottom: "bn_m_1_1"
  top: "sc_m_1_1"
  scale_param {
    bias_term: true
  }
}
layer {
  name: "relu_m_1_1"
  type: "ReLU"
  bottom: "sc_m_1_1"
  top: "relu_m_1_1"
}
layer {
  name: "gap"
  type: "Pooling"
  bottom: "relu_m_1_1"
  top: "gap"
  pooling_param {
    pool: AVE
    kernel_size: 8
    stride: 1
  }
}
layer {
  name: "ip1"
  type: "InnerProduct"
  bottom: "gap"
  top: "ip1"
  param {
    lr_mult: 1
    decay_mult: 1
  }
  param {
    lr_mult: 2
    decay_mult: 0
  }
  inner_product_param {
    num_output: 10
    weight_filler {
      type: "msra"
    }
    bias_filler {
      type: "constant"
      value: 0
    }
  }
}
layer {
  name: "loss"
  type: "SoftmaxWithLoss"
  bottom: "ip1"
  bottom: "label"
  top: "loss"
}
I0621 13:40:01.032822 22964 layer_factory.hpp:77] Creating layer resnet
I0621 13:40:01.033357 22964 net.cpp:91] Creating Layer resnet
I0621 13:40:01.033373 22964 net.cpp:399] resnet -> data
I0621 13:40:01.033406 22964 net.cpp:399] resnet -> label
I0621 13:40:01.033449 22964 data_transformer.cpp:25] Loading mean file from: /home/takeki/caffe/examples/cifar10/mean.binaryproto
I0621 13:40:01.039144 23007 db_lmdb.cpp:35] Opened lmdb /home/takeki/caffe/examples/cifar10/cifar10_train_lmdb
I0621 13:40:01.048802 22964 data_layer.cpp:41] output data size: 128,3,32,32
I0621 13:40:01.052096 22964 net.cpp:141] Setting up resnet
I0621 13:40:01.052134 22964 net.cpp:148] Top shape: 128 3 32 32 (393216)
I0621 13:40:01.052144 22964 net.cpp:148] Top shape: 128 (128)
I0621 13:40:01.052148 22964 net.cpp:156] Memory required for data: 1573376
I0621 13:40:01.052157 22964 layer_factory.hpp:77] Creating layer conv0
I0621 13:40:01.052212 22964 net.cpp:91] Creating Layer conv0
I0621 13:40:01.052230 22964 net.cpp:425] conv0 <- data
I0621 13:40:01.052254 22964 net.cpp:399] conv0 -> conv0
I0621 13:40:01.294703 22964 net.cpp:141] Setting up conv0
I0621 13:40:01.294761 22964 net.cpp:148] Top shape: 128 16 32 32 (2097152)
I0621 13:40:01.294770 22964 net.cpp:156] Memory required for data: 9961984
I0621 13:40:01.294800 22964 layer_factory.hpp:77] Creating layer conv0_conv0_0_split
I0621 13:40:01.294834 22964 net.cpp:91] Creating Layer conv0_conv0_0_split
I0621 13:40:01.294847 22964 net.cpp:425] conv0_conv0_0_split <- conv0
I0621 13:40:01.294859 22964 net.cpp:399] conv0_conv0_0_split -> conv0_conv0_0_split_0
I0621 13:40:01.294877 22964 net.cpp:399] conv0_conv0_0_split -> conv0_conv0_0_split_1
I0621 13:40:01.294889 22964 net.cpp:399] conv0_conv0_0_split -> conv0_conv0_0_split_2
I0621 13:40:01.294903 22964 net.cpp:399] conv0_conv0_0_split -> conv0_conv0_0_split_3
I0621 13:40:01.294912 22964 net.cpp:399] conv0_conv0_0_split -> conv0_conv0_0_split_4
I0621 13:40:01.294922 22964 net.cpp:399] conv0_conv0_0_split -> conv0_conv0_0_split_5
I0621 13:40:01.295017 22964 net.cpp:141] Setting up conv0_conv0_0_split
I0621 13:40:01.295030 22964 net.cpp:148] Top shape: 128 16 32 32 (2097152)
I0621 13:40:01.295039 22964 net.cpp:148] Top shape: 128 16 32 32 (2097152)
I0621 13:40:01.295048 22964 net.cpp:148] Top shape: 128 16 32 32 (2097152)
I0621 13:40:01.295055 22964 net.cpp:148] Top shape: 128 16 32 32 (2097152)
I0621 13:40:01.295063 22964 net.cpp:148] Top shape: 128 16 32 32 (2097152)
I0621 13:40:01.295070 22964 net.cpp:148] Top shape: 128 16 32 32 (2097152)
I0621 13:40:01.295078 22964 net.cpp:156] Memory required for data: 60293632
I0621 13:40:01.295084 22964 layer_factory.hpp:77] Creating layer bn_a_1_1
I0621 13:40:01.295097 22964 net.cpp:91] Creating Layer bn_a_1_1
I0621 13:40:01.295104 22964 net.cpp:425] bn_a_1_1 <- conv0_conv0_0_split_0
I0621 13:40:01.295114 22964 net.cpp:399] bn_a_1_1 -> bn_a_1_1
I0621 13:40:01.295301 22964 net.cpp:141] Setting up bn_a_1_1
I0621 13:40:01.295315 22964 net.cpp:148] Top shape: 128 16 32 32 (2097152)
I0621 13:40:01.295321 22964 net.cpp:156] Memory required for data: 68682240
I0621 13:40:01.295338 22964 layer_factory.hpp:77] Creating layer sc_a_1_1
I0621 13:40:01.295352 22964 net.cpp:91] Creating Layer sc_a_1_1
I0621 13:40:01.295361 22964 net.cpp:425] sc_a_1_1 <- bn_a_1_1
I0621 13:40:01.295368 22964 net.cpp:399] sc_a_1_1 -> sc_a_1_1
I0621 13:40:01.295426 22964 layer_factory.hpp:77] Creating layer sc_a_1_1
I0621 13:40:01.295544 22964 net.cpp:141] Setting up sc_a_1_1
I0621 13:40:01.295557 22964 net.cpp:148] Top shape: 128 16 32 32 (2097152)
I0621 13:40:01.295563 22964 net.cpp:156] Memory required for data: 77070848
I0621 13:40:01.295573 22964 layer_factory.hpp:77] Creating layer relu_a_1_1
I0621 13:40:01.295585 22964 net.cpp:91] Creating Layer relu_a_1_1
I0621 13:40:01.295593 22964 net.cpp:425] relu_a_1_1 <- sc_a_1_1
I0621 13:40:01.295600 22964 net.cpp:399] relu_a_1_1 -> relu_a_1_1
I0621 13:40:01.295928 22964 net.cpp:141] Setting up relu_a_1_1
I0621 13:40:01.295945 22964 net.cpp:148] Top shape: 128 16 32 32 (2097152)
I0621 13:40:01.295994 22964 net.cpp:156] Memory required for data: 85459456
I0621 13:40:01.296001 22964 layer_factory.hpp:77] Creating layer conv_a_1_1
I0621 13:40:01.296028 22964 net.cpp:91] Creating Layer conv_a_1_1
I0621 13:40:01.296036 22964 net.cpp:425] conv_a_1_1 <- relu_a_1_1
I0621 13:40:01.296046 22964 net.cpp:399] conv_a_1_1 -> conv_a_1_1
I0621 13:40:01.297724 22964 net.cpp:141] Setting up conv_a_1_1
I0621 13:40:01.297741 22964 net.cpp:148] Top shape: 128 64 32 32 (8388608)
I0621 13:40:01.297749 22964 net.cpp:156] Memory required for data: 119013888
I0621 13:40:01.297768 22964 layer_factory.hpp:77] Creating layer bn_a_1_2
I0621 13:40:01.297780 22964 net.cpp:91] Creating Layer bn_a_1_2
I0621 13:40:01.297788 22964 net.cpp:425] bn_a_1_2 <- conv_a_1_1
I0621 13:40:01.297797 22964 net.cpp:399] bn_a_1_2 -> bn_a_1_2
I0621 13:40:01.297989 22964 net.cpp:141] Setting up bn_a_1_2
I0621 13:40:01.298002 22964 net.cpp:148] Top shape: 128 64 32 32 (8388608)
I0621 13:40:01.298008 22964 net.cpp:156] Memory required for data: 152568320
I0621 13:40:01.298020 22964 layer_factory.hpp:77] Creating layer sc_a_1_2
I0621 13:40:01.298032 22964 net.cpp:91] Creating Layer sc_a_1_2
I0621 13:40:01.298040 22964 net.cpp:425] sc_a_1_2 <- bn_a_1_2
I0621 13:40:01.298048 22964 net.cpp:399] sc_a_1_2 -> sc_a_1_2
I0621 13:40:01.298090 22964 layer_factory.hpp:77] Creating layer sc_a_1_2
I0621 13:40:01.298203 22964 net.cpp:141] Setting up sc_a_1_2
I0621 13:40:01.298216 22964 net.cpp:148] Top shape: 128 64 32 32 (8388608)
I0621 13:40:01.298221 22964 net.cpp:156] Memory required for data: 186122752
I0621 13:40:01.298231 22964 layer_factory.hpp:77] Creating layer relu_a_1_2
I0621 13:40:01.298241 22964 net.cpp:91] Creating Layer relu_a_1_2
I0621 13:40:01.298249 22964 net.cpp:425] relu_a_1_2 <- sc_a_1_2
I0621 13:40:01.298256 22964 net.cpp:399] relu_a_1_2 -> relu_a_1_2
I0621 13:40:01.298565 22964 net.cpp:141] Setting up relu_a_1_2
I0621 13:40:01.298583 22964 net.cpp:148] Top shape: 128 64 32 32 (8388608)
I0621 13:40:01.298590 22964 net.cpp:156] Memory required for data: 219677184
I0621 13:40:01.298596 22964 layer_factory.hpp:77] Creating layer conv_a_1_2
I0621 13:40:01.298610 22964 net.cpp:91] Creating Layer conv_a_1_2
I0621 13:40:01.298619 22964 net.cpp:425] conv_a_1_2 <- relu_a_1_2
I0621 13:40:01.298629 22964 net.cpp:399] conv_a_1_2 -> conv_a_1_2
I0621 13:40:01.301427 22964 net.cpp:141] Setting up conv_a_1_2
I0621 13:40:01.301446 22964 net.cpp:148] Top shape: 128 64 32 32 (8388608)
I0621 13:40:01.301466 22964 net.cpp:156] Memory required for data: 253231616
I0621 13:40:01.301477 22964 layer_factory.hpp:77] Creating layer res_a
I0621 13:40:01.301492 22964 net.cpp:91] Creating Layer res_a
I0621 13:40:01.301501 22964 net.cpp:425] res_a <- conv0_conv0_0_split_1
I0621 13:40:01.301513 22964 net.cpp:399] res_a -> res_a
I0621 13:40:01.302620 22964 net.cpp:141] Setting up res_a
I0621 13:40:01.302642 22964 net.cpp:148] Top shape: 128 64 32 32 (8388608)
I0621 13:40:01.302650 22964 net.cpp:156] Memory required for data: 286786048
I0621 13:40:01.302669 22964 layer_factory.hpp:77] Creating layer elt_a_1
I0621 13:40:01.302681 22964 net.cpp:91] Creating Layer elt_a_1
I0621 13:40:01.302696 22964 net.cpp:425] elt_a_1 <- res_a
I0621 13:40:01.302733 22964 net.cpp:425] elt_a_1 <- conv_a_1_2
I0621 13:40:01.302744 22964 net.cpp:399] elt_a_1 -> elt_a_1
I0621 13:40:01.302783 22964 net.cpp:141] Setting up elt_a_1
I0621 13:40:01.302796 22964 net.cpp:148] Top shape: 128 64 32 32 (8388608)
I0621 13:40:01.302803 22964 net.cpp:156] Memory required for data: 320340480
I0621 13:40:01.302812 22964 layer_factory.hpp:77] Creating layer elt_a_1_elt_a_1_0_split
I0621 13:40:01.302821 22964 net.cpp:91] Creating Layer elt_a_1_elt_a_1_0_split
I0621 13:40:01.302826 22964 net.cpp:425] elt_a_1_elt_a_1_0_split <- elt_a_1
I0621 13:40:01.302836 22964 net.cpp:399] elt_a_1_elt_a_1_0_split -> elt_a_1_elt_a_1_0_split_0
I0621 13:40:01.302847 22964 net.cpp:399] elt_a_1_elt_a_1_0_split -> elt_a_1_elt_a_1_0_split_1
I0621 13:40:01.302857 22964 net.cpp:399] elt_a_1_elt_a_1_0_split -> elt_a_1_elt_a_1_0_split_2
I0621 13:40:01.302883 22964 net.cpp:399] elt_a_1_elt_a_1_0_split -> elt_a_1_elt_a_1_0_split_3
I0621 13:40:01.302953 22964 net.cpp:141] Setting up elt_a_1_elt_a_1_0_split
I0621 13:40:01.302965 22964 net.cpp:148] Top shape: 128 64 32 32 (8388608)
I0621 13:40:01.302973 22964 net.cpp:148] Top shape: 128 64 32 32 (8388608)
I0621 13:40:01.302978 22964 net.cpp:148] Top shape: 128 64 32 32 (8388608)
I0621 13:40:01.302984 22964 net.cpp:148] Top shape: 128 64 32 32 (8388608)
I0621 13:40:01.302991 22964 net.cpp:156] Memory required for data: 454558208
I0621 13:40:01.302997 22964 layer_factory.hpp:77] Creating layer bn_b_1_1
I0621 13:40:01.303017 22964 net.cpp:91] Creating Layer bn_b_1_1
I0621 13:40:01.303025 22964 net.cpp:425] bn_b_1_1 <- conv0_conv0_0_split_2
I0621 13:40:01.303035 22964 net.cpp:399] bn_b_1_1 -> bn_b_1_1
I0621 13:40:01.303236 22964 net.cpp:141] Setting up bn_b_1_1
I0621 13:40:01.303248 22964 net.cpp:148] Top shape: 128 16 32 32 (2097152)
I0621 13:40:01.303256 22964 net.cpp:156] Memory required for data: 462946816
I0621 13:40:01.303267 22964 layer_factory.hpp:77] Creating layer sc_b_1_1
I0621 13:40:01.303277 22964 net.cpp:91] Creating Layer sc_b_1_1
I0621 13:40:01.303284 22964 net.cpp:425] sc_b_1_1 <- bn_b_1_1
I0621 13:40:01.303292 22964 net.cpp:399] sc_b_1_1 -> sc_b_1_1
I0621 13:40:01.303338 22964 layer_factory.hpp:77] Creating layer sc_b_1_1
I0621 13:40:01.303455 22964 net.cpp:141] Setting up sc_b_1_1
I0621 13:40:01.303468 22964 net.cpp:148] Top shape: 128 16 32 32 (2097152)
I0621 13:40:01.303474 22964 net.cpp:156] Memory required for data: 471335424
I0621 13:40:01.303484 22964 layer_factory.hpp:77] Creating layer relu_b_1_1
I0621 13:40:01.303498 22964 net.cpp:91] Creating Layer relu_b_1_1
I0621 13:40:01.303504 22964 net.cpp:425] relu_b_1_1 <- sc_b_1_1
I0621 13:40:01.303513 22964 net.cpp:399] relu_b_1_1 -> relu_b_1_1
I0621 13:40:01.303719 22964 net.cpp:141] Setting up relu_b_1_1
I0621 13:40:01.303735 22964 net.cpp:148] Top shape: 128 16 32 32 (2097152)
I0621 13:40:01.303740 22964 net.cpp:156] Memory required for data: 479724032
I0621 13:40:01.303745 22964 layer_factory.hpp:77] Creating layer conv_b_1_1
I0621 13:40:01.303761 22964 net.cpp:91] Creating Layer conv_b_1_1
I0621 13:40:01.303768 22964 net.cpp:425] conv_b_1_1 <- relu_b_1_1
I0621 13:40:01.303781 22964 net.cpp:399] conv_b_1_1 -> conv_b_1_1
I0621 13:40:01.305085 22964 net.cpp:141] Setting up conv_b_1_1
I0621 13:40:01.305104 22964 net.cpp:148] Top shape: 128 64 32 32 (8388608)
I0621 13:40:01.305109 22964 net.cpp:156] Memory required for data: 513278464
I0621 13:40:01.305119 22964 layer_factory.hpp:77] Creating layer bn_b_1_2
I0621 13:40:01.305131 22964 net.cpp:91] Creating Layer bn_b_1_2
I0621 13:40:01.305140 22964 net.cpp:425] bn_b_1_2 <- conv_b_1_1
I0621 13:40:01.305150 22964 net.cpp:399] bn_b_1_2 -> bn_b_1_2
I0621 13:40:01.305351 22964 net.cpp:141] Setting up bn_b_1_2
I0621 13:40:01.305363 22964 net.cpp:148] Top shape: 128 64 32 32 (8388608)
I0621 13:40:01.305369 22964 net.cpp:156] Memory required for data: 546832896
I0621 13:40:01.305379 22964 layer_factory.hpp:77] Creating layer sc_b_1_2
I0621 13:40:01.305388 22964 net.cpp:91] Creating Layer sc_b_1_2
I0621 13:40:01.305397 22964 net.cpp:425] sc_b_1_2 <- bn_b_1_2
I0621 13:40:01.305403 22964 net.cpp:399] sc_b_1_2 -> sc_b_1_2
I0621 13:40:01.305450 22964 layer_factory.hpp:77] Creating layer sc_b_1_2
I0621 13:40:01.305569 22964 net.cpp:141] Setting up sc_b_1_2
I0621 13:40:01.305583 22964 net.cpp:148] Top shape: 128 64 32 32 (8388608)
I0621 13:40:01.305588 22964 net.cpp:156] Memory required for data: 580387328
I0621 13:40:01.305596 22964 layer_factory.hpp:77] Creating layer relu_b_1_2
I0621 13:40:01.305604 22964 net.cpp:91] Creating Layer relu_b_1_2
I0621 13:40:01.305611 22964 net.cpp:425] relu_b_1_2 <- sc_b_1_2
I0621 13:40:01.305621 22964 net.cpp:399] relu_b_1_2 -> relu_b_1_2
I0621 13:40:01.305822 22964 net.cpp:141] Setting up relu_b_1_2
I0621 13:40:01.305837 22964 net.cpp:148] Top shape: 128 64 32 32 (8388608)
I0621 13:40:01.305843 22964 net.cpp:156] Memory required for data: 613941760
I0621 13:40:01.305850 22964 layer_factory.hpp:77] Creating layer conv_b_1_2
I0621 13:40:01.305881 22964 net.cpp:91] Creating Layer conv_b_1_2
I0621 13:40:01.305889 22964 net.cpp:425] conv_b_1_2 <- relu_b_1_2
I0621 13:40:01.305901 22964 net.cpp:399] conv_b_1_2 -> conv_b_1_2
I0621 13:40:01.308035 22964 net.cpp:141] Setting up conv_b_1_2
I0621 13:40:01.308053 22964 net.cpp:148] Top shape: 128 64 32 32 (8388608)
I0621 13:40:01.308059 22964 net.cpp:156] Memory required for data: 647496192
I0621 13:40:01.308070 22964 layer_factory.hpp:77] Creating layer res_b
I0621 13:40:01.308089 22964 net.cpp:91] Creating Layer res_b
I0621 13:40:01.308096 22964 net.cpp:425] res_b <- conv0_conv0_0_split_3
I0621 13:40:01.308110 22964 net.cpp:399] res_b -> res_b
I0621 13:40:01.309293 22964 net.cpp:141] Setting up res_b
I0621 13:40:01.309310 22964 net.cpp:148] Top shape: 128 64 32 32 (8388608)
I0621 13:40:01.309317 22964 net.cpp:156] Memory required for data: 681050624
I0621 13:40:01.309339 22964 layer_factory.hpp:77] Creating layer elt_b_1
I0621 13:40:01.309352 22964 net.cpp:91] Creating Layer elt_b_1
I0621 13:40:01.309360 22964 net.cpp:425] elt_b_1 <- res_b
I0621 13:40:01.309367 22964 net.cpp:425] elt_b_1 <- conv_b_1_2
I0621 13:40:01.309375 22964 net.cpp:399] elt_b_1 -> elt_b_1
I0621 13:40:01.309412 22964 net.cpp:141] Setting up elt_b_1
I0621 13:40:01.309424 22964 net.cpp:148] Top shape: 128 64 32 32 (8388608)
I0621 13:40:01.309430 22964 net.cpp:156] Memory required for data: 714605056
I0621 13:40:01.309437 22964 layer_factory.hpp:77] Creating layer elt_b_1_elt_b_1_0_split
I0621 13:40:01.309448 22964 net.cpp:91] Creating Layer elt_b_1_elt_b_1_0_split
I0621 13:40:01.309455 22964 net.cpp:425] elt_b_1_elt_b_1_0_split <- elt_b_1
I0621 13:40:01.309463 22964 net.cpp:399] elt_b_1_elt_b_1_0_split -> elt_b_1_elt_b_1_0_split_0
I0621 13:40:01.309473 22964 net.cpp:399] elt_b_1_elt_b_1_0_split -> elt_b_1_elt_b_1_0_split_1
I0621 13:40:01.309480 22964 net.cpp:399] elt_b_1_elt_b_1_0_split -> elt_b_1_elt_b_1_0_split_2
I0621 13:40:01.309491 22964 net.cpp:399] elt_b_1_elt_b_1_0_split -> elt_b_1_elt_b_1_0_split_3
I0621 13:40:01.309556 22964 net.cpp:141] Setting up elt_b_1_elt_b_1_0_split
I0621 13:40:01.309567 22964 net.cpp:148] Top shape: 128 64 32 32 (8388608)
I0621 13:40:01.309574 22964 net.cpp:148] Top shape: 128 64 32 32 (8388608)
I0621 13:40:01.309581 22964 net.cpp:148] Top shape: 128 64 32 32 (8388608)
I0621 13:40:01.309587 22964 net.cpp:148] Top shape: 128 64 32 32 (8388608)
I0621 13:40:01.309592 22964 net.cpp:156] Memory required for data: 848822784
I0621 13:40:01.309598 22964 layer_factory.hpp:77] Creating layer bn_c_1_1
I0621 13:40:01.309609 22964 net.cpp:91] Creating Layer bn_c_1_1
I0621 13:40:01.309617 22964 net.cpp:425] bn_c_1_1 <- conv0_conv0_0_split_4
I0621 13:40:01.309624 22964 net.cpp:399] bn_c_1_1 -> bn_c_1_1
I0621 13:40:01.309818 22964 net.cpp:141] Setting up bn_c_1_1
I0621 13:40:01.309831 22964 net.cpp:148] Top shape: 128 16 32 32 (2097152)
I0621 13:40:01.309837 22964 net.cpp:156] Memory required for data: 857211392
I0621 13:40:01.309849 22964 layer_factory.hpp:77] Creating layer sc_c_1_1
I0621 13:40:01.309859 22964 net.cpp:91] Creating Layer sc_c_1_1
I0621 13:40:01.309865 22964 net.cpp:425] sc_c_1_1 <- bn_c_1_1
I0621 13:40:01.309876 22964 net.cpp:399] sc_c_1_1 -> sc_c_1_1
I0621 13:40:01.309921 22964 layer_factory.hpp:77] Creating layer sc_c_1_1
I0621 13:40:01.310050 22964 net.cpp:141] Setting up sc_c_1_1
I0621 13:40:01.310065 22964 net.cpp:148] Top shape: 128 16 32 32 (2097152)
I0621 13:40:01.310071 22964 net.cpp:156] Memory required for data: 865600000
I0621 13:40:01.310081 22964 layer_factory.hpp:77] Creating layer relu_c_1_1
I0621 13:40:01.310098 22964 net.cpp:91] Creating Layer relu_c_1_1
I0621 13:40:01.310106 22964 net.cpp:425] relu_c_1_1 <- sc_c_1_1
I0621 13:40:01.310112 22964 net.cpp:399] relu_c_1_1 -> relu_c_1_1
I0621 13:40:01.310464 22964 net.cpp:141] Setting up relu_c_1_1
I0621 13:40:01.310482 22964 net.cpp:148] Top shape: 128 16 32 32 (2097152)
I0621 13:40:01.310488 22964 net.cpp:156] Memory required for data: 873988608
I0621 13:40:01.310494 22964 layer_factory.hpp:77] Creating layer conv_c_1_1
I0621 13:40:01.310528 22964 net.cpp:91] Creating Layer conv_c_1_1
I0621 13:40:01.310537 22964 net.cpp:425] conv_c_1_1 <- relu_c_1_1
I0621 13:40:01.310549 22964 net.cpp:399] conv_c_1_1 -> conv_c_1_1
I0621 13:40:01.311738 22964 net.cpp:141] Setting up conv_c_1_1
I0621 13:40:01.311756 22964 net.cpp:148] Top shape: 128 64 32 32 (8388608)
I0621 13:40:01.311764 22964 net.cpp:156] Memory required for data: 907543040
I0621 13:40:01.311776 22964 layer_factory.hpp:77] Creating layer bn_c_1_2
I0621 13:40:01.311791 22964 net.cpp:91] Creating Layer bn_c_1_2
I0621 13:40:01.311800 22964 net.cpp:425] bn_c_1_2 <- conv_c_1_1
I0621 13:40:01.311807 22964 net.cpp:399] bn_c_1_2 -> bn_c_1_2
I0621 13:40:01.312014 22964 net.cpp:141] Setting up bn_c_1_2
I0621 13:40:01.312028 22964 net.cpp:148] Top shape: 128 64 32 32 (8388608)
I0621 13:40:01.312033 22964 net.cpp:156] Memory required for data: 941097472
I0621 13:40:01.312044 22964 layer_factory.hpp:77] Creating layer sc_c_1_2
I0621 13:40:01.312063 22964 net.cpp:91] Creating Layer sc_c_1_2
I0621 13:40:01.312070 22964 net.cpp:425] sc_c_1_2 <- bn_c_1_2
I0621 13:40:01.312082 22964 net.cpp:399] sc_c_1_2 -> sc_c_1_2
I0621 13:40:01.312129 22964 layer_factory.hpp:77] Creating layer sc_c_1_2
I0621 13:40:01.312250 22964 net.cpp:141] Setting up sc_c_1_2
I0621 13:40:01.312263 22964 net.cpp:148] Top shape: 128 64 32 32 (8388608)
I0621 13:40:01.312268 22964 net.cpp:156] Memory required for data: 974651904
I0621 13:40:01.312278 22964 layer_factory.hpp:77] Creating layer relu_c_1_2
I0621 13:40:01.312289 22964 net.cpp:91] Creating Layer relu_c_1_2
I0621 13:40:01.312296 22964 net.cpp:425] relu_c_1_2 <- sc_c_1_2
I0621 13:40:01.312304 22964 net.cpp:399] relu_c_1_2 -> relu_c_1_2
I0621 13:40:01.312621 22964 net.cpp:141] Setting up relu_c_1_2
I0621 13:40:01.312638 22964 net.cpp:148] Top shape: 128 64 32 32 (8388608)
I0621 13:40:01.312644 22964 net.cpp:156] Memory required for data: 1008206336
I0621 13:40:01.312651 22964 layer_factory.hpp:77] Creating layer conv_c_1_2
I0621 13:40:01.312674 22964 net.cpp:91] Creating Layer conv_c_1_2
I0621 13:40:01.312683 22964 net.cpp:425] conv_c_1_2 <- relu_c_1_2
I0621 13:40:01.312695 22964 net.cpp:399] conv_c_1_2 -> conv_c_1_2
I0621 13:40:01.314842 22964 net.cpp:141] Setting up conv_c_1_2
I0621 13:40:01.314859 22964 net.cpp:148] Top shape: 128 64 32 32 (8388608)
I0621 13:40:01.314868 22964 net.cpp:156] Memory required for data: 1041760768
I0621 13:40:01.314879 22964 layer_factory.hpp:77] Creating layer res_c
I0621 13:40:01.314896 22964 net.cpp:91] Creating Layer res_c
I0621 13:40:01.314904 22964 net.cpp:425] res_c <- conv0_conv0_0_split_5
I0621 13:40:01.314916 22964 net.cpp:399] res_c -> res_c
I0621 13:40:01.315943 22964 net.cpp:141] Setting up res_c
I0621 13:40:01.315960 22964 net.cpp:148] Top shape: 128 64 32 32 (8388608)
I0621 13:40:01.315968 22964 net.cpp:156] Memory required for data: 1075315200
I0621 13:40:01.315979 22964 layer_factory.hpp:77] Creating layer elt_c_1
I0621 13:40:01.315989 22964 net.cpp:91] Creating Layer elt_c_1
I0621 13:40:01.315996 22964 net.cpp:425] elt_c_1 <- res_c
I0621 13:40:01.316002 22964 net.cpp:425] elt_c_1 <- conv_c_1_2
I0621 13:40:01.316014 22964 net.cpp:399] elt_c_1 -> elt_c_1
I0621 13:40:01.316045 22964 net.cpp:141] Setting up elt_c_1
I0621 13:40:01.316059 22964 net.cpp:148] Top shape: 128 64 32 32 (8388608)
I0621 13:40:01.316066 22964 net.cpp:156] Memory required for data: 1108869632
I0621 13:40:01.316071 22964 layer_factory.hpp:77] Creating layer elt_c_1_elt_c_1_0_split
I0621 13:40:01.316079 22964 net.cpp:91] Creating Layer elt_c_1_elt_c_1_0_split
I0621 13:40:01.316087 22964 net.cpp:425] elt_c_1_elt_c_1_0_split <- elt_c_1
I0621 13:40:01.316093 22964 net.cpp:399] elt_c_1_elt_c_1_0_split -> elt_c_1_elt_c_1_0_split_0
I0621 13:40:01.316103 22964 net.cpp:399] elt_c_1_elt_c_1_0_split -> elt_c_1_elt_c_1_0_split_1
I0621 13:40:01.316113 22964 net.cpp:399] elt_c_1_elt_c_1_0_split -> elt_c_1_elt_c_1_0_split_2
I0621 13:40:01.316124 22964 net.cpp:399] elt_c_1_elt_c_1_0_split -> elt_c_1_elt_c_1_0_split_3
I0621 13:40:01.316191 22964 net.cpp:141] Setting up elt_c_1_elt_c_1_0_split
I0621 13:40:01.316217 22964 net.cpp:148] Top shape: 128 64 32 32 (8388608)
I0621 13:40:01.316226 22964 net.cpp:148] Top shape: 128 64 32 32 (8388608)
I0621 13:40:01.316232 22964 net.cpp:148] Top shape: 128 64 32 32 (8388608)
I0621 13:40:01.316238 22964 net.cpp:148] Top shape: 128 64 32 32 (8388608)
I0621 13:40:01.316243 22964 net.cpp:156] Memory required for data: 1243087360
I0621 13:40:01.316248 22964 layer_factory.hpp:77] Creating layer bn_d_1_1
I0621 13:40:01.316260 22964 net.cpp:91] Creating Layer bn_d_1_1
I0621 13:40:01.316267 22964 net.cpp:425] bn_d_1_1 <- elt_a_1_elt_a_1_0_split_0
I0621 13:40:01.316277 22964 net.cpp:399] bn_d_1_1 -> bn_d_1_1
I0621 13:40:01.316480 22964 net.cpp:141] Setting up bn_d_1_1
I0621 13:40:01.316493 22964 net.cpp:148] Top shape: 128 64 32 32 (8388608)
I0621 13:40:01.316498 22964 net.cpp:156] Memory required for data: 1276641792
I0621 13:40:01.316509 22964 layer_factory.hpp:77] Creating layer sc_d_1_1
I0621 13:40:01.316519 22964 net.cpp:91] Creating Layer sc_d_1_1
I0621 13:40:01.316525 22964 net.cpp:425] sc_d_1_1 <- bn_d_1_1
I0621 13:40:01.316534 22964 net.cpp:399] sc_d_1_1 -> sc_d_1_1
I0621 13:40:01.316581 22964 layer_factory.hpp:77] Creating layer sc_d_1_1
I0621 13:40:01.316704 22964 net.cpp:141] Setting up sc_d_1_1
I0621 13:40:01.316715 22964 net.cpp:148] Top shape: 128 64 32 32 (8388608)
I0621 13:40:01.316722 22964 net.cpp:156] Memory required for data: 1310196224
I0621 13:40:01.316731 22964 layer_factory.hpp:77] Creating layer relu_d_1_1
I0621 13:40:01.316742 22964 net.cpp:91] Creating Layer relu_d_1_1
I0621 13:40:01.316751 22964 net.cpp:425] relu_d_1_1 <- sc_d_1_1
I0621 13:40:01.316761 22964 net.cpp:399] relu_d_1_1 -> relu_d_1_1
I0621 13:40:01.316956 22964 net.cpp:141] Setting up relu_d_1_1
I0621 13:40:01.316970 22964 net.cpp:148] Top shape: 128 64 32 32 (8388608)
I0621 13:40:01.316978 22964 net.cpp:156] Memory required for data: 1343750656
I0621 13:40:01.316984 22964 layer_factory.hpp:77] Creating layer conv_d_1_1
I0621 13:40:01.316999 22964 net.cpp:91] Creating Layer conv_d_1_1
I0621 13:40:01.317006 22964 net.cpp:425] conv_d_1_1 <- relu_d_1_1
I0621 13:40:01.317015 22964 net.cpp:399] conv_d_1_1 -> conv_d_1_1
I0621 13:40:01.320667 22964 net.cpp:141] Setting up conv_d_1_1
I0621 13:40:01.320684 22964 net.cpp:148] Top shape: 128 128 16 16 (4194304)
I0621 13:40:01.320691 22964 net.cpp:156] Memory required for data: 1360527872
I0621 13:40:01.320704 22964 layer_factory.hpp:77] Creating layer bn_d_1_2
I0621 13:40:01.320719 22964 net.cpp:91] Creating Layer bn_d_1_2
I0621 13:40:01.320725 22964 net.cpp:425] bn_d_1_2 <- conv_d_1_1
I0621 13:40:01.320734 22964 net.cpp:399] bn_d_1_2 -> bn_d_1_2
I0621 13:40:01.320936 22964 net.cpp:141] Setting up bn_d_1_2
I0621 13:40:01.320948 22964 net.cpp:148] Top shape: 128 128 16 16 (4194304)
I0621 13:40:01.320955 22964 net.cpp:156] Memory required for data: 1377305088
I0621 13:40:01.320965 22964 layer_factory.hpp:77] Creating layer sc_d_1_2
I0621 13:40:01.320974 22964 net.cpp:91] Creating Layer sc_d_1_2
I0621 13:40:01.320981 22964 net.cpp:425] sc_d_1_2 <- bn_d_1_2
I0621 13:40:01.320989 22964 net.cpp:399] sc_d_1_2 -> sc_d_1_2
I0621 13:40:01.321033 22964 layer_factory.hpp:77] Creating layer sc_d_1_2
I0621 13:40:01.321161 22964 net.cpp:141] Setting up sc_d_1_2
I0621 13:40:01.321172 22964 net.cpp:148] Top shape: 128 128 16 16 (4194304)
I0621 13:40:01.321177 22964 net.cpp:156] Memory required for data: 1394082304
I0621 13:40:01.321187 22964 layer_factory.hpp:77] Creating layer relu_d_1_2
I0621 13:40:01.321195 22964 net.cpp:91] Creating Layer relu_d_1_2
I0621 13:40:01.321202 22964 net.cpp:425] relu_d_1_2 <- sc_d_1_2
I0621 13:40:01.321213 22964 net.cpp:399] relu_d_1_2 -> relu_d_1_2
I0621 13:40:01.321404 22964 net.cpp:141] Setting up relu_d_1_2
I0621 13:40:01.321419 22964 net.cpp:148] Top shape: 128 128 16 16 (4194304)
I0621 13:40:01.321424 22964 net.cpp:156] Memory required for data: 1410859520
I0621 13:40:01.321429 22964 layer_factory.hpp:77] Creating layer conv_d_1_2
I0621 13:40:01.321446 22964 net.cpp:91] Creating Layer conv_d_1_2
I0621 13:40:01.321468 22964 net.cpp:425] conv_d_1_2 <- relu_d_1_2
I0621 13:40:01.321480 22964 net.cpp:399] conv_d_1_2 -> conv_d_1_2
I0621 13:40:01.326828 22964 net.cpp:141] Setting up conv_d_1_2
I0621 13:40:01.326846 22964 net.cpp:148] Top shape: 128 128 16 16 (4194304)
I0621 13:40:01.326865 22964 net.cpp:156] Memory required for data: 1427636736
I0621 13:40:01.326874 22964 layer_factory.hpp:77] Creating layer res_d
I0621 13:40:01.326891 22964 net.cpp:91] Creating Layer res_d
I0621 13:40:01.326900 22964 net.cpp:425] res_d <- elt_a_1_elt_a_1_0_split_1
I0621 13:40:01.326908 22964 net.cpp:399] res_d -> res_d
I0621 13:40:01.328135 22964 net.cpp:141] Setting up res_d
I0621 13:40:01.328152 22964 net.cpp:148] Top shape: 128 128 16 16 (4194304)
I0621 13:40:01.328158 22964 net.cpp:156] Memory required for data: 1444413952
I0621 13:40:01.328178 22964 layer_factory.hpp:77] Creating layer elt_d_1
I0621 13:40:01.328188 22964 net.cpp:91] Creating Layer elt_d_1
I0621 13:40:01.328194 22964 net.cpp:425] elt_d_1 <- res_d
I0621 13:40:01.328210 22964 net.cpp:425] elt_d_1 <- conv_d_1_2
I0621 13:40:01.328219 22964 net.cpp:399] elt_d_1 -> elt_d_1
I0621 13:40:01.328253 22964 net.cpp:141] Setting up elt_d_1
I0621 13:40:01.328263 22964 net.cpp:148] Top shape: 128 128 16 16 (4194304)
I0621 13:40:01.328269 22964 net.cpp:156] Memory required for data: 1461191168
I0621 13:40:01.328274 22964 layer_factory.hpp:77] Creating layer bn_f_1_1
I0621 13:40:01.328284 22964 net.cpp:91] Creating Layer bn_f_1_1
I0621 13:40:01.328291 22964 net.cpp:425] bn_f_1_1 <- elt_b_1_elt_b_1_0_split_0
I0621 13:40:01.328299 22964 net.cpp:399] bn_f_1_1 -> bn_f_1_1
I0621 13:40:01.328506 22964 net.cpp:141] Setting up bn_f_1_1
I0621 13:40:01.328518 22964 net.cpp:148] Top shape: 128 64 32 32 (8388608)
I0621 13:40:01.328523 22964 net.cpp:156] Memory required for data: 1494745600
I0621 13:40:01.328534 22964 layer_factory.hpp:77] Creating layer sc_f_1_1
I0621 13:40:01.328547 22964 net.cpp:91] Creating Layer sc_f_1_1
I0621 13:40:01.328553 22964 net.cpp:425] sc_f_1_1 <- bn_f_1_1
I0621 13:40:01.328562 22964 net.cpp:399] sc_f_1_1 -> sc_f_1_1
I0621 13:40:01.328613 22964 layer_factory.hpp:77] Creating layer sc_f_1_1
I0621 13:40:01.328732 22964 net.cpp:141] Setting up sc_f_1_1
I0621 13:40:01.328744 22964 net.cpp:148] Top shape: 128 64 32 32 (8388608)
I0621 13:40:01.328752 22964 net.cpp:156] Memory required for data: 1528300032
I0621 13:40:01.328759 22964 layer_factory.hpp:77] Creating layer relu_f_1_1
I0621 13:40:01.328768 22964 net.cpp:91] Creating Layer relu_f_1_1
I0621 13:40:01.328775 22964 net.cpp:425] relu_f_1_1 <- sc_f_1_1
I0621 13:40:01.328781 22964 net.cpp:399] relu_f_1_1 -> relu_f_1_1
I0621 13:40:01.329080 22964 net.cpp:141] Setting up relu_f_1_1
I0621 13:40:01.329097 22964 net.cpp:148] Top shape: 128 64 32 32 (8388608)
I0621 13:40:01.329102 22964 net.cpp:156] Memory required for data: 1561854464
I0621 13:40:01.329107 22964 layer_factory.hpp:77] Creating layer conv_f_1_1
I0621 13:40:01.329123 22964 net.cpp:91] Creating Layer conv_f_1_1
I0621 13:40:01.329130 22964 net.cpp:425] conv_f_1_1 <- relu_f_1_1
I0621 13:40:01.329141 22964 net.cpp:399] conv_f_1_1 -> conv_f_1_1
I0621 13:40:01.332612 22964 net.cpp:141] Setting up conv_f_1_1
I0621 13:40:01.332628 22964 net.cpp:148] Top shape: 128 128 16 16 (4194304)
I0621 13:40:01.332634 22964 net.cpp:156] Memory required for data: 1578631680
I0621 13:40:01.332649 22964 layer_factory.hpp:77] Creating layer bn_f_1_2
I0621 13:40:01.332664 22964 net.cpp:91] Creating Layer bn_f_1_2
I0621 13:40:01.332670 22964 net.cpp:425] bn_f_1_2 <- conv_f_1_1
I0621 13:40:01.332679 22964 net.cpp:399] bn_f_1_2 -> bn_f_1_2
I0621 13:40:01.332873 22964 net.cpp:141] Setting up bn_f_1_2
I0621 13:40:01.332886 22964 net.cpp:148] Top shape: 128 128 16 16 (4194304)
I0621 13:40:01.332891 22964 net.cpp:156] Memory required for data: 1595408896
I0621 13:40:01.332901 22964 layer_factory.hpp:77] Creating layer sc_f_1_2
I0621 13:40:01.332912 22964 net.cpp:91] Creating Layer sc_f_1_2
I0621 13:40:01.332919 22964 net.cpp:425] sc_f_1_2 <- bn_f_1_2
I0621 13:40:01.332927 22964 net.cpp:399] sc_f_1_2 -> sc_f_1_2
I0621 13:40:01.332999 22964 layer_factory.hpp:77] Creating layer sc_f_1_2
I0621 13:40:01.333113 22964 net.cpp:141] Setting up sc_f_1_2
I0621 13:40:01.333128 22964 net.cpp:148] Top shape: 128 128 16 16 (4194304)
I0621 13:40:01.333135 22964 net.cpp:156] Memory required for data: 1612186112
I0621 13:40:01.333144 22964 layer_factory.hpp:77] Creating layer relu_f_1_2
I0621 13:40:01.333153 22964 net.cpp:91] Creating Layer relu_f_1_2
I0621 13:40:01.333159 22964 net.cpp:425] relu_f_1_2 <- sc_f_1_2
I0621 13:40:01.333166 22964 net.cpp:399] relu_f_1_2 -> relu_f_1_2
I0621 13:40:01.333586 22964 net.cpp:141] Setting up relu_f_1_2
I0621 13:40:01.333601 22964 net.cpp:148] Top shape: 128 128 16 16 (4194304)
I0621 13:40:01.333607 22964 net.cpp:156] Memory required for data: 1628963328
I0621 13:40:01.333613 22964 layer_factory.hpp:77] Creating layer conv_f_1_2
I0621 13:40:01.333627 22964 net.cpp:91] Creating Layer conv_f_1_2
I0621 13:40:01.333636 22964 net.cpp:425] conv_f_1_2 <- relu_f_1_2
I0621 13:40:01.333647 22964 net.cpp:399] conv_f_1_2 -> conv_f_1_2
I0621 13:40:01.338798 22964 net.cpp:141] Setting up conv_f_1_2
I0621 13:40:01.338814 22964 net.cpp:148] Top shape: 128 128 16 16 (4194304)
I0621 13:40:01.338820 22964 net.cpp:156] Memory required for data: 1645740544
I0621 13:40:01.338829 22964 layer_factory.hpp:77] Creating layer res_f
I0621 13:40:01.338850 22964 net.cpp:91] Creating Layer res_f
I0621 13:40:01.338857 22964 net.cpp:425] res_f <- elt_b_1_elt_b_1_0_split_1
I0621 13:40:01.338868 22964 net.cpp:399] res_f -> res_f
I0621 13:40:01.340009 22964 net.cpp:141] Setting up res_f
I0621 13:40:01.340026 22964 net.cpp:148] Top shape: 128 128 16 16 (4194304)
I0621 13:40:01.340036 22964 net.cpp:156] Memory required for data: 1662517760
I0621 13:40:01.340046 22964 layer_factory.hpp:77] Creating layer elt_f_1
I0621 13:40:01.340068 22964 net.cpp:91] Creating Layer elt_f_1
I0621 13:40:01.340078 22964 net.cpp:425] elt_f_1 <- res_f
I0621 13:40:01.340085 22964 net.cpp:425] elt_f_1 <- conv_f_1_2
I0621 13:40:01.340092 22964 net.cpp:399] elt_f_1 -> elt_f_1
I0621 13:40:01.340122 22964 net.cpp:141] Setting up elt_f_1
I0621 13:40:01.340133 22964 net.cpp:148] Top shape: 128 128 16 16 (4194304)
I0621 13:40:01.340139 22964 net.cpp:156] Memory required for data: 1679294976
I0621 13:40:01.340145 22964 layer_factory.hpp:77] Creating layer bn_g_1_1
I0621 13:40:01.340155 22964 net.cpp:91] Creating Layer bn_g_1_1
I0621 13:40:01.340162 22964 net.cpp:425] bn_g_1_1 <- elt_b_1_elt_b_1_0_split_2
I0621 13:40:01.340169 22964 net.cpp:399] bn_g_1_1 -> bn_g_1_1
I0621 13:40:01.340385 22964 net.cpp:141] Setting up bn_g_1_1
I0621 13:40:01.340399 22964 net.cpp:148] Top shape: 128 64 32 32 (8388608)
I0621 13:40:01.340404 22964 net.cpp:156] Memory required for data: 1712849408
I0621 13:40:01.340414 22964 layer_factory.hpp:77] Creating layer sc_g_1_1
I0621 13:40:01.340423 22964 net.cpp:91] Creating Layer sc_g_1_1
I0621 13:40:01.340430 22964 net.cpp:425] sc_g_1_1 <- bn_g_1_1
I0621 13:40:01.340440 22964 net.cpp:399] sc_g_1_1 -> sc_g_1_1
I0621 13:40:01.340487 22964 layer_factory.hpp:77] Creating layer sc_g_1_1
I0621 13:40:01.340610 22964 net.cpp:141] Setting up sc_g_1_1
I0621 13:40:01.340622 22964 net.cpp:148] Top shape: 128 64 32 32 (8388608)
I0621 13:40:01.340627 22964 net.cpp:156] Memory required for data: 1746403840
I0621 13:40:01.340636 22964 layer_factory.hpp:77] Creating layer relu_g_1_1
I0621 13:40:01.340653 22964 net.cpp:91] Creating Layer relu_g_1_1
I0621 13:40:01.340659 22964 net.cpp:425] relu_g_1_1 <- sc_g_1_1
I0621 13:40:01.340667 22964 net.cpp:399] relu_g_1_1 -> relu_g_1_1
I0621 13:40:01.340981 22964 net.cpp:141] Setting up relu_g_1_1
I0621 13:40:01.340998 22964 net.cpp:148] Top shape: 128 64 32 32 (8388608)
I0621 13:40:01.341006 22964 net.cpp:156] Memory required for data: 1779958272
I0621 13:40:01.341012 22964 layer_factory.hpp:77] Creating layer conv_g_1_1
I0621 13:40:01.341027 22964 net.cpp:91] Creating Layer conv_g_1_1
I0621 13:40:01.341034 22964 net.cpp:425] conv_g_1_1 <- relu_g_1_1
I0621 13:40:01.341043 22964 net.cpp:399] conv_g_1_1 -> conv_g_1_1
I0621 13:40:01.344640 22964 net.cpp:141] Setting up conv_g_1_1
I0621 13:40:01.344656 22964 net.cpp:148] Top shape: 128 128 16 16 (4194304)
I0621 13:40:01.344662 22964 net.cpp:156] Memory required for data: 1796735488
I0621 13:40:01.344674 22964 layer_factory.hpp:77] Creating layer bn_g_1_2
I0621 13:40:01.344683 22964 net.cpp:91] Creating Layer bn_g_1_2
I0621 13:40:01.344693 22964 net.cpp:425] bn_g_1_2 <- conv_g_1_1
I0621 13:40:01.344704 22964 net.cpp:399] bn_g_1_2 -> bn_g_1_2
I0621 13:40:01.344908 22964 net.cpp:141] Setting up bn_g_1_2
I0621 13:40:01.344921 22964 net.cpp:148] Top shape: 128 128 16 16 (4194304)
I0621 13:40:01.344926 22964 net.cpp:156] Memory required for data: 1813512704
I0621 13:40:01.344936 22964 layer_factory.hpp:77] Creating layer sc_g_1_2
I0621 13:40:01.344944 22964 net.cpp:91] Creating Layer sc_g_1_2
I0621 13:40:01.344951 22964 net.cpp:425] sc_g_1_2 <- bn_g_1_2
I0621 13:40:01.344961 22964 net.cpp:399] sc_g_1_2 -> sc_g_1_2
I0621 13:40:01.345005 22964 layer_factory.hpp:77] Creating layer sc_g_1_2
I0621 13:40:01.345115 22964 net.cpp:141] Setting up sc_g_1_2
I0621 13:40:01.345127 22964 net.cpp:148] Top shape: 128 128 16 16 (4194304)
I0621 13:40:01.345132 22964 net.cpp:156] Memory required for data: 1830289920
I0621 13:40:01.345140 22964 layer_factory.hpp:77] Creating layer relu_g_1_2
I0621 13:40:01.345150 22964 net.cpp:91] Creating Layer relu_g_1_2
I0621 13:40:01.345157 22964 net.cpp:425] relu_g_1_2 <- sc_g_1_2
I0621 13:40:01.345165 22964 net.cpp:399] relu_g_1_2 -> relu_g_1_2
I0621 13:40:01.345355 22964 net.cpp:141] Setting up relu_g_1_2
I0621 13:40:01.345372 22964 net.cpp:148] Top shape: 128 128 16 16 (4194304)
I0621 13:40:01.345379 22964 net.cpp:156] Memory required for data: 1847067136
I0621 13:40:01.345384 22964 layer_factory.hpp:77] Creating layer conv_g_1_2
I0621 13:40:01.345398 22964 net.cpp:91] Creating Layer conv_g_1_2
I0621 13:40:01.345407 22964 net.cpp:425] conv_g_1_2 <- relu_g_1_2
I0621 13:40:01.345415 22964 net.cpp:399] conv_g_1_2 -> conv_g_1_2
I0621 13:40:01.350498 22964 net.cpp:141] Setting up conv_g_1_2
I0621 13:40:01.350515 22964 net.cpp:148] Top shape: 128 128 16 16 (4194304)
I0621 13:40:01.350520 22964 net.cpp:156] Memory required for data: 1863844352
I0621 13:40:01.350533 22964 layer_factory.hpp:77] Creating layer res_g
I0621 13:40:01.350554 22964 net.cpp:91] Creating Layer res_g
I0621 13:40:01.350563 22964 net.cpp:425] res_g <- elt_b_1_elt_b_1_0_split_3
I0621 13:40:01.350574 22964 net.cpp:399] res_g -> res_g
I0621 13:40:01.351825 22964 net.cpp:141] Setting up res_g
I0621 13:40:01.351843 22964 net.cpp:148] Top shape: 128 128 16 16 (4194304)
I0621 13:40:01.351866 22964 net.cpp:156] Memory required for data: 1880621568
I0621 13:40:01.351876 22964 layer_factory.hpp:77] Creating layer elt_g_1
I0621 13:40:01.351886 22964 net.cpp:91] Creating Layer elt_g_1
I0621 13:40:01.351894 22964 net.cpp:425] elt_g_1 <- res_g
I0621 13:40:01.351902 22964 net.cpp:425] elt_g_1 <- conv_g_1_2
I0621 13:40:01.351912 22964 net.cpp:399] elt_g_1 -> elt_g_1
I0621 13:40:01.351943 22964 net.cpp:141] Setting up elt_g_1
I0621 13:40:01.351954 22964 net.cpp:148] Top shape: 128 128 16 16 (4194304)
I0621 13:40:01.351960 22964 net.cpp:156] Memory required for data: 1897398784
I0621 13:40:01.351965 22964 layer_factory.hpp:77] Creating layer bn_h_1_1
I0621 13:40:01.351976 22964 net.cpp:91] Creating Layer bn_h_1_1
I0621 13:40:01.351982 22964 net.cpp:425] bn_h_1_1 <- elt_c_1_elt_c_1_0_split_0
I0621 13:40:01.351990 22964 net.cpp:399] bn_h_1_1 -> bn_h_1_1
I0621 13:40:01.352197 22964 net.cpp:141] Setting up bn_h_1_1
I0621 13:40:01.352210 22964 net.cpp:148] Top shape: 128 64 32 32 (8388608)
I0621 13:40:01.352216 22964 net.cpp:156] Memory required for data: 1930953216
I0621 13:40:01.352226 22964 layer_factory.hpp:77] Creating layer sc_h_1_1
I0621 13:40:01.352234 22964 net.cpp:91] Creating Layer sc_h_1_1
I0621 13:40:01.352239 22964 net.cpp:425] sc_h_1_1 <- bn_h_1_1
I0621 13:40:01.352249 22964 net.cpp:399] sc_h_1_1 -> sc_h_1_1
I0621 13:40:01.352299 22964 layer_factory.hpp:77] Creating layer sc_h_1_1
I0621 13:40:01.352463 22964 net.cpp:141] Setting up sc_h_1_1
I0621 13:40:01.352475 22964 net.cpp:148] Top shape: 128 64 32 32 (8388608)
I0621 13:40:01.352481 22964 net.cpp:156] Memory required for data: 1964507648
I0621 13:40:01.352493 22964 layer_factory.hpp:77] Creating layer relu_h_1_1
I0621 13:40:01.352504 22964 net.cpp:91] Creating Layer relu_h_1_1
I0621 13:40:01.352509 22964 net.cpp:425] relu_h_1_1 <- sc_h_1_1
I0621 13:40:01.352516 22964 net.cpp:399] relu_h_1_1 -> relu_h_1_1
I0621 13:40:01.352715 22964 net.cpp:141] Setting up relu_h_1_1
I0621 13:40:01.352730 22964 net.cpp:148] Top shape: 128 64 32 32 (8388608)
I0621 13:40:01.352735 22964 net.cpp:156] Memory required for data: 1998062080
I0621 13:40:01.352741 22964 layer_factory.hpp:77] Creating layer conv_h_1_1
I0621 13:40:01.352756 22964 net.cpp:91] Creating Layer conv_h_1_1
I0621 13:40:01.352764 22964 net.cpp:425] conv_h_1_1 <- relu_h_1_1
I0621 13:40:01.352777 22964 net.cpp:399] conv_h_1_1 -> conv_h_1_1
I0621 13:40:01.356308 22964 net.cpp:141] Setting up conv_h_1_1
I0621 13:40:01.356336 22964 net.cpp:148] Top shape: 128 128 16 16 (4194304)
I0621 13:40:01.356343 22964 net.cpp:156] Memory required for data: 2014839296
I0621 13:40:01.356353 22964 layer_factory.hpp:77] Creating layer bn_h_1_2
I0621 13:40:01.356364 22964 net.cpp:91] Creating Layer bn_h_1_2
I0621 13:40:01.356369 22964 net.cpp:425] bn_h_1_2 <- conv_h_1_1
I0621 13:40:01.356377 22964 net.cpp:399] bn_h_1_2 -> bn_h_1_2
I0621 13:40:01.356580 22964 net.cpp:141] Setting up bn_h_1_2
I0621 13:40:01.356593 22964 net.cpp:148] Top shape: 128 128 16 16 (4194304)
I0621 13:40:01.356598 22964 net.cpp:156] Memory required for data: 2031616512
I0621 13:40:01.356608 22964 layer_factory.hpp:77] Creating layer sc_h_1_2
I0621 13:40:01.356617 22964 net.cpp:91] Creating Layer sc_h_1_2
I0621 13:40:01.356623 22964 net.cpp:425] sc_h_1_2 <- bn_h_1_2
I0621 13:40:01.356637 22964 net.cpp:399] sc_h_1_2 -> sc_h_1_2
I0621 13:40:01.356688 22964 layer_factory.hpp:77] Creating layer sc_h_1_2
I0621 13:40:01.356806 22964 net.cpp:141] Setting up sc_h_1_2
I0621 13:40:01.356818 22964 net.cpp:148] Top shape: 128 128 16 16 (4194304)
I0621 13:40:01.356823 22964 net.cpp:156] Memory required for data: 2048393728
I0621 13:40:01.356832 22964 layer_factory.hpp:77] Creating layer relu_h_1_2
I0621 13:40:01.356842 22964 net.cpp:91] Creating Layer relu_h_1_2
I0621 13:40:01.356850 22964 net.cpp:425] relu_h_1_2 <- sc_h_1_2
I0621 13:40:01.356859 22964 net.cpp:399] relu_h_1_2 -> relu_h_1_2
I0621 13:40:01.357177 22964 net.cpp:141] Setting up relu_h_1_2
I0621 13:40:01.357190 22964 net.cpp:148] Top shape: 128 128 16 16 (4194304)
I0621 13:40:01.357195 22964 net.cpp:156] Memory required for data: 2065170944
I0621 13:40:01.357214 22964 layer_factory.hpp:77] Creating layer conv_h_1_2
I0621 13:40:01.357230 22964 net.cpp:91] Creating Layer conv_h_1_2
I0621 13:40:01.357237 22964 net.cpp:425] conv_h_1_2 <- relu_h_1_2
I0621 13:40:01.357249 22964 net.cpp:399] conv_h_1_2 -> conv_h_1_2
I0621 13:40:01.362262 22964 net.cpp:141] Setting up conv_h_1_2
I0621 13:40:01.362288 22964 net.cpp:148] Top shape: 128 128 16 16 (4194304)
I0621 13:40:01.362295 22964 net.cpp:156] Memory required for data: 2081948160
I0621 13:40:01.362304 22964 layer_factory.hpp:77] Creating layer res_h
I0621 13:40:01.362329 22964 net.cpp:91] Creating Layer res_h
I0621 13:40:01.362335 22964 net.cpp:425] res_h <- elt_c_1_elt_c_1_0_split_1
I0621 13:40:01.362346 22964 net.cpp:399] res_h -> res_h
I0621 13:40:01.363514 22964 net.cpp:141] Setting up res_h
I0621 13:40:01.363543 22964 net.cpp:148] Top shape: 128 128 16 16 (4194304)
I0621 13:40:01.363549 22964 net.cpp:156] Memory required for data: 2098725376
I0621 13:40:01.363559 22964 layer_factory.hpp:77] Creating layer elt_h_1
I0621 13:40:01.363569 22964 net.cpp:91] Creating Layer elt_h_1
I0621 13:40:01.363575 22964 net.cpp:425] elt_h_1 <- res_h
I0621 13:40:01.363582 22964 net.cpp:425] elt_h_1 <- conv_h_1_2
I0621 13:40:01.363590 22964 net.cpp:399] elt_h_1 -> elt_h_1
I0621 13:40:01.363617 22964 net.cpp:141] Setting up elt_h_1
I0621 13:40:01.363629 22964 net.cpp:148] Top shape: 128 128 16 16 (4194304)
I0621 13:40:01.363651 22964 net.cpp:156] Memory required for data: 2115502592
I0621 13:40:01.363670 22964 layer_factory.hpp:77] Creating layer bn_i_1_1
I0621 13:40:01.363684 22964 net.cpp:91] Creating Layer bn_i_1_1
I0621 13:40:01.363692 22964 net.cpp:425] bn_i_1_1 <- elt_c_1_elt_c_1_0_split_2
I0621 13:40:01.363700 22964 net.cpp:399] bn_i_1_1 -> bn_i_1_1
I0621 13:40:01.363937 22964 net.cpp:141] Setting up bn_i_1_1
I0621 13:40:01.363950 22964 net.cpp:148] Top shape: 128 64 32 32 (8388608)
I0621 13:40:01.363955 22964 net.cpp:156] Memory required for data: 2149057024
I0621 13:40:01.363981 22964 layer_factory.hpp:77] Creating layer sc_i_1_1
I0621 13:40:01.363991 22964 net.cpp:91] Creating Layer sc_i_1_1
I0621 13:40:01.363996 22964 net.cpp:425] sc_i_1_1 <- bn_i_1_1
I0621 13:40:01.364006 22964 net.cpp:399] sc_i_1_1 -> sc_i_1_1
I0621 13:40:01.364058 22964 layer_factory.hpp:77] Creating layer sc_i_1_1
I0621 13:40:01.364189 22964 net.cpp:141] Setting up sc_i_1_1
I0621 13:40:01.364202 22964 net.cpp:148] Top shape: 128 64 32 32 (8388608)
I0621 13:40:01.364207 22964 net.cpp:156] Memory required for data: 2182611456
I0621 13:40:01.364215 22964 layer_factory.hpp:77] Creating layer relu_i_1_1
I0621 13:40:01.364224 22964 net.cpp:91] Creating Layer relu_i_1_1
I0621 13:40:01.364231 22964 net.cpp:425] relu_i_1_1 <- sc_i_1_1
I0621 13:40:01.364239 22964 net.cpp:399] relu_i_1_1 -> relu_i_1_1
I0621 13:40:01.364552 22964 net.cpp:141] Setting up relu_i_1_1
I0621 13:40:01.364567 22964 net.cpp:148] Top shape: 128 64 32 32 (8388608)
I0621 13:40:01.364573 22964 net.cpp:156] Memory required for data: 2216165888
I0621 13:40:01.364583 22964 layer_factory.hpp:77] Creating layer conv_i_1_1
I0621 13:40:01.364601 22964 net.cpp:91] Creating Layer conv_i_1_1
I0621 13:40:01.364609 22964 net.cpp:425] conv_i_1_1 <- relu_i_1_1
I0621 13:40:01.364619 22964 net.cpp:399] conv_i_1_1 -> conv_i_1_1
I0621 13:40:01.368314 22964 net.cpp:141] Setting up conv_i_1_1
I0621 13:40:01.368331 22964 net.cpp:148] Top shape: 128 128 16 16 (4194304)
I0621 13:40:01.368341 22964 net.cpp:156] Memory required for data: 2232943104
I0621 13:40:01.368352 22964 layer_factory.hpp:77] Creating layer bn_i_1_2
I0621 13:40:01.368366 22964 net.cpp:91] Creating Layer bn_i_1_2
I0621 13:40:01.368372 22964 net.cpp:425] bn_i_1_2 <- conv_i_1_1
I0621 13:40:01.368381 22964 net.cpp:399] bn_i_1_2 -> bn_i_1_2
I0621 13:40:01.368597 22964 net.cpp:141] Setting up bn_i_1_2
I0621 13:40:01.368609 22964 net.cpp:148] Top shape: 128 128 16 16 (4194304)
I0621 13:40:01.368614 22964 net.cpp:156] Memory required for data: 2249720320
I0621 13:40:01.368624 22964 layer_factory.hpp:77] Creating layer sc_i_1_2
I0621 13:40:01.368633 22964 net.cpp:91] Creating Layer sc_i_1_2
I0621 13:40:01.368639 22964 net.cpp:425] sc_i_1_2 <- bn_i_1_2
I0621 13:40:01.368648 22964 net.cpp:399] sc_i_1_2 -> sc_i_1_2
I0621 13:40:01.368693 22964 layer_factory.hpp:77] Creating layer sc_i_1_2
I0621 13:40:01.368815 22964 net.cpp:141] Setting up sc_i_1_2
I0621 13:40:01.368827 22964 net.cpp:148] Top shape: 128 128 16 16 (4194304)
I0621 13:40:01.368832 22964 net.cpp:156] Memory required for data: 2266497536
I0621 13:40:01.368840 22964 layer_factory.hpp:77] Creating layer relu_i_1_2
I0621 13:40:01.368849 22964 net.cpp:91] Creating Layer relu_i_1_2
I0621 13:40:01.368855 22964 net.cpp:425] relu_i_1_2 <- sc_i_1_2
I0621 13:40:01.368865 22964 net.cpp:399] relu_i_1_2 -> relu_i_1_2
I0621 13:40:01.369060 22964 net.cpp:141] Setting up relu_i_1_2
I0621 13:40:01.369073 22964 net.cpp:148] Top shape: 128 128 16 16 (4194304)
I0621 13:40:01.369079 22964 net.cpp:156] Memory required for data: 2283274752
I0621 13:40:01.369084 22964 layer_factory.hpp:77] Creating layer conv_i_1_2
I0621 13:40:01.369101 22964 net.cpp:91] Creating Layer conv_i_1_2
I0621 13:40:01.369108 22964 net.cpp:425] conv_i_1_2 <- relu_i_1_2
I0621 13:40:01.369117 22964 net.cpp:399] conv_i_1_2 -> conv_i_1_2
I0621 13:40:01.374285 22964 net.cpp:141] Setting up conv_i_1_2
I0621 13:40:01.374302 22964 net.cpp:148] Top shape: 128 128 16 16 (4194304)
I0621 13:40:01.374308 22964 net.cpp:156] Memory required for data: 2300051968
I0621 13:40:01.374346 22964 layer_factory.hpp:77] Creating layer res_i
I0621 13:40:01.374364 22964 net.cpp:91] Creating Layer res_i
I0621 13:40:01.374372 22964 net.cpp:425] res_i <- elt_c_1_elt_c_1_0_split_3
I0621 13:40:01.374384 22964 net.cpp:399] res_i -> res_i
I0621 13:40:01.375692 22964 net.cpp:141] Setting up res_i
I0621 13:40:01.375708 22964 net.cpp:148] Top shape: 128 128 16 16 (4194304)
I0621 13:40:01.375715 22964 net.cpp:156] Memory required for data: 2316829184
I0621 13:40:01.375744 22964 layer_factory.hpp:77] Creating layer elt_i_1
I0621 13:40:01.375756 22964 net.cpp:91] Creating Layer elt_i_1
I0621 13:40:01.375766 22964 net.cpp:425] elt_i_1 <- res_i
I0621 13:40:01.375773 22964 net.cpp:425] elt_i_1 <- conv_i_1_2
I0621 13:40:01.375782 22964 net.cpp:399] elt_i_1 -> elt_i_1
I0621 13:40:01.375813 22964 net.cpp:141] Setting up elt_i_1
I0621 13:40:01.375823 22964 net.cpp:148] Top shape: 128 128 16 16 (4194304)
I0621 13:40:01.375829 22964 net.cpp:156] Memory required for data: 2333606400
I0621 13:40:01.375835 22964 layer_factory.hpp:77] Creating layer elt_d_f
I0621 13:40:01.375845 22964 net.cpp:91] Creating Layer elt_d_f
I0621 13:40:01.375852 22964 net.cpp:425] elt_d_f <- elt_d_1
I0621 13:40:01.375859 22964 net.cpp:425] elt_d_f <- elt_f_1
I0621 13:40:01.375865 22964 net.cpp:399] elt_d_f -> elt_d_f
I0621 13:40:01.375898 22964 net.cpp:141] Setting up elt_d_f
I0621 13:40:01.375910 22964 net.cpp:148] Top shape: 128 128 16 16 (4194304)
I0621 13:40:01.375916 22964 net.cpp:156] Memory required for data: 2350383616
I0621 13:40:01.375921 22964 layer_factory.hpp:77] Creating layer elt_d_f_elt_d_f_0_split
I0621 13:40:01.375929 22964 net.cpp:91] Creating Layer elt_d_f_elt_d_f_0_split
I0621 13:40:01.375934 22964 net.cpp:425] elt_d_f_elt_d_f_0_split <- elt_d_f
I0621 13:40:01.375943 22964 net.cpp:399] elt_d_f_elt_d_f_0_split -> elt_d_f_elt_d_f_0_split_0
I0621 13:40:01.375954 22964 net.cpp:399] elt_d_f_elt_d_f_0_split -> elt_d_f_elt_d_f_0_split_1
I0621 13:40:01.375998 22964 net.cpp:141] Setting up elt_d_f_elt_d_f_0_split
I0621 13:40:01.376009 22964 net.cpp:148] Top shape: 128 128 16 16 (4194304)
I0621 13:40:01.376018 22964 net.cpp:148] Top shape: 128 128 16 16 (4194304)
I0621 13:40:01.376022 22964 net.cpp:156] Memory required for data: 2383938048
I0621 13:40:01.376027 22964 layer_factory.hpp:77] Creating layer elt_g_i
I0621 13:40:01.376039 22964 net.cpp:91] Creating Layer elt_g_i
I0621 13:40:01.376045 22964 net.cpp:425] elt_g_i <- elt_g_1
I0621 13:40:01.376051 22964 net.cpp:425] elt_g_i <- elt_i_1
I0621 13:40:01.376057 22964 net.cpp:399] elt_g_i -> elt_g_i
I0621 13:40:01.376091 22964 net.cpp:141] Setting up elt_g_i
I0621 13:40:01.376102 22964 net.cpp:148] Top shape: 128 128 16 16 (4194304)
I0621 13:40:01.376107 22964 net.cpp:156] Memory required for data: 2400715264
I0621 13:40:01.376112 22964 layer_factory.hpp:77] Creating layer elt_g_i_elt_g_i_0_split
I0621 13:40:01.376119 22964 net.cpp:91] Creating Layer elt_g_i_elt_g_i_0_split
I0621 13:40:01.376127 22964 net.cpp:425] elt_g_i_elt_g_i_0_split <- elt_g_i
I0621 13:40:01.376135 22964 net.cpp:399] elt_g_i_elt_g_i_0_split -> elt_g_i_elt_g_i_0_split_0
I0621 13:40:01.376145 22964 net.cpp:399] elt_g_i_elt_g_i_0_split -> elt_g_i_elt_g_i_0_split_1
I0621 13:40:01.376193 22964 net.cpp:141] Setting up elt_g_i_elt_g_i_0_split
I0621 13:40:01.376204 22964 net.cpp:148] Top shape: 128 128 16 16 (4194304)
I0621 13:40:01.376212 22964 net.cpp:148] Top shape: 128 128 16 16 (4194304)
I0621 13:40:01.376216 22964 net.cpp:156] Memory required for data: 2434269696
I0621 13:40:01.376222 22964 layer_factory.hpp:77] Creating layer bn_j_1_1
I0621 13:40:01.376230 22964 net.cpp:91] Creating Layer bn_j_1_1
I0621 13:40:01.376237 22964 net.cpp:425] bn_j_1_1 <- elt_d_f_elt_d_f_0_split_0
I0621 13:40:01.376245 22964 net.cpp:399] bn_j_1_1 -> bn_j_1_1
I0621 13:40:01.376446 22964 net.cpp:141] Setting up bn_j_1_1
I0621 13:40:01.376457 22964 net.cpp:148] Top shape: 128 128 16 16 (4194304)
I0621 13:40:01.376463 22964 net.cpp:156] Memory required for data: 2451046912
I0621 13:40:01.376474 22964 layer_factory.hpp:77] Creating layer sc_j_1_1
I0621 13:40:01.376497 22964 net.cpp:91] Creating Layer sc_j_1_1
I0621 13:40:01.376505 22964 net.cpp:425] sc_j_1_1 <- bn_j_1_1
I0621 13:40:01.376518 22964 net.cpp:399] sc_j_1_1 -> sc_j_1_1
I0621 13:40:01.376566 22964 layer_factory.hpp:77] Creating layer sc_j_1_1
I0621 13:40:01.376703 22964 net.cpp:141] Setting up sc_j_1_1
I0621 13:40:01.376715 22964 net.cpp:148] Top shape: 128 128 16 16 (4194304)
I0621 13:40:01.376720 22964 net.cpp:156] Memory required for data: 2467824128
I0621 13:40:01.376729 22964 layer_factory.hpp:77] Creating layer relu_j_1_1
I0621 13:40:01.376740 22964 net.cpp:91] Creating Layer relu_j_1_1
I0621 13:40:01.376747 22964 net.cpp:425] relu_j_1_1 <- sc_j_1_1
I0621 13:40:01.376755 22964 net.cpp:399] relu_j_1_1 -> relu_j_1_1
I0621 13:40:01.376945 22964 net.cpp:141] Setting up relu_j_1_1
I0621 13:40:01.376960 22964 net.cpp:148] Top shape: 128 128 16 16 (4194304)
I0621 13:40:01.376965 22964 net.cpp:156] Memory required for data: 2484601344
I0621 13:40:01.376976 22964 layer_factory.hpp:77] Creating layer conv_j_1_1
I0621 13:40:01.376992 22964 net.cpp:91] Creating Layer conv_j_1_1
I0621 13:40:01.376999 22964 net.cpp:425] conv_j_1_1 <- relu_j_1_1
I0621 13:40:01.377008 22964 net.cpp:399] conv_j_1_1 -> conv_j_1_1
I0621 13:40:01.386708 22964 net.cpp:141] Setting up conv_j_1_1
I0621 13:40:01.386736 22964 net.cpp:148] Top shape: 128 256 8 8 (2097152)
I0621 13:40:01.386742 22964 net.cpp:156] Memory required for data: 2492989952
I0621 13:40:01.386751 22964 layer_factory.hpp:77] Creating layer bn_j_1_2
I0621 13:40:01.386765 22964 net.cpp:91] Creating Layer bn_j_1_2
I0621 13:40:01.386770 22964 net.cpp:425] bn_j_1_2 <- conv_j_1_1
I0621 13:40:01.386780 22964 net.cpp:399] bn_j_1_2 -> bn_j_1_2
I0621 13:40:01.387013 22964 net.cpp:141] Setting up bn_j_1_2
I0621 13:40:01.387027 22964 net.cpp:148] Top shape: 128 256 8 8 (2097152)
I0621 13:40:01.387032 22964 net.cpp:156] Memory required for data: 2501378560
I0621 13:40:01.387042 22964 layer_factory.hpp:77] Creating layer sc_j_1_2
I0621 13:40:01.387050 22964 net.cpp:91] Creating Layer sc_j_1_2
I0621 13:40:01.387055 22964 net.cpp:425] sc_j_1_2 <- bn_j_1_2
I0621 13:40:01.387063 22964 net.cpp:399] sc_j_1_2 -> sc_j_1_2
I0621 13:40:01.387115 22964 layer_factory.hpp:77] Creating layer sc_j_1_2
I0621 13:40:01.387248 22964 net.cpp:141] Setting up sc_j_1_2
I0621 13:40:01.387259 22964 net.cpp:148] Top shape: 128 256 8 8 (2097152)
I0621 13:40:01.387264 22964 net.cpp:156] Memory required for data: 2509767168
I0621 13:40:01.387272 22964 layer_factory.hpp:77] Creating layer relu_j_1_2
I0621 13:40:01.387282 22964 net.cpp:91] Creating Layer relu_j_1_2
I0621 13:40:01.387290 22964 net.cpp:425] relu_j_1_2 <- sc_j_1_2
I0621 13:40:01.387296 22964 net.cpp:399] relu_j_1_2 -> relu_j_1_2
I0621 13:40:01.387614 22964 net.cpp:141] Setting up relu_j_1_2
I0621 13:40:01.387630 22964 net.cpp:148] Top shape: 128 256 8 8 (2097152)
I0621 13:40:01.387635 22964 net.cpp:156] Memory required for data: 2518155776
I0621 13:40:01.387655 22964 layer_factory.hpp:77] Creating layer conv_j_1_2
I0621 13:40:01.387670 22964 net.cpp:91] Creating Layer conv_j_1_2
I0621 13:40:01.387676 22964 net.cpp:425] conv_j_1_2 <- relu_j_1_2
I0621 13:40:01.387684 22964 net.cpp:399] conv_j_1_2 -> conv_j_1_2
I0621 13:40:01.405758 22964 net.cpp:141] Setting up conv_j_1_2
I0621 13:40:01.405787 22964 net.cpp:148] Top shape: 128 256 8 8 (2097152)
I0621 13:40:01.405794 22964 net.cpp:156] Memory required for data: 2526544384
I0621 13:40:01.405803 22964 layer_factory.hpp:77] Creating layer res_j
I0621 13:40:01.405829 22964 net.cpp:91] Creating Layer res_j
I0621 13:40:01.405835 22964 net.cpp:425] res_j <- elt_d_f_elt_d_f_0_split_1
I0621 13:40:01.405844 22964 net.cpp:399] res_j -> res_j
I0621 13:40:01.407662 22964 net.cpp:141] Setting up res_j
I0621 13:40:01.407678 22964 net.cpp:148] Top shape: 128 256 8 8 (2097152)
I0621 13:40:01.407697 22964 net.cpp:156] Memory required for data: 2534932992
I0621 13:40:01.407706 22964 layer_factory.hpp:77] Creating layer elt_j_1
I0621 13:40:01.407718 22964 net.cpp:91] Creating Layer elt_j_1
I0621 13:40:01.407742 22964 net.cpp:425] elt_j_1 <- res_j
I0621 13:40:01.407763 22964 net.cpp:425] elt_j_1 <- conv_j_1_2
I0621 13:40:01.407771 22964 net.cpp:399] elt_j_1 -> elt_j_1
I0621 13:40:01.407809 22964 net.cpp:141] Setting up elt_j_1
I0621 13:40:01.407821 22964 net.cpp:148] Top shape: 128 256 8 8 (2097152)
I0621 13:40:01.407827 22964 net.cpp:156] Memory required for data: 2543321600
I0621 13:40:01.407832 22964 layer_factory.hpp:77] Creating layer bn_e_1_1
I0621 13:40:01.407845 22964 net.cpp:91] Creating Layer bn_e_1_1
I0621 13:40:01.407851 22964 net.cpp:425] bn_e_1_1 <- elt_a_1_elt_a_1_0_split_2
I0621 13:40:01.407860 22964 net.cpp:399] bn_e_1_1 -> bn_e_1_1
I0621 13:40:01.408121 22964 net.cpp:141] Setting up bn_e_1_1
I0621 13:40:01.408133 22964 net.cpp:148] Top shape: 128 64 32 32 (8388608)
I0621 13:40:01.408138 22964 net.cpp:156] Memory required for data: 2576876032
I0621 13:40:01.408162 22964 layer_factory.hpp:77] Creating layer sc_e_1_1
I0621 13:40:01.408170 22964 net.cpp:91] Creating Layer sc_e_1_1
I0621 13:40:01.408176 22964 net.cpp:425] sc_e_1_1 <- bn_e_1_1
I0621 13:40:01.408182 22964 net.cpp:399] sc_e_1_1 -> sc_e_1_1
I0621 13:40:01.408246 22964 layer_factory.hpp:77] Creating layer sc_e_1_1
I0621 13:40:01.408382 22964 net.cpp:141] Setting up sc_e_1_1
I0621 13:40:01.408395 22964 net.cpp:148] Top shape: 128 64 32 32 (8388608)
I0621 13:40:01.408399 22964 net.cpp:156] Memory required for data: 2610430464
I0621 13:40:01.408408 22964 layer_factory.hpp:77] Creating layer relu_e_1_1
I0621 13:40:01.408421 22964 net.cpp:91] Creating Layer relu_e_1_1
I0621 13:40:01.408428 22964 net.cpp:425] relu_e_1_1 <- sc_e_1_1
I0621 13:40:01.408437 22964 net.cpp:399] relu_e_1_1 -> relu_e_1_1
I0621 13:40:01.408762 22964 net.cpp:141] Setting up relu_e_1_1
I0621 13:40:01.408776 22964 net.cpp:148] Top shape: 128 64 32 32 (8388608)
I0621 13:40:01.408795 22964 net.cpp:156] Memory required for data: 2643984896
I0621 13:40:01.408802 22964 layer_factory.hpp:77] Creating layer conv_e_1_1
I0621 13:40:01.408815 22964 net.cpp:91] Creating Layer conv_e_1_1
I0621 13:40:01.408823 22964 net.cpp:425] conv_e_1_1 <- relu_e_1_1
I0621 13:40:01.408833 22964 net.cpp:399] conv_e_1_1 -> conv_e_1_1
I0621 13:40:01.412345 22964 net.cpp:141] Setting up conv_e_1_1
I0621 13:40:01.412374 22964 net.cpp:148] Top shape: 128 128 16 16 (4194304)
I0621 13:40:01.412381 22964 net.cpp:156] Memory required for data: 2660762112
I0621 13:40:01.412391 22964 layer_factory.hpp:77] Creating layer bn_e_1_2
I0621 13:40:01.412402 22964 net.cpp:91] Creating Layer bn_e_1_2
I0621 13:40:01.412408 22964 net.cpp:425] bn_e_1_2 <- conv_e_1_1
I0621 13:40:01.412417 22964 net.cpp:399] bn_e_1_2 -> bn_e_1_2
I0621 13:40:01.412637 22964 net.cpp:141] Setting up bn_e_1_2
I0621 13:40:01.412650 22964 net.cpp:148] Top shape: 128 128 16 16 (4194304)
I0621 13:40:01.412655 22964 net.cpp:156] Memory required for data: 2677539328
I0621 13:40:01.412665 22964 layer_factory.hpp:77] Creating layer sc_e_1_2
I0621 13:40:01.412673 22964 net.cpp:91] Creating Layer sc_e_1_2
I0621 13:40:01.412679 22964 net.cpp:425] sc_e_1_2 <- bn_e_1_2
I0621 13:40:01.412686 22964 net.cpp:399] sc_e_1_2 -> sc_e_1_2
I0621 13:40:01.412739 22964 layer_factory.hpp:77] Creating layer sc_e_1_2
I0621 13:40:01.412864 22964 net.cpp:141] Setting up sc_e_1_2
I0621 13:40:01.412876 22964 net.cpp:148] Top shape: 128 128 16 16 (4194304)
I0621 13:40:01.412881 22964 net.cpp:156] Memory required for data: 2694316544
I0621 13:40:01.412890 22964 layer_factory.hpp:77] Creating layer relu_e_1_2
I0621 13:40:01.412901 22964 net.cpp:91] Creating Layer relu_e_1_2
I0621 13:40:01.412909 22964 net.cpp:425] relu_e_1_2 <- sc_e_1_2
I0621 13:40:01.412919 22964 net.cpp:399] relu_e_1_2 -> relu_e_1_2
I0621 13:40:01.413116 22964 net.cpp:141] Setting up relu_e_1_2
I0621 13:40:01.413130 22964 net.cpp:148] Top shape: 128 128 16 16 (4194304)
I0621 13:40:01.413136 22964 net.cpp:156] Memory required for data: 2711093760
I0621 13:40:01.413141 22964 layer_factory.hpp:77] Creating layer conv_e_1_2
I0621 13:40:01.413157 22964 net.cpp:91] Creating Layer conv_e_1_2
I0621 13:40:01.413178 22964 net.cpp:425] conv_e_1_2 <- relu_e_1_2
I0621 13:40:01.413189 22964 net.cpp:399] conv_e_1_2 -> conv_e_1_2
I0621 13:40:01.418210 22964 net.cpp:141] Setting up conv_e_1_2
I0621 13:40:01.418237 22964 net.cpp:148] Top shape: 128 128 16 16 (4194304)
I0621 13:40:01.418243 22964 net.cpp:156] Memory required for data: 2727870976
I0621 13:40:01.418252 22964 layer_factory.hpp:77] Creating layer res_e
I0621 13:40:01.418267 22964 net.cpp:91] Creating Layer res_e
I0621 13:40:01.418277 22964 net.cpp:425] res_e <- elt_a_1_elt_a_1_0_split_3
I0621 13:40:01.418287 22964 net.cpp:399] res_e -> res_e
I0621 13:40:01.419638 22964 net.cpp:141] Setting up res_e
I0621 13:40:01.419654 22964 net.cpp:148] Top shape: 128 128 16 16 (4194304)
I0621 13:40:01.419672 22964 net.cpp:156] Memory required for data: 2744648192
I0621 13:40:01.419682 22964 layer_factory.hpp:77] Creating layer elt_e_1
I0621 13:40:01.419693 22964 net.cpp:91] Creating Layer elt_e_1
I0621 13:40:01.419699 22964 net.cpp:425] elt_e_1 <- res_e
I0621 13:40:01.419708 22964 net.cpp:425] elt_e_1 <- conv_e_1_2
I0621 13:40:01.419715 22964 net.cpp:399] elt_e_1 -> elt_e_1
I0621 13:40:01.419747 22964 net.cpp:141] Setting up elt_e_1
I0621 13:40:01.419759 22964 net.cpp:148] Top shape: 128 128 16 16 (4194304)
I0621 13:40:01.419764 22964 net.cpp:156] Memory required for data: 2761425408
I0621 13:40:01.419770 22964 layer_factory.hpp:77] Creating layer elt_e_h
I0621 13:40:01.419776 22964 net.cpp:91] Creating Layer elt_e_h
I0621 13:40:01.419786 22964 net.cpp:425] elt_e_h <- elt_e_1
I0621 13:40:01.419792 22964 net.cpp:425] elt_e_h <- elt_h_1
I0621 13:40:01.419798 22964 net.cpp:399] elt_e_h -> elt_e_h
I0621 13:40:01.419836 22964 net.cpp:141] Setting up elt_e_h
I0621 13:40:01.419847 22964 net.cpp:148] Top shape: 128 128 16 16 (4194304)
I0621 13:40:01.419852 22964 net.cpp:156] Memory required for data: 2778202624
I0621 13:40:01.419857 22964 layer_factory.hpp:77] Creating layer elt_e_h_elt_e_h_0_split
I0621 13:40:01.419865 22964 net.cpp:91] Creating Layer elt_e_h_elt_e_h_0_split
I0621 13:40:01.419872 22964 net.cpp:425] elt_e_h_elt_e_h_0_split <- elt_e_h
I0621 13:40:01.419878 22964 net.cpp:399] elt_e_h_elt_e_h_0_split -> elt_e_h_elt_e_h_0_split_0
I0621 13:40:01.419899 22964 net.cpp:399] elt_e_h_elt_e_h_0_split -> elt_e_h_elt_e_h_0_split_1
I0621 13:40:01.419947 22964 net.cpp:141] Setting up elt_e_h_elt_e_h_0_split
I0621 13:40:01.419961 22964 net.cpp:148] Top shape: 128 128 16 16 (4194304)
I0621 13:40:01.419970 22964 net.cpp:148] Top shape: 128 128 16 16 (4194304)
I0621 13:40:01.419975 22964 net.cpp:156] Memory required for data: 2811757056
I0621 13:40:01.419980 22964 layer_factory.hpp:77] Creating layer bn_k_1_1
I0621 13:40:01.419988 22964 net.cpp:91] Creating Layer bn_k_1_1
I0621 13:40:01.419994 22964 net.cpp:425] bn_k_1_1 <- elt_e_h_elt_e_h_0_split_0
I0621 13:40:01.420006 22964 net.cpp:399] bn_k_1_1 -> bn_k_1_1
I0621 13:40:01.420213 22964 net.cpp:141] Setting up bn_k_1_1
I0621 13:40:01.420225 22964 net.cpp:148] Top shape: 128 128 16 16 (4194304)
I0621 13:40:01.420231 22964 net.cpp:156] Memory required for data: 2828534272
I0621 13:40:01.420241 22964 layer_factory.hpp:77] Creating layer sc_k_1_1
I0621 13:40:01.420253 22964 net.cpp:91] Creating Layer sc_k_1_1
I0621 13:40:01.420260 22964 net.cpp:425] sc_k_1_1 <- bn_k_1_1
I0621 13:40:01.420269 22964 net.cpp:399] sc_k_1_1 -> sc_k_1_1
I0621 13:40:01.420312 22964 layer_factory.hpp:77] Creating layer sc_k_1_1
I0621 13:40:01.420440 22964 net.cpp:141] Setting up sc_k_1_1
I0621 13:40:01.420454 22964 net.cpp:148] Top shape: 128 128 16 16 (4194304)
I0621 13:40:01.420460 22964 net.cpp:156] Memory required for data: 2845311488
I0621 13:40:01.420469 22964 layer_factory.hpp:77] Creating layer relu_k_1_1
I0621 13:40:01.420477 22964 net.cpp:91] Creating Layer relu_k_1_1
I0621 13:40:01.420485 22964 net.cpp:425] relu_k_1_1 <- sc_k_1_1
I0621 13:40:01.420490 22964 net.cpp:399] relu_k_1_1 -> relu_k_1_1
I0621 13:40:01.420677 22964 net.cpp:141] Setting up relu_k_1_1
I0621 13:40:01.420692 22964 net.cpp:148] Top shape: 128 128 16 16 (4194304)
I0621 13:40:01.420712 22964 net.cpp:156] Memory required for data: 2862088704
I0621 13:40:01.420738 22964 layer_factory.hpp:77] Creating layer conv_k_1_1
I0621 13:40:01.420753 22964 net.cpp:91] Creating Layer conv_k_1_1
I0621 13:40:01.420761 22964 net.cpp:425] conv_k_1_1 <- relu_k_1_1
I0621 13:40:01.420770 22964 net.cpp:399] conv_k_1_1 -> conv_k_1_1
I0621 13:40:01.430333 22964 net.cpp:141] Setting up conv_k_1_1
I0621 13:40:01.430351 22964 net.cpp:148] Top shape: 128 256 8 8 (2097152)
I0621 13:40:01.430356 22964 net.cpp:156] Memory required for data: 2870477312
I0621 13:40:01.430371 22964 layer_factory.hpp:77] Creating layer bn_k_1_2
I0621 13:40:01.430384 22964 net.cpp:91] Creating Layer bn_k_1_2
I0621 13:40:01.430392 22964 net.cpp:425] bn_k_1_2 <- conv_k_1_1
I0621 13:40:01.430399 22964 net.cpp:399] bn_k_1_2 -> bn_k_1_2
I0621 13:40:01.430629 22964 net.cpp:141] Setting up bn_k_1_2
I0621 13:40:01.430640 22964 net.cpp:148] Top shape: 128 256 8 8 (2097152)
I0621 13:40:01.430645 22964 net.cpp:156] Memory required for data: 2878865920
I0621 13:40:01.430655 22964 layer_factory.hpp:77] Creating layer sc_k_1_2
I0621 13:40:01.430663 22964 net.cpp:91] Creating Layer sc_k_1_2
I0621 13:40:01.430672 22964 net.cpp:425] sc_k_1_2 <- bn_k_1_2
I0621 13:40:01.430687 22964 net.cpp:399] sc_k_1_2 -> sc_k_1_2
I0621 13:40:01.430764 22964 layer_factory.hpp:77] Creating layer sc_k_1_2
I0621 13:40:01.430917 22964 net.cpp:141] Setting up sc_k_1_2
I0621 13:40:01.430932 22964 net.cpp:148] Top shape: 128 256 8 8 (2097152)
I0621 13:40:01.430938 22964 net.cpp:156] Memory required for data: 2887254528
I0621 13:40:01.430948 22964 layer_factory.hpp:77] Creating layer relu_k_1_2
I0621 13:40:01.430955 22964 net.cpp:91] Creating Layer relu_k_1_2
I0621 13:40:01.430963 22964 net.cpp:425] relu_k_1_2 <- sc_k_1_2
I0621 13:40:01.430970 22964 net.cpp:399] relu_k_1_2 -> relu_k_1_2
I0621 13:40:01.431318 22964 net.cpp:141] Setting up relu_k_1_2
I0621 13:40:01.431346 22964 net.cpp:148] Top shape: 128 256 8 8 (2097152)
I0621 13:40:01.431352 22964 net.cpp:156] Memory required for data: 2895643136
I0621 13:40:01.431357 22964 layer_factory.hpp:77] Creating layer conv_k_1_2
I0621 13:40:01.431375 22964 net.cpp:91] Creating Layer conv_k_1_2
I0621 13:40:01.431380 22964 net.cpp:425] conv_k_1_2 <- relu_k_1_2
I0621 13:40:01.431390 22964 net.cpp:399] conv_k_1_2 -> conv_k_1_2
I0621 13:40:01.448644 22964 net.cpp:141] Setting up conv_k_1_2
I0621 13:40:01.448673 22964 net.cpp:148] Top shape: 128 256 8 8 (2097152)
I0621 13:40:01.448678 22964 net.cpp:156] Memory required for data: 2904031744
I0621 13:40:01.448688 22964 layer_factory.hpp:77] Creating layer res_k
I0621 13:40:01.448714 22964 net.cpp:91] Creating Layer res_k
I0621 13:40:01.448720 22964 net.cpp:425] res_k <- elt_e_h_elt_e_h_0_split_1
I0621 13:40:01.448729 22964 net.cpp:399] res_k -> res_k
I0621 13:40:01.450610 22964 net.cpp:141] Setting up res_k
I0621 13:40:01.450625 22964 net.cpp:148] Top shape: 128 256 8 8 (2097152)
I0621 13:40:01.450645 22964 net.cpp:156] Memory required for data: 2912420352
I0621 13:40:01.450654 22964 layer_factory.hpp:77] Creating layer elt_k_1
I0621 13:40:01.450665 22964 net.cpp:91] Creating Layer elt_k_1
I0621 13:40:01.450671 22964 net.cpp:425] elt_k_1 <- res_k
I0621 13:40:01.450680 22964 net.cpp:425] elt_k_1 <- conv_k_1_2
I0621 13:40:01.450692 22964 net.cpp:399] elt_k_1 -> elt_k_1
I0621 13:40:01.450729 22964 net.cpp:141] Setting up elt_k_1
I0621 13:40:01.450745 22964 net.cpp:148] Top shape: 128 256 8 8 (2097152)
I0621 13:40:01.450750 22964 net.cpp:156] Memory required for data: 2920808960
I0621 13:40:01.450755 22964 layer_factory.hpp:77] Creating layer bn_l_1_1
I0621 13:40:01.450767 22964 net.cpp:91] Creating Layer bn_l_1_1
I0621 13:40:01.450773 22964 net.cpp:425] bn_l_1_1 <- elt_g_i_elt_g_i_0_split_0
I0621 13:40:01.450781 22964 net.cpp:399] bn_l_1_1 -> bn_l_1_1
I0621 13:40:01.451022 22964 net.cpp:141] Setting up bn_l_1_1
I0621 13:40:01.451035 22964 net.cpp:148] Top shape: 128 128 16 16 (4194304)
I0621 13:40:01.451040 22964 net.cpp:156] Memory required for data: 2937586176
I0621 13:40:01.451050 22964 layer_factory.hpp:77] Creating layer sc_l_1_1
I0621 13:40:01.451097 22964 net.cpp:91] Creating Layer sc_l_1_1
I0621 13:40:01.451107 22964 net.cpp:425] sc_l_1_1 <- bn_l_1_1
I0621 13:40:01.451114 22964 net.cpp:399] sc_l_1_1 -> sc_l_1_1
I0621 13:40:01.451169 22964 layer_factory.hpp:77] Creating layer sc_l_1_1
I0621 13:40:01.451299 22964 net.cpp:141] Setting up sc_l_1_1
I0621 13:40:01.451311 22964 net.cpp:148] Top shape: 128 128 16 16 (4194304)
I0621 13:40:01.451316 22964 net.cpp:156] Memory required for data: 2954363392
I0621 13:40:01.451325 22964 layer_factory.hpp:77] Creating layer relu_l_1_1
I0621 13:40:01.451336 22964 net.cpp:91] Creating Layer relu_l_1_1
I0621 13:40:01.451344 22964 net.cpp:425] relu_l_1_1 <- sc_l_1_1
I0621 13:40:01.451351 22964 net.cpp:399] relu_l_1_1 -> relu_l_1_1
I0621 13:40:01.451666 22964 net.cpp:141] Setting up relu_l_1_1
I0621 13:40:01.451683 22964 net.cpp:148] Top shape: 128 128 16 16 (4194304)
I0621 13:40:01.451690 22964 net.cpp:156] Memory required for data: 2971140608
I0621 13:40:01.451696 22964 layer_factory.hpp:77] Creating layer conv_l_1_1
I0621 13:40:01.451710 22964 net.cpp:91] Creating Layer conv_l_1_1
I0621 13:40:01.451717 22964 net.cpp:425] conv_l_1_1 <- relu_l_1_1
I0621 13:40:01.451726 22964 net.cpp:399] conv_l_1_1 -> conv_l_1_1
I0621 13:40:01.461386 22964 net.cpp:141] Setting up conv_l_1_1
I0621 13:40:01.461403 22964 net.cpp:148] Top shape: 128 256 8 8 (2097152)
I0621 13:40:01.461410 22964 net.cpp:156] Memory required for data: 2979529216
I0621 13:40:01.461419 22964 layer_factory.hpp:77] Creating layer bn_l_1_2
I0621 13:40:01.461437 22964 net.cpp:91] Creating Layer bn_l_1_2
I0621 13:40:01.461446 22964 net.cpp:425] bn_l_1_2 <- conv_l_1_1
I0621 13:40:01.461453 22964 net.cpp:399] bn_l_1_2 -> bn_l_1_2
I0621 13:40:01.461706 22964 net.cpp:141] Setting up bn_l_1_2
I0621 13:40:01.461719 22964 net.cpp:148] Top shape: 128 256 8 8 (2097152)
I0621 13:40:01.461724 22964 net.cpp:156] Memory required for data: 2987917824
I0621 13:40:01.461735 22964 layer_factory.hpp:77] Creating layer sc_l_1_2
I0621 13:40:01.461742 22964 net.cpp:91] Creating Layer sc_l_1_2
I0621 13:40:01.461751 22964 net.cpp:425] sc_l_1_2 <- bn_l_1_2
I0621 13:40:01.461760 22964 net.cpp:399] sc_l_1_2 -> sc_l_1_2
I0621 13:40:01.461812 22964 layer_factory.hpp:77] Creating layer sc_l_1_2
I0621 13:40:01.461946 22964 net.cpp:141] Setting up sc_l_1_2
I0621 13:40:01.461956 22964 net.cpp:148] Top shape: 128 256 8 8 (2097152)
I0621 13:40:01.461961 22964 net.cpp:156] Memory required for data: 2996306432
I0621 13:40:01.461971 22964 layer_factory.hpp:77] Creating layer relu_l_1_2
I0621 13:40:01.461992 22964 net.cpp:91] Creating Layer relu_l_1_2
I0621 13:40:01.462000 22964 net.cpp:425] relu_l_1_2 <- sc_l_1_2
I0621 13:40:01.462007 22964 net.cpp:399] relu_l_1_2 -> relu_l_1_2
I0621 13:40:01.462201 22964 net.cpp:141] Setting up relu_l_1_2
I0621 13:40:01.462214 22964 net.cpp:148] Top shape: 128 256 8 8 (2097152)
I0621 13:40:01.462219 22964 net.cpp:156] Memory required for data: 3004695040
I0621 13:40:01.462225 22964 layer_factory.hpp:77] Creating layer conv_l_1_2
I0621 13:40:01.462241 22964 net.cpp:91] Creating Layer conv_l_1_2
I0621 13:40:01.462249 22964 net.cpp:425] conv_l_1_2 <- relu_l_1_2
I0621 13:40:01.462257 22964 net.cpp:399] conv_l_1_2 -> conv_l_1_2
I0621 13:40:01.480180 22964 net.cpp:141] Setting up conv_l_1_2
I0621 13:40:01.480201 22964 net.cpp:148] Top shape: 128 256 8 8 (2097152)
I0621 13:40:01.480211 22964 net.cpp:156] Memory required for data: 3013083648
I0621 13:40:01.480221 22964 layer_factory.hpp:77] Creating layer res_l
I0621 13:40:01.480238 22964 net.cpp:91] Creating Layer res_l
I0621 13:40:01.480247 22964 net.cpp:425] res_l <- elt_g_i_elt_g_i_0_split_1
I0621 13:40:01.480254 22964 net.cpp:399] res_l -> res_l
I0621 13:40:01.482192 22964 net.cpp:141] Setting up res_l
I0621 13:40:01.482209 22964 net.cpp:148] Top shape: 128 256 8 8 (2097152)
I0621 13:40:01.482218 22964 net.cpp:156] Memory required for data: 3021472256
I0621 13:40:01.482228 22964 layer_factory.hpp:77] Creating layer elt_l_1
I0621 13:40:01.482239 22964 net.cpp:91] Creating Layer elt_l_1
I0621 13:40:01.482272 22964 net.cpp:425] elt_l_1 <- res_l
I0621 13:40:01.482281 22964 net.cpp:425] elt_l_1 <- conv_l_1_2
I0621 13:40:01.482295 22964 net.cpp:399] elt_l_1 -> elt_l_1
I0621 13:40:01.482336 22964 net.cpp:141] Setting up elt_l_1
I0621 13:40:01.482348 22964 net.cpp:148] Top shape: 128 256 8 8 (2097152)
I0621 13:40:01.482354 22964 net.cpp:156] Memory required for data: 3029860864
I0621 13:40:01.482360 22964 layer_factory.hpp:77] Creating layer elt_j_k_l
I0621 13:40:01.482367 22964 net.cpp:91] Creating Layer elt_j_k_l
I0621 13:40:01.482373 22964 net.cpp:425] elt_j_k_l <- elt_j_1
I0621 13:40:01.482379 22964 net.cpp:425] elt_j_k_l <- elt_k_1
I0621 13:40:01.482384 22964 net.cpp:425] elt_j_k_l <- elt_l_1
I0621 13:40:01.482394 22964 net.cpp:399] elt_j_k_l -> elt_j_k_l
I0621 13:40:01.482430 22964 net.cpp:141] Setting up elt_j_k_l
I0621 13:40:01.482442 22964 net.cpp:148] Top shape: 128 256 8 8 (2097152)
I0621 13:40:01.482448 22964 net.cpp:156] Memory required for data: 3038249472
I0621 13:40:01.482453 22964 layer_factory.hpp:77] Creating layer bn_m_1_1
I0621 13:40:01.482462 22964 net.cpp:91] Creating Layer bn_m_1_1
I0621 13:40:01.482470 22964 net.cpp:425] bn_m_1_1 <- elt_j_k_l
I0621 13:40:01.482480 22964 net.cpp:399] bn_m_1_1 -> bn_m_1_1
I0621 13:40:01.482735 22964 net.cpp:141] Setting up bn_m_1_1
I0621 13:40:01.482748 22964 net.cpp:148] Top shape: 128 256 8 8 (2097152)
I0621 13:40:01.482753 22964 net.cpp:156] Memory required for data: 3046638080
I0621 13:40:01.482763 22964 layer_factory.hpp:77] Creating layer sc_m_1_1
I0621 13:40:01.482775 22964 net.cpp:91] Creating Layer sc_m_1_1
I0621 13:40:01.482782 22964 net.cpp:425] sc_m_1_1 <- bn_m_1_1
I0621 13:40:01.482790 22964 net.cpp:399] sc_m_1_1 -> sc_m_1_1
I0621 13:40:01.482841 22964 layer_factory.hpp:77] Creating layer sc_m_1_1
I0621 13:40:01.482980 22964 net.cpp:141] Setting up sc_m_1_1
I0621 13:40:01.482991 22964 net.cpp:148] Top shape: 128 256 8 8 (2097152)
I0621 13:40:01.482995 22964 net.cpp:156] Memory required for data: 3055026688
I0621 13:40:01.483005 22964 layer_factory.hpp:77] Creating layer relu_m_1_1
I0621 13:40:01.483011 22964 net.cpp:91] Creating Layer relu_m_1_1
I0621 13:40:01.483018 22964 net.cpp:425] relu_m_1_1 <- sc_m_1_1
I0621 13:40:01.483026 22964 net.cpp:399] relu_m_1_1 -> relu_m_1_1
I0621 13:40:01.483220 22964 net.cpp:141] Setting up relu_m_1_1
I0621 13:40:01.483234 22964 net.cpp:148] Top shape: 128 256 8 8 (2097152)
I0621 13:40:01.483239 22964 net.cpp:156] Memory required for data: 3063415296
I0621 13:40:01.483244 22964 layer_factory.hpp:77] Creating layer gap
I0621 13:40:01.483254 22964 net.cpp:91] Creating Layer gap
I0621 13:40:01.483260 22964 net.cpp:425] gap <- relu_m_1_1
I0621 13:40:01.483270 22964 net.cpp:399] gap -> gap
I0621 13:40:01.483621 22964 net.cpp:141] Setting up gap
I0621 13:40:01.483639 22964 net.cpp:148] Top shape: 128 256 1 1 (32768)
I0621 13:40:01.483645 22964 net.cpp:156] Memory required for data: 3063546368
I0621 13:40:01.483650 22964 layer_factory.hpp:77] Creating layer ip1
I0621 13:40:01.483662 22964 net.cpp:91] Creating Layer ip1
I0621 13:40:01.483669 22964 net.cpp:425] ip1 <- gap
I0621 13:40:01.483678 22964 net.cpp:399] ip1 -> ip1
I0621 13:40:01.483892 22964 net.cpp:141] Setting up ip1
I0621 13:40:01.483904 22964 net.cpp:148] Top shape: 128 10 (1280)
I0621 13:40:01.483909 22964 net.cpp:156] Memory required for data: 3063551488
I0621 13:40:01.483918 22964 layer_factory.hpp:77] Creating layer loss
I0621 13:40:01.483932 22964 net.cpp:91] Creating Layer loss
I0621 13:40:01.483938 22964 net.cpp:425] loss <- ip1
I0621 13:40:01.483945 22964 net.cpp:425] loss <- label
I0621 13:40:01.483953 22964 net.cpp:399] loss -> loss
I0621 13:40:01.483974 22964 layer_factory.hpp:77] Creating layer loss
…
I0621 13:40:01.488615 22964 net.cpp:313] The NetState phase (1) differed from the phase (0) specified by a rule in layer resnet
I0621 13:40:01.489367 22964 net.cpp:49] Initializing net from parameters: 
name: "ResNet"
state {
  phase: TEST
}
layer {
  name: "resnet"
  type: "Data"
  top: "data"
  top: "label"
  include {
    phase: TEST
  }
  transform_param {
    mean_file: "/home/takeki/caffe/examples/cifar10/mean.binaryproto"
  }
  data_param {
    source: "/home/takeki/caffe/examples/cifar10/cifar10_test_lmdb"
    batch_size: 100
    backend: LMDB
  }
}
layer {
  name: "conv0"
  type: "Convolution"
  bottom: "data"
  top: "conv0"
  param {
    lr_mult: 1
  }
  param {
    lr_mult: 2
  }
  convolution_param {
    num_output: 16
    pad: 1
    kernel_size: 3
    stride: 1
    weight_filler {
      type: "msra"
    }
    bias_filler {
      type: "constant"
    }
  }
}
layer {
  name: "bn_a_1_1"
  type: "BatchNorm"
  bottom: "conv0"
  top: "bn_a_1_1"
  param {
    lr_mult: 0
  }
  param {
    lr_mult: 0
  }
  param {
    lr_mult: 0
  }
  batch_norm_param {
    use_global_stats: false
  }
}
layer {
  name: "sc_a_1_1"
  type: "Scale"
  bottom: "bn_a_1_1"
  top: "sc_a_1_1"
  scale_param {
    bias_term: true
  }
}
layer {
  name: "relu_a_1_1"
  type: "ReLU"
  bottom: "sc_a_1_1"
  top: "relu_a_1_1"
}
layer {
  name: "conv_a_1_1"
  type: "Convolution"
  bottom: "relu_a_1_1"
  top: "conv_a_1_1"
  param {
    lr_mult: 1
    decay_mult: 1
  }
  param {
    lr_mult: 2
    decay_mult: 1
  }
  convolution_param {
    num_output: 64
    pad: 1
    kernel_size: 3
    stride: 1
    weight_filler {
      type: "msra"
    }
    bias_filler {
      type: "constant"
    }
  }
}
layer {
  name: "bn_a_1_2"
  type: "BatchNorm"
  bottom: "conv_a_1_1"
  top: "bn_a_1_2"
  param {
    lr_mult: 0
  }
  param {
    lr_mult: 0
  }
  param {
    lr_mult: 0
  }
  batch_norm_param {
    use_global_stats: false
  }
}
layer {
  name: "sc_a_1_2"
  type: "Scale"
  bottom: "bn_a_1_2"
  top: "sc_a_1_2"
  scale_param {
    bias_term: true
  }
}
layer {
  name: "relu_a_1_2"
  type: "ReLU"
  bottom: "sc_a_1_2"
  top: "relu_a_1_2"
}
layer {
  name: "conv_a_1_2"
  type: "Convolution"
  bottom: "relu_a_1_2"
  top: "conv_a_1_2"
  param {
    lr_mult: 1
    decay_mult: 1
  }
  param {
    lr_mult: 2
    decay_mult: 1
  }
  convolution_param {
    num_output: 64
    pad: 1
    kernel_size: 3
    stride: 1
    weight_filler {
      type: "msra"
    }
    bias_filler {
      type: "constant"
    }
  }
}
layer {
  name: "res_a"
  type: "Convolution"
  bottom: "conv0"
  top: "res_a"
  param {
    lr_mult: 1
    decay_mult: 1
  }
  param {
    lr_mult: 2
    decay_mult: 1
  }
  convolution_param {
    num_output: 64
    pad: 0
    kernel_size: 1
    stride: 1
    weight_filler {
      type: "msra"
    }
    bias_filler {
      type: "constant"
    }
  }
}
layer {
  name: "elt_a_1"
  type: "Eltwise"
  bottom: "res_a"
  bottom: "conv_a_1_2"
  top: "elt_a_1"
  eltwise_param {
    operation: SUM
  }
}
layer {
  name: "bn_b_1_1"
  type: "BatchNorm"
  bottom: "conv0"
  top: "bn_b_1_1"
  param {
    lr_mult: 0
  }
  param {
    lr_mult: 0
  }
  param {
    lr_mult: 0
  }
  batch_norm_param {
    use_global_stats: false
  }
}
layer {
  name: "sc_b_1_1"
  type: "Scale"
  bottom: "bn_b_1_1"
  top: "sc_b_1_1"
  scale_param {
    bias_term: true
  }
}
layer {
  name: "relu_b_1_1"
  type: "ReLU"
  bottom: "sc_b_1_1"
  top: "relu_b_1_1"
}
layer {
  name: "conv_b_1_1"
  type: "Convolution"
  bottom: "relu_b_1_1"
  top: "conv_b_1_1"
  param {
    lr_mult: 1
    decay_mult: 1
  }
  param {
    lr_mult: 2
    decay_mult: 1
  }
  convolution_param {
    num_output: 64
    pad: 1
    kernel_size: 3
    stride: 1
    weight_filler {
      type: "msra"
    }
    bias_filler {
      type: "constant"
    }
  }
}
layer {
  name: "bn_b_1_2"
  type: "BatchNorm"
  bottom: "conv_b_1_1"
  top: "bn_b_1_2"
  param {
    lr_mult: 0
  }
  param {
    lr_mult: 0
  }
  param {
    lr_mult: 0
  }
  batch_norm_param {
    use_global_stats: false
  }
}
layer {
  name: "sc_b_1_2"
  type: "Scale"
  bottom: "bn_b_1_2"
  top: "sc_b_1_2"
  scale_param {
    bias_term: true
  }
}
layer {
  name: "relu_b_1_2"
  type: "ReLU"
  bottom: "sc_b_1_2"
  top: "relu_b_1_2"
}
layer {
  name: "conv_b_1_2"
  type: "Convolution"
  bottom: "relu_b_1_2"
  top: "conv_b_1_2"
  param {
    lr_mult: 1
    decay_mult: 1
  }
  param {
    lr_mult: 2
    decay_mult: 1
  }
  convolution_param {
    num_output: 64
    pad: 1
    kernel_size: 3
    stride: 1
    weight_filler {
      type: "msra"
    }
    bias_filler {
      type: "constant"
    }
  }
}
layer {
  name: "res_b"
  type: "Convolution"
  bottom: "conv0"
  top: "res_b"
  param {
    lr_mult: 1
    decay_mult: 1
  }
  param {
    lr_mult: 2
    decay_mult: 1
  }
  convolution_param {
    num_output: 64
    pad: 0
    kernel_size: 1
    stride: 1
    weight_filler {
      type: "msra"
    }
    bias_filler {
      type: "constant"
    }
  }
}
layer {
  name: "elt_b_1"
  type: "Eltwise"
  bottom: "res_b"
  bottom: "conv_b_1_2"
  top: "elt_b_1"
  eltwise_param {
    operation: SUM
  }
}
layer {
  name: "bn_c_1_1"
  type: "BatchNorm"
  bottom: "conv0"
  top: "bn_c_1_1"
  param {
    lr_mult: 0
  }
  param {
    lr_mult: 0
  }
  param {
    lr_mult: 0
  }
  batch_norm_param {
    use_global_stats: false
  }
}
layer {
  name: "sc_c_1_1"
  type: "Scale"
  bottom: "bn_c_1_1"
  top: "sc_c_1_1"
  scale_param {
    bias_term: true
  }
}
layer {
  name: "relu_c_1_1"
  type: "ReLU"
  bottom: "sc_c_1_1"
  top: "relu_c_1_1"
}
layer {
  name: "conv_c_1_1"
  type: "Convolution"
  bottom: "relu_c_1_1"
  top: "conv_c_1_1"
  param {
    lr_mult: 1
    decay_mult: 1
  }
  param {
    lr_mult: 2
    decay_mult: 1
  }
  convolution_param {
    num_output: 64
    pad: 1
    kernel_size: 3
    stride: 1
    weight_filler {
      type: "msra"
    }
    bias_filler {
      type: "constant"
    }
  }
}
layer {
  name: "bn_c_1_2"
  type: "BatchNorm"
  bottom: "conv_c_1_1"
  top: "bn_c_1_2"
  param {
    lr_mult: 0
  }
  param {
    lr_mult: 0
  }
  param {
    lr_mult: 0
  }
  batch_norm_param {
    use_global_stats: false
  }
}
layer {
  name: "sc_c_1_2"
  type: "Scale"
  bottom: "bn_c_1_2"
  top: "sc_c_1_2"
  scale_param {
    bias_term: true
  }
}
layer {
  name: "relu_c_1_2"
  type: "ReLU"
  bottom: "sc_c_1_2"
  top: "relu_c_1_2"
}
layer {
  name: "conv_c_1_2"
  type: "Convolution"
  bottom: "relu_c_1_2"
  top: "conv_c_1_2"
  param {
    lr_mult: 1
    decay_mult: 1
  }
  param {
    lr_mult: 2
    decay_mult: 1
  }
  convolution_param {
    num_output: 64
    pad: 1
    kernel_size: 3
    stride: 1
    weight_filler {
      type: "msra"
    }
    bias_filler {
      type: "constant"
    }
  }
}
layer {
  name: "res_c"
  type: "Convolution"
  bottom: "conv0"
  top: "res_c"
  param {
    lr_mult: 1
    decay_mult: 1
  }
  param {
    lr_mult: 2
    decay_mult: 1
  }
  convolution_param {
    num_output: 64
    pad: 0
    kernel_size: 1
    stride: 1
    weight_filler {
      type: "msra"
    }
    bias_filler {
      type: "constant"
    }
  }
}
layer {
  name: "elt_c_1"
  type: "Eltwise"
  bottom: "res_c"
  bottom: "conv_c_1_2"
  top: "elt_c_1"
  eltwise_param {
    operation: SUM
  }
}
layer {
  name: "bn_d_1_1"
  type: "BatchNorm"
  bottom: "elt_a_1"
  top: "bn_d_1_1"
  param {
    lr_mult: 0
  }
  param {
    lr_mult: 0
  }
  param {
    lr_mult: 0
  }
  batch_norm_param {
    use_global_stats: false
  }
}
layer {
  name: "sc_d_1_1"
  type: "Scale"
  bottom: "bn_d_1_1"
  top: "sc_d_1_1"
  scale_param {
    bias_term: true
  }
}
layer {
  name: "relu_d_1_1"
  type: "ReLU"
  bottom: "sc_d_1_1"
  top: "relu_d_1_1"
}
layer {
  name: "conv_d_1_1"
  type: "Convolution"
  bottom: "relu_d_1_1"
  top: "conv_d_1_1"
  param {
    lr_mult: 1
    decay_mult: 1
  }
  param {
    lr_mult: 2
    decay_mult: 1
  }
  convolution_param {
    num_output: 128
    pad: 1
    kernel_size: 3
    stride: 2
    weight_filler {
      type: "msra"
    }
    bias_filler {
      type: "constant"
    }
  }
}
layer {
  name: "bn_d_1_2"
  type: "BatchNorm"
  bottom: "conv_d_1_1"
  top: "bn_d_1_2"
  param {
    lr_mult: 0
  }
  param {
    lr_mult: 0
  }
  param {
    lr_mult: 0
  }
  batch_norm_param {
    use_global_stats: false
  }
}
layer {
  name: "sc_d_1_2"
  type: "Scale"
  bottom: "bn_d_1_2"
  top: "sc_d_1_2"
  scale_param {
    bias_term: true
  }
}
layer {
  name: "relu_d_1_2"
  type: "ReLU"
  bottom: "sc_d_1_2"
  top: "relu_d_1_2"
}
layer {
  name: "conv_d_1_2"
  type: "Convolution"
  bottom: "relu_d_1_2"
  top: "conv_d_1_2"
  param {
    lr_mult: 1
    decay_mult: 1
  }
  param {
    lr_mult: 2
    decay_mult: 1
  }
  convolution_param {
    num_output: 128
    pad: 1
    kernel_size: 3
    stride: 1
    weight_filler {
      type: "msra"
    }
    bias_filler {
      type: "constant"
    }
  }
}
layer {
  name: "res_d"
  type: "Convolution"
  bottom: "elt_a_1"
  top: "res_d"
  param {
    lr_mult: 1
    decay_mult: 1
  }
  param {
    lr_mult: 2
    decay_mult: 1
  }
  convolution_param {
    num_output: 128
    pad: 0
    kernel_size: 1
    stride: 2
    weight_filler {
      type: "msra"
    }
    bias_filler {
      type: "constant"
    }
  }
}
layer {
  name: "elt_d_1"
  type: "Eltwise"
  bottom: "res_d"
  bottom: "conv_d_1_2"
  top: "elt_d_1"
  eltwise_param {
    operation: SUM
  }
}
layer {
  name: "bn_f_1_1"
  type: "BatchNorm"
  bottom: "elt_b_1"
  top: "bn_f_1_1"
  param {
    lr_mult: 0
  }
  param {
    lr_mult: 0
  }
  param {
    lr_mult: 0
  }
  batch_norm_param {
    use_global_stats: false
  }
}
layer {
  name: "sc_f_1_1"
  type: "Scale"
  bottom: "bn_f_1_1"
  top: "sc_f_1_1"
  scale_param {
    bias_term: true
  }
}
layer {
  name: "relu_f_1_1"
  type: "ReLU"
  bottom: "sc_f_1_1"
  top: "relu_f_1_1"
}
layer {
  name: "conv_f_1_1"
  type: "Convolution"
  bottom: "relu_f_1_1"
  top: "conv_f_1_1"
  param {
    lr_mult: 1
    decay_mult: 1
  }
  param {
    lr_mult: 2
    decay_mult: 1
  }
  convolution_param {
    num_output: 128
    pad: 1
    kernel_size: 3
    stride: 2
    weight_filler {
      type: "msra"
    }
    bias_filler {
      type: "constant"
    }
  }
}
layer {
  name: "bn_f_1_2"
  type: "BatchNorm"
  bottom: "conv_f_1_1"
  top: "bn_f_1_2"
  param {
    lr_mult: 0
  }
  param {
    lr_mult: 0
  }
  param {
    lr_mult: 0
  }
  batch_norm_param {
    use_global_stats: false
  }
}
layer {
  name: "sc_f_1_2"
  type: "Scale"
  bottom: "bn_f_1_2"
  top: "sc_f_1_2"
  scale_param {
    bias_term: true
  }
}
layer {
  name: "relu_f_1_2"
  type: "ReLU"
  bottom: "sc_f_1_2"
  top: "relu_f_1_2"
}
layer {
  name: "conv_f_1_2"
  type: "Convolution"
  bottom: "relu_f_1_2"
  top: "conv_f_1_2"
  param {
    lr_mult: 1
    decay_mult: 1
  }
  param {
    lr_mult: 2
    decay_mult: 1
  }
  convolution_param {
    num_output: 128
    pad: 1
    kernel_size: 3
    stride: 1
    weight_filler {
      type: "msra"
    }
    bias_filler {
      type: "constant"
    }
  }
}
layer {
  name: "res_f"
  type: "Convolution"
  bottom: "elt_b_1"
  top: "res_f"
  param {
    lr_mult: 1
    decay_mult: 1
  }
  param {
    lr_mult: 2
    decay_mult: 1
  }
  convolution_param {
    num_output: 128
    pad: 0
    kernel_size: 1
    stride: 2
    weight_filler {
      type: "msra"
    }
    bias_filler {
      type: "constant"
    }
  }
}
layer {
  name: "elt_f_1"
  type: "Eltwise"
  bottom: "res_f"
  bottom: "conv_f_1_2"
  top: "elt_f_1"
  eltwise_param {
    operation: SUM
  }
}
layer {
  name: "bn_g_1_1"
  type: "BatchNorm"
  bottom: "elt_b_1"
  top: "bn_g_1_1"
  param {
    lr_mult: 0
  }
  param {
    lr_mult: 0
  }
  param {
    lr_mult: 0
  }
  batch_norm_param {
    use_global_stats: false
  }
}
layer {
  name: "sc_g_1_1"
  type: "Scale"
  bottom: "bn_g_1_1"
  top: "sc_g_1_1"
  scale_param {
    bias_term: true
  }
}
layer {
  name: "relu_g_1_1"
  type: "ReLU"
  bottom: "sc_g_1_1"
  top: "relu_g_1_1"
}
layer {
  name: "conv_g_1_1"
  type: "Convolution"
  bottom: "relu_g_1_1"
  top: "conv_g_1_1"
  param {
    lr_mult: 1
    decay_mult: 1
  }
  param {
    lr_mult: 2
    decay_mult: 1
  }
  convolution_param {
    num_output: 128
    pad: 1
    kernel_size: 3
    stride: 2
    weight_filler {
      type: "msra"
    }
    bias_filler {
      type: "constant"
    }
  }
}
layer {
  name: "bn_g_1_2"
  type: "BatchNorm"
  bottom: "conv_g_1_1"
  top: "bn_g_1_2"
  param {
    lr_mult: 0
  }
  param {
    lr_mult: 0
  }
  param {
    lr_mult: 0
  }
  batch_norm_param {
    use_global_stats: false
  }
}
layer {
  name: "sc_g_1_2"
  type: "Scale"
  bottom: "bn_g_1_2"
  top: "sc_g_1_2"
  scale_param {
    bias_term: true
  }
}
layer {
  name: "relu_g_1_2"
  type: "ReLU"
  bottom: "sc_g_1_2"
  top: "relu_g_1_2"
}
layer {
  name: "conv_g_1_2"
  type: "Convolution"
  bottom: "relu_g_1_2"
  top: "conv_g_1_2"
  param {
    lr_mult: 1
    decay_mult: 1
  }
  param {
    lr_mult: 2
    decay_mult: 1
  }
  convolution_param {
    num_output: 128
    pad: 1
    kernel_size: 3
    stride: 1
    weight_filler {
      type: "msra"
    }
    bias_filler {
      type: "constant"
    }
  }
}
layer {
  name: "res_g"
  type: "Convolution"
  bottom: "elt_b_1"
  top: "res_g"
  param {
    lr_mult: 1
    decay_mult: 1
  }
  param {
    lr_mult: 2
    decay_mult: 1
  }
  convolution_param {
    num_output: 128
    pad: 0
    kernel_size: 1
    stride: 2
    weight_filler {
      type: "msra"
    }
    bias_filler {
      type: "constant"
    }
  }
}
layer {
  name: "elt_g_1"
  type: "Eltwise"
  bottom: "res_g"
  bottom: "conv_g_1_2"
  top: "elt_g_1"
  eltwise_param {
    operation: SUM
  }
}
layer {
  name: "bn_h_1_1"
  type: "BatchNorm"
  bottom: "elt_c_1"
  top: "bn_h_1_1"
  param {
    lr_mult: 0
  }
  param {
    lr_mult: 0
  }
  param {
    lr_mult: 0
  }
  batch_norm_param {
    use_global_stats: false
  }
}
layer {
  name: "sc_h_1_1"
  type: "Scale"
  bottom: "bn_h_1_1"
  top: "sc_h_1_1"
  scale_param {
    bias_term: true
  }
}
layer {
  name: "relu_h_1_1"
  type: "ReLU"
  bottom: "sc_h_1_1"
  top: "relu_h_1_1"
}
layer {
  name: "conv_h_1_1"
  type: "Convolution"
  bottom: "relu_h_1_1"
  top: "conv_h_1_1"
  param {
    lr_mult: 1
    decay_mult: 1
  }
  param {
    lr_mult: 2
    decay_mult: 1
  }
  convolution_param {
    num_output: 128
    pad: 1
    kernel_size: 3
    stride: 2
    weight_filler {
      type: "msra"
    }
    bias_filler {
      type: "constant"
    }
  }
}
layer {
  name: "bn_h_1_2"
  type: "BatchNorm"
  bottom: "conv_h_1_1"
  top: "bn_h_1_2"
  param {
    lr_mult: 0
  }
  param {
    lr_mult: 0
  }
  param {
    lr_mult: 0
  }
  batch_norm_param {
    use_global_stats: false
  }
}
layer {
  name: "sc_h_1_2"
  type: "Scale"
  bottom: "bn_h_1_2"
  top: "sc_h_1_2"
  scale_param {
    bias_term: true
  }
}
layer {
  name: "relu_h_1_2"
  type: "ReLU"
  bottom: "sc_h_1_2"
  top: "relu_h_1_2"
}
layer {
  name: "conv_h_1_2"
  type: "Convolution"
  bottom: "relu_h_1_2"
  top: "conv_h_1_2"
  param {
    lr_mult: 1
    decay_mult: 1
  }
  param {
    lr_mult: 2
    decay_mult: 1
  }
  convolution_param {
    num_output: 128
    pad: 1
    kernel_size: 3
    stride: 1
    weight_filler {
      type: "msra"
    }
    bias_filler {
      type: "constant"
    }
  }
}
layer {
  name: "res_h"
  type: "Convolution"
  bottom: "elt_c_1"
  top: "res_h"
  param {
    lr_mult: 1
    decay_mult: 1
  }
  param {
    lr_mult: 2
    decay_mult: 1
  }
  convolution_param {
    num_output: 128
    pad: 0
    kernel_size: 1
    stride: 2
    weight_filler {
      type: "msra"
    }
    bias_filler {
      type: "constant"
    }
  }
}
layer {
  name: "elt_h_1"
  type: "Eltwise"
  bottom: "res_h"
  bottom: "conv_h_1_2"
  top: "elt_h_1"
  eltwise_param {
    operation: SUM
  }
}
layer {
  name: "bn_i_1_1"
  type: "BatchNorm"
  bottom: "elt_c_1"
  top: "bn_i_1_1"
  param {
    lr_mult: 0
  }
  param {
    lr_mult: 0
  }
  param {
    lr_mult: 0
  }
  batch_norm_param {
    use_global_stats: false
  }
}
layer {
  name: "sc_i_1_1"
  type: "Scale"
  bottom: "bn_i_1_1"
  top: "sc_i_1_1"
  scale_param {
    bias_term: true
  }
}
layer {
  name: "relu_i_1_1"
  type: "ReLU"
  bottom: "sc_i_1_1"
  top: "relu_i_1_1"
}
layer {
  name: "conv_i_1_1"
  type: "Convolution"
  bottom: "relu_i_1_1"
  top: "conv_i_1_1"
  param {
    lr_mult: 1
    decay_mult: 1
  }
  param {
    lr_mult: 2
    decay_mult: 1
  }
  convolution_param {
    num_output: 128
    pad: 1
    kernel_size: 3
    stride: 2
    weight_filler {
      type: "msra"
    }
    bias_filler {
      type: "constant"
    }
  }
}
layer {
  name: "bn_i_1_2"
  type: "BatchNorm"
  bottom: "conv_i_1_1"
  top: "bn_i_1_2"
  param {
    lr_mult: 0
  }
  param {
    lr_mult: 0
  }
  param {
    lr_mult: 0
  }
  batch_norm_param {
    use_global_stats: false
  }
}
layer {
  name: "sc_i_1_2"
  type: "Scale"
  bottom: "bn_i_1_2"
  top: "sc_i_1_2"
  scale_param {
    bias_term: true
  }
}
layer {
  name: "relu_i_1_2"
  type: "ReLU"
  bottom: "sc_i_1_2"
  top: "relu_i_1_2"
}
layer {
  name: "conv_i_1_2"
  type: "Convolution"
  bottom: "relu_i_1_2"
  top: "conv_i_1_2"
  param {
    lr_mult: 1
    decay_mult: 1
  }
  param {
    lr_mult: 2
    decay_mult: 1
  }
  convolution_param {
    num_output: 128
    pad: 1
    kernel_size: 3
    stride: 1
    weight_filler {
      type: "msra"
    }
    bias_filler {
      type: "constant"
    }
  }
}
layer {
  name: "res_i"
  type: "Convolution"
  bottom: "elt_c_1"
  top: "res_i"
  param {
    lr_mult: 1
    decay_mult: 1
  }
  param {
    lr_mult: 2
    decay_mult: 1
  }
  convolution_param {
    num_output: 128
    pad: 0
    kernel_size: 1
    stride: 2
    weight_filler {
      type: "msra"
    }
    bias_filler {
      type: "constant"
    }
  }
}
layer {
  name: "elt_i_1"
  type: "Eltwise"
  bottom: "res_i"
  bottom: "conv_i_1_2"
  top: "elt_i_1"
  eltwise_param {
    operation: SUM
  }
}
layer {
  name: "elt_d_f"
  type: "Eltwise"
  bottom: "elt_d_1"
  bottom: "elt_f_1"
  top: "elt_d_f"
  eltwise_param {
    operation: SUM
  }
}
layer {
  name: "elt_g_i"
  type: "Eltwise"
  bottom: "elt_g_1"
  bottom: "elt_i_1"
  top: "elt_g_i"
  eltwise_param {
    operation: SUM
  }
}
layer {
  name: "bn_j_1_1"
  type: "BatchNorm"
  bottom: "elt_d_f"
  top: "bn_j_1_1"
  param {
    lr_mult: 0
  }
  param {
    lr_mult: 0
  }
  param {
    lr_mult: 0
  }
  batch_norm_param {
    use_global_stats: false
  }
}
layer {
  name: "sc_j_1_1"
  type: "Scale"
  bottom: "bn_j_1_1"
  top: "sc_j_1_1"
  scale_param {
    bias_term: true
  }
}
layer {
  name: "relu_j_1_1"
  type: "ReLU"
  bottom: "sc_j_1_1"
  top: "relu_j_1_1"
}
layer {
  name: "conv_j_1_1"
  type: "Convolution"
  bottom: "relu_j_1_1"
  top: "conv_j_1_1"
  param {
    lr_mult: 1
    decay_mult: 1
  }
  param {
    lr_mult: 2
    decay_mult: 1
  }
  convolution_param {
    num_output: 256
    pad: 1
    kernel_size: 3
    stride: 2
    weight_filler {
      type: "msra"
    }
    bias_filler {
      type: "constant"
    }
  }
}
layer {
  name: "bn_j_1_2"
  type: "BatchNorm"
  bottom: "conv_j_1_1"
  top: "bn_j_1_2"
  param {
    lr_mult: 0
  }
  param {
    lr_mult: 0
  }
  param {
    lr_mult: 0
  }
  batch_norm_param {
    use_global_stats: false
  }
}
layer {
  name: "sc_j_1_2"
  type: "Scale"
  bottom: "bn_j_1_2"
  top: "sc_j_1_2"
  scale_param {
    bias_term: true
  }
}
layer {
  name: "relu_j_1_2"
  type: "ReLU"
  bottom: "sc_j_1_2"
  top: "relu_j_1_2"
}
layer {
  name: "conv_j_1_2"
  type: "Convolution"
  bottom: "relu_j_1_2"
  top: "conv_j_1_2"
  param {
    lr_mult: 1
    decay_mult: 1
  }
  param {
    lr_mult: 2
    decay_mult: 1
  }
  convolution_param {
    num_output: 256
    pad: 1
    kernel_size: 3
    stride: 1
    weight_filler {
      type: "msra"
    }
    bias_filler {
      type: "constant"
    }
  }
}
layer {
  name: "res_j"
  type: "Convolution"
  bottom: "elt_d_f"
  top: "res_j"
  param {
    lr_mult: 1
    decay_mult: 1
  }
  param {
    lr_mult: 2
    decay_mult: 1
  }
  convolution_param {
    num_output: 256
    pad: 0
    kernel_size: 1
    stride: 2
    weight_filler {
      type: "msra"
    }
    bias_filler {
      type: "constant"
    }
  }
}
layer {
  name: "elt_j_1"
  type: "Eltwise"
  bottom: "res_j"
  bottom: "conv_j_1_2"
  top: "elt_j_1"
  eltwise_param {
    operation: SUM
  }
}
layer {
  name: "bn_e_1_1"
  type: "BatchNorm"
  bottom: "elt_a_1"
  top: "bn_e_1_1"
  param {
    lr_mult: 0
  }
  param {
    lr_mult: 0
  }
  param {
    lr_mult: 0
  }
  batch_norm_param {
    use_global_stats: false
  }
}
layer {
  name: "sc_e_1_1"
  type: "Scale"
  bottom: "bn_e_1_1"
  top: "sc_e_1_1"
  scale_param {
    bias_term: true
  }
}
layer {
  name: "relu_e_1_1"
  type: "ReLU"
  bottom: "sc_e_1_1"
  top: "relu_e_1_1"
}
layer {
  name: "conv_e_1_1"
  type: "Convolution"
  bottom: "relu_e_1_1"
  top: "conv_e_1_1"
  param {
    lr_mult: 1
    decay_mult: 1
  }
  param {
    lr_mult: 2
    decay_mult: 1
  }
  convolution_param {
    num_output: 128
    pad: 1
    kernel_size: 3
    stride: 2
    weight_filler {
      type: "msra"
    }
    bias_filler {
      type: "constant"
    }
  }
}
layer {
  name: "bn_e_1_2"
  type: "BatchNorm"
  bottom: "conv_e_1_1"
  top: "bn_e_1_2"
  param {
    lr_mult: 0
  }
  param {
    lr_mult: 0
  }
  param {
    lr_mult: 0
  }
  batch_norm_param {
    use_global_stats: false
  }
}
layer {
  name: "sc_e_1_2"
  type: "Scale"
  bottom: "bn_e_1_2"
  top: "sc_e_1_2"
  scale_param {
    bias_term: true
  }
}
layer {
  name: "relu_e_1_2"
  type: "ReLU"
  bottom: "sc_e_1_2"
  top: "relu_e_1_2"
}
layer {
  name: "conv_e_1_2"
  type: "Convolution"
  bottom: "relu_e_1_2"
  top: "conv_e_1_2"
  param {
    lr_mult: 1
    decay_mult: 1
  }
  param {
    lr_mult: 2
    decay_mult: 1
  }
  convolution_param {
    num_output: 128
    pad: 1
    kernel_size: 3
    stride: 1
    weight_filler {
      type: "msra"
    }
    bias_filler {
      type: "constant"
    }
  }
}
layer {
  name: "res_e"
  type: "Convolution"
  bottom: "elt_a_1"
  top: "res_e"
  param {
    lr_mult: 1
    decay_mult: 1
  }
  param {
    lr_mult: 2
    decay_mult: 1
  }
  convolution_param {
    num_output: 128
    pad: 0
    kernel_size: 1
    stride: 2
    weight_filler {
      type: "msra"
    }
    bias_filler {
      type: "constant"
    }
  }
}
layer {
  name: "elt_e_1"
  type: "Eltwise"
  bottom: "res_e"
  bottom: "conv_e_1_2"
  top: "elt_e_1"
  eltwise_param {
    operation: SUM
  }
}
layer {
  name: "elt_e_h"
  type: "Eltwise"
  bottom: "elt_e_1"
  bottom: "elt_h_1"
  top: "elt_e_h"
  eltwise_param {
    operation: SUM
  }
}
layer {
  name: "bn_k_1_1"
  type: "BatchNorm"
  bottom: "elt_e_h"
  top: "bn_k_1_1"
  param {
    lr_mult: 0
  }
  param {
    lr_mult: 0
  }
  param {
    lr_mult: 0
  }
  batch_norm_param {
    use_global_stats: false
  }
}
layer {
  name: "sc_k_1_1"
  type: "Scale"
  bottom: "bn_k_1_1"
  top: "sc_k_1_1"
  scale_param {
    bias_term: true
  }
}
layer {
  name: "relu_k_1_1"
  type: "ReLU"
  bottom: "sc_k_1_1"
  top: "relu_k_1_1"
}
layer {
  name: "conv_k_1_1"
  type: "Convolution"
  bottom: "relu_k_1_1"
  top: "conv_k_1_1"
  param {
    lr_mult: 1
    decay_mult: 1
  }
  param {
    lr_mult: 2
    decay_mult: 1
  }
  convolution_param {
    num_output: 256
    pad: 1
    kernel_size: 3
    stride: 2
    weight_filler {
      type: "msra"
    }
    bias_filler {
      type: "constant"
    }
  }
}
layer {
  name: "bn_k_1_2"
  type: "BatchNorm"
  bottom: "conv_k_1_1"
  top: "bn_k_1_2"
  param {
    lr_mult: 0
  }
  param {
    lr_mult: 0
  }
  param {
    lr_mult: 0
  }
  batch_norm_param {
    use_global_stats: false
  }
}
layer {
  name: "sc_k_1_2"
  type: "Scale"
  bottom: "bn_k_1_2"
  top: "sc_k_1_2"
  scale_param {
    bias_term: true
  }
}
layer {
  name: "relu_k_1_2"
  type: "ReLU"
  bottom: "sc_k_1_2"
  top: "relu_k_1_2"
}
layer {
  name: "conv_k_1_2"
  type: "Convolution"
  bottom: "relu_k_1_2"
  top: "conv_k_1_2"
  param {
    lr_mult: 1
    decay_mult: 1
  }
  param {
    lr_mult: 2
    decay_mult: 1
  }
  convolution_param {
    num_output: 256
    pad: 1
    kernel_size: 3
    stride: 1
    weight_filler {
      type: "msra"
    }
    bias_filler {
      type: "constant"
    }
  }
}
layer {
  name: "res_k"
  type: "Convolution"
  bottom: "elt_e_h"
  top: "res_k"
  param {
    lr_mult: 1
    decay_mult: 1
  }
  param {
    lr_mult: 2
    decay_mult: 1
  }
  convolution_param {
    num_output: 256
    pad: 0
    kernel_size: 1
    stride: 2
    weight_filler {
      type: "msra"
    }
    bias_filler {
      type: "constant"
    }
  }
}
layer {
  name: "elt_k_1"
  type: "Eltwise"
  bottom: "res_k"
  bottom: "conv_k_1_2"
  top: "elt_k_1"
  eltwise_param {
    operation: SUM
  }
}
layer {
  name: "bn_l_1_1"
  type: "BatchNorm"
  bottom: "elt_g_i"
  top: "bn_l_1_1"
  param {
    lr_mult: 0
  }
  param {
    lr_mult: 0
  }
  param {
    lr_mult: 0
  }
  batch_norm_param {
    use_global_stats: false
  }
}
layer {
  name: "sc_l_1_1"
  type: "Scale"
  bottom: "bn_l_1_1"
  top: "sc_l_1_1"
  scale_param {
    bias_term: true
  }
}
layer {
  name: "relu_l_1_1"
  type: "ReLU"
  bottom: "sc_l_1_1"
  top: "relu_l_1_1"
}
layer {
  name: "conv_l_1_1"
  type: "Convolution"
  bottom: "relu_l_1_1"
  top: "conv_l_1_1"
  param {
    lr_mult: 1
    decay_mult: 1
  }
  param {
    lr_mult: 2
    decay_mult: 1
  }
  convolution_param {
    num_output: 256
    pad: 1
    kernel_size: 3
    stride: 2
    weight_filler {
      type: "msra"
    }
    bias_filler {
      type: "constant"
    }
  }
}
layer {
  name: "bn_l_1_2"
  type: "BatchNorm"
  bottom: "conv_l_1_1"
  top: "bn_l_1_2"
  param {
    lr_mult: 0
  }
  param {
    lr_mult: 0
  }
  param {
    lr_mult: 0
  }
  batch_norm_param {
    use_global_stats: false
  }
}
layer {
  name: "sc_l_1_2"
  type: "Scale"
  bottom: "bn_l_1_2"
  top: "sc_l_1_2"
  scale_param {
    bias_term: true
  }
}
layer {
  name: "relu_l_1_2"
  type: "ReLU"
  bottom: "sc_l_1_2"
  top: "relu_l_1_2"
}
layer {
  name: "conv_l_1_2"
  type: "Convolution"
  bottom: "relu_l_1_2"
  top: "conv_l_1_2"
  param {
    lr_mult: 1
    decay_mult: 1
  }
  param {
    lr_mult: 2
    decay_mult: 1
  }
  convolution_param {
    num_output: 256
    pad: 1
    kernel_size: 3
    stride: 1
    weight_filler {
      type: "msra"
    }
    bias_filler {
      type: "constant"
    }
  }
}
layer {
  name: "res_l"
  type: "Convolution"
  bottom: "elt_g_i"
  top: "res_l"
  param {
    lr_mult: 1
    decay_mult: 1
  }
  param {
    lr_mult: 2
    decay_mult: 1
  }
  convolution_param {
    num_output: 256
    pad: 0
    kernel_size: 1
    stride: 2
    weight_filler {
      type: "msra"
    }
    bias_filler {
      type: "constant"
    }
  }
}
layer {
  name: "elt_l_1"
  type: "Eltwise"
  bottom: "res_l"
  bottom: "conv_l_1_2"
  top: "elt_l_1"
  eltwise_param {
    operation: SUM
  }
}
layer {
  name: "elt_j_k_l"
  type: "Eltwise"
  bottom: "elt_j_1"
  bottom: "elt_k_1"
  bottom: "elt_l_1"
  top: "elt_j_k_l"
  eltwise_param {
    operation: SUM
  }
}
layer {
  name: "bn_m_1_1"
  type: "BatchNorm"
  bottom: "elt_j_k_l"
  top: "bn_m_1_1"
  param {
    lr_mult: 0
  }
  param {
    lr_mult: 0
  }
  param {
    lr_mult: 0
  }
  batch_norm_param {
    use_global_stats: false
  }
}
layer {
  name: "sc_m_1_1"
  type: "Scale"
  bottom: "bn_m_1_1"
  top: "sc_m_1_1"
  scale_param {
    bias_term: true
  }
}
layer {
  name: "relu_m_1_1"
  type: "ReLU"
  bottom: "sc_m_1_1"
  top: "relu_m_1_1"
}
layer {
  name: "gap"
  type: "Pooling"
  bottom: "relu_m_1_1"
  top: "gap"
  pooling_param {
    pool: AVE
    kernel_size: 8
    stride: 1
  }
}
layer {
  name: "ip1"
  type: "InnerProduct"
  bottom: "gap"
  top: "ip1"
  param {
    lr_mult: 1
    decay_mult: 1
  }
  param {
    lr_mult: 2
    decay_mult: 0
  }
  inner_product_param {
    num_output: 10
    weight_filler {
      type: "msra"
    }
    bias_filler {
      type: "constant"
      value: 0
    }
  }
}
layer {
  name: "accuracy"
  type: "Accuracy"
  bottom: "ip1"
  bottom: "label"
  top: "accuracy"
  include {
    phase: TEST
  }
}
layer {
  name: "loss"
  type: "SoftmaxWithLoss"
  bottom: "ip1"
  bottom: "label"
  top: "loss"
}
I0621 13:40:01.489934 22964 layer_factory.hpp:77] Creating layer resnet
I0621 13:40:01.490082 22964 net.cpp:91] Creating Layer resnet
I0621 13:40:01.490095 22964 net.cpp:399] resnet -> data
I0621 13:40:01.490108 22964 net.cpp:399] resnet -> label
I0621 13:40:01.490120 22964 data_transformer.cpp:25] Loading mean file from: /home/takeki/caffe/examples/cifar10/mean.binaryproto
I0621 13:40:01.491052 23012 db_lmdb.cpp:35] Opened lmdb /home/takeki/caffe/examples/cifar10/cifar10_test_lmdb
I0621 13:40:01.491287 22964 data_layer.cpp:41] output data size: 100,3,32,32
I0621 13:40:01.494381 22964 net.cpp:141] Setting up resnet
I0621 13:40:01.494401 22964 net.cpp:148] Top shape: 100 3 32 32 (307200)
I0621 13:40:01.494408 22964 net.cpp:148] Top shape: 100 (100)
I0621 13:40:01.494413 22964 net.cpp:156] Memory required for data: 1229200
I0621 13:40:01.494418 22964 layer_factory.hpp:77] Creating layer label_resnet_1_split
I0621 13:40:01.494442 22964 net.cpp:91] Creating Layer label_resnet_1_split
I0621 13:40:01.494449 22964 net.cpp:425] label_resnet_1_split <- label
I0621 13:40:01.494459 22964 net.cpp:399] label_resnet_1_split -> label_resnet_1_split_0
I0621 13:40:01.494469 22964 net.cpp:399] label_resnet_1_split -> label_resnet_1_split_1
I0621 13:40:01.494575 22964 net.cpp:141] Setting up label_resnet_1_split
I0621 13:40:01.494590 22964 net.cpp:148] Top shape: 100 (100)
I0621 13:40:01.494596 22964 net.cpp:148] Top shape: 100 (100)
I0621 13:40:01.494599 22964 net.cpp:156] Memory required for data: 1230000
I0621 13:40:01.494606 22964 layer_factory.hpp:77] Creating layer conv0
I0621 13:40:01.494618 22964 net.cpp:91] Creating Layer conv0
I0621 13:40:01.494629 22964 net.cpp:425] conv0 <- data
I0621 13:40:01.494674 22964 net.cpp:399] conv0 -> conv0
I0621 13:40:01.496050 22964 net.cpp:141] Setting up conv0
I0621 13:40:01.496081 22964 net.cpp:148] Top shape: 100 16 32 32 (1638400)
I0621 13:40:01.496088 22964 net.cpp:156] Memory required for data: 7783600
I0621 13:40:01.496104 22964 layer_factory.hpp:77] Creating layer conv0_conv0_0_split
I0621 13:40:01.496111 22964 net.cpp:91] Creating Layer conv0_conv0_0_split
I0621 13:40:01.496117 22964 net.cpp:425] conv0_conv0_0_split <- conv0
I0621 13:40:01.496126 22964 net.cpp:399] conv0_conv0_0_split -> conv0_conv0_0_split_0
I0621 13:40:01.496136 22964 net.cpp:399] conv0_conv0_0_split -> conv0_conv0_0_split_1
I0621 13:40:01.496151 22964 net.cpp:399] conv0_conv0_0_split -> conv0_conv0_0_split_2
I0621 13:40:01.496163 22964 net.cpp:399] conv0_conv0_0_split -> conv0_conv0_0_split_3
I0621 13:40:01.496179 22964 net.cpp:399] conv0_conv0_0_split -> conv0_conv0_0_split_4
I0621 13:40:01.496188 22964 net.cpp:399] conv0_conv0_0_split -> conv0_conv0_0_split_5
I0621 13:40:01.496299 22964 net.cpp:141] Setting up conv0_conv0_0_split
I0621 13:40:01.496314 22964 net.cpp:148] Top shape: 100 16 32 32 (1638400)
I0621 13:40:01.496320 22964 net.cpp:148] Top shape: 100 16 32 32 (1638400)
I0621 13:40:01.496328 22964 net.cpp:148] Top shape: 100 16 32 32 (1638400)
I0621 13:40:01.496335 22964 net.cpp:148] Top shape: 100 16 32 32 (1638400)
I0621 13:40:01.496341 22964 net.cpp:148] Top shape: 100 16 32 32 (1638400)
I0621 13:40:01.496350 22964 net.cpp:148] Top shape: 100 16 32 32 (1638400)
I0621 13:40:01.496354 22964 net.cpp:156] Memory required for data: 47105200
I0621 13:40:01.496359 22964 layer_factory.hpp:77] Creating layer bn_a_1_1
I0621 13:40:01.496371 22964 net.cpp:91] Creating Layer bn_a_1_1
I0621 13:40:01.496377 22964 net.cpp:425] bn_a_1_1 <- conv0_conv0_0_split_0
I0621 13:40:01.496386 22964 net.cpp:399] bn_a_1_1 -> bn_a_1_1
I0621 13:40:01.496628 22964 net.cpp:141] Setting up bn_a_1_1
I0621 13:40:01.496641 22964 net.cpp:148] Top shape: 100 16 32 32 (1638400)
I0621 13:40:01.496649 22964 net.cpp:156] Memory required for data: 53658800
I0621 13:40:01.496664 22964 layer_factory.hpp:77] Creating layer sc_a_1_1
I0621 13:40:01.496672 22964 net.cpp:91] Creating Layer sc_a_1_1
I0621 13:40:01.496680 22964 net.cpp:425] sc_a_1_1 <- bn_a_1_1
I0621 13:40:01.496688 22964 net.cpp:399] sc_a_1_1 -> sc_a_1_1
I0621 13:40:01.496749 22964 layer_factory.hpp:77] Creating layer sc_a_1_1
I0621 13:40:01.496906 22964 net.cpp:141] Setting up sc_a_1_1
I0621 13:40:01.496917 22964 net.cpp:148] Top shape: 100 16 32 32 (1638400)
I0621 13:40:01.496924 22964 net.cpp:156] Memory required for data: 60212400
I0621 13:40:01.496932 22964 layer_factory.hpp:77] Creating layer relu_a_1_1
I0621 13:40:01.496943 22964 net.cpp:91] Creating Layer relu_a_1_1
I0621 13:40:01.496951 22964 net.cpp:425] relu_a_1_1 <- sc_a_1_1
I0621 13:40:01.496958 22964 net.cpp:399] relu_a_1_1 -> relu_a_1_1
I0621 13:40:01.497419 22964 net.cpp:141] Setting up relu_a_1_1
I0621 13:40:01.497436 22964 net.cpp:148] Top shape: 100 16 32 32 (1638400)
I0621 13:40:01.497444 22964 net.cpp:156] Memory required for data: 66766000
I0621 13:40:01.497449 22964 layer_factory.hpp:77] Creating layer conv_a_1_1
I0621 13:40:01.497462 22964 net.cpp:91] Creating Layer conv_a_1_1
I0621 13:40:01.497469 22964 net.cpp:425] conv_a_1_1 <- relu_a_1_1
I0621 13:40:01.497478 22964 net.cpp:399] conv_a_1_1 -> conv_a_1_1
I0621 13:40:01.498893 22964 net.cpp:141] Setting up conv_a_1_1
I0621 13:40:01.498909 22964 net.cpp:148] Top shape: 100 64 32 32 (6553600)
I0621 13:40:01.498915 22964 net.cpp:156] Memory required for data: 92980400
I0621 13:40:01.498940 22964 layer_factory.hpp:77] Creating layer bn_a_1_2
I0621 13:40:01.498955 22964 net.cpp:91] Creating Layer bn_a_1_2
I0621 13:40:01.498961 22964 net.cpp:425] bn_a_1_2 <- conv_a_1_1
I0621 13:40:01.498975 22964 net.cpp:399] bn_a_1_2 -> bn_a_1_2
I0621 13:40:01.499253 22964 net.cpp:141] Setting up bn_a_1_2
I0621 13:40:01.499265 22964 net.cpp:148] Top shape: 100 64 32 32 (6553600)
I0621 13:40:01.499270 22964 net.cpp:156] Memory required for data: 119194800
I0621 13:40:01.499296 22964 layer_factory.hpp:77] Creating layer sc_a_1_2
I0621 13:40:01.499306 22964 net.cpp:91] Creating Layer sc_a_1_2
I0621 13:40:01.499315 22964 net.cpp:425] sc_a_1_2 <- bn_a_1_2
I0621 13:40:01.499322 22964 net.cpp:399] sc_a_1_2 -> sc_a_1_2
I0621 13:40:01.499392 22964 layer_factory.hpp:77] Creating layer sc_a_1_2
I0621 13:40:01.499562 22964 net.cpp:141] Setting up sc_a_1_2
I0621 13:40:01.499574 22964 net.cpp:148] Top shape: 100 64 32 32 (6553600)
I0621 13:40:01.499579 22964 net.cpp:156] Memory required for data: 145409200
I0621 13:40:01.499588 22964 layer_factory.hpp:77] Creating layer relu_a_1_2
I0621 13:40:01.499598 22964 net.cpp:91] Creating Layer relu_a_1_2
I0621 13:40:01.499606 22964 net.cpp:425] relu_a_1_2 <- sc_a_1_2
I0621 13:40:01.499614 22964 net.cpp:399] relu_a_1_2 -> relu_a_1_2
I0621 13:40:01.499912 22964 net.cpp:141] Setting up relu_a_1_2
I0621 13:40:01.499927 22964 net.cpp:148] Top shape: 100 64 32 32 (6553600)
I0621 13:40:01.499932 22964 net.cpp:156] Memory required for data: 171623600
I0621 13:40:01.499936 22964 layer_factory.hpp:77] Creating layer conv_a_1_2
I0621 13:40:01.499963 22964 net.cpp:91] Creating Layer conv_a_1_2
I0621 13:40:01.499970 22964 net.cpp:425] conv_a_1_2 <- relu_a_1_2
I0621 13:40:01.499981 22964 net.cpp:399] conv_a_1_2 -> conv_a_1_2
I0621 13:40:01.502118 22964 net.cpp:141] Setting up conv_a_1_2
I0621 13:40:01.502135 22964 net.cpp:148] Top shape: 100 64 32 32 (6553600)
I0621 13:40:01.502153 22964 net.cpp:156] Memory required for data: 197838000
I0621 13:40:01.502162 22964 layer_factory.hpp:77] Creating layer res_a
I0621 13:40:01.502177 22964 net.cpp:91] Creating Layer res_a
I0621 13:40:01.502184 22964 net.cpp:425] res_a <- conv0_conv0_0_split_1
I0621 13:40:01.502192 22964 net.cpp:399] res_a -> res_a
I0621 13:40:01.503391 22964 net.cpp:141] Setting up res_a
I0621 13:40:01.503419 22964 net.cpp:148] Top shape: 100 64 32 32 (6553600)
I0621 13:40:01.503425 22964 net.cpp:156] Memory required for data: 224052400
I0621 13:40:01.503440 22964 layer_factory.hpp:77] Creating layer elt_a_1
I0621 13:40:01.503450 22964 net.cpp:91] Creating Layer elt_a_1
I0621 13:40:01.503456 22964 net.cpp:425] elt_a_1 <- res_a
I0621 13:40:01.503463 22964 net.cpp:425] elt_a_1 <- conv_a_1_2
I0621 13:40:01.503470 22964 net.cpp:399] elt_a_1 -> elt_a_1
I0621 13:40:01.503510 22964 net.cpp:141] Setting up elt_a_1
I0621 13:40:01.503522 22964 net.cpp:148] Top shape: 100 64 32 32 (6553600)
I0621 13:40:01.503527 22964 net.cpp:156] Memory required for data: 250266800
I0621 13:40:01.503532 22964 layer_factory.hpp:77] Creating layer elt_a_1_elt_a_1_0_split
I0621 13:40:01.503540 22964 net.cpp:91] Creating Layer elt_a_1_elt_a_1_0_split
I0621 13:40:01.503545 22964 net.cpp:425] elt_a_1_elt_a_1_0_split <- elt_a_1
I0621 13:40:01.503554 22964 net.cpp:399] elt_a_1_elt_a_1_0_split -> elt_a_1_elt_a_1_0_split_0
I0621 13:40:01.503566 22964 net.cpp:399] elt_a_1_elt_a_1_0_split -> elt_a_1_elt_a_1_0_split_1
I0621 13:40:01.503574 22964 net.cpp:399] elt_a_1_elt_a_1_0_split -> elt_a_1_elt_a_1_0_split_2
I0621 13:40:01.503583 22964 net.cpp:399] elt_a_1_elt_a_1_0_split -> elt_a_1_elt_a_1_0_split_3
I0621 13:40:01.503671 22964 net.cpp:141] Setting up elt_a_1_elt_a_1_0_split
I0621 13:40:01.503685 22964 net.cpp:148] Top shape: 100 64 32 32 (6553600)
I0621 13:40:01.503693 22964 net.cpp:148] Top shape: 100 64 32 32 (6553600)
I0621 13:40:01.503698 22964 net.cpp:148] Top shape: 100 64 32 32 (6553600)
I0621 13:40:01.503705 22964 net.cpp:148] Top shape: 100 64 32 32 (6553600)
I0621 13:40:01.503710 22964 net.cpp:156] Memory required for data: 355124400
I0621 13:40:01.503715 22964 layer_factory.hpp:77] Creating layer bn_b_1_1
I0621 13:40:01.503722 22964 net.cpp:91] Creating Layer bn_b_1_1
I0621 13:40:01.503727 22964 net.cpp:425] bn_b_1_1 <- conv0_conv0_0_split_2
I0621 13:40:01.503736 22964 net.cpp:399] bn_b_1_1 -> bn_b_1_1
I0621 13:40:01.503988 22964 net.cpp:141] Setting up bn_b_1_1
I0621 13:40:01.504000 22964 net.cpp:148] Top shape: 100 16 32 32 (1638400)
I0621 13:40:01.504005 22964 net.cpp:156] Memory required for data: 361678000
I0621 13:40:01.504029 22964 layer_factory.hpp:77] Creating layer sc_b_1_1
I0621 13:40:01.504043 22964 net.cpp:91] Creating Layer sc_b_1_1
I0621 13:40:01.504050 22964 net.cpp:425] sc_b_1_1 <- bn_b_1_1
I0621 13:40:01.504058 22964 net.cpp:399] sc_b_1_1 -> sc_b_1_1
I0621 13:40:01.504133 22964 layer_factory.hpp:77] Creating layer sc_b_1_1
I0621 13:40:01.504293 22964 net.cpp:141] Setting up sc_b_1_1
I0621 13:40:01.504307 22964 net.cpp:148] Top shape: 100 16 32 32 (1638400)
I0621 13:40:01.504312 22964 net.cpp:156] Memory required for data: 368231600
I0621 13:40:01.504320 22964 layer_factory.hpp:77] Creating layer relu_b_1_1
I0621 13:40:01.504331 22964 net.cpp:91] Creating Layer relu_b_1_1
I0621 13:40:01.504338 22964 net.cpp:425] relu_b_1_1 <- sc_b_1_1
I0621 13:40:01.504345 22964 net.cpp:399] relu_b_1_1 -> relu_b_1_1
I0621 13:40:01.504565 22964 net.cpp:141] Setting up relu_b_1_1
I0621 13:40:01.504580 22964 net.cpp:148] Top shape: 100 16 32 32 (1638400)
I0621 13:40:01.504585 22964 net.cpp:156] Memory required for data: 374785200
I0621 13:40:01.504590 22964 layer_factory.hpp:77] Creating layer conv_b_1_1
I0621 13:40:01.504603 22964 net.cpp:91] Creating Layer conv_b_1_1
I0621 13:40:01.504611 22964 net.cpp:425] conv_b_1_1 <- relu_b_1_1
I0621 13:40:01.504621 22964 net.cpp:399] conv_b_1_1 -> conv_b_1_1
I0621 13:40:01.506000 22964 net.cpp:141] Setting up conv_b_1_1
I0621 13:40:01.506016 22964 net.cpp:148] Top shape: 100 64 32 32 (6553600)
I0621 13:40:01.506034 22964 net.cpp:156] Memory required for data: 400999600
I0621 13:40:01.506043 22964 layer_factory.hpp:77] Creating layer bn_b_1_2
I0621 13:40:01.506052 22964 net.cpp:91] Creating Layer bn_b_1_2
I0621 13:40:01.506057 22964 net.cpp:425] bn_b_1_2 <- conv_b_1_1
I0621 13:40:01.506067 22964 net.cpp:399] bn_b_1_2 -> bn_b_1_2
I0621 13:40:01.506337 22964 net.cpp:141] Setting up bn_b_1_2
I0621 13:40:01.506363 22964 net.cpp:148] Top shape: 100 64 32 32 (6553600)
I0621 13:40:01.506368 22964 net.cpp:156] Memory required for data: 427214000
I0621 13:40:01.506378 22964 layer_factory.hpp:77] Creating layer sc_b_1_2
I0621 13:40:01.506388 22964 net.cpp:91] Creating Layer sc_b_1_2
I0621 13:40:01.506393 22964 net.cpp:425] sc_b_1_2 <- bn_b_1_2
I0621 13:40:01.506402 22964 net.cpp:399] sc_b_1_2 -> sc_b_1_2
I0621 13:40:01.506474 22964 layer_factory.hpp:77] Creating layer sc_b_1_2
I0621 13:40:01.506638 22964 net.cpp:141] Setting up sc_b_1_2
I0621 13:40:01.506649 22964 net.cpp:148] Top shape: 100 64 32 32 (6553600)
I0621 13:40:01.506654 22964 net.cpp:156] Memory required for data: 453428400
I0621 13:40:01.506662 22964 layer_factory.hpp:77] Creating layer relu_b_1_2
I0621 13:40:01.506672 22964 net.cpp:91] Creating Layer relu_b_1_2
I0621 13:40:01.506680 22964 net.cpp:425] relu_b_1_2 <- sc_b_1_2
I0621 13:40:01.506711 22964 net.cpp:399] relu_b_1_2 -> relu_b_1_2
I0621 13:40:01.507056 22964 net.cpp:141] Setting up relu_b_1_2
I0621 13:40:01.507071 22964 net.cpp:148] Top shape: 100 64 32 32 (6553600)
I0621 13:40:01.507091 22964 net.cpp:156] Memory required for data: 479642800
I0621 13:40:01.507096 22964 layer_factory.hpp:77] Creating layer conv_b_1_2
I0621 13:40:01.507108 22964 net.cpp:91] Creating Layer conv_b_1_2
I0621 13:40:01.507114 22964 net.cpp:425] conv_b_1_2 <- relu_b_1_2
I0621 13:40:01.507125 22964 net.cpp:399] conv_b_1_2 -> conv_b_1_2
I0621 13:40:01.509601 22964 net.cpp:141] Setting up conv_b_1_2
I0621 13:40:01.509631 22964 net.cpp:148] Top shape: 100 64 32 32 (6553600)
I0621 13:40:01.509637 22964 net.cpp:156] Memory required for data: 505857200
I0621 13:40:01.509646 22964 layer_factory.hpp:77] Creating layer res_b
I0621 13:40:01.509661 22964 net.cpp:91] Creating Layer res_b
I0621 13:40:01.509667 22964 net.cpp:425] res_b <- conv0_conv0_0_split_3
I0621 13:40:01.509676 22964 net.cpp:399] res_b -> res_b
I0621 13:40:01.510843 22964 net.cpp:141] Setting up res_b
I0621 13:40:01.510872 22964 net.cpp:148] Top shape: 100 64 32 32 (6553600)
I0621 13:40:01.510881 22964 net.cpp:156] Memory required for data: 532071600
I0621 13:40:01.510895 22964 layer_factory.hpp:77] Creating layer elt_b_1
I0621 13:40:01.510951 22964 net.cpp:91] Creating Layer elt_b_1
I0621 13:40:01.510959 22964 net.cpp:425] elt_b_1 <- res_b
I0621 13:40:01.510967 22964 net.cpp:425] elt_b_1 <- conv_b_1_2
I0621 13:40:01.510974 22964 net.cpp:399] elt_b_1 -> elt_b_1
I0621 13:40:01.511016 22964 net.cpp:141] Setting up elt_b_1
I0621 13:40:01.511029 22964 net.cpp:148] Top shape: 100 64 32 32 (6553600)
I0621 13:40:01.511034 22964 net.cpp:156] Memory required for data: 558286000
I0621 13:40:01.511039 22964 layer_factory.hpp:77] Creating layer elt_b_1_elt_b_1_0_split
I0621 13:40:01.511046 22964 net.cpp:91] Creating Layer elt_b_1_elt_b_1_0_split
I0621 13:40:01.511051 22964 net.cpp:425] elt_b_1_elt_b_1_0_split <- elt_b_1
I0621 13:40:01.511066 22964 net.cpp:399] elt_b_1_elt_b_1_0_split -> elt_b_1_elt_b_1_0_split_0
I0621 13:40:01.511078 22964 net.cpp:399] elt_b_1_elt_b_1_0_split -> elt_b_1_elt_b_1_0_split_1
I0621 13:40:01.511087 22964 net.cpp:399] elt_b_1_elt_b_1_0_split -> elt_b_1_elt_b_1_0_split_2
I0621 13:40:01.511096 22964 net.cpp:399] elt_b_1_elt_b_1_0_split -> elt_b_1_elt_b_1_0_split_3
I0621 13:40:01.511191 22964 net.cpp:141] Setting up elt_b_1_elt_b_1_0_split
I0621 13:40:01.511204 22964 net.cpp:148] Top shape: 100 64 32 32 (6553600)
I0621 13:40:01.511212 22964 net.cpp:148] Top shape: 100 64 32 32 (6553600)
I0621 13:40:01.511219 22964 net.cpp:148] Top shape: 100 64 32 32 (6553600)
I0621 13:40:01.511224 22964 net.cpp:148] Top shape: 100 64 32 32 (6553600)
I0621 13:40:01.511229 22964 net.cpp:156] Memory required for data: 663143600
I0621 13:40:01.511234 22964 layer_factory.hpp:77] Creating layer bn_c_1_1
I0621 13:40:01.511258 22964 net.cpp:91] Creating Layer bn_c_1_1
I0621 13:40:01.511266 22964 net.cpp:425] bn_c_1_1 <- conv0_conv0_0_split_4
I0621 13:40:01.511274 22964 net.cpp:399] bn_c_1_1 -> bn_c_1_1
I0621 13:40:01.511533 22964 net.cpp:141] Setting up bn_c_1_1
I0621 13:40:01.511546 22964 net.cpp:148] Top shape: 100 16 32 32 (1638400)
I0621 13:40:01.511551 22964 net.cpp:156] Memory required for data: 669697200
I0621 13:40:01.511561 22964 layer_factory.hpp:77] Creating layer sc_c_1_1
I0621 13:40:01.511570 22964 net.cpp:91] Creating Layer sc_c_1_1
I0621 13:40:01.511577 22964 net.cpp:425] sc_c_1_1 <- bn_c_1_1
I0621 13:40:01.511587 22964 net.cpp:399] sc_c_1_1 -> sc_c_1_1
I0621 13:40:01.511647 22964 layer_factory.hpp:77] Creating layer sc_c_1_1
I0621 13:40:01.511803 22964 net.cpp:141] Setting up sc_c_1_1
I0621 13:40:01.511817 22964 net.cpp:148] Top shape: 100 16 32 32 (1638400)
I0621 13:40:01.511822 22964 net.cpp:156] Memory required for data: 676250800
I0621 13:40:01.511831 22964 layer_factory.hpp:77] Creating layer relu_c_1_1
I0621 13:40:01.511838 22964 net.cpp:91] Creating Layer relu_c_1_1
I0621 13:40:01.511845 22964 net.cpp:425] relu_c_1_1 <- sc_c_1_1
I0621 13:40:01.511852 22964 net.cpp:399] relu_c_1_1 -> relu_c_1_1
I0621 13:40:01.512213 22964 net.cpp:141] Setting up relu_c_1_1
I0621 13:40:01.512229 22964 net.cpp:148] Top shape: 100 16 32 32 (1638400)
I0621 13:40:01.512234 22964 net.cpp:156] Memory required for data: 682804400
I0621 13:40:01.512240 22964 layer_factory.hpp:77] Creating layer conv_c_1_1
I0621 13:40:01.512253 22964 net.cpp:91] Creating Layer conv_c_1_1
I0621 13:40:01.512260 22964 net.cpp:425] conv_c_1_1 <- relu_c_1_1
I0621 13:40:01.512271 22964 net.cpp:399] conv_c_1_1 -> conv_c_1_1
I0621 13:40:01.513519 22964 net.cpp:141] Setting up conv_c_1_1
I0621 13:40:01.513535 22964 net.cpp:148] Top shape: 100 64 32 32 (6553600)
I0621 13:40:01.513540 22964 net.cpp:156] Memory required for data: 709018800
I0621 13:40:01.513550 22964 layer_factory.hpp:77] Creating layer bn_c_1_2
I0621 13:40:01.513562 22964 net.cpp:91] Creating Layer bn_c_1_2
I0621 13:40:01.513571 22964 net.cpp:425] bn_c_1_2 <- conv_c_1_1
I0621 13:40:01.513578 22964 net.cpp:399] bn_c_1_2 -> bn_c_1_2
I0621 13:40:01.513844 22964 net.cpp:141] Setting up bn_c_1_2
I0621 13:40:01.513870 22964 net.cpp:148] Top shape: 100 64 32 32 (6553600)
I0621 13:40:01.513875 22964 net.cpp:156] Memory required for data: 735233200
I0621 13:40:01.513885 22964 layer_factory.hpp:77] Creating layer sc_c_1_2
I0621 13:40:01.513905 22964 net.cpp:91] Creating Layer sc_c_1_2
I0621 13:40:01.513911 22964 net.cpp:425] sc_c_1_2 <- bn_c_1_2
I0621 13:40:01.513934 22964 net.cpp:399] sc_c_1_2 -> sc_c_1_2
I0621 13:40:01.513996 22964 layer_factory.hpp:77] Creating layer sc_c_1_2
I0621 13:40:01.514153 22964 net.cpp:141] Setting up sc_c_1_2
I0621 13:40:01.514168 22964 net.cpp:148] Top shape: 100 64 32 32 (6553600)
I0621 13:40:01.514173 22964 net.cpp:156] Memory required for data: 761447600
I0621 13:40:01.514181 22964 layer_factory.hpp:77] Creating layer relu_c_1_2
I0621 13:40:01.514190 22964 net.cpp:91] Creating Layer relu_c_1_2
I0621 13:40:01.514197 22964 net.cpp:425] relu_c_1_2 <- sc_c_1_2
I0621 13:40:01.514207 22964 net.cpp:399] relu_c_1_2 -> relu_c_1_2
I0621 13:40:01.514580 22964 net.cpp:141] Setting up relu_c_1_2
I0621 13:40:01.514595 22964 net.cpp:148] Top shape: 100 64 32 32 (6553600)
I0621 13:40:01.514600 22964 net.cpp:156] Memory required for data: 787662000
I0621 13:40:01.514611 22964 layer_factory.hpp:77] Creating layer conv_c_1_2
I0621 13:40:01.514623 22964 net.cpp:91] Creating Layer conv_c_1_2
I0621 13:40:01.514629 22964 net.cpp:425] conv_c_1_2 <- relu_c_1_2
I0621 13:40:01.514642 22964 net.cpp:399] conv_c_1_2 -> conv_c_1_2
I0621 13:40:01.516897 22964 net.cpp:141] Setting up conv_c_1_2
I0621 13:40:01.516927 22964 net.cpp:148] Top shape: 100 64 32 32 (6553600)
I0621 13:40:01.516933 22964 net.cpp:156] Memory required for data: 813876400
I0621 13:40:01.516942 22964 layer_factory.hpp:77] Creating layer res_c
I0621 13:40:01.516957 22964 net.cpp:91] Creating Layer res_c
I0621 13:40:01.516971 22964 net.cpp:425] res_c <- conv0_conv0_0_split_5
I0621 13:40:01.516980 22964 net.cpp:399] res_c -> res_c
I0621 13:40:01.518143 22964 net.cpp:141] Setting up res_c
I0621 13:40:01.518159 22964 net.cpp:148] Top shape: 100 64 32 32 (6553600)
I0621 13:40:01.518179 22964 net.cpp:156] Memory required for data: 840090800
I0621 13:40:01.518187 22964 layer_factory.hpp:77] Creating layer elt_c_1
I0621 13:40:01.518195 22964 net.cpp:91] Creating Layer elt_c_1
I0621 13:40:01.518201 22964 net.cpp:425] elt_c_1 <- res_c
I0621 13:40:01.518208 22964 net.cpp:425] elt_c_1 <- conv_c_1_2
I0621 13:40:01.518218 22964 net.cpp:399] elt_c_1 -> elt_c_1
I0621 13:40:01.518256 22964 net.cpp:141] Setting up elt_c_1
I0621 13:40:01.518268 22964 net.cpp:148] Top shape: 100 64 32 32 (6553600)
I0621 13:40:01.518273 22964 net.cpp:156] Memory required for data: 866305200
…
I0621 13:40:01.523736 22964 layer_factory.hpp:77] Creating layer relu_d_1_2
I0621 13:40:01.523743 22964 net.cpp:91] Creating Layer relu_d_1_2
I0621 13:40:01.523748 22964 net.cpp:425] relu_d_1_2 <- sc_d_1_2
I0621 13:40:01.523758 22964 net.cpp:399] relu_d_1_2 -> relu_d_1_2
I0621 13:40:01.523963 22964 net.cpp:141] Setting up relu_d_1_2
I0621 13:40:01.523977 22964 net.cpp:148] Top shape: 100 128 16 16 (3276800)
I0621 13:40:01.523983 22964 net.cpp:156] Memory required for data: 1102234800
I0621 13:40:01.523988 22964 layer_factory.hpp:77] Creating layer conv_d_1_2
I0621 13:40:01.524003 22964 net.cpp:91] Creating Layer conv_d_1_2
I0621 13:40:01.524011 22964 net.cpp:425] conv_d_1_2 <- relu_d_1_2
I0621 13:40:01.524019 22964 net.cpp:399] conv_d_1_2 -> conv_d_1_2
I0621 13:40:01.529183 22964 net.cpp:141] Setting up conv_d_1_2
I0621 13:40:01.529199 22964 net.cpp:148] Top shape: 100 128 16 16 (3276800)
I0621 13:40:01.529206 22964 net.cpp:156] Memory required for data: 1115342000
I0621 13:40:01.529214 22964 layer_factory.hpp:77] Creating layer res_d
I0621 13:40:01.529232 22964 net.cpp:91] Creating Layer res_d
I0621 13:40:01.529239 22964 net.cpp:425] res_d <- elt_a_1_elt_a_1_0_split_1
I0621 13:40:01.529248 22964 net.cpp:399] res_d -> res_d
I0621 13:40:01.530570 22964 net.cpp:141] Setting up res_d
I0621 13:40:01.530585 22964 net.cpp:148] Top shape: 100 128 16 16 (3276800)
I0621 13:40:01.530603 22964 net.cpp:156] Memory required for data: 1128449200
I0621 13:40:01.530622 22964 layer_factory.hpp:77] Creating layer elt_d_1
I0621 13:40:01.530634 22964 net.cpp:91] Creating Layer elt_d_1
I0621 13:40:01.530642 22964 net.cpp:425] elt_d_1 <- res_d
I0621 13:40:01.530678 22964 net.cpp:425] elt_d_1 <- conv_d_1_2
I0621 13:40:01.530704 22964 net.cpp:399] elt_d_1 -> elt_d_1
I0621 13:40:01.530740 22964 net.cpp:141] Setting up elt_d_1
I0621 13:40:01.530753 22964 net.cpp:148] Top shape: 100 128 16 16 (3276800)
I0621 13:40:01.530758 22964 net.cpp:156] Memory required for data: 1141556400
I0621 13:40:01.530763 22964 layer_factory.hpp:77] Creating layer bn_f_1_1
I0621 13:40:01.530774 22964 net.cpp:91] Creating Layer bn_f_1_1
I0621 13:40:01.530781 22964 net.cpp:425] bn_f_1_1 <- elt_b_1_elt_b_1_0_split_0
I0621 13:40:01.530791 22964 net.cpp:399] bn_f_1_1 -> bn_f_1_1
I0621 13:40:01.531080 22964 net.cpp:141] Setting up bn_f_1_1
I0621 13:40:01.531092 22964 net.cpp:148] Top shape: 100 64 32 32 (6553600)
I0621 13:40:01.531097 22964 net.cpp:156] Memory required for data: 1167770800
I0621 13:40:01.531107 22964 layer_factory.hpp:77] Creating layer sc_f_1_1
I0621 13:40:01.531116 22964 net.cpp:91] Creating Layer sc_f_1_1
I0621 13:40:01.531122 22964 net.cpp:425] sc_f_1_1 <- bn_f_1_1
I0621 13:40:01.531131 22964 net.cpp:399] sc_f_1_1 -> sc_f_1_1
I0621 13:40:01.531201 22964 layer_factory.hpp:77] Creating layer sc_f_1_1
I0621 13:40:01.531361 22964 net.cpp:141] Setting up sc_f_1_1
I0621 13:40:01.531374 22964 net.cpp:148] Top shape: 100 64 32 32 (6553600)
I0621 13:40:01.531379 22964 net.cpp:156] Memory required for data: 1193985200
I0621 13:40:01.531388 22964 layer_factory.hpp:77] Creating layer relu_f_1_1
I0621 13:40:01.531395 22964 net.cpp:91] Creating Layer relu_f_1_1
I0621 13:40:01.531401 22964 net.cpp:425] relu_f_1_1 <- sc_f_1_1
I0621 13:40:01.531410 22964 net.cpp:399] relu_f_1_1 -> relu_f_1_1
I0621 13:40:01.531743 22964 net.cpp:141] Setting up relu_f_1_1
I0621 13:40:01.531757 22964 net.cpp:148] Top shape: 100 64 32 32 (6553600)
I0621 13:40:01.531775 22964 net.cpp:156] Memory required for data: 1220199600
I0621 13:40:01.531780 22964 layer_factory.hpp:77] Creating layer conv_f_1_1
I0621 13:40:01.531795 22964 net.cpp:91] Creating Layer conv_f_1_1
I0621 13:40:01.531800 22964 net.cpp:425] conv_f_1_1 <- relu_f_1_1
I0621 13:40:01.531811 22964 net.cpp:399] conv_f_1_1 -> conv_f_1_1
I0621 13:40:01.535248 22964 net.cpp:141] Setting up conv_f_1_1
I0621 13:40:01.535276 22964 net.cpp:148] Top shape: 100 128 16 16 (3276800)
I0621 13:40:01.535284 22964 net.cpp:156] Memory required for data: 1233306800
I0621 13:40:01.535292 22964 layer_factory.hpp:77] Creating layer bn_f_1_2
I0621 13:40:01.535303 22964 net.cpp:91] Creating Layer bn_f_1_2
I0621 13:40:01.535308 22964 net.cpp:425] bn_f_1_2 <- conv_f_1_1
I0621 13:40:01.535320 22964 net.cpp:399] bn_f_1_2 -> bn_f_1_2
I0621 13:40:01.535588 22964 net.cpp:141] Setting up bn_f_1_2
I0621 13:40:01.535600 22964 net.cpp:148] Top shape: 100 128 16 16 (3276800)
I0621 13:40:01.535619 22964 net.cpp:156] Memory required for data: 1246414000
I0621 13:40:01.535627 22964 layer_factory.hpp:77] Creating layer sc_f_1_2
I0621 13:40:01.535635 22964 net.cpp:91] Creating Layer sc_f_1_2
I0621 13:40:01.535640 22964 net.cpp:425] sc_f_1_2 <- bn_f_1_2
I0621 13:40:01.535647 22964 net.cpp:399] sc_f_1_2 -> sc_f_1_2
I0621 13:40:01.535720 22964 layer_factory.hpp:77] Creating layer sc_f_1_2
I0621 13:40:01.535866 22964 net.cpp:141] Setting up sc_f_1_2
I0621 13:40:01.535877 22964 net.cpp:148] Top shape: 100 128 16 16 (3276800)
I0621 13:40:01.535882 22964 net.cpp:156] Memory required for data: 1259521200
I0621 13:40:01.535890 22964 layer_factory.hpp:77] Creating layer relu_f_1_2
I0621 13:40:01.535898 22964 net.cpp:91] Creating Layer relu_f_1_2
I0621 13:40:01.535907 22964 net.cpp:425] relu_f_1_2 <- sc_f_1_2
I0621 13:40:01.535915 22964 net.cpp:399] relu_f_1_2 -> relu_f_1_2
I0621 13:40:01.536257 22964 net.cpp:141] Setting up relu_f_1_2
I0621 13:40:01.536272 22964 net.cpp:148] Top shape: 100 128 16 16 (3276800)
I0621 13:40:01.536289 22964 net.cpp:156] Memory required for data: 1272628400
I0621 13:40:01.536295 22964 layer_factory.hpp:77] Creating layer conv_f_1_2
I0621 13:40:01.536309 22964 net.cpp:91] Creating Layer conv_f_1_2
I0621 13:40:01.536314 22964 net.cpp:425] conv_f_1_2 <- relu_f_1_2
I0621 13:40:01.536339 22964 net.cpp:399] conv_f_1_2 -> conv_f_1_2
I0621 13:40:01.541354 22964 net.cpp:141] Setting up conv_f_1_2
I0621 13:40:01.541383 22964 net.cpp:148] Top shape: 100 128 16 16 (3276800)
I0621 13:40:01.541389 22964 net.cpp:156] Memory required for data: 1285735600
I0621 13:40:01.541399 22964 layer_factory.hpp:77] Creating layer res_f
I0621 13:40:01.541411 22964 net.cpp:91] Creating Layer res_f
I0621 13:40:01.541417 22964 net.cpp:425] res_f <- elt_b_1_elt_b_1_0_split_1
I0621 13:40:01.541429 22964 net.cpp:399] res_f -> res_f
I0621 13:40:01.542757 22964 net.cpp:141] Setting up res_f
I0621 13:40:01.542784 22964 net.cpp:148] Top shape: 100 128 16 16 (3276800)
I0621 13:40:01.542790 22964 net.cpp:156] Memory required for data: 1298842800
I0621 13:40:01.542799 22964 layer_factory.hpp:77] Creating layer elt_f_1
I0621 13:40:01.542809 22964 net.cpp:91] Creating Layer elt_f_1
I0621 13:40:01.542815 22964 net.cpp:425] elt_f_1 <- res_f
I0621 13:40:01.542822 22964 net.cpp:425] elt_f_1 <- conv_f_1_2
I0621 13:40:01.542829 22964 net.cpp:399] elt_f_1 -> elt_f_1
I0621 13:40:01.542862 22964 net.cpp:141] Setting up elt_f_1
I0621 13:40:01.542886 22964 net.cpp:148] Top shape: 100 128 16 16 (3276800)
I0621 13:40:01.542891 22964 net.cpp:156] Memory required for data: 1311950000
I0621 13:40:01.542896 22964 layer_factory.hpp:77] Creating layer bn_g_1_1
I0621 13:40:01.542906 22964 net.cpp:91] Creating Layer bn_g_1_1
I0621 13:40:01.542914 22964 net.cpp:425] bn_g_1_1 <- elt_b_1_elt_b_1_0_split_2
I0621 13:40:01.542937 22964 net.cpp:399] bn_g_1_1 -> bn_g_1_1
I0621 13:40:01.543244 22964 net.cpp:141] Setting up bn_g_1_1
I0621 13:40:01.543257 22964 net.cpp:148] Top shape: 100 64 32 32 (6553600)
I0621 13:40:01.543262 22964 net.cpp:156] Memory required for data: 1338164400
I0621 13:40:01.543272 22964 layer_factory.hpp:77] Creating layer sc_g_1_1
I0621 13:40:01.543280 22964 net.cpp:91] Creating Layer sc_g_1_1
I0621 13:40:01.543285 22964 net.cpp:425] sc_g_1_1 <- bn_g_1_1
I0621 13:40:01.543298 22964 net.cpp:399] sc_g_1_1 -> sc_g_1_1
I0621 13:40:01.543359 22964 layer_factory.hpp:77] Creating layer sc_g_1_1
I0621 13:40:01.543516 22964 net.cpp:141] Setting up sc_g_1_1
I0621 13:40:01.543530 22964 net.cpp:148] Top shape: 100 64 32 32 (6553600)
I0621 13:40:01.543539 22964 net.cpp:156] Memory required for data: 1364378800
I0621 13:40:01.543560 22964 layer_factory.hpp:77] Creating layer relu_g_1_1
I0621 13:40:01.543568 22964 net.cpp:91] Creating Layer relu_g_1_1
I0621 13:40:01.543575 22964 net.cpp:425] relu_g_1_1 <- sc_g_1_1
I0621 13:40:01.543581 22964 net.cpp:399] relu_g_1_1 -> relu_g_1_1
I0621 13:40:01.543927 22964 net.cpp:141] Setting up relu_g_1_1
I0621 13:40:01.543941 22964 net.cpp:148] Top shape: 100 64 32 32 (6553600)
I0621 13:40:01.543946 22964 net.cpp:156] Memory required for data: 1390593200
I0621 13:40:01.543951 22964 layer_factory.hpp:77] Creating layer conv_g_1_1
I0621 13:40:01.543982 22964 net.cpp:91] Creating Layer conv_g_1_1
I0621 13:40:01.543988 22964 net.cpp:425] conv_g_1_1 <- relu_g_1_1
I0621 13:40:01.543999 22964 net.cpp:399] conv_g_1_1 -> conv_g_1_1
I0621 13:40:01.547538 22964 net.cpp:141] Setting up conv_g_1_1
I0621 13:40:01.547554 22964 net.cpp:148] Top shape: 100 128 16 16 (3276800)
I0621 13:40:01.547572 22964 net.cpp:156] Memory required for data: 1403700400
I0621 13:40:01.547581 22964 layer_factory.hpp:77] Creating layer bn_g_1_2
I0621 13:40:01.547592 22964 net.cpp:91] Creating Layer bn_g_1_2
I0621 13:40:01.547598 22964 net.cpp:425] bn_g_1_2 <- conv_g_1_1
I0621 13:40:01.547610 22964 net.cpp:399] bn_g_1_2 -> bn_g_1_2
I0621 13:40:01.547873 22964 net.cpp:141] Setting up bn_g_1_2
I0621 13:40:01.547884 22964 net.cpp:148] Top shape: 100 128 16 16 (3276800)
I0621 13:40:01.547889 22964 net.cpp:156] Memory required for data: 1416807600
I0621 13:40:01.547899 22964 layer_factory.hpp:77] Creating layer sc_g_1_2
I0621 13:40:01.547907 22964 net.cpp:91] Creating Layer sc_g_1_2
I0621 13:40:01.547912 22964 net.cpp:425] sc_g_1_2 <- bn_g_1_2
I0621 13:40:01.547922 22964 net.cpp:399] sc_g_1_2 -> sc_g_1_2
I0621 13:40:01.547983 22964 layer_factory.hpp:77] Creating layer sc_g_1_2
I0621 13:40:01.548167 22964 net.cpp:141] Setting up sc_g_1_2
I0621 13:40:01.548182 22964 net.cpp:148] Top shape: 100 128 16 16 (3276800)
I0621 13:40:01.548187 22964 net.cpp:156] Memory required for data: 1429914800
I0621 13:40:01.548195 22964 layer_factory.hpp:77] Creating layer relu_g_1_2
I0621 13:40:01.548203 22964 net.cpp:91] Creating Layer relu_g_1_2
I0621 13:40:01.548213 22964 net.cpp:425] relu_g_1_2 <- sc_g_1_2
I0621 13:40:01.548219 22964 net.cpp:399] relu_g_1_2 -> relu_g_1_2
I0621 13:40:01.548449 22964 net.cpp:141] Setting up relu_g_1_2
I0621 13:40:01.548461 22964 net.cpp:148] Top shape: 100 128 16 16 (3276800)
I0621 13:40:01.548466 22964 net.cpp:156] Memory required for data: 1443022000
I0621 13:40:01.548472 22964 layer_factory.hpp:77] Creating layer conv_g_1_2
I0621 13:40:01.548490 22964 net.cpp:91] Creating Layer conv_g_1_2
I0621 13:40:01.548497 22964 net.cpp:425] conv_g_1_2 <- relu_g_1_2
I0621 13:40:01.548506 22964 net.cpp:399] conv_g_1_2 -> conv_g_1_2
I0621 13:40:01.553493 22964 net.cpp:141] Setting up conv_g_1_2
I0621 13:40:01.553508 22964 net.cpp:148] Top shape: 100 128 16 16 (3276800)
I0621 13:40:01.553529 22964 net.cpp:156] Memory required for data: 1456129200
I0621 13:40:01.553539 22964 layer_factory.hpp:77] Creating layer res_g
I0621 13:40:01.553562 22964 net.cpp:91] Creating Layer res_g
I0621 13:40:01.553568 22964 net.cpp:425] res_g <- elt_b_1_elt_b_1_0_split_3
I0621 13:40:01.553576 22964 net.cpp:399] res_g -> res_g
I0621 13:40:01.555398 22964 net.cpp:141] Setting up res_g
I0621 13:40:01.555426 22964 net.cpp:148] Top shape: 100 128 16 16 (3276800)
I0621 13:40:01.555433 22964 net.cpp:156] Memory required for data: 1469236400
I0621 13:40:01.555440 22964 layer_factory.hpp:77] Creating layer elt_g_1
I0621 13:40:01.555451 22964 net.cpp:91] Creating Layer elt_g_1
I0621 13:40:01.555457 22964 net.cpp:425] elt_g_1 <- res_g
I0621 13:40:01.555464 22964 net.cpp:425] elt_g_1 <- conv_g_1_2
I0621 13:40:01.555471 22964 net.cpp:399] elt_g_1 -> elt_g_1
I0621 13:40:01.555496 22964 net.cpp:141] Setting up elt_g_1
I0621 13:40:01.555507 22964 net.cpp:148] Top shape: 100 128 16 16 (3276800)
I0621 13:40:01.555511 22964 net.cpp:156] Memory required for data: 1482343600
I0621 13:40:01.555516 22964 layer_factory.hpp:77] Creating layer bn_h_1_1
I0621 13:40:01.555524 22964 net.cpp:91] Creating Layer bn_h_1_1
I0621 13:40:01.555529 22964 net.cpp:425] bn_h_1_1 <- elt_c_1_elt_c_1_0_split_0
I0621 13:40:01.555539 22964 net.cpp:399] bn_h_1_1 -> bn_h_1_1
I0621 13:40:01.555723 22964 net.cpp:141] Setting up bn_h_1_1
I0621 13:40:01.555735 22964 net.cpp:148] Top shape: 100 64 32 32 (6553600)
I0621 13:40:01.555740 22964 net.cpp:156] Memory required for data: 1508558000
I0621 13:40:01.555752 22964 layer_factory.hpp:77] Creating layer sc_h_1_1
I0621 13:40:01.555763 22964 net.cpp:91] Creating Layer sc_h_1_1
I0621 13:40:01.555771 22964 net.cpp:425] sc_h_1_1 <- bn_h_1_1
I0621 13:40:01.555779 22964 net.cpp:399] sc_h_1_1 -> sc_h_1_1
I0621 13:40:01.555826 22964 layer_factory.hpp:77] Creating layer sc_h_1_1
I0621 13:40:01.555949 22964 net.cpp:141] Setting up sc_h_1_1
I0621 13:40:01.555961 22964 net.cpp:148] Top shape: 100 64 32 32 (6553600)
I0621 13:40:01.555966 22964 net.cpp:156] Memory required for data: 1534772400
I0621 13:40:01.555974 22964 layer_factory.hpp:77] Creating layer relu_h_1_1
I0621 13:40:01.555984 22964 net.cpp:91] Creating Layer relu_h_1_1
I0621 13:40:01.555991 22964 net.cpp:425] relu_h_1_1 <- sc_h_1_1
I0621 13:40:01.555999 22964 net.cpp:399] relu_h_1_1 -> relu_h_1_1
I0621 13:40:01.556320 22964 net.cpp:141] Setting up relu_h_1_1
I0621 13:40:01.556335 22964 net.cpp:148] Top shape: 100 64 32 32 (6553600)
I0621 13:40:01.556340 22964 net.cpp:156] Memory required for data: 1560986800
I0621 13:40:01.556346 22964 layer_factory.hpp:77] Creating layer conv_h_1_1
I0621 13:40:01.556360 22964 net.cpp:91] Creating Layer conv_h_1_1
I0621 13:40:01.556367 22964 net.cpp:425] conv_h_1_1 <- relu_h_1_1
I0621 13:40:01.556378 22964 net.cpp:399] conv_h_1_1 -> conv_h_1_1
I0621 13:40:01.559849 22964 net.cpp:141] Setting up conv_h_1_1
I0621 13:40:01.559880 22964 net.cpp:148] Top shape: 100 128 16 16 (3276800)
I0621 13:40:01.559901 22964 net.cpp:156] Memory required for data: 1574094000
I0621 13:40:01.559911 22964 layer_factory.hpp:77] Creating layer bn_h_1_2
I0621 13:40:01.559926 22964 net.cpp:91] Creating Layer bn_h_1_2
I0621 13:40:01.559932 22964 net.cpp:425] bn_h_1_2 <- conv_h_1_1
I0621 13:40:01.559942 22964 net.cpp:399] bn_h_1_2 -> bn_h_1_2
I0621 13:40:01.560116 22964 net.cpp:141] Setting up bn_h_1_2
I0621 13:40:01.560127 22964 net.cpp:148] Top shape: 100 128 16 16 (3276800)
I0621 13:40:01.560132 22964 net.cpp:156] Memory required for data: 1587201200
I0621 13:40:01.560142 22964 layer_factory.hpp:77] Creating layer sc_h_1_2
I0621 13:40:01.560153 22964 net.cpp:91] Creating Layer sc_h_1_2
I0621 13:40:01.560173 22964 net.cpp:425] sc_h_1_2 <- bn_h_1_2
I0621 13:40:01.560181 22964 net.cpp:399] sc_h_1_2 -> sc_h_1_2
I0621 13:40:01.560225 22964 layer_factory.hpp:77] Creating layer sc_h_1_2
I0621 13:40:01.560326 22964 net.cpp:141] Setting up sc_h_1_2
I0621 13:40:01.560338 22964 net.cpp:148] Top shape: 100 128 16 16 (3276800)
I0621 13:40:01.560343 22964 net.cpp:156] Memory required for data: 1600308400
I0621 13:40:01.560350 22964 layer_factory.hpp:77] Creating layer relu_h_1_2
I0621 13:40:01.560359 22964 net.cpp:91] Creating Layer relu_h_1_2
I0621 13:40:01.560364 22964 net.cpp:425] relu_h_1_2 <- sc_h_1_2
I0621 13:40:01.560371 22964 net.cpp:399] relu_h_1_2 -> relu_h_1_2
I0621 13:40:01.560705 22964 net.cpp:141] Setting up relu_h_1_2
I0621 13:40:01.560720 22964 net.cpp:148] Top shape: 100 128 16 16 (3276800)
I0621 13:40:01.560725 22964 net.cpp:156] Memory required for data: 1613415600
I0621 13:40:01.560730 22964 layer_factory.hpp:77] Creating layer conv_h_1_2
I0621 13:40:01.560744 22964 net.cpp:91] Creating Layer conv_h_1_2
I0621 13:40:01.560750 22964 net.cpp:425] conv_h_1_2 <- relu_h_1_2
I0621 13:40:01.560761 22964 net.cpp:399] conv_h_1_2 -> conv_h_1_2
I0621 13:40:01.565675 22964 net.cpp:141] Setting up conv_h_1_2
I0621 13:40:01.565704 22964 net.cpp:148] Top shape: 100 128 16 16 (3276800)
I0621 13:40:01.565711 22964 net.cpp:156] Memory required for data: 1626522800
I0621 13:40:01.565719 22964 layer_factory.hpp:77] Creating layer res_h
I0621 13:40:01.565733 22964 net.cpp:91] Creating Layer res_h
I0621 13:40:01.565739 22964 net.cpp:425] res_h <- elt_c_1_elt_c_1_0_split_1
I0621 13:40:01.565747 22964 net.cpp:399] res_h -> res_h
I0621 13:40:01.566890 22964 net.cpp:141] Setting up res_h
I0621 13:40:01.566920 22964 net.cpp:148] Top shape: 100 128 16 16 (3276800)
I0621 13:40:01.566926 22964 net.cpp:156] Memory required for data: 1639630000
I0621 13:40:01.566933 22964 layer_factory.hpp:77] Creating layer elt_h_1
I0621 13:40:01.566942 22964 net.cpp:91] Creating Layer elt_h_1
I0621 13:40:01.566947 22964 net.cpp:425] elt_h_1 <- res_h
I0621 13:40:01.566961 22964 net.cpp:425] elt_h_1 <- conv_h_1_2
I0621 13:40:01.566970 22964 net.cpp:399] elt_h_1 -> elt_h_1
I0621 13:40:01.567000 22964 net.cpp:141] Setting up elt_h_1
I0621 13:40:01.567011 22964 net.cpp:148] Top shape: 100 128 16 16 (3276800)
I0621 13:40:01.567015 22964 net.cpp:156] Memory required for data: 1652737200
I0621 13:40:01.567020 22964 layer_factory.hpp:77] Creating layer bn_i_1_1
I0621 13:40:01.567031 22964 net.cpp:91] Creating Layer bn_i_1_1
I0621 13:40:01.567039 22964 net.cpp:425] bn_i_1_1 <- elt_c_1_elt_c_1_0_split_2
I0621 13:40:01.567047 22964 net.cpp:399] bn_i_1_1 -> bn_i_1_1
I0621 13:40:01.567251 22964 net.cpp:141] Setting up bn_i_1_1
I0621 13:40:01.567265 22964 net.cpp:148] Top shape: 100 64 32 32 (6553600)
I0621 13:40:01.567270 22964 net.cpp:156] Memory required for data: 1678951600
I0621 13:40:01.567278 22964 layer_factory.hpp:77] Creating layer sc_i_1_1
I0621 13:40:01.567287 22964 net.cpp:91] Creating Layer sc_i_1_1
I0621 13:40:01.567294 22964 net.cpp:425] sc_i_1_1 <- bn_i_1_1
I0621 13:40:01.567301 22964 net.cpp:399] sc_i_1_1 -> sc_i_1_1
I0621 13:40:01.567351 22964 layer_factory.hpp:77] Creating layer sc_i_1_1
I0621 13:40:01.567477 22964 net.cpp:141] Setting up sc_i_1_1
I0621 13:40:01.567502 22964 net.cpp:148] Top shape: 100 64 32 32 (6553600)
I0621 13:40:01.567507 22964 net.cpp:156] Memory required for data: 1705166000
I0621 13:40:01.567515 22964 layer_factory.hpp:77] Creating layer relu_i_1_1
I0621 13:40:01.567525 22964 net.cpp:91] Creating Layer relu_i_1_1
I0621 13:40:01.567533 22964 net.cpp:425] relu_i_1_1 <- sc_i_1_1
I0621 13:40:01.567539 22964 net.cpp:399] relu_i_1_1 -> relu_i_1_1
I0621 13:40:01.567885 22964 net.cpp:141] Setting up relu_i_1_1
I0621 13:40:01.567899 22964 net.cpp:148] Top shape: 100 64 32 32 (6553600)
I0621 13:40:01.567905 22964 net.cpp:156] Memory required for data: 1731380400
I0621 13:40:01.567910 22964 layer_factory.hpp:77] Creating layer conv_i_1_1
I0621 13:40:01.567926 22964 net.cpp:91] Creating Layer conv_i_1_1
I0621 13:40:01.567934 22964 net.cpp:425] conv_i_1_1 <- relu_i_1_1
I0621 13:40:01.567942 22964 net.cpp:399] conv_i_1_1 -> conv_i_1_1
I0621 13:40:01.571517 22964 net.cpp:141] Setting up conv_i_1_1
I0621 13:40:01.571534 22964 net.cpp:148] Top shape: 100 128 16 16 (3276800)
I0621 13:40:01.571544 22964 net.cpp:156] Memory required for data: 1744487600
I0621 13:40:01.571553 22964 layer_factory.hpp:77] Creating layer bn_i_1_2
I0621 13:40:01.571565 22964 net.cpp:91] Creating Layer bn_i_1_2
I0621 13:40:01.571573 22964 net.cpp:425] bn_i_1_2 <- conv_i_1_1
I0621 13:40:01.571583 22964 net.cpp:399] bn_i_1_2 -> bn_i_1_2
I0621 13:40:01.571768 22964 net.cpp:141] Setting up bn_i_1_2
I0621 13:40:01.571779 22964 net.cpp:148] Top shape: 100 128 16 16 (3276800)
I0621 13:40:01.571785 22964 net.cpp:156] Memory required for data: 1757594800
I0621 13:40:01.571795 22964 layer_factory.hpp:77] Creating layer sc_i_1_2
I0621 13:40:01.571805 22964 net.cpp:91] Creating Layer sc_i_1_2
I0621 13:40:01.571811 22964 net.cpp:425] sc_i_1_2 <- bn_i_1_2
I0621 13:40:01.571821 22964 net.cpp:399] sc_i_1_2 -> sc_i_1_2
I0621 13:40:01.571862 22964 layer_factory.hpp:77] Creating layer sc_i_1_2
I0621 13:40:01.571960 22964 net.cpp:141] Setting up sc_i_1_2
I0621 13:40:01.571974 22964 net.cpp:148] Top shape: 100 128 16 16 (3276800)
I0621 13:40:01.571979 22964 net.cpp:156] Memory required for data: 1770702000
I0621 13:40:01.571988 22964 layer_factory.hpp:77] Creating layer relu_i_1_2
I0621 13:40:01.571996 22964 net.cpp:91] Creating Layer relu_i_1_2
I0621 13:40:01.572003 22964 net.cpp:425] relu_i_1_2 <- sc_i_1_2
I0621 13:40:01.572010 22964 net.cpp:399] relu_i_1_2 -> relu_i_1_2
I0621 13:40:01.572211 22964 net.cpp:141] Setting up relu_i_1_2
I0621 13:40:01.572224 22964 net.cpp:148] Top shape: 100 128 16 16 (3276800)
I0621 13:40:01.572230 22964 net.cpp:156] Memory required for data: 1783809200
I0621 13:40:01.572235 22964 layer_factory.hpp:77] Creating layer conv_i_1_2
I0621 13:40:01.572249 22964 net.cpp:91] Creating Layer conv_i_1_2
I0621 13:40:01.572257 22964 net.cpp:425] conv_i_1_2 <- relu_i_1_2
I0621 13:40:01.572268 22964 net.cpp:399] conv_i_1_2 -> conv_i_1_2
I0621 13:40:01.577390 22964 net.cpp:141] Setting up conv_i_1_2
I0621 13:40:01.577406 22964 net.cpp:148] Top shape: 100 128 16 16 (3276800)
I0621 13:40:01.577416 22964 net.cpp:156] Memory required for data: 1796916400
I0621 13:40:01.577425 22964 layer_factory.hpp:77] Creating layer res_i
I0621 13:40:01.577440 22964 net.cpp:91] Creating Layer res_i
I0621 13:40:01.577448 22964 net.cpp:425] res_i <- elt_c_1_elt_c_1_0_split_3
I0621 13:40:01.577460 22964 net.cpp:399] res_i -> res_i
I0621 13:40:01.578765 22964 net.cpp:141] Setting up res_i
I0621 13:40:01.578781 22964 net.cpp:148] Top shape: 100 128 16 16 (3276800)
I0621 13:40:01.578788 22964 net.cpp:156] Memory required for data: 1810023600
I0621 13:40:01.578824 22964 layer_factory.hpp:77] Creating layer elt_i_1
I0621 13:40:01.578836 22964 net.cpp:91] Creating Layer elt_i_1
I0621 13:40:01.578842 22964 net.cpp:425] elt_i_1 <- res_i
I0621 13:40:01.578848 22964 net.cpp:425] elt_i_1 <- conv_i_1_2
I0621 13:40:01.578856 22964 net.cpp:399] elt_i_1 -> elt_i_1
I0621 13:40:01.578881 22964 net.cpp:141] Setting up elt_i_1
I0621 13:40:01.578892 22964 net.cpp:148] Top shape: 100 128 16 16 (3276800)
I0621 13:40:01.578898 22964 net.cpp:156] Memory required for data: 1823130800
I0621 13:40:01.578933 22964 layer_factory.hpp:77] Creating layer elt_d_f
I0621 13:40:01.578955 22964 net.cpp:91] Creating Layer elt_d_f
I0621 13:40:01.578963 22964 net.cpp:425] elt_d_f <- elt_d_1
I0621 13:40:01.578969 22964 net.cpp:425] elt_d_f <- elt_f_1
I0621 13:40:01.578976 22964 net.cpp:399] elt_d_f -> elt_d_f
I0621 13:40:01.579008 22964 net.cpp:141] Setting up elt_d_f
I0621 13:40:01.579020 22964 net.cpp:148] Top shape: 100 128 16 16 (3276800)
I0621 13:40:01.579026 22964 net.cpp:156] Memory required for data: 1836238000
I0621 13:40:01.579031 22964 layer_factory.hpp:77] Creating layer elt_d_f_elt_d_f_0_split
I0621 13:40:01.579038 22964 net.cpp:91] Creating Layer elt_d_f_elt_d_f_0_split
I0621 13:40:01.579044 22964 net.cpp:425] elt_d_f_elt_d_f_0_split <- elt_d_f
I0621 13:40:01.579053 22964 net.cpp:399] elt_d_f_elt_d_f_0_split -> elt_d_f_elt_d_f_0_split_0
I0621 13:40:01.579063 22964 net.cpp:399] elt_d_f_elt_d_f_0_split -> elt_d_f_elt_d_f_0_split_1
I0621 13:40:01.579102 22964 net.cpp:141] Setting up elt_d_f_elt_d_f_0_split
I0621 13:40:01.579113 22964 net.cpp:148] Top shape: 100 128 16 16 (3276800)
I0621 13:40:01.579120 22964 net.cpp:148] Top shape: 100 128 16 16 (3276800)
I0621 13:40:01.579126 22964 net.cpp:156] Memory required for data: 1862452400
I0621 13:40:01.579131 22964 layer_factory.hpp:77] Creating layer elt_g_i
I0621 13:40:01.579141 22964 net.cpp:91] Creating Layer elt_g_i
I0621 13:40:01.579146 22964 net.cpp:425] elt_g_i <- elt_g_1
I0621 13:40:01.579152 22964 net.cpp:425] elt_g_i <- elt_i_1
I0621 13:40:01.579162 22964 net.cpp:399] elt_g_i -> elt_g_i
I0621 13:40:01.579190 22964 net.cpp:141] Setting up elt_g_i
I0621 13:40:01.579200 22964 net.cpp:148] Top shape: 100 128 16 16 (3276800)
I0621 13:40:01.579205 22964 net.cpp:156] Memory required for data: 1875559600
I0621 13:40:01.579210 22964 layer_factory.hpp:77] Creating layer elt_g_i_elt_g_i_0_split
I0621 13:40:01.579219 22964 net.cpp:91] Creating Layer elt_g_i_elt_g_i_0_split
I0621 13:40:01.579226 22964 net.cpp:425] elt_g_i_elt_g_i_0_split <- elt_g_i
I0621 13:40:01.579247 22964 net.cpp:399] elt_g_i_elt_g_i_0_split -> elt_g_i_elt_g_i_0_split_0
I0621 13:40:01.579257 22964 net.cpp:399] elt_g_i_elt_g_i_0_split -> elt_g_i_elt_g_i_0_split_1
I0621 13:40:01.579296 22964 net.cpp:141] Setting up elt_g_i_elt_g_i_0_split
I0621 13:40:01.579308 22964 net.cpp:148] Top shape: 100 128 16 16 (3276800)
I0621 13:40:01.579313 22964 net.cpp:148] Top shape: 100 128 16 16 (3276800)
I0621 13:40:01.579319 22964 net.cpp:156] Memory required for data: 1901774000
I0621 13:40:01.579324 22964 layer_factory.hpp:77] Creating layer bn_j_1_1
I0621 13:40:01.579332 22964 net.cpp:91] Creating Layer bn_j_1_1
I0621 13:40:01.579339 22964 net.cpp:425] bn_j_1_1 <- elt_d_f_elt_d_f_0_split_0
I0621 13:40:01.579346 22964 net.cpp:399] bn_j_1_1 -> bn_j_1_1
I0621 13:40:01.579512 22964 net.cpp:141] Setting up bn_j_1_1
I0621 13:40:01.579524 22964 net.cpp:148] Top shape: 100 128 16 16 (3276800)
I0621 13:40:01.579530 22964 net.cpp:156] Memory required for data: 1914881200
I0621 13:40:01.579540 22964 layer_factory.hpp:77] Creating layer sc_j_1_1
I0621 13:40:01.579548 22964 net.cpp:91] Creating Layer sc_j_1_1
I0621 13:40:01.579562 22964 net.cpp:425] sc_j_1_1 <- bn_j_1_1
I0621 13:40:01.579569 22964 net.cpp:399] sc_j_1_1 -> sc_j_1_1
I0621 13:40:01.579627 22964 layer_factory.hpp:77] Creating layer sc_j_1_1
I0621 13:40:01.579730 22964 net.cpp:141] Setting up sc_j_1_1
I0621 13:40:01.579741 22964 net.cpp:148] Top shape: 100 128 16 16 (3276800)
I0621 13:40:01.579746 22964 net.cpp:156] Memory required for data: 1927988400
I0621 13:40:01.579754 22964 layer_factory.hpp:77] Creating layer relu_j_1_1
I0621 13:40:01.579763 22964 net.cpp:91] Creating Layer relu_j_1_1
I0621 13:40:01.579769 22964 net.cpp:425] relu_j_1_1 <- sc_j_1_1
I0621 13:40:01.579779 22964 net.cpp:399] relu_j_1_1 -> relu_j_1_1
I0621 13:40:01.579980 22964 net.cpp:141] Setting up relu_j_1_1
I0621 13:40:01.579994 22964 net.cpp:148] Top shape: 100 128 16 16 (3276800)
I0621 13:40:01.580000 22964 net.cpp:156] Memory required for data: 1941095600
I0621 13:40:01.580018 22964 layer_factory.hpp:77] Creating layer conv_j_1_1
I0621 13:40:01.580031 22964 net.cpp:91] Creating Layer conv_j_1_1
I0621 13:40:01.580039 22964 net.cpp:425] conv_j_1_1 <- relu_j_1_1
I0621 13:40:01.580052 22964 net.cpp:399] conv_j_1_1 -> conv_j_1_1
I0621 13:40:01.589715 22964 net.cpp:141] Setting up conv_j_1_1
I0621 13:40:01.589732 22964 net.cpp:148] Top shape: 100 256 8 8 (1638400)
I0621 13:40:01.589742 22964 net.cpp:156] Memory required for data: 1947649200
I0621 13:40:01.589751 22964 layer_factory.hpp:77] Creating layer bn_j_1_2
I0621 13:40:01.589769 22964 net.cpp:91] Creating Layer bn_j_1_2
I0621 13:40:01.589776 22964 net.cpp:425] bn_j_1_2 <- conv_j_1_1
I0621 13:40:01.589786 22964 net.cpp:399] bn_j_1_2 -> bn_j_1_2
I0621 13:40:01.589974 22964 net.cpp:141] Setting up bn_j_1_2
I0621 13:40:01.589987 22964 net.cpp:148] Top shape: 100 256 8 8 (1638400)
I0621 13:40:01.589992 22964 net.cpp:156] Memory required for data: 1954202800
I0621 13:40:01.590001 22964 layer_factory.hpp:77] Creating layer sc_j_1_2
I0621 13:40:01.590009 22964 net.cpp:91] Creating Layer sc_j_1_2
I0621 13:40:01.590018 22964 net.cpp:425] sc_j_1_2 <- bn_j_1_2
I0621 13:40:01.590026 22964 net.cpp:399] sc_j_1_2 -> sc_j_1_2
I0621 13:40:01.590073 22964 layer_factory.hpp:77] Creating layer sc_j_1_2
I0621 13:40:01.590181 22964 net.cpp:141] Setting up sc_j_1_2
I0621 13:40:01.590193 22964 net.cpp:148] Top shape: 100 256 8 8 (1638400)
I0621 13:40:01.590198 22964 net.cpp:156] Memory required for data: 1960756400
I0621 13:40:01.590206 22964 layer_factory.hpp:77] Creating layer relu_j_1_2
I0621 13:40:01.590216 22964 net.cpp:91] Creating Layer relu_j_1_2
I0621 13:40:01.590224 22964 net.cpp:425] relu_j_1_2 <- sc_j_1_2
I0621 13:40:01.590230 22964 net.cpp:399] relu_j_1_2 -> relu_j_1_2
I0621 13:40:01.590574 22964 net.cpp:141] Setting up relu_j_1_2
I0621 13:40:01.590587 22964 net.cpp:148] Top shape: 100 256 8 8 (1638400)
I0621 13:40:01.590606 22964 net.cpp:156] Memory required for data: 1967310000
I0621 13:40:01.590612 22964 layer_factory.hpp:77] Creating layer conv_j_1_2
I0621 13:40:01.590627 22964 net.cpp:91] Creating Layer conv_j_1_2
I0621 13:40:01.590633 22964 net.cpp:425] conv_j_1_2 <- relu_j_1_2
I0621 13:40:01.590642 22964 net.cpp:399] conv_j_1_2 -> conv_j_1_2
I0621 13:40:01.608134 22964 net.cpp:141] Setting up conv_j_1_2
I0621 13:40:01.608162 22964 net.cpp:148] Top shape: 100 256 8 8 (1638400)
I0621 13:40:01.608168 22964 net.cpp:156] Memory required for data: 1973863600
I0621 13:40:01.608177 22964 layer_factory.hpp:77] Creating layer res_j
I0621 13:40:01.608191 22964 net.cpp:91] Creating Layer res_j
I0621 13:40:01.608198 22964 net.cpp:425] res_j <- elt_d_f_elt_d_f_0_split_1
I0621 13:40:01.608208 22964 net.cpp:399] res_j -> res_j
I0621 13:40:01.610003 22964 net.cpp:141] Setting up res_j
I0621 13:40:01.610031 22964 net.cpp:148] Top shape: 100 256 8 8 (1638400)
I0621 13:40:01.610038 22964 net.cpp:156] Memory required for data: 1980417200
I0621 13:40:01.610046 22964 layer_factory.hpp:77] Creating layer elt_j_1
I0621 13:40:01.610057 22964 net.cpp:91] Creating Layer elt_j_1
I0621 13:40:01.610064 22964 net.cpp:425] elt_j_1 <- res_j
I0621 13:40:01.610069 22964 net.cpp:425] elt_j_1 <- conv_j_1_2
I0621 13:40:01.610076 22964 net.cpp:399] elt_j_1 -> elt_j_1
I0621 13:40:01.610110 22964 net.cpp:141] Setting up elt_j_1
I0621 13:40:01.610121 22964 net.cpp:148] Top shape: 100 256 8 8 (1638400)
I0621 13:40:01.610126 22964 net.cpp:156] Memory required for data: 1986970800
I0621 13:40:01.610131 22964 layer_factory.hpp:77] Creating layer bn_e_1_1
I0621 13:40:01.610141 22964 net.cpp:91] Creating Layer bn_e_1_1
I0621 13:40:01.610147 22964 net.cpp:425] bn_e_1_1 <- elt_a_1_elt_a_1_0_split_2
I0621 13:40:01.610155 22964 net.cpp:399] bn_e_1_1 -> bn_e_1_1
I0621 13:40:01.610358 22964 net.cpp:141] Setting up bn_e_1_1
I0621 13:40:01.610371 22964 net.cpp:148] Top shape: 100 64 32 32 (6553600)
I0621 13:40:01.610376 22964 net.cpp:156] Memory required for data: 2013185200
I0621 13:40:01.610386 22964 layer_factory.hpp:77] Creating layer sc_e_1_1
I0621 13:40:01.610395 22964 net.cpp:91] Creating Layer sc_e_1_1
I0621 13:40:01.610430 22964 net.cpp:425] sc_e_1_1 <- bn_e_1_1
I0621 13:40:01.610443 22964 net.cpp:399] sc_e_1_1 -> sc_e_1_1
I0621 13:40:01.610498 22964 layer_factory.hpp:77] Creating layer sc_e_1_1
I0621 13:40:01.610636 22964 net.cpp:141] Setting up sc_e_1_1
I0621 13:40:01.610649 22964 net.cpp:148] Top shape: 100 64 32 32 (6553600)
I0621 13:40:01.610656 22964 net.cpp:156] Memory required for data: 2039399600
I0621 13:40:01.610664 22964 layer_factory.hpp:77] Creating layer relu_e_1_1
I0621 13:40:01.610672 22964 net.cpp:91] Creating Layer relu_e_1_1
I0621 13:40:01.610679 22964 net.cpp:425] relu_e_1_1 <- sc_e_1_1
I0621 13:40:01.610692 22964 net.cpp:399] relu_e_1_1 -> relu_e_1_1
I0621 13:40:01.611042 22964 net.cpp:141] Setting up relu_e_1_1
I0621 13:40:01.611063 22964 net.cpp:148] Top shape: 100 64 32 32 (6553600)
I0621 13:40:01.611068 22964 net.cpp:156] Memory required for data: 2065614000
I0621 13:40:01.611073 22964 layer_factory.hpp:77] Creating layer conv_e_1_1
I0621 13:40:01.611086 22964 net.cpp:91] Creating Layer conv_e_1_1
I0621 13:40:01.611093 22964 net.cpp:425] conv_e_1_1 <- relu_e_1_1
I0621 13:40:01.611104 22964 net.cpp:399] conv_e_1_1 -> conv_e_1_1
I0621 13:40:01.614647 22964 net.cpp:141] Setting up conv_e_1_1
I0621 13:40:01.614663 22964 net.cpp:148] Top shape: 100 128 16 16 (3276800)
I0621 13:40:01.614693 22964 net.cpp:156] Memory required for data: 2078721200
I0621 13:40:01.614704 22964 layer_factory.hpp:77] Creating layer bn_e_1_2
I0621 13:40:01.614717 22964 net.cpp:91] Creating Layer bn_e_1_2
I0621 13:40:01.614724 22964 net.cpp:425] bn_e_1_2 <- conv_e_1_1
I0621 13:40:01.614732 22964 net.cpp:399] bn_e_1_2 -> bn_e_1_2
I0621 13:40:01.614926 22964 net.cpp:141] Setting up bn_e_1_2
I0621 13:40:01.614938 22964 net.cpp:148] Top shape: 100 128 16 16 (3276800)
I0621 13:40:01.614943 22964 net.cpp:156] Memory required for data: 2091828400
I0621 13:40:01.614953 22964 layer_factory.hpp:77] Creating layer sc_e_1_2
I0621 13:40:01.614964 22964 net.cpp:91] Creating Layer sc_e_1_2
I0621 13:40:01.614970 22964 net.cpp:425] sc_e_1_2 <- bn_e_1_2
I0621 13:40:01.614977 22964 net.cpp:399] sc_e_1_2 -> sc_e_1_2
I0621 13:40:01.615023 22964 layer_factory.hpp:77] Creating layer sc_e_1_2
I0621 13:40:01.615134 22964 net.cpp:141] Setting up sc_e_1_2
I0621 13:40:01.615146 22964 net.cpp:148] Top shape: 100 128 16 16 (3276800)
I0621 13:40:01.615152 22964 net.cpp:156] Memory required for data: 2104935600
I0621 13:40:01.615160 22964 layer_factory.hpp:77] Creating layer relu_e_1_2
I0621 13:40:01.615170 22964 net.cpp:91] Creating Layer relu_e_1_2
I0621 13:40:01.615175 22964 net.cpp:425] relu_e_1_2 <- sc_e_1_2
I0621 13:40:01.615181 22964 net.cpp:399] relu_e_1_2 -> relu_e_1_2
I0621 13:40:01.615383 22964 net.cpp:141] Setting up relu_e_1_2
I0621 13:40:01.615397 22964 net.cpp:148] Top shape: 100 128 16 16 (3276800)
I0621 13:40:01.615402 22964 net.cpp:156] Memory required for data: 2118042800
I0621 13:40:01.615407 22964 layer_factory.hpp:77] Creating layer conv_e_1_2
I0621 13:40:01.615422 22964 net.cpp:91] Creating Layer conv_e_1_2
I0621 13:40:01.615432 22964 net.cpp:425] conv_e_1_2 <- relu_e_1_2
I0621 13:40:01.615439 22964 net.cpp:399] conv_e_1_2 -> conv_e_1_2
I0621 13:40:01.620478 22964 net.cpp:141] Setting up conv_e_1_2
I0621 13:40:01.620507 22964 net.cpp:148] Top shape: 100 128 16 16 (3276800)
I0621 13:40:01.620513 22964 net.cpp:156] Memory required for data: 2131150000
I0621 13:40:01.620522 22964 layer_factory.hpp:77] Creating layer res_e
I0621 13:40:01.620538 22964 net.cpp:91] Creating Layer res_e
I0621 13:40:01.620544 22964 net.cpp:425] res_e <- elt_a_1_elt_a_1_0_split_3
I0621 13:40:01.620565 22964 net.cpp:399] res_e -> res_e
I0621 13:40:01.621866 22964 net.cpp:141] Setting up res_e
I0621 13:40:01.621881 22964 net.cpp:148] Top shape: 100 128 16 16 (3276800)
I0621 13:40:01.621901 22964 net.cpp:156] Memory required for data: 2144257200
I0621 13:40:01.621909 22964 layer_factory.hpp:77] Creating layer elt_e_1
I0621 13:40:01.621917 22964 net.cpp:91] Creating Layer elt_e_1
I0621 13:40:01.621923 22964 net.cpp:425] elt_e_1 <- res_e
I0621 13:40:01.621960 22964 net.cpp:425] elt_e_1 <- conv_e_1_2
I0621 13:40:01.621976 22964 net.cpp:399] elt_e_1 -> elt_e_1
I0621 13:40:01.622016 22964 net.cpp:141] Setting up elt_e_1
I0621 13:40:01.622030 22964 net.cpp:148] Top shape: 100 128 16 16 (3276800)
I0621 13:40:01.622035 22964 net.cpp:156] Memory required for data: 2157364400
I0621 13:40:01.622040 22964 layer_factory.hpp:77] Creating layer elt_e_h
I0621 13:40:01.622050 22964 net.cpp:91] Creating Layer elt_e_h
I0621 13:40:01.622057 22964 net.cpp:425] elt_e_h <- elt_e_1
I0621 13:40:01.622064 22964 net.cpp:425] elt_e_h <- elt_h_1
I0621 13:40:01.622071 22964 net.cpp:399] elt_e_h -> elt_e_h
I0621 13:40:01.622104 22964 net.cpp:141] Setting up elt_e_h
I0621 13:40:01.622115 22964 net.cpp:148] Top shape: 100 128 16 16 (3276800)
I0621 13:40:01.622122 22964 net.cpp:156] Memory required for data: 2170471600
I0621 13:40:01.622126 22964 layer_factory.hpp:77] Creating layer elt_e_h_elt_e_h_0_split
I0621 13:40:01.622133 22964 net.cpp:91] Creating Layer elt_e_h_elt_e_h_0_split
I0621 13:40:01.622138 22964 net.cpp:425] elt_e_h_elt_e_h_0_split <- elt_e_h
I0621 13:40:01.622145 22964 net.cpp:399] elt_e_h_elt_e_h_0_split -> elt_e_h_elt_e_h_0_split_0
I0621 13:40:01.622156 22964 net.cpp:399] elt_e_h_elt_e_h_0_split -> elt_e_h_elt_e_h_0_split_1
I0621 13:40:01.622195 22964 net.cpp:141] Setting up elt_e_h_elt_e_h_0_split
I0621 13:40:01.622206 22964 net.cpp:148] Top shape: 100 128 16 16 (3276800)
I0621 13:40:01.622213 22964 net.cpp:148] Top shape: 100 128 16 16 (3276800)
I0621 13:40:01.622218 22964 net.cpp:156] Memory required for data: 2196686000
I0621 13:40:01.622223 22964 layer_factory.hpp:77] Creating layer bn_k_1_1
I0621 13:40:01.622234 22964 net.cpp:91] Creating Layer bn_k_1_1
I0621 13:40:01.622241 22964 net.cpp:425] bn_k_1_1 <- elt_e_h_elt_e_h_0_split_0
I0621 13:40:01.622251 22964 net.cpp:399] bn_k_1_1 -> bn_k_1_1
I0621 13:40:01.622437 22964 net.cpp:141] Setting up bn_k_1_1
I0621 13:40:01.622449 22964 net.cpp:148] Top shape: 100 128 16 16 (3276800)
I0621 13:40:01.622454 22964 net.cpp:156] Memory required for data: 2209793200
I0621 13:40:01.622469 22964 layer_factory.hpp:77] Creating layer sc_k_1_1
I0621 13:40:01.622480 22964 net.cpp:91] Creating Layer sc_k_1_1
I0621 13:40:01.622488 22964 net.cpp:425] sc_k_1_1 <- bn_k_1_1
I0621 13:40:01.622494 22964 net.cpp:399] sc_k_1_1 -> sc_k_1_1
I0621 13:40:01.622541 22964 layer_factory.hpp:77] Creating layer sc_k_1_1
I0621 13:40:01.622647 22964 net.cpp:141] Setting up sc_k_1_1
I0621 13:40:01.622658 22964 net.cpp:148] Top shape: 100 128 16 16 (3276800)
I0621 13:40:01.622663 22964 net.cpp:156] Memory required for data: 2222900400
I0621 13:40:01.622671 22964 layer_factory.hpp:77] Creating layer relu_k_1_1
I0621 13:40:01.622687 22964 net.cpp:91] Creating Layer relu_k_1_1
I0621 13:40:01.622695 22964 net.cpp:425] relu_k_1_1 <- sc_k_1_1
I0621 13:40:01.622702 22964 net.cpp:399] relu_k_1_1 -> relu_k_1_1
I0621 13:40:01.622922 22964 net.cpp:141] Setting up relu_k_1_1
I0621 13:40:01.622936 22964 net.cpp:148] Top shape: 100 128 16 16 (3276800)
I0621 13:40:01.622941 22964 net.cpp:156] Memory required for data: 2236007600
I0621 13:40:01.622947 22964 layer_factory.hpp:77] Creating layer conv_k_1_1
I0621 13:40:01.622962 22964 net.cpp:91] Creating Layer conv_k_1_1
I0621 13:40:01.622970 22964 net.cpp:425] conv_k_1_1 <- relu_k_1_1
I0621 13:40:01.622978 22964 net.cpp:399] conv_k_1_1 -> conv_k_1_1
I0621 13:40:01.632405 22964 net.cpp:141] Setting up conv_k_1_1
I0621 13:40:01.632432 22964 net.cpp:148] Top shape: 100 256 8 8 (1638400)
I0621 13:40:01.632439 22964 net.cpp:156] Memory required for data: 2242561200
I0621 13:40:01.632448 22964 layer_factory.hpp:77] Creating layer bn_k_1_2
I0621 13:40:01.632459 22964 net.cpp:91] Creating Layer bn_k_1_2
I0621 13:40:01.632467 22964 net.cpp:425] bn_k_1_2 <- conv_k_1_1
I0621 13:40:01.632474 22964 net.cpp:399] bn_k_1_2 -> bn_k_1_2
I0621 13:40:01.632674 22964 net.cpp:141] Setting up bn_k_1_2
I0621 13:40:01.632688 22964 net.cpp:148] Top shape: 100 256 8 8 (1638400)
I0621 13:40:01.632693 22964 net.cpp:156] Memory required for data: 2249114800
I0621 13:40:01.632738 22964 layer_factory.hpp:77] Creating layer sc_k_1_2
I0621 13:40:01.632748 22964 net.cpp:91] Creating Layer sc_k_1_2
I0621 13:40:01.632755 22964 net.cpp:425] sc_k_1_2 <- bn_k_1_2
I0621 13:40:01.632762 22964 net.cpp:399] sc_k_1_2 -> sc_k_1_2
I0621 13:40:01.632815 22964 layer_factory.hpp:77] Creating layer sc_k_1_2
I0621 13:40:01.632928 22964 net.cpp:141] Setting up sc_k_1_2
I0621 13:40:01.632941 22964 net.cpp:148] Top shape: 100 256 8 8 (1638400)
I0621 13:40:01.632946 22964 net.cpp:156] Memory required for data: 2255668400
I0621 13:40:01.632954 22964 layer_factory.hpp:77] Creating layer relu_k_1_2
I0621 13:40:01.632968 22964 net.cpp:91] Creating Layer relu_k_1_2
I0621 13:40:01.632977 22964 net.cpp:425] relu_k_1_2 <- sc_k_1_2
I0621 13:40:01.632984 22964 net.cpp:399] relu_k_1_2 -> relu_k_1_2
I0621 13:40:01.633344 22964 net.cpp:141] Setting up relu_k_1_2
I0621 13:40:01.633373 22964 net.cpp:148] Top shape: 100 256 8 8 (1638400)
I0621 13:40:01.633378 22964 net.cpp:156] Memory required for data: 2262222000
I0621 13:40:01.633383 22964 layer_factory.hpp:77] Creating layer conv_k_1_2
I0621 13:40:01.633397 22964 net.cpp:91] Creating Layer conv_k_1_2
I0621 13:40:01.633404 22964 net.cpp:425] conv_k_1_2 <- relu_k_1_2
I0621 13:40:01.633414 22964 net.cpp:399] conv_k_1_2 -> conv_k_1_2
I0621 13:40:01.651041 22964 net.cpp:141] Setting up conv_k_1_2
I0621 13:40:01.651072 22964 net.cpp:148] Top shape: 100 256 8 8 (1638400)
I0621 13:40:01.651078 22964 net.cpp:156] Memory required for data: 2268775600
I0621 13:40:01.651087 22964 layer_factory.hpp:77] Creating layer res_k
I0621 13:40:01.651110 22964 net.cpp:91] Creating Layer res_k
I0621 13:40:01.651118 22964 net.cpp:425] res_k <- elt_e_h_elt_e_h_0_split_1
I0621 13:40:01.651126 22964 net.cpp:399] res_k -> res_k
I0621 13:40:01.652948 22964 net.cpp:141] Setting up res_k
I0621 13:40:01.652981 22964 net.cpp:148] Top shape: 100 256 8 8 (1638400)
I0621 13:40:01.652987 22964 net.cpp:156] Memory required for data: 2275329200
I0621 13:40:01.652995 22964 layer_factory.hpp:77] Creating layer elt_k_1
I0621 13:40:01.653004 22964 net.cpp:91] Creating Layer elt_k_1
I0621 13:40:01.653010 22964 net.cpp:425] elt_k_1 <- res_k
I0621 13:40:01.653017 22964 net.cpp:425] elt_k_1 <- conv_k_1_2
I0621 13:40:01.653024 22964 net.cpp:399] elt_k_1 -> elt_k_1
I0621 13:40:01.653058 22964 net.cpp:141] Setting up elt_k_1
I0621 13:40:01.653069 22964 net.cpp:148] Top shape: 100 256 8 8 (1638400)
I0621 13:40:01.653074 22964 net.cpp:156] Memory required for data: 2281882800
I0621 13:40:01.653079 22964 layer_factory.hpp:77] Creating layer bn_l_1_1
I0621 13:40:01.653090 22964 net.cpp:91] Creating Layer bn_l_1_1
I0621 13:40:01.653096 22964 net.cpp:425] bn_l_1_1 <- elt_g_i_elt_g_i_0_split_0
I0621 13:40:01.653105 22964 net.cpp:399] bn_l_1_1 -> bn_l_1_1
I0621 13:40:01.653302 22964 net.cpp:141] Setting up bn_l_1_1
I0621 13:40:01.653314 22964 net.cpp:148] Top shape: 100 128 16 16 (3276800)
I0621 13:40:01.653319 22964 net.cpp:156] Memory required for data: 2294990000
I0621 13:40:01.653329 22964 layer_factory.hpp:77] Creating layer sc_l_1_1
I0621 13:40:01.653339 22964 net.cpp:91] Creating Layer sc_l_1_1
I0621 13:40:01.653348 22964 net.cpp:425] sc_l_1_1 <- bn_l_1_1
I0621 13:40:01.653357 22964 net.cpp:399] sc_l_1_1 -> sc_l_1_1
I0621 13:40:01.653405 22964 layer_factory.hpp:77] Creating layer sc_l_1_1
I0621 13:40:01.653514 22964 net.cpp:141] Setting up sc_l_1_1
I0621 13:40:01.653527 22964 net.cpp:148] Top shape: 100 128 16 16 (3276800)
I0621 13:40:01.653532 22964 net.cpp:156] Memory required for data: 2308097200
I0621 13:40:01.653539 22964 layer_factory.hpp:77] Creating layer relu_l_1_1
I0621 13:40:01.653549 22964 net.cpp:91] Creating Layer relu_l_1_1
I0621 13:40:01.653556 22964 net.cpp:425] relu_l_1_1 <- sc_l_1_1
I0621 13:40:01.653563 22964 net.cpp:399] relu_l_1_1 -> relu_l_1_1
I0621 13:40:01.653911 22964 net.cpp:141] Setting up relu_l_1_1
I0621 13:40:01.653926 22964 net.cpp:148] Top shape: 100 128 16 16 (3276800)
I0621 13:40:01.653933 22964 net.cpp:156] Memory required for data: 2321204400
I0621 13:40:01.653952 22964 layer_factory.hpp:77] Creating layer conv_l_1_1
I0621 13:40:01.653982 22964 net.cpp:91] Creating Layer conv_l_1_1
I0621 13:40:01.653990 22964 net.cpp:425] conv_l_1_1 <- relu_l_1_1
I0621 13:40:01.654001 22964 net.cpp:399] conv_l_1_1 -> conv_l_1_1
I0621 13:40:01.663743 22964 net.cpp:141] Setting up conv_l_1_1
I0621 13:40:01.663760 22964 net.cpp:148] Top shape: 100 256 8 8 (1638400)
I0621 13:40:01.663766 22964 net.cpp:156] Memory required for data: 2327758000
I0621 13:40:01.663780 22964 layer_factory.hpp:77] Creating layer bn_l_1_2
I0621 13:40:01.663792 22964 net.cpp:91] Creating Layer bn_l_1_2
I0621 13:40:01.663802 22964 net.cpp:425] bn_l_1_2 <- conv_l_1_1
I0621 13:40:01.663812 22964 net.cpp:399] bn_l_1_2 -> bn_l_1_2
I0621 13:40:01.664038 22964 net.cpp:141] Setting up bn_l_1_2
I0621 13:40:01.664052 22964 net.cpp:148] Top shape: 100 256 8 8 (1638400)
I0621 13:40:01.664057 22964 net.cpp:156] Memory required for data: 2334311600
I0621 13:40:01.664067 22964 layer_factory.hpp:77] Creating layer sc_l_1_2
I0621 13:40:01.664091 22964 net.cpp:91] Creating Layer sc_l_1_2
I0621 13:40:01.664099 22964 net.cpp:425] sc_l_1_2 <- bn_l_1_2
I0621 13:40:01.664109 22964 net.cpp:399] sc_l_1_2 -> sc_l_1_2
I0621 13:40:01.664161 22964 layer_factory.hpp:77] Creating layer sc_l_1_2
I0621 13:40:01.664280 22964 net.cpp:141] Setting up sc_l_1_2
I0621 13:40:01.664294 22964 net.cpp:148] Top shape: 100 256 8 8 (1638400)
I0621 13:40:01.664300 22964 net.cpp:156] Memory required for data: 2340865200
I0621 13:40:01.664309 22964 layer_factory.hpp:77] Creating layer relu_l_1_2
I0621 13:40:01.664316 22964 net.cpp:91] Creating Layer relu_l_1_2
I0621 13:40:01.664322 22964 net.cpp:425] relu_l_1_2 <- sc_l_1_2
I0621 13:40:01.664330 22964 net.cpp:399] relu_l_1_2 -> relu_l_1_2
I0621 13:40:01.664553 22964 net.cpp:141] Setting up relu_l_1_2
I0621 13:40:01.664567 22964 net.cpp:148] Top shape: 100 256 8 8 (1638400)
I0621 13:40:01.664572 22964 net.cpp:156] Memory required for data: 2347418800
I0621 13:40:01.664577 22964 layer_factory.hpp:77] Creating layer conv_l_1_2
I0621 13:40:01.664592 22964 net.cpp:91] Creating Layer conv_l_1_2
I0621 13:40:01.664599 22964 net.cpp:425] conv_l_1_2 <- relu_l_1_2
I0621 13:40:01.664613 22964 net.cpp:399] conv_l_1_2 -> conv_l_1_2
I0621 13:40:01.682569 22964 net.cpp:141] Setting up conv_l_1_2
I0621 13:40:01.682600 22964 net.cpp:148] Top shape: 100 256 8 8 (1638400)
I0621 13:40:01.682606 22964 net.cpp:156] Memory required for data: 2353972400
I0621 13:40:01.682615 22964 layer_factory.hpp:77] Creating layer res_l
I0621 13:40:01.682629 22964 net.cpp:91] Creating Layer res_l
I0621 13:40:01.682636 22964 net.cpp:425] res_l <- elt_g_i_elt_g_i_0_split_1
I0621 13:40:01.682644 22964 net.cpp:399] res_l -> res_l
I0621 13:40:01.684612 22964 net.cpp:141] Setting up res_l
I0621 13:40:01.684644 22964 net.cpp:148] Top shape: 100 256 8 8 (1638400)
I0621 13:40:01.684650 22964 net.cpp:156] Memory required for data: 2360526000
I0621 13:40:01.684659 22964 layer_factory.hpp:77] Creating layer elt_l_1
I0621 13:40:01.684669 22964 net.cpp:91] Creating Layer elt_l_1
I0621 13:40:01.684674 22964 net.cpp:425] elt_l_1 <- res_l
I0621 13:40:01.684684 22964 net.cpp:425] elt_l_1 <- conv_l_1_2
I0621 13:40:01.684690 22964 net.cpp:399] elt_l_1 -> elt_l_1
I0621 13:40:01.684723 22964 net.cpp:141] Setting up elt_l_1
I0621 13:40:01.684736 22964 net.cpp:148] Top shape: 100 256 8 8 (1638400)
I0621 13:40:01.684739 22964 net.cpp:156] Memory required for data: 2367079600
I0621 13:40:01.684746 22964 layer_factory.hpp:77] Creating layer elt_j_k_l
I0621 13:40:01.684757 22964 net.cpp:91] Creating Layer elt_j_k_l
I0621 13:40:01.684764 22964 net.cpp:425] elt_j_k_l <- elt_j_1
I0621 13:40:01.684770 22964 net.cpp:425] elt_j_k_l <- elt_k_1
I0621 13:40:01.684777 22964 net.cpp:425] elt_j_k_l <- elt_l_1
I0621 13:40:01.684782 22964 net.cpp:399] elt_j_k_l -> elt_j_k_l
I0621 13:40:01.684816 22964 net.cpp:141] Setting up elt_j_k_l
I0621 13:40:01.684828 22964 net.cpp:148] Top shape: 100 256 8 8 (1638400)
I0621 13:40:01.684833 22964 net.cpp:156] Memory required for data: 2373633200
I0621 13:40:01.684865 22964 layer_factory.hpp:77] Creating layer bn_m_1_1
I0621 13:40:01.684878 22964 net.cpp:91] Creating Layer bn_m_1_1
I0621 13:40:01.684885 22964 net.cpp:425] bn_m_1_1 <- elt_j_k_l
I0621 13:40:01.684892 22964 net.cpp:399] bn_m_1_1 -> bn_m_1_1
I0621 13:40:01.685099 22964 net.cpp:141] Setting up bn_m_1_1
I0621 13:40:01.685111 22964 net.cpp:148] Top shape: 100 256 8 8 (1638400)
I0621 13:40:01.685117 22964 net.cpp:156] Memory required for data: 2380186800
I0621 13:40:01.685127 22964 layer_factory.hpp:77] Creating layer sc_m_1_1
I0621 13:40:01.685137 22964 net.cpp:91] Creating Layer sc_m_1_1
I0621 13:40:01.685143 22964 net.cpp:425] sc_m_1_1 <- bn_m_1_1
I0621 13:40:01.685150 22964 net.cpp:399] sc_m_1_1 -> sc_m_1_1
I0621 13:40:01.685217 22964 layer_factory.hpp:77] Creating layer sc_m_1_1
I0621 13:40:01.685338 22964 net.cpp:141] Setting up sc_m_1_1
I0621 13:40:01.685353 22964 net.cpp:148] Top shape: 100 256 8 8 (1638400)
I0621 13:40:01.685359 22964 net.cpp:156] Memory required for data: 2386740400
I0621 13:40:01.685367 22964 layer_factory.hpp:77] Creating layer relu_m_1_1
I0621 13:40:01.685376 22964 net.cpp:91] Creating Layer relu_m_1_1
I0621 13:40:01.685382 22964 net.cpp:425] relu_m_1_1 <- sc_m_1_1
I0621 13:40:01.685389 22964 net.cpp:399] relu_m_1_1 -> relu_m_1_1
I0621 13:40:01.685603 22964 net.cpp:141] Setting up relu_m_1_1
I0621 13:40:01.685617 22964 net.cpp:148] Top shape: 100 256 8 8 (1638400)
I0621 13:40:01.685622 22964 net.cpp:156] Memory required for data: 2393294000
I0621 13:40:01.685627 22964 layer_factory.hpp:77] Creating layer gap
I0621 13:40:01.685636 22964 net.cpp:91] Creating Layer gap
I0621 13:40:01.685642 22964 net.cpp:425] gap <- relu_m_1_1
I0621 13:40:01.685652 22964 net.cpp:399] gap -> gap
I0621 13:40:01.686007 22964 net.cpp:141] Setting up gap
I0621 13:40:01.686022 22964 net.cpp:148] Top shape: 100 256 1 1 (25600)
I0621 13:40:01.686028 22964 net.cpp:156] Memory required for data: 2393396400
I0621 13:40:01.686033 22964 layer_factory.hpp:77] Creating layer ip1
I0621 13:40:01.686044 22964 net.cpp:91] Creating Layer ip1
I0621 13:40:01.686051 22964 net.cpp:425] ip1 <- gap
I0621 13:40:01.686059 22964 net.cpp:399] ip1 -> ip1
I0621 13:40:01.686267 22964 net.cpp:141] Setting up ip1
I0621 13:40:01.686280 22964 net.cpp:148] Top shape: 100 10 (1000)
I0621 13:40:01.686285 22964 net.cpp:156] Memory required for data: 2393400400
I0621 13:40:01.686293 22964 layer_factory.hpp:77] Creating layer ip1_ip1_0_split
I0621 13:40:01.686300 22964 net.cpp:91] Creating Layer ip1_ip1_0_split
I0621 13:40:01.686307 22964 net.cpp:425] ip1_ip1_0_split <- ip1
I0621 13:40:01.686316 22964 net.cpp:399] ip1_ip1_0_split -> ip1_ip1_0_split_0
I0621 13:40:01.686326 22964 net.cpp:399] ip1_ip1_0_split -> ip1_ip1_0_split_1
I0621 13:40:01.686369 22964 net.cpp:141] Setting up ip1_ip1_0_split
I0621 13:40:01.686380 22964 net.cpp:148] Top shape: 100 10 (1000)
I0621 13:40:01.686386 22964 net.cpp:148] Top shape: 100 10 (1000)
I0621 13:40:01.686391 22964 net.cpp:156] Memory required for data: 2393408400
I0621 13:40:01.686396 22964 layer_factory.hpp:77] Creating layer accuracy
I0621 13:40:01.686408 22964 net.cpp:91] Creating Layer accuracy
I0621 13:40:01.686414 22964 net.cpp:425] accuracy <- ip1_ip1_0_split_0
I0621 13:40:01.686420 22964 net.cpp:425] accuracy <- label_resnet_1_split_0
I0621 13:40:01.686430 22964 net.cpp:399] accuracy -> accuracy
…
