…
I0618 17:42:58.086565 20043 net.cpp:313] The NetState phase (0) differed from the phase (1) specified by a rule in layer accuracy
I0618 17:42:58.087220 20043 net.cpp:49] Initializing net from parameters: 
name: "ResNet"
state {
  phase: TRAIN
}
layer {
  name: "resnet"
  type: "Data"
  top: "data"
  top: "label"
  include {
    phase: TRAIN
  }
  transform_param {
    mean_file: "/home/takeki/caffe/examples/cifar10/mean.binaryproto"
  }
  data_param {
    source: "/home/takeki/caffe/examples/cifar10/cifar10_train_lmdb"
    batch_size: 128
    backend: LMDB
  }
}
layer {
  name: "conv0"
  type: "Convolution"
  bottom: "data"
  top: "conv0"
  param {
    lr_mult: 1
  }
  param {
    lr_mult: 2
  }
  convolution_param {
    num_output: 16
    pad: 1
    kernel_size: 3
    stride: 1
    weight_filler {
      type: "msra"
    }
    bias_filler {
      type: "constant"
    }
  }
}
layer {
  name: "bn_a_1_1"
  type: "BatchNorm"
  bottom: "conv0"
  top: "bn_a_1_1"
  param {
    lr_mult: 0
  }
  param {
    lr_mult: 0
  }
  param {
    lr_mult: 0
  }
  batch_norm_param {
    use_global_stats: false
  }
}
layer {
  name: "sc_a_1_1"
  type: "Scale"
  bottom: "bn_a_1_1"
  top: "sc_a_1_1"
  scale_param {
    bias_term: true
  }
}
layer {
  name: "relu_a_1_1"
  type: "ReLU"
  bottom: "sc_a_1_1"
  top: "relu_a_1_1"
}
layer {
  name: "conv_a_1_1"
  type: "Convolution"
  bottom: "relu_a_1_1"
  top: "conv_a_1_1"
  param {
    lr_mult: 1
    decay_mult: 1
  }
  param {
    lr_mult: 2
    decay_mult: 1
  }
  convolution_param {
    num_output: 64
    pad: 1
    kernel_size: 3
    stride: 1
    weight_filler {
      type: "msra"
    }
    bias_filler {
      type: "constant"
    }
  }
}
layer {
  name: "bn_a_1_2"
  type: "BatchNorm"
  bottom: "conv_a_1_1"
  top: "bn_a_1_2"
  param {
    lr_mult: 0
  }
  param {
    lr_mult: 0
  }
  param {
    lr_mult: 0
  }
  batch_norm_param {
    use_global_stats: false
  }
}
layer {
  name: "sc_a_1_2"
  type: "Scale"
  bottom: "bn_a_1_2"
  top: "sc_a_1_2"
  scale_param {
    bias_term: true
  }
}
layer {
  name: "relu_a_1_2"
  type: "ReLU"
  bottom: "sc_a_1_2"
  top: "relu_a_1_2"
}
layer {
  name: "conv_a_1_2"
  type: "Convolution"
  bottom: "relu_a_1_2"
  top: "conv_a_1_2"
  param {
    lr_mult: 1
    decay_mult: 1
  }
  param {
    lr_mult: 2
    decay_mult: 1
  }
  convolution_param {
    num_output: 64
    pad: 1
    kernel_size: 3
    stride: 1
    weight_filler {
      type: "msra"
    }
    bias_filler {
      type: "constant"
    }
  }
}
layer {
  name: "res_a"
  type: "Convolution"
  bottom: "conv0"
  top: "res_a"
  param {
    lr_mult: 1
    decay_mult: 1
  }
  param {
    lr_mult: 2
    decay_mult: 1
  }
  convolution_param {
    num_output: 64
    pad: 0
    kernel_size: 1
    stride: 1
    weight_filler {
      type: "msra"
    }
    bias_filler {
      type: "constant"
    }
  }
}
layer {
  name: "elt_a_1"
  type: "Eltwise"
  bottom: "res_a"
  bottom: "conv_a_1_2"
  top: "elt_a_1"
  eltwise_param {
    operation: SUM
  }
}
layer {
  name: "bn_b_1_1"
  type: "BatchNorm"
  bottom: "conv0"
  top: "bn_b_1_1"
  param {
    lr_mult: 0
  }
  param {
    lr_mult: 0
  }
  param {
    lr_mult: 0
  }
  batch_norm_param {
    use_global_stats: false
  }
}
layer {
  name: "sc_b_1_1"
  type: "Scale"
  bottom: "bn_b_1_1"
  top: "sc_b_1_1"
  scale_param {
    bias_term: true
  }
}
layer {
  name: "relu_b_1_1"
  type: "ReLU"
  bottom: "sc_b_1_1"
  top: "relu_b_1_1"
}
layer {
  name: "conv_b_1_1"
  type: "Convolution"
  bottom: "relu_b_1_1"
  top: "conv_b_1_1"
  param {
    lr_mult: 1
    decay_mult: 1
  }
  param {
    lr_mult: 2
    decay_mult: 1
  }
  convolution_param {
    num_output: 64
    pad: 1
    kernel_size: 3
    stride: 1
    weight_filler {
      type: "msra"
    }
    bias_filler {
      type: "constant"
    }
  }
}
layer {
  name: "bn_b_1_2"
  type: "BatchNorm"
  bottom: "conv_b_1_1"
  top: "bn_b_1_2"
  param {
    lr_mult: 0
  }
  param {
    lr_mult: 0
  }
  param {
    lr_mult: 0
  }
  batch_norm_param {
    use_global_stats: false
  }
}
layer {
  name: "sc_b_1_2"
  type: "Scale"
  bottom: "bn_b_1_2"
  top: "sc_b_1_2"
  scale_param {
    bias_term: true
  }
}
layer {
  name: "relu_b_1_2"
  type: "ReLU"
  bottom: "sc_b_1_2"
  top: "relu_b_1_2"
}
layer {
  name: "conv_b_1_2"
  type: "Convolution"
  bottom: "relu_b_1_2"
  top: "conv_b_1_2"
  param {
    lr_mult: 1
    decay_mult: 1
  }
  param {
    lr_mult: 2
    decay_mult: 1
  }
  convolution_param {
    num_output: 64
    pad: 1
    kernel_size: 3
    stride: 1
    weight_filler {
      type: "msra"
    }
    bias_filler {
      type: "constant"
    }
  }
}
layer {
  name: "res_b"
  type: "Convolution"
  bottom: "conv0"
  top: "res_b"
  param {
    lr_mult: 1
    decay_mult: 1
  }
  param {
    lr_mult: 2
    decay_mult: 1
  }
  convolution_param {
    num_output: 64
    pad: 0
    kernel_size: 1
    stride: 1
    weight_filler {
      type: "msra"
    }
    bias_filler {
      type: "constant"
    }
  }
}
layer {
  name: "elt_b_1"
  type: "Eltwise"
  bottom: "res_b"
  bottom: "conv_b_1_2"
  top: "elt_b_1"
  eltwise_param {
    operation: SUM
  }
}
layer {
  name: "bn_c_1_1"
  type: "BatchNorm"
  bottom: "conv0"
  top: "bn_c_1_1"
  param {
    lr_mult: 0
  }
  param {
    lr_mult: 0
  }
  param {
    lr_mult: 0
  }
  batch_norm_param {
    use_global_stats: false
  }
}
layer {
  name: "sc_c_1_1"
  type: "Scale"
  bottom: "bn_c_1_1"
  top: "sc_c_1_1"
  scale_param {
    bias_term: true
  }
}
layer {
  name: "relu_c_1_1"
  type: "ReLU"
  bottom: "sc_c_1_1"
  top: "relu_c_1_1"
}
layer {
  name: "conv_c_1_1"
  type: "Convolution"
  bottom: "relu_c_1_1"
  top: "conv_c_1_1"
  param {
    lr_mult: 1
    decay_mult: 1
  }
  param {
    lr_mult: 2
    decay_mult: 1
  }
  convolution_param {
    num_output: 64
    pad: 1
    kernel_size: 3
    stride: 1
    weight_filler {
      type: "msra"
    }
    bias_filler {
      type: "constant"
    }
  }
}
layer {
  name: "bn_c_1_2"
  type: "BatchNorm"
  bottom: "conv_c_1_1"
  top: "bn_c_1_2"
  param {
    lr_mult: 0
  }
  param {
    lr_mult: 0
  }
  param {
    lr_mult: 0
  }
  batch_norm_param {
    use_global_stats: false
  }
}
layer {
  name: "sc_c_1_2"
  type: "Scale"
  bottom: "bn_c_1_2"
  top: "sc_c_1_2"
  scale_param {
    bias_term: true
  }
}
layer {
  name: "relu_c_1_2"
  type: "ReLU"
  bottom: "sc_c_1_2"
  top: "relu_c_1_2"
}
layer {
  name: "conv_c_1_2"
  type: "Convolution"
  bottom: "relu_c_1_2"
  top: "conv_c_1_2"
  param {
    lr_mult: 1
    decay_mult: 1
  }
  param {
    lr_mult: 2
    decay_mult: 1
  }
  convolution_param {
    num_output: 64
    pad: 1
    kernel_size: 3
    stride: 1
    weight_filler {
      type: "msra"
    }
    bias_filler {
      type: "constant"
    }
  }
}
layer {
  name: "res_c"
  type: "Convolution"
  bottom: "conv0"
  top: "res_c"
  param {
    lr_mult: 1
    decay_mult: 1
  }
  param {
    lr_mult: 2
    decay_mult: 1
  }
  convolution_param {
    num_output: 64
    pad: 0
    kernel_size: 1
    stride: 1
    weight_filler {
      type: "msra"
    }
    bias_filler {
      type: "constant"
    }
  }
}
layer {
  name: "elt_c_1"
  type: "Eltwise"
  bottom: "res_c"
  bottom: "conv_c_1_2"
  top: "elt_c_1"
  eltwise_param {
    operation: SUM
  }
}
layer {
  name: "bn_d_1_1"
  type: "BatchNorm"
  bottom: "elt_a_1"
  top: "bn_d_1_1"
  param {
    lr_mult: 0
  }
  param {
    lr_mult: 0
  }
  param {
    lr_mult: 0
  }
  batch_norm_param {
    use_global_stats: false
  }
}
layer {
  name: "sc_d_1_1"
  type: "Scale"
  bottom: "bn_d_1_1"
  top: "sc_d_1_1"
  scale_param {
    bias_term: true
  }
}
layer {
  name: "relu_d_1_1"
  type: "ReLU"
  bottom: "sc_d_1_1"
  top: "relu_d_1_1"
}
layer {
  name: "conv_d_1_1"
  type: "Convolution"
  bottom: "relu_d_1_1"
  top: "conv_d_1_1"
  param {
    lr_mult: 1
    decay_mult: 1
  }
  param {
    lr_mult: 2
    decay_mult: 1
  }
  convolution_param {
    num_output: 128
    pad: 1
    kernel_size: 3
    stride: 2
    weight_filler {
      type: "msra"
    }
    bias_filler {
      type: "constant"
    }
  }
}
layer {
  name: "bn_d_1_2"
  type: "BatchNorm"
  bottom: "conv_d_1_1"
  top: "bn_d_1_2"
  param {
    lr_mult: 0
  }
  param {
    lr_mult: 0
  }
  param {
    lr_mult: 0
  }
  batch_norm_param {
    use_global_stats: false
  }
}
layer {
  name: "sc_d_1_2"
  type: "Scale"
  bottom: "bn_d_1_2"
  top: "sc_d_1_2"
  scale_param {
    bias_term: true
  }
}
layer {
  name: "relu_d_1_2"
  type: "ReLU"
  bottom: "sc_d_1_2"
  top: "relu_d_1_2"
}
layer {
  name: "conv_d_1_2"
  type: "Convolution"
  bottom: "relu_d_1_2"
  top: "conv_d_1_2"
  param {
    lr_mult: 1
    decay_mult: 1
  }
  param {
    lr_mult: 2
    decay_mult: 1
  }
  convolution_param {
    num_output: 128
    pad: 1
    kernel_size: 3
    stride: 1
    weight_filler {
      type: "msra"
    }
    bias_filler {
      type: "constant"
    }
  }
}
layer {
  name: "res_d"
  type: "Convolution"
  bottom: "elt_a_1"
  top: "res_d"
  param {
    lr_mult: 1
    decay_mult: 1
  }
  param {
    lr_mult: 2
    decay_mult: 1
  }
  convolution_param {
    num_output: 128
    pad: 0
    kernel_size: 1
    stride: 2
    weight_filler {
      type: "msra"
    }
    bias_filler {
      type: "constant"
    }
  }
}
layer {
  name: "elt_d_1"
  type: "Eltwise"
  bottom: "res_d"
  bottom: "conv_d_1_2"
  top: "elt_d_1"
  eltwise_param {
    operation: SUM
  }
}
layer {
  name: "bn_f_1_1"
  type: "BatchNorm"
  bottom: "elt_b_1"
  top: "bn_f_1_1"
  param {
    lr_mult: 0
  }
  param {
    lr_mult: 0
  }
  param {
    lr_mult: 0
  }
  batch_norm_param {
    use_global_stats: false
  }
}
layer {
  name: "sc_f_1_1"
  type: "Scale"
  bottom: "bn_f_1_1"
  top: "sc_f_1_1"
  scale_param {
    bias_term: true
  }
}
layer {
  name: "relu_f_1_1"
  type: "ReLU"
  bottom: "sc_f_1_1"
  top: "relu_f_1_1"
}
layer {
  name: "conv_f_1_1"
  type: "Convolution"
  bottom: "relu_f_1_1"
  top: "conv_f_1_1"
  param {
    lr_mult: 1
    decay_mult: 1
  }
  param {
    lr_mult: 2
    decay_mult: 1
  }
  convolution_param {
    num_output: 128
    pad: 1
    kernel_size: 3
    stride: 2
    weight_filler {
      type: "msra"
    }
    bias_filler {
      type: "constant"
    }
  }
}
layer {
  name: "bn_f_1_2"
  type: "BatchNorm"
  bottom: "conv_f_1_1"
  top: "bn_f_1_2"
  param {
    lr_mult: 0
  }
  param {
    lr_mult: 0
  }
  param {
    lr_mult: 0
  }
  batch_norm_param {
    use_global_stats: false
  }
}
layer {
  name: "sc_f_1_2"
  type: "Scale"
  bottom: "bn_f_1_2"
  top: "sc_f_1_2"
  scale_param {
    bias_term: true
  }
}
layer {
  name: "relu_f_1_2"
  type: "ReLU"
  bottom: "sc_f_1_2"
  top: "relu_f_1_2"
}
layer {
  name: "conv_f_1_2"
  type: "Convolution"
  bottom: "relu_f_1_2"
  top: "conv_f_1_2"
  param {
    lr_mult: 1
    decay_mult: 1
  }
  param {
    lr_mult: 2
    decay_mult: 1
  }
  convolution_param {
    num_output: 128
    pad: 1
    kernel_size: 3
    stride: 1
    weight_filler {
      type: "msra"
    }
    bias_filler {
      type: "constant"
    }
  }
}
layer {
  name: "res_f"
  type: "Convolution"
  bottom: "elt_b_1"
  top: "res_f"
  param {
    lr_mult: 1
    decay_mult: 1
  }
  param {
    lr_mult: 2
    decay_mult: 1
  }
  convolution_param {
    num_output: 128
    pad: 0
    kernel_size: 1
    stride: 2
    weight_filler {
      type: "msra"
    }
    bias_filler {
      type: "constant"
    }
  }
}
layer {
  name: "elt_f_1"
  type: "Eltwise"
  bottom: "res_f"
  bottom: "conv_f_1_2"
  top: "elt_f_1"
  eltwise_param {
    operation: SUM
  }
}
layer {
  name: "bn_g_1_1"
  type: "BatchNorm"
  bottom: "elt_b_1"
  top: "bn_g_1_1"
  param {
    lr_mult: 0
  }
  param {
    lr_mult: 0
  }
  param {
    lr_mult: 0
  }
  batch_norm_param {
    use_global_stats: false
  }
}
layer {
  name: "sc_g_1_1"
  type: "Scale"
  bottom: "bn_g_1_1"
  top: "sc_g_1_1"
  scale_param {
    bias_term: true
  }
}
layer {
  name: "relu_g_1_1"
  type: "ReLU"
  bottom: "sc_g_1_1"
  top: "relu_g_1_1"
}
layer {
  name: "conv_g_1_1"
  type: "Convolution"
  bottom: "relu_g_1_1"
  top: "conv_g_1_1"
  param {
    lr_mult: 1
    decay_mult: 1
  }
  param {
    lr_mult: 2
    decay_mult: 1
  }
  convolution_param {
    num_output: 128
    pad: 1
    kernel_size: 3
    stride: 2
    weight_filler {
      type: "msra"
    }
    bias_filler {
      type: "constant"
    }
  }
}
layer {
  name: "bn_g_1_2"
  type: "BatchNorm"
  bottom: "conv_g_1_1"
  top: "bn_g_1_2"
  param {
    lr_mult: 0
  }
  param {
    lr_mult: 0
  }
  param {
    lr_mult: 0
  }
  batch_norm_param {
    use_global_stats: false
  }
}
layer {
  name: "sc_g_1_2"
  type: "Scale"
  bottom: "bn_g_1_2"
  top: "sc_g_1_2"
  scale_param {
    bias_term: true
  }
}
layer {
  name: "relu_g_1_2"
  type: "ReLU"
  bottom: "sc_g_1_2"
  top: "relu_g_1_2"
}
layer {
  name: "conv_g_1_2"
  type: "Convolution"
  bottom: "relu_g_1_2"
  top: "conv_g_1_2"
  param {
    lr_mult: 1
    decay_mult: 1
  }
  param {
    lr_mult: 2
    decay_mult: 1
  }
  convolution_param {
    num_output: 128
    pad: 1
    kernel_size: 3
    stride: 1
    weight_filler {
      type: "msra"
    }
    bias_filler {
      type: "constant"
    }
  }
}
layer {
  name: "res_g"
  type: "Convolution"
  bottom: "elt_b_1"
  top: "res_g"
  param {
    lr_mult: 1
    decay_mult: 1
  }
  param {
    lr_mult: 2
    decay_mult: 1
  }
  convolution_param {
    num_output: 128
    pad: 0
    kernel_size: 1
    stride: 2
    weight_filler {
      type: "msra"
    }
    bias_filler {
      type: "constant"
    }
  }
}
layer {
  name: "elt_g_1"
  type: "Eltwise"
  bottom: "res_g"
  bottom: "conv_g_1_2"
  top: "elt_g_1"
  eltwise_param {
    operation: SUM
  }
}
layer {
  name: "bn_h_1_1"
  type: "BatchNorm"
  bottom: "elt_c_1"
  top: "bn_h_1_1"
  param {
    lr_mult: 0
  }
  param {
    lr_mult: 0
  }
  param {
    lr_mult: 0
  }
  batch_norm_param {
    use_global_stats: false
  }
}
layer {
  name: "sc_h_1_1"
  type: "Scale"
  bottom: "bn_h_1_1"
  top: "sc_h_1_1"
  scale_param {
    bias_term: true
  }
}
layer {
  name: "relu_h_1_1"
  type: "ReLU"
  bottom: "sc_h_1_1"
  top: "relu_h_1_1"
}
layer {
  name: "conv_h_1_1"
  type: "Convolution"
  bottom: "relu_h_1_1"
  top: "conv_h_1_1"
  param {
    lr_mult: 1
    decay_mult: 1
  }
  param {
    lr_mult: 2
    decay_mult: 1
  }
  convolution_param {
    num_output: 128
    pad: 1
    kernel_size: 3
    stride: 2
    weight_filler {
      type: "msra"
    }
    bias_filler {
      type: "constant"
    }
  }
}
layer {
  name: "bn_h_1_2"
  type: "BatchNorm"
  bottom: "conv_h_1_1"
  top: "bn_h_1_2"
  param {
    lr_mult: 0
  }
  param {
    lr_mult: 0
  }
  param {
    lr_mult: 0
  }
  batch_norm_param {
    use_global_stats: false
  }
}
layer {
  name: "sc_h_1_2"
  type: "Scale"
  bottom: "bn_h_1_2"
  top: "sc_h_1_2"
  scale_param {
    bias_term: true
  }
}
layer {
  name: "relu_h_1_2"
  type: "ReLU"
  bottom: "sc_h_1_2"
  top: "relu_h_1_2"
}
layer {
  name: "conv_h_1_2"
  type: "Convolution"
  bottom: "relu_h_1_2"
  top: "conv_h_1_2"
  param {
    lr_mult: 1
    decay_mult: 1
  }
  param {
    lr_mult: 2
    decay_mult: 1
  }
  convolution_param {
    num_output: 128
    pad: 1
    kernel_size: 3
    stride: 1
    weight_filler {
      type: "msra"
    }
    bias_filler {
      type: "constant"
    }
  }
}
layer {
  name: "res_h"
  type: "Convolution"
  bottom: "elt_c_1"
  top: "res_h"
  param {
    lr_mult: 1
    decay_mult: 1
  }
  param {
    lr_mult: 2
    decay_mult: 1
  }
  convolution_param {
    num_output: 128
    pad: 0
    kernel_size: 1
    stride: 2
    weight_filler {
      type: "msra"
    }
    bias_filler {
      type: "constant"
    }
  }
}
layer {
  name: "elt_h_1"
  type: "Eltwise"
  bottom: "res_h"
  bottom: "conv_h_1_2"
  top: "elt_h_1"
  eltwise_param {
    operation: SUM
  }
}
layer {
  name: "bn_i_1_1"
  type: "BatchNorm"
  bottom: "elt_c_1"
  top: "bn_i_1_1"
  param {
    lr_mult: 0
  }
  param {
    lr_mult: 0
  }
  param {
    lr_mult: 0
  }
  batch_norm_param {
    use_global_stats: false
  }
}
layer {
  name: "sc_i_1_1"
  type: "Scale"
  bottom: "bn_i_1_1"
  top: "sc_i_1_1"
  scale_param {
    bias_term: true
  }
}
layer {
  name: "relu_i_1_1"
  type: "ReLU"
  bottom: "sc_i_1_1"
  top: "relu_i_1_1"
}
layer {
  name: "conv_i_1_1"
  type: "Convolution"
  bottom: "relu_i_1_1"
  top: "conv_i_1_1"
  param {
    lr_mult: 1
    decay_mult: 1
  }
  param {
    lr_mult: 2
    decay_mult: 1
  }
  convolution_param {
    num_output: 128
    pad: 1
    kernel_size: 3
    stride: 2
    weight_filler {
      type: "msra"
    }
    bias_filler {
      type: "constant"
    }
  }
}
layer {
  name: "bn_i_1_2"
  type: "BatchNorm"
  bottom: "conv_i_1_1"
  top: "bn_i_1_2"
  param {
    lr_mult: 0
  }
  param {
    lr_mult: 0
  }
  param {
    lr_mult: 0
  }
  batch_norm_param {
    use_global_stats: false
  }
}
layer {
  name: "sc_i_1_2"
  type: "Scale"
  bottom: "bn_i_1_2"
  top: "sc_i_1_2"
  scale_param {
    bias_term: true
  }
}
layer {
  name: "relu_i_1_2"
  type: "ReLU"
  bottom: "sc_i_1_2"
  top: "relu_i_1_2"
}
layer {
  name: "conv_i_1_2"
  type: "Convolution"
  bottom: "relu_i_1_2"
  top: "conv_i_1_2"
  param {
    lr_mult: 1
    decay_mult: 1
  }
  param {
    lr_mult: 2
    decay_mult: 1
  }
  convolution_param {
    num_output: 128
    pad: 1
    kernel_size: 3
    stride: 1
    weight_filler {
      type: "msra"
    }
    bias_filler {
      type: "constant"
    }
  }
}
layer {
  name: "res_i"
  type: "Convolution"
  bottom: "elt_c_1"
  top: "res_i"
  param {
    lr_mult: 1
    decay_mult: 1
  }
  param {
    lr_mult: 2
    decay_mult: 1
  }
  convolution_param {
    num_output: 128
    pad: 0
    kernel_size: 1
    stride: 2
    weight_filler {
      type: "msra"
    }
    bias_filler {
      type: "constant"
    }
  }
}
layer {
  name: "elt_i_1"
  type: "Eltwise"
  bottom: "res_i"
  bottom: "conv_i_1_2"
  top: "elt_i_1"
  eltwise_param {
    operation: SUM
  }
}
layer {
  name: "elt_d_f"
  type: "Eltwise"
  bottom: "elt_d_1"
  bottom: "elt_f_1"
  top: "elt_d_f"
  eltwise_param {
    operation: SUM
  }
}
layer {
  name: "elt_g_i"
  type: "Eltwise"
  bottom: "elt_g_1"
  bottom: "elt_i_1"
  top: "elt_g_i"
  eltwise_param {
    operation: SUM
  }
}
layer {
  name: "bn_j_1_1"
  type: "BatchNorm"
  bottom: "elt_d_f"
  top: "bn_j_1_1"
  param {
    lr_mult: 0
  }
  param {
    lr_mult: 0
  }
  param {
    lr_mult: 0
  }
  batch_norm_param {
    use_global_stats: false
  }
}
layer {
  name: "sc_j_1_1"
  type: "Scale"
  bottom: "bn_j_1_1"
  top: "sc_j_1_1"
  scale_param {
    bias_term: true
  }
}
layer {
  name: "relu_j_1_1"
  type: "ReLU"
  bottom: "sc_j_1_1"
  top: "relu_j_1_1"
}
layer {
  name: "conv_j_1_1"
  type: "Convolution"
  bottom: "relu_j_1_1"
  top: "conv_j_1_1"
  param {
    lr_mult: 1
    decay_mult: 1
  }
  param {
    lr_mult: 2
    decay_mult: 1
  }
  convolution_param {
    num_output: 256
    pad: 1
    kernel_size: 3
    stride: 2
    weight_filler {
      type: "msra"
    }
    bias_filler {
      type: "constant"
    }
  }
}
layer {
  name: "bn_j_1_2"
  type: "BatchNorm"
  bottom: "conv_j_1_1"
  top: "bn_j_1_2"
  param {
    lr_mult: 0
  }
  param {
    lr_mult: 0
  }
  param {
    lr_mult: 0
  }
  batch_norm_param {
    use_global_stats: false
  }
}
layer {
  name: "sc_j_1_2"
  type: "Scale"
  bottom: "bn_j_1_2"
  top: "sc_j_1_2"
  scale_param {
    bias_term: true
  }
}
layer {
  name: "relu_j_1_2"
  type: "ReLU"
  bottom: "sc_j_1_2"
  top: "relu_j_1_2"
}
layer {
  name: "conv_j_1_2"
  type: "Convolution"
  bottom: "relu_j_1_2"
  top: "conv_j_1_2"
  param {
    lr_mult: 1
    decay_mult: 1
  }
  param {
    lr_mult: 2
    decay_mult: 1
  }
  convolution_param {
    num_output: 256
    pad: 1
    kernel_size: 3
    stride: 1
    weight_filler {
      type: "msra"
    }
    bias_filler {
      type: "constant"
    }
  }
}
layer {
  name: "res_j"
  type: "Convolution"
  bottom: "elt_d_f"
  top: "res_j"
  param {
    lr_mult: 1
    decay_mult: 1
  }
  param {
    lr_mult: 2
    decay_mult: 1
  }
  convolution_param {
    num_output: 256
    pad: 0
    kernel_size: 1
    stride: 2
    weight_filler {
      type: "msra"
    }
    bias_filler {
      type: "constant"
    }
  }
}
layer {
  name: "elt_j_1"
  type: "Eltwise"
  bottom: "res_j"
  bottom: "conv_j_1_2"
  top: "elt_j_1"
  eltwise_param {
    operation: SUM
  }
}
layer {
  name: "bn_e_1_1"
  type: "BatchNorm"
  bottom: "elt_a_1"
  top: "bn_e_1_1"
  param {
    lr_mult: 0
  }
  param {
    lr_mult: 0
  }
  param {
    lr_mult: 0
  }
  batch_norm_param {
    use_global_stats: false
  }
}
layer {
  name: "sc_e_1_1"
  type: "Scale"
  bottom: "bn_e_1_1"
  top: "sc_e_1_1"
  scale_param {
    bias_term: true
  }
}
layer {
  name: "relu_e_1_1"
  type: "ReLU"
  bottom: "sc_e_1_1"
  top: "relu_e_1_1"
}
layer {
  name: "conv_e_1_1"
  type: "Convolution"
  bottom: "relu_e_1_1"
  top: "conv_e_1_1"
  param {
    lr_mult: 1
    decay_mult: 1
  }
  param {
    lr_mult: 2
    decay_mult: 1
  }
  convolution_param {
    num_output: 128
    pad: 1
    kernel_size: 3
    stride: 2
    weight_filler {
      type: "msra"
    }
    bias_filler {
      type: "constant"
    }
  }
}
layer {
  name: "bn_e_1_2"
  type: "BatchNorm"
  bottom: "conv_e_1_1"
  top: "bn_e_1_2"
  param {
    lr_mult: 0
  }
  param {
    lr_mult: 0
  }
  param {
    lr_mult: 0
  }
  batch_norm_param {
    use_global_stats: false
  }
}
layer {
  name: "sc_e_1_2"
  type: "Scale"
  bottom: "bn_e_1_2"
  top: "sc_e_1_2"
  scale_param {
    bias_term: true
  }
}
layer {
  name: "relu_e_1_2"
  type: "ReLU"
  bottom: "sc_e_1_2"
  top: "relu_e_1_2"
}
layer {
  name: "conv_e_1_2"
  type: "Convolution"
  bottom: "relu_e_1_2"
  top: "conv_e_1_2"
  param {
    lr_mult: 1
    decay_mult: 1
  }
  param {
    lr_mult: 2
    decay_mult: 1
  }
  convolution_param {
    num_output: 128
    pad: 1
    kernel_size: 3
    stride: 1
    weight_filler {
      type: "msra"
    }
    bias_filler {
      type: "constant"
    }
  }
}
layer {
  name: "res_e"
  type: "Convolution"
  bottom: "elt_a_1"
  top: "res_e"
  param {
    lr_mult: 1
    decay_mult: 1
  }
  param {
    lr_mult: 2
    decay_mult: 1
  }
  convolution_param {
    num_output: 128
    pad: 0
    kernel_size: 1
    stride: 2
    weight_filler {
      type: "msra"
    }
    bias_filler {
      type: "constant"
    }
  }
}
layer {
  name: "elt_e_1"
  type: "Eltwise"
  bottom: "res_e"
  bottom: "conv_e_1_2"
  top: "elt_e_1"
  eltwise_param {
    operation: SUM
  }
}
layer {
  name: "elt_e_h"
  type: "Eltwise"
  bottom: "elt_e_1"
  bottom: "elt_h_1"
  top: "elt_e_h"
  eltwise_param {
    operation: SUM
  }
}
layer {
  name: "bn_k_1_1"
  type: "BatchNorm"
  bottom: "elt_e_h"
  top: "bn_k_1_1"
  param {
    lr_mult: 0
  }
  param {
    lr_mult: 0
  }
  param {
    lr_mult: 0
  }
  batch_norm_param {
    use_global_stats: false
  }
}
layer {
  name: "sc_k_1_1"
  type: "Scale"
  bottom: "bn_k_1_1"
  top: "sc_k_1_1"
  scale_param {
    bias_term: true
  }
}
layer {
  name: "relu_k_1_1"
  type: "ReLU"
  bottom: "sc_k_1_1"
  top: "relu_k_1_1"
}
layer {
  name: "conv_k_1_1"
  type: "Convolution"
  bottom: "relu_k_1_1"
  top: "conv_k_1_1"
  param {
    lr_mult: 1
    decay_mult: 1
  }
  param {
    lr_mult: 2
    decay_mult: 1
  }
  convolution_param {
    num_output: 256
    pad: 1
    kernel_size: 3
    stride: 2
    weight_filler {
      type: "msra"
    }
    bias_filler {
      type: "constant"
    }
  }
}
layer {
  name: "bn_k_1_2"
  type: "BatchNorm"
  bottom: "conv_k_1_1"
  top: "bn_k_1_2"
  param {
    lr_mult: 0
  }
  param {
    lr_mult: 0
  }
  param {
    lr_mult: 0
  }
  batch_norm_param {
    use_global_stats: false
  }
}
layer {
  name: "sc_k_1_2"
  type: "Scale"
  bottom: "bn_k_1_2"
  top: "sc_k_1_2"
  scale_param {
    bias_term: true
  }
}
layer {
  name: "relu_k_1_2"
  type: "ReLU"
  bottom: "sc_k_1_2"
  top: "relu_k_1_2"
}
layer {
  name: "conv_k_1_2"
  type: "Convolution"
  bottom: "relu_k_1_2"
  top: "conv_k_1_2"
  param {
    lr_mult: 1
    decay_mult: 1
  }
  param {
    lr_mult: 2
    decay_mult: 1
  }
  convolution_param {
    num_output: 256
    pad: 1
    kernel_size: 3
    stride: 1
    weight_filler {
      type: "msra"
    }
    bias_filler {
      type: "constant"
    }
  }
}
layer {
  name: "res_k"
  type: "Convolution"
  bottom: "elt_e_h"
  top: "res_k"
  param {
    lr_mult: 1
    decay_mult: 1
  }
  param {
    lr_mult: 2
    decay_mult: 1
  }
  convolution_param {
    num_output: 256
    pad: 0
    kernel_size: 1
    stride: 2
    weight_filler {
      type: "msra"
    }
    bias_filler {
      type: "constant"
    }
  }
}
layer {
  name: "elt_k_1"
  type: "Eltwise"
  bottom: "res_k"
  bottom: "conv_k_1_2"
  top: "elt_k_1"
  eltwise_param {
    operation: SUM
  }
}
layer {
  name: "bn_l_1_1"
  type: "BatchNorm"
  bottom: "elt_g_i"
  top: "bn_l_1_1"
  param {
    lr_mult: 0
  }
  param {
    lr_mult: 0
  }
  param {
    lr_mult: 0
  }
  batch_norm_param {
    use_global_stats: false
  }
}
layer {
  name: "sc_l_1_1"
  type: "Scale"
  bottom: "bn_l_1_1"
  top: "sc_l_1_1"
  scale_param {
    bias_term: true
  }
}
layer {
  name: "relu_l_1_1"
  type: "ReLU"
  bottom: "sc_l_1_1"
  top: "relu_l_1_1"
}
layer {
  name: "conv_l_1_1"
  type: "Convolution"
  bottom: "relu_l_1_1"
  top: "conv_l_1_1"
  param {
    lr_mult: 1
    decay_mult: 1
  }
  param {
    lr_mult: 2
    decay_mult: 1
  }
  convolution_param {
    num_output: 256
    pad: 1
    kernel_size: 3
    stride: 2
    weight_filler {
      type: "msra"
    }
    bias_filler {
      type: "constant"
    }
  }
}
layer {
  name: "bn_l_1_2"
  type: "BatchNorm"
  bottom: "conv_l_1_1"
  top: "bn_l_1_2"
  param {
    lr_mult: 0
  }
  param {
    lr_mult: 0
  }
  param {
    lr_mult: 0
  }
  batch_norm_param {
    use_global_stats: false
  }
}
layer {
  name: "sc_l_1_2"
  type: "Scale"
  bottom: "bn_l_1_2"
  top: "sc_l_1_2"
  scale_param {
    bias_term: true
  }
}
layer {
  name: "relu_l_1_2"
  type: "ReLU"
  bottom: "sc_l_1_2"
  top: "relu_l_1_2"
}
layer {
  name: "conv_l_1_2"
  type: "Convolution"
  bottom: "relu_l_1_2"
  top: "conv_l_1_2"
  param {
    lr_mult: 1
    decay_mult: 1
  }
  param {
    lr_mult: 2
    decay_mult: 1
  }
  convolution_param {
    num_output: 256
    pad: 1
    kernel_size: 3
    stride: 1
    weight_filler {
      type: "msra"
    }
    bias_filler {
      type: "constant"
    }
  }
}
layer {
  name: "res_l"
  type: "Convolution"
  bottom: "elt_g_i"
  top: "res_l"
  param {
    lr_mult: 1
    decay_mult: 1
  }
  param {
    lr_mult: 2
    decay_mult: 1
  }
  convolution_param {
    num_output: 256
    pad: 0
    kernel_size: 1
    stride: 2
    weight_filler {
      type: "msra"
    }
    bias_filler {
      type: "constant"
    }
  }
}
layer {
  name: "elt_l_1"
  type: "Eltwise"
  bottom: "res_l"
  bottom: "conv_l_1_2"
  top: "elt_l_1"
  eltwise_param {
    operation: SUM
  }
}
layer {
  name: "concat_j_k_l"
  type: "Concat"
  bottom: "elt_j_1"
  bottom: "elt_k_1"
  bottom: "elt_l_1"
  top: "elt_j_k_l"
  concat_param {
    axis: 1
  }
}
layer {
  name: "bn_m_1_1"
  type: "BatchNorm"
  bottom: "elt_j_k_l"
  top: "bn_m_1_1"
  param {
    lr_mult: 0
  }
  param {
    lr_mult: 0
  }
  param {
    lr_mult: 0
  }
  batch_norm_param {
    use_global_stats: false
  }
}
layer {
  name: "sc_m_1_1"
  type: "Scale"
  bottom: "bn_m_1_1"
  top: "sc_m_1_1"
  scale_param {
    bias_term: true
  }
}
layer {
  name: "relu_m_1_1"
  type: "ReLU"
  bottom: "sc_m_1_1"
  top: "relu_m_1_1"
}
layer {
  name: "gap"
  type: "Pooling"
  bottom: "relu_m_1_1"
  top: "gap"
  pooling_param {
    pool: AVE
    kernel_size: 8
    stride: 1
  }
}
layer {
  name: "ip1"
  type: "InnerProduct"
  bottom: "gap"
  top: "ip1"
  param {
    lr_mult: 1
    decay_mult: 1
  }
  param {
    lr_mult: 2
    decay_mult: 0
  }
  inner_product_param {
    num_output: 10
    weight_filler {
      type: "msra"
    }
    bias_filler {
      type: "constant"
      value: 0
    }
  }
}
layer {
  name: "loss"
  type: "SoftmaxWithLoss"
  bottom: "ip1"
  bottom: "label"
  top: "loss"
}
I0618 17:42:58.087818 20043 layer_factory.hpp:77] Creating layer resnet
I0618 17:42:58.088650 20043 net.cpp:91] Creating Layer resnet
I0618 17:42:58.088666 20043 net.cpp:399] resnet -> data
I0618 17:42:58.088718 20043 net.cpp:399] resnet -> label
I0618 17:42:58.088737 20043 data_transformer.cpp:25] Loading mean file from: /home/takeki/caffe/examples/cifar10/mean.binaryproto
I0618 17:42:58.089812 20077 db_lmdb.cpp:35] Opened lmdb /home/takeki/caffe/examples/cifar10/cifar10_train_lmdb
I0618 17:42:58.104179 20043 data_layer.cpp:41] output data size: 128,3,32,32
I0618 17:42:58.107602 20043 net.cpp:141] Setting up resnet
I0618 17:42:58.107628 20043 net.cpp:148] Top shape: 128 3 32 32 (393216)
I0618 17:42:58.107637 20043 net.cpp:148] Top shape: 128 (128)
I0618 17:42:58.107642 20043 net.cpp:156] Memory required for data: 1573376
I0618 17:42:58.107652 20043 layer_factory.hpp:77] Creating layer conv0
I0618 17:42:58.107676 20043 net.cpp:91] Creating Layer conv0
I0618 17:42:58.107684 20043 net.cpp:425] conv0 <- data
I0618 17:42:58.107700 20043 net.cpp:399] conv0 -> conv0
I0618 17:42:58.230873 20043 net.cpp:141] Setting up conv0
I0618 17:42:58.230921 20043 net.cpp:148] Top shape: 128 16 32 32 (2097152)
I0618 17:42:58.230927 20043 net.cpp:156] Memory required for data: 9961984
I0618 17:42:58.230952 20043 layer_factory.hpp:77] Creating layer conv0_conv0_0_split
I0618 17:42:58.230973 20043 net.cpp:91] Creating Layer conv0_conv0_0_split
I0618 17:42:58.230981 20043 net.cpp:425] conv0_conv0_0_split <- conv0
I0618 17:42:58.230993 20043 net.cpp:399] conv0_conv0_0_split -> conv0_conv0_0_split_0
I0618 17:42:58.231009 20043 net.cpp:399] conv0_conv0_0_split -> conv0_conv0_0_split_1
I0618 17:42:58.231019 20043 net.cpp:399] conv0_conv0_0_split -> conv0_conv0_0_split_2
I0618 17:42:58.231027 20043 net.cpp:399] conv0_conv0_0_split -> conv0_conv0_0_split_3
I0618 17:42:58.231036 20043 net.cpp:399] conv0_conv0_0_split -> conv0_conv0_0_split_4
I0618 17:42:58.231045 20043 net.cpp:399] conv0_conv0_0_split -> conv0_conv0_0_split_5
I0618 17:42:58.231112 20043 net.cpp:141] Setting up conv0_conv0_0_split
I0618 17:42:58.231122 20043 net.cpp:148] Top shape: 128 16 32 32 (2097152)
I0618 17:42:58.231129 20043 net.cpp:148] Top shape: 128 16 32 32 (2097152)
I0618 17:42:58.231135 20043 net.cpp:148] Top shape: 128 16 32 32 (2097152)
I0618 17:42:58.231142 20043 net.cpp:148] Top shape: 128 16 32 32 (2097152)
I0618 17:42:58.231148 20043 net.cpp:148] Top shape: 128 16 32 32 (2097152)
I0618 17:42:58.231154 20043 net.cpp:148] Top shape: 128 16 32 32 (2097152)
I0618 17:42:58.231160 20043 net.cpp:156] Memory required for data: 60293632
I0618 17:42:58.231166 20043 layer_factory.hpp:77] Creating layer bn_a_1_1
I0618 17:42:58.231178 20043 net.cpp:91] Creating Layer bn_a_1_1
I0618 17:42:58.231184 20043 net.cpp:425] bn_a_1_1 <- conv0_conv0_0_split_0
I0618 17:42:58.231191 20043 net.cpp:399] bn_a_1_1 -> bn_a_1_1
I0618 17:42:58.231340 20043 net.cpp:141] Setting up bn_a_1_1
I0618 17:42:58.231351 20043 net.cpp:148] Top shape: 128 16 32 32 (2097152)
I0618 17:42:58.231356 20043 net.cpp:156] Memory required for data: 68682240
I0618 17:42:58.231371 20043 layer_factory.hpp:77] Creating layer sc_a_1_1
I0618 17:42:58.231384 20043 net.cpp:91] Creating Layer sc_a_1_1
I0618 17:42:58.231389 20043 net.cpp:425] sc_a_1_1 <- bn_a_1_1
I0618 17:42:58.231396 20043 net.cpp:399] sc_a_1_1 -> sc_a_1_1
I0618 17:42:58.231443 20043 layer_factory.hpp:77] Creating layer sc_a_1_1
I0618 17:42:58.231539 20043 net.cpp:141] Setting up sc_a_1_1
I0618 17:42:58.231549 20043 net.cpp:148] Top shape: 128 16 32 32 (2097152)
I0618 17:42:58.231554 20043 net.cpp:156] Memory required for data: 77070848
I0618 17:42:58.231562 20043 layer_factory.hpp:77] Creating layer relu_a_1_1
I0618 17:42:58.231571 20043 net.cpp:91] Creating Layer relu_a_1_1
I0618 17:42:58.231576 20043 net.cpp:425] relu_a_1_1 <- sc_a_1_1
I0618 17:42:58.231582 20043 net.cpp:399] relu_a_1_1 -> relu_a_1_1
I0618 17:42:58.231839 20043 net.cpp:141] Setting up relu_a_1_1
I0618 17:42:58.231853 20043 net.cpp:148] Top shape: 128 16 32 32 (2097152)
I0618 17:42:58.231858 20043 net.cpp:156] Memory required for data: 85459456
I0618 17:42:58.231889 20043 layer_factory.hpp:77] Creating layer conv_a_1_1
I0618 17:42:58.231904 20043 net.cpp:91] Creating Layer conv_a_1_1
I0618 17:42:58.231911 20043 net.cpp:425] conv_a_1_1 <- relu_a_1_1
I0618 17:42:58.231920 20043 net.cpp:399] conv_a_1_1 -> conv_a_1_1
I0618 17:42:58.233438 20043 net.cpp:141] Setting up conv_a_1_1
I0618 17:42:58.233453 20043 net.cpp:148] Top shape: 128 64 32 32 (8388608)
I0618 17:42:58.233460 20043 net.cpp:156] Memory required for data: 119013888
I0618 17:42:58.233474 20043 layer_factory.hpp:77] Creating layer bn_a_1_2
I0618 17:42:58.233487 20043 net.cpp:91] Creating Layer bn_a_1_2
I0618 17:42:58.233494 20043 net.cpp:425] bn_a_1_2 <- conv_a_1_1
I0618 17:42:58.233502 20043 net.cpp:399] bn_a_1_2 -> bn_a_1_2
I0618 17:42:58.233664 20043 net.cpp:141] Setting up bn_a_1_2
I0618 17:42:58.233675 20043 net.cpp:148] Top shape: 128 64 32 32 (8388608)
I0618 17:42:58.233680 20043 net.cpp:156] Memory required for data: 152568320
I0618 17:42:58.233690 20043 layer_factory.hpp:77] Creating layer sc_a_1_2
I0618 17:42:58.233700 20043 net.cpp:91] Creating Layer sc_a_1_2
I0618 17:42:58.233706 20043 net.cpp:425] sc_a_1_2 <- bn_a_1_2
I0618 17:42:58.233716 20043 net.cpp:399] sc_a_1_2 -> sc_a_1_2
I0618 17:42:58.233752 20043 layer_factory.hpp:77] Creating layer sc_a_1_2
I0618 17:42:58.233860 20043 net.cpp:141] Setting up sc_a_1_2
I0618 17:42:58.233871 20043 net.cpp:148] Top shape: 128 64 32 32 (8388608)
I0618 17:42:58.233876 20043 net.cpp:156] Memory required for data: 186122752
I0618 17:42:58.233886 20043 layer_factory.hpp:77] Creating layer relu_a_1_2
I0618 17:42:58.233896 20043 net.cpp:91] Creating Layer relu_a_1_2
I0618 17:42:58.233901 20043 net.cpp:425] relu_a_1_2 <- sc_a_1_2
I0618 17:42:58.233909 20043 net.cpp:399] relu_a_1_2 -> relu_a_1_2
I0618 17:42:58.234074 20043 net.cpp:141] Setting up relu_a_1_2
I0618 17:42:58.234087 20043 net.cpp:148] Top shape: 128 64 32 32 (8388608)
I0618 17:42:58.234093 20043 net.cpp:156] Memory required for data: 219677184
I0618 17:42:58.234099 20043 layer_factory.hpp:77] Creating layer conv_a_1_2
I0618 17:42:58.234112 20043 net.cpp:91] Creating Layer conv_a_1_2
I0618 17:42:58.234118 20043 net.cpp:425] conv_a_1_2 <- relu_a_1_2
I0618 17:42:58.234127 20043 net.cpp:399] conv_a_1_2 -> conv_a_1_2
I0618 17:42:58.236320 20043 net.cpp:141] Setting up conv_a_1_2
I0618 17:42:58.236335 20043 net.cpp:148] Top shape: 128 64 32 32 (8388608)
I0618 17:42:58.236342 20043 net.cpp:156] Memory required for data: 253231616
I0618 17:42:58.236356 20043 layer_factory.hpp:77] Creating layer res_a
I0618 17:42:58.236377 20043 net.cpp:91] Creating Layer res_a
I0618 17:42:58.236388 20043 net.cpp:425] res_a <- conv0_conv0_0_split_1
I0618 17:42:58.236409 20043 net.cpp:399] res_a -> res_a
I0618 17:42:58.237277 20043 net.cpp:141] Setting up res_a
I0618 17:42:58.237298 20043 net.cpp:148] Top shape: 128 64 32 32 (8388608)
I0618 17:42:58.237309 20043 net.cpp:156] Memory required for data: 286786048
I0618 17:42:58.237325 20043 layer_factory.hpp:77] Creating layer elt_a_1
I0618 17:42:58.237341 20043 net.cpp:91] Creating Layer elt_a_1
I0618 17:42:58.237349 20043 net.cpp:425] elt_a_1 <- res_a
I0618 17:42:58.237355 20043 net.cpp:425] elt_a_1 <- conv_a_1_2
I0618 17:42:58.237362 20043 net.cpp:399] elt_a_1 -> elt_a_1
I0618 17:42:58.237396 20043 net.cpp:141] Setting up elt_a_1
I0618 17:42:58.237406 20043 net.cpp:148] Top shape: 128 64 32 32 (8388608)
I0618 17:42:58.237412 20043 net.cpp:156] Memory required for data: 320340480
I0618 17:42:58.237417 20043 layer_factory.hpp:77] Creating layer elt_a_1_elt_a_1_0_split
I0618 17:42:58.237426 20043 net.cpp:91] Creating Layer elt_a_1_elt_a_1_0_split
I0618 17:42:58.237432 20043 net.cpp:425] elt_a_1_elt_a_1_0_split <- elt_a_1
I0618 17:42:58.237440 20043 net.cpp:399] elt_a_1_elt_a_1_0_split -> elt_a_1_elt_a_1_0_split_0
I0618 17:42:58.237450 20043 net.cpp:399] elt_a_1_elt_a_1_0_split -> elt_a_1_elt_a_1_0_split_1
I0618 17:42:58.237459 20043 net.cpp:399] elt_a_1_elt_a_1_0_split -> elt_a_1_elt_a_1_0_split_2
I0618 17:42:58.237468 20043 net.cpp:399] elt_a_1_elt_a_1_0_split -> elt_a_1_elt_a_1_0_split_3
I0618 17:42:58.237531 20043 net.cpp:141] Setting up elt_a_1_elt_a_1_0_split
I0618 17:42:58.237543 20043 net.cpp:148] Top shape: 128 64 32 32 (8388608)
I0618 17:42:58.237550 20043 net.cpp:148] Top shape: 128 64 32 32 (8388608)
I0618 17:42:58.237556 20043 net.cpp:148] Top shape: 128 64 32 32 (8388608)
I0618 17:42:58.237562 20043 net.cpp:148] Top shape: 128 64 32 32 (8388608)
I0618 17:42:58.237567 20043 net.cpp:156] Memory required for data: 454558208
I0618 17:42:58.237573 20043 layer_factory.hpp:77] Creating layer bn_b_1_1
I0618 17:42:58.237582 20043 net.cpp:91] Creating Layer bn_b_1_1
I0618 17:42:58.237588 20043 net.cpp:425] bn_b_1_1 <- conv0_conv0_0_split_2
I0618 17:42:58.237598 20043 net.cpp:399] bn_b_1_1 -> bn_b_1_1
I0618 17:42:58.237758 20043 net.cpp:141] Setting up bn_b_1_1
I0618 17:42:58.237769 20043 net.cpp:148] Top shape: 128 16 32 32 (2097152)
I0618 17:42:58.237774 20043 net.cpp:156] Memory required for data: 462946816
I0618 17:42:58.237784 20043 layer_factory.hpp:77] Creating layer sc_b_1_1
I0618 17:42:58.237795 20043 net.cpp:91] Creating Layer sc_b_1_1
I0618 17:42:58.237802 20043 net.cpp:425] sc_b_1_1 <- bn_b_1_1
I0618 17:42:58.237809 20043 net.cpp:399] sc_b_1_1 -> sc_b_1_1
I0618 17:42:58.237845 20043 layer_factory.hpp:77] Creating layer sc_b_1_1
I0618 17:42:58.237943 20043 net.cpp:141] Setting up sc_b_1_1
I0618 17:42:58.237954 20043 net.cpp:148] Top shape: 128 16 32 32 (2097152)
I0618 17:42:58.237959 20043 net.cpp:156] Memory required for data: 471335424
I0618 17:42:58.237968 20043 layer_factory.hpp:77] Creating layer relu_b_1_1
I0618 17:42:58.237977 20043 net.cpp:91] Creating Layer relu_b_1_1
I0618 17:42:58.237983 20043 net.cpp:425] relu_b_1_1 <- sc_b_1_1
I0618 17:42:58.237993 20043 net.cpp:399] relu_b_1_1 -> relu_b_1_1
I0618 17:42:58.238159 20043 net.cpp:141] Setting up relu_b_1_1
I0618 17:42:58.238171 20043 net.cpp:148] Top shape: 128 16 32 32 (2097152)
I0618 17:42:58.238178 20043 net.cpp:156] Memory required for data: 479724032
I0618 17:42:58.238183 20043 layer_factory.hpp:77] Creating layer conv_b_1_1
I0618 17:42:58.238198 20043 net.cpp:91] Creating Layer conv_b_1_1
I0618 17:42:58.238204 20043 net.cpp:425] conv_b_1_1 <- relu_b_1_1
I0618 17:42:58.238212 20043 net.cpp:399] conv_b_1_1 -> conv_b_1_1
I0618 17:42:58.239256 20043 net.cpp:141] Setting up conv_b_1_1
I0618 17:42:58.239271 20043 net.cpp:148] Top shape: 128 64 32 32 (8388608)
I0618 17:42:58.239277 20043 net.cpp:156] Memory required for data: 513278464
I0618 17:42:58.239286 20043 layer_factory.hpp:77] Creating layer bn_b_1_2
I0618 17:42:58.239295 20043 net.cpp:91] Creating Layer bn_b_1_2
I0618 17:42:58.239301 20043 net.cpp:425] bn_b_1_2 <- conv_b_1_1
I0618 17:42:58.239315 20043 net.cpp:399] bn_b_1_2 -> bn_b_1_2
I0618 17:42:58.239482 20043 net.cpp:141] Setting up bn_b_1_2
I0618 17:42:58.239492 20043 net.cpp:148] Top shape: 128 64 32 32 (8388608)
I0618 17:42:58.239498 20043 net.cpp:156] Memory required for data: 546832896
I0618 17:42:58.239508 20043 layer_factory.hpp:77] Creating layer sc_b_1_2
I0618 17:42:58.239519 20043 net.cpp:91] Creating Layer sc_b_1_2
I0618 17:42:58.239526 20043 net.cpp:425] sc_b_1_2 <- bn_b_1_2
I0618 17:42:58.239533 20043 net.cpp:399] sc_b_1_2 -> sc_b_1_2
I0618 17:42:58.239572 20043 layer_factory.hpp:77] Creating layer sc_b_1_2
I0618 17:42:58.239667 20043 net.cpp:141] Setting up sc_b_1_2
I0618 17:42:58.239677 20043 net.cpp:148] Top shape: 128 64 32 32 (8388608)
I0618 17:42:58.239683 20043 net.cpp:156] Memory required for data: 580387328
I0618 17:42:58.239692 20043 layer_factory.hpp:77] Creating layer relu_b_1_2
I0618 17:42:58.239701 20043 net.cpp:91] Creating Layer relu_b_1_2
I0618 17:42:58.239706 20043 net.cpp:425] relu_b_1_2 <- sc_b_1_2
I0618 17:42:58.239714 20043 net.cpp:399] relu_b_1_2 -> relu_b_1_2
I0618 17:42:58.239975 20043 net.cpp:141] Setting up relu_b_1_2
I0618 17:42:58.239989 20043 net.cpp:148] Top shape: 128 64 32 32 (8388608)
I0618 17:42:58.239992 20043 net.cpp:156] Memory required for data: 613941760
I0618 17:42:58.239997 20043 layer_factory.hpp:77] Creating layer conv_b_1_2
I0618 17:42:58.240020 20043 net.cpp:91] Creating Layer conv_b_1_2
I0618 17:42:58.240030 20043 net.cpp:425] conv_b_1_2 <- relu_b_1_2
I0618 17:42:58.240041 20043 net.cpp:399] conv_b_1_2 -> conv_b_1_2
I0618 17:42:58.241730 20043 net.cpp:141] Setting up conv_b_1_2
I0618 17:42:58.241745 20043 net.cpp:148] Top shape: 128 64 32 32 (8388608)
I0618 17:42:58.241752 20043 net.cpp:156] Memory required for data: 647496192
I0618 17:42:58.241765 20043 layer_factory.hpp:77] Creating layer res_b
I0618 17:42:58.241778 20043 net.cpp:91] Creating Layer res_b
I0618 17:42:58.241785 20043 net.cpp:425] res_b <- conv0_conv0_0_split_3
I0618 17:42:58.241794 20043 net.cpp:399] res_b -> res_b
I0618 17:42:58.242564 20043 net.cpp:141] Setting up res_b
I0618 17:42:58.242578 20043 net.cpp:148] Top shape: 128 64 32 32 (8388608)
I0618 17:42:58.242586 20043 net.cpp:156] Memory required for data: 681050624
I0618 17:42:58.242600 20043 layer_factory.hpp:77] Creating layer elt_b_1
I0618 17:42:58.242612 20043 net.cpp:91] Creating Layer elt_b_1
I0618 17:42:58.242619 20043 net.cpp:425] elt_b_1 <- res_b
I0618 17:42:58.242625 20043 net.cpp:425] elt_b_1 <- conv_b_1_2
I0618 17:42:58.242633 20043 net.cpp:399] elt_b_1 -> elt_b_1
I0618 17:42:58.242665 20043 net.cpp:141] Setting up elt_b_1
I0618 17:42:58.242678 20043 net.cpp:148] Top shape: 128 64 32 32 (8388608)
I0618 17:42:58.242686 20043 net.cpp:156] Memory required for data: 714605056
I0618 17:42:58.242696 20043 layer_factory.hpp:77] Creating layer elt_b_1_elt_b_1_0_split
I0618 17:42:58.242713 20043 net.cpp:91] Creating Layer elt_b_1_elt_b_1_0_split
I0618 17:42:58.242724 20043 net.cpp:425] elt_b_1_elt_b_1_0_split <- elt_b_1
I0618 17:42:58.242738 20043 net.cpp:399] elt_b_1_elt_b_1_0_split -> elt_b_1_elt_b_1_0_split_0
I0618 17:42:58.242748 20043 net.cpp:399] elt_b_1_elt_b_1_0_split -> elt_b_1_elt_b_1_0_split_1
I0618 17:42:58.242758 20043 net.cpp:399] elt_b_1_elt_b_1_0_split -> elt_b_1_elt_b_1_0_split_2
I0618 17:42:58.242766 20043 net.cpp:399] elt_b_1_elt_b_1_0_split -> elt_b_1_elt_b_1_0_split_3
I0618 17:42:58.242822 20043 net.cpp:141] Setting up elt_b_1_elt_b_1_0_split
I0618 17:42:58.242832 20043 net.cpp:148] Top shape: 128 64 32 32 (8388608)
I0618 17:42:58.242838 20043 net.cpp:148] Top shape: 128 64 32 32 (8388608)
I0618 17:42:58.242846 20043 net.cpp:148] Top shape: 128 64 32 32 (8388608)
I0618 17:42:58.242851 20043 net.cpp:148] Top shape: 128 64 32 32 (8388608)
I0618 17:42:58.242856 20043 net.cpp:156] Memory required for data: 848822784
I0618 17:42:58.242861 20043 layer_factory.hpp:77] Creating layer bn_c_1_1
I0618 17:42:58.242871 20043 net.cpp:91] Creating Layer bn_c_1_1
I0618 17:42:58.242877 20043 net.cpp:425] bn_c_1_1 <- conv0_conv0_0_split_4
I0618 17:42:58.242885 20043 net.cpp:399] bn_c_1_1 -> bn_c_1_1
I0618 17:42:58.243044 20043 net.cpp:141] Setting up bn_c_1_1
I0618 17:42:58.243054 20043 net.cpp:148] Top shape: 128 16 32 32 (2097152)
I0618 17:42:58.243060 20043 net.cpp:156] Memory required for data: 857211392
I0618 17:42:58.243072 20043 layer_factory.hpp:77] Creating layer sc_c_1_1
I0618 17:42:58.243080 20043 net.cpp:91] Creating Layer sc_c_1_1
I0618 17:42:58.243086 20043 net.cpp:425] sc_c_1_1 <- bn_c_1_1
I0618 17:42:58.243094 20043 net.cpp:399] sc_c_1_1 -> sc_c_1_1
I0618 17:42:58.243134 20043 layer_factory.hpp:77] Creating layer sc_c_1_1
I0618 17:42:58.243234 20043 net.cpp:141] Setting up sc_c_1_1
I0618 17:42:58.243244 20043 net.cpp:148] Top shape: 128 16 32 32 (2097152)
I0618 17:42:58.243249 20043 net.cpp:156] Memory required for data: 865600000
I0618 17:42:58.243259 20043 layer_factory.hpp:77] Creating layer relu_c_1_1
I0618 17:42:58.243268 20043 net.cpp:91] Creating Layer relu_c_1_1
I0618 17:42:58.243273 20043 net.cpp:425] relu_c_1_1 <- sc_c_1_1
I0618 17:42:58.243279 20043 net.cpp:399] relu_c_1_1 -> relu_c_1_1
I0618 17:42:58.243547 20043 net.cpp:141] Setting up relu_c_1_1
I0618 17:42:58.243561 20043 net.cpp:148] Top shape: 128 16 32 32 (2097152)
I0618 17:42:58.243566 20043 net.cpp:156] Memory required for data: 873988608
I0618 17:42:58.243572 20043 layer_factory.hpp:77] Creating layer conv_c_1_1
I0618 17:42:58.243597 20043 net.cpp:91] Creating Layer conv_c_1_1
I0618 17:42:58.243603 20043 net.cpp:425] conv_c_1_1 <- relu_c_1_1
I0618 17:42:58.243614 20043 net.cpp:399] conv_c_1_1 -> conv_c_1_1
I0618 17:42:58.244685 20043 net.cpp:141] Setting up conv_c_1_1
I0618 17:42:58.244699 20043 net.cpp:148] Top shape: 128 64 32 32 (8388608)
I0618 17:42:58.244705 20043 net.cpp:156] Memory required for data: 907543040
I0618 17:42:58.244714 20043 layer_factory.hpp:77] Creating layer bn_c_1_2
I0618 17:42:58.244726 20043 net.cpp:91] Creating Layer bn_c_1_2
I0618 17:42:58.244732 20043 net.cpp:425] bn_c_1_2 <- conv_c_1_1
I0618 17:42:58.244742 20043 net.cpp:399] bn_c_1_2 -> bn_c_1_2
I0618 17:42:58.244910 20043 net.cpp:141] Setting up bn_c_1_2
I0618 17:42:58.244920 20043 net.cpp:148] Top shape: 128 64 32 32 (8388608)
I0618 17:42:58.244925 20043 net.cpp:156] Memory required for data: 941097472
I0618 17:42:58.244936 20043 layer_factory.hpp:77] Creating layer sc_c_1_2
I0618 17:42:58.244945 20043 net.cpp:91] Creating Layer sc_c_1_2
I0618 17:42:58.244949 20043 net.cpp:425] sc_c_1_2 <- bn_c_1_2
I0618 17:42:58.244956 20043 net.cpp:399] sc_c_1_2 -> sc_c_1_2
I0618 17:42:58.244994 20043 layer_factory.hpp:77] Creating layer sc_c_1_2
I0618 17:42:58.245095 20043 net.cpp:141] Setting up sc_c_1_2
I0618 17:42:58.245105 20043 net.cpp:148] Top shape: 128 64 32 32 (8388608)
I0618 17:42:58.245110 20043 net.cpp:156] Memory required for data: 974651904
I0618 17:42:58.245118 20043 layer_factory.hpp:77] Creating layer relu_c_1_2
I0618 17:42:58.245128 20043 net.cpp:91] Creating Layer relu_c_1_2
I0618 17:42:58.245136 20043 net.cpp:425] relu_c_1_2 <- sc_c_1_2
I0618 17:42:58.245141 20043 net.cpp:399] relu_c_1_2 -> relu_c_1_2
I0618 17:42:58.245441 20043 net.cpp:141] Setting up relu_c_1_2
I0618 17:42:58.245455 20043 net.cpp:148] Top shape: 128 64 32 32 (8388608)
I0618 17:42:58.245461 20043 net.cpp:156] Memory required for data: 1008206336
I0618 17:42:58.245466 20043 layer_factory.hpp:77] Creating layer conv_c_1_2
I0618 17:42:58.245481 20043 net.cpp:91] Creating Layer conv_c_1_2
I0618 17:42:58.245487 20043 net.cpp:425] conv_c_1_2 <- relu_c_1_2
I0618 17:42:58.245496 20043 net.cpp:399] conv_c_1_2 -> conv_c_1_2
I0618 17:42:58.247198 20043 net.cpp:141] Setting up conv_c_1_2
I0618 17:42:58.247217 20043 net.cpp:148] Top shape: 128 64 32 32 (8388608)
I0618 17:42:58.247225 20043 net.cpp:156] Memory required for data: 1041760768
I0618 17:42:58.247232 20043 layer_factory.hpp:77] Creating layer res_c
I0618 17:42:58.247246 20043 net.cpp:91] Creating Layer res_c
I0618 17:42:58.247252 20043 net.cpp:425] res_c <- conv0_conv0_0_split_5
I0618 17:42:58.247262 20043 net.cpp:399] res_c -> res_c
I0618 17:42:58.248155 20043 net.cpp:141] Setting up res_c
I0618 17:42:58.248169 20043 net.cpp:148] Top shape: 128 64 32 32 (8388608)
I0618 17:42:58.248174 20043 net.cpp:156] Memory required for data: 1075315200
I0618 17:42:58.248181 20043 layer_factory.hpp:77] Creating layer elt_c_1
I0618 17:42:58.248191 20043 net.cpp:91] Creating Layer elt_c_1
I0618 17:42:58.248198 20043 net.cpp:425] elt_c_1 <- res_c
I0618 17:42:58.248203 20043 net.cpp:425] elt_c_1 <- conv_c_1_2
I0618 17:42:58.248211 20043 net.cpp:399] elt_c_1 -> elt_c_1
I0618 17:42:58.248240 20043 net.cpp:141] Setting up elt_c_1
I0618 17:42:58.248248 20043 net.cpp:148] Top shape: 128 64 32 32 (8388608)
I0618 17:42:58.248252 20043 net.cpp:156] Memory required for data: 1108869632
I0618 17:42:58.248256 20043 layer_factory.hpp:77] Creating layer elt_c_1_elt_c_1_0_split
I0618 17:42:58.248263 20043 net.cpp:91] Creating Layer elt_c_1_elt_c_1_0_split
I0618 17:42:58.248268 20043 net.cpp:425] elt_c_1_elt_c_1_0_split <- elt_c_1
I0618 17:42:58.248275 20043 net.cpp:399] elt_c_1_elt_c_1_0_split -> elt_c_1_elt_c_1_0_split_0
I0618 17:42:58.248284 20043 net.cpp:399] elt_c_1_elt_c_1_0_split -> elt_c_1_elt_c_1_0_split_1
I0618 17:42:58.248292 20043 net.cpp:399] elt_c_1_elt_c_1_0_split -> elt_c_1_elt_c_1_0_split_2
I0618 17:42:58.248299 20043 net.cpp:399] elt_c_1_elt_c_1_0_split -> elt_c_1_elt_c_1_0_split_3
I0618 17:42:58.248355 20043 net.cpp:141] Setting up elt_c_1_elt_c_1_0_split
I0618 17:42:58.248376 20043 net.cpp:148] Top shape: 128 64 32 32 (8388608)
I0618 17:42:58.248384 20043 net.cpp:148] Top shape: 128 64 32 32 (8388608)
I0618 17:42:58.248389 20043 net.cpp:148] Top shape: 128 64 32 32 (8388608)
I0618 17:42:58.248394 20043 net.cpp:148] Top shape: 128 64 32 32 (8388608)
I0618 17:42:58.248399 20043 net.cpp:156] Memory required for data: 1243087360
I0618 17:42:58.248402 20043 layer_factory.hpp:77] Creating layer bn_d_1_1
I0618 17:42:58.248412 20043 net.cpp:91] Creating Layer bn_d_1_1
I0618 17:42:58.248417 20043 net.cpp:425] bn_d_1_1 <- elt_a_1_elt_a_1_0_split_0
I0618 17:42:58.248427 20043 net.cpp:399] bn_d_1_1 -> bn_d_1_1
I0618 17:42:58.248591 20043 net.cpp:141] Setting up bn_d_1_1
I0618 17:42:58.248601 20043 net.cpp:148] Top shape: 128 64 32 32 (8388608)
I0618 17:42:58.248606 20043 net.cpp:156] Memory required for data: 1276641792
I0618 17:42:58.248615 20043 layer_factory.hpp:77] Creating layer sc_d_1_1
I0618 17:42:58.248625 20043 net.cpp:91] Creating Layer sc_d_1_1
I0618 17:42:58.248631 20043 net.cpp:425] sc_d_1_1 <- bn_d_1_1
I0618 17:42:58.248637 20043 net.cpp:399] sc_d_1_1 -> sc_d_1_1
I0618 17:42:58.248678 20043 layer_factory.hpp:77] Creating layer sc_d_1_1
I0618 17:42:58.248782 20043 net.cpp:141] Setting up sc_d_1_1
I0618 17:42:58.248792 20043 net.cpp:148] Top shape: 128 64 32 32 (8388608)
I0618 17:42:58.248797 20043 net.cpp:156] Memory required for data: 1310196224
I0618 17:42:58.248806 20043 layer_factory.hpp:77] Creating layer relu_d_1_1
I0618 17:42:58.248814 20043 net.cpp:91] Creating Layer relu_d_1_1
I0618 17:42:58.248821 20043 net.cpp:425] relu_d_1_1 <- sc_d_1_1
I0618 17:42:58.248829 20043 net.cpp:399] relu_d_1_1 -> relu_d_1_1
I0618 17:42:58.248991 20043 net.cpp:141] Setting up relu_d_1_1
I0618 17:42:58.249002 20043 net.cpp:148] Top shape: 128 64 32 32 (8388608)
I0618 17:42:58.249008 20043 net.cpp:156] Memory required for data: 1343750656
I0618 17:42:58.249014 20043 layer_factory.hpp:77] Creating layer conv_d_1_1
I0618 17:42:58.249030 20043 net.cpp:91] Creating Layer conv_d_1_1
I0618 17:42:58.249037 20043 net.cpp:425] conv_d_1_1 <- relu_d_1_1
I0618 17:42:58.249047 20043 net.cpp:399] conv_d_1_1 -> conv_d_1_1
I0618 17:42:58.252249 20043 net.cpp:141] Setting up conv_d_1_1
I0618 17:42:58.252276 20043 net.cpp:148] Top shape: 128 128 16 16 (4194304)
I0618 17:42:58.252282 20043 net.cpp:156] Memory required for data: 1360527872
I0618 17:42:58.252290 20043 layer_factory.hpp:77] Creating layer bn_d_1_2
I0618 17:42:58.252300 20043 net.cpp:91] Creating Layer bn_d_1_2
I0618 17:42:58.252307 20043 net.cpp:425] bn_d_1_2 <- conv_d_1_1
I0618 17:42:58.252317 20043 net.cpp:399] bn_d_1_2 -> bn_d_1_2
I0618 17:42:58.252483 20043 net.cpp:141] Setting up bn_d_1_2
I0618 17:42:58.252493 20043 net.cpp:148] Top shape: 128 128 16 16 (4194304)
I0618 17:42:58.252499 20043 net.cpp:156] Memory required for data: 1377305088
I0618 17:42:58.252509 20043 layer_factory.hpp:77] Creating layer sc_d_1_2
I0618 17:42:58.252519 20043 net.cpp:91] Creating Layer sc_d_1_2
I0618 17:42:58.252526 20043 net.cpp:425] sc_d_1_2 <- bn_d_1_2
I0618 17:42:58.252534 20043 net.cpp:399] sc_d_1_2 -> sc_d_1_2
I0618 17:42:58.252571 20043 layer_factory.hpp:77] Creating layer sc_d_1_2
I0618 17:42:58.252666 20043 net.cpp:141] Setting up sc_d_1_2
I0618 17:42:58.252676 20043 net.cpp:148] Top shape: 128 128 16 16 (4194304)
I0618 17:42:58.252682 20043 net.cpp:156] Memory required for data: 1394082304
I0618 17:42:58.252691 20043 layer_factory.hpp:77] Creating layer relu_d_1_2
I0618 17:42:58.252698 20043 net.cpp:91] Creating Layer relu_d_1_2
I0618 17:42:58.252704 20043 net.cpp:425] relu_d_1_2 <- sc_d_1_2
I0618 17:42:58.252712 20043 net.cpp:399] relu_d_1_2 -> relu_d_1_2
I0618 17:42:58.252979 20043 net.cpp:141] Setting up relu_d_1_2
I0618 17:42:58.252991 20043 net.cpp:148] Top shape: 128 128 16 16 (4194304)
I0618 17:42:58.252997 20043 net.cpp:156] Memory required for data: 1410859520
I0618 17:42:58.253003 20043 layer_factory.hpp:77] Creating layer conv_d_1_2
I0618 17:42:58.253018 20043 net.cpp:91] Creating Layer conv_d_1_2
I0618 17:42:58.253026 20043 net.cpp:425] conv_d_1_2 <- relu_d_1_2
I0618 17:42:58.253046 20043 net.cpp:399] conv_d_1_2 -> conv_d_1_2
I0618 17:42:58.257318 20043 net.cpp:141] Setting up conv_d_1_2
I0618 17:42:58.257333 20043 net.cpp:148] Top shape: 128 128 16 16 (4194304)
I0618 17:42:58.257340 20043 net.cpp:156] Memory required for data: 1427636736
I0618 17:42:58.257349 20043 layer_factory.hpp:77] Creating layer res_d
I0618 17:42:58.257361 20043 net.cpp:91] Creating Layer res_d
I0618 17:42:58.257367 20043 net.cpp:425] res_d <- elt_a_1_elt_a_1_0_split_1
I0618 17:42:58.257377 20043 net.cpp:399] res_d -> res_d
I0618 17:42:58.258335 20043 net.cpp:141] Setting up res_d
I0618 17:42:58.258349 20043 net.cpp:148] Top shape: 128 128 16 16 (4194304)
I0618 17:42:58.258354 20043 net.cpp:156] Memory required for data: 1444413952
I0618 17:42:58.258373 20043 layer_factory.hpp:77] Creating layer elt_d_1
I0618 17:42:58.258383 20043 net.cpp:91] Creating Layer elt_d_1
I0618 17:42:58.258390 20043 net.cpp:425] elt_d_1 <- res_d
I0618 17:42:58.258396 20043 net.cpp:425] elt_d_1 <- conv_d_1_2
I0618 17:42:58.258404 20043 net.cpp:399] elt_d_1 -> elt_d_1
I0618 17:42:58.258429 20043 net.cpp:141] Setting up elt_d_1
I0618 17:42:58.258438 20043 net.cpp:148] Top shape: 128 128 16 16 (4194304)
I0618 17:42:58.258445 20043 net.cpp:156] Memory required for data: 1461191168
I0618 17:42:58.258450 20043 layer_factory.hpp:77] Creating layer bn_f_1_1
I0618 17:42:58.258458 20043 net.cpp:91] Creating Layer bn_f_1_1
I0618 17:42:58.258462 20043 net.cpp:425] bn_f_1_1 <- elt_b_1_elt_b_1_0_split_0
I0618 17:42:58.258471 20043 net.cpp:399] bn_f_1_1 -> bn_f_1_1
I0618 17:42:58.258641 20043 net.cpp:141] Setting up bn_f_1_1
I0618 17:42:58.258651 20043 net.cpp:148] Top shape: 128 64 32 32 (8388608)
I0618 17:42:58.258657 20043 net.cpp:156] Memory required for data: 1494745600
I0618 17:42:58.258666 20043 layer_factory.hpp:77] Creating layer sc_f_1_1
I0618 17:42:58.258678 20043 net.cpp:91] Creating Layer sc_f_1_1
I0618 17:42:58.258684 20043 net.cpp:425] sc_f_1_1 <- bn_f_1_1
I0618 17:42:58.258693 20043 net.cpp:399] sc_f_1_1 -> sc_f_1_1
I0618 17:42:58.258731 20043 layer_factory.hpp:77] Creating layer sc_f_1_1
I0618 17:42:58.258841 20043 net.cpp:141] Setting up sc_f_1_1
I0618 17:42:58.258852 20043 net.cpp:148] Top shape: 128 64 32 32 (8388608)
I0618 17:42:58.258858 20043 net.cpp:156] Memory required for data: 1528300032
I0618 17:42:58.258867 20043 layer_factory.hpp:77] Creating layer relu_f_1_1
I0618 17:42:58.258873 20043 net.cpp:91] Creating Layer relu_f_1_1
I0618 17:42:58.258880 20043 net.cpp:425] relu_f_1_1 <- sc_f_1_1
I0618 17:42:58.258888 20043 net.cpp:399] relu_f_1_1 -> relu_f_1_1
I0618 17:42:58.259158 20043 net.cpp:141] Setting up relu_f_1_1
I0618 17:42:58.259171 20043 net.cpp:148] Top shape: 128 64 32 32 (8388608)
I0618 17:42:58.259177 20043 net.cpp:156] Memory required for data: 1561854464
I0618 17:42:58.259182 20043 layer_factory.hpp:77] Creating layer conv_f_1_1
I0618 17:42:58.259196 20043 net.cpp:91] Creating Layer conv_f_1_1
I0618 17:42:58.259202 20043 net.cpp:425] conv_f_1_1 <- relu_f_1_1
I0618 17:42:58.259213 20043 net.cpp:399] conv_f_1_1 -> conv_f_1_1
I0618 17:42:58.262300 20043 net.cpp:141] Setting up conv_f_1_1
I0618 17:42:58.262316 20043 net.cpp:148] Top shape: 128 128 16 16 (4194304)
I0618 17:42:58.262321 20043 net.cpp:156] Memory required for data: 1578631680
I0618 17:42:58.262329 20043 layer_factory.hpp:77] Creating layer bn_f_1_2
I0618 17:42:58.262339 20043 net.cpp:91] Creating Layer bn_f_1_2
I0618 17:42:58.262344 20043 net.cpp:425] bn_f_1_2 <- conv_f_1_1
I0618 17:42:58.262351 20043 net.cpp:399] bn_f_1_2 -> bn_f_1_2
I0618 17:42:58.262519 20043 net.cpp:141] Setting up bn_f_1_2
I0618 17:42:58.262529 20043 net.cpp:148] Top shape: 128 128 16 16 (4194304)
I0618 17:42:58.262536 20043 net.cpp:156] Memory required for data: 1595408896
I0618 17:42:58.262545 20043 layer_factory.hpp:77] Creating layer sc_f_1_2
I0618 17:42:58.262559 20043 net.cpp:91] Creating Layer sc_f_1_2
I0618 17:42:58.262564 20043 net.cpp:425] sc_f_1_2 <- bn_f_1_2
I0618 17:42:58.262572 20043 net.cpp:399] sc_f_1_2 -> sc_f_1_2
I0618 17:42:58.262620 20043 layer_factory.hpp:77] Creating layer sc_f_1_2
I0618 17:42:58.262719 20043 net.cpp:141] Setting up sc_f_1_2
I0618 17:42:58.262730 20043 net.cpp:148] Top shape: 128 128 16 16 (4194304)
I0618 17:42:58.262735 20043 net.cpp:156] Memory required for data: 1612186112
I0618 17:42:58.262743 20043 layer_factory.hpp:77] Creating layer relu_f_1_2
I0618 17:42:58.262753 20043 net.cpp:91] Creating Layer relu_f_1_2
I0618 17:42:58.262758 20043 net.cpp:425] relu_f_1_2 <- sc_f_1_2
I0618 17:42:58.262766 20043 net.cpp:399] relu_f_1_2 -> relu_f_1_2
I0618 17:42:58.262929 20043 net.cpp:141] Setting up relu_f_1_2
I0618 17:42:58.262941 20043 net.cpp:148] Top shape: 128 128 16 16 (4194304)
I0618 17:42:58.262946 20043 net.cpp:156] Memory required for data: 1628963328
I0618 17:42:58.262953 20043 layer_factory.hpp:77] Creating layer conv_f_1_2
I0618 17:42:58.262965 20043 net.cpp:91] Creating Layer conv_f_1_2
I0618 17:42:58.262971 20043 net.cpp:425] conv_f_1_2 <- relu_f_1_2
I0618 17:42:58.262980 20043 net.cpp:399] conv_f_1_2 -> conv_f_1_2
I0618 17:42:58.267241 20043 net.cpp:141] Setting up conv_f_1_2
I0618 17:42:58.267256 20043 net.cpp:148] Top shape: 128 128 16 16 (4194304)
I0618 17:42:58.267261 20043 net.cpp:156] Memory required for data: 1645740544
I0618 17:42:58.267269 20043 layer_factory.hpp:77] Creating layer res_f
I0618 17:42:58.267282 20043 net.cpp:91] Creating Layer res_f
I0618 17:42:58.267287 20043 net.cpp:425] res_f <- elt_b_1_elt_b_1_0_split_1
I0618 17:42:58.267297 20043 net.cpp:399] res_f -> res_f
I0618 17:42:58.268358 20043 net.cpp:141] Setting up res_f
I0618 17:42:58.268373 20043 net.cpp:148] Top shape: 128 128 16 16 (4194304)
I0618 17:42:58.268378 20043 net.cpp:156] Memory required for data: 1662517760
I0618 17:42:58.268385 20043 layer_factory.hpp:77] Creating layer elt_f_1
I0618 17:42:58.268398 20043 net.cpp:91] Creating Layer elt_f_1
I0618 17:42:58.268402 20043 net.cpp:425] elt_f_1 <- res_f
I0618 17:42:58.268409 20043 net.cpp:425] elt_f_1 <- conv_f_1_2
I0618 17:42:58.268415 20043 net.cpp:399] elt_f_1 -> elt_f_1
I0618 17:42:58.268440 20043 net.cpp:141] Setting up elt_f_1
I0618 17:42:58.268450 20043 net.cpp:148] Top shape: 128 128 16 16 (4194304)
I0618 17:42:58.268455 20043 net.cpp:156] Memory required for data: 1679294976
I0618 17:42:58.268460 20043 layer_factory.hpp:77] Creating layer bn_g_1_1
I0618 17:42:58.268471 20043 net.cpp:91] Creating Layer bn_g_1_1
I0618 17:42:58.268476 20043 net.cpp:425] bn_g_1_1 <- elt_b_1_elt_b_1_0_split_2
I0618 17:42:58.268483 20043 net.cpp:399] bn_g_1_1 -> bn_g_1_1
I0618 17:42:58.268662 20043 net.cpp:141] Setting up bn_g_1_1
I0618 17:42:58.268673 20043 net.cpp:148] Top shape: 128 64 32 32 (8388608)
I0618 17:42:58.268678 20043 net.cpp:156] Memory required for data: 1712849408
I0618 17:42:58.268690 20043 layer_factory.hpp:77] Creating layer sc_g_1_1
I0618 17:42:58.268699 20043 net.cpp:91] Creating Layer sc_g_1_1
I0618 17:42:58.268707 20043 net.cpp:425] sc_g_1_1 <- bn_g_1_1
I0618 17:42:58.268713 20043 net.cpp:399] sc_g_1_1 -> sc_g_1_1
I0618 17:42:58.268754 20043 layer_factory.hpp:77] Creating layer sc_g_1_1
I0618 17:42:58.268860 20043 net.cpp:141] Setting up sc_g_1_1
I0618 17:42:58.268870 20043 net.cpp:148] Top shape: 128 64 32 32 (8388608)
I0618 17:42:58.268877 20043 net.cpp:156] Memory required for data: 1746403840
I0618 17:42:58.268883 20043 layer_factory.hpp:77] Creating layer relu_g_1_1
I0618 17:42:58.268892 20043 net.cpp:91] Creating Layer relu_g_1_1
I0618 17:42:58.268898 20043 net.cpp:425] relu_g_1_1 <- sc_g_1_1
I0618 17:42:58.268906 20043 net.cpp:399] relu_g_1_1 -> relu_g_1_1
I0618 17:42:58.269073 20043 net.cpp:141] Setting up relu_g_1_1
I0618 17:42:58.269085 20043 net.cpp:148] Top shape: 128 64 32 32 (8388608)
I0618 17:42:58.269091 20043 net.cpp:156] Memory required for data: 1779958272
I0618 17:42:58.269098 20043 layer_factory.hpp:77] Creating layer conv_g_1_1
I0618 17:42:58.269111 20043 net.cpp:91] Creating Layer conv_g_1_1
I0618 17:42:58.269117 20043 net.cpp:425] conv_g_1_1 <- relu_g_1_1
I0618 17:42:58.269124 20043 net.cpp:399] conv_g_1_1 -> conv_g_1_1
I0618 17:42:58.272377 20043 net.cpp:141] Setting up conv_g_1_1
I0618 17:42:58.272393 20043 net.cpp:148] Top shape: 128 128 16 16 (4194304)
I0618 17:42:58.272398 20043 net.cpp:156] Memory required for data: 1796735488
I0618 17:42:58.272406 20043 layer_factory.hpp:77] Creating layer bn_g_1_2
I0618 17:42:58.272418 20043 net.cpp:91] Creating Layer bn_g_1_2
I0618 17:42:58.272423 20043 net.cpp:425] bn_g_1_2 <- conv_g_1_1
I0618 17:42:58.272431 20043 net.cpp:399] bn_g_1_2 -> bn_g_1_2
I0618 17:42:58.272605 20043 net.cpp:141] Setting up bn_g_1_2
I0618 17:42:58.272616 20043 net.cpp:148] Top shape: 128 128 16 16 (4194304)
I0618 17:42:58.272624 20043 net.cpp:156] Memory required for data: 1813512704
I0618 17:42:58.272641 20043 layer_factory.hpp:77] Creating layer sc_g_1_2
I0618 17:42:58.272655 20043 net.cpp:91] Creating Layer sc_g_1_2
I0618 17:42:58.272663 20043 net.cpp:425] sc_g_1_2 <- bn_g_1_2
I0618 17:42:58.272671 20043 net.cpp:399] sc_g_1_2 -> sc_g_1_2
I0618 17:42:58.272713 20043 layer_factory.hpp:77] Creating layer sc_g_1_2
I0618 17:42:58.272812 20043 net.cpp:141] Setting up sc_g_1_2
I0618 17:42:58.272822 20043 net.cpp:148] Top shape: 128 128 16 16 (4194304)
I0618 17:42:58.272826 20043 net.cpp:156] Memory required for data: 1830289920
I0618 17:42:58.272836 20043 layer_factory.hpp:77] Creating layer relu_g_1_2
I0618 17:42:58.272848 20043 net.cpp:91] Creating Layer relu_g_1_2
I0618 17:42:58.272855 20043 net.cpp:425] relu_g_1_2 <- sc_g_1_2
I0618 17:42:58.272862 20043 net.cpp:399] relu_g_1_2 -> relu_g_1_2
I0618 17:42:58.273138 20043 net.cpp:141] Setting up relu_g_1_2
I0618 17:42:58.273151 20043 net.cpp:148] Top shape: 128 128 16 16 (4194304)
I0618 17:42:58.273155 20043 net.cpp:156] Memory required for data: 1847067136
I0618 17:42:58.273160 20043 layer_factory.hpp:77] Creating layer conv_g_1_2
I0618 17:42:58.273172 20043 net.cpp:91] Creating Layer conv_g_1_2
I0618 17:42:58.273178 20043 net.cpp:425] conv_g_1_2 <- relu_g_1_2
I0618 17:42:58.273190 20043 net.cpp:399] conv_g_1_2 -> conv_g_1_2
I0618 17:42:58.277370 20043 net.cpp:141] Setting up conv_g_1_2
I0618 17:42:58.277385 20043 net.cpp:148] Top shape: 128 128 16 16 (4194304)
I0618 17:42:58.277390 20043 net.cpp:156] Memory required for data: 1863844352
I0618 17:42:58.277405 20043 layer_factory.hpp:77] Creating layer res_g
I0618 17:42:58.277437 20043 net.cpp:91] Creating Layer res_g
I0618 17:42:58.277448 20043 net.cpp:425] res_g <- elt_b_1_elt_b_1_0_split_3
I0618 17:42:58.277467 20043 net.cpp:399] res_g -> res_g
I0618 17:42:58.278544 20043 net.cpp:141] Setting up res_g
I0618 17:42:58.278563 20043 net.cpp:148] Top shape: 128 128 16 16 (4194304)
I0618 17:42:58.278570 20043 net.cpp:156] Memory required for data: 1880621568
I0618 17:42:58.278589 20043 layer_factory.hpp:77] Creating layer elt_g_1
I0618 17:42:58.278602 20043 net.cpp:91] Creating Layer elt_g_1
I0618 17:42:58.278609 20043 net.cpp:425] elt_g_1 <- res_g
I0618 17:42:58.278616 20043 net.cpp:425] elt_g_1 <- conv_g_1_2
I0618 17:42:58.278626 20043 net.cpp:399] elt_g_1 -> elt_g_1
I0618 17:42:58.278652 20043 net.cpp:141] Setting up elt_g_1
I0618 17:42:58.278662 20043 net.cpp:148] Top shape: 128 128 16 16 (4194304)
I0618 17:42:58.278667 20043 net.cpp:156] Memory required for data: 1897398784
I0618 17:42:58.278673 20043 layer_factory.hpp:77] Creating layer bn_h_1_1
I0618 17:42:58.278683 20043 net.cpp:91] Creating Layer bn_h_1_1
I0618 17:42:58.278690 20043 net.cpp:425] bn_h_1_1 <- elt_c_1_elt_c_1_0_split_0
I0618 17:42:58.278698 20043 net.cpp:399] bn_h_1_1 -> bn_h_1_1
I0618 17:42:58.278883 20043 net.cpp:141] Setting up bn_h_1_1
I0618 17:42:58.278894 20043 net.cpp:148] Top shape: 128 64 32 32 (8388608)
I0618 17:42:58.278899 20043 net.cpp:156] Memory required for data: 1930953216
I0618 17:42:58.278909 20043 layer_factory.hpp:77] Creating layer sc_h_1_1
I0618 17:42:58.278918 20043 net.cpp:91] Creating Layer sc_h_1_1
I0618 17:42:58.278925 20043 net.cpp:425] sc_h_1_1 <- bn_h_1_1
I0618 17:42:58.278933 20043 net.cpp:399] sc_h_1_1 -> sc_h_1_1
I0618 17:42:58.278972 20043 layer_factory.hpp:77] Creating layer sc_h_1_1
I0618 17:42:58.279083 20043 net.cpp:141] Setting up sc_h_1_1
I0618 17:42:58.279104 20043 net.cpp:148] Top shape: 128 64 32 32 (8388608)
I0618 17:42:58.279110 20043 net.cpp:156] Memory required for data: 1964507648
I0618 17:42:58.279119 20043 layer_factory.hpp:77] Creating layer relu_h_1_1
I0618 17:42:58.279131 20043 net.cpp:91] Creating Layer relu_h_1_1
I0618 17:42:58.279137 20043 net.cpp:425] relu_h_1_1 <- sc_h_1_1
I0618 17:42:58.279145 20043 net.cpp:399] relu_h_1_1 -> relu_h_1_1
I0618 17:42:58.279420 20043 net.cpp:141] Setting up relu_h_1_1
I0618 17:42:58.279435 20043 net.cpp:148] Top shape: 128 64 32 32 (8388608)
I0618 17:42:58.279441 20043 net.cpp:156] Memory required for data: 1998062080
I0618 17:42:58.279448 20043 layer_factory.hpp:77] Creating layer conv_h_1_1
I0618 17:42:58.279461 20043 net.cpp:91] Creating Layer conv_h_1_1
I0618 17:42:58.279469 20043 net.cpp:425] conv_h_1_1 <- relu_h_1_1
I0618 17:42:58.279477 20043 net.cpp:399] conv_h_1_1 -> conv_h_1_1
I0618 17:42:58.282572 20043 net.cpp:141] Setting up conv_h_1_1
I0618 17:42:58.282588 20043 net.cpp:148] Top shape: 128 128 16 16 (4194304)
I0618 17:42:58.282593 20043 net.cpp:156] Memory required for data: 2014839296
I0618 17:42:58.282608 20043 layer_factory.hpp:77] Creating layer bn_h_1_2
I0618 17:42:58.282625 20043 net.cpp:91] Creating Layer bn_h_1_2
I0618 17:42:58.282636 20043 net.cpp:425] bn_h_1_2 <- conv_h_1_1
I0618 17:42:58.282655 20043 net.cpp:399] bn_h_1_2 -> bn_h_1_2
I0618 17:42:58.282843 20043 net.cpp:141] Setting up bn_h_1_2
I0618 17:42:58.282857 20043 net.cpp:148] Top shape: 128 128 16 16 (4194304)
I0618 17:42:58.282866 20043 net.cpp:156] Memory required for data: 2031616512
I0618 17:42:58.282882 20043 layer_factory.hpp:77] Creating layer sc_h_1_2
I0618 17:42:58.282892 20043 net.cpp:91] Creating Layer sc_h_1_2
I0618 17:42:58.282898 20043 net.cpp:425] sc_h_1_2 <- bn_h_1_2
I0618 17:42:58.282908 20043 net.cpp:399] sc_h_1_2 -> sc_h_1_2
I0618 17:42:58.282948 20043 layer_factory.hpp:77] Creating layer sc_h_1_2
I0618 17:42:58.283049 20043 net.cpp:141] Setting up sc_h_1_2
I0618 17:42:58.283059 20043 net.cpp:148] Top shape: 128 128 16 16 (4194304)
I0618 17:42:58.283066 20043 net.cpp:156] Memory required for data: 2048393728
I0618 17:42:58.283073 20043 layer_factory.hpp:77] Creating layer relu_h_1_2
I0618 17:42:58.283082 20043 net.cpp:91] Creating Layer relu_h_1_2
I0618 17:42:58.283087 20043 net.cpp:425] relu_h_1_2 <- sc_h_1_2
I0618 17:42:58.283097 20043 net.cpp:399] relu_h_1_2 -> relu_h_1_2
I0618 17:42:58.283267 20043 net.cpp:141] Setting up relu_h_1_2
I0618 17:42:58.283278 20043 net.cpp:148] Top shape: 128 128 16 16 (4194304)
I0618 17:42:58.283283 20043 net.cpp:156] Memory required for data: 2065170944
I0618 17:42:58.283289 20043 layer_factory.hpp:77] Creating layer conv_h_1_2
I0618 17:42:58.283303 20043 net.cpp:91] Creating Layer conv_h_1_2
I0618 17:42:58.283308 20043 net.cpp:425] conv_h_1_2 <- relu_h_1_2
I0618 17:42:58.283319 20043 net.cpp:399] conv_h_1_2 -> conv_h_1_2
I0618 17:42:58.287621 20043 net.cpp:141] Setting up conv_h_1_2
I0618 17:42:58.287636 20043 net.cpp:148] Top shape: 128 128 16 16 (4194304)
I0618 17:42:58.287641 20043 net.cpp:156] Memory required for data: 2081948160
I0618 17:42:58.287652 20043 layer_factory.hpp:77] Creating layer res_h
I0618 17:42:58.287667 20043 net.cpp:91] Creating Layer res_h
I0618 17:42:58.287673 20043 net.cpp:425] res_h <- elt_c_1_elt_c_1_0_split_1
I0618 17:42:58.287683 20043 net.cpp:399] res_h -> res_h
I0618 17:42:58.288764 20043 net.cpp:141] Setting up res_h
I0618 17:42:58.288780 20043 net.cpp:148] Top shape: 128 128 16 16 (4194304)
I0618 17:42:58.288785 20043 net.cpp:156] Memory required for data: 2098725376
I0618 17:42:58.288794 20043 layer_factory.hpp:77] Creating layer elt_h_1
I0618 17:42:58.288801 20043 net.cpp:91] Creating Layer elt_h_1
I0618 17:42:58.288806 20043 net.cpp:425] elt_h_1 <- res_h
I0618 17:42:58.288812 20043 net.cpp:425] elt_h_1 <- conv_h_1_2
I0618 17:42:58.288821 20043 net.cpp:399] elt_h_1 -> elt_h_1
I0618 17:42:58.288849 20043 net.cpp:141] Setting up elt_h_1
I0618 17:42:58.288859 20043 net.cpp:148] Top shape: 128 128 16 16 (4194304)
I0618 17:42:58.288875 20043 net.cpp:156] Memory required for data: 2115502592
I0618 17:42:58.288882 20043 layer_factory.hpp:77] Creating layer bn_i_1_1
I0618 17:42:58.288890 20043 net.cpp:91] Creating Layer bn_i_1_1
I0618 17:42:58.288897 20043 net.cpp:425] bn_i_1_1 <- elt_c_1_elt_c_1_0_split_2
I0618 17:42:58.288905 20043 net.cpp:399] bn_i_1_1 -> bn_i_1_1
I0618 17:42:58.289096 20043 net.cpp:141] Setting up bn_i_1_1
I0618 17:42:58.289108 20043 net.cpp:148] Top shape: 128 64 32 32 (8388608)
I0618 17:42:58.289113 20043 net.cpp:156] Memory required for data: 2149057024
I0618 17:42:58.289122 20043 layer_factory.hpp:77] Creating layer sc_i_1_1
I0618 17:42:58.289131 20043 net.cpp:91] Creating Layer sc_i_1_1
I0618 17:42:58.289137 20043 net.cpp:425] sc_i_1_1 <- bn_i_1_1
I0618 17:42:58.289147 20043 net.cpp:399] sc_i_1_1 -> sc_i_1_1
I0618 17:42:58.289191 20043 layer_factory.hpp:77] Creating layer sc_i_1_1
I0618 17:42:58.289302 20043 net.cpp:141] Setting up sc_i_1_1
I0618 17:42:58.289312 20043 net.cpp:148] Top shape: 128 64 32 32 (8388608)
I0618 17:42:58.289319 20043 net.cpp:156] Memory required for data: 2182611456
I0618 17:42:58.289327 20043 layer_factory.hpp:77] Creating layer relu_i_1_1
I0618 17:42:58.289336 20043 net.cpp:91] Creating Layer relu_i_1_1
I0618 17:42:58.289343 20043 net.cpp:425] relu_i_1_1 <- sc_i_1_1
I0618 17:42:58.289350 20043 net.cpp:399] relu_i_1_1 -> relu_i_1_1
I0618 17:42:58.289528 20043 net.cpp:141] Setting up relu_i_1_1
I0618 17:42:58.289541 20043 net.cpp:148] Top shape: 128 64 32 32 (8388608)
I0618 17:42:58.289546 20043 net.cpp:156] Memory required for data: 2216165888
I0618 17:42:58.289552 20043 layer_factory.hpp:77] Creating layer conv_i_1_1
I0618 17:42:58.289566 20043 net.cpp:91] Creating Layer conv_i_1_1
I0618 17:42:58.289572 20043 net.cpp:425] conv_i_1_1 <- relu_i_1_1
I0618 17:42:58.289583 20043 net.cpp:399] conv_i_1_1 -> conv_i_1_1
I0618 17:42:58.292687 20043 net.cpp:141] Setting up conv_i_1_1
I0618 17:42:58.292702 20043 net.cpp:148] Top shape: 128 128 16 16 (4194304)
I0618 17:42:58.292707 20043 net.cpp:156] Memory required for data: 2232943104
I0618 17:42:58.292718 20043 layer_factory.hpp:77] Creating layer bn_i_1_2
I0618 17:42:58.292728 20043 net.cpp:91] Creating Layer bn_i_1_2
I0618 17:42:58.292734 20043 net.cpp:425] bn_i_1_2 <- conv_i_1_1
I0618 17:42:58.292743 20043 net.cpp:399] bn_i_1_2 -> bn_i_1_2
I0618 17:42:58.292924 20043 net.cpp:141] Setting up bn_i_1_2
I0618 17:42:58.292934 20043 net.cpp:148] Top shape: 128 128 16 16 (4194304)
I0618 17:42:58.292940 20043 net.cpp:156] Memory required for data: 2249720320
I0618 17:42:58.292949 20043 layer_factory.hpp:77] Creating layer sc_i_1_2
I0618 17:42:58.292961 20043 net.cpp:91] Creating Layer sc_i_1_2
I0618 17:42:58.292968 20043 net.cpp:425] sc_i_1_2 <- bn_i_1_2
I0618 17:42:58.292979 20043 net.cpp:399] sc_i_1_2 -> sc_i_1_2
I0618 17:42:58.293018 20043 layer_factory.hpp:77] Creating layer sc_i_1_2
I0618 17:42:58.293126 20043 net.cpp:141] Setting up sc_i_1_2
I0618 17:42:58.293136 20043 net.cpp:148] Top shape: 128 128 16 16 (4194304)
I0618 17:42:58.293143 20043 net.cpp:156] Memory required for data: 2266497536
I0618 17:42:58.293151 20043 layer_factory.hpp:77] Creating layer relu_i_1_2
I0618 17:42:58.293159 20043 net.cpp:91] Creating Layer relu_i_1_2
I0618 17:42:58.293165 20043 net.cpp:425] relu_i_1_2 <- sc_i_1_2
I0618 17:42:58.293174 20043 net.cpp:399] relu_i_1_2 -> relu_i_1_2
I0618 17:42:58.293442 20043 net.cpp:141] Setting up relu_i_1_2
I0618 17:42:58.293457 20043 net.cpp:148] Top shape: 128 128 16 16 (4194304)
I0618 17:42:58.293462 20043 net.cpp:156] Memory required for data: 2283274752
I0618 17:42:58.293468 20043 layer_factory.hpp:77] Creating layer conv_i_1_2
I0618 17:42:58.293483 20043 net.cpp:91] Creating Layer conv_i_1_2
I0618 17:42:58.293489 20043 net.cpp:425] conv_i_1_2 <- relu_i_1_2
I0618 17:42:58.293498 20043 net.cpp:399] conv_i_1_2 -> conv_i_1_2
I0618 17:42:58.297704 20043 net.cpp:141] Setting up conv_i_1_2
I0618 17:42:58.297721 20043 net.cpp:148] Top shape: 128 128 16 16 (4194304)
I0618 17:42:58.297726 20043 net.cpp:156] Memory required for data: 2300051968
I0618 17:42:58.297744 20043 layer_factory.hpp:77] Creating layer res_i
I0618 17:42:58.297763 20043 net.cpp:91] Creating Layer res_i
I0618 17:42:58.297773 20043 net.cpp:425] res_i <- elt_c_1_elt_c_1_0_split_3
I0618 17:42:58.297781 20043 net.cpp:399] res_i -> res_i
I0618 17:42:58.298929 20043 net.cpp:141] Setting up res_i
I0618 17:42:58.298944 20043 net.cpp:148] Top shape: 128 128 16 16 (4194304)
I0618 17:42:58.298949 20043 net.cpp:156] Memory required for data: 2316829184
I0618 17:42:58.298971 20043 layer_factory.hpp:77] Creating layer elt_i_1
I0618 17:42:58.298982 20043 net.cpp:91] Creating Layer elt_i_1
I0618 17:42:58.298988 20043 net.cpp:425] elt_i_1 <- res_i
I0618 17:42:58.298995 20043 net.cpp:425] elt_i_1 <- conv_i_1_2
I0618 17:42:58.299002 20043 net.cpp:399] elt_i_1 -> elt_i_1
I0618 17:42:58.299028 20043 net.cpp:141] Setting up elt_i_1
I0618 17:42:58.299038 20043 net.cpp:148] Top shape: 128 128 16 16 (4194304)
I0618 17:42:58.299044 20043 net.cpp:156] Memory required for data: 2333606400
I0618 17:42:58.299049 20043 layer_factory.hpp:77] Creating layer elt_d_f
I0618 17:42:58.299057 20043 net.cpp:91] Creating Layer elt_d_f
I0618 17:42:58.299063 20043 net.cpp:425] elt_d_f <- elt_d_1
I0618 17:42:58.299069 20043 net.cpp:425] elt_d_f <- elt_f_1
I0618 17:42:58.299077 20043 net.cpp:399] elt_d_f -> elt_d_f
I0618 17:42:58.299106 20043 net.cpp:141] Setting up elt_d_f
I0618 17:42:58.299116 20043 net.cpp:148] Top shape: 128 128 16 16 (4194304)
I0618 17:42:58.299121 20043 net.cpp:156] Memory required for data: 2350383616
I0618 17:42:58.299127 20043 layer_factory.hpp:77] Creating layer elt_d_f_elt_d_f_0_split
I0618 17:42:58.299135 20043 net.cpp:91] Creating Layer elt_d_f_elt_d_f_0_split
I0618 17:42:58.299140 20043 net.cpp:425] elt_d_f_elt_d_f_0_split <- elt_d_f
I0618 17:42:58.299150 20043 net.cpp:399] elt_d_f_elt_d_f_0_split -> elt_d_f_elt_d_f_0_split_0
I0618 17:42:58.299160 20043 net.cpp:399] elt_d_f_elt_d_f_0_split -> elt_d_f_elt_d_f_0_split_1
I0618 17:42:58.299198 20043 net.cpp:141] Setting up elt_d_f_elt_d_f_0_split
I0618 17:42:58.299209 20043 net.cpp:148] Top shape: 128 128 16 16 (4194304)
I0618 17:42:58.299216 20043 net.cpp:148] Top shape: 128 128 16 16 (4194304)
I0618 17:42:58.299221 20043 net.cpp:156] Memory required for data: 2383938048
I0618 17:42:58.299227 20043 layer_factory.hpp:77] Creating layer elt_g_i
I0618 17:42:58.299233 20043 net.cpp:91] Creating Layer elt_g_i
I0618 17:42:58.299239 20043 net.cpp:425] elt_g_i <- elt_g_1
I0618 17:42:58.299245 20043 net.cpp:425] elt_g_i <- elt_i_1
I0618 17:42:58.299252 20043 net.cpp:399] elt_g_i -> elt_g_i
I0618 17:42:58.299279 20043 net.cpp:141] Setting up elt_g_i
I0618 17:42:58.299289 20043 net.cpp:148] Top shape: 128 128 16 16 (4194304)
I0618 17:42:58.299294 20043 net.cpp:156] Memory required for data: 2400715264
I0618 17:42:58.299299 20043 layer_factory.hpp:77] Creating layer elt_g_i_elt_g_i_0_split
I0618 17:42:58.299309 20043 net.cpp:91] Creating Layer elt_g_i_elt_g_i_0_split
I0618 17:42:58.299314 20043 net.cpp:425] elt_g_i_elt_g_i_0_split <- elt_g_i
I0618 17:42:58.299321 20043 net.cpp:399] elt_g_i_elt_g_i_0_split -> elt_g_i_elt_g_i_0_split_0
I0618 17:42:58.299329 20043 net.cpp:399] elt_g_i_elt_g_i_0_split -> elt_g_i_elt_g_i_0_split_1
I0618 17:42:58.299368 20043 net.cpp:141] Setting up elt_g_i_elt_g_i_0_split
I0618 17:42:58.299378 20043 net.cpp:148] Top shape: 128 128 16 16 (4194304)
I0618 17:42:58.299384 20043 net.cpp:148] Top shape: 128 128 16 16 (4194304)
I0618 17:42:58.299389 20043 net.cpp:156] Memory required for data: 2434269696
I0618 17:42:58.299396 20043 layer_factory.hpp:77] Creating layer bn_j_1_1
I0618 17:42:58.299408 20043 net.cpp:91] Creating Layer bn_j_1_1
I0618 17:42:58.299414 20043 net.cpp:425] bn_j_1_1 <- elt_d_f_elt_d_f_0_split_0
I0618 17:42:58.299422 20043 net.cpp:399] bn_j_1_1 -> bn_j_1_1
I0618 17:42:58.299597 20043 net.cpp:141] Setting up bn_j_1_1
I0618 17:42:58.299608 20043 net.cpp:148] Top shape: 128 128 16 16 (4194304)
I0618 17:42:58.299613 20043 net.cpp:156] Memory required for data: 2451046912
I0618 17:42:58.299623 20043 layer_factory.hpp:77] Creating layer sc_j_1_1
I0618 17:42:58.299644 20043 net.cpp:91] Creating Layer sc_j_1_1
I0618 17:42:58.299652 20043 net.cpp:425] sc_j_1_1 <- bn_j_1_1
I0618 17:42:58.299660 20043 net.cpp:399] sc_j_1_1 -> sc_j_1_1
I0618 17:42:58.299700 20043 layer_factory.hpp:77] Creating layer sc_j_1_1
I0618 17:42:58.299804 20043 net.cpp:141] Setting up sc_j_1_1
I0618 17:42:58.299818 20043 net.cpp:148] Top shape: 128 128 16 16 (4194304)
I0618 17:42:58.299821 20043 net.cpp:156] Memory required for data: 2467824128
I0618 17:42:58.299829 20043 layer_factory.hpp:77] Creating layer relu_j_1_1
I0618 17:42:58.299836 20043 net.cpp:91] Creating Layer relu_j_1_1
I0618 17:42:58.299840 20043 net.cpp:425] relu_j_1_1 <- sc_j_1_1
I0618 17:42:58.299852 20043 net.cpp:399] relu_j_1_1 -> relu_j_1_1
I0618 17:42:58.300139 20043 net.cpp:141] Setting up relu_j_1_1
I0618 17:42:58.300155 20043 net.cpp:148] Top shape: 128 128 16 16 (4194304)
I0618 17:42:58.300164 20043 net.cpp:156] Memory required for data: 2484601344
I0618 17:42:58.300175 20043 layer_factory.hpp:77] Creating layer conv_j_1_1
I0618 17:42:58.300192 20043 net.cpp:91] Creating Layer conv_j_1_1
I0618 17:42:58.300199 20043 net.cpp:425] conv_j_1_1 <- relu_j_1_1
I0618 17:42:58.300209 20043 net.cpp:399] conv_j_1_1 -> conv_j_1_1
I0618 17:42:58.308594 20043 net.cpp:141] Setting up conv_j_1_1
I0618 17:42:58.308609 20043 net.cpp:148] Top shape: 128 256 8 8 (2097152)
I0618 17:42:58.308614 20043 net.cpp:156] Memory required for data: 2492989952
I0618 17:42:58.308622 20043 layer_factory.hpp:77] Creating layer bn_j_1_2
I0618 17:42:58.308635 20043 net.cpp:91] Creating Layer bn_j_1_2
I0618 17:42:58.308640 20043 net.cpp:425] bn_j_1_2 <- conv_j_1_1
I0618 17:42:58.308650 20043 net.cpp:399] bn_j_1_2 -> bn_j_1_2
I0618 17:42:58.308845 20043 net.cpp:141] Setting up bn_j_1_2
I0618 17:42:58.308856 20043 net.cpp:148] Top shape: 128 256 8 8 (2097152)
I0618 17:42:58.308861 20043 net.cpp:156] Memory required for data: 2501378560
I0618 17:42:58.308871 20043 layer_factory.hpp:77] Creating layer sc_j_1_2
I0618 17:42:58.308877 20043 net.cpp:91] Creating Layer sc_j_1_2
I0618 17:42:58.308884 20043 net.cpp:425] sc_j_1_2 <- bn_j_1_2
I0618 17:42:58.308893 20043 net.cpp:399] sc_j_1_2 -> sc_j_1_2
I0618 17:42:58.308933 20043 layer_factory.hpp:77] Creating layer sc_j_1_2
I0618 17:42:58.309043 20043 net.cpp:141] Setting up sc_j_1_2
I0618 17:42:58.309056 20043 net.cpp:148] Top shape: 128 256 8 8 (2097152)
I0618 17:42:58.309062 20043 net.cpp:156] Memory required for data: 2509767168
I0618 17:42:58.309069 20043 layer_factory.hpp:77] Creating layer relu_j_1_2
I0618 17:42:58.309077 20043 net.cpp:91] Creating Layer relu_j_1_2
I0618 17:42:58.309083 20043 net.cpp:425] relu_j_1_2 <- sc_j_1_2
I0618 17:42:58.309090 20043 net.cpp:399] relu_j_1_2 -> relu_j_1_2
I0618 17:42:58.309262 20043 net.cpp:141] Setting up relu_j_1_2
I0618 17:42:58.309275 20043 net.cpp:148] Top shape: 128 256 8 8 (2097152)
I0618 17:42:58.309281 20043 net.cpp:156] Memory required for data: 2518155776
I0618 17:42:58.309288 20043 layer_factory.hpp:77] Creating layer conv_j_1_2
I0618 17:42:58.309299 20043 net.cpp:91] Creating Layer conv_j_1_2
I0618 17:42:58.309306 20043 net.cpp:425] conv_j_1_2 <- relu_j_1_2
I0618 17:42:58.309315 20043 net.cpp:399] conv_j_1_2 -> conv_j_1_2
I0618 17:42:58.324846 20043 net.cpp:141] Setting up conv_j_1_2
I0618 17:42:58.324861 20043 net.cpp:148] Top shape: 128 256 8 8 (2097152)
I0618 17:42:58.324877 20043 net.cpp:156] Memory required for data: 2526544384
I0618 17:42:58.324885 20043 layer_factory.hpp:77] Creating layer res_j
I0618 17:42:58.324898 20043 net.cpp:91] Creating Layer res_j
I0618 17:42:58.324904 20043 net.cpp:425] res_j <- elt_d_f_elt_d_f_0_split_1
I0618 17:42:58.324916 20043 net.cpp:399] res_j -> res_j
I0618 17:42:58.326763 20043 net.cpp:141] Setting up res_j
I0618 17:42:58.326793 20043 net.cpp:148] Top shape: 128 256 8 8 (2097152)
I0618 17:42:58.326799 20043 net.cpp:156] Memory required for data: 2534932992
I0618 17:42:58.326807 20043 layer_factory.hpp:77] Creating layer elt_j_1
I0618 17:42:58.326815 20043 net.cpp:91] Creating Layer elt_j_1
I0618 17:42:58.326833 20043 net.cpp:425] elt_j_1 <- res_j
I0618 17:42:58.326839 20043 net.cpp:425] elt_j_1 <- conv_j_1_2
I0618 17:42:58.326848 20043 net.cpp:399] elt_j_1 -> elt_j_1
I0618 17:42:58.326881 20043 net.cpp:141] Setting up elt_j_1
I0618 17:42:58.326891 20043 net.cpp:148] Top shape: 128 256 8 8 (2097152)
I0618 17:42:58.326897 20043 net.cpp:156] Memory required for data: 2543321600
I0618 17:42:58.326902 20043 layer_factory.hpp:77] Creating layer bn_e_1_1
I0618 17:42:58.326912 20043 net.cpp:91] Creating Layer bn_e_1_1
I0618 17:42:58.326920 20043 net.cpp:425] bn_e_1_1 <- elt_a_1_elt_a_1_0_split_2
I0618 17:42:58.326930 20043 net.cpp:399] bn_e_1_1 -> bn_e_1_1
I0618 17:42:58.327131 20043 net.cpp:141] Setting up bn_e_1_1
I0618 17:42:58.327141 20043 net.cpp:148] Top shape: 128 64 32 32 (8388608)
I0618 17:42:58.327147 20043 net.cpp:156] Memory required for data: 2576876032
I0618 17:42:58.327157 20043 layer_factory.hpp:77] Creating layer sc_e_1_1
I0618 17:42:58.327167 20043 net.cpp:91] Creating Layer sc_e_1_1
I0618 17:42:58.327173 20043 net.cpp:425] sc_e_1_1 <- bn_e_1_1
I0618 17:42:58.327181 20043 net.cpp:399] sc_e_1_1 -> sc_e_1_1
I0618 17:42:58.327222 20043 layer_factory.hpp:77] Creating layer sc_e_1_1
I0618 17:42:58.327340 20043 net.cpp:141] Setting up sc_e_1_1
I0618 17:42:58.327352 20043 net.cpp:148] Top shape: 128 64 32 32 (8388608)
I0618 17:42:58.327356 20043 net.cpp:156] Memory required for data: 2610430464
I0618 17:42:58.327365 20043 layer_factory.hpp:77] Creating layer relu_e_1_1
I0618 17:42:58.327373 20043 net.cpp:91] Creating Layer relu_e_1_1
I0618 17:42:58.327379 20043 net.cpp:425] relu_e_1_1 <- sc_e_1_1
I0618 17:42:58.327388 20043 net.cpp:399] relu_e_1_1 -> relu_e_1_1
I0618 17:42:58.327570 20043 net.cpp:141] Setting up relu_e_1_1
I0618 17:42:58.327582 20043 net.cpp:148] Top shape: 128 64 32 32 (8388608)
I0618 17:42:58.327587 20043 net.cpp:156] Memory required for data: 2643984896
I0618 17:42:58.327594 20043 layer_factory.hpp:77] Creating layer conv_e_1_1
I0618 17:42:58.327606 20043 net.cpp:91] Creating Layer conv_e_1_1
I0618 17:42:58.327613 20043 net.cpp:425] conv_e_1_1 <- relu_e_1_1
I0618 17:42:58.327623 20043 net.cpp:399] conv_e_1_1 -> conv_e_1_1
I0618 17:42:58.330760 20043 net.cpp:141] Setting up conv_e_1_1
I0618 17:42:58.330775 20043 net.cpp:148] Top shape: 128 128 16 16 (4194304)
I0618 17:42:58.330781 20043 net.cpp:156] Memory required for data: 2660762112
I0618 17:42:58.330790 20043 layer_factory.hpp:77] Creating layer bn_e_1_2
I0618 17:42:58.330801 20043 net.cpp:91] Creating Layer bn_e_1_2
I0618 17:42:58.330808 20043 net.cpp:425] bn_e_1_2 <- conv_e_1_1
I0618 17:42:58.330816 20043 net.cpp:399] bn_e_1_2 -> bn_e_1_2
I0618 17:42:58.331007 20043 net.cpp:141] Setting up bn_e_1_2
I0618 17:42:58.331018 20043 net.cpp:148] Top shape: 128 128 16 16 (4194304)
I0618 17:42:58.331023 20043 net.cpp:156] Memory required for data: 2677539328
I0618 17:42:58.331033 20043 layer_factory.hpp:77] Creating layer sc_e_1_2
I0618 17:42:58.331053 20043 net.cpp:91] Creating Layer sc_e_1_2
I0618 17:42:58.331059 20043 net.cpp:425] sc_e_1_2 <- bn_e_1_2
I0618 17:42:58.331068 20043 net.cpp:399] sc_e_1_2 -> sc_e_1_2
I0618 17:42:58.331109 20043 layer_factory.hpp:77] Creating layer sc_e_1_2
I0618 17:42:58.331218 20043 net.cpp:141] Setting up sc_e_1_2
I0618 17:42:58.331228 20043 net.cpp:148] Top shape: 128 128 16 16 (4194304)
I0618 17:42:58.331233 20043 net.cpp:156] Memory required for data: 2694316544
I0618 17:42:58.331240 20043 layer_factory.hpp:77] Creating layer relu_e_1_2
I0618 17:42:58.331250 20043 net.cpp:91] Creating Layer relu_e_1_2
I0618 17:42:58.331256 20043 net.cpp:425] relu_e_1_2 <- sc_e_1_2
I0618 17:42:58.331264 20043 net.cpp:399] relu_e_1_2 -> relu_e_1_2
I0618 17:42:58.331547 20043 net.cpp:141] Setting up relu_e_1_2
I0618 17:42:58.331563 20043 net.cpp:148] Top shape: 128 128 16 16 (4194304)
I0618 17:42:58.331573 20043 net.cpp:156] Memory required for data: 2711093760
I0618 17:42:58.331603 20043 layer_factory.hpp:77] Creating layer conv_e_1_2
I0618 17:42:58.331624 20043 net.cpp:91] Creating Layer conv_e_1_2
I0618 17:42:58.331637 20043 net.cpp:425] conv_e_1_2 <- relu_e_1_2
I0618 17:42:58.331670 20043 net.cpp:399] conv_e_1_2 -> conv_e_1_2
I0618 17:42:58.335976 20043 net.cpp:141] Setting up conv_e_1_2
I0618 17:42:58.335994 20043 net.cpp:148] Top shape: 128 128 16 16 (4194304)
I0618 17:42:58.336004 20043 net.cpp:156] Memory required for data: 2727870976
I0618 17:42:58.336033 20043 layer_factory.hpp:77] Creating layer res_e
I0618 17:42:58.336050 20043 net.cpp:91] Creating Layer res_e
I0618 17:42:58.336056 20043 net.cpp:425] res_e <- elt_a_1_elt_a_1_0_split_3
I0618 17:42:58.336063 20043 net.cpp:399] res_e -> res_e
I0618 17:42:58.337220 20043 net.cpp:141] Setting up res_e
I0618 17:42:58.337234 20043 net.cpp:148] Top shape: 128 128 16 16 (4194304)
I0618 17:42:58.337239 20043 net.cpp:156] Memory required for data: 2744648192
I0618 17:42:58.337247 20043 layer_factory.hpp:77] Creating layer elt_e_1
I0618 17:42:58.337256 20043 net.cpp:91] Creating Layer elt_e_1
I0618 17:42:58.337262 20043 net.cpp:425] elt_e_1 <- res_e
I0618 17:42:58.337270 20043 net.cpp:425] elt_e_1 <- conv_e_1_2
I0618 17:42:58.337280 20043 net.cpp:399] elt_e_1 -> elt_e_1
I0618 17:42:58.337306 20043 net.cpp:141] Setting up elt_e_1
I0618 17:42:58.337316 20043 net.cpp:148] Top shape: 128 128 16 16 (4194304)
I0618 17:42:58.337321 20043 net.cpp:156] Memory required for data: 2761425408
I0618 17:42:58.337327 20043 layer_factory.hpp:77] Creating layer elt_e_h
I0618 17:42:58.337337 20043 net.cpp:91] Creating Layer elt_e_h
I0618 17:42:58.337343 20043 net.cpp:425] elt_e_h <- elt_e_1
I0618 17:42:58.337350 20043 net.cpp:425] elt_e_h <- elt_h_1
I0618 17:42:58.337357 20043 net.cpp:399] elt_e_h -> elt_e_h
I0618 17:42:58.337390 20043 net.cpp:141] Setting up elt_e_h
I0618 17:42:58.337400 20043 net.cpp:148] Top shape: 128 128 16 16 (4194304)
I0618 17:42:58.337405 20043 net.cpp:156] Memory required for data: 2778202624
I0618 17:42:58.337411 20043 layer_factory.hpp:77] Creating layer elt_e_h_elt_e_h_0_split
I0618 17:42:58.337419 20043 net.cpp:91] Creating Layer elt_e_h_elt_e_h_0_split
I0618 17:42:58.337424 20043 net.cpp:425] elt_e_h_elt_e_h_0_split <- elt_e_h
I0618 17:42:58.337432 20043 net.cpp:399] elt_e_h_elt_e_h_0_split -> elt_e_h_elt_e_h_0_split_0
I0618 17:42:58.337453 20043 net.cpp:399] elt_e_h_elt_e_h_0_split -> elt_e_h_elt_e_h_0_split_1
I0618 17:42:58.337496 20043 net.cpp:141] Setting up elt_e_h_elt_e_h_0_split
I0618 17:42:58.337508 20043 net.cpp:148] Top shape: 128 128 16 16 (4194304)
I0618 17:42:58.337515 20043 net.cpp:148] Top shape: 128 128 16 16 (4194304)
I0618 17:42:58.337520 20043 net.cpp:156] Memory required for data: 2811757056
I0618 17:42:58.337527 20043 layer_factory.hpp:77] Creating layer bn_k_1_1
I0618 17:42:58.337535 20043 net.cpp:91] Creating Layer bn_k_1_1
I0618 17:42:58.337540 20043 net.cpp:425] bn_k_1_1 <- elt_e_h_elt_e_h_0_split_0
I0618 17:42:58.337550 20043 net.cpp:399] bn_k_1_1 -> bn_k_1_1
I0618 17:42:58.337740 20043 net.cpp:141] Setting up bn_k_1_1
I0618 17:42:58.337751 20043 net.cpp:148] Top shape: 128 128 16 16 (4194304)
I0618 17:42:58.337760 20043 net.cpp:156] Memory required for data: 2828534272
I0618 17:42:58.337771 20043 layer_factory.hpp:77] Creating layer sc_k_1_1
I0618 17:42:58.337779 20043 net.cpp:91] Creating Layer sc_k_1_1
I0618 17:42:58.337785 20043 net.cpp:425] sc_k_1_1 <- bn_k_1_1
I0618 17:42:58.337795 20043 net.cpp:399] sc_k_1_1 -> sc_k_1_1
I0618 17:42:58.337836 20043 layer_factory.hpp:77] Creating layer sc_k_1_1
I0618 17:42:58.337950 20043 net.cpp:141] Setting up sc_k_1_1
I0618 17:42:58.337961 20043 net.cpp:148] Top shape: 128 128 16 16 (4194304)
I0618 17:42:58.337967 20043 net.cpp:156] Memory required for data: 2845311488
I0618 17:42:58.337975 20043 layer_factory.hpp:77] Creating layer relu_k_1_1
I0618 17:42:58.337983 20043 net.cpp:91] Creating Layer relu_k_1_1
I0618 17:42:58.337990 20043 net.cpp:425] relu_k_1_1 <- sc_k_1_1
I0618 17:42:58.337998 20043 net.cpp:399] relu_k_1_1 -> relu_k_1_1
I0618 17:42:58.338284 20043 net.cpp:141] Setting up relu_k_1_1
I0618 17:42:58.338299 20043 net.cpp:148] Top shape: 128 128 16 16 (4194304)
I0618 17:42:58.338309 20043 net.cpp:156] Memory required for data: 2862088704
I0618 17:42:58.338333 20043 layer_factory.hpp:77] Creating layer conv_k_1_1
I0618 17:42:58.338356 20043 net.cpp:91] Creating Layer conv_k_1_1
I0618 17:42:58.338363 20043 net.cpp:425] conv_k_1_1 <- relu_k_1_1
I0618 17:42:58.338374 20043 net.cpp:399] conv_k_1_1 -> conv_k_1_1
I0618 17:42:58.346717 20043 net.cpp:141] Setting up conv_k_1_1
I0618 17:42:58.346745 20043 net.cpp:148] Top shape: 128 256 8 8 (2097152)
I0618 17:42:58.346750 20043 net.cpp:156] Memory required for data: 2870477312
I0618 17:42:58.346758 20043 layer_factory.hpp:77] Creating layer bn_k_1_2
I0618 17:42:58.346766 20043 net.cpp:91] Creating Layer bn_k_1_2
I0618 17:42:58.346773 20043 net.cpp:425] bn_k_1_2 <- conv_k_1_1
I0618 17:42:58.346783 20043 net.cpp:399] bn_k_1_2 -> bn_k_1_2
I0618 17:42:58.346983 20043 net.cpp:141] Setting up bn_k_1_2
I0618 17:42:58.346994 20043 net.cpp:148] Top shape: 128 256 8 8 (2097152)
I0618 17:42:58.347000 20043 net.cpp:156] Memory required for data: 2878865920
I0618 17:42:58.347009 20043 layer_factory.hpp:77] Creating layer sc_k_1_2
I0618 17:42:58.347019 20043 net.cpp:91] Creating Layer sc_k_1_2
I0618 17:42:58.347025 20043 net.cpp:425] sc_k_1_2 <- bn_k_1_2
I0618 17:42:58.347033 20043 net.cpp:399] sc_k_1_2 -> sc_k_1_2
I0618 17:42:58.347074 20043 layer_factory.hpp:77] Creating layer sc_k_1_2
I0618 17:42:58.347192 20043 net.cpp:141] Setting up sc_k_1_2
I0618 17:42:58.347201 20043 net.cpp:148] Top shape: 128 256 8 8 (2097152)
I0618 17:42:58.347208 20043 net.cpp:156] Memory required for data: 2887254528
I0618 17:42:58.347214 20043 layer_factory.hpp:77] Creating layer relu_k_1_2
I0618 17:42:58.347221 20043 net.cpp:91] Creating Layer relu_k_1_2
I0618 17:42:58.347226 20043 net.cpp:425] relu_k_1_2 <- sc_k_1_2
I0618 17:42:58.347234 20043 net.cpp:399] relu_k_1_2 -> relu_k_1_2
I0618 17:42:58.347517 20043 net.cpp:141] Setting up relu_k_1_2
I0618 17:42:58.347532 20043 net.cpp:148] Top shape: 128 256 8 8 (2097152)
I0618 17:42:58.347537 20043 net.cpp:156] Memory required for data: 2895643136
I0618 17:42:58.347542 20043 layer_factory.hpp:77] Creating layer conv_k_1_2
I0618 17:42:58.347556 20043 net.cpp:91] Creating Layer conv_k_1_2
I0618 17:42:58.347563 20043 net.cpp:425] conv_k_1_2 <- relu_k_1_2
I0618 17:42:58.347573 20043 net.cpp:399] conv_k_1_2 -> conv_k_1_2
I0618 17:42:58.363240 20043 net.cpp:141] Setting up conv_k_1_2
I0618 17:42:58.363256 20043 net.cpp:148] Top shape: 128 256 8 8 (2097152)
I0618 17:42:58.363261 20043 net.cpp:156] Memory required for data: 2904031744
I0618 17:42:58.363270 20043 layer_factory.hpp:77] Creating layer res_k
I0618 17:42:58.363283 20043 net.cpp:91] Creating Layer res_k
I0618 17:42:58.363296 20043 net.cpp:425] res_k <- elt_e_h_elt_e_h_0_split_1
I0618 17:42:58.363304 20043 net.cpp:399] res_k -> res_k
I0618 17:42:58.365353 20043 net.cpp:141] Setting up res_k
I0618 17:42:58.365370 20043 net.cpp:148] Top shape: 128 256 8 8 (2097152)
I0618 17:42:58.365375 20043 net.cpp:156] Memory required for data: 2912420352
I0618 17:42:58.365383 20043 layer_factory.hpp:77] Creating layer elt_k_1
I0618 17:42:58.365391 20043 net.cpp:91] Creating Layer elt_k_1
I0618 17:42:58.365396 20043 net.cpp:425] elt_k_1 <- res_k
I0618 17:42:58.365403 20043 net.cpp:425] elt_k_1 <- conv_k_1_2
I0618 17:42:58.365411 20043 net.cpp:399] elt_k_1 -> elt_k_1
I0618 17:42:58.365447 20043 net.cpp:141] Setting up elt_k_1
I0618 17:42:58.365456 20043 net.cpp:148] Top shape: 128 256 8 8 (2097152)
I0618 17:42:58.365463 20043 net.cpp:156] Memory required for data: 2920808960
I0618 17:42:58.365468 20043 layer_factory.hpp:77] Creating layer bn_l_1_1
I0618 17:42:58.365478 20043 net.cpp:91] Creating Layer bn_l_1_1
I0618 17:42:58.365484 20043 net.cpp:425] bn_l_1_1 <- elt_g_i_elt_g_i_0_split_0
I0618 17:42:58.365494 20043 net.cpp:399] bn_l_1_1 -> bn_l_1_1
I0618 17:42:58.365694 20043 net.cpp:141] Setting up bn_l_1_1
I0618 17:42:58.365705 20043 net.cpp:148] Top shape: 128 128 16 16 (4194304)
I0618 17:42:58.365710 20043 net.cpp:156] Memory required for data: 2937586176
I0618 17:42:58.365720 20043 layer_factory.hpp:77] Creating layer sc_l_1_1
I0618 17:42:58.365739 20043 net.cpp:91] Creating Layer sc_l_1_1
I0618 17:42:58.365746 20043 net.cpp:425] sc_l_1_1 <- bn_l_1_1
I0618 17:42:58.365753 20043 net.cpp:399] sc_l_1_1 -> sc_l_1_1
I0618 17:42:58.365808 20043 layer_factory.hpp:77] Creating layer sc_l_1_1
I0618 17:42:58.365923 20043 net.cpp:141] Setting up sc_l_1_1
I0618 17:42:58.365934 20043 net.cpp:148] Top shape: 128 128 16 16 (4194304)
I0618 17:42:58.365939 20043 net.cpp:156] Memory required for data: 2954363392
I0618 17:42:58.365948 20043 layer_factory.hpp:77] Creating layer relu_l_1_1
I0618 17:42:58.365958 20043 net.cpp:91] Creating Layer relu_l_1_1
I0618 17:42:58.365964 20043 net.cpp:425] relu_l_1_1 <- sc_l_1_1
I0618 17:42:58.365974 20043 net.cpp:399] relu_l_1_1 -> relu_l_1_1
I0618 17:42:58.366153 20043 net.cpp:141] Setting up relu_l_1_1
I0618 17:42:58.366164 20043 net.cpp:148] Top shape: 128 128 16 16 (4194304)
I0618 17:42:58.366170 20043 net.cpp:156] Memory required for data: 2971140608
I0618 17:42:58.366176 20043 layer_factory.hpp:77] Creating layer conv_l_1_1
I0618 17:42:58.366191 20043 net.cpp:91] Creating Layer conv_l_1_1
I0618 17:42:58.366199 20043 net.cpp:425] conv_l_1_1 <- relu_l_1_1
I0618 17:42:58.366206 20043 net.cpp:399] conv_l_1_1 -> conv_l_1_1
I0618 17:42:58.374593 20043 net.cpp:141] Setting up conv_l_1_1
I0618 17:42:58.374619 20043 net.cpp:148] Top shape: 128 256 8 8 (2097152)
I0618 17:42:58.374625 20043 net.cpp:156] Memory required for data: 2979529216
I0618 17:42:58.374634 20043 layer_factory.hpp:77] Creating layer bn_l_1_2
I0618 17:42:58.374645 20043 net.cpp:91] Creating Layer bn_l_1_2
I0618 17:42:58.374652 20043 net.cpp:425] bn_l_1_2 <- conv_l_1_1
I0618 17:42:58.374660 20043 net.cpp:399] bn_l_1_2 -> bn_l_1_2
I0618 17:42:58.374866 20043 net.cpp:141] Setting up bn_l_1_2
I0618 17:42:58.374876 20043 net.cpp:148] Top shape: 128 256 8 8 (2097152)
I0618 17:42:58.374882 20043 net.cpp:156] Memory required for data: 2987917824
I0618 17:42:58.374891 20043 layer_factory.hpp:77] Creating layer sc_l_1_2
I0618 17:42:58.374898 20043 net.cpp:91] Creating Layer sc_l_1_2
I0618 17:42:58.374903 20043 net.cpp:425] sc_l_1_2 <- bn_l_1_2
I0618 17:42:58.374910 20043 net.cpp:399] sc_l_1_2 -> sc_l_1_2
I0618 17:42:58.374958 20043 layer_factory.hpp:77] Creating layer sc_l_1_2
I0618 17:42:58.375079 20043 net.cpp:141] Setting up sc_l_1_2
I0618 17:42:58.375090 20043 net.cpp:148] Top shape: 128 256 8 8 (2097152)
I0618 17:42:58.375097 20043 net.cpp:156] Memory required for data: 2996306432
I0618 17:42:58.375104 20043 layer_factory.hpp:77] Creating layer relu_l_1_2
I0618 17:42:58.375126 20043 net.cpp:91] Creating Layer relu_l_1_2
I0618 17:42:58.375133 20043 net.cpp:425] relu_l_1_2 <- sc_l_1_2
I0618 17:42:58.375143 20043 net.cpp:399] relu_l_1_2 -> relu_l_1_2
I0618 17:42:58.375320 20043 net.cpp:141] Setting up relu_l_1_2
I0618 17:42:58.375332 20043 net.cpp:148] Top shape: 128 256 8 8 (2097152)
I0618 17:42:58.375339 20043 net.cpp:156] Memory required for data: 3004695040
I0618 17:42:58.375344 20043 layer_factory.hpp:77] Creating layer conv_l_1_2
I0618 17:42:58.375358 20043 net.cpp:91] Creating Layer conv_l_1_2
I0618 17:42:58.375365 20043 net.cpp:425] conv_l_1_2 <- relu_l_1_2
I0618 17:42:58.375375 20043 net.cpp:399] conv_l_1_2 -> conv_l_1_2
I0618 17:42:58.391074 20043 net.cpp:141] Setting up conv_l_1_2
I0618 17:42:58.391090 20043 net.cpp:148] Top shape: 128 256 8 8 (2097152)
I0618 17:42:58.391095 20043 net.cpp:156] Memory required for data: 3013083648
I0618 17:42:58.391103 20043 layer_factory.hpp:77] Creating layer res_l
I0618 17:42:58.391119 20043 net.cpp:91] Creating Layer res_l
I0618 17:42:58.391125 20043 net.cpp:425] res_l <- elt_g_i_elt_g_i_0_split_1
I0618 17:42:58.391136 20043 net.cpp:399] res_l -> res_l
I0618 17:42:58.393008 20043 net.cpp:141] Setting up res_l
I0618 17:42:58.393023 20043 net.cpp:148] Top shape: 128 256 8 8 (2097152)
I0618 17:42:58.393028 20043 net.cpp:156] Memory required for data: 3021472256
I0618 17:42:58.393038 20043 layer_factory.hpp:77] Creating layer elt_l_1
I0618 17:42:58.393049 20043 net.cpp:91] Creating Layer elt_l_1
I0618 17:42:58.393056 20043 net.cpp:425] elt_l_1 <- res_l
I0618 17:42:58.393074 20043 net.cpp:425] elt_l_1 <- conv_l_1_2
I0618 17:42:58.393084 20043 net.cpp:399] elt_l_1 -> elt_l_1
I0618 17:42:58.393120 20043 net.cpp:141] Setting up elt_l_1
I0618 17:42:58.393129 20043 net.cpp:148] Top shape: 128 256 8 8 (2097152)
I0618 17:42:58.393136 20043 net.cpp:156] Memory required for data: 3029860864
I0618 17:42:58.393141 20043 layer_factory.hpp:77] Creating layer concat_j_k_l
I0618 17:42:58.393151 20043 net.cpp:91] Creating Layer concat_j_k_l
I0618 17:42:58.393156 20043 net.cpp:425] concat_j_k_l <- elt_j_1
I0618 17:42:58.393164 20043 net.cpp:425] concat_j_k_l <- elt_k_1
I0618 17:42:58.393172 20043 net.cpp:425] concat_j_k_l <- elt_l_1
I0618 17:42:58.393178 20043 net.cpp:399] concat_j_k_l -> elt_j_k_l
I0618 17:42:58.393218 20043 net.cpp:141] Setting up concat_j_k_l
I0618 17:42:58.393229 20043 net.cpp:148] Top shape: 128 768 8 8 (6291456)
I0618 17:42:58.393234 20043 net.cpp:156] Memory required for data: 3055026688
I0618 17:42:58.393239 20043 layer_factory.hpp:77] Creating layer bn_m_1_1
I0618 17:42:58.393247 20043 net.cpp:91] Creating Layer bn_m_1_1
I0618 17:42:58.393254 20043 net.cpp:425] bn_m_1_1 <- elt_j_k_l
I0618 17:42:58.393263 20043 net.cpp:399] bn_m_1_1 -> bn_m_1_1
I0618 17:42:58.393472 20043 net.cpp:141] Setting up bn_m_1_1
I0618 17:42:58.393482 20043 net.cpp:148] Top shape: 128 768 8 8 (6291456)
I0618 17:42:58.393488 20043 net.cpp:156] Memory required for data: 3080192512
I0618 17:42:58.393498 20043 layer_factory.hpp:77] Creating layer sc_m_1_1
I0618 17:42:58.393509 20043 net.cpp:91] Creating Layer sc_m_1_1
I0618 17:42:58.393515 20043 net.cpp:425] sc_m_1_1 <- bn_m_1_1
I0618 17:42:58.393523 20043 net.cpp:399] sc_m_1_1 -> sc_m_1_1
I0618 17:42:58.393564 20043 layer_factory.hpp:77] Creating layer sc_m_1_1
I0618 17:42:58.393697 20043 net.cpp:141] Setting up sc_m_1_1
I0618 17:42:58.393707 20043 net.cpp:148] Top shape: 128 768 8 8 (6291456)
I0618 17:42:58.393714 20043 net.cpp:156] Memory required for data: 3105358336
I0618 17:42:58.393721 20043 layer_factory.hpp:77] Creating layer relu_m_1_1
I0618 17:42:58.393729 20043 net.cpp:91] Creating Layer relu_m_1_1
I0618 17:42:58.393735 20043 net.cpp:425] relu_m_1_1 <- sc_m_1_1
I0618 17:42:58.393745 20043 net.cpp:399] relu_m_1_1 -> relu_m_1_1
I0618 17:42:58.394040 20043 net.cpp:141] Setting up relu_m_1_1
I0618 17:42:58.394054 20043 net.cpp:148] Top shape: 128 768 8 8 (6291456)
I0618 17:42:58.394059 20043 net.cpp:156] Memory required for data: 3130524160
I0618 17:42:58.394067 20043 layer_factory.hpp:77] Creating layer gap
I0618 17:42:58.394078 20043 net.cpp:91] Creating Layer gap
I0618 17:42:58.394083 20043 net.cpp:425] gap <- relu_m_1_1
I0618 17:42:58.394091 20043 net.cpp:399] gap -> gap
I0618 17:42:58.394312 20043 net.cpp:141] Setting up gap
I0618 17:42:58.394326 20043 net.cpp:148] Top shape: 128 768 1 1 (98304)
I0618 17:42:58.394332 20043 net.cpp:156] Memory required for data: 3130917376
I0618 17:42:58.394340 20043 layer_factory.hpp:77] Creating layer ip1
I0618 17:42:58.394350 20043 net.cpp:91] Creating Layer ip1
I0618 17:42:58.394354 20043 net.cpp:425] ip1 <- gap
I0618 17:42:58.394366 20043 net.cpp:399] ip1 -> ip1
I0618 17:42:58.394673 20043 net.cpp:141] Setting up ip1
I0618 17:42:58.394685 20043 net.cpp:148] Top shape: 128 10 (1280)
I0618 17:42:58.394690 20043 net.cpp:156] Memory required for data: 3130922496
I0618 17:42:58.394700 20043 layer_factory.hpp:77] Creating layer loss
I0618 17:42:58.394708 20043 net.cpp:91] Creating Layer loss
I0618 17:42:58.394714 20043 net.cpp:425] loss <- ip1
I0618 17:42:58.394721 20043 net.cpp:425] loss <- label
I0618 17:42:58.394729 20043 net.cpp:399] loss -> loss
I0618 17:42:58.394742 20043 layer_factory.hpp:77] Creating layer loss
…
I0618 17:42:58.399040 20043 net.cpp:313] The NetState phase (1) differed from the phase (0) specified by a rule in layer resnet
I0618 17:42:58.399770 20043 net.cpp:49] Initializing net from parameters: 
name: "ResNet"
state {
  phase: TEST
}
layer {
  name: "resnet"
  type: "Data"
  top: "data"
  top: "label"
  include {
    phase: TEST
  }
  transform_param {
    mean_file: "/home/takeki/caffe/examples/cifar10/mean.binaryproto"
  }
  data_param {
    source: "/home/takeki/caffe/examples/cifar10/cifar10_test_lmdb"
    batch_size: 100
    backend: LMDB
  }
}
layer {
  name: "conv0"
  type: "Convolution"
  bottom: "data"
  top: "conv0"
  param {
    lr_mult: 1
  }
  param {
    lr_mult: 2
  }
  convolution_param {
    num_output: 16
    pad: 1
    kernel_size: 3
    stride: 1
    weight_filler {
      type: "msra"
    }
    bias_filler {
      type: "constant"
    }
  }
}
layer {
  name: "bn_a_1_1"
  type: "BatchNorm"
  bottom: "conv0"
  top: "bn_a_1_1"
  param {
    lr_mult: 0
  }
  param {
    lr_mult: 0
  }
  param {
    lr_mult: 0
  }
  batch_norm_param {
    use_global_stats: false
  }
}
layer {
  name: "sc_a_1_1"
  type: "Scale"
  bottom: "bn_a_1_1"
  top: "sc_a_1_1"
  scale_param {
    bias_term: true
  }
}
layer {
  name: "relu_a_1_1"
  type: "ReLU"
  bottom: "sc_a_1_1"
  top: "relu_a_1_1"
}
layer {
  name: "conv_a_1_1"
  type: "Convolution"
  bottom: "relu_a_1_1"
  top: "conv_a_1_1"
  param {
    lr_mult: 1
    decay_mult: 1
  }
  param {
    lr_mult: 2
    decay_mult: 1
  }
  convolution_param {
    num_output: 64
    pad: 1
    kernel_size: 3
    stride: 1
    weight_filler {
      type: "msra"
    }
    bias_filler {
      type: "constant"
    }
  }
}
layer {
  name: "bn_a_1_2"
  type: "BatchNorm"
  bottom: "conv_a_1_1"
  top: "bn_a_1_2"
  param {
    lr_mult: 0
  }
  param {
    lr_mult: 0
  }
  param {
    lr_mult: 0
  }
  batch_norm_param {
    use_global_stats: false
  }
}
layer {
  name: "sc_a_1_2"
  type: "Scale"
  bottom: "bn_a_1_2"
  top: "sc_a_1_2"
  scale_param {
    bias_term: true
  }
}
layer {
  name: "relu_a_1_2"
  type: "ReLU"
  bottom: "sc_a_1_2"
  top: "relu_a_1_2"
}
layer {
  name: "conv_a_1_2"
  type: "Convolution"
  bottom: "relu_a_1_2"
  top: "conv_a_1_2"
  param {
    lr_mult: 1
    decay_mult: 1
  }
  param {
    lr_mult: 2
    decay_mult: 1
  }
  convolution_param {
    num_output: 64
    pad: 1
    kernel_size: 3
    stride: 1
    weight_filler {
      type: "msra"
    }
    bias_filler {
      type: "constant"
    }
  }
}
layer {
  name: "res_a"
  type: "Convolution"
  bottom: "conv0"
  top: "res_a"
  param {
    lr_mult: 1
    decay_mult: 1
  }
  param {
    lr_mult: 2
    decay_mult: 1
  }
  convolution_param {
    num_output: 64
    pad: 0
    kernel_size: 1
    stride: 1
    weight_filler {
      type: "msra"
    }
    bias_filler {
      type: "constant"
    }
  }
}
layer {
  name: "elt_a_1"
  type: "Eltwise"
  bottom: "res_a"
  bottom: "conv_a_1_2"
  top: "elt_a_1"
  eltwise_param {
    operation: SUM
  }
}
layer {
  name: "bn_b_1_1"
  type: "BatchNorm"
  bottom: "conv0"
  top: "bn_b_1_1"
  param {
    lr_mult: 0
  }
  param {
    lr_mult: 0
  }
  param {
    lr_mult: 0
  }
  batch_norm_param {
    use_global_stats: false
  }
}
layer {
  name: "sc_b_1_1"
  type: "Scale"
  bottom: "bn_b_1_1"
  top: "sc_b_1_1"
  scale_param {
    bias_term: true
  }
}
layer {
  name: "relu_b_1_1"
  type: "ReLU"
  bottom: "sc_b_1_1"
  top: "relu_b_1_1"
}
layer {
  name: "conv_b_1_1"
  type: "Convolution"
  bottom: "relu_b_1_1"
  top: "conv_b_1_1"
  param {
    lr_mult: 1
    decay_mult: 1
  }
  param {
    lr_mult: 2
    decay_mult: 1
  }
  convolution_param {
    num_output: 64
    pad: 1
    kernel_size: 3
    stride: 1
    weight_filler {
      type: "msra"
    }
    bias_filler {
      type: "constant"
    }
  }
}
layer {
  name: "bn_b_1_2"
  type: "BatchNorm"
  bottom: "conv_b_1_1"
  top: "bn_b_1_2"
  param {
    lr_mult: 0
  }
  param {
    lr_mult: 0
  }
  param {
    lr_mult: 0
  }
  batch_norm_param {
    use_global_stats: false
  }
}
layer {
  name: "sc_b_1_2"
  type: "Scale"
  bottom: "bn_b_1_2"
  top: "sc_b_1_2"
  scale_param {
    bias_term: true
  }
}
layer {
  name: "relu_b_1_2"
  type: "ReLU"
  bottom: "sc_b_1_2"
  top: "relu_b_1_2"
}
layer {
  name: "conv_b_1_2"
  type: "Convolution"
  bottom: "relu_b_1_2"
  top: "conv_b_1_2"
  param {
    lr_mult: 1
    decay_mult: 1
  }
  param {
    lr_mult: 2
    decay_mult: 1
  }
  convolution_param {
    num_output: 64
    pad: 1
    kernel_size: 3
    stride: 1
    weight_filler {
      type: "msra"
    }
    bias_filler {
      type: "constant"
    }
  }
}
layer {
  name: "res_b"
  type: "Convolution"
  bottom: "conv0"
  top: "res_b"
  param {
    lr_mult: 1
    decay_mult: 1
  }
  param {
    lr_mult: 2
    decay_mult: 1
  }
  convolution_param {
    num_output: 64
    pad: 0
    kernel_size: 1
    stride: 1
    weight_filler {
      type: "msra"
    }
    bias_filler {
      type: "constant"
    }
  }
}
layer {
  name: "elt_b_1"
  type: "Eltwise"
  bottom: "res_b"
  bottom: "conv_b_1_2"
  top: "elt_b_1"
  eltwise_param {
    operation: SUM
  }
}
layer {
  name: "bn_c_1_1"
  type: "BatchNorm"
  bottom: "conv0"
  top: "bn_c_1_1"
  param {
    lr_mult: 0
  }
  param {
    lr_mult: 0
  }
  param {
    lr_mult: 0
  }
  batch_norm_param {
    use_global_stats: false
  }
}
layer {
  name: "sc_c_1_1"
  type: "Scale"
  bottom: "bn_c_1_1"
  top: "sc_c_1_1"
  scale_param {
    bias_term: true
  }
}
layer {
  name: "relu_c_1_1"
  type: "ReLU"
  bottom: "sc_c_1_1"
  top: "relu_c_1_1"
}
layer {
  name: "conv_c_1_1"
  type: "Convolution"
  bottom: "relu_c_1_1"
  top: "conv_c_1_1"
  param {
    lr_mult: 1
    decay_mult: 1
  }
  param {
    lr_mult: 2
    decay_mult: 1
  }
  convolution_param {
    num_output: 64
    pad: 1
    kernel_size: 3
    stride: 1
    weight_filler {
      type: "msra"
    }
    bias_filler {
      type: "constant"
    }
  }
}
layer {
  name: "bn_c_1_2"
  type: "BatchNorm"
  bottom: "conv_c_1_1"
  top: "bn_c_1_2"
  param {
    lr_mult: 0
  }
  param {
    lr_mult: 0
  }
  param {
    lr_mult: 0
  }
  batch_norm_param {
    use_global_stats: false
  }
}
layer {
  name: "sc_c_1_2"
  type: "Scale"
  bottom: "bn_c_1_2"
  top: "sc_c_1_2"
  scale_param {
    bias_term: true
  }
}
layer {
  name: "relu_c_1_2"
  type: "ReLU"
  bottom: "sc_c_1_2"
  top: "relu_c_1_2"
}
layer {
  name: "conv_c_1_2"
  type: "Convolution"
  bottom: "relu_c_1_2"
  top: "conv_c_1_2"
  param {
    lr_mult: 1
    decay_mult: 1
  }
  param {
    lr_mult: 2
    decay_mult: 1
  }
  convolution_param {
    num_output: 64
    pad: 1
    kernel_size: 3
    stride: 1
    weight_filler {
      type: "msra"
    }
    bias_filler {
      type: "constant"
    }
  }
}
layer {
  name: "res_c"
  type: "Convolution"
  bottom: "conv0"
  top: "res_c"
  param {
    lr_mult: 1
    decay_mult: 1
  }
  param {
    lr_mult: 2
    decay_mult: 1
  }
  convolution_param {
    num_output: 64
    pad: 0
    kernel_size: 1
    stride: 1
    weight_filler {
      type: "msra"
    }
    bias_filler {
      type: "constant"
    }
  }
}
layer {
  name: "elt_c_1"
  type: "Eltwise"
  bottom: "res_c"
  bottom: "conv_c_1_2"
  top: "elt_c_1"
  eltwise_param {
    operation: SUM
  }
}
layer {
  name: "bn_d_1_1"
  type: "BatchNorm"
  bottom: "elt_a_1"
  top: "bn_d_1_1"
  param {
    lr_mult: 0
  }
  param {
    lr_mult: 0
  }
  param {
    lr_mult: 0
  }
  batch_norm_param {
    use_global_stats: false
  }
}
layer {
  name: "sc_d_1_1"
  type: "Scale"
  bottom: "bn_d_1_1"
  top: "sc_d_1_1"
  scale_param {
    bias_term: true
  }
}
layer {
  name: "relu_d_1_1"
  type: "ReLU"
  bottom: "sc_d_1_1"
  top: "relu_d_1_1"
}
layer {
  name: "conv_d_1_1"
  type: "Convolution"
  bottom: "relu_d_1_1"
  top: "conv_d_1_1"
  param {
    lr_mult: 1
    decay_mult: 1
  }
  param {
    lr_mult: 2
    decay_mult: 1
  }
  convolution_param {
    num_output: 128
    pad: 1
    kernel_size: 3
    stride: 2
    weight_filler {
      type: "msra"
    }
    bias_filler {
      type: "constant"
    }
  }
}
layer {
  name: "bn_d_1_2"
  type: "BatchNorm"
  bottom: "conv_d_1_1"
  top: "bn_d_1_2"
  param {
    lr_mult: 0
  }
  param {
    lr_mult: 0
  }
  param {
    lr_mult: 0
  }
  batch_norm_param {
    use_global_stats: false
  }
}
layer {
  name: "sc_d_1_2"
  type: "Scale"
  bottom: "bn_d_1_2"
  top: "sc_d_1_2"
  scale_param {
    bias_term: true
  }
}
layer {
  name: "relu_d_1_2"
  type: "ReLU"
  bottom: "sc_d_1_2"
  top: "relu_d_1_2"
}
layer {
  name: "conv_d_1_2"
  type: "Convolution"
  bottom: "relu_d_1_2"
  top: "conv_d_1_2"
  param {
    lr_mult: 1
    decay_mult: 1
  }
  param {
    lr_mult: 2
    decay_mult: 1
  }
  convolution_param {
    num_output: 128
    pad: 1
    kernel_size: 3
    stride: 1
    weight_filler {
      type: "msra"
    }
    bias_filler {
      type: "constant"
    }
  }
}
layer {
  name: "res_d"
  type: "Convolution"
  bottom: "elt_a_1"
  top: "res_d"
  param {
    lr_mult: 1
    decay_mult: 1
  }
  param {
    lr_mult: 2
    decay_mult: 1
  }
  convolution_param {
    num_output: 128
    pad: 0
    kernel_size: 1
    stride: 2
    weight_filler {
      type: "msra"
    }
    bias_filler {
      type: "constant"
    }
  }
}
layer {
  name: "elt_d_1"
  type: "Eltwise"
  bottom: "res_d"
  bottom: "conv_d_1_2"
  top: "elt_d_1"
  eltwise_param {
    operation: SUM
  }
}
layer {
  name: "bn_f_1_1"
  type: "BatchNorm"
  bottom: "elt_b_1"
  top: "bn_f_1_1"
  param {
    lr_mult: 0
  }
  param {
    lr_mult: 0
  }
  param {
    lr_mult: 0
  }
  batch_norm_param {
    use_global_stats: false
  }
}
layer {
  name: "sc_f_1_1"
  type: "Scale"
  bottom: "bn_f_1_1"
  top: "sc_f_1_1"
  scale_param {
    bias_term: true
  }
}
layer {
  name: "relu_f_1_1"
  type: "ReLU"
  bottom: "sc_f_1_1"
  top: "relu_f_1_1"
}
layer {
  name: "conv_f_1_1"
  type: "Convolution"
  bottom: "relu_f_1_1"
  top: "conv_f_1_1"
  param {
    lr_mult: 1
    decay_mult: 1
  }
  param {
    lr_mult: 2
    decay_mult: 1
  }
  convolution_param {
    num_output: 128
    pad: 1
    kernel_size: 3
    stride: 2
    weight_filler {
      type: "msra"
    }
    bias_filler {
      type: "constant"
    }
  }
}
layer {
  name: "bn_f_1_2"
  type: "BatchNorm"
  bottom: "conv_f_1_1"
  top: "bn_f_1_2"
  param {
    lr_mult: 0
  }
  param {
    lr_mult: 0
  }
  param {
    lr_mult: 0
  }
  batch_norm_param {
    use_global_stats: false
  }
}
layer {
  name: "sc_f_1_2"
  type: "Scale"
  bottom: "bn_f_1_2"
  top: "sc_f_1_2"
  scale_param {
    bias_term: true
  }
}
layer {
  name: "relu_f_1_2"
  type: "ReLU"
  bottom: "sc_f_1_2"
  top: "relu_f_1_2"
}
layer {
  name: "conv_f_1_2"
  type: "Convolution"
  bottom: "relu_f_1_2"
  top: "conv_f_1_2"
  param {
    lr_mult: 1
    decay_mult: 1
  }
  param {
    lr_mult: 2
    decay_mult: 1
  }
  convolution_param {
    num_output: 128
    pad: 1
    kernel_size: 3
    stride: 1
    weight_filler {
      type: "msra"
    }
    bias_filler {
      type: "constant"
    }
  }
}
layer {
  name: "res_f"
  type: "Convolution"
  bottom: "elt_b_1"
  top: "res_f"
  param {
    lr_mult: 1
    decay_mult: 1
  }
  param {
    lr_mult: 2
    decay_mult: 1
  }
  convolution_param {
    num_output: 128
    pad: 0
    kernel_size: 1
    stride: 2
    weight_filler {
      type: "msra"
    }
    bias_filler {
      type: "constant"
    }
  }
}
layer {
  name: "elt_f_1"
  type: "Eltwise"
  bottom: "res_f"
  bottom: "conv_f_1_2"
  top: "elt_f_1"
  eltwise_param {
    operation: SUM
  }
}
layer {
  name: "bn_g_1_1"
  type: "BatchNorm"
  bottom: "elt_b_1"
  top: "bn_g_1_1"
  param {
    lr_mult: 0
  }
  param {
    lr_mult: 0
  }
  param {
    lr_mult: 0
  }
  batch_norm_param {
    use_global_stats: false
  }
}
layer {
  name: "sc_g_1_1"
  type: "Scale"
  bottom: "bn_g_1_1"
  top: "sc_g_1_1"
  scale_param {
    bias_term: true
  }
}
layer {
  name: "relu_g_1_1"
  type: "ReLU"
  bottom: "sc_g_1_1"
  top: "relu_g_1_1"
}
layer {
  name: "conv_g_1_1"
  type: "Convolution"
  bottom: "relu_g_1_1"
  top: "conv_g_1_1"
  param {
    lr_mult: 1
    decay_mult: 1
  }
  param {
    lr_mult: 2
    decay_mult: 1
  }
  convolution_param {
    num_output: 128
    pad: 1
    kernel_size: 3
    stride: 2
    weight_filler {
      type: "msra"
    }
    bias_filler {
      type: "constant"
    }
  }
}
layer {
  name: "bn_g_1_2"
  type: "BatchNorm"
  bottom: "conv_g_1_1"
  top: "bn_g_1_2"
  param {
    lr_mult: 0
  }
  param {
    lr_mult: 0
  }
  param {
    lr_mult: 0
  }
  batch_norm_param {
    use_global_stats: false
  }
}
layer {
  name: "sc_g_1_2"
  type: "Scale"
  bottom: "bn_g_1_2"
  top: "sc_g_1_2"
  scale_param {
    bias_term: true
  }
}
layer {
  name: "relu_g_1_2"
  type: "ReLU"
  bottom: "sc_g_1_2"
  top: "relu_g_1_2"
}
layer {
  name: "conv_g_1_2"
  type: "Convolution"
  bottom: "relu_g_1_2"
  top: "conv_g_1_2"
  param {
    lr_mult: 1
    decay_mult: 1
  }
  param {
    lr_mult: 2
    decay_mult: 1
  }
  convolution_param {
    num_output: 128
    pad: 1
    kernel_size: 3
    stride: 1
    weight_filler {
      type: "msra"
    }
    bias_filler {
      type: "constant"
    }
  }
}
layer {
  name: "res_g"
  type: "Convolution"
  bottom: "elt_b_1"
  top: "res_g"
  param {
    lr_mult: 1
    decay_mult: 1
  }
  param {
    lr_mult: 2
    decay_mult: 1
  }
  convolution_param {
    num_output: 128
    pad: 0
    kernel_size: 1
    stride: 2
    weight_filler {
      type: "msra"
    }
    bias_filler {
      type: "constant"
    }
  }
}
layer {
  name: "elt_g_1"
  type: "Eltwise"
  bottom: "res_g"
  bottom: "conv_g_1_2"
  top: "elt_g_1"
  eltwise_param {
    operation: SUM
  }
}
layer {
  name: "bn_h_1_1"
  type: "BatchNorm"
  bottom: "elt_c_1"
  top: "bn_h_1_1"
  param {
    lr_mult: 0
  }
  param {
    lr_mult: 0
  }
  param {
    lr_mult: 0
  }
  batch_norm_param {
    use_global_stats: false
  }
}
layer {
  name: "sc_h_1_1"
  type: "Scale"
  bottom: "bn_h_1_1"
  top: "sc_h_1_1"
  scale_param {
    bias_term: true
  }
}
layer {
  name: "relu_h_1_1"
  type: "ReLU"
  bottom: "sc_h_1_1"
  top: "relu_h_1_1"
}
layer {
  name: "conv_h_1_1"
  type: "Convolution"
  bottom: "relu_h_1_1"
  top: "conv_h_1_1"
  param {
    lr_mult: 1
    decay_mult: 1
  }
  param {
    lr_mult: 2
    decay_mult: 1
  }
  convolution_param {
    num_output: 128
    pad: 1
    kernel_size: 3
    stride: 2
    weight_filler {
      type: "msra"
    }
    bias_filler {
      type: "constant"
    }
  }
}
layer {
  name: "bn_h_1_2"
  type: "BatchNorm"
  bottom: "conv_h_1_1"
  top: "bn_h_1_2"
  param {
    lr_mult: 0
  }
  param {
    lr_mult: 0
  }
  param {
    lr_mult: 0
  }
  batch_norm_param {
    use_global_stats: false
  }
}
layer {
  name: "sc_h_1_2"
  type: "Scale"
  bottom: "bn_h_1_2"
  top: "sc_h_1_2"
  scale_param {
    bias_term: true
  }
}
layer {
  name: "relu_h_1_2"
  type: "ReLU"
  bottom: "sc_h_1_2"
  top: "relu_h_1_2"
}
layer {
  name: "conv_h_1_2"
  type: "Convolution"
  bottom: "relu_h_1_2"
  top: "conv_h_1_2"
  param {
    lr_mult: 1
    decay_mult: 1
  }
  param {
    lr_mult: 2
    decay_mult: 1
  }
  convolution_param {
    num_output: 128
    pad: 1
    kernel_size: 3
    stride: 1
    weight_filler {
      type: "msra"
    }
    bias_filler {
      type: "constant"
    }
  }
}
layer {
  name: "res_h"
  type: "Convolution"
  bottom: "elt_c_1"
  top: "res_h"
  param {
    lr_mult: 1
    decay_mult: 1
  }
  param {
    lr_mult: 2
    decay_mult: 1
  }
  convolution_param {
    num_output: 128
    pad: 0
    kernel_size: 1
    stride: 2
    weight_filler {
      type: "msra"
    }
    bias_filler {
      type: "constant"
    }
  }
}
layer {
  name: "elt_h_1"
  type: "Eltwise"
  bottom: "res_h"
  bottom: "conv_h_1_2"
  top: "elt_h_1"
  eltwise_param {
    operation: SUM
  }
}
layer {
  name: "bn_i_1_1"
  type: "BatchNorm"
  bottom: "elt_c_1"
  top: "bn_i_1_1"
  param {
    lr_mult: 0
  }
  param {
    lr_mult: 0
  }
  param {
    lr_mult: 0
  }
  batch_norm_param {
    use_global_stats: false
  }
}
layer {
  name: "sc_i_1_1"
  type: "Scale"
  bottom: "bn_i_1_1"
  top: "sc_i_1_1"
  scale_param {
    bias_term: true
  }
}
layer {
  name: "relu_i_1_1"
  type: "ReLU"
  bottom: "sc_i_1_1"
  top: "relu_i_1_1"
}
layer {
  name: "conv_i_1_1"
  type: "Convolution"
  bottom: "relu_i_1_1"
  top: "conv_i_1_1"
  param {
    lr_mult: 1
    decay_mult: 1
  }
  param {
    lr_mult: 2
    decay_mult: 1
  }
  convolution_param {
    num_output: 128
    pad: 1
    kernel_size: 3
    stride: 2
    weight_filler {
      type: "msra"
    }
    bias_filler {
      type: "constant"
    }
  }
}
layer {
  name: "bn_i_1_2"
  type: "BatchNorm"
  bottom: "conv_i_1_1"
  top: "bn_i_1_2"
  param {
    lr_mult: 0
  }
  param {
    lr_mult: 0
  }
  param {
    lr_mult: 0
  }
  batch_norm_param {
    use_global_stats: false
  }
}
layer {
  name: "sc_i_1_2"
  type: "Scale"
  bottom: "bn_i_1_2"
  top: "sc_i_1_2"
  scale_param {
    bias_term: true
  }
}
layer {
  name: "relu_i_1_2"
  type: "ReLU"
  bottom: "sc_i_1_2"
  top: "relu_i_1_2"
}
layer {
  name: "conv_i_1_2"
  type: "Convolution"
  bottom: "relu_i_1_2"
  top: "conv_i_1_2"
  param {
    lr_mult: 1
    decay_mult: 1
  }
  param {
    lr_mult: 2
    decay_mult: 1
  }
  convolution_param {
    num_output: 128
    pad: 1
    kernel_size: 3
    stride: 1
    weight_filler {
      type: "msra"
    }
    bias_filler {
      type: "constant"
    }
  }
}
layer {
  name: "res_i"
  type: "Convolution"
  bottom: "elt_c_1"
  top: "res_i"
  param {
    lr_mult: 1
    decay_mult: 1
  }
  param {
    lr_mult: 2
    decay_mult: 1
  }
  convolution_param {
    num_output: 128
    pad: 0
    kernel_size: 1
    stride: 2
    weight_filler {
      type: "msra"
    }
    bias_filler {
      type: "constant"
    }
  }
}
layer {
  name: "elt_i_1"
  type: "Eltwise"
  bottom: "res_i"
  bottom: "conv_i_1_2"
  top: "elt_i_1"
  eltwise_param {
    operation: SUM
  }
}
layer {
  name: "elt_d_f"
  type: "Eltwise"
  bottom: "elt_d_1"
  bottom: "elt_f_1"
  top: "elt_d_f"
  eltwise_param {
    operation: SUM
  }
}
layer {
  name: "elt_g_i"
  type: "Eltwise"
  bottom: "elt_g_1"
  bottom: "elt_i_1"
  top: "elt_g_i"
  eltwise_param {
    operation: SUM
  }
}
layer {
  name: "bn_j_1_1"
  type: "BatchNorm"
  bottom: "elt_d_f"
  top: "bn_j_1_1"
  param {
    lr_mult: 0
  }
  param {
    lr_mult: 0
  }
  param {
    lr_mult: 0
  }
  batch_norm_param {
    use_global_stats: false
  }
}
layer {
  name: "sc_j_1_1"
  type: "Scale"
  bottom: "bn_j_1_1"
  top: "sc_j_1_1"
  scale_param {
    bias_term: true
  }
}
layer {
  name: "relu_j_1_1"
  type: "ReLU"
  bottom: "sc_j_1_1"
  top: "relu_j_1_1"
}
layer {
  name: "conv_j_1_1"
  type: "Convolution"
  bottom: "relu_j_1_1"
  top: "conv_j_1_1"
  param {
    lr_mult: 1
    decay_mult: 1
  }
  param {
    lr_mult: 2
    decay_mult: 1
  }
  convolution_param {
    num_output: 256
    pad: 1
    kernel_size: 3
    stride: 2
    weight_filler {
      type: "msra"
    }
    bias_filler {
      type: "constant"
    }
  }
}
layer {
  name: "bn_j_1_2"
  type: "BatchNorm"
  bottom: "conv_j_1_1"
  top: "bn_j_1_2"
  param {
    lr_mult: 0
  }
  param {
    lr_mult: 0
  }
  param {
    lr_mult: 0
  }
  batch_norm_param {
    use_global_stats: false
  }
}
layer {
  name: "sc_j_1_2"
  type: "Scale"
  bottom: "bn_j_1_2"
  top: "sc_j_1_2"
  scale_param {
    bias_term: true
  }
}
layer {
  name: "relu_j_1_2"
  type: "ReLU"
  bottom: "sc_j_1_2"
  top: "relu_j_1_2"
}
layer {
  name: "conv_j_1_2"
  type: "Convolution"
  bottom: "relu_j_1_2"
  top: "conv_j_1_2"
  param {
    lr_mult: 1
    decay_mult: 1
  }
  param {
    lr_mult: 2
    decay_mult: 1
  }
  convolution_param {
    num_output: 256
    pad: 1
    kernel_size: 3
    stride: 1
    weight_filler {
      type: "msra"
    }
    bias_filler {
      type: "constant"
    }
  }
}
layer {
  name: "res_j"
  type: "Convolution"
  bottom: "elt_d_f"
  top: "res_j"
  param {
    lr_mult: 1
    decay_mult: 1
  }
  param {
    lr_mult: 2
    decay_mult: 1
  }
  convolution_param {
    num_output: 256
    pad: 0
    kernel_size: 1
    stride: 2
    weight_filler {
      type: "msra"
    }
    bias_filler {
      type: "constant"
    }
  }
}
layer {
  name: "elt_j_1"
  type: "Eltwise"
  bottom: "res_j"
  bottom: "conv_j_1_2"
  top: "elt_j_1"
  eltwise_param {
    operation: SUM
  }
}
layer {
  name: "bn_e_1_1"
  type: "BatchNorm"
  bottom: "elt_a_1"
  top: "bn_e_1_1"
  param {
    lr_mult: 0
  }
  param {
    lr_mult: 0
  }
  param {
    lr_mult: 0
  }
  batch_norm_param {
    use_global_stats: false
  }
}
layer {
  name: "sc_e_1_1"
  type: "Scale"
  bottom: "bn_e_1_1"
  top: "sc_e_1_1"
  scale_param {
    bias_term: true
  }
}
layer {
  name: "relu_e_1_1"
  type: "ReLU"
  bottom: "sc_e_1_1"
  top: "relu_e_1_1"
}
layer {
  name: "conv_e_1_1"
  type: "Convolution"
  bottom: "relu_e_1_1"
  top: "conv_e_1_1"
  param {
    lr_mult: 1
    decay_mult: 1
  }
  param {
    lr_mult: 2
    decay_mult: 1
  }
  convolution_param {
    num_output: 128
    pad: 1
    kernel_size: 3
    stride: 2
    weight_filler {
      type: "msra"
    }
    bias_filler {
      type: "constant"
    }
  }
}
layer {
  name: "bn_e_1_2"
  type: "BatchNorm"
  bottom: "conv_e_1_1"
  top: "bn_e_1_2"
  param {
    lr_mult: 0
  }
  param {
    lr_mult: 0
  }
  param {
    lr_mult: 0
  }
  batch_norm_param {
    use_global_stats: false
  }
}
layer {
  name: "sc_e_1_2"
  type: "Scale"
  bottom: "bn_e_1_2"
  top: "sc_e_1_2"
  scale_param {
    bias_term: true
  }
}
layer {
  name: "relu_e_1_2"
  type: "ReLU"
  bottom: "sc_e_1_2"
  top: "relu_e_1_2"
}
layer {
  name: "conv_e_1_2"
  type: "Convolution"
  bottom: "relu_e_1_2"
  top: "conv_e_1_2"
  param {
    lr_mult: 1
    decay_mult: 1
  }
  param {
    lr_mult: 2
    decay_mult: 1
  }
  convolution_param {
    num_output: 128
    pad: 1
    kernel_size: 3
    stride: 1
    weight_filler {
      type: "msra"
    }
    bias_filler {
      type: "constant"
    }
  }
}
layer {
  name: "res_e"
  type: "Convolution"
  bottom: "elt_a_1"
  top: "res_e"
  param {
    lr_mult: 1
    decay_mult: 1
  }
  param {
    lr_mult: 2
    decay_mult: 1
  }
  convolution_param {
    num_output: 128
    pad: 0
    kernel_size: 1
    stride: 2
    weight_filler {
      type: "msra"
    }
    bias_filler {
      type: "constant"
    }
  }
}
layer {
  name: "elt_e_1"
  type: "Eltwise"
  bottom: "res_e"
  bottom: "conv_e_1_2"
  top: "elt_e_1"
  eltwise_param {
    operation: SUM
  }
}
layer {
  name: "elt_e_h"
  type: "Eltwise"
  bottom: "elt_e_1"
  bottom: "elt_h_1"
  top: "elt_e_h"
  eltwise_param {
    operation: SUM
  }
}
layer {
  name: "bn_k_1_1"
  type: "BatchNorm"
  bottom: "elt_e_h"
  top: "bn_k_1_1"
  param {
    lr_mult: 0
  }
  param {
    lr_mult: 0
  }
  param {
    lr_mult: 0
  }
  batch_norm_param {
    use_global_stats: false
  }
}
layer {
  name: "sc_k_1_1"
  type: "Scale"
  bottom: "bn_k_1_1"
  top: "sc_k_1_1"
  scale_param {
    bias_term: true
  }
}
layer {
  name: "relu_k_1_1"
  type: "ReLU"
  bottom: "sc_k_1_1"
  top: "relu_k_1_1"
}
layer {
  name: "conv_k_1_1"
  type: "Convolution"
  bottom: "relu_k_1_1"
  top: "conv_k_1_1"
  param {
    lr_mult: 1
    decay_mult: 1
  }
  param {
    lr_mult: 2
    decay_mult: 1
  }
  convolution_param {
    num_output: 256
    pad: 1
    kernel_size: 3
    stride: 2
    weight_filler {
      type: "msra"
    }
    bias_filler {
      type: "constant"
    }
  }
}
layer {
  name: "bn_k_1_2"
  type: "BatchNorm"
  bottom: "conv_k_1_1"
  top: "bn_k_1_2"
  param {
    lr_mult: 0
  }
  param {
    lr_mult: 0
  }
  param {
    lr_mult: 0
  }
  batch_norm_param {
    use_global_stats: false
  }
}
layer {
  name: "sc_k_1_2"
  type: "Scale"
  bottom: "bn_k_1_2"
  top: "sc_k_1_2"
  scale_param {
    bias_term: true
  }
}
layer {
  name: "relu_k_1_2"
  type: "ReLU"
  bottom: "sc_k_1_2"
  top: "relu_k_1_2"
}
layer {
  name: "conv_k_1_2"
  type: "Convolution"
  bottom: "relu_k_1_2"
  top: "conv_k_1_2"
  param {
    lr_mult: 1
    decay_mult: 1
  }
  param {
    lr_mult: 2
    decay_mult: 1
  }
  convolution_param {
    num_output: 256
    pad: 1
    kernel_size: 3
    stride: 1
    weight_filler {
      type: "msra"
    }
    bias_filler {
      type: "constant"
    }
  }
}
layer {
  name: "res_k"
  type: "Convolution"
  bottom: "elt_e_h"
  top: "res_k"
  param {
    lr_mult: 1
    decay_mult: 1
  }
  param {
    lr_mult: 2
    decay_mult: 1
  }
  convolution_param {
    num_output: 256
    pad: 0
    kernel_size: 1
    stride: 2
    weight_filler {
      type: "msra"
    }
    bias_filler {
      type: "constant"
    }
  }
}
layer {
  name: "elt_k_1"
  type: "Eltwise"
  bottom: "res_k"
  bottom: "conv_k_1_2"
  top: "elt_k_1"
  eltwise_param {
    operation: SUM
  }
}
layer {
  name: "bn_l_1_1"
  type: "BatchNorm"
  bottom: "elt_g_i"
  top: "bn_l_1_1"
  param {
    lr_mult: 0
  }
  param {
    lr_mult: 0
  }
  param {
    lr_mult: 0
  }
  batch_norm_param {
    use_global_stats: false
  }
}
layer {
  name: "sc_l_1_1"
  type: "Scale"
  bottom: "bn_l_1_1"
  top: "sc_l_1_1"
  scale_param {
    bias_term: true
  }
}
layer {
  name: "relu_l_1_1"
  type: "ReLU"
  bottom: "sc_l_1_1"
  top: "relu_l_1_1"
}
layer {
  name: "conv_l_1_1"
  type: "Convolution"
  bottom: "relu_l_1_1"
  top: "conv_l_1_1"
  param {
    lr_mult: 1
    decay_mult: 1
  }
  param {
    lr_mult: 2
    decay_mult: 1
  }
  convolution_param {
    num_output: 256
    pad: 1
    kernel_size: 3
    stride: 2
    weight_filler {
      type: "msra"
    }
    bias_filler {
      type: "constant"
    }
  }
}
layer {
  name: "bn_l_1_2"
  type: "BatchNorm"
  bottom: "conv_l_1_1"
  top: "bn_l_1_2"
  param {
    lr_mult: 0
  }
  param {
    lr_mult: 0
  }
  param {
    lr_mult: 0
  }
  batch_norm_param {
    use_global_stats: false
  }
}
layer {
  name: "sc_l_1_2"
  type: "Scale"
  bottom: "bn_l_1_2"
  top: "sc_l_1_2"
  scale_param {
    bias_term: true
  }
}
layer {
  name: "relu_l_1_2"
  type: "ReLU"
  bottom: "sc_l_1_2"
  top: "relu_l_1_2"
}
layer {
  name: "conv_l_1_2"
  type: "Convolution"
  bottom: "relu_l_1_2"
  top: "conv_l_1_2"
  param {
    lr_mult: 1
    decay_mult: 1
  }
  param {
    lr_mult: 2
    decay_mult: 1
  }
  convolution_param {
    num_output: 256
    pad: 1
    kernel_size: 3
    stride: 1
    weight_filler {
      type: "msra"
    }
    bias_filler {
      type: "constant"
    }
  }
}
layer {
  name: "res_l"
  type: "Convolution"
  bottom: "elt_g_i"
  top: "res_l"
  param {
    lr_mult: 1
    decay_mult: 1
  }
  param {
    lr_mult: 2
    decay_mult: 1
  }
  convolution_param {
    num_output: 256
    pad: 0
    kernel_size: 1
    stride: 2
    weight_filler {
      type: "msra"
    }
    bias_filler {
      type: "constant"
    }
  }
}
layer {
  name: "elt_l_1"
  type: "Eltwise"
  bottom: "res_l"
  bottom: "conv_l_1_2"
  top: "elt_l_1"
  eltwise_param {
    operation: SUM
  }
}
layer {
  name: "concat_j_k_l"
  type: "Concat"
  bottom: "elt_j_1"
  bottom: "elt_k_1"
  bottom: "elt_l_1"
  top: "elt_j_k_l"
  concat_param {
    axis: 1
  }
}
layer {
  name: "bn_m_1_1"
  type: "BatchNorm"
  bottom: "elt_j_k_l"
  top: "bn_m_1_1"
  param {
    lr_mult: 0
  }
  param {
    lr_mult: 0
  }
  param {
    lr_mult: 0
  }
  batch_norm_param {
    use_global_stats: false
  }
}
layer {
  name: "sc_m_1_1"
  type: "Scale"
  bottom: "bn_m_1_1"
  top: "sc_m_1_1"
  scale_param {
    bias_term: true
  }
}
layer {
  name: "relu_m_1_1"
  type: "ReLU"
  bottom: "sc_m_1_1"
  top: "relu_m_1_1"
}
layer {
  name: "gap"
  type: "Pooling"
  bottom: "relu_m_1_1"
  top: "gap"
  pooling_param {
    pool: AVE
    kernel_size: 8
    stride: 1
  }
}
layer {
  name: "ip1"
  type: "InnerProduct"
  bottom: "gap"
  top: "ip1"
  param {
    lr_mult: 1
    decay_mult: 1
  }
  param {
    lr_mult: 2
    decay_mult: 0
  }
  inner_product_param {
    num_output: 10
    weight_filler {
      type: "msra"
    }
    bias_filler {
      type: "constant"
      value: 0
    }
  }
}
layer {
  name: "accuracy"
  type: "Accuracy"
  bottom: "ip1"
  bottom: "label"
  top: "accuracy"
  include {
    phase: TEST
  }
}
layer {
  name: "loss"
  type: "SoftmaxWithLoss"
  bottom: "ip1"
  bottom: "label"
  top: "loss"
}
I0618 17:42:58.400542 20043 layer_factory.hpp:77] Creating layer resnet
I0618 17:42:58.401005 20043 net.cpp:91] Creating Layer resnet
I0618 17:42:58.401022 20043 net.cpp:399] resnet -> data
I0618 17:42:58.401053 20043 net.cpp:399] resnet -> label
I0618 17:42:58.401067 20043 data_transformer.cpp:25] Loading mean file from: /home/takeki/caffe/examples/cifar10/mean.binaryproto
I0618 17:42:58.402279 20084 db_lmdb.cpp:35] Opened lmdb /home/takeki/caffe/examples/cifar10/cifar10_test_lmdb
I0618 17:42:58.402426 20043 data_layer.cpp:41] output data size: 100,3,32,32
I0618 17:42:58.405511 20043 net.cpp:141] Setting up resnet
I0618 17:42:58.405526 20043 net.cpp:148] Top shape: 100 3 32 32 (307200)
I0618 17:42:58.405534 20043 net.cpp:148] Top shape: 100 (100)
I0618 17:42:58.405537 20043 net.cpp:156] Memory required for data: 1229200
I0618 17:42:58.405544 20043 layer_factory.hpp:77] Creating layer label_resnet_1_split
I0618 17:42:58.405553 20043 net.cpp:91] Creating Layer label_resnet_1_split
I0618 17:42:58.405558 20043 net.cpp:425] label_resnet_1_split <- label
I0618 17:42:58.405565 20043 net.cpp:399] label_resnet_1_split -> label_resnet_1_split_0
I0618 17:42:58.405575 20043 net.cpp:399] label_resnet_1_split -> label_resnet_1_split_1
I0618 17:42:58.405669 20043 net.cpp:141] Setting up label_resnet_1_split
I0618 17:42:58.405680 20043 net.cpp:148] Top shape: 100 (100)
I0618 17:42:58.405688 20043 net.cpp:148] Top shape: 100 (100)
I0618 17:42:58.405692 20043 net.cpp:156] Memory required for data: 1230000
I0618 17:42:58.405696 20043 layer_factory.hpp:77] Creating layer conv0
I0618 17:42:58.405710 20043 net.cpp:91] Creating Layer conv0
I0618 17:42:58.405715 20043 net.cpp:425] conv0 <- data
I0618 17:42:58.405735 20043 net.cpp:399] conv0 -> conv0
I0618 17:42:58.406980 20043 net.cpp:141] Setting up conv0
I0618 17:42:58.406996 20043 net.cpp:148] Top shape: 100 16 32 32 (1638400)
I0618 17:42:58.407003 20043 net.cpp:156] Memory required for data: 7783600
I0618 17:42:58.407016 20043 layer_factory.hpp:77] Creating layer conv0_conv0_0_split
I0618 17:42:58.407024 20043 net.cpp:91] Creating Layer conv0_conv0_0_split
I0618 17:42:58.407030 20043 net.cpp:425] conv0_conv0_0_split <- conv0
I0618 17:42:58.407040 20043 net.cpp:399] conv0_conv0_0_split -> conv0_conv0_0_split_0
I0618 17:42:58.407050 20043 net.cpp:399] conv0_conv0_0_split -> conv0_conv0_0_split_1
I0618 17:42:58.407058 20043 net.cpp:399] conv0_conv0_0_split -> conv0_conv0_0_split_2
I0618 17:42:58.407065 20043 net.cpp:399] conv0_conv0_0_split -> conv0_conv0_0_split_3
I0618 17:42:58.407075 20043 net.cpp:399] conv0_conv0_0_split -> conv0_conv0_0_split_4
I0618 17:42:58.407085 20043 net.cpp:399] conv0_conv0_0_split -> conv0_conv0_0_split_5
I0618 17:42:58.407186 20043 net.cpp:141] Setting up conv0_conv0_0_split
I0618 17:42:58.407197 20043 net.cpp:148] Top shape: 100 16 32 32 (1638400)
I0618 17:42:58.407204 20043 net.cpp:148] Top shape: 100 16 32 32 (1638400)
I0618 17:42:58.407212 20043 net.cpp:148] Top shape: 100 16 32 32 (1638400)
I0618 17:42:58.407217 20043 net.cpp:148] Top shape: 100 16 32 32 (1638400)
I0618 17:42:58.407224 20043 net.cpp:148] Top shape: 100 16 32 32 (1638400)
I0618 17:42:58.407230 20043 net.cpp:148] Top shape: 100 16 32 32 (1638400)
I0618 17:42:58.407238 20043 net.cpp:156] Memory required for data: 47105200
I0618 17:42:58.407243 20043 layer_factory.hpp:77] Creating layer bn_a_1_1
I0618 17:42:58.407253 20043 net.cpp:91] Creating Layer bn_a_1_1
I0618 17:42:58.407258 20043 net.cpp:425] bn_a_1_1 <- conv0_conv0_0_split_0
I0618 17:42:58.407270 20043 net.cpp:399] bn_a_1_1 -> bn_a_1_1
I0618 17:42:58.407493 20043 net.cpp:141] Setting up bn_a_1_1
I0618 17:42:58.407505 20043 net.cpp:148] Top shape: 100 16 32 32 (1638400)
I0618 17:42:58.407510 20043 net.cpp:156] Memory required for data: 53658800
I0618 17:42:58.407526 20043 layer_factory.hpp:77] Creating layer sc_a_1_1
I0618 17:42:58.407536 20043 net.cpp:91] Creating Layer sc_a_1_1
I0618 17:42:58.407542 20043 net.cpp:425] sc_a_1_1 <- bn_a_1_1
I0618 17:42:58.407548 20043 net.cpp:399] sc_a_1_1 -> sc_a_1_1
I0618 17:42:58.407604 20043 layer_factory.hpp:77] Creating layer sc_a_1_1
I0618 17:42:58.407739 20043 net.cpp:141] Setting up sc_a_1_1
I0618 17:42:58.407750 20043 net.cpp:148] Top shape: 100 16 32 32 (1638400)
I0618 17:42:58.407755 20043 net.cpp:156] Memory required for data: 60212400
I0618 17:42:58.407763 20043 layer_factory.hpp:77] Creating layer relu_a_1_1
I0618 17:42:58.407770 20043 net.cpp:91] Creating Layer relu_a_1_1
I0618 17:42:58.407776 20043 net.cpp:425] relu_a_1_1 <- sc_a_1_1
I0618 17:42:58.407786 20043 net.cpp:399] relu_a_1_1 -> relu_a_1_1
I0618 17:42:58.407971 20043 net.cpp:141] Setting up relu_a_1_1
I0618 17:42:58.407985 20043 net.cpp:148] Top shape: 100 16 32 32 (1638400)
I0618 17:42:58.407991 20043 net.cpp:156] Memory required for data: 66766000
I0618 17:42:58.407996 20043 layer_factory.hpp:77] Creating layer conv_a_1_1
I0618 17:42:58.408010 20043 net.cpp:91] Creating Layer conv_a_1_1
I0618 17:42:58.408016 20043 net.cpp:425] conv_a_1_1 <- relu_a_1_1
I0618 17:42:58.408025 20043 net.cpp:399] conv_a_1_1 -> conv_a_1_1
I0618 17:42:58.409251 20043 net.cpp:141] Setting up conv_a_1_1
I0618 17:42:58.409271 20043 net.cpp:148] Top shape: 100 64 32 32 (6553600)
I0618 17:42:58.409276 20043 net.cpp:156] Memory required for data: 92980400
I0618 17:42:58.409287 20043 layer_factory.hpp:77] Creating layer bn_a_1_2
I0618 17:42:58.409299 20043 net.cpp:91] Creating Layer bn_a_1_2
I0618 17:42:58.409306 20043 net.cpp:425] bn_a_1_2 <- conv_a_1_1
I0618 17:42:58.409315 20043 net.cpp:399] bn_a_1_2 -> bn_a_1_2
I0618 17:42:58.409579 20043 net.cpp:141] Setting up bn_a_1_2
I0618 17:42:58.409590 20043 net.cpp:148] Top shape: 100 64 32 32 (6553600)
I0618 17:42:58.409595 20043 net.cpp:156] Memory required for data: 119194800
I0618 17:42:58.409620 20043 layer_factory.hpp:77] Creating layer sc_a_1_2
I0618 17:42:58.409627 20043 net.cpp:91] Creating Layer sc_a_1_2
I0618 17:42:58.409632 20043 net.cpp:425] sc_a_1_2 <- bn_a_1_2
I0618 17:42:58.409644 20043 net.cpp:399] sc_a_1_2 -> sc_a_1_2
I0618 17:42:58.409804 20043 layer_factory.hpp:77] Creating layer sc_a_1_2
I0618 17:42:58.409960 20043 net.cpp:141] Setting up sc_a_1_2
I0618 17:42:58.409976 20043 net.cpp:148] Top shape: 100 64 32 32 (6553600)
I0618 17:42:58.409989 20043 net.cpp:156] Memory required for data: 145409200
I0618 17:42:58.410001 20043 layer_factory.hpp:77] Creating layer relu_a_1_2
I0618 17:42:58.410008 20043 net.cpp:91] Creating Layer relu_a_1_2
I0618 17:42:58.410014 20043 net.cpp:425] relu_a_1_2 <- sc_a_1_2
I0618 17:42:58.410025 20043 net.cpp:399] relu_a_1_2 -> relu_a_1_2
I0618 17:42:58.410213 20043 net.cpp:141] Setting up relu_a_1_2
I0618 17:42:58.410225 20043 net.cpp:148] Top shape: 100 64 32 32 (6553600)
I0618 17:42:58.410231 20043 net.cpp:156] Memory required for data: 171623600
I0618 17:42:58.410238 20043 layer_factory.hpp:77] Creating layer conv_a_1_2
I0618 17:42:58.410249 20043 net.cpp:91] Creating Layer conv_a_1_2
I0618 17:42:58.410256 20043 net.cpp:425] conv_a_1_2 <- relu_a_1_2
I0618 17:42:58.410266 20043 net.cpp:399] conv_a_1_2 -> conv_a_1_2
I0618 17:42:58.412116 20043 net.cpp:141] Setting up conv_a_1_2
I0618 17:42:58.412130 20043 net.cpp:148] Top shape: 100 64 32 32 (6553600)
I0618 17:42:58.412135 20043 net.cpp:156] Memory required for data: 197838000
I0618 17:42:58.412143 20043 layer_factory.hpp:77] Creating layer res_a
I0618 17:42:58.412158 20043 net.cpp:91] Creating Layer res_a
I0618 17:42:58.412165 20043 net.cpp:425] res_a <- conv0_conv0_0_split_1
I0618 17:42:58.412173 20043 net.cpp:399] res_a -> res_a
I0618 17:42:58.413173 20043 net.cpp:141] Setting up res_a
I0618 17:42:58.413188 20043 net.cpp:148] Top shape: 100 64 32 32 (6553600)
I0618 17:42:58.413193 20043 net.cpp:156] Memory required for data: 224052400
I0618 17:42:58.413205 20043 layer_factory.hpp:77] Creating layer elt_a_1
I0618 17:42:58.413213 20043 net.cpp:91] Creating Layer elt_a_1
I0618 17:42:58.413218 20043 net.cpp:425] elt_a_1 <- res_a
I0618 17:42:58.413226 20043 net.cpp:425] elt_a_1 <- conv_a_1_2
I0618 17:42:58.413233 20043 net.cpp:399] elt_a_1 -> elt_a_1
I0618 17:42:58.413267 20043 net.cpp:141] Setting up elt_a_1
I0618 17:42:58.413278 20043 net.cpp:148] Top shape: 100 64 32 32 (6553600)
I0618 17:42:58.413283 20043 net.cpp:156] Memory required for data: 250266800
I0618 17:42:58.413288 20043 layer_factory.hpp:77] Creating layer elt_a_1_elt_a_1_0_split
I0618 17:42:58.413297 20043 net.cpp:91] Creating Layer elt_a_1_elt_a_1_0_split
I0618 17:42:58.413303 20043 net.cpp:425] elt_a_1_elt_a_1_0_split <- elt_a_1
I0618 17:42:58.413311 20043 net.cpp:399] elt_a_1_elt_a_1_0_split -> elt_a_1_elt_a_1_0_split_0
I0618 17:42:58.413321 20043 net.cpp:399] elt_a_1_elt_a_1_0_split -> elt_a_1_elt_a_1_0_split_1
I0618 17:42:58.413328 20043 net.cpp:399] elt_a_1_elt_a_1_0_split -> elt_a_1_elt_a_1_0_split_2
I0618 17:42:58.413336 20043 net.cpp:399] elt_a_1_elt_a_1_0_split -> elt_a_1_elt_a_1_0_split_3
I0618 17:42:58.413408 20043 net.cpp:141] Setting up elt_a_1_elt_a_1_0_split
I0618 17:42:58.413419 20043 net.cpp:148] Top shape: 100 64 32 32 (6553600)
I0618 17:42:58.413425 20043 net.cpp:148] Top shape: 100 64 32 32 (6553600)
I0618 17:42:58.413431 20043 net.cpp:148] Top shape: 100 64 32 32 (6553600)
I0618 17:42:58.413437 20043 net.cpp:148] Top shape: 100 64 32 32 (6553600)
I0618 17:42:58.413442 20043 net.cpp:156] Memory required for data: 355124400
I0618 17:42:58.413449 20043 layer_factory.hpp:77] Creating layer bn_b_1_1
I0618 17:42:58.413455 20043 net.cpp:91] Creating Layer bn_b_1_1
I0618 17:42:58.413460 20043 net.cpp:425] bn_b_1_1 <- conv0_conv0_0_split_2
I0618 17:42:58.413471 20043 net.cpp:399] bn_b_1_1 -> bn_b_1_1
I0618 17:42:58.413693 20043 net.cpp:141] Setting up bn_b_1_1
I0618 17:42:58.413704 20043 net.cpp:148] Top shape: 100 16 32 32 (1638400)
I0618 17:42:58.413709 20043 net.cpp:156] Memory required for data: 361678000
I0618 17:42:58.413733 20043 layer_factory.hpp:77] Creating layer sc_b_1_1
I0618 17:42:58.413745 20043 net.cpp:91] Creating Layer sc_b_1_1
I0618 17:42:58.413753 20043 net.cpp:425] sc_b_1_1 <- bn_b_1_1
I0618 17:42:58.413766 20043 net.cpp:399] sc_b_1_1 -> sc_b_1_1
I0618 17:42:58.413821 20043 layer_factory.hpp:77] Creating layer sc_b_1_1
I0618 17:42:58.413956 20043 net.cpp:141] Setting up sc_b_1_1
I0618 17:42:58.413967 20043 net.cpp:148] Top shape: 100 16 32 32 (1638400)
I0618 17:42:58.413975 20043 net.cpp:156] Memory required for data: 368231600
I0618 17:42:58.413988 20043 layer_factory.hpp:77] Creating layer relu_b_1_1
I0618 17:42:58.414005 20043 net.cpp:91] Creating Layer relu_b_1_1
I0618 17:42:58.414013 20043 net.cpp:425] relu_b_1_1 <- sc_b_1_1
I0618 17:42:58.414021 20043 net.cpp:399] relu_b_1_1 -> relu_b_1_1
I0618 17:42:58.414438 20043 net.cpp:141] Setting up relu_b_1_1
I0618 17:42:58.414451 20043 net.cpp:148] Top shape: 100 16 32 32 (1638400)
I0618 17:42:58.414458 20043 net.cpp:156] Memory required for data: 374785200
I0618 17:42:58.414463 20043 layer_factory.hpp:77] Creating layer conv_b_1_1
I0618 17:42:58.414476 20043 net.cpp:91] Creating Layer conv_b_1_1
I0618 17:42:58.414484 20043 net.cpp:425] conv_b_1_1 <- relu_b_1_1
I0618 17:42:58.414492 20043 net.cpp:399] conv_b_1_1 -> conv_b_1_1
I0618 17:42:58.415598 20043 net.cpp:141] Setting up conv_b_1_1
I0618 17:42:58.415612 20043 net.cpp:148] Top shape: 100 64 32 32 (6553600)
I0618 17:42:58.415618 20043 net.cpp:156] Memory required for data: 400999600
I0618 17:42:58.415627 20043 layer_factory.hpp:77] Creating layer bn_b_1_2
I0618 17:42:58.415639 20043 net.cpp:91] Creating Layer bn_b_1_2
I0618 17:42:58.415645 20043 net.cpp:425] bn_b_1_2 <- conv_b_1_1
I0618 17:42:58.415653 20043 net.cpp:399] bn_b_1_2 -> bn_b_1_2
I0618 17:42:58.415882 20043 net.cpp:141] Setting up bn_b_1_2
I0618 17:42:58.415894 20043 net.cpp:148] Top shape: 100 64 32 32 (6553600)
I0618 17:42:58.415899 20043 net.cpp:156] Memory required for data: 427214000
I0618 17:42:58.415910 20043 layer_factory.hpp:77] Creating layer sc_b_1_2
I0618 17:42:58.415916 20043 net.cpp:91] Creating Layer sc_b_1_2
I0618 17:42:58.415922 20043 net.cpp:425] sc_b_1_2 <- bn_b_1_2
I0618 17:42:58.415932 20043 net.cpp:399] sc_b_1_2 -> sc_b_1_2
I0618 17:42:58.415987 20043 layer_factory.hpp:77] Creating layer sc_b_1_2
I0618 17:42:58.416126 20043 net.cpp:141] Setting up sc_b_1_2
I0618 17:42:58.416136 20043 net.cpp:148] Top shape: 100 64 32 32 (6553600)
I0618 17:42:58.416141 20043 net.cpp:156] Memory required for data: 453428400
I0618 17:42:58.416151 20043 layer_factory.hpp:77] Creating layer relu_b_1_2
I0618 17:42:58.416157 20043 net.cpp:91] Creating Layer relu_b_1_2
I0618 17:42:58.416163 20043 net.cpp:425] relu_b_1_2 <- sc_b_1_2
I0618 17:42:58.416170 20043 net.cpp:399] relu_b_1_2 -> relu_b_1_2
I0618 17:42:58.416465 20043 net.cpp:141] Setting up relu_b_1_2
I0618 17:42:58.416477 20043 net.cpp:148] Top shape: 100 64 32 32 (6553600)
I0618 17:42:58.416483 20043 net.cpp:156] Memory required for data: 479642800
I0618 17:42:58.416491 20043 layer_factory.hpp:77] Creating layer conv_b_1_2
I0618 17:42:58.416512 20043 net.cpp:91] Creating Layer conv_b_1_2
I0618 17:42:58.416524 20043 net.cpp:425] conv_b_1_2 <- relu_b_1_2
I0618 17:42:58.416553 20043 net.cpp:399] conv_b_1_2 -> conv_b_1_2
I0618 17:42:58.418932 20043 net.cpp:141] Setting up conv_b_1_2
I0618 17:42:58.418953 20043 net.cpp:148] Top shape: 100 64 32 32 (6553600)
I0618 17:42:58.418967 20043 net.cpp:156] Memory required for data: 505857200
I0618 17:42:58.418979 20043 layer_factory.hpp:77] Creating layer res_b
I0618 17:42:58.418998 20043 net.cpp:91] Creating Layer res_b
I0618 17:42:58.419010 20043 net.cpp:425] res_b <- conv0_conv0_0_split_3
I0618 17:42:58.419039 20043 net.cpp:399] res_b -> res_b
I0618 17:42:58.419958 20043 net.cpp:141] Setting up res_b
I0618 17:42:58.419975 20043 net.cpp:148] Top shape: 100 64 32 32 (6553600)
I0618 17:42:58.419988 20043 net.cpp:156] Memory required for data: 532071600
I0618 17:42:58.420007 20043 layer_factory.hpp:77] Creating layer elt_b_1
I0618 17:42:58.420019 20043 net.cpp:91] Creating Layer elt_b_1
I0618 17:42:58.420039 20043 net.cpp:425] elt_b_1 <- res_b
I0618 17:42:58.420047 20043 net.cpp:425] elt_b_1 <- conv_b_1_2
I0618 17:42:58.420055 20043 net.cpp:399] elt_b_1 -> elt_b_1
I0618 17:42:58.420092 20043 net.cpp:141] Setting up elt_b_1
I0618 17:42:58.420104 20043 net.cpp:148] Top shape: 100 64 32 32 (6553600)
I0618 17:42:58.420109 20043 net.cpp:156] Memory required for data: 558286000
I0618 17:42:58.420114 20043 layer_factory.hpp:77] Creating layer elt_b_1_elt_b_1_0_split
I0618 17:42:58.420121 20043 net.cpp:91] Creating Layer elt_b_1_elt_b_1_0_split
I0618 17:42:58.420127 20043 net.cpp:425] elt_b_1_elt_b_1_0_split <- elt_b_1
I0618 17:42:58.420136 20043 net.cpp:399] elt_b_1_elt_b_1_0_split -> elt_b_1_elt_b_1_0_split_0
I0618 17:42:58.420146 20043 net.cpp:399] elt_b_1_elt_b_1_0_split -> elt_b_1_elt_b_1_0_split_1
I0618 17:42:58.420155 20043 net.cpp:399] elt_b_1_elt_b_1_0_split -> elt_b_1_elt_b_1_0_split_2
I0618 17:42:58.420163 20043 net.cpp:399] elt_b_1_elt_b_1_0_split -> elt_b_1_elt_b_1_0_split_3
I0618 17:42:58.420236 20043 net.cpp:141] Setting up elt_b_1_elt_b_1_0_split
I0618 17:42:58.420246 20043 net.cpp:148] Top shape: 100 64 32 32 (6553600)
I0618 17:42:58.420253 20043 net.cpp:148] Top shape: 100 64 32 32 (6553600)
I0618 17:42:58.420259 20043 net.cpp:148] Top shape: 100 64 32 32 (6553600)
I0618 17:42:58.420265 20043 net.cpp:148] Top shape: 100 64 32 32 (6553600)
I0618 17:42:58.420270 20043 net.cpp:156] Memory required for data: 663143600
I0618 17:42:58.420276 20043 layer_factory.hpp:77] Creating layer bn_c_1_1
I0618 17:42:58.420286 20043 net.cpp:91] Creating Layer bn_c_1_1
I0618 17:42:58.420292 20043 net.cpp:425] bn_c_1_1 <- conv0_conv0_0_split_4
I0618 17:42:58.420302 20043 net.cpp:399] bn_c_1_1 -> bn_c_1_1
I0618 17:42:58.420522 20043 net.cpp:141] Setting up bn_c_1_1
I0618 17:42:58.420533 20043 net.cpp:148] Top shape: 100 16 32 32 (1638400)
I0618 17:42:58.420538 20043 net.cpp:156] Memory required for data: 669697200
I0618 17:42:58.420548 20043 layer_factory.hpp:77] Creating layer sc_c_1_1
I0618 17:42:58.420557 20043 net.cpp:91] Creating Layer sc_c_1_1
I0618 17:42:58.420562 20043 net.cpp:425] sc_c_1_1 <- bn_c_1_1
I0618 17:42:58.420570 20043 net.cpp:399] sc_c_1_1 -> sc_c_1_1
I0618 17:42:58.420625 20043 layer_factory.hpp:77] Creating layer sc_c_1_1
I0618 17:42:58.420760 20043 net.cpp:141] Setting up sc_c_1_1
I0618 17:42:58.420771 20043 net.cpp:148] Top shape: 100 16 32 32 (1638400)
I0618 17:42:58.420776 20043 net.cpp:156] Memory required for data: 676250800
I0618 17:42:58.420785 20043 layer_factory.hpp:77] Creating layer relu_c_1_1
I0618 17:42:58.420795 20043 net.cpp:91] Creating Layer relu_c_1_1
I0618 17:42:58.420801 20043 net.cpp:425] relu_c_1_1 <- sc_c_1_1
I0618 17:42:58.420809 20043 net.cpp:399] relu_c_1_1 -> relu_c_1_1
I0618 17:42:58.421097 20043 net.cpp:141] Setting up relu_c_1_1
I0618 17:42:58.421111 20043 net.cpp:148] Top shape: 100 16 32 32 (1638400)
I0618 17:42:58.421116 20043 net.cpp:156] Memory required for data: 682804400
I0618 17:42:58.421123 20043 layer_factory.hpp:77] Creating layer conv_c_1_1
I0618 17:42:58.421135 20043 net.cpp:91] Creating Layer conv_c_1_1
I0618 17:42:58.421142 20043 net.cpp:425] conv_c_1_1 <- relu_c_1_1
I0618 17:42:58.421154 20043 net.cpp:399] conv_c_1_1 -> conv_c_1_1
I0618 17:42:58.422376 20043 net.cpp:141] Setting up conv_c_1_1
I0618 17:42:58.422390 20043 net.cpp:148] Top shape: 100 64 32 32 (6553600)
I0618 17:42:58.422399 20043 net.cpp:156] Memory required for data: 709018800
I0618 17:42:58.422407 20043 layer_factory.hpp:77] Creating layer bn_c_1_2
I0618 17:42:58.422416 20043 net.cpp:91] Creating Layer bn_c_1_2
I0618 17:42:58.422422 20043 net.cpp:425] bn_c_1_2 <- conv_c_1_1
I0618 17:42:58.422436 20043 net.cpp:399] bn_c_1_2 -> bn_c_1_2
I0618 17:42:58.422674 20043 net.cpp:141] Setting up bn_c_1_2
I0618 17:42:58.422685 20043 net.cpp:148] Top shape: 100 64 32 32 (6553600)
I0618 17:42:58.422691 20043 net.cpp:156] Memory required for data: 735233200
I0618 17:42:58.422701 20043 layer_factory.hpp:77] Creating layer sc_c_1_2
I0618 17:42:58.422713 20043 net.cpp:91] Creating Layer sc_c_1_2
I0618 17:42:58.422729 20043 net.cpp:425] sc_c_1_2 <- bn_c_1_2
I0618 17:42:58.422739 20043 net.cpp:399] sc_c_1_2 -> sc_c_1_2
I0618 17:42:58.422792 20043 layer_factory.hpp:77] Creating layer sc_c_1_2
I0618 17:42:58.422929 20043 net.cpp:141] Setting up sc_c_1_2
I0618 17:42:58.422940 20043 net.cpp:148] Top shape: 100 64 32 32 (6553600)
I0618 17:42:58.422945 20043 net.cpp:156] Memory required for data: 761447600
I0618 17:42:58.422952 20043 layer_factory.hpp:77] Creating layer relu_c_1_2
I0618 17:42:58.422966 20043 net.cpp:91] Creating Layer relu_c_1_2
I0618 17:42:58.422971 20043 net.cpp:425] relu_c_1_2 <- sc_c_1_2
I0618 17:42:58.422979 20043 net.cpp:399] relu_c_1_2 -> relu_c_1_2
I0618 17:42:58.423163 20043 net.cpp:141] Setting up relu_c_1_2
I0618 17:42:58.423176 20043 net.cpp:148] Top shape: 100 64 32 32 (6553600)
I0618 17:42:58.423182 20043 net.cpp:156] Memory required for data: 787662000
I0618 17:42:58.423187 20043 layer_factory.hpp:77] Creating layer conv_c_1_2
I0618 17:42:58.423200 20043 net.cpp:91] Creating Layer conv_c_1_2
I0618 17:42:58.423207 20043 net.cpp:425] conv_c_1_2 <- relu_c_1_2
I0618 17:42:58.423215 20043 net.cpp:399] conv_c_1_2 -> conv_c_1_2
I0618 17:42:58.425060 20043 net.cpp:141] Setting up conv_c_1_2
I0618 17:42:58.425073 20043 net.cpp:148] Top shape: 100 64 32 32 (6553600)
I0618 17:42:58.425082 20043 net.cpp:156] Memory required for data: 813876400
I0618 17:42:58.425091 20043 layer_factory.hpp:77] Creating layer res_c
I0618 17:42:58.425104 20043 net.cpp:91] Creating Layer res_c
I0618 17:42:58.425112 20043 net.cpp:425] res_c <- conv0_conv0_0_split_5
I0618 17:42:58.425120 20043 net.cpp:399] res_c -> res_c
I0618 17:42:58.426146 20043 net.cpp:141] Setting up res_c
I0618 17:42:58.426161 20043 net.cpp:148] Top shape: 100 64 32 32 (6553600)
I0618 17:42:58.426165 20043 net.cpp:156] Memory required for data: 840090800
I0618 17:42:58.426173 20043 layer_factory.hpp:77] Creating layer elt_c_1
I0618 17:42:58.426184 20043 net.cpp:91] Creating Layer elt_c_1
I0618 17:42:58.426192 20043 net.cpp:425] elt_c_1 <- res_c
I0618 17:42:58.426198 20043 net.cpp:425] elt_c_1 <- conv_c_1_2
I0618 17:42:58.426208 20043 net.cpp:399] elt_c_1 -> elt_c_1
I0618 17:42:58.426241 20043 net.cpp:141] Setting up elt_c_1
I0618 17:42:58.426251 20043 net.cpp:148] Top shape: 100 64 32 32 (6553600)
…
I0618 17:42:58.430994 20043 net.cpp:91] Creating Layer relu_d_1_2
I0618 17:42:58.431000 20043 net.cpp:425] relu_d_1_2 <- sc_d_1_2
I0618 17:42:58.431010 20043 net.cpp:399] relu_d_1_2 -> relu_d_1_2
I0618 17:42:58.431299 20043 net.cpp:141] Setting up relu_d_1_2
I0618 17:42:58.431313 20043 net.cpp:148] Top shape: 100 128 16 16 (3276800)
I0618 17:42:58.431318 20043 net.cpp:156] Memory required for data: 1102234800
I0618 17:42:58.431324 20043 layer_factory.hpp:77] Creating layer conv_d_1_2
I0618 17:42:58.431342 20043 net.cpp:91] Creating Layer conv_d_1_2
I0618 17:42:58.431349 20043 net.cpp:425] conv_d_1_2 <- relu_d_1_2
I0618 17:42:58.431359 20043 net.cpp:399] conv_d_1_2 -> conv_d_1_2
I0618 17:42:58.435783 20043 net.cpp:141] Setting up conv_d_1_2
I0618 17:42:58.435797 20043 net.cpp:148] Top shape: 100 128 16 16 (3276800)
I0618 17:42:58.435817 20043 net.cpp:156] Memory required for data: 1115342000
I0618 17:42:58.435824 20043 layer_factory.hpp:77] Creating layer res_d
I0618 17:42:58.435837 20043 net.cpp:91] Creating Layer res_d
I0618 17:42:58.435842 20043 net.cpp:425] res_d <- elt_a_1_elt_a_1_0_split_1
I0618 17:42:58.435853 20043 net.cpp:399] res_d -> res_d
I0618 17:42:58.437083 20043 net.cpp:141] Setting up res_d
I0618 17:42:58.437096 20043 net.cpp:148] Top shape: 100 128 16 16 (3276800)
I0618 17:42:58.437101 20043 net.cpp:156] Memory required for data: 1128449200
I0618 17:42:58.437119 20043 layer_factory.hpp:77] Creating layer elt_d_1
I0618 17:42:58.437129 20043 net.cpp:91] Creating Layer elt_d_1
I0618 17:42:58.437135 20043 net.cpp:425] elt_d_1 <- res_d
I0618 17:42:58.437151 20043 net.cpp:425] elt_d_1 <- conv_d_1_2
I0618 17:42:58.437160 20043 net.cpp:399] elt_d_1 -> elt_d_1
I0618 17:42:58.437189 20043 net.cpp:141] Setting up elt_d_1
I0618 17:42:58.437201 20043 net.cpp:148] Top shape: 100 128 16 16 (3276800)
I0618 17:42:58.437206 20043 net.cpp:156] Memory required for data: 1141556400
I0618 17:42:58.437211 20043 layer_factory.hpp:77] Creating layer bn_f_1_1
I0618 17:42:58.437221 20043 net.cpp:91] Creating Layer bn_f_1_1
I0618 17:42:58.437227 20043 net.cpp:425] bn_f_1_1 <- elt_b_1_elt_b_1_0_split_0
I0618 17:42:58.437237 20043 net.cpp:399] bn_f_1_1 -> bn_f_1_1
I0618 17:42:58.437479 20043 net.cpp:141] Setting up bn_f_1_1
I0618 17:42:58.437489 20043 net.cpp:148] Top shape: 100 64 32 32 (6553600)
I0618 17:42:58.437494 20043 net.cpp:156] Memory required for data: 1167770800
I0618 17:42:58.437505 20043 layer_factory.hpp:77] Creating layer sc_f_1_1
I0618 17:42:58.437512 20043 net.cpp:91] Creating Layer sc_f_1_1
I0618 17:42:58.437517 20043 net.cpp:425] sc_f_1_1 <- bn_f_1_1
I0618 17:42:58.437523 20043 net.cpp:399] sc_f_1_1 -> sc_f_1_1
I0618 17:42:58.437587 20043 layer_factory.hpp:77] Creating layer sc_f_1_1
I0618 17:42:58.437729 20043 net.cpp:141] Setting up sc_f_1_1
I0618 17:42:58.437741 20043 net.cpp:148] Top shape: 100 64 32 32 (6553600)
I0618 17:42:58.437747 20043 net.cpp:156] Memory required for data: 1193985200
I0618 17:42:58.437754 20043 layer_factory.hpp:77] Creating layer relu_f_1_1
I0618 17:42:58.437767 20043 net.cpp:91] Creating Layer relu_f_1_1
I0618 17:42:58.437772 20043 net.cpp:425] relu_f_1_1 <- sc_f_1_1
I0618 17:42:58.437782 20043 net.cpp:399] relu_f_1_1 -> relu_f_1_1
I0618 17:42:58.438091 20043 net.cpp:141] Setting up relu_f_1_1
I0618 17:42:58.438105 20043 net.cpp:148] Top shape: 100 64 32 32 (6553600)
I0618 17:42:58.438110 20043 net.cpp:156] Memory required for data: 1220199600
I0618 17:42:58.438117 20043 layer_factory.hpp:77] Creating layer conv_f_1_1
I0618 17:42:58.438130 20043 net.cpp:91] Creating Layer conv_f_1_1
I0618 17:42:58.438136 20043 net.cpp:425] conv_f_1_1 <- relu_f_1_1
I0618 17:42:58.438148 20043 net.cpp:399] conv_f_1_1 -> conv_f_1_1
I0618 17:42:58.441387 20043 net.cpp:141] Setting up conv_f_1_1
I0618 17:42:58.441402 20043 net.cpp:148] Top shape: 100 128 16 16 (3276800)
I0618 17:42:58.441406 20043 net.cpp:156] Memory required for data: 1233306800
I0618 17:42:58.441414 20043 layer_factory.hpp:77] Creating layer bn_f_1_2
I0618 17:42:58.441424 20043 net.cpp:91] Creating Layer bn_f_1_2
I0618 17:42:58.441429 20043 net.cpp:425] bn_f_1_2 <- conv_f_1_1
I0618 17:42:58.441437 20043 net.cpp:399] bn_f_1_2 -> bn_f_1_2
I0618 17:42:58.441673 20043 net.cpp:141] Setting up bn_f_1_2
I0618 17:42:58.441684 20043 net.cpp:148] Top shape: 100 128 16 16 (3276800)
I0618 17:42:58.441689 20043 net.cpp:156] Memory required for data: 1246414000
I0618 17:42:58.441700 20043 layer_factory.hpp:77] Creating layer sc_f_1_2
I0618 17:42:58.441707 20043 net.cpp:91] Creating Layer sc_f_1_2
I0618 17:42:58.441714 20043 net.cpp:425] sc_f_1_2 <- bn_f_1_2
I0618 17:42:58.441722 20043 net.cpp:399] sc_f_1_2 -> sc_f_1_2
I0618 17:42:58.441787 20043 layer_factory.hpp:77] Creating layer sc_f_1_2
I0618 17:42:58.441923 20043 net.cpp:141] Setting up sc_f_1_2
I0618 17:42:58.441934 20043 net.cpp:148] Top shape: 100 128 16 16 (3276800)
I0618 17:42:58.441941 20043 net.cpp:156] Memory required for data: 1259521200
I0618 17:42:58.441948 20043 layer_factory.hpp:77] Creating layer relu_f_1_2
I0618 17:42:58.441956 20043 net.cpp:91] Creating Layer relu_f_1_2
I0618 17:42:58.441962 20043 net.cpp:425] relu_f_1_2 <- sc_f_1_2
I0618 17:42:58.441970 20043 net.cpp:399] relu_f_1_2 -> relu_f_1_2
I0618 17:42:58.442154 20043 net.cpp:141] Setting up relu_f_1_2
I0618 17:42:58.442167 20043 net.cpp:148] Top shape: 100 128 16 16 (3276800)
I0618 17:42:58.442173 20043 net.cpp:156] Memory required for data: 1272628400
I0618 17:42:58.442178 20043 layer_factory.hpp:77] Creating layer conv_f_1_2
I0618 17:42:58.442193 20043 net.cpp:91] Creating Layer conv_f_1_2
I0618 17:42:58.442199 20043 net.cpp:425] conv_f_1_2 <- relu_f_1_2
I0618 17:42:58.442219 20043 net.cpp:399] conv_f_1_2 -> conv_f_1_2
I0618 17:42:58.446645 20043 net.cpp:141] Setting up conv_f_1_2
I0618 17:42:58.446660 20043 net.cpp:148] Top shape: 100 128 16 16 (3276800)
I0618 17:42:58.446665 20043 net.cpp:156] Memory required for data: 1285735600
I0618 17:42:58.446672 20043 layer_factory.hpp:77] Creating layer res_f
I0618 17:42:58.446687 20043 net.cpp:91] Creating Layer res_f
I0618 17:42:58.446694 20043 net.cpp:425] res_f <- elt_b_1_elt_b_1_0_split_1
I0618 17:42:58.446703 20043 net.cpp:399] res_f -> res_f
I0618 17:42:58.447906 20043 net.cpp:141] Setting up res_f
I0618 17:42:58.447921 20043 net.cpp:148] Top shape: 100 128 16 16 (3276800)
I0618 17:42:58.447926 20043 net.cpp:156] Memory required for data: 1298842800
I0618 17:42:58.447935 20043 layer_factory.hpp:77] Creating layer elt_f_1
I0618 17:42:58.447942 20043 net.cpp:91] Creating Layer elt_f_1
I0618 17:42:58.447949 20043 net.cpp:425] elt_f_1 <- res_f
I0618 17:42:58.447957 20043 net.cpp:425] elt_f_1 <- conv_f_1_2
I0618 17:42:58.447967 20043 net.cpp:399] elt_f_1 -> elt_f_1
I0618 17:42:58.447996 20043 net.cpp:141] Setting up elt_f_1
I0618 17:42:58.448006 20043 net.cpp:148] Top shape: 100 128 16 16 (3276800)
I0618 17:42:58.448011 20043 net.cpp:156] Memory required for data: 1311950000
I0618 17:42:58.448017 20043 layer_factory.hpp:77] Creating layer bn_g_1_1
I0618 17:42:58.448027 20043 net.cpp:91] Creating Layer bn_g_1_1
I0618 17:42:58.448034 20043 net.cpp:425] bn_g_1_1 <- elt_b_1_elt_b_1_0_split_2
I0618 17:42:58.448043 20043 net.cpp:399] bn_g_1_1 -> bn_g_1_1
I0618 17:42:58.448287 20043 net.cpp:141] Setting up bn_g_1_1
I0618 17:42:58.448297 20043 net.cpp:148] Top shape: 100 64 32 32 (6553600)
I0618 17:42:58.448303 20043 net.cpp:156] Memory required for data: 1338164400
I0618 17:42:58.448313 20043 layer_factory.hpp:77] Creating layer sc_g_1_1
I0618 17:42:58.448323 20043 net.cpp:91] Creating Layer sc_g_1_1
I0618 17:42:58.448330 20043 net.cpp:425] sc_g_1_1 <- bn_g_1_1
I0618 17:42:58.448338 20043 net.cpp:399] sc_g_1_1 -> sc_g_1_1
I0618 17:42:58.448397 20043 layer_factory.hpp:77] Creating layer sc_g_1_1
I0618 17:42:58.448544 20043 net.cpp:141] Setting up sc_g_1_1
I0618 17:42:58.448554 20043 net.cpp:148] Top shape: 100 64 32 32 (6553600)
I0618 17:42:58.448559 20043 net.cpp:156] Memory required for data: 1364378800
I0618 17:42:58.448568 20043 layer_factory.hpp:77] Creating layer relu_g_1_1
I0618 17:42:58.448576 20043 net.cpp:91] Creating Layer relu_g_1_1
I0618 17:42:58.448582 20043 net.cpp:425] relu_g_1_1 <- sc_g_1_1
I0618 17:42:58.448593 20043 net.cpp:399] relu_g_1_1 -> relu_g_1_1
I0618 17:42:58.448783 20043 net.cpp:141] Setting up relu_g_1_1
I0618 17:42:58.448796 20043 net.cpp:148] Top shape: 100 64 32 32 (6553600)
I0618 17:42:58.448801 20043 net.cpp:156] Memory required for data: 1390593200
I0618 17:42:58.448807 20043 layer_factory.hpp:77] Creating layer conv_g_1_1
I0618 17:42:58.448822 20043 net.cpp:91] Creating Layer conv_g_1_1
I0618 17:42:58.448828 20043 net.cpp:425] conv_g_1_1 <- relu_g_1_1
I0618 17:42:58.448837 20043 net.cpp:399] conv_g_1_1 -> conv_g_1_1
I0618 17:42:58.452085 20043 net.cpp:141] Setting up conv_g_1_1
I0618 17:42:58.452100 20043 net.cpp:148] Top shape: 100 128 16 16 (3276800)
I0618 17:42:58.452105 20043 net.cpp:156] Memory required for data: 1403700400
I0618 17:42:58.452114 20043 layer_factory.hpp:77] Creating layer bn_g_1_2
I0618 17:42:58.452124 20043 net.cpp:91] Creating Layer bn_g_1_2
I0618 17:42:58.452131 20043 net.cpp:425] bn_g_1_2 <- conv_g_1_1
I0618 17:42:58.452138 20043 net.cpp:399] bn_g_1_2 -> bn_g_1_2
I0618 17:42:58.452379 20043 net.cpp:141] Setting up bn_g_1_2
I0618 17:42:58.452390 20043 net.cpp:148] Top shape: 100 128 16 16 (3276800)
I0618 17:42:58.452395 20043 net.cpp:156] Memory required for data: 1416807600
I0618 17:42:58.452405 20043 layer_factory.hpp:77] Creating layer sc_g_1_2
I0618 17:42:58.452416 20043 net.cpp:91] Creating Layer sc_g_1_2
I0618 17:42:58.452424 20043 net.cpp:425] sc_g_1_2 <- bn_g_1_2
I0618 17:42:58.452431 20043 net.cpp:399] sc_g_1_2 -> sc_g_1_2
I0618 17:42:58.452486 20043 layer_factory.hpp:77] Creating layer sc_g_1_2
I0618 17:42:58.452630 20043 net.cpp:141] Setting up sc_g_1_2
I0618 17:42:58.452641 20043 net.cpp:148] Top shape: 100 128 16 16 (3276800)
I0618 17:42:58.452647 20043 net.cpp:156] Memory required for data: 1429914800
I0618 17:42:58.452654 20043 layer_factory.hpp:77] Creating layer relu_g_1_2
I0618 17:42:58.452662 20043 net.cpp:91] Creating Layer relu_g_1_2
I0618 17:42:58.452668 20043 net.cpp:425] relu_g_1_2 <- sc_g_1_2
I0618 17:42:58.452678 20043 net.cpp:399] relu_g_1_2 -> relu_g_1_2
I0618 17:42:58.452973 20043 net.cpp:141] Setting up relu_g_1_2
I0618 17:42:58.452986 20043 net.cpp:148] Top shape: 100 128 16 16 (3276800)
I0618 17:42:58.452991 20043 net.cpp:156] Memory required for data: 1443022000
I0618 17:42:58.452998 20043 layer_factory.hpp:77] Creating layer conv_g_1_2
I0618 17:42:58.453016 20043 net.cpp:91] Creating Layer conv_g_1_2
I0618 17:42:58.453022 20043 net.cpp:425] conv_g_1_2 <- relu_g_1_2
I0618 17:42:58.453032 20043 net.cpp:399] conv_g_1_2 -> conv_g_1_2
I0618 17:42:58.457466 20043 net.cpp:141] Setting up conv_g_1_2
I0618 17:42:58.457481 20043 net.cpp:148] Top shape: 100 128 16 16 (3276800)
I0618 17:42:58.457486 20043 net.cpp:156] Memory required for data: 1456129200
I0618 17:42:58.457496 20043 layer_factory.hpp:77] Creating layer res_g
I0618 17:42:58.457509 20043 net.cpp:91] Creating Layer res_g
I0618 17:42:58.457515 20043 net.cpp:425] res_g <- elt_b_1_elt_b_1_0_split_3
I0618 17:42:58.457525 20043 net.cpp:399] res_g -> res_g
I0618 17:42:58.459194 20043 net.cpp:141] Setting up res_g
I0618 17:42:58.459213 20043 net.cpp:148] Top shape: 100 128 16 16 (3276800)
I0618 17:42:58.459221 20043 net.cpp:156] Memory required for data: 1469236400
I0618 17:42:58.459254 20043 layer_factory.hpp:77] Creating layer elt_g_1
I0618 17:42:58.459269 20043 net.cpp:91] Creating Layer elt_g_1
I0618 17:42:58.459275 20043 net.cpp:425] elt_g_1 <- res_g
I0618 17:42:58.459282 20043 net.cpp:425] elt_g_1 <- conv_g_1_2
I0618 17:42:58.459291 20043 net.cpp:399] elt_g_1 -> elt_g_1
I0618 17:42:58.459314 20043 net.cpp:141] Setting up elt_g_1
I0618 17:42:58.459324 20043 net.cpp:148] Top shape: 100 128 16 16 (3276800)
I0618 17:42:58.459329 20043 net.cpp:156] Memory required for data: 1482343600
I0618 17:42:58.459336 20043 layer_factory.hpp:77] Creating layer bn_h_1_1
I0618 17:42:58.459344 20043 net.cpp:91] Creating Layer bn_h_1_1
I0618 17:42:58.459352 20043 net.cpp:425] bn_h_1_1 <- elt_c_1_elt_c_1_0_split_0
I0618 17:42:58.459359 20043 net.cpp:399] bn_h_1_1 -> bn_h_1_1
I0618 17:42:58.459540 20043 net.cpp:141] Setting up bn_h_1_1
I0618 17:42:58.459552 20043 net.cpp:148] Top shape: 100 64 32 32 (6553600)
I0618 17:42:58.459556 20043 net.cpp:156] Memory required for data: 1508558000
I0618 17:42:58.459566 20043 layer_factory.hpp:77] Creating layer sc_h_1_1
I0618 17:42:58.459575 20043 net.cpp:91] Creating Layer sc_h_1_1
I0618 17:42:58.459580 20043 net.cpp:425] sc_h_1_1 <- bn_h_1_1
I0618 17:42:58.459589 20043 net.cpp:399] sc_h_1_1 -> sc_h_1_1
I0618 17:42:58.459631 20043 layer_factory.hpp:77] Creating layer sc_h_1_1
I0618 17:42:58.459746 20043 net.cpp:141] Setting up sc_h_1_1
I0618 17:42:58.459756 20043 net.cpp:148] Top shape: 100 64 32 32 (6553600)
I0618 17:42:58.459763 20043 net.cpp:156] Memory required for data: 1534772400
I0618 17:42:58.459771 20043 layer_factory.hpp:77] Creating layer relu_h_1_1
I0618 17:42:58.459781 20043 net.cpp:91] Creating Layer relu_h_1_1
I0618 17:42:58.459787 20043 net.cpp:425] relu_h_1_1 <- sc_h_1_1
I0618 17:42:58.459796 20043 net.cpp:399] relu_h_1_1 -> relu_h_1_1
I0618 17:42:58.460091 20043 net.cpp:141] Setting up relu_h_1_1
I0618 17:42:58.460105 20043 net.cpp:148] Top shape: 100 64 32 32 (6553600)
I0618 17:42:58.460111 20043 net.cpp:156] Memory required for data: 1560986800
I0618 17:42:58.460119 20043 layer_factory.hpp:77] Creating layer conv_h_1_1
I0618 17:42:58.460130 20043 net.cpp:91] Creating Layer conv_h_1_1
I0618 17:42:58.460137 20043 net.cpp:425] conv_h_1_1 <- relu_h_1_1
I0618 17:42:58.460149 20043 net.cpp:399] conv_h_1_1 -> conv_h_1_1
I0618 17:42:58.463317 20043 net.cpp:141] Setting up conv_h_1_1
I0618 17:42:58.463342 20043 net.cpp:148] Top shape: 100 128 16 16 (3276800)
I0618 17:42:58.463361 20043 net.cpp:156] Memory required for data: 1574094000
I0618 17:42:58.463369 20043 layer_factory.hpp:77] Creating layer bn_h_1_2
I0618 17:42:58.463382 20043 net.cpp:91] Creating Layer bn_h_1_2
I0618 17:42:58.463387 20043 net.cpp:425] bn_h_1_2 <- conv_h_1_1
I0618 17:42:58.463395 20043 net.cpp:399] bn_h_1_2 -> bn_h_1_2
I0618 17:42:58.463558 20043 net.cpp:141] Setting up bn_h_1_2
I0618 17:42:58.463572 20043 net.cpp:148] Top shape: 100 128 16 16 (3276800)
I0618 17:42:58.463582 20043 net.cpp:156] Memory required for data: 1587201200
I0618 17:42:58.463603 20043 layer_factory.hpp:77] Creating layer sc_h_1_2
I0618 17:42:58.463618 20043 net.cpp:91] Creating Layer sc_h_1_2
I0618 17:42:58.463629 20043 net.cpp:425] sc_h_1_2 <- bn_h_1_2
I0618 17:42:58.463647 20043 net.cpp:399] sc_h_1_2 -> sc_h_1_2
I0618 17:42:58.463701 20043 layer_factory.hpp:77] Creating layer sc_h_1_2
I0618 17:42:58.463804 20043 net.cpp:141] Setting up sc_h_1_2
I0618 17:42:58.463820 20043 net.cpp:148] Top shape: 100 128 16 16 (3276800)
I0618 17:42:58.463830 20043 net.cpp:156] Memory required for data: 1600308400
I0618 17:42:58.463847 20043 layer_factory.hpp:77] Creating layer relu_h_1_2
I0618 17:42:58.463860 20043 net.cpp:91] Creating Layer relu_h_1_2
I0618 17:42:58.463871 20043 net.cpp:425] relu_h_1_2 <- sc_h_1_2
I0618 17:42:58.463886 20043 net.cpp:399] relu_h_1_2 -> relu_h_1_2
I0618 17:42:58.464077 20043 net.cpp:141] Setting up relu_h_1_2
I0618 17:42:58.464094 20043 net.cpp:148] Top shape: 100 128 16 16 (3276800)
I0618 17:42:58.464105 20043 net.cpp:156] Memory required for data: 1613415600
I0618 17:42:58.464117 20043 layer_factory.hpp:77] Creating layer conv_h_1_2
I0618 17:42:58.464136 20043 net.cpp:91] Creating Layer conv_h_1_2
I0618 17:42:58.464148 20043 net.cpp:425] conv_h_1_2 <- relu_h_1_2
I0618 17:42:58.464164 20043 net.cpp:399] conv_h_1_2 -> conv_h_1_2
I0618 17:42:58.468552 20043 net.cpp:141] Setting up conv_h_1_2
I0618 17:42:58.468569 20043 net.cpp:148] Top shape: 100 128 16 16 (3276800)
I0618 17:42:58.468578 20043 net.cpp:156] Memory required for data: 1626522800
I0618 17:42:58.468610 20043 layer_factory.hpp:77] Creating layer res_h
I0618 17:42:58.468624 20043 net.cpp:91] Creating Layer res_h
I0618 17:42:58.468631 20043 net.cpp:425] res_h <- elt_c_1_elt_c_1_0_split_1
I0618 17:42:58.468641 20043 net.cpp:399] res_h -> res_h
I0618 17:42:58.469934 20043 net.cpp:141] Setting up res_h
I0618 17:42:58.469950 20043 net.cpp:148] Top shape: 100 128 16 16 (3276800)
I0618 17:42:58.469959 20043 net.cpp:156] Memory required for data: 1639630000
I0618 17:42:58.469966 20043 layer_factory.hpp:77] Creating layer elt_h_1
I0618 17:42:58.469974 20043 net.cpp:91] Creating Layer elt_h_1
I0618 17:42:58.469980 20043 net.cpp:425] elt_h_1 <- res_h
I0618 17:42:58.469985 20043 net.cpp:425] elt_h_1 <- conv_h_1_2
I0618 17:42:58.469995 20043 net.cpp:399] elt_h_1 -> elt_h_1
I0618 17:42:58.470017 20043 net.cpp:141] Setting up elt_h_1
I0618 17:42:58.470026 20043 net.cpp:148] Top shape: 100 128 16 16 (3276800)
I0618 17:42:58.470032 20043 net.cpp:156] Memory required for data: 1652737200
I0618 17:42:58.470037 20043 layer_factory.hpp:77] Creating layer bn_i_1_1
I0618 17:42:58.470047 20043 net.cpp:91] Creating Layer bn_i_1_1
I0618 17:42:58.470053 20043 net.cpp:425] bn_i_1_1 <- elt_c_1_elt_c_1_0_split_2
I0618 17:42:58.470063 20043 net.cpp:399] bn_i_1_1 -> bn_i_1_1
I0618 17:42:58.470243 20043 net.cpp:141] Setting up bn_i_1_1
I0618 17:42:58.470254 20043 net.cpp:148] Top shape: 100 64 32 32 (6553600)
I0618 17:42:58.470259 20043 net.cpp:156] Memory required for data: 1678951600
I0618 17:42:58.470269 20043 layer_factory.hpp:77] Creating layer sc_i_1_1
I0618 17:42:58.470278 20043 net.cpp:91] Creating Layer sc_i_1_1
I0618 17:42:58.470283 20043 net.cpp:425] sc_i_1_1 <- bn_i_1_1
I0618 17:42:58.470291 20043 net.cpp:399] sc_i_1_1 -> sc_i_1_1
I0618 17:42:58.470337 20043 layer_factory.hpp:77] Creating layer sc_i_1_1
I0618 17:42:58.470460 20043 net.cpp:141] Setting up sc_i_1_1
I0618 17:42:58.470471 20043 net.cpp:148] Top shape: 100 64 32 32 (6553600)
I0618 17:42:58.470489 20043 net.cpp:156] Memory required for data: 1705166000
I0618 17:42:58.470497 20043 layer_factory.hpp:77] Creating layer relu_i_1_1
I0618 17:42:58.470505 20043 net.cpp:91] Creating Layer relu_i_1_1
I0618 17:42:58.470511 20043 net.cpp:425] relu_i_1_1 <- sc_i_1_1
I0618 17:42:58.470521 20043 net.cpp:399] relu_i_1_1 -> relu_i_1_1
I0618 17:42:58.470713 20043 net.cpp:141] Setting up relu_i_1_1
I0618 17:42:58.470726 20043 net.cpp:148] Top shape: 100 64 32 32 (6553600)
I0618 17:42:58.470731 20043 net.cpp:156] Memory required for data: 1731380400
I0618 17:42:58.470736 20043 layer_factory.hpp:77] Creating layer conv_i_1_1
I0618 17:42:58.470751 20043 net.cpp:91] Creating Layer conv_i_1_1
I0618 17:42:58.470757 20043 net.cpp:425] conv_i_1_1 <- relu_i_1_1
I0618 17:42:58.470767 20043 net.cpp:399] conv_i_1_1 -> conv_i_1_1
I0618 17:42:58.473956 20043 net.cpp:141] Setting up conv_i_1_1
I0618 17:42:58.473971 20043 net.cpp:148] Top shape: 100 128 16 16 (3276800)
I0618 17:42:58.473976 20043 net.cpp:156] Memory required for data: 1744487600
I0618 17:42:58.473986 20043 layer_factory.hpp:77] Creating layer bn_i_1_2
I0618 17:42:58.473997 20043 net.cpp:91] Creating Layer bn_i_1_2
I0618 17:42:58.474004 20043 net.cpp:425] bn_i_1_2 <- conv_i_1_1
I0618 17:42:58.474012 20043 net.cpp:399] bn_i_1_2 -> bn_i_1_2
I0618 17:42:58.474179 20043 net.cpp:141] Setting up bn_i_1_2
I0618 17:42:58.474189 20043 net.cpp:148] Top shape: 100 128 16 16 (3276800)
I0618 17:42:58.474195 20043 net.cpp:156] Memory required for data: 1757594800
I0618 17:42:58.474205 20043 layer_factory.hpp:77] Creating layer sc_i_1_2
I0618 17:42:58.474212 20043 net.cpp:91] Creating Layer sc_i_1_2
I0618 17:42:58.474217 20043 net.cpp:425] sc_i_1_2 <- bn_i_1_2
I0618 17:42:58.474227 20043 net.cpp:399] sc_i_1_2 -> sc_i_1_2
I0618 17:42:58.474266 20043 layer_factory.hpp:77] Creating layer sc_i_1_2
I0618 17:42:58.474360 20043 net.cpp:141] Setting up sc_i_1_2
I0618 17:42:58.474370 20043 net.cpp:148] Top shape: 100 128 16 16 (3276800)
I0618 17:42:58.474376 20043 net.cpp:156] Memory required for data: 1770702000
I0618 17:42:58.474385 20043 layer_factory.hpp:77] Creating layer relu_i_1_2
I0618 17:42:58.474395 20043 net.cpp:91] Creating Layer relu_i_1_2
I0618 17:42:58.474401 20043 net.cpp:425] relu_i_1_2 <- sc_i_1_2
I0618 17:42:58.474409 20043 net.cpp:399] relu_i_1_2 -> relu_i_1_2
I0618 17:42:58.474700 20043 net.cpp:141] Setting up relu_i_1_2
I0618 17:42:58.474714 20043 net.cpp:148] Top shape: 100 128 16 16 (3276800)
I0618 17:42:58.474720 20043 net.cpp:156] Memory required for data: 1783809200
I0618 17:42:58.474725 20043 layer_factory.hpp:77] Creating layer conv_i_1_2
I0618 17:42:58.474737 20043 net.cpp:91] Creating Layer conv_i_1_2
I0618 17:42:58.474745 20043 net.cpp:425] conv_i_1_2 <- relu_i_1_2
I0618 17:42:58.474756 20043 net.cpp:399] conv_i_1_2 -> conv_i_1_2
I0618 17:42:58.479012 20043 net.cpp:141] Setting up conv_i_1_2
I0618 17:42:58.479025 20043 net.cpp:148] Top shape: 100 128 16 16 (3276800)
I0618 17:42:58.479043 20043 net.cpp:156] Memory required for data: 1796916400
I0618 17:42:58.479051 20043 layer_factory.hpp:77] Creating layer res_i
I0618 17:42:58.479063 20043 net.cpp:91] Creating Layer res_i
I0618 17:42:58.479069 20043 net.cpp:425] res_i <- elt_c_1_elt_c_1_0_split_3
I0618 17:42:58.479081 20043 net.cpp:399] res_i -> res_i
I0618 17:42:58.480221 20043 net.cpp:141] Setting up res_i
I0618 17:42:58.480247 20043 net.cpp:148] Top shape: 100 128 16 16 (3276800)
I0618 17:42:58.480253 20043 net.cpp:156] Memory required for data: 1810023600
I0618 17:42:58.480275 20043 layer_factory.hpp:77] Creating layer elt_i_1
I0618 17:42:58.480288 20043 net.cpp:91] Creating Layer elt_i_1
I0618 17:42:58.480294 20043 net.cpp:425] elt_i_1 <- res_i
I0618 17:42:58.480300 20043 net.cpp:425] elt_i_1 <- conv_i_1_2
I0618 17:42:58.480312 20043 net.cpp:399] elt_i_1 -> elt_i_1
I0618 17:42:58.480345 20043 net.cpp:141] Setting up elt_i_1
I0618 17:42:58.480358 20043 net.cpp:148] Top shape: 100 128 16 16 (3276800)
I0618 17:42:58.480388 20043 net.cpp:156] Memory required for data: 1823130800
I0618 17:42:58.480406 20043 layer_factory.hpp:77] Creating layer elt_d_f
I0618 17:42:58.480418 20043 net.cpp:91] Creating Layer elt_d_f
I0618 17:42:58.480424 20043 net.cpp:425] elt_d_f <- elt_d_1
I0618 17:42:58.480432 20043 net.cpp:425] elt_d_f <- elt_f_1
I0618 17:42:58.480439 20043 net.cpp:399] elt_d_f -> elt_d_f
I0618 17:42:58.480468 20043 net.cpp:141] Setting up elt_d_f
I0618 17:42:58.480476 20043 net.cpp:148] Top shape: 100 128 16 16 (3276800)
I0618 17:42:58.480481 20043 net.cpp:156] Memory required for data: 1836238000
I0618 17:42:58.480489 20043 layer_factory.hpp:77] Creating layer elt_d_f_elt_d_f_0_split
I0618 17:42:58.480497 20043 net.cpp:91] Creating Layer elt_d_f_elt_d_f_0_split
I0618 17:42:58.480502 20043 net.cpp:425] elt_d_f_elt_d_f_0_split <- elt_d_f
I0618 17:42:58.480512 20043 net.cpp:399] elt_d_f_elt_d_f_0_split -> elt_d_f_elt_d_f_0_split_0
I0618 17:42:58.480521 20043 net.cpp:399] elt_d_f_elt_d_f_0_split -> elt_d_f_elt_d_f_0_split_1
I0618 17:42:58.480556 20043 net.cpp:141] Setting up elt_d_f_elt_d_f_0_split
I0618 17:42:58.480566 20043 net.cpp:148] Top shape: 100 128 16 16 (3276800)
I0618 17:42:58.480572 20043 net.cpp:148] Top shape: 100 128 16 16 (3276800)
I0618 17:42:58.480577 20043 net.cpp:156] Memory required for data: 1862452400
I0618 17:42:58.480582 20043 layer_factory.hpp:77] Creating layer elt_g_i
I0618 17:42:58.480592 20043 net.cpp:91] Creating Layer elt_g_i
I0618 17:42:58.480597 20043 net.cpp:425] elt_g_i <- elt_g_1
I0618 17:42:58.480604 20043 net.cpp:425] elt_g_i <- elt_i_1
I0618 17:42:58.480612 20043 net.cpp:399] elt_g_i -> elt_g_i
I0618 17:42:58.480641 20043 net.cpp:141] Setting up elt_g_i
I0618 17:42:58.480651 20043 net.cpp:148] Top shape: 100 128 16 16 (3276800)
I0618 17:42:58.480656 20043 net.cpp:156] Memory required for data: 1875559600
I0618 17:42:58.480662 20043 layer_factory.hpp:77] Creating layer elt_g_i_elt_g_i_0_split
I0618 17:42:58.480669 20043 net.cpp:91] Creating Layer elt_g_i_elt_g_i_0_split
I0618 17:42:58.480674 20043 net.cpp:425] elt_g_i_elt_g_i_0_split <- elt_g_i
I0618 17:42:58.480684 20043 net.cpp:399] elt_g_i_elt_g_i_0_split -> elt_g_i_elt_g_i_0_split_0
I0618 17:42:58.480692 20043 net.cpp:399] elt_g_i_elt_g_i_0_split -> elt_g_i_elt_g_i_0_split_1
I0618 17:42:58.480727 20043 net.cpp:141] Setting up elt_g_i_elt_g_i_0_split
I0618 17:42:58.480736 20043 net.cpp:148] Top shape: 100 128 16 16 (3276800)
I0618 17:42:58.480742 20043 net.cpp:148] Top shape: 100 128 16 16 (3276800)
I0618 17:42:58.480747 20043 net.cpp:156] Memory required for data: 1901774000
I0618 17:42:58.480753 20043 layer_factory.hpp:77] Creating layer bn_j_1_1
I0618 17:42:58.480762 20043 net.cpp:91] Creating Layer bn_j_1_1
I0618 17:42:58.480767 20043 net.cpp:425] bn_j_1_1 <- elt_d_f_elt_d_f_0_split_0
I0618 17:42:58.480777 20043 net.cpp:399] bn_j_1_1 -> bn_j_1_1
I0618 17:42:58.480929 20043 net.cpp:141] Setting up bn_j_1_1
I0618 17:42:58.480940 20043 net.cpp:148] Top shape: 100 128 16 16 (3276800)
I0618 17:42:58.480945 20043 net.cpp:156] Memory required for data: 1914881200
I0618 17:42:58.480955 20043 layer_factory.hpp:77] Creating layer sc_j_1_1
I0618 17:42:58.480963 20043 net.cpp:91] Creating Layer sc_j_1_1
I0618 17:42:58.480968 20043 net.cpp:425] sc_j_1_1 <- bn_j_1_1
I0618 17:42:58.480976 20043 net.cpp:399] sc_j_1_1 -> sc_j_1_1
I0618 17:42:58.481016 20043 layer_factory.hpp:77] Creating layer sc_j_1_1
I0618 17:42:58.481108 20043 net.cpp:141] Setting up sc_j_1_1
I0618 17:42:58.481120 20043 net.cpp:148] Top shape: 100 128 16 16 (3276800)
I0618 17:42:58.481125 20043 net.cpp:156] Memory required for data: 1927988400
I0618 17:42:58.481134 20043 layer_factory.hpp:77] Creating layer relu_j_1_1
I0618 17:42:58.481142 20043 net.cpp:91] Creating Layer relu_j_1_1
I0618 17:42:58.481148 20043 net.cpp:425] relu_j_1_1 <- sc_j_1_1
I0618 17:42:58.481156 20043 net.cpp:399] relu_j_1_1 -> relu_j_1_1
I0618 17:42:58.481451 20043 net.cpp:141] Setting up relu_j_1_1
I0618 17:42:58.481464 20043 net.cpp:148] Top shape: 100 128 16 16 (3276800)
I0618 17:42:58.481469 20043 net.cpp:156] Memory required for data: 1941095600
I0618 17:42:58.481484 20043 layer_factory.hpp:77] Creating layer conv_j_1_1
I0618 17:42:58.481499 20043 net.cpp:91] Creating Layer conv_j_1_1
I0618 17:42:58.481506 20043 net.cpp:425] conv_j_1_1 <- relu_j_1_1
I0618 17:42:58.481515 20043 net.cpp:399] conv_j_1_1 -> conv_j_1_1
I0618 17:42:58.490073 20043 net.cpp:141] Setting up conv_j_1_1
I0618 17:42:58.490088 20043 net.cpp:148] Top shape: 100 256 8 8 (1638400)
I0618 17:42:58.490093 20043 net.cpp:156] Memory required for data: 1947649200
I0618 17:42:58.490103 20043 layer_factory.hpp:77] Creating layer bn_j_1_2
I0618 17:42:58.490114 20043 net.cpp:91] Creating Layer bn_j_1_2
I0618 17:42:58.490120 20043 net.cpp:425] bn_j_1_2 <- conv_j_1_1
I0618 17:42:58.490128 20043 net.cpp:399] bn_j_1_2 -> bn_j_1_2
I0618 17:42:58.490296 20043 net.cpp:141] Setting up bn_j_1_2
I0618 17:42:58.490308 20043 net.cpp:148] Top shape: 100 256 8 8 (1638400)
I0618 17:42:58.490312 20043 net.cpp:156] Memory required for data: 1954202800
I0618 17:42:58.490321 20043 layer_factory.hpp:77] Creating layer sc_j_1_2
I0618 17:42:58.490330 20043 net.cpp:91] Creating Layer sc_j_1_2
I0618 17:42:58.490336 20043 net.cpp:425] sc_j_1_2 <- bn_j_1_2
I0618 17:42:58.490345 20043 net.cpp:399] sc_j_1_2 -> sc_j_1_2
I0618 17:42:58.490388 20043 layer_factory.hpp:77] Creating layer sc_j_1_2
I0618 17:42:58.490491 20043 net.cpp:141] Setting up sc_j_1_2
I0618 17:42:58.490502 20043 net.cpp:148] Top shape: 100 256 8 8 (1638400)
I0618 17:42:58.490507 20043 net.cpp:156] Memory required for data: 1960756400
I0618 17:42:58.490515 20043 layer_factory.hpp:77] Creating layer relu_j_1_2
I0618 17:42:58.490525 20043 net.cpp:91] Creating Layer relu_j_1_2
I0618 17:42:58.490531 20043 net.cpp:425] relu_j_1_2 <- sc_j_1_2
I0618 17:42:58.490538 20043 net.cpp:399] relu_j_1_2 -> relu_j_1_2
I0618 17:42:58.490725 20043 net.cpp:141] Setting up relu_j_1_2
I0618 17:42:58.490742 20043 net.cpp:148] Top shape: 100 256 8 8 (1638400)
I0618 17:42:58.490769 20043 net.cpp:156] Memory required for data: 1967310000
I0618 17:42:58.490778 20043 layer_factory.hpp:77] Creating layer conv_j_1_2
I0618 17:42:58.490792 20043 net.cpp:91] Creating Layer conv_j_1_2
I0618 17:42:58.490798 20043 net.cpp:425] conv_j_1_2 <- relu_j_1_2
I0618 17:42:58.490808 20043 net.cpp:399] conv_j_1_2 -> conv_j_1_2
I0618 17:42:58.506479 20043 net.cpp:141] Setting up conv_j_1_2
I0618 17:42:58.506499 20043 net.cpp:148] Top shape: 100 256 8 8 (1638400)
I0618 17:42:58.506507 20043 net.cpp:156] Memory required for data: 1973863600
I0618 17:42:58.506522 20043 layer_factory.hpp:77] Creating layer res_j
I0618 17:42:58.506558 20043 net.cpp:91] Creating Layer res_j
I0618 17:42:58.506569 20043 net.cpp:425] res_j <- elt_d_f_elt_d_f_0_split_1
I0618 17:42:58.506579 20043 net.cpp:399] res_j -> res_j
I0618 17:42:58.508450 20043 net.cpp:141] Setting up res_j
I0618 17:42:58.508479 20043 net.cpp:148] Top shape: 100 256 8 8 (1638400)
I0618 17:42:58.508484 20043 net.cpp:156] Memory required for data: 1980417200
I0618 17:42:58.508493 20043 layer_factory.hpp:77] Creating layer elt_j_1
I0618 17:42:58.508502 20043 net.cpp:91] Creating Layer elt_j_1
I0618 17:42:58.508508 20043 net.cpp:425] elt_j_1 <- res_j
I0618 17:42:58.508514 20043 net.cpp:425] elt_j_1 <- conv_j_1_2
I0618 17:42:58.508522 20043 net.cpp:399] elt_j_1 -> elt_j_1
I0618 17:42:58.508551 20043 net.cpp:141] Setting up elt_j_1
I0618 17:42:58.508561 20043 net.cpp:148] Top shape: 100 256 8 8 (1638400)
I0618 17:42:58.508566 20043 net.cpp:156] Memory required for data: 1986970800
I0618 17:42:58.508571 20043 layer_factory.hpp:77] Creating layer bn_e_1_1
I0618 17:42:58.508582 20043 net.cpp:91] Creating Layer bn_e_1_1
I0618 17:42:58.508589 20043 net.cpp:425] bn_e_1_1 <- elt_a_1_elt_a_1_0_split_2
I0618 17:42:58.508599 20043 net.cpp:399] bn_e_1_1 -> bn_e_1_1
I0618 17:42:58.508785 20043 net.cpp:141] Setting up bn_e_1_1
I0618 17:42:58.508796 20043 net.cpp:148] Top shape: 100 64 32 32 (6553600)
I0618 17:42:58.508801 20043 net.cpp:156] Memory required for data: 2013185200
I0618 17:42:58.508810 20043 layer_factory.hpp:77] Creating layer sc_e_1_1
I0618 17:42:58.508821 20043 net.cpp:91] Creating Layer sc_e_1_1
I0618 17:42:58.508838 20043 net.cpp:425] sc_e_1_1 <- bn_e_1_1
I0618 17:42:58.508847 20043 net.cpp:399] sc_e_1_1 -> sc_e_1_1
I0618 17:42:58.508891 20043 layer_factory.hpp:77] Creating layer sc_e_1_1
I0618 17:42:58.509014 20043 net.cpp:141] Setting up sc_e_1_1
I0618 17:42:58.509026 20043 net.cpp:148] Top shape: 100 64 32 32 (6553600)
I0618 17:42:58.509030 20043 net.cpp:156] Memory required for data: 2039399600
I0618 17:42:58.509039 20043 layer_factory.hpp:77] Creating layer relu_e_1_1
I0618 17:42:58.509047 20043 net.cpp:91] Creating Layer relu_e_1_1
I0618 17:42:58.509053 20043 net.cpp:425] relu_e_1_1 <- sc_e_1_1
I0618 17:42:58.509063 20043 net.cpp:399] relu_e_1_1 -> relu_e_1_1
I0618 17:42:58.509259 20043 net.cpp:141] Setting up relu_e_1_1
I0618 17:42:58.509271 20043 net.cpp:148] Top shape: 100 64 32 32 (6553600)
I0618 17:42:58.509277 20043 net.cpp:156] Memory required for data: 2065614000
I0618 17:42:58.509282 20043 layer_factory.hpp:77] Creating layer conv_e_1_1
I0618 17:42:58.509297 20043 net.cpp:91] Creating Layer conv_e_1_1
I0618 17:42:58.509304 20043 net.cpp:425] conv_e_1_1 <- relu_e_1_1
I0618 17:42:58.509312 20043 net.cpp:399] conv_e_1_1 -> conv_e_1_1
I0618 17:42:58.512497 20043 net.cpp:141] Setting up conv_e_1_1
I0618 17:42:58.512512 20043 net.cpp:148] Top shape: 100 128 16 16 (3276800)
I0618 17:42:58.512517 20043 net.cpp:156] Memory required for data: 2078721200
I0618 17:42:58.512528 20043 layer_factory.hpp:77] Creating layer bn_e_1_2
I0618 17:42:58.512539 20043 net.cpp:91] Creating Layer bn_e_1_2
I0618 17:42:58.512547 20043 net.cpp:425] bn_e_1_2 <- conv_e_1_1
I0618 17:42:58.512557 20043 net.cpp:399] bn_e_1_2 -> bn_e_1_2
I0618 17:42:58.512724 20043 net.cpp:141] Setting up bn_e_1_2
I0618 17:42:58.512735 20043 net.cpp:148] Top shape: 100 128 16 16 (3276800)
I0618 17:42:58.512742 20043 net.cpp:156] Memory required for data: 2091828400
I0618 17:42:58.512751 20043 layer_factory.hpp:77] Creating layer sc_e_1_2
I0618 17:42:58.512764 20043 net.cpp:91] Creating Layer sc_e_1_2
I0618 17:42:58.512771 20043 net.cpp:425] sc_e_1_2 <- bn_e_1_2
I0618 17:42:58.512779 20043 net.cpp:399] sc_e_1_2 -> sc_e_1_2
I0618 17:42:58.512822 20043 layer_factory.hpp:77] Creating layer sc_e_1_2
I0618 17:42:58.512919 20043 net.cpp:141] Setting up sc_e_1_2
I0618 17:42:58.512929 20043 net.cpp:148] Top shape: 100 128 16 16 (3276800)
I0618 17:42:58.512935 20043 net.cpp:156] Memory required for data: 2104935600
I0618 17:42:58.512944 20043 layer_factory.hpp:77] Creating layer relu_e_1_2
I0618 17:42:58.512951 20043 net.cpp:91] Creating Layer relu_e_1_2
I0618 17:42:58.512958 20043 net.cpp:425] relu_e_1_2 <- sc_e_1_2
I0618 17:42:58.512965 20043 net.cpp:399] relu_e_1_2 -> relu_e_1_2
I0618 17:42:58.513265 20043 net.cpp:141] Setting up relu_e_1_2
I0618 17:42:58.513278 20043 net.cpp:148] Top shape: 100 128 16 16 (3276800)
I0618 17:42:58.513284 20043 net.cpp:156] Memory required for data: 2118042800
I0618 17:42:58.513289 20043 layer_factory.hpp:77] Creating layer conv_e_1_2
I0618 17:42:58.513305 20043 net.cpp:91] Creating Layer conv_e_1_2
I0618 17:42:58.513312 20043 net.cpp:425] conv_e_1_2 <- relu_e_1_2
I0618 17:42:58.513321 20043 net.cpp:399] conv_e_1_2 -> conv_e_1_2
I0618 17:42:58.517805 20043 net.cpp:141] Setting up conv_e_1_2
I0618 17:42:58.517833 20043 net.cpp:148] Top shape: 100 128 16 16 (3276800)
I0618 17:42:58.517838 20043 net.cpp:156] Memory required for data: 2131150000
I0618 17:42:58.517846 20043 layer_factory.hpp:77] Creating layer res_e
I0618 17:42:58.517860 20043 net.cpp:91] Creating Layer res_e
I0618 17:42:58.517873 20043 net.cpp:425] res_e <- elt_a_1_elt_a_1_0_split_3
I0618 17:42:58.517889 20043 net.cpp:399] res_e -> res_e
I0618 17:42:58.519060 20043 net.cpp:141] Setting up res_e
I0618 17:42:58.519076 20043 net.cpp:148] Top shape: 100 128 16 16 (3276800)
I0618 17:42:58.519081 20043 net.cpp:156] Memory required for data: 2144257200
I0618 17:42:58.519089 20043 layer_factory.hpp:77] Creating layer elt_e_1
I0618 17:42:58.519098 20043 net.cpp:91] Creating Layer elt_e_1
I0618 17:42:58.519103 20043 net.cpp:425] elt_e_1 <- res_e
I0618 17:42:58.519120 20043 net.cpp:425] elt_e_1 <- conv_e_1_2
I0618 17:42:58.519129 20043 net.cpp:399] elt_e_1 -> elt_e_1
I0618 17:42:58.519166 20043 net.cpp:141] Setting up elt_e_1
I0618 17:42:58.519179 20043 net.cpp:148] Top shape: 100 128 16 16 (3276800)
I0618 17:42:58.519186 20043 net.cpp:156] Memory required for data: 2157364400
I0618 17:42:58.519191 20043 layer_factory.hpp:77] Creating layer elt_e_h
I0618 17:42:58.519198 20043 net.cpp:91] Creating Layer elt_e_h
I0618 17:42:58.519206 20043 net.cpp:425] elt_e_h <- elt_e_1
I0618 17:42:58.519212 20043 net.cpp:425] elt_e_h <- elt_h_1
I0618 17:42:58.519222 20043 net.cpp:399] elt_e_h -> elt_e_h
I0618 17:42:58.519248 20043 net.cpp:141] Setting up elt_e_h
I0618 17:42:58.519258 20043 net.cpp:148] Top shape: 100 128 16 16 (3276800)
I0618 17:42:58.519263 20043 net.cpp:156] Memory required for data: 2170471600
I0618 17:42:58.519268 20043 layer_factory.hpp:77] Creating layer elt_e_h_elt_e_h_0_split
I0618 17:42:58.519278 20043 net.cpp:91] Creating Layer elt_e_h_elt_e_h_0_split
I0618 17:42:58.519284 20043 net.cpp:425] elt_e_h_elt_e_h_0_split <- elt_e_h
I0618 17:42:58.519291 20043 net.cpp:399] elt_e_h_elt_e_h_0_split -> elt_e_h_elt_e_h_0_split_0
I0618 17:42:58.519300 20043 net.cpp:399] elt_e_h_elt_e_h_0_split -> elt_e_h_elt_e_h_0_split_1
I0618 17:42:58.519338 20043 net.cpp:141] Setting up elt_e_h_elt_e_h_0_split
I0618 17:42:58.519347 20043 net.cpp:148] Top shape: 100 128 16 16 (3276800)
I0618 17:42:58.519354 20043 net.cpp:148] Top shape: 100 128 16 16 (3276800)
I0618 17:42:58.519359 20043 net.cpp:156] Memory required for data: 2196686000
I0618 17:42:58.519366 20043 layer_factory.hpp:77] Creating layer bn_k_1_1
I0618 17:42:58.519376 20043 net.cpp:91] Creating Layer bn_k_1_1
I0618 17:42:58.519381 20043 net.cpp:425] bn_k_1_1 <- elt_e_h_elt_e_h_0_split_0
I0618 17:42:58.519389 20043 net.cpp:399] bn_k_1_1 -> bn_k_1_1
I0618 17:42:58.519551 20043 net.cpp:141] Setting up bn_k_1_1
I0618 17:42:58.519562 20043 net.cpp:148] Top shape: 100 128 16 16 (3276800)
I0618 17:42:58.519567 20043 net.cpp:156] Memory required for data: 2209793200
I0618 17:42:58.519577 20043 layer_factory.hpp:77] Creating layer sc_k_1_1
I0618 17:42:58.519585 20043 net.cpp:91] Creating Layer sc_k_1_1
I0618 17:42:58.519592 20043 net.cpp:425] sc_k_1_1 <- bn_k_1_1
I0618 17:42:58.519599 20043 net.cpp:399] sc_k_1_1 -> sc_k_1_1
I0618 17:42:58.519644 20043 layer_factory.hpp:77] Creating layer sc_k_1_1
I0618 17:42:58.519744 20043 net.cpp:141] Setting up sc_k_1_1
I0618 17:42:58.519755 20043 net.cpp:148] Top shape: 100 128 16 16 (3276800)
I0618 17:42:58.519760 20043 net.cpp:156] Memory required for data: 2222900400
I0618 17:42:58.519769 20043 layer_factory.hpp:77] Creating layer relu_k_1_1
I0618 17:42:58.519779 20043 net.cpp:91] Creating Layer relu_k_1_1
I0618 17:42:58.519785 20043 net.cpp:425] relu_k_1_1 <- sc_k_1_1
I0618 17:42:58.519794 20043 net.cpp:399] relu_k_1_1 -> relu_k_1_1
I0618 17:42:58.520090 20043 net.cpp:141] Setting up relu_k_1_1
I0618 17:42:58.520107 20043 net.cpp:148] Top shape: 100 128 16 16 (3276800)
I0618 17:42:58.520112 20043 net.cpp:156] Memory required for data: 2236007600
I0618 17:42:58.520118 20043 layer_factory.hpp:77] Creating layer conv_k_1_1
I0618 17:42:58.520131 20043 net.cpp:91] Creating Layer conv_k_1_1
I0618 17:42:58.520138 20043 net.cpp:425] conv_k_1_1 <- relu_k_1_1
I0618 17:42:58.520148 20043 net.cpp:399] conv_k_1_1 -> conv_k_1_1
I0618 17:42:58.528514 20043 net.cpp:141] Setting up conv_k_1_1
I0618 17:42:58.528530 20043 net.cpp:148] Top shape: 100 256 8 8 (1638400)
I0618 17:42:58.528535 20043 net.cpp:156] Memory required for data: 2242561200
I0618 17:42:58.528543 20043 layer_factory.hpp:77] Creating layer bn_k_1_2
I0618 17:42:58.528553 20043 net.cpp:91] Creating Layer bn_k_1_2
I0618 17:42:58.528559 20043 net.cpp:425] bn_k_1_2 <- conv_k_1_1
I0618 17:42:58.528568 20043 net.cpp:399] bn_k_1_2 -> bn_k_1_2
I0618 17:42:58.528766 20043 net.cpp:141] Setting up bn_k_1_2
I0618 17:42:58.528779 20043 net.cpp:148] Top shape: 100 256 8 8 (1638400)
I0618 17:42:58.528785 20043 net.cpp:156] Memory required for data: 2249114800
I0618 17:42:58.528806 20043 layer_factory.hpp:77] Creating layer sc_k_1_2
I0618 17:42:58.528820 20043 net.cpp:91] Creating Layer sc_k_1_2
I0618 17:42:58.528825 20043 net.cpp:425] sc_k_1_2 <- bn_k_1_2
I0618 17:42:58.528834 20043 net.cpp:399] sc_k_1_2 -> sc_k_1_2
I0618 17:42:58.528878 20043 layer_factory.hpp:77] Creating layer sc_k_1_2
I0618 17:42:58.528985 20043 net.cpp:141] Setting up sc_k_1_2
I0618 17:42:58.528996 20043 net.cpp:148] Top shape: 100 256 8 8 (1638400)
I0618 17:42:58.529001 20043 net.cpp:156] Memory required for data: 2255668400
I0618 17:42:58.529014 20043 layer_factory.hpp:77] Creating layer relu_k_1_2
I0618 17:42:58.529033 20043 net.cpp:91] Creating Layer relu_k_1_2
I0618 17:42:58.529042 20043 net.cpp:425] relu_k_1_2 <- sc_k_1_2
I0618 17:42:58.529050 20043 net.cpp:399] relu_k_1_2 -> relu_k_1_2
I0618 17:42:58.529243 20043 net.cpp:141] Setting up relu_k_1_2
I0618 17:42:58.529255 20043 net.cpp:148] Top shape: 100 256 8 8 (1638400)
I0618 17:42:58.529261 20043 net.cpp:156] Memory required for data: 2262222000
I0618 17:42:58.529266 20043 layer_factory.hpp:77] Creating layer conv_k_1_2
I0618 17:42:58.529283 20043 net.cpp:91] Creating Layer conv_k_1_2
I0618 17:42:58.529289 20043 net.cpp:425] conv_k_1_2 <- relu_k_1_2
I0618 17:42:58.529297 20043 net.cpp:399] conv_k_1_2 -> conv_k_1_2
I0618 17:42:58.544970 20043 net.cpp:141] Setting up conv_k_1_2
I0618 17:42:58.544992 20043 net.cpp:148] Top shape: 100 256 8 8 (1638400)
I0618 17:42:58.545001 20043 net.cpp:156] Memory required for data: 2268775600
I0618 17:42:58.545017 20043 layer_factory.hpp:77] Creating layer res_k
I0618 17:42:58.545055 20043 net.cpp:91] Creating Layer res_k
I0618 17:42:58.545068 20043 net.cpp:425] res_k <- elt_e_h_elt_e_h_0_split_1
I0618 17:42:58.545097 20043 net.cpp:399] res_k -> res_k
I0618 17:42:58.547001 20043 net.cpp:141] Setting up res_k
I0618 17:42:58.547019 20043 net.cpp:148] Top shape: 100 256 8 8 (1638400)
I0618 17:42:58.547029 20043 net.cpp:156] Memory required for data: 2275329200
I0618 17:42:58.547058 20043 layer_factory.hpp:77] Creating layer elt_k_1
I0618 17:42:58.547075 20043 net.cpp:91] Creating Layer elt_k_1
I0618 17:42:58.547096 20043 net.cpp:425] elt_k_1 <- res_k
I0618 17:42:58.547108 20043 net.cpp:425] elt_k_1 <- conv_k_1_2
I0618 17:42:58.547127 20043 net.cpp:399] elt_k_1 -> elt_k_1
I0618 17:42:58.547168 20043 net.cpp:141] Setting up elt_k_1
I0618 17:42:58.547183 20043 net.cpp:148] Top shape: 100 256 8 8 (1638400)
I0618 17:42:58.547193 20043 net.cpp:156] Memory required for data: 2281882800
I0618 17:42:58.547204 20043 layer_factory.hpp:77] Creating layer bn_l_1_1
I0618 17:42:58.547221 20043 net.cpp:91] Creating Layer bn_l_1_1
I0618 17:42:58.547232 20043 net.cpp:425] bn_l_1_1 <- elt_g_i_elt_g_i_0_split_0
I0618 17:42:58.547250 20043 net.cpp:399] bn_l_1_1 -> bn_l_1_1
I0618 17:42:58.547440 20043 net.cpp:141] Setting up bn_l_1_1
I0618 17:42:58.547454 20043 net.cpp:148] Top shape: 100 128 16 16 (3276800)
I0618 17:42:58.547464 20043 net.cpp:156] Memory required for data: 2294990000
I0618 17:42:58.547483 20043 layer_factory.hpp:77] Creating layer sc_l_1_1
I0618 17:42:58.547497 20043 net.cpp:91] Creating Layer sc_l_1_1
I0618 17:42:58.547508 20043 net.cpp:425] sc_l_1_1 <- bn_l_1_1
I0618 17:42:58.547523 20043 net.cpp:399] sc_l_1_1 -> sc_l_1_1
I0618 17:42:58.547579 20043 layer_factory.hpp:77] Creating layer sc_l_1_1
I0618 17:42:58.547693 20043 net.cpp:141] Setting up sc_l_1_1
I0618 17:42:58.547708 20043 net.cpp:148] Top shape: 100 128 16 16 (3276800)
I0618 17:42:58.547719 20043 net.cpp:156] Memory required for data: 2308097200
I0618 17:42:58.547727 20043 layer_factory.hpp:77] Creating layer relu_l_1_1
I0618 17:42:58.547739 20043 net.cpp:91] Creating Layer relu_l_1_1
I0618 17:42:58.547745 20043 net.cpp:425] relu_l_1_1 <- sc_l_1_1
I0618 17:42:58.547752 20043 net.cpp:399] relu_l_1_1 -> relu_l_1_1
I0618 17:42:58.547946 20043 net.cpp:141] Setting up relu_l_1_1
I0618 17:42:58.547958 20043 net.cpp:148] Top shape: 100 128 16 16 (3276800)
I0618 17:42:58.547963 20043 net.cpp:156] Memory required for data: 2321204400
I0618 17:42:58.547971 20043 layer_factory.hpp:77] Creating layer conv_l_1_1
I0618 17:42:58.548009 20043 net.cpp:91] Creating Layer conv_l_1_1
I0618 17:42:58.548020 20043 net.cpp:425] conv_l_1_1 <- relu_l_1_1
I0618 17:42:58.548035 20043 net.cpp:399] conv_l_1_1 -> conv_l_1_1
I0618 17:42:58.556434 20043 net.cpp:141] Setting up conv_l_1_1
I0618 17:42:58.556452 20043 net.cpp:148] Top shape: 100 256 8 8 (1638400)
I0618 17:42:58.556463 20043 net.cpp:156] Memory required for data: 2327758000
I0618 17:42:58.556478 20043 layer_factory.hpp:77] Creating layer bn_l_1_2
I0618 17:42:58.556495 20043 net.cpp:91] Creating Layer bn_l_1_2
I0618 17:42:58.556507 20043 net.cpp:425] bn_l_1_2 <- conv_l_1_1
I0618 17:42:58.556525 20043 net.cpp:399] bn_l_1_2 -> bn_l_1_2
I0618 17:42:58.556726 20043 net.cpp:141] Setting up bn_l_1_2
I0618 17:42:58.556741 20043 net.cpp:148] Top shape: 100 256 8 8 (1638400)
I0618 17:42:58.556751 20043 net.cpp:156] Memory required for data: 2334311600
I0618 17:42:58.556767 20043 layer_factory.hpp:77] Creating layer sc_l_1_2
I0618 17:42:58.556807 20043 net.cpp:91] Creating Layer sc_l_1_2
I0618 17:42:58.556818 20043 net.cpp:425] sc_l_1_2 <- bn_l_1_2
I0618 17:42:58.556830 20043 net.cpp:399] sc_l_1_2 -> sc_l_1_2
I0618 17:42:58.556891 20043 layer_factory.hpp:77] Creating layer sc_l_1_2
I0618 17:42:58.557011 20043 net.cpp:141] Setting up sc_l_1_2
I0618 17:42:58.557025 20043 net.cpp:148] Top shape: 100 256 8 8 (1638400)
I0618 17:42:58.557034 20043 net.cpp:156] Memory required for data: 2340865200
I0618 17:42:58.557050 20043 layer_factory.hpp:77] Creating layer relu_l_1_2
I0618 17:42:58.557065 20043 net.cpp:91] Creating Layer relu_l_1_2
I0618 17:42:58.557075 20043 net.cpp:425] relu_l_1_2 <- sc_l_1_2
I0618 17:42:58.557091 20043 net.cpp:399] relu_l_1_2 -> relu_l_1_2
I0618 17:42:58.557405 20043 net.cpp:141] Setting up relu_l_1_2
I0618 17:42:58.557421 20043 net.cpp:148] Top shape: 100 256 8 8 (1638400)
I0618 17:42:58.557430 20043 net.cpp:156] Memory required for data: 2347418800
I0618 17:42:58.557440 20043 layer_factory.hpp:77] Creating layer conv_l_1_2
I0618 17:42:58.557459 20043 net.cpp:91] Creating Layer conv_l_1_2
I0618 17:42:58.557471 20043 net.cpp:425] conv_l_1_2 <- relu_l_1_2
I0618 17:42:58.557489 20043 net.cpp:399] conv_l_1_2 -> conv_l_1_2
I0618 17:42:58.573127 20043 net.cpp:141] Setting up conv_l_1_2
I0618 17:42:58.573146 20043 net.cpp:148] Top shape: 100 256 8 8 (1638400)
I0618 17:42:58.573155 20043 net.cpp:156] Memory required for data: 2353972400
I0618 17:42:58.573171 20043 layer_factory.hpp:77] Creating layer res_l
I0618 17:42:58.573201 20043 net.cpp:91] Creating Layer res_l
I0618 17:42:58.573213 20043 net.cpp:425] res_l <- elt_g_i_elt_g_i_0_split_1
I0618 17:42:58.573228 20043 net.cpp:399] res_l -> res_l
I0618 17:42:58.575158 20043 net.cpp:141] Setting up res_l
I0618 17:42:58.575176 20043 net.cpp:148] Top shape: 100 256 8 8 (1638400)
I0618 17:42:58.575186 20043 net.cpp:156] Memory required for data: 2360526000
I0618 17:42:58.575204 20043 layer_factory.hpp:77] Creating layer elt_l_1
I0618 17:42:58.575222 20043 net.cpp:91] Creating Layer elt_l_1
I0618 17:42:58.575233 20043 net.cpp:425] elt_l_1 <- res_l
I0618 17:42:58.575249 20043 net.cpp:425] elt_l_1 <- conv_l_1_2
I0618 17:42:58.575268 20043 net.cpp:399] elt_l_1 -> elt_l_1
I0618 17:42:58.575309 20043 net.cpp:141] Setting up elt_l_1
I0618 17:42:58.575322 20043 net.cpp:148] Top shape: 100 256 8 8 (1638400)
I0618 17:42:58.575330 20043 net.cpp:156] Memory required for data: 2367079600
I0618 17:42:58.575340 20043 layer_factory.hpp:77] Creating layer concat_j_k_l
I0618 17:42:58.575358 20043 net.cpp:91] Creating Layer concat_j_k_l
I0618 17:42:58.575369 20043 net.cpp:425] concat_j_k_l <- elt_j_1
I0618 17:42:58.575381 20043 net.cpp:425] concat_j_k_l <- elt_k_1
I0618 17:42:58.575393 20043 net.cpp:425] concat_j_k_l <- elt_l_1
I0618 17:42:58.575407 20043 net.cpp:399] concat_j_k_l -> elt_j_k_l
I0618 17:42:58.575449 20043 net.cpp:141] Setting up concat_j_k_l
I0618 17:42:58.575464 20043 net.cpp:148] Top shape: 100 768 8 8 (4915200)
I0618 17:42:58.575472 20043 net.cpp:156] Memory required for data: 2386740400
I0618 17:42:58.575496 20043 layer_factory.hpp:77] Creating layer bn_m_1_1
I0618 17:42:58.575513 20043 net.cpp:91] Creating Layer bn_m_1_1
I0618 17:42:58.575526 20043 net.cpp:425] bn_m_1_1 <- elt_j_k_l
I0618 17:42:58.575541 20043 net.cpp:399] bn_m_1_1 -> bn_m_1_1
I0618 17:42:58.575757 20043 net.cpp:141] Setting up bn_m_1_1
I0618 17:42:58.575772 20043 net.cpp:148] Top shape: 100 768 8 8 (4915200)
I0618 17:42:58.575779 20043 net.cpp:156] Memory required for data: 2406401200
I0618 17:42:58.575798 20043 layer_factory.hpp:77] Creating layer sc_m_1_1
I0618 17:42:58.575814 20043 net.cpp:91] Creating Layer sc_m_1_1
I0618 17:42:58.575825 20043 net.cpp:425] sc_m_1_1 <- bn_m_1_1
I0618 17:42:58.575839 20043 net.cpp:399] sc_m_1_1 -> sc_m_1_1
I0618 17:42:58.575902 20043 layer_factory.hpp:77] Creating layer sc_m_1_1
I0618 17:42:58.576043 20043 net.cpp:141] Setting up sc_m_1_1
I0618 17:42:58.576057 20043 net.cpp:148] Top shape: 100 768 8 8 (4915200)
I0618 17:42:58.576066 20043 net.cpp:156] Memory required for data: 2426062000
I0618 17:42:58.576081 20043 layer_factory.hpp:77] Creating layer relu_m_1_1
I0618 17:42:58.576097 20043 net.cpp:91] Creating Layer relu_m_1_1
I0618 17:42:58.576108 20043 net.cpp:425] relu_m_1_1 <- sc_m_1_1
I0618 17:42:58.576122 20043 net.cpp:399] relu_m_1_1 -> relu_m_1_1
I0618 17:42:58.576442 20043 net.cpp:141] Setting up relu_m_1_1
I0618 17:42:58.576458 20043 net.cpp:148] Top shape: 100 768 8 8 (4915200)
I0618 17:42:58.576467 20043 net.cpp:156] Memory required for data: 2445722800
I0618 17:42:58.576477 20043 layer_factory.hpp:77] Creating layer gap
I0618 17:42:58.576493 20043 net.cpp:91] Creating Layer gap
I0618 17:42:58.576504 20043 net.cpp:425] gap <- relu_m_1_1
I0618 17:42:58.576517 20043 net.cpp:399] gap -> gap
I0618 17:42:58.576730 20043 net.cpp:141] Setting up gap
I0618 17:42:58.576746 20043 net.cpp:148] Top shape: 100 768 1 1 (76800)
I0618 17:42:58.576756 20043 net.cpp:156] Memory required for data: 2446030000
I0618 17:42:58.576766 20043 layer_factory.hpp:77] Creating layer ip1
I0618 17:42:58.576783 20043 net.cpp:91] Creating Layer ip1
I0618 17:42:58.576793 20043 net.cpp:425] ip1 <- gap
I0618 17:42:58.576810 20043 net.cpp:399] ip1 -> ip1
I0618 17:42:58.577127 20043 net.cpp:141] Setting up ip1
I0618 17:42:58.577142 20043 net.cpp:148] Top shape: 100 10 (1000)
I0618 17:42:58.577150 20043 net.cpp:156] Memory required for data: 2446034000
I0618 17:42:58.577165 20043 layer_factory.hpp:77] Creating layer ip1_ip1_0_split
I0618 17:42:58.577183 20043 net.cpp:91] Creating Layer ip1_ip1_0_split
I0618 17:42:58.577194 20043 net.cpp:425] ip1_ip1_0_split <- ip1
I0618 17:42:58.577208 20043 net.cpp:399] ip1_ip1_0_split -> ip1_ip1_0_split_0
I0618 17:42:58.577224 20043 net.cpp:399] ip1_ip1_0_split -> ip1_ip1_0_split_1
I0618 17:42:58.577278 20043 net.cpp:141] Setting up ip1_ip1_0_split
I0618 17:42:58.577291 20043 net.cpp:148] Top shape: 100 10 (1000)
I0618 17:42:58.577302 20043 net.cpp:148] Top shape: 100 10 (1000)
I0618 17:42:58.577311 20043 net.cpp:156] Memory required for data: 2446042000
I0618 17:42:58.577321 20043 layer_factory.hpp:77] Creating layer accuracy
I0618 17:42:58.577335 20043 net.cpp:91] Creating Layer accuracy
I0618 17:42:58.577348 20043 net.cpp:425] accuracy <- ip1_ip1_0_split_0
I0618 17:42:58.577360 20043 net.cpp:425] accuracy <- label_resnet_1_split_0
I0618 17:42:58.577376 20043 net.cpp:399] accuracy -> accuracy
…
