…
I0620 23:56:23.262912 19694 net.cpp:313] The NetState phase (0) differed from the phase (1) specified by a rule in layer accuracy
I0620 23:56:23.263947 19694 net.cpp:49] Initializing net from parameters: 
name: "ResNet"
state {
  phase: TRAIN
}
layer {
  name: "resnet"
  type: "Data"
  top: "data"
  top: "label"
  include {
    phase: TRAIN
  }
  transform_param {
    mean_file: "/home/takeki/caffe/examples/cifar10/mean.binaryproto"
  }
  data_param {
    source: "/home/takeki/caffe/examples/cifar10/cifar10_train_lmdb"
    batch_size: 128
    backend: LMDB
  }
}
layer {
  name: "conv0"
  type: "Convolution"
  bottom: "data"
  top: "conv0"
  param {
    lr_mult: 1
  }
  param {
    lr_mult: 2
  }
  convolution_param {
    num_output: 16
    pad: 1
    kernel_size: 3
    stride: 1
    weight_filler {
      type: "msra"
    }
    bias_filler {
      type: "constant"
    }
  }
}
layer {
  name: "bn_a_1_1"
  type: "BatchNorm"
  bottom: "conv0"
  top: "bn_a_1_1"
  param {
    lr_mult: 0
  }
  param {
    lr_mult: 0
  }
  param {
    lr_mult: 0
  }
  batch_norm_param {
    use_global_stats: false
  }
}
layer {
  name: "sc_a_1_1"
  type: "Scale"
  bottom: "bn_a_1_1"
  top: "sc_a_1_1"
  scale_param {
    bias_term: true
  }
}
layer {
  name: "relu_a_1_1"
  type: "ReLU"
  bottom: "sc_a_1_1"
  top: "relu_a_1_1"
}
layer {
  name: "conv_a_1_1"
  type: "Convolution"
  bottom: "relu_a_1_1"
  top: "conv_a_1_1"
  param {
    lr_mult: 1
    decay_mult: 1
  }
  param {
    lr_mult: 2
    decay_mult: 1
  }
  convolution_param {
    num_output: 64
    pad: 1
    kernel_size: 3
    stride: 1
    weight_filler {
      type: "msra"
    }
    bias_filler {
      type: "constant"
    }
  }
}
layer {
  name: "bn_a_1_2"
  type: "BatchNorm"
  bottom: "conv_a_1_1"
  top: "bn_a_1_2"
  param {
    lr_mult: 0
  }
  param {
    lr_mult: 0
  }
  param {
    lr_mult: 0
  }
  batch_norm_param {
    use_global_stats: false
  }
}
layer {
  name: "sc_a_1_2"
  type: "Scale"
  bottom: "bn_a_1_2"
  top: "sc_a_1_2"
  scale_param {
    bias_term: true
  }
}
layer {
  name: "relu_a_1_2"
  type: "ReLU"
  bottom: "sc_a_1_2"
  top: "relu_a_1_2"
}
layer {
  name: "conv_a_1_2"
  type: "Convolution"
  bottom: "relu_a_1_2"
  top: "conv_a_1_2"
  param {
    lr_mult: 1
    decay_mult: 1
  }
  param {
    lr_mult: 2
    decay_mult: 1
  }
  convolution_param {
    num_output: 64
    pad: 1
    kernel_size: 3
    stride: 1
    weight_filler {
      type: "msra"
    }
    bias_filler {
      type: "constant"
    }
  }
}
layer {
  name: "res_a"
  type: "Convolution"
  bottom: "conv0"
  top: "res_a"
  param {
    lr_mult: 1
    decay_mult: 1
  }
  param {
    lr_mult: 2
    decay_mult: 1
  }
  convolution_param {
    num_output: 64
    pad: 0
    kernel_size: 1
    stride: 1
    weight_filler {
      type: "msra"
    }
    bias_filler {
      type: "constant"
    }
  }
}
layer {
  name: "elt_a_1"
  type: "Eltwise"
  bottom: "res_a"
  bottom: "conv_a_1_2"
  top: "elt_a_1"
  eltwise_param {
    operation: SUM
  }
}
layer {
  name: "bn_b_1_1"
  type: "BatchNorm"
  bottom: "conv0"
  top: "bn_b_1_1"
  param {
    lr_mult: 0
  }
  param {
    lr_mult: 0
  }
  param {
    lr_mult: 0
  }
  batch_norm_param {
    use_global_stats: false
  }
}
layer {
  name: "sc_b_1_1"
  type: "Scale"
  bottom: "bn_b_1_1"
  top: "sc_b_1_1"
  scale_param {
    bias_term: true
  }
}
layer {
  name: "relu_b_1_1"
  type: "ReLU"
  bottom: "sc_b_1_1"
  top: "relu_b_1_1"
}
layer {
  name: "conv_b_1_1"
  type: "Convolution"
  bottom: "relu_b_1_1"
  top: "conv_b_1_1"
  param {
    lr_mult: 1
    decay_mult: 1
  }
  param {
    lr_mult: 2
    decay_mult: 1
  }
  convolution_param {
    num_output: 64
    pad: 1
    kernel_size: 3
    stride: 1
    weight_filler {
      type: "msra"
    }
    bias_filler {
      type: "constant"
    }
  }
}
layer {
  name: "bn_b_1_2"
  type: "BatchNorm"
  bottom: "conv_b_1_1"
  top: "bn_b_1_2"
  param {
    lr_mult: 0
  }
  param {
    lr_mult: 0
  }
  param {
    lr_mult: 0
  }
  batch_norm_param {
    use_global_stats: false
  }
}
layer {
  name: "sc_b_1_2"
  type: "Scale"
  bottom: "bn_b_1_2"
  top: "sc_b_1_2"
  scale_param {
    bias_term: true
  }
}
layer {
  name: "relu_b_1_2"
  type: "ReLU"
  bottom: "sc_b_1_2"
  top: "relu_b_1_2"
}
layer {
  name: "conv_b_1_2"
  type: "Convolution"
  bottom: "relu_b_1_2"
  top: "conv_b_1_2"
  param {
    lr_mult: 1
    decay_mult: 1
  }
  param {
    lr_mult: 2
    decay_mult: 1
  }
  convolution_param {
    num_output: 64
    pad: 1
    kernel_size: 3
    stride: 1
    weight_filler {
      type: "msra"
    }
    bias_filler {
      type: "constant"
    }
  }
}
layer {
  name: "res_b"
  type: "Convolution"
  bottom: "conv0"
  top: "res_b"
  param {
    lr_mult: 1
    decay_mult: 1
  }
  param {
    lr_mult: 2
    decay_mult: 1
  }
  convolution_param {
    num_output: 64
    pad: 0
    kernel_size: 1
    stride: 1
    weight_filler {
      type: "msra"
    }
    bias_filler {
      type: "constant"
    }
  }
}
layer {
  name: "elt_b_1"
  type: "Eltwise"
  bottom: "res_b"
  bottom: "conv_b_1_2"
  top: "elt_b_1"
  eltwise_param {
    operation: SUM
  }
}
layer {
  name: "bn_c_1_1"
  type: "BatchNorm"
  bottom: "conv0"
  top: "bn_c_1_1"
  param {
    lr_mult: 0
  }
  param {
    lr_mult: 0
  }
  param {
    lr_mult: 0
  }
  batch_norm_param {
    use_global_stats: false
  }
}
layer {
  name: "sc_c_1_1"
  type: "Scale"
  bottom: "bn_c_1_1"
  top: "sc_c_1_1"
  scale_param {
    bias_term: true
  }
}
layer {
  name: "relu_c_1_1"
  type: "ReLU"
  bottom: "sc_c_1_1"
  top: "relu_c_1_1"
}
layer {
  name: "conv_c_1_1"
  type: "Convolution"
  bottom: "relu_c_1_1"
  top: "conv_c_1_1"
  param {
    lr_mult: 1
    decay_mult: 1
  }
  param {
    lr_mult: 2
    decay_mult: 1
  }
  convolution_param {
    num_output: 64
    pad: 1
    kernel_size: 3
    stride: 1
    weight_filler {
      type: "msra"
    }
    bias_filler {
      type: "constant"
    }
  }
}
layer {
  name: "bn_c_1_2"
  type: "BatchNorm"
  bottom: "conv_c_1_1"
  top: "bn_c_1_2"
  param {
    lr_mult: 0
  }
  param {
    lr_mult: 0
  }
  param {
    lr_mult: 0
  }
  batch_norm_param {
    use_global_stats: false
  }
}
layer {
  name: "sc_c_1_2"
  type: "Scale"
  bottom: "bn_c_1_2"
  top: "sc_c_1_2"
  scale_param {
    bias_term: true
  }
}
layer {
  name: "relu_c_1_2"
  type: "ReLU"
  bottom: "sc_c_1_2"
  top: "relu_c_1_2"
}
layer {
  name: "conv_c_1_2"
  type: "Convolution"
  bottom: "relu_c_1_2"
  top: "conv_c_1_2"
  param {
    lr_mult: 1
    decay_mult: 1
  }
  param {
    lr_mult: 2
    decay_mult: 1
  }
  convolution_param {
    num_output: 64
    pad: 1
    kernel_size: 3
    stride: 1
    weight_filler {
      type: "msra"
    }
    bias_filler {
      type: "constant"
    }
  }
}
layer {
  name: "res_c"
  type: "Convolution"
  bottom: "conv0"
  top: "res_c"
  param {
    lr_mult: 1
    decay_mult: 1
  }
  param {
    lr_mult: 2
    decay_mult: 1
  }
  convolution_param {
    num_output: 64
    pad: 0
    kernel_size: 1
    stride: 1
    weight_filler {
      type: "msra"
    }
    bias_filler {
      type: "constant"
    }
  }
}
layer {
  name: "elt_c_1"
  type: "Eltwise"
  bottom: "res_c"
  bottom: "conv_c_1_2"
  top: "elt_c_1"
  eltwise_param {
    operation: SUM
  }
}
layer {
  name: "bn_d_1_1"
  type: "BatchNorm"
  bottom: "elt_a_1"
  top: "bn_d_1_1"
  param {
    lr_mult: 0
  }
  param {
    lr_mult: 0
  }
  param {
    lr_mult: 0
  }
  batch_norm_param {
    use_global_stats: false
  }
}
layer {
  name: "sc_d_1_1"
  type: "Scale"
  bottom: "bn_d_1_1"
  top: "sc_d_1_1"
  scale_param {
    bias_term: true
  }
}
layer {
  name: "relu_d_1_1"
  type: "ReLU"
  bottom: "sc_d_1_1"
  top: "relu_d_1_1"
}
layer {
  name: "conv_d_1_1"
  type: "Convolution"
  bottom: "relu_d_1_1"
  top: "conv_d_1_1"
  param {
    lr_mult: 1
    decay_mult: 1
  }
  param {
    lr_mult: 2
    decay_mult: 1
  }
  convolution_param {
    num_output: 128
    pad: 1
    kernel_size: 3
    stride: 2
    weight_filler {
      type: "msra"
    }
    bias_filler {
      type: "constant"
    }
  }
}
layer {
  name: "bn_d_1_2"
  type: "BatchNorm"
  bottom: "conv_d_1_1"
  top: "bn_d_1_2"
  param {
    lr_mult: 0
  }
  param {
    lr_mult: 0
  }
  param {
    lr_mult: 0
  }
  batch_norm_param {
    use_global_stats: false
  }
}
layer {
  name: "sc_d_1_2"
  type: "Scale"
  bottom: "bn_d_1_2"
  top: "sc_d_1_2"
  scale_param {
    bias_term: true
  }
}
layer {
  name: "relu_d_1_2"
  type: "ReLU"
  bottom: "sc_d_1_2"
  top: "relu_d_1_2"
}
layer {
  name: "conv_d_1_2"
  type: "Convolution"
  bottom: "relu_d_1_2"
  top: "conv_d_1_2"
  param {
    lr_mult: 1
    decay_mult: 1
  }
  param {
    lr_mult: 2
    decay_mult: 1
  }
  convolution_param {
    num_output: 128
    pad: 1
    kernel_size: 3
    stride: 1
    weight_filler {
      type: "msra"
    }
    bias_filler {
      type: "constant"
    }
  }
}
layer {
  name: "res_d"
  type: "Convolution"
  bottom: "elt_a_1"
  top: "res_d"
  param {
    lr_mult: 1
    decay_mult: 1
  }
  param {
    lr_mult: 2
    decay_mult: 1
  }
  convolution_param {
    num_output: 128
    pad: 0
    kernel_size: 1
    stride: 2
    weight_filler {
      type: "msra"
    }
    bias_filler {
      type: "constant"
    }
  }
}
layer {
  name: "elt_d_1"
  type: "Eltwise"
  bottom: "res_d"
  bottom: "conv_d_1_2"
  top: "elt_d_1"
  eltwise_param {
    operation: SUM
  }
}
layer {
  name: "bn_f_1_1"
  type: "BatchNorm"
  bottom: "elt_b_1"
  top: "bn_f_1_1"
  param {
    lr_mult: 0
  }
  param {
    lr_mult: 0
  }
  param {
    lr_mult: 0
  }
  batch_norm_param {
    use_global_stats: false
  }
}
layer {
  name: "sc_f_1_1"
  type: "Scale"
  bottom: "bn_f_1_1"
  top: "sc_f_1_1"
  scale_param {
    bias_term: true
  }
}
layer {
  name: "relu_f_1_1"
  type: "ReLU"
  bottom: "sc_f_1_1"
  top: "relu_f_1_1"
}
layer {
  name: "conv_f_1_1"
  type: "Convolution"
  bottom: "relu_f_1_1"
  top: "conv_f_1_1"
  param {
    lr_mult: 1
    decay_mult: 1
  }
  param {
    lr_mult: 2
    decay_mult: 1
  }
  convolution_param {
    num_output: 128
    pad: 1
    kernel_size: 3
    stride: 2
    weight_filler {
      type: "msra"
    }
    bias_filler {
      type: "constant"
    }
  }
}
layer {
  name: "bn_f_1_2"
  type: "BatchNorm"
  bottom: "conv_f_1_1"
  top: "bn_f_1_2"
  param {
    lr_mult: 0
  }
  param {
    lr_mult: 0
  }
  param {
    lr_mult: 0
  }
  batch_norm_param {
    use_global_stats: false
  }
}
layer {
  name: "sc_f_1_2"
  type: "Scale"
  bottom: "bn_f_1_2"
  top: "sc_f_1_2"
  scale_param {
    bias_term: true
  }
}
layer {
  name: "relu_f_1_2"
  type: "ReLU"
  bottom: "sc_f_1_2"
  top: "relu_f_1_2"
}
layer {
  name: "conv_f_1_2"
  type: "Convolution"
  bottom: "relu_f_1_2"
  top: "conv_f_1_2"
  param {
    lr_mult: 1
    decay_mult: 1
  }
  param {
    lr_mult: 2
    decay_mult: 1
  }
  convolution_param {
    num_output: 128
    pad: 1
    kernel_size: 3
    stride: 1
    weight_filler {
      type: "msra"
    }
    bias_filler {
      type: "constant"
    }
  }
}
layer {
  name: "res_f"
  type: "Convolution"
  bottom: "elt_b_1"
  top: "res_f"
  param {
    lr_mult: 1
    decay_mult: 1
  }
  param {
    lr_mult: 2
    decay_mult: 1
  }
  convolution_param {
    num_output: 128
    pad: 0
    kernel_size: 1
    stride: 2
    weight_filler {
      type: "msra"
    }
    bias_filler {
      type: "constant"
    }
  }
}
layer {
  name: "elt_f_1"
  type: "Eltwise"
  bottom: "res_f"
  bottom: "conv_f_1_2"
  top: "elt_f_1"
  eltwise_param {
    operation: SUM
  }
}
layer {
  name: "bn_g_1_1"
  type: "BatchNorm"
  bottom: "elt_b_1"
  top: "bn_g_1_1"
  param {
    lr_mult: 0
  }
  param {
    lr_mult: 0
  }
  param {
    lr_mult: 0
  }
  batch_norm_param {
    use_global_stats: false
  }
}
layer {
  name: "sc_g_1_1"
  type: "Scale"
  bottom: "bn_g_1_1"
  top: "sc_g_1_1"
  scale_param {
    bias_term: true
  }
}
layer {
  name: "relu_g_1_1"
  type: "ReLU"
  bottom: "sc_g_1_1"
  top: "relu_g_1_1"
}
layer {
  name: "conv_g_1_1"
  type: "Convolution"
  bottom: "relu_g_1_1"
  top: "conv_g_1_1"
  param {
    lr_mult: 1
    decay_mult: 1
  }
  param {
    lr_mult: 2
    decay_mult: 1
  }
  convolution_param {
    num_output: 128
    pad: 1
    kernel_size: 3
    stride: 2
    weight_filler {
      type: "msra"
    }
    bias_filler {
      type: "constant"
    }
  }
}
layer {
  name: "bn_g_1_2"
  type: "BatchNorm"
  bottom: "conv_g_1_1"
  top: "bn_g_1_2"
  param {
    lr_mult: 0
  }
  param {
    lr_mult: 0
  }
  param {
    lr_mult: 0
  }
  batch_norm_param {
    use_global_stats: false
  }
}
layer {
  name: "sc_g_1_2"
  type: "Scale"
  bottom: "bn_g_1_2"
  top: "sc_g_1_2"
  scale_param {
    bias_term: true
  }
}
layer {
  name: "relu_g_1_2"
  type: "ReLU"
  bottom: "sc_g_1_2"
  top: "relu_g_1_2"
}
layer {
  name: "conv_g_1_2"
  type: "Convolution"
  bottom: "relu_g_1_2"
  top: "conv_g_1_2"
  param {
    lr_mult: 1
    decay_mult: 1
  }
  param {
    lr_mult: 2
    decay_mult: 1
  }
  convolution_param {
    num_output: 128
    pad: 1
    kernel_size: 3
    stride: 1
    weight_filler {
      type: "msra"
    }
    bias_filler {
      type: "constant"
    }
  }
}
layer {
  name: "res_g"
  type: "Convolution"
  bottom: "elt_b_1"
  top: "res_g"
  param {
    lr_mult: 1
    decay_mult: 1
  }
  param {
    lr_mult: 2
    decay_mult: 1
  }
  convolution_param {
    num_output: 128
    pad: 0
    kernel_size: 1
    stride: 2
    weight_filler {
      type: "msra"
    }
    bias_filler {
      type: "constant"
    }
  }
}
layer {
  name: "elt_g_1"
  type: "Eltwise"
  bottom: "res_g"
  bottom: "conv_g_1_2"
  top: "elt_g_1"
  eltwise_param {
    operation: SUM
  }
}
layer {
  name: "bn_h_1_1"
  type: "BatchNorm"
  bottom: "elt_c_1"
  top: "bn_h_1_1"
  param {
    lr_mult: 0
  }
  param {
    lr_mult: 0
  }
  param {
    lr_mult: 0
  }
  batch_norm_param {
    use_global_stats: false
  }
}
layer {
  name: "sc_h_1_1"
  type: "Scale"
  bottom: "bn_h_1_1"
  top: "sc_h_1_1"
  scale_param {
    bias_term: true
  }
}
layer {
  name: "relu_h_1_1"
  type: "ReLU"
  bottom: "sc_h_1_1"
  top: "relu_h_1_1"
}
layer {
  name: "conv_h_1_1"
  type: "Convolution"
  bottom: "relu_h_1_1"
  top: "conv_h_1_1"
  param {
    lr_mult: 1
    decay_mult: 1
  }
  param {
    lr_mult: 2
    decay_mult: 1
  }
  convolution_param {
    num_output: 128
    pad: 1
    kernel_size: 3
    stride: 2
    weight_filler {
      type: "msra"
    }
    bias_filler {
      type: "constant"
    }
  }
}
layer {
  name: "bn_h_1_2"
  type: "BatchNorm"
  bottom: "conv_h_1_1"
  top: "bn_h_1_2"
  param {
    lr_mult: 0
  }
  param {
    lr_mult: 0
  }
  param {
    lr_mult: 0
  }
  batch_norm_param {
    use_global_stats: false
  }
}
layer {
  name: "sc_h_1_2"
  type: "Scale"
  bottom: "bn_h_1_2"
  top: "sc_h_1_2"
  scale_param {
    bias_term: true
  }
}
layer {
  name: "relu_h_1_2"
  type: "ReLU"
  bottom: "sc_h_1_2"
  top: "relu_h_1_2"
}
layer {
  name: "conv_h_1_2"
  type: "Convolution"
  bottom: "relu_h_1_2"
  top: "conv_h_1_2"
  param {
    lr_mult: 1
    decay_mult: 1
  }
  param {
    lr_mult: 2
    decay_mult: 1
  }
  convolution_param {
    num_output: 128
    pad: 1
    kernel_size: 3
    stride: 1
    weight_filler {
      type: "msra"
    }
    bias_filler {
      type: "constant"
    }
  }
}
layer {
  name: "res_h"
  type: "Convolution"
  bottom: "elt_c_1"
  top: "res_h"
  param {
    lr_mult: 1
    decay_mult: 1
  }
  param {
    lr_mult: 2
    decay_mult: 1
  }
  convolution_param {
    num_output: 128
    pad: 0
    kernel_size: 1
    stride: 2
    weight_filler {
      type: "msra"
    }
    bias_filler {
      type: "constant"
    }
  }
}
layer {
  name: "elt_h_1"
  type: "Eltwise"
  bottom: "res_h"
  bottom: "conv_h_1_2"
  top: "elt_h_1"
  eltwise_param {
    operation: SUM
  }
}
layer {
  name: "bn_i_1_1"
  type: "BatchNorm"
  bottom: "elt_c_1"
  top: "bn_i_1_1"
  param {
    lr_mult: 0
  }
  param {
    lr_mult: 0
  }
  param {
    lr_mult: 0
  }
  batch_norm_param {
    use_global_stats: false
  }
}
layer {
  name: "sc_i_1_1"
  type: "Scale"
  bottom: "bn_i_1_1"
  top: "sc_i_1_1"
  scale_param {
    bias_term: true
  }
}
layer {
  name: "relu_i_1_1"
  type: "ReLU"
  bottom: "sc_i_1_1"
  top: "relu_i_1_1"
}
layer {
  name: "conv_i_1_1"
  type: "Convolution"
  bottom: "relu_i_1_1"
  top: "conv_i_1_1"
  param {
    lr_mult: 1
    decay_mult: 1
  }
  param {
    lr_mult: 2
    decay_mult: 1
  }
  convolution_param {
    num_output: 128
    pad: 1
    kernel_size: 3
    stride: 2
    weight_filler {
      type: "msra"
    }
    bias_filler {
      type: "constant"
    }
  }
}
layer {
  name: "bn_i_1_2"
  type: "BatchNorm"
  bottom: "conv_i_1_1"
  top: "bn_i_1_2"
  param {
    lr_mult: 0
  }
  param {
    lr_mult: 0
  }
  param {
    lr_mult: 0
  }
  batch_norm_param {
    use_global_stats: false
  }
}
layer {
  name: "sc_i_1_2"
  type: "Scale"
  bottom: "bn_i_1_2"
  top: "sc_i_1_2"
  scale_param {
    bias_term: true
  }
}
layer {
  name: "relu_i_1_2"
  type: "ReLU"
  bottom: "sc_i_1_2"
  top: "relu_i_1_2"
}
layer {
  name: "conv_i_1_2"
  type: "Convolution"
  bottom: "relu_i_1_2"
  top: "conv_i_1_2"
  param {
    lr_mult: 1
    decay_mult: 1
  }
  param {
    lr_mult: 2
    decay_mult: 1
  }
  convolution_param {
    num_output: 128
    pad: 1
    kernel_size: 3
    stride: 1
    weight_filler {
      type: "msra"
    }
    bias_filler {
      type: "constant"
    }
  }
}
layer {
  name: "res_i"
  type: "Convolution"
  bottom: "elt_c_1"
  top: "res_i"
  param {
    lr_mult: 1
    decay_mult: 1
  }
  param {
    lr_mult: 2
    decay_mult: 1
  }
  convolution_param {
    num_output: 128
    pad: 0
    kernel_size: 1
    stride: 2
    weight_filler {
      type: "msra"
    }
    bias_filler {
      type: "constant"
    }
  }
}
layer {
  name: "elt_i_1"
  type: "Eltwise"
  bottom: "res_i"
  bottom: "conv_i_1_2"
  top: "elt_i_1"
  eltwise_param {
    operation: SUM
  }
}
layer {
  name: "elt_d_f"
  type: "Eltwise"
  bottom: "elt_d_1"
  bottom: "elt_f_1"
  top: "elt_d_f"
  eltwise_param {
    operation: SUM
  }
}
layer {
  name: "elt_g_i"
  type: "Eltwise"
  bottom: "elt_g_1"
  bottom: "elt_i_1"
  top: "elt_g_i"
  eltwise_param {
    operation: SUM
  }
}
layer {
  name: "bn_j_1_1"
  type: "BatchNorm"
  bottom: "elt_d_f"
  top: "bn_j_1_1"
  param {
    lr_mult: 0
  }
  param {
    lr_mult: 0
  }
  param {
    lr_mult: 0
  }
  batch_norm_param {
    use_global_stats: false
  }
}
layer {
  name: "sc_j_1_1"
  type: "Scale"
  bottom: "bn_j_1_1"
  top: "sc_j_1_1"
  scale_param {
    bias_term: true
  }
}
layer {
  name: "relu_j_1_1"
  type: "ReLU"
  bottom: "sc_j_1_1"
  top: "relu_j_1_1"
}
layer {
  name: "conv_j_1_1"
  type: "Convolution"
  bottom: "relu_j_1_1"
  top: "conv_j_1_1"
  param {
    lr_mult: 1
    decay_mult: 1
  }
  param {
    lr_mult: 2
    decay_mult: 1
  }
  convolution_param {
    num_output: 256
    pad: 1
    kernel_size: 3
    stride: 2
    weight_filler {
      type: "msra"
    }
    bias_filler {
      type: "constant"
    }
  }
}
layer {
  name: "bn_j_1_2"
  type: "BatchNorm"
  bottom: "conv_j_1_1"
  top: "bn_j_1_2"
  param {
    lr_mult: 0
  }
  param {
    lr_mult: 0
  }
  param {
    lr_mult: 0
  }
  batch_norm_param {
    use_global_stats: false
  }
}
layer {
  name: "sc_j_1_2"
  type: "Scale"
  bottom: "bn_j_1_2"
  top: "sc_j_1_2"
  scale_param {
    bias_term: true
  }
}
layer {
  name: "relu_j_1_2"
  type: "ReLU"
  bottom: "sc_j_1_2"
  top: "relu_j_1_2"
}
layer {
  name: "conv_j_1_2"
  type: "Convolution"
  bottom: "relu_j_1_2"
  top: "conv_j_1_2"
  param {
    lr_mult: 1
    decay_mult: 1
  }
  param {
    lr_mult: 2
    decay_mult: 1
  }
  convolution_param {
    num_output: 256
    pad: 1
    kernel_size: 3
    stride: 1
    weight_filler {
      type: "msra"
    }
    bias_filler {
      type: "constant"
    }
  }
}
layer {
  name: "res_j"
  type: "Convolution"
  bottom: "elt_d_f"
  top: "res_j"
  param {
    lr_mult: 1
    decay_mult: 1
  }
  param {
    lr_mult: 2
    decay_mult: 1
  }
  convolution_param {
    num_output: 256
    pad: 0
    kernel_size: 1
    stride: 2
    weight_filler {
      type: "msra"
    }
    bias_filler {
      type: "constant"
    }
  }
}
layer {
  name: "elt_j_1"
  type: "Eltwise"
  bottom: "res_j"
  bottom: "conv_j_1_2"
  top: "elt_j_1"
  eltwise_param {
    operation: SUM
  }
}
layer {
  name: "bn_e_1_1"
  type: "BatchNorm"
  bottom: "elt_a_1"
  top: "bn_e_1_1"
  param {
    lr_mult: 0
  }
  param {
    lr_mult: 0
  }
  param {
    lr_mult: 0
  }
  batch_norm_param {
    use_global_stats: false
  }
}
layer {
  name: "sc_e_1_1"
  type: "Scale"
  bottom: "bn_e_1_1"
  top: "sc_e_1_1"
  scale_param {
    bias_term: true
  }
}
layer {
  name: "relu_e_1_1"
  type: "ReLU"
  bottom: "sc_e_1_1"
  top: "relu_e_1_1"
}
layer {
  name: "conv_e_1_1"
  type: "Convolution"
  bottom: "relu_e_1_1"
  top: "conv_e_1_1"
  param {
    lr_mult: 1
    decay_mult: 1
  }
  param {
    lr_mult: 2
    decay_mult: 1
  }
  convolution_param {
    num_output: 128
    pad: 1
    kernel_size: 3
    stride: 2
    weight_filler {
      type: "msra"
    }
    bias_filler {
      type: "constant"
    }
  }
}
layer {
  name: "bn_e_1_2"
  type: "BatchNorm"
  bottom: "conv_e_1_1"
  top: "bn_e_1_2"
  param {
    lr_mult: 0
  }
  param {
    lr_mult: 0
  }
  param {
    lr_mult: 0
  }
  batch_norm_param {
    use_global_stats: false
  }
}
layer {
  name: "sc_e_1_2"
  type: "Scale"
  bottom: "bn_e_1_2"
  top: "sc_e_1_2"
  scale_param {
    bias_term: true
  }
}
layer {
  name: "relu_e_1_2"
  type: "ReLU"
  bottom: "sc_e_1_2"
  top: "relu_e_1_2"
}
layer {
  name: "conv_e_1_2"
  type: "Convolution"
  bottom: "relu_e_1_2"
  top: "conv_e_1_2"
  param {
    lr_mult: 1
    decay_mult: 1
  }
  param {
    lr_mult: 2
    decay_mult: 1
  }
  convolution_param {
    num_output: 128
    pad: 1
    kernel_size: 3
    stride: 1
    weight_filler {
      type: "msra"
    }
    bias_filler {
      type: "constant"
    }
  }
}
layer {
  name: "res_e"
  type: "Convolution"
  bottom: "elt_a_1"
  top: "res_e"
  param {
    lr_mult: 1
    decay_mult: 1
  }
  param {
    lr_mult: 2
    decay_mult: 1
  }
  convolution_param {
    num_output: 128
    pad: 0
    kernel_size: 1
    stride: 2
    weight_filler {
      type: "msra"
    }
    bias_filler {
      type: "constant"
    }
  }
}
layer {
  name: "elt_e_1"
  type: "Eltwise"
  bottom: "res_e"
  bottom: "conv_e_1_2"
  top: "elt_e_1"
  eltwise_param {
    operation: SUM
  }
}
layer {
  name: "elt_e_h"
  type: "Eltwise"
  bottom: "elt_e_1"
  bottom: "elt_h_1"
  top: "elt_e_h"
  eltwise_param {
    operation: SUM
  }
}
layer {
  name: "bn_k_1_1"
  type: "BatchNorm"
  bottom: "elt_e_h"
  top: "bn_k_1_1"
  param {
    lr_mult: 0
  }
  param {
    lr_mult: 0
  }
  param {
    lr_mult: 0
  }
  batch_norm_param {
    use_global_stats: false
  }
}
layer {
  name: "sc_k_1_1"
  type: "Scale"
  bottom: "bn_k_1_1"
  top: "sc_k_1_1"
  scale_param {
    bias_term: true
  }
}
layer {
  name: "relu_k_1_1"
  type: "ReLU"
  bottom: "sc_k_1_1"
  top: "relu_k_1_1"
}
layer {
  name: "conv_k_1_1"
  type: "Convolution"
  bottom: "relu_k_1_1"
  top: "conv_k_1_1"
  param {
    lr_mult: 1
    decay_mult: 1
  }
  param {
    lr_mult: 2
    decay_mult: 1
  }
  convolution_param {
    num_output: 256
    pad: 1
    kernel_size: 3
    stride: 2
    weight_filler {
      type: "msra"
    }
    bias_filler {
      type: "constant"
    }
  }
}
layer {
  name: "bn_k_1_2"
  type: "BatchNorm"
  bottom: "conv_k_1_1"
  top: "bn_k_1_2"
  param {
    lr_mult: 0
  }
  param {
    lr_mult: 0
  }
  param {
    lr_mult: 0
  }
  batch_norm_param {
    use_global_stats: false
  }
}
layer {
  name: "sc_k_1_2"
  type: "Scale"
  bottom: "bn_k_1_2"
  top: "sc_k_1_2"
  scale_param {
    bias_term: true
  }
}
layer {
  name: "relu_k_1_2"
  type: "ReLU"
  bottom: "sc_k_1_2"
  top: "relu_k_1_2"
}
layer {
  name: "conv_k_1_2"
  type: "Convolution"
  bottom: "relu_k_1_2"
  top: "conv_k_1_2"
  param {
    lr_mult: 1
    decay_mult: 1
  }
  param {
    lr_mult: 2
    decay_mult: 1
  }
  convolution_param {
    num_output: 256
    pad: 1
    kernel_size: 3
    stride: 1
    weight_filler {
      type: "msra"
    }
    bias_filler {
      type: "constant"
    }
  }
}
layer {
  name: "res_k"
  type: "Convolution"
  bottom: "elt_e_h"
  top: "res_k"
  param {
    lr_mult: 1
    decay_mult: 1
  }
  param {
    lr_mult: 2
    decay_mult: 1
  }
  convolution_param {
    num_output: 256
    pad: 0
    kernel_size: 1
    stride: 2
    weight_filler {
      type: "msra"
    }
    bias_filler {
      type: "constant"
    }
  }
}
layer {
  name: "elt_k_1"
  type: "Eltwise"
  bottom: "res_k"
  bottom: "conv_k_1_2"
  top: "elt_k_1"
  eltwise_param {
    operation: SUM
  }
}
layer {
  name: "bn_l_1_1"
  type: "BatchNorm"
  bottom: "elt_g_i"
  top: "bn_l_1_1"
  param {
    lr_mult: 0
  }
  param {
    lr_mult: 0
  }
  param {
    lr_mult: 0
  }
  batch_norm_param {
    use_global_stats: false
  }
}
layer {
  name: "sc_l_1_1"
  type: "Scale"
  bottom: "bn_l_1_1"
  top: "sc_l_1_1"
  scale_param {
    bias_term: true
  }
}
layer {
  name: "relu_l_1_1"
  type: "ReLU"
  bottom: "sc_l_1_1"
  top: "relu_l_1_1"
}
layer {
  name: "conv_l_1_1"
  type: "Convolution"
  bottom: "relu_l_1_1"
  top: "conv_l_1_1"
  param {
    lr_mult: 1
    decay_mult: 1
  }
  param {
    lr_mult: 2
    decay_mult: 1
  }
  convolution_param {
    num_output: 256
    pad: 1
    kernel_size: 3
    stride: 2
    weight_filler {
      type: "msra"
    }
    bias_filler {
      type: "constant"
    }
  }
}
layer {
  name: "bn_l_1_2"
  type: "BatchNorm"
  bottom: "conv_l_1_1"
  top: "bn_l_1_2"
  param {
    lr_mult: 0
  }
  param {
    lr_mult: 0
  }
  param {
    lr_mult: 0
  }
  batch_norm_param {
    use_global_stats: false
  }
}
layer {
  name: "sc_l_1_2"
  type: "Scale"
  bottom: "bn_l_1_2"
  top: "sc_l_1_2"
  scale_param {
    bias_term: true
  }
}
layer {
  name: "relu_l_1_2"
  type: "ReLU"
  bottom: "sc_l_1_2"
  top: "relu_l_1_2"
}
layer {
  name: "conv_l_1_2"
  type: "Convolution"
  bottom: "relu_l_1_2"
  top: "conv_l_1_2"
  param {
    lr_mult: 1
    decay_mult: 1
  }
  param {
    lr_mult: 2
    decay_mult: 1
  }
  convolution_param {
    num_output: 256
    pad: 1
    kernel_size: 3
    stride: 1
    weight_filler {
      type: "msra"
    }
    bias_filler {
      type: "constant"
    }
  }
}
layer {
  name: "res_l"
  type: "Convolution"
  bottom: "elt_g_i"
  top: "res_l"
  param {
    lr_mult: 1
    decay_mult: 1
  }
  param {
    lr_mult: 2
    decay_mult: 1
  }
  convolution_param {
    num_output: 256
    pad: 0
    kernel_size: 1
    stride: 2
    weight_filler {
      type: "msra"
    }
    bias_filler {
      type: "constant"
    }
  }
}
layer {
  name: "elt_l_1"
  type: "Eltwise"
  bottom: "res_l"
  bottom: "conv_l_1_2"
  top: "elt_l_1"
  eltwise_param {
    operation: SUM
  }
}
layer {
  name: "elt_j_k_l"
  type: "Eltwise"
  bottom: "elt_j_1"
  bottom: "elt_k_1"
  bottom: "elt_l_1"
  top: "elt_j_k_l"
  eltwise_param {
    operation: SUM
  }
}
layer {
  name: "bn_m_1_1"
  type: "BatchNorm"
  bottom: "elt_j_k_l"
  top: "bn_m_1_1"
  param {
    lr_mult: 0
  }
  param {
    lr_mult: 0
  }
  param {
    lr_mult: 0
  }
  batch_norm_param {
    use_global_stats: false
  }
}
layer {
  name: "sc_m_1_1"
  type: "Scale"
  bottom: "bn_m_1_1"
  top: "sc_m_1_1"
  scale_param {
    bias_term: true
  }
}
layer {
  name: "relu_m_1_1"
  type: "ReLU"
  bottom: "sc_m_1_1"
  top: "relu_m_1_1"
}
layer {
  name: "gap"
  type: "Pooling"
  bottom: "relu_m_1_1"
  top: "gap"
  pooling_param {
    pool: AVE
    kernel_size: 8
    stride: 1
  }
}
layer {
  name: "ip1"
  type: "InnerProduct"
  bottom: "gap"
  top: "ip1"
  param {
    lr_mult: 1
    decay_mult: 1
  }
  param {
    lr_mult: 2
    decay_mult: 0
  }
  inner_product_param {
    num_output: 10
    weight_filler {
      type: "msra"
    }
    bias_filler {
      type: "constant"
      value: 0
    }
  }
}
layer {
  name: "loss"
  type: "SoftmaxWithLoss"
  bottom: "ip1"
  bottom: "label"
  top: "loss"
}
I0620 23:56:23.264747 19694 layer_factory.hpp:77] Creating layer resnet
I0620 23:56:23.265302 19694 net.cpp:91] Creating Layer resnet
I0620 23:56:23.265319 19694 net.cpp:399] resnet -> data
I0620 23:56:23.265377 19694 net.cpp:399] resnet -> label
I0620 23:56:23.265399 19694 data_transformer.cpp:25] Loading mean file from: /home/takeki/caffe/examples/cifar10/mean.binaryproto
I0620 23:56:23.266119 19737 db_lmdb.cpp:35] Opened lmdb /home/takeki/caffe/examples/cifar10/cifar10_train_lmdb
I0620 23:56:23.278363 19694 data_layer.cpp:41] output data size: 128,3,32,32
I0620 23:56:23.281978 19694 net.cpp:141] Setting up resnet
I0620 23:56:23.282002 19694 net.cpp:148] Top shape: 128 3 32 32 (393216)
I0620 23:56:23.282011 19694 net.cpp:148] Top shape: 128 (128)
I0620 23:56:23.282016 19694 net.cpp:156] Memory required for data: 1573376
I0620 23:56:23.282024 19694 layer_factory.hpp:77] Creating layer conv0
I0620 23:56:23.282052 19694 net.cpp:91] Creating Layer conv0
I0620 23:56:23.282060 19694 net.cpp:425] conv0 <- data
I0620 23:56:23.282076 19694 net.cpp:399] conv0 -> conv0
I0620 23:56:23.450785 19694 net.cpp:141] Setting up conv0
I0620 23:56:23.450834 19694 net.cpp:148] Top shape: 128 16 32 32 (2097152)
I0620 23:56:23.450845 19694 net.cpp:156] Memory required for data: 9961984
I0620 23:56:23.450891 19694 layer_factory.hpp:77] Creating layer conv0_conv0_0_split
I0620 23:56:23.450924 19694 net.cpp:91] Creating Layer conv0_conv0_0_split
I0620 23:56:23.450939 19694 net.cpp:425] conv0_conv0_0_split <- conv0
I0620 23:56:23.450956 19694 net.cpp:399] conv0_conv0_0_split -> conv0_conv0_0_split_0
I0620 23:56:23.450978 19694 net.cpp:399] conv0_conv0_0_split -> conv0_conv0_0_split_1
I0620 23:56:23.450999 19694 net.cpp:399] conv0_conv0_0_split -> conv0_conv0_0_split_2
I0620 23:56:23.451017 19694 net.cpp:399] conv0_conv0_0_split -> conv0_conv0_0_split_3
I0620 23:56:23.451035 19694 net.cpp:399] conv0_conv0_0_split -> conv0_conv0_0_split_4
I0620 23:56:23.451055 19694 net.cpp:399] conv0_conv0_0_split -> conv0_conv0_0_split_5
I0620 23:56:23.451159 19694 net.cpp:141] Setting up conv0_conv0_0_split
I0620 23:56:23.451174 19694 net.cpp:148] Top shape: 128 16 32 32 (2097152)
I0620 23:56:23.451189 19694 net.cpp:148] Top shape: 128 16 32 32 (2097152)
I0620 23:56:23.451203 19694 net.cpp:148] Top shape: 128 16 32 32 (2097152)
I0620 23:56:23.451232 19694 net.cpp:148] Top shape: 128 16 32 32 (2097152)
I0620 23:56:23.451247 19694 net.cpp:148] Top shape: 128 16 32 32 (2097152)
I0620 23:56:23.451263 19694 net.cpp:148] Top shape: 128 16 32 32 (2097152)
I0620 23:56:23.451275 19694 net.cpp:156] Memory required for data: 60293632
I0620 23:56:23.451285 19694 layer_factory.hpp:77] Creating layer bn_a_1_1
I0620 23:56:23.451304 19694 net.cpp:91] Creating Layer bn_a_1_1
I0620 23:56:23.451316 19694 net.cpp:425] bn_a_1_1 <- conv0_conv0_0_split_0
I0620 23:56:23.451331 19694 net.cpp:399] bn_a_1_1 -> bn_a_1_1
I0620 23:56:23.451535 19694 net.cpp:141] Setting up bn_a_1_1
I0620 23:56:23.451551 19694 net.cpp:148] Top shape: 128 16 32 32 (2097152)
I0620 23:56:23.451573 19694 net.cpp:156] Memory required for data: 68682240
I0620 23:56:23.451597 19694 layer_factory.hpp:77] Creating layer sc_a_1_1
I0620 23:56:23.451616 19694 net.cpp:91] Creating Layer sc_a_1_1
I0620 23:56:23.451627 19694 net.cpp:425] sc_a_1_1 <- bn_a_1_1
I0620 23:56:23.451640 19694 net.cpp:399] sc_a_1_1 -> sc_a_1_1
I0620 23:56:23.451694 19694 layer_factory.hpp:77] Creating layer sc_a_1_1
I0620 23:56:23.451803 19694 net.cpp:141] Setting up sc_a_1_1
I0620 23:56:23.451818 19694 net.cpp:148] Top shape: 128 16 32 32 (2097152)
I0620 23:56:23.451828 19694 net.cpp:156] Memory required for data: 77070848
I0620 23:56:23.451844 19694 layer_factory.hpp:77] Creating layer relu_a_1_1
I0620 23:56:23.451861 19694 net.cpp:91] Creating Layer relu_a_1_1
I0620 23:56:23.451874 19694 net.cpp:425] relu_a_1_1 <- sc_a_1_1
I0620 23:56:23.451886 19694 net.cpp:399] relu_a_1_1 -> relu_a_1_1
I0620 23:56:23.452188 19694 net.cpp:141] Setting up relu_a_1_1
I0620 23:56:23.452206 19694 net.cpp:148] Top shape: 128 16 32 32 (2097152)
I0620 23:56:23.452244 19694 net.cpp:156] Memory required for data: 85459456
I0620 23:56:23.452265 19694 layer_factory.hpp:77] Creating layer conv_a_1_1
I0620 23:56:23.452287 19694 net.cpp:91] Creating Layer conv_a_1_1
I0620 23:56:23.452301 19694 net.cpp:425] conv_a_1_1 <- relu_a_1_1
I0620 23:56:23.452316 19694 net.cpp:399] conv_a_1_1 -> conv_a_1_1
I0620 23:56:23.453758 19694 net.cpp:141] Setting up conv_a_1_1
I0620 23:56:23.453775 19694 net.cpp:148] Top shape: 128 64 32 32 (8388608)
I0620 23:56:23.453799 19694 net.cpp:156] Memory required for data: 119013888
I0620 23:56:23.453819 19694 layer_factory.hpp:77] Creating layer bn_a_1_2
I0620 23:56:23.453837 19694 net.cpp:91] Creating Layer bn_a_1_2
I0620 23:56:23.453850 19694 net.cpp:425] bn_a_1_2 <- conv_a_1_1
I0620 23:56:23.453865 19694 net.cpp:399] bn_a_1_2 -> bn_a_1_2
I0620 23:56:23.454042 19694 net.cpp:141] Setting up bn_a_1_2
I0620 23:56:23.454058 19694 net.cpp:148] Top shape: 128 64 32 32 (8388608)
I0620 23:56:23.454067 19694 net.cpp:156] Memory required for data: 152568320
I0620 23:56:23.454087 19694 layer_factory.hpp:77] Creating layer sc_a_1_2
I0620 23:56:23.454105 19694 net.cpp:91] Creating Layer sc_a_1_2
I0620 23:56:23.454118 19694 net.cpp:425] sc_a_1_2 <- bn_a_1_2
I0620 23:56:23.454131 19694 net.cpp:399] sc_a_1_2 -> sc_a_1_2
I0620 23:56:23.454181 19694 layer_factory.hpp:77] Creating layer sc_a_1_2
I0620 23:56:23.454289 19694 net.cpp:141] Setting up sc_a_1_2
I0620 23:56:23.454305 19694 net.cpp:148] Top shape: 128 64 32 32 (8388608)
I0620 23:56:23.454315 19694 net.cpp:156] Memory required for data: 186122752
I0620 23:56:23.454331 19694 layer_factory.hpp:77] Creating layer relu_a_1_2
I0620 23:56:23.454349 19694 net.cpp:91] Creating Layer relu_a_1_2
I0620 23:56:23.454360 19694 net.cpp:425] relu_a_1_2 <- sc_a_1_2
I0620 23:56:23.454375 19694 net.cpp:399] relu_a_1_2 -> relu_a_1_2
I0620 23:56:23.454643 19694 net.cpp:141] Setting up relu_a_1_2
I0620 23:56:23.454660 19694 net.cpp:148] Top shape: 128 64 32 32 (8388608)
I0620 23:56:23.454670 19694 net.cpp:156] Memory required for data: 219677184
I0620 23:56:23.454680 19694 layer_factory.hpp:77] Creating layer conv_a_1_2
I0620 23:56:23.454720 19694 net.cpp:91] Creating Layer conv_a_1_2
I0620 23:56:23.454731 19694 net.cpp:425] conv_a_1_2 <- relu_a_1_2
I0620 23:56:23.454748 19694 net.cpp:399] conv_a_1_2 -> conv_a_1_2
I0620 23:56:23.457007 19694 net.cpp:141] Setting up conv_a_1_2
I0620 23:56:23.457027 19694 net.cpp:148] Top shape: 128 64 32 32 (8388608)
I0620 23:56:23.457051 19694 net.cpp:156] Memory required for data: 253231616
I0620 23:56:23.457067 19694 layer_factory.hpp:77] Creating layer res_a
I0620 23:56:23.457090 19694 net.cpp:91] Creating Layer res_a
I0620 23:56:23.457103 19694 net.cpp:425] res_a <- conv0_conv0_0_split_1
I0620 23:56:23.457118 19694 net.cpp:399] res_a -> res_a
I0620 23:56:23.457988 19694 net.cpp:141] Setting up res_a
I0620 23:56:23.458005 19694 net.cpp:148] Top shape: 128 64 32 32 (8388608)
I0620 23:56:23.458029 19694 net.cpp:156] Memory required for data: 286786048
I0620 23:56:23.458050 19694 layer_factory.hpp:77] Creating layer elt_a_1
I0620 23:56:23.458068 19694 net.cpp:91] Creating Layer elt_a_1
I0620 23:56:23.458081 19694 net.cpp:425] elt_a_1 <- res_a
I0620 23:56:23.458093 19694 net.cpp:425] elt_a_1 <- conv_a_1_2
I0620 23:56:23.458109 19694 net.cpp:399] elt_a_1 -> elt_a_1
I0620 23:56:23.458151 19694 net.cpp:141] Setting up elt_a_1
I0620 23:56:23.458168 19694 net.cpp:148] Top shape: 128 64 32 32 (8388608)
I0620 23:56:23.458178 19694 net.cpp:156] Memory required for data: 320340480
I0620 23:56:23.458187 19694 layer_factory.hpp:77] Creating layer elt_a_1_elt_a_1_0_split
I0620 23:56:23.458202 19694 net.cpp:91] Creating Layer elt_a_1_elt_a_1_0_split
I0620 23:56:23.458214 19694 net.cpp:425] elt_a_1_elt_a_1_0_split <- elt_a_1
I0620 23:56:23.458228 19694 net.cpp:399] elt_a_1_elt_a_1_0_split -> elt_a_1_elt_a_1_0_split_0
I0620 23:56:23.458247 19694 net.cpp:399] elt_a_1_elt_a_1_0_split -> elt_a_1_elt_a_1_0_split_1
I0620 23:56:23.458266 19694 net.cpp:399] elt_a_1_elt_a_1_0_split -> elt_a_1_elt_a_1_0_split_2
I0620 23:56:23.458295 19694 net.cpp:399] elt_a_1_elt_a_1_0_split -> elt_a_1_elt_a_1_0_split_3
I0620 23:56:23.458364 19694 net.cpp:141] Setting up elt_a_1_elt_a_1_0_split
I0620 23:56:23.458380 19694 net.cpp:148] Top shape: 128 64 32 32 (8388608)
I0620 23:56:23.458394 19694 net.cpp:148] Top shape: 128 64 32 32 (8388608)
I0620 23:56:23.458407 19694 net.cpp:148] Top shape: 128 64 32 32 (8388608)
I0620 23:56:23.458420 19694 net.cpp:148] Top shape: 128 64 32 32 (8388608)
I0620 23:56:23.458432 19694 net.cpp:156] Memory required for data: 454558208
I0620 23:56:23.458442 19694 layer_factory.hpp:77] Creating layer bn_b_1_1
I0620 23:56:23.458458 19694 net.cpp:91] Creating Layer bn_b_1_1
I0620 23:56:23.458470 19694 net.cpp:425] bn_b_1_1 <- conv0_conv0_0_split_2
I0620 23:56:23.458484 19694 net.cpp:399] bn_b_1_1 -> bn_b_1_1
I0620 23:56:23.458667 19694 net.cpp:141] Setting up bn_b_1_1
I0620 23:56:23.458686 19694 net.cpp:148] Top shape: 128 16 32 32 (2097152)
I0620 23:56:23.458710 19694 net.cpp:156] Memory required for data: 462946816
I0620 23:56:23.458731 19694 layer_factory.hpp:77] Creating layer sc_b_1_1
I0620 23:56:23.458747 19694 net.cpp:91] Creating Layer sc_b_1_1
I0620 23:56:23.458760 19694 net.cpp:425] sc_b_1_1 <- bn_b_1_1
I0620 23:56:23.458775 19694 net.cpp:399] sc_b_1_1 -> sc_b_1_1
I0620 23:56:23.458827 19694 layer_factory.hpp:77] Creating layer sc_b_1_1
I0620 23:56:23.458946 19694 net.cpp:141] Setting up sc_b_1_1
I0620 23:56:23.458962 19694 net.cpp:148] Top shape: 128 16 32 32 (2097152)
I0620 23:56:23.458972 19694 net.cpp:156] Memory required for data: 471335424
I0620 23:56:23.458989 19694 layer_factory.hpp:77] Creating layer relu_b_1_1
I0620 23:56:23.459023 19694 net.cpp:91] Creating Layer relu_b_1_1
I0620 23:56:23.459035 19694 net.cpp:425] relu_b_1_1 <- sc_b_1_1
I0620 23:56:23.459048 19694 net.cpp:399] relu_b_1_1 -> relu_b_1_1
I0620 23:56:23.459244 19694 net.cpp:141] Setting up relu_b_1_1
I0620 23:56:23.459259 19694 net.cpp:148] Top shape: 128 16 32 32 (2097152)
I0620 23:56:23.459270 19694 net.cpp:156] Memory required for data: 479724032
I0620 23:56:23.459280 19694 layer_factory.hpp:77] Creating layer conv_b_1_1
I0620 23:56:23.459301 19694 net.cpp:91] Creating Layer conv_b_1_1
I0620 23:56:23.459313 19694 net.cpp:425] conv_b_1_1 <- relu_b_1_1
I0620 23:56:23.459332 19694 net.cpp:399] conv_b_1_1 -> conv_b_1_1
I0620 23:56:23.460474 19694 net.cpp:141] Setting up conv_b_1_1
I0620 23:56:23.460492 19694 net.cpp:148] Top shape: 128 64 32 32 (8388608)
I0620 23:56:23.460502 19694 net.cpp:156] Memory required for data: 513278464
I0620 23:56:23.460518 19694 layer_factory.hpp:77] Creating layer bn_b_1_2
I0620 23:56:23.460539 19694 net.cpp:91] Creating Layer bn_b_1_2
I0620 23:56:23.460551 19694 net.cpp:425] bn_b_1_2 <- conv_b_1_1
I0620 23:56:23.460567 19694 net.cpp:399] bn_b_1_2 -> bn_b_1_2
I0620 23:56:23.460758 19694 net.cpp:141] Setting up bn_b_1_2
I0620 23:56:23.460773 19694 net.cpp:148] Top shape: 128 64 32 32 (8388608)
I0620 23:56:23.460783 19694 net.cpp:156] Memory required for data: 546832896
I0620 23:56:23.460801 19694 layer_factory.hpp:77] Creating layer sc_b_1_2
I0620 23:56:23.460818 19694 net.cpp:91] Creating Layer sc_b_1_2
I0620 23:56:23.460829 19694 net.cpp:425] sc_b_1_2 <- bn_b_1_2
I0620 23:56:23.460844 19694 net.cpp:399] sc_b_1_2 -> sc_b_1_2
I0620 23:56:23.460897 19694 layer_factory.hpp:77] Creating layer sc_b_1_2
I0620 23:56:23.461030 19694 net.cpp:141] Setting up sc_b_1_2
I0620 23:56:23.461045 19694 net.cpp:148] Top shape: 128 64 32 32 (8388608)
I0620 23:56:23.461055 19694 net.cpp:156] Memory required for data: 580387328
I0620 23:56:23.461071 19694 layer_factory.hpp:77] Creating layer relu_b_1_2
I0620 23:56:23.461088 19694 net.cpp:91] Creating Layer relu_b_1_2
I0620 23:56:23.461100 19694 net.cpp:425] relu_b_1_2 <- sc_b_1_2
I0620 23:56:23.461117 19694 net.cpp:399] relu_b_1_2 -> relu_b_1_2
I0620 23:56:23.461309 19694 net.cpp:141] Setting up relu_b_1_2
I0620 23:56:23.461325 19694 net.cpp:148] Top shape: 128 64 32 32 (8388608)
I0620 23:56:23.461335 19694 net.cpp:156] Memory required for data: 613941760
I0620 23:56:23.461345 19694 layer_factory.hpp:77] Creating layer conv_b_1_2
I0620 23:56:23.461385 19694 net.cpp:91] Creating Layer conv_b_1_2
I0620 23:56:23.461396 19694 net.cpp:425] conv_b_1_2 <- relu_b_1_2
I0620 23:56:23.461415 19694 net.cpp:399] conv_b_1_2 -> conv_b_1_2
I0620 23:56:23.463306 19694 net.cpp:141] Setting up conv_b_1_2
I0620 23:56:23.463325 19694 net.cpp:148] Top shape: 128 64 32 32 (8388608)
I0620 23:56:23.463346 19694 net.cpp:156] Memory required for data: 647496192
I0620 23:56:23.463363 19694 layer_factory.hpp:77] Creating layer res_b
I0620 23:56:23.463385 19694 net.cpp:91] Creating Layer res_b
I0620 23:56:23.463397 19694 net.cpp:425] res_b <- conv0_conv0_0_split_3
I0620 23:56:23.463416 19694 net.cpp:399] res_b -> res_b
I0620 23:56:23.464454 19694 net.cpp:141] Setting up res_b
I0620 23:56:23.464473 19694 net.cpp:148] Top shape: 128 64 32 32 (8388608)
I0620 23:56:23.464494 19694 net.cpp:156] Memory required for data: 681050624
I0620 23:56:23.464519 19694 layer_factory.hpp:77] Creating layer elt_b_1
I0620 23:56:23.464537 19694 net.cpp:91] Creating Layer elt_b_1
I0620 23:56:23.464550 19694 net.cpp:425] elt_b_1 <- res_b
I0620 23:56:23.464562 19694 net.cpp:425] elt_b_1 <- conv_b_1_2
I0620 23:56:23.464577 19694 net.cpp:399] elt_b_1 -> elt_b_1
I0620 23:56:23.464620 19694 net.cpp:141] Setting up elt_b_1
I0620 23:56:23.464648 19694 net.cpp:148] Top shape: 128 64 32 32 (8388608)
I0620 23:56:23.464658 19694 net.cpp:156] Memory required for data: 714605056
I0620 23:56:23.464668 19694 layer_factory.hpp:77] Creating layer elt_b_1_elt_b_1_0_split
I0620 23:56:23.464689 19694 net.cpp:91] Creating Layer elt_b_1_elt_b_1_0_split
I0620 23:56:23.464699 19694 net.cpp:425] elt_b_1_elt_b_1_0_split <- elt_b_1
I0620 23:56:23.464714 19694 net.cpp:399] elt_b_1_elt_b_1_0_split -> elt_b_1_elt_b_1_0_split_0
I0620 23:56:23.464732 19694 net.cpp:399] elt_b_1_elt_b_1_0_split -> elt_b_1_elt_b_1_0_split_1
I0620 23:56:23.464750 19694 net.cpp:399] elt_b_1_elt_b_1_0_split -> elt_b_1_elt_b_1_0_split_2
I0620 23:56:23.464771 19694 net.cpp:399] elt_b_1_elt_b_1_0_split -> elt_b_1_elt_b_1_0_split_3
I0620 23:56:23.464846 19694 net.cpp:141] Setting up elt_b_1_elt_b_1_0_split
I0620 23:56:23.464862 19694 net.cpp:148] Top shape: 128 64 32 32 (8388608)
I0620 23:56:23.464874 19694 net.cpp:148] Top shape: 128 64 32 32 (8388608)
I0620 23:56:23.464889 19694 net.cpp:148] Top shape: 128 64 32 32 (8388608)
I0620 23:56:23.464901 19694 net.cpp:148] Top shape: 128 64 32 32 (8388608)
I0620 23:56:23.464912 19694 net.cpp:156] Memory required for data: 848822784
I0620 23:56:23.464922 19694 layer_factory.hpp:77] Creating layer bn_c_1_1
I0620 23:56:23.464941 19694 net.cpp:91] Creating Layer bn_c_1_1
I0620 23:56:23.464952 19694 net.cpp:425] bn_c_1_1 <- conv0_conv0_0_split_4
I0620 23:56:23.464967 19694 net.cpp:399] bn_c_1_1 -> bn_c_1_1
I0620 23:56:23.465157 19694 net.cpp:141] Setting up bn_c_1_1
I0620 23:56:23.465173 19694 net.cpp:148] Top shape: 128 16 32 32 (2097152)
I0620 23:56:23.465183 19694 net.cpp:156] Memory required for data: 857211392
I0620 23:56:23.465201 19694 layer_factory.hpp:77] Creating layer sc_c_1_1
I0620 23:56:23.465217 19694 net.cpp:91] Creating Layer sc_c_1_1
I0620 23:56:23.465229 19694 net.cpp:425] sc_c_1_1 <- bn_c_1_1
I0620 23:56:23.465251 19694 net.cpp:399] sc_c_1_1 -> sc_c_1_1
I0620 23:56:23.465306 19694 layer_factory.hpp:77] Creating layer sc_c_1_1
I0620 23:56:23.465428 19694 net.cpp:141] Setting up sc_c_1_1
I0620 23:56:23.465446 19694 net.cpp:148] Top shape: 128 16 32 32 (2097152)
I0620 23:56:23.465459 19694 net.cpp:156] Memory required for data: 865600000
I0620 23:56:23.465476 19694 layer_factory.hpp:77] Creating layer relu_c_1_1
I0620 23:56:23.465490 19694 net.cpp:91] Creating Layer relu_c_1_1
I0620 23:56:23.465502 19694 net.cpp:425] relu_c_1_1 <- sc_c_1_1
I0620 23:56:23.465517 19694 net.cpp:399] relu_c_1_1 -> relu_c_1_1
I0620 23:56:23.465818 19694 net.cpp:141] Setting up relu_c_1_1
I0620 23:56:23.465837 19694 net.cpp:148] Top shape: 128 16 32 32 (2097152)
I0620 23:56:23.465847 19694 net.cpp:156] Memory required for data: 873988608
I0620 23:56:23.465857 19694 layer_factory.hpp:77] Creating layer conv_c_1_1
I0620 23:56:23.465905 19694 net.cpp:91] Creating Layer conv_c_1_1
I0620 23:56:23.465917 19694 net.cpp:425] conv_c_1_1 <- relu_c_1_1
I0620 23:56:23.465937 19694 net.cpp:399] conv_c_1_1 -> conv_c_1_1
I0620 23:56:23.467048 19694 net.cpp:141] Setting up conv_c_1_1
I0620 23:56:23.467067 19694 net.cpp:148] Top shape: 128 64 32 32 (8388608)
I0620 23:56:23.467077 19694 net.cpp:156] Memory required for data: 907543040
I0620 23:56:23.467093 19694 layer_factory.hpp:77] Creating layer bn_c_1_2
I0620 23:56:23.467114 19694 net.cpp:91] Creating Layer bn_c_1_2
I0620 23:56:23.467126 19694 net.cpp:425] bn_c_1_2 <- conv_c_1_1
I0620 23:56:23.467140 19694 net.cpp:399] bn_c_1_2 -> bn_c_1_2
I0620 23:56:23.467340 19694 net.cpp:141] Setting up bn_c_1_2
I0620 23:56:23.467356 19694 net.cpp:148] Top shape: 128 64 32 32 (8388608)
I0620 23:56:23.467366 19694 net.cpp:156] Memory required for data: 941097472
I0620 23:56:23.467386 19694 layer_factory.hpp:77] Creating layer sc_c_1_2
I0620 23:56:23.467401 19694 net.cpp:91] Creating Layer sc_c_1_2
I0620 23:56:23.467414 19694 net.cpp:425] sc_c_1_2 <- bn_c_1_2
I0620 23:56:23.467437 19694 net.cpp:399] sc_c_1_2 -> sc_c_1_2
I0620 23:56:23.467492 19694 layer_factory.hpp:77] Creating layer sc_c_1_2
I0620 23:56:23.467615 19694 net.cpp:141] Setting up sc_c_1_2
I0620 23:56:23.467630 19694 net.cpp:148] Top shape: 128 64 32 32 (8388608)
I0620 23:56:23.467639 19694 net.cpp:156] Memory required for data: 974651904
I0620 23:56:23.467656 19694 layer_factory.hpp:77] Creating layer relu_c_1_2
I0620 23:56:23.467675 19694 net.cpp:91] Creating Layer relu_c_1_2
I0620 23:56:23.467687 19694 net.cpp:425] relu_c_1_2 <- sc_c_1_2
I0620 23:56:23.467700 19694 net.cpp:399] relu_c_1_2 -> relu_c_1_2
I0620 23:56:23.467994 19694 net.cpp:141] Setting up relu_c_1_2
I0620 23:56:23.468011 19694 net.cpp:148] Top shape: 128 64 32 32 (8388608)
I0620 23:56:23.468022 19694 net.cpp:156] Memory required for data: 1008206336
I0620 23:56:23.468034 19694 layer_factory.hpp:77] Creating layer conv_c_1_2
I0620 23:56:23.468061 19694 net.cpp:91] Creating Layer conv_c_1_2
I0620 23:56:23.468073 19694 net.cpp:425] conv_c_1_2 <- relu_c_1_2
I0620 23:56:23.468092 19694 net.cpp:399] conv_c_1_2 -> conv_c_1_2
I0620 23:56:23.470157 19694 net.cpp:141] Setting up conv_c_1_2
I0620 23:56:23.470176 19694 net.cpp:148] Top shape: 128 64 32 32 (8388608)
I0620 23:56:23.470186 19694 net.cpp:156] Memory required for data: 1041760768
I0620 23:56:23.470203 19694 layer_factory.hpp:77] Creating layer res_c
I0620 23:56:23.470228 19694 net.cpp:91] Creating Layer res_c
I0620 23:56:23.470239 19694 net.cpp:425] res_c <- conv0_conv0_0_split_5
I0620 23:56:23.470259 19694 net.cpp:399] res_c -> res_c
I0620 23:56:23.471225 19694 net.cpp:141] Setting up res_c
I0620 23:56:23.471245 19694 net.cpp:148] Top shape: 128 64 32 32 (8388608)
I0620 23:56:23.471256 19694 net.cpp:156] Memory required for data: 1075315200
I0620 23:56:23.471271 19694 layer_factory.hpp:77] Creating layer elt_c_1
I0620 23:56:23.471287 19694 net.cpp:91] Creating Layer elt_c_1
I0620 23:56:23.471298 19694 net.cpp:425] elt_c_1 <- res_c
I0620 23:56:23.471312 19694 net.cpp:425] elt_c_1 <- conv_c_1_2
I0620 23:56:23.471330 19694 net.cpp:399] elt_c_1 -> elt_c_1
I0620 23:56:23.471371 19694 net.cpp:141] Setting up elt_c_1
I0620 23:56:23.471390 19694 net.cpp:148] Top shape: 128 64 32 32 (8388608)
I0620 23:56:23.471402 19694 net.cpp:156] Memory required for data: 1108869632
I0620 23:56:23.471413 19694 layer_factory.hpp:77] Creating layer elt_c_1_elt_c_1_0_split
I0620 23:56:23.471428 19694 net.cpp:91] Creating Layer elt_c_1_elt_c_1_0_split
I0620 23:56:23.471441 19694 net.cpp:425] elt_c_1_elt_c_1_0_split <- elt_c_1
I0620 23:56:23.471456 19694 net.cpp:399] elt_c_1_elt_c_1_0_split -> elt_c_1_elt_c_1_0_split_0
I0620 23:56:23.471487 19694 net.cpp:399] elt_c_1_elt_c_1_0_split -> elt_c_1_elt_c_1_0_split_1
I0620 23:56:23.471505 19694 net.cpp:399] elt_c_1_elt_c_1_0_split -> elt_c_1_elt_c_1_0_split_2
I0620 23:56:23.471527 19694 net.cpp:399] elt_c_1_elt_c_1_0_split -> elt_c_1_elt_c_1_0_split_3
I0620 23:56:23.471611 19694 net.cpp:141] Setting up elt_c_1_elt_c_1_0_split
I0620 23:56:23.471638 19694 net.cpp:148] Top shape: 128 64 32 32 (8388608)
I0620 23:56:23.471652 19694 net.cpp:148] Top shape: 128 64 32 32 (8388608)
I0620 23:56:23.471668 19694 net.cpp:148] Top shape: 128 64 32 32 (8388608)
I0620 23:56:23.471681 19694 net.cpp:148] Top shape: 128 64 32 32 (8388608)
I0620 23:56:23.471693 19694 net.cpp:156] Memory required for data: 1243087360
I0620 23:56:23.471704 19694 layer_factory.hpp:77] Creating layer bn_d_1_1
I0620 23:56:23.471722 19694 net.cpp:91] Creating Layer bn_d_1_1
I0620 23:56:23.471734 19694 net.cpp:425] bn_d_1_1 <- elt_a_1_elt_a_1_0_split_0
I0620 23:56:23.471751 19694 net.cpp:399] bn_d_1_1 -> bn_d_1_1
I0620 23:56:23.471966 19694 net.cpp:141] Setting up bn_d_1_1
I0620 23:56:23.471982 19694 net.cpp:148] Top shape: 128 64 32 32 (8388608)
I0620 23:56:23.471990 19694 net.cpp:156] Memory required for data: 1276641792
I0620 23:56:23.472009 19694 layer_factory.hpp:77] Creating layer sc_d_1_1
I0620 23:56:23.472024 19694 net.cpp:91] Creating Layer sc_d_1_1
I0620 23:56:23.472038 19694 net.cpp:425] sc_d_1_1 <- bn_d_1_1
I0620 23:56:23.472054 19694 net.cpp:399] sc_d_1_1 -> sc_d_1_1
I0620 23:56:23.472110 19694 layer_factory.hpp:77] Creating layer sc_d_1_1
I0620 23:56:23.472234 19694 net.cpp:141] Setting up sc_d_1_1
I0620 23:56:23.472249 19694 net.cpp:148] Top shape: 128 64 32 32 (8388608)
I0620 23:56:23.472259 19694 net.cpp:156] Memory required for data: 1310196224
I0620 23:56:23.472276 19694 layer_factory.hpp:77] Creating layer relu_d_1_1
I0620 23:56:23.472295 19694 net.cpp:91] Creating Layer relu_d_1_1
I0620 23:56:23.472308 19694 net.cpp:425] relu_d_1_1 <- sc_d_1_1
I0620 23:56:23.472324 19694 net.cpp:399] relu_d_1_1 -> relu_d_1_1
I0620 23:56:23.472515 19694 net.cpp:141] Setting up relu_d_1_1
I0620 23:56:23.472532 19694 net.cpp:148] Top shape: 128 64 32 32 (8388608)
I0620 23:56:23.472544 19694 net.cpp:156] Memory required for data: 1343750656
I0620 23:56:23.472554 19694 layer_factory.hpp:77] Creating layer conv_d_1_1
I0620 23:56:23.472576 19694 net.cpp:91] Creating Layer conv_d_1_1
I0620 23:56:23.472587 19694 net.cpp:425] conv_d_1_1 <- relu_d_1_1
I0620 23:56:23.472604 19694 net.cpp:399] conv_d_1_1 -> conv_d_1_1
I0620 23:56:23.475905 19694 net.cpp:141] Setting up conv_d_1_1
I0620 23:56:23.475924 19694 net.cpp:148] Top shape: 128 128 16 16 (4194304)
I0620 23:56:23.475934 19694 net.cpp:156] Memory required for data: 1360527872
I0620 23:56:23.475950 19694 layer_factory.hpp:77] Creating layer bn_d_1_2
I0620 23:56:23.475976 19694 net.cpp:91] Creating Layer bn_d_1_2
I0620 23:56:23.476001 19694 net.cpp:425] bn_d_1_2 <- conv_d_1_1
I0620 23:56:23.476016 19694 net.cpp:399] bn_d_1_2 -> bn_d_1_2
I0620 23:56:23.476218 19694 net.cpp:141] Setting up bn_d_1_2
I0620 23:56:23.476234 19694 net.cpp:148] Top shape: 128 128 16 16 (4194304)
I0620 23:56:23.476244 19694 net.cpp:156] Memory required for data: 1377305088
I0620 23:56:23.476263 19694 layer_factory.hpp:77] Creating layer sc_d_1_2
I0620 23:56:23.476279 19694 net.cpp:91] Creating Layer sc_d_1_2
I0620 23:56:23.476300 19694 net.cpp:425] sc_d_1_2 <- bn_d_1_2
I0620 23:56:23.476315 19694 net.cpp:399] sc_d_1_2 -> sc_d_1_2
I0620 23:56:23.476377 19694 layer_factory.hpp:77] Creating layer sc_d_1_2
I0620 23:56:23.476493 19694 net.cpp:141] Setting up sc_d_1_2
I0620 23:56:23.476507 19694 net.cpp:148] Top shape: 128 128 16 16 (4194304)
I0620 23:56:23.476517 19694 net.cpp:156] Memory required for data: 1394082304
I0620 23:56:23.476533 19694 layer_factory.hpp:77] Creating layer relu_d_1_2
I0620 23:56:23.476549 19694 net.cpp:91] Creating Layer relu_d_1_2
I0620 23:56:23.476562 19694 net.cpp:425] relu_d_1_2 <- sc_d_1_2
I0620 23:56:23.476579 19694 net.cpp:399] relu_d_1_2 -> relu_d_1_2
I0620 23:56:23.476766 19694 net.cpp:141] Setting up relu_d_1_2
I0620 23:56:23.476783 19694 net.cpp:148] Top shape: 128 128 16 16 (4194304)
I0620 23:56:23.476794 19694 net.cpp:156] Memory required for data: 1410859520
I0620 23:56:23.476804 19694 layer_factory.hpp:77] Creating layer conv_d_1_2
I0620 23:56:23.476830 19694 net.cpp:91] Creating Layer conv_d_1_2
I0620 23:56:23.476862 19694 net.cpp:425] conv_d_1_2 <- relu_d_1_2
I0620 23:56:23.476881 19694 net.cpp:399] conv_d_1_2 -> conv_d_1_2
I0620 23:56:23.481739 19694 net.cpp:141] Setting up conv_d_1_2
I0620 23:56:23.481760 19694 net.cpp:148] Top shape: 128 128 16 16 (4194304)
I0620 23:56:23.481786 19694 net.cpp:156] Memory required for data: 1427636736
I0620 23:56:23.481802 19694 layer_factory.hpp:77] Creating layer res_d
I0620 23:56:23.481829 19694 net.cpp:91] Creating Layer res_d
I0620 23:56:23.481842 19694 net.cpp:425] res_d <- elt_a_1_elt_a_1_0_split_1
I0620 23:56:23.481859 19694 net.cpp:399] res_d -> res_d
I0620 23:56:23.483016 19694 net.cpp:141] Setting up res_d
I0620 23:56:23.483033 19694 net.cpp:148] Top shape: 128 128 16 16 (4194304)
I0620 23:56:23.483057 19694 net.cpp:156] Memory required for data: 1444413952
I0620 23:56:23.483088 19694 layer_factory.hpp:77] Creating layer elt_d_1
I0620 23:56:23.483103 19694 net.cpp:91] Creating Layer elt_d_1
I0620 23:56:23.483115 19694 net.cpp:425] elt_d_1 <- res_d
I0620 23:56:23.483129 19694 net.cpp:425] elt_d_1 <- conv_d_1_2
I0620 23:56:23.483160 19694 net.cpp:399] elt_d_1 -> elt_d_1
I0620 23:56:23.483199 19694 net.cpp:141] Setting up elt_d_1
I0620 23:56:23.483216 19694 net.cpp:148] Top shape: 128 128 16 16 (4194304)
I0620 23:56:23.483224 19694 net.cpp:156] Memory required for data: 1461191168
I0620 23:56:23.483234 19694 layer_factory.hpp:77] Creating layer bn_f_1_1
I0620 23:56:23.483253 19694 net.cpp:91] Creating Layer bn_f_1_1
I0620 23:56:23.483263 19694 net.cpp:425] bn_f_1_1 <- elt_b_1_elt_b_1_0_split_0
I0620 23:56:23.483278 19694 net.cpp:399] bn_f_1_1 -> bn_f_1_1
I0620 23:56:23.483484 19694 net.cpp:141] Setting up bn_f_1_1
I0620 23:56:23.483500 19694 net.cpp:148] Top shape: 128 64 32 32 (8388608)
I0620 23:56:23.483510 19694 net.cpp:156] Memory required for data: 1494745600
I0620 23:56:23.483528 19694 layer_factory.hpp:77] Creating layer sc_f_1_1
I0620 23:56:23.483547 19694 net.cpp:91] Creating Layer sc_f_1_1
I0620 23:56:23.483561 19694 net.cpp:425] sc_f_1_1 <- bn_f_1_1
I0620 23:56:23.483574 19694 net.cpp:399] sc_f_1_1 -> sc_f_1_1
I0620 23:56:23.483631 19694 layer_factory.hpp:77] Creating layer sc_f_1_1
I0620 23:56:23.483760 19694 net.cpp:141] Setting up sc_f_1_1
I0620 23:56:23.483777 19694 net.cpp:148] Top shape: 128 64 32 32 (8388608)
I0620 23:56:23.483785 19694 net.cpp:156] Memory required for data: 1528300032
I0620 23:56:23.483803 19694 layer_factory.hpp:77] Creating layer relu_f_1_1
I0620 23:56:23.483817 19694 net.cpp:91] Creating Layer relu_f_1_1
I0620 23:56:23.483830 19694 net.cpp:425] relu_f_1_1 <- sc_f_1_1
I0620 23:56:23.483844 19694 net.cpp:399] relu_f_1_1 -> relu_f_1_1
I0620 23:56:23.484140 19694 net.cpp:141] Setting up relu_f_1_1
I0620 23:56:23.484158 19694 net.cpp:148] Top shape: 128 64 32 32 (8388608)
I0620 23:56:23.484168 19694 net.cpp:156] Memory required for data: 1561854464
I0620 23:56:23.484179 19694 layer_factory.hpp:77] Creating layer conv_f_1_1
I0620 23:56:23.484200 19694 net.cpp:91] Creating Layer conv_f_1_1
I0620 23:56:23.484212 19694 net.cpp:425] conv_f_1_1 <- relu_f_1_1
I0620 23:56:23.484232 19694 net.cpp:399] conv_f_1_1 -> conv_f_1_1
I0620 23:56:23.487462 19694 net.cpp:141] Setting up conv_f_1_1
I0620 23:56:23.487480 19694 net.cpp:148] Top shape: 128 128 16 16 (4194304)
I0620 23:56:23.487503 19694 net.cpp:156] Memory required for data: 1578631680
I0620 23:56:23.487519 19694 layer_factory.hpp:77] Creating layer bn_f_1_2
I0620 23:56:23.487540 19694 net.cpp:91] Creating Layer bn_f_1_2
I0620 23:56:23.487553 19694 net.cpp:425] bn_f_1_2 <- conv_f_1_1
I0620 23:56:23.487567 19694 net.cpp:399] bn_f_1_2 -> bn_f_1_2
I0620 23:56:23.487769 19694 net.cpp:141] Setting up bn_f_1_2
I0620 23:56:23.487785 19694 net.cpp:148] Top shape: 128 128 16 16 (4194304)
I0620 23:56:23.487795 19694 net.cpp:156] Memory required for data: 1595408896
I0620 23:56:23.487814 19694 layer_factory.hpp:77] Creating layer sc_f_1_2
I0620 23:56:23.487833 19694 net.cpp:91] Creating Layer sc_f_1_2
I0620 23:56:23.487846 19694 net.cpp:425] sc_f_1_2 <- bn_f_1_2
I0620 23:56:23.487860 19694 net.cpp:399] sc_f_1_2 -> sc_f_1_2
I0620 23:56:23.487938 19694 layer_factory.hpp:77] Creating layer sc_f_1_2
I0620 23:56:23.488059 19694 net.cpp:141] Setting up sc_f_1_2
I0620 23:56:23.488076 19694 net.cpp:148] Top shape: 128 128 16 16 (4194304)
I0620 23:56:23.488086 19694 net.cpp:156] Memory required for data: 1612186112
I0620 23:56:23.488102 19694 layer_factory.hpp:77] Creating layer relu_f_1_2
I0620 23:56:23.488117 19694 net.cpp:91] Creating Layer relu_f_1_2
I0620 23:56:23.488129 19694 net.cpp:425] relu_f_1_2 <- sc_f_1_2
I0620 23:56:23.488142 19694 net.cpp:399] relu_f_1_2 -> relu_f_1_2
I0620 23:56:23.488535 19694 net.cpp:141] Setting up relu_f_1_2
I0620 23:56:23.488565 19694 net.cpp:148] Top shape: 128 128 16 16 (4194304)
I0620 23:56:23.488575 19694 net.cpp:156] Memory required for data: 1628963328
I0620 23:56:23.488585 19694 layer_factory.hpp:77] Creating layer conv_f_1_2
I0620 23:56:23.488620 19694 net.cpp:91] Creating Layer conv_f_1_2
I0620 23:56:23.488632 19694 net.cpp:425] conv_f_1_2 <- relu_f_1_2
I0620 23:56:23.488652 19694 net.cpp:399] conv_f_1_2 -> conv_f_1_2
I0620 23:56:23.493376 19694 net.cpp:141] Setting up conv_f_1_2
I0620 23:56:23.493393 19694 net.cpp:148] Top shape: 128 128 16 16 (4194304)
I0620 23:56:23.493417 19694 net.cpp:156] Memory required for data: 1645740544
I0620 23:56:23.493433 19694 layer_factory.hpp:77] Creating layer res_f
I0620 23:56:23.493465 19694 net.cpp:91] Creating Layer res_f
I0620 23:56:23.493479 19694 net.cpp:425] res_f <- elt_b_1_elt_b_1_0_split_1
I0620 23:56:23.493499 19694 net.cpp:399] res_f -> res_f
I0620 23:56:23.494567 19694 net.cpp:141] Setting up res_f
I0620 23:56:23.494585 19694 net.cpp:148] Top shape: 128 128 16 16 (4194304)
I0620 23:56:23.494608 19694 net.cpp:156] Memory required for data: 1662517760
I0620 23:56:23.494624 19694 layer_factory.hpp:77] Creating layer elt_f_1
I0620 23:56:23.494647 19694 net.cpp:91] Creating Layer elt_f_1
I0620 23:56:23.494660 19694 net.cpp:425] elt_f_1 <- res_f
I0620 23:56:23.494673 19694 net.cpp:425] elt_f_1 <- conv_f_1_2
I0620 23:56:23.494706 19694 net.cpp:399] elt_f_1 -> elt_f_1
I0620 23:56:23.494747 19694 net.cpp:141] Setting up elt_f_1
I0620 23:56:23.494763 19694 net.cpp:148] Top shape: 128 128 16 16 (4194304)
I0620 23:56:23.494773 19694 net.cpp:156] Memory required for data: 1679294976
I0620 23:56:23.494784 19694 layer_factory.hpp:77] Creating layer bn_g_1_1
I0620 23:56:23.494802 19694 net.cpp:91] Creating Layer bn_g_1_1
I0620 23:56:23.494813 19694 net.cpp:425] bn_g_1_1 <- elt_b_1_elt_b_1_0_split_2
I0620 23:56:23.494828 19694 net.cpp:399] bn_g_1_1 -> bn_g_1_1
I0620 23:56:23.495065 19694 net.cpp:141] Setting up bn_g_1_1
I0620 23:56:23.495081 19694 net.cpp:148] Top shape: 128 64 32 32 (8388608)
I0620 23:56:23.495090 19694 net.cpp:156] Memory required for data: 1712849408
I0620 23:56:23.495110 19694 layer_factory.hpp:77] Creating layer sc_g_1_1
I0620 23:56:23.495126 19694 net.cpp:91] Creating Layer sc_g_1_1
I0620 23:56:23.495139 19694 net.cpp:425] sc_g_1_1 <- bn_g_1_1
I0620 23:56:23.495157 19694 net.cpp:399] sc_g_1_1 -> sc_g_1_1
I0620 23:56:23.495216 19694 layer_factory.hpp:77] Creating layer sc_g_1_1
I0620 23:56:23.495349 19694 net.cpp:141] Setting up sc_g_1_1
I0620 23:56:23.495365 19694 net.cpp:148] Top shape: 128 64 32 32 (8388608)
I0620 23:56:23.495374 19694 net.cpp:156] Memory required for data: 1746403840
I0620 23:56:23.495390 19694 layer_factory.hpp:77] Creating layer relu_g_1_1
I0620 23:56:23.495405 19694 net.cpp:91] Creating Layer relu_g_1_1
I0620 23:56:23.495417 19694 net.cpp:425] relu_g_1_1 <- sc_g_1_1
I0620 23:56:23.495430 19694 net.cpp:399] relu_g_1_1 -> relu_g_1_1
I0620 23:56:23.495728 19694 net.cpp:141] Setting up relu_g_1_1
I0620 23:56:23.495746 19694 net.cpp:148] Top shape: 128 64 32 32 (8388608)
I0620 23:56:23.495769 19694 net.cpp:156] Memory required for data: 1779958272
I0620 23:56:23.495779 19694 layer_factory.hpp:77] Creating layer conv_g_1_1
I0620 23:56:23.495802 19694 net.cpp:91] Creating Layer conv_g_1_1
I0620 23:56:23.495827 19694 net.cpp:425] conv_g_1_1 <- relu_g_1_1
I0620 23:56:23.495843 19694 net.cpp:399] conv_g_1_1 -> conv_g_1_1
I0620 23:56:23.499317 19694 net.cpp:141] Setting up conv_g_1_1
I0620 23:56:23.499336 19694 net.cpp:148] Top shape: 128 128 16 16 (4194304)
I0620 23:56:23.499359 19694 net.cpp:156] Memory required for data: 1796735488
I0620 23:56:23.499377 19694 layer_factory.hpp:77] Creating layer bn_g_1_2
I0620 23:56:23.499400 19694 net.cpp:91] Creating Layer bn_g_1_2
I0620 23:56:23.499413 19694 net.cpp:425] bn_g_1_2 <- conv_g_1_1
I0620 23:56:23.499433 19694 net.cpp:399] bn_g_1_2 -> bn_g_1_2
I0620 23:56:23.499639 19694 net.cpp:141] Setting up bn_g_1_2
I0620 23:56:23.499655 19694 net.cpp:148] Top shape: 128 128 16 16 (4194304)
I0620 23:56:23.499665 19694 net.cpp:156] Memory required for data: 1813512704
I0620 23:56:23.499683 19694 layer_factory.hpp:77] Creating layer sc_g_1_2
I0620 23:56:23.499699 19694 net.cpp:91] Creating Layer sc_g_1_2
I0620 23:56:23.499712 19694 net.cpp:425] sc_g_1_2 <- bn_g_1_2
I0620 23:56:23.499730 19694 net.cpp:399] sc_g_1_2 -> sc_g_1_2
I0620 23:56:23.499783 19694 layer_factory.hpp:77] Creating layer sc_g_1_2
I0620 23:56:23.499904 19694 net.cpp:141] Setting up sc_g_1_2
I0620 23:56:23.499919 19694 net.cpp:148] Top shape: 128 128 16 16 (4194304)
I0620 23:56:23.499929 19694 net.cpp:156] Memory required for data: 1830289920
I0620 23:56:23.499945 19694 layer_factory.hpp:77] Creating layer relu_g_1_2
I0620 23:56:23.499964 19694 net.cpp:91] Creating Layer relu_g_1_2
I0620 23:56:23.499977 19694 net.cpp:425] relu_g_1_2 <- sc_g_1_2
I0620 23:56:23.499990 19694 net.cpp:399] relu_g_1_2 -> relu_g_1_2
I0620 23:56:23.500185 19694 net.cpp:141] Setting up relu_g_1_2
I0620 23:56:23.500205 19694 net.cpp:148] Top shape: 128 128 16 16 (4194304)
I0620 23:56:23.500214 19694 net.cpp:156] Memory required for data: 1847067136
I0620 23:56:23.500224 19694 layer_factory.hpp:77] Creating layer conv_g_1_2
I0620 23:56:23.500247 19694 net.cpp:91] Creating Layer conv_g_1_2
I0620 23:56:23.500258 19694 net.cpp:425] conv_g_1_2 <- relu_g_1_2
I0620 23:56:23.500274 19694 net.cpp:399] conv_g_1_2 -> conv_g_1_2
I0620 23:56:23.505005 19694 net.cpp:141] Setting up conv_g_1_2
I0620 23:56:23.505024 19694 net.cpp:148] Top shape: 128 128 16 16 (4194304)
I0620 23:56:23.505046 19694 net.cpp:156] Memory required for data: 1863844352
I0620 23:56:23.505062 19694 layer_factory.hpp:77] Creating layer res_g
I0620 23:56:23.505091 19694 net.cpp:91] Creating Layer res_g
I0620 23:56:23.505113 19694 net.cpp:425] res_g <- elt_b_1_elt_b_1_0_split_3
I0620 23:56:23.505134 19694 net.cpp:399] res_g -> res_g
I0620 23:56:23.506305 19694 net.cpp:141] Setting up res_g
I0620 23:56:23.506324 19694 net.cpp:148] Top shape: 128 128 16 16 (4194304)
I0620 23:56:23.506350 19694 net.cpp:156] Memory required for data: 1880621568
I0620 23:56:23.506367 19694 layer_factory.hpp:77] Creating layer elt_g_1
I0620 23:56:23.506388 19694 net.cpp:91] Creating Layer elt_g_1
I0620 23:56:23.506402 19694 net.cpp:425] elt_g_1 <- res_g
I0620 23:56:23.506417 19694 net.cpp:425] elt_g_1 <- conv_g_1_2
I0620 23:56:23.506433 19694 net.cpp:399] elt_g_1 -> elt_g_1
I0620 23:56:23.506479 19694 net.cpp:141] Setting up elt_g_1
I0620 23:56:23.506494 19694 net.cpp:148] Top shape: 128 128 16 16 (4194304)
I0620 23:56:23.506502 19694 net.cpp:156] Memory required for data: 1897398784
I0620 23:56:23.506512 19694 layer_factory.hpp:77] Creating layer bn_h_1_1
I0620 23:56:23.506530 19694 net.cpp:91] Creating Layer bn_h_1_1
I0620 23:56:23.506541 19694 net.cpp:425] bn_h_1_1 <- elt_c_1_elt_c_1_0_split_0
I0620 23:56:23.506556 19694 net.cpp:399] bn_h_1_1 -> bn_h_1_1
I0620 23:56:23.506800 19694 net.cpp:141] Setting up bn_h_1_1
I0620 23:56:23.506816 19694 net.cpp:148] Top shape: 128 64 32 32 (8388608)
I0620 23:56:23.506826 19694 net.cpp:156] Memory required for data: 1930953216
I0620 23:56:23.506845 19694 layer_factory.hpp:77] Creating layer sc_h_1_1
I0620 23:56:23.506863 19694 net.cpp:91] Creating Layer sc_h_1_1
I0620 23:56:23.506876 19694 net.cpp:425] sc_h_1_1 <- bn_h_1_1
I0620 23:56:23.506894 19694 net.cpp:399] sc_h_1_1 -> sc_h_1_1
I0620 23:56:23.506956 19694 layer_factory.hpp:77] Creating layer sc_h_1_1
I0620 23:56:23.507122 19694 net.cpp:141] Setting up sc_h_1_1
I0620 23:56:23.507138 19694 net.cpp:148] Top shape: 128 64 32 32 (8388608)
I0620 23:56:23.507148 19694 net.cpp:156] Memory required for data: 1964507648
I0620 23:56:23.507164 19694 layer_factory.hpp:77] Creating layer relu_h_1_1
I0620 23:56:23.507184 19694 net.cpp:91] Creating Layer relu_h_1_1
I0620 23:56:23.507196 19694 net.cpp:425] relu_h_1_1 <- sc_h_1_1
I0620 23:56:23.507210 19694 net.cpp:399] relu_h_1_1 -> relu_h_1_1
I0620 23:56:23.507406 19694 net.cpp:141] Setting up relu_h_1_1
I0620 23:56:23.507423 19694 net.cpp:148] Top shape: 128 64 32 32 (8388608)
I0620 23:56:23.507433 19694 net.cpp:156] Memory required for data: 1998062080
I0620 23:56:23.507443 19694 layer_factory.hpp:77] Creating layer conv_h_1_1
I0620 23:56:23.507467 19694 net.cpp:91] Creating Layer conv_h_1_1
I0620 23:56:23.507478 19694 net.cpp:425] conv_h_1_1 <- relu_h_1_1
I0620 23:56:23.507498 19694 net.cpp:399] conv_h_1_1 -> conv_h_1_1
I0620 23:56:23.510743 19694 net.cpp:141] Setting up conv_h_1_1
I0620 23:56:23.510761 19694 net.cpp:148] Top shape: 128 128 16 16 (4194304)
I0620 23:56:23.510783 19694 net.cpp:156] Memory required for data: 2014839296
I0620 23:56:23.510800 19694 layer_factory.hpp:77] Creating layer bn_h_1_2
I0620 23:56:23.510818 19694 net.cpp:91] Creating Layer bn_h_1_2
I0620 23:56:23.510829 19694 net.cpp:425] bn_h_1_2 <- conv_h_1_1
I0620 23:56:23.510844 19694 net.cpp:399] bn_h_1_2 -> bn_h_1_2
I0620 23:56:23.511068 19694 net.cpp:141] Setting up bn_h_1_2
I0620 23:56:23.511085 19694 net.cpp:148] Top shape: 128 128 16 16 (4194304)
I0620 23:56:23.511093 19694 net.cpp:156] Memory required for data: 2031616512
I0620 23:56:23.511113 19694 layer_factory.hpp:77] Creating layer sc_h_1_2
I0620 23:56:23.511129 19694 net.cpp:91] Creating Layer sc_h_1_2
I0620 23:56:23.511142 19694 net.cpp:425] sc_h_1_2 <- bn_h_1_2
I0620 23:56:23.511157 19694 net.cpp:399] sc_h_1_2 -> sc_h_1_2
I0620 23:56:23.511214 19694 layer_factory.hpp:77] Creating layer sc_h_1_2
I0620 23:56:23.511340 19694 net.cpp:141] Setting up sc_h_1_2
I0620 23:56:23.511355 19694 net.cpp:148] Top shape: 128 128 16 16 (4194304)
I0620 23:56:23.511364 19694 net.cpp:156] Memory required for data: 2048393728
I0620 23:56:23.511380 19694 layer_factory.hpp:77] Creating layer relu_h_1_2
I0620 23:56:23.511395 19694 net.cpp:91] Creating Layer relu_h_1_2
I0620 23:56:23.511409 19694 net.cpp:425] relu_h_1_2 <- sc_h_1_2
I0620 23:56:23.511426 19694 net.cpp:399] relu_h_1_2 -> relu_h_1_2
I0620 23:56:23.511726 19694 net.cpp:141] Setting up relu_h_1_2
I0620 23:56:23.511744 19694 net.cpp:148] Top shape: 128 128 16 16 (4194304)
I0620 23:56:23.511754 19694 net.cpp:156] Memory required for data: 2065170944
I0620 23:56:23.511765 19694 layer_factory.hpp:77] Creating layer conv_h_1_2
I0620 23:56:23.511786 19694 net.cpp:91] Creating Layer conv_h_1_2
I0620 23:56:23.511800 19694 net.cpp:425] conv_h_1_2 <- relu_h_1_2
I0620 23:56:23.511818 19694 net.cpp:399] conv_h_1_2 -> conv_h_1_2
I0620 23:56:23.516546 19694 net.cpp:141] Setting up conv_h_1_2
I0620 23:56:23.516566 19694 net.cpp:148] Top shape: 128 128 16 16 (4194304)
I0620 23:56:23.516588 19694 net.cpp:156] Memory required for data: 2081948160
I0620 23:56:23.516605 19694 layer_factory.hpp:77] Creating layer res_h
I0620 23:56:23.516628 19694 net.cpp:91] Creating Layer res_h
I0620 23:56:23.516645 19694 net.cpp:425] res_h <- elt_c_1_elt_c_1_0_split_1
I0620 23:56:23.516672 19694 net.cpp:399] res_h -> res_h
I0620 23:56:23.517774 19694 net.cpp:141] Setting up res_h
I0620 23:56:23.517792 19694 net.cpp:148] Top shape: 128 128 16 16 (4194304)
I0620 23:56:23.517815 19694 net.cpp:156] Memory required for data: 2098725376
I0620 23:56:23.517832 19694 layer_factory.hpp:77] Creating layer elt_h_1
I0620 23:56:23.517858 19694 net.cpp:91] Creating Layer elt_h_1
I0620 23:56:23.517870 19694 net.cpp:425] elt_h_1 <- res_h
I0620 23:56:23.517882 19694 net.cpp:425] elt_h_1 <- conv_h_1_2
I0620 23:56:23.517899 19694 net.cpp:399] elt_h_1 -> elt_h_1
I0620 23:56:23.517937 19694 net.cpp:141] Setting up elt_h_1
I0620 23:56:23.517953 19694 net.cpp:148] Top shape: 128 128 16 16 (4194304)
I0620 23:56:23.517978 19694 net.cpp:156] Memory required for data: 2115502592
I0620 23:56:23.517989 19694 layer_factory.hpp:77] Creating layer bn_i_1_1
I0620 23:56:23.518012 19694 net.cpp:91] Creating Layer bn_i_1_1
I0620 23:56:23.518023 19694 net.cpp:425] bn_i_1_1 <- elt_c_1_elt_c_1_0_split_2
I0620 23:56:23.518036 19694 net.cpp:399] bn_i_1_1 -> bn_i_1_1
I0620 23:56:23.518262 19694 net.cpp:141] Setting up bn_i_1_1
I0620 23:56:23.518278 19694 net.cpp:148] Top shape: 128 64 32 32 (8388608)
I0620 23:56:23.518287 19694 net.cpp:156] Memory required for data: 2149057024
I0620 23:56:23.518306 19694 layer_factory.hpp:77] Creating layer sc_i_1_1
I0620 23:56:23.518322 19694 net.cpp:91] Creating Layer sc_i_1_1
I0620 23:56:23.518332 19694 net.cpp:425] sc_i_1_1 <- bn_i_1_1
I0620 23:56:23.518352 19694 net.cpp:399] sc_i_1_1 -> sc_i_1_1
I0620 23:56:23.518411 19694 layer_factory.hpp:77] Creating layer sc_i_1_1
I0620 23:56:23.518555 19694 net.cpp:141] Setting up sc_i_1_1
I0620 23:56:23.518571 19694 net.cpp:148] Top shape: 128 64 32 32 (8388608)
I0620 23:56:23.518581 19694 net.cpp:156] Memory required for data: 2182611456
I0620 23:56:23.518597 19694 layer_factory.hpp:77] Creating layer relu_i_1_1
I0620 23:56:23.518615 19694 net.cpp:91] Creating Layer relu_i_1_1
I0620 23:56:23.518626 19694 net.cpp:425] relu_i_1_1 <- sc_i_1_1
I0620 23:56:23.518641 19694 net.cpp:399] relu_i_1_1 -> relu_i_1_1
I0620 23:56:23.518973 19694 net.cpp:141] Setting up relu_i_1_1
I0620 23:56:23.519004 19694 net.cpp:148] Top shape: 128 64 32 32 (8388608)
I0620 23:56:23.519016 19694 net.cpp:156] Memory required for data: 2216165888
I0620 23:56:23.519026 19694 layer_factory.hpp:77] Creating layer conv_i_1_1
I0620 23:56:23.519049 19694 net.cpp:91] Creating Layer conv_i_1_1
I0620 23:56:23.519062 19694 net.cpp:425] conv_i_1_1 <- relu_i_1_1
I0620 23:56:23.519078 19694 net.cpp:399] conv_i_1_1 -> conv_i_1_1
I0620 23:56:23.522676 19694 net.cpp:141] Setting up conv_i_1_1
I0620 23:56:23.522701 19694 net.cpp:148] Top shape: 128 128 16 16 (4194304)
I0620 23:56:23.522722 19694 net.cpp:156] Memory required for data: 2232943104
I0620 23:56:23.522740 19694 layer_factory.hpp:77] Creating layer bn_i_1_2
I0620 23:56:23.522770 19694 net.cpp:91] Creating Layer bn_i_1_2
I0620 23:56:23.522783 19694 net.cpp:425] bn_i_1_2 <- conv_i_1_1
I0620 23:56:23.522797 19694 net.cpp:399] bn_i_1_2 -> bn_i_1_2
I0620 23:56:23.523015 19694 net.cpp:141] Setting up bn_i_1_2
I0620 23:56:23.523030 19694 net.cpp:148] Top shape: 128 128 16 16 (4194304)
I0620 23:56:23.523041 19694 net.cpp:156] Memory required for data: 2249720320
I0620 23:56:23.523059 19694 layer_factory.hpp:77] Creating layer sc_i_1_2
I0620 23:56:23.523075 19694 net.cpp:91] Creating Layer sc_i_1_2
I0620 23:56:23.523087 19694 net.cpp:425] sc_i_1_2 <- bn_i_1_2
I0620 23:56:23.523102 19694 net.cpp:399] sc_i_1_2 -> sc_i_1_2
I0620 23:56:23.523160 19694 layer_factory.hpp:77] Creating layer sc_i_1_2
I0620 23:56:23.523290 19694 net.cpp:141] Setting up sc_i_1_2
I0620 23:56:23.523306 19694 net.cpp:148] Top shape: 128 128 16 16 (4194304)
I0620 23:56:23.523315 19694 net.cpp:156] Memory required for data: 2266497536
I0620 23:56:23.523331 19694 layer_factory.hpp:77] Creating layer relu_i_1_2
I0620 23:56:23.523347 19694 net.cpp:91] Creating Layer relu_i_1_2
I0620 23:56:23.523360 19694 net.cpp:425] relu_i_1_2 <- sc_i_1_2
I0620 23:56:23.523381 19694 net.cpp:399] relu_i_1_2 -> relu_i_1_2
I0620 23:56:23.523576 19694 net.cpp:141] Setting up relu_i_1_2
I0620 23:56:23.523592 19694 net.cpp:148] Top shape: 128 128 16 16 (4194304)
I0620 23:56:23.523602 19694 net.cpp:156] Memory required for data: 2283274752
I0620 23:56:23.523612 19694 layer_factory.hpp:77] Creating layer conv_i_1_2
I0620 23:56:23.523638 19694 net.cpp:91] Creating Layer conv_i_1_2
I0620 23:56:23.523649 19694 net.cpp:425] conv_i_1_2 <- relu_i_1_2
I0620 23:56:23.523664 19694 net.cpp:399] conv_i_1_2 -> conv_i_1_2
I0620 23:56:23.528466 19694 net.cpp:141] Setting up conv_i_1_2
I0620 23:56:23.528484 19694 net.cpp:148] Top shape: 128 128 16 16 (4194304)
I0620 23:56:23.528507 19694 net.cpp:156] Memory required for data: 2300051968
I0620 23:56:23.528548 19694 layer_factory.hpp:77] Creating layer res_i
I0620 23:56:23.528573 19694 net.cpp:91] Creating Layer res_i
I0620 23:56:23.528586 19694 net.cpp:425] res_i <- elt_c_1_elt_c_1_0_split_3
I0620 23:56:23.528606 19694 net.cpp:399] res_i -> res_i
I0620 23:56:23.529803 19694 net.cpp:141] Setting up res_i
I0620 23:56:23.529820 19694 net.cpp:148] Top shape: 128 128 16 16 (4194304)
I0620 23:56:23.529842 19694 net.cpp:156] Memory required for data: 2316829184
I0620 23:56:23.529882 19694 layer_factory.hpp:77] Creating layer elt_i_1
I0620 23:56:23.529899 19694 net.cpp:91] Creating Layer elt_i_1
I0620 23:56:23.529912 19694 net.cpp:425] elt_i_1 <- res_i
I0620 23:56:23.529927 19694 net.cpp:425] elt_i_1 <- conv_i_1_2
I0620 23:56:23.529943 19694 net.cpp:399] elt_i_1 -> elt_i_1
I0620 23:56:23.529984 19694 net.cpp:141] Setting up elt_i_1
I0620 23:56:23.529999 19694 net.cpp:148] Top shape: 128 128 16 16 (4194304)
I0620 23:56:23.530010 19694 net.cpp:156] Memory required for data: 2333606400
I0620 23:56:23.530020 19694 layer_factory.hpp:77] Creating layer elt_d_f
I0620 23:56:23.530038 19694 net.cpp:91] Creating Layer elt_d_f
I0620 23:56:23.530050 19694 net.cpp:425] elt_d_f <- elt_d_1
I0620 23:56:23.530062 19694 net.cpp:425] elt_d_f <- elt_f_1
I0620 23:56:23.530077 19694 net.cpp:399] elt_d_f -> elt_d_f
I0620 23:56:23.530123 19694 net.cpp:141] Setting up elt_d_f
I0620 23:56:23.530138 19694 net.cpp:148] Top shape: 128 128 16 16 (4194304)
I0620 23:56:23.530148 19694 net.cpp:156] Memory required for data: 2350383616
I0620 23:56:23.530158 19694 layer_factory.hpp:77] Creating layer elt_d_f_elt_d_f_0_split
I0620 23:56:23.530169 19694 net.cpp:91] Creating Layer elt_d_f_elt_d_f_0_split
I0620 23:56:23.530181 19694 net.cpp:425] elt_d_f_elt_d_f_0_split <- elt_d_f
I0620 23:56:23.530199 19694 net.cpp:399] elt_d_f_elt_d_f_0_split -> elt_d_f_elt_d_f_0_split_0
I0620 23:56:23.530216 19694 net.cpp:399] elt_d_f_elt_d_f_0_split -> elt_d_f_elt_d_f_0_split_1
I0620 23:56:23.530274 19694 net.cpp:141] Setting up elt_d_f_elt_d_f_0_split
I0620 23:56:23.530288 19694 net.cpp:148] Top shape: 128 128 16 16 (4194304)
I0620 23:56:23.530300 19694 net.cpp:148] Top shape: 128 128 16 16 (4194304)
I0620 23:56:23.530313 19694 net.cpp:156] Memory required for data: 2383938048
I0620 23:56:23.530323 19694 layer_factory.hpp:77] Creating layer elt_g_i
I0620 23:56:23.530340 19694 net.cpp:91] Creating Layer elt_g_i
I0620 23:56:23.530352 19694 net.cpp:425] elt_g_i <- elt_g_1
I0620 23:56:23.530364 19694 net.cpp:425] elt_g_i <- elt_i_1
I0620 23:56:23.530380 19694 net.cpp:399] elt_g_i -> elt_g_i
I0620 23:56:23.530424 19694 net.cpp:141] Setting up elt_g_i
I0620 23:56:23.530439 19694 net.cpp:148] Top shape: 128 128 16 16 (4194304)
I0620 23:56:23.530448 19694 net.cpp:156] Memory required for data: 2400715264
I0620 23:56:23.530457 19694 layer_factory.hpp:77] Creating layer elt_g_i_elt_g_i_0_split
I0620 23:56:23.530470 19694 net.cpp:91] Creating Layer elt_g_i_elt_g_i_0_split
I0620 23:56:23.530483 19694 net.cpp:425] elt_g_i_elt_g_i_0_split <- elt_g_i
I0620 23:56:23.530499 19694 net.cpp:399] elt_g_i_elt_g_i_0_split -> elt_g_i_elt_g_i_0_split_0
I0620 23:56:23.530516 19694 net.cpp:399] elt_g_i_elt_g_i_0_split -> elt_g_i_elt_g_i_0_split_1
I0620 23:56:23.530578 19694 net.cpp:141] Setting up elt_g_i_elt_g_i_0_split
I0620 23:56:23.530593 19694 net.cpp:148] Top shape: 128 128 16 16 (4194304)
I0620 23:56:23.530604 19694 net.cpp:148] Top shape: 128 128 16 16 (4194304)
I0620 23:56:23.530614 19694 net.cpp:156] Memory required for data: 2434269696
I0620 23:56:23.530627 19694 layer_factory.hpp:77] Creating layer bn_j_1_1
I0620 23:56:23.530642 19694 net.cpp:91] Creating Layer bn_j_1_1
I0620 23:56:23.530654 19694 net.cpp:425] bn_j_1_1 <- elt_d_f_elt_d_f_0_split_0
I0620 23:56:23.530668 19694 net.cpp:399] bn_j_1_1 -> bn_j_1_1
I0620 23:56:23.530901 19694 net.cpp:141] Setting up bn_j_1_1
I0620 23:56:23.530918 19694 net.cpp:148] Top shape: 128 128 16 16 (4194304)
I0620 23:56:23.530928 19694 net.cpp:156] Memory required for data: 2451046912
I0620 23:56:23.530947 19694 layer_factory.hpp:77] Creating layer sc_j_1_1
I0620 23:56:23.530977 19694 net.cpp:91] Creating Layer sc_j_1_1
I0620 23:56:23.530992 19694 net.cpp:425] sc_j_1_1 <- bn_j_1_1
I0620 23:56:23.531007 19694 net.cpp:399] sc_j_1_1 -> sc_j_1_1
I0620 23:56:23.531080 19694 layer_factory.hpp:77] Creating layer sc_j_1_1
I0620 23:56:23.531211 19694 net.cpp:141] Setting up sc_j_1_1
I0620 23:56:23.531227 19694 net.cpp:148] Top shape: 128 128 16 16 (4194304)
I0620 23:56:23.531236 19694 net.cpp:156] Memory required for data: 2467824128
I0620 23:56:23.531252 19694 layer_factory.hpp:77] Creating layer relu_j_1_1
I0620 23:56:23.531271 19694 net.cpp:91] Creating Layer relu_j_1_1
I0620 23:56:23.531283 19694 net.cpp:425] relu_j_1_1 <- sc_j_1_1
I0620 23:56:23.531298 19694 net.cpp:399] relu_j_1_1 -> relu_j_1_1
I0620 23:56:23.531494 19694 net.cpp:141] Setting up relu_j_1_1
I0620 23:56:23.531510 19694 net.cpp:148] Top shape: 128 128 16 16 (4194304)
I0620 23:56:23.531520 19694 net.cpp:156] Memory required for data: 2484601344
I0620 23:56:23.531530 19694 layer_factory.hpp:77] Creating layer conv_j_1_1
I0620 23:56:23.531554 19694 net.cpp:91] Creating Layer conv_j_1_1
I0620 23:56:23.531566 19694 net.cpp:425] conv_j_1_1 <- relu_j_1_1
I0620 23:56:23.531581 19694 net.cpp:399] conv_j_1_1 -> conv_j_1_1
I0620 23:56:23.540643 19694 net.cpp:141] Setting up conv_j_1_1
I0620 23:56:23.540662 19694 net.cpp:148] Top shape: 128 256 8 8 (2097152)
I0620 23:56:23.540684 19694 net.cpp:156] Memory required for data: 2492989952
I0620 23:56:23.540701 19694 layer_factory.hpp:77] Creating layer bn_j_1_2
I0620 23:56:23.540720 19694 net.cpp:91] Creating Layer bn_j_1_2
I0620 23:56:23.540735 19694 net.cpp:425] bn_j_1_2 <- conv_j_1_1
I0620 23:56:23.540752 19694 net.cpp:399] bn_j_1_2 -> bn_j_1_2
I0620 23:56:23.540987 19694 net.cpp:141] Setting up bn_j_1_2
I0620 23:56:23.541002 19694 net.cpp:148] Top shape: 128 256 8 8 (2097152)
I0620 23:56:23.541013 19694 net.cpp:156] Memory required for data: 2501378560
I0620 23:56:23.541031 19694 layer_factory.hpp:77] Creating layer sc_j_1_2
I0620 23:56:23.541046 19694 net.cpp:91] Creating Layer sc_j_1_2
I0620 23:56:23.541061 19694 net.cpp:425] sc_j_1_2 <- bn_j_1_2
I0620 23:56:23.541084 19694 net.cpp:399] sc_j_1_2 -> sc_j_1_2
I0620 23:56:23.541143 19694 layer_factory.hpp:77] Creating layer sc_j_1_2
I0620 23:56:23.541280 19694 net.cpp:141] Setting up sc_j_1_2
I0620 23:56:23.541296 19694 net.cpp:148] Top shape: 128 256 8 8 (2097152)
I0620 23:56:23.541306 19694 net.cpp:156] Memory required for data: 2509767168
I0620 23:56:23.541322 19694 layer_factory.hpp:77] Creating layer relu_j_1_2
I0620 23:56:23.541342 19694 net.cpp:91] Creating Layer relu_j_1_2
I0620 23:56:23.541354 19694 net.cpp:425] relu_j_1_2 <- sc_j_1_2
I0620 23:56:23.541368 19694 net.cpp:399] relu_j_1_2 -> relu_j_1_2
I0620 23:56:23.541669 19694 net.cpp:141] Setting up relu_j_1_2
I0620 23:56:23.541689 19694 net.cpp:148] Top shape: 128 256 8 8 (2097152)
I0620 23:56:23.541700 19694 net.cpp:156] Memory required for data: 2518155776
I0620 23:56:23.541710 19694 layer_factory.hpp:77] Creating layer conv_j_1_2
I0620 23:56:23.541733 19694 net.cpp:91] Creating Layer conv_j_1_2
I0620 23:56:23.541745 19694 net.cpp:425] conv_j_1_2 <- relu_j_1_2
I0620 23:56:23.541761 19694 net.cpp:399] conv_j_1_2 -> conv_j_1_2
I0620 23:56:23.558789 19694 net.cpp:141] Setting up conv_j_1_2
I0620 23:56:23.558809 19694 net.cpp:148] Top shape: 128 256 8 8 (2097152)
I0620 23:56:23.558830 19694 net.cpp:156] Memory required for data: 2526544384
I0620 23:56:23.558847 19694 layer_factory.hpp:77] Creating layer res_j
I0620 23:56:23.558872 19694 net.cpp:91] Creating Layer res_j
I0620 23:56:23.558886 19694 net.cpp:425] res_j <- elt_d_f_elt_d_f_0_split_1
I0620 23:56:23.558902 19694 net.cpp:399] res_j -> res_j
I0620 23:56:23.560781 19694 net.cpp:141] Setting up res_j
I0620 23:56:23.560798 19694 net.cpp:148] Top shape: 128 256 8 8 (2097152)
I0620 23:56:23.560820 19694 net.cpp:156] Memory required for data: 2534932992
I0620 23:56:23.560837 19694 layer_factory.hpp:77] Creating layer elt_j_1
I0620 23:56:23.560863 19694 net.cpp:91] Creating Layer elt_j_1
I0620 23:56:23.560890 19694 net.cpp:425] elt_j_1 <- res_j
I0620 23:56:23.560904 19694 net.cpp:425] elt_j_1 <- conv_j_1_2
I0620 23:56:23.560923 19694 net.cpp:399] elt_j_1 -> elt_j_1
I0620 23:56:23.560977 19694 net.cpp:141] Setting up elt_j_1
I0620 23:56:23.560992 19694 net.cpp:148] Top shape: 128 256 8 8 (2097152)
I0620 23:56:23.561002 19694 net.cpp:156] Memory required for data: 2543321600
I0620 23:56:23.561012 19694 layer_factory.hpp:77] Creating layer bn_e_1_1
I0620 23:56:23.561029 19694 net.cpp:91] Creating Layer bn_e_1_1
I0620 23:56:23.561041 19694 net.cpp:425] bn_e_1_1 <- elt_a_1_elt_a_1_0_split_2
I0620 23:56:23.561056 19694 net.cpp:399] bn_e_1_1 -> bn_e_1_1
I0620 23:56:23.561290 19694 net.cpp:141] Setting up bn_e_1_1
I0620 23:56:23.561305 19694 net.cpp:148] Top shape: 128 64 32 32 (8388608)
I0620 23:56:23.561316 19694 net.cpp:156] Memory required for data: 2576876032
I0620 23:56:23.561334 19694 layer_factory.hpp:77] Creating layer sc_e_1_1
I0620 23:56:23.561350 19694 net.cpp:91] Creating Layer sc_e_1_1
I0620 23:56:23.561362 19694 net.cpp:425] sc_e_1_1 <- bn_e_1_1
I0620 23:56:23.561377 19694 net.cpp:399] sc_e_1_1 -> sc_e_1_1
I0620 23:56:23.561437 19694 layer_factory.hpp:77] Creating layer sc_e_1_1
I0620 23:56:23.561584 19694 net.cpp:141] Setting up sc_e_1_1
I0620 23:56:23.561600 19694 net.cpp:148] Top shape: 128 64 32 32 (8388608)
I0620 23:56:23.561609 19694 net.cpp:156] Memory required for data: 2610430464
I0620 23:56:23.561625 19694 layer_factory.hpp:77] Creating layer relu_e_1_1
I0620 23:56:23.561645 19694 net.cpp:91] Creating Layer relu_e_1_1
I0620 23:56:23.561657 19694 net.cpp:425] relu_e_1_1 <- sc_e_1_1
I0620 23:56:23.561671 19694 net.cpp:399] relu_e_1_1 -> relu_e_1_1
I0620 23:56:23.561980 19694 net.cpp:141] Setting up relu_e_1_1
I0620 23:56:23.561996 19694 net.cpp:148] Top shape: 128 64 32 32 (8388608)
I0620 23:56:23.562007 19694 net.cpp:156] Memory required for data: 2643984896
I0620 23:56:23.562017 19694 layer_factory.hpp:77] Creating layer conv_e_1_1
I0620 23:56:23.562041 19694 net.cpp:91] Creating Layer conv_e_1_1
I0620 23:56:23.562052 19694 net.cpp:425] conv_e_1_1 <- relu_e_1_1
I0620 23:56:23.562072 19694 net.cpp:399] conv_e_1_1 -> conv_e_1_1
I0620 23:56:23.565403 19694 net.cpp:141] Setting up conv_e_1_1
I0620 23:56:23.565423 19694 net.cpp:148] Top shape: 128 128 16 16 (4194304)
I0620 23:56:23.565445 19694 net.cpp:156] Memory required for data: 2660762112
I0620 23:56:23.565461 19694 layer_factory.hpp:77] Creating layer bn_e_1_2
I0620 23:56:23.565480 19694 net.cpp:91] Creating Layer bn_e_1_2
I0620 23:56:23.565493 19694 net.cpp:425] bn_e_1_2 <- conv_e_1_1
I0620 23:56:23.565510 19694 net.cpp:399] bn_e_1_2 -> bn_e_1_2
I0620 23:56:23.565735 19694 net.cpp:141] Setting up bn_e_1_2
I0620 23:56:23.565750 19694 net.cpp:148] Top shape: 128 128 16 16 (4194304)
I0620 23:56:23.565762 19694 net.cpp:156] Memory required for data: 2677539328
I0620 23:56:23.565780 19694 layer_factory.hpp:77] Creating layer sc_e_1_2
I0620 23:56:23.565796 19694 net.cpp:91] Creating Layer sc_e_1_2
I0620 23:56:23.565809 19694 net.cpp:425] sc_e_1_2 <- bn_e_1_2
I0620 23:56:23.565824 19694 net.cpp:399] sc_e_1_2 -> sc_e_1_2
I0620 23:56:23.565884 19694 layer_factory.hpp:77] Creating layer sc_e_1_2
I0620 23:56:23.566017 19694 net.cpp:141] Setting up sc_e_1_2
I0620 23:56:23.566033 19694 net.cpp:148] Top shape: 128 128 16 16 (4194304)
I0620 23:56:23.566042 19694 net.cpp:156] Memory required for data: 2694316544
I0620 23:56:23.566058 19694 layer_factory.hpp:77] Creating layer relu_e_1_2
I0620 23:56:23.566074 19694 net.cpp:91] Creating Layer relu_e_1_2
I0620 23:56:23.566087 19694 net.cpp:425] relu_e_1_2 <- sc_e_1_2
I0620 23:56:23.566104 19694 net.cpp:399] relu_e_1_2 -> relu_e_1_2
I0620 23:56:23.566308 19694 net.cpp:141] Setting up relu_e_1_2
I0620 23:56:23.566323 19694 net.cpp:148] Top shape: 128 128 16 16 (4194304)
I0620 23:56:23.566334 19694 net.cpp:156] Memory required for data: 2711093760
I0620 23:56:23.566344 19694 layer_factory.hpp:77] Creating layer conv_e_1_2
I0620 23:56:23.566370 19694 net.cpp:91] Creating Layer conv_e_1_2
I0620 23:56:23.566393 19694 net.cpp:425] conv_e_1_2 <- relu_e_1_2
I0620 23:56:23.566411 19694 net.cpp:399] conv_e_1_2 -> conv_e_1_2
I0620 23:56:23.571189 19694 net.cpp:141] Setting up conv_e_1_2
I0620 23:56:23.571208 19694 net.cpp:148] Top shape: 128 128 16 16 (4194304)
I0620 23:56:23.571231 19694 net.cpp:156] Memory required for data: 2727870976
I0620 23:56:23.571247 19694 layer_factory.hpp:77] Creating layer res_e
I0620 23:56:23.571270 19694 net.cpp:91] Creating Layer res_e
I0620 23:56:23.571283 19694 net.cpp:425] res_e <- elt_a_1_elt_a_1_0_split_3
I0620 23:56:23.571302 19694 net.cpp:399] res_e -> res_e
I0620 23:56:23.572654 19694 net.cpp:141] Setting up res_e
I0620 23:56:23.572671 19694 net.cpp:148] Top shape: 128 128 16 16 (4194304)
I0620 23:56:23.572695 19694 net.cpp:156] Memory required for data: 2744648192
I0620 23:56:23.572710 19694 layer_factory.hpp:77] Creating layer elt_e_1
I0620 23:56:23.572728 19694 net.cpp:91] Creating Layer elt_e_1
I0620 23:56:23.572741 19694 net.cpp:425] elt_e_1 <- res_e
I0620 23:56:23.572754 19694 net.cpp:425] elt_e_1 <- conv_e_1_2
I0620 23:56:23.572774 19694 net.cpp:399] elt_e_1 -> elt_e_1
I0620 23:56:23.572818 19694 net.cpp:141] Setting up elt_e_1
I0620 23:56:23.572834 19694 net.cpp:148] Top shape: 128 128 16 16 (4194304)
I0620 23:56:23.572844 19694 net.cpp:156] Memory required for data: 2761425408
I0620 23:56:23.572854 19694 layer_factory.hpp:77] Creating layer elt_e_h
I0620 23:56:23.572867 19694 net.cpp:91] Creating Layer elt_e_h
I0620 23:56:23.572880 19694 net.cpp:425] elt_e_h <- elt_e_1
I0620 23:56:23.572891 19694 net.cpp:425] elt_e_h <- elt_h_1
I0620 23:56:23.572907 19694 net.cpp:399] elt_e_h -> elt_e_h
I0620 23:56:23.572954 19694 net.cpp:141] Setting up elt_e_h
I0620 23:56:23.572969 19694 net.cpp:148] Top shape: 128 128 16 16 (4194304)
I0620 23:56:23.572979 19694 net.cpp:156] Memory required for data: 2778202624
I0620 23:56:23.572989 19694 layer_factory.hpp:77] Creating layer elt_e_h_elt_e_h_0_split
I0620 23:56:23.573005 19694 net.cpp:91] Creating Layer elt_e_h_elt_e_h_0_split
I0620 23:56:23.573017 19694 net.cpp:425] elt_e_h_elt_e_h_0_split <- elt_e_h
I0620 23:56:23.573030 19694 net.cpp:399] elt_e_h_elt_e_h_0_split -> elt_e_h_elt_e_h_0_split_0
I0620 23:56:23.573062 19694 net.cpp:399] elt_e_h_elt_e_h_0_split -> elt_e_h_elt_e_h_0_split_1
I0620 23:56:23.573122 19694 net.cpp:141] Setting up elt_e_h_elt_e_h_0_split
I0620 23:56:23.573142 19694 net.cpp:148] Top shape: 128 128 16 16 (4194304)
I0620 23:56:23.573156 19694 net.cpp:148] Top shape: 128 128 16 16 (4194304)
I0620 23:56:23.573168 19694 net.cpp:156] Memory required for data: 2811757056
I0620 23:56:23.573179 19694 layer_factory.hpp:77] Creating layer bn_k_1_1
I0620 23:56:23.573192 19694 net.cpp:91] Creating Layer bn_k_1_1
I0620 23:56:23.573204 19694 net.cpp:425] bn_k_1_1 <- elt_e_h_elt_e_h_0_split_0
I0620 23:56:23.573222 19694 net.cpp:399] bn_k_1_1 -> bn_k_1_1
I0620 23:56:23.573439 19694 net.cpp:141] Setting up bn_k_1_1
I0620 23:56:23.573456 19694 net.cpp:148] Top shape: 128 128 16 16 (4194304)
I0620 23:56:23.573464 19694 net.cpp:156] Memory required for data: 2828534272
I0620 23:56:23.573483 19694 layer_factory.hpp:77] Creating layer sc_k_1_1
I0620 23:56:23.573503 19694 net.cpp:91] Creating Layer sc_k_1_1
I0620 23:56:23.573515 19694 net.cpp:425] sc_k_1_1 <- bn_k_1_1
I0620 23:56:23.573530 19694 net.cpp:399] sc_k_1_1 -> sc_k_1_1
I0620 23:56:23.573587 19694 layer_factory.hpp:77] Creating layer sc_k_1_1
I0620 23:56:23.573719 19694 net.cpp:141] Setting up sc_k_1_1
I0620 23:56:23.573737 19694 net.cpp:148] Top shape: 128 128 16 16 (4194304)
I0620 23:56:23.573747 19694 net.cpp:156] Memory required for data: 2845311488
I0620 23:56:23.573763 19694 layer_factory.hpp:77] Creating layer relu_k_1_1
I0620 23:56:23.573778 19694 net.cpp:91] Creating Layer relu_k_1_1
I0620 23:56:23.573791 19694 net.cpp:425] relu_k_1_1 <- sc_k_1_1
I0620 23:56:23.573804 19694 net.cpp:399] relu_k_1_1 -> relu_k_1_1
I0620 23:56:23.574002 19694 net.cpp:141] Setting up relu_k_1_1
I0620 23:56:23.574020 19694 net.cpp:148] Top shape: 128 128 16 16 (4194304)
I0620 23:56:23.574048 19694 net.cpp:156] Memory required for data: 2862088704
I0620 23:56:23.574059 19694 layer_factory.hpp:77] Creating layer conv_k_1_1
I0620 23:56:23.574080 19694 net.cpp:91] Creating Layer conv_k_1_1
I0620 23:56:23.574095 19694 net.cpp:425] conv_k_1_1 <- relu_k_1_1
I0620 23:56:23.574110 19694 net.cpp:399] conv_k_1_1 -> conv_k_1_1
I0620 23:56:23.583245 19694 net.cpp:141] Setting up conv_k_1_1
I0620 23:56:23.583264 19694 net.cpp:148] Top shape: 128 256 8 8 (2097152)
I0620 23:56:23.583287 19694 net.cpp:156] Memory required for data: 2870477312
I0620 23:56:23.583304 19694 layer_factory.hpp:77] Creating layer bn_k_1_2
I0620 23:56:23.583323 19694 net.cpp:91] Creating Layer bn_k_1_2
I0620 23:56:23.583336 19694 net.cpp:425] bn_k_1_2 <- conv_k_1_1
I0620 23:56:23.583353 19694 net.cpp:399] bn_k_1_2 -> bn_k_1_2
I0620 23:56:23.583588 19694 net.cpp:141] Setting up bn_k_1_2
I0620 23:56:23.583605 19694 net.cpp:148] Top shape: 128 256 8 8 (2097152)
I0620 23:56:23.583613 19694 net.cpp:156] Memory required for data: 2878865920
I0620 23:56:23.583633 19694 layer_factory.hpp:77] Creating layer sc_k_1_2
I0620 23:56:23.583649 19694 net.cpp:91] Creating Layer sc_k_1_2
I0620 23:56:23.583663 19694 net.cpp:425] sc_k_1_2 <- bn_k_1_2
I0620 23:56:23.583690 19694 net.cpp:399] sc_k_1_2 -> sc_k_1_2
I0620 23:56:23.583751 19694 layer_factory.hpp:77] Creating layer sc_k_1_2
I0620 23:56:23.583894 19694 net.cpp:141] Setting up sc_k_1_2
I0620 23:56:23.583914 19694 net.cpp:148] Top shape: 128 256 8 8 (2097152)
I0620 23:56:23.583923 19694 net.cpp:156] Memory required for data: 2887254528
I0620 23:56:23.583940 19694 layer_factory.hpp:77] Creating layer relu_k_1_2
I0620 23:56:23.583956 19694 net.cpp:91] Creating Layer relu_k_1_2
I0620 23:56:23.583967 19694 net.cpp:425] relu_k_1_2 <- sc_k_1_2
I0620 23:56:23.583981 19694 net.cpp:399] relu_k_1_2 -> relu_k_1_2
I0620 23:56:23.584288 19694 net.cpp:141] Setting up relu_k_1_2
I0620 23:56:23.584306 19694 net.cpp:148] Top shape: 128 256 8 8 (2097152)
I0620 23:56:23.584316 19694 net.cpp:156] Memory required for data: 2895643136
I0620 23:56:23.584326 19694 layer_factory.hpp:77] Creating layer conv_k_1_2
I0620 23:56:23.584352 19694 net.cpp:91] Creating Layer conv_k_1_2
I0620 23:56:23.584363 19694 net.cpp:425] conv_k_1_2 <- relu_k_1_2
I0620 23:56:23.584379 19694 net.cpp:399] conv_k_1_2 -> conv_k_1_2
I0620 23:56:23.601244 19694 net.cpp:141] Setting up conv_k_1_2
I0620 23:56:23.601263 19694 net.cpp:148] Top shape: 128 256 8 8 (2097152)
I0620 23:56:23.601274 19694 net.cpp:156] Memory required for data: 2904031744
I0620 23:56:23.601302 19694 layer_factory.hpp:77] Creating layer res_k
I0620 23:56:23.601327 19694 net.cpp:91] Creating Layer res_k
I0620 23:56:23.601341 19694 net.cpp:425] res_k <- elt_e_h_elt_e_h_0_split_1
I0620 23:56:23.601357 19694 net.cpp:399] res_k -> res_k
I0620 23:56:23.603225 19694 net.cpp:141] Setting up res_k
I0620 23:56:23.603243 19694 net.cpp:148] Top shape: 128 256 8 8 (2097152)
I0620 23:56:23.603266 19694 net.cpp:156] Memory required for data: 2912420352
I0620 23:56:23.603283 19694 layer_factory.hpp:77] Creating layer elt_k_1
I0620 23:56:23.603310 19694 net.cpp:91] Creating Layer elt_k_1
I0620 23:56:23.603323 19694 net.cpp:425] elt_k_1 <- res_k
I0620 23:56:23.603337 19694 net.cpp:425] elt_k_1 <- conv_k_1_2
I0620 23:56:23.603356 19694 net.cpp:399] elt_k_1 -> elt_k_1
I0620 23:56:23.603406 19694 net.cpp:141] Setting up elt_k_1
I0620 23:56:23.603421 19694 net.cpp:148] Top shape: 128 256 8 8 (2097152)
I0620 23:56:23.603431 19694 net.cpp:156] Memory required for data: 2920808960
I0620 23:56:23.603441 19694 layer_factory.hpp:77] Creating layer bn_l_1_1
I0620 23:56:23.603458 19694 net.cpp:91] Creating Layer bn_l_1_1
I0620 23:56:23.603471 19694 net.cpp:425] bn_l_1_1 <- elt_g_i_elt_g_i_0_split_0
I0620 23:56:23.603485 19694 net.cpp:399] bn_l_1_1 -> bn_l_1_1
I0620 23:56:23.603718 19694 net.cpp:141] Setting up bn_l_1_1
I0620 23:56:23.603734 19694 net.cpp:148] Top shape: 128 128 16 16 (4194304)
I0620 23:56:23.603744 19694 net.cpp:156] Memory required for data: 2937586176
I0620 23:56:23.603763 19694 layer_factory.hpp:77] Creating layer sc_l_1_1
I0620 23:56:23.603792 19694 net.cpp:91] Creating Layer sc_l_1_1
I0620 23:56:23.603806 19694 net.cpp:425] sc_l_1_1 <- bn_l_1_1
I0620 23:56:23.603823 19694 net.cpp:399] sc_l_1_1 -> sc_l_1_1
I0620 23:56:23.603888 19694 layer_factory.hpp:77] Creating layer sc_l_1_1
I0620 23:56:23.604025 19694 net.cpp:141] Setting up sc_l_1_1
I0620 23:56:23.604041 19694 net.cpp:148] Top shape: 128 128 16 16 (4194304)
I0620 23:56:23.604050 19694 net.cpp:156] Memory required for data: 2954363392
I0620 23:56:23.604066 19694 layer_factory.hpp:77] Creating layer relu_l_1_1
I0620 23:56:23.604086 19694 net.cpp:91] Creating Layer relu_l_1_1
I0620 23:56:23.604099 19694 net.cpp:425] relu_l_1_1 <- sc_l_1_1
I0620 23:56:23.604112 19694 net.cpp:399] relu_l_1_1 -> relu_l_1_1
I0620 23:56:23.604423 19694 net.cpp:141] Setting up relu_l_1_1
I0620 23:56:23.604444 19694 net.cpp:148] Top shape: 128 128 16 16 (4194304)
I0620 23:56:23.604455 19694 net.cpp:156] Memory required for data: 2971140608
I0620 23:56:23.604465 19694 layer_factory.hpp:77] Creating layer conv_l_1_1
I0620 23:56:23.604487 19694 net.cpp:91] Creating Layer conv_l_1_1
I0620 23:56:23.604498 19694 net.cpp:425] conv_l_1_1 <- relu_l_1_1
I0620 23:56:23.604514 19694 net.cpp:399] conv_l_1_1 -> conv_l_1_1
I0620 23:56:23.613626 19694 net.cpp:141] Setting up conv_l_1_1
I0620 23:56:23.613646 19694 net.cpp:148] Top shape: 128 256 8 8 (2097152)
I0620 23:56:23.613667 19694 net.cpp:156] Memory required for data: 2979529216
I0620 23:56:23.613683 19694 layer_factory.hpp:77] Creating layer bn_l_1_2
I0620 23:56:23.613704 19694 net.cpp:91] Creating Layer bn_l_1_2
I0620 23:56:23.613718 19694 net.cpp:425] bn_l_1_2 <- conv_l_1_1
I0620 23:56:23.613732 19694 net.cpp:399] bn_l_1_2 -> bn_l_1_2
I0620 23:56:23.613977 19694 net.cpp:141] Setting up bn_l_1_2
I0620 23:56:23.613994 19694 net.cpp:148] Top shape: 128 256 8 8 (2097152)
I0620 23:56:23.614003 19694 net.cpp:156] Memory required for data: 2987917824
I0620 23:56:23.614023 19694 layer_factory.hpp:77] Creating layer sc_l_1_2
I0620 23:56:23.614040 19694 net.cpp:91] Creating Layer sc_l_1_2
I0620 23:56:23.614055 19694 net.cpp:425] sc_l_1_2 <- bn_l_1_2
I0620 23:56:23.614076 19694 net.cpp:399] sc_l_1_2 -> sc_l_1_2
I0620 23:56:23.614141 19694 layer_factory.hpp:77] Creating layer sc_l_1_2
I0620 23:56:23.614285 19694 net.cpp:141] Setting up sc_l_1_2
I0620 23:56:23.614301 19694 net.cpp:148] Top shape: 128 256 8 8 (2097152)
I0620 23:56:23.614310 19694 net.cpp:156] Memory required for data: 2996306432
I0620 23:56:23.614326 19694 layer_factory.hpp:77] Creating layer relu_l_1_2
I0620 23:56:23.614361 19694 net.cpp:91] Creating Layer relu_l_1_2
I0620 23:56:23.614372 19694 net.cpp:425] relu_l_1_2 <- sc_l_1_2
I0620 23:56:23.614387 19694 net.cpp:399] relu_l_1_2 -> relu_l_1_2
I0620 23:56:23.614591 19694 net.cpp:141] Setting up relu_l_1_2
I0620 23:56:23.614608 19694 net.cpp:148] Top shape: 128 256 8 8 (2097152)
I0620 23:56:23.614617 19694 net.cpp:156] Memory required for data: 3004695040
I0620 23:56:23.614629 19694 layer_factory.hpp:77] Creating layer conv_l_1_2
I0620 23:56:23.614653 19694 net.cpp:91] Creating Layer conv_l_1_2
I0620 23:56:23.614665 19694 net.cpp:425] conv_l_1_2 <- relu_l_1_2
I0620 23:56:23.614681 19694 net.cpp:399] conv_l_1_2 -> conv_l_1_2
I0620 23:56:23.631700 19694 net.cpp:141] Setting up conv_l_1_2
I0620 23:56:23.631726 19694 net.cpp:148] Top shape: 128 256 8 8 (2097152)
I0620 23:56:23.631749 19694 net.cpp:156] Memory required for data: 3013083648
I0620 23:56:23.631767 19694 layer_factory.hpp:77] Creating layer res_l
I0620 23:56:23.631791 19694 net.cpp:91] Creating Layer res_l
I0620 23:56:23.631804 19694 net.cpp:425] res_l <- elt_g_i_elt_g_i_0_split_1
I0620 23:56:23.631821 19694 net.cpp:399] res_l -> res_l
I0620 23:56:23.633704 19694 net.cpp:141] Setting up res_l
I0620 23:56:23.633723 19694 net.cpp:148] Top shape: 128 256 8 8 (2097152)
I0620 23:56:23.633745 19694 net.cpp:156] Memory required for data: 3021472256
I0620 23:56:23.633761 19694 layer_factory.hpp:77] Creating layer elt_l_1
I0620 23:56:23.633786 19694 net.cpp:91] Creating Layer elt_l_1
I0620 23:56:23.633815 19694 net.cpp:425] elt_l_1 <- res_l
I0620 23:56:23.633828 19694 net.cpp:425] elt_l_1 <- conv_l_1_2
I0620 23:56:23.633848 19694 net.cpp:399] elt_l_1 -> elt_l_1
I0620 23:56:23.633901 19694 net.cpp:141] Setting up elt_l_1
I0620 23:56:23.633916 19694 net.cpp:148] Top shape: 128 256 8 8 (2097152)
I0620 23:56:23.633926 19694 net.cpp:156] Memory required for data: 3029860864
I0620 23:56:23.633936 19694 layer_factory.hpp:77] Creating layer elt_j_k_l
I0620 23:56:23.633950 19694 net.cpp:91] Creating Layer elt_j_k_l
I0620 23:56:23.633962 19694 net.cpp:425] elt_j_k_l <- elt_j_1
I0620 23:56:23.633975 19694 net.cpp:425] elt_j_k_l <- elt_k_1
I0620 23:56:23.633986 19694 net.cpp:425] elt_j_k_l <- elt_l_1
I0620 23:56:23.634006 19694 net.cpp:399] elt_j_k_l -> elt_j_k_l
I0620 23:56:23.634054 19694 net.cpp:141] Setting up elt_j_k_l
I0620 23:56:23.634069 19694 net.cpp:148] Top shape: 128 256 8 8 (2097152)
I0620 23:56:23.634079 19694 net.cpp:156] Memory required for data: 3038249472
I0620 23:56:23.634089 19694 layer_factory.hpp:77] Creating layer bn_m_1_1
I0620 23:56:23.634104 19694 net.cpp:91] Creating Layer bn_m_1_1
I0620 23:56:23.634114 19694 net.cpp:425] bn_m_1_1 <- elt_j_k_l
I0620 23:56:23.634132 19694 net.cpp:399] bn_m_1_1 -> bn_m_1_1
I0620 23:56:23.634371 19694 net.cpp:141] Setting up bn_m_1_1
I0620 23:56:23.634387 19694 net.cpp:148] Top shape: 128 256 8 8 (2097152)
I0620 23:56:23.634395 19694 net.cpp:156] Memory required for data: 3046638080
I0620 23:56:23.634414 19694 layer_factory.hpp:77] Creating layer sc_m_1_1
I0620 23:56:23.634433 19694 net.cpp:91] Creating Layer sc_m_1_1
I0620 23:56:23.634445 19694 net.cpp:425] sc_m_1_1 <- bn_m_1_1
I0620 23:56:23.634459 19694 net.cpp:399] sc_m_1_1 -> sc_m_1_1
I0620 23:56:23.634523 19694 layer_factory.hpp:77] Creating layer sc_m_1_1
I0620 23:56:23.634673 19694 net.cpp:141] Setting up sc_m_1_1
I0620 23:56:23.634694 19694 net.cpp:148] Top shape: 128 256 8 8 (2097152)
I0620 23:56:23.634704 19694 net.cpp:156] Memory required for data: 3055026688
I0620 23:56:23.634721 19694 layer_factory.hpp:77] Creating layer relu_m_1_1
I0620 23:56:23.634737 19694 net.cpp:91] Creating Layer relu_m_1_1
I0620 23:56:23.634747 19694 net.cpp:425] relu_m_1_1 <- sc_m_1_1
I0620 23:56:23.634778 19694 net.cpp:399] relu_m_1_1 -> relu_m_1_1
I0620 23:56:23.634987 19694 net.cpp:141] Setting up relu_m_1_1
I0620 23:56:23.635005 19694 net.cpp:148] Top shape: 128 256 8 8 (2097152)
I0620 23:56:23.635015 19694 net.cpp:156] Memory required for data: 3063415296
I0620 23:56:23.635025 19694 layer_factory.hpp:77] Creating layer gap
I0620 23:56:23.635040 19694 net.cpp:91] Creating Layer gap
I0620 23:56:23.635054 19694 net.cpp:425] gap <- relu_m_1_1
I0620 23:56:23.635088 19694 net.cpp:399] gap -> gap
I0620 23:56:23.635440 19694 net.cpp:141] Setting up gap
I0620 23:56:23.635460 19694 net.cpp:148] Top shape: 128 256 1 1 (32768)
I0620 23:56:23.635483 19694 net.cpp:156] Memory required for data: 3063546368
I0620 23:56:23.635493 19694 layer_factory.hpp:77] Creating layer ip1
I0620 23:56:23.635510 19694 net.cpp:91] Creating Layer ip1
I0620 23:56:23.635522 19694 net.cpp:425] ip1 <- gap
I0620 23:56:23.635552 19694 net.cpp:399] ip1 -> ip1
I0620 23:56:23.635778 19694 net.cpp:141] Setting up ip1
I0620 23:56:23.635795 19694 net.cpp:148] Top shape: 128 10 (1280)
I0620 23:56:23.635805 19694 net.cpp:156] Memory required for data: 3063551488
I0620 23:56:23.635821 19694 layer_factory.hpp:77] Creating layer loss
I0620 23:56:23.635860 19694 net.cpp:91] Creating Layer loss
I0620 23:56:23.635871 19694 net.cpp:425] loss <- ip1
I0620 23:56:23.635884 19694 net.cpp:425] loss <- label
I0620 23:56:23.635898 19694 net.cpp:399] loss -> loss
I0620 23:56:23.635922 19694 layer_factory.hpp:77] Creating layer loss
…
I0620 23:56:23.641342 19694 net.cpp:313] The NetState phase (1) differed from the phase (0) specified by a rule in layer resnet
I0620 23:56:23.642082 19694 net.cpp:49] Initializing net from parameters: 
name: "ResNet"
state {
  phase: TEST
}
layer {
  name: "resnet"
  type: "Data"
  top: "data"
  top: "label"
  include {
    phase: TEST
  }
  transform_param {
    mean_file: "/home/takeki/caffe/examples/cifar10/mean.binaryproto"
  }
  data_param {
    source: "/home/takeki/caffe/examples/cifar10/cifar10_test_lmdb"
    batch_size: 100
    backend: LMDB
  }
}
layer {
  name: "conv0"
  type: "Convolution"
  bottom: "data"
  top: "conv0"
  param {
    lr_mult: 1
  }
  param {
    lr_mult: 2
  }
  convolution_param {
    num_output: 16
    pad: 1
    kernel_size: 3
    stride: 1
    weight_filler {
      type: "msra"
    }
    bias_filler {
      type: "constant"
    }
  }
}
layer {
  name: "bn_a_1_1"
  type: "BatchNorm"
  bottom: "conv0"
  top: "bn_a_1_1"
  param {
    lr_mult: 0
  }
  param {
    lr_mult: 0
  }
  param {
    lr_mult: 0
  }
  batch_norm_param {
    use_global_stats: false
  }
}
layer {
  name: "sc_a_1_1"
  type: "Scale"
  bottom: "bn_a_1_1"
  top: "sc_a_1_1"
  scale_param {
    bias_term: true
  }
}
layer {
  name: "relu_a_1_1"
  type: "ReLU"
  bottom: "sc_a_1_1"
  top: "relu_a_1_1"
}
layer {
  name: "conv_a_1_1"
  type: "Convolution"
  bottom: "relu_a_1_1"
  top: "conv_a_1_1"
  param {
    lr_mult: 1
    decay_mult: 1
  }
  param {
    lr_mult: 2
    decay_mult: 1
  }
  convolution_param {
    num_output: 64
    pad: 1
    kernel_size: 3
    stride: 1
    weight_filler {
      type: "msra"
    }
    bias_filler {
      type: "constant"
    }
  }
}
layer {
  name: "bn_a_1_2"
  type: "BatchNorm"
  bottom: "conv_a_1_1"
  top: "bn_a_1_2"
  param {
    lr_mult: 0
  }
  param {
    lr_mult: 0
  }
  param {
    lr_mult: 0
  }
  batch_norm_param {
    use_global_stats: false
  }
}
layer {
  name: "sc_a_1_2"
  type: "Scale"
  bottom: "bn_a_1_2"
  top: "sc_a_1_2"
  scale_param {
    bias_term: true
  }
}
layer {
  name: "relu_a_1_2"
  type: "ReLU"
  bottom: "sc_a_1_2"
  top: "relu_a_1_2"
}
layer {
  name: "conv_a_1_2"
  type: "Convolution"
  bottom: "relu_a_1_2"
  top: "conv_a_1_2"
  param {
    lr_mult: 1
    decay_mult: 1
  }
  param {
    lr_mult: 2
    decay_mult: 1
  }
  convolution_param {
    num_output: 64
    pad: 1
    kernel_size: 3
    stride: 1
    weight_filler {
      type: "msra"
    }
    bias_filler {
      type: "constant"
    }
  }
}
layer {
  name: "res_a"
  type: "Convolution"
  bottom: "conv0"
  top: "res_a"
  param {
    lr_mult: 1
    decay_mult: 1
  }
  param {
    lr_mult: 2
    decay_mult: 1
  }
  convolution_param {
    num_output: 64
    pad: 0
    kernel_size: 1
    stride: 1
    weight_filler {
      type: "msra"
    }
    bias_filler {
      type: "constant"
    }
  }
}
layer {
  name: "elt_a_1"
  type: "Eltwise"
  bottom: "res_a"
  bottom: "conv_a_1_2"
  top: "elt_a_1"
  eltwise_param {
    operation: SUM
  }
}
layer {
  name: "bn_b_1_1"
  type: "BatchNorm"
  bottom: "conv0"
  top: "bn_b_1_1"
  param {
    lr_mult: 0
  }
  param {
    lr_mult: 0
  }
  param {
    lr_mult: 0
  }
  batch_norm_param {
    use_global_stats: false
  }
}
layer {
  name: "sc_b_1_1"
  type: "Scale"
  bottom: "bn_b_1_1"
  top: "sc_b_1_1"
  scale_param {
    bias_term: true
  }
}
layer {
  name: "relu_b_1_1"
  type: "ReLU"
  bottom: "sc_b_1_1"
  top: "relu_b_1_1"
}
layer {
  name: "conv_b_1_1"
  type: "Convolution"
  bottom: "relu_b_1_1"
  top: "conv_b_1_1"
  param {
    lr_mult: 1
    decay_mult: 1
  }
  param {
    lr_mult: 2
    decay_mult: 1
  }
  convolution_param {
    num_output: 64
    pad: 1
    kernel_size: 3
    stride: 1
    weight_filler {
      type: "msra"
    }
    bias_filler {
      type: "constant"
    }
  }
}
layer {
  name: "bn_b_1_2"
  type: "BatchNorm"
  bottom: "conv_b_1_1"
  top: "bn_b_1_2"
  param {
    lr_mult: 0
  }
  param {
    lr_mult: 0
  }
  param {
    lr_mult: 0
  }
  batch_norm_param {
    use_global_stats: false
  }
}
layer {
  name: "sc_b_1_2"
  type: "Scale"
  bottom: "bn_b_1_2"
  top: "sc_b_1_2"
  scale_param {
    bias_term: true
  }
}
layer {
  name: "relu_b_1_2"
  type: "ReLU"
  bottom: "sc_b_1_2"
  top: "relu_b_1_2"
}
layer {
  name: "conv_b_1_2"
  type: "Convolution"
  bottom: "relu_b_1_2"
  top: "conv_b_1_2"
  param {
    lr_mult: 1
    decay_mult: 1
  }
  param {
    lr_mult: 2
    decay_mult: 1
  }
  convolution_param {
    num_output: 64
    pad: 1
    kernel_size: 3
    stride: 1
    weight_filler {
      type: "msra"
    }
    bias_filler {
      type: "constant"
    }
  }
}
layer {
  name: "res_b"
  type: "Convolution"
  bottom: "conv0"
  top: "res_b"
  param {
    lr_mult: 1
    decay_mult: 1
  }
  param {
    lr_mult: 2
    decay_mult: 1
  }
  convolution_param {
    num_output: 64
    pad: 0
    kernel_size: 1
    stride: 1
    weight_filler {
      type: "msra"
    }
    bias_filler {
      type: "constant"
    }
  }
}
layer {
  name: "elt_b_1"
  type: "Eltwise"
  bottom: "res_b"
  bottom: "conv_b_1_2"
  top: "elt_b_1"
  eltwise_param {
    operation: SUM
  }
}
layer {
  name: "bn_c_1_1"
  type: "BatchNorm"
  bottom: "conv0"
  top: "bn_c_1_1"
  param {
    lr_mult: 0
  }
  param {
    lr_mult: 0
  }
  param {
    lr_mult: 0
  }
  batch_norm_param {
    use_global_stats: false
  }
}
layer {
  name: "sc_c_1_1"
  type: "Scale"
  bottom: "bn_c_1_1"
  top: "sc_c_1_1"
  scale_param {
    bias_term: true
  }
}
layer {
  name: "relu_c_1_1"
  type: "ReLU"
  bottom: "sc_c_1_1"
  top: "relu_c_1_1"
}
layer {
  name: "conv_c_1_1"
  type: "Convolution"
  bottom: "relu_c_1_1"
  top: "conv_c_1_1"
  param {
    lr_mult: 1
    decay_mult: 1
  }
  param {
    lr_mult: 2
    decay_mult: 1
  }
  convolution_param {
    num_output: 64
    pad: 1
    kernel_size: 3
    stride: 1
    weight_filler {
      type: "msra"
    }
    bias_filler {
      type: "constant"
    }
  }
}
layer {
  name: "bn_c_1_2"
  type: "BatchNorm"
  bottom: "conv_c_1_1"
  top: "bn_c_1_2"
  param {
    lr_mult: 0
  }
  param {
    lr_mult: 0
  }
  param {
    lr_mult: 0
  }
  batch_norm_param {
    use_global_stats: false
  }
}
layer {
  name: "sc_c_1_2"
  type: "Scale"
  bottom: "bn_c_1_2"
  top: "sc_c_1_2"
  scale_param {
    bias_term: true
  }
}
layer {
  name: "relu_c_1_2"
  type: "ReLU"
  bottom: "sc_c_1_2"
  top: "relu_c_1_2"
}
layer {
  name: "conv_c_1_2"
  type: "Convolution"
  bottom: "relu_c_1_2"
  top: "conv_c_1_2"
  param {
    lr_mult: 1
    decay_mult: 1
  }
  param {
    lr_mult: 2
    decay_mult: 1
  }
  convolution_param {
    num_output: 64
    pad: 1
    kernel_size: 3
    stride: 1
    weight_filler {
      type: "msra"
    }
    bias_filler {
      type: "constant"
    }
  }
}
layer {
  name: "res_c"
  type: "Convolution"
  bottom: "conv0"
  top: "res_c"
  param {
    lr_mult: 1
    decay_mult: 1
  }
  param {
    lr_mult: 2
    decay_mult: 1
  }
  convolution_param {
    num_output: 64
    pad: 0
    kernel_size: 1
    stride: 1
    weight_filler {
      type: "msra"
    }
    bias_filler {
      type: "constant"
    }
  }
}
layer {
  name: "elt_c_1"
  type: "Eltwise"
  bottom: "res_c"
  bottom: "conv_c_1_2"
  top: "elt_c_1"
  eltwise_param {
    operation: SUM
  }
}
layer {
  name: "bn_d_1_1"
  type: "BatchNorm"
  bottom: "elt_a_1"
  top: "bn_d_1_1"
  param {
    lr_mult: 0
  }
  param {
    lr_mult: 0
  }
  param {
    lr_mult: 0
  }
  batch_norm_param {
    use_global_stats: false
  }
}
layer {
  name: "sc_d_1_1"
  type: "Scale"
  bottom: "bn_d_1_1"
  top: "sc_d_1_1"
  scale_param {
    bias_term: true
  }
}
layer {
  name: "relu_d_1_1"
  type: "ReLU"
  bottom: "sc_d_1_1"
  top: "relu_d_1_1"
}
layer {
  name: "conv_d_1_1"
  type: "Convolution"
  bottom: "relu_d_1_1"
  top: "conv_d_1_1"
  param {
    lr_mult: 1
    decay_mult: 1
  }
  param {
    lr_mult: 2
    decay_mult: 1
  }
  convolution_param {
    num_output: 128
    pad: 1
    kernel_size: 3
    stride: 2
    weight_filler {
      type: "msra"
    }
    bias_filler {
      type: "constant"
    }
  }
}
layer {
  name: "bn_d_1_2"
  type: "BatchNorm"
  bottom: "conv_d_1_1"
  top: "bn_d_1_2"
  param {
    lr_mult: 0
  }
  param {
    lr_mult: 0
  }
  param {
    lr_mult: 0
  }
  batch_norm_param {
    use_global_stats: false
  }
}
layer {
  name: "sc_d_1_2"
  type: "Scale"
  bottom: "bn_d_1_2"
  top: "sc_d_1_2"
  scale_param {
    bias_term: true
  }
}
layer {
  name: "relu_d_1_2"
  type: "ReLU"
  bottom: "sc_d_1_2"
  top: "relu_d_1_2"
}
layer {
  name: "conv_d_1_2"
  type: "Convolution"
  bottom: "relu_d_1_2"
  top: "conv_d_1_2"
  param {
    lr_mult: 1
    decay_mult: 1
  }
  param {
    lr_mult: 2
    decay_mult: 1
  }
  convolution_param {
    num_output: 128
    pad: 1
    kernel_size: 3
    stride: 1
    weight_filler {
      type: "msra"
    }
    bias_filler {
      type: "constant"
    }
  }
}
layer {
  name: "res_d"
  type: "Convolution"
  bottom: "elt_a_1"
  top: "res_d"
  param {
    lr_mult: 1
    decay_mult: 1
  }
  param {
    lr_mult: 2
    decay_mult: 1
  }
  convolution_param {
    num_output: 128
    pad: 0
    kernel_size: 1
    stride: 2
    weight_filler {
      type: "msra"
    }
    bias_filler {
      type: "constant"
    }
  }
}
layer {
  name: "elt_d_1"
  type: "Eltwise"
  bottom: "res_d"
  bottom: "conv_d_1_2"
  top: "elt_d_1"
  eltwise_param {
    operation: SUM
  }
}
layer {
  name: "bn_f_1_1"
  type: "BatchNorm"
  bottom: "elt_b_1"
  top: "bn_f_1_1"
  param {
    lr_mult: 0
  }
  param {
    lr_mult: 0
  }
  param {
    lr_mult: 0
  }
  batch_norm_param {
    use_global_stats: false
  }
}
layer {
  name: "sc_f_1_1"
  type: "Scale"
  bottom: "bn_f_1_1"
  top: "sc_f_1_1"
  scale_param {
    bias_term: true
  }
}
layer {
  name: "relu_f_1_1"
  type: "ReLU"
  bottom: "sc_f_1_1"
  top: "relu_f_1_1"
}
layer {
  name: "conv_f_1_1"
  type: "Convolution"
  bottom: "relu_f_1_1"
  top: "conv_f_1_1"
  param {
    lr_mult: 1
    decay_mult: 1
  }
  param {
    lr_mult: 2
    decay_mult: 1
  }
  convolution_param {
    num_output: 128
    pad: 1
    kernel_size: 3
    stride: 2
    weight_filler {
      type: "msra"
    }
    bias_filler {
      type: "constant"
    }
  }
}
layer {
  name: "bn_f_1_2"
  type: "BatchNorm"
  bottom: "conv_f_1_1"
  top: "bn_f_1_2"
  param {
    lr_mult: 0
  }
  param {
    lr_mult: 0
  }
  param {
    lr_mult: 0
  }
  batch_norm_param {
    use_global_stats: false
  }
}
layer {
  name: "sc_f_1_2"
  type: "Scale"
  bottom: "bn_f_1_2"
  top: "sc_f_1_2"
  scale_param {
    bias_term: true
  }
}
layer {
  name: "relu_f_1_2"
  type: "ReLU"
  bottom: "sc_f_1_2"
  top: "relu_f_1_2"
}
layer {
  name: "conv_f_1_2"
  type: "Convolution"
  bottom: "relu_f_1_2"
  top: "conv_f_1_2"
  param {
    lr_mult: 1
    decay_mult: 1
  }
  param {
    lr_mult: 2
    decay_mult: 1
  }
  convolution_param {
    num_output: 128
    pad: 1
    kernel_size: 3
    stride: 1
    weight_filler {
      type: "msra"
    }
    bias_filler {
      type: "constant"
    }
  }
}
layer {
  name: "res_f"
  type: "Convolution"
  bottom: "elt_b_1"
  top: "res_f"
  param {
    lr_mult: 1
    decay_mult: 1
  }
  param {
    lr_mult: 2
    decay_mult: 1
  }
  convolution_param {
    num_output: 128
    pad: 0
    kernel_size: 1
    stride: 2
    weight_filler {
      type: "msra"
    }
    bias_filler {
      type: "constant"
    }
  }
}
layer {
  name: "elt_f_1"
  type: "Eltwise"
  bottom: "res_f"
  bottom: "conv_f_1_2"
  top: "elt_f_1"
  eltwise_param {
    operation: SUM
  }
}
layer {
  name: "bn_g_1_1"
  type: "BatchNorm"
  bottom: "elt_b_1"
  top: "bn_g_1_1"
  param {
    lr_mult: 0
  }
  param {
    lr_mult: 0
  }
  param {
    lr_mult: 0
  }
  batch_norm_param {
    use_global_stats: false
  }
}
layer {
  name: "sc_g_1_1"
  type: "Scale"
  bottom: "bn_g_1_1"
  top: "sc_g_1_1"
  scale_param {
    bias_term: true
  }
}
layer {
  name: "relu_g_1_1"
  type: "ReLU"
  bottom: "sc_g_1_1"
  top: "relu_g_1_1"
}
layer {
  name: "conv_g_1_1"
  type: "Convolution"
  bottom: "relu_g_1_1"
  top: "conv_g_1_1"
  param {
    lr_mult: 1
    decay_mult: 1
  }
  param {
    lr_mult: 2
    decay_mult: 1
  }
  convolution_param {
    num_output: 128
    pad: 1
    kernel_size: 3
    stride: 2
    weight_filler {
      type: "msra"
    }
    bias_filler {
      type: "constant"
    }
  }
}
layer {
  name: "bn_g_1_2"
  type: "BatchNorm"
  bottom: "conv_g_1_1"
  top: "bn_g_1_2"
  param {
    lr_mult: 0
  }
  param {
    lr_mult: 0
  }
  param {
    lr_mult: 0
  }
  batch_norm_param {
    use_global_stats: false
  }
}
layer {
  name: "sc_g_1_2"
  type: "Scale"
  bottom: "bn_g_1_2"
  top: "sc_g_1_2"
  scale_param {
    bias_term: true
  }
}
layer {
  name: "relu_g_1_2"
  type: "ReLU"
  bottom: "sc_g_1_2"
  top: "relu_g_1_2"
}
layer {
  name: "conv_g_1_2"
  type: "Convolution"
  bottom: "relu_g_1_2"
  top: "conv_g_1_2"
  param {
    lr_mult: 1
    decay_mult: 1
  }
  param {
    lr_mult: 2
    decay_mult: 1
  }
  convolution_param {
    num_output: 128
    pad: 1
    kernel_size: 3
    stride: 1
    weight_filler {
      type: "msra"
    }
    bias_filler {
      type: "constant"
    }
  }
}
layer {
  name: "res_g"
  type: "Convolution"
  bottom: "elt_b_1"
  top: "res_g"
  param {
    lr_mult: 1
    decay_mult: 1
  }
  param {
    lr_mult: 2
    decay_mult: 1
  }
  convolution_param {
    num_output: 128
    pad: 0
    kernel_size: 1
    stride: 2
    weight_filler {
      type: "msra"
    }
    bias_filler {
      type: "constant"
    }
  }
}
layer {
  name: "elt_g_1"
  type: "Eltwise"
  bottom: "res_g"
  bottom: "conv_g_1_2"
  top: "elt_g_1"
  eltwise_param {
    operation: SUM
  }
}
layer {
  name: "bn_h_1_1"
  type: "BatchNorm"
  bottom: "elt_c_1"
  top: "bn_h_1_1"
  param {
    lr_mult: 0
  }
  param {
    lr_mult: 0
  }
  param {
    lr_mult: 0
  }
  batch_norm_param {
    use_global_stats: false
  }
}
layer {
  name: "sc_h_1_1"
  type: "Scale"
  bottom: "bn_h_1_1"
  top: "sc_h_1_1"
  scale_param {
    bias_term: true
  }
}
layer {
  name: "relu_h_1_1"
  type: "ReLU"
  bottom: "sc_h_1_1"
  top: "relu_h_1_1"
}
layer {
  name: "conv_h_1_1"
  type: "Convolution"
  bottom: "relu_h_1_1"
  top: "conv_h_1_1"
  param {
    lr_mult: 1
    decay_mult: 1
  }
  param {
    lr_mult: 2
    decay_mult: 1
  }
  convolution_param {
    num_output: 128
    pad: 1
    kernel_size: 3
    stride: 2
    weight_filler {
      type: "msra"
    }
    bias_filler {
      type: "constant"
    }
  }
}
layer {
  name: "bn_h_1_2"
  type: "BatchNorm"
  bottom: "conv_h_1_1"
  top: "bn_h_1_2"
  param {
    lr_mult: 0
  }
  param {
    lr_mult: 0
  }
  param {
    lr_mult: 0
  }
  batch_norm_param {
    use_global_stats: false
  }
}
layer {
  name: "sc_h_1_2"
  type: "Scale"
  bottom: "bn_h_1_2"
  top: "sc_h_1_2"
  scale_param {
    bias_term: true
  }
}
layer {
  name: "relu_h_1_2"
  type: "ReLU"
  bottom: "sc_h_1_2"
  top: "relu_h_1_2"
}
layer {
  name: "conv_h_1_2"
  type: "Convolution"
  bottom: "relu_h_1_2"
  top: "conv_h_1_2"
  param {
    lr_mult: 1
    decay_mult: 1
  }
  param {
    lr_mult: 2
    decay_mult: 1
  }
  convolution_param {
    num_output: 128
    pad: 1
    kernel_size: 3
    stride: 1
    weight_filler {
      type: "msra"
    }
    bias_filler {
      type: "constant"
    }
  }
}
layer {
  name: "res_h"
  type: "Convolution"
  bottom: "elt_c_1"
  top: "res_h"
  param {
    lr_mult: 1
    decay_mult: 1
  }
  param {
    lr_mult: 2
    decay_mult: 1
  }
  convolution_param {
    num_output: 128
    pad: 0
    kernel_size: 1
    stride: 2
    weight_filler {
      type: "msra"
    }
    bias_filler {
      type: "constant"
    }
  }
}
layer {
  name: "elt_h_1"
  type: "Eltwise"
  bottom: "res_h"
  bottom: "conv_h_1_2"
  top: "elt_h_1"
  eltwise_param {
    operation: SUM
  }
}
layer {
  name: "bn_i_1_1"
  type: "BatchNorm"
  bottom: "elt_c_1"
  top: "bn_i_1_1"
  param {
    lr_mult: 0
  }
  param {
    lr_mult: 0
  }
  param {
    lr_mult: 0
  }
  batch_norm_param {
    use_global_stats: false
  }
}
layer {
  name: "sc_i_1_1"
  type: "Scale"
  bottom: "bn_i_1_1"
  top: "sc_i_1_1"
  scale_param {
    bias_term: true
  }
}
layer {
  name: "relu_i_1_1"
  type: "ReLU"
  bottom: "sc_i_1_1"
  top: "relu_i_1_1"
}
layer {
  name: "conv_i_1_1"
  type: "Convolution"
  bottom: "relu_i_1_1"
  top: "conv_i_1_1"
  param {
    lr_mult: 1
    decay_mult: 1
  }
  param {
    lr_mult: 2
    decay_mult: 1
  }
  convolution_param {
    num_output: 128
    pad: 1
    kernel_size: 3
    stride: 2
    weight_filler {
      type: "msra"
    }
    bias_filler {
      type: "constant"
    }
  }
}
layer {
  name: "bn_i_1_2"
  type: "BatchNorm"
  bottom: "conv_i_1_1"
  top: "bn_i_1_2"
  param {
    lr_mult: 0
  }
  param {
    lr_mult: 0
  }
  param {
    lr_mult: 0
  }
  batch_norm_param {
    use_global_stats: false
  }
}
layer {
  name: "sc_i_1_2"
  type: "Scale"
  bottom: "bn_i_1_2"
  top: "sc_i_1_2"
  scale_param {
    bias_term: true
  }
}
layer {
  name: "relu_i_1_2"
  type: "ReLU"
  bottom: "sc_i_1_2"
  top: "relu_i_1_2"
}
layer {
  name: "conv_i_1_2"
  type: "Convolution"
  bottom: "relu_i_1_2"
  top: "conv_i_1_2"
  param {
    lr_mult: 1
    decay_mult: 1
  }
  param {
    lr_mult: 2
    decay_mult: 1
  }
  convolution_param {
    num_output: 128
    pad: 1
    kernel_size: 3
    stride: 1
    weight_filler {
      type: "msra"
    }
    bias_filler {
      type: "constant"
    }
  }
}
layer {
  name: "res_i"
  type: "Convolution"
  bottom: "elt_c_1"
  top: "res_i"
  param {
    lr_mult: 1
    decay_mult: 1
  }
  param {
    lr_mult: 2
    decay_mult: 1
  }
  convolution_param {
    num_output: 128
    pad: 0
    kernel_size: 1
    stride: 2
    weight_filler {
      type: "msra"
    }
    bias_filler {
      type: "constant"
    }
  }
}
layer {
  name: "elt_i_1"
  type: "Eltwise"
  bottom: "res_i"
  bottom: "conv_i_1_2"
  top: "elt_i_1"
  eltwise_param {
    operation: SUM
  }
}
layer {
  name: "elt_d_f"
  type: "Eltwise"
  bottom: "elt_d_1"
  bottom: "elt_f_1"
  top: "elt_d_f"
  eltwise_param {
    operation: SUM
  }
}
layer {
  name: "elt_g_i"
  type: "Eltwise"
  bottom: "elt_g_1"
  bottom: "elt_i_1"
  top: "elt_g_i"
  eltwise_param {
    operation: SUM
  }
}
layer {
  name: "bn_j_1_1"
  type: "BatchNorm"
  bottom: "elt_d_f"
  top: "bn_j_1_1"
  param {
    lr_mult: 0
  }
  param {
    lr_mult: 0
  }
  param {
    lr_mult: 0
  }
  batch_norm_param {
    use_global_stats: false
  }
}
layer {
  name: "sc_j_1_1"
  type: "Scale"
  bottom: "bn_j_1_1"
  top: "sc_j_1_1"
  scale_param {
    bias_term: true
  }
}
layer {
  name: "relu_j_1_1"
  type: "ReLU"
  bottom: "sc_j_1_1"
  top: "relu_j_1_1"
}
layer {
  name: "conv_j_1_1"
  type: "Convolution"
  bottom: "relu_j_1_1"
  top: "conv_j_1_1"
  param {
    lr_mult: 1
    decay_mult: 1
  }
  param {
    lr_mult: 2
    decay_mult: 1
  }
  convolution_param {
    num_output: 256
    pad: 1
    kernel_size: 3
    stride: 2
    weight_filler {
      type: "msra"
    }
    bias_filler {
      type: "constant"
    }
  }
}
layer {
  name: "bn_j_1_2"
  type: "BatchNorm"
  bottom: "conv_j_1_1"
  top: "bn_j_1_2"
  param {
    lr_mult: 0
  }
  param {
    lr_mult: 0
  }
  param {
    lr_mult: 0
  }
  batch_norm_param {
    use_global_stats: false
  }
}
layer {
  name: "sc_j_1_2"
  type: "Scale"
  bottom: "bn_j_1_2"
  top: "sc_j_1_2"
  scale_param {
    bias_term: true
  }
}
layer {
  name: "relu_j_1_2"
  type: "ReLU"
  bottom: "sc_j_1_2"
  top: "relu_j_1_2"
}
layer {
  name: "conv_j_1_2"
  type: "Convolution"
  bottom: "relu_j_1_2"
  top: "conv_j_1_2"
  param {
    lr_mult: 1
    decay_mult: 1
  }
  param {
    lr_mult: 2
    decay_mult: 1
  }
  convolution_param {
    num_output: 256
    pad: 1
    kernel_size: 3
    stride: 1
    weight_filler {
      type: "msra"
    }
    bias_filler {
      type: "constant"
    }
  }
}
layer {
  name: "res_j"
  type: "Convolution"
  bottom: "elt_d_f"
  top: "res_j"
  param {
    lr_mult: 1
    decay_mult: 1
  }
  param {
    lr_mult: 2
    decay_mult: 1
  }
  convolution_param {
    num_output: 256
    pad: 0
    kernel_size: 1
    stride: 2
    weight_filler {
      type: "msra"
    }
    bias_filler {
      type: "constant"
    }
  }
}
layer {
  name: "elt_j_1"
  type: "Eltwise"
  bottom: "res_j"
  bottom: "conv_j_1_2"
  top: "elt_j_1"
  eltwise_param {
    operation: SUM
  }
}
layer {
  name: "bn_e_1_1"
  type: "BatchNorm"
  bottom: "elt_a_1"
  top: "bn_e_1_1"
  param {
    lr_mult: 0
  }
  param {
    lr_mult: 0
  }
  param {
    lr_mult: 0
  }
  batch_norm_param {
    use_global_stats: false
  }
}
layer {
  name: "sc_e_1_1"
  type: "Scale"
  bottom: "bn_e_1_1"
  top: "sc_e_1_1"
  scale_param {
    bias_term: true
  }
}
layer {
  name: "relu_e_1_1"
  type: "ReLU"
  bottom: "sc_e_1_1"
  top: "relu_e_1_1"
}
layer {
  name: "conv_e_1_1"
  type: "Convolution"
  bottom: "relu_e_1_1"
  top: "conv_e_1_1"
  param {
    lr_mult: 1
    decay_mult: 1
  }
  param {
    lr_mult: 2
    decay_mult: 1
  }
  convolution_param {
    num_output: 128
    pad: 1
    kernel_size: 3
    stride: 2
    weight_filler {
      type: "msra"
    }
    bias_filler {
      type: "constant"
    }
  }
}
layer {
  name: "bn_e_1_2"
  type: "BatchNorm"
  bottom: "conv_e_1_1"
  top: "bn_e_1_2"
  param {
    lr_mult: 0
  }
  param {
    lr_mult: 0
  }
  param {
    lr_mult: 0
  }
  batch_norm_param {
    use_global_stats: false
  }
}
layer {
  name: "sc_e_1_2"
  type: "Scale"
  bottom: "bn_e_1_2"
  top: "sc_e_1_2"
  scale_param {
    bias_term: true
  }
}
layer {
  name: "relu_e_1_2"
  type: "ReLU"
  bottom: "sc_e_1_2"
  top: "relu_e_1_2"
}
layer {
  name: "conv_e_1_2"
  type: "Convolution"
  bottom: "relu_e_1_2"
  top: "conv_e_1_2"
  param {
    lr_mult: 1
    decay_mult: 1
  }
  param {
    lr_mult: 2
    decay_mult: 1
  }
  convolution_param {
    num_output: 128
    pad: 1
    kernel_size: 3
    stride: 1
    weight_filler {
      type: "msra"
    }
    bias_filler {
      type: "constant"
    }
  }
}
layer {
  name: "res_e"
  type: "Convolution"
  bottom: "elt_a_1"
  top: "res_e"
  param {
    lr_mult: 1
    decay_mult: 1
  }
  param {
    lr_mult: 2
    decay_mult: 1
  }
  convolution_param {
    num_output: 128
    pad: 0
    kernel_size: 1
    stride: 2
    weight_filler {
      type: "msra"
    }
    bias_filler {
      type: "constant"
    }
  }
}
layer {
  name: "elt_e_1"
  type: "Eltwise"
  bottom: "res_e"
  bottom: "conv_e_1_2"
  top: "elt_e_1"
  eltwise_param {
    operation: SUM
  }
}
layer {
  name: "elt_e_h"
  type: "Eltwise"
  bottom: "elt_e_1"
  bottom: "elt_h_1"
  top: "elt_e_h"
  eltwise_param {
    operation: SUM
  }
}
layer {
  name: "bn_k_1_1"
  type: "BatchNorm"
  bottom: "elt_e_h"
  top: "bn_k_1_1"
  param {
    lr_mult: 0
  }
  param {
    lr_mult: 0
  }
  param {
    lr_mult: 0
  }
  batch_norm_param {
    use_global_stats: false
  }
}
layer {
  name: "sc_k_1_1"
  type: "Scale"
  bottom: "bn_k_1_1"
  top: "sc_k_1_1"
  scale_param {
    bias_term: true
  }
}
layer {
  name: "relu_k_1_1"
  type: "ReLU"
  bottom: "sc_k_1_1"
  top: "relu_k_1_1"
}
layer {
  name: "conv_k_1_1"
  type: "Convolution"
  bottom: "relu_k_1_1"
  top: "conv_k_1_1"
  param {
    lr_mult: 1
    decay_mult: 1
  }
  param {
    lr_mult: 2
    decay_mult: 1
  }
  convolution_param {
    num_output: 256
    pad: 1
    kernel_size: 3
    stride: 2
    weight_filler {
      type: "msra"
    }
    bias_filler {
      type: "constant"
    }
  }
}
layer {
  name: "bn_k_1_2"
  type: "BatchNorm"
  bottom: "conv_k_1_1"
  top: "bn_k_1_2"
  param {
    lr_mult: 0
  }
  param {
    lr_mult: 0
  }
  param {
    lr_mult: 0
  }
  batch_norm_param {
    use_global_stats: false
  }
}
layer {
  name: "sc_k_1_2"
  type: "Scale"
  bottom: "bn_k_1_2"
  top: "sc_k_1_2"
  scale_param {
    bias_term: true
  }
}
layer {
  name: "relu_k_1_2"
  type: "ReLU"
  bottom: "sc_k_1_2"
  top: "relu_k_1_2"
}
layer {
  name: "conv_k_1_2"
  type: "Convolution"
  bottom: "relu_k_1_2"
  top: "conv_k_1_2"
  param {
    lr_mult: 1
    decay_mult: 1
  }
  param {
    lr_mult: 2
    decay_mult: 1
  }
  convolution_param {
    num_output: 256
    pad: 1
    kernel_size: 3
    stride: 1
    weight_filler {
      type: "msra"
    }
    bias_filler {
      type: "constant"
    }
  }
}
layer {
  name: "res_k"
  type: "Convolution"
  bottom: "elt_e_h"
  top: "res_k"
  param {
    lr_mult: 1
    decay_mult: 1
  }
  param {
    lr_mult: 2
    decay_mult: 1
  }
  convolution_param {
    num_output: 256
    pad: 0
    kernel_size: 1
    stride: 2
    weight_filler {
      type: "msra"
    }
    bias_filler {
      type: "constant"
    }
  }
}
layer {
  name: "elt_k_1"
  type: "Eltwise"
  bottom: "res_k"
  bottom: "conv_k_1_2"
  top: "elt_k_1"
  eltwise_param {
    operation: SUM
  }
}
layer {
  name: "bn_l_1_1"
  type: "BatchNorm"
  bottom: "elt_g_i"
  top: "bn_l_1_1"
  param {
    lr_mult: 0
  }
  param {
    lr_mult: 0
  }
  param {
    lr_mult: 0
  }
  batch_norm_param {
    use_global_stats: false
  }
}
layer {
  name: "sc_l_1_1"
  type: "Scale"
  bottom: "bn_l_1_1"
  top: "sc_l_1_1"
  scale_param {
    bias_term: true
  }
}
layer {
  name: "relu_l_1_1"
  type: "ReLU"
  bottom: "sc_l_1_1"
  top: "relu_l_1_1"
}
layer {
  name: "conv_l_1_1"
  type: "Convolution"
  bottom: "relu_l_1_1"
  top: "conv_l_1_1"
  param {
    lr_mult: 1
    decay_mult: 1
  }
  param {
    lr_mult: 2
    decay_mult: 1
  }
  convolution_param {
    num_output: 256
    pad: 1
    kernel_size: 3
    stride: 2
    weight_filler {
      type: "msra"
    }
    bias_filler {
      type: "constant"
    }
  }
}
layer {
  name: "bn_l_1_2"
  type: "BatchNorm"
  bottom: "conv_l_1_1"
  top: "bn_l_1_2"
  param {
    lr_mult: 0
  }
  param {
    lr_mult: 0
  }
  param {
    lr_mult: 0
  }
  batch_norm_param {
    use_global_stats: false
  }
}
layer {
  name: "sc_l_1_2"
  type: "Scale"
  bottom: "bn_l_1_2"
  top: "sc_l_1_2"
  scale_param {
    bias_term: true
  }
}
layer {
  name: "relu_l_1_2"
  type: "ReLU"
  bottom: "sc_l_1_2"
  top: "relu_l_1_2"
}
layer {
  name: "conv_l_1_2"
  type: "Convolution"
  bottom: "relu_l_1_2"
  top: "conv_l_1_2"
  param {
    lr_mult: 1
    decay_mult: 1
  }
  param {
    lr_mult: 2
    decay_mult: 1
  }
  convolution_param {
    num_output: 256
    pad: 1
    kernel_size: 3
    stride: 1
    weight_filler {
      type: "msra"
    }
    bias_filler {
      type: "constant"
    }
  }
}
layer {
  name: "res_l"
  type: "Convolution"
  bottom: "elt_g_i"
  top: "res_l"
  param {
    lr_mult: 1
    decay_mult: 1
  }
  param {
    lr_mult: 2
    decay_mult: 1
  }
  convolution_param {
    num_output: 256
    pad: 0
    kernel_size: 1
    stride: 2
    weight_filler {
      type: "msra"
    }
    bias_filler {
      type: "constant"
    }
  }
}
layer {
  name: "elt_l_1"
  type: "Eltwise"
  bottom: "res_l"
  bottom: "conv_l_1_2"
  top: "elt_l_1"
  eltwise_param {
    operation: SUM
  }
}
layer {
  name: "elt_j_k_l"
  type: "Eltwise"
  bottom: "elt_j_1"
  bottom: "elt_k_1"
  bottom: "elt_l_1"
  top: "elt_j_k_l"
  eltwise_param {
    operation: SUM
  }
}
layer {
  name: "bn_m_1_1"
  type: "BatchNorm"
  bottom: "elt_j_k_l"
  top: "bn_m_1_1"
  param {
    lr_mult: 0
  }
  param {
    lr_mult: 0
  }
  param {
    lr_mult: 0
  }
  batch_norm_param {
    use_global_stats: false
  }
}
layer {
  name: "sc_m_1_1"
  type: "Scale"
  bottom: "bn_m_1_1"
  top: "sc_m_1_1"
  scale_param {
    bias_term: true
  }
}
layer {
  name: "relu_m_1_1"
  type: "ReLU"
  bottom: "sc_m_1_1"
  top: "relu_m_1_1"
}
layer {
  name: "gap"
  type: "Pooling"
  bottom: "relu_m_1_1"
  top: "gap"
  pooling_param {
    pool: AVE
    kernel_size: 8
    stride: 1
  }
}
layer {
  name: "ip1"
  type: "InnerProduct"
  bottom: "gap"
  top: "ip1"
  param {
    lr_mult: 1
    decay_mult: 1
  }
  param {
    lr_mult: 2
    decay_mult: 0
  }
  inner_product_param {
    num_output: 10
    weight_filler {
      type: "msra"
    }
    bias_filler {
      type: "constant"
      value: 0
    }
  }
}
layer {
  name: "accuracy"
  type: "Accuracy"
  bottom: "ip1"
  bottom: "label"
  top: "accuracy"
  include {
    phase: TEST
  }
}
layer {
  name: "loss"
  type: "SoftmaxWithLoss"
  bottom: "ip1"
  bottom: "label"
  top: "loss"
}
I0620 23:56:23.643123 19694 layer_factory.hpp:77] Creating layer resnet
I0620 23:56:23.643304 19694 net.cpp:91] Creating Layer resnet
I0620 23:56:23.643322 19694 net.cpp:399] resnet -> data
I0620 23:56:23.643340 19694 net.cpp:399] resnet -> label
I0620 23:56:23.643359 19694 data_transformer.cpp:25] Loading mean file from: /home/takeki/caffe/examples/cifar10/mean.binaryproto
I0620 23:56:23.644525 19740 db_lmdb.cpp:35] Opened lmdb /home/takeki/caffe/examples/cifar10/cifar10_test_lmdb
I0620 23:56:23.644726 19694 data_layer.cpp:41] output data size: 100,3,32,32
I0620 23:56:23.648592 19694 net.cpp:141] Setting up resnet
I0620 23:56:23.648614 19694 net.cpp:148] Top shape: 100 3 32 32 (307200)
I0620 23:56:23.648627 19694 net.cpp:148] Top shape: 100 (100)
I0620 23:56:23.648638 19694 net.cpp:156] Memory required for data: 1229200
I0620 23:56:23.648648 19694 layer_factory.hpp:77] Creating layer label_resnet_1_split
I0620 23:56:23.648663 19694 net.cpp:91] Creating Layer label_resnet_1_split
I0620 23:56:23.648674 19694 net.cpp:425] label_resnet_1_split <- label
I0620 23:56:23.648691 19694 net.cpp:399] label_resnet_1_split -> label_resnet_1_split_0
I0620 23:56:23.648708 19694 net.cpp:399] label_resnet_1_split -> label_resnet_1_split_1
I0620 23:56:23.648797 19694 net.cpp:141] Setting up label_resnet_1_split
I0620 23:56:23.648813 19694 net.cpp:148] Top shape: 100 (100)
I0620 23:56:23.648823 19694 net.cpp:148] Top shape: 100 (100)
I0620 23:56:23.648833 19694 net.cpp:156] Memory required for data: 1230000
I0620 23:56:23.648841 19694 layer_factory.hpp:77] Creating layer conv0
I0620 23:56:23.648864 19694 net.cpp:91] Creating Layer conv0
I0620 23:56:23.648874 19694 net.cpp:425] conv0 <- data
I0620 23:56:23.648912 19694 net.cpp:399] conv0 -> conv0
I0620 23:56:23.650552 19694 net.cpp:141] Setting up conv0
I0620 23:56:23.650571 19694 net.cpp:148] Top shape: 100 16 32 32 (1638400)
I0620 23:56:23.650596 19694 net.cpp:156] Memory required for data: 7783600
I0620 23:56:23.650622 19694 layer_factory.hpp:77] Creating layer conv0_conv0_0_split
I0620 23:56:23.650640 19694 net.cpp:91] Creating Layer conv0_conv0_0_split
I0620 23:56:23.650653 19694 net.cpp:425] conv0_conv0_0_split <- conv0
I0620 23:56:23.650668 19694 net.cpp:399] conv0_conv0_0_split -> conv0_conv0_0_split_0
I0620 23:56:23.650727 19694 net.cpp:399] conv0_conv0_0_split -> conv0_conv0_0_split_1
I0620 23:56:23.650746 19694 net.cpp:399] conv0_conv0_0_split -> conv0_conv0_0_split_2
I0620 23:56:23.650766 19694 net.cpp:399] conv0_conv0_0_split -> conv0_conv0_0_split_3
I0620 23:56:23.650790 19694 net.cpp:399] conv0_conv0_0_split -> conv0_conv0_0_split_4
I0620 23:56:23.650811 19694 net.cpp:399] conv0_conv0_0_split -> conv0_conv0_0_split_5
I0620 23:56:23.650945 19694 net.cpp:141] Setting up conv0_conv0_0_split
I0620 23:56:23.650964 19694 net.cpp:148] Top shape: 100 16 32 32 (1638400)
I0620 23:56:23.650976 19694 net.cpp:148] Top shape: 100 16 32 32 (1638400)
I0620 23:56:23.650990 19694 net.cpp:148] Top shape: 100 16 32 32 (1638400)
I0620 23:56:23.651020 19694 net.cpp:148] Top shape: 100 16 32 32 (1638400)
I0620 23:56:23.651033 19694 net.cpp:148] Top shape: 100 16 32 32 (1638400)
I0620 23:56:23.651047 19694 net.cpp:148] Top shape: 100 16 32 32 (1638400)
I0620 23:56:23.651058 19694 net.cpp:156] Memory required for data: 47105200
I0620 23:56:23.651069 19694 layer_factory.hpp:77] Creating layer bn_a_1_1
I0620 23:56:23.651090 19694 net.cpp:91] Creating Layer bn_a_1_1
I0620 23:56:23.651103 19694 net.cpp:425] bn_a_1_1 <- conv0_conv0_0_split_0
I0620 23:56:23.651123 19694 net.cpp:399] bn_a_1_1 -> bn_a_1_1
I0620 23:56:23.651383 19694 net.cpp:141] Setting up bn_a_1_1
I0620 23:56:23.651401 19694 net.cpp:148] Top shape: 100 16 32 32 (1638400)
I0620 23:56:23.651410 19694 net.cpp:156] Memory required for data: 53658800
I0620 23:56:23.651437 19694 layer_factory.hpp:77] Creating layer sc_a_1_1
I0620 23:56:23.651453 19694 net.cpp:91] Creating Layer sc_a_1_1
I0620 23:56:23.651464 19694 net.cpp:425] sc_a_1_1 <- bn_a_1_1
I0620 23:56:23.651479 19694 net.cpp:399] sc_a_1_1 -> sc_a_1_1
I0620 23:56:23.651556 19694 layer_factory.hpp:77] Creating layer sc_a_1_1
I0620 23:56:23.651723 19694 net.cpp:141] Setting up sc_a_1_1
I0620 23:56:23.651738 19694 net.cpp:148] Top shape: 100 16 32 32 (1638400)
I0620 23:56:23.651748 19694 net.cpp:156] Memory required for data: 60212400
I0620 23:56:23.651765 19694 layer_factory.hpp:77] Creating layer relu_a_1_1
I0620 23:56:23.651782 19694 net.cpp:91] Creating Layer relu_a_1_1
I0620 23:56:23.651793 19694 net.cpp:425] relu_a_1_1 <- sc_a_1_1
I0620 23:56:23.651811 19694 net.cpp:399] relu_a_1_1 -> relu_a_1_1
I0620 23:56:23.652282 19694 net.cpp:141] Setting up relu_a_1_1
I0620 23:56:23.652300 19694 net.cpp:148] Top shape: 100 16 32 32 (1638400)
I0620 23:56:23.652323 19694 net.cpp:156] Memory required for data: 66766000
I0620 23:56:23.652333 19694 layer_factory.hpp:77] Creating layer conv_a_1_1
I0620 23:56:23.652359 19694 net.cpp:91] Creating Layer conv_a_1_1
I0620 23:56:23.652369 19694 net.cpp:425] conv_a_1_1 <- relu_a_1_1
I0620 23:56:23.652392 19694 net.cpp:399] conv_a_1_1 -> conv_a_1_1
I0620 23:56:23.653949 19694 net.cpp:141] Setting up conv_a_1_1
I0620 23:56:23.653969 19694 net.cpp:148] Top shape: 100 64 32 32 (6553600)
I0620 23:56:23.653995 19694 net.cpp:156] Memory required for data: 92980400
I0620 23:56:23.654021 19694 layer_factory.hpp:77] Creating layer bn_a_1_2
I0620 23:56:23.654039 19694 net.cpp:91] Creating Layer bn_a_1_2
I0620 23:56:23.654055 19694 net.cpp:425] bn_a_1_2 <- conv_a_1_1
I0620 23:56:23.654076 19694 net.cpp:399] bn_a_1_2 -> bn_a_1_2
I0620 23:56:23.654357 19694 net.cpp:141] Setting up bn_a_1_2
I0620 23:56:23.654374 19694 net.cpp:148] Top shape: 100 64 32 32 (6553600)
I0620 23:56:23.654384 19694 net.cpp:156] Memory required for data: 119194800
I0620 23:56:23.654428 19694 layer_factory.hpp:77] Creating layer sc_a_1_2
I0620 23:56:23.654449 19694 net.cpp:91] Creating Layer sc_a_1_2
I0620 23:56:23.654464 19694 net.cpp:425] sc_a_1_2 <- bn_a_1_2
I0620 23:56:23.654479 19694 net.cpp:399] sc_a_1_2 -> sc_a_1_2
I0620 23:56:23.654556 19694 layer_factory.hpp:77] Creating layer sc_a_1_2
I0620 23:56:23.654958 19694 net.cpp:141] Setting up sc_a_1_2
I0620 23:56:23.654981 19694 net.cpp:148] Top shape: 100 64 32 32 (6553600)
I0620 23:56:23.654997 19694 net.cpp:156] Memory required for data: 145409200
I0620 23:56:23.655016 19694 layer_factory.hpp:77] Creating layer relu_a_1_2
I0620 23:56:23.655033 19694 net.cpp:91] Creating Layer relu_a_1_2
I0620 23:56:23.655046 19694 net.cpp:425] relu_a_1_2 <- sc_a_1_2
I0620 23:56:23.655066 19694 net.cpp:399] relu_a_1_2 -> relu_a_1_2
I0620 23:56:23.655306 19694 net.cpp:141] Setting up relu_a_1_2
I0620 23:56:23.655328 19694 net.cpp:148] Top shape: 100 64 32 32 (6553600)
I0620 23:56:23.655344 19694 net.cpp:156] Memory required for data: 171623600
I0620 23:56:23.655354 19694 layer_factory.hpp:77] Creating layer conv_a_1_2
I0620 23:56:23.655378 19694 net.cpp:91] Creating Layer conv_a_1_2
I0620 23:56:23.655392 19694 net.cpp:425] conv_a_1_2 <- relu_a_1_2
I0620 23:56:23.655410 19694 net.cpp:399] conv_a_1_2 -> conv_a_1_2
I0620 23:56:23.657547 19694 net.cpp:141] Setting up conv_a_1_2
I0620 23:56:23.657567 19694 net.cpp:148] Top shape: 100 64 32 32 (6553600)
I0620 23:56:23.657590 19694 net.cpp:156] Memory required for data: 197838000
I0620 23:56:23.657608 19694 layer_factory.hpp:77] Creating layer res_a
I0620 23:56:23.657634 19694 net.cpp:91] Creating Layer res_a
I0620 23:56:23.657646 19694 net.cpp:425] res_a <- conv0_conv0_0_split_1
I0620 23:56:23.657666 19694 net.cpp:399] res_a -> res_a
I0620 23:56:23.658866 19694 net.cpp:141] Setting up res_a
I0620 23:56:23.658886 19694 net.cpp:148] Top shape: 100 64 32 32 (6553600)
I0620 23:56:23.658898 19694 net.cpp:156] Memory required for data: 224052400
I0620 23:56:23.658921 19694 layer_factory.hpp:77] Creating layer elt_a_1
I0620 23:56:23.658948 19694 net.cpp:91] Creating Layer elt_a_1
I0620 23:56:23.658962 19694 net.cpp:425] elt_a_1 <- res_a
I0620 23:56:23.658982 19694 net.cpp:425] elt_a_1 <- conv_a_1_2
I0620 23:56:23.659005 19694 net.cpp:399] elt_a_1 -> elt_a_1
I0620 23:56:23.659068 19694 net.cpp:141] Setting up elt_a_1
I0620 23:56:23.659085 19694 net.cpp:148] Top shape: 100 64 32 32 (6553600)
I0620 23:56:23.659095 19694 net.cpp:156] Memory required for data: 250266800
I0620 23:56:23.659106 19694 layer_factory.hpp:77] Creating layer elt_a_1_elt_a_1_0_split
I0620 23:56:23.659123 19694 net.cpp:91] Creating Layer elt_a_1_elt_a_1_0_split
I0620 23:56:23.659137 19694 net.cpp:425] elt_a_1_elt_a_1_0_split <- elt_a_1
I0620 23:56:23.659152 19694 net.cpp:399] elt_a_1_elt_a_1_0_split -> elt_a_1_elt_a_1_0_split_0
I0620 23:56:23.659169 19694 net.cpp:399] elt_a_1_elt_a_1_0_split -> elt_a_1_elt_a_1_0_split_1
I0620 23:56:23.659188 19694 net.cpp:399] elt_a_1_elt_a_1_0_split -> elt_a_1_elt_a_1_0_split_2
I0620 23:56:23.659210 19694 net.cpp:399] elt_a_1_elt_a_1_0_split -> elt_a_1_elt_a_1_0_split_3
I0620 23:56:23.659314 19694 net.cpp:141] Setting up elt_a_1_elt_a_1_0_split
I0620 23:56:23.659330 19694 net.cpp:148] Top shape: 100 64 32 32 (6553600)
I0620 23:56:23.659343 19694 net.cpp:148] Top shape: 100 64 32 32 (6553600)
I0620 23:56:23.659358 19694 net.cpp:148] Top shape: 100 64 32 32 (6553600)
I0620 23:56:23.659373 19694 net.cpp:148] Top shape: 100 64 32 32 (6553600)
I0620 23:56:23.659384 19694 net.cpp:156] Memory required for data: 355124400
I0620 23:56:23.659395 19694 layer_factory.hpp:77] Creating layer bn_b_1_1
I0620 23:56:23.659413 19694 net.cpp:91] Creating Layer bn_b_1_1
I0620 23:56:23.659425 19694 net.cpp:425] bn_b_1_1 <- conv0_conv0_0_split_2
I0620 23:56:23.659440 19694 net.cpp:399] bn_b_1_1 -> bn_b_1_1
I0620 23:56:23.659710 19694 net.cpp:141] Setting up bn_b_1_1
I0620 23:56:23.659726 19694 net.cpp:148] Top shape: 100 16 32 32 (1638400)
I0620 23:56:23.659737 19694 net.cpp:156] Memory required for data: 361678000
I0620 23:56:23.659781 19694 layer_factory.hpp:77] Creating layer sc_b_1_1
I0620 23:56:23.659804 19694 net.cpp:91] Creating Layer sc_b_1_1
I0620 23:56:23.659817 19694 net.cpp:425] sc_b_1_1 <- bn_b_1_1
I0620 23:56:23.659832 19694 net.cpp:399] sc_b_1_1 -> sc_b_1_1
I0620 23:56:23.659909 19694 layer_factory.hpp:77] Creating layer sc_b_1_1
I0620 23:56:23.660078 19694 net.cpp:141] Setting up sc_b_1_1
I0620 23:56:23.660101 19694 net.cpp:148] Top shape: 100 16 32 32 (1638400)
I0620 23:56:23.660111 19694 net.cpp:156] Memory required for data: 368231600
I0620 23:56:23.660128 19694 layer_factory.hpp:77] Creating layer relu_b_1_1
I0620 23:56:23.660145 19694 net.cpp:91] Creating Layer relu_b_1_1
I0620 23:56:23.660158 19694 net.cpp:425] relu_b_1_1 <- sc_b_1_1
I0620 23:56:23.660176 19694 net.cpp:399] relu_b_1_1 -> relu_b_1_1
I0620 23:56:23.660399 19694 net.cpp:141] Setting up relu_b_1_1
I0620 23:56:23.660418 19694 net.cpp:148] Top shape: 100 16 32 32 (1638400)
I0620 23:56:23.660428 19694 net.cpp:156] Memory required for data: 374785200
I0620 23:56:23.660439 19694 layer_factory.hpp:77] Creating layer conv_b_1_1
I0620 23:56:23.660464 19694 net.cpp:91] Creating Layer conv_b_1_1
I0620 23:56:23.660475 19694 net.cpp:425] conv_b_1_1 <- relu_b_1_1
I0620 23:56:23.660492 19694 net.cpp:399] conv_b_1_1 -> conv_b_1_1
I0620 23:56:23.661870 19694 net.cpp:141] Setting up conv_b_1_1
I0620 23:56:23.661890 19694 net.cpp:148] Top shape: 100 64 32 32 (6553600)
I0620 23:56:23.661913 19694 net.cpp:156] Memory required for data: 400999600
I0620 23:56:23.661931 19694 layer_factory.hpp:77] Creating layer bn_b_1_2
I0620 23:56:23.661955 19694 net.cpp:91] Creating Layer bn_b_1_2
I0620 23:56:23.661979 19694 net.cpp:425] bn_b_1_2 <- conv_b_1_1
I0620 23:56:23.661995 19694 net.cpp:399] bn_b_1_2 -> bn_b_1_2
I0620 23:56:23.662277 19694 net.cpp:141] Setting up bn_b_1_2
I0620 23:56:23.662293 19694 net.cpp:148] Top shape: 100 64 32 32 (6553600)
I0620 23:56:23.662304 19694 net.cpp:156] Memory required for data: 427214000
I0620 23:56:23.662324 19694 layer_factory.hpp:77] Creating layer sc_b_1_2
I0620 23:56:23.662344 19694 net.cpp:91] Creating Layer sc_b_1_2
I0620 23:56:23.662358 19694 net.cpp:425] sc_b_1_2 <- bn_b_1_2
I0620 23:56:23.662372 19694 net.cpp:399] sc_b_1_2 -> sc_b_1_2
I0620 23:56:23.662451 19694 layer_factory.hpp:77] Creating layer sc_b_1_2
I0620 23:56:23.662618 19694 net.cpp:141] Setting up sc_b_1_2
I0620 23:56:23.662634 19694 net.cpp:148] Top shape: 100 64 32 32 (6553600)
I0620 23:56:23.662645 19694 net.cpp:156] Memory required for data: 453428400
I0620 23:56:23.662662 19694 layer_factory.hpp:77] Creating layer relu_b_1_2
I0620 23:56:23.662678 19694 net.cpp:91] Creating Layer relu_b_1_2
I0620 23:56:23.662704 19694 net.cpp:425] relu_b_1_2 <- sc_b_1_2
I0620 23:56:23.662724 19694 net.cpp:399] relu_b_1_2 -> relu_b_1_2
I0620 23:56:23.663059 19694 net.cpp:141] Setting up relu_b_1_2
I0620 23:56:23.663079 19694 net.cpp:148] Top shape: 100 64 32 32 (6553600)
I0620 23:56:23.663092 19694 net.cpp:156] Memory required for data: 479642800
I0620 23:56:23.663105 19694 layer_factory.hpp:77] Creating layer conv_b_1_2
I0620 23:56:23.663127 19694 net.cpp:91] Creating Layer conv_b_1_2
I0620 23:56:23.663139 19694 net.cpp:425] conv_b_1_2 <- relu_b_1_2
I0620 23:56:23.663156 19694 net.cpp:399] conv_b_1_2 -> conv_b_1_2
I0620 23:56:23.665645 19694 net.cpp:141] Setting up conv_b_1_2
I0620 23:56:23.665665 19694 net.cpp:148] Top shape: 100 64 32 32 (6553600)
I0620 23:56:23.665688 19694 net.cpp:156] Memory required for data: 505857200
I0620 23:56:23.665706 19694 layer_factory.hpp:77] Creating layer res_b
I0620 23:56:23.665731 19694 net.cpp:91] Creating Layer res_b
I0620 23:56:23.665745 19694 net.cpp:425] res_b <- conv0_conv0_0_split_3
I0620 23:56:23.665765 19694 net.cpp:399] res_b -> res_b
I0620 23:56:23.666931 19694 net.cpp:141] Setting up res_b
I0620 23:56:23.666950 19694 net.cpp:148] Top shape: 100 64 32 32 (6553600)
I0620 23:56:23.666961 19694 net.cpp:156] Memory required for data: 532071600
I0620 23:56:23.666987 19694 layer_factory.hpp:77] Creating layer elt_b_1
I0620 23:56:23.667016 19694 net.cpp:91] Creating Layer elt_b_1
I0620 23:56:23.667028 19694 net.cpp:425] elt_b_1 <- res_b
I0620 23:56:23.667042 19694 net.cpp:425] elt_b_1 <- conv_b_1_2
I0620 23:56:23.667059 19694 net.cpp:399] elt_b_1 -> elt_b_1
I0620 23:56:23.667109 19694 net.cpp:141] Setting up elt_b_1
I0620 23:56:23.667129 19694 net.cpp:148] Top shape: 100 64 32 32 (6553600)
I0620 23:56:23.667140 19694 net.cpp:156] Memory required for data: 558286000
I0620 23:56:23.667151 19694 layer_factory.hpp:77] Creating layer elt_b_1_elt_b_1_0_split
I0620 23:56:23.667165 19694 net.cpp:91] Creating Layer elt_b_1_elt_b_1_0_split
I0620 23:56:23.667176 19694 net.cpp:425] elt_b_1_elt_b_1_0_split <- elt_b_1
I0620 23:56:23.667191 19694 net.cpp:399] elt_b_1_elt_b_1_0_split -> elt_b_1_elt_b_1_0_split_0
I0620 23:56:23.667209 19694 net.cpp:399] elt_b_1_elt_b_1_0_split -> elt_b_1_elt_b_1_0_split_1
I0620 23:56:23.667227 19694 net.cpp:399] elt_b_1_elt_b_1_0_split -> elt_b_1_elt_b_1_0_split_2
I0620 23:56:23.667249 19694 net.cpp:399] elt_b_1_elt_b_1_0_split -> elt_b_1_elt_b_1_0_split_3
I0620 23:56:23.667346 19694 net.cpp:141] Setting up elt_b_1_elt_b_1_0_split
I0620 23:56:23.667362 19694 net.cpp:148] Top shape: 100 64 32 32 (6553600)
I0620 23:56:23.667376 19694 net.cpp:148] Top shape: 100 64 32 32 (6553600)
I0620 23:56:23.667389 19694 net.cpp:148] Top shape: 100 64 32 32 (6553600)
I0620 23:56:23.667403 19694 net.cpp:148] Top shape: 100 64 32 32 (6553600)
I0620 23:56:23.667413 19694 net.cpp:156] Memory required for data: 663143600
I0620 23:56:23.667423 19694 layer_factory.hpp:77] Creating layer bn_c_1_1
I0620 23:56:23.667441 19694 net.cpp:91] Creating Layer bn_c_1_1
I0620 23:56:23.667454 19694 net.cpp:425] bn_c_1_1 <- conv0_conv0_0_split_4
I0620 23:56:23.667471 19694 net.cpp:399] bn_c_1_1 -> bn_c_1_1
I0620 23:56:23.667734 19694 net.cpp:141] Setting up bn_c_1_1
I0620 23:56:23.667750 19694 net.cpp:148] Top shape: 100 16 32 32 (1638400)
I0620 23:56:23.667760 19694 net.cpp:156] Memory required for data: 669697200
I0620 23:56:23.667780 19694 layer_factory.hpp:77] Creating layer sc_c_1_1
I0620 23:56:23.667796 19694 net.cpp:91] Creating Layer sc_c_1_1
I0620 23:56:23.667809 19694 net.cpp:425] sc_c_1_1 <- bn_c_1_1
I0620 23:56:23.667824 19694 net.cpp:399] sc_c_1_1 -> sc_c_1_1
I0620 23:56:23.667896 19694 layer_factory.hpp:77] Creating layer sc_c_1_1
I0620 23:56:23.668062 19694 net.cpp:141] Setting up sc_c_1_1
I0620 23:56:23.668078 19694 net.cpp:148] Top shape: 100 16 32 32 (1638400)
I0620 23:56:23.668088 19694 net.cpp:156] Memory required for data: 676250800
I0620 23:56:23.668104 19694 layer_factory.hpp:77] Creating layer relu_c_1_1
I0620 23:56:23.668120 19694 net.cpp:91] Creating Layer relu_c_1_1
I0620 23:56:23.668133 19694 net.cpp:425] relu_c_1_1 <- sc_c_1_1
I0620 23:56:23.668154 19694 net.cpp:399] relu_c_1_1 -> relu_c_1_1
I0620 23:56:23.668490 19694 net.cpp:141] Setting up relu_c_1_1
I0620 23:56:23.668509 19694 net.cpp:148] Top shape: 100 16 32 32 (1638400)
I0620 23:56:23.668519 19694 net.cpp:156] Memory required for data: 682804400
I0620 23:56:23.668529 19694 layer_factory.hpp:77] Creating layer conv_c_1_1
I0620 23:56:23.668555 19694 net.cpp:91] Creating Layer conv_c_1_1
I0620 23:56:23.668567 19694 net.cpp:425] conv_c_1_1 <- relu_c_1_1
I0620 23:56:23.668583 19694 net.cpp:399] conv_c_1_1 -> conv_c_1_1
I0620 23:56:23.669942 19694 net.cpp:141] Setting up conv_c_1_1
I0620 23:56:23.669961 19694 net.cpp:148] Top shape: 100 64 32 32 (6553600)
I0620 23:56:23.669984 19694 net.cpp:156] Memory required for data: 709018800
I0620 23:56:23.670001 19694 layer_factory.hpp:77] Creating layer bn_c_1_2
I0620 23:56:23.670020 19694 net.cpp:91] Creating Layer bn_c_1_2
I0620 23:56:23.670033 19694 net.cpp:425] bn_c_1_2 <- conv_c_1_1
I0620 23:56:23.670052 19694 net.cpp:399] bn_c_1_2 -> bn_c_1_2
I0620 23:56:23.670332 19694 net.cpp:141] Setting up bn_c_1_2
I0620 23:56:23.670349 19694 net.cpp:148] Top shape: 100 64 32 32 (6553600)
I0620 23:56:23.670359 19694 net.cpp:156] Memory required for data: 735233200
I0620 23:56:23.670378 19694 layer_factory.hpp:77] Creating layer sc_c_1_2
I0620 23:56:23.670415 19694 net.cpp:91] Creating Layer sc_c_1_2
I0620 23:56:23.670428 19694 net.cpp:425] sc_c_1_2 <- bn_c_1_2
I0620 23:56:23.670444 19694 net.cpp:399] sc_c_1_2 -> sc_c_1_2
I0620 23:56:23.670521 19694 layer_factory.hpp:77] Creating layer sc_c_1_2
I0620 23:56:23.670691 19694 net.cpp:141] Setting up sc_c_1_2
I0620 23:56:23.670707 19694 net.cpp:148] Top shape: 100 64 32 32 (6553600)
I0620 23:56:23.670727 19694 net.cpp:156] Memory required for data: 761447600
I0620 23:56:23.670743 19694 layer_factory.hpp:77] Creating layer relu_c_1_2
I0620 23:56:23.670764 19694 net.cpp:91] Creating Layer relu_c_1_2
I0620 23:56:23.670778 19694 net.cpp:425] relu_c_1_2 <- sc_c_1_2
I0620 23:56:23.670791 19694 net.cpp:399] relu_c_1_2 -> relu_c_1_2
I0620 23:56:23.671131 19694 net.cpp:141] Setting up relu_c_1_2
I0620 23:56:23.671149 19694 net.cpp:148] Top shape: 100 64 32 32 (6553600)
I0620 23:56:23.671159 19694 net.cpp:156] Memory required for data: 787662000
I0620 23:56:23.671169 19694 layer_factory.hpp:77] Creating layer conv_c_1_2
I0620 23:56:23.671195 19694 net.cpp:91] Creating Layer conv_c_1_2
I0620 23:56:23.671207 19694 net.cpp:425] conv_c_1_2 <- relu_c_1_2
I0620 23:56:23.671223 19694 net.cpp:399] conv_c_1_2 -> conv_c_1_2
I0620 23:56:23.673439 19694 net.cpp:141] Setting up conv_c_1_2
I0620 23:56:23.673458 19694 net.cpp:148] Top shape: 100 64 32 32 (6553600)
I0620 23:56:23.673481 19694 net.cpp:156] Memory required for data: 813876400
I0620 23:56:23.673498 19694 layer_factory.hpp:77] Creating layer res_c
I0620 23:56:23.673523 19694 net.cpp:91] Creating Layer res_c
I0620 23:56:23.673535 19694 net.cpp:425] res_c <- conv0_conv0_0_split_5
I0620 23:56:23.673555 19694 net.cpp:399] res_c -> res_c
I0620 23:56:23.674674 19694 net.cpp:141] Setting up res_c
I0620 23:56:23.674698 19694 net.cpp:148] Top shape: 100 64 32 32 (6553600)
I0620 23:56:23.674722 19694 net.cpp:156] Memory required for data: 840090800
I0620 23:56:23.674738 19694 layer_factory.hpp:77] Creating layer elt_c_1
I0620 23:56:23.674759 19694 net.cpp:91] Creating Layer elt_c_1
I0620 23:56:23.674772 19694 net.cpp:425] elt_c_1 <- res_c
I0620 23:56:23.674785 19694 net.cpp:425] elt_c_1 <- conv_c_1_2
I0620 23:56:23.674801 19694 net.cpp:399] elt_c_1 -> elt_c_1
I0620 23:56:23.674855 19694 net.cpp:141] Setting up elt_c_1
I0620 23:56:23.674870 19694 net.cpp:148] Top shape: 100 64 32 32 (6553600)
I0620 23:56:23.674880 19694 net.cpp:156] Memory required for data: 866305200
…
I0620 23:56:23.680572 19694 layer_factory.hpp:77] Creating layer relu_d_1_2
I0620 23:56:23.680586 19694 net.cpp:91] Creating Layer relu_d_1_2
I0620 23:56:23.680598 19694 net.cpp:425] relu_d_1_2 <- sc_d_1_2
I0620 23:56:23.680613 19694 net.cpp:399] relu_d_1_2 -> relu_d_1_2
I0620 23:56:23.680837 19694 net.cpp:141] Setting up relu_d_1_2
I0620 23:56:23.680855 19694 net.cpp:148] Top shape: 100 128 16 16 (3276800)
I0620 23:56:23.680865 19694 net.cpp:156] Memory required for data: 1102234800
I0620 23:56:23.680874 19694 layer_factory.hpp:77] Creating layer conv_d_1_2
I0620 23:56:23.680896 19694 net.cpp:91] Creating Layer conv_d_1_2
I0620 23:56:23.680909 19694 net.cpp:425] conv_d_1_2 <- relu_d_1_2
I0620 23:56:23.680929 19694 net.cpp:399] conv_d_1_2 -> conv_d_1_2
I0620 23:56:23.686008 19694 net.cpp:141] Setting up conv_d_1_2
I0620 23:56:23.686028 19694 net.cpp:148] Top shape: 100 128 16 16 (3276800)
I0620 23:56:23.686050 19694 net.cpp:156] Memory required for data: 1115342000
I0620 23:56:23.686069 19694 layer_factory.hpp:77] Creating layer res_d
I0620 23:56:23.686101 19694 net.cpp:91] Creating Layer res_d
I0620 23:56:23.686115 19694 net.cpp:425] res_d <- elt_a_1_elt_a_1_0_split_1
I0620 23:56:23.686136 19694 net.cpp:399] res_d -> res_d
I0620 23:56:23.687472 19694 net.cpp:141] Setting up res_d
I0620 23:56:23.687490 19694 net.cpp:148] Top shape: 100 128 16 16 (3276800)
I0620 23:56:23.687513 19694 net.cpp:156] Memory required for data: 1128449200
I0620 23:56:23.687546 19694 layer_factory.hpp:77] Creating layer elt_d_1
I0620 23:56:23.687571 19694 net.cpp:91] Creating Layer elt_d_1
I0620 23:56:23.687584 19694 net.cpp:425] elt_d_1 <- res_d
I0620 23:56:23.687621 19694 net.cpp:425] elt_d_1 <- conv_d_1_2
I0620 23:56:23.687640 19694 net.cpp:399] elt_d_1 -> elt_d_1
I0620 23:56:23.687690 19694 net.cpp:141] Setting up elt_d_1
I0620 23:56:23.687706 19694 net.cpp:148] Top shape: 100 128 16 16 (3276800)
I0620 23:56:23.687716 19694 net.cpp:156] Memory required for data: 1141556400
I0620 23:56:23.687726 19694 layer_factory.hpp:77] Creating layer bn_f_1_1
I0620 23:56:23.687741 19694 net.cpp:91] Creating Layer bn_f_1_1
I0620 23:56:23.687752 19694 net.cpp:425] bn_f_1_1 <- elt_b_1_elt_b_1_0_split_0
I0620 23:56:23.687772 19694 net.cpp:399] bn_f_1_1 -> bn_f_1_1
I0620 23:56:23.688063 19694 net.cpp:141] Setting up bn_f_1_1
I0620 23:56:23.688081 19694 net.cpp:148] Top shape: 100 64 32 32 (6553600)
I0620 23:56:23.688089 19694 net.cpp:156] Memory required for data: 1167770800
I0620 23:56:23.688109 19694 layer_factory.hpp:77] Creating layer sc_f_1_1
I0620 23:56:23.688129 19694 net.cpp:91] Creating Layer sc_f_1_1
I0620 23:56:23.688143 19694 net.cpp:425] sc_f_1_1 <- bn_f_1_1
I0620 23:56:23.688158 19694 net.cpp:399] sc_f_1_1 -> sc_f_1_1
I0620 23:56:23.688237 19694 layer_factory.hpp:77] Creating layer sc_f_1_1
I0620 23:56:23.688410 19694 net.cpp:141] Setting up sc_f_1_1
I0620 23:56:23.688431 19694 net.cpp:148] Top shape: 100 64 32 32 (6553600)
I0620 23:56:23.688441 19694 net.cpp:156] Memory required for data: 1193985200
I0620 23:56:23.688457 19694 layer_factory.hpp:77] Creating layer relu_f_1_1
I0620 23:56:23.688472 19694 net.cpp:91] Creating Layer relu_f_1_1
I0620 23:56:23.688483 19694 net.cpp:425] relu_f_1_1 <- sc_f_1_1
I0620 23:56:23.688499 19694 net.cpp:399] relu_f_1_1 -> relu_f_1_1
I0620 23:56:23.688832 19694 net.cpp:141] Setting up relu_f_1_1
I0620 23:56:23.688850 19694 net.cpp:148] Top shape: 100 64 32 32 (6553600)
I0620 23:56:23.688860 19694 net.cpp:156] Memory required for data: 1220199600
I0620 23:56:23.688870 19694 layer_factory.hpp:77] Creating layer conv_f_1_1
I0620 23:56:23.688894 19694 net.cpp:91] Creating Layer conv_f_1_1
I0620 23:56:23.688908 19694 net.cpp:425] conv_f_1_1 <- relu_f_1_1
I0620 23:56:23.688925 19694 net.cpp:399] conv_f_1_1 -> conv_f_1_1
I0620 23:56:23.692337 19694 net.cpp:141] Setting up conv_f_1_1
I0620 23:56:23.692354 19694 net.cpp:148] Top shape: 100 128 16 16 (3276800)
I0620 23:56:23.692378 19694 net.cpp:156] Memory required for data: 1233306800
I0620 23:56:23.692395 19694 layer_factory.hpp:77] Creating layer bn_f_1_2
I0620 23:56:23.692414 19694 net.cpp:91] Creating Layer bn_f_1_2
I0620 23:56:23.692427 19694 net.cpp:425] bn_f_1_2 <- conv_f_1_1
I0620 23:56:23.692443 19694 net.cpp:399] bn_f_1_2 -> bn_f_1_2
I0620 23:56:23.692731 19694 net.cpp:141] Setting up bn_f_1_2
I0620 23:56:23.692749 19694 net.cpp:148] Top shape: 100 128 16 16 (3276800)
I0620 23:56:23.692759 19694 net.cpp:156] Memory required for data: 1246414000
I0620 23:56:23.692778 19694 layer_factory.hpp:77] Creating layer sc_f_1_2
I0620 23:56:23.692795 19694 net.cpp:91] Creating Layer sc_f_1_2
I0620 23:56:23.692808 19694 net.cpp:425] sc_f_1_2 <- bn_f_1_2
I0620 23:56:23.692824 19694 net.cpp:399] sc_f_1_2 -> sc_f_1_2
I0620 23:56:23.692901 19694 layer_factory.hpp:77] Creating layer sc_f_1_2
I0620 23:56:23.693079 19694 net.cpp:141] Setting up sc_f_1_2
I0620 23:56:23.693095 19694 net.cpp:148] Top shape: 100 128 16 16 (3276800)
I0620 23:56:23.693104 19694 net.cpp:156] Memory required for data: 1259521200
I0620 23:56:23.693120 19694 layer_factory.hpp:77] Creating layer relu_f_1_2
I0620 23:56:23.693140 19694 net.cpp:91] Creating Layer relu_f_1_2
I0620 23:56:23.693153 19694 net.cpp:425] relu_f_1_2 <- sc_f_1_2
I0620 23:56:23.693168 19694 net.cpp:399] relu_f_1_2 -> relu_f_1_2
I0620 23:56:23.693500 19694 net.cpp:141] Setting up relu_f_1_2
I0620 23:56:23.693518 19694 net.cpp:148] Top shape: 100 128 16 16 (3276800)
I0620 23:56:23.693529 19694 net.cpp:156] Memory required for data: 1272628400
I0620 23:56:23.693539 19694 layer_factory.hpp:77] Creating layer conv_f_1_2
I0620 23:56:23.693562 19694 net.cpp:91] Creating Layer conv_f_1_2
I0620 23:56:23.693575 19694 net.cpp:425] conv_f_1_2 <- relu_f_1_2
I0620 23:56:23.693606 19694 net.cpp:399] conv_f_1_2 -> conv_f_1_2
I0620 23:56:23.698604 19694 net.cpp:141] Setting up conv_f_1_2
I0620 23:56:23.698622 19694 net.cpp:148] Top shape: 100 128 16 16 (3276800)
I0620 23:56:23.698645 19694 net.cpp:156] Memory required for data: 1285735600
I0620 23:56:23.698663 19694 layer_factory.hpp:77] Creating layer res_f
I0620 23:56:23.698693 19694 net.cpp:91] Creating Layer res_f
I0620 23:56:23.698715 19694 net.cpp:425] res_f <- elt_b_1_elt_b_1_0_split_1
I0620 23:56:23.698740 19694 net.cpp:399] res_f -> res_f
I0620 23:56:23.700079 19694 net.cpp:141] Setting up res_f
I0620 23:56:23.700098 19694 net.cpp:148] Top shape: 100 128 16 16 (3276800)
I0620 23:56:23.700120 19694 net.cpp:156] Memory required for data: 1298842800
I0620 23:56:23.700137 19694 layer_factory.hpp:77] Creating layer elt_f_1
I0620 23:56:23.700165 19694 net.cpp:91] Creating Layer elt_f_1
I0620 23:56:23.700178 19694 net.cpp:425] elt_f_1 <- res_f
I0620 23:56:23.700192 19694 net.cpp:425] elt_f_1 <- conv_f_1_2
I0620 23:56:23.700212 19694 net.cpp:399] elt_f_1 -> elt_f_1
I0620 23:56:23.700258 19694 net.cpp:141] Setting up elt_f_1
I0620 23:56:23.700273 19694 net.cpp:148] Top shape: 100 128 16 16 (3276800)
I0620 23:56:23.700284 19694 net.cpp:156] Memory required for data: 1311950000
I0620 23:56:23.700294 19694 layer_factory.hpp:77] Creating layer bn_g_1_1
I0620 23:56:23.700311 19694 net.cpp:91] Creating Layer bn_g_1_1
I0620 23:56:23.700323 19694 net.cpp:425] bn_g_1_1 <- elt_b_1_elt_b_1_0_split_2
I0620 23:56:23.700338 19694 net.cpp:399] bn_g_1_1 -> bn_g_1_1
I0620 23:56:23.700628 19694 net.cpp:141] Setting up bn_g_1_1
I0620 23:56:23.700644 19694 net.cpp:148] Top shape: 100 64 32 32 (6553600)
I0620 23:56:23.700654 19694 net.cpp:156] Memory required for data: 1338164400
I0620 23:56:23.700675 19694 layer_factory.hpp:77] Creating layer sc_g_1_1
I0620 23:56:23.700690 19694 net.cpp:91] Creating Layer sc_g_1_1
I0620 23:56:23.700700 19694 net.cpp:425] sc_g_1_1 <- bn_g_1_1
I0620 23:56:23.700716 19694 net.cpp:399] sc_g_1_1 -> sc_g_1_1
I0620 23:56:23.700793 19694 layer_factory.hpp:77] Creating layer sc_g_1_1
I0620 23:56:23.700966 19694 net.cpp:141] Setting up sc_g_1_1
I0620 23:56:23.700983 19694 net.cpp:148] Top shape: 100 64 32 32 (6553600)
I0620 23:56:23.700992 19694 net.cpp:156] Memory required for data: 1364378800
I0620 23:56:23.701009 19694 layer_factory.hpp:77] Creating layer relu_g_1_1
I0620 23:56:23.701023 19694 net.cpp:91] Creating Layer relu_g_1_1
I0620 23:56:23.701036 19694 net.cpp:425] relu_g_1_1 <- sc_g_1_1
I0620 23:56:23.701055 19694 net.cpp:399] relu_g_1_1 -> relu_g_1_1
I0620 23:56:23.701397 19694 net.cpp:141] Setting up relu_g_1_1
I0620 23:56:23.701416 19694 net.cpp:148] Top shape: 100 64 32 32 (6553600)
I0620 23:56:23.701426 19694 net.cpp:156] Memory required for data: 1390593200
I0620 23:56:23.701447 19694 layer_factory.hpp:77] Creating layer conv_g_1_1
I0620 23:56:23.701473 19694 net.cpp:91] Creating Layer conv_g_1_1
I0620 23:56:23.701486 19694 net.cpp:425] conv_g_1_1 <- relu_g_1_1
I0620 23:56:23.701503 19694 net.cpp:399] conv_g_1_1 -> conv_g_1_1
I0620 23:56:23.705116 19694 net.cpp:141] Setting up conv_g_1_1
I0620 23:56:23.705135 19694 net.cpp:148] Top shape: 100 128 16 16 (3276800)
I0620 23:56:23.705158 19694 net.cpp:156] Memory required for data: 1403700400
I0620 23:56:23.705176 19694 layer_factory.hpp:77] Creating layer bn_g_1_2
I0620 23:56:23.705194 19694 net.cpp:91] Creating Layer bn_g_1_2
I0620 23:56:23.705207 19694 net.cpp:425] bn_g_1_2 <- conv_g_1_1
I0620 23:56:23.705226 19694 net.cpp:399] bn_g_1_2 -> bn_g_1_2
I0620 23:56:23.705507 19694 net.cpp:141] Setting up bn_g_1_2
I0620 23:56:23.705523 19694 net.cpp:148] Top shape: 100 128 16 16 (3276800)
I0620 23:56:23.705533 19694 net.cpp:156] Memory required for data: 1416807600
I0620 23:56:23.705554 19694 layer_factory.hpp:77] Creating layer sc_g_1_2
I0620 23:56:23.705569 19694 net.cpp:91] Creating Layer sc_g_1_2
I0620 23:56:23.705582 19694 net.cpp:425] sc_g_1_2 <- bn_g_1_2
I0620 23:56:23.705597 19694 net.cpp:399] sc_g_1_2 -> sc_g_1_2
I0620 23:56:23.705675 19694 layer_factory.hpp:77] Creating layer sc_g_1_2
I0620 23:56:23.705863 19694 net.cpp:141] Setting up sc_g_1_2
I0620 23:56:23.705879 19694 net.cpp:148] Top shape: 100 128 16 16 (3276800)
I0620 23:56:23.705889 19694 net.cpp:156] Memory required for data: 1429914800
I0620 23:56:23.705906 19694 layer_factory.hpp:77] Creating layer relu_g_1_2
I0620 23:56:23.705922 19694 net.cpp:91] Creating Layer relu_g_1_2
I0620 23:56:23.705935 19694 net.cpp:425] relu_g_1_2 <- sc_g_1_2
I0620 23:56:23.705957 19694 net.cpp:399] relu_g_1_2 -> relu_g_1_2
I0620 23:56:23.706182 19694 net.cpp:141] Setting up relu_g_1_2
I0620 23:56:23.706202 19694 net.cpp:148] Top shape: 100 128 16 16 (3276800)
I0620 23:56:23.706213 19694 net.cpp:156] Memory required for data: 1443022000
I0620 23:56:23.706223 19694 layer_factory.hpp:77] Creating layer conv_g_1_2
I0620 23:56:23.706253 19694 net.cpp:91] Creating Layer conv_g_1_2
I0620 23:56:23.706264 19694 net.cpp:425] conv_g_1_2 <- relu_g_1_2
I0620 23:56:23.706280 19694 net.cpp:399] conv_g_1_2 -> conv_g_1_2
I0620 23:56:23.711292 19694 net.cpp:141] Setting up conv_g_1_2
I0620 23:56:23.711310 19694 net.cpp:148] Top shape: 100 128 16 16 (3276800)
I0620 23:56:23.711333 19694 net.cpp:156] Memory required for data: 1456129200
I0620 23:56:23.711351 19694 layer_factory.hpp:77] Creating layer res_g
I0620 23:56:23.711385 19694 net.cpp:91] Creating Layer res_g
I0620 23:56:23.711397 19694 net.cpp:425] res_g <- elt_b_1_elt_b_1_0_split_3
I0620 23:56:23.711417 19694 net.cpp:399] res_g -> res_g
I0620 23:56:23.713176 19694 net.cpp:141] Setting up res_g
I0620 23:56:23.713196 19694 net.cpp:148] Top shape: 100 128 16 16 (3276800)
I0620 23:56:23.713218 19694 net.cpp:156] Memory required for data: 1469236400
I0620 23:56:23.713235 19694 layer_factory.hpp:77] Creating layer elt_g_1
I0620 23:56:23.713258 19694 net.cpp:91] Creating Layer elt_g_1
I0620 23:56:23.713274 19694 net.cpp:425] elt_g_1 <- res_g
I0620 23:56:23.713294 19694 net.cpp:425] elt_g_1 <- conv_g_1_2
I0620 23:56:23.713315 19694 net.cpp:399] elt_g_1 -> elt_g_1
I0620 23:56:23.713351 19694 net.cpp:141] Setting up elt_g_1
I0620 23:56:23.713366 19694 net.cpp:148] Top shape: 100 128 16 16 (3276800)
I0620 23:56:23.713376 19694 net.cpp:156] Memory required for data: 1482343600
I0620 23:56:23.713385 19694 layer_factory.hpp:77] Creating layer bn_h_1_1
I0620 23:56:23.713404 19694 net.cpp:91] Creating Layer bn_h_1_1
I0620 23:56:23.713415 19694 net.cpp:425] bn_h_1_1 <- elt_c_1_elt_c_1_0_split_0
I0620 23:56:23.713430 19694 net.cpp:399] bn_h_1_1 -> bn_h_1_1
I0620 23:56:23.713631 19694 net.cpp:141] Setting up bn_h_1_1
I0620 23:56:23.713649 19694 net.cpp:148] Top shape: 100 64 32 32 (6553600)
I0620 23:56:23.713657 19694 net.cpp:156] Memory required for data: 1508558000
I0620 23:56:23.713677 19694 layer_factory.hpp:77] Creating layer sc_h_1_1
I0620 23:56:23.713697 19694 net.cpp:91] Creating Layer sc_h_1_1
I0620 23:56:23.713711 19694 net.cpp:425] sc_h_1_1 <- bn_h_1_1
I0620 23:56:23.713726 19694 net.cpp:399] sc_h_1_1 -> sc_h_1_1
I0620 23:56:23.713785 19694 layer_factory.hpp:77] Creating layer sc_h_1_1
I0620 23:56:23.713922 19694 net.cpp:141] Setting up sc_h_1_1
I0620 23:56:23.713938 19694 net.cpp:148] Top shape: 100 64 32 32 (6553600)
I0620 23:56:23.713948 19694 net.cpp:156] Memory required for data: 1534772400
I0620 23:56:23.713964 19694 layer_factory.hpp:77] Creating layer relu_h_1_1
I0620 23:56:23.713989 19694 net.cpp:91] Creating Layer relu_h_1_1
I0620 23:56:23.714002 19694 net.cpp:425] relu_h_1_1 <- sc_h_1_1
I0620 23:56:23.714020 19694 net.cpp:399] relu_h_1_1 -> relu_h_1_1
I0620 23:56:23.714355 19694 net.cpp:141] Setting up relu_h_1_1
I0620 23:56:23.714372 19694 net.cpp:148] Top shape: 100 64 32 32 (6553600)
I0620 23:56:23.714383 19694 net.cpp:156] Memory required for data: 1560986800
I0620 23:56:23.714395 19694 layer_factory.hpp:77] Creating layer conv_h_1_1
I0620 23:56:23.714416 19694 net.cpp:91] Creating Layer conv_h_1_1
I0620 23:56:23.714429 19694 net.cpp:425] conv_h_1_1 <- relu_h_1_1
I0620 23:56:23.714450 19694 net.cpp:399] conv_h_1_1 -> conv_h_1_1
I0620 23:56:23.717766 19694 net.cpp:141] Setting up conv_h_1_1
I0620 23:56:23.717815 19694 net.cpp:148] Top shape: 100 128 16 16 (3276800)
I0620 23:56:23.717839 19694 net.cpp:156] Memory required for data: 1574094000
I0620 23:56:23.717856 19694 layer_factory.hpp:77] Creating layer bn_h_1_2
I0620 23:56:23.717875 19694 net.cpp:91] Creating Layer bn_h_1_2
I0620 23:56:23.717887 19694 net.cpp:425] bn_h_1_2 <- conv_h_1_1
I0620 23:56:23.717907 19694 net.cpp:399] bn_h_1_2 -> bn_h_1_2
I0620 23:56:23.718086 19694 net.cpp:141] Setting up bn_h_1_2
I0620 23:56:23.718103 19694 net.cpp:148] Top shape: 100 128 16 16 (3276800)
I0620 23:56:23.718113 19694 net.cpp:156] Memory required for data: 1587201200
I0620 23:56:23.718140 19694 layer_factory.hpp:77] Creating layer sc_h_1_2
I0620 23:56:23.718156 19694 net.cpp:91] Creating Layer sc_h_1_2
I0620 23:56:23.718170 19694 net.cpp:425] sc_h_1_2 <- bn_h_1_2
I0620 23:56:23.718189 19694 net.cpp:399] sc_h_1_2 -> sc_h_1_2
I0620 23:56:23.718241 19694 layer_factory.hpp:77] Creating layer sc_h_1_2
I0620 23:56:23.718349 19694 net.cpp:141] Setting up sc_h_1_2
I0620 23:56:23.718365 19694 net.cpp:148] Top shape: 100 128 16 16 (3276800)
I0620 23:56:23.718375 19694 net.cpp:156] Memory required for data: 1600308400
I0620 23:56:23.718391 19694 layer_factory.hpp:77] Creating layer relu_h_1_2
I0620 23:56:23.718410 19694 net.cpp:91] Creating Layer relu_h_1_2
I0620 23:56:23.718423 19694 net.cpp:425] relu_h_1_2 <- sc_h_1_2
I0620 23:56:23.718438 19694 net.cpp:399] relu_h_1_2 -> relu_h_1_2
I0620 23:56:23.718778 19694 net.cpp:141] Setting up relu_h_1_2
I0620 23:56:23.718796 19694 net.cpp:148] Top shape: 100 128 16 16 (3276800)
I0620 23:56:23.718807 19694 net.cpp:156] Memory required for data: 1613415600
I0620 23:56:23.718817 19694 layer_factory.hpp:77] Creating layer conv_h_1_2
I0620 23:56:23.718845 19694 net.cpp:91] Creating Layer conv_h_1_2
I0620 23:56:23.718858 19694 net.cpp:425] conv_h_1_2 <- relu_h_1_2
I0620 23:56:23.718876 19694 net.cpp:399] conv_h_1_2 -> conv_h_1_2
I0620 23:56:23.723809 19694 net.cpp:141] Setting up conv_h_1_2
I0620 23:56:23.723829 19694 net.cpp:148] Top shape: 100 128 16 16 (3276800)
I0620 23:56:23.723850 19694 net.cpp:156] Memory required for data: 1626522800
I0620 23:56:23.723868 19694 layer_factory.hpp:77] Creating layer res_h
I0620 23:56:23.723896 19694 net.cpp:91] Creating Layer res_h
I0620 23:56:23.723908 19694 net.cpp:425] res_h <- elt_c_1_elt_c_1_0_split_1
I0620 23:56:23.723928 19694 net.cpp:399] res_h -> res_h
I0620 23:56:23.725072 19694 net.cpp:141] Setting up res_h
I0620 23:56:23.725091 19694 net.cpp:148] Top shape: 100 128 16 16 (3276800)
I0620 23:56:23.725113 19694 net.cpp:156] Memory required for data: 1639630000
I0620 23:56:23.725131 19694 layer_factory.hpp:77] Creating layer elt_h_1
I0620 23:56:23.725157 19694 net.cpp:91] Creating Layer elt_h_1
I0620 23:56:23.725170 19694 net.cpp:425] elt_h_1 <- res_h
I0620 23:56:23.725183 19694 net.cpp:425] elt_h_1 <- conv_h_1_2
I0620 23:56:23.725200 19694 net.cpp:399] elt_h_1 -> elt_h_1
I0620 23:56:23.725239 19694 net.cpp:141] Setting up elt_h_1
I0620 23:56:23.725255 19694 net.cpp:148] Top shape: 100 128 16 16 (3276800)
I0620 23:56:23.725265 19694 net.cpp:156] Memory required for data: 1652737200
I0620 23:56:23.725275 19694 layer_factory.hpp:77] Creating layer bn_i_1_1
I0620 23:56:23.725289 19694 net.cpp:91] Creating Layer bn_i_1_1
I0620 23:56:23.725301 19694 net.cpp:425] bn_i_1_1 <- elt_c_1_elt_c_1_0_split_2
I0620 23:56:23.725320 19694 net.cpp:399] bn_i_1_1 -> bn_i_1_1
I0620 23:56:23.725529 19694 net.cpp:141] Setting up bn_i_1_1
I0620 23:56:23.725546 19694 net.cpp:148] Top shape: 100 64 32 32 (6553600)
I0620 23:56:23.725555 19694 net.cpp:156] Memory required for data: 1678951600
I0620 23:56:23.725575 19694 layer_factory.hpp:77] Creating layer sc_i_1_1
I0620 23:56:23.725595 19694 net.cpp:91] Creating Layer sc_i_1_1
I0620 23:56:23.725608 19694 net.cpp:425] sc_i_1_1 <- bn_i_1_1
I0620 23:56:23.725623 19694 net.cpp:399] sc_i_1_1 -> sc_i_1_1
I0620 23:56:23.725682 19694 layer_factory.hpp:77] Creating layer sc_i_1_1
I0620 23:56:23.725826 19694 net.cpp:141] Setting up sc_i_1_1
I0620 23:56:23.725854 19694 net.cpp:148] Top shape: 100 64 32 32 (6553600)
I0620 23:56:23.725864 19694 net.cpp:156] Memory required for data: 1705166000
I0620 23:56:23.725883 19694 layer_factory.hpp:77] Creating layer relu_i_1_1
I0620 23:56:23.725900 19694 net.cpp:91] Creating Layer relu_i_1_1
I0620 23:56:23.725914 19694 net.cpp:425] relu_i_1_1 <- sc_i_1_1
I0620 23:56:23.725927 19694 net.cpp:399] relu_i_1_1 -> relu_i_1_1
I0620 23:56:23.726344 19694 net.cpp:141] Setting up relu_i_1_1
I0620 23:56:23.726361 19694 net.cpp:148] Top shape: 100 64 32 32 (6553600)
I0620 23:56:23.726372 19694 net.cpp:156] Memory required for data: 1731380400
I0620 23:56:23.726395 19694 layer_factory.hpp:77] Creating layer conv_i_1_1
I0620 23:56:23.726418 19694 net.cpp:91] Creating Layer conv_i_1_1
I0620 23:56:23.726431 19694 net.cpp:425] conv_i_1_1 <- relu_i_1_1
I0620 23:56:23.726455 19694 net.cpp:399] conv_i_1_1 -> conv_i_1_1
I0620 23:56:23.729985 19694 net.cpp:141] Setting up conv_i_1_1
I0620 23:56:23.730005 19694 net.cpp:148] Top shape: 100 128 16 16 (3276800)
I0620 23:56:23.730028 19694 net.cpp:156] Memory required for data: 1744487600
I0620 23:56:23.730046 19694 layer_factory.hpp:77] Creating layer bn_i_1_2
I0620 23:56:23.730073 19694 net.cpp:91] Creating Layer bn_i_1_2
I0620 23:56:23.730087 19694 net.cpp:425] bn_i_1_2 <- conv_i_1_1
I0620 23:56:23.730103 19694 net.cpp:399] bn_i_1_2 -> bn_i_1_2
I0620 23:56:23.730295 19694 net.cpp:141] Setting up bn_i_1_2
I0620 23:56:23.730311 19694 net.cpp:148] Top shape: 100 128 16 16 (3276800)
I0620 23:56:23.730321 19694 net.cpp:156] Memory required for data: 1757594800
I0620 23:56:23.730341 19694 layer_factory.hpp:77] Creating layer sc_i_1_2
I0620 23:56:23.730357 19694 net.cpp:91] Creating Layer sc_i_1_2
I0620 23:56:23.730370 19694 net.cpp:425] sc_i_1_2 <- bn_i_1_2
I0620 23:56:23.730386 19694 net.cpp:399] sc_i_1_2 -> sc_i_1_2
I0620 23:56:23.730444 19694 layer_factory.hpp:77] Creating layer sc_i_1_2
I0620 23:56:23.730556 19694 net.cpp:141] Setting up sc_i_1_2
I0620 23:56:23.730572 19694 net.cpp:148] Top shape: 100 128 16 16 (3276800)
I0620 23:56:23.730582 19694 net.cpp:156] Memory required for data: 1770702000
I0620 23:56:23.730599 19694 layer_factory.hpp:77] Creating layer relu_i_1_2
I0620 23:56:23.730615 19694 net.cpp:91] Creating Layer relu_i_1_2
I0620 23:56:23.730629 19694 net.cpp:425] relu_i_1_2 <- sc_i_1_2
I0620 23:56:23.730646 19694 net.cpp:399] relu_i_1_2 -> relu_i_1_2
I0620 23:56:23.730892 19694 net.cpp:141] Setting up relu_i_1_2
I0620 23:56:23.730911 19694 net.cpp:148] Top shape: 100 128 16 16 (3276800)
I0620 23:56:23.730921 19694 net.cpp:156] Memory required for data: 1783809200
I0620 23:56:23.730932 19694 layer_factory.hpp:77] Creating layer conv_i_1_2
I0620 23:56:23.730954 19694 net.cpp:91] Creating Layer conv_i_1_2
I0620 23:56:23.730968 19694 net.cpp:425] conv_i_1_2 <- relu_i_1_2
I0620 23:56:23.730989 19694 net.cpp:399] conv_i_1_2 -> conv_i_1_2
I0620 23:56:23.736037 19694 net.cpp:141] Setting up conv_i_1_2
I0620 23:56:23.736068 19694 net.cpp:148] Top shape: 100 128 16 16 (3276800)
I0620 23:56:23.736078 19694 net.cpp:156] Memory required for data: 1796916400
I0620 23:56:23.736095 19694 layer_factory.hpp:77] Creating layer res_i
I0620 23:56:23.736140 19694 net.cpp:91] Creating Layer res_i
I0620 23:56:23.736153 19694 net.cpp:425] res_i <- elt_c_1_elt_c_1_0_split_3
I0620 23:56:23.736173 19694 net.cpp:399] res_i -> res_i
I0620 23:56:23.737452 19694 net.cpp:141] Setting up res_i
I0620 23:56:23.737470 19694 net.cpp:148] Top shape: 100 128 16 16 (3276800)
I0620 23:56:23.737493 19694 net.cpp:156] Memory required for data: 1810023600
I0620 23:56:23.737532 19694 layer_factory.hpp:77] Creating layer elt_i_1
I0620 23:56:23.737551 19694 net.cpp:91] Creating Layer elt_i_1
I0620 23:56:23.737570 19694 net.cpp:425] elt_i_1 <- res_i
I0620 23:56:23.737584 19694 net.cpp:425] elt_i_1 <- conv_i_1_2
I0620 23:56:23.737601 19694 net.cpp:399] elt_i_1 -> elt_i_1
I0620 23:56:23.737638 19694 net.cpp:141] Setting up elt_i_1
I0620 23:56:23.737653 19694 net.cpp:148] Top shape: 100 128 16 16 (3276800)
I0620 23:56:23.737663 19694 net.cpp:156] Memory required for data: 1823130800
I0620 23:56:23.737699 19694 layer_factory.hpp:77] Creating layer elt_d_f
I0620 23:56:23.737715 19694 net.cpp:91] Creating Layer elt_d_f
I0620 23:56:23.737728 19694 net.cpp:425] elt_d_f <- elt_d_1
I0620 23:56:23.737740 19694 net.cpp:425] elt_d_f <- elt_f_1
I0620 23:56:23.737757 19694 net.cpp:399] elt_d_f -> elt_d_f
I0620 23:56:23.737798 19694 net.cpp:141] Setting up elt_d_f
I0620 23:56:23.737818 19694 net.cpp:148] Top shape: 100 128 16 16 (3276800)
I0620 23:56:23.737830 19694 net.cpp:156] Memory required for data: 1836238000
I0620 23:56:23.737840 19694 layer_factory.hpp:77] Creating layer elt_d_f_elt_d_f_0_split
I0620 23:56:23.737854 19694 net.cpp:91] Creating Layer elt_d_f_elt_d_f_0_split
I0620 23:56:23.737866 19694 net.cpp:425] elt_d_f_elt_d_f_0_split <- elt_d_f
I0620 23:56:23.737881 19694 net.cpp:399] elt_d_f_elt_d_f_0_split -> elt_d_f_elt_d_f_0_split_0
I0620 23:56:23.737900 19694 net.cpp:399] elt_d_f_elt_d_f_0_split -> elt_d_f_elt_d_f_0_split_1
I0620 23:56:23.737956 19694 net.cpp:141] Setting up elt_d_f_elt_d_f_0_split
I0620 23:56:23.737970 19694 net.cpp:148] Top shape: 100 128 16 16 (3276800)
I0620 23:56:23.737982 19694 net.cpp:148] Top shape: 100 128 16 16 (3276800)
I0620 23:56:23.737993 19694 net.cpp:156] Memory required for data: 1862452400
I0620 23:56:23.738003 19694 layer_factory.hpp:77] Creating layer elt_g_i
I0620 23:56:23.738025 19694 net.cpp:91] Creating Layer elt_g_i
I0620 23:56:23.738039 19694 net.cpp:425] elt_g_i <- elt_g_1
I0620 23:56:23.738050 19694 net.cpp:425] elt_g_i <- elt_i_1
I0620 23:56:23.738070 19694 net.cpp:399] elt_g_i -> elt_g_i
I0620 23:56:23.738111 19694 net.cpp:141] Setting up elt_g_i
I0620 23:56:23.738126 19694 net.cpp:148] Top shape: 100 128 16 16 (3276800)
I0620 23:56:23.738137 19694 net.cpp:156] Memory required for data: 1875559600
I0620 23:56:23.738147 19694 layer_factory.hpp:77] Creating layer elt_g_i_elt_g_i_0_split
I0620 23:56:23.738159 19694 net.cpp:91] Creating Layer elt_g_i_elt_g_i_0_split
I0620 23:56:23.738173 19694 net.cpp:425] elt_g_i_elt_g_i_0_split <- elt_g_i
I0620 23:56:23.738186 19694 net.cpp:399] elt_g_i_elt_g_i_0_split -> elt_g_i_elt_g_i_0_split_0
I0620 23:56:23.738207 19694 net.cpp:399] elt_g_i_elt_g_i_0_split -> elt_g_i_elt_g_i_0_split_1
I0620 23:56:23.738256 19694 net.cpp:141] Setting up elt_g_i_elt_g_i_0_split
I0620 23:56:23.738271 19694 net.cpp:148] Top shape: 100 128 16 16 (3276800)
I0620 23:56:23.738284 19694 net.cpp:148] Top shape: 100 128 16 16 (3276800)
I0620 23:56:23.738296 19694 net.cpp:156] Memory required for data: 1901774000
I0620 23:56:23.738306 19694 layer_factory.hpp:77] Creating layer bn_j_1_1
I0620 23:56:23.738322 19694 net.cpp:91] Creating Layer bn_j_1_1
I0620 23:56:23.738334 19694 net.cpp:425] bn_j_1_1 <- elt_d_f_elt_d_f_0_split_0
I0620 23:56:23.738349 19694 net.cpp:399] bn_j_1_1 -> bn_j_1_1
I0620 23:56:23.738534 19694 net.cpp:141] Setting up bn_j_1_1
I0620 23:56:23.738550 19694 net.cpp:148] Top shape: 100 128 16 16 (3276800)
I0620 23:56:23.738560 19694 net.cpp:156] Memory required for data: 1914881200
I0620 23:56:23.738579 19694 layer_factory.hpp:77] Creating layer sc_j_1_1
I0620 23:56:23.738595 19694 net.cpp:91] Creating Layer sc_j_1_1
I0620 23:56:23.738607 19694 net.cpp:425] sc_j_1_1 <- bn_j_1_1
I0620 23:56:23.738622 19694 net.cpp:399] sc_j_1_1 -> sc_j_1_1
I0620 23:56:23.738682 19694 layer_factory.hpp:77] Creating layer sc_j_1_1
I0620 23:56:23.738803 19694 net.cpp:141] Setting up sc_j_1_1
I0620 23:56:23.738819 19694 net.cpp:148] Top shape: 100 128 16 16 (3276800)
I0620 23:56:23.738829 19694 net.cpp:156] Memory required for data: 1927988400
I0620 23:56:23.738847 19694 layer_factory.hpp:77] Creating layer relu_j_1_1
I0620 23:56:23.738867 19694 net.cpp:91] Creating Layer relu_j_1_1
I0620 23:56:23.738879 19694 net.cpp:425] relu_j_1_1 <- sc_j_1_1
I0620 23:56:23.738893 19694 net.cpp:399] relu_j_1_1 -> relu_j_1_1
I0620 23:56:23.739105 19694 net.cpp:141] Setting up relu_j_1_1
I0620 23:56:23.739122 19694 net.cpp:148] Top shape: 100 128 16 16 (3276800)
I0620 23:56:23.739132 19694 net.cpp:156] Memory required for data: 1941095600
I0620 23:56:23.739159 19694 layer_factory.hpp:77] Creating layer conv_j_1_1
I0620 23:56:23.739187 19694 net.cpp:91] Creating Layer conv_j_1_1
I0620 23:56:23.739198 19694 net.cpp:425] conv_j_1_1 <- relu_j_1_1
I0620 23:56:23.739215 19694 net.cpp:399] conv_j_1_1 -> conv_j_1_1
I0620 23:56:23.748564 19694 net.cpp:141] Setting up conv_j_1_1
I0620 23:56:23.748582 19694 net.cpp:148] Top shape: 100 256 8 8 (1638400)
I0620 23:56:23.748605 19694 net.cpp:156] Memory required for data: 1947649200
I0620 23:56:23.748622 19694 layer_factory.hpp:77] Creating layer bn_j_1_2
I0620 23:56:23.748642 19694 net.cpp:91] Creating Layer bn_j_1_2
I0620 23:56:23.748656 19694 net.cpp:425] bn_j_1_2 <- conv_j_1_1
I0620 23:56:23.748675 19694 net.cpp:399] bn_j_1_2 -> bn_j_1_2
I0620 23:56:23.748878 19694 net.cpp:141] Setting up bn_j_1_2
I0620 23:56:23.748895 19694 net.cpp:148] Top shape: 100 256 8 8 (1638400)
I0620 23:56:23.748905 19694 net.cpp:156] Memory required for data: 1954202800
I0620 23:56:23.748924 19694 layer_factory.hpp:77] Creating layer sc_j_1_2
I0620 23:56:23.748941 19694 net.cpp:91] Creating Layer sc_j_1_2
I0620 23:56:23.748956 19694 net.cpp:425] sc_j_1_2 <- bn_j_1_2
I0620 23:56:23.748978 19694 net.cpp:399] sc_j_1_2 -> sc_j_1_2
I0620 23:56:23.749039 19694 layer_factory.hpp:77] Creating layer sc_j_1_2
I0620 23:56:23.749162 19694 net.cpp:141] Setting up sc_j_1_2
I0620 23:56:23.749178 19694 net.cpp:148] Top shape: 100 256 8 8 (1638400)
I0620 23:56:23.749188 19694 net.cpp:156] Memory required for data: 1960756400
I0620 23:56:23.749205 19694 layer_factory.hpp:77] Creating layer relu_j_1_2
I0620 23:56:23.749225 19694 net.cpp:91] Creating Layer relu_j_1_2
I0620 23:56:23.749238 19694 net.cpp:425] relu_j_1_2 <- sc_j_1_2
I0620 23:56:23.749259 19694 net.cpp:399] relu_j_1_2 -> relu_j_1_2
I0620 23:56:23.749588 19694 net.cpp:141] Setting up relu_j_1_2
I0620 23:56:23.749619 19694 net.cpp:148] Top shape: 100 256 8 8 (1638400)
I0620 23:56:23.749629 19694 net.cpp:156] Memory required for data: 1967310000
I0620 23:56:23.749639 19694 layer_factory.hpp:77] Creating layer conv_j_1_2
I0620 23:56:23.749661 19694 net.cpp:91] Creating Layer conv_j_1_2
I0620 23:56:23.749691 19694 net.cpp:425] conv_j_1_2 <- relu_j_1_2
I0620 23:56:23.749712 19694 net.cpp:399] conv_j_1_2 -> conv_j_1_2
I0620 23:56:23.767241 19694 net.cpp:141] Setting up conv_j_1_2
I0620 23:56:23.767261 19694 net.cpp:148] Top shape: 100 256 8 8 (1638400)
I0620 23:56:23.767282 19694 net.cpp:156] Memory required for data: 1973863600
I0620 23:56:23.767300 19694 layer_factory.hpp:77] Creating layer res_j
I0620 23:56:23.767333 19694 net.cpp:91] Creating Layer res_j
I0620 23:56:23.767346 19694 net.cpp:425] res_j <- elt_d_f_elt_d_f_0_split_1
I0620 23:56:23.767366 19694 net.cpp:399] res_j -> res_j
I0620 23:56:23.769191 19694 net.cpp:141] Setting up res_j
I0620 23:56:23.769210 19694 net.cpp:148] Top shape: 100 256 8 8 (1638400)
I0620 23:56:23.769232 19694 net.cpp:156] Memory required for data: 1980417200
I0620 23:56:23.769249 19694 layer_factory.hpp:77] Creating layer elt_j_1
I0620 23:56:23.769278 19694 net.cpp:91] Creating Layer elt_j_1
I0620 23:56:23.769291 19694 net.cpp:425] elt_j_1 <- res_j
I0620 23:56:23.769304 19694 net.cpp:425] elt_j_1 <- conv_j_1_2
I0620 23:56:23.769330 19694 net.cpp:399] elt_j_1 -> elt_j_1
I0620 23:56:23.769372 19694 net.cpp:141] Setting up elt_j_1
I0620 23:56:23.769387 19694 net.cpp:148] Top shape: 100 256 8 8 (1638400)
I0620 23:56:23.769397 19694 net.cpp:156] Memory required for data: 1986970800
I0620 23:56:23.769407 19694 layer_factory.hpp:77] Creating layer bn_e_1_1
I0620 23:56:23.769425 19694 net.cpp:91] Creating Layer bn_e_1_1
I0620 23:56:23.769438 19694 net.cpp:425] bn_e_1_1 <- elt_a_1_elt_a_1_0_split_2
I0620 23:56:23.769455 19694 net.cpp:399] bn_e_1_1 -> bn_e_1_1
I0620 23:56:23.769668 19694 net.cpp:141] Setting up bn_e_1_1
I0620 23:56:23.769685 19694 net.cpp:148] Top shape: 100 64 32 32 (6553600)
I0620 23:56:23.769695 19694 net.cpp:156] Memory required for data: 2013185200
I0620 23:56:23.769714 19694 layer_factory.hpp:77] Creating layer sc_e_1_1
I0620 23:56:23.769731 19694 net.cpp:91] Creating Layer sc_e_1_1
I0620 23:56:23.769757 19694 net.cpp:425] sc_e_1_1 <- bn_e_1_1
I0620 23:56:23.769781 19694 net.cpp:399] sc_e_1_1 -> sc_e_1_1
I0620 23:56:23.769846 19694 layer_factory.hpp:77] Creating layer sc_e_1_1
I0620 23:56:23.769994 19694 net.cpp:141] Setting up sc_e_1_1
I0620 23:56:23.770009 19694 net.cpp:148] Top shape: 100 64 32 32 (6553600)
I0620 23:56:23.770020 19694 net.cpp:156] Memory required for data: 2039399600
I0620 23:56:23.770036 19694 layer_factory.hpp:77] Creating layer relu_e_1_1
I0620 23:56:23.770056 19694 net.cpp:91] Creating Layer relu_e_1_1
I0620 23:56:23.770076 19694 net.cpp:425] relu_e_1_1 <- sc_e_1_1
I0620 23:56:23.770089 19694 net.cpp:399] relu_e_1_1 -> relu_e_1_1
I0620 23:56:23.770426 19694 net.cpp:141] Setting up relu_e_1_1
I0620 23:56:23.770443 19694 net.cpp:148] Top shape: 100 64 32 32 (6553600)
I0620 23:56:23.770454 19694 net.cpp:156] Memory required for data: 2065614000
I0620 23:56:23.770464 19694 layer_factory.hpp:77] Creating layer conv_e_1_1
I0620 23:56:23.770489 19694 net.cpp:91] Creating Layer conv_e_1_1
I0620 23:56:23.770503 19694 net.cpp:425] conv_e_1_1 <- relu_e_1_1
I0620 23:56:23.770519 19694 net.cpp:399] conv_e_1_1 -> conv_e_1_1
I0620 23:56:23.774005 19694 net.cpp:141] Setting up conv_e_1_1
I0620 23:56:23.774027 19694 net.cpp:148] Top shape: 100 128 16 16 (3276800)
I0620 23:56:23.774050 19694 net.cpp:156] Memory required for data: 2078721200
I0620 23:56:23.774068 19694 layer_factory.hpp:77] Creating layer bn_e_1_2
I0620 23:56:23.774091 19694 net.cpp:91] Creating Layer bn_e_1_2
I0620 23:56:23.774103 19694 net.cpp:425] bn_e_1_2 <- conv_e_1_1
I0620 23:56:23.774123 19694 net.cpp:399] bn_e_1_2 -> bn_e_1_2
I0620 23:56:23.774319 19694 net.cpp:141] Setting up bn_e_1_2
I0620 23:56:23.774335 19694 net.cpp:148] Top shape: 100 128 16 16 (3276800)
I0620 23:56:23.774345 19694 net.cpp:156] Memory required for data: 2091828400
I0620 23:56:23.774366 19694 layer_factory.hpp:77] Creating layer sc_e_1_2
I0620 23:56:23.774382 19694 net.cpp:91] Creating Layer sc_e_1_2
I0620 23:56:23.774394 19694 net.cpp:425] sc_e_1_2 <- bn_e_1_2
I0620 23:56:23.774413 19694 net.cpp:399] sc_e_1_2 -> sc_e_1_2
I0620 23:56:23.774469 19694 layer_factory.hpp:77] Creating layer sc_e_1_2
I0620 23:56:23.774585 19694 net.cpp:141] Setting up sc_e_1_2
I0620 23:56:23.774601 19694 net.cpp:148] Top shape: 100 128 16 16 (3276800)
I0620 23:56:23.774610 19694 net.cpp:156] Memory required for data: 2104935600
I0620 23:56:23.774626 19694 layer_factory.hpp:77] Creating layer relu_e_1_2
I0620 23:56:23.774646 19694 net.cpp:91] Creating Layer relu_e_1_2
I0620 23:56:23.774659 19694 net.cpp:425] relu_e_1_2 <- sc_e_1_2
I0620 23:56:23.774673 19694 net.cpp:399] relu_e_1_2 -> relu_e_1_2
I0620 23:56:23.774899 19694 net.cpp:141] Setting up relu_e_1_2
I0620 23:56:23.774914 19694 net.cpp:148] Top shape: 100 128 16 16 (3276800)
I0620 23:56:23.774919 19694 net.cpp:156] Memory required for data: 2118042800
I0620 23:56:23.774924 19694 layer_factory.hpp:77] Creating layer conv_e_1_2
I0620 23:56:23.774938 19694 net.cpp:91] Creating Layer conv_e_1_2
I0620 23:56:23.774945 19694 net.cpp:425] conv_e_1_2 <- relu_e_1_2
I0620 23:56:23.774956 19694 net.cpp:399] conv_e_1_2 -> conv_e_1_2
I0620 23:56:23.779881 19694 net.cpp:141] Setting up conv_e_1_2
I0620 23:56:23.779896 19694 net.cpp:148] Top shape: 100 128 16 16 (3276800)
I0620 23:56:23.779914 19694 net.cpp:156] Memory required for data: 2131150000
I0620 23:56:23.779924 19694 layer_factory.hpp:77] Creating layer res_e
I0620 23:56:23.779942 19694 net.cpp:91] Creating Layer res_e
I0620 23:56:23.779949 19694 net.cpp:425] res_e <- elt_a_1_elt_a_1_0_split_3
I0620 23:56:23.779959 19694 net.cpp:399] res_e -> res_e
I0620 23:56:23.781222 19694 net.cpp:141] Setting up res_e
I0620 23:56:23.781237 19694 net.cpp:148] Top shape: 100 128 16 16 (3276800)
I0620 23:56:23.781260 19694 net.cpp:156] Memory required for data: 2144257200
I0620 23:56:23.781270 19694 layer_factory.hpp:77] Creating layer elt_e_1
I0620 23:56:23.781282 19694 net.cpp:91] Creating Layer elt_e_1
I0620 23:56:23.781289 19694 net.cpp:425] elt_e_1 <- res_e
I0620 23:56:23.781311 19694 net.cpp:425] elt_e_1 <- conv_e_1_2
I0620 23:56:23.781327 19694 net.cpp:399] elt_e_1 -> elt_e_1
I0620 23:56:23.781368 19694 net.cpp:141] Setting up elt_e_1
I0620 23:56:23.781381 19694 net.cpp:148] Top shape: 100 128 16 16 (3276800)
I0620 23:56:23.781388 19694 net.cpp:156] Memory required for data: 2157364400
I0620 23:56:23.781394 19694 layer_factory.hpp:77] Creating layer elt_e_h
I0620 23:56:23.781400 19694 net.cpp:91] Creating Layer elt_e_h
I0620 23:56:23.781407 19694 net.cpp:425] elt_e_h <- elt_e_1
I0620 23:56:23.781414 19694 net.cpp:425] elt_e_h <- elt_h_1
I0620 23:56:23.781420 19694 net.cpp:399] elt_e_h -> elt_e_h
I0620 23:56:23.781450 19694 net.cpp:141] Setting up elt_e_h
I0620 23:56:23.781461 19694 net.cpp:148] Top shape: 100 128 16 16 (3276800)
I0620 23:56:23.781467 19694 net.cpp:156] Memory required for data: 2170471600
I0620 23:56:23.781472 19694 layer_factory.hpp:77] Creating layer elt_e_h_elt_e_h_0_split
I0620 23:56:23.781481 19694 net.cpp:91] Creating Layer elt_e_h_elt_e_h_0_split
I0620 23:56:23.781487 19694 net.cpp:425] elt_e_h_elt_e_h_0_split <- elt_e_h
I0620 23:56:23.781494 19694 net.cpp:399] elt_e_h_elt_e_h_0_split -> elt_e_h_elt_e_h_0_split_0
I0620 23:56:23.781502 19694 net.cpp:399] elt_e_h_elt_e_h_0_split -> elt_e_h_elt_e_h_0_split_1
I0620 23:56:23.781543 19694 net.cpp:141] Setting up elt_e_h_elt_e_h_0_split
I0620 23:56:23.781553 19694 net.cpp:148] Top shape: 100 128 16 16 (3276800)
I0620 23:56:23.781560 19694 net.cpp:148] Top shape: 100 128 16 16 (3276800)
I0620 23:56:23.781564 19694 net.cpp:156] Memory required for data: 2196686000
I0620 23:56:23.781569 19694 layer_factory.hpp:77] Creating layer bn_k_1_1
I0620 23:56:23.781577 19694 net.cpp:91] Creating Layer bn_k_1_1
I0620 23:56:23.781584 19694 net.cpp:425] bn_k_1_1 <- elt_e_h_elt_e_h_0_split_0
I0620 23:56:23.781592 19694 net.cpp:399] bn_k_1_1 -> bn_k_1_1
I0620 23:56:23.781765 19694 net.cpp:141] Setting up bn_k_1_1
I0620 23:56:23.781777 19694 net.cpp:148] Top shape: 100 128 16 16 (3276800)
I0620 23:56:23.781783 19694 net.cpp:156] Memory required for data: 2209793200
I0620 23:56:23.781792 19694 layer_factory.hpp:77] Creating layer sc_k_1_1
I0620 23:56:23.781806 19694 net.cpp:91] Creating Layer sc_k_1_1
I0620 23:56:23.781815 19694 net.cpp:425] sc_k_1_1 <- bn_k_1_1
I0620 23:56:23.781821 19694 net.cpp:399] sc_k_1_1 -> sc_k_1_1
I0620 23:56:23.781867 19694 layer_factory.hpp:77] Creating layer sc_k_1_1
I0620 23:56:23.781973 19694 net.cpp:141] Setting up sc_k_1_1
I0620 23:56:23.781985 19694 net.cpp:148] Top shape: 100 128 16 16 (3276800)
I0620 23:56:23.781991 19694 net.cpp:156] Memory required for data: 2222900400
I0620 23:56:23.781999 19694 layer_factory.hpp:77] Creating layer relu_k_1_1
I0620 23:56:23.782007 19694 net.cpp:91] Creating Layer relu_k_1_1
I0620 23:56:23.782014 19694 net.cpp:425] relu_k_1_1 <- sc_k_1_1
I0620 23:56:23.782021 19694 net.cpp:399] relu_k_1_1 -> relu_k_1_1
I0620 23:56:23.782222 19694 net.cpp:141] Setting up relu_k_1_1
I0620 23:56:23.782235 19694 net.cpp:148] Top shape: 100 128 16 16 (3276800)
I0620 23:56:23.782241 19694 net.cpp:156] Memory required for data: 2236007600
I0620 23:56:23.782246 19694 layer_factory.hpp:77] Creating layer conv_k_1_1
I0620 23:56:23.782259 19694 net.cpp:91] Creating Layer conv_k_1_1
I0620 23:56:23.782266 19694 net.cpp:425] conv_k_1_1 <- relu_k_1_1
I0620 23:56:23.782277 19694 net.cpp:399] conv_k_1_1 -> conv_k_1_1
I0620 23:56:23.791745 19694 net.cpp:141] Setting up conv_k_1_1
I0620 23:56:23.791764 19694 net.cpp:148] Top shape: 100 256 8 8 (1638400)
I0620 23:56:23.791785 19694 net.cpp:156] Memory required for data: 2242561200
I0620 23:56:23.791795 19694 layer_factory.hpp:77] Creating layer bn_k_1_2
I0620 23:56:23.791805 19694 net.cpp:91] Creating Layer bn_k_1_2
I0620 23:56:23.791813 19694 net.cpp:425] bn_k_1_2 <- conv_k_1_1
I0620 23:56:23.791824 19694 net.cpp:399] bn_k_1_2 -> bn_k_1_2
I0620 23:56:23.792021 19694 net.cpp:141] Setting up bn_k_1_2
I0620 23:56:23.792032 19694 net.cpp:148] Top shape: 100 256 8 8 (1638400)
I0620 23:56:23.792037 19694 net.cpp:156] Memory required for data: 2249114800
I0620 23:56:23.792069 19694 layer_factory.hpp:77] Creating layer sc_k_1_2
I0620 23:56:23.792083 19694 net.cpp:91] Creating Layer sc_k_1_2
I0620 23:56:23.792090 19694 net.cpp:425] sc_k_1_2 <- bn_k_1_2
I0620 23:56:23.792098 19694 net.cpp:399] sc_k_1_2 -> sc_k_1_2
I0620 23:56:23.792145 19694 layer_factory.hpp:77] Creating layer sc_k_1_2
I0620 23:56:23.792258 19694 net.cpp:141] Setting up sc_k_1_2
I0620 23:56:23.792268 19694 net.cpp:148] Top shape: 100 256 8 8 (1638400)
I0620 23:56:23.792274 19694 net.cpp:156] Memory required for data: 2255668400
I0620 23:56:23.792284 19694 layer_factory.hpp:77] Creating layer relu_k_1_2
I0620 23:56:23.792291 19694 net.cpp:91] Creating Layer relu_k_1_2
I0620 23:56:23.792297 19694 net.cpp:425] relu_k_1_2 <- sc_k_1_2
I0620 23:56:23.792307 19694 net.cpp:399] relu_k_1_2 -> relu_k_1_2
I0620 23:56:23.792641 19694 net.cpp:141] Setting up relu_k_1_2
I0620 23:56:23.792657 19694 net.cpp:148] Top shape: 100 256 8 8 (1638400)
I0620 23:56:23.792665 19694 net.cpp:156] Memory required for data: 2262222000
I0620 23:56:23.792670 19694 layer_factory.hpp:77] Creating layer conv_k_1_2
I0620 23:56:23.792682 19694 net.cpp:91] Creating Layer conv_k_1_2
I0620 23:56:23.792690 19694 net.cpp:425] conv_k_1_2 <- relu_k_1_2
I0620 23:56:23.792701 19694 net.cpp:399] conv_k_1_2 -> conv_k_1_2
I0620 23:56:23.810256 19694 net.cpp:141] Setting up conv_k_1_2
I0620 23:56:23.810272 19694 net.cpp:148] Top shape: 100 256 8 8 (1638400)
I0620 23:56:23.810295 19694 net.cpp:156] Memory required for data: 2268775600
I0620 23:56:23.810304 19694 layer_factory.hpp:77] Creating layer res_k
I0620 23:56:23.810319 19694 net.cpp:91] Creating Layer res_k
I0620 23:56:23.810328 19694 net.cpp:425] res_k <- elt_e_h_elt_e_h_0_split_1
I0620 23:56:23.810338 19694 net.cpp:399] res_k -> res_k
I0620 23:56:23.812176 19694 net.cpp:141] Setting up res_k
I0620 23:56:23.812191 19694 net.cpp:148] Top shape: 100 256 8 8 (1638400)
I0620 23:56:23.812214 19694 net.cpp:156] Memory required for data: 2275329200
I0620 23:56:23.812223 19694 layer_factory.hpp:77] Creating layer elt_k_1
I0620 23:56:23.812237 19694 net.cpp:91] Creating Layer elt_k_1
I0620 23:56:23.812244 19694 net.cpp:425] elt_k_1 <- res_k
I0620 23:56:23.812250 19694 net.cpp:425] elt_k_1 <- conv_k_1_2
I0620 23:56:23.812258 19694 net.cpp:399] elt_k_1 -> elt_k_1
I0620 23:56:23.812291 19694 net.cpp:141] Setting up elt_k_1
I0620 23:56:23.812302 19694 net.cpp:148] Top shape: 100 256 8 8 (1638400)
I0620 23:56:23.812307 19694 net.cpp:156] Memory required for data: 2281882800
I0620 23:56:23.812312 19694 layer_factory.hpp:77] Creating layer bn_l_1_1
I0620 23:56:23.812324 19694 net.cpp:91] Creating Layer bn_l_1_1
I0620 23:56:23.812332 19694 net.cpp:425] bn_l_1_1 <- elt_g_i_elt_g_i_0_split_0
I0620 23:56:23.812340 19694 net.cpp:399] bn_l_1_1 -> bn_l_1_1
I0620 23:56:23.812531 19694 net.cpp:141] Setting up bn_l_1_1
I0620 23:56:23.812542 19694 net.cpp:148] Top shape: 100 128 16 16 (3276800)
I0620 23:56:23.812548 19694 net.cpp:156] Memory required for data: 2294990000
I0620 23:56:23.812558 19694 layer_factory.hpp:77] Creating layer sc_l_1_1
I0620 23:56:23.812567 19694 net.cpp:91] Creating Layer sc_l_1_1
I0620 23:56:23.812574 19694 net.cpp:425] sc_l_1_1 <- bn_l_1_1
I0620 23:56:23.812582 19694 net.cpp:399] sc_l_1_1 -> sc_l_1_1
I0620 23:56:23.812630 19694 layer_factory.hpp:77] Creating layer sc_l_1_1
I0620 23:56:23.812741 19694 net.cpp:141] Setting up sc_l_1_1
I0620 23:56:23.812752 19694 net.cpp:148] Top shape: 100 128 16 16 (3276800)
I0620 23:56:23.812757 19694 net.cpp:156] Memory required for data: 2308097200
I0620 23:56:23.812765 19694 layer_factory.hpp:77] Creating layer relu_l_1_1
I0620 23:56:23.812775 19694 net.cpp:91] Creating Layer relu_l_1_1
I0620 23:56:23.812783 19694 net.cpp:425] relu_l_1_1 <- sc_l_1_1
I0620 23:56:23.812789 19694 net.cpp:399] relu_l_1_1 -> relu_l_1_1
I0620 23:56:23.813117 19694 net.cpp:141] Setting up relu_l_1_1
I0620 23:56:23.813133 19694 net.cpp:148] Top shape: 100 128 16 16 (3276800)
I0620 23:56:23.813139 19694 net.cpp:156] Memory required for data: 2321204400
I0620 23:56:23.813159 19694 layer_factory.hpp:77] Creating layer conv_l_1_1
I0620 23:56:23.813184 19694 net.cpp:91] Creating Layer conv_l_1_1
I0620 23:56:23.813191 19694 net.cpp:425] conv_l_1_1 <- relu_l_1_1
I0620 23:56:23.813200 19694 net.cpp:399] conv_l_1_1 -> conv_l_1_1
I0620 23:56:23.822562 19694 net.cpp:141] Setting up conv_l_1_1
I0620 23:56:23.822578 19694 net.cpp:148] Top shape: 100 256 8 8 (1638400)
I0620 23:56:23.822602 19694 net.cpp:156] Memory required for data: 2327758000
I0620 23:56:23.822610 19694 layer_factory.hpp:77] Creating layer bn_l_1_2
I0620 23:56:23.822624 19694 net.cpp:91] Creating Layer bn_l_1_2
I0620 23:56:23.822631 19694 net.cpp:425] bn_l_1_2 <- conv_l_1_1
I0620 23:56:23.822639 19694 net.cpp:399] bn_l_1_2 -> bn_l_1_2
I0620 23:56:23.822852 19694 net.cpp:141] Setting up bn_l_1_2
I0620 23:56:23.822865 19694 net.cpp:148] Top shape: 100 256 8 8 (1638400)
I0620 23:56:23.822870 19694 net.cpp:156] Memory required for data: 2334311600
I0620 23:56:23.822880 19694 layer_factory.hpp:77] Creating layer sc_l_1_2
I0620 23:56:23.822908 19694 net.cpp:91] Creating Layer sc_l_1_2
I0620 23:56:23.822916 19694 net.cpp:425] sc_l_1_2 <- bn_l_1_2
I0620 23:56:23.822924 19694 net.cpp:399] sc_l_1_2 -> sc_l_1_2
I0620 23:56:23.822975 19694 layer_factory.hpp:77] Creating layer sc_l_1_2
I0620 23:56:23.823093 19694 net.cpp:141] Setting up sc_l_1_2
I0620 23:56:23.823104 19694 net.cpp:148] Top shape: 100 256 8 8 (1638400)
I0620 23:56:23.823109 19694 net.cpp:156] Memory required for data: 2340865200
I0620 23:56:23.823118 19694 layer_factory.hpp:77] Creating layer relu_l_1_2
I0620 23:56:23.823127 19694 net.cpp:91] Creating Layer relu_l_1_2
I0620 23:56:23.823133 19694 net.cpp:425] relu_l_1_2 <- sc_l_1_2
I0620 23:56:23.823143 19694 net.cpp:399] relu_l_1_2 -> relu_l_1_2
I0620 23:56:23.823354 19694 net.cpp:141] Setting up relu_l_1_2
I0620 23:56:23.823369 19694 net.cpp:148] Top shape: 100 256 8 8 (1638400)
I0620 23:56:23.823374 19694 net.cpp:156] Memory required for data: 2347418800
I0620 23:56:23.823379 19694 layer_factory.hpp:77] Creating layer conv_l_1_2
I0620 23:56:23.823392 19694 net.cpp:91] Creating Layer conv_l_1_2
I0620 23:56:23.823400 19694 net.cpp:425] conv_l_1_2 <- relu_l_1_2
I0620 23:56:23.823410 19694 net.cpp:399] conv_l_1_2 -> conv_l_1_2
I0620 23:56:23.840869 19694 net.cpp:141] Setting up conv_l_1_2
I0620 23:56:23.840885 19694 net.cpp:148] Top shape: 100 256 8 8 (1638400)
I0620 23:56:23.840909 19694 net.cpp:156] Memory required for data: 2353972400
I0620 23:56:23.840919 19694 layer_factory.hpp:77] Creating layer res_l
I0620 23:56:23.840934 19694 net.cpp:91] Creating Layer res_l
I0620 23:56:23.840942 19694 net.cpp:425] res_l <- elt_g_i_elt_g_i_0_split_1
I0620 23:56:23.840951 19694 net.cpp:399] res_l -> res_l
I0620 23:56:23.842900 19694 net.cpp:141] Setting up res_l
I0620 23:56:23.842914 19694 net.cpp:148] Top shape: 100 256 8 8 (1638400)
I0620 23:56:23.842938 19694 net.cpp:156] Memory required for data: 2360526000
I0620 23:56:23.842947 19694 layer_factory.hpp:77] Creating layer elt_l_1
I0620 23:56:23.842957 19694 net.cpp:91] Creating Layer elt_l_1
I0620 23:56:23.842967 19694 net.cpp:425] elt_l_1 <- res_l
I0620 23:56:23.842975 19694 net.cpp:425] elt_l_1 <- conv_l_1_2
I0620 23:56:23.842983 19694 net.cpp:399] elt_l_1 -> elt_l_1
I0620 23:56:23.843016 19694 net.cpp:141] Setting up elt_l_1
I0620 23:56:23.843026 19694 net.cpp:148] Top shape: 100 256 8 8 (1638400)
I0620 23:56:23.843031 19694 net.cpp:156] Memory required for data: 2367079600
I0620 23:56:23.843036 19694 layer_factory.hpp:77] Creating layer elt_j_k_l
I0620 23:56:23.843046 19694 net.cpp:91] Creating Layer elt_j_k_l
I0620 23:56:23.843053 19694 net.cpp:425] elt_j_k_l <- elt_j_1
I0620 23:56:23.843060 19694 net.cpp:425] elt_j_k_l <- elt_k_1
I0620 23:56:23.843065 19694 net.cpp:425] elt_j_k_l <- elt_l_1
I0620 23:56:23.843073 19694 net.cpp:399] elt_j_k_l -> elt_j_k_l
I0620 23:56:23.843102 19694 net.cpp:141] Setting up elt_j_k_l
I0620 23:56:23.843112 19694 net.cpp:148] Top shape: 100 256 8 8 (1638400)
I0620 23:56:23.843118 19694 net.cpp:156] Memory required for data: 2373633200
I0620 23:56:23.843138 19694 layer_factory.hpp:77] Creating layer bn_m_1_1
I0620 23:56:23.843159 19694 net.cpp:91] Creating Layer bn_m_1_1
I0620 23:56:23.843168 19694 net.cpp:425] bn_m_1_1 <- elt_j_k_l
I0620 23:56:23.843176 19694 net.cpp:399] bn_m_1_1 -> bn_m_1_1
I0620 23:56:23.843372 19694 net.cpp:141] Setting up bn_m_1_1
I0620 23:56:23.843384 19694 net.cpp:148] Top shape: 100 256 8 8 (1638400)
I0620 23:56:23.843390 19694 net.cpp:156] Memory required for data: 2380186800
I0620 23:56:23.843400 19694 layer_factory.hpp:77] Creating layer sc_m_1_1
I0620 23:56:23.843410 19694 net.cpp:91] Creating Layer sc_m_1_1
I0620 23:56:23.843415 19694 net.cpp:425] sc_m_1_1 <- bn_m_1_1
I0620 23:56:23.843423 19694 net.cpp:399] sc_m_1_1 -> sc_m_1_1
I0620 23:56:23.843482 19694 layer_factory.hpp:77] Creating layer sc_m_1_1
I0620 23:56:23.843600 19694 net.cpp:141] Setting up sc_m_1_1
I0620 23:56:23.843612 19694 net.cpp:148] Top shape: 100 256 8 8 (1638400)
I0620 23:56:23.843617 19694 net.cpp:156] Memory required for data: 2386740400
I0620 23:56:23.843626 19694 layer_factory.hpp:77] Creating layer relu_m_1_1
I0620 23:56:23.843633 19694 net.cpp:91] Creating Layer relu_m_1_1
I0620 23:56:23.843641 19694 net.cpp:425] relu_m_1_1 <- sc_m_1_1
I0620 23:56:23.843652 19694 net.cpp:399] relu_m_1_1 -> relu_m_1_1
I0620 23:56:23.843861 19694 net.cpp:141] Setting up relu_m_1_1
I0620 23:56:23.843874 19694 net.cpp:148] Top shape: 100 256 8 8 (1638400)
I0620 23:56:23.843881 19694 net.cpp:156] Memory required for data: 2393294000
I0620 23:56:23.843886 19694 layer_factory.hpp:77] Creating layer gap
I0620 23:56:23.843897 19694 net.cpp:91] Creating Layer gap
I0620 23:56:23.843904 19694 net.cpp:425] gap <- relu_m_1_1
I0620 23:56:23.843911 19694 net.cpp:399] gap -> gap
I0620 23:56:23.844261 19694 net.cpp:141] Setting up gap
I0620 23:56:23.844275 19694 net.cpp:148] Top shape: 100 256 1 1 (25600)
I0620 23:56:23.844281 19694 net.cpp:156] Memory required for data: 2393396400
I0620 23:56:23.844286 19694 layer_factory.hpp:77] Creating layer ip1
I0620 23:56:23.844311 19694 net.cpp:91] Creating Layer ip1
I0620 23:56:23.844319 19694 net.cpp:425] ip1 <- gap
I0620 23:56:23.844329 19694 net.cpp:399] ip1 -> ip1
I0620 23:56:23.844537 19694 net.cpp:141] Setting up ip1
I0620 23:56:23.844550 19694 net.cpp:148] Top shape: 100 10 (1000)
I0620 23:56:23.844554 19694 net.cpp:156] Memory required for data: 2393400400
I0620 23:56:23.844563 19694 layer_factory.hpp:77] Creating layer ip1_ip1_0_split
I0620 23:56:23.844573 19694 net.cpp:91] Creating Layer ip1_ip1_0_split
I0620 23:56:23.844578 19694 net.cpp:425] ip1_ip1_0_split <- ip1
I0620 23:56:23.844584 19694 net.cpp:399] ip1_ip1_0_split -> ip1_ip1_0_split_0
I0620 23:56:23.844594 19694 net.cpp:399] ip1_ip1_0_split -> ip1_ip1_0_split_1
I0620 23:56:23.844640 19694 net.cpp:141] Setting up ip1_ip1_0_split
I0620 23:56:23.844650 19694 net.cpp:148] Top shape: 100 10 (1000)
I0620 23:56:23.844656 19694 net.cpp:148] Top shape: 100 10 (1000)
I0620 23:56:23.844661 19694 net.cpp:156] Memory required for data: 2393408400
I0620 23:56:23.844666 19694 layer_factory.hpp:77] Creating layer accuracy
I0620 23:56:23.844674 19694 net.cpp:91] Creating Layer accuracy
I0620 23:56:23.844681 19694 net.cpp:425] accuracy <- ip1_ip1_0_split_0
I0620 23:56:23.844689 19694 net.cpp:425] accuracy <- label_resnet_1_split_0
I0620 23:56:23.844698 19694 net.cpp:399] accuracy -> accuracy
…
