…
I0622 19:43:12.156571 36972 net.cpp:313] The NetState phase (0) differed from the phase (1) specified by a rule in layer accuracy
I0622 19:43:12.157069 36972 net.cpp:49] Initializing net from parameters: 
name: "ResNet"
state {
  phase: TRAIN
}
layer {
  name: "resnet"
  type: "Data"
  top: "data"
  top: "label"
  include {
    phase: TRAIN
  }
  transform_param {
    mean_file: "/home/takeki/caffe/examples/cifar10/mean.binaryproto"
  }
  data_param {
    source: "/home/takeki/caffe/examples/cifar10/cifar10_train_lmdb"
    batch_size: 100
    backend: LMDB
  }
}
layer {
  name: "conv0"
  type: "Convolution"
  bottom: "data"
  top: "conv0"
  param {
    lr_mult: 1
  }
  param {
    lr_mult: 2
  }
  convolution_param {
    num_output: 16
    pad: 1
    kernel_size: 3
    stride: 1
    weight_filler {
      type: "msra"
    }
    bias_filler {
      type: "constant"
    }
  }
}
layer {
  name: "bn_a_1_1"
  type: "BatchNorm"
  bottom: "conv0"
  top: "bn_a_1_1"
  param {
    lr_mult: 0
  }
  param {
    lr_mult: 0
  }
  param {
    lr_mult: 0
  }
  batch_norm_param {
    use_global_stats: false
  }
}
layer {
  name: "relu_a_1_1"
  type: "ReLU"
  bottom: "bn_a_1_1"
  top: "relu_a_1_1"
}
layer {
  name: "conv_a_1_1"
  type: "Convolution"
  bottom: "relu_a_1_1"
  top: "conv_a_1_1"
  param {
    lr_mult: 1
    decay_mult: 1
  }
  param {
    lr_mult: 2
    decay_mult: 1
  }
  convolution_param {
    num_output: 64
    pad: 1
    kernel_size: 3
    stride: 1
    weight_filler {
      type: "msra"
    }
    bias_filler {
      type: "constant"
    }
  }
}
layer {
  name: "bn_a_1_2"
  type: "BatchNorm"
  bottom: "conv_a_1_1"
  top: "bn_a_1_2"
  param {
    lr_mult: 0
  }
  param {
    lr_mult: 0
  }
  param {
    lr_mult: 0
  }
  batch_norm_param {
    use_global_stats: false
  }
}
layer {
  name: "relu_a_1_2"
  type: "ReLU"
  bottom: "bn_a_1_2"
  top: "relu_a_1_2"
}
layer {
  name: "conv_a_1_2"
  type: "Convolution"
  bottom: "relu_a_1_2"
  top: "conv_a_1_2"
  param {
    lr_mult: 1
    decay_mult: 1
  }
  param {
    lr_mult: 2
    decay_mult: 1
  }
  convolution_param {
    num_output: 64
    pad: 1
    kernel_size: 3
    stride: 1
    weight_filler {
      type: "msra"
    }
    bias_filler {
      type: "constant"
    }
  }
}
layer {
  name: "res_a"
  type: "Convolution"
  bottom: "conv0"
  top: "res_a"
  param {
    lr_mult: 1
    decay_mult: 1
  }
  param {
    lr_mult: 2
    decay_mult: 1
  }
  convolution_param {
    num_output: 64
    pad: 0
    kernel_size: 1
    stride: 1
    weight_filler {
      type: "msra"
    }
    bias_filler {
      type: "constant"
    }
  }
}
layer {
  name: "elt_a_1"
  type: "Eltwise"
  bottom: "res_a"
  bottom: "conv_a_1_2"
  top: "elt_a_1"
  eltwise_param {
    operation: SUM
  }
}
layer {
  name: "bn_a_2_1"
  type: "BatchNorm"
  bottom: "elt_a_1"
  top: "bn_a_2_1"
  param {
    lr_mult: 0
  }
  param {
    lr_mult: 0
  }
  param {
    lr_mult: 0
  }
  batch_norm_param {
    use_global_stats: false
  }
}
layer {
  name: "relu_a_2_1"
  type: "ReLU"
  bottom: "bn_a_2_1"
  top: "relu_a_2_1"
}
layer {
  name: "conv_a_2_1"
  type: "Convolution"
  bottom: "relu_a_2_1"
  top: "conv_a_2_1"
  param {
    lr_mult: 1
    decay_mult: 1
  }
  param {
    lr_mult: 2
    decay_mult: 1
  }
  convolution_param {
    num_output: 64
    pad: 1
    kernel_size: 3
    stride: 1
    weight_filler {
      type: "msra"
    }
    bias_filler {
      type: "constant"
    }
  }
}
layer {
  name: "bn_a_2_2"
  type: "BatchNorm"
  bottom: "conv_a_2_1"
  top: "bn_a_2_2"
  param {
    lr_mult: 0
  }
  param {
    lr_mult: 0
  }
  param {
    lr_mult: 0
  }
  batch_norm_param {
    use_global_stats: false
  }
}
layer {
  name: "relu_a_2_2"
  type: "ReLU"
  bottom: "bn_a_2_2"
  top: "relu_a_2_2"
}
layer {
  name: "conv_a_2_2"
  type: "Convolution"
  bottom: "relu_a_2_2"
  top: "conv_a_2_2"
  param {
    lr_mult: 1
    decay_mult: 1
  }
  param {
    lr_mult: 2
    decay_mult: 1
  }
  convolution_param {
    num_output: 64
    pad: 1
    kernel_size: 3
    stride: 1
    weight_filler {
      type: "msra"
    }
    bias_filler {
      type: "constant"
    }
  }
}
layer {
  name: "elt_a_2"
  type: "Eltwise"
  bottom: "elt_a_1"
  bottom: "conv_a_2_2"
  top: "elt_a_2"
  eltwise_param {
    operation: SUM
  }
}
layer {
  name: "bn_a_3_1"
  type: "BatchNorm"
  bottom: "elt_a_2"
  top: "bn_a_3_1"
  param {
    lr_mult: 0
  }
  param {
    lr_mult: 0
  }
  param {
    lr_mult: 0
  }
  batch_norm_param {
    use_global_stats: false
  }
}
layer {
  name: "relu_a_3_1"
  type: "ReLU"
  bottom: "bn_a_3_1"
  top: "relu_a_3_1"
}
layer {
  name: "conv_a_3_1"
  type: "Convolution"
  bottom: "relu_a_3_1"
  top: "conv_a_3_1"
  param {
    lr_mult: 1
    decay_mult: 1
  }
  param {
    lr_mult: 2
    decay_mult: 1
  }
  convolution_param {
    num_output: 64
    pad: 1
    kernel_size: 3
    stride: 1
    weight_filler {
      type: "msra"
    }
    bias_filler {
      type: "constant"
    }
  }
}
layer {
  name: "bn_a_3_2"
  type: "BatchNorm"
  bottom: "conv_a_3_1"
  top: "bn_a_3_2"
  param {
    lr_mult: 0
  }
  param {
    lr_mult: 0
  }
  param {
    lr_mult: 0
  }
  batch_norm_param {
    use_global_stats: false
  }
}
layer {
  name: "relu_a_3_2"
  type: "ReLU"
  bottom: "bn_a_3_2"
  top: "relu_a_3_2"
}
layer {
  name: "conv_a_3_2"
  type: "Convolution"
  bottom: "relu_a_3_2"
  top: "conv_a_3_2"
  param {
    lr_mult: 1
    decay_mult: 1
  }
  param {
    lr_mult: 2
    decay_mult: 1
  }
  convolution_param {
    num_output: 64
    pad: 1
    kernel_size: 3
    stride: 1
    weight_filler {
      type: "msra"
    }
    bias_filler {
      type: "constant"
    }
  }
}
layer {
  name: "elt_a_3"
  type: "Eltwise"
  bottom: "elt_a_2"
  bottom: "conv_a_3_2"
  top: "elt_a_3"
  eltwise_param {
    operation: SUM
  }
}
layer {
  name: "bn_d_1_1"
  type: "BatchNorm"
  bottom: "elt_a_3"
  top: "bn_d_1_1"
  param {
    lr_mult: 0
  }
  param {
    lr_mult: 0
  }
  param {
    lr_mult: 0
  }
  batch_norm_param {
    use_global_stats: false
  }
}
layer {
  name: "relu_d_1_1"
  type: "ReLU"
  bottom: "bn_d_1_1"
  top: "relu_d_1_1"
}
layer {
  name: "conv_d_1_1"
  type: "Convolution"
  bottom: "relu_d_1_1"
  top: "conv_d_1_1"
  param {
    lr_mult: 1
    decay_mult: 1
  }
  param {
    lr_mult: 2
    decay_mult: 1
  }
  convolution_param {
    num_output: 128
    pad: 1
    kernel_size: 3
    stride: 2
    weight_filler {
      type: "msra"
    }
    bias_filler {
      type: "constant"
    }
  }
}
layer {
  name: "bn_d_1_2"
  type: "BatchNorm"
  bottom: "conv_d_1_1"
  top: "bn_d_1_2"
  param {
    lr_mult: 0
  }
  param {
    lr_mult: 0
  }
  param {
    lr_mult: 0
  }
  batch_norm_param {
    use_global_stats: false
  }
}
layer {
  name: "relu_d_1_2"
  type: "ReLU"
  bottom: "bn_d_1_2"
  top: "relu_d_1_2"
}
layer {
  name: "conv_d_1_2"
  type: "Convolution"
  bottom: "relu_d_1_2"
  top: "conv_d_1_2"
  param {
    lr_mult: 1
    decay_mult: 1
  }
  param {
    lr_mult: 2
    decay_mult: 1
  }
  convolution_param {
    num_output: 128
    pad: 1
    kernel_size: 3
    stride: 1
    weight_filler {
      type: "msra"
    }
    bias_filler {
      type: "constant"
    }
  }
}
layer {
  name: "res_d"
  type: "Convolution"
  bottom: "elt_a_3"
  top: "res_d"
  param {
    lr_mult: 1
    decay_mult: 1
  }
  param {
    lr_mult: 2
    decay_mult: 1
  }
  convolution_param {
    num_output: 128
    pad: 0
    kernel_size: 1
    stride: 2
    weight_filler {
      type: "msra"
    }
    bias_filler {
      type: "constant"
    }
  }
}
layer {
  name: "elt_d_1"
  type: "Eltwise"
  bottom: "res_d"
  bottom: "conv_d_1_2"
  top: "elt_d_1"
  eltwise_param {
    operation: SUM
  }
}
layer {
  name: "bn_d_2_1"
  type: "BatchNorm"
  bottom: "elt_d_1"
  top: "bn_d_2_1"
  param {
    lr_mult: 0
  }
  param {
    lr_mult: 0
  }
  param {
    lr_mult: 0
  }
  batch_norm_param {
    use_global_stats: false
  }
}
layer {
  name: "relu_d_2_1"
  type: "ReLU"
  bottom: "bn_d_2_1"
  top: "relu_d_2_1"
}
layer {
  name: "conv_d_2_1"
  type: "Convolution"
  bottom: "relu_d_2_1"
  top: "conv_d_2_1"
  param {
    lr_mult: 1
    decay_mult: 1
  }
  param {
    lr_mult: 2
    decay_mult: 1
  }
  convolution_param {
    num_output: 128
    pad: 1
    kernel_size: 3
    stride: 1
    weight_filler {
      type: "msra"
    }
    bias_filler {
      type: "constant"
    }
  }
}
layer {
  name: "bn_d_2_2"
  type: "BatchNorm"
  bottom: "conv_d_2_1"
  top: "bn_d_2_2"
  param {
    lr_mult: 0
  }
  param {
    lr_mult: 0
  }
  param {
    lr_mult: 0
  }
  batch_norm_param {
    use_global_stats: false
  }
}
layer {
  name: "relu_d_2_2"
  type: "ReLU"
  bottom: "bn_d_2_2"
  top: "relu_d_2_2"
}
layer {
  name: "conv_d_2_2"
  type: "Convolution"
  bottom: "relu_d_2_2"
  top: "conv_d_2_2"
  param {
    lr_mult: 1
    decay_mult: 1
  }
  param {
    lr_mult: 2
    decay_mult: 1
  }
  convolution_param {
    num_output: 128
    pad: 1
    kernel_size: 3
    stride: 1
    weight_filler {
      type: "msra"
    }
    bias_filler {
      type: "constant"
    }
  }
}
layer {
  name: "elt_d_2"
  type: "Eltwise"
  bottom: "elt_d_1"
  bottom: "conv_d_2_2"
  top: "elt_d_2"
  eltwise_param {
    operation: SUM
  }
}
layer {
  name: "bn_d_3_1"
  type: "BatchNorm"
  bottom: "elt_d_2"
  top: "bn_d_3_1"
  param {
    lr_mult: 0
  }
  param {
    lr_mult: 0
  }
  param {
    lr_mult: 0
  }
  batch_norm_param {
    use_global_stats: false
  }
}
layer {
  name: "relu_d_3_1"
  type: "ReLU"
  bottom: "bn_d_3_1"
  top: "relu_d_3_1"
}
layer {
  name: "conv_d_3_1"
  type: "Convolution"
  bottom: "relu_d_3_1"
  top: "conv_d_3_1"
  param {
    lr_mult: 1
    decay_mult: 1
  }
  param {
    lr_mult: 2
    decay_mult: 1
  }
  convolution_param {
    num_output: 128
    pad: 1
    kernel_size: 3
    stride: 1
    weight_filler {
      type: "msra"
    }
    bias_filler {
      type: "constant"
    }
  }
}
layer {
  name: "bn_d_3_2"
  type: "BatchNorm"
  bottom: "conv_d_3_1"
  top: "bn_d_3_2"
  param {
    lr_mult: 0
  }
  param {
    lr_mult: 0
  }
  param {
    lr_mult: 0
  }
  batch_norm_param {
    use_global_stats: false
  }
}
layer {
  name: "relu_d_3_2"
  type: "ReLU"
  bottom: "bn_d_3_2"
  top: "relu_d_3_2"
}
layer {
  name: "conv_d_3_2"
  type: "Convolution"
  bottom: "relu_d_3_2"
  top: "conv_d_3_2"
  param {
    lr_mult: 1
    decay_mult: 1
  }
  param {
    lr_mult: 2
    decay_mult: 1
  }
  convolution_param {
    num_output: 128
    pad: 1
    kernel_size: 3
    stride: 1
    weight_filler {
      type: "msra"
    }
    bias_filler {
      type: "constant"
    }
  }
}
layer {
  name: "elt_d_3"
  type: "Eltwise"
  bottom: "elt_d_2"
  bottom: "conv_d_3_2"
  top: "elt_d_3"
  eltwise_param {
    operation: SUM
  }
}
layer {
  name: "bn_j_1_1"
  type: "BatchNorm"
  bottom: "elt_d_3"
  top: "bn_j_1_1"
  param {
    lr_mult: 0
  }
  param {
    lr_mult: 0
  }
  param {
    lr_mult: 0
  }
  batch_norm_param {
    use_global_stats: false
  }
}
layer {
  name: "relu_j_1_1"
  type: "ReLU"
  bottom: "bn_j_1_1"
  top: "relu_j_1_1"
}
layer {
  name: "conv_j_1_1"
  type: "Convolution"
  bottom: "relu_j_1_1"
  top: "conv_j_1_1"
  param {
    lr_mult: 1
    decay_mult: 1
  }
  param {
    lr_mult: 2
    decay_mult: 1
  }
  convolution_param {
    num_output: 256
    pad: 1
    kernel_size: 3
    stride: 2
    weight_filler {
      type: "msra"
    }
    bias_filler {
      type: "constant"
    }
  }
}
layer {
  name: "bn_j_1_2"
  type: "BatchNorm"
  bottom: "conv_j_1_1"
  top: "bn_j_1_2"
  param {
    lr_mult: 0
  }
  param {
    lr_mult: 0
  }
  param {
    lr_mult: 0
  }
  batch_norm_param {
    use_global_stats: false
  }
}
layer {
  name: "relu_j_1_2"
  type: "ReLU"
  bottom: "bn_j_1_2"
  top: "relu_j_1_2"
}
layer {
  name: "conv_j_1_2"
  type: "Convolution"
  bottom: "relu_j_1_2"
  top: "conv_j_1_2"
  param {
    lr_mult: 1
    decay_mult: 1
  }
  param {
    lr_mult: 2
    decay_mult: 1
  }
  convolution_param {
    num_output: 256
    pad: 1
    kernel_size: 3
    stride: 1
    weight_filler {
      type: "msra"
    }
    bias_filler {
      type: "constant"
    }
  }
}
layer {
  name: "res_j"
  type: "Convolution"
  bottom: "elt_d_3"
  top: "res_j"
  param {
    lr_mult: 1
    decay_mult: 1
  }
  param {
    lr_mult: 2
    decay_mult: 1
  }
  convolution_param {
    num_output: 256
    pad: 0
    kernel_size: 1
    stride: 2
    weight_filler {
      type: "msra"
    }
    bias_filler {
      type: "constant"
    }
  }
}
layer {
  name: "elt_j_1"
  type: "Eltwise"
  bottom: "res_j"
  bottom: "conv_j_1_2"
  top: "elt_j_1"
  eltwise_param {
    operation: SUM
  }
}
layer {
  name: "bn_j_2_1"
  type: "BatchNorm"
  bottom: "elt_j_1"
  top: "bn_j_2_1"
  param {
    lr_mult: 0
  }
  param {
    lr_mult: 0
  }
  param {
    lr_mult: 0
  }
  batch_norm_param {
    use_global_stats: false
  }
}
layer {
  name: "relu_j_2_1"
  type: "ReLU"
  bottom: "bn_j_2_1"
  top: "relu_j_2_1"
}
layer {
  name: "conv_j_2_1"
  type: "Convolution"
  bottom: "relu_j_2_1"
  top: "conv_j_2_1"
  param {
    lr_mult: 1
    decay_mult: 1
  }
  param {
    lr_mult: 2
    decay_mult: 1
  }
  convolution_param {
    num_output: 256
    pad: 1
    kernel_size: 3
    stride: 1
    weight_filler {
      type: "msra"
    }
    bias_filler {
      type: "constant"
    }
  }
}
layer {
  name: "bn_j_2_2"
  type: "BatchNorm"
  bottom: "conv_j_2_1"
  top: "bn_j_2_2"
  param {
    lr_mult: 0
  }
  param {
    lr_mult: 0
  }
  param {
    lr_mult: 0
  }
  batch_norm_param {
    use_global_stats: false
  }
}
layer {
  name: "relu_j_2_2"
  type: "ReLU"
  bottom: "bn_j_2_2"
  top: "relu_j_2_2"
}
layer {
  name: "conv_j_2_2"
  type: "Convolution"
  bottom: "relu_j_2_2"
  top: "conv_j_2_2"
  param {
    lr_mult: 1
    decay_mult: 1
  }
  param {
    lr_mult: 2
    decay_mult: 1
  }
  convolution_param {
    num_output: 256
    pad: 1
    kernel_size: 3
    stride: 1
    weight_filler {
      type: "msra"
    }
    bias_filler {
      type: "constant"
    }
  }
}
layer {
  name: "elt_j_2"
  type: "Eltwise"
  bottom: "elt_j_1"
  bottom: "conv_j_2_2"
  top: "elt_j_2"
  eltwise_param {
    operation: SUM
  }
}
layer {
  name: "bn_j_3_1"
  type: "BatchNorm"
  bottom: "elt_j_2"
  top: "bn_j_3_1"
  param {
    lr_mult: 0
  }
  param {
    lr_mult: 0
  }
  param {
    lr_mult: 0
  }
  batch_norm_param {
    use_global_stats: false
  }
}
layer {
  name: "relu_j_3_1"
  type: "ReLU"
  bottom: "bn_j_3_1"
  top: "relu_j_3_1"
}
layer {
  name: "conv_j_3_1"
  type: "Convolution"
  bottom: "relu_j_3_1"
  top: "conv_j_3_1"
  param {
    lr_mult: 1
    decay_mult: 1
  }
  param {
    lr_mult: 2
    decay_mult: 1
  }
  convolution_param {
    num_output: 256
    pad: 1
    kernel_size: 3
    stride: 1
    weight_filler {
      type: "msra"
    }
    bias_filler {
      type: "constant"
    }
  }
}
layer {
  name: "bn_j_3_2"
  type: "BatchNorm"
  bottom: "conv_j_3_1"
  top: "bn_j_3_2"
  param {
    lr_mult: 0
  }
  param {
    lr_mult: 0
  }
  param {
    lr_mult: 0
  }
  batch_norm_param {
    use_global_stats: false
  }
}
layer {
  name: "relu_j_3_2"
  type: "ReLU"
  bottom: "bn_j_3_2"
  top: "relu_j_3_2"
}
layer {
  name: "conv_j_3_2"
  type: "Convolution"
  bottom: "relu_j_3_2"
  top: "conv_j_3_2"
  param {
    lr_mult: 1
    decay_mult: 1
  }
  param {
    lr_mult: 2
    decay_mult: 1
  }
  convolution_param {
    num_output: 256
    pad: 1
    kernel_size: 3
    stride: 1
    weight_filler {
      type: "msra"
    }
    bias_filler {
      type: "constant"
    }
  }
}
layer {
  name: "elt_j_3"
  type: "Eltwise"
  bottom: "elt_j_2"
  bottom: "conv_j_3_2"
  top: "elt_j_3"
  eltwise_param {
    operation: SUM
  }
}
layer {
  name: "bn_m_1_1"
  type: "BatchNorm"
  bottom: "elt_j_3"
  top: "bn_m_1_1"
  param {
    lr_mult: 0
  }
  param {
    lr_mult: 0
  }
  param {
    lr_mult: 0
  }
  batch_norm_param {
    use_global_stats: false
  }
}
layer {
  name: "relu_m_1_1"
  type: "ReLU"
  bottom: "bn_m_1_1"
  top: "relu_m_1_1"
}
layer {
  name: "gap"
  type: "Pooling"
  bottom: "relu_m_1_1"
  top: "gap"
  pooling_param {
    pool: AVE
    kernel_size: 8
    stride: 1
  }
}
layer {
  name: "ip1"
  type: "InnerProduct"
  bottom: "gap"
  top: "ip1"
  param {
    lr_mult: 1
    decay_mult: 1
  }
  param {
    lr_mult: 2
    decay_mult: 0
  }
  inner_product_param {
    num_output: 10
    weight_filler {
      type: "msra"
    }
    bias_filler {
      type: "constant"
      value: 0
    }
  }
}
layer {
  name: "loss"
  type: "SoftmaxWithLoss"
  bottom: "ip1"
  bottom: "label"
  top: "loss"
}
I0622 19:43:12.157547 36972 layer_factory.hpp:77] Creating layer resnet
I0622 19:43:12.158148 36972 net.cpp:91] Creating Layer resnet
I0622 19:43:12.158165 36972 net.cpp:399] resnet -> data
I0622 19:43:12.158210 36972 net.cpp:399] resnet -> label
I0622 19:43:12.158231 36972 data_transformer.cpp:25] Loading mean file from: /home/takeki/caffe/examples/cifar10/mean.binaryproto
I0622 19:43:12.159068 37017 db_lmdb.cpp:35] Opened lmdb /home/takeki/caffe/examples/cifar10/cifar10_train_lmdb
I0622 19:43:12.173434 36972 data_layer.cpp:41] output data size: 100,3,32,32
I0622 19:43:12.176362 36972 net.cpp:141] Setting up resnet
I0622 19:43:12.176389 36972 net.cpp:148] Top shape: 100 3 32 32 (307200)
I0622 19:43:12.176399 36972 net.cpp:148] Top shape: 100 (100)
I0622 19:43:12.176405 36972 net.cpp:156] Memory required for data: 1229200
I0622 19:43:12.176416 36972 layer_factory.hpp:77] Creating layer conv0
I0622 19:43:12.176450 36972 net.cpp:91] Creating Layer conv0
I0622 19:43:12.176461 36972 net.cpp:425] conv0 <- data
I0622 19:43:12.176484 36972 net.cpp:399] conv0 -> conv0
I0622 19:43:12.390256 36972 net.cpp:141] Setting up conv0
I0622 19:43:12.390303 36972 net.cpp:148] Top shape: 100 16 32 32 (1638400)
I0622 19:43:12.390311 36972 net.cpp:156] Memory required for data: 7782800
I0622 19:43:12.390339 36972 layer_factory.hpp:77] Creating layer conv0_conv0_0_split
I0622 19:43:12.390368 36972 net.cpp:91] Creating Layer conv0_conv0_0_split
I0622 19:43:12.390377 36972 net.cpp:425] conv0_conv0_0_split <- conv0
I0622 19:43:12.390388 36972 net.cpp:399] conv0_conv0_0_split -> conv0_conv0_0_split_0
I0622 19:43:12.390411 36972 net.cpp:399] conv0_conv0_0_split -> conv0_conv0_0_split_1
I0622 19:43:12.390465 36972 net.cpp:141] Setting up conv0_conv0_0_split
I0622 19:43:12.390478 36972 net.cpp:148] Top shape: 100 16 32 32 (1638400)
I0622 19:43:12.390488 36972 net.cpp:148] Top shape: 100 16 32 32 (1638400)
I0622 19:43:12.390496 36972 net.cpp:156] Memory required for data: 20890000
I0622 19:43:12.390502 36972 layer_factory.hpp:77] Creating layer bn_a_1_1
I0622 19:43:12.390516 36972 net.cpp:91] Creating Layer bn_a_1_1
I0622 19:43:12.390523 36972 net.cpp:425] bn_a_1_1 <- conv0_conv0_0_split_0
I0622 19:43:12.390532 36972 net.cpp:399] bn_a_1_1 -> bn_a_1_1
I0622 19:43:12.390746 36972 net.cpp:141] Setting up bn_a_1_1
I0622 19:43:12.390761 36972 net.cpp:148] Top shape: 100 16 32 32 (1638400)
I0622 19:43:12.390769 36972 net.cpp:156] Memory required for data: 27443600
I0622 19:43:12.390785 36972 layer_factory.hpp:77] Creating layer relu_a_1_1
I0622 19:43:12.390799 36972 net.cpp:91] Creating Layer relu_a_1_1
I0622 19:43:12.390808 36972 net.cpp:425] relu_a_1_1 <- bn_a_1_1
I0622 19:43:12.390818 36972 net.cpp:399] relu_a_1_1 -> relu_a_1_1
I0622 19:43:12.391149 36972 net.cpp:141] Setting up relu_a_1_1
I0622 19:43:12.391166 36972 net.cpp:148] Top shape: 100 16 32 32 (1638400)
I0622 19:43:12.391175 36972 net.cpp:156] Memory required for data: 33997200
I0622 19:43:12.391183 36972 layer_factory.hpp:77] Creating layer conv_a_1_1
I0622 19:43:12.391203 36972 net.cpp:91] Creating Layer conv_a_1_1
I0622 19:43:12.391211 36972 net.cpp:425] conv_a_1_1 <- relu_a_1_1
I0622 19:43:12.391221 36972 net.cpp:399] conv_a_1_1 -> conv_a_1_1
I0622 19:43:12.392915 36972 net.cpp:141] Setting up conv_a_1_1
I0622 19:43:12.392961 36972 net.cpp:148] Top shape: 100 64 32 32 (6553600)
I0622 19:43:12.392969 36972 net.cpp:156] Memory required for data: 60211600
I0622 19:43:12.392981 36972 layer_factory.hpp:77] Creating layer bn_a_1_2
I0622 19:43:12.392992 36972 net.cpp:91] Creating Layer bn_a_1_2
I0622 19:43:12.393000 36972 net.cpp:425] bn_a_1_2 <- conv_a_1_1
I0622 19:43:12.393009 36972 net.cpp:399] bn_a_1_2 -> bn_a_1_2
I0622 19:43:12.393209 36972 net.cpp:141] Setting up bn_a_1_2
I0622 19:43:12.393224 36972 net.cpp:148] Top shape: 100 64 32 32 (6553600)
I0622 19:43:12.393234 36972 net.cpp:156] Memory required for data: 86426000
I0622 19:43:12.393249 36972 layer_factory.hpp:77] Creating layer relu_a_1_2
I0622 19:43:12.393257 36972 net.cpp:91] Creating Layer relu_a_1_2
I0622 19:43:12.393263 36972 net.cpp:425] relu_a_1_2 <- bn_a_1_2
I0622 19:43:12.393271 36972 net.cpp:399] relu_a_1_2 -> relu_a_1_2
I0622 19:43:12.393587 36972 net.cpp:141] Setting up relu_a_1_2
I0622 19:43:12.393605 36972 net.cpp:148] Top shape: 100 64 32 32 (6553600)
I0622 19:43:12.393611 36972 net.cpp:156] Memory required for data: 112640400
I0622 19:43:12.393618 36972 layer_factory.hpp:77] Creating layer conv_a_1_2
I0622 19:43:12.393633 36972 net.cpp:91] Creating Layer conv_a_1_2
I0622 19:43:12.393640 36972 net.cpp:425] conv_a_1_2 <- relu_a_1_2
I0622 19:43:12.393649 36972 net.cpp:399] conv_a_1_2 -> conv_a_1_2
I0622 19:43:12.396350 36972 net.cpp:141] Setting up conv_a_1_2
I0622 19:43:12.396370 36972 net.cpp:148] Top shape: 100 64 32 32 (6553600)
I0622 19:43:12.396378 36972 net.cpp:156] Memory required for data: 138854800
I0622 19:43:12.396387 36972 layer_factory.hpp:77] Creating layer res_a
I0622 19:43:12.396401 36972 net.cpp:91] Creating Layer res_a
I0622 19:43:12.396409 36972 net.cpp:425] res_a <- conv0_conv0_0_split_1
I0622 19:43:12.396422 36972 net.cpp:399] res_a -> res_a
I0622 19:43:12.397457 36972 net.cpp:141] Setting up res_a
I0622 19:43:12.397481 36972 net.cpp:148] Top shape: 100 64 32 32 (6553600)
I0622 19:43:12.397495 36972 net.cpp:156] Memory required for data: 165069200
I0622 19:43:12.397516 36972 layer_factory.hpp:77] Creating layer elt_a_1
I0622 19:43:12.397559 36972 net.cpp:91] Creating Layer elt_a_1
I0622 19:43:12.397574 36972 net.cpp:425] elt_a_1 <- res_a
I0622 19:43:12.397589 36972 net.cpp:425] elt_a_1 <- conv_a_1_2
I0622 19:43:12.397610 36972 net.cpp:399] elt_a_1 -> elt_a_1
I0622 19:43:12.397653 36972 net.cpp:141] Setting up elt_a_1
I0622 19:43:12.397667 36972 net.cpp:148] Top shape: 100 64 32 32 (6553600)
I0622 19:43:12.397676 36972 net.cpp:156] Memory required for data: 191283600
I0622 19:43:12.397682 36972 layer_factory.hpp:77] Creating layer elt_a_1_elt_a_1_0_split
I0622 19:43:12.397691 36972 net.cpp:91] Creating Layer elt_a_1_elt_a_1_0_split
I0622 19:43:12.397697 36972 net.cpp:425] elt_a_1_elt_a_1_0_split <- elt_a_1
I0622 19:43:12.397706 36972 net.cpp:399] elt_a_1_elt_a_1_0_split -> elt_a_1_elt_a_1_0_split_0
I0622 19:43:12.397718 36972 net.cpp:399] elt_a_1_elt_a_1_0_split -> elt_a_1_elt_a_1_0_split_1
I0622 19:43:12.397759 36972 net.cpp:141] Setting up elt_a_1_elt_a_1_0_split
I0622 19:43:12.397773 36972 net.cpp:148] Top shape: 100 64 32 32 (6553600)
I0622 19:43:12.397783 36972 net.cpp:148] Top shape: 100 64 32 32 (6553600)
I0622 19:43:12.397788 36972 net.cpp:156] Memory required for data: 243712400
I0622 19:43:12.397794 36972 layer_factory.hpp:77] Creating layer bn_a_2_1
I0622 19:43:12.397804 36972 net.cpp:91] Creating Layer bn_a_2_1
I0622 19:43:12.397811 36972 net.cpp:425] bn_a_2_1 <- elt_a_1_elt_a_1_0_split_0
I0622 19:43:12.397821 36972 net.cpp:399] bn_a_2_1 -> bn_a_2_1
I0622 19:43:12.398082 36972 net.cpp:141] Setting up bn_a_2_1
I0622 19:43:12.398104 36972 net.cpp:148] Top shape: 100 64 32 32 (6553600)
I0622 19:43:12.398118 36972 net.cpp:156] Memory required for data: 269926800
I0622 19:43:12.398149 36972 layer_factory.hpp:77] Creating layer relu_a_2_1
I0622 19:43:12.398169 36972 net.cpp:91] Creating Layer relu_a_2_1
I0622 19:43:12.398182 36972 net.cpp:425] relu_a_2_1 <- bn_a_2_1
I0622 19:43:12.398200 36972 net.cpp:399] relu_a_2_1 -> relu_a_2_1
I0622 19:43:12.398483 36972 net.cpp:141] Setting up relu_a_2_1
I0622 19:43:12.398500 36972 net.cpp:148] Top shape: 100 64 32 32 (6553600)
I0622 19:43:12.398510 36972 net.cpp:156] Memory required for data: 296141200
I0622 19:43:12.398517 36972 layer_factory.hpp:77] Creating layer conv_a_2_1
I0622 19:43:12.398530 36972 net.cpp:91] Creating Layer conv_a_2_1
I0622 19:43:12.398540 36972 net.cpp:425] conv_a_2_1 <- relu_a_2_1
I0622 19:43:12.398551 36972 net.cpp:399] conv_a_2_1 -> conv_a_2_1
I0622 19:43:12.400724 36972 net.cpp:141] Setting up conv_a_2_1
I0622 19:43:12.400744 36972 net.cpp:148] Top shape: 100 64 32 32 (6553600)
I0622 19:43:12.400753 36972 net.cpp:156] Memory required for data: 322355600
I0622 19:43:12.400764 36972 layer_factory.hpp:77] Creating layer bn_a_2_2
I0622 19:43:12.400775 36972 net.cpp:91] Creating Layer bn_a_2_2
I0622 19:43:12.400781 36972 net.cpp:425] bn_a_2_2 <- conv_a_2_1
I0622 19:43:12.400791 36972 net.cpp:399] bn_a_2_2 -> bn_a_2_2
I0622 19:43:12.400992 36972 net.cpp:141] Setting up bn_a_2_2
I0622 19:43:12.401007 36972 net.cpp:148] Top shape: 100 64 32 32 (6553600)
I0622 19:43:12.401016 36972 net.cpp:156] Memory required for data: 348570000
I0622 19:43:12.401028 36972 layer_factory.hpp:77] Creating layer relu_a_2_2
I0622 19:43:12.401041 36972 net.cpp:91] Creating Layer relu_a_2_2
I0622 19:43:12.401049 36972 net.cpp:425] relu_a_2_2 <- bn_a_2_2
I0622 19:43:12.401057 36972 net.cpp:399] relu_a_2_2 -> relu_a_2_2
I0622 19:43:12.401255 36972 net.cpp:141] Setting up relu_a_2_2
I0622 19:43:12.401271 36972 net.cpp:148] Top shape: 100 64 32 32 (6553600)
I0622 19:43:12.401279 36972 net.cpp:156] Memory required for data: 374784400
I0622 19:43:12.401286 36972 layer_factory.hpp:77] Creating layer conv_a_2_2
I0622 19:43:12.401300 36972 net.cpp:91] Creating Layer conv_a_2_2
I0622 19:43:12.401309 36972 net.cpp:425] conv_a_2_2 <- relu_a_2_2
I0622 19:43:12.401320 36972 net.cpp:399] conv_a_2_2 -> conv_a_2_2
I0622 19:43:12.403533 36972 net.cpp:141] Setting up conv_a_2_2
I0622 19:43:12.403563 36972 net.cpp:148] Top shape: 100 64 32 32 (6553600)
I0622 19:43:12.403569 36972 net.cpp:156] Memory required for data: 400998800
I0622 19:43:12.403579 36972 layer_factory.hpp:77] Creating layer elt_a_2
I0622 19:43:12.403589 36972 net.cpp:91] Creating Layer elt_a_2
I0622 19:43:12.403596 36972 net.cpp:425] elt_a_2 <- elt_a_1_elt_a_1_0_split_1
I0622 19:43:12.403604 36972 net.cpp:425] elt_a_2 <- conv_a_2_2
I0622 19:43:12.403620 36972 net.cpp:399] elt_a_2 -> elt_a_2
I0622 19:43:12.403672 36972 net.cpp:141] Setting up elt_a_2
I0622 19:43:12.403692 36972 net.cpp:148] Top shape: 100 64 32 32 (6553600)
I0622 19:43:12.403708 36972 net.cpp:156] Memory required for data: 427213200
I0622 19:43:12.403723 36972 layer_factory.hpp:77] Creating layer elt_a_2_elt_a_2_0_split
I0622 19:43:12.403739 36972 net.cpp:91] Creating Layer elt_a_2_elt_a_2_0_split
I0622 19:43:12.403748 36972 net.cpp:425] elt_a_2_elt_a_2_0_split <- elt_a_2
I0622 19:43:12.403759 36972 net.cpp:399] elt_a_2_elt_a_2_0_split -> elt_a_2_elt_a_2_0_split_0
I0622 19:43:12.403769 36972 net.cpp:399] elt_a_2_elt_a_2_0_split -> elt_a_2_elt_a_2_0_split_1
I0622 19:43:12.403817 36972 net.cpp:141] Setting up elt_a_2_elt_a_2_0_split
I0622 19:43:12.403831 36972 net.cpp:148] Top shape: 100 64 32 32 (6553600)
I0622 19:43:12.403841 36972 net.cpp:148] Top shape: 100 64 32 32 (6553600)
I0622 19:43:12.403846 36972 net.cpp:156] Memory required for data: 479642000
I0622 19:43:12.403852 36972 layer_factory.hpp:77] Creating layer bn_a_3_1
I0622 19:43:12.403862 36972 net.cpp:91] Creating Layer bn_a_3_1
I0622 19:43:12.403870 36972 net.cpp:425] bn_a_3_1 <- elt_a_2_elt_a_2_0_split_0
I0622 19:43:12.403879 36972 net.cpp:399] bn_a_3_1 -> bn_a_3_1
I0622 19:43:12.404089 36972 net.cpp:141] Setting up bn_a_3_1
I0622 19:43:12.404103 36972 net.cpp:148] Top shape: 100 64 32 32 (6553600)
I0622 19:43:12.404111 36972 net.cpp:156] Memory required for data: 505856400
I0622 19:43:12.404122 36972 layer_factory.hpp:77] Creating layer relu_a_3_1
I0622 19:43:12.404132 36972 net.cpp:91] Creating Layer relu_a_3_1
I0622 19:43:12.404157 36972 net.cpp:425] relu_a_3_1 <- bn_a_3_1
I0622 19:43:12.404176 36972 net.cpp:399] relu_a_3_1 -> relu_a_3_1
I0622 19:43:12.404502 36972 net.cpp:141] Setting up relu_a_3_1
I0622 19:43:12.404520 36972 net.cpp:148] Top shape: 100 64 32 32 (6553600)
I0622 19:43:12.404528 36972 net.cpp:156] Memory required for data: 532070800
I0622 19:43:12.404537 36972 layer_factory.hpp:77] Creating layer conv_a_3_1
I0622 19:43:12.404551 36972 net.cpp:91] Creating Layer conv_a_3_1
I0622 19:43:12.404558 36972 net.cpp:425] conv_a_3_1 <- relu_a_3_1
I0622 19:43:12.404567 36972 net.cpp:399] conv_a_3_1 -> conv_a_3_1
I0622 19:43:12.406965 36972 net.cpp:141] Setting up conv_a_3_1
I0622 19:43:12.406985 36972 net.cpp:148] Top shape: 100 64 32 32 (6553600)
I0622 19:43:12.406991 36972 net.cpp:156] Memory required for data: 558285200
I0622 19:43:12.407001 36972 layer_factory.hpp:77] Creating layer bn_a_3_2
I0622 19:43:12.407012 36972 net.cpp:91] Creating Layer bn_a_3_2
I0622 19:43:12.407018 36972 net.cpp:425] bn_a_3_2 <- conv_a_3_1
I0622 19:43:12.407028 36972 net.cpp:399] bn_a_3_2 -> bn_a_3_2
I0622 19:43:12.407233 36972 net.cpp:141] Setting up bn_a_3_2
I0622 19:43:12.407248 36972 net.cpp:148] Top shape: 100 64 32 32 (6553600)
I0622 19:43:12.407256 36972 net.cpp:156] Memory required for data: 584499600
I0622 19:43:12.407270 36972 layer_factory.hpp:77] Creating layer relu_a_3_2
I0622 19:43:12.407280 36972 net.cpp:91] Creating Layer relu_a_3_2
I0622 19:43:12.407286 36972 net.cpp:425] relu_a_3_2 <- bn_a_3_2
I0622 19:43:12.407294 36972 net.cpp:399] relu_a_3_2 -> relu_a_3_2
I0622 19:43:12.407491 36972 net.cpp:141] Setting up relu_a_3_2
I0622 19:43:12.407507 36972 net.cpp:148] Top shape: 100 64 32 32 (6553600)
I0622 19:43:12.407516 36972 net.cpp:156] Memory required for data: 610714000
I0622 19:43:12.407522 36972 layer_factory.hpp:77] Creating layer conv_a_3_2
I0622 19:43:12.407536 36972 net.cpp:91] Creating Layer conv_a_3_2
I0622 19:43:12.407543 36972 net.cpp:425] conv_a_3_2 <- relu_a_3_2
I0622 19:43:12.407552 36972 net.cpp:399] conv_a_3_2 -> conv_a_3_2
I0622 19:43:12.409710 36972 net.cpp:141] Setting up conv_a_3_2
I0622 19:43:12.409729 36972 net.cpp:148] Top shape: 100 64 32 32 (6553600)
I0622 19:43:12.409735 36972 net.cpp:156] Memory required for data: 636928400
I0622 19:43:12.409750 36972 layer_factory.hpp:77] Creating layer elt_a_3
I0622 19:43:12.409764 36972 net.cpp:91] Creating Layer elt_a_3
I0622 19:43:12.409770 36972 net.cpp:425] elt_a_3 <- elt_a_2_elt_a_2_0_split_1
I0622 19:43:12.409778 36972 net.cpp:425] elt_a_3 <- conv_a_3_2
I0622 19:43:12.409786 36972 net.cpp:399] elt_a_3 -> elt_a_3
I0622 19:43:12.409821 36972 net.cpp:141] Setting up elt_a_3
I0622 19:43:12.409834 36972 net.cpp:148] Top shape: 100 64 32 32 (6553600)
I0622 19:43:12.409842 36972 net.cpp:156] Memory required for data: 663142800
I0622 19:43:12.409848 36972 layer_factory.hpp:77] Creating layer elt_a_3_elt_a_3_0_split
I0622 19:43:12.409857 36972 net.cpp:91] Creating Layer elt_a_3_elt_a_3_0_split
I0622 19:43:12.409863 36972 net.cpp:425] elt_a_3_elt_a_3_0_split <- elt_a_3
I0622 19:43:12.409871 36972 net.cpp:399] elt_a_3_elt_a_3_0_split -> elt_a_3_elt_a_3_0_split_0
I0622 19:43:12.409881 36972 net.cpp:399] elt_a_3_elt_a_3_0_split -> elt_a_3_elt_a_3_0_split_1
I0622 19:43:12.409926 36972 net.cpp:141] Setting up elt_a_3_elt_a_3_0_split
I0622 19:43:12.409940 36972 net.cpp:148] Top shape: 100 64 32 32 (6553600)
I0622 19:43:12.409950 36972 net.cpp:148] Top shape: 100 64 32 32 (6553600)
I0622 19:43:12.409955 36972 net.cpp:156] Memory required for data: 715571600
I0622 19:43:12.409961 36972 layer_factory.hpp:77] Creating layer bn_d_1_1
I0622 19:43:12.409971 36972 net.cpp:91] Creating Layer bn_d_1_1
I0622 19:43:12.409977 36972 net.cpp:425] bn_d_1_1 <- elt_a_3_elt_a_3_0_split_0
I0622 19:43:12.409986 36972 net.cpp:399] bn_d_1_1 -> bn_d_1_1
I0622 19:43:12.410187 36972 net.cpp:141] Setting up bn_d_1_1
I0622 19:43:12.410202 36972 net.cpp:148] Top shape: 100 64 32 32 (6553600)
I0622 19:43:12.410208 36972 net.cpp:156] Memory required for data: 741786000
I0622 19:43:12.410220 36972 layer_factory.hpp:77] Creating layer relu_d_1_1
I0622 19:43:12.410245 36972 net.cpp:91] Creating Layer relu_d_1_1
I0622 19:43:12.410254 36972 net.cpp:425] relu_d_1_1 <- bn_d_1_1
I0622 19:43:12.410261 36972 net.cpp:399] relu_d_1_1 -> relu_d_1_1
I0622 19:43:12.410464 36972 net.cpp:141] Setting up relu_d_1_1
I0622 19:43:12.410480 36972 net.cpp:148] Top shape: 100 64 32 32 (6553600)
I0622 19:43:12.410488 36972 net.cpp:156] Memory required for data: 768000400
I0622 19:43:12.410495 36972 layer_factory.hpp:77] Creating layer conv_d_1_1
I0622 19:43:12.410508 36972 net.cpp:91] Creating Layer conv_d_1_1
I0622 19:43:12.410516 36972 net.cpp:425] conv_d_1_1 <- relu_d_1_1
I0622 19:43:12.410526 36972 net.cpp:399] conv_d_1_1 -> conv_d_1_1
I0622 19:43:12.414441 36972 net.cpp:141] Setting up conv_d_1_1
I0622 19:43:12.414470 36972 net.cpp:148] Top shape: 100 128 16 16 (3276800)
I0622 19:43:12.414484 36972 net.cpp:156] Memory required for data: 781107600
I0622 19:43:12.414506 36972 layer_factory.hpp:77] Creating layer bn_d_1_2
I0622 19:43:12.414523 36972 net.cpp:91] Creating Layer bn_d_1_2
I0622 19:43:12.414530 36972 net.cpp:425] bn_d_1_2 <- conv_d_1_1
I0622 19:43:12.414541 36972 net.cpp:399] bn_d_1_2 -> bn_d_1_2
I0622 19:43:12.414837 36972 net.cpp:141] Setting up bn_d_1_2
I0622 19:43:12.414860 36972 net.cpp:148] Top shape: 100 128 16 16 (3276800)
I0622 19:43:12.414872 36972 net.cpp:156] Memory required for data: 794214800
I0622 19:43:12.414888 36972 layer_factory.hpp:77] Creating layer relu_d_1_2
I0622 19:43:12.414902 36972 net.cpp:91] Creating Layer relu_d_1_2
I0622 19:43:12.414914 36972 net.cpp:425] relu_d_1_2 <- bn_d_1_2
I0622 19:43:12.414932 36972 net.cpp:399] relu_d_1_2 -> relu_d_1_2
I0622 19:43:12.415277 36972 net.cpp:141] Setting up relu_d_1_2
I0622 19:43:12.415297 36972 net.cpp:148] Top shape: 100 128 16 16 (3276800)
I0622 19:43:12.415315 36972 net.cpp:156] Memory required for data: 807322000
I0622 19:43:12.415326 36972 layer_factory.hpp:77] Creating layer conv_d_1_2
I0622 19:43:12.415343 36972 net.cpp:91] Creating Layer conv_d_1_2
I0622 19:43:12.415351 36972 net.cpp:425] conv_d_1_2 <- relu_d_1_2
I0622 19:43:12.415364 36972 net.cpp:399] conv_d_1_2 -> conv_d_1_2
I0622 19:43:12.421193 36972 net.cpp:141] Setting up conv_d_1_2
I0622 19:43:12.421212 36972 net.cpp:148] Top shape: 100 128 16 16 (3276800)
I0622 19:43:12.421219 36972 net.cpp:156] Memory required for data: 820429200
I0622 19:43:12.421231 36972 layer_factory.hpp:77] Creating layer res_d
I0622 19:43:12.421246 36972 net.cpp:91] Creating Layer res_d
I0622 19:43:12.421257 36972 net.cpp:425] res_d <- elt_a_3_elt_a_3_0_split_1
I0622 19:43:12.421267 36972 net.cpp:399] res_d -> res_d
I0622 19:43:12.422514 36972 net.cpp:141] Setting up res_d
I0622 19:43:12.422538 36972 net.cpp:148] Top shape: 100 128 16 16 (3276800)
I0622 19:43:12.422551 36972 net.cpp:156] Memory required for data: 833536400
I0622 19:43:12.422593 36972 layer_factory.hpp:77] Creating layer elt_d_1
I0622 19:43:12.422616 36972 net.cpp:91] Creating Layer elt_d_1
I0622 19:43:12.422633 36972 net.cpp:425] elt_d_1 <- res_d
I0622 19:43:12.422648 36972 net.cpp:425] elt_d_1 <- conv_d_1_2
I0622 19:43:12.422667 36972 net.cpp:399] elt_d_1 -> elt_d_1
I0622 19:43:12.422716 36972 net.cpp:141] Setting up elt_d_1
I0622 19:43:12.422731 36972 net.cpp:148] Top shape: 100 128 16 16 (3276800)
I0622 19:43:12.422740 36972 net.cpp:156] Memory required for data: 846643600
I0622 19:43:12.422746 36972 layer_factory.hpp:77] Creating layer elt_d_1_elt_d_1_0_split
I0622 19:43:12.422760 36972 net.cpp:91] Creating Layer elt_d_1_elt_d_1_0_split
I0622 19:43:12.422768 36972 net.cpp:425] elt_d_1_elt_d_1_0_split <- elt_d_1
I0622 19:43:12.422776 36972 net.cpp:399] elt_d_1_elt_d_1_0_split -> elt_d_1_elt_d_1_0_split_0
I0622 19:43:12.422788 36972 net.cpp:399] elt_d_1_elt_d_1_0_split -> elt_d_1_elt_d_1_0_split_1
I0622 19:43:12.422840 36972 net.cpp:141] Setting up elt_d_1_elt_d_1_0_split
I0622 19:43:12.422853 36972 net.cpp:148] Top shape: 100 128 16 16 (3276800)
I0622 19:43:12.422863 36972 net.cpp:148] Top shape: 100 128 16 16 (3276800)
I0622 19:43:12.422870 36972 net.cpp:156] Memory required for data: 872858000
I0622 19:43:12.422894 36972 layer_factory.hpp:77] Creating layer bn_d_2_1
I0622 19:43:12.422909 36972 net.cpp:91] Creating Layer bn_d_2_1
I0622 19:43:12.422917 36972 net.cpp:425] bn_d_2_1 <- elt_d_1_elt_d_1_0_split_0
I0622 19:43:12.422927 36972 net.cpp:399] bn_d_2_1 -> bn_d_2_1
I0622 19:43:12.423179 36972 net.cpp:141] Setting up bn_d_2_1
I0622 19:43:12.423195 36972 net.cpp:148] Top shape: 100 128 16 16 (3276800)
I0622 19:43:12.423202 36972 net.cpp:156] Memory required for data: 885965200
I0622 19:43:12.423215 36972 layer_factory.hpp:77] Creating layer relu_d_2_1
I0622 19:43:12.423230 36972 net.cpp:91] Creating Layer relu_d_2_1
I0622 19:43:12.423243 36972 net.cpp:425] relu_d_2_1 <- bn_d_2_1
I0622 19:43:12.423256 36972 net.cpp:399] relu_d_2_1 -> relu_d_2_1
I0622 19:43:12.423672 36972 net.cpp:141] Setting up relu_d_2_1
I0622 19:43:12.423691 36972 net.cpp:148] Top shape: 100 128 16 16 (3276800)
I0622 19:43:12.423696 36972 net.cpp:156] Memory required for data: 899072400
I0622 19:43:12.423702 36972 layer_factory.hpp:77] Creating layer conv_d_2_1
I0622 19:43:12.423720 36972 net.cpp:91] Creating Layer conv_d_2_1
I0622 19:43:12.423727 36972 net.cpp:425] conv_d_2_1 <- relu_d_2_1
I0622 19:43:12.423738 36972 net.cpp:399] conv_d_2_1 -> conv_d_2_1
I0622 19:43:12.430238 36972 net.cpp:141] Setting up conv_d_2_1
I0622 19:43:12.430256 36972 net.cpp:148] Top shape: 100 128 16 16 (3276800)
I0622 19:43:12.430263 36972 net.cpp:156] Memory required for data: 912179600
I0622 19:43:12.430274 36972 layer_factory.hpp:77] Creating layer bn_d_2_2
I0622 19:43:12.430287 36972 net.cpp:91] Creating Layer bn_d_2_2
I0622 19:43:12.430294 36972 net.cpp:425] bn_d_2_2 <- conv_d_2_1
I0622 19:43:12.430304 36972 net.cpp:399] bn_d_2_2 -> bn_d_2_2
I0622 19:43:12.430524 36972 net.cpp:141] Setting up bn_d_2_2
I0622 19:43:12.430538 36972 net.cpp:148] Top shape: 100 128 16 16 (3276800)
I0622 19:43:12.430546 36972 net.cpp:156] Memory required for data: 925286800
I0622 19:43:12.430558 36972 layer_factory.hpp:77] Creating layer relu_d_2_2
I0622 19:43:12.430567 36972 net.cpp:91] Creating Layer relu_d_2_2
I0622 19:43:12.430573 36972 net.cpp:425] relu_d_2_2 <- bn_d_2_2
I0622 19:43:12.430584 36972 net.cpp:399] relu_d_2_2 -> relu_d_2_2
I0622 19:43:12.430830 36972 net.cpp:141] Setting up relu_d_2_2
I0622 19:43:12.430847 36972 net.cpp:148] Top shape: 100 128 16 16 (3276800)
I0622 19:43:12.430855 36972 net.cpp:156] Memory required for data: 938394000
I0622 19:43:12.430860 36972 layer_factory.hpp:77] Creating layer conv_d_2_2
I0622 19:43:12.430877 36972 net.cpp:91] Creating Layer conv_d_2_2
I0622 19:43:12.430884 36972 net.cpp:425] conv_d_2_2 <- relu_d_2_2
I0622 19:43:12.430898 36972 net.cpp:399] conv_d_2_2 -> conv_d_2_2
I0622 19:43:12.437234 36972 net.cpp:141] Setting up conv_d_2_2
I0622 19:43:12.437253 36972 net.cpp:148] Top shape: 100 128 16 16 (3276800)
I0622 19:43:12.437260 36972 net.cpp:156] Memory required for data: 951501200
I0622 19:43:12.437270 36972 layer_factory.hpp:77] Creating layer elt_d_2
I0622 19:43:12.437283 36972 net.cpp:91] Creating Layer elt_d_2
I0622 19:43:12.437289 36972 net.cpp:425] elt_d_2 <- elt_d_1_elt_d_1_0_split_1
I0622 19:43:12.437296 36972 net.cpp:425] elt_d_2 <- conv_d_2_2
I0622 19:43:12.437309 36972 net.cpp:399] elt_d_2 -> elt_d_2
I0622 19:43:12.437342 36972 net.cpp:141] Setting up elt_d_2
I0622 19:43:12.437356 36972 net.cpp:148] Top shape: 100 128 16 16 (3276800)
I0622 19:43:12.437364 36972 net.cpp:156] Memory required for data: 964608400
I0622 19:43:12.437371 36972 layer_factory.hpp:77] Creating layer elt_d_2_elt_d_2_0_split
I0622 19:43:12.437381 36972 net.cpp:91] Creating Layer elt_d_2_elt_d_2_0_split
I0622 19:43:12.437391 36972 net.cpp:425] elt_d_2_elt_d_2_0_split <- elt_d_2
I0622 19:43:12.437398 36972 net.cpp:399] elt_d_2_elt_d_2_0_split -> elt_d_2_elt_d_2_0_split_0
I0622 19:43:12.437409 36972 net.cpp:399] elt_d_2_elt_d_2_0_split -> elt_d_2_elt_d_2_0_split_1
I0622 19:43:12.437460 36972 net.cpp:141] Setting up elt_d_2_elt_d_2_0_split
I0622 19:43:12.437474 36972 net.cpp:148] Top shape: 100 128 16 16 (3276800)
I0622 19:43:12.437500 36972 net.cpp:148] Top shape: 100 128 16 16 (3276800)
I0622 19:43:12.437507 36972 net.cpp:156] Memory required for data: 990822800
I0622 19:43:12.437515 36972 layer_factory.hpp:77] Creating layer bn_d_3_1
I0622 19:43:12.437528 36972 net.cpp:91] Creating Layer bn_d_3_1
I0622 19:43:12.437537 36972 net.cpp:425] bn_d_3_1 <- elt_d_2_elt_d_2_0_split_0
I0622 19:43:12.437548 36972 net.cpp:399] bn_d_3_1 -> bn_d_3_1
I0622 19:43:12.437773 36972 net.cpp:141] Setting up bn_d_3_1
I0622 19:43:12.437788 36972 net.cpp:148] Top shape: 100 128 16 16 (3276800)
I0622 19:43:12.437793 36972 net.cpp:156] Memory required for data: 1003930000
I0622 19:43:12.437804 36972 layer_factory.hpp:77] Creating layer relu_d_3_1
I0622 19:43:12.437825 36972 net.cpp:91] Creating Layer relu_d_3_1
I0622 19:43:12.437835 36972 net.cpp:425] relu_d_3_1 <- bn_d_3_1
I0622 19:43:12.437844 36972 net.cpp:399] relu_d_3_1 -> relu_d_3_1
I0622 19:43:12.438200 36972 net.cpp:141] Setting up relu_d_3_1
I0622 19:43:12.438222 36972 net.cpp:148] Top shape: 100 128 16 16 (3276800)
I0622 19:43:12.438235 36972 net.cpp:156] Memory required for data: 1017037200
I0622 19:43:12.438274 36972 layer_factory.hpp:77] Creating layer conv_d_3_1
I0622 19:43:12.438338 36972 net.cpp:91] Creating Layer conv_d_3_1
I0622 19:43:12.438351 36972 net.cpp:425] conv_d_3_1 <- relu_d_3_1
I0622 19:43:12.438364 36972 net.cpp:399] conv_d_3_1 -> conv_d_3_1
I0622 19:43:12.444710 36972 net.cpp:141] Setting up conv_d_3_1
I0622 19:43:12.444730 36972 net.cpp:148] Top shape: 100 128 16 16 (3276800)
I0622 19:43:12.444737 36972 net.cpp:156] Memory required for data: 1030144400
I0622 19:43:12.444747 36972 layer_factory.hpp:77] Creating layer bn_d_3_2
I0622 19:43:12.444761 36972 net.cpp:91] Creating Layer bn_d_3_2
I0622 19:43:12.444767 36972 net.cpp:425] bn_d_3_2 <- conv_d_3_1
I0622 19:43:12.444782 36972 net.cpp:399] bn_d_3_2 -> bn_d_3_2
I0622 19:43:12.445013 36972 net.cpp:141] Setting up bn_d_3_2
I0622 19:43:12.445026 36972 net.cpp:148] Top shape: 100 128 16 16 (3276800)
I0622 19:43:12.445034 36972 net.cpp:156] Memory required for data: 1043251600
I0622 19:43:12.445046 36972 layer_factory.hpp:77] Creating layer relu_d_3_2
I0622 19:43:12.445058 36972 net.cpp:91] Creating Layer relu_d_3_2
I0622 19:43:12.445065 36972 net.cpp:425] relu_d_3_2 <- bn_d_3_2
I0622 19:43:12.445075 36972 net.cpp:399] relu_d_3_2 -> relu_d_3_2
I0622 19:43:12.445515 36972 net.cpp:141] Setting up relu_d_3_2
I0622 19:43:12.445533 36972 net.cpp:148] Top shape: 100 128 16 16 (3276800)
I0622 19:43:12.445539 36972 net.cpp:156] Memory required for data: 1056358800
I0622 19:43:12.445545 36972 layer_factory.hpp:77] Creating layer conv_d_3_2
I0622 19:43:12.445564 36972 net.cpp:91] Creating Layer conv_d_3_2
I0622 19:43:12.445570 36972 net.cpp:425] conv_d_3_2 <- relu_d_3_2
I0622 19:43:12.445585 36972 net.cpp:399] conv_d_3_2 -> conv_d_3_2
I0622 19:43:12.452114 36972 net.cpp:141] Setting up conv_d_3_2
I0622 19:43:12.452134 36972 net.cpp:148] Top shape: 100 128 16 16 (3276800)
I0622 19:43:12.452142 36972 net.cpp:156] Memory required for data: 1069466000
I0622 19:43:12.452165 36972 layer_factory.hpp:77] Creating layer elt_d_3
I0622 19:43:12.452177 36972 net.cpp:91] Creating Layer elt_d_3
I0622 19:43:12.452185 36972 net.cpp:425] elt_d_3 <- elt_d_2_elt_d_2_0_split_1
I0622 19:43:12.452193 36972 net.cpp:425] elt_d_3 <- conv_d_3_2
I0622 19:43:12.452205 36972 net.cpp:399] elt_d_3 -> elt_d_3
I0622 19:43:12.452246 36972 net.cpp:141] Setting up elt_d_3
I0622 19:43:12.452260 36972 net.cpp:148] Top shape: 100 128 16 16 (3276800)
I0622 19:43:12.452268 36972 net.cpp:156] Memory required for data: 1082573200
I0622 19:43:12.452275 36972 layer_factory.hpp:77] Creating layer elt_d_3_elt_d_3_0_split
I0622 19:43:12.452296 36972 net.cpp:91] Creating Layer elt_d_3_elt_d_3_0_split
I0622 19:43:12.452301 36972 net.cpp:425] elt_d_3_elt_d_3_0_split <- elt_d_3
I0622 19:43:12.452309 36972 net.cpp:399] elt_d_3_elt_d_3_0_split -> elt_d_3_elt_d_3_0_split_0
I0622 19:43:12.452319 36972 net.cpp:399] elt_d_3_elt_d_3_0_split -> elt_d_3_elt_d_3_0_split_1
I0622 19:43:12.452394 36972 net.cpp:141] Setting up elt_d_3_elt_d_3_0_split
I0622 19:43:12.452409 36972 net.cpp:148] Top shape: 100 128 16 16 (3276800)
I0622 19:43:12.452419 36972 net.cpp:148] Top shape: 100 128 16 16 (3276800)
I0622 19:43:12.452425 36972 net.cpp:156] Memory required for data: 1108787600
I0622 19:43:12.452432 36972 layer_factory.hpp:77] Creating layer bn_j_1_1
I0622 19:43:12.452446 36972 net.cpp:91] Creating Layer bn_j_1_1
I0622 19:43:12.452455 36972 net.cpp:425] bn_j_1_1 <- elt_d_3_elt_d_3_0_split_0
I0622 19:43:12.452464 36972 net.cpp:399] bn_j_1_1 -> bn_j_1_1
I0622 19:43:12.452697 36972 net.cpp:141] Setting up bn_j_1_1
I0622 19:43:12.452711 36972 net.cpp:148] Top shape: 100 128 16 16 (3276800)
I0622 19:43:12.452718 36972 net.cpp:156] Memory required for data: 1121894800
I0622 19:43:12.452728 36972 layer_factory.hpp:77] Creating layer relu_j_1_1
I0622 19:43:12.452739 36972 net.cpp:91] Creating Layer relu_j_1_1
I0622 19:43:12.452746 36972 net.cpp:425] relu_j_1_1 <- bn_j_1_1
I0622 19:43:12.452757 36972 net.cpp:399] relu_j_1_1 -> relu_j_1_1
I0622 19:43:12.453094 36972 net.cpp:141] Setting up relu_j_1_1
I0622 19:43:12.453116 36972 net.cpp:148] Top shape: 100 128 16 16 (3276800)
I0622 19:43:12.453130 36972 net.cpp:156] Memory required for data: 1135002000
I0622 19:43:12.453141 36972 layer_factory.hpp:77] Creating layer conv_j_1_1
I0622 19:43:12.453158 36972 net.cpp:91] Creating Layer conv_j_1_1
I0622 19:43:12.453168 36972 net.cpp:425] conv_j_1_1 <- relu_j_1_1
I0622 19:43:12.453182 36972 net.cpp:399] conv_j_1_1 -> conv_j_1_1
I0622 19:43:12.464426 36972 net.cpp:141] Setting up conv_j_1_1
I0622 19:43:12.464447 36972 net.cpp:148] Top shape: 100 256 8 8 (1638400)
I0622 19:43:12.464453 36972 net.cpp:156] Memory required for data: 1141555600
I0622 19:43:12.464463 36972 layer_factory.hpp:77] Creating layer bn_j_1_2
I0622 19:43:12.464478 36972 net.cpp:91] Creating Layer bn_j_1_2
I0622 19:43:12.464488 36972 net.cpp:425] bn_j_1_2 <- conv_j_1_1
I0622 19:43:12.464503 36972 net.cpp:399] bn_j_1_2 -> bn_j_1_2
I0622 19:43:12.464746 36972 net.cpp:141] Setting up bn_j_1_2
I0622 19:43:12.464761 36972 net.cpp:148] Top shape: 100 256 8 8 (1638400)
I0622 19:43:12.464767 36972 net.cpp:156] Memory required for data: 1148109200
I0622 19:43:12.464778 36972 layer_factory.hpp:77] Creating layer relu_j_1_2
I0622 19:43:12.464789 36972 net.cpp:91] Creating Layer relu_j_1_2
I0622 19:43:12.464797 36972 net.cpp:425] relu_j_1_2 <- bn_j_1_2
I0622 19:43:12.464807 36972 net.cpp:399] relu_j_1_2 -> relu_j_1_2
I0622 19:43:12.465147 36972 net.cpp:141] Setting up relu_j_1_2
I0622 19:43:12.465164 36972 net.cpp:148] Top shape: 100 256 8 8 (1638400)
I0622 19:43:12.465172 36972 net.cpp:156] Memory required for data: 1154662800
I0622 19:43:12.465178 36972 layer_factory.hpp:77] Creating layer conv_j_1_2
I0622 19:43:12.465193 36972 net.cpp:91] Creating Layer conv_j_1_2
I0622 19:43:12.465200 36972 net.cpp:425] conv_j_1_2 <- relu_j_1_2
I0622 19:43:12.465216 36972 net.cpp:399] conv_j_1_2 -> conv_j_1_2
I0622 19:43:12.486423 36972 net.cpp:141] Setting up conv_j_1_2
I0622 19:43:12.486443 36972 net.cpp:148] Top shape: 100 256 8 8 (1638400)
I0622 19:43:12.486450 36972 net.cpp:156] Memory required for data: 1161216400
I0622 19:43:12.486460 36972 layer_factory.hpp:77] Creating layer res_j
I0622 19:43:12.486480 36972 net.cpp:91] Creating Layer res_j
I0622 19:43:12.486488 36972 net.cpp:425] res_j <- elt_d_3_elt_d_3_0_split_1
I0622 19:43:12.486502 36972 net.cpp:399] res_j -> res_j
I0622 19:43:12.488709 36972 net.cpp:141] Setting up res_j
I0622 19:43:12.488729 36972 net.cpp:148] Top shape: 100 256 8 8 (1638400)
I0622 19:43:12.488735 36972 net.cpp:156] Memory required for data: 1167770000
I0622 19:43:12.488745 36972 layer_factory.hpp:77] Creating layer elt_j_1
I0622 19:43:12.488755 36972 net.cpp:91] Creating Layer elt_j_1
I0622 19:43:12.488761 36972 net.cpp:425] elt_j_1 <- res_j
I0622 19:43:12.488770 36972 net.cpp:425] elt_j_1 <- conv_j_1_2
I0622 19:43:12.488785 36972 net.cpp:399] elt_j_1 -> elt_j_1
I0622 19:43:12.488826 36972 net.cpp:141] Setting up elt_j_1
I0622 19:43:12.488839 36972 net.cpp:148] Top shape: 100 256 8 8 (1638400)
I0622 19:43:12.488863 36972 net.cpp:156] Memory required for data: 1174323600
I0622 19:43:12.488881 36972 layer_factory.hpp:77] Creating layer elt_j_1_elt_j_1_0_split
I0622 19:43:12.488891 36972 net.cpp:91] Creating Layer elt_j_1_elt_j_1_0_split
I0622 19:43:12.488898 36972 net.cpp:425] elt_j_1_elt_j_1_0_split <- elt_j_1
I0622 19:43:12.488905 36972 net.cpp:399] elt_j_1_elt_j_1_0_split -> elt_j_1_elt_j_1_0_split_0
I0622 19:43:12.488919 36972 net.cpp:399] elt_j_1_elt_j_1_0_split -> elt_j_1_elt_j_1_0_split_1
I0622 19:43:12.488970 36972 net.cpp:141] Setting up elt_j_1_elt_j_1_0_split
I0622 19:43:12.488984 36972 net.cpp:148] Top shape: 100 256 8 8 (1638400)
I0622 19:43:12.488994 36972 net.cpp:148] Top shape: 100 256 8 8 (1638400)
I0622 19:43:12.488999 36972 net.cpp:156] Memory required for data: 1187430800
I0622 19:43:12.489007 36972 layer_factory.hpp:77] Creating layer bn_j_2_1
I0622 19:43:12.489020 36972 net.cpp:91] Creating Layer bn_j_2_1
I0622 19:43:12.489028 36972 net.cpp:425] bn_j_2_1 <- elt_j_1_elt_j_1_0_split_0
I0622 19:43:12.489040 36972 net.cpp:399] bn_j_2_1 -> bn_j_2_1
I0622 19:43:12.489274 36972 net.cpp:141] Setting up bn_j_2_1
I0622 19:43:12.489289 36972 net.cpp:148] Top shape: 100 256 8 8 (1638400)
I0622 19:43:12.489295 36972 net.cpp:156] Memory required for data: 1193984400
I0622 19:43:12.489305 36972 layer_factory.hpp:77] Creating layer relu_j_2_1
I0622 19:43:12.489315 36972 net.cpp:91] Creating Layer relu_j_2_1
I0622 19:43:12.489320 36972 net.cpp:425] relu_j_2_1 <- bn_j_2_1
I0622 19:43:12.489328 36972 net.cpp:399] relu_j_2_1 -> relu_j_2_1
I0622 19:43:12.489681 36972 net.cpp:141] Setting up relu_j_2_1
I0622 19:43:12.489698 36972 net.cpp:148] Top shape: 100 256 8 8 (1638400)
I0622 19:43:12.489706 36972 net.cpp:156] Memory required for data: 1200538000
I0622 19:43:12.489714 36972 layer_factory.hpp:77] Creating layer conv_j_2_1
I0622 19:43:12.489738 36972 net.cpp:91] Creating Layer conv_j_2_1
I0622 19:43:12.489747 36972 net.cpp:425] conv_j_2_1 <- relu_j_2_1
I0622 19:43:12.489758 36972 net.cpp:399] conv_j_2_1 -> conv_j_2_1
I0622 19:43:12.511095 36972 net.cpp:141] Setting up conv_j_2_1
I0622 19:43:12.511114 36972 net.cpp:148] Top shape: 100 256 8 8 (1638400)
I0622 19:43:12.511121 36972 net.cpp:156] Memory required for data: 1207091600
I0622 19:43:12.511132 36972 layer_factory.hpp:77] Creating layer bn_j_2_2
I0622 19:43:12.511145 36972 net.cpp:91] Creating Layer bn_j_2_2
I0622 19:43:12.511152 36972 net.cpp:425] bn_j_2_2 <- conv_j_2_1
I0622 19:43:12.511168 36972 net.cpp:399] bn_j_2_2 -> bn_j_2_2
I0622 19:43:12.511415 36972 net.cpp:141] Setting up bn_j_2_2
I0622 19:43:12.511428 36972 net.cpp:148] Top shape: 100 256 8 8 (1638400)
I0622 19:43:12.511435 36972 net.cpp:156] Memory required for data: 1213645200
I0622 19:43:12.511446 36972 layer_factory.hpp:77] Creating layer relu_j_2_2
I0622 19:43:12.511456 36972 net.cpp:91] Creating Layer relu_j_2_2
I0622 19:43:12.511464 36972 net.cpp:425] relu_j_2_2 <- bn_j_2_2
I0622 19:43:12.511476 36972 net.cpp:399] relu_j_2_2 -> relu_j_2_2
I0622 19:43:12.511703 36972 net.cpp:141] Setting up relu_j_2_2
I0622 19:43:12.511721 36972 net.cpp:148] Top shape: 100 256 8 8 (1638400)
I0622 19:43:12.511729 36972 net.cpp:156] Memory required for data: 1220198800
I0622 19:43:12.511735 36972 layer_factory.hpp:77] Creating layer conv_j_2_2
I0622 19:43:12.511752 36972 net.cpp:91] Creating Layer conv_j_2_2
I0622 19:43:12.511761 36972 net.cpp:425] conv_j_2_2 <- relu_j_2_2
I0622 19:43:12.511773 36972 net.cpp:399] conv_j_2_2 -> conv_j_2_2
I0622 19:43:12.532984 36972 net.cpp:141] Setting up conv_j_2_2
I0622 19:43:12.533004 36972 net.cpp:148] Top shape: 100 256 8 8 (1638400)
I0622 19:43:12.533010 36972 net.cpp:156] Memory required for data: 1226752400
I0622 19:43:12.533020 36972 layer_factory.hpp:77] Creating layer elt_j_2
I0622 19:43:12.533033 36972 net.cpp:91] Creating Layer elt_j_2
I0622 19:43:12.533041 36972 net.cpp:425] elt_j_2 <- elt_j_1_elt_j_1_0_split_1
I0622 19:43:12.533048 36972 net.cpp:425] elt_j_2 <- conv_j_2_2
I0622 19:43:12.533061 36972 net.cpp:399] elt_j_2 -> elt_j_2
I0622 19:43:12.533126 36972 net.cpp:141] Setting up elt_j_2
I0622 19:43:12.533141 36972 net.cpp:148] Top shape: 100 256 8 8 (1638400)
I0622 19:43:12.533149 36972 net.cpp:156] Memory required for data: 1233306000
I0622 19:43:12.533156 36972 layer_factory.hpp:77] Creating layer elt_j_2_elt_j_2_0_split
I0622 19:43:12.533167 36972 net.cpp:91] Creating Layer elt_j_2_elt_j_2_0_split
I0622 19:43:12.533176 36972 net.cpp:425] elt_j_2_elt_j_2_0_split <- elt_j_2
I0622 19:43:12.533187 36972 net.cpp:399] elt_j_2_elt_j_2_0_split -> elt_j_2_elt_j_2_0_split_0
I0622 19:43:12.533200 36972 net.cpp:399] elt_j_2_elt_j_2_0_split -> elt_j_2_elt_j_2_0_split_1
I0622 19:43:12.533252 36972 net.cpp:141] Setting up elt_j_2_elt_j_2_0_split
I0622 19:43:12.533267 36972 net.cpp:148] Top shape: 100 256 8 8 (1638400)
I0622 19:43:12.533275 36972 net.cpp:148] Top shape: 100 256 8 8 (1638400)
I0622 19:43:12.533282 36972 net.cpp:156] Memory required for data: 1246413200
I0622 19:43:12.533289 36972 layer_factory.hpp:77] Creating layer bn_j_3_1
I0622 19:43:12.533303 36972 net.cpp:91] Creating Layer bn_j_3_1
I0622 19:43:12.533311 36972 net.cpp:425] bn_j_3_1 <- elt_j_2_elt_j_2_0_split_0
I0622 19:43:12.533324 36972 net.cpp:399] bn_j_3_1 -> bn_j_3_1
I0622 19:43:12.533566 36972 net.cpp:141] Setting up bn_j_3_1
I0622 19:43:12.533581 36972 net.cpp:148] Top shape: 100 256 8 8 (1638400)
I0622 19:43:12.533586 36972 net.cpp:156] Memory required for data: 1252966800
I0622 19:43:12.533597 36972 layer_factory.hpp:77] Creating layer relu_j_3_1
I0622 19:43:12.533607 36972 net.cpp:91] Creating Layer relu_j_3_1
I0622 19:43:12.533613 36972 net.cpp:425] relu_j_3_1 <- bn_j_3_1
I0622 19:43:12.533622 36972 net.cpp:399] relu_j_3_1 -> relu_j_3_1
I0622 19:43:12.533869 36972 net.cpp:141] Setting up relu_j_3_1
I0622 19:43:12.533888 36972 net.cpp:148] Top shape: 100 256 8 8 (1638400)
I0622 19:43:12.533900 36972 net.cpp:156] Memory required for data: 1259520400
I0622 19:43:12.533911 36972 layer_factory.hpp:77] Creating layer conv_j_3_1
I0622 19:43:12.533959 36972 net.cpp:91] Creating Layer conv_j_3_1
I0622 19:43:12.533974 36972 net.cpp:425] conv_j_3_1 <- relu_j_3_1
I0622 19:43:12.533998 36972 net.cpp:399] conv_j_3_1 -> conv_j_3_1
I0622 19:43:12.555375 36972 net.cpp:141] Setting up conv_j_3_1
I0622 19:43:12.555404 36972 net.cpp:148] Top shape: 100 256 8 8 (1638400)
I0622 19:43:12.555418 36972 net.cpp:156] Memory required for data: 1266074000
I0622 19:43:12.555436 36972 layer_factory.hpp:77] Creating layer bn_j_3_2
I0622 19:43:12.555460 36972 net.cpp:91] Creating Layer bn_j_3_2
I0622 19:43:12.555470 36972 net.cpp:425] bn_j_3_2 <- conv_j_3_1
I0622 19:43:12.555480 36972 net.cpp:399] bn_j_3_2 -> bn_j_3_2
I0622 19:43:12.555733 36972 net.cpp:141] Setting up bn_j_3_2
I0622 19:43:12.555747 36972 net.cpp:148] Top shape: 100 256 8 8 (1638400)
I0622 19:43:12.555753 36972 net.cpp:156] Memory required for data: 1272627600
I0622 19:43:12.555765 36972 layer_factory.hpp:77] Creating layer relu_j_3_2
I0622 19:43:12.555774 36972 net.cpp:91] Creating Layer relu_j_3_2
I0622 19:43:12.555781 36972 net.cpp:425] relu_j_3_2 <- bn_j_3_2
I0622 19:43:12.555789 36972 net.cpp:399] relu_j_3_2 -> relu_j_3_2
I0622 19:43:12.556149 36972 net.cpp:141] Setting up relu_j_3_2
I0622 19:43:12.556166 36972 net.cpp:148] Top shape: 100 256 8 8 (1638400)
I0622 19:43:12.556172 36972 net.cpp:156] Memory required for data: 1279181200
I0622 19:43:12.556180 36972 layer_factory.hpp:77] Creating layer conv_j_3_2
I0622 19:43:12.556195 36972 net.cpp:91] Creating Layer conv_j_3_2
I0622 19:43:12.556203 36972 net.cpp:425] conv_j_3_2 <- relu_j_3_2
I0622 19:43:12.556217 36972 net.cpp:399] conv_j_3_2 -> conv_j_3_2
I0622 19:43:12.577235 36972 net.cpp:141] Setting up conv_j_3_2
I0622 19:43:12.577255 36972 net.cpp:148] Top shape: 100 256 8 8 (1638400)
I0622 19:43:12.577262 36972 net.cpp:156] Memory required for data: 1285734800
I0622 19:43:12.577272 36972 layer_factory.hpp:77] Creating layer elt_j_3
I0622 19:43:12.577283 36972 net.cpp:91] Creating Layer elt_j_3
I0622 19:43:12.577289 36972 net.cpp:425] elt_j_3 <- elt_j_2_elt_j_2_0_split_1
I0622 19:43:12.577327 36972 net.cpp:425] elt_j_3 <- conv_j_3_2
I0622 19:43:12.577342 36972 net.cpp:399] elt_j_3 -> elt_j_3
I0622 19:43:12.577384 36972 net.cpp:141] Setting up elt_j_3
I0622 19:43:12.577401 36972 net.cpp:148] Top shape: 100 256 8 8 (1638400)
I0622 19:43:12.577409 36972 net.cpp:156] Memory required for data: 1292288400
I0622 19:43:12.577415 36972 layer_factory.hpp:77] Creating layer bn_m_1_1
I0622 19:43:12.577426 36972 net.cpp:91] Creating Layer bn_m_1_1
I0622 19:43:12.577435 36972 net.cpp:425] bn_m_1_1 <- elt_j_3
I0622 19:43:12.577447 36972 net.cpp:399] bn_m_1_1 -> bn_m_1_1
I0622 19:43:12.577703 36972 net.cpp:141] Setting up bn_m_1_1
I0622 19:43:12.577718 36972 net.cpp:148] Top shape: 100 256 8 8 (1638400)
I0622 19:43:12.577723 36972 net.cpp:156] Memory required for data: 1298842000
I0622 19:43:12.577735 36972 layer_factory.hpp:77] Creating layer relu_m_1_1
I0622 19:43:12.577744 36972 net.cpp:91] Creating Layer relu_m_1_1
I0622 19:43:12.577750 36972 net.cpp:425] relu_m_1_1 <- bn_m_1_1
I0622 19:43:12.577761 36972 net.cpp:399] relu_m_1_1 -> relu_m_1_1
I0622 19:43:12.577982 36972 net.cpp:141] Setting up relu_m_1_1
I0622 19:43:12.577999 36972 net.cpp:148] Top shape: 100 256 8 8 (1638400)
I0622 19:43:12.578006 36972 net.cpp:156] Memory required for data: 1305395600
I0622 19:43:12.578011 36972 layer_factory.hpp:77] Creating layer gap
I0622 19:43:12.578025 36972 net.cpp:91] Creating Layer gap
I0622 19:43:12.578032 36972 net.cpp:425] gap <- relu_m_1_1
I0622 19:43:12.578040 36972 net.cpp:399] gap -> gap
I0622 19:43:12.578533 36972 net.cpp:141] Setting up gap
I0622 19:43:12.578552 36972 net.cpp:148] Top shape: 100 256 1 1 (25600)
I0622 19:43:12.578557 36972 net.cpp:156] Memory required for data: 1305498000
I0622 19:43:12.578564 36972 layer_factory.hpp:77] Creating layer ip1
I0622 19:43:12.578578 36972 net.cpp:91] Creating Layer ip1
I0622 19:43:12.578584 36972 net.cpp:425] ip1 <- gap
I0622 19:43:12.578595 36972 net.cpp:399] ip1 -> ip1
I0622 19:43:12.578853 36972 net.cpp:141] Setting up ip1
I0622 19:43:12.578871 36972 net.cpp:148] Top shape: 100 10 (1000)
I0622 19:43:12.578877 36972 net.cpp:156] Memory required for data: 1305502000
I0622 19:43:12.578887 36972 layer_factory.hpp:77] Creating layer loss
I0622 19:43:12.578903 36972 net.cpp:91] Creating Layer loss
I0622 19:43:12.578912 36972 net.cpp:425] loss <- ip1
I0622 19:43:12.578919 36972 net.cpp:425] loss <- label
I0622 19:43:12.578930 36972 net.cpp:399] loss -> loss
I0622 19:43:12.578949 36972 layer_factory.hpp:77] Creating layer loss
…
I0622 19:43:12.582336 36972 net.cpp:313] The NetState phase (1) differed from the phase (0) specified by a rule in layer resnet
I0622 19:43:12.582893 36972 net.cpp:49] Initializing net from parameters: 
name: "ResNet"
state {
  phase: TEST
}
layer {
  name: "resnet"
  type: "Data"
  top: "data"
  top: "label"
  include {
    phase: TEST
  }
  transform_param {
    mean_file: "/home/takeki/caffe/examples/cifar10/mean.binaryproto"
  }
  data_param {
    source: "/home/takeki/caffe/examples/cifar10/cifar10_test_lmdb"
    batch_size: 100
    backend: LMDB
  }
}
layer {
  name: "conv0"
  type: "Convolution"
  bottom: "data"
  top: "conv0"
  param {
    lr_mult: 1
  }
  param {
    lr_mult: 2
  }
  convolution_param {
    num_output: 16
    pad: 1
    kernel_size: 3
    stride: 1
    weight_filler {
      type: "msra"
    }
    bias_filler {
      type: "constant"
    }
  }
}
layer {
  name: "bn_a_1_1"
  type: "BatchNorm"
  bottom: "conv0"
  top: "bn_a_1_1"
  param {
    lr_mult: 0
  }
  param {
    lr_mult: 0
  }
  param {
    lr_mult: 0
  }
  batch_norm_param {
    use_global_stats: false
  }
}
layer {
  name: "relu_a_1_1"
  type: "ReLU"
  bottom: "bn_a_1_1"
  top: "relu_a_1_1"
}
layer {
  name: "conv_a_1_1"
  type: "Convolution"
  bottom: "relu_a_1_1"
  top: "conv_a_1_1"
  param {
    lr_mult: 1
    decay_mult: 1
  }
  param {
    lr_mult: 2
    decay_mult: 1
  }
  convolution_param {
    num_output: 64
    pad: 1
    kernel_size: 3
    stride: 1
    weight_filler {
      type: "msra"
    }
    bias_filler {
      type: "constant"
    }
  }
}
layer {
  name: "bn_a_1_2"
  type: "BatchNorm"
  bottom: "conv_a_1_1"
  top: "bn_a_1_2"
  param {
    lr_mult: 0
  }
  param {
    lr_mult: 0
  }
  param {
    lr_mult: 0
  }
  batch_norm_param {
    use_global_stats: false
  }
}
layer {
  name: "relu_a_1_2"
  type: "ReLU"
  bottom: "bn_a_1_2"
  top: "relu_a_1_2"
}
layer {
  name: "conv_a_1_2"
  type: "Convolution"
  bottom: "relu_a_1_2"
  top: "conv_a_1_2"
  param {
    lr_mult: 1
    decay_mult: 1
  }
  param {
    lr_mult: 2
    decay_mult: 1
  }
  convolution_param {
    num_output: 64
    pad: 1
    kernel_size: 3
    stride: 1
    weight_filler {
      type: "msra"
    }
    bias_filler {
      type: "constant"
    }
  }
}
layer {
  name: "res_a"
  type: "Convolution"
  bottom: "conv0"
  top: "res_a"
  param {
    lr_mult: 1
    decay_mult: 1
  }
  param {
    lr_mult: 2
    decay_mult: 1
  }
  convolution_param {
    num_output: 64
    pad: 0
    kernel_size: 1
    stride: 1
    weight_filler {
      type: "msra"
    }
    bias_filler {
      type: "constant"
    }
  }
}
layer {
  name: "elt_a_1"
  type: "Eltwise"
  bottom: "res_a"
  bottom: "conv_a_1_2"
  top: "elt_a_1"
  eltwise_param {
    operation: SUM
  }
}
layer {
  name: "bn_a_2_1"
  type: "BatchNorm"
  bottom: "elt_a_1"
  top: "bn_a_2_1"
  param {
    lr_mult: 0
  }
  param {
    lr_mult: 0
  }
  param {
    lr_mult: 0
  }
  batch_norm_param {
    use_global_stats: false
  }
}
layer {
  name: "relu_a_2_1"
  type: "ReLU"
  bottom: "bn_a_2_1"
  top: "relu_a_2_1"
}
layer {
  name: "conv_a_2_1"
  type: "Convolution"
  bottom: "relu_a_2_1"
  top: "conv_a_2_1"
  param {
    lr_mult: 1
    decay_mult: 1
  }
  param {
    lr_mult: 2
    decay_mult: 1
  }
  convolution_param {
    num_output: 64
    pad: 1
    kernel_size: 3
    stride: 1
    weight_filler {
      type: "msra"
    }
    bias_filler {
      type: "constant"
    }
  }
}
layer {
  name: "bn_a_2_2"
  type: "BatchNorm"
  bottom: "conv_a_2_1"
  top: "bn_a_2_2"
  param {
    lr_mult: 0
  }
  param {
    lr_mult: 0
  }
  param {
    lr_mult: 0
  }
  batch_norm_param {
    use_global_stats: false
  }
}
layer {
  name: "relu_a_2_2"
  type: "ReLU"
  bottom: "bn_a_2_2"
  top: "relu_a_2_2"
}
layer {
  name: "conv_a_2_2"
  type: "Convolution"
  bottom: "relu_a_2_2"
  top: "conv_a_2_2"
  param {
    lr_mult: 1
    decay_mult: 1
  }
  param {
    lr_mult: 2
    decay_mult: 1
  }
  convolution_param {
    num_output: 64
    pad: 1
    kernel_size: 3
    stride: 1
    weight_filler {
      type: "msra"
    }
    bias_filler {
      type: "constant"
    }
  }
}
layer {
  name: "elt_a_2"
  type: "Eltwise"
  bottom: "elt_a_1"
  bottom: "conv_a_2_2"
  top: "elt_a_2"
  eltwise_param {
    operation: SUM
  }
}
layer {
  name: "bn_a_3_1"
  type: "BatchNorm"
  bottom: "elt_a_2"
  top: "bn_a_3_1"
  param {
    lr_mult: 0
  }
  param {
    lr_mult: 0
  }
  param {
    lr_mult: 0
  }
  batch_norm_param {
    use_global_stats: false
  }
}
layer {
  name: "relu_a_3_1"
  type: "ReLU"
  bottom: "bn_a_3_1"
  top: "relu_a_3_1"
}
layer {
  name: "conv_a_3_1"
  type: "Convolution"
  bottom: "relu_a_3_1"
  top: "conv_a_3_1"
  param {
    lr_mult: 1
    decay_mult: 1
  }
  param {
    lr_mult: 2
    decay_mult: 1
  }
  convolution_param {
    num_output: 64
    pad: 1
    kernel_size: 3
    stride: 1
    weight_filler {
      type: "msra"
    }
    bias_filler {
      type: "constant"
    }
  }
}
layer {
  name: "bn_a_3_2"
  type: "BatchNorm"
  bottom: "conv_a_3_1"
  top: "bn_a_3_2"
  param {
    lr_mult: 0
  }
  param {
    lr_mult: 0
  }
  param {
    lr_mult: 0
  }
  batch_norm_param {
    use_global_stats: false
  }
}
layer {
  name: "relu_a_3_2"
  type: "ReLU"
  bottom: "bn_a_3_2"
  top: "relu_a_3_2"
}
layer {
  name: "conv_a_3_2"
  type: "Convolution"
  bottom: "relu_a_3_2"
  top: "conv_a_3_2"
  param {
    lr_mult: 1
    decay_mult: 1
  }
  param {
    lr_mult: 2
    decay_mult: 1
  }
  convolution_param {
    num_output: 64
    pad: 1
    kernel_size: 3
    stride: 1
    weight_filler {
      type: "msra"
    }
    bias_filler {
      type: "constant"
    }
  }
}
layer {
  name: "elt_a_3"
  type: "Eltwise"
  bottom: "elt_a_2"
  bottom: "conv_a_3_2"
  top: "elt_a_3"
  eltwise_param {
    operation: SUM
  }
}
layer {
  name: "bn_d_1_1"
  type: "BatchNorm"
  bottom: "elt_a_3"
  top: "bn_d_1_1"
  param {
    lr_mult: 0
  }
  param {
    lr_mult: 0
  }
  param {
    lr_mult: 0
  }
  batch_norm_param {
    use_global_stats: false
  }
}
layer {
  name: "relu_d_1_1"
  type: "ReLU"
  bottom: "bn_d_1_1"
  top: "relu_d_1_1"
}
layer {
  name: "conv_d_1_1"
  type: "Convolution"
  bottom: "relu_d_1_1"
  top: "conv_d_1_1"
  param {
    lr_mult: 1
    decay_mult: 1
  }
  param {
    lr_mult: 2
    decay_mult: 1
  }
  convolution_param {
    num_output: 128
    pad: 1
    kernel_size: 3
    stride: 2
    weight_filler {
      type: "msra"
    }
    bias_filler {
      type: "constant"
    }
  }
}
layer {
  name: "bn_d_1_2"
  type: "BatchNorm"
  bottom: "conv_d_1_1"
  top: "bn_d_1_2"
  param {
    lr_mult: 0
  }
  param {
    lr_mult: 0
  }
  param {
    lr_mult: 0
  }
  batch_norm_param {
    use_global_stats: false
  }
}
layer {
  name: "relu_d_1_2"
  type: "ReLU"
  bottom: "bn_d_1_2"
  top: "relu_d_1_2"
}
layer {
  name: "conv_d_1_2"
  type: "Convolution"
  bottom: "relu_d_1_2"
  top: "conv_d_1_2"
  param {
    lr_mult: 1
    decay_mult: 1
  }
  param {
    lr_mult: 2
    decay_mult: 1
  }
  convolution_param {
    num_output: 128
    pad: 1
    kernel_size: 3
    stride: 1
    weight_filler {
      type: "msra"
    }
    bias_filler {
      type: "constant"
    }
  }
}
layer {
  name: "res_d"
  type: "Convolution"
  bottom: "elt_a_3"
  top: "res_d"
  param {
    lr_mult: 1
    decay_mult: 1
  }
  param {
    lr_mult: 2
    decay_mult: 1
  }
  convolution_param {
    num_output: 128
    pad: 0
    kernel_size: 1
    stride: 2
    weight_filler {
      type: "msra"
    }
    bias_filler {
      type: "constant"
    }
  }
}
layer {
  name: "elt_d_1"
  type: "Eltwise"
  bottom: "res_d"
  bottom: "conv_d_1_2"
  top: "elt_d_1"
  eltwise_param {
    operation: SUM
  }
}
layer {
  name: "bn_d_2_1"
  type: "BatchNorm"
  bottom: "elt_d_1"
  top: "bn_d_2_1"
  param {
    lr_mult: 0
  }
  param {
    lr_mult: 0
  }
  param {
    lr_mult: 0
  }
  batch_norm_param {
    use_global_stats: false
  }
}
layer {
  name: "relu_d_2_1"
  type: "ReLU"
  bottom: "bn_d_2_1"
  top: "relu_d_2_1"
}
layer {
  name: "conv_d_2_1"
  type: "Convolution"
  bottom: "relu_d_2_1"
  top: "conv_d_2_1"
  param {
    lr_mult: 1
    decay_mult: 1
  }
  param {
    lr_mult: 2
    decay_mult: 1
  }
  convolution_param {
    num_output: 128
    pad: 1
    kernel_size: 3
    stride: 1
    weight_filler {
      type: "msra"
    }
    bias_filler {
      type: "constant"
    }
  }
}
layer {
  name: "bn_d_2_2"
  type: "BatchNorm"
  bottom: "conv_d_2_1"
  top: "bn_d_2_2"
  param {
    lr_mult: 0
  }
  param {
    lr_mult: 0
  }
  param {
    lr_mult: 0
  }
  batch_norm_param {
    use_global_stats: false
  }
}
layer {
  name: "relu_d_2_2"
  type: "ReLU"
  bottom: "bn_d_2_2"
  top: "relu_d_2_2"
}
layer {
  name: "conv_d_2_2"
  type: "Convolution"
  bottom: "relu_d_2_2"
  top: "conv_d_2_2"
  param {
    lr_mult: 1
    decay_mult: 1
  }
  param {
    lr_mult: 2
    decay_mult: 1
  }
  convolution_param {
    num_output: 128
    pad: 1
    kernel_size: 3
    stride: 1
    weight_filler {
      type: "msra"
    }
    bias_filler {
      type: "constant"
    }
  }
}
layer {
  name: "elt_d_2"
  type: "Eltwise"
  bottom: "elt_d_1"
  bottom: "conv_d_2_2"
  top: "elt_d_2"
  eltwise_param {
    operation: SUM
  }
}
layer {
  name: "bn_d_3_1"
  type: "BatchNorm"
  bottom: "elt_d_2"
  top: "bn_d_3_1"
  param {
    lr_mult: 0
  }
  param {
    lr_mult: 0
  }
  param {
    lr_mult: 0
  }
  batch_norm_param {
    use_global_stats: false
  }
}
layer {
  name: "relu_d_3_1"
  type: "ReLU"
  bottom: "bn_d_3_1"
  top: "relu_d_3_1"
}
layer {
  name: "conv_d_3_1"
  type: "Convolution"
  bottom: "relu_d_3_1"
  top: "conv_d_3_1"
  param {
    lr_mult: 1
    decay_mult: 1
  }
  param {
    lr_mult: 2
    decay_mult: 1
  }
  convolution_param {
    num_output: 128
    pad: 1
    kernel_size: 3
    stride: 1
    weight_filler {
      type: "msra"
    }
    bias_filler {
      type: "constant"
    }
  }
}
layer {
  name: "bn_d_3_2"
  type: "BatchNorm"
  bottom: "conv_d_3_1"
  top: "bn_d_3_2"
  param {
    lr_mult: 0
  }
  param {
    lr_mult: 0
  }
  param {
    lr_mult: 0
  }
  batch_norm_param {
    use_global_stats: false
  }
}
layer {
  name: "relu_d_3_2"
  type: "ReLU"
  bottom: "bn_d_3_2"
  top: "relu_d_3_2"
}
layer {
  name: "conv_d_3_2"
  type: "Convolution"
  bottom: "relu_d_3_2"
  top: "conv_d_3_2"
  param {
    lr_mult: 1
    decay_mult: 1
  }
  param {
    lr_mult: 2
    decay_mult: 1
  }
  convolution_param {
    num_output: 128
    pad: 1
    kernel_size: 3
    stride: 1
    weight_filler {
      type: "msra"
    }
    bias_filler {
      type: "constant"
    }
  }
}
layer {
  name: "elt_d_3"
  type: "Eltwise"
  bottom: "elt_d_2"
  bottom: "conv_d_3_2"
  top: "elt_d_3"
  eltwise_param {
    operation: SUM
  }
}
layer {
  name: "bn_j_1_1"
  type: "BatchNorm"
  bottom: "elt_d_3"
  top: "bn_j_1_1"
  param {
    lr_mult: 0
  }
  param {
    lr_mult: 0
  }
  param {
    lr_mult: 0
  }
  batch_norm_param {
    use_global_stats: false
  }
}
layer {
  name: "relu_j_1_1"
  type: "ReLU"
  bottom: "bn_j_1_1"
  top: "relu_j_1_1"
}
layer {
  name: "conv_j_1_1"
  type: "Convolution"
  bottom: "relu_j_1_1"
  top: "conv_j_1_1"
  param {
    lr_mult: 1
    decay_mult: 1
  }
  param {
    lr_mult: 2
    decay_mult: 1
  }
  convolution_param {
    num_output: 256
    pad: 1
    kernel_size: 3
    stride: 2
    weight_filler {
      type: "msra"
    }
    bias_filler {
      type: "constant"
    }
  }
}
layer {
  name: "bn_j_1_2"
  type: "BatchNorm"
  bottom: "conv_j_1_1"
  top: "bn_j_1_2"
  param {
    lr_mult: 0
  }
  param {
    lr_mult: 0
  }
  param {
    lr_mult: 0
  }
  batch_norm_param {
    use_global_stats: false
  }
}
layer {
  name: "relu_j_1_2"
  type: "ReLU"
  bottom: "bn_j_1_2"
  top: "relu_j_1_2"
}
layer {
  name: "conv_j_1_2"
  type: "Convolution"
  bottom: "relu_j_1_2"
  top: "conv_j_1_2"
  param {
    lr_mult: 1
    decay_mult: 1
  }
  param {
    lr_mult: 2
    decay_mult: 1
  }
  convolution_param {
    num_output: 256
    pad: 1
    kernel_size: 3
    stride: 1
    weight_filler {
      type: "msra"
    }
    bias_filler {
      type: "constant"
    }
  }
}
layer {
  name: "res_j"
  type: "Convolution"
  bottom: "elt_d_3"
  top: "res_j"
  param {
    lr_mult: 1
    decay_mult: 1
  }
  param {
    lr_mult: 2
    decay_mult: 1
  }
  convolution_param {
    num_output: 256
    pad: 0
    kernel_size: 1
    stride: 2
    weight_filler {
      type: "msra"
    }
    bias_filler {
      type: "constant"
    }
  }
}
layer {
  name: "elt_j_1"
  type: "Eltwise"
  bottom: "res_j"
  bottom: "conv_j_1_2"
  top: "elt_j_1"
  eltwise_param {
    operation: SUM
  }
}
layer {
  name: "bn_j_2_1"
  type: "BatchNorm"
  bottom: "elt_j_1"
  top: "bn_j_2_1"
  param {
    lr_mult: 0
  }
  param {
    lr_mult: 0
  }
  param {
    lr_mult: 0
  }
  batch_norm_param {
    use_global_stats: false
  }
}
layer {
  name: "relu_j_2_1"
  type: "ReLU"
  bottom: "bn_j_2_1"
  top: "relu_j_2_1"
}
layer {
  name: "conv_j_2_1"
  type: "Convolution"
  bottom: "relu_j_2_1"
  top: "conv_j_2_1"
  param {
    lr_mult: 1
    decay_mult: 1
  }
  param {
    lr_mult: 2
    decay_mult: 1
  }
  convolution_param {
    num_output: 256
    pad: 1
    kernel_size: 3
    stride: 1
    weight_filler {
      type: "msra"
    }
    bias_filler {
      type: "constant"
    }
  }
}
layer {
  name: "bn_j_2_2"
  type: "BatchNorm"
  bottom: "conv_j_2_1"
  top: "bn_j_2_2"
  param {
    lr_mult: 0
  }
  param {
    lr_mult: 0
  }
  param {
    lr_mult: 0
  }
  batch_norm_param {
    use_global_stats: false
  }
}
layer {
  name: "relu_j_2_2"
  type: "ReLU"
  bottom: "bn_j_2_2"
  top: "relu_j_2_2"
}
layer {
  name: "conv_j_2_2"
  type: "Convolution"
  bottom: "relu_j_2_2"
  top: "conv_j_2_2"
  param {
    lr_mult: 1
    decay_mult: 1
  }
  param {
    lr_mult: 2
    decay_mult: 1
  }
  convolution_param {
    num_output: 256
    pad: 1
    kernel_size: 3
    stride: 1
    weight_filler {
      type: "msra"
    }
    bias_filler {
      type: "constant"
    }
  }
}
layer {
  name: "elt_j_2"
  type: "Eltwise"
  bottom: "elt_j_1"
  bottom: "conv_j_2_2"
  top: "elt_j_2"
  eltwise_param {
    operation: SUM
  }
}
layer {
  name: "bn_j_3_1"
  type: "BatchNorm"
  bottom: "elt_j_2"
  top: "bn_j_3_1"
  param {
    lr_mult: 0
  }
  param {
    lr_mult: 0
  }
  param {
    lr_mult: 0
  }
  batch_norm_param {
    use_global_stats: false
  }
}
layer {
  name: "relu_j_3_1"
  type: "ReLU"
  bottom: "bn_j_3_1"
  top: "relu_j_3_1"
}
layer {
  name: "conv_j_3_1"
  type: "Convolution"
  bottom: "relu_j_3_1"
  top: "conv_j_3_1"
  param {
    lr_mult: 1
    decay_mult: 1
  }
  param {
    lr_mult: 2
    decay_mult: 1
  }
  convolution_param {
    num_output: 256
    pad: 1
    kernel_size: 3
    stride: 1
    weight_filler {
      type: "msra"
    }
    bias_filler {
      type: "constant"
    }
  }
}
layer {
  name: "bn_j_3_2"
  type: "BatchNorm"
  bottom: "conv_j_3_1"
  top: "bn_j_3_2"
  param {
    lr_mult: 0
  }
  param {
    lr_mult: 0
  }
  param {
    lr_mult: 0
  }
  batch_norm_param {
    use_global_stats: false
  }
}
layer {
  name: "relu_j_3_2"
  type: "ReLU"
  bottom: "bn_j_3_2"
  top: "relu_j_3_2"
}
layer {
  name: "conv_j_3_2"
  type: "Convolution"
  bottom: "relu_j_3_2"
  top: "conv_j_3_2"
  param {
    lr_mult: 1
    decay_mult: 1
  }
  param {
    lr_mult: 2
    decay_mult: 1
  }
  convolution_param {
    num_output: 256
    pad: 1
    kernel_size: 3
    stride: 1
    weight_filler {
      type: "msra"
    }
    bias_filler {
      type: "constant"
    }
  }
}
layer {
  name: "elt_j_3"
  type: "Eltwise"
  bottom: "elt_j_2"
  bottom: "conv_j_3_2"
  top: "elt_j_3"
  eltwise_param {
    operation: SUM
  }
}
layer {
  name: "bn_m_1_1"
  type: "BatchNorm"
  bottom: "elt_j_3"
  top: "bn_m_1_1"
  param {
    lr_mult: 0
  }
  param {
    lr_mult: 0
  }
  param {
    lr_mult: 0
  }
  batch_norm_param {
    use_global_stats: false
  }
}
layer {
  name: "relu_m_1_1"
  type: "ReLU"
  bottom: "bn_m_1_1"
  top: "relu_m_1_1"
}
layer {
  name: "gap"
  type: "Pooling"
  bottom: "relu_m_1_1"
  top: "gap"
  pooling_param {
    pool: AVE
    kernel_size: 8
    stride: 1
  }
}
layer {
  name: "ip1"
  type: "InnerProduct"
  bottom: "gap"
  top: "ip1"
  param {
    lr_mult: 1
    decay_mult: 1
  }
  param {
    lr_mult: 2
    decay_mult: 0
  }
  inner_product_param {
    num_output: 10
    weight_filler {
      type: "msra"
    }
    bias_filler {
      type: "constant"
      value: 0
    }
  }
}
layer {
  name: "accuracy"
  type: "Accuracy"
  bottom: "ip1"
  bottom: "label"
  top: "accuracy"
  include {
    phase: TEST
  }
}
layer {
  name: "loss"
  type: "SoftmaxWithLoss"
  bottom: "ip1"
  bottom: "label"
  top: "loss"
}
I0622 19:43:12.583299 36972 layer_factory.hpp:77] Creating layer resnet
I0622 19:43:12.583443 36972 net.cpp:91] Creating Layer resnet
I0622 19:43:12.583458 36972 net.cpp:399] resnet -> data
I0622 19:43:12.583472 36972 net.cpp:399] resnet -> label
I0622 19:43:12.583485 36972 data_transformer.cpp:25] Loading mean file from: /home/takeki/caffe/examples/cifar10/mean.binaryproto
I0622 19:43:12.584390 37019 db_lmdb.cpp:35] Opened lmdb /home/takeki/caffe/examples/cifar10/cifar10_test_lmdb
I0622 19:43:12.584537 36972 data_layer.cpp:41] output data size: 100,3,32,32
I0622 19:43:12.588120 36972 net.cpp:141] Setting up resnet
I0622 19:43:12.588141 36972 net.cpp:148] Top shape: 100 3 32 32 (307200)
I0622 19:43:12.588150 36972 net.cpp:148] Top shape: 100 (100)
I0622 19:43:12.588155 36972 net.cpp:156] Memory required for data: 1229200
I0622 19:43:12.588162 36972 layer_factory.hpp:77] Creating layer label_resnet_1_split
I0622 19:43:12.588173 36972 net.cpp:91] Creating Layer label_resnet_1_split
I0622 19:43:12.588182 36972 net.cpp:425] label_resnet_1_split <- label
I0622 19:43:12.588193 36972 net.cpp:399] label_resnet_1_split -> label_resnet_1_split_0
I0622 19:43:12.588206 36972 net.cpp:399] label_resnet_1_split -> label_resnet_1_split_1
I0622 19:43:12.588342 36972 net.cpp:141] Setting up label_resnet_1_split
I0622 19:43:12.588357 36972 net.cpp:148] Top shape: 100 (100)
I0622 19:43:12.588367 36972 net.cpp:148] Top shape: 100 (100)
I0622 19:43:12.588372 36972 net.cpp:156] Memory required for data: 1230000
I0622 19:43:12.588378 36972 layer_factory.hpp:77] Creating layer conv0
I0622 19:43:12.588397 36972 net.cpp:91] Creating Layer conv0
I0622 19:43:12.588404 36972 net.cpp:425] conv0 <- data
I0622 19:43:12.588415 36972 net.cpp:399] conv0 -> conv0
I0622 19:43:12.589886 36972 net.cpp:141] Setting up conv0
I0622 19:43:12.589910 36972 net.cpp:148] Top shape: 100 16 32 32 (1638400)
I0622 19:43:12.589917 36972 net.cpp:156] Memory required for data: 7783600
I0622 19:43:12.589941 36972 layer_factory.hpp:77] Creating layer conv0_conv0_0_split
I0622 19:43:12.589951 36972 net.cpp:91] Creating Layer conv0_conv0_0_split
I0622 19:43:12.589958 36972 net.cpp:425] conv0_conv0_0_split <- conv0
I0622 19:43:12.589969 36972 net.cpp:399] conv0_conv0_0_split -> conv0_conv0_0_split_0
I0622 19:43:12.589980 36972 net.cpp:399] conv0_conv0_0_split -> conv0_conv0_0_split_1
I0622 19:43:12.590070 36972 net.cpp:141] Setting up conv0_conv0_0_split
I0622 19:43:12.590085 36972 net.cpp:148] Top shape: 100 16 32 32 (1638400)
I0622 19:43:12.590093 36972 net.cpp:148] Top shape: 100 16 32 32 (1638400)
I0622 19:43:12.590102 36972 net.cpp:156] Memory required for data: 20890800
I0622 19:43:12.590109 36972 layer_factory.hpp:77] Creating layer bn_a_1_1
I0622 19:43:12.590122 36972 net.cpp:91] Creating Layer bn_a_1_1
I0622 19:43:12.590131 36972 net.cpp:425] bn_a_1_1 <- conv0_conv0_0_split_0
I0622 19:43:12.590142 36972 net.cpp:399] bn_a_1_1 -> bn_a_1_1
I0622 19:43:12.590410 36972 net.cpp:141] Setting up bn_a_1_1
I0622 19:43:12.590427 36972 net.cpp:148] Top shape: 100 16 32 32 (1638400)
I0622 19:43:12.590433 36972 net.cpp:156] Memory required for data: 27444400
I0622 19:43:12.590450 36972 layer_factory.hpp:77] Creating layer relu_a_1_1
I0622 19:43:12.590457 36972 net.cpp:91] Creating Layer relu_a_1_1
I0622 19:43:12.590463 36972 net.cpp:425] relu_a_1_1 <- bn_a_1_1
I0622 19:43:12.590476 36972 net.cpp:399] relu_a_1_1 -> relu_a_1_1
I0622 19:43:12.590859 36972 net.cpp:141] Setting up relu_a_1_1
I0622 19:43:12.590878 36972 net.cpp:148] Top shape: 100 16 32 32 (1638400)
I0622 19:43:12.590886 36972 net.cpp:156] Memory required for data: 33998000
I0622 19:43:12.590900 36972 layer_factory.hpp:77] Creating layer conv_a_1_1
I0622 19:43:12.590916 36972 net.cpp:91] Creating Layer conv_a_1_1
I0622 19:43:12.590925 36972 net.cpp:425] conv_a_1_1 <- relu_a_1_1
I0622 19:43:12.590940 36972 net.cpp:399] conv_a_1_1 -> conv_a_1_1
I0622 19:43:12.592347 36972 net.cpp:141] Setting up conv_a_1_1
I0622 19:43:12.592370 36972 net.cpp:148] Top shape: 100 64 32 32 (6553600)
I0622 19:43:12.592378 36972 net.cpp:156] Memory required for data: 60212400
I0622 19:43:12.592391 36972 layer_factory.hpp:77] Creating layer bn_a_1_2
I0622 19:43:12.592409 36972 net.cpp:91] Creating Layer bn_a_1_2
I0622 19:43:12.592418 36972 net.cpp:425] bn_a_1_2 <- conv_a_1_1
I0622 19:43:12.592430 36972 net.cpp:399] bn_a_1_2 -> bn_a_1_2
I0622 19:43:12.592867 36972 net.cpp:141] Setting up bn_a_1_2
I0622 19:43:12.592890 36972 net.cpp:148] Top shape: 100 64 32 32 (6553600)
I0622 19:43:12.592905 36972 net.cpp:156] Memory required for data: 86426800
I0622 19:43:12.592926 36972 layer_factory.hpp:77] Creating layer relu_a_1_2
I0622 19:43:12.592936 36972 net.cpp:91] Creating Layer relu_a_1_2
I0622 19:43:12.592944 36972 net.cpp:425] relu_a_1_2 <- bn_a_1_2
I0622 19:43:12.592958 36972 net.cpp:399] relu_a_1_2 -> relu_a_1_2
I0622 19:43:12.593322 36972 net.cpp:141] Setting up relu_a_1_2
I0622 19:43:12.593344 36972 net.cpp:148] Top shape: 100 64 32 32 (6553600)
I0622 19:43:12.593353 36972 net.cpp:156] Memory required for data: 112641200
I0622 19:43:12.593360 36972 layer_factory.hpp:77] Creating layer conv_a_1_2
I0622 19:43:12.593375 36972 net.cpp:91] Creating Layer conv_a_1_2
I0622 19:43:12.593384 36972 net.cpp:425] conv_a_1_2 <- relu_a_1_2
I0622 19:43:12.593397 36972 net.cpp:399] conv_a_1_2 -> conv_a_1_2
I0622 19:43:12.595868 36972 net.cpp:141] Setting up conv_a_1_2
I0622 19:43:12.595890 36972 net.cpp:148] Top shape: 100 64 32 32 (6553600)
I0622 19:43:12.595896 36972 net.cpp:156] Memory required for data: 138855600
I0622 19:43:12.595906 36972 layer_factory.hpp:77] Creating layer res_a
I0622 19:43:12.595922 36972 net.cpp:91] Creating Layer res_a
I0622 19:43:12.595932 36972 net.cpp:425] res_a <- conv0_conv0_0_split_1
I0622 19:43:12.595942 36972 net.cpp:399] res_a -> res_a
I0622 19:43:12.597043 36972 net.cpp:141] Setting up res_a
I0622 19:43:12.597064 36972 net.cpp:148] Top shape: 100 64 32 32 (6553600)
I0622 19:43:12.597072 36972 net.cpp:156] Memory required for data: 165070000
I0622 19:43:12.597084 36972 layer_factory.hpp:77] Creating layer elt_a_1
I0622 19:43:12.597092 36972 net.cpp:91] Creating Layer elt_a_1
I0622 19:43:12.597100 36972 net.cpp:425] elt_a_1 <- res_a
I0622 19:43:12.597106 36972 net.cpp:425] elt_a_1 <- conv_a_1_2
I0622 19:43:12.597115 36972 net.cpp:399] elt_a_1 -> elt_a_1
I0622 19:43:12.597158 36972 net.cpp:141] Setting up elt_a_1
I0622 19:43:12.597172 36972 net.cpp:148] Top shape: 100 64 32 32 (6553600)
I0622 19:43:12.597195 36972 net.cpp:156] Memory required for data: 191284400
I0622 19:43:12.597205 36972 layer_factory.hpp:77] Creating layer elt_a_1_elt_a_1_0_split
I0622 19:43:12.597218 36972 net.cpp:91] Creating Layer elt_a_1_elt_a_1_0_split
I0622 19:43:12.597225 36972 net.cpp:425] elt_a_1_elt_a_1_0_split <- elt_a_1
I0622 19:43:12.597234 36972 net.cpp:399] elt_a_1_elt_a_1_0_split -> elt_a_1_elt_a_1_0_split_0
I0622 19:43:12.597244 36972 net.cpp:399] elt_a_1_elt_a_1_0_split -> elt_a_1_elt_a_1_0_split_1
I0622 19:43:12.597308 36972 net.cpp:141] Setting up elt_a_1_elt_a_1_0_split
I0622 19:43:12.597322 36972 net.cpp:148] Top shape: 100 64 32 32 (6553600)
I0622 19:43:12.597332 36972 net.cpp:148] Top shape: 100 64 32 32 (6553600)
I0622 19:43:12.597339 36972 net.cpp:156] Memory required for data: 243713200
I0622 19:43:12.597345 36972 layer_factory.hpp:77] Creating layer bn_a_2_1
I0622 19:43:12.597358 36972 net.cpp:91] Creating Layer bn_a_2_1
I0622 19:43:12.597367 36972 net.cpp:425] bn_a_2_1 <- elt_a_1_elt_a_1_0_split_0
I0622 19:43:12.597376 36972 net.cpp:399] bn_a_2_1 -> bn_a_2_1
I0622 19:43:12.597640 36972 net.cpp:141] Setting up bn_a_2_1
I0622 19:43:12.597656 36972 net.cpp:148] Top shape: 100 64 32 32 (6553600)
I0622 19:43:12.597662 36972 net.cpp:156] Memory required for data: 269927600
I0622 19:43:12.597681 36972 layer_factory.hpp:77] Creating layer relu_a_2_1
I0622 19:43:12.597690 36972 net.cpp:91] Creating Layer relu_a_2_1
I0622 19:43:12.597698 36972 net.cpp:425] relu_a_2_1 <- bn_a_2_1
I0622 19:43:12.597707 36972 net.cpp:399] relu_a_2_1 -> relu_a_2_1
I0622 19:43:12.598069 36972 net.cpp:141] Setting up relu_a_2_1
I0622 19:43:12.598088 36972 net.cpp:148] Top shape: 100 64 32 32 (6553600)
I0622 19:43:12.598104 36972 net.cpp:156] Memory required for data: 296142000
I0622 19:43:12.598110 36972 layer_factory.hpp:77] Creating layer conv_a_2_1
I0622 19:43:12.598127 36972 net.cpp:91] Creating Layer conv_a_2_1
I0622 19:43:12.598136 36972 net.cpp:425] conv_a_2_1 <- relu_a_2_1
I0622 19:43:12.598148 36972 net.cpp:399] conv_a_2_1 -> conv_a_2_1
I0622 19:43:12.601094 36972 net.cpp:141] Setting up conv_a_2_1
I0622 19:43:12.601114 36972 net.cpp:148] Top shape: 100 64 32 32 (6553600)
I0622 19:43:12.601124 36972 net.cpp:156] Memory required for data: 322356400
I0622 19:43:12.601133 36972 layer_factory.hpp:77] Creating layer bn_a_2_2
I0622 19:43:12.601152 36972 net.cpp:91] Creating Layer bn_a_2_2
I0622 19:43:12.601162 36972 net.cpp:425] bn_a_2_2 <- conv_a_2_1
I0622 19:43:12.601173 36972 net.cpp:399] bn_a_2_2 -> bn_a_2_2
I0622 19:43:12.601449 36972 net.cpp:141] Setting up bn_a_2_2
I0622 19:43:12.601464 36972 net.cpp:148] Top shape: 100 64 32 32 (6553600)
I0622 19:43:12.601471 36972 net.cpp:156] Memory required for data: 348570800
I0622 19:43:12.601482 36972 layer_factory.hpp:77] Creating layer relu_a_2_2
I0622 19:43:12.601492 36972 net.cpp:91] Creating Layer relu_a_2_2
I0622 19:43:12.601500 36972 net.cpp:425] relu_a_2_2 <- bn_a_2_2
I0622 19:43:12.601511 36972 net.cpp:399] relu_a_2_2 -> relu_a_2_2
I0622 19:43:12.601754 36972 net.cpp:141] Setting up relu_a_2_2
I0622 19:43:12.601770 36972 net.cpp:148] Top shape: 100 64 32 32 (6553600)
I0622 19:43:12.601778 36972 net.cpp:156] Memory required for data: 374785200
I0622 19:43:12.601786 36972 layer_factory.hpp:77] Creating layer conv_a_2_2
I0622 19:43:12.601801 36972 net.cpp:91] Creating Layer conv_a_2_2
I0622 19:43:12.601810 36972 net.cpp:425] conv_a_2_2 <- relu_a_2_2
I0622 19:43:12.601822 36972 net.cpp:399] conv_a_2_2 -> conv_a_2_2
I0622 19:43:12.604218 36972 net.cpp:141] Setting up conv_a_2_2
I0622 19:43:12.604238 36972 net.cpp:148] Top shape: 100 64 32 32 (6553600)
I0622 19:43:12.604246 36972 net.cpp:156] Memory required for data: 400999600
I0622 19:43:12.604257 36972 layer_factory.hpp:77] Creating layer elt_a_2
I0622 19:43:12.604270 36972 net.cpp:91] Creating Layer elt_a_2
I0622 19:43:12.604279 36972 net.cpp:425] elt_a_2 <- elt_a_1_elt_a_1_0_split_1
I0622 19:43:12.604288 36972 net.cpp:425] elt_a_2 <- conv_a_2_2
I0622 19:43:12.604298 36972 net.cpp:399] elt_a_2 -> elt_a_2
I0622 19:43:12.604368 36972 net.cpp:141] Setting up elt_a_2
I0622 19:43:12.604383 36972 net.cpp:148] Top shape: 100 64 32 32 (6553600)
I0622 19:43:12.604390 36972 net.cpp:156] Memory required for data: 427214000
I0622 19:43:12.604400 36972 layer_factory.hpp:77] Creating layer elt_a_2_elt_a_2_0_split
I0622 19:43:12.604408 36972 net.cpp:91] Creating Layer elt_a_2_elt_a_2_0_split
I0622 19:43:12.604416 36972 net.cpp:425] elt_a_2_elt_a_2_0_split <- elt_a_2
I0622 19:43:12.604427 36972 net.cpp:399] elt_a_2_elt_a_2_0_split -> elt_a_2_elt_a_2_0_split_0
I0622 19:43:12.604439 36972 net.cpp:399] elt_a_2_elt_a_2_0_split -> elt_a_2_elt_a_2_0_split_1
I0622 19:43:12.604496 36972 net.cpp:141] Setting up elt_a_2_elt_a_2_0_split
I0622 19:43:12.604509 36972 net.cpp:148] Top shape: 100 64 32 32 (6553600)
I0622 19:43:12.604517 36972 net.cpp:148] Top shape: 100 64 32 32 (6553600)
I0622 19:43:12.604524 36972 net.cpp:156] Memory required for data: 479642800
I0622 19:43:12.604532 36972 layer_factory.hpp:77] Creating layer bn_a_3_1
I0622 19:43:12.604543 36972 net.cpp:91] Creating Layer bn_a_3_1
I0622 19:43:12.604552 36972 net.cpp:425] bn_a_3_1 <- elt_a_2_elt_a_2_0_split_0
I0622 19:43:12.604564 36972 net.cpp:399] bn_a_3_1 -> bn_a_3_1
I0622 19:43:12.604843 36972 net.cpp:141] Setting up bn_a_3_1
I0622 19:43:12.604858 36972 net.cpp:148] Top shape: 100 64 32 32 (6553600)
I0622 19:43:12.604866 36972 net.cpp:156] Memory required for data: 505857200
I0622 19:43:12.604877 36972 layer_factory.hpp:77] Creating layer relu_a_3_1
I0622 19:43:12.604887 36972 net.cpp:91] Creating Layer relu_a_3_1
I0622 19:43:12.604895 36972 net.cpp:425] relu_a_3_1 <- bn_a_3_1
I0622 19:43:12.604905 36972 net.cpp:399] relu_a_3_1 -> relu_a_3_1
I0622 19:43:12.605271 36972 net.cpp:141] Setting up relu_a_3_1
I0622 19:43:12.605288 36972 net.cpp:148] Top shape: 100 64 32 32 (6553600)
I0622 19:43:12.605296 36972 net.cpp:156] Memory required for data: 532071600
I0622 19:43:12.605304 36972 layer_factory.hpp:77] Creating layer conv_a_3_1
I0622 19:43:12.605319 36972 net.cpp:91] Creating Layer conv_a_3_1
I0622 19:43:12.605329 36972 net.cpp:425] conv_a_3_1 <- relu_a_3_1
I0622 19:43:12.605342 36972 net.cpp:399] conv_a_3_1 -> conv_a_3_1
I0622 19:43:12.607846 36972 net.cpp:141] Setting up conv_a_3_1
I0622 19:43:12.607867 36972 net.cpp:148] Top shape: 100 64 32 32 (6553600)
I0622 19:43:12.607877 36972 net.cpp:156] Memory required for data: 558286000
I0622 19:43:12.607888 36972 layer_factory.hpp:77] Creating layer bn_a_3_2
I0622 19:43:12.607900 36972 net.cpp:91] Creating Layer bn_a_3_2
I0622 19:43:12.607908 36972 net.cpp:425] bn_a_3_2 <- conv_a_3_1
I0622 19:43:12.607923 36972 net.cpp:399] bn_a_3_2 -> bn_a_3_2
I0622 19:43:12.608206 36972 net.cpp:141] Setting up bn_a_3_2
I0622 19:43:12.608220 36972 net.cpp:148] Top shape: 100 64 32 32 (6553600)
I0622 19:43:12.608227 36972 net.cpp:156] Memory required for data: 584500400
I0622 19:43:12.608242 36972 layer_factory.hpp:77] Creating layer relu_a_3_2
I0622 19:43:12.608255 36972 net.cpp:91] Creating Layer relu_a_3_2
I0622 19:43:12.608263 36972 net.cpp:425] relu_a_3_2 <- bn_a_3_2
I0622 19:43:12.608273 36972 net.cpp:399] relu_a_3_2 -> relu_a_3_2
I0622 19:43:12.608652 36972 net.cpp:141] Setting up relu_a_3_2
I0622 19:43:12.608670 36972 net.cpp:148] Top shape: 100 64 32 32 (6553600)
I0622 19:43:12.608677 36972 net.cpp:156] Memory required for data: 610714800
I0622 19:43:12.608685 36972 layer_factory.hpp:77] Creating layer conv_a_3_2
I0622 19:43:12.608701 36972 net.cpp:91] Creating Layer conv_a_3_2
I0622 19:43:12.608710 36972 net.cpp:425] conv_a_3_2 <- relu_a_3_2
I0622 19:43:12.608723 36972 net.cpp:399] conv_a_3_2 -> conv_a_3_2
I0622 19:43:12.611148 36972 net.cpp:141] Setting up conv_a_3_2
I0622 19:43:12.611167 36972 net.cpp:148] Top shape: 100 64 32 32 (6553600)
I0622 19:43:12.611176 36972 net.cpp:156] Memory required for data: 636929200
I0622 19:43:12.611196 36972 layer_factory.hpp:77] Creating layer elt_a_3
I0622 19:43:12.611207 36972 net.cpp:91] Creating Layer elt_a_3
I0622 19:43:12.611214 36972 net.cpp:425] elt_a_3 <- elt_a_2_elt_a_2_0_split_1
I0622 19:43:12.611243 36972 net.cpp:425] elt_a_3 <- conv_a_3_2
I0622 19:43:12.611256 36972 net.cpp:399] elt_a_3 -> elt_a_3
I0622 19:43:12.611306 36972 net.cpp:141] Setting up elt_a_3
I0622 19:43:12.611320 36972 net.cpp:148] Top shape: 100 64 32 32 (6553600)
I0622 19:43:12.611327 36972 net.cpp:156] Memory required for data: 663143600
I0622 19:43:12.611336 36972 layer_factory.hpp:77] Creating layer elt_a_3_elt_a_3_0_split
I0622 19:43:12.611346 36972 net.cpp:91] Creating Layer elt_a_3_elt_a_3_0_split
I0622 19:43:12.611352 36972 net.cpp:425] elt_a_3_elt_a_3_0_split <- elt_a_3
I0622 19:43:12.611363 36972 net.cpp:399] elt_a_3_elt_a_3_0_split -> elt_a_3_elt_a_3_0_split_0
I0622 19:43:12.611376 36972 net.cpp:399] elt_a_3_elt_a_3_0_split -> elt_a_3_elt_a_3_0_split_1
I0622 19:43:12.611431 36972 net.cpp:141] Setting up elt_a_3_elt_a_3_0_split
I0622 19:43:12.611446 36972 net.cpp:148] Top shape: 100 64 32 32 (6553600)
I0622 19:43:12.611455 36972 net.cpp:148] Top shape: 100 64 32 32 (6553600)
I0622 19:43:12.611462 36972 net.cpp:156] Memory required for data: 715572400
I0622 19:43:12.611469 36972 layer_factory.hpp:77] Creating layer bn_d_1_1
I0622 19:43:12.611479 36972 net.cpp:91] Creating Layer bn_d_1_1
I0622 19:43:12.611487 36972 net.cpp:425] bn_d_1_1 <- elt_a_3_elt_a_3_0_split_0
I0622 19:43:12.611498 36972 net.cpp:399] bn_d_1_1 -> bn_d_1_1
I0622 19:43:12.611764 36972 net.cpp:141] Setting up bn_d_1_1
I0622 19:43:12.611779 36972 net.cpp:148] Top shape: 100 64 32 32 (6553600)
I0622 19:43:12.611786 36972 net.cpp:156] Memory required for data: 741786800
I0622 19:43:12.611799 36972 layer_factory.hpp:77] Creating layer relu_d_1_1
I0622 19:43:12.611814 36972 net.cpp:91] Creating Layer relu_d_1_1
I0622 19:43:12.611822 36972 net.cpp:425] relu_d_1_1 <- bn_d_1_1
I0622 19:43:12.611830 36972 net.cpp:399] relu_d_1_1 -> relu_d_1_1
I0622 19:43:12.612069 36972 net.cpp:141] Setting up relu_d_1_1
I0622 19:43:12.612085 36972 net.cpp:148] Top shape: 100 64 32 32 (6553600)
I0622 19:43:12.612093 36972 net.cpp:156] Memory required for data: 768001200
I0622 19:43:12.612099 36972 layer_factory.hpp:77] Creating layer conv_d_1_1
I0622 19:43:12.612114 36972 net.cpp:91] Creating Layer conv_d_1_1
I0622 19:43:12.612123 36972 net.cpp:425] conv_d_1_1 <- relu_d_1_1
I0622 19:43:12.612135 36972 net.cpp:399] conv_d_1_1 -> conv_d_1_1
I0622 19:43:12.615736 36972 net.cpp:141] Setting up conv_d_1_1
I0622 19:43:12.615754 36972 net.cpp:148] Top shape: 100 128 16 16 (3276800)
I0622 19:43:12.615768 36972 net.cpp:156] Memory required for data: 781108400
I0622 19:43:12.615778 36972 layer_factory.hpp:77] Creating layer bn_d_1_2
I0622 19:43:12.615795 36972 net.cpp:91] Creating Layer bn_d_1_2
I0622 19:43:12.615803 36972 net.cpp:425] bn_d_1_2 <- conv_d_1_1
I0622 19:43:12.615814 36972 net.cpp:399] bn_d_1_2 -> bn_d_1_2
I0622 19:43:12.616080 36972 net.cpp:141] Setting up bn_d_1_2
I0622 19:43:12.616096 36972 net.cpp:148] Top shape: 100 128 16 16 (3276800)
I0622 19:43:12.616101 36972 net.cpp:156] Memory required for data: 794215600
I0622 19:43:12.616120 36972 layer_factory.hpp:77] Creating layer relu_d_1_2
I0622 19:43:12.616133 36972 net.cpp:91] Creating Layer relu_d_1_2
I0622 19:43:12.616142 36972 net.cpp:425] relu_d_1_2 <- bn_d_1_2
I0622 19:43:12.616150 36972 net.cpp:399] relu_d_1_2 -> relu_d_1_2
I0622 19:43:12.616519 36972 net.cpp:141] Setting up relu_d_1_2
I0622 19:43:12.616536 36972 net.cpp:148] Top shape: 100 128 16 16 (3276800)
I0622 19:43:12.616544 36972 net.cpp:156] Memory required for data: 807322800
I0622 19:43:12.616550 36972 layer_factory.hpp:77] Creating layer conv_d_1_2
I0622 19:43:12.616569 36972 net.cpp:91] Creating Layer conv_d_1_2
I0622 19:43:12.616577 36972 net.cpp:425] conv_d_1_2 <- relu_d_1_2
I0622 19:43:12.616590 36972 net.cpp:399] conv_d_1_2 -> conv_d_1_2
I0622 19:43:12.622834 36972 net.cpp:141] Setting up conv_d_1_2
I0622 19:43:12.622884 36972 net.cpp:148] Top shape: 100 128 16 16 (3276800)
I0622 19:43:12.622892 36972 net.cpp:156] Memory required for data: 820430000
I0622 19:43:12.622905 36972 layer_factory.hpp:77] Creating layer res_d
I0622 19:43:12.622926 36972 net.cpp:91] Creating Layer res_d
I0622 19:43:12.622982 36972 net.cpp:425] res_d <- elt_a_3_elt_a_3_0_split_1
I0622 19:43:12.622999 36972 net.cpp:399] res_d -> res_d
I0622 19:43:12.624406 36972 net.cpp:141] Setting up res_d
I0622 19:43:12.624423 36972 net.cpp:148] Top shape: 100 128 16 16 (3276800)
I0622 19:43:12.624442 36972 net.cpp:156] Memory required for data: 833537200
I0622 19:43:12.624451 36972 layer_factory.hpp:77] Creating layer elt_d_1
I0622 19:43:12.624467 36972 net.cpp:91] Creating Layer elt_d_1
I0622 19:43:12.624476 36972 net.cpp:425] elt_d_1 <- res_d
I0622 19:43:12.624485 36972 net.cpp:425] elt_d_1 <- conv_d_1_2
I0622 19:43:12.624508 36972 net.cpp:399] elt_d_1 -> elt_d_1
I0622 19:43:12.624544 36972 net.cpp:141] Setting up elt_d_1
I0622 19:43:12.624557 36972 net.cpp:148] Top shape: 100 128 16 16 (3276800)
I0622 19:43:12.624564 36972 net.cpp:156] Memory required for data: 846644400
I0622 19:43:12.624570 36972 layer_factory.hpp:77] Creating layer elt_d_1_elt_d_1_0_split
I0622 19:43:12.624582 36972 net.cpp:91] Creating Layer elt_d_1_elt_d_1_0_split
I0622 19:43:12.624589 36972 net.cpp:425] elt_d_1_elt_d_1_0_split <- elt_d_1
I0622 19:43:12.624600 36972 net.cpp:399] elt_d_1_elt_d_1_0_split -> elt_d_1_elt_d_1_0_split_0
I0622 19:43:12.624611 36972 net.cpp:399] elt_d_1_elt_d_1_0_split -> elt_d_1_elt_d_1_0_split_1
I0622 19:43:12.624665 36972 net.cpp:141] Setting up elt_d_1_elt_d_1_0_split
I0622 19:43:12.624678 36972 net.cpp:148] Top shape: 100 128 16 16 (3276800)
I0622 19:43:12.624686 36972 net.cpp:148] Top shape: 100 128 16 16 (3276800)
I0622 19:43:12.624692 36972 net.cpp:156] Memory required for data: 872858800
I0622 19:43:12.624699 36972 layer_factory.hpp:77] Creating layer bn_d_2_1
I0622 19:43:12.624713 36972 net.cpp:91] Creating Layer bn_d_2_1
I0622 19:43:12.624722 36972 net.cpp:425] bn_d_2_1 <- elt_d_1_elt_d_1_0_split_0
I0622 19:43:12.624732 36972 net.cpp:399] bn_d_2_1 -> bn_d_2_1
I0622 19:43:12.624999 36972 net.cpp:141] Setting up bn_d_2_1
I0622 19:43:12.625010 36972 net.cpp:148] Top shape: 100 128 16 16 (3276800)
I0622 19:43:12.625017 36972 net.cpp:156] Memory required for data: 885966000
I0622 19:43:12.625028 36972 layer_factory.hpp:77] Creating layer relu_d_2_1
I0622 19:43:12.625038 36972 net.cpp:91] Creating Layer relu_d_2_1
I0622 19:43:12.625046 36972 net.cpp:425] relu_d_2_1 <- bn_d_2_1
I0622 19:43:12.625054 36972 net.cpp:399] relu_d_2_1 -> relu_d_2_1
I0622 19:43:12.625428 36972 net.cpp:141] Setting up relu_d_2_1
I0622 19:43:12.625457 36972 net.cpp:148] Top shape: 100 128 16 16 (3276800)
I0622 19:43:12.625463 36972 net.cpp:156] Memory required for data: 899073200
I0622 19:43:12.625468 36972 layer_factory.hpp:77] Creating layer conv_d_2_1
I0622 19:43:12.625484 36972 net.cpp:91] Creating Layer conv_d_2_1
I0622 19:43:12.625490 36972 net.cpp:425] conv_d_2_1 <- relu_d_2_1
I0622 19:43:12.625512 36972 net.cpp:399] conv_d_2_1 -> conv_d_2_1
I0622 19:43:12.631288 36972 net.cpp:141] Setting up conv_d_2_1
I0622 19:43:12.631316 36972 net.cpp:148] Top shape: 100 128 16 16 (3276800)
I0622 19:43:12.631322 36972 net.cpp:156] Memory required for data: 912180400
I0622 19:43:12.631331 36972 layer_factory.hpp:77] Creating layer bn_d_2_2
I0622 19:43:12.631345 36972 net.cpp:91] Creating Layer bn_d_2_2
I0622 19:43:12.631352 36972 net.cpp:425] bn_d_2_2 <- conv_d_2_1
I0622 19:43:12.631361 36972 net.cpp:399] bn_d_2_2 -> bn_d_2_2
I0622 19:43:12.631629 36972 net.cpp:141] Setting up bn_d_2_2
I0622 19:43:12.631644 36972 net.cpp:148] Top shape: 100 128 16 16 (3276800)
I0622 19:43:12.631651 36972 net.cpp:156] Memory required for data: 925287600
I0622 19:43:12.631664 36972 layer_factory.hpp:77] Creating layer relu_d_2_2
I0622 19:43:12.631672 36972 net.cpp:91] Creating Layer relu_d_2_2
I0622 19:43:12.631680 36972 net.cpp:425] relu_d_2_2 <- bn_d_2_2
I0622 19:43:12.631690 36972 net.cpp:399] relu_d_2_2 -> relu_d_2_2
I0622 19:43:12.631919 36972 net.cpp:141] Setting up relu_d_2_2
I0622 19:43:12.631934 36972 net.cpp:148] Top shape: 100 128 16 16 (3276800)
I0622 19:43:12.631942 36972 net.cpp:156] Memory required for data: 938394800
I0622 19:43:12.631947 36972 layer_factory.hpp:77] Creating layer conv_d_2_2
I0622 19:43:12.631980 36972 net.cpp:91] Creating Layer conv_d_2_2
I0622 19:43:12.631990 36972 net.cpp:425] conv_d_2_2 <- relu_d_2_2
I0622 19:43:12.632001 36972 net.cpp:399] conv_d_2_2 -> conv_d_2_2
I0622 19:43:12.637799 36972 net.cpp:141] Setting up conv_d_2_2
I0622 19:43:12.637830 36972 net.cpp:148] Top shape: 100 128 16 16 (3276800)
I0622 19:43:12.637835 36972 net.cpp:156] Memory required for data: 951502000
I0622 19:43:12.637845 36972 layer_factory.hpp:77] Creating layer elt_d_2
I0622 19:43:12.637854 36972 net.cpp:91] Creating Layer elt_d_2
I0622 19:43:12.637862 36972 net.cpp:425] elt_d_2 <- elt_d_1_elt_d_1_0_split_1
I0622 19:43:12.637882 36972 net.cpp:425] elt_d_2 <- conv_d_2_2
I0622 19:43:12.637892 36972 net.cpp:399] elt_d_2 -> elt_d_2
I0622 19:43:12.637928 36972 net.cpp:141] Setting up elt_d_2
I0622 19:43:12.637940 36972 net.cpp:148] Top shape: 100 128 16 16 (3276800)
I0622 19:43:12.637946 36972 net.cpp:156] Memory required for data: 964609200
I0622 19:43:12.637953 36972 layer_factory.hpp:77] Creating layer elt_d_2_elt_d_2_0_split
I0622 19:43:12.637964 36972 net.cpp:91] Creating Layer elt_d_2_elt_d_2_0_split
I0622 19:43:12.637974 36972 net.cpp:425] elt_d_2_elt_d_2_0_split <- elt_d_2
I0622 19:43:12.637981 36972 net.cpp:399] elt_d_2_elt_d_2_0_split -> elt_d_2_elt_d_2_0_split_0
I0622 19:43:12.637992 36972 net.cpp:399] elt_d_2_elt_d_2_0_split -> elt_d_2_elt_d_2_0_split_1
I0622 19:43:12.638046 36972 net.cpp:141] Setting up elt_d_2_elt_d_2_0_split
I0622 19:43:12.638058 36972 net.cpp:148] Top shape: 100 128 16 16 (3276800)
I0622 19:43:12.638067 36972 net.cpp:148] Top shape: 100 128 16 16 (3276800)
I0622 19:43:12.638072 36972 net.cpp:156] Memory required for data: 990823600
I0622 19:43:12.638079 36972 layer_factory.hpp:77] Creating layer bn_d_3_1
I0622 19:43:12.638090 36972 net.cpp:91] Creating Layer bn_d_3_1
I0622 19:43:12.638098 36972 net.cpp:425] bn_d_3_1 <- elt_d_2_elt_d_2_0_split_0
I0622 19:43:12.638109 36972 net.cpp:399] bn_d_3_1 -> bn_d_3_1
I0622 19:43:12.638370 36972 net.cpp:141] Setting up bn_d_3_1
I0622 19:43:12.638383 36972 net.cpp:148] Top shape: 100 128 16 16 (3276800)
I0622 19:43:12.638389 36972 net.cpp:156] Memory required for data: 1003930800
I0622 19:43:12.638417 36972 layer_factory.hpp:77] Creating layer relu_d_3_1
I0622 19:43:12.638425 36972 net.cpp:91] Creating Layer relu_d_3_1
I0622 19:43:12.638432 36972 net.cpp:425] relu_d_3_1 <- bn_d_3_1
I0622 19:43:12.638442 36972 net.cpp:399] relu_d_3_1 -> relu_d_3_1
I0622 19:43:12.638655 36972 net.cpp:141] Setting up relu_d_3_1
I0622 19:43:12.638669 36972 net.cpp:148] Top shape: 100 128 16 16 (3276800)
I0622 19:43:12.638676 36972 net.cpp:156] Memory required for data: 1017038000
I0622 19:43:12.638689 36972 layer_factory.hpp:77] Creating layer conv_d_3_1
I0622 19:43:12.638711 36972 net.cpp:91] Creating Layer conv_d_3_1
I0622 19:43:12.638720 36972 net.cpp:425] conv_d_3_1 <- relu_d_3_1
I0622 19:43:12.638731 36972 net.cpp:399] conv_d_3_1 -> conv_d_3_1
I0622 19:43:12.644596 36972 net.cpp:141] Setting up conv_d_3_1
I0622 19:43:12.644614 36972 net.cpp:148] Top shape: 100 128 16 16 (3276800)
I0622 19:43:12.644623 36972 net.cpp:156] Memory required for data: 1030145200
I0622 19:43:12.644646 36972 layer_factory.hpp:77] Creating layer bn_d_3_2
I0622 19:43:12.644659 36972 net.cpp:91] Creating Layer bn_d_3_2
I0622 19:43:12.644665 36972 net.cpp:425] bn_d_3_2 <- conv_d_3_1
I0622 19:43:12.644672 36972 net.cpp:399] bn_d_3_2 -> bn_d_3_2
I0622 19:43:12.644943 36972 net.cpp:141] Setting up bn_d_3_2
I0622 19:43:12.644958 36972 net.cpp:148] Top shape: 100 128 16 16 (3276800)
I0622 19:43:12.644964 36972 net.cpp:156] Memory required for data: 1043252400
I0622 19:43:12.644975 36972 layer_factory.hpp:77] Creating layer relu_d_3_2
I0622 19:43:12.644984 36972 net.cpp:91] Creating Layer relu_d_3_2
I0622 19:43:12.644990 36972 net.cpp:425] relu_d_3_2 <- bn_d_3_2
I0622 19:43:12.644997 36972 net.cpp:399] relu_d_3_2 -> relu_d_3_2
I0622 19:43:12.645357 36972 net.cpp:141] Setting up relu_d_3_2
I0622 19:43:12.645372 36972 net.cpp:148] Top shape: 100 128 16 16 (3276800)
I0622 19:43:12.645409 36972 net.cpp:156] Memory required for data: 1056359600
I0622 19:43:12.645416 36972 layer_factory.hpp:77] Creating layer conv_d_3_2
I0622 19:43:12.645433 36972 net.cpp:91] Creating Layer conv_d_3_2
I0622 19:43:12.645442 36972 net.cpp:425] conv_d_3_2 <- relu_d_3_2
I0622 19:43:12.645452 36972 net.cpp:399] conv_d_3_2 -> conv_d_3_2
I0622 19:43:12.651232 36972 net.cpp:141] Setting up conv_d_3_2
I0622 19:43:12.651259 36972 net.cpp:148] Top shape: 100 128 16 16 (3276800)
I0622 19:43:12.651267 36972 net.cpp:156] Memory required for data: 1069466800
I0622 19:43:12.651293 36972 layer_factory.hpp:77] Creating layer elt_d_3
I0622 19:43:12.651304 36972 net.cpp:91] Creating Layer elt_d_3
I0622 19:43:12.651324 36972 net.cpp:425] elt_d_3 <- elt_d_2_elt_d_2_0_split_1
I0622 19:43:12.651341 36972 net.cpp:425] elt_d_3 <- conv_d_3_2
I0622 19:43:12.651351 36972 net.cpp:399] elt_d_3 -> elt_d_3
I0622 19:43:12.651386 36972 net.cpp:141] Setting up elt_d_3
I0622 19:43:12.651398 36972 net.cpp:148] Top shape: 100 128 16 16 (3276800)
I0622 19:43:12.651407 36972 net.cpp:156] Memory required for data: 1082574000
I0622 19:43:12.651412 36972 layer_factory.hpp:77] Creating layer elt_d_3_elt_d_3_0_split
I0622 19:43:12.651423 36972 net.cpp:91] Creating Layer elt_d_3_elt_d_3_0_split
I0622 19:43:12.651429 36972 net.cpp:425] elt_d_3_elt_d_3_0_split <- elt_d_3
I0622 19:43:12.651437 36972 net.cpp:399] elt_d_3_elt_d_3_0_split -> elt_d_3_elt_d_3_0_split_0
I0622 19:43:12.651445 36972 net.cpp:399] elt_d_3_elt_d_3_0_split -> elt_d_3_elt_d_3_0_split_1
I0622 19:43:12.651502 36972 net.cpp:141] Setting up elt_d_3_elt_d_3_0_split
I0622 19:43:12.651515 36972 net.cpp:148] Top shape: 100 128 16 16 (3276800)
I0622 19:43:12.651523 36972 net.cpp:148] Top shape: 100 128 16 16 (3276800)
I0622 19:43:12.651530 36972 net.cpp:156] Memory required for data: 1108788400
I0622 19:43:12.651536 36972 layer_factory.hpp:77] Creating layer bn_j_1_1
I0622 19:43:12.651549 36972 net.cpp:91] Creating Layer bn_j_1_1
I0622 19:43:12.651556 36972 net.cpp:425] bn_j_1_1 <- elt_d_3_elt_d_3_0_split_0
I0622 19:43:12.651566 36972 net.cpp:399] bn_j_1_1 -> bn_j_1_1
I0622 19:43:12.651829 36972 net.cpp:141] Setting up bn_j_1_1
I0622 19:43:12.651841 36972 net.cpp:148] Top shape: 100 128 16 16 (3276800)
I0622 19:43:12.651847 36972 net.cpp:156] Memory required for data: 1121895600
I0622 19:43:12.651857 36972 layer_factory.hpp:77] Creating layer relu_j_1_1
I0622 19:43:12.651870 36972 net.cpp:91] Creating Layer relu_j_1_1
I0622 19:43:12.651876 36972 net.cpp:425] relu_j_1_1 <- bn_j_1_1
I0622 19:43:12.651885 36972 net.cpp:399] relu_j_1_1 -> relu_j_1_1
I0622 19:43:12.652119 36972 net.cpp:141] Setting up relu_j_1_1
I0622 19:43:12.652137 36972 net.cpp:148] Top shape: 100 128 16 16 (3276800)
I0622 19:43:12.652143 36972 net.cpp:156] Memory required for data: 1135002800
I0622 19:43:12.652151 36972 layer_factory.hpp:77] Creating layer conv_j_1_1
I0622 19:43:12.652168 36972 net.cpp:91] Creating Layer conv_j_1_1
I0622 19:43:12.652174 36972 net.cpp:425] conv_j_1_1 <- relu_j_1_1
I0622 19:43:12.652185 36972 net.cpp:399] conv_j_1_1 -> conv_j_1_1
I0622 19:43:12.661813 36972 net.cpp:141] Setting up conv_j_1_1
I0622 19:43:12.661841 36972 net.cpp:148] Top shape: 100 256 8 8 (1638400)
I0622 19:43:12.661849 36972 net.cpp:156] Memory required for data: 1141556400
I0622 19:43:12.661856 36972 layer_factory.hpp:77] Creating layer bn_j_1_2
I0622 19:43:12.661869 36972 net.cpp:91] Creating Layer bn_j_1_2
I0622 19:43:12.661875 36972 net.cpp:425] bn_j_1_2 <- conv_j_1_1
I0622 19:43:12.661885 36972 net.cpp:399] bn_j_1_2 -> bn_j_1_2
I0622 19:43:12.662163 36972 net.cpp:141] Setting up bn_j_1_2
I0622 19:43:12.662178 36972 net.cpp:148] Top shape: 100 256 8 8 (1638400)
I0622 19:43:12.662184 36972 net.cpp:156] Memory required for data: 1148110000
I0622 19:43:12.662195 36972 layer_factory.hpp:77] Creating layer relu_j_1_2
I0622 19:43:12.662204 36972 net.cpp:91] Creating Layer relu_j_1_2
I0622 19:43:12.662210 36972 net.cpp:425] relu_j_1_2 <- bn_j_1_2
I0622 19:43:12.662217 36972 net.cpp:399] relu_j_1_2 -> relu_j_1_2
I0622 19:43:12.662467 36972 net.cpp:141] Setting up relu_j_1_2
I0622 19:43:12.662482 36972 net.cpp:148] Top shape: 100 256 8 8 (1638400)
I0622 19:43:12.662488 36972 net.cpp:156] Memory required for data: 1154663600
I0622 19:43:12.662494 36972 layer_factory.hpp:77] Creating layer conv_j_1_2
I0622 19:43:12.662511 36972 net.cpp:91] Creating Layer conv_j_1_2
I0622 19:43:12.662519 36972 net.cpp:425] conv_j_1_2 <- relu_j_1_2
I0622 19:43:12.662533 36972 net.cpp:399] conv_j_1_2 -> conv_j_1_2
I0622 19:43:12.681015 36972 net.cpp:141] Setting up conv_j_1_2
I0622 19:43:12.681044 36972 net.cpp:148] Top shape: 100 256 8 8 (1638400)
I0622 19:43:12.681051 36972 net.cpp:156] Memory required for data: 1161217200
I0622 19:43:12.681059 36972 layer_factory.hpp:77] Creating layer res_j
I0622 19:43:12.681076 36972 net.cpp:91] Creating Layer res_j
I0622 19:43:12.681085 36972 net.cpp:425] res_j <- elt_d_3_elt_d_3_0_split_1
I0622 19:43:12.681110 36972 net.cpp:399] res_j -> res_j
I0622 19:43:12.683161 36972 net.cpp:141] Setting up res_j
I0622 19:43:12.683176 36972 net.cpp:148] Top shape: 100 256 8 8 (1638400)
I0622 19:43:12.683195 36972 net.cpp:156] Memory required for data: 1167770800
I0622 19:43:12.683204 36972 layer_factory.hpp:77] Creating layer elt_j_1
I0622 19:43:12.683213 36972 net.cpp:91] Creating Layer elt_j_1
I0622 19:43:12.683218 36972 net.cpp:425] elt_j_1 <- res_j
I0622 19:43:12.683228 36972 net.cpp:425] elt_j_1 <- conv_j_1_2
I0622 19:43:12.683253 36972 net.cpp:399] elt_j_1 -> elt_j_1
I0622 19:43:12.683295 36972 net.cpp:141] Setting up elt_j_1
I0622 19:43:12.683308 36972 net.cpp:148] Top shape: 100 256 8 8 (1638400)
I0622 19:43:12.683315 36972 net.cpp:156] Memory required for data: 1174324400
I0622 19:43:12.683321 36972 layer_factory.hpp:77] Creating layer elt_j_1_elt_j_1_0_split
I0622 19:43:12.683331 36972 net.cpp:91] Creating Layer elt_j_1_elt_j_1_0_split
I0622 19:43:12.683338 36972 net.cpp:425] elt_j_1_elt_j_1_0_split <- elt_j_1
I0622 19:43:12.683346 36972 net.cpp:399] elt_j_1_elt_j_1_0_split -> elt_j_1_elt_j_1_0_split_0
I0622 19:43:12.683359 36972 net.cpp:399] elt_j_1_elt_j_1_0_split -> elt_j_1_elt_j_1_0_split_1
I0622 19:43:12.683418 36972 net.cpp:141] Setting up elt_j_1_elt_j_1_0_split
I0622 19:43:12.683430 36972 net.cpp:148] Top shape: 100 256 8 8 (1638400)
I0622 19:43:12.683439 36972 net.cpp:148] Top shape: 100 256 8 8 (1638400)
I0622 19:43:12.683446 36972 net.cpp:156] Memory required for data: 1187431600
I0622 19:43:12.683452 36972 layer_factory.hpp:77] Creating layer bn_j_2_1
I0622 19:43:12.683466 36972 net.cpp:91] Creating Layer bn_j_2_1
I0622 19:43:12.683475 36972 net.cpp:425] bn_j_2_1 <- elt_j_1_elt_j_1_0_split_0
I0622 19:43:12.683485 36972 net.cpp:399] bn_j_2_1 -> bn_j_2_1
I0622 19:43:12.683748 36972 net.cpp:141] Setting up bn_j_2_1
I0622 19:43:12.683760 36972 net.cpp:148] Top shape: 100 256 8 8 (1638400)
I0622 19:43:12.683765 36972 net.cpp:156] Memory required for data: 1193985200
I0622 19:43:12.683776 36972 layer_factory.hpp:77] Creating layer relu_j_2_1
I0622 19:43:12.683794 36972 net.cpp:91] Creating Layer relu_j_2_1
I0622 19:43:12.683801 36972 net.cpp:425] relu_j_2_1 <- bn_j_2_1
I0622 19:43:12.683812 36972 net.cpp:399] relu_j_2_1 -> relu_j_2_1
I0622 19:43:12.684188 36972 net.cpp:141] Setting up relu_j_2_1
I0622 19:43:12.684203 36972 net.cpp:148] Top shape: 100 256 8 8 (1638400)
I0622 19:43:12.684211 36972 net.cpp:156] Memory required for data: 1200538800
I0622 19:43:12.684217 36972 layer_factory.hpp:77] Creating layer conv_j_2_1
I0622 19:43:12.684234 36972 net.cpp:91] Creating Layer conv_j_2_1
I0622 19:43:12.684243 36972 net.cpp:425] conv_j_2_1 <- relu_j_2_1
I0622 19:43:12.684255 36972 net.cpp:399] conv_j_2_1 -> conv_j_2_1
I0622 19:43:12.702512 36972 net.cpp:141] Setting up conv_j_2_1
I0622 19:43:12.702530 36972 net.cpp:148] Top shape: 100 256 8 8 (1638400)
I0622 19:43:12.702549 36972 net.cpp:156] Memory required for data: 1207092400
I0622 19:43:12.702558 36972 layer_factory.hpp:77] Creating layer bn_j_2_2
I0622 19:43:12.702571 36972 net.cpp:91] Creating Layer bn_j_2_2
I0622 19:43:12.702577 36972 net.cpp:425] bn_j_2_2 <- conv_j_2_1
I0622 19:43:12.702620 36972 net.cpp:399] bn_j_2_2 -> bn_j_2_2
I0622 19:43:12.702949 36972 net.cpp:141] Setting up bn_j_2_2
I0622 19:43:12.702963 36972 net.cpp:148] Top shape: 100 256 8 8 (1638400)
I0622 19:43:12.702968 36972 net.cpp:156] Memory required for data: 1213646000
I0622 19:43:12.702993 36972 layer_factory.hpp:77] Creating layer relu_j_2_2
I0622 19:43:12.703002 36972 net.cpp:91] Creating Layer relu_j_2_2
I0622 19:43:12.703008 36972 net.cpp:425] relu_j_2_2 <- bn_j_2_2
I0622 19:43:12.703018 36972 net.cpp:399] relu_j_2_2 -> relu_j_2_2
I0622 19:43:12.703404 36972 net.cpp:141] Setting up relu_j_2_2
I0622 19:43:12.703420 36972 net.cpp:148] Top shape: 100 256 8 8 (1638400)
I0622 19:43:12.703439 36972 net.cpp:156] Memory required for data: 1220199600
I0622 19:43:12.703445 36972 layer_factory.hpp:77] Creating layer conv_j_2_2
I0622 19:43:12.703461 36972 net.cpp:91] Creating Layer conv_j_2_2
I0622 19:43:12.703470 36972 net.cpp:425] conv_j_2_2 <- relu_j_2_2
I0622 19:43:12.703482 36972 net.cpp:399] conv_j_2_2 -> conv_j_2_2
I0622 19:43:12.721673 36972 net.cpp:141] Setting up conv_j_2_2
I0622 19:43:12.721699 36972 net.cpp:148] Top shape: 100 256 8 8 (1638400)
I0622 19:43:12.721705 36972 net.cpp:156] Memory required for data: 1226753200
I0622 19:43:12.721715 36972 layer_factory.hpp:77] Creating layer elt_j_2
I0622 19:43:12.721727 36972 net.cpp:91] Creating Layer elt_j_2
I0622 19:43:12.721735 36972 net.cpp:425] elt_j_2 <- elt_j_1_elt_j_1_0_split_1
I0622 19:43:12.721745 36972 net.cpp:425] elt_j_2 <- conv_j_2_2
I0622 19:43:12.721753 36972 net.cpp:399] elt_j_2 -> elt_j_2
I0622 19:43:12.721794 36972 net.cpp:141] Setting up elt_j_2
I0622 19:43:12.721808 36972 net.cpp:148] Top shape: 100 256 8 8 (1638400)
I0622 19:43:12.721815 36972 net.cpp:156] Memory required for data: 1233306800
I0622 19:43:12.721822 36972 layer_factory.hpp:77] Creating layer elt_j_2_elt_j_2_0_split
I0622 19:43:12.721832 36972 net.cpp:91] Creating Layer elt_j_2_elt_j_2_0_split
I0622 19:43:12.721838 36972 net.cpp:425] elt_j_2_elt_j_2_0_split <- elt_j_2
I0622 19:43:12.721849 36972 net.cpp:399] elt_j_2_elt_j_2_0_split -> elt_j_2_elt_j_2_0_split_0
I0622 19:43:12.721860 36972 net.cpp:399] elt_j_2_elt_j_2_0_split -> elt_j_2_elt_j_2_0_split_1
I0622 19:43:12.721917 36972 net.cpp:141] Setting up elt_j_2_elt_j_2_0_split
I0622 19:43:12.721930 36972 net.cpp:148] Top shape: 100 256 8 8 (1638400)
I0622 19:43:12.721938 36972 net.cpp:148] Top shape: 100 256 8 8 (1638400)
I0622 19:43:12.721945 36972 net.cpp:156] Memory required for data: 1246414000
I0622 19:43:12.721951 36972 layer_factory.hpp:77] Creating layer bn_j_3_1
I0622 19:43:12.721963 36972 net.cpp:91] Creating Layer bn_j_3_1
I0622 19:43:12.721971 36972 net.cpp:425] bn_j_3_1 <- elt_j_2_elt_j_2_0_split_0
I0622 19:43:12.721983 36972 net.cpp:399] bn_j_3_1 -> bn_j_3_1
I0622 19:43:12.722267 36972 net.cpp:141] Setting up bn_j_3_1
I0622 19:43:12.722280 36972 net.cpp:148] Top shape: 100 256 8 8 (1638400)
I0622 19:43:12.722286 36972 net.cpp:156] Memory required for data: 1252967600
I0622 19:43:12.722297 36972 layer_factory.hpp:77] Creating layer relu_j_3_1
I0622 19:43:12.722307 36972 net.cpp:91] Creating Layer relu_j_3_1
I0622 19:43:12.722314 36972 net.cpp:425] relu_j_3_1 <- bn_j_3_1
I0622 19:43:12.722323 36972 net.cpp:399] relu_j_3_1 -> relu_j_3_1
I0622 19:43:12.722545 36972 net.cpp:141] Setting up relu_j_3_1
I0622 19:43:12.722559 36972 net.cpp:148] Top shape: 100 256 8 8 (1638400)
I0622 19:43:12.722566 36972 net.cpp:156] Memory required for data: 1259521200
I0622 19:43:12.722571 36972 layer_factory.hpp:77] Creating layer conv_j_3_1
I0622 19:43:12.722589 36972 net.cpp:91] Creating Layer conv_j_3_1
I0622 19:43:12.722596 36972 net.cpp:425] conv_j_3_1 <- relu_j_3_1
I0622 19:43:12.722609 36972 net.cpp:399] conv_j_3_1 -> conv_j_3_1
I0622 19:43:12.741031 36972 net.cpp:141] Setting up conv_j_3_1
I0622 19:43:12.741050 36972 net.cpp:148] Top shape: 100 256 8 8 (1638400)
I0622 19:43:12.741056 36972 net.cpp:156] Memory required for data: 1266074800
I0622 19:43:12.741067 36972 layer_factory.hpp:77] Creating layer bn_j_3_2
I0622 19:43:12.741102 36972 net.cpp:91] Creating Layer bn_j_3_2
I0622 19:43:12.741113 36972 net.cpp:425] bn_j_3_2 <- conv_j_3_1
I0622 19:43:12.741124 36972 net.cpp:399] bn_j_3_2 -> bn_j_3_2
I0622 19:43:12.741406 36972 net.cpp:141] Setting up bn_j_3_2
I0622 19:43:12.741420 36972 net.cpp:148] Top shape: 100 256 8 8 (1638400)
I0622 19:43:12.741425 36972 net.cpp:156] Memory required for data: 1272628400
I0622 19:43:12.741438 36972 layer_factory.hpp:77] Creating layer relu_j_3_2
I0622 19:43:12.741449 36972 net.cpp:91] Creating Layer relu_j_3_2
I0622 19:43:12.741457 36972 net.cpp:425] relu_j_3_2 <- bn_j_3_2
I0622 19:43:12.741466 36972 net.cpp:399] relu_j_3_2 -> relu_j_3_2
I0622 19:43:12.741816 36972 net.cpp:141] Setting up relu_j_3_2
I0622 19:43:12.741832 36972 net.cpp:148] Top shape: 100 256 8 8 (1638400)
I0622 19:43:12.741837 36972 net.cpp:156] Memory required for data: 1279182000
I0622 19:43:12.741842 36972 layer_factory.hpp:77] Creating layer conv_j_3_2
I0622 19:43:12.741859 36972 net.cpp:91] Creating Layer conv_j_3_2
I0622 19:43:12.741865 36972 net.cpp:425] conv_j_3_2 <- relu_j_3_2
I0622 19:43:12.741878 36972 net.cpp:399] conv_j_3_2 -> conv_j_3_2
I0622 19:43:12.760257 36972 net.cpp:141] Setting up conv_j_3_2
I0622 19:43:12.760273 36972 net.cpp:148] Top shape: 100 256 8 8 (1638400)
I0622 19:43:12.760293 36972 net.cpp:156] Memory required for data: 1285735600
I0622 19:43:12.760301 36972 layer_factory.hpp:77] Creating layer elt_j_3
I0622 19:43:12.760310 36972 net.cpp:91] Creating Layer elt_j_3
I0622 19:43:12.760316 36972 net.cpp:425] elt_j_3 <- elt_j_2_elt_j_2_0_split_1
I0622 19:43:12.760324 36972 net.cpp:425] elt_j_3 <- conv_j_3_2
I0622 19:43:12.760335 36972 net.cpp:399] elt_j_3 -> elt_j_3
I0622 19:43:12.760388 36972 net.cpp:141] Setting up elt_j_3
I0622 19:43:12.760401 36972 net.cpp:148] Top shape: 100 256 8 8 (1638400)
I0622 19:43:12.760408 36972 net.cpp:156] Memory required for data: 1292289200
I0622 19:43:12.760416 36972 layer_factory.hpp:77] Creating layer bn_m_1_1
I0622 19:43:12.760429 36972 net.cpp:91] Creating Layer bn_m_1_1
I0622 19:43:12.760437 36972 net.cpp:425] bn_m_1_1 <- elt_j_3
I0622 19:43:12.760448 36972 net.cpp:399] bn_m_1_1 -> bn_m_1_1
I0622 19:43:12.760740 36972 net.cpp:141] Setting up bn_m_1_1
I0622 19:43:12.760767 36972 net.cpp:148] Top shape: 100 256 8 8 (1638400)
I0622 19:43:12.760772 36972 net.cpp:156] Memory required for data: 1298842800
I0622 19:43:12.760782 36972 layer_factory.hpp:77] Creating layer relu_m_1_1
I0622 19:43:12.760790 36972 net.cpp:91] Creating Layer relu_m_1_1
I0622 19:43:12.760797 36972 net.cpp:425] relu_m_1_1 <- bn_m_1_1
I0622 19:43:12.760803 36972 net.cpp:399] relu_m_1_1 -> relu_m_1_1
I0622 19:43:12.761299 36972 net.cpp:141] Setting up relu_m_1_1
I0622 19:43:12.761314 36972 net.cpp:148] Top shape: 100 256 8 8 (1638400)
I0622 19:43:12.761333 36972 net.cpp:156] Memory required for data: 1305396400
I0622 19:43:12.761338 36972 layer_factory.hpp:77] Creating layer gap
I0622 19:43:12.761353 36972 net.cpp:91] Creating Layer gap
I0622 19:43:12.761358 36972 net.cpp:425] gap <- relu_m_1_1
I0622 19:43:12.761365 36972 net.cpp:399] gap -> gap
I0622 19:43:12.761615 36972 net.cpp:141] Setting up gap
I0622 19:43:12.761628 36972 net.cpp:148] Top shape: 100 256 1 1 (25600)
I0622 19:43:12.761636 36972 net.cpp:156] Memory required for data: 1305498800
I0622 19:43:12.761656 36972 layer_factory.hpp:77] Creating layer ip1
I0622 19:43:12.761667 36972 net.cpp:91] Creating Layer ip1
I0622 19:43:12.761673 36972 net.cpp:425] ip1 <- gap
I0622 19:43:12.761683 36972 net.cpp:399] ip1 -> ip1
I0622 19:43:12.761941 36972 net.cpp:141] Setting up ip1
I0622 19:43:12.761955 36972 net.cpp:148] Top shape: 100 10 (1000)
I0622 19:43:12.761976 36972 net.cpp:156] Memory required for data: 1305502800
I0622 19:43:12.761986 36972 layer_factory.hpp:77] Creating layer ip1_ip1_0_split
I0622 19:43:12.761994 36972 net.cpp:91] Creating Layer ip1_ip1_0_split
I0622 19:43:12.761999 36972 net.cpp:425] ip1_ip1_0_split <- ip1
I0622 19:43:12.762008 36972 net.cpp:399] ip1_ip1_0_split -> ip1_ip1_0_split_0
I0622 19:43:12.762017 36972 net.cpp:399] ip1_ip1_0_split -> ip1_ip1_0_split_1
I0622 19:43:12.762109 36972 net.cpp:141] Setting up ip1_ip1_0_split
I0622 19:43:12.762125 36972 net.cpp:148] Top shape: 100 10 (1000)
I0622 19:43:12.762132 36972 net.cpp:148] Top shape: 100 10 (1000)
I0622 19:43:12.762140 36972 net.cpp:156] Memory required for data: 1305510800
I0622 19:43:12.762145 36972 layer_factory.hpp:77] Creating layer accuracy
I0622 19:43:12.762157 36972 net.cpp:91] Creating Layer accuracy
I0622 19:43:12.762164 36972 net.cpp:425] accuracy <- ip1_ip1_0_split_0
I0622 19:43:12.762173 36972 net.cpp:425] accuracy <- label_resnet_1_split_0
I0622 19:43:12.762183 36972 net.cpp:399] accuracy -> accuracy
…
