…
I0621 16:39:56.123350 25341 net.cpp:313] The NetState phase (0) differed from the phase (1) specified by a rule in layer accuracy
I0621 16:39:56.123584 25341 net.cpp:49] Initializing net from parameters: 
name: "ResNet"
state {
  phase: TRAIN
}
layer {
  name: "resnet"
  type: "Data"
  top: "data"
  top: "label"
  include {
    phase: TRAIN
  }
  transform_param {
    mean_file: "/home/takeki/caffe/examples/cifar10/mean.binaryproto"
  }
  data_param {
    source: "/home/takeki/caffe/examples/cifar10/cifar10_train_lmdb"
    batch_size: 100
    backend: LMDB
  }
}
layer {
  name: "conv0"
  type: "Convolution"
  bottom: "data"
  top: "conv0"
  param {
    lr_mult: 1
  }
  param {
    lr_mult: 2
  }
  convolution_param {
    num_output: 16
    pad: 1
    kernel_size: 3
    stride: 1
    weight_filler {
      type: "msra"
    }
    bias_filler {
      type: "constant"
    }
  }
}
layer {
  name: "bn_a_1_1"
  type: "BatchNorm"
  bottom: "conv0"
  top: "bn_a_1_1"
  param {
    lr_mult: 0
  }
  param {
    lr_mult: 0
  }
  param {
    lr_mult: 0
  }
  batch_norm_param {
    use_global_stats: false
  }
}
layer {
  name: "relu_a_1_1"
  type: "ReLU"
  bottom: "bn_a_1_1"
  top: "relu_a_1_1"
}
layer {
  name: "conv_a_1_1"
  type: "Convolution"
  bottom: "relu_a_1_1"
  top: "conv_a_1_1"
  param {
    lr_mult: 1
    decay_mult: 1
  }
  param {
    lr_mult: 2
    decay_mult: 1
  }
  convolution_param {
    num_output: 64
    pad: 1
    kernel_size: 3
    stride: 1
    weight_filler {
      type: "msra"
    }
    bias_filler {
      type: "constant"
    }
  }
}
layer {
  name: "bn_a_1_2"
  type: "BatchNorm"
  bottom: "conv_a_1_1"
  top: "bn_a_1_2"
  param {
    lr_mult: 0
  }
  param {
    lr_mult: 0
  }
  param {
    lr_mult: 0
  }
  batch_norm_param {
    use_global_stats: false
  }
}
layer {
  name: "relu_a_1_2"
  type: "ReLU"
  bottom: "bn_a_1_2"
  top: "relu_a_1_2"
}
layer {
  name: "conv_a_1_2"
  type: "Convolution"
  bottom: "relu_a_1_2"
  top: "conv_a_1_2"
  param {
    lr_mult: 1
    decay_mult: 1
  }
  param {
    lr_mult: 2
    decay_mult: 1
  }
  convolution_param {
    num_output: 64
    pad: 1
    kernel_size: 3
    stride: 1
    weight_filler {
      type: "msra"
    }
    bias_filler {
      type: "constant"
    }
  }
}
layer {
  name: "res_a"
  type: "Convolution"
  bottom: "conv0"
  top: "res_a"
  param {
    lr_mult: 1
    decay_mult: 1
  }
  param {
    lr_mult: 2
    decay_mult: 1
  }
  convolution_param {
    num_output: 64
    pad: 0
    kernel_size: 1
    stride: 1
    weight_filler {
      type: "msra"
    }
    bias_filler {
      type: "constant"
    }
  }
}
layer {
  name: "elt_a_1"
  type: "Eltwise"
  bottom: "res_a"
  bottom: "conv_a_1_2"
  top: "elt_a_1"
  eltwise_param {
    operation: SUM
  }
}
layer {
  name: "bn_d_1_1"
  type: "BatchNorm"
  bottom: "elt_a_1"
  top: "bn_d_1_1"
  param {
    lr_mult: 0
  }
  param {
    lr_mult: 0
  }
  param {
    lr_mult: 0
  }
  batch_norm_param {
    use_global_stats: false
  }
}
layer {
  name: "relu_d_1_1"
  type: "ReLU"
  bottom: "bn_d_1_1"
  top: "relu_d_1_1"
}
layer {
  name: "conv_d_1_1"
  type: "Convolution"
  bottom: "relu_d_1_1"
  top: "conv_d_1_1"
  param {
    lr_mult: 1
    decay_mult: 1
  }
  param {
    lr_mult: 2
    decay_mult: 1
  }
  convolution_param {
    num_output: 128
    pad: 1
    kernel_size: 3
    stride: 2
    weight_filler {
      type: "msra"
    }
    bias_filler {
      type: "constant"
    }
  }
}
layer {
  name: "bn_d_1_2"
  type: "BatchNorm"
  bottom: "conv_d_1_1"
  top: "bn_d_1_2"
  param {
    lr_mult: 0
  }
  param {
    lr_mult: 0
  }
  param {
    lr_mult: 0
  }
  batch_norm_param {
    use_global_stats: false
  }
}
layer {
  name: "relu_d_1_2"
  type: "ReLU"
  bottom: "bn_d_1_2"
  top: "relu_d_1_2"
}
layer {
  name: "conv_d_1_2"
  type: "Convolution"
  bottom: "relu_d_1_2"
  top: "conv_d_1_2"
  param {
    lr_mult: 1
    decay_mult: 1
  }
  param {
    lr_mult: 2
    decay_mult: 1
  }
  convolution_param {
    num_output: 128
    pad: 1
    kernel_size: 3
    stride: 1
    weight_filler {
      type: "msra"
    }
    bias_filler {
      type: "constant"
    }
  }
}
layer {
  name: "res_d"
  type: "Convolution"
  bottom: "elt_a_1"
  top: "res_d"
  param {
    lr_mult: 1
    decay_mult: 1
  }
  param {
    lr_mult: 2
    decay_mult: 1
  }
  convolution_param {
    num_output: 128
    pad: 0
    kernel_size: 1
    stride: 2
    weight_filler {
      type: "msra"
    }
    bias_filler {
      type: "constant"
    }
  }
}
layer {
  name: "elt_d_1"
  type: "Eltwise"
  bottom: "res_d"
  bottom: "conv_d_1_2"
  top: "elt_d_1"
  eltwise_param {
    operation: SUM
  }
}
layer {
  name: "bn_j_1_1"
  type: "BatchNorm"
  bottom: "elt_d_1"
  top: "bn_j_1_1"
  param {
    lr_mult: 0
  }
  param {
    lr_mult: 0
  }
  param {
    lr_mult: 0
  }
  batch_norm_param {
    use_global_stats: false
  }
}
layer {
  name: "relu_j_1_1"
  type: "ReLU"
  bottom: "bn_j_1_1"
  top: "relu_j_1_1"
}
layer {
  name: "conv_j_1_1"
  type: "Convolution"
  bottom: "relu_j_1_1"
  top: "conv_j_1_1"
  param {
    lr_mult: 1
    decay_mult: 1
  }
  param {
    lr_mult: 2
    decay_mult: 1
  }
  convolution_param {
    num_output: 256
    pad: 1
    kernel_size: 3
    stride: 2
    weight_filler {
      type: "msra"
    }
    bias_filler {
      type: "constant"
    }
  }
}
layer {
  name: "bn_j_1_2"
  type: "BatchNorm"
  bottom: "conv_j_1_1"
  top: "bn_j_1_2"
  param {
    lr_mult: 0
  }
  param {
    lr_mult: 0
  }
  param {
    lr_mult: 0
  }
  batch_norm_param {
    use_global_stats: false
  }
}
layer {
  name: "relu_j_1_2"
  type: "ReLU"
  bottom: "bn_j_1_2"
  top: "relu_j_1_2"
}
layer {
  name: "conv_j_1_2"
  type: "Convolution"
  bottom: "relu_j_1_2"
  top: "conv_j_1_2"
  param {
    lr_mult: 1
    decay_mult: 1
  }
  param {
    lr_mult: 2
    decay_mult: 1
  }
  convolution_param {
    num_output: 256
    pad: 1
    kernel_size: 3
    stride: 1
    weight_filler {
      type: "msra"
    }
    bias_filler {
      type: "constant"
    }
  }
}
layer {
  name: "res_j"
  type: "Convolution"
  bottom: "elt_d_1"
  top: "res_j"
  param {
    lr_mult: 1
    decay_mult: 1
  }
  param {
    lr_mult: 2
    decay_mult: 1
  }
  convolution_param {
    num_output: 256
    pad: 0
    kernel_size: 1
    stride: 2
    weight_filler {
      type: "msra"
    }
    bias_filler {
      type: "constant"
    }
  }
}
layer {
  name: "elt_j_1"
  type: "Eltwise"
  bottom: "res_j"
  bottom: "conv_j_1_2"
  top: "elt_j_1"
  eltwise_param {
    operation: SUM
  }
}
layer {
  name: "bn_m_1_1"
  type: "BatchNorm"
  bottom: "elt_j_1"
  top: "bn_m_1_1"
  param {
    lr_mult: 0
  }
  param {
    lr_mult: 0
  }
  param {
    lr_mult: 0
  }
  batch_norm_param {
    use_global_stats: false
  }
}
layer {
  name: "relu_m_1_1"
  type: "ReLU"
  bottom: "bn_m_1_1"
  top: "relu_m_1_1"
}
layer {
  name: "gap"
  type: "Pooling"
  bottom: "relu_m_1_1"
  top: "gap"
  pooling_param {
    pool: AVE
    kernel_size: 8
    stride: 1
  }
}
layer {
  name: "ip1"
  type: "InnerProduct"
  bottom: "gap"
  top: "ip1"
  param {
    lr_mult: 1
    decay_mult: 1
  }
  param {
    lr_mult: 2
    decay_mult: 0
  }
  inner_product_param {
    num_output: 10
    weight_filler {
      type: "msra"
    }
    bias_filler {
      type: "constant"
      value: 0
    }
  }
}
layer {
  name: "loss"
  type: "SoftmaxWithLoss"
  bottom: "ip1"
  bottom: "label"
  top: "loss"
}
I0621 16:39:56.123806 25341 layer_factory.hpp:77] Creating layer resnet
I0621 16:39:56.124339 25341 net.cpp:91] Creating Layer resnet
I0621 16:39:56.124367 25341 net.cpp:399] resnet -> data
I0621 16:39:56.124405 25341 net.cpp:399] resnet -> label
I0621 16:39:56.124425 25341 data_transformer.cpp:25] Loading mean file from: /home/takeki/caffe/examples/cifar10/mean.binaryproto
I0621 16:39:56.125099 25384 db_lmdb.cpp:35] Opened lmdb /home/takeki/caffe/examples/cifar10/cifar10_train_lmdb
I0621 16:39:56.136564 25341 data_layer.cpp:41] output data size: 100,3,32,32
I0621 16:39:56.139783 25341 net.cpp:141] Setting up resnet
I0621 16:39:56.139822 25341 net.cpp:148] Top shape: 100 3 32 32 (307200)
I0621 16:39:56.139829 25341 net.cpp:148] Top shape: 100 (100)
I0621 16:39:56.139834 25341 net.cpp:156] Memory required for data: 1229200
I0621 16:39:56.139844 25341 layer_factory.hpp:77] Creating layer conv0
I0621 16:39:56.139883 25341 net.cpp:91] Creating Layer conv0
I0621 16:39:56.139894 25341 net.cpp:425] conv0 <- data
I0621 16:39:56.139909 25341 net.cpp:399] conv0 -> conv0
I0621 16:39:56.306382 25341 net.cpp:141] Setting up conv0
I0621 16:39:56.306439 25341 net.cpp:148] Top shape: 100 16 32 32 (1638400)
I0621 16:39:56.306447 25341 net.cpp:156] Memory required for data: 7782800
I0621 16:39:56.306470 25341 layer_factory.hpp:77] Creating layer conv0_conv0_0_split
I0621 16:39:56.306505 25341 net.cpp:91] Creating Layer conv0_conv0_0_split
I0621 16:39:56.306512 25341 net.cpp:425] conv0_conv0_0_split <- conv0
I0621 16:39:56.306521 25341 net.cpp:399] conv0_conv0_0_split -> conv0_conv0_0_split_0
I0621 16:39:56.306540 25341 net.cpp:399] conv0_conv0_0_split -> conv0_conv0_0_split_1
I0621 16:39:56.306584 25341 net.cpp:141] Setting up conv0_conv0_0_split
I0621 16:39:56.306596 25341 net.cpp:148] Top shape: 100 16 32 32 (1638400)
I0621 16:39:56.306605 25341 net.cpp:148] Top shape: 100 16 32 32 (1638400)
I0621 16:39:56.306610 25341 net.cpp:156] Memory required for data: 20890000
I0621 16:39:56.306615 25341 layer_factory.hpp:77] Creating layer bn_a_1_1
I0621 16:39:56.306627 25341 net.cpp:91] Creating Layer bn_a_1_1
I0621 16:39:56.306632 25341 net.cpp:425] bn_a_1_1 <- conv0_conv0_0_split_0
I0621 16:39:56.306640 25341 net.cpp:399] bn_a_1_1 -> bn_a_1_1
I0621 16:39:56.306829 25341 net.cpp:141] Setting up bn_a_1_1
I0621 16:39:56.306843 25341 net.cpp:148] Top shape: 100 16 32 32 (1638400)
I0621 16:39:56.306848 25341 net.cpp:156] Memory required for data: 27443600
I0621 16:39:56.306861 25341 layer_factory.hpp:77] Creating layer relu_a_1_1
I0621 16:39:56.306874 25341 net.cpp:91] Creating Layer relu_a_1_1
I0621 16:39:56.306879 25341 net.cpp:425] relu_a_1_1 <- bn_a_1_1
I0621 16:39:56.306886 25341 net.cpp:399] relu_a_1_1 -> relu_a_1_1
I0621 16:39:56.307183 25341 net.cpp:141] Setting up relu_a_1_1
I0621 16:39:56.307198 25341 net.cpp:148] Top shape: 100 16 32 32 (1638400)
I0621 16:39:56.307204 25341 net.cpp:156] Memory required for data: 33997200
I0621 16:39:56.307209 25341 layer_factory.hpp:77] Creating layer conv_a_1_1
I0621 16:39:56.307225 25341 net.cpp:91] Creating Layer conv_a_1_1
I0621 16:39:56.307231 25341 net.cpp:425] conv_a_1_1 <- relu_a_1_1
I0621 16:39:56.307240 25341 net.cpp:399] conv_a_1_1 -> conv_a_1_1
I0621 16:39:56.308715 25341 net.cpp:141] Setting up conv_a_1_1
I0621 16:39:56.308730 25341 net.cpp:148] Top shape: 100 64 32 32 (6553600)
I0621 16:39:56.308750 25341 net.cpp:156] Memory required for data: 60211600
I0621 16:39:56.308759 25341 layer_factory.hpp:77] Creating layer bn_a_1_2
I0621 16:39:56.308770 25341 net.cpp:91] Creating Layer bn_a_1_2
I0621 16:39:56.308776 25341 net.cpp:425] bn_a_1_2 <- conv_a_1_1
I0621 16:39:56.308784 25341 net.cpp:399] bn_a_1_2 -> bn_a_1_2
I0621 16:39:56.308964 25341 net.cpp:141] Setting up bn_a_1_2
I0621 16:39:56.308990 25341 net.cpp:148] Top shape: 100 64 32 32 (6553600)
I0621 16:39:56.308996 25341 net.cpp:156] Memory required for data: 86426000
I0621 16:39:56.309008 25341 layer_factory.hpp:77] Creating layer relu_a_1_2
I0621 16:39:56.309017 25341 net.cpp:91] Creating Layer relu_a_1_2
I0621 16:39:56.309023 25341 net.cpp:425] relu_a_1_2 <- bn_a_1_2
I0621 16:39:56.309032 25341 net.cpp:399] relu_a_1_2 -> relu_a_1_2
I0621 16:39:56.309401 25341 net.cpp:141] Setting up relu_a_1_2
I0621 16:39:56.309418 25341 net.cpp:148] Top shape: 100 64 32 32 (6553600)
I0621 16:39:56.309425 25341 net.cpp:156] Memory required for data: 112640400
I0621 16:39:56.309430 25341 layer_factory.hpp:77] Creating layer conv_a_1_2
I0621 16:39:56.309445 25341 net.cpp:91] Creating Layer conv_a_1_2
I0621 16:39:56.309453 25341 net.cpp:425] conv_a_1_2 <- relu_a_1_2
I0621 16:39:56.309460 25341 net.cpp:399] conv_a_1_2 -> conv_a_1_2
I0621 16:39:56.311923 25341 net.cpp:141] Setting up conv_a_1_2
I0621 16:39:56.311939 25341 net.cpp:148] Top shape: 100 64 32 32 (6553600)
I0621 16:39:56.311959 25341 net.cpp:156] Memory required for data: 138854800
I0621 16:39:56.311967 25341 layer_factory.hpp:77] Creating layer res_a
I0621 16:39:56.311982 25341 net.cpp:91] Creating Layer res_a
I0621 16:39:56.311990 25341 net.cpp:425] res_a <- conv0_conv0_0_split_1
I0621 16:39:56.312000 25341 net.cpp:399] res_a -> res_a
I0621 16:39:56.312970 25341 net.cpp:141] Setting up res_a
I0621 16:39:56.312985 25341 net.cpp:148] Top shape: 100 64 32 32 (6553600)
I0621 16:39:56.313004 25341 net.cpp:156] Memory required for data: 165069200
I0621 16:39:56.313014 25341 layer_factory.hpp:77] Creating layer elt_a_1
I0621 16:39:56.313025 25341 net.cpp:91] Creating Layer elt_a_1
I0621 16:39:56.313032 25341 net.cpp:425] elt_a_1 <- res_a
I0621 16:39:56.313038 25341 net.cpp:425] elt_a_1 <- conv_a_1_2
I0621 16:39:56.313045 25341 net.cpp:399] elt_a_1 -> elt_a_1
I0621 16:39:56.313079 25341 net.cpp:141] Setting up elt_a_1
I0621 16:39:56.313091 25341 net.cpp:148] Top shape: 100 64 32 32 (6553600)
I0621 16:39:56.313097 25341 net.cpp:156] Memory required for data: 191283600
I0621 16:39:56.313100 25341 layer_factory.hpp:77] Creating layer elt_a_1_elt_a_1_0_split
I0621 16:39:56.313107 25341 net.cpp:91] Creating Layer elt_a_1_elt_a_1_0_split
I0621 16:39:56.313112 25341 net.cpp:425] elt_a_1_elt_a_1_0_split <- elt_a_1
I0621 16:39:56.313120 25341 net.cpp:399] elt_a_1_elt_a_1_0_split -> elt_a_1_elt_a_1_0_split_0
I0621 16:39:56.313144 25341 net.cpp:399] elt_a_1_elt_a_1_0_split -> elt_a_1_elt_a_1_0_split_1
I0621 16:39:56.313182 25341 net.cpp:141] Setting up elt_a_1_elt_a_1_0_split
I0621 16:39:56.313195 25341 net.cpp:148] Top shape: 100 64 32 32 (6553600)
I0621 16:39:56.313202 25341 net.cpp:148] Top shape: 100 64 32 32 (6553600)
I0621 16:39:56.313207 25341 net.cpp:156] Memory required for data: 243712400
I0621 16:39:56.313211 25341 layer_factory.hpp:77] Creating layer bn_d_1_1
I0621 16:39:56.313220 25341 net.cpp:91] Creating Layer bn_d_1_1
I0621 16:39:56.313225 25341 net.cpp:425] bn_d_1_1 <- elt_a_1_elt_a_1_0_split_0
I0621 16:39:56.313235 25341 net.cpp:399] bn_d_1_1 -> bn_d_1_1
I0621 16:39:56.313413 25341 net.cpp:141] Setting up bn_d_1_1
I0621 16:39:56.313426 25341 net.cpp:148] Top shape: 100 64 32 32 (6553600)
I0621 16:39:56.313431 25341 net.cpp:156] Memory required for data: 269926800
I0621 16:39:56.313446 25341 layer_factory.hpp:77] Creating layer relu_d_1_1
I0621 16:39:56.313454 25341 net.cpp:91] Creating Layer relu_d_1_1
I0621 16:39:56.313462 25341 net.cpp:425] relu_d_1_1 <- bn_d_1_1
I0621 16:39:56.313468 25341 net.cpp:399] relu_d_1_1 -> relu_d_1_1
I0621 16:39:56.313652 25341 net.cpp:141] Setting up relu_d_1_1
I0621 16:39:56.313666 25341 net.cpp:148] Top shape: 100 64 32 32 (6553600)
I0621 16:39:56.313673 25341 net.cpp:156] Memory required for data: 296141200
I0621 16:39:56.313678 25341 layer_factory.hpp:77] Creating layer conv_d_1_1
I0621 16:39:56.313690 25341 net.cpp:91] Creating Layer conv_d_1_1
I0621 16:39:56.313697 25341 net.cpp:425] conv_d_1_1 <- relu_d_1_1
I0621 16:39:56.313709 25341 net.cpp:399] conv_d_1_1 -> conv_d_1_1
I0621 16:39:56.317070 25341 net.cpp:141] Setting up conv_d_1_1
I0621 16:39:56.317085 25341 net.cpp:148] Top shape: 100 128 16 16 (3276800)
I0621 16:39:56.317104 25341 net.cpp:156] Memory required for data: 309248400
I0621 16:39:56.317113 25341 layer_factory.hpp:77] Creating layer bn_d_1_2
I0621 16:39:56.317124 25341 net.cpp:91] Creating Layer bn_d_1_2
I0621 16:39:56.317131 25341 net.cpp:425] bn_d_1_2 <- conv_d_1_1
I0621 16:39:56.317155 25341 net.cpp:399] bn_d_1_2 -> bn_d_1_2
I0621 16:39:56.317349 25341 net.cpp:141] Setting up bn_d_1_2
I0621 16:39:56.317361 25341 net.cpp:148] Top shape: 100 128 16 16 (3276800)
I0621 16:39:56.317365 25341 net.cpp:156] Memory required for data: 322355600
I0621 16:39:56.317375 25341 layer_factory.hpp:77] Creating layer relu_d_1_2
I0621 16:39:56.317385 25341 net.cpp:91] Creating Layer relu_d_1_2
I0621 16:39:56.317392 25341 net.cpp:425] relu_d_1_2 <- bn_d_1_2
I0621 16:39:56.317399 25341 net.cpp:399] relu_d_1_2 -> relu_d_1_2
I0621 16:39:56.317584 25341 net.cpp:141] Setting up relu_d_1_2
I0621 16:39:56.317598 25341 net.cpp:148] Top shape: 100 128 16 16 (3276800)
I0621 16:39:56.317605 25341 net.cpp:156] Memory required for data: 335462800
I0621 16:39:56.317610 25341 layer_factory.hpp:77] Creating layer conv_d_1_2
I0621 16:39:56.317625 25341 net.cpp:91] Creating Layer conv_d_1_2
I0621 16:39:56.317631 25341 net.cpp:425] conv_d_1_2 <- relu_d_1_2
I0621 16:39:56.317639 25341 net.cpp:399] conv_d_1_2 -> conv_d_1_2
I0621 16:39:56.322613 25341 net.cpp:141] Setting up conv_d_1_2
I0621 16:39:56.322628 25341 net.cpp:148] Top shape: 100 128 16 16 (3276800)
I0621 16:39:56.322650 25341 net.cpp:156] Memory required for data: 348570000
I0621 16:39:56.322662 25341 layer_factory.hpp:77] Creating layer res_d
I0621 16:39:56.322674 25341 net.cpp:91] Creating Layer res_d
I0621 16:39:56.322681 25341 net.cpp:425] res_d <- elt_a_1_elt_a_1_0_split_1
I0621 16:39:56.322711 25341 net.cpp:399] res_d -> res_d
I0621 16:39:56.323937 25341 net.cpp:141] Setting up res_d
I0621 16:39:56.323952 25341 net.cpp:148] Top shape: 100 128 16 16 (3276800)
I0621 16:39:56.323974 25341 net.cpp:156] Memory required for data: 361677200
I0621 16:39:56.323983 25341 layer_factory.hpp:77] Creating layer elt_d_1
I0621 16:39:56.323992 25341 net.cpp:91] Creating Layer elt_d_1
I0621 16:39:56.323998 25341 net.cpp:425] elt_d_1 <- res_d
I0621 16:39:56.324005 25341 net.cpp:425] elt_d_1 <- conv_d_1_2
I0621 16:39:56.324014 25341 net.cpp:399] elt_d_1 -> elt_d_1
I0621 16:39:56.324040 25341 net.cpp:141] Setting up elt_d_1
I0621 16:39:56.324051 25341 net.cpp:148] Top shape: 100 128 16 16 (3276800)
I0621 16:39:56.324057 25341 net.cpp:156] Memory required for data: 374784400
I0621 16:39:56.324062 25341 layer_factory.hpp:77] Creating layer elt_d_1_elt_d_1_0_split
I0621 16:39:56.324071 25341 net.cpp:91] Creating Layer elt_d_1_elt_d_1_0_split
I0621 16:39:56.324079 25341 net.cpp:425] elt_d_1_elt_d_1_0_split <- elt_d_1
I0621 16:39:56.324084 25341 net.cpp:399] elt_d_1_elt_d_1_0_split -> elt_d_1_elt_d_1_0_split_0
I0621 16:39:56.324092 25341 net.cpp:399] elt_d_1_elt_d_1_0_split -> elt_d_1_elt_d_1_0_split_1
I0621 16:39:56.324132 25341 net.cpp:141] Setting up elt_d_1_elt_d_1_0_split
I0621 16:39:56.324142 25341 net.cpp:148] Top shape: 100 128 16 16 (3276800)
I0621 16:39:56.324149 25341 net.cpp:148] Top shape: 100 128 16 16 (3276800)
I0621 16:39:56.324154 25341 net.cpp:156] Memory required for data: 400998800
I0621 16:39:56.324159 25341 layer_factory.hpp:77] Creating layer bn_j_1_1
I0621 16:39:56.324167 25341 net.cpp:91] Creating Layer bn_j_1_1
I0621 16:39:56.324173 25341 net.cpp:425] bn_j_1_1 <- elt_d_1_elt_d_1_0_split_0
I0621 16:39:56.324182 25341 net.cpp:399] bn_j_1_1 -> bn_j_1_1
I0621 16:39:56.324357 25341 net.cpp:141] Setting up bn_j_1_1
I0621 16:39:56.324368 25341 net.cpp:148] Top shape: 100 128 16 16 (3276800)
I0621 16:39:56.324373 25341 net.cpp:156] Memory required for data: 414106000
I0621 16:39:56.324383 25341 layer_factory.hpp:77] Creating layer relu_j_1_1
I0621 16:39:56.324391 25341 net.cpp:91] Creating Layer relu_j_1_1
I0621 16:39:56.324398 25341 net.cpp:425] relu_j_1_1 <- bn_j_1_1
I0621 16:39:56.324406 25341 net.cpp:399] relu_j_1_1 -> relu_j_1_1
I0621 16:39:56.324789 25341 net.cpp:141] Setting up relu_j_1_1
I0621 16:39:56.324802 25341 net.cpp:148] Top shape: 100 128 16 16 (3276800)
I0621 16:39:56.324808 25341 net.cpp:156] Memory required for data: 427213200
I0621 16:39:56.324813 25341 layer_factory.hpp:77] Creating layer conv_j_1_1
I0621 16:39:56.324828 25341 net.cpp:91] Creating Layer conv_j_1_1
I0621 16:39:56.324849 25341 net.cpp:425] conv_j_1_1 <- relu_j_1_1
I0621 16:39:56.324865 25341 net.cpp:399] conv_j_1_1 -> conv_j_1_1
I0621 16:39:56.334022 25341 net.cpp:141] Setting up conv_j_1_1
I0621 16:39:56.334038 25341 net.cpp:148] Top shape: 100 256 8 8 (1638400)
I0621 16:39:56.334061 25341 net.cpp:156] Memory required for data: 433766800
I0621 16:39:56.334070 25341 layer_factory.hpp:77] Creating layer bn_j_1_2
I0621 16:39:56.334082 25341 net.cpp:91] Creating Layer bn_j_1_2
I0621 16:39:56.334089 25341 net.cpp:425] bn_j_1_2 <- conv_j_1_1
I0621 16:39:56.334097 25341 net.cpp:399] bn_j_1_2 -> bn_j_1_2
I0621 16:39:56.334290 25341 net.cpp:141] Setting up bn_j_1_2
I0621 16:39:56.334301 25341 net.cpp:148] Top shape: 100 256 8 8 (1638400)
I0621 16:39:56.334306 25341 net.cpp:156] Memory required for data: 440320400
I0621 16:39:56.334324 25341 layer_factory.hpp:77] Creating layer relu_j_1_2
I0621 16:39:56.334334 25341 net.cpp:91] Creating Layer relu_j_1_2
I0621 16:39:56.334342 25341 net.cpp:425] relu_j_1_2 <- bn_j_1_2
I0621 16:39:56.334352 25341 net.cpp:399] relu_j_1_2 -> relu_j_1_2
I0621 16:39:56.334640 25341 net.cpp:141] Setting up relu_j_1_2
I0621 16:39:56.334656 25341 net.cpp:148] Top shape: 100 256 8 8 (1638400)
I0621 16:39:56.334661 25341 net.cpp:156] Memory required for data: 446874000
I0621 16:39:56.334666 25341 layer_factory.hpp:77] Creating layer conv_j_1_2
I0621 16:39:56.334681 25341 net.cpp:91] Creating Layer conv_j_1_2
I0621 16:39:56.334708 25341 net.cpp:425] conv_j_1_2 <- relu_j_1_2
I0621 16:39:56.334722 25341 net.cpp:399] conv_j_1_2 -> conv_j_1_2
I0621 16:39:56.351682 25341 net.cpp:141] Setting up conv_j_1_2
I0621 16:39:56.351698 25341 net.cpp:148] Top shape: 100 256 8 8 (1638400)
I0621 16:39:56.351721 25341 net.cpp:156] Memory required for data: 453427600
I0621 16:39:56.351729 25341 layer_factory.hpp:77] Creating layer res_j
I0621 16:39:56.351747 25341 net.cpp:91] Creating Layer res_j
I0621 16:39:56.351753 25341 net.cpp:425] res_j <- elt_d_1_elt_d_1_0_split_1
I0621 16:39:56.351761 25341 net.cpp:399] res_j -> res_j
I0621 16:39:56.353546 25341 net.cpp:141] Setting up res_j
I0621 16:39:56.353561 25341 net.cpp:148] Top shape: 100 256 8 8 (1638400)
I0621 16:39:56.353585 25341 net.cpp:156] Memory required for data: 459981200
I0621 16:39:56.353592 25341 layer_factory.hpp:77] Creating layer elt_j_1
I0621 16:39:56.353602 25341 net.cpp:91] Creating Layer elt_j_1
I0621 16:39:56.353611 25341 net.cpp:425] elt_j_1 <- res_j
I0621 16:39:56.353617 25341 net.cpp:425] elt_j_1 <- conv_j_1_2
I0621 16:39:56.353624 25341 net.cpp:399] elt_j_1 -> elt_j_1
I0621 16:39:56.353658 25341 net.cpp:141] Setting up elt_j_1
I0621 16:39:56.353672 25341 net.cpp:148] Top shape: 100 256 8 8 (1638400)
I0621 16:39:56.353677 25341 net.cpp:156] Memory required for data: 466534800
I0621 16:39:56.353682 25341 layer_factory.hpp:77] Creating layer bn_m_1_1
I0621 16:39:56.353690 25341 net.cpp:91] Creating Layer bn_m_1_1
I0621 16:39:56.353696 25341 net.cpp:425] bn_m_1_1 <- elt_j_1
I0621 16:39:56.353718 25341 net.cpp:399] bn_m_1_1 -> bn_m_1_1
I0621 16:39:56.353911 25341 net.cpp:141] Setting up bn_m_1_1
I0621 16:39:56.353924 25341 net.cpp:148] Top shape: 100 256 8 8 (1638400)
I0621 16:39:56.353929 25341 net.cpp:156] Memory required for data: 473088400
I0621 16:39:56.353938 25341 layer_factory.hpp:77] Creating layer relu_m_1_1
I0621 16:39:56.353950 25341 net.cpp:91] Creating Layer relu_m_1_1
I0621 16:39:56.353956 25341 net.cpp:425] relu_m_1_1 <- bn_m_1_1
I0621 16:39:56.353963 25341 net.cpp:399] relu_m_1_1 -> relu_m_1_1
I0621 16:39:56.354147 25341 net.cpp:141] Setting up relu_m_1_1
I0621 16:39:56.354161 25341 net.cpp:148] Top shape: 100 256 8 8 (1638400)
I0621 16:39:56.354166 25341 net.cpp:156] Memory required for data: 479642000
I0621 16:39:56.354171 25341 layer_factory.hpp:77] Creating layer gap
I0621 16:39:56.354182 25341 net.cpp:91] Creating Layer gap
I0621 16:39:56.354189 25341 net.cpp:425] gap <- relu_m_1_1
I0621 16:39:56.354198 25341 net.cpp:399] gap -> gap
I0621 16:39:56.354499 25341 net.cpp:141] Setting up gap
I0621 16:39:56.354514 25341 net.cpp:148] Top shape: 100 256 1 1 (25600)
I0621 16:39:56.354535 25341 net.cpp:156] Memory required for data: 479744400
I0621 16:39:56.354548 25341 layer_factory.hpp:77] Creating layer ip1
I0621 16:39:56.354564 25341 net.cpp:91] Creating Layer ip1
I0621 16:39:56.354571 25341 net.cpp:425] ip1 <- gap
I0621 16:39:56.354583 25341 net.cpp:399] ip1 -> ip1
I0621 16:39:56.354792 25341 net.cpp:141] Setting up ip1
I0621 16:39:56.354807 25341 net.cpp:148] Top shape: 100 10 (1000)
I0621 16:39:56.354815 25341 net.cpp:156] Memory required for data: 479748400
I0621 16:39:56.354822 25341 layer_factory.hpp:77] Creating layer loss
I0621 16:39:56.354835 25341 net.cpp:91] Creating Layer loss
I0621 16:39:56.354842 25341 net.cpp:425] loss <- ip1
I0621 16:39:56.354848 25341 net.cpp:425] loss <- label
I0621 16:39:56.354866 25341 net.cpp:399] loss -> loss
I0621 16:39:56.354882 25341 layer_factory.hpp:77] Creating layer loss
…
I0621 16:39:56.356395 25341 net.cpp:313] The NetState phase (1) differed from the phase (0) specified by a rule in layer resnet
I0621 16:39:56.356636 25341 net.cpp:49] Initializing net from parameters: 
name: "ResNet"
state {
  phase: TEST
}
layer {
  name: "resnet"
  type: "Data"
  top: "data"
  top: "label"
  include {
    phase: TEST
  }
  transform_param {
    mean_file: "/home/takeki/caffe/examples/cifar10/mean.binaryproto"
  }
  data_param {
    source: "/home/takeki/caffe/examples/cifar10/cifar10_test_lmdb"
    batch_size: 100
    backend: LMDB
  }
}
layer {
  name: "conv0"
  type: "Convolution"
  bottom: "data"
  top: "conv0"
  param {
    lr_mult: 1
  }
  param {
    lr_mult: 2
  }
  convolution_param {
    num_output: 16
    pad: 1
    kernel_size: 3
    stride: 1
    weight_filler {
      type: "msra"
    }
    bias_filler {
      type: "constant"
    }
  }
}
layer {
  name: "bn_a_1_1"
  type: "BatchNorm"
  bottom: "conv0"
  top: "bn_a_1_1"
  param {
    lr_mult: 0
  }
  param {
    lr_mult: 0
  }
  param {
    lr_mult: 0
  }
  batch_norm_param {
    use_global_stats: false
  }
}
layer {
  name: "relu_a_1_1"
  type: "ReLU"
  bottom: "bn_a_1_1"
  top: "relu_a_1_1"
}
layer {
  name: "conv_a_1_1"
  type: "Convolution"
  bottom: "relu_a_1_1"
  top: "conv_a_1_1"
  param {
    lr_mult: 1
    decay_mult: 1
  }
  param {
    lr_mult: 2
    decay_mult: 1
  }
  convolution_param {
    num_output: 64
    pad: 1
    kernel_size: 3
    stride: 1
    weight_filler {
      type: "msra"
    }
    bias_filler {
      type: "constant"
    }
  }
}
layer {
  name: "bn_a_1_2"
  type: "BatchNorm"
  bottom: "conv_a_1_1"
  top: "bn_a_1_2"
  param {
    lr_mult: 0
  }
  param {
    lr_mult: 0
  }
  param {
    lr_mult: 0
  }
  batch_norm_param {
    use_global_stats: false
  }
}
layer {
  name: "relu_a_1_2"
  type: "ReLU"
  bottom: "bn_a_1_2"
  top: "relu_a_1_2"
}
layer {
  name: "conv_a_1_2"
  type: "Convolution"
  bottom: "relu_a_1_2"
  top: "conv_a_1_2"
  param {
    lr_mult: 1
    decay_mult: 1
  }
  param {
    lr_mult: 2
    decay_mult: 1
  }
  convolution_param {
    num_output: 64
    pad: 1
    kernel_size: 3
    stride: 1
    weight_filler {
      type: "msra"
    }
    bias_filler {
      type: "constant"
    }
  }
}
layer {
  name: "res_a"
  type: "Convolution"
  bottom: "conv0"
  top: "res_a"
  param {
    lr_mult: 1
    decay_mult: 1
  }
  param {
    lr_mult: 2
    decay_mult: 1
  }
  convolution_param {
    num_output: 64
    pad: 0
    kernel_size: 1
    stride: 1
    weight_filler {
      type: "msra"
    }
    bias_filler {
      type: "constant"
    }
  }
}
layer {
  name: "elt_a_1"
  type: "Eltwise"
  bottom: "res_a"
  bottom: "conv_a_1_2"
  top: "elt_a_1"
  eltwise_param {
    operation: SUM
  }
}
layer {
  name: "bn_d_1_1"
  type: "BatchNorm"
  bottom: "elt_a_1"
  top: "bn_d_1_1"
  param {
    lr_mult: 0
  }
  param {
    lr_mult: 0
  }
  param {
    lr_mult: 0
  }
  batch_norm_param {
    use_global_stats: false
  }
}
layer {
  name: "relu_d_1_1"
  type: "ReLU"
  bottom: "bn_d_1_1"
  top: "relu_d_1_1"
}
layer {
  name: "conv_d_1_1"
  type: "Convolution"
  bottom: "relu_d_1_1"
  top: "conv_d_1_1"
  param {
    lr_mult: 1
    decay_mult: 1
  }
  param {
    lr_mult: 2
    decay_mult: 1
  }
  convolution_param {
    num_output: 128
    pad: 1
    kernel_size: 3
    stride: 2
    weight_filler {
      type: "msra"
    }
    bias_filler {
      type: "constant"
    }
  }
}
layer {
  name: "bn_d_1_2"
  type: "BatchNorm"
  bottom: "conv_d_1_1"
  top: "bn_d_1_2"
  param {
    lr_mult: 0
  }
  param {
    lr_mult: 0
  }
  param {
    lr_mult: 0
  }
  batch_norm_param {
    use_global_stats: false
  }
}
layer {
  name: "relu_d_1_2"
  type: "ReLU"
  bottom: "bn_d_1_2"
  top: "relu_d_1_2"
}
layer {
  name: "conv_d_1_2"
  type: "Convolution"
  bottom: "relu_d_1_2"
  top: "conv_d_1_2"
  param {
    lr_mult: 1
    decay_mult: 1
  }
  param {
    lr_mult: 2
    decay_mult: 1
  }
  convolution_param {
    num_output: 128
    pad: 1
    kernel_size: 3
    stride: 1
    weight_filler {
      type: "msra"
    }
    bias_filler {
      type: "constant"
    }
  }
}
layer {
  name: "res_d"
  type: "Convolution"
  bottom: "elt_a_1"
  top: "res_d"
  param {
    lr_mult: 1
    decay_mult: 1
  }
  param {
    lr_mult: 2
    decay_mult: 1
  }
  convolution_param {
    num_output: 128
    pad: 0
    kernel_size: 1
    stride: 2
    weight_filler {
      type: "msra"
    }
    bias_filler {
      type: "constant"
    }
  }
}
layer {
  name: "elt_d_1"
  type: "Eltwise"
  bottom: "res_d"
  bottom: "conv_d_1_2"
  top: "elt_d_1"
  eltwise_param {
    operation: SUM
  }
}
layer {
  name: "bn_j_1_1"
  type: "BatchNorm"
  bottom: "elt_d_1"
  top: "bn_j_1_1"
  param {
    lr_mult: 0
  }
  param {
    lr_mult: 0
  }
  param {
    lr_mult: 0
  }
  batch_norm_param {
    use_global_stats: false
  }
}
layer {
  name: "relu_j_1_1"
  type: "ReLU"
  bottom: "bn_j_1_1"
  top: "relu_j_1_1"
}
layer {
  name: "conv_j_1_1"
  type: "Convolution"
  bottom: "relu_j_1_1"
  top: "conv_j_1_1"
  param {
    lr_mult: 1
    decay_mult: 1
  }
  param {
    lr_mult: 2
    decay_mult: 1
  }
  convolution_param {
    num_output: 256
    pad: 1
    kernel_size: 3
    stride: 2
    weight_filler {
      type: "msra"
    }
    bias_filler {
      type: "constant"
    }
  }
}
layer {
  name: "bn_j_1_2"
  type: "BatchNorm"
  bottom: "conv_j_1_1"
  top: "bn_j_1_2"
  param {
    lr_mult: 0
  }
  param {
    lr_mult: 0
  }
  param {
    lr_mult: 0
  }
  batch_norm_param {
    use_global_stats: false
  }
}
layer {
  name: "relu_j_1_2"
  type: "ReLU"
  bottom: "bn_j_1_2"
  top: "relu_j_1_2"
}
layer {
  name: "conv_j_1_2"
  type: "Convolution"
  bottom: "relu_j_1_2"
  top: "conv_j_1_2"
  param {
    lr_mult: 1
    decay_mult: 1
  }
  param {
    lr_mult: 2
    decay_mult: 1
  }
  convolution_param {
    num_output: 256
    pad: 1
    kernel_size: 3
    stride: 1
    weight_filler {
      type: "msra"
    }
    bias_filler {
      type: "constant"
    }
  }
}
layer {
  name: "res_j"
  type: "Convolution"
  bottom: "elt_d_1"
  top: "res_j"
  param {
    lr_mult: 1
    decay_mult: 1
  }
  param {
    lr_mult: 2
    decay_mult: 1
  }
  convolution_param {
    num_output: 256
    pad: 0
    kernel_size: 1
    stride: 2
    weight_filler {
      type: "msra"
    }
    bias_filler {
      type: "constant"
    }
  }
}
layer {
  name: "elt_j_1"
  type: "Eltwise"
  bottom: "res_j"
  bottom: "conv_j_1_2"
  top: "elt_j_1"
  eltwise_param {
    operation: SUM
  }
}
layer {
  name: "bn_m_1_1"
  type: "BatchNorm"
  bottom: "elt_j_1"
  top: "bn_m_1_1"
  param {
    lr_mult: 0
  }
  param {
    lr_mult: 0
  }
  param {
    lr_mult: 0
  }
  batch_norm_param {
    use_global_stats: false
  }
}
layer {
  name: "relu_m_1_1"
  type: "ReLU"
  bottom: "bn_m_1_1"
  top: "relu_m_1_1"
}
layer {
  name: "gap"
  type: "Pooling"
  bottom: "relu_m_1_1"
  top: "gap"
  pooling_param {
    pool: AVE
    kernel_size: 8
    stride: 1
  }
}
layer {
  name: "ip1"
  type: "InnerProduct"
  bottom: "gap"
  top: "ip1"
  param {
    lr_mult: 1
    decay_mult: 1
  }
  param {
    lr_mult: 2
    decay_mult: 0
  }
  inner_product_param {
    num_output: 10
    weight_filler {
      type: "msra"
    }
    bias_filler {
      type: "constant"
      value: 0
    }
  }
}
layer {
  name: "accuracy"
  type: "Accuracy"
  bottom: "ip1"
  bottom: "label"
  top: "accuracy"
  include {
    phase: TEST
  }
}
layer {
  name: "loss"
  type: "SoftmaxWithLoss"
  bottom: "ip1"
  bottom: "label"
  top: "loss"
}
I0621 16:39:56.356822 25341 layer_factory.hpp:77] Creating layer resnet
I0621 16:39:56.356942 25341 net.cpp:91] Creating Layer resnet
I0621 16:39:56.356956 25341 net.cpp:399] resnet -> data
I0621 16:39:56.356966 25341 net.cpp:399] resnet -> label
I0621 16:39:56.356976 25341 data_transformer.cpp:25] Loading mean file from: /home/takeki/caffe/examples/cifar10/mean.binaryproto
I0621 16:39:56.358028 25386 db_lmdb.cpp:35] Opened lmdb /home/takeki/caffe/examples/cifar10/cifar10_test_lmdb
I0621 16:39:56.358173 25341 data_layer.cpp:41] output data size: 100,3,32,32
I0621 16:39:56.360925 25341 net.cpp:141] Setting up resnet
I0621 16:39:56.360954 25341 net.cpp:148] Top shape: 100 3 32 32 (307200)
I0621 16:39:56.360962 25341 net.cpp:148] Top shape: 100 (100)
I0621 16:39:56.360966 25341 net.cpp:156] Memory required for data: 1229200
I0621 16:39:56.360972 25341 layer_factory.hpp:77] Creating layer label_resnet_1_split
I0621 16:39:56.360994 25341 net.cpp:91] Creating Layer label_resnet_1_split
I0621 16:39:56.361001 25341 net.cpp:425] label_resnet_1_split <- label
I0621 16:39:56.361011 25341 net.cpp:399] label_resnet_1_split -> label_resnet_1_split_0
I0621 16:39:56.361019 25341 net.cpp:399] label_resnet_1_split -> label_resnet_1_split_1
I0621 16:39:56.361109 25341 net.cpp:141] Setting up label_resnet_1_split
I0621 16:39:56.361120 25341 net.cpp:148] Top shape: 100 (100)
I0621 16:39:56.361126 25341 net.cpp:148] Top shape: 100 (100)
I0621 16:39:56.361131 25341 net.cpp:156] Memory required for data: 1230000
I0621 16:39:56.361136 25341 layer_factory.hpp:77] Creating layer conv0
I0621 16:39:56.361150 25341 net.cpp:91] Creating Layer conv0
I0621 16:39:56.361157 25341 net.cpp:425] conv0 <- data
I0621 16:39:56.361168 25341 net.cpp:399] conv0 -> conv0
I0621 16:39:56.362437 25341 net.cpp:141] Setting up conv0
I0621 16:39:56.362469 25341 net.cpp:148] Top shape: 100 16 32 32 (1638400)
I0621 16:39:56.362476 25341 net.cpp:156] Memory required for data: 7783600
I0621 16:39:56.362489 25341 layer_factory.hpp:77] Creating layer conv0_conv0_0_split
I0621 16:39:56.362500 25341 net.cpp:91] Creating Layer conv0_conv0_0_split
I0621 16:39:56.362505 25341 net.cpp:425] conv0_conv0_0_split <- conv0
I0621 16:39:56.362512 25341 net.cpp:399] conv0_conv0_0_split -> conv0_conv0_0_split_0
I0621 16:39:56.362536 25341 net.cpp:399] conv0_conv0_0_split -> conv0_conv0_0_split_1
I0621 16:39:56.362586 25341 net.cpp:141] Setting up conv0_conv0_0_split
I0621 16:39:56.362597 25341 net.cpp:148] Top shape: 100 16 32 32 (1638400)
I0621 16:39:56.362603 25341 net.cpp:148] Top shape: 100 16 32 32 (1638400)
I0621 16:39:56.362612 25341 net.cpp:156] Memory required for data: 20890800
I0621 16:39:56.362624 25341 layer_factory.hpp:77] Creating layer bn_a_1_1
I0621 16:39:56.362637 25341 net.cpp:91] Creating Layer bn_a_1_1
I0621 16:39:56.362643 25341 net.cpp:425] bn_a_1_1 <- conv0_conv0_0_split_0
I0621 16:39:56.362653 25341 net.cpp:399] bn_a_1_1 -> bn_a_1_1
I0621 16:39:56.362889 25341 net.cpp:141] Setting up bn_a_1_1
I0621 16:39:56.362901 25341 net.cpp:148] Top shape: 100 16 32 32 (1638400)
I0621 16:39:56.362906 25341 net.cpp:156] Memory required for data: 27444400
I0621 16:39:56.362925 25341 layer_factory.hpp:77] Creating layer relu_a_1_1
I0621 16:39:56.362933 25341 net.cpp:91] Creating Layer relu_a_1_1
I0621 16:39:56.362941 25341 net.cpp:425] relu_a_1_1 <- bn_a_1_1
I0621 16:39:56.362947 25341 net.cpp:399] relu_a_1_1 -> relu_a_1_1
I0621 16:39:56.363267 25341 net.cpp:141] Setting up relu_a_1_1
I0621 16:39:56.363286 25341 net.cpp:148] Top shape: 100 16 32 32 (1638400)
I0621 16:39:56.363291 25341 net.cpp:156] Memory required for data: 33998000
I0621 16:39:56.363297 25341 layer_factory.hpp:77] Creating layer conv_a_1_1
I0621 16:39:56.363312 25341 net.cpp:91] Creating Layer conv_a_1_1
I0621 16:39:56.363327 25341 net.cpp:425] conv_a_1_1 <- relu_a_1_1
I0621 16:39:56.363337 25341 net.cpp:399] conv_a_1_1 -> conv_a_1_1
I0621 16:39:56.364645 25341 net.cpp:141] Setting up conv_a_1_1
I0621 16:39:56.364662 25341 net.cpp:148] Top shape: 100 64 32 32 (6553600)
I0621 16:39:56.364682 25341 net.cpp:156] Memory required for data: 60212400
I0621 16:39:56.364692 25341 layer_factory.hpp:77] Creating layer bn_a_1_2
I0621 16:39:56.364704 25341 net.cpp:91] Creating Layer bn_a_1_2
I0621 16:39:56.364712 25341 net.cpp:425] bn_a_1_2 <- conv_a_1_1
I0621 16:39:56.364722 25341 net.cpp:399] bn_a_1_2 -> bn_a_1_2
I0621 16:39:56.364936 25341 net.cpp:141] Setting up bn_a_1_2
I0621 16:39:56.364953 25341 net.cpp:148] Top shape: 100 64 32 32 (6553600)
I0621 16:39:56.364959 25341 net.cpp:156] Memory required for data: 86426800
I0621 16:39:56.364971 25341 layer_factory.hpp:77] Creating layer relu_a_1_2
I0621 16:39:56.364981 25341 net.cpp:91] Creating Layer relu_a_1_2
I0621 16:39:56.365003 25341 net.cpp:425] relu_a_1_2 <- bn_a_1_2
I0621 16:39:56.365011 25341 net.cpp:399] relu_a_1_2 -> relu_a_1_2
I0621 16:39:56.365330 25341 net.cpp:141] Setting up relu_a_1_2
I0621 16:39:56.365345 25341 net.cpp:148] Top shape: 100 64 32 32 (6553600)
I0621 16:39:56.365351 25341 net.cpp:156] Memory required for data: 112641200
I0621 16:39:56.365357 25341 layer_factory.hpp:77] Creating layer conv_a_1_2
I0621 16:39:56.365375 25341 net.cpp:91] Creating Layer conv_a_1_2
I0621 16:39:56.365386 25341 net.cpp:425] conv_a_1_2 <- relu_a_1_2
I0621 16:39:56.365397 25341 net.cpp:399] conv_a_1_2 -> conv_a_1_2
I0621 16:39:56.367498 25341 net.cpp:141] Setting up conv_a_1_2
I0621 16:39:56.367518 25341 net.cpp:148] Top shape: 100 64 32 32 (6553600)
I0621 16:39:56.367539 25341 net.cpp:156] Memory required for data: 138855600
I0621 16:39:56.367548 25341 layer_factory.hpp:77] Creating layer res_a
I0621 16:39:56.367563 25341 net.cpp:91] Creating Layer res_a
I0621 16:39:56.367571 25341 net.cpp:425] res_a <- conv0_conv0_0_split_1
I0621 16:39:56.367579 25341 net.cpp:399] res_a -> res_a
I0621 16:39:56.368592 25341 net.cpp:141] Setting up res_a
I0621 16:39:56.368608 25341 net.cpp:148] Top shape: 100 64 32 32 (6553600)
I0621 16:39:56.368628 25341 net.cpp:156] Memory required for data: 165070000
I0621 16:39:56.368638 25341 layer_factory.hpp:77] Creating layer elt_a_1
I0621 16:39:56.368646 25341 net.cpp:91] Creating Layer elt_a_1
I0621 16:39:56.368652 25341 net.cpp:425] elt_a_1 <- res_a
I0621 16:39:56.368659 25341 net.cpp:425] elt_a_1 <- conv_a_1_2
I0621 16:39:56.368669 25341 net.cpp:399] elt_a_1 -> elt_a_1
I0621 16:39:56.368702 25341 net.cpp:141] Setting up elt_a_1
I0621 16:39:56.368713 25341 net.cpp:148] Top shape: 100 64 32 32 (6553600)
I0621 16:39:56.368719 25341 net.cpp:156] Memory required for data: 191284400
I0621 16:39:56.368724 25341 layer_factory.hpp:77] Creating layer elt_a_1_elt_a_1_0_split
I0621 16:39:56.368731 25341 net.cpp:91] Creating Layer elt_a_1_elt_a_1_0_split
I0621 16:39:56.368736 25341 net.cpp:425] elt_a_1_elt_a_1_0_split <- elt_a_1
I0621 16:39:56.368742 25341 net.cpp:399] elt_a_1_elt_a_1_0_split -> elt_a_1_elt_a_1_0_split_0
I0621 16:39:56.368765 25341 net.cpp:399] elt_a_1_elt_a_1_0_split -> elt_a_1_elt_a_1_0_split_1
I0621 16:39:56.368813 25341 net.cpp:141] Setting up elt_a_1_elt_a_1_0_split
I0621 16:39:56.368824 25341 net.cpp:148] Top shape: 100 64 32 32 (6553600)
I0621 16:39:56.368832 25341 net.cpp:148] Top shape: 100 64 32 32 (6553600)
I0621 16:39:56.368839 25341 net.cpp:156] Memory required for data: 243713200
I0621 16:39:56.368844 25341 layer_factory.hpp:77] Creating layer bn_d_1_1
I0621 16:39:56.368854 25341 net.cpp:91] Creating Layer bn_d_1_1
I0621 16:39:56.368860 25341 net.cpp:425] bn_d_1_1 <- elt_a_1_elt_a_1_0_split_0
I0621 16:39:56.368870 25341 net.cpp:399] bn_d_1_1 -> bn_d_1_1
I0621 16:39:56.369073 25341 net.cpp:141] Setting up bn_d_1_1
I0621 16:39:56.369086 25341 net.cpp:148] Top shape: 100 64 32 32 (6553600)
I0621 16:39:56.369091 25341 net.cpp:156] Memory required for data: 269927600
I0621 16:39:56.369104 25341 layer_factory.hpp:77] Creating layer relu_d_1_1
I0621 16:39:56.369112 25341 net.cpp:91] Creating Layer relu_d_1_1
I0621 16:39:56.369119 25341 net.cpp:425] relu_d_1_1 <- bn_d_1_1
I0621 16:39:56.369128 25341 net.cpp:399] relu_d_1_1 -> relu_d_1_1
I0621 16:39:56.369437 25341 net.cpp:141] Setting up relu_d_1_1
I0621 16:39:56.369452 25341 net.cpp:148] Top shape: 100 64 32 32 (6553600)
I0621 16:39:56.369458 25341 net.cpp:156] Memory required for data: 296142000
I0621 16:39:56.369463 25341 layer_factory.hpp:77] Creating layer conv_d_1_1
I0621 16:39:56.369477 25341 net.cpp:91] Creating Layer conv_d_1_1
I0621 16:39:56.369483 25341 net.cpp:425] conv_d_1_1 <- relu_d_1_1
I0621 16:39:56.369494 25341 net.cpp:399] conv_d_1_1 -> conv_d_1_1
I0621 16:39:56.372972 25341 net.cpp:141] Setting up conv_d_1_1
I0621 16:39:56.372988 25341 net.cpp:148] Top shape: 100 128 16 16 (3276800)
I0621 16:39:56.373008 25341 net.cpp:156] Memory required for data: 309249200
I0621 16:39:56.373018 25341 layer_factory.hpp:77] Creating layer bn_d_1_2
I0621 16:39:56.373046 25341 net.cpp:91] Creating Layer bn_d_1_2
I0621 16:39:56.373055 25341 net.cpp:425] bn_d_1_2 <- conv_d_1_1
I0621 16:39:56.373064 25341 net.cpp:399] bn_d_1_2 -> bn_d_1_2
I0621 16:39:56.373267 25341 net.cpp:141] Setting up bn_d_1_2
I0621 16:39:56.373281 25341 net.cpp:148] Top shape: 100 128 16 16 (3276800)
I0621 16:39:56.373286 25341 net.cpp:156] Memory required for data: 322356400
I0621 16:39:56.373296 25341 layer_factory.hpp:77] Creating layer relu_d_1_2
I0621 16:39:56.373303 25341 net.cpp:91] Creating Layer relu_d_1_2
I0621 16:39:56.373311 25341 net.cpp:425] relu_d_1_2 <- bn_d_1_2
I0621 16:39:56.373317 25341 net.cpp:399] relu_d_1_2 -> relu_d_1_2
I0621 16:39:56.373538 25341 net.cpp:141] Setting up relu_d_1_2
I0621 16:39:56.373551 25341 net.cpp:148] Top shape: 100 128 16 16 (3276800)
I0621 16:39:56.373556 25341 net.cpp:156] Memory required for data: 335463600
I0621 16:39:56.373561 25341 layer_factory.hpp:77] Creating layer conv_d_1_2
I0621 16:39:56.373574 25341 net.cpp:91] Creating Layer conv_d_1_2
I0621 16:39:56.373581 25341 net.cpp:425] conv_d_1_2 <- relu_d_1_2
I0621 16:39:56.373591 25341 net.cpp:399] conv_d_1_2 -> conv_d_1_2
I0621 16:39:56.378561 25341 net.cpp:141] Setting up conv_d_1_2
I0621 16:39:56.378576 25341 net.cpp:148] Top shape: 100 128 16 16 (3276800)
I0621 16:39:56.378599 25341 net.cpp:156] Memory required for data: 348570800
I0621 16:39:56.378609 25341 layer_factory.hpp:77] Creating layer res_d
I0621 16:39:56.378625 25341 net.cpp:91] Creating Layer res_d
I0621 16:39:56.378633 25341 net.cpp:425] res_d <- elt_a_1_elt_a_1_0_split_1
I0621 16:39:56.378641 25341 net.cpp:399] res_d -> res_d
I0621 16:39:56.379897 25341 net.cpp:141] Setting up res_d
I0621 16:39:56.379914 25341 net.cpp:148] Top shape: 100 128 16 16 (3276800)
I0621 16:39:56.379932 25341 net.cpp:156] Memory required for data: 361678000
I0621 16:39:56.379941 25341 layer_factory.hpp:77] Creating layer elt_d_1
I0621 16:39:56.379954 25341 net.cpp:91] Creating Layer elt_d_1
I0621 16:39:56.379961 25341 net.cpp:425] elt_d_1 <- res_d
I0621 16:39:56.379968 25341 net.cpp:425] elt_d_1 <- conv_d_1_2
I0621 16:39:56.379976 25341 net.cpp:399] elt_d_1 -> elt_d_1
I0621 16:39:56.380005 25341 net.cpp:141] Setting up elt_d_1
I0621 16:39:56.380017 25341 net.cpp:148] Top shape: 100 128 16 16 (3276800)
I0621 16:39:56.380022 25341 net.cpp:156] Memory required for data: 374785200
I0621 16:39:56.380026 25341 layer_factory.hpp:77] Creating layer elt_d_1_elt_d_1_0_split
I0621 16:39:56.380033 25341 net.cpp:91] Creating Layer elt_d_1_elt_d_1_0_split
I0621 16:39:56.380039 25341 net.cpp:425] elt_d_1_elt_d_1_0_split <- elt_d_1
I0621 16:39:56.380045 25341 net.cpp:399] elt_d_1_elt_d_1_0_split -> elt_d_1_elt_d_1_0_split_0
I0621 16:39:56.380069 25341 net.cpp:399] elt_d_1_elt_d_1_0_split -> elt_d_1_elt_d_1_0_split_1
I0621 16:39:56.380115 25341 net.cpp:141] Setting up elt_d_1_elt_d_1_0_split
I0621 16:39:56.380125 25341 net.cpp:148] Top shape: 100 128 16 16 (3276800)
I0621 16:39:56.380132 25341 net.cpp:148] Top shape: 100 128 16 16 (3276800)
I0621 16:39:56.380137 25341 net.cpp:156] Memory required for data: 400999600
I0621 16:39:56.380142 25341 layer_factory.hpp:77] Creating layer bn_j_1_1
I0621 16:39:56.380152 25341 net.cpp:91] Creating Layer bn_j_1_1
I0621 16:39:56.380159 25341 net.cpp:425] bn_j_1_1 <- elt_d_1_elt_d_1_0_split_0
I0621 16:39:56.380168 25341 net.cpp:399] bn_j_1_1 -> bn_j_1_1
I0621 16:39:56.380374 25341 net.cpp:141] Setting up bn_j_1_1
I0621 16:39:56.380386 25341 net.cpp:148] Top shape: 100 128 16 16 (3276800)
I0621 16:39:56.380393 25341 net.cpp:156] Memory required for data: 414106800
I0621 16:39:56.380403 25341 layer_factory.hpp:77] Creating layer relu_j_1_1
I0621 16:39:56.380411 25341 net.cpp:91] Creating Layer relu_j_1_1
I0621 16:39:56.380419 25341 net.cpp:425] relu_j_1_1 <- bn_j_1_1
I0621 16:39:56.380425 25341 net.cpp:399] relu_j_1_1 -> relu_j_1_1
I0621 16:39:56.380623 25341 net.cpp:141] Setting up relu_j_1_1
I0621 16:39:56.380637 25341 net.cpp:148] Top shape: 100 128 16 16 (3276800)
I0621 16:39:56.380643 25341 net.cpp:156] Memory required for data: 427214000
I0621 16:39:56.380663 25341 layer_factory.hpp:77] Creating layer conv_j_1_1
I0621 16:39:56.380686 25341 net.cpp:91] Creating Layer conv_j_1_1
I0621 16:39:56.380694 25341 net.cpp:425] conv_j_1_1 <- relu_j_1_1
I0621 16:39:56.380705 25341 net.cpp:399] conv_j_1_1 -> conv_j_1_1
I0621 16:39:56.390121 25341 net.cpp:141] Setting up conv_j_1_1
I0621 16:39:56.390138 25341 net.cpp:148] Top shape: 100 256 8 8 (1638400)
I0621 16:39:56.390161 25341 net.cpp:156] Memory required for data: 433767600
I0621 16:39:56.390171 25341 layer_factory.hpp:77] Creating layer bn_j_1_2
I0621 16:39:56.390182 25341 net.cpp:91] Creating Layer bn_j_1_2
I0621 16:39:56.390189 25341 net.cpp:425] bn_j_1_2 <- conv_j_1_1
I0621 16:39:56.390197 25341 net.cpp:399] bn_j_1_2 -> bn_j_1_2
I0621 16:39:56.390426 25341 net.cpp:141] Setting up bn_j_1_2
I0621 16:39:56.390439 25341 net.cpp:148] Top shape: 100 256 8 8 (1638400)
I0621 16:39:56.390444 25341 net.cpp:156] Memory required for data: 440321200
I0621 16:39:56.390460 25341 layer_factory.hpp:77] Creating layer relu_j_1_2
I0621 16:39:56.390470 25341 net.cpp:91] Creating Layer relu_j_1_2
I0621 16:39:56.390477 25341 net.cpp:425] relu_j_1_2 <- bn_j_1_2
I0621 16:39:56.390485 25341 net.cpp:399] relu_j_1_2 -> relu_j_1_2
I0621 16:39:56.390815 25341 net.cpp:141] Setting up relu_j_1_2
I0621 16:39:56.390831 25341 net.cpp:148] Top shape: 100 256 8 8 (1638400)
I0621 16:39:56.390837 25341 net.cpp:156] Memory required for data: 446874800
I0621 16:39:56.390842 25341 layer_factory.hpp:77] Creating layer conv_j_1_2
I0621 16:39:56.390856 25341 net.cpp:91] Creating Layer conv_j_1_2
I0621 16:39:56.390863 25341 net.cpp:425] conv_j_1_2 <- relu_j_1_2
I0621 16:39:56.390874 25341 net.cpp:399] conv_j_1_2 -> conv_j_1_2
I0621 16:39:56.408829 25341 net.cpp:141] Setting up conv_j_1_2
I0621 16:39:56.408846 25341 net.cpp:148] Top shape: 100 256 8 8 (1638400)
I0621 16:39:56.408869 25341 net.cpp:156] Memory required for data: 453428400
I0621 16:39:56.408879 25341 layer_factory.hpp:77] Creating layer res_j
I0621 16:39:56.408893 25341 net.cpp:91] Creating Layer res_j
I0621 16:39:56.408901 25341 net.cpp:425] res_j <- elt_d_1_elt_d_1_0_split_1
I0621 16:39:56.408912 25341 net.cpp:399] res_j -> res_j
I0621 16:39:56.410730 25341 net.cpp:141] Setting up res_j
I0621 16:39:56.410747 25341 net.cpp:148] Top shape: 100 256 8 8 (1638400)
I0621 16:39:56.410768 25341 net.cpp:156] Memory required for data: 459982000
I0621 16:39:56.410778 25341 layer_factory.hpp:77] Creating layer elt_j_1
I0621 16:39:56.410787 25341 net.cpp:91] Creating Layer elt_j_1
I0621 16:39:56.410797 25341 net.cpp:425] elt_j_1 <- res_j
I0621 16:39:56.410804 25341 net.cpp:425] elt_j_1 <- conv_j_1_2
I0621 16:39:56.410811 25341 net.cpp:399] elt_j_1 -> elt_j_1
I0621 16:39:56.410845 25341 net.cpp:141] Setting up elt_j_1
I0621 16:39:56.410856 25341 net.cpp:148] Top shape: 100 256 8 8 (1638400)
I0621 16:39:56.410862 25341 net.cpp:156] Memory required for data: 466535600
I0621 16:39:56.410867 25341 layer_factory.hpp:77] Creating layer bn_m_1_1
I0621 16:39:56.410877 25341 net.cpp:91] Creating Layer bn_m_1_1
I0621 16:39:56.410884 25341 net.cpp:425] bn_m_1_1 <- elt_j_1
I0621 16:39:56.410893 25341 net.cpp:399] bn_m_1_1 -> bn_m_1_1
I0621 16:39:56.411108 25341 net.cpp:141] Setting up bn_m_1_1
I0621 16:39:56.411120 25341 net.cpp:148] Top shape: 100 256 8 8 (1638400)
I0621 16:39:56.411126 25341 net.cpp:156] Memory required for data: 473089200
I0621 16:39:56.411136 25341 layer_factory.hpp:77] Creating layer relu_m_1_1
I0621 16:39:56.411145 25341 net.cpp:91] Creating Layer relu_m_1_1
I0621 16:39:56.411151 25341 net.cpp:425] relu_m_1_1 <- bn_m_1_1
I0621 16:39:56.411159 25341 net.cpp:399] relu_m_1_1 -> relu_m_1_1
I0621 16:39:56.411465 25341 net.cpp:141] Setting up relu_m_1_1
I0621 16:39:56.411480 25341 net.cpp:148] Top shape: 100 256 8 8 (1638400)
I0621 16:39:56.411487 25341 net.cpp:156] Memory required for data: 479642800
I0621 16:39:56.411492 25341 layer_factory.hpp:77] Creating layer gap
I0621 16:39:56.411505 25341 net.cpp:91] Creating Layer gap
I0621 16:39:56.411512 25341 net.cpp:425] gap <- relu_m_1_1
I0621 16:39:56.411540 25341 net.cpp:399] gap -> gap
I0621 16:39:56.411737 25341 net.cpp:141] Setting up gap
I0621 16:39:56.411752 25341 net.cpp:148] Top shape: 100 256 1 1 (25600)
I0621 16:39:56.411758 25341 net.cpp:156] Memory required for data: 479745200
I0621 16:39:56.411764 25341 layer_factory.hpp:77] Creating layer ip1
I0621 16:39:56.411772 25341 net.cpp:91] Creating Layer ip1
I0621 16:39:56.411779 25341 net.cpp:425] ip1 <- gap
I0621 16:39:56.411789 25341 net.cpp:399] ip1 -> ip1
I0621 16:39:56.411988 25341 net.cpp:141] Setting up ip1
I0621 16:39:56.412000 25341 net.cpp:148] Top shape: 100 10 (1000)
I0621 16:39:56.412005 25341 net.cpp:156] Memory required for data: 479749200
I0621 16:39:56.412014 25341 layer_factory.hpp:77] Creating layer ip1_ip1_0_split
I0621 16:39:56.412024 25341 net.cpp:91] Creating Layer ip1_ip1_0_split
I0621 16:39:56.412030 25341 net.cpp:425] ip1_ip1_0_split <- ip1
I0621 16:39:56.412037 25341 net.cpp:399] ip1_ip1_0_split -> ip1_ip1_0_split_0
I0621 16:39:56.412046 25341 net.cpp:399] ip1_ip1_0_split -> ip1_ip1_0_split_1
I0621 16:39:56.412094 25341 net.cpp:141] Setting up ip1_ip1_0_split
I0621 16:39:56.412106 25341 net.cpp:148] Top shape: 100 10 (1000)
I0621 16:39:56.412111 25341 net.cpp:148] Top shape: 100 10 (1000)
I0621 16:39:56.412117 25341 net.cpp:156] Memory required for data: 479757200
I0621 16:39:56.412122 25341 layer_factory.hpp:77] Creating layer accuracy
I0621 16:39:56.412132 25341 net.cpp:91] Creating Layer accuracy
I0621 16:39:56.412138 25341 net.cpp:425] accuracy <- ip1_ip1_0_split_0
I0621 16:39:56.412144 25341 net.cpp:425] accuracy <- label_resnet_1_split_0
I0621 16:39:56.412152 25341 net.cpp:399] accuracy -> accuracy
…
